simple2transformer/param/net_param/la01_actor_net.model (torch, 111487 bytes, 34 tensors)

transformer_encoder.encoder.attention.fc_Q.weight f4 [20, 20]
-0.11566058 -0.19866386 -0.01747498 0.01689154 -0.10851506 0.11595908 -0.020264506 -0.20469236
0.02241312 -0.025482878 0.07062316 0.14044785 0.018267408 -0.2074294 -0.20094772 -0.16747247
-0.12472815 0.14467138 0.14967242 0.18394941 -0.014818549 -0.118971094 -0.1950253 0.00034669042
0.21646702 -0.056156263 -0.041013062 0.107039094 -0.18839426 0.1008091 -0.15062484 -0.026771396
0.031227618 -0.09749158 0.18803573 0.10129437 -0.12129275 -0.049935013 -0.17080492 0.05618435
0.06853634 0.13529333 -0.07321438 -0.023726508 -0.2023313 0.1426875 -0.13637573 0.012875378
-0.18580551 0.105193526 0.13949767 0.17783806 -0.21711536 -0.09099734 -0.08223091 0.052930564
-0.13699362 -0.21261954 -0.05237834 -0.105035275 -0.21679984 0.06511101 -0.14169958 0.0075240284
-0.046669066 0.036085397 0.19024044 0.035654157 0.12701365 0.098051995 0.099663585 -0.0042839646
0.2135498 -0.1145515 0.21889573 0.06351662 -0.19830555 0.15566242 0.10819003 0.21391931
-0.22157958 0.16514692 0.19206497 -0.2215266 -0.06593779 -0.18367082 -0.094699964 -0.09425034
-0.11489419 0.21103024 -0.21474625 -0.12821063 0.039601862 0.123007834 -0.18605503 -0.19969928
0.17586765 -0.09752135 -0.16530517 0.18063122 -0.12446161 -0.028768599 0.18307894 -0.0037415177
0.21427137 -0.21547884 -0.057758257 0.06906229 -0.034976408 -0.14484403 0.20872709 0.21033671
0.051293284 0.21481821 -0.19879362 0.10487011 0.056255996 0.12526363 -0.16553685 -0.081853956
-0.035983577 -0.0881062 0.15010452 0.1849648 -0.021389633 0.2165893 0.0036357194 -0.06454235
0.15183064 -0.199748 0.06909859 -0.058343366 -0.15499522 0.20596859 0.09834319 0.21155012
-0.08391702 -0.1849441 0.07511309 0.04318756 -0.09869805 0.17756519 0.07576224 -0.057700902
0.20711377 0.07426259 0.03790149 0.19910663 -0.12099804 0.1494014 0.057748526 0.037817
-0.038330853 -0.18912405 -0.19873914 -0.20179802 -0.19524497 -0.05506201 0.008480474 0.03334683
0.03530532 -0.033698425 -0.1654338 -0.13076682 0.061032593 -0.16258216 -0.053049564 0.17193675
0.12697563 -0.15372664 -0.09453502 -0.07832825 0.21347299 -0.10152876 -0.041119695 0.09441674
0.092494935 -0.2197928 -0.101788685 -0.12002824 0.13549384 0.12114146 0.178487 0.006648138
-0.015040979 0.14002663 0.16305009 -0.0076900423 0.105617344 0.055046707 -0.060205653 -0.16047361
-0.05158542 0.07629809 -0.17352547 0.16802788 0.08478561 0.14541048 0.00403668 -0.119594656
0.20343202 0.06165725 0.03389731 0.11921841 0.06860381 0.16259563 0.19651219 -0.21281557
-0.06369059 0.2096014 0.053759784 0.21475413 0.09590465 -0.06188582 0.19234163 0.15309963
0.16981402 -0.1454643 -0.023904786 -0.15179205 -0.13387486 0.13322657 -0.09111436 -0.17452338
-0.1996467 0.10286477 -0.19930582 -0.09703997 -0.13998547 0.17735901 0.14494315 0.12572587
0.07911718 -0.17594308 0.16487807 0.16511947 -0.1519748 0.2091423 0.084968776 -0.13846031
-0.19345264 -0.21593331 -0.22003508 0.10543549 -0.09192833 0.1675505 -0.20026624 -0.15461966
-0.0899933 -0.09423624 -0.02329889 0.1358583 0.13332626 -0.07963058 0.066770196 0.006377712
00000000: 74df ecbd 8a6e 4bbe b027 8fbc 2060 8a3c
00000010: 253d debd f47b ed3d c001 a6bc e09a 51be
00000020: b89b b73c 78c1 d0bc e0a2 903d 90d1 0f3e
00000030: 88a5 953c 5f68 54be 3dc5 4dbe e77d 2bbe
00000040: 7971 ffbd bc24 143e ba43 193e 3c5d 3c3e
00000050: 80c9 72bc 1ea7 f3bd b6b4 47be 00c4 b539
00000060: 88a9 5d3e 1c04 66bd 50fd 27bd 5037 db3d
00000070: 6dea 40be 0075 ce3d 663d 1abe b04f dbbc
00000080: 10d1 ff3c aaa9 c7bd 708c 403e 6c73 cf3d
00000090: 5568 f8bd a888 4cbd 7ce7 2ebe 9021 663d
000000a0: c85c 8c3d 568a 0a3e 6cf1 95bd 185e c2bc
000000b0: f02f 4fbe ac1c 123e 14a6 0bbe 40f3 523c
000000c0: cd43 3ebe b46f d73d 7ad8 0e3e 2e1b 363e
000000d0: 7d53 5ebe d05c babd ae68 a8bd b8cd 583d
000000e0: 0e48 0cbe f0b8 59be ac8a 56bd bc1c d7bd
000000f0: c700 5ebe ec58 853d b219 11be 208c f63b
00000100: 1028 3fbd 48ce 133d 64ce 423e 180a 123d
00000110: de0f 023e 7ccf c83d 6c1c cc3d 8060 8cbb
00000120: ccac 5a3e fa99 eabd 3426 603e 0015 823d
00000130: 9c10 4bbe f865 1f3e bc92 dd3d aa0d 5b3e
00000140: c2e5 62be 461c 293e aeac 443e ded7 62be
00000150: 640a 87bd 3414 3cbe 0ef2 c1bd 5206 c1bd
00000160: a54d ebbd 5018 583e 71e6 5bbe a649 03be
00000170: 9035 223d 88eb fb3d 3685 3ebe f87d 4cbe
00000180: a616 343e 46b9 c7bd c245 29be 64f7 383e
00000190: bbe5 febd 20ac ebbc 0c79 3b3e 4034 75bb
000001a0: f469 5b3e 7ca6 5cbe ec93 6cbd 8870 8d3d
000001b0: 6c43 0fbd fe51 14be 8ebc 553e 8262 573e
000001c0: e818 523d 4ef9 5b3e 8e90 4bbe 24c6 d63d
000001d0: b06c 663d 1c45 003e 7e82 29be 0ca3 a7bd
000001e0: 8463 13bd 0671 b4bd 00b5 193e 6a67 3d3e
000001f0: 5039 afbc 96c9 5d3e 4045 6e3b c82e 84bd
00000200: 7e79 1b3e bd8a 4cbe 9083 8d3d 74f9 6ebd
00000210: 11b7 1ebe 6ee9 523e 2868 c93d 98a0 583e
00000220: b0dc abbd fc61 3dbe e4d4 993d 70e5 303d
00000230: 3422 cabd a6d3 353e 3c29 9b3d c857 6cbd
00000240: a215 543e fc16 983d 983e 1b3d 9ce2 4b3e
00000250: d2cd f7bd aefc 183e b889 6c3d 00e6 1a3d
00000260: d000 1dbd bca9 41be 4682 4bbe 24a4 4ebe
00000270: 4cee 47be b488 61bd b0f1 0a3c b096 083d
00000280: 509c 103d 5c07 0abd 7a67 29be bde7 05be
00000290: 50fd 793d f07b 26be 804a 59bd 3010 303e
000002a0: e605 023e 846a 1dbe 949b c1bd 906a a0bd
000002b0: aa98 5a3e 4fee cfbd 206d 28bd 905d c13d
000002c0: fc6d bd3d 5d11 61be 9676 d0bd 5ed1 f5bd
000002d0: e6be 0a3e 0419 f83d 4cc5 363e a0d8 d93b
000002e0: 706e 76bc 2463 0f3e 9af6 263e c0fc fbbb
000002f0: e84d d83d a878 613d 349a 76bd 3253 24be
00000300: 3c4b 53bd 2c42 9c3d a9b0 31be 800f 2c3e
00000310: 14a4 ad3d 7ce6 143e 2046 843b 0bee f4bd
00000320: 7c50 503e 508c 7c3d e8d7 0a3d c828 f43d
00000330: 2880 8c3d 787f 263e 7e3a 493e 53ec 59be
00000340: 3670 82bd c0a1 563e 3833 5c3d 82e8 5b3e
00000350: a869 c43d fc7b 7dbd 34f5 443e 26c6 1c3e
00000360: bae3 2d3e 98f4 14be f8d3 c3bc 606f 1bbe
00000370: 7e16 09be 8c6c 083e 2a9a babd 42b6 32be
00000380: 2f70 4cbe c4aa d23d d316 4cbe e4bc c6bd
00000390: 5a58 0fbe 9a9d 353e fa6b 143e 48be 003e
000003a0: 3008 a23d 6c2a 34be ccd5 283e 1415 293e
000003b0: 489f 1bbe 6629 563e 1c04 ae3d 8ac8 0dbe
000003c0: 7318 46be 9f1d 5dbe e050 61be 90ee d73d
000003d0: ec44 bcbd 5c92 2b3e 9812 4dbe 9e54 1ebe
000003e0: 684e b8bd eefe c0bd 50dd bebc 701e 0b3e
000003f0: ae86 083e 5c15 a3bd d0be 883d 20fc d03b

transformer_encoder.encoder.attention.fc_Q.bias f4 [20]
-0.10051506 -0.089004785 0.15618145 0.024541229 -0.060744107 -0.1504147 0.106401265 -0.19288066
-0.1683603 0.17173299 -0.08799823 -0.0826066 -0.106177755 0.1414823 0.089476526 -0.05873081
0.053691983 0.09400034 -0.18223654 -0.18315817
00000000: d7da cdbd 2448 b6bd 08ee 1f3e b00a c93c
00000010: d0ce 78bd 5006 1abe e8e8 d93d 8282 45be
00000020: a466 2cbe c6da 2f3e 6a38 b4bd a62d a9bd
00000030: b973 d9bd bce0 103e 783f b73d b88f 70bd
00000040: 20ec 5b3d 4083 c03d 379c 3abe d18d 3bbe

transformer_encoder.encoder.attention.fc_K.weight f4 [20, 20]
0.11167991 0.22070566 -0.030988991 0.16652262 0.14185321 0.12641174 0.058676332 0.037396967
0.07411644 0.105541825 -0.20214677 0.18326342 0.07368812 0.08953273 -0.01002951 -0.017958477
0.094008625 0.10493347 -0.18582144 0.20305282 0.011309952 0.116099596 -0.15307385 0.0131818205
-0.040527493 0.21696544 -0.005422011 -0.110530786 0.05208546 0.070599675 0.09586421 0.061454505
-0.0024339408 -0.17673385 -0.22351694 -0.19658849 -0.071312815 -0.13659519 0.07430923 -0.10959735
0.22115523 0.0522438 -0.09909938 -0.058809146 0.06743705 0.20300415 -0.22301146 0.1812416
-0.010316595 0.22016478 -0.16519105 -0.20609172 -0.1536919 -0.030677736 0.14745793 0.21362564
0.029184937 0.068246335 0.04044196 0.12561116 -0.05037898 -0.018636867 -0.14072905 -0.09631413
0.060192406 0.20846474 0.19019148 -0.2134977 -0.21557645 0.16786575 -0.19600973 0.0013481528
-0.0075185597 -0.13617763 -0.08862384 0.04724121 -0.018158719 0.023520246 -0.08371389 0.19246784
-0.13763615 0.1483047 0.15565422 -0.06673534 0.12801668 0.08758944 0.1691013 -0.0729541
0.21230203 -0.021850646 -0.21697576 -0.03543839 -0.13189685 0.03430012 -0.012044519 0.080277145
-0.01633805 -0.21984065 0.17201686 0.21523109 -0.023703352 0.20716995 -0.031758443 -0.139144
0.036881983 -0.11960396 -0.07257199 0.18041602 0.21522644 -0.16804197 0.22320148 -0.1801482
0.00515911 -0.20913011 0.042832732 0.016972065 0.008918673 0.21048859 -0.19981328 0.0776906
-0.03421867 -0.061490268 0.21271026 0.032496244 0.034757465 0.21358293 -0.09597272 0.08219355
-0.07650682 -0.22083348 -0.032224476 -0.19727385 -0.0053881854 -0.12515637 0.17294899 0.09140876
-0.09988736 0.11309713 0.052402973 -0.19398078 -0.05315517 -0.17596014 0.090747684 0.0481264
-0.10163386 -0.042308465 0.13883153 0.031935245 -0.14671287 -0.07411565 -0.020184994 -0.026607275
-0.17654617 -0.0047503114 0.2014142 0.074581444 0.21436271 0.1264635 0.11638859 0.17053264
0.21125636 -0.19052035 0.03703779 0.052226186 -0.1595097 0.17699105 0.12998277 -0.18953511
-0.05168517 0.1113337 0.15221107 -0.1911572 -0.17896129 -0.06741227 -0.115797825 -0.045271277
0.033880293 -0.15213162 0.0387834 -0.17800964 0.19076532 0.06038612 -0.11351847 0.08871117
0.18249029 -0.14844109 -0.026966363 0.06282243 0.045594096 -0.117246956 0.20062688 0.10604259
-0.17886233 -0.14415583 -0.20076913 0.18539596 -0.16397725 -0.039041907 0.15475285 -0.11034646
0.045427293 0.16175827 0.017113373 -0.083363116 -0.10622581 -0.04824996 0.0020691156 0.074673295
-0.21408448 0.14613372 0.031754255 -0.063185245 0.16048813 0.1793617 0.12544739 -0.098444685
-0.056307033 0.12701204 0.08013025 0.052407056 0.13022828 0.14475155 0.13343114 0.17898953
0.119900525 -0.10994862 -0.13680202 -0.12324871 0.19114882 -0.0006175339 -0.13424593 0.036282837
-0.0010740012 0.06924611 -0.043096736 -0.0559825 0.15214896 0.15580902 -0.119945824 -0.16331887
-0.1555978 -0.0020477474 -0.21796323 0.14489126 0.04370129 0.12541145 -0.0784269 0.03324458
0.05920261 -0.20599635 0.13856304 -0.21754794 -0.20639136 -0.21623254 -0.024798557 0.21914291
00000000: 70b8 e43d aa00 623e a0dc fdbc e884 2a3e
00000010: f841 113e 1472 013e 9856 703d 902d 193d
00000020: 5cca 973d 5026 d83d 90ff 4ebe 68a9 3b3e
00000030: cce9 963d f05c b73d d052 24bc a81d 93bc
00000040: 9887 c03d 5ce7 d63d fa47 3ebe 14ed 4f3e
00000050: 604d 393c a0c5 ed3d 64bf 1cbe 90f8 573c
00000060: 2800 26bd 302c 5e3e 20ab b1bb f75d e2bd
00000070: 9057 553d 9096 903d 7454 c43d b8b7 7b3d
00000080: c082 1fbb b8f9 34be a0e1 64be 7e4e 49be
00000090: 740c 92bd 9cdf 0bbe 702f 983d 9374 e0bd
000000a0: 8476 623e 98fd 553d 9ef4 cabd dce1 70bd
000000b0: 701c 8a3d 52e0 4f3e 1e5d 64be 6697 393e
000000c0: f006 29bc e072 613e d827 29be b509 53be
000000d0: 6961 1dbe e04f fbbc 36ff 163e aec0 5a3e
000000e0: 4015 ef3c bcc4 8b3d 78a6 253d 36a0 003e
000000f0: 305a 4ebd 58ac 98bc 471b 10be 5840 c5bd
00000100: 508c 763d c877 553e 8ec1 423e 249f 5abe
00000110: 13c0 5cbe 00e5 2b3e c6b6 48be 80b4 b03a
00000120: 405e f6bb 2672 0bbe 6a80 b5bd 0080 413d
00000130: 98c1 94bc 88ad c03c 3072 abbd 4a16 453e
00000140: 7ef0 0cbe 30dd 173e d263 1f3e 8aac 88bd
00000150: ce16 033e 1862 b33d e428 2d3e f668 95bd
00000160: b465 593e 2000 b3bc e52e 5ebe d827 11bd
00000170: f80f 07be 487e 0c3d 6056 45bc 5868 a43d
00000180: 60d7 85bc e81d 61be 3025 303e 8a65 5c3e
00000190: 882d c2bc 5c24 543e 2415 02bd c47b 0ebe
000001a0: 9011 173d ecf2 f4bd a0a0 94bd fabe 383e
000001b0: 5264 5c3e 3213 2cbe ee8e 643e c578 38be
000001c0: c00d a93b 3426 56be 6071 2f3d 0009 8b3c
000001d0: a01f 123c 528a 573e da9b 4cbe 401c 9f3d
000001e0: e028 0cbd 38dd 7bbd b8d0 593e c81a 053d
000001f0: d85d 0e3d 7cb5 5a3e 588d c4bd 1855 a83d
00000200: 9caf 9cbd 2c22 62be d0fd 03bd 2802 4abe
00000210: 608f b0bb fe28 00be 8a19 313e 8434 bb3d
00000220: bf91 ccbd 789f e73d 80a4 563d e6a2 46be
00000230: 3cb9 59bd e52e 34be ecd9 b93d 3020 453d
00000240: 6a25 d0bd a44b 2dbd da29 0e3e 88ce 023d
00000250: e63b 16be f2c9 97bd 005b a5bc 80f7 d9bc
00000260: 85c8 34be 80a8 9bbb 863f 4e3e 28be 983d
00000270: e681 5b3e a67f 013e 245d ee3d 1ca0 2e3e
00000280: 9653 583e c417 43be f0b4 173d 20eb 553d
00000290: 8356 23be 243d 353e 341a 053e 7e15 42be
000002a0: d4b3 53bd ec02 e43d 38dd 1b3e b7be 43be
000002b0: a141 37be 720f 8abd 6927 edbd 606e 39bd
000002c0: 10c6 0a3d 64c8 1bbe 58db 1e3d 2948 36be
000002d0: fc57 433e 7057 773d 5f7c e8bd 34ae b53d
000002e0: bcde 3a3e f100 18be 90e8 dcbc 0ca9 803d
000002f0: e0c0 3a3d 2c1f f0bd 2271 4d3e dc2c d93d
00000300: b027 37be 969d 13be 6c96 4dbe 70d8 3d3e
00000310: a7e9 27be 68ea 1fbd 8877 1e3e 53fd e1bd
00000320: f811 3a3d f6a3 253e 5831 8c3c 48ba aabd
00000330: eb8c d9bd c0a1 45bd 009a 073b 50ee 983d
00000340: f638 5bbe 14a4 153e c010 023d 4467 81bd
00000350: 0057 243e 98aa 373e 4875 003e 5e9d c9bd
00000360: 34a2 66bd 720f 023e 541b a43d c8a8 563d
00000370: 905a 053e c039 143e 2ca2 083e 0849 373e
00000380: 688e f53d be2c e1bd d415 0cbe d269 fcbd
00000390: 84bc 433e 00e2 21ba c477 09be 509d 143d
000003a0: 80c5 8cba e8d0 8d3d 3486 30bd e84d 65bd
000003b0: f0cc 1b3e 668c 1f3e 28a6 f5bd 103d 27be
000003c0: 0855 1fbe 8033 06bb c131 5fbe 605e 143e
000003d0: 2000 333d dc6b 003e 489e a0bd 782b 083d
000003e0: 707e 723d b5f0 52be 78e3 0d3e e3c4 5ebe
000003f0: 4258 53be 106c 5dbe 5826 cbbc 0067 603e

transformer_encoder.encoder.attention.fc_K.bias f4 [20]
0.20944512 -0.04597956 -0.10204602 0.11052042 -0.22344713 0.14775342 -0.1174654 0.07188442
0.12883505 -0.13321601 0.053153694 -0.14161474 0.19708148 -0.17870605 -0.12777272 0.08573812
0.109110564 0.0647631 0.22154164 -0.06281459
00000000: c878 563e 1055 3cbd 81fd d0bd 8858 e23d
00000010: 53cf 64be ac4c 173e b391 f0bd 2438 933d
00000020: 56ed 033e c769 08be b0b7 593d 7403 11be
00000030: bacf 493e b8fe 36be dad6 02be 7897 af3d
00000040: 5c75 df3d 84a2 843d d0db 623e f0a4 80bd

transformer_encoder.encoder.attention.fc_V.weight f4 [20, 20]
0.04046032 0.042529702 -0.060984686 0.01328063 0.020586833 -0.13329197 -0.12702516 0.05628544
-0.04126382 -0.19474562 -0.031031802 0.14685363 0.12562189 0.077545226 0.18108013 -0.19140211
-0.21061881 -0.19860226 0.12208596 -0.078779906 -0.16882947 -0.079446316 0.10398632 -0.076367274
0.084524274 0.0757899 0.04216996 0.09713405 0.12289229 0.034338057 -0.04365699 0.17424145
0.049371928 -0.050921932 -0.21515809 0.034097046 0.08404553 -0.06843959 0.21020019 -0.1575304
-0.07982938 -0.117737025 0.13862985 0.1663461 -0.041347116 0.008855581 0.07082346 -0.10573908
0.06567752 0.06757733 0.03937769 -0.010787368 -0.0554602 0.080142796 0.17196879 0.07706529
-0.18792492 -0.02330777 0.06695947 0.10747358 -0.049845725 0.024126932 -0.090639174 0.12786096
0.14257807 -0.03834437 -0.18432269 0.18969136 0.061191976 -0.1524994 -0.09286627 -0.037914336
-0.014837474 -0.06928161 -0.1540949 -0.22313964 0.009311423 -0.03662452 -0.20606181 0.008875921
-0.048443288 0.06741199 0.09627551 0.09391996 0.19798288 -0.1111635 -0.12531143 -0.07677956
0.17731914 0.16623366 -0.20829444 -0.21370478 0.17512912 -0.017593816 0.13726088 0.10803029
0.14106637 0.0674957 -0.099320926 -0.07285711 -0.0120521635 0.1082744 -0.16256158 -0.04683754
-0.16994897 -0.0213622 0.12043849 0.018213406 -0.073172346 0.009785846 -0.07089968 0.09321037
0.12597919 0.22165588 0.09185842 -0.19300991 0.0505943 -0.11818144 0.20479366 -0.17887597
0.060654372 0.13127738 -0.08699727 -0.03266968 0.0053652376 0.0070304126 0.18574223 0.19341472
-0.11486001 -0.14381126 -0.03710425 0.17625684 -0.14901604 -0.040651903 0.00029604137 0.204231
-0.18045346 0.066484034 0.20291889 0.13894716 0.09762761 -0.2201831 0.11284128 0.0010557175
0.17327195 0.015073463 -0.2029341 -0.20537521 0.20061767 -0.034780145 0.16068333 0.08045536
-0.1804216 -0.045442596 0.14395499 -0.055266187 0.11232558 -0.11157309 0.06254184 0.092754036
0.19549218 -0.16649891 -0.18778294 0.008219779 -0.12832773 -0.006538555 0.07662633 -0.16356075
0.14623418 0.15103063 0.05894184 -0.2223858 0.14026004 -0.20592773 0.13982081 -0.12412516
0.06505066 -0.064813554 -0.029852763 -0.08337809 -0.15265568 0.15661874 -0.20486866 0.029703587
-0.050650567 -0.044714525 -0.14553678 -0.023841873 0.16441926 -0.11608691 0.17191803 -0.17087862
-0.05759318 0.07688689 0.1639503 -0.053970575 -0.22037183 -0.19668095 -0.09356995 0.10417637
-0.11336352 0.08046958 -0.13712351 -0.1743891 -0.15942016 -0.16197929 0.19808039 0.14478701
-0.031864434 -0.011776671 0.020085678 -0.041941732 -0.052775726 0.16236684 0.20305547 0.060712904
0.15016815 -0.16187271 0.054270506 0.027815253 0.17008072 -0.119131 -0.19032997 -0.025299057
0.16628739 -0.05810845 0.02657327 -0.12324485 -0.15173802 -0.16410184 0.20737445 0.17899492
0.20964244 0.13442478 -0.05978082 0.21701038 -0.20533335 -0.13253962 -0.12220217 0.16009837
0.06683621 -0.16395903 0.0862124 -0.11566036 0.21537459 0.019241646 -0.081030846 -0.0928566
0.05452311 0.11437172 0.1694063 -0.036137044 0.06475091 0.15485284 0.028174609 0.08323291
00000000: b8b9 253d a033 2e3d 14cb 79bd 0097 593c
00000010: b8a5 a83c b17d 08be e212 02be 908b 663d
00000020: 4004 29bd 656b 47be 6836 febc cc60 163e
00000030: 06a3 003e 08d0 9e3d 126d 393e eafe 43be
00000040: 75ac 57be 645e 4bbe 3408 fa3d 5c57 a1bd
00000050: a2e1 2cbe c0b4 a2bd c8f6 d43d 7266 9cbd
00000060: 101b ad3d bc37 9b3d 68ba 2c3d 38ee c63d
00000070: f4ae fb3d 10a6 0c3d acd1 32bd 5a6c 323e
00000080: 383a 4a3d 8493 50bd 6752 5cbe 58a9 0b3d
00000090: 1020 ac3d 0e2a 8cbd b83e 573e a64f 21be
000000a0: 967d a3bd 1c20 f1bd fcf4 0d3e a256 2a3e
000000b0: 985b 29bd 0017 113c e40b 913d bb8d d8bd
000000c0: f081 863d fc65 8a3d 804a 213d 80bd 30bc
000000d0: 3c2a 63bd e821 a43d 9618 303e 68d4 9d3d
000000e0: 646f 40be f0ef bebc 0c22 893d 1c1b dc3d
000000f0: 082b 4cbd d8a5 c53c 08a1 b9bd fced 023e
00000100: fcff 113e fc0e 1dbd 16bf 3cbe 743e 423e
00000110: 70a4 7a3d cd28 1cbe ac30 bebd 104c 1bbd
00000120: e018 73bc 84e3 8dbd 0ecb 1dbe b87e 64be
00000130: f08e 183c 9803 16bd de01 53be 506c 113c
00000140: 786c 46bd 4c0f 8a3d 182c c53d 1c59 c03d
00000150: 06bc 4a3e b0a9 e3bd a451 00be 9a3e 9dbd
00000160: 2693 353e 2839 2a3e 234b 55be 6dd5 5abe
00000170: 0c55 333e e820 90bc 1e8e 0c3e fc3e dd3d
00000180: b473 103e 303b 8a3d c568 cbbd 1c36 95bd
00000190: 7076 45bc f8be dd3d 8b76 26be b8d8 3fbd
000001a0: 1a07 2ebe c8ff aebc 74a8 f63d 4834 953c
000001b0: 62db 95bd d054 203c da33 91bd 14e5 be3d
000001c0: b000 013e c2f9 623e 4420 bc3d 64a4 45be
000001d0: f83b 4f3d 1c09 f2bd 6eb5 513e 432b 37be
000001e0: b870 783d 946d 063e a02b b2bd a4d0 05bd
000001f0: e0ce af3b 605f e63b 3633 3e3e 820e 463e
00000200: ba3b ebbd 4243 13be a0fa 17bd ac7c 343e
00000210: a997 18be 9c82 26bd 0036 9b39 ee21 513e
00000220: cbc8 38be c828 883d f8c9 4f3e 2a48 0e3e
00000230: fcf0 c73d ae77 61be 5419 e73d 0060 8a3a
00000240: 346e 313e b0f6 763c f5cd 4fbe e14d 52be
00000250: b86e 4d3e a075 0ebd 2c8a 243e c8c5 a43d
00000260: 71c0 38be 0422 3abd f068 133e cc5e 62bd
00000270: f40a e63d 6f80 e4bd f015 803d d4f5 bd3d
00000280: 1a2f 483e b17e 2abe 2c4a 40be 40ac 063c
00000290: 5868 03be 6041 d6bb 44ee 9c3d 787c 27be
000002a0: 6abe 153e c6a7 1a3e 006d 713d 1ab9 63be
000002b0: 54a0 0f3e b8de 52be 302d 0f3e 5535 febd
000002c0: 4839 853d f8bc 84bd c88d f4bc 22c2 aabd
000002d0: c551 1cbe aa60 203e 17c9 51be f054 f33c
000002e0: f876 4fbd 9426 37bd 9807 15be 0850 c3bc
000002f0: 865d 283e f9be edbd 480b 303e cefa 2ebe
00000300: d4e6 6bbd e076 9d3d 96e2 273e 4010 5dbd
00000310: 27a9 61be bb66 49be 9aa1 bfbd 6c5a d53d
00000320: 222b e8bd 3ccd a43d 1b6a 0cbe 0e93 32be
00000330: 0a3f 23be e6dd 25be 96d5 4a3e 0c43 143e
00000340: 4884 02bd f0f2 40bc b88a a43c 18cb 2bbd
00000350: 5c2b 58bd 7e43 263e c6ed 4f3e 18ae 783d
00000360: aec5 193e f6c1 25be c04a 5e3d d0dc e33c
00000370: a429 2e3e f4fa f3bd dce5 42be f83f cfbc
00000380: 3e47 2a3e 2003 6ebd 30b0 d93c cc67 fcbd
00000390: 3661 1bbe 500a 28be f859 543e 724a 373e
000003a0: 82ac 563e a6a6 093e bcdc 74bd f837 5e3e
000003b0: e842 52be 77b8 07be 2245 fabd d4f0 233e
000003c0: 6ce1 883d e0e4 27be 2090 b03d 57df ecbd
000003d0: 288b 5c3e a8a0 9d3c 80f3 a5bd 9a2b bebd
000003e0: a053 5f3d b83b ea3d d878 2d3e 7004 14bd
000003f0: 209c 843d be91 1e3e 70ce e63c 0476 aa3d

transformer_encoder.encoder.attention.fc_V.bias f4 [20]
0.10083327 -0.026292548 0.0255083 0.037795424 0.21677238 0.13275522 0.13102365 -0.002094254
-0.13104735 -0.20856804 -0.19205794 -0.14933418 -0.027185768 0.16120672 0.20321825 0.017902821
0.11728883 -0.012153432 -0.22066872 0.14270574
00000000: ac81 ce3d 7863 d7bc c8f6 d03c 60cf 1a3d
00000010: 94f9 5d3e fcf0 073e 102b 063e c03f 09bb
00000020: 4731 06be dc92 55be d6aa 44be 0feb 18be
00000030: b0b4 debc 6013 253e 7218 503e f0a8 923c
00000040: 2035 f03d 301f 47bc fbf6 61be 7421 123e

transformer_encoder.encoder.attention.fc.weight f4 [20, 20]
-0.16356304 0.056086212 -0.20410103 -0.1127158 0.0012944639 0.1591211 -0.15792832 -0.0587274
-0.09483765 -0.13003713 0.1164006 -0.002778545 -0.07683885 0.15183592 -0.06728056 0.03794557
0.02928567 0.13099006 0.096260786 -0.16767047 -0.13009486 -0.20051509 0.0683853 0.11488891
0.022693276 0.12958938 0.063378096 -0.21254823 0.024512038 -0.0013874173 -0.058063745 0.14723065
-0.18236321 0.057100415 -0.07910061 0.12377858 0.03381148 -0.19736926 0.118334115 -0.21641332
0.14165482 -0.1402574 -0.15054289 0.13135338 -0.03364542 0.14143795 -0.055380702 -0.106329374
-0.062958956 0.014069021 0.047137886 -0.06304146 0.20650089 -0.09759468 -0.10990184 -0.099833734
-0.20077233 -0.05314587 -0.15530576 -0.085795924 -0.06949648 -0.116085365 -0.015758544 0.06067705
-0.07182504 0.032143265 -0.08682619 0.001777187 0.12038788 -0.052466214 0.051288396 0.15764105
-0.048259825 0.18235329 -0.19972749 -0.13338807 -0.09287073 -0.056686297 -0.1869018 0.070661664
0.16790715 0.10750201 0.039824396 0.14270517 0.022865146 0.15653157 0.015405521 0.14078996
-0.20510192 -0.03693281 -0.20054615 -0.07442565 0.025131717 0.110782325 -0.19221441 0.02375725
0.05183038 0.15588167 0.096704274 0.15351102 -0.05767803 -0.13362312 0.08593783 -0.0331697
0.14633054 -0.21443023 -0.17501977 0.110419035 0.040210783 -0.03697233 -0.18962719 -0.013212532
0.07290968 -0.03611529 0.11038926 0.02870801 -0.10984818 0.0722495 -0.20776959 -0.21016313
0.22137177 -0.098325536 0.20437086 0.08207619 -0.09197977 -0.070465416 -0.18259645 0.020691961
-0.014091402 -0.0913517 0.003845796 -0.07218327 -0.08841334 0.020444632 -0.19010973 0.13367358
-0.15172221 0.010802448 -0.055178896 -0.0553191 -0.19598776 0.22144082 0.16739038 -0.11186388
-0.15149441 -0.1848837 0.059721857 0.14820656 0.04937029 0.09158 0.07332829 0.05546871
-0.09453094 0.023291945 0.12958962 0.12747917 0.060308844 0.18965715 0.018617406 -0.116026185
0.1818971 -0.22329903 -0.0076746047 0.13006786 -0.18251368 -0.11167908 0.030379206 -0.0718212
0.20506969 -0.1179153 0.20361239 0.15375113 -0.21139003 -0.13368587 0.15707266 0.09263995
-0.17893517 0.19404224 -0.10558468 -0.051998615 -0.103994094 -0.0991822 -0.049251616 -0.04400648
-0.14445478 -0.13218158 0.09478834 -0.19861308 -0.19552107 0.091325045 0.15021956 0.1316132
0.12223244 -0.12083645 -0.055554286 -0.030192941 -0.22205056 0.16258526 0.09808928 0.13856164
0.1889362 -0.14377283 0.0047317296 0.054570794 -0.06863837 -0.0033647567 -0.16144997 -0.084038496
0.1119768 0.05809951 0.1945017 -0.15164739 -0.18493831 -0.0040560067 -0.13726297 -0.008224443
-0.122941345 0.17965636 -0.046047956 0.21095592 0.073162794 0.1719968 0.061765313 0.187796
-0.05972098 0.1956721 0.109627455 -0.060427353 -0.10072511 -0.02541253 -0.03850065 0.19924018
-0.20697716 0.06615159 -0.027209789 -0.062588975 0.10279381 -0.03994651 -0.051810116 0.074480176
-0.13920611 0.10109836 -0.18302377 -0.13840508 -0.12898678 -0.082623124 0.09521955 -0.20834738
0.19849125 -0.041343167 0.0049247295 -0.07832849 0.14423457 -0.13528968 0.16107324 0.22072601
00000000: 127d 27be a8ba 653d dcff 50be 8bd7 e6bd
00000010: 00ab a93a a4f0 223e f6b7 21be 248c 70bd
00000020: 3e3a c2bd 7428 05be 7063 ee3d 4018 36bb
00000030: b05d 9dbd e07a 1b3e 64ca 89bd d06c 1b3d
00000040: 80e8 ef3c 4222 063e 6024 c53d cfb1 2bbe
00000050: 9637 05be d453 4dbe 980d 8c3d e04a eb3d
00000060: 40e7 b93c 14b3 043e 60cc 813d 3ea6 59be
00000070: 78cd c83c 00da b5ba 40d4 6dbd a2c3 163e
00000080: 6cbd 3abe 20e2 693d 80ff a1bd a07f fd3d
00000090: e87d 0a3d 2b1b 4abe 2859 f23d 749b 5dbe
000000a0: f60d 113e a39f 0fbe ea27 1abe 8081 063e
000000b0: c8cf 09bd 1cd5 103e e0d6 62bd 37c3 d9bd
000000c0: a0f0 80bd c081 663c a813 413d e21b 81bd
000000d0: f874 533e b8df c7bd 3714 e1bd a175 ccbd
000000e0: 4397 4dbe 7caf 59bd 7908 1fbe c6b5 afbd
000000f0: 2c54 8ebd 2abe edbd 1018 81bc 8088 783d
00000100: 0219 93bd a8a8 033d eed1 b1bd 80f0 e83a
00000110: ec8d f63d d0e6 56bd c813 523d a86c 213e
00000120: 18ac 45bd d2ba 3a3e 5d85 4cbe e296 08be
00000130: 0233 bebd e42f 68bd 2f63 3fbe 10b7 903d
00000140: daef 2b3e 042a dc3d e81e 233d 4e21 123e
00000150: b04f bb3c d049 203e 7067 7c3c 3e2b 103e
00000160: 3d06 52be dc46 17bd f85b 4dbe 7a6c 98bd
00000170: 08e1 cd3c d8e1 e23d dbd3 44be 909e c23c
00000180: 184c 543d 729f 1f3e e40c c63d fe31 1d3e
00000190: cc3f 6cbd 80d4 08be 2c00 b03d f4dc 07bd
000001a0: acd7 153e 9993 5bbe 6238 33be 6023 e23d
000001b0: 10b4 243d 4c70 17bd a12d 42be 6079 58bc
000001c0: ac51 953d a0ed 13bd c413 e23d 102d eb3c
000001d0: 15f8 e0bd 8cf7 933d 8dc1 54be 0135 57be
000001e0: 48af 623e e65e c9bd 9846 513e 9017 a83d
000001f0: e45f bcbd 2c50 90bd 90fa 3abe 3082 a93c
00000200: a0df 66bc 9a16 bbbd c009 7c3b d2d4 93bd
00000210: 0e12 b5bd 807b a73c 20ac 42be bae1 083e
00000220: 115d 1bbe c0fc 303c 4403 62bd 4896 62bd
00000230: 04b1 48be 62c1 623e 6268 2b3e e418 e5bd
00000240: 5a21 1bbe 2752 3dbe e89e 743d 76c3 173e
00000250: 8038 4a3d 4c8e bb3d 242d 963d 2833 633d
00000260: 7099 c1bd c0ce be3c 24b3 043e e689 023e
00000270: 6806 773d 7c35 423e 8883 983c 239f edbd
00000280: 3c43 3a3e 80a8 64be 407b fbbb 8230 053e
00000290: dee4 3abe 00b8 e4bd d0dd f83c fe16 93bd
000002a0: cafd 513e 947d f1bd c47f 503e f070 1d3e
000002b0: a176 58be f3e4 08be a8d7 203e 04ba bd3d
000002c0: c83a 37be 02b3 463e c83c d8bd 80fc 54bd
000002d0: dbfa d4bd 0a20 cbbd 10bc 49bd 2440 34bd
000002e0: f4eb 13be 9c5a 07be 6420 c23d 3a61 4bbe
000002f0: ad36 48be a008 bb3d 28d3 193e 9cc5 063e
00000300: 0055 fa3d 1a79 f7bd e48c 63bd 3057 f7bc
00000310: 3961 63be c07c 263e 08e3 c83d 1ae3 0d3e
00000320: 7e78 413e 2f39 13be a00c 9b3b a085 5f3d
00000330: 4692 8cbd 4083 5cbb 2453 25be 601c acbd
00000340: 1854 e53d c0f9 6d3d 742b 473e 7449 1bbe
00000350: 7860 3dbe 40e8 84bb aa8e 0cbe d0bf 06bc
00000360: acc8 fbbd d6f7 373e c89c 3cbd d404 583e
00000370: 60d6 953d ee1f 303e a0fd 7c3d 984d 403e
00000380: fc9d 74bd 445e 483e 5c84 e03d ac82 77bd
00000390: f748 cebd f02d d0bc dcb2 1dbd 9e05 4c3e
000003a0: d2f1 53be 7c7a 873d 10e7 debc a62e 80bd
000003b0: 9085 d23d f49e 23bd d836 54bd 1089 983d
000003c0: 0c8c 0ebe a80c cf3d 956a 3bbe 10ba 0dbe
000003d0: 1c15 04be 5036 a9bd 7802 c33d 0459 55be
000003e0: 4a41 4b3e 7457 29bd a05f a13b b06a a0bd
000003f0: 3ab2 133e 6189 0abe 62f0 243e 0006 623e

transformer_encoder.encoder.attention.fc.bias f4 [20]
-0.18415564 -0.13546199 0.07351464 -0.060884297 0.13603142 -0.022448868 -0.06834437 -0.023613304
0.18875697 0.006508678 0.0069657415 -0.20826426 0.026344106 0.119327664 0.050557315 0.17863509
-0.017527655 0.08574012 0.07550579 0.14488885
00000000: 4c93 3cbe 8cb6 0abe d88e 963d d061 79bd
00000010: d24b 0b3e b0e6 b7bc 22f8 8bbd b070 c1bc
00000020: 8249 413e c046 d53b e040 e43b 3a43 55be
00000030: 98cf d73c 1062 f43d 3015 4f3d 1eec 363e
00000040: 2896 8fbc 8498 af3d c8a2 9a3d be5d 143e

transformer_encoder.encoder.attention.layer_norm.weight f4 [20]
1.0 1.0 1.0 1.0 1.0 1.0 1.0 1.0
1.0 1.0 1.0 1.0 1.0 1.0 1.0 1.0
1.0 1.0 1.0 1.0
00000000: 0000 803f 0000 803f 0000 803f 0000 803f
00000010: 0000 803f 0000 803f 0000 803f 0000 803f
00000020: 0000 803f 0000 803f 0000 803f 0000 803f
00000030: 0000 803f 0000 803f 0000 803f 0000 803f
00000040: 0000 803f 0000 803f 0000 803f 0000 803f

transformer_encoder.encoder.attention.layer_norm.bias f4 [20]
0.0 0.0 0.0 0.0 0.0 0.0 0.0 0.0
0.0 0.0 0.0 0.0 0.0 0.0 0.0 0.0
0.0 0.0 0.0 0.0
00000000: 0000 0000 0000 0000 0000 0000 0000 0000
00000010: 0000 0000 0000 0000 0000 0000 0000 0000
00000020: 0000 0000 0000 0000 0000 0000 0000 0000
00000030: 0000 0000 0000 0000 0000 0000 0000 0000
00000040: 0000 0000 0000 0000 0000 0000 0000 0000

transformer_encoder.encoder.feed_forward.fc1.weight f4 [256, 20]
-0.0015291721 0.06336263 -0.050204933 0.06690216 0.014099807 -0.12995455 -0.20713381 -0.18823092
0.08883211 0.040885717 -0.15758976 0.03319806 -0.009202853 -0.05846648 -0.06381126 -0.20280056
-0.20404768 -0.016361624 -0.04281333 0.13839296 -0.1092726 0.01904574 0.07746807 -0.06541395
0.036829054 -0.08033787 -0.05137852 -0.16215843 0.0765498 0.100447595 0.045071065 -0.18044437
0.21237233 -0.04888743 0.18437606 -0.0057215244 -0.1583803 0.18269193 -0.13224506 0.12990105
0.055411994 0.1390455 0.21799913 0.13724223 0.2174998 -0.0039669275 -0.118678994 -0.17146167
0.17019397 0.13463002 -0.15339956 0.05745375 0.092749536 0.017703936 -0.12880611 0.05740291
-0.14653333 0.15057641 -0.18231858 -0.10740854 0.008316219 0.026574701 -0.1724685 0.21422291
0.088026255 -0.12508476 -0.027668878 -0.20593885 -0.16355392 0.19046304 -0.13137032 -0.035561964
0.032532096 -0.09570317 -0.18681306 0.013325155 -0.013758585 0.19514734 -0.20763892 0.12999162
-0.108597025 0.20886862 0.03146121 0.05250624 -0.13551068 -0.084144026 -0.16232532 0.14273906
-0.2200475 -0.08398284 0.19251662 0.1981377 -0.07957317 0.036044627 0.15637249 0.09416035
-0.041663334 0.18686274 -0.1933782 -0.011157006 0.03056255 0.08093542 -0.016063422 0.13633645
0.11966187 -0.016488552 0.21700138 -0.10658759 -0.17300999 0.04689789 0.070528865 0.21192294
-9.204447e-05 0.09635681 0.02622743 0.00013536215 0.1865521 0.01651822 0.10107267 0.015705794
0.028068215 -0.014678851 0.08641112 -0.021692201 -0.0728804 -0.18762866 0.16293186 0.08011645
-0.115123294 -0.09187387 -0.14883614 0.13051519 -0.03287323 0.18774194 -0.18498275 0.10789764
-0.1930089 -0.16752365 0.16133916 -0.2050418 -0.063974395 -0.010779232 0.16363686 0.12273505
0.03900519 0.1192826 0.053783953 -0.08330929 -0.20694435 0.16026846 0.12794095 0.12123406
0.020786092 -0.14551875 -0.06924489 0.014130667 -0.028022975 -0.18988954 -0.20947441 -0.09512471
0.15915266 0.014380485 0.099603176 -0.14947334 -0.15715483 0.14244676 0.15220436 -0.07070553
0.2098796 0.06464741 0.19466451 -0.078343794 -0.018409222 0.18036854 -0.13049565 0.09618735
-0.16029823 -0.016528532 0.17963913 0.057020724 -0.08395578 0.07670295 -0.18743223 0.090237916
0.04935196 0.14812407 0.21767282 0.061347336 -0.154293 -0.051722974 0.09292102 0.15753666
-0.09158148 0.2233077 -0.20294738 -0.16426997 -0.13371064 0.04044485 0.080250084 0.011106789
0.023910016 -0.065442145 -0.019688368 0.1662088 -0.15213534 0.106882304 -0.17622532 0.014980361
-0.07842915 -0.17601879 -0.0010662377 0.16711175 -0.17016579 0.03420964 0.18867427 0.10210982
-0.07457399 -0.13934273 -0.011849418 0.14821869 0.022739887 -0.14545456 -0.12945503 0.11272511
0.20738614 -0.2008135 -0.13629076 -0.21221055 -0.17228156 0.08729833 -0.09500545 0.03996387
0.045360804 0.06190133 0.18891123 0.06892446 0.037333816 0.02619782 0.18515256 -0.096279815
-0.11203882 0.08954471 0.19413167 -0.04544905 -0.1676778 -0.12262915 -0.21811894 -0.16984153
-0.0368793 -0.119153365 -0.1894306 0.06778243 0.10311729 0.02654028 -0.055737153 -0.08783384
00000000: 806e c8ba 44c4 813d b0a3 4dbd 0004 893d
00000010: e002 673c ce12 05be e31a 54be 9bbf 40be
00000020: 9ced b53d c877 273d 365f 21be b0fa 073d
00000030: 90c7 16bc 8c7a 6fbd 7aaf 82bd f3aa 4fbe
00000040: e0f1 50be d008 86bc 085d 2fbd e2b6 0d3e
00000050: 50ca dfbd d005 9c3c 94a7 9e3d c0f7 85bd
00000060: 10da 163d 2e88 a4bd 4872 52bd dc0c 26be
00000070: 24c6 9c3d 78b7 cd3d 709c 383d 69c6 38be
00000080: 2278 593e 303e 48bd 14cd 3c3e a07b bbbb
00000090: 722e 22be 9813 3b3e 406b 07be c804 053e
000000a0: b0f7 623d f261 0e3e 2a3b 5f3e 3a89 0c3e
000000b0: 44b8 5e3e 00fd 81bb f90d f3bd a693 2fbe
000000c0: 5447 2e3e 74dc 093e c614 1dbe a054 6b3d
000000d0: 78f3 bd3d d807 913c c0e5 03be 501f 6b3d
000000e0: d50c 16be b430 1a3e b9b1 3abe 02f9 dbbd
000000f0: c040 083c 30b3 d93c 959b 30be 405d 5b3e
00000100: 1c47 b43d 3816 00be d8a9 e2bc a2e1 52be
00000110: ae7a 27be be08 433e f185 06be 6ca9 11bd
00000120: 6040 053d 0600 c4bd ec4b 3fbe c051 5a3c
00000130: b06b 61bc b4d4 473e 4c9f 54be 861c 053e
00000140: 1e68 debd a8e1 553e 78dd 003d c810 573d
00000150: 50c3 0abe b453 acbd 9c38 26be 302a 123e
00000160: 2254 61be 32ff abbd 1423 453e 9ce4 4a3e
00000170: 42f7 a2bd 88a3 133d 1c20 203e 24d7 c03d
00000180: 2ca7 2abd f258 3f3e ef04 46be e0cb 36bc
00000190: 505e fa3c 78c1 a53d 7097 83bc c89b 0b3e
000001a0: 4811 f53d 0013 87bc 9c35 5e3e 984a dabd
000001b0: 8829 31be 0018 403d 7071 903d 5402 593e
000001c0: 0008 c1b8 b856 c53d e8da d63c 00f0 0d39
000001d0: 8407 3f3e 3851 873c 30ff ce3d 70a9 803c
000001e0: 50ef e53c 907f 70bc 50f8 b03d d8b3 b1bc
000001f0: 5242 95bd ba21 40be 9cd7 263e 1814 a43d
00000200: c3c5 ebbd 5e28 bcbd 8068 18be c6a5 053e
00000210: 14a6 06bd 6c3f 403e 1e6c 3dbe 70f9 dc3d
00000220: 20a4 45be 528b 2bbe 1836 253e 7af6 51be
00000230: 0205 83bd 609b 30bc 6c90 273e 845c fb3d
00000240: e8c3 1f3d 704a f43d 904c 5c3d 109e aabd
00000250: 38e9 53be 6a1d 243e f402 033e 9049 f83d
00000260: 9847 aa3c de02 15be 44d0 8dbd 5084 673c
00000270: 7090 e5bc 6772 42be 7680 56be bed0 c2bd
00000280: eaf8 223e 209c 6b3c c0fc cb3d 8a0f 19be
00000290: 32ed 20be 90dd 113e 76db 1b3e 10ce 90bd
000002a0: aeea 563e dc65 843d 2256 473e b672 a0bd
000002b0: f0ce 96bc 88b2 383e a7a0 05be e0fd c43d
000002c0: 3825 24be d866 87bc 52f3 373e 908e 693d
000002d0: 02f1 abbd 7016 9d3d 3cee 3fbe a8ce b83d
000002e0: 4825 4a3d d6ad 173e a0e5 5e3e 5847 7b3d
000002f0: fcfe 1dbe 78db 53bd 604d be3d 4a51 213e
00000300: 128f bbbd c6aa 643e 70d1 4fbe 6336 28be
00000310: 71eb 08be 80a9 253d 285a a43d 40f9 353c
00000320: f0de c33c 8806 86bd 8049 a1bc a432 2a3e
00000330: 5ec9 1bbe 1ce5 da3d 6974 34be 3070 753c
00000340: 769f a0bd 453e 34be 00c1 8bba 581f 2b3e
00000350: f13f 2ebe 681f 0c3d d433 413e f41e d13d
00000360: 40ba 98bd dcaf 0ebe 1024 42bc a4c6 173e
00000370: 0049 ba3c 0af2 14be dc8f 04be 6cdc e63d
00000380: 085d 543e 0ea2 4dbe ce8f 0bbe b94d 59be
00000390: 946a 30be 78c9 b23d 3892 c2bd 28b1 233d
000003a0: 40cc 393d 408c 7d3d f271 413e 4428 8d3d
000003b0: 58eb 183d d09c d63c a298 3d3e 5a2e c5bd
000003c0: 9c74 e5bd 3863 b73d 74ca 463e c828 3abd
000003d0: bbb3 2bbe fe24 fbbd 925a 5fbe f0ea 2dbe
000003e0: c00e 17bd ae06 f4bd 18fa 41be 84d1 8a3d
000003f0: 282f d33d 006b d93c a44c 64bd 3ae2 b3bd

transformer_encoder.encoder.feed_forward.fc1.bias f4 [256]
-0.058546156 0.07821867 -0.1142067 0.030498773 0.08327487 0.029321998 -0.21620211 -0.16192144
0.21469715 0.08723655 -0.15474486 0.16607139 -0.16327807 -0.16792925 -0.13711141 -0.009349495
0.046351016 0.14558828 -0.028979793 -0.049212724 -0.03969319 0.20808378 -0.18146187 -0.061076403
0.11180222 0.0015886724 -0.052283227 0.00605385 -0.020853147 -0.17073506 -0.03492564 0.1823293
-0.063294694 -0.081346035 -0.13598892 0.010497317 -0.044987798 0.10713646 -0.2012648 -0.009876132
-0.0944328 -0.038095593 0.00016985834 -0.13332313 0.09630877 -0.09887849 0.13644204 -0.111827575
0.21108249 0.094632596 -0.031971216 -0.10839737 -0.19326834 -0.19720396 0.044872552 -0.092595264
-0.19809671 0.09246838 0.19010109 0.06958026 0.052248567 0.087076336 -0.0033729225 0.14707565
0.10522926 0.039058596 0.18575567 -0.083193585 0.11059016 -0.028432578 -0.15118623 0.1753479
0.11293316 0.029051572 -0.16195464 -0.11080894 0.15317774 0.04124728 0.19952849 -0.05990061
-0.218424 -0.07005039 -0.1464838 0.105813265 -0.17568271 0.0400784 0.21923187 -0.20945458
0.12357795 0.060070127 -0.054449454 0.011967719 0.12713262 -0.22088951 -0.101160295 -0.052765727
0.019609645 0.1603221 -0.21440752 -0.14955112 0.02977416 0.16442099 0.04255438 -0.12559737
-0.11385996 0.11615178 0.024224415 -0.17350176 0.14188913 0.20611012 0.10303342 -0.21501045
-0.104759574 0.22196499 -0.024053529 0.09834552 0.16830543 0.2155016 -0.17303152 0.054703236
-0.03660296 -0.115333535 0.0015791506 0.100812435 0.12920192 -0.026501745 0.072722256 -0.08652322
0.07502705 -0.21767229 -0.10941659 -0.07574619 0.10937959 -0.18977307 0.09528041 0.11715764
-0.0693146 -0.030342877 -0.067402944 0.19780132 0.14886656 -0.10168427 0.013359144 -0.12888353
0.008914724 0.029069692 -0.20779534 -0.09034115 -0.13767123 -0.1877837 -0.10650445 -0.20404889
0.051818937 -0.21557547 -0.04463546 0.076649666 -0.19013372 -0.1830489 -0.21093698 0.1388419
0.05067569 0.15809038 -0.21140885 0.16172847 0.020854428 -0.2219075 -0.0022891313 0.062342376
-0.0047073513 -0.2117195 -0.13779494 0.10395226 0.1308662 0.1406819 -0.14889216 -0.07852903
-0.08349909 -0.02392003 -0.13226658 0.077065736 -0.04362242 0.07090065 -0.14041851 -0.03178124
-0.2126699 0.1113821 -0.18756454 0.04021254 0.18325016 -0.15637338 0.08074626 0.022229537
-0.013099849 0.16788179 -0.01334618 -0.09790546 -0.22119352 -0.053628474 0.067967564 0.081230104
-0.0869741 -0.20922002 0.040755242 0.14313146 -0.0900372 -0.041870117 -0.20842329 0.10504332
-0.0990514 0.1429249 0.12750328 -0.18197215 -0.07120116 -0.20861778 0.17955622 -0.07247579
-0.008518249 0.15681455 0.040573627 0.13423496 -0.08739577 -0.014497727 0.016521841 0.042556643
0.13808459 -0.19604173 0.10997957 0.026850224 -0.056833193 0.007677138 0.008699581 -0.17605616
0.17172912 -0.07272628 0.06418076 -0.20797393 0.22340569 -0.1728992 0.21155241 -0.15970209
-0.13084829 -0.15744464 0.09113011 0.037415892 -0.11814601 -0.02598843 -0.15816504 -0.051801547
-0.0021107495 -0.02741851 0.16434494 0.15820774 -0.20548758 0.06780526 0.08559391 -0.14099178
00000000: 18ce 6fbd 1c31 a03d 34e5 e9bd 90d8 f93c
00000010: 048c aa3d b034 f03c 1664 5dbe bcce 25be
00000020: 92d9 5b3e 14a9 b23d 7075 1ebe 9e0e 2a3e
00000030: 5e32 27be a5f5 2bbe ef66 0cbe a02e 19bc
00000040: 90da 3d3d 1815 153e 0867 edbc 4893 49bd
00000050: 5495 22bd ea13 553e 24d1 39be 402b 7abd
00000060: 90f8 e43d 003b d03a f026 56bd 605f c63b
00000070: 38d4 aabc 2cd5 2ebe 300e 0fbd 88b4 3a3e
00000080: a6a0 81bd c098 a6bd ae40 0bbe f0fc 2b3c
00000090: 2045 38bd 5c6a db3d 5c18 4ebe 80cf 21bc
000000a0: fc65 c1bd 200a 1cbd 001c 3239 dc85 08be
000000b0: 883d c53d ce80 cabd 76b7 0b3e db05 e5bd
000000c0: 0226 583e bcce c13d 40f4 02bd 71ff ddbd
000000d0: 23e8 45be d6ef 49be 48cc 373d 96a2 bdbd
000000e0: ddd9 4abe 1060 bd3d dca9 423e 1880 8e3d
000000f0: 9802 563d 1455 b23d 400c 5dbb 009b 163e
00000100: 7082 d73d e8fb 1f3d bc36 3e3e 6661 aabd
00000110: 187d e23d 70eb e8bc 90d0 1abe 668e 333e
00000120: 8049 e73d 90fd ed3c 70d7 25be ccef e2bd
00000130: a0da 1c3e e8f2 283d 3251 4c3e 585a 75bd
00000140: 8baa 5fbe 9476 8fbd d9ff 15be a0b4 d83d
00000150: 2be6 33be 4029 243d 527e 603e 437b 56be
00000160: 7016 fd3d 180c 763d 6406 5fbd 4014 443c
00000170: 0e2f 023e dc30 62be 212d cfbd e020 58bd
00000180: 68a4 a03c 7a2b 243e a58d 5bbe ee23 19be
00000190: f0e8 f33c fa5d 283e 804d 2e3d 999c 00be
000001a0: 692f e9bd fce0 ed3d 4872 c63c 72aa 31be
000001b0: 624b 113e 880e 533e 3003 d33d b32b 5cbe
000001c0: 308c d6bd ca4a 633e e80b c5bc 6069 c93d
000001d0: 4258 2c3e 74ac 5c3e 2d2f 31be 8010 603d
000001e0: fcec 15bd fd33 ecbd 80fb ce3a c076 ce3d
000001f0: 824d 043e 301a d9bc 68ef 943d 1633 b1bd
00000200: c8a7 993d 7ce5 5ebe ce15 e0bd d220 9bbd
00000210: 6802 e03d df53 42be 6022 c33d 58f0 ef3d
00000220: d0f4 8dbd a091 f8bc 8e0a 8abd 6e8c 4a3e
00000230: 7a70 183e d83f d0bd 50e0 5a3c 0bfa 03be
00000240: 100f 123c 9023 ee3c 4dc8 54be c804 b9bd
00000250: b0f9 0cbe 5f4a 40be 011f dabd 31f2 50be
00000260: 1840 543d d1bf 5cbe acd3 36bd 80fa 9c3d
00000270: 6ab2 42be 2c71 3bbe ddff 57be 922c 0e3e
00000280: 5091 4f3d 72e2 213e 907b 58be 269c 253e
00000290: e8d6 aa3c b83b 63be 4005 16bb b85a 7f3d
000002a0: 2040 9abb ffcc 58be 1e1a 0dbe ece4 d43d
000002b0: ca01 063e ea0e 103e 3077 18be d4d3 a0bd
000002c0: 9201 abbd f0f3 c3bc e470 07be a4d4 9d3d
000002d0: 6cad 32bd 5c34 913d dfc9 0fbe 0c2d 02bd
000002e0: 23c6 59be 4c1c e43d eb10 40be e8b5 243d
000002f0: eea5 3b3e 5820 20be 4c5e a53d b81a b63c
00000300: c0a0 56bc 34e9 2b3e f0a9 5abc a882 c8bd
00000310: 8e80 62be 88a9 5bbd 9432 8b3d f85b a63d
00000320: 7a1f b2bd c63d 56be f8ee 263d 0e91 123e
00000330: 6c65 b8bd 0080 2bbd ea6c 55be f420 d73d
00000340: 76db cabd e85a 123e 3890 023e e856 3abe
00000350: ead1 91bd e69f 55be 96dd 373e 306e 94bd
00000360: 2090 0bbc fe93 203e 8830 263d e474 093e
00000370: 8efc b2bd e087 6dbc d058 873c e04f 2e3d
00000380: 0c66 0d3e 2abf 48be f83c e13d 00f5 db3c
00000390: ecc9 68bd 8090 fb3b b088 0e3c 1148 34be
000003a0: c2d9 2f3e 84f1 94bd 3471 833d 1ef7 54be
000003b0: 76c4 643e 7d0c 31be 32a1 583e f288 23be
000003c0: 18fd 05be 2b39 21be 6ca2 ba3d 6841 193d
000003d0: 89f6 f1bd b0e5 d4bc 04f6 21be dc2d 54bd
000003e0: 8054 0abb c89c e0bc 0a4a 283e 3601 223e
000003f0: 566b 52be 7cdd 8a3d dc4b af3d 2660 10be

transformer_encoder.encoder.feed_forward.fc2.weight f4 [20, 256]
0.058490828 0.04329478 -0.0027906895 0.01980041 0.062328525 -0.038296014 -0.023993626 -0.0037143305
0.05807586 0.023712039 -0.047447264 0.06125558 -0.019468166 0.014988929 -0.0141215995 -0.030564174
0.060941108 -0.024229057 -0.029192135 0.047216162 -0.011844978 -0.058202356 0.026994824 -0.057884797
0.009517305 0.05690527 0.057815365 0.0040771514 0.0024200752 0.008394852 0.017709106 0.02792918
-0.035428375 -0.007707119 0.033777833 -0.030441828 -0.045482434 -0.025378928 -0.014553525 0.01864145
0.05503188 -0.0108714625 0.050751828 -0.008935668 -0.06174554 0.0065718517 -0.056949325 -0.04079625
0.0038157552 0.014385991 -0.038763255 -0.06044092 0.01978992 0.06049315 -0.0023198724 -0.019125365
-0.045120083 -0.0019179583 0.017960325 -0.049979426 -0.021147281 -0.058400296 0.025769293 0.003255643
0.036611296 -0.040639155 0.05652514 0.01412376 -0.042912968 0.05210775 0.052745067 -0.009012431
-0.04856752 -0.036200404 0.018827789 0.050398476 -0.04529649 -0.018192433 0.017507613 0.029976986
0.028320387 0.034681223 0.05951439 -0.018261254 -0.052707635 -0.013515852 0.042221084 0.0046637207
-0.0532284 0.059294425 -0.03277889 0.0052329227 -0.038092196 -0.015384316 -0.046588458 -0.012075424
0.061319947 0.032686196 -0.04240314 -0.029301614 -0.059559017 -0.026540548 0.01349096 0.027242824
0.013746567 -0.01498089 0.025878392 -0.03531255 0.060171835 0.009375326 0.05365108 0.035421684
0.029629774 0.03225795 -0.04754246 -0.05727285 0.000107601285 0.052777484 0.02636198 -0.059526064
0.054229274 0.009376019 0.0488865 0.05829595 -0.049859762 0.021878146 0.039009683 -0.029403746
-0.051728092 0.042135857 -0.06039898 -0.047686085 0.011219844 -0.0037969872 -0.03072077 0.0019870102
0.014897265 -0.042988345 -0.009468488 -0.045496948 -0.008044772 -0.02564425 -0.046142213 -0.01546967
-0.042098545 0.042317465 -0.008963086 0.053573973 -0.030448169 -0.042857 -0.048033893 -0.04834556
0.0062585324 0.012143463 0.055648804 0.05664 0.0015480146 0.0028056428 -0.0056455955 0.005216688
-0.061296202 0.025559649 -0.017235793 -0.016475692 0.0066983327 -0.007571295 -0.040827185 -0.0017237589
0.018641397 -0.05946046 0.031587847 -0.0064292923 -0.05964809 -0.017261215 0.04102306 -0.0034500882
-0.058318786 -0.0026316568 0.01522918 -0.04345808 -0.039079227 -0.007340312 -0.036230676 0.021623388
0.029132634 0.05791954 0.019312054 -0.050158836 0.006378323 0.0065158606 -0.016017511 -0.051424317
0.023277596 0.058225907 -0.028670892 -0.060810886 0.054992028 -0.038830683 0.0040381625 0.006706357
-0.029625677 0.04946979 -0.04231637 -0.009811796 -0.06013882 -0.002506204 0.023438849 0.04621934
0.048364416 0.041046165 -0.014316738 -0.024565183 -0.02975896 0.060139947 -0.015347436 -0.018851005
-0.062483355 0.017334715 -0.009086549 -0.04327754 -0.036537416 0.021358572 0.020003997 0.017850794
-0.033473194 -0.0372694 -0.018741027 0.022139624 0.027376145 0.0016888902 0.008180268 -0.051557235
0.014138438 -0.05270499 -0.05119957 -0.0065176263 -0.003019251 0.054164544 -0.008736916 -0.023521908
-0.043759823 -0.04859504 0.02723059 -0.008082941 -0.0063603297 0.0097038 -0.03693024 -0.029294983
-0.029953942 -0.06002537 -0.03878747 0.05585324 0.05681622 -0.014747396 0.032467112 0.026079446
00000000: 1494 6f3d de55 313d 00e4 36bb 7834 a23c
00000010: 324c 7f3d 48dc 1cbd 488e c4bc 206c 73bb
00000020: f4e0 6d3d c03f c23c 1058 42bd 22e7 7a3d
00000030: b47b 9fbc 2094 753c 485e 67bc b861 fabc
00000040: 629d 793d 047c c6bc 5824 efbc bc65 413d
00000050: 7011 42bc 9865 6ebd 4024 dd3c 9c18 6dbd
00000060: 78ee 1b3c 8015 693d cecf 6c3d a099 853b
00000070: 209a 1e3b 908a 093c b012 913c bccb e43c
00000080: 581d 11bd 008c fcbb a05a 0a3d 2461 f9bc
00000090: ca4b 3abd 78e7 cfbc e871 6ebc f4b5 983c
000000a0: 1c69 613d 381e 32bc 26e1 4f3d e866 12bc
000000b0: e4e8 7cbd b058 d73b b243 69bd f819 27bd
000000c0: c011 7a3b 38b3 6b3c 38c6 1ebd e690 77bd
000000d0: 781e a23c aac7 773d 0009 18bb ccac 9cbc
000000e0: d6cf 38bd 0064 fbba 8821 933c 3ab7 4cbd
000000f0: 103d adbc 2635 6fbd 201a d33c a05c 553b
00000100: baf5 153d 3e75 26bd e886 673d 5867 673c
00000110: 82c5 2fbd f06e 553d 360b 583d e0a8 13bc
00000120: bcee 46bd e046 14bd bc3c 9a3c a26e 4e3d
00000130: d088 39bd 4c08 95bc 206c 8f3c 4c92 f53c
00000140: 2800 e83c e60d 0e3d 5cc5 733d a098 95bc
00000150: f6e3 57bd 9871 5dbc 04f0 2c3d 20d2 983b
00000160: 0606 5abd b6de 723d 2843 06bd f078 ab3b
00000170: 9006 1cbd 800e 7cbc 8ad3 3ebd 00d8 45bc
00000180: a02a 7b3d f6e1 053d eaae 2dbd f009 f0bc
00000190: 28f4 73bd 906b d9bc 3009 5d3c 582c df3c
000001a0: 4839 613c 6872 75bc ecfe d33c e4a3 10bd
000001b0: be76 763d f89a 193c 3cc1 5b3d 5416 113d
000001c0: 24ba f23c ea20 043d e2bb 42bd f096 6abd
000001d0: 00a8 e138 342d 583d 14f5 d73c 9ad1 73bd
000001e0: 841f 5e3d e09d 193c 363d 483d bcc7 6e3d
000001f0: c039 4cbd cc39 b33c 9ec8 1f3d 20e0 f0bc
00000200: d6e0 53bd a696 2c3d ec64 77bd 7c52 43bd
00000210: 70d3 373c e0d6 78bb 20aa fbbc 8038 023b
00000220: a813 743c 8c14 30bd b821 1bbc 025b 3abd
00000230: 38ce 03bc e413 d2bc 9eff 3cbd 8074 7dbc
00000240: 866f 2cbd 1455 2d3d e8d9 12bc 6270 5b3d
00000250: 706e f9bc d28a 2fbd 30bf 44bd fe05 46bd
00000260: 6014 cd3b 60f5 463c 00f0 633d 58ff 673d
00000270: c0e6 ca3a e0de 373b b0fe b8bb c0f0 aa3b
00000280: ba11 7bbd 7862 d13c 1432 8dbc 08f8 86bc
00000290: b07d db3b a018 f8bb 683a 27bd c0ef e1ba
000002a0: d8b5 983c d08c 73bd 4262 013d d0ac d2bb
000002b0: 8e51 74bd 6467 8dbc cc07 283d e01a 62bb
000002c0: aedf 6ebd e077 2cbb d083 793c 1a01 32bd
000002d0: 8a11 20bd 0087 f0bb 9e66 14bd 8823 b13c
000002e0: 90a7 ee3c 0a3d 6d3d 5034 9e3c 5a73 4dbd
000002f0: 4001 d13b 0083 d53b 2837 83bc 4ea2 52bd
00000300: a8b0 be3c 4a7e 6e3d 38df eabc d614 79bd
00000310: 523f 613d ec0c 1fbd 9052 843b 00c1 db3b
00000320: 8cb1 f2bc d6a0 4a3d ee53 2dbd a8c1 20bc
00000330: 2054 76bd 203f 24bb d402 c03c 7e50 3d3d
00000340: c419 463d 0620 283d c090 6abc ec3c c9bc
00000350: 10c9 f3bc 4e55 763d d073 7bbc 6c6d 9abc
00000360: 8cee 7fbd 8801 8e3c c0df 14bc ca43 31bd
00000370: 42a8 15bd 2cf8 ae3c 6cdf a33c d43b 923c
00000380: 301b 09bd cca7 18bd c886 99bc 285e b53c
00000390: f043 e03c c05d dd3a 8806 063c ae2d 53bd
000003a0: e8a4 673c 30e1 57bd a4b6 51bd d091 d5bb
000003b0: a0de 45bb a4db 5d3d 4825 0fbc 04b1 c0bc
000003c0: 803d 33bd 980b 47bd b012 df3c 506e 04bc
000003d0: 506a d0bb b0fc 1e3c 2a44 17bd 08fc efbc
000003e0: f861 f5bc 2add 75bd 9cdf 1ebd 5ec6 643d
000003f0: 20b8 683d 109f 71bc 3cfc 043d 90a4 d53c

transformer_encoder.encoder.feed_forward.fc2.bias f4 [20]
-0.052804366 0.005571522 -0.0030997097 0.040268958 0.03748727 -0.044610053 0.049563803 -0.044541657
-0.02558586 0.009875163 0.004286319 -0.013054974 0.046339326 -0.022744864 -0.053603992 -0.043115206
0.057622798 0.057347305 -0.05702267 -0.0077118725
00000000: 6449 58bd 5091 b63b 8024 4bbb 10f1 243d
00000010: 408c 193d 08b9 36bd 6a03 4b3d 5071 36bd
00000020: 7099 d1bc 70cb 213c 4074 8c3b 88e4 55bc
00000030: 4ece 3d3d 7053 babc dc8f 5bbd 9299 30bd
00000040: e205 6c3d 02e5 6a3d 9a90 69bd e0b3 fcbb

transformer_encoder.encoder.feed_forward.layer_norm.weight f4 [20]
1.0 1.0 1.0 1.0 1.0 1.0 1.0 1.0
1.0 1.0 1.0 1.0 1.0 1.0 1.0 1.0
1.0 1.0 1.0 1.0
00000000: 0000 803f 0000 803f 0000 803f 0000 803f
00000010: 0000 803f 0000 803f 0000 803f 0000 803f
00000020: 0000 803f 0000 803f 0000 803f 0000 803f
00000030: 0000 803f 0000 803f 0000 803f 0000 803f
00000040: 0000 803f 0000 803f 0000 803f 0000 803f

transformer_encoder.encoder.feed_forward.layer_norm.bias f4 [20]
0.0 0.0 0.0 0.0 0.0 0.0 0.0 0.0
0.0 0.0 0.0 0.0 0.0 0.0 0.0 0.0
0.0 0.0 0.0 0.0
00000000: 0000 0000 0000 0000 0000 0000 0000 0000
00000010: 0000 0000 0000 0000 0000 0000 0000 0000
00000020: 0000 0000 0000 0000 0000 0000 0000 0000
00000030: 0000 0000 0000 0000 0000 0000 0000 0000
00000040: 0000 0000 0000 0000 0000 0000 0000 0000
