simple2transformer/param/net_param/la09_critic_net.model (torch, 167615 bytes, 33 tensors)

transformer_encoder.encoder.attention.fc_Q.weight f4 [30, 30]
00000000: 609c 21be 776d c6bd 24dc 1bbe 20e6 57bc
00000010: 40f0 0e3d f8b5 c93d fc48 4bbd 1cd3 7abd
00000020: 3873 a7bd 7f8b a5bd 0c26 11bd 00dc fe3b
00000030: 5048 f83c 4080 3dbc fbf8 eebd 5c13 383d
00000040: 68d4 2d3d 5068 ffbd 94ae d93d 7956 d7bd
00000050: 059b 28be dc2b a63d 06ce 10be 9457 793d
00000060: 409d b3bc 0875 87bc 5944 15be 5042 483d
00000070: c130 2dbe eccb c1bd 20dc d13d c981 f3bd
00000080: 2c9f 593d c8a6 87bc 84dc 8f3d e7ab e1bd
00000090: 0064 d73c 7091 07bc a67a a4bd 947a 03be
000000a0: a0d3 eb3c e47a dc3d ef34 27be 3499 a13d
000000b0: 88b2 f83d bd54 2fbe bfe4 8abd c0cf 98bb
000000c0: 4cc3 9bbd 79e8 c1bd a82c fd3d 10f0 1fbc
000000d0: 94c0 983d 07ee 2dbe f26b 2ebe 40d4 223e
000000e0: 1458 433d 2c56 c43d 7c3b ba3d 2044 56bd
000000f0: 8a56 0dbe 1429 d23d 5004 043c 64e5 983d
00000100: e0d1 32be e218 093e 3acf 213e f0eb be3d
00000110: 2074 e93d c8bb eb3d e03e adbb 9354 93bd
00000120: fd13 cfbd 2b75 b8bd 8081 bebd 20d0 2ebc
00000130: dae4 0e3e 5a06 343e f410 1d3e ec27 5ebd
00000140: e8bc 833c 0071 af3d 1073 1dbc 315c d8bd
00000150: 981d 1e3e c01d 423b 7056 983d 800f b03a
00000160: 2b88 95bd 4c50 c73d 9416 883d d47b 2b3d
00000170: 6c81 a53d 2438 4c3d 6056 9cbc b02c 043e
00000180: ec10 343d 006c 44ba ff00 21be c043 b5bb
00000190: 56f4 2b3e f076 05bd c0fc 5cbb 0028 a73c
000001a0: 346d 013d 7881 183e c090 f33d 1008 243e
000001b0: 8062 293e 6047 ea3b 4077 fe3c 2e78 3a3e
000001c0: 6269 29be c7f2 32be b440 f4bd 785d 693d
000001d0: 469a 213e a059 13bc fe8b 2b3e fc2e d03d
000001e0: 406d 36bd 5536 20be e474 263e 88bd 123e
000001f0: c806 1bbe 49c2 28be 9ed2 ffbd b438 f8bd
00000200: 46ce acbd 5626 0a3e 6c9f 10be 2069 a5bd
00000210: 42dc 10be 1d7d edbd 3c11 7d3d 40a5 ebbb
00000220: 8249 2cbe 9c7b b03d 8c50 053e 007b 7c3c
00000230: 408c d13b 187f 993d 8088 f83b 0d5e bcbd
00000240: 2c8c af3d 8407 273e 2035 253c 3d99 98bd
00000250: 0a90 82bd ac6c cd3d b806 81bc fe1a 2bbe
00000260: 6491 d9bd fcec fbbd 78ce 00bd 88b6 b1bd
00000270: 736e cdbd 809d 2d3d 344f 103d 6864 15be
00000280: f8d9 c83d bf51 cfbd d28a 84bd 18bb b93d
00000290: d865 1b3d 2c3b d03d 88fa fc3d 8483 02be
000002a0: 7e63 77bd 535e 86bd b865 d33d 00a3 643c
000002b0: 306c f8bc a1ba e6bd f1eb 1bbe 0a4f 21be
000002c0: 02b6 b9bd 825d 36be 5c55 0b3d caca 103e
000002d0: 61d2 07be b0c2 c53d f80f 153d 305c 66bd
000002e0: d097 e13c 985f 29bd 3f4a 32be 0054 2cbe
000002f0: 649c 7fbd c0c6 f83c 9014 e5bc 20ec b4bd
00000300: ec13 283e c22f 803d 5667 0c3e 5032 07bc
00000310: e00c 1fbc 10c2 f2bc 2e89 22be 3854 b6bd
00000320: 1276 dbbd facc 36be 5bc0 fbbd 58c0 603d
00000330: 4c2c ec3d 26b5 053e 7282 2c3e 007a 7ebc
00000340: 568b 1e3e 18a5 ab3c 002b 2d3d f0b2 103c
00000350: 8086 313e 282f d73c 524f 1c3e 00c5 46bd
00000360: e052 5f3d f8ed dd3c 9c6e d63d 08c3 46bd
00000370: 8aea 2a3e a097 38be b08f 56bc 1840 2abe
00000380: 0064 e8ba 10ee 303e b4ba 38be ccec 03be
00000390: 342d dcbd 9c89 383e 2c14 35bd 3035 933c
000003a0: 7a12 28be 880d 33be 1839 96bd 2c21 f7bd
000003b0: a20d 0a3e 4e8a 37be 6c8a bdbd 3057 c03d
000003c0: c8a1 fe3d 1c51 d93d 3aa6 203e 2860 033e
000003d0: 3423 943d b042 fcbc aa92 fabd 003a 5ebc
000003e0: 9897 bc3d 2d9f 34be 8dbe 06be b8a7 8e3d
000003f0: 688d 073e d4e9 e8bd 38de f43d 88a8 14bd
-0.15782309 -0.096888475 -0.15220696 -0.013177425 0.03489709 0.09849161 -0.04963015 -0.061236486
-0.08176273 -0.080832474 -0.035436675 0.007777691 0.030307919 -0.011566222 -0.11668583 0.044940338
0.042438895 -0.12471068 0.10629001 -0.1051454 -0.16465385 0.08113834 -0.14141092 0.060874537
-0.021925569 -0.016535297 -0.14576854 0.048891366 -0.1691313 -0.09462723 0.10247064 -0.11889989
0.053130314 -0.01655902 0.07024482 -0.11019116 0.0262928 -0.008274421 -0.08031206 -0.12839729
0.028787434 0.10765627 -0.16328786 0.07890549 0.12143427 -0.17122169 -0.06781911 -0.0046634376
-0.07605609 -0.09468169 0.12362033 -0.009761825 0.07458606 -0.16985331 -0.17033365 0.1590128
0.04769142 0.095867485 0.09093377 -0.052311063 -0.13802543 0.10261741 0.008057669 0.07465628
-0.17462873 0.13388398 0.15801707 0.09322345 0.11399102 0.11510426 -0.0052870363 -0.071938656
-0.10111234 -0.09006723 -0.09302044 -0.010669738 0.13954487 0.17580548 0.15338498 -0.05423729
0.016081288 0.08566475 -0.009609953 -0.10564459 0.15440977 0.0029619783 0.07438362 0.0013432354
-0.073013626 0.09732112 0.066449314 0.04186614 0.08081326 0.049858227 -0.019084156 0.12907672
0.04396145 -0.00074929 -0.15723036 -0.005531758 0.16792426 -0.03258413 -0.0033719987 0.020404816
0.031598285 0.14893138 0.11892843 0.160187 0.16541481 0.007149622 0.031062722 0.18209907
-0.16544107 -0.17475425 -0.11926404 0.056973904 0.15781507 -0.008993536 0.16752622 0.101652116
-0.044537783 -0.15645726 0.16255528 0.14330113 -0.15139306 -0.16480364 -0.12491344 -0.1212019
-0.08437781 0.13491186 -0.14123315 -0.08076692 -0.14146522 -0.11596129 0.061784014 -0.00719133
-0.16824916 0.086173266 0.13019007 0.015410185 0.006394893 0.07494944 0.0075846314 -0.09197626
0.085716575 0.1631146 0.010083467 -0.07451103 -0.063751295 0.10030493 -0.015750274 -0.16709515
-0.10623434 -0.123010606 -0.031446904 -0.08677393 -0.10030832 0.04238653 0.035231784 -0.14589083
0.09807199 -0.10123014 -0.064717904 0.090688884 0.037938923 0.10167536 0.123524725 -0.12745482
-0.060397618 -0.0656096 0.10322136 0.013954878 -0.030325025 -0.112660654 -0.15226723 -0.15752807
-0.09067918 -0.17809108 0.034016952 0.14139858 -0.13263847 0.09656274 0.036392182 -0.05624026
0.02753821 -0.04135093 -0.17411135 -0.16828918 -0.062405005 0.030368209 -0.027963907 -0.088341
0.1641385 0.06259109 0.13711295 -0.0082517415 -0.0097076595 -0.029633552 -0.15872642 -0.08902782
-0.107158795 -0.1785163 -0.12292548 0.054870933 0.115318865 0.13057384 0.16846636 -0.015532017
0.1548284 0.020952746 0.042277336 0.0088317245 0.17336464 0.026267603 0.15264633 -0.048527718
0.054522395 0.027091011 0.10470316 -0.04852584 0.16691032 -0.1802659 -0.013095781 -0.16626012
-0.0017729998 0.17278314 -0.18039972 -0.128833 -0.10750809 0.18021244 -0.04420869 0.017969698
-0.16413298 -0.1748563 -0.073351085 -0.12066874 0.13481763 -0.17923853 -0.092549175 0.0939163
0.12433201 0.106111735 0.1568841 0.1282965 0.07233277 -0.030793518 -0.12235005 -0.013563633
0.09208602 -0.17638846 -0.13158627 0.069655836 0.13237536 -0.11372724 0.11956447 -0.036293536

transformer_encoder.encoder.attention.fc_Q.bias f4 [30]
00000000: c03b 66bb a818 323e 47c3 05be 6233 7abd
00000010: 1e87 d7bd 2634 86bd 40d1 123d e4c6 65bd
00000020: 8c7e 463d 0841 f63d 243b 0a3d 203d 903d
00000030: a3e3 dbbd 2eba 1ebe 108f c03c 504b 2a3c
00000040: a4e9 4dbd 04e1 2bbd 8029 ce3d ae36 f3bd
00000050: e466 363e a8a1 aa3d 6066 01bd 70c5 893d
00000060: 30b5 3ebd 24e1 da3d a473 043e 007a b63b
00000070: e462 95bd c027 933d
-0.0035130829 0.17392218 -0.13062774 -0.06108416 -0.105238184 -0.06552915 0.035844088 -0.05609788
0.04846053 0.120241225 0.033747807 0.07042909 -0.10736778 -0.1550071 0.023505718 0.010393932
-0.050271645 -0.04196264 0.10066509 -0.11875664 0.17812687 0.08331615 -0.031591773 0.06727111
-0.046559513 0.106874734 0.12934738 0.0055687428 -0.072942525 0.07185316

transformer_encoder.encoder.attention.fc_K.weight f4 [30, 30]
00000000: 7035 4abc ecdd 28be 8c0d 273e ec5b 0b3e
00000010: c856 843c d8ea e43d 723c 07be c625 06be
00000020: 3acf cbbd 3c4d 03be 70ac 21be 1cf1 693d
00000030: b2bf 2ebe 0023 63bb 8a53 1abe 0089 1f3e
00000040: 82db c1bd d5de 8dbd 5c6e ae3d bff3 acbd
00000050: be01 cbbd 60b8 dfbb e44b 8e3d 0029 27be
00000060: 00b4 603c d0f7 86bc 0059 6bbd e64c 823d
00000070: b8bf 25be 7f43 d4bd 1382 adbd 4078 843c
00000080: 1f0f 13be 9015 343e f693 18be 5c1b 373e
00000090: 2450 cdbd c809 93bc fc69 d3bd f07a 4abc
000000a0: b4a8 0b3d 5f85 d4bd a064 c6bd c8a9 923d
000000b0: c9cd d8bd a4dd 01be d004 343c ec86 933d
000000c0: 0051 283e b4bf 2f3e 6062 7b3c 35b4 39be
000000d0: 2c80 023d c002 febb 4cad 01bd 3ca4 043e
000000e0: 7c2d c03d 999a 2fbe 74ea d2bd 78c2 ec3d
000000f0: 52eb 14be e026 ee3c 489c a2bd f24b 093e
00000100: 24f5 28bd 9000 6f3d 3417 3fbd b095 2b3e
00000110: 6877 163d f4df 333d d0db 4d3d 76c1 a9bd
00000120: 4073 0e3c 74da 33be a4ff 2bbd 9029 143e
00000130: b8a6 19bd 12d3 6cbd 784a 983d 1bef 8abd
00000140: 53e2 aabd 8ce7 e93d bc41 f83d f27f d5bd
00000150: 6dce 28be 1871 893c 8a30 85bd fd86 efbd
00000160: 1aaa 97bd 36d1 eabd 81f4 03be 78c7 943d
00000170: 001d de3c 148c 7c3d 78ec 0ebe b0f4 b53c
00000180: f07d b63d 6864 bfbd ed26 dfbd 90df c8bc
00000190: a01a c9bb 5811 923d ecf2 053d 11bb acbd
000001a0: 987c 243e 82cb 08be c41a 333e 341f c63d
000001b0: 89e7 8cbd 17a4 05be 6447 d83d 0804 20bd
000001c0: c2eb 2f3e 209a 163e 785d 66bd e0e0 77bd
000001d0: f8bd 2a3d be88 293e 68b5 a8bd 3ae0 adbd
000001e0: f015 16be b0fb d13d 9cd0 54bd 7ce2 73bd
000001f0: b8d6 b13d 4038 df3b 9492 c83d 40d8 b9bb
00000200: acbe 113d 21a7 32be 9258 0d3e 21c4 09be
00000210: 0a07 c1bd ca05 84bd e07e 9abb 2808 393e
00000220: 90a3 183e 2c9c 12be 3052 01be 6292 1d3e
00000230: c080 e43b a99d b3bd c4ff fd3d 0d6b b2bd
00000240: e415 cf3d 1464 433d fde1 f2bd b497 973d
00000250: e0d6 28be 7c20 02bd 1094 553d 9422 273d
00000260: c074 123d 9876 903c 2c00 ea3d 449a 3a3e
00000270: 777d 9fbd 4de5 04be f874 8ebc 684a 11be
00000280: 7e65 073e d027 2cbd 5c49 be3d 70cb de3d
00000290: 0fd8 b2bd 00b6 cd3d c0de e8bc 3dec 33be
000002a0: 80fd 463b 52dd 2d3e e8f6 683d 8072 683d
000002b0: 54d8 133d b8a2 f43c 3844 8bbd 2493 f43d
000002c0: 4620 223e 8454 23bd 0864 cf3d 76c6 3a3e
000002d0: 20aa 003e 6acd 34be 8810 dc3d 6cbc a63d
000002e0: a222 2c3e fe7a 213e da04 253e 50c6 2fbc
000002f0: 6800 f93d 33d2 89bd ae33 ccbd 7071 33be
00000300: ec76 4a3d 6921 34be 6c15 09bd b71d 08be
00000310: 50a7 463d 50df bc3c 61d2 fdbd 3213 373e
00000320: 5067 5abd c8ea 4bbd dcc3 36bd 8c34 15bd
00000330: 667b 233e 84c3 65bd 059b cabd 1093 04bc
00000340: 3dac e6bd b5d2 8bbd 0049 b83c 4ed0 82bd
00000350: b1ca 39be 2c44 d43d dc42 b03d 4833 ecbc
00000360: 8c40 383e 0407 143e 83a9 bcbd 8c54 1d3e
00000370: 057c ebbd 88a4 aa3c a3b9 f5bd 7c18 31be
00000380: 1811 d9bc ccf7 b73d ae2d 223e f4a2 033d
00000390: 809e dd3d d43d e3bd f211 203e 10df 08bc
000003a0: fcac 0c3d 1490 abbd df8f cabd ea47 a3bd
000003b0: 005d 703b f8ea 953d 90b9 94bc 6211 273e
000003c0: 8c11 f83d a887 993d 2892 a73d ac82 b93d
000003d0: db35 8fbd 04c8 073e 1005 8fbd 8b5d 03be
000003e0: 75fe 8bbd 8484 47bd 342d 0c3e 3f9a a7bd
000003f0: 0d63 edbd 198b a5bd 3b53 c2bd ca8a c1bd
-0.012341842 -0.16490906 0.16313761 0.13609284 0.016154662 0.111776054 -0.13206652 -0.13100347
-0.09951635 -0.12822431 -0.15788436 0.057114705 -0.17065313 -0.0034658313 -0.1507093 0.15579605
-0.09465696 -0.069272675 0.08517143 -0.084449284 -0.09912442 -0.006827399 0.06948069 -0.16324234
0.01371479 -0.016475588 -0.057457924 0.063623235 -0.16186416 -0.10364436 -0.08472075 0.01617062
-0.14361237 0.1758635 -0.14900193 0.1788153 -0.10025051 -0.017949 -0.10322949 -0.012358412
0.034096435 -0.10377001 -0.096871614 0.071612895 -0.105861254 -0.12682205 0.0109874755 0.07203469
0.16437149 0.17162973 0.015343279 -0.1813515 0.031860515 -0.0077517927 -0.03165941 0.12953275
0.093836755 -0.17148818 -0.10298625 0.115605295 -0.14542893 0.029071271 -0.079399645 0.13407877
-0.04124941 0.058350146 -0.046652988 0.1675632 0.03673497 0.04391475 0.050258458 -0.08288853
0.00869447 -0.17563802 -0.041991845 0.1446898 -0.03751251 -0.05781848 0.07436079 -0.06783887
-0.08343949 0.11421117 0.12121913 -0.10424794 -0.16484995 0.01677756 -0.06503399 -0.11695669
-0.07405491 -0.11465685 -0.1288624 0.07264608 0.027113438 0.061657026 -0.13957393 0.022211403
0.089107394 -0.09345323 -0.108960964 -0.024520665 -0.006137207 0.07132214 0.03270237 -0.084341176
0.16063154 -0.13358882 0.17490679 0.0967392 -0.06880099 -0.13050877 0.10560492 -0.039066344
0.17179778 0.14707232 -0.056241482 -0.060517192 0.041685075 0.16556069 -0.082377255 -0.084900334
-0.14656806 0.10253084 -0.051956758 -0.059542164 0.086835325 0.0068121254 0.097935826 -0.005671531
0.03558223 -0.17446567 0.13803318 -0.13453723 -0.09425171 -0.06446417 -0.0047148317 0.18069518
0.14906144 -0.14317387 -0.12629008 0.15387872 0.006973356 -0.08770306 0.12402299 -0.087118246
0.10111597 0.047702864 -0.1185951 0.07401982 -0.16488218 -0.03176926 0.052143157 0.04080446
0.035755873 0.017634675 0.11425814 0.1822291 -0.077876024 -0.12978096 -0.01738976 -0.1418854
0.1322231 -0.042030156 0.09291336 0.108786464 -0.08732616 0.10044479 -0.028426528 -0.17570587
0.00303635 0.16978958 0.056876093 0.05674982 0.03609498 0.029862747 -0.06800121 0.11942127
0.15832624 -0.039875522 0.10126501 0.1823977 0.12564898 -0.17656484 0.107453406 0.08141407
0.16810086 0.15769574 0.16115132 -0.010728434 0.121582806 -0.067295454 -0.099707946 -0.17523742
0.04942982 -0.1759087 -0.033467695 -0.13292585 0.048499405 0.023055702 -0.12393642 0.17878416
-0.053321183 -0.04978445 -0.04462038 -0.036427066 0.15965042 -0.05609466 -0.09892849 -0.008091703
-0.112633206 -0.068272986 0.022495747 -0.06387387 -0.18143727 0.10364565 0.086065024 -0.028833047
0.17993373 0.14455801 -0.09212019 0.15364283 -0.11498264 0.020830408 -0.11998298 -0.17294496
-0.026497409 0.089828104 0.15837738 0.032137826 0.10821247 -0.11095777 0.15631846 -0.0083539635
0.03434466 -0.0837709 -0.098907225 -0.07972701 0.0036676526 0.07320207 -0.01815489 0.16315225
0.12112722 0.074965775 0.08182174 0.09058127 -0.06992694 0.13259894 -0.069833875 -0.12828653
-0.06835643 -0.04871036 0.13689119 -0.08183717 -0.11591158 -0.080831714 -0.09488531 -0.094503

transformer_encoder.encoder.attention.fc_K.bias f4 [30]
00000000: bff7 c7bd 7abd 23be 408e 38be 28ad 223e
00000010: 14b9 c83d 3ff8 1ebe b014 b5bc 3ee6 32be
00000020: 3228 93bd d6a3 3a3e 18d7 f83d 05db f3bd
00000030: 8f02 95bd e0c1 b33d 6c5b 243e 0007 a6bc
00000040: b07c 5e3d 522b e6bd 943a 383e 9c4e 25be
00000050: a8e9 3a3d 81b6 1bbe 0951 92bd 00c1 56ba
00000060: 5358 b5bd 00c2 fdb9 0cdd 083e dcc3 35bd
00000070: 1188 dcbd 0066 1fbc
-0.09764051 -0.15990248 -0.18023014 0.15886366 0.09800926 -0.15524386 -0.022104591 -0.17470643
-0.07185401 0.18226561 0.12150401 -0.11907009 -0.07275879 0.08777213 0.160505 -0.02026701
0.05431813 -0.112387314 0.17991096 -0.16143268 0.04563299 -0.15206338 -0.071443625 -0.00081922114
-0.08854737 -0.00048400462 0.13365573 -0.04437624 -0.1076814 -0.009728909

transformer_encoder.encoder.attention.fc_V.weight f4 [30, 30]
00000000: 54f9 ec3d 1a1b 2f3e 243c 883d 4c9a 123e
00000010: e4cd ed3d 59ca 3abe acd7 96bd 7cce e7bd
00000020: e7ad 16be 4499 453d a882 8ebc 6486 293e
00000030: 881e a93c 58a2 0e3e b4c1 aebd a00a 323c
00000040: 0272 fabd ff13 cabd 6c8d 38bd bc40 083e
00000050: 74e9 d83d 00b1 083e a493 59bd d20b c8bd
00000060: 3aac 013e 7e6c 21be 707a 003d 1a23 023e
00000070: 7c33 4c3d 190f 0abe fc59 1f3e 5bd6 a3bd
00000080: 3011 2a3d 790e b8bd ee6f 2d3e d8be 1b3d
00000090: 2ff3 ebbd c4cf 36be b429 93bd 80a3 64bd
000000a0: 0c0f 9c3d 0884 1cbe 008f 66bb a0cd ec3c
000000b0: 9c75 1d3e f4f4 853d 1c34 4a3d ac2a 50bd
000000c0: c093 9a3d b870 a13d 802c e7ba 2c71 663d
000000d0: 7807 d5bd 30c9 e23c c1a0 a8bd 800c dd3a
000000e0: e8fd b43c 8078 533b 58ad 0c3d 95c7 36be
000000f0: 70a9 d63d 13b0 e0bd 4d7b 1fbe dcea ac3d
00000100: 02f4 2fbe 605f 5dbc 2b80 f0bd 2676 10be
00000110: b088 3bbc b0e3 cc3c a0ca 1bbd f024 2cbc
00000120: 30dc 3b3d 7b1e edbd ff9d 98bd ef62 2bbe
00000130: 50fe ed3d c094 77bb 6ed8 0b3e f05c f9bd
00000140: 3b08 20be 448f e93d a674 05be 5857 403d
00000150: 00ee c0bb f876 33bd 9980 05be 1094 023e
00000160: 40e7 b83b d83b f9bd d3af c0bd c8e8 8f3c
00000170: 4623 143e 0010 383d 966b 393e c492 a33d
00000180: 82ee fabd 5083 413c 4f39 dfbd 1870 653d
00000190: d947 99bd 004c a0ba 18ba 64bd a9e1 32be
000001a0: 4018 4cbc 3438 853d c8d2 8a3c 13aa b6bd
000001b0: 74b4 b73d c0f0 6abd 7800 c6bd 780f b5bc
000001c0: a4a1 883d 03d6 1fbe 042c 293e 2c2d b83d
000001d0: 2d51 debd 78a2 f33d 8703 dfbd fefb 313e
000001e0: 40a7 2b3c b371 38be 442d 4abd 4025 0b3d
000001f0: 9e04 393e 44af 383e 9cdb 0cbe a084 393e
00000200: d8cc 443d 92a3 fdbd c08f bfbc c42e 183e
00000210: b294 98bd e87d cfbc 3e6b 1cbe 54f4 463d
00000220: 94b8 28be 2dae f0bd 20bd e73d ff7c cdbd
00000230: edf6 20be ae21 233e 489e d33c 7137 1fbe
00000240: 7058 7dbc 8c65 01bd 0096 cd3d 5c72 133e
00000250: bded d5bd 5ca1 383e 8048 b6bc 0035 afbb
00000260: bac3 25be a417 0f3e c275 31be 4446 f6bd
00000270: ea60 073e 4a98 013e e009 6c3c 4c58 0c3e
00000280: c017 28bd b8a9 cabd 5afb 213e 2ea1 26be
00000290: 483e c5bc f0d8 313e c624 c8bd da6b 113e
000002a0: ee83 8cbd 10e5 393c 2cee be3d 6b96 b4bd
000002b0: 48ad 6c3d 67a6 f3bd 945d 05be 805d d93b
000002c0: a0cd 6a3c 0001 163e 6c0f f1bd 04dc 943d
000002d0: 1810 363e 50bb 1f3e 116e 82bd a027 0dbe
000002e0: 3699 88bd 9945 dbbd 18b1 acbc 5896 1a3e
000002f0: 2425 4b3d 6038 d7bc 30eb 7b3d 0848 f03d
00000300: b8a7 fcbc 4eca 173e 680d ea3d 24dd 203d
00000310: 5e3e 07be 003b 6d3a e60a 08be 35da 0cbe
00000320: 0081 9c3c 50fa d73c 70ee 89bc 08bf 353e
00000330: f8f4 1d3d b899 0fbe 38b3 c03d ac84 3a3e
00000340: d2d7 20be ac8f 11be ceca 0a3e 624f fdbd
00000350: f065 2e3e 906f 223e 9324 1cbe 6667 283e
00000360: 4559 0fbe 6ca0 8c3d 20d1 123e 183b e33d
00000370: c292 323e e81f 2c3d e934 09be e419 d53d
00000380: 6497 e43d f1bc d7bd fa03 063e 7c4d 423d
00000390: 70e7 adbd c623 febd 4292 063e 80c7 07be
000003a0: 16fe 34be 1068 633d 90f3 c5bd 00fb 73bb
000003b0: 30b5 213d eea4 1dbe 1800 cb3d 9033 f53d
000003c0: f452 c4bd 80a8 ae3a ced5 dabd 3c73 40bd
000003d0: 8e71 f8bd 303c adbc 9404 e03d 2aa8 1b3e
000003e0: 0c8d fb3d 568a 31be 5a5f 2e3e 1a48 023e
000003f0: 8897 41bd 6050 58bc 32cc babd c0d2 2a3e
0.11570993 0.17100182 0.06652096 0.14316672 0.11611536 -0.18241252 -0.07365355 -0.11318681
-0.14714776 0.04824187 -0.017396286 0.16555172 0.020644441 0.13929117 -0.0853304 0.010866791
-0.122287765 -0.09867095 -0.045056745 0.13305944 0.10591403 0.1334877 -0.053119317 -0.097678795
0.12663355 -0.15764043 0.031366765 0.12708703 0.049853787 -0.13482322 0.1556167 -0.079998694
0.041520298 -0.089871354 0.16937229 0.0380238 -0.11520993 -0.17852694 -0.071856886 -0.05581999
0.076200575 -0.15284741 -0.003518045 0.028906643 0.15376896 0.06540862 0.0493661 -0.050821945
0.07547712 0.078828275 -0.0017637163 0.056260273 -0.10401815 0.027683824 -0.082337864 0.0016864687
0.022093728 0.0032267869 0.034345 -0.17849572 0.104815364 -0.109710835 -0.1557438 0.08443233
-0.17182925 -0.013511509 -0.11743196 -0.1410757 -0.011446163 0.025010914 -0.038035035 -0.010506853
0.045864284 -0.11578079 -0.0745201 -0.16736959 0.11620772 -0.003777787 0.1365678 -0.121759295
-0.1562814 0.11404279 -0.13032779 0.046958297 -0.005887747 -0.04381463 -0.13037337 0.12751794
0.0056428015 -0.121696174 -0.09408536 0.017567053 0.14466581 0.044937134 0.18107447 0.07986978
-0.12252523 0.0118110925 -0.108996026 0.056015104 -0.07484407 -0.0012229681 -0.055841535 -0.17468895
-0.0124569535 0.065048605 0.016946211 -0.08919158 0.089699656 -0.057358503 -0.09668058 -0.022102103
0.066714555 -0.15608983 0.16520697 0.08992991 -0.10855327 0.11896223 -0.10889345 0.17381284
0.010476887 -0.18012123 -0.049359575 0.03397107 0.18068168 0.18035609 -0.1375565 0.18116999
0.048046917 -0.12384714 -0.023383975 0.1486159 -0.074502364 -0.025328591 -0.15275285 0.048572853
-0.16476661 -0.117519714 0.113153696 -0.10033607 -0.15719195 0.15930817 0.02583231 -0.15548493
-0.01546298 -0.031590983 0.10038376 0.14399093 -0.104457356 0.18030304 -0.022251368 -0.0053468943
-0.16187945 0.13973862 -0.17330077 -0.12025121 0.13220564 0.1265575 0.014406651 0.13705558
-0.041038275 -0.098956525 0.1581854 -0.16272423 -0.02407755 0.17367911 -0.09772639 0.14201298
-0.06861101 0.011346117 0.093227714 -0.088177525 0.05778244 -0.11896973 -0.13023978 0.0066334605
0.014331251 0.14648819 -0.117705196 0.07268527 0.17779577 0.15598798 -0.0636865 -0.13784647
-0.06669848 -0.10706634 -0.021080539 0.15096414 0.049595967 -0.026271999 0.06150359 0.11732489
-0.030841693 0.14823267 0.11428338 0.039273396 -0.13207385 0.0009049624 -0.13285407 -0.13755114
0.01910448 0.026364475 -0.016837329 0.17748654 0.0385637 -0.14023483 0.09409183 0.18214673
-0.15707329 -0.14214963 0.13553926 -0.12368657 0.17031074 0.1586287 -0.15248327 0.16445693
-0.13998897 0.068665355 0.14337587 0.110952556 0.17438796 0.042022616 -0.1339909 0.10405329
0.11161688 -0.105340846 0.13087454 0.047437176 -0.08491409 -0.12409167 0.1314173 -0.13259697
-0.17675051 0.055519164 -0.096655965 -0.0037228465 0.039479434 -0.15394947 0.09912127 0.119727254
-0.095861346 0.0013325363 -0.10685311 -0.046984896 -0.12131034 -0.021146864 0.10938373 0.15200868
0.12282762 -0.17337927 0.17028561 0.12722817 -0.047263652 -0.013202757 -0.091209784 0.16681957

transformer_encoder.encoder.attention.fc_V.bias f4 [30]
00000000: 81d7 debd 80bb 143c 5031 cd3d 2006 5d3c
00000010: 5fad 92bd 22d6 3abe 53f5 b4bd c828 35bd
00000020: 3806 a03d abd5 30be eab1 a1bd dfbf 07be
00000030: c0d3 e4bc 5f06 1ebe d106 17be 4d4c 0cbe
00000040: 4c31 d93d c04c 23bb d825 b93d 8c99 ec3d
00000050: 15ab 90bd 80d7 fc3a e66d 98bd 3ce2 673d
00000060: 6c13 2a3e 858c a7bd 98ba 3abe d0fe 143d
00000070: e44f 043e 8010 86bd
-0.10880948 0.009077907 0.10019171 0.01349023 -0.07161974 -0.18245748 -0.088358544 -0.044228345
0.07813686 -0.17269008 -0.078952625 -0.13256787 -0.027933002 -0.15432118 -0.14748694 -0.13700981
0.10605106 -0.0024917573 0.09040421 0.11552724 -0.07063881 0.0019290298 -0.074428365 0.05661224
0.16608971 -0.08181099 -0.18235242 0.03637582 0.12921101 -0.06546116

transformer_encoder.encoder.attention.fc.weight f4 [30, 30]
00000000: 1f5f a6bd a4bb 4ebd c257 17be 0a0b dfbd
00000010: 00de 403b 60f2 193d 80ea 173b 184f b1bc
00000020: 1836 e43c 8107 18be 5031 28bd b2b9 173e
00000030: c06c 953c 8e3c 083e 3a2c 043e 706b 363e
00000040: e054 a63c 84c7 cf3d b9aa 29be 8ac2 0bbe
00000050: a403 8c3d 34b7 5e3d 940c 0bbd aeb2 2b3e
00000060: 8c4e c63d a0da c53b 92f7 35be b6cb bfbd
00000070: 0442 343e d88b 373e 5cce 6abd bcfd 26be
00000080: d740 cabd d84b 7abd 8068 323d 8c86 0e3e
00000090: ab69 20be 9d02 1fbe b005 103c 8692 1fbe
000000a0: 7aa0 223e 8c0b 49bd b4ef be3d 94c3 4dbd
000000b0: 2cf4 14bd 4ee0 6cbd 8c80 0a3d 2c99 00be
000000c0: dcf1 41bd f892 19be a8b6 88bc b01d d23d
000000d0: 2724 1ebe a0fb 763c d800 c63d 8cc0 2f3e
000000e0: c833 b1bc c395 30be 0567 2abe bc0b d43d
000000f0: 7f98 e9bd 9684 063e f76c b4bd d035 9ebd
00000100: 2007 15be d8ca 7ebd 2afa 12be 6015 2d3e
00000110: 5873 d03c 40ed 29bb 247b e73d 4827 e93c
00000120: 3ceb 193e 5030 453c a416 123e 00f1 b7bc
00000130: e07c 983d 1095 5abd 48d8 b3bc a4a9 233d
00000140: 871a b6bd f04c 183d 0c62 413d b011 613c
00000150: 8d09 16be d438 ab3d da1e 2f3e da7b 163e
00000160: 2bde d3bd 409f e03b ea0a cebd 14a4 ff3d
00000170: 60b0 223c 35ac 29be 5a9f 313e 8b90 86bd
00000180: 0093 8f3c 302f 303d b89a ef3d 9859 47bd
00000190: c42b 833d 06f6 2d3e d637 043e 58fd 2dbe
000001a0: 44a2 903d c873 df3c 9674 1c3e 9abc 80bd
000001b0: 88cc 6bbd 1559 23be 50d4 2bbd d017 83bc
000001c0: b5ca a4bd 3065 d33d 3c4d 133e b856 043d
000001d0: f8f9 90bc 58c2 d03d 5c09 15be 5e67 213e
000001e0: 10cf 04bc a057 01be a77e 35be c242 eabd
000001f0: b8db e9bd 667b 103e 8096 5bbc 788f 8a3c
00000200: 10cb 0abe 6306 f9bd 3be3 35be 3874 163e
00000210: 6cef 1c3e 5c06 74bd f45b 0b3d 0817 083e
00000220: 84d4 413d 3e35 acbd 2b03 24be 2039 e93c
00000230: a020 ba3d f6f4 0d3e 9c54 f43d 78c4 0abd
00000240: 58d5 f6bc f445 133e 90ea 9c3c 282d e43c
00000250: 08b3 703d c887 0f3d bcb7 503d ada1 0dbe
00000260: a781 b1bd 90de 253d daf3 1cbe fca6 273e
00000270: cf88 cabd 741b fa3d 1899 24bd 5c13 273d
00000280: 40cd db3d 47bc c1bd 7414 17be 0448 023e
00000290: 9ef0 1abe f0fb f3bc 00b4 fbbd 4814 f33d
000002a0: acb8 be3d 2589 00be 225b 233e bcd6 33bd
000002b0: 5839 a4bc e47c dd3d 64c4 993d 08f2 02bd
000002c0: d05f 173c 506f 153c 9839 883c 2417 943d
000002d0: 1196 aabd c25e 173e 14b1 453d 60b5 72bd
000002e0: 2247 26be 8cf0 b93d 5eb0 2dbe 70fd 4fbd
000002f0: bac0 063e 908f af3d 0400 16be 3eba e0bd
00000300: 8f0c e4bd 286a e13d 0f1f 8dbd d049 a23d
00000310: dacd 1a3e 5374 8ebd a422 93bd c0f2 cb3c
00000320: dbda 0fbe 7096 cb3d 9886 a63d 2050 e8bb
00000330: 9081 b03d d8c4 0c3e e540 1bbe 8c55 743d
00000340: b088 00bc 5ccd e43d 12f8 2cbe 8844 ccbc
00000350: 2553 37be 863e 0f3e 5e81 143e b03b 93bd
00000360: 8489 0c3e aca0 0e3d 60e2 fc3d f86f f73c
00000370: 08d8 d53d 00de dc3b c063 94bc f66a 093e
00000380: e607 823d 80f1 39bc b862 30be f808 963d
00000390: 5e8a fabd 6015 263d b2c3 ccbd 4c3a f43d
000003a0: 7877 c83d acbd ce3d 5959 36be 6493 03be
000003b0: 2870 f4bc 6826 123e 204d f53d 281f 1a3e
000003c0: 7097 343e 24c4 b03d f829 ca3d 86b8 0f3e
000003d0: ea5a bcbd 086f ca3d a6dd 8bbd c488 5ebd
000003e0: c05d efbc fc05 203e e5c4 bebd 5053 043d
000003f0: ff44 f5bd ce7d c5bd d6a7 1f3e c0bb 493d
-0.08123612 -0.050471917 -0.1477957 -0.108907774 0.0029429197 0.037584662 0.0023180544 -0.02164416
0.027857825 -0.14846613 -0.041062653 0.14816931 0.018240333 0.1330435 0.12907496 0.17814422
0.020304143 0.101454765 -0.16569032 -0.1364843 0.06836632 0.054373935 -0.033947542 0.1676738
0.096829504 0.006038025 -0.17770222 -0.09365027 0.17603308 0.1792444 -0.057325706 -0.1630773
-0.098756485 -0.061107486 0.04355669 0.13918513 -0.15665309 -0.1552834 0.0087904185 -0.15583238
0.1588153 -0.049083278 0.093230635 -0.050235346 -0.036365673 -0.0578311 0.033813998 -0.1255843
-0.047349796 -0.1499747 -0.01668866 0.10259569 -0.15443479 0.0150746405 0.0966813 0.17163295
-0.021631137 -0.1724463 -0.16640861 0.10353801 -0.114060394 0.13136515 -0.08809846 -0.07725108
-0.14553499 -0.062205166 -0.14353243 0.16902685 0.025445625 -0.0025928766 0.11302784 0.028461114
0.15031141 0.012035444 0.14266449 -0.022453785 0.07445693 -0.053364813 -0.021953717 0.039956704
-0.088917784 0.03718275 0.047212645 0.013737127 -0.14652081 0.083604485 0.17101613 0.14695683
-0.103451096 0.0068549216 -0.100606754 0.12482467 0.009929746 -0.16569598 0.17345944 -0.06570538
0.01752615 0.04301375 0.11699432 -0.048669428 0.06404832 0.16988382 0.12911925 -0.16991174
0.070622 0.027276888 0.15278849 -0.06285973 -0.057568103 -0.15951951 -0.041950524 -0.016002566
-0.08046476 0.10322034 0.14384931 0.032309264 -0.01769732 0.10193318 -0.14554352 0.15762088
-0.008106008 -0.12631083 -0.17724095 -0.11438514 -0.11418861 0.14109573 -0.013402581 0.016914114
-0.13554025 -0.12159421 -0.17762463 0.14692771 0.15325707 -0.059576377 0.03402324 0.13290036
0.04732181 -0.08408593 -0.16016833 0.028469622 0.09088254 0.13862976 0.119302005 -0.033878773
-0.030131027 0.14382154 0.019154817 0.027853563 0.058764488 0.0350416 0.050956473 -0.13831206
-0.08667307 0.040495455 -0.15327397 0.16372293 -0.098893754 0.122122675 -0.040185064 0.040789947
0.10732508 -0.09459739 -0.14753896 0.12722784 -0.1513085 -0.02978322 -0.12290192 0.11869103
0.09312567 -0.12552316 0.15952733 -0.04390596 -0.020046875 0.108148366 0.07508162 -0.0319691
0.009239152 0.009120777 0.016629025 0.07230976 -0.08329404 0.14782241 0.048264578 -0.059255004
-0.16238073 0.09079084 -0.1696181 -0.050778806 0.13159457 0.08572304 -0.14648443 -0.10973023
-0.11135208 0.11006576 -0.068906896 0.07924235 0.15117589 -0.06955781 -0.071843415 0.024896026
-0.1404833 0.09940803 0.081311405 -0.00708963 0.08618462 0.13746965 -0.15161474 0.059651896
-0.007845089 0.11171982 -0.16891506 -0.024935022 -0.17902811 0.13988695 0.14502475 -0.07189119
0.13724333 0.034821197 0.12347865 0.030204758 0.10441595 0.0067403316 -0.01811397 0.13419709
0.06349163 -0.011349082 -0.17225158 0.073259294 -0.12233423 0.04054773 -0.099982634 0.11925182
0.09788412 0.10094771 -0.17807521 -0.12849194 -0.029838637 0.14272463 0.11977601 0.15050948
0.17635894 0.08631161 0.09871286 0.14035234 -0.09197028 0.09884459 -0.068293855 -0.05432965
-0.029219508 0.15627283 -0.093148984 0.032306015 -0.119760506 -0.09643136 0.15591368 0.049251318

transformer_encoder.encoder.attention.fc.bias f4 [30]
00000000: 4246 7abd ac6b 40bd 001e 08bb d4e5 043d
00000010: ac1c 853d d03c a63c 3734 cfbd 80c5 2f3d
00000020: ac5a d73d 682d b83c 465b debd 0cd0 943d
00000030: 02c3 193e 8240 193e c8af 0fbe 7278 0bbe
00000040: 2c15 7f3d 8b0a bebd ac23 3abe 5079 b23d
00000050: 6a04 003e 50ca 1cbd 1c1f d33d 808e d73a
00000060: 34ec 03bd 06f9 aebd 0450 b63d 8ec1 1ebe
00000070: 2058 ae3c 2cc5 12bd
-0.06110216 -0.046977684 -0.0020769835 0.032445744 0.06499609 0.02029267 -0.10117381 0.04291296
0.10515341 0.022482589 -0.10857253 0.07266244 0.15015796 0.14966014 -0.14031899 -0.13620165
0.06227605 -0.09279355 -0.1817767 0.08714545 0.12501684 -0.038278878 0.10308668 0.0016445667
-0.032207683 -0.08543591 0.089019805 -0.15503523 0.021282256 -0.03583257

transformer_encoder.encoder.attention.layer_norm.weight f4 [30]
00000000: 0000 803f 0000 803f 0000 803f 0000 803f
00000010: 0000 803f 0000 803f 0000 803f 0000 803f
00000020: 0000 803f 0000 803f 0000 803f 0000 803f
00000030: 0000 803f 0000 803f 0000 803f 0000 803f
00000040: 0000 803f 0000 803f 0000 803f 0000 803f
00000050: 0000 803f 0000 803f 0000 803f 0000 803f
00000060: 0000 803f 0000 803f 0000 803f 0000 803f
00000070: 0000 803f 0000 803f
1.0 1.0 1.0 1.0 1.0 1.0 1.0 1.0
1.0 1.0 1.0 1.0 1.0 1.0 1.0 1.0
1.0 1.0 1.0 1.0 1.0 1.0 1.0 1.0
1.0 1.0 1.0 1.0 1.0 1.0

transformer_encoder.encoder.attention.layer_norm.bias f4 [30]
00000000: 0000 0000 0000 0000 0000 0000 0000 0000
00000010: 0000 0000 0000 0000 0000 0000 0000 0000
00000020: 0000 0000 0000 0000 0000 0000 0000 0000
00000030: 0000 0000 0000 0000 0000 0000 0000 0000
00000040: 0000 0000 0000 0000 0000 0000 0000 0000
00000050: 0000 0000 0000 0000 0000 0000 0000 0000
00000060: 0000 0000 0000 0000 0000 0000 0000 0000
00000070: 0000 0000 0000 0000
0.0 0.0 0.0 0.0 0.0 0.0 0.0 0.0
0.0 0.0 0.0 0.0 0.0 0.0 0.0 0.0
0.0 0.0 0.0 0.0 0.0 0.0 0.0 0.0
0.0 0.0 0.0 0.0 0.0 0.0

transformer_encoder.encoder.feed_forward.fc1.weight f4 [256, 30]
00000000: 7a2b 0dbe 4cb4 40bd 58f5 e63d 124d 2f3e
00000010: a77d 24be 48f3 9c3d dacb 24be b0a6 583c
00000020: c000 6cbb 6468 b63d 4a12 26be 1422 103e
00000030: f521 05be 8410 bf3d 7c8d b7bd 4a20 d9bd
00000040: c034 4b3d c095 7e3b b692 173e f0bc cfbc
00000050: 0034 e23c a853 3abd e61a 2d3e dc1e 933d
00000060: 7880 963d 50a6 da3c 6041 623c 90d3 383e
00000070: e088 b13b dff7 30be c44a ee3d 60ca 63bd
00000080: bc43 e9bd deb7 03be 98e6 263e 0ceb e3bd
00000090: bd50 c7bd cec9 183e f4d1 4abd dc2e 53bd
000000a0: 736b edbd c85b 20bd f455 953d ba1b 35be
000000b0: 7825 9dbd 3823 5a3d ee1e 243e 10f7 85bc
000000c0: 6c02 aa3d c02a 86bb ddd4 37be a6a4 a3bd
000000d0: d8ea 103e a7e3 88bd 8025 253e 2267 3abe
000000e0: 2023 a03c db82 d6bd 8c9a 2f3e 3029 babc
000000f0: 0719 b5bd ed83 d9bd e0b2 6d3d f03f 36be
00000100: 2e75 053e 266b 3a3e 2ece 0fbe 98fe 863c
00000110: e89c 0dbe 40a9 f33b 0054 e139 8c23 0abe
00000120: 745a 4abd aa0f 1cbe fa9b d7bd 774a 15be
00000130: d6c9 113e 182c 3b3d 6267 2e3e 801d 2e3c
00000140: 344e b13d a84e c1bc 4805 a8bd 3020 91bc
00000150: d074 733c 3092 ec3d 892f 2fbe baa1 803d
00000160: 1abf 323e d4fe 33bd 71bd 0cbe 569f 2c3e
00000170: dce5 ff3d 6045 8cbb e47c 86bd 8123 84bd
00000180: e042 0ebc 48e7 fcbc 9a04 bfbd c730 f5bd
00000190: d46e 403d 30f3 b93d 3873 863c f069 e13d
000001a0: 80eb 1f3d ccf6 ef3d 4078 dd3b 3cb0 04be
000001b0: e407 07bd 34e9 34be 40da 0e3d 906e 59bd
000001c0: 2c45 083d e0e4 50bc ad21 2abe 585a b03d
000001d0: b3e2 1ebe c025 cdbc 8043 b2bc 08d3 01bd
000001e0: 01b6 06be 4b06 1bbe 228b 16be 6aa4 09be
000001f0: 14bf 27be c02f 943b 3452 573d 70f5 083e
00000200: 7ddc d9bd 3049 c03c 6478 08bd 0042 353e
00000210: da68 c1bd a433 a73d e287 33be d030 143e
00000220: 58c1 de3c c085 71bc 10ab ac3d 2274 183e
00000230: 0e78 0cbe 5673 76bd a0e6 e93d fa33 28be
00000240: 0408 c03d 787a f23d 7803 fa3c 8045 62bc
00000250: c0c9 c13b 80ba d6bb 4417 a83d b351 b7bd
00000260: 0548 34be cdfb d9bd 2805 c63d 0431 b03d
00000270: f0ab d0bc d8cf b93c 7449 0e3e b48e 37be
00000280: 780e 0bbd f05a 603c fd8e 29be c08a 92bb
00000290: 38f1 903d c426 a03d fa39 143e a005 32be
000002a0: 349f d13d 3a77 9dbd c032 493b bb0c 2cbe
000002b0: d344 8fbd f1af 1fbe fc8f 14be 8c90 143d
000002c0: 4087 f7bb ecea d63d 3cb3 643d ccd4 a1bd
000002d0: ea1e cdbd 46cf 04be 346e 23be 1c7e b53d
000002e0: 1c8c 04be ae64 18be 74d3 343e aa71 cdbd
000002f0: 843f dfbd 00d1 da3b 834c bfbd 005b 03ba
00000300: ac5a 40bd 60e8 0ebe acc4 a93d 5827 01be
00000310: 40bd e8bb 3827 223e 34d8 2b3e 9ce7 7c3d
00000320: 0ee3 1e3e 8b2e e5bd 7e3c 26be 1204 38be
00000330: 6c0d 2dbe 483a df3c 8eb4 313e 08f1 923c
00000340: dccf 1ebe 38c6 793d 8c51 f33d 60ca 0fbd
00000350: e450 933d 9085 f53d 48a3 8abc a09c b23d
00000360: be6c 2d3e b0df 6f3d f6d6 2ebe 9890 f5bd
00000370: ce94 0ebe 8430 0fbe bc03 473d 28f1 d53c
00000380: 3e3e b6bd e056 723c cc22 583d e8e4 e73d
00000390: 1abb dabd 706c 753d e260 293e 34e0 123e
000003a0: 745c 613d e401 cc3d 74f2 b43d a09e a4bb
000003b0: 7e61 d3bd e887 b43c bc61 993d 38d5 c0bd
000003c0: 98cf 043e c8b2 cebd 208b af3b 5c14 153e
000003d0: e8ff 033e ad2f b8bd 73fe a8bd e441 c23d
000003e0: 84df 47bd 167a f7bd 40e3 36bb d88a cbbc
000003f0: f798 83bd ad33 18be d014 283e 6c1c 383d
-0.13786116 -0.047046944 0.11277264 0.17119244 -0.16063558 0.0766359 -0.16093388 0.013223335
-0.003601119 0.0890663 -0.16217914 0.140755 -0.13001235 0.09329322 -0.08962533 -0.10601862
0.049610853 0.0038846582 0.1480206 -0.025358647 0.027612686 -0.045489937 0.16904792 0.0718362
0.07348722 0.026690632 0.013809532 0.18049455 0.005417928 -0.17282055 0.11635354 -0.05561292
-0.113898724 -0.12863109 0.16298902 -0.11128816 -0.097321965 0.14920732 -0.049516633 -0.05155836
-0.1159276 -0.03915003 0.07291785 -0.17686358 -0.07673162 0.053256243 0.16027424 -0.01635316
0.08301243 -0.0040944517 -0.17952295 -0.079903886 0.14152086 -0.06684046 0.16127586 -0.18203405
0.019547999 -0.104741774 0.17148799 -0.022724718 -0.08842664 -0.10620866 0.058031917 -0.17797828
0.13032982 0.18204936 -0.14043495 0.016478822 -0.13829386 0.0074359477 0.0004297793 -0.13490123
-0.04940267 -0.1524035 -0.10527797 -0.14579187 0.1423715 0.045696348 0.17031625 0.010627151
0.08657494 -0.023597077 -0.08204132 -0.017715544 0.014859393 0.115513206 -0.17107977 0.06280847
0.17455712 -0.043944195 -0.13744141 0.16857657 0.12495014 -0.004280731 -0.0656679 -0.06452084
-0.008682936 -0.030872002 -0.093270496 -0.11972194 0.046980694 0.090795875 0.016412362 0.11006534
0.03904295 0.11716995 0.0067587197 -0.12957853 -0.03296651 -0.17667085 0.03487611 -0.053083956
0.033269092 -0.012749881 -0.16614409 0.08610982 -0.15516166 -0.025042415 -0.021760702 -0.031695396
-0.13155366 -0.1513912 -0.14701512 -0.13441625 -0.16381484 0.004522294 0.05256863 0.13374877
-0.10637758 0.023472399 -0.03331794 0.17700958 -0.09443827 0.081641465 -0.17532304 0.14471745
0.027191803 -0.014741361 0.08431065 0.14888051 -0.13717672 -0.060168587 0.11420941 -0.16426077
0.09376529 0.11839765 0.030519232 -0.013810515 0.005913943 -0.0065529943 0.082075626 -0.0895113
-0.17605598 -0.1064373 0.09668952 0.08603099 -0.025472611 0.022682115 0.13895208 -0.1792553
-0.033949345 0.013693556 -0.16558452 -0.0044721067 0.07077259 0.07819894 0.14475241 -0.17384958
0.10235444 -0.07688756 0.0030700415 -0.16801731 -0.06995549 -0.1559446 -0.1450805 0.036270663
-0.007553965 0.104940265 0.055834994 -0.07901916 -0.10015662 -0.12969694 -0.15960008 0.08861944
-0.12944072 -0.14882156 0.17658788 -0.10031445 -0.109007865 0.006677747 -0.09340765 -0.00050108135
-0.04696147 -0.13955832 0.08289465 -0.12612665 -0.0071026385 0.15835273 0.16781694 0.061744317
0.15516302 -0.11190518 -0.16234013 -0.17970303 -0.16899651 0.02724947 0.17354032 0.017937198
-0.1550898 0.06098005 0.11880788 -0.03510511 0.07193163 0.11988366 -0.016923562 0.0872128
0.16936013 0.058562934 -0.17074189 -0.1199047 -0.13923952 -0.13983351 0.048587546 0.026115969
-0.088985905 0.01479122 0.05276756 0.11322957 -0.10680218 0.059917867 0.16540864 0.14343339
0.05501981 0.09961298 0.08835307 -0.0050237924 -0.103213295 0.022037461 0.074893445 -0.09415668
0.12969816 -0.100926936 0.005357161 0.14558548 0.12890589 -0.089934684 -0.08251657 0.09485224
-0.048797145 -0.12083833 -0.0027906448 -0.02484648 -0.0642566 -0.14863463 0.1641419 0.04494898

transformer_encoder.encoder.feed_forward.fc1.bias f4 [256]
00000000: 54a0 013e dd96 8dbd 8c80 f53d 94d9 473d
00000010: b835 25bd ac14 2ebd d025 a0bc 74e7 5bbd
00000020: 969c 28be 603c 2abc 4861 bfbc 88f4 28be
00000030: a0a1 8cbb 29d8 09be 092f 22be 0419 213d
00000040: 38b3 cc3c c3fb 36be 38a2 c5bc f481 6abd
00000050: 7cd7 e43d 92ce 383e e08d 12be 6e7e 843d
00000060: 40d7 23bb b03f 02bd 4c32 6ebd 1b5e a2bd
00000070: 28b8 a4bc f424 ce3d 6a00 aebd ae35 023e
00000080: 19ac c2bd ef83 30be 88b9 ce3c f08f 093e
00000090: 7033 2b3e 906a a13d 60bf 3a3e fed8 053e
000000a0: 18e2 b43c e0e6 bc3c 3c8e 953d 761c 1d3e
000000b0: e08b 6bbd d4b6 17be 8075 2f3d cd43 9ebd
000000c0: a0f4 fd3c 4423 4ebd 589d 643d b43b 523d
000000d0: 32d6 163e 408b e3bc 88d2 fabd a456 2f3d
000000e0: 1032 f7bd dc82 b93d 11cb b7bd 2c06 993d
000000f0: 9821 f23c 944c 04bd 38cf d23d f814 5e3d
00000100: 6d66 38be 80ef 58bd fab4 28be cce7 9c3d
00000110: 751b aebd 5c24 16bd 6056 ad3d 9938 e9bd
00000120: 00a4 f63d 10f4 063c 047e 053e a162 cebd
00000130: b077 ad3d 600d 16bd 2860 0a3e 9460 633d
00000140: e047 983d 80ae 4d3c 044c 013d b89e f1bc
00000150: 2eab 29be fc9b 393e b8bd 95bd ecf3 0bbe
00000160: ccfc c73d aa98 2b3e ec52 1cbd 1dcb d3bd
00000170: 5089 c9bc 6017 edbc 8886 8e3d 2a5b e6bd
00000180: 656e 30be 38ad fd3d 7fc4 febd 488d bcbd
00000190: aa5f b6bd 3079 2f3e 5816 8bbc 88f6 833c
000001a0: f248 34be 0c68 16be 107e 1abc de2a 17be
000001b0: 1e14 393e b83e 13be 8cc6 2b3e 6070 983b
000001c0: 0171 36be 60a4 74bd b8f4 12be cc3c 19be
000001d0: d060 9b3d 8032 68bd e8ca 31bd dacb 0cbe
000001e0: cc1f 103e 0838 263e 164f 38be c312 95bd
000001f0: b8cf 223e 5ca4 f83d 96ef 23be 5b5d ffbd
00000200: cae8 d2bd c75a 8bbd 3429 083d 2824 fd3c
00000210: 5a5f 323e 9de8 36be 1b1b 27be 1cc3 c4bd
00000220: cd2a 2cbe e401 dabd 2ad1 fbbd 5ea4 34be
00000230: 7839 103e c80e aabc a554 e5bd 007e 993b
00000240: 3035 fa3c ba31 14be 78a1 ae3c a445 37bd
00000250: 6c30 173e 86df 803d a4bd 343e f08e 2dbe
00000260: 606d 013d 107d 5d3c f8d3 98bc 107a fdbd
00000270: 00fc c13c 30c2 60bd 6c4e 22bd f8ea 4cbd
00000280: ac8a 243e 1869 debc 788b 5abd 00cb c93d
00000290: 00e0 74b9 7cdf 233d b3d3 d5bd dbcf 36be
000002a0: d803 19be 1535 bbbd f029 27bc 62f7 d2bd
000002b0: 7624 1e3e 0847 983d b8bf 7d3d 1ce0 333e
000002c0: 477b 37be 18a2 023e 64a6 f03d b31c a6bd
000002d0: 3e91 0fbe 64b6 953d 84f0 0c3e f4cf 9b3d
000002e0: 33a9 23be 4afa 95bd b070 923d 70d2 383e
000002f0: 7cec 913d a438 983d 60a1 4bbc 5f4e 98bd
00000300: 34a1 a83d 30b5 4bbc 242c f8bd e044 a33b
00000310: 2cd3 fe3d 0186 28be 2032 89bc 20d3 ee3c
00000320: 048c 673d 52c7 1fbe 8d8d 0bbe 785a fe3d
00000330: 30b1 403d b09c 36bd 108b cc3c ca73 1abe
00000340: 6208 023e 8c06 a63d 0c7c ee3d 7043 2e3d
00000350: 257f 0ebe 8896 f53d 9dd2 d8bd c844 f0bc
00000360: a42f 61bd 948a 393e e641 1dbe 8593 c9bd
00000370: 7c49 b93d 70a9 3abd 1a55 16be cea4 36be
00000380: 549d 943d 469e 80bd 90c0 d6bc 0050 b1b9
00000390: 98e5 0f3e 30b2 073d f0d3 0c3e e92d b5bd
000003a0: 1047 453c 50e9 1ebd 78d4 d63c d8be 533d
000003b0: d82b 64bd ac6f 093d 58e2 e33d c805 f5bd
000003c0: d8c9 ad3d 1407 173d 14e1 0d3d 389c ef3d
000003d0: 8056 433d a7f9 e7bd 0eb1 873d 68dc 4d3d
000003e0: e094 9dbc 70cb 1dbe 90aa ac3d 75eb 33be
000003f0: ded9 24be 5c2d 9d3d d488 283d 301b cc3d
0.12658817 -0.069135405 0.11987409 0.048791483 -0.040334433 -0.042500183 -0.01954928 -0.053687528
-0.16465983 -0.010390371 -0.023361817 -0.16499531 -0.004291728 -0.13461365 -0.15838255 0.039330497
0.024987802 -0.17869477 -0.024125203 -0.05725284 0.11173913 0.1804755 -0.14311934 0.06469427
-0.0025000125 -0.03179902 -0.058153436 -0.079281054 -0.020107344 0.10065642 -0.08496173 0.1271579
-0.09505481 -0.17237829 0.025234953 0.13433814 0.1671884 0.07881653 0.18237066 0.13071057
0.022080466 0.023059309 0.0730252 0.15342888 -0.057506442 -0.14815837 0.042836666 -0.07727776
0.031000435 -0.0503266 0.055814117 0.05132647 0.14730147 -0.02777636 -0.12247187 0.042807236
-0.120700955 0.090581626 -0.08974279 0.0747188 0.029557034 -0.032299593 0.1029343 0.054219216
-0.18007822 -0.05296278 -0.16475287 0.07661399 -0.08501331 -0.03665577 0.0846374 -0.11387748
0.12042999 0.0082369 0.13036352 -0.10077406 0.08470094 -0.03663385 0.13513243 0.055512026
0.07435584 0.012553811 0.031566635 -0.029494628 -0.16569206 0.1812591 -0.073115766 -0.13667268
0.09765014 0.16757455 -0.038165018 -0.10341475 -0.024601609 -0.02894181 0.069592535 -0.11247857
-0.17229612 0.123865545 -0.124398224 -0.09206635 -0.08904965 0.17136073 -0.016978428 0.016108766
-0.17605951 -0.14688128 -0.00942947 -0.14762446 0.1807408 -0.14379394 0.16774958 0.004652068
-0.17816545 -0.059727073 -0.14351165 -0.14964598 0.07586825 -0.056688786 -0.043406397 -0.13749638
0.1407463 0.16232312 -0.17998919 -0.07278969 0.15899551 0.12140724 -0.16009364 -0.12468978
-0.10298307 -0.06804424 0.03324242 0.03090103 0.17419186 -0.17862172 -0.16318934 -0.09607527
-0.16813202 -0.10644892 -0.12295754 -0.17640826 0.14084423 -0.020759001 -0.11197785 0.00468421
0.03054294 -0.14472094 0.021317229 -0.04474415 0.14764565 0.06292634 0.17650467 -0.16949058
0.03159845 0.013518587 -0.018655762 -0.12376797 0.023679733 -0.05487269 -0.03962557 -0.05002877
0.16068524 -0.027149722 -0.053355664 0.09853172 -0.000233531 0.040008053 -0.10440769 -0.17852728
-0.14942873 -0.09140984 -0.01020287 -0.10301091 0.15443596 0.07435423 0.061950415 0.1756596
-0.1791812 0.12757146 0.117504865 -0.08110943 -0.14020249 0.07310179 0.13763624 0.07608023
-0.15982513 -0.073231295 0.071504 0.18049026 0.07125184 0.07432678 -0.0124286115 -0.07436823
0.08233872 -0.012433335 -0.12117794 0.004982576 0.124426216 -0.16457368 -0.016747534 0.029153407
0.056530014 -0.15603378 -0.13628216 0.12419599 0.04704398 -0.044583023 0.024968654 -0.15083233
0.1269851 0.081067175 0.11644754 0.042544782 -0.1391569 0.11991602 -0.10587046 -0.029329672
-0.054977074 0.1811927 -0.1535717 -0.0984259 0.09047219 -0.045571744 -0.14680901 -0.17836305
0.072565705 -0.06280188 -0.026214868 -0.00033819675 0.14052427 0.033128917 0.13752723 -0.08846647
0.012040868 -0.038796723 0.02622436 0.051695675 -0.055705875 0.033553764 0.11127156 -0.11963993
0.08485764 0.036871985 0.03463848 0.11699718 0.047689915 -0.11326914 0.066255674 0.050259024
-0.019236028 -0.15409636 0.0843097 -0.17570288 -0.16098735 0.07674667 0.041146114 0.09966123

transformer_encoder.encoder.feed_forward.fc2.weight f4 [30, 256]
00000000: cc9e 773d dc4e 00bd 58f4 8b3c a4b6 b7bc
00000010: 8634 07bd 1081 42bd f4d0 c63c c80b 7f3c
00000020: 08cc 213d 224f 3abd fc7e e8bc 663e 0abd
00000030: f80f 013c 40e0 153b d090 733c f0e6 e7bb
00000040: ea63 173d 58ca 14bd 2665 29bd 106d 43bd
00000050: 0078 c738 681d 7abc 20f2 bfbc c07e 02bc
00000060: 4ec3 1abd 6098 3c3b fa0b 003d 48e7 76bc
00000070: 7e71 463d 743c f83c 1aec 3dbd 5094 693c
00000080: a086 37bc 7062 433d 0a03 773d 6484 143d
00000090: c02e 0e3d e086 f3bb d437 4cbd 2847 703d
000000a0: 8849 c8bc ac47 9bbc 420a 3cbd d8f5 4cbd
000000b0: d8d4 a43c 3233 133d 20ca 83bc 70c6 fe3b
000000c0: 1edc 07bd c86c aabc ac77 14bd e873 243c
000000d0: 209d 45bb 6071 103d b0c9 c8bc 7015 f4bb
000000e0: 4035 13bc 6a71 53bd cafc 643d 40a6 6b3d
000000f0: 3abd 00bd d024 3f3c 00d2 5dbb c27c 6dbd
00000100: e295 053d be1e 423d b40b 683d b4b7 7dbd
00000110: 30d4 6d3d cab7 0abd 0057 a63c 705f fabc
00000120: 4068 4abc a055 d1bc 804a 92ba f02e b4bb
00000130: 4833 da3c 829c 26bd 406a 273b a801 6cbd
00000140: eefc 41bd 8858 913c e03f 59bb ce7b 26bd
00000150: 7280 303d c043 033d 7c0f 703d 3479 28bd
00000160: ea93 423d 526a 123d 2244 61bd 6099 df3c
00000170: 8025 06ba d0db 503c dc9b 513d 00a1 3bbd
00000180: 9a27 7fbd 4e86 043d 32b8 703d 203b e53b
00000190: 566f 433d 1030 c53c 40de 8ebb c050 e6bb
000001a0: e292 753d d09a b2bb 7077 9abb d811 263d
000001b0: e8a6 66bd 20c8 783d 2af0 2f3d a4fc f53c
000001c0: 24ae cabc 107d 49bd 2ab8 573d 72f8 24bd
000001d0: 48e7 383d ac95 0d3d 90de 413d f05f dcbc
000001e0: a0fb 91bb 70d6 a2bb aaff 4dbd 6065 673d
000001f0: a4ec a93c b05b dbbb 2c53 963c 38d7 69bd
00000200: 5cf5 7e3d 60e7 ed3b f0f5 4ebc 3086 493d
00000210: 4600 2cbd 4a5b 673d 9cce 9a3c 9889 1abc
00000220: d24b 55bd 807d e73c bef6 78bd 8067 71ba
00000230: c000 9cbb 6a36 6cbd a8c8 de3c e04f 423c
00000240: ac19 473d 3030 91bb 2295 5d3d 28bb 553c
00000250: aeec 7f3d 7c2f 2bbd d68a 653d 7892 b3bc
00000260: 70bc 4c3d 8e91 30bd 6880 f5bc 04f6 a13c
00000270: 6018 5e3c 3000 863b e422 3a3d 00d4 d238
00000280: 0ec1 443d 2059 693c 0050 fd3a d4d3 babc
00000290: 9478 453d 9841 42bd a064 1d3c 9ce5 533d
000002a0: f884 283c b298 59bd e8ed cebc a05e 213b
000002b0: 7aa3 25bd b4d2 2d3d 6ac1 11bd b843 3abc
000002c0: d6a1 713d bee8 7b3d cc35 7ebd c0fb bdbc
000002d0: 30f6 6ebd 68f1 d63c 38a7 81bc a085 34bb
000002e0: 7062 db3b c21f 4b3d c6f0 5e3d f892 d83c
000002f0: 08d5 36bc 40ac ac3c 1025 053c 1eef 3c3d
00000300: 6c33 8d3c 4e92 2e3d c2fa 49bd 1a39 1abd
00000310: 00c4 75bb 10fd b53c 3eda 713d dc3b 183d
00000320: a8e8 7c3c 86d7 09bd b28d 7c3d d091 593c
00000330: 84ae 6e3d 2440 0fbd 24d5 2dbd 1026 f4bb
00000340: ca93 6f3d 6476 4b3d 3003 dd3c 4053 153b
00000350: 5446 973c 7a69 613d 64a6 44bd 0c20 25bd
00000360: 569c 77bd b4bc ea3c a297 6e3d 4822 e6bc
00000370: 6402 023d fa77 7fbd 1624 373d 4c65 2cbd
00000380: d639 223d 8636 17bd 404b d73a 2c3c 5c3d
00000390: 4afd 393d b0f7 43bc 645f 1ebd c463 ff3c
000003a0: 7cd3 c4bc fcc5 6dbd 508d 7bbc b22d 5d3d
000003b0: be75 203d c005 acbc d06d 51bc dee7 573d
000003c0: 2eb6 013d 84a0 053d e814 7b3c 7046 92bb
000003d0: a05f 02bd 3805 73bc 3865 453c 30c6 babc
000003e0: b035 ef3c 9414 bd3c ae24 1b3d 6495 a83c
000003f0: 28d6 103c b05f 06bc 88f8 a0bc c813 6d3c
0.060454175 -0.031325206 0.017084286 -0.022425957 -0.033009075 -0.047486365 0.024269558 0.015566774
0.03950122 -0.045485623 -0.028380863 -0.033750914 0.007877342 0.002286926 0.014866069 -0.0070770904
0.03696052 -0.036325783 -0.04135623 -0.047711432 9.511411e-05 -0.0152658 -0.023430884 -0.00796479
-0.037783913 0.0028777346 0.03126142 -0.01506979 0.04844808 0.030302264 -0.046367742 0.014256552
-0.011201531 0.0477013 0.060305633 0.03625907 0.034712553 -0.00743185 -0.04985793 0.05866161
-0.024449125 -0.018955074 -0.04590822 -0.050039142 0.020121023 0.035937496 -0.016087592 0.0077751204
-0.033168904 -0.020803824 -0.03624694 0.0100374 -0.0030153468 0.035264373 -0.024510235 -0.0074488446
-0.008984864 -0.051621832 0.05590514 0.057531595 -0.03143046 0.011666492 -0.0033847094 -0.057980306
0.032613643 0.0473926 0.056651786 -0.06194277 0.058063686 -0.03386668 0.020305157 -0.030563086
-0.012353957 -0.025553524 -0.0011161119 -0.0054987594 0.02663578 -0.0406766 0.0025545508 -0.057618767
-0.047360353 0.01774241 -0.0033149645 -0.040645413 0.043091245 0.032047033 0.058608517 -0.041131213
0.047504343 0.035745926 -0.054996617 0.027294815 -0.0005117282 0.01274772 0.05117403 -0.04580784
-0.062293626 0.032354645 0.058769412 0.0069955736 0.0477136 0.02407077 -0.0043599904 -0.007028669
0.05995453 -0.005450584 -0.004713945 0.04054436 -0.056311518 0.06073773 0.042953648 0.030027695
-0.02474124 -0.049191535 0.052665867 -0.040276 0.045142442 0.034566566 0.047331393 -0.026901215
-0.004455045 -0.0049694106 -0.05029265 0.056493163 0.020742722 -0.0066942796 0.018350206 -0.057090014
0.06224571 0.007260248 -0.012631878 0.049200237 -0.04199245 0.056483544 0.018897347 -0.009432219
-0.05207426 0.028258085 -0.060782187 -0.0009208843 -0.0047608316 -0.05766908 0.02719529 0.011859864
0.048608467 -0.004430793 0.054097302 0.01304511 0.062481575 -0.04179333 0.056040607 -0.021920428
0.049984396 -0.04310756 -0.029968455 0.01977063 0.013555616 0.004089378 0.04544343 0.000100530684
0.048035674 0.01424244 0.001932621 -0.022806086 0.048210695 -0.047425836 0.00960651 0.051732644
0.0102856085 -0.053124137 -0.025259927 0.0024623051 -0.040439107 0.04243727 -0.035584845 -0.0113686845
0.05899223 0.061501257 -0.062063023 -0.023191333 -0.05834025 0.026238158 -0.015826806 -0.0027545467
0.0066950843 0.049590833 0.05442884 0.026437268 -0.011159189 0.021078229 0.008126512 0.046126477
0.017236434 0.042619996 -0.049311407 -0.037652113 -0.0037500858 0.022215396 0.059046023 0.03716646
0.015436329 -0.033652805 0.06165857 0.013279393 0.0582719 -0.03497328 -0.042439595 -0.0074508265
0.058490552 0.049673453 0.026979059 0.0022785217 0.018466152 0.05503223 -0.048010245 -0.040313765
-0.060451828 0.028654434 0.058250077 -0.028092518 0.03174056 -0.062370278 0.04471215 -0.04208879
0.039605938 -0.036917232 0.0016425624 0.053768322 0.04540757 -0.011960909 -0.03866519 0.031175502
-0.024026625 -0.05805014 -0.015353516 0.053998657 0.039174788 -0.020998836 -0.012782529 0.05271136
0.03166788 0.032623783 0.015324809 -0.004463963 -0.031829476 -0.014832787 0.012048058 -0.022799581
0.029200405 0.023081101 0.037876777 0.020579048 0.008840121 -0.008201525 -0.019649759 0.014470048

transformer_encoder.encoder.feed_forward.fc2.bias f4 [30]
00000000: 105b 05bd 90b1 ff3c f873 12bd 483e d63c
00000010: e473 1abd 6c3a 80bc 604d ad3b 4049 81bb
00000020: d8ba 52bd ac48 2dbd 2e8f 323d d246 7a3d
00000030: fc8b 90bc 7015 debc d294 013d 34fd bcbc
00000040: 00ad 77bd 24d1 703d 6490 3e3d c0fd ee3c
00000050: c8ff 5b3d 28a9 343c 6043 dcbb 5e3c 30bd
00000060: ae07 3c3d 4686 043d d099 403d dc59 313d
00000070: b06e dcbb b8f9 c83c
-0.032557547 0.031212598 -0.035755128 0.026152745 -0.03770818 -0.015652858 0.005288765 -0.0039454997
-0.05144772 -0.042305633 0.043593578 0.061102696 -0.017644875 -0.027109832 0.031636067 -0.023069955
-0.06046772 0.058793202 0.04652442 0.029173732 0.05371073 0.011026658 -0.006721899 -0.04302632
0.04590576 0.032354616 0.047021687 0.043298587 -0.006727062 0.024533138

transformer_encoder.encoder.feed_forward.layer_norm.weight f4 [30]
00000000: 0000 803f 0000 803f 0000 803f 0000 803f
00000010: 0000 803f 0000 803f 0000 803f 0000 803f
00000020: 0000 803f 0000 803f 0000 803f 0000 803f
00000030: 0000 803f 0000 803f 0000 803f 0000 803f
00000040: 0000 803f 0000 803f 0000 803f 0000 803f
00000050: 0000 803f 0000 803f 0000 803f 0000 803f
00000060: 0000 803f 0000 803f 0000 803f 0000 803f
00000070: 0000 803f 0000 803f
1.0 1.0 1.0 1.0 1.0 1.0 1.0 1.0
1.0 1.0 1.0 1.0 1.0 1.0 1.0 1.0
1.0 1.0 1.0 1.0 1.0 1.0 1.0 1.0
1.0 1.0 1.0 1.0 1.0 1.0

transformer_encoder.encoder.feed_forward.layer_norm.bias f4 [30]
00000000: 0000 0000 0000 0000 0000 0000 0000 0000
00000010: 0000 0000 0000 0000 0000 0000 0000 0000
00000020: 0000 0000 0000 0000 0000 0000 0000 0000
00000030: 0000 0000 0000 0000 0000 0000 0000 0000
00000040: 0000 0000 0000 0000 0000 0000 0000 0000
00000050: 0000 0000 0000 0000 0000 0000 0000 0000
00000060: 0000 0000 0000 0000 0000 0000 0000 0000
00000070: 0000 0000 0000 0000
0.0 0.0 0.0 0.0 0.0 0.0 0.0 0.0
0.0 0.0 0.0 0.0 0.0 0.0 0.0 0.0
0.0 0.0 0.0 0.0 0.0 0.0 0.0 0.0
0.0 0.0 0.0 0.0 0.0 0.0
