simple2transformer/param/net_param/la15_critic_net.model (torch, 232127 bytes, 33 tensors)

transformer_encoder.encoder.attention.fc_Q.weight f4 [40, 40]
00000000: 6d74 153e 50f1 e43c da53 893d dbaa 04be
00000010: d8de 91bd f0d4 c6bc 389e 823d 1d8d e9bd
00000020: a1f9 a7bd a9e3 0a3e 9e9f ebbd fd74 80bd
00000030: a873 bfbd f6fa 23bd 2d70 043e 0a16 bd3d
00000040: 4050 a9bb 90ef ed3c 62c0 06be 64f3 f4bd
00000050: 74fd b53d 2491 03be 4a2d ef3d 33f2 eebd
00000060: 0d98 023e 0cf9 bfbd 80c0 3a3c b0ae ad3d
00000070: 4cb5 7ebd ae65 b63d 3c4e 5f3d 0072 d0ba
00000080: 065d 0cbd f75b 0e3e 8000 343b e0ba ddbc
00000090: c3cc 173e a828 a0bc 205d 0dbe 32b8 a3bd
000000a0: 3bce f3bd 6268 e83d 98a6 8abc c0bc 203d
000000b0: c89f e43c 5052 5d3d fec2 cd3d c0b5 b0bc
000000c0: 74b2 6fbd 5015 85bc 708b a2bc ecda 343d
000000d0: 39b0 0d3e 3946 133e 7b9b 88bd c5a1 fbbd
000000e0: 846e 573d 9e66 f5bd 70fc 7b3c 18d6 f4bc
000000f0: 963d 21bd ad77 053e a0c6 553c 6d6b 143e
00000100: c020 683d f04c 393c 9c0d c5bd 95ac ebbd
00000110: 1592 1ebe ecac a53d 00b1 403a c532 163e
00000120: 93ea 0bbe 16bb 37bd e056 f4bc 347d af3d
00000130: 3422 30bd d034 01bc be5a a73d 3e78 8fbd
00000140: 707f 5ebc 00f4 1dbe 9a5d 21bd ead5 fe3d
00000150: 1e96 d13d 30ae 04bc 66d2 d9bd e8d4 6f3d
00000160: 2498 543d c060 69bd 10ce f3bc 4b51 023e
00000170: 0fad c3bd 60a2 23bd c036 6a3c 9b41 84bd
00000180: b8ff ba3c 0a6b 10be 5025 6ebd 7441 d0bd
00000190: ae06 fc3d 8092 3f3b 7e60 12be 4059 0e3b
000001a0: 5045 1cbe 70da c5bd a66a f93d 4058 66bb
000001b0: e3b8 c8bd 9d82 213e 05a2 0b3e 9c77 47bd
000001c0: e2a5 f73d d448 03bd aaed 823d 4195 d2bd
000001d0: 52aa 1fbe d15e 013e 60fe cebd 0bc9 00be
000001e0: 8c2a 0abd a0e6 b1bb 9062 873d a2e2 d53d
000001f0: 80d9 e3bb 0361 163e cae1 f13d aabd bf3d
00000200: 8c70 7cbd 808d 653c be4d 5cbd 60a7 933c
00000210: ad69 1b3e 42d4 fbbd acc1 553d 8289 10be
00000220: 80af d3bd b0a4 1cbd c3e6 21be af35 93bd
00000230: 2d79 0dbe 6ae8 c63d d8c3 97bd 49b5 bcbd
00000240: d018 c1bd ef95 203e 9e45 60bd e405 41bd
00000250: 18ee 9f3d f8dd b43d eb73 083e 3c41 09bd
00000260: 2171 b7bd cdea 1abe d6f1 58bd b3e2 1c3e
00000270: 9432 373d 8df5 0dbe ae47 f4bd 72a4 c93d
00000280: a4c7 343d f872 923d 3666 fdbd 309a 773d
00000290: 2a52 f83d 6897 cabd 50d5 2dbd 10ff 67bc
000002a0: 9ae1 cabd a1a3 113e 0239 923d 7036 943d
000002b0: e034 c93b bff3 86bd 6be3 f8bd 1a80 d73d
000002c0: b044 40bc 3cb1 8abd ac0b 673d 997f 123e
000002d0: e8a2 b93d 8273 bfbd bc7a 843d cbfe 07be
000002e0: 5cae 1dbe 34de 33bd edba 043e 08f1 aabd
000002f0: a5fc 143e 08a0 75bd f9ed 143e d87b b63d
00000300: 2804 e2bd be39 d03d fc6d 16be 210d 0f3e
00000310: b05b b83d 7c92 29bd 40b2 843c 769b 27bd
00000320: 90b2 8b3c 1e03 1abd b191 bebd e025 f5bb
00000330: c023 e3bc 981a 8d3c 022e c5bd f03e 4f3d
00000340: 18a9 943c a8a4 5ebd 4be1 05be fe77 d33d
00000350: bf20 0b3e fdfa 0abe 44a1 ab3d 0800 b3bd
00000360: ba83 f6bd 00ce dcbb 9c31 1b3d ff0a 0bbe
00000370: b4aa 04bd 487b 63bd 6423 a8bd 6eba 93bd
00000380: ec8e 5f3d 08cf 763d a81a d4bd d683 3cbd
00000390: 101a 413d 5ff2 203e db32 9ebd 8486 943d
000003a0: 00b8 5f3c d49e 81bd 2e0e c43d 2ba1 1abe
000003b0: e758 023e ee0d a03d 403d 14bb ea7c 8bbd
000003c0: ca9c f5bd 32e8 dc3d efdc debd 34e5 063d
000003d0: b8d4 a03d be2f f63d 5a3b d93d ecc9 353d
000003e0: 63c0 033e 2a20 be3d faf7 a2bd 5192 083e
000003f0: 253d fabd c00a d53b b8dc dabc 3066 74bc
0.14595194 0.027947098 0.067054465 -0.12955801 -0.07122582 -0.024271458 0.06377834 -0.11403868
-0.0820191 0.13563408 -0.11505054 -0.06272314 -0.093482316 -0.040034257 0.12933417 0.09232719
-0.0051670372 0.029044896 -0.13159326 -0.119604856 0.08886233 -0.12848336 0.1167856 -0.116672896
0.12753315 -0.09373674 0.011398435 0.084805846 -0.062184617 0.089061126 0.05451797 -0.0015903115
-0.0342684 0.1390227 0.0027466118 -0.027066648 0.14824204 -0.019550636 -0.13805056 -0.07994117
-0.1190457 0.113480344 -0.016925141 0.039242506 0.02790822 0.054033577 0.100469574 -0.02157104
-0.058519796 -0.016245514 -0.01984188 0.044154093 0.13836755 0.14382257 -0.066702805 -0.122867145
0.05259563 -0.11982463 0.01538001 -0.029887244 -0.039365374 0.13033934 0.013047844 0.14494105
0.056671858 0.011309847 -0.096217364 -0.11507527 -0.15485413 0.08089623 0.0007350594 0.14667805
-0.13663702 -0.044856153 -0.029826581 0.085688025 -0.04300137 -0.007886127 0.081716046 -0.07005356
-0.013580188 -0.1542511 -0.039395906 0.124431446 0.10233711 -0.00809817 -0.106358334 0.058552653
0.051902905 -0.056977034 -0.029761344 0.12726323 -0.09554493 -0.039949775 0.01429528 -0.06457826
0.022827014 -0.14103332 -0.058141053 -0.10168734 0.123059615 0.0029231608 -0.14294621 0.0021720678
-0.15260816 -0.09660804 0.12178545 -0.0035147816 -0.09800889 0.15772481 0.13636024 -0.048698053
0.120921865 -0.032051876 0.06392987 -0.10282374 -0.15592316 0.12633826 -0.10107112 -0.12576692
-0.033731982 -0.005429104 0.06610596 0.104436174 -0.0069534183 0.14685445 0.11810644 0.093623474
-0.06163077 0.014010787 -0.05378508 0.018024147 0.15177031 -0.12296344 0.052186653 -0.14114955
-0.10336208 -0.038242996 -0.15810685 -0.07187974 -0.13815756 0.09712298 -0.07410401 -0.09214265
-0.09428561 0.15682195 -0.054753892 -0.04712476 0.07809085 0.088314 0.13325469 -0.033509478
-0.089571245 -0.15128632 -0.052965008 0.15320854 0.04472597 -0.13863201 -0.11927734 0.098458186
0.044135705 0.07150835 -0.12373011 0.06044978 0.121250466 -0.0989216 -0.04243976 -0.014159933
-0.09906311 0.14222576 0.071397796 0.07236946 0.0061403364 -0.0658946 -0.121527515 0.1052248
-0.011735126 -0.06772086 0.056407616 0.14306487 0.09064275 -0.09348203 0.06468722 -0.1328079
-0.15398544 -0.04391308 0.12961932 -0.08346754 0.14549501 -0.05996707 0.14543904 0.0891034
-0.11035949 0.101672634 -0.14690393 0.13969852 0.09001863 -0.041399464 0.016198277 -0.040919743
0.017052919 -0.03760063 -0.09305132 -0.0074813217 -0.027727008 0.017224595 -0.09627916 0.05059713
0.018147036 -0.054356247 -0.13074224 0.10325621 0.1358671 -0.13572307 0.08380368 -0.0874024
-0.120368436 -0.0067384243 0.037889108 -0.13578413 -0.032389358 -0.055537492 -0.08209875 -0.07213293
0.05457966 0.060256034 -0.10356647 -0.046024166 0.047143996 0.15717457 -0.07724544 0.07252219
0.013654709 -0.06329122 0.09573017 -0.15100543 0.12729226 0.07815157 -0.0022619516 -0.06810935
-0.11992796 0.10786475 -0.108819835 0.03293343 0.07853073 0.12020825 0.106070235 0.04438202
0.12866358 0.092834786 -0.07957454 0.13337065 -0.12218694 0.0065015256 -0.026716575 -0.0149169415

transformer_encoder.encoder.attention.fc_Q.bias f4 [40]
00000000: d4a9 19bd 5e3a c73d 303f 333c 24a1 853d
00000010: 9ff1 013e 6621 13bd 06f3 ef3d 7831 1e3d
00000020: 2448 18be 30e4 f6bd 8851 173d feb1 a73d
00000030: adba 073e 5a0b f73d 7ebf b23d 10ce 053d
00000040: 7ca2 b5bd 20c7 d83b 288c f6bd 687a a73d
00000050: eec0 e23d 5835 923d 502e 15bd da4b dabd
00000060: a813 4a3d 56d2 0bbe 4803 a73d 42d6 10be
00000070: 258c 013e 565f c93d c0ce 84bb b049 563c
00000080: 08b7 763d c803 11be cd22 203e 56c8 db3d
00000090: 588c fd3c 20f9 cb3b 8d55 19be fb9b 0b3e
-0.037515476 0.097279295 0.010940358 0.06524876 0.12689827 -0.035920523 0.11716275 0.038621396
-0.1487127 -0.12055242 0.03694299 0.08188246 0.13254805 0.12062712 0.087279305 0.03266722
-0.08868882 0.0066155344 -0.120384514 0.08177644 0.11071955 0.07139081 -0.03642112 -0.10658999
0.049335152 -0.13654456 0.08154923 -0.14144233 0.12651117 0.09832637 -0.004052967 0.013079092
0.060233146 -0.14161599 0.15638275 0.107315704 0.03095071 0.0062247664 -0.14974041 0.1363372

transformer_encoder.encoder.attention.fc_K.weight f4 [40, 40]
00000000: de4f 24bd 74e9 413d aa27 ea3d 1675 df3d
00000010: da01 a83d 5676 f23d 70f6 87bd a3a1 95bd
00000020: e699 cfbd c00c 443c 8243 e5bd e0fc a6bd
00000030: 0297 b9bd 7eb6 d53d 909b 6bbd 08fa cdbd
00000040: 3a77 14be 355d bebd 53c0 163e 3e5c bdbd
00000050: 7d23 a1bd 60c5 d9bb 3a06 bebd b486 193d
00000060: d071 883c 5e01 9b3d f47e 6fbd 2cf0 173d
00000070: 2ee0 f83d 00da b1bb d05b 4cbd 2ff6 123e
00000080: c7b7 013e 782f 09bd 10b5 793d e806 09bd
00000090: 1c97 e5bd 60c3 f43c 86c3 14be 641c 743d
000000a0: 9c82 6a3d 5ae8 9ebd 94ca 1dbd e8dc 05bd
000000b0: 1d26 1ebe 09b6 193e 5dbe 0d3e 7a01 b63d
000000c0: 38dd c9bd 0838 d53c 59a4 1b3e 7d0b 0f3e
000000d0: a8ae a6bc c8d4 8a3d eed3 ea3d ac8f 5fbd
000000e0: 0b43 153e 88b5 f63c 707e fdbc a021 c5bb
000000f0: 1834 293d a057 8a3d aeac aebd ecc7 15bd
00000100: 244c ba3d 92c7 d3bd 9e2d f33d abda 213e
00000110: c025 ea3b 58d3 15bd e000 12bc e003 793d
00000120: bae7 dd3d 941c debd 78cc a13c 3838 debd
00000130: 88f1 343d e8d8 aabc 0aeb 883d 5c36 883d
00000140: fc98 063d 0f0c d5bd f097 59bd b87c f53c
00000150: 4264 cb3d c186 213e 0070 8b3b 6c03 aa3d
00000160: c452 50bd 909a ee3c a240 62bd 9623 df3d
00000170: 500d 8bbc 6c65 2d3d f4a8 acbd c6d3 b6bd
00000180: 65a9 053e cb5c 003e d48d 7f3d 58b5 1abe
00000190: 86c5 48bd a88d eabd 5cdc a7bd 415c 013e
000001a0: f88d 58bd b01e efbd f29c fb3d 4062 d2bc
000001b0: a0d2 633d fbc2 afbd 3a71 41bd 000f 38ba
000001c0: e8f0 ad3c 4e0c 1dbd 98f9 163d 88f1 d6bc
000001d0: ed82 aabd 8ce6 a83d 08ce 973c cf3a 0f3e
000001e0: 6993 1dbe c432 debd 8452 15be a23e f43d
000001f0: 4ef2 d83d 3061 d83c 7208 8c3d 1221 b23d
00000200: 9bcd a4bd 305d 853d 9513 0a3e f6f4 0bbd
00000210: d1dd b0bd 5bd8 9fbd 0050 98b9 132b 203e
00000220: 93c7 90bd 320c 45bd a064 a33d 41e7 bdbd
00000230: 9cd6 3f3d 2082 893b 5eb3 ccbd b49c 093d
00000240: 3ca5 263d 65ad 113e 9002 fdbc 9009 d6bc
00000250: 1ab5 62bd 0ed8 ff3d b12a 1a3e 8d52 0d3e
00000260: ac07 413d 065d dd3d 1415 edbd 47bf 113e
00000270: 76f5 dd3d d244 17be 6078 fd3b 4995 053e
00000280: b4c3 6a3d ce22 ef3d b0f3 993d 735a c1bd
00000290: 2919 1abe 201a 043c 8e65 7fbd 1005 b43c
000002a0: 088d b63d b2fa 72bd 6ff9 023e 2c22 5d3d
000002b0: ca00 ef3d 4df0 92bd df7d 1abe 60c8 18bd
000002c0: dcc2 053d df2e 94bd b05d 4a3c b02e 7c3d
000002d0: ad6b 05be 9fdc 003e c4ef 523d 68ce 903c
000002e0: 309f d0bc 3f49 a1bd 1785 013e a241 b2bd
000002f0: aebe eabd 2e1b 963d 36d0 bd3d c63a 74bd
00000300: 2668 8ebd e881 11be b8f7 1d3d 9636 833d
00000310: 922c ba3d cde3 ccbd 5e43 b3bd 8ec6 fc3d
00000320: 601f febd 3654 a2bd d8c4 b73c d499 993d
00000330: 1063 6c3c 0bb4 103e 0045 0c3d c0dc 6d3c
00000340: 188d e5bc 963d bebd 70d8 9a3d 2cf0 723d
00000350: d581 a3bd d8b2 88bc d9c5 0fbe a81b f7bd
00000360: 38fc dabc 3837 613d efab 0cbe 1180 efbd
00000370: 7634 be3d 722c fa3d 001b ae3c f2c9 dd3d
00000380: ce75 cd3d 9e18 03be 1c6c 323d 828c ce3d
00000390: 4ef2 9f3d d896 893c 50f4 cf3c 50ed 123c
000003a0: efe9 93bd 22cc d03d e3d9 063e 362c db3d
000003b0: 0a66 bd3d c8d9 c9bd 2e27 c63d c239 cabd
000003c0: 4f90 b9bd f217 cd3d 9aa2 e03d 6639 9ebd
000003d0: 7758 03be 5026 fb3c e0b4 5b3d 60c7 cabd
000003e0: eaa3 f73d ca11 b03d c803 aa3d 73c4 98bd
000003f0: c8ef 313d 5a68 8abd b80d 153d 04f3 743d
-0.04011523 0.04734178 0.114333466 0.10911004 0.08203478 0.11838977 -0.06638801 -0.073062204
-0.10136776 0.01196593 -0.11194517 -0.08153701 -0.090620056 0.10435198 -0.057521403 -0.10057455
-0.14498606 -0.092951216 0.14721803 -0.092461094 -0.07868097 -0.0066458434 -0.092785314 0.03748198
0.016655833 0.0756862 -0.05847068 0.03709428 0.12152134 -0.005427599 -0.049892247 0.14351724
0.12667762 -0.033492535 0.06096369 -0.033453852 -0.112104625 0.029878318 -0.14527711 0.059597388
0.057253465 -0.07759161 -0.03852327 -0.032681376 -0.15444227 0.15010847 0.13842149 0.088870004
-0.09856647 0.026027694 0.15199412 0.13969226 -0.020346954 0.06778866 0.11466204 -0.054580376
0.14576356 0.030115858 -0.03094408 -0.0060159713 0.041309446 0.067549944 -0.0852903 -0.036567613
0.09096554 -0.103407994 0.11873935 0.15806071 0.0071456134 -0.036578506 -0.008911341 0.06079471
0.10835214 -0.108452946 0.019750819 -0.108505666 0.044175655 -0.020855382 0.06685455 0.06650993
0.03286074 -0.104026906 -0.053123415 0.029966697 0.09931232 0.15774061 0.004255295 0.08301434
-0.05086018 0.029126436 -0.05523742 0.10895459 -0.016974121 0.04233305 -0.08430663 -0.08927111
0.130529 0.12535398 0.062391117 -0.1510824 -0.049016498 -0.114528 -0.08196327 0.12632848
-0.052869767 -0.11675775 0.12285794 -0.025681615 0.05562079 -0.085821114 -0.047227122 -0.0007021278
0.021233037 -0.038341813 0.036859125 -0.026238218 -0.08325753 0.08247098 0.01853086 0.13987277
-0.15388264 -0.108495265 -0.14582258 0.11926009 0.10593091 0.02641353 0.06837548 0.08697714
-0.08047029 0.06511915 0.13484032 -0.03416916 -0.08636058 -0.078049384 -0.00029051304 0.15641432
-0.07069316 -0.048107333 0.07978177 -0.09272624 0.046835527 0.0041964203 -0.09995149 0.03359671
0.040684924 0.14226301 -0.030885011 -0.026127607 -0.055348493 0.12492381 0.15055348 0.13801022
0.047126457 0.108087584 -0.11576286 0.14233123 0.108378336 -0.14772347 0.007735297 0.13045229
0.057315543 0.1167656 0.07517183 -0.0944108 -0.1504866 0.008062869 -0.06235271 0.02197507
0.08913618 -0.059321113 0.12790464 0.053987667 0.116700724 -0.0717474 -0.15087079 -0.037300467
0.032656536 -0.072355025 0.012351438 0.061567962 -0.13029356 0.1258416 0.05149819 0.017676547
-0.025466532 -0.07875299 0.12648426 -0.08703925 -0.114621505 0.07329403 0.09268229 -0.059626363
-0.069534585 -0.14209712 0.03856632 0.06406896 0.09090532 -0.10004387 -0.08753084 0.12342559
-0.12408328 -0.07926218 0.02243273 0.075000435 0.014427915 0.14131181 0.03424549 0.014517963
-0.02802138 -0.0928909 0.075608134 0.059311077 -0.07983748 -0.016686842 -0.14040317 -0.12065822
-0.026731595 0.0549843 -0.13737462 -0.116943486 0.0928735 0.122155085 0.021253109 0.10829534
0.10032235 -0.1280236 0.043560132 0.100853935 0.07809888 0.01679556 0.025385052 0.0089677125
-0.07222354 0.10195185 0.13169055 0.10701792 0.09247978 -0.098559916 0.09675442 -0.09874298
-0.09060728 0.10014333 0.10968514 -0.07725792 -0.12826715 0.030657917 0.053639293 -0.09901309
0.12091811 0.08597143 0.083015025 -0.07459345 0.043441564 -0.06758185 0.036390036 0.05980207

transformer_encoder.encoder.attention.fc_K.bias f4 [40]
00000000: 20a2 0bbe 9b61 103e f92e 1ebe 02db 07be
00000010: 3635 d73d a8dd bdbc 42ea 2abd 92e0 b33d
00000020: c495 60bd 3876 21be 9436 7dbd 0a85 c83d
00000030: e0fa 82bb 64ce 6b3d 788f bc3c a06d 8cbb
00000040: b73a 133e 836f 0f3e c006 a93c 8c19 a93d
00000050: 1a0d ee3d d447 03be 48ad f5bc 8cee 803d
00000060: 5ecd 17bd 2c8f 853d af46 0f3e 106d 8bbc
00000070: 421c ffbd 54f5 7a3d a0ee b8bb 5630 29bd
00000080: a20e eb3d be43 c13d ea39 e63d 9600 c33d
00000090: eddc 193e a1b1 e1bd a0e6 e13b 6628 db3d
-0.13636065 0.14099734 -0.15447606 -0.13267139 0.10508196 -0.023176983 -0.041727312 0.08783068
-0.054830328 -0.15767753 -0.061819628 0.09791 -0.003997192 0.057569876 0.02301763 -0.0042855293
0.14377867 0.14007382 0.020633101 0.08256826 0.11623593 -0.12820369 -0.029989854 0.06295499
-0.037061088 0.065214485 0.13991807 -0.017019778 -0.124565616 0.06126912 -0.0056436807 -0.041305862
0.114774 0.09436749 0.11241515 0.09521596 0.15025683 -0.11020208 0.0068939477 0.10701065

transformer_encoder.encoder.attention.fc_V.weight f4 [40, 40]
00000000: 00eb ecbd cc4c 1abd 6452 8ebd 84d3 0fbe
00000010: cd6b 82bd 0204 0ebe 7014 9b3d 96b6 fa3d
00000020: 9f54 203e 6cfd b23d bc5a 823d 10fc 6c3d
00000030: 1a26 c33d a0ee e8bd d0c4 b13c 916c 023e
00000040: 5038 413d 7cdb 673d a8e8 a3bc d000 62bd
00000050: ea05 d2bd 4b05 19be 24a0 693d b2cb c7bd
00000060: 3a1d c73d e28e 35bd 05b2 173e d883 89bc
00000070: d8ff 8a3c 32ba 2dbd 79bd fabd 8a77 e33d
00000080: 6bb9 033e 10ea 9cbc 0a84 27bd 68c9 16bd
00000090: 82ac e33d c2bb 0fbe d744 b9bd 54bf 12bd
000000a0: 1007 8a3c f8db 74bd 1ccb 843d 8222 b33d
000000b0: 782a fbbc 3686 b03d 7c82 75bd 4a76 ec3d
000000c0: b453 debd 1051 e0bd 562c 833d 23b8 213e
000000d0: 78ad 85bc 50f3 af3d 6778 82bd f0e3 f3bc
000000e0: 219b 163e a670 c6bd e085 1ebc 7496 1c3d
000000f0: e07c 503d a0f9 a23c a9a1 10be c0b2 2d3d
00000100: d2ed 7bbd 9efc 04be 6a11 893d 6ce8 4d3d
00000110: 00ba 09bc 4a20 b0bd f9dc afbd 37bd 113e
00000120: b48b 283d e8a1 b8bc 0f52 11be 85c7 213e
00000130: 1bba aabd 4187 17be 92dd 0bbe 74bf d7bd
00000140: 7035 cdbd 48bb b23d beff ce3d a059 13bd
00000150: f548 05be 042b 9f3d 9842 0bbe 1a25 f63d
00000160: 1440 03be fcc7 8b3d b800 cabc 380f 003d
00000170: 29c4 1b3e 085c eb3c 8888 a23c 30bd 413c
00000180: 0852 1abe 160a 56bd 7a0d 85bd e82d 023d
00000190: 64b9 773d 2a5f d1bd 367b bc3d 4ccd 38bd
000001a0: 43e9 95bd c88a a23d 26ba e83d 389a d0bc
000001b0: f3d1 bdbd b2c6 dcbd f0e6 7c3d fd24 91bd
000001c0: 3295 20be f0b6 323c 27a0 9ebd abed bdbd
000001d0: ca0c 4ebd 100c 823c dc1a c9bd 32b2 eebd
000001e0: c02b f5bb c317 1f3e ce1c ccbd 302c 2c3d
000001f0: f221 f6bd 408b aebc d0af 523d 202f 3a3c
00000200: 6a8b a13d 609f 8cbc a027 893c d965 0fbe
00000210: 894b c2bd 4685 ae3d 78ee bd3c 95db 043e
00000220: d526 adbd aa5e fc3d 40f2 2f3b 86ca e63d
00000230: 2aad b73d 00be a4bc 9063 083c 8063 b03a
00000240: f238 32bd 68be 0fbe 18ce f83c b85d ef3c
00000250: 543a a73d d077 09be de4b d43d c038 af3c
00000260: 6cbc e8bd 3802 233d 608f 4dbc 04c9 d0bd
00000270: f8de 4d3d 11da 0c3e 2abb a93d 6cde 653d
00000280: 2835 fa3c d2ef a03d e444 23bd fc46 e0bd
00000290: 47ca e3bd 44a8 08be 8e34 ebbd e244 e23d
000002a0: 403e 9e3b 0875 d5bc 0011 583d add4 fabd
000002b0: 8822 833d d9d3 93bd 90ba f8bc f1ba edbd
000002c0: b059 283d 454c a7bd 2c46 1cbe 7dea 183e
000002d0: fe83 adbd 2801 bbbd 4680 83bd e48f 7b3d
000002e0: ba57 903d 9d72 f0bd 626b d53d 688f f9bd
000002f0: 527e 9fbd c816 4d3d 98b3 12be 18ed 9d3c
00000300: 485c fabc c0db d9bc 8062 c63c d4f8 7a3d
00000310: 9460 b93d 9096 78bd f38e 123e 8810 263d
00000320: 8252 86bd 984d 9b3d 5cff 2bbd 005d 0e3d
00000330: 5a0b 7cbd 885b 803c b62d efbd c81c eb3c
00000340: 78d2 bb3d c049 24bc 47f1 093e 101a 773c
00000350: 6edb d7bd 4076 b43d c2b8 ae3d 8c2c 643d
00000360: e337 1a3e b02c a13d 8bfe 0fbe 9858 d0bd
00000370: 324c f83d 1ac5 edbd 014f 08be 8bf0 083e
00000380: 34ad 403d a2e3 69bd 33d2 15be d00f cabc
00000390: d2b6 f8bd 86e0 a9bd 69b8 143e c0bd 733b
000003a0: 0045 5eba f0a1 ad3c 19bf 85bd 2d3f 023e
000003b0: c6c6 48bd 4e2e 02be 5d1a 153e d516 1dbe
000003c0: e439 223d c4b8 3fbd 700e 10be 4830 c93c
000003d0: d716 edbd 42bf b43d f2ba b93d 68ff dbbc
000003e0: b6de de3d 05bd 0d3e 2054 b9bb b83d 99bc
000003f0: fc36 153d e954 20be df6c 103e 8e6a d13d
-0.1156826 -0.037670895 -0.069493085 -0.1404553 -0.063682176 -0.13868716 0.075722575 0.12241857
0.1565728 0.08739743 0.063649625 0.057857573 0.09528752 -0.11373639 0.021700293 0.12736727
0.047172844 0.0566058 -0.0200084 -0.055176556 -0.10255034 -0.14943425 0.057037488 -0.09755649
0.097223714 -0.044325717 0.14814003 -0.0167865 0.016967699 -0.042413898 -0.1224317 0.11106785
0.128637 -0.019154578 -0.040897407 -0.03681317 0.11116888 -0.14036468 -0.09046333 -0.035826996
0.01684907 -0.05978009 0.064840525 0.08746816 -0.0306599 0.08619349 -0.059938893 0.11545999
-0.10855809 -0.109529614 0.06404941 0.15792899 -0.016318068 0.0859133 -0.06370621 -0.029771775
0.14707614 -0.09689455 -0.009675473 0.03822942 0.05090034 0.019894421 -0.14124168 0.042406797
-0.0615061 -0.12986991 0.066927746 0.050270483 -0.008406162 -0.08599909 -0.08587069 0.14232336
0.041148856 -0.02253814 -0.14191459 0.15798767 -0.08336278 -0.14797689 -0.13658741 -0.10534564
-0.10019958 0.08727127 0.10107373 -0.035974145 -0.13016112 0.077718765 -0.13599622 0.12018795
-0.12817413 0.06825253 -0.024658546 0.031264514 0.15211548 0.028730407 0.019840494 0.011824891
-0.15070355 -0.052255712 -0.06496711 0.03178206 0.060479537 -0.10223229 0.09203188 -0.04511766
-0.07319882 0.07936627 0.1136363 -0.025464162 -0.0926856 -0.107800856 0.061743677 -0.07087133
-0.15681913 0.0109078735 -0.077453904 -0.09273847 -0.050305165 0.015874892 -0.09819576 -0.11655082
-0.007482022 0.15536408 -0.099664316 0.042034328 -0.12018193 -0.021306634 0.0514372 0.011363775
0.07887919 -0.01716584 0.016742527 -0.14003696 -0.094870634 0.08521514 0.023185 0.12974389
-0.08454672 0.12322743 0.0026847273 0.11269097 0.08968575 -0.02011013 0.008324519 0.0013457388
-0.04351134 -0.14037478 0.03037171 0.029219493 0.08165422 -0.13424611 0.10366033 0.021389365
-0.113640636 0.039797038 -0.01254639 -0.10194591 0.050261468 0.1375506 0.08287652 0.05612032
0.030542925 0.07858242 -0.03986062 -0.10951039 -0.11122566 -0.13345438 -0.114846334 0.110482946
0.004829198 -0.026056781 0.052750587 -0.12247596 0.06403071 -0.07218141 -0.030362397 -0.11607922
0.041101158 -0.08168844 -0.15261143 0.149332 -0.08472441 -0.0913108 -0.064209506 0.06141652
0.070479825 -0.11740611 0.10420872 -0.12185556 -0.077877656 0.050070554 -0.14326322 0.019278094
-0.030561581 -0.026594043 0.02421689 0.061272457 0.09051624 -0.060690463 0.14312343 0.04054311
-0.06558706 0.07583159 -0.041991577 0.03475666 -0.061534263 0.015668646 -0.116786405 0.028700247
0.09171003 -0.010027349 0.13470946 0.015081897 -0.105399 0.08811617 0.085313335 0.055706546
0.15060382 0.078698516 -0.14061944 -0.10173148 0.12123908 -0.1160986 -0.13311388 0.1337301
0.04704018 -0.057101853 -0.14630966 -0.024665743 -0.12144245 -0.082947776 0.14523472 0.0037191957
-0.000847891 0.021195382 -0.065305896 0.12719412 -0.04901769 -0.12712976 0.14560838 -0.15340741
0.03960599 -0.046807066 -0.14068007 0.024559155 -0.11576622 0.08825542 0.0906886 -0.026855186
0.108823225 0.13841636 -0.0056557804 -0.018706188 0.03642939 -0.1565739 0.14104031 0.10225402

transformer_encoder.encoder.attention.fc_V.bias f4 [40]
00000000: 2636 fcbd c209 93bd 6003 efbb 9b8f debd
00000010: b05d 8b3c 70a0 4f3d fb0e 113e 8420 1ebd
00000020: 783c e4bc 28e3 5fbd 40ac 10bb f444 5abd
00000030: 6d3b 18be a2bd e53d 12c6 33bd 0649 be3d
00000040: 7066 9f3c cc7b 8c3d 8c54 363d 3842 a4bd
00000050: c290 ed3d fe03 c83d ddbc a7bd e5e1 143e
00000060: 4ccc d2bd 56d8 51bd fe76 b43d a4da ae3d
00000070: d0df 2e3c 2390 c2bd 0072 053b b885 a73d
00000080: 659b 20be aac7 fa3d 8060 9d3a b2ab 12be
00000090: 5651 d33d d72c e2bd e893 20be 4483 86bd
-0.123150155 -0.071795955 -0.0072941035 -0.10867234 0.017012447 0.050690114 0.14165871 -0.038605228
-0.027860865 -0.054659992 -0.0022075325 -0.053288415 -0.14866419 0.1121781 -0.043890066 0.09291272
0.019458026 0.0685955 0.044514224 -0.08020443 0.11599876 0.097663864 -0.0819032 0.14539297
-0.10292873 -0.051231705 0.088117585 0.08537796 0.010673478 -0.09500148 0.0020362139 0.08179802
-0.15684278 0.12245114 0.0012006909 -0.14323309 0.10318248 -0.11043709 -0.15681422 -0.06568006

transformer_encoder.encoder.attention.fc.weight f4 [40, 40]
00000000: d630 ef3d 1708 9fbd e00b 863c 8006 123c
00000010: f961 06be f017 6ebc a4c8 64bd 9062 4a3d
00000020: a4bc 19bd 1ce2 0c3d 8d4e 14be 80d8 a63a
00000030: 7088 e93c 960a f43d 42c1 913d 2a62 54bd
00000040: dca6 c4bd 00ae b03d e454 0abe 07de c2bd
00000050: a954 0f3e 7883 d3bc ae2e 823d 0bf2 1c3e
00000060: 830f 17be 81c1 0abe 0983 0cbe 44c0 683d
00000070: dcd0 bb3d fcf1 833d 80df 63bc 9a91 d1bd
00000080: 6873 993c 469f b3bd d07f 8b3d 78ab 963d
00000090: 82e8 cc3d c002 e0bc c8c9 c73c df87 073e
000000a0: 688c 783d 0d13 bcbd 50ca dcbc 1a40 52bd
000000b0: 49e8 0e3e 683a ad3c 0f5a e5bd 2a5b 0fbd
000000c0: 53f1 8ebd 2072 85bc 6a72 f53d d293 69bd
000000d0: 3e31 ff3d f08b ebbc 80be 203c 364a 0abe
000000e0: 1b0f f4bd 7c4c 85bd 358e fabd 57c5 0a3e
000000f0: c973 c2bd 00fe 1dbc 1fc9 183e 325f bc3d
00000100: 44c1 563d 8051 0cbc d890 f7bd 1236 ce3d
00000110: ce25 6dbd 56b0 b33d 1d3c 14be b739 1cbe
00000120: 8ada adbd 6e92 b4bd e7ee c8bd 6d1e 0ebe
00000130: 4d9f 0f3e e931 0dbe 0075 a5bd 82e0 c03d
00000140: b32b 9ebd 0023 7bbb b9cb 90bd 7844 a53d
00000150: 53d9 04be 884b 15be 82b7 b63d 1ea6 f03d
00000160: f7ee 80bd 0f4c 01be 6eb3 e43d 0c53 1e3d
00000170: a4a2 543d 273a 0dbe bef1 de3d 1e77 0cbe
00000180: 8668 87bd 49f0 0f3e 50e5 a43c b030 c4bd
00000190: 2ec9 b23d 0fd3 203e 8105 1a3e 96fe b03d
000001a0: e0e4 de3b 5301 0a3e b853 833d 2fd0 16be
000001b0: 3e0e d23d 2c9c 9e3d 6073 d4bc cf4a 84bd
000001c0: 7f8f 01be c9a9 1dbe 8ac3 b53d c09f 6bbc
000001d0: eaff efbd 1a69 8a3d fbcf 063e b435 993d
000001e0: 5cc7 993d 1895 53bd d535 a3bd 2299 11be
000001f0: 401d a43b a073 a83b cfe6 073e 80a8 4dbc
00000200: b0a4 a5bc 5427 4abd b351 0b3e aac8 c63d
00000210: 3ab6 de3d ced4 32bd 8c79 acbd c016 4c3b
00000220: be86 f23d e16b 0e3e d08c 34bc 4e98 d93d
00000230: 3cbe 06be 7e27 c43d a257 13be 44ff 59bd
00000240: a1be a0bd 6cec 293d d520 9dbd 009a 773d
00000250: 982c 5e3d 5473 8d3d 1ac8 0fbe a60b 12bd
00000260: b85a f6bd 0ae6 f43d e443 9b3d 0662 73bd
00000270: 22c8 bb3d 8e73 f03d 86cf e33d 02be e03d
00000280: ed67 1ebe 6468 03bd d0ac 393d d6e4 12be
00000290: 30a7 81bc 00c2 13bd 7237 05be fd83 9ebd
000002a0: a214 8c3d a5a6 0b3e ded7 8f3d b4db 9bbd
000002b0: 132c debd c04e 23bd c8c9 d3bd 61c2 bcbd
000002c0: 899c 043e bcdd 503d a64d e33d d53b 0e3e
000002d0: 3b05 043e 9575 b8bd c253 92bd f25b 9b3d
000002e0: e23e 77bd e0df ff3b b090 373d 1294 f43d
000002f0: a0a3 3dbc d58c 153e 480d 19be 577f b6bd
00000300: 70c4 593d 0d6d 0d3e 46f6 1dbe 52a1 e63d
00000310: 90fa dc3c c979 1d3e c910 123e dade b4bd
00000320: 73f0 f1bd d456 e7bd 5c77 0a3d 8292 afbd
00000330: 46cc eebd 4e25 10be 7e99 17be 64d5 8abd
00000340: 2753 153e 4088 e93b 453c 03be 2a45 97bd
00000350: d80c f1bc 1288 8e3d e042 c43b f2a9 c83d
00000360: e11a 143e d03b 523d e0ad e73c 7453 9e3d
00000370: 301c 023c 5890 a7bc 2003 94bc a3d1 09be
00000380: 803a eebc 1864 a4bc 2d3b 16be 1c65 95bd
00000390: f350 1c3e d636 e13d c63c d43d c63c 5bbd
000003a0: d09b a4bc e78e 1dbe 8265 d73d ae86 7cbd
000003b0: 686b 8b3c 9860 06be 40e8 1fbc 18b1 bdbc
000003c0: 3f28 80bd 3c94 5fbd 5b51 053e e01d c43c
000003d0: 2b43 0fbe 5808 713d ffe9 1e3e 9860 313d
000003e0: f839 983c b6d2 18be a02b 143d 72d2 fe3d
000003f0: 41be a5bd fa19 aa3d 4b6d 97bd 0eed c8bd
0.116792366 -0.07765215 0.016363084 0.0089126825 -0.13123311 -0.014532074 -0.05585541 0.049410403
-0.037533417 0.034395322 -0.1448309 0.0012729317 0.028507441 0.119160816 0.07116939 -0.05185143
-0.096021384 0.08626938 -0.13508946 -0.095150046 0.13997139 -0.025819525 0.0635656 0.15326707
-0.14752011 -0.13550378 -0.13721861 0.056823984 0.09170696 0.06442639 -0.013908267 -0.102328494
0.018731788 -0.08770613 0.06811488 0.07356924 0.10005285 -0.027345061 0.024388209 0.13235424
0.060680777 -0.09183321 -0.026951939 -0.051330663 0.13955797 0.021146014 -0.11198818 -0.03499905
-0.06979623 -0.01628977 0.119847134 -0.057025738 0.12460564 -0.02875325 0.009811044 -0.13504872
-0.11916944 -0.06508729 -0.12234155 0.13551842 -0.094947405 -0.009643078 0.14920472 0.091978446
0.052430406 -0.008564353 -0.12088174 0.10068907 -0.05789738 0.08773868 -0.14476056 -0.15256391
-0.08488949 -0.08816992 -0.09811192 -0.13878794 0.14025612 -0.1378857 -0.080789566 0.094178215
-0.07723179 -0.0038320422 -0.07070107 0.080697 -0.12973528 -0.14579594 0.0892172 0.11750434
-0.06295579 -0.1262667 0.11167036 0.03865342 0.05191292 -0.13791715 0.108859524 -0.13717315
-0.06611733 0.14056505 0.020128876 -0.09579599 0.08729778 0.15705512 0.15041162 0.086423084
0.0068021864 0.13477068 0.064124525 -0.14727853 0.10256623 0.07744631 -0.025933921 -0.06459581
-0.12652396 -0.15396799 0.08875187 -0.014381349 -0.117187336 0.06758328 0.13165276 0.07480946
0.07508728 -0.05165586 -0.07969252 -0.14218572 0.0050083697 0.0051407367 0.1327164 -0.012552381
-0.02022013 -0.049353912 0.13605385 0.097062424 0.10874601 -0.043659978 -0.08421621 0.003114149
0.11842106 0.1390834 -0.0110199 0.10624753 -0.13158506 0.09577845 -0.14388898 -0.053221956
-0.078488596 0.041485235 -0.07672278 0.0604496 0.054241747 0.06906763 -0.14041176 -0.03565564
-0.12029022 0.11957939 0.075813085 -0.059419654 0.09169032 0.1174079 0.11123566 0.10973741
-0.15469332 -0.032081977 0.045330822 -0.14345106 -0.015826792 -0.036073685 -0.13009432 -0.077400185
0.06839873 0.13637789 0.07023595 -0.076102644 -0.1084825 -0.039870024 -0.10341221 -0.09216762
0.12950338 0.050992712 0.11098795 0.13890012 0.1289262 -0.09006802 -0.07144882 0.075858966
-0.060362704 0.0078086704 0.04481572 0.11942305 -0.011574656 0.14604504 -0.14946473 -0.08911007
0.053165853 0.13811131 -0.15425977 0.11261238 0.026974946 0.15378489 0.14264216 -0.08831568
-0.1181344 -0.11295858 0.033805236 -0.08572866 -0.11660056 -0.1407673 -0.14804646 -0.06778982
0.14582501 0.007126838 -0.1281596 -0.07386239 -0.02942507 0.06959547 0.0059894174 0.097980395
0.14463378 0.051326573 0.028281152 0.07730761 0.007941291 -0.02045457 -0.018067896 -0.13458876
-0.02908063 -0.02006726 -0.14671011 -0.07294676 0.15265255 0.10996787 0.10363154 -0.053524755
-0.020093828 -0.15386544 0.10517408 -0.061651878 0.017018989 -0.13122785 -0.009759963 -0.023155734
-0.06257676 -0.054584727 0.13019316 0.023940027 -0.13990466 0.058845848 0.1551895 0.04330501
0.01858233 -0.1492413 0.036174417 0.12442483 -0.08092929 0.08305736 -0.07393893 -0.098108396

transformer_encoder.encoder.attention.fc.bias f4 [40]
00000000: 0070 a23d defb 09bd 2d1a 163e 7487 d9bd
00000010: fbb2 a7bd 525e 18bd 992f 0f3e d740 88bd
00000020: 6198 193e 9a70 0dbe 68a6 ae3d 52e4 903d
00000030: 0c7c f6bd 089c 1cbe 1c9b aa3d 6b60 153e
00000040: a926 063e 3b93 06be 3071 673d ae43 0ebe
00000050: 063a cabd 3cb5 07bd 34bc c9bd 5848 35bd
00000060: f65d c83d 6066 803c 6411 0abe 0423 883d
00000070: 0018 db3c 5cce 14be c02b b1bc c008 f7bb
00000080: fbec 0ebe 88bd abbc 60e0 983d 1e0c cc3d
00000090: 14e0 2d3d 008c 0dbc 6cda 59bd 3bd1 0f3e
0.079315186 -0.033687465 0.14658423 -0.10621539 -0.08188435 -0.037199326 0.13983001 -0.06652992
0.14999534 -0.13812485 0.08527833 0.07074799 -0.12035379 -0.15293896 0.08330366 0.14587562
0.13100685 -0.13142101 0.05650443 -0.13893005 -0.09874348 -0.033131823 -0.0985035 -0.044258446
0.097835466 0.015673816 -0.13483196 0.06647304 0.026744843 -0.14531845 -0.021627307 -0.007538885
-0.13957588 -0.020964399 0.07464671 0.09963249 0.042450026 -0.008639336 -0.05318682 0.14044659

transformer_encoder.encoder.attention.layer_norm.weight f4 [40]
00000000: 0000 803f 0000 803f 0000 803f 0000 803f
00000010: 0000 803f 0000 803f 0000 803f 0000 803f
00000020: 0000 803f 0000 803f 0000 803f 0000 803f
00000030: 0000 803f 0000 803f 0000 803f 0000 803f
00000040: 0000 803f 0000 803f 0000 803f 0000 803f
00000050: 0000 803f 0000 803f 0000 803f 0000 803f
00000060: 0000 803f 0000 803f 0000 803f 0000 803f
00000070: 0000 803f 0000 803f 0000 803f 0000 803f
00000080: 0000 803f 0000 803f 0000 803f 0000 803f
00000090: 0000 803f 0000 803f 0000 803f 0000 803f
1.0 1.0 1.0 1.0 1.0 1.0 1.0 1.0
1.0 1.0 1.0 1.0 1.0 1.0 1.0 1.0
1.0 1.0 1.0 1.0 1.0 1.0 1.0 1.0
1.0 1.0 1.0 1.0 1.0 1.0 1.0 1.0
1.0 1.0 1.0 1.0 1.0 1.0 1.0 1.0

transformer_encoder.encoder.attention.layer_norm.bias f4 [40]
00000000: 0000 0000 0000 0000 0000 0000 0000 0000
00000010: 0000 0000 0000 0000 0000 0000 0000 0000
00000020: 0000 0000 0000 0000 0000 0000 0000 0000
00000030: 0000 0000 0000 0000 0000 0000 0000 0000
00000040: 0000 0000 0000 0000 0000 0000 0000 0000
00000050: 0000 0000 0000 0000 0000 0000 0000 0000
00000060: 0000 0000 0000 0000 0000 0000 0000 0000
00000070: 0000 0000 0000 0000 0000 0000 0000 0000
00000080: 0000 0000 0000 0000 0000 0000 0000 0000
00000090: 0000 0000 0000 0000 0000 0000 0000 0000
0.0 0.0 0.0 0.0 0.0 0.0 0.0 0.0
0.0 0.0 0.0 0.0 0.0 0.0 0.0 0.0
0.0 0.0 0.0 0.0 0.0 0.0 0.0 0.0
0.0 0.0 0.0 0.0 0.0 0.0 0.0 0.0
0.0 0.0 0.0 0.0 0.0 0.0 0.0 0.0

transformer_encoder.encoder.feed_forward.fc1.weight f4 [256, 40]
00000000: f875 14bd 9648 debd a2e6 f03d 8801 d1bc
00000010: 4819 d5bd f9b4 1ebe fc41 f0bd ceda 30bd
00000020: e802 38bd eebf d83d f208 11be 0e78 0bbe
00000030: 8ce0 7cbd b64d 5abd 626b f63d 20e6 4c3c
00000040: b29d b83d 2f86 183e 084c 21be 8cd7 513d
00000050: 9c4f b9bd 50e5 f1bd 2865 adbc 505a 15bc
00000060: 5d42 8bbd 8010 07bd a65a e43d 5a3e e93d
00000070: 24b8 4e3d ca2d 9e3d cfce 1abe 30f4 a13c
00000080: 30b7 f53c 2b56 0b3e f04b 96bc faac 893d
00000090: 18ab 8e3c 9a91 a93d 5236 50bd 6362 c3bd
000000a0: a8f7 e1bc 8e94 a43d 2e41 a2bd 2548 10be
000000b0: 22de 07bd e604 c83d 908f 2a3d 5026 933c
000000c0: 5520 0abe 62ca 1dbd 5bfc 0cbe 0a5a cfbd
000000d0: 307e 9cbc a68f df3d bc92 07be d03b 713c
000000e0: db07 bcbd b67b fa3d 068e 9fbd 5f1b 94bd
000000f0: 42e5 c6bd 1973 00be 8092 ba3a 0ce2 463d
00000100: 21ea 96bd f847 9a3c 885b 5b3d 9219 8abd
00000110: b78a fbbd 2823 8ebc bbd6 083e 9e12 3abd
00000120: 1006 603c 0097 403c 78c2 9d3c c81d 6abd
00000130: 45a4 1b3e be56 cb3d 580f fa3c c71f 183e
00000140: 088f fbbc 80da 3f3b f203 63bd 0e6a b63d
00000150: 0041 e3ba e963 c8bd 4564 183e 4076 3d3c
00000160: c2d7 16be 8268 dabd 303e 5fbc 48be 39bd
00000170: eafe fd3d 78ae f8bc 5026 a1bc 4ae8 e5bd
00000180: d85a 20be b6db 40bd c803 87bc baeb 71bd
00000190: 92f4 0cbd 6a18 fb3d a87c 963c d8c7 ebbc
000001a0: 2a29 a03d b8cc e0bc 6247 ba3d ec0b 193d
000001b0: ba21 afbd c634 f93d 1944 0a3e f9b8 1e3e
000001c0: 4ea7 ab3d f4c8 e5bd ea49 17bd b07e c8bc
000001d0: d18b 023e 80f8 e1bc 515b 0ebe 8026 9bbb
000001e0: d968 e9bd e9f6 113e 2049 7fbc 41d4 183e
000001f0: 8492 1abe f09f ffbd d811 febd 452e 093e
00000200: e6a3 03be 601d c4bb eff1 0b3e 6d79 20be
00000210: c03f ed3b f2cd df3d 8d53 213e f834 18bd
00000220: 3b90 11be 62a9 c63d 4af7 11be 381d c5bc
00000230: 3ebf dabd 1695 fd3d 88d9 87bc 1ed1 f8bd
00000240: 50e1 44bc 4a20 f03d 70d6 7e3c 0054 4c3c
00000250: bab4 ebbd ea77 e73d 9086 5f3d 5681 41bd
00000260: f335 213e 0ca2 b4bd 9b31 0ebe 4257 11bd
00000270: 0aeb 90bd b375 0b3e 5c23 b8bd d07e cdbd
00000280: 3821 ecbd 86c2 ee3d 0cda 0abe 3807 503d
00000290: 8cc4 13be fec7 e13d f036 653c 30af 5abd
000002a0: 42a0 c6bd 0096 e73c f203 fa3d abb2 82bd
000002b0: 165a 843d 2833 943c 06d5 38bd 9887 ebbd
000002c0: 825c f63d 41d9 1ebe 78e8 ac3c 484e e23c
000002d0: 943c ebbd 04ff 2dbd 17cb c0bd 23e1 1abe
000002e0: a988 20be 80cb 093b 8ad6 febd c4d5 963d
000002f0: 53d6 163e e9c4 a1bd 9210 a7bd 2d42 98bd
00000300: f009 25bc de2f f8bd 24fc 283d c86b 863c
00000310: 42f5 d93d f0cc 03be b2af ee3d 082c 9ebc
00000320: f855 07bd 229f f03d 00b0 cd3b cbc9 08be
00000330: 0f30 0e3e a0c3 543d 2407 3f3d 8446 203d
00000340: 6106 e7bd 5055 063c 0812 afbd f533 13be
00000350: 9634 9a3d 00d9 8ebc 6e7d 39bd 728b f23d
00000360: da48 edbd e063 2a3c 2c57 09be c21d cf3d
00000370: b288 d23d d801 d43c a510 a6bd 8092 a63b
00000380: 36c1 16bd 186f 0abe 8267 c63d ecb5 b13d
00000390: eeaf 5cbd f8d8 883d 38bc 9bbc 0490 17be
000003a0: f6fe d53d bcbf c9bd 24b7 553d f671 34bd
000003b0: fe81 e8bd 9ae5 a1bd 5ae6 03be 8497 cdbd
000003c0: 3399 193e d534 043e b5ce 8ebd 68da ab3c
000003d0: 208a ec3c 6f1d 1b3e 2004 9ebb a48a 2d3d
000003e0: 9893 d83c 000c 08bc 2d37 083e b25b df3d
000003f0: 16cf d83d 527b cd3d bc91 673d f8ec a83d
-0.036245316 -0.108536884 0.1176274 -0.025513425 -0.10405213 -0.15498723 -0.117313355 -0.04317742
-0.044924647 0.10583483 -0.14163569 -0.13620016 -0.061737582 -0.053296767 0.120322004 0.012506038
0.09014453 0.14894937 -0.1575166 0.051230952 -0.090483874 -0.11811316 -0.0211664 -0.00911577
-0.06799767 -0.03297472 0.11150102 0.11388846 0.05046858 0.07723577 -0.15117954 0.019769758
0.029994577 0.13607089 -0.018346757 0.06722446 0.017415568 0.082797244 -0.050833054 -0.0954025
-0.027583912 0.08036147 -0.07922588 -0.14090021 -0.033170827 0.09766559 0.041640818 0.017962605
-0.13488896 -0.038523085 -0.13768141 -0.101245955 -0.01910314 0.10916071 -0.13239568 0.014723733
-0.09181186 0.12230627 -0.07790761 -0.07231783 -0.09711696 -0.12543906 0.0014234334 0.04855542
-0.07368875 0.018833145 0.053554088 -0.067431584 -0.12282317 -0.017350748 0.13363163 -0.04542791
0.01367332 0.011754751 0.019257769 -0.057157308 0.15199383 0.09928654 0.030524895 0.14855872
-0.030707851 0.0029274523 -0.055423684 0.08906947 -0.0017338097 -0.09784681 0.14882 0.0115638375
-0.14730743 -0.106644645 -0.0136256665 -0.045347482 0.124021366 -0.03035663 -0.01967159 -0.11225946
-0.15659654 -0.047084533 -0.016481295 -0.059062697 -0.034412928 0.12260516 0.018369988 -0.028781816
0.078203514 -0.027441368 0.090956464 0.037364885 -0.08551355 0.12168269 0.1350254 0.15500249
0.0838152 -0.112199694 -0.036935724 -0.024474472 0.12748648 -0.027584314 -0.13902022 -0.004734814
-0.11396951 0.14254345 -0.015581399 0.14924718 -0.15094954 -0.124816775 -0.12405747 0.13396557
-0.12855491 -0.005984947 0.13666509 -0.1567132 0.0072402656 0.10927953 0.15754528 -0.03715989
-0.14215176 0.09700276 -0.1425449 -0.024061784 -0.10681008 0.123819515 -0.01658322 -0.12149261
-0.012016609 0.11724909 0.015554056 0.012471199 -0.1150908 0.11302169 0.05457169 -0.047242485
0.15743236 -0.088199705 -0.1388611 -0.035483606 -0.0707608 0.13619117 -0.08991119 -0.10033953
-0.115297735 0.11658196 -0.13559741 0.050788134 -0.14430445 0.110244736 0.013990149 -0.053389728
-0.096985355 0.028269768 0.12207784 -0.063817345 0.06462495 0.0180908 -0.04512503 -0.11500472
0.12029363 -0.15512563 0.021106943 0.027625218 -0.11486164 -0.04247953 -0.09413736 -0.15124945
-0.15677132 0.0021025836 -0.12443264 0.07364991 0.14730196 -0.07898886 -0.081574574 -0.07434497
-0.01007317 -0.12118505 0.041256085 0.016408816 0.10642482 -0.12871146 0.11654605 -0.019308105
-0.03304097 0.11749102 0.0062770844 -0.13358228 0.1388552 0.051944375 0.04663767 0.03912975
-0.112805136 0.008199051 -0.08548361 -0.14375289 0.07529561 -0.017437458 -0.045285635 0.11843003
-0.11586161 0.010399789 -0.1341216 0.10113098 0.10279979 0.025879785 -0.081086434 0.005083382
-0.036805354 -0.13518941 0.09687711 0.08677277 -0.053878717 0.066820085 -0.019010648 -0.14801031
0.104490206 -0.098510236 0.05217661 -0.044053994 -0.11352919 -0.07905121 -0.12880841 -0.10038665
0.14999847 0.12910779 -0.0697302 0.020978168 0.028874457 0.15147947 -0.004822269 0.042368546
0.026437566 -0.008303642 0.13302298 0.10906161 0.105863735 0.10033287 0.056535468 0.08248323

transformer_encoder.encoder.feed_forward.fc1.bias f4 [256]
00000000: 205f 04bc 00e7 d93a 5536 8cbd 4c00 923d
00000010: 0277 c53d 9899 1dbe e1dc 04be 7188 1d3e
00000020: a02f 953b b3bb 0cbe bbef 99bd 2913 b4bd
00000030: 6d68 1abe a201 16be 00a0 95ba 19ff c1bd
00000040: ba11 8abd cc07 233d c800 eebc ce8b 1cbd
00000050: 9ee2 acbd baef cabd b0b1 febc a322 a4bd
00000060: 79f4 073e 7c3e 9b3d 0a26 ce3d 5bb0 acbd
00000070: feb0 ec3d e00c 653c 5045 a7bd 1980 0d3e
00000080: 00fb fe3b a846 95bc 8e0f e53d c977 163e
00000090: 78fe 17be d992 143e c0fb 6cbb d028 ccbc
000000a0: 9e83 f7bd a870 bcbc a432 06bd 50e3 433c
000000b0: 5ae2 d83d f804 903c f895 08be 72a8 fe3d
000000c0: 60bf 2c3c a086 aa3c 26af a7bd bccf 7b3d
000000d0: d835 ebbc ddef 18be 4240 fcbd 434a 113e
000000e0: 4150 a9bd 8b75 04be 0a75 8d3d c0f1 d6bc
000000f0: 9a34 c33d 06d4 86bd 6832 79bd 6c47 b8bd
00000100: 1e4f 41bd 9e6b 11bd 16ae 32bd 4188 99bd
00000110: 267d be3d 9a29 f93d 9870 8f3d 5e14 cf3d
00000120: 264e a93d e017 013d 9a53 f23d 5072 6dbc
00000130: 5a88 a13d 927e 9cbd c390 013e 1e23 fe3d
00000140: ffb8 1fbe f080 3c3c 28df b23d c9cf 0e3e
00000150: eaa0 a73d c4ff 7e3d 441d 9a3d 6652 8e3d
00000160: 701e 91bd 42ea f63d f260 fd3d 0065 ba3b
00000170: 6a8f 21be f092 443d 9b5e 8ebd 80d7 c3bd
00000180: 80f3 953a 7007 52bd 0874 013d 0431 583d
00000190: 0021 71bb fa18 c63d 14bf 1bbe 7164 13be
000001a0: fc20 e9bd fc31 4c3d 6ef3 46bd 643c cdbd
000001b0: ca9a e33d 25bd 133e e0e0 973c 8ddb 17be
000001c0: d220 d5bd 4023 833b 30ba 9d3c 73ec 0a3e
000001d0: d59d c5bd 8409 33bd c81d 963c 31fe b3bd
000001e0: 8093 823c b8e0 b93d d58b bbbd fbcb 0f3e
000001f0: 3820 9d3d c059 603c 3b29 053e 60a4 e9bb
00000200: 10a1 12bd 797a 123e 2705 95bd 061a babd
00000210: 40f6 2abb c0a4 7f3c 4084 503b 04a3 a73d
00000220: 0397 a6bd eaa1 823d ca98 8e3d 7e7c d53d
00000230: 787c 6abd 3815 003d c5d2 213e 2a05 1bbd
00000240: ae45 c13d 1441 5dbd c0f9 3abc aeb2 b6bd
00000250: 1863 04be 8042 bdbb 6342 043e 907d 543d
00000260: d8b6 38bd 1e73 20bd f5d4 143e cc85 1f3d
00000270: 7898 b93d 1b98 073e 1411 1b3d 7861 a03d
00000280: 60c3 273c 1c77 b03d 4952 8abd b040 ccbc
00000290: 658c 0e3e 1741 053e 5422 923d 1d5f bcbd
000002a0: e796 f5bd d42f 24bd 96f3 d63d 7466 9b3d
000002b0: 2c40 1cbe cb06 0cbe b069 753c 4039 b73b
000002c0: a04a c83c 9d0b 1b3e 3faf 1c3e 3e63 ac3d
000002d0: 3ea3 c4bd f6f9 efbd 420a 0bbd b0f2 e8bd
000002e0: c064 23bd 0120 033e d614 ed3d cec9 1ebe
000002f0: c02a 15be ecba 5d3d 7ecc bbbd a837 4c3d
00000300: 3f9e a5bd 38f8 bbbc 40df 08be ad05 1f3e
00000310: 6c76 0e3d 65a5 163e 86cd edbd 81ab 81bd
00000320: 8692 60bd 68bf 70bd 20b4 883d 722d df3d
00000330: 5ce1 f3bd 5e9f a1bd 7005 5abc e2c5 80bd
00000340: 8f5c 003e 1d22 b3bd fc0d 76bd 70f9 833d
00000350: 2098 fdbd 9ec6 fa3d c2d2 913d df4e b6bd
00000360: cf62 15be 95d9 a4bd 8045 22bd e0ba 2abc
00000370: 4a94 16be 24c2 4e3d 67cf 8abd da97 7cbd
00000380: 1f71 0b3e 00e6 2ebb 6e9a 8f3d 11a3 133e
00000390: 5264 9c3d d0a5 cb3c c669 c73d 7f94 9fbd
000003a0: 4858 db3c 1402 00be 2b6d 05be 3db5 84bd
000003b0: 88e1 543d 923d 5fbd 9f27 013e fc61 18be
000003c0: b023 33bd 8763 13be 84e7 1d3d 1d09 023e
000003d0: f1f1 e9bd 47a2 d0bd 1968 173e dcc5 eebd
000003e0: c0c3 433c a4b1 443d f886 e03c 4a81 ea3d
000003f0: ce35 ce3d 1c6e 90bd 78d6 2cbd 2a98 6bbd
-0.00807932 0.001662463 -0.068463005 0.07128963 0.096418396 -0.15390623 -0.12974884 0.1538408
0.0045527965 -0.13743477 -0.07516428 -0.08792717 -0.15078898 -0.1464906 -0.0011415482 -0.09472484
-0.06741662 0.039802358 -0.029053107 -0.038219266 -0.08441661 -0.099090055 -0.031090587 -0.08014419
0.13276853 0.07580277 0.10065849 -0.08432075 0.11557196 0.01398012 -0.08167517 0.13818397
0.0077813864 -0.018222168 0.111846074 0.14694132 -0.14843166 0.14509143 -0.0036160797 -0.024921805
-0.12085651 -0.023002937 -0.03276314 0.011956051 0.10590048 0.017580494 -0.13338459 0.12434472
0.010543674 0.020816147 -0.08187704 0.061477408 -0.028712198 -0.1493525 -0.12316944 0.14188485
-0.0826726 -0.12935464 0.06907089 -0.026238322 0.09531517 -0.06583409 -0.060839087 -0.08997998
-0.047194593 -0.035503022 -0.043623053 -0.074966915 0.09301214 0.12166138 0.070038974 0.101113066
0.08266859 0.03151691 0.11832352 -0.014492586 0.07887335 -0.07641329 0.12652878 0.12409042
-0.15597914 0.0115053505 0.0873397 0.13946451 0.08184989 0.062255636 0.07525113 0.0694931
-0.070858836 0.120564 0.123720065 0.0056883097 -0.15777364 0.047991693 -0.06951638 -0.09562588
0.0011440367 -0.051276624 0.031604797 0.05278112 -0.0036793351 0.09672733 -0.1520961 -0.14393784
-0.113832444 0.049852356 -0.048571996 -0.10021284 0.11113508 0.14427622 0.018539846 -0.14829846
-0.104066506 0.004002005 0.01925382 0.1356676 -0.09649245 -0.043710247 0.018324748 -0.087887175
0.015939474 0.09076065 -0.0915753 0.14042656 0.07672161 0.013693273 0.1300401 -0.0071301907
-0.035798132 0.14304532 -0.07276373 -0.09086995 -0.0026086718 0.015603244 0.0031817108 0.0818539
-0.08134272 0.06378539 0.06962736 0.104241356 -0.05724761 0.031270236 0.15803058 -0.03784672
0.094371185 -0.05401714 -0.011412084 -0.08920799 -0.12928426 -0.0057757497 0.1291595 0.05187756
-0.04509625 -0.039172284 0.14534362 0.038945958 0.09062284 0.13241617 0.037858084 0.07831091
0.010239452 0.08616468 -0.06753976 -0.02493319 0.13920744 0.13013111 0.07135454 -0.09197829
-0.11991673 -0.040084675 0.10495679 0.07587901 -0.15258855 -0.13674466 0.014978811 0.0055915415
0.024449646 0.15141149 0.15301226 0.084173664 -0.096014485 -0.11717598 -0.03394533 -0.11374414
-0.039891005 0.12805177 0.1157624 -0.1550667 -0.14567089 0.05413334 -0.09169863 0.049857765
-0.08086824 -0.022945508 -0.13366413 0.15529509 0.034780905 0.1471153 -0.11611466 -0.0633154
-0.054827236 -0.05877629 0.06674981 0.1089734 -0.11908218 -0.07891725 -0.01330696 -0.06287743
0.12535308 -0.08746741 -0.06007193 0.06444061 -0.12382531 0.122449145 0.07120277 -0.08901762
-0.14588474 -0.08049313 -0.03961706 -0.010420531 -0.14705005 0.050478116 -0.0677784 -0.061668254
0.13617371 -0.0026687384 0.07011877 0.14417674 0.07636322 0.024859339 0.097369716 -0.07791995
0.026775494 -0.12500793 -0.13029926 -0.06479881 0.051972896 -0.054502077 0.1261277 -0.14881128
-0.043735206 -0.14393435 0.03855087 0.12698789 -0.114231 -0.10187202 0.14785804 -0.116588324
0.011948526 0.048020974 0.027408108 0.11450441 0.10068856 -0.07052252 -0.04219672 -0.05751816

transformer_encoder.encoder.feed_forward.fc2.weight f4 [40, 256]
00000000: 507c 323c 9266 003d b4bf 18bd 2aa1 383d
00000010: 50fc bdbc 403a a6bc 18eb c8bc 0aac 493d
00000020: 4872 033c 46cf 6c3d d8e8 11bd acfe 583d
00000030: 786b 2abd 3a93 593d 3403 4cbd 3050 c13b
00000040: dc7b 8f3c ec92 75bd 78ee 05bc ac9b 60bd
00000050: d8b8 fa3c 986b 483c d091 453d 8a0e 23bd
00000060: 74b2 67bd c8f6 70bd 7a12 153d 567d 093d
00000070: 9049 1bbc a06b 2ebd 8cb4 89bc e82b 5a3d
00000080: 448f 323d 7448 21bd 409e d9ba 0638 2e3d
00000090: e060 5b3d 1c4a 263d 083a 2c3c 0035 50ba
000000a0: b4e5 a9bc 36bd 46bd d86a 603c c291 273d
000000b0: 3025 f6bb 2ad1 243d 4076 063b 80e7 a43b
000000c0: 3859 eabc 8076 163a 78d6 dd3c 3097 03bc
000000d0: 3c09 99bc ae0a 2c3d 787d e6bc dc0a 72bd
000000e0: 342d 2ebd a4e5 80bc 18cf 573c 387e a2bc
000000f0: 309c 1ebc 4857 703c 0a1c 74bd b0f7 eebc
00000100: 1026 6f3c 38fa 183c d867 18bc c821 f0bc
00000110: 0631 18bd 1e2c 2fbd 6855 32bd 9490 ad3c
00000120: a058 52bd 80dc 8ebc 4831 73bd 78f2 123c
00000130: e8bd e5bc 901c 253d a607 3fbd 7e0e 17bd
00000140: de8d 153d d01f c83c 9cce 45bd 4826 a13c
00000150: ee53 423d 2ced 913c d4b4 cbbc 58b8 983c
00000160: 262d 213d d296 753d 3068 bdbc 9878 5f3d
00000170: 0876 383d 484d 74bc d84e 07bc 26c8 5b3d
00000180: 8222 473d 963c 6a3d 5020 263d 5c6e 72bd
00000190: 5076 3ebc 88db 703d 00b8 0c38 f621 73bd
000001a0: b074 5bbc 2ac8 083d 3e92 2d3d c4b8 c3bc
000001b0: 8447 e13c 7a35 34bd 822e 0dbd 3886 b5bc
000001c0: c8bc 14bc b0b2 283c 7c0c 073d b0ad ed3c
000001d0: 285c 2ebd 70e2 a1bb 60d4 dfbb 1263 5bbd
000001e0: 4efa 583d e49d cabc d010 163c a4e7 c1bc
000001f0: 24bf 1ebd 6ce5 213d dc71 6c3d 38ad 2c3d
00000200: 44a3 3abd c0e6 92bc 6209 253d 20d6 57bb
00000210: 78c6 643c 74d7 fd3c 408b bfbc 4085 abbb
00000220: 8cab 7a3d dcef 263d c096 edbc 0031 55ba
00000230: 4ab6 3dbd 6820 613d c0ab c13c 6054 adbc
00000240: 8084 57ba 0cc9 953c 90d4 cbbc c069 fd3b
00000250: 843d 7abd 84f1 a0bc b806 2f3c b6f9 773d
00000260: 749c bbbc 6cc4 6cbd aca0 e4bc 32c0 7dbd
00000270: 2454 bebc d4e6 213d 6c00 b13c cce9 86bc
00000280: 6a92 16bd 66f5 49bd 20c9 b0bc 0895 9b3c
00000290: 1036 67bc 9600 7ebd 0c77 c1bc 505e 8c3c
000002a0: 1aa2 08bd 3068 83bc bacd 0ebd 407f 173b
000002b0: c0c4 5cbb 006e 703c ac93 7fbd 2e4e 43bd
000002c0: 6685 7ebd b0a2 a4bc 3e1c 5fbd bcc2 b83c
000002d0: 1e27 53bd 5c13 45bd 002a cbbc 40ad e4bb
000002e0: a09e 363b 7a33 7d3d 76d9 283d 9a16 3d3d
000002f0: 3ed9 2e3d 10d9 6d3c d457 b63c 765a 083d
00000300: 8045 bdba 2adb 0ebd f66e 353d 9017 62bc
00000310: 645b 8d3c ae47 293d dc60 7b3d e8b4 c2bc
00000320: acb9 023d 2053 35bc 687e 503c 96b0 5f3d
00000330: 9214 08bd 6419 843c 0053 4cbc f463 733d
00000340: 72ba 46bd 40a0 383c 4eba 003d c05e a6bb
00000350: 4cc6 c93c b455 fc3c 42a4 043d 8208 2e3d
00000360: 4077 b3bc 0027 7e3d 0068 b8b8 0ae8 07bd
00000370: f065 cdbb 0019 e83a 289a 13bd 8208 4a3d
00000380: d8dd 373d 1e13 693d e024 65bc 00e5 03bb
00000390: 726e 4abd e867 563d 8e55 66bd 900b d73c
000003a0: d0e6 cc3c 70bc d6bc e656 76bd 5a75 7abd
000003b0: 1431 50bd 40dc 53bb 548d e53c 080d 10bc
000003c0: 0475 b83c f476 3a3d 3e1e 2abd 3475 2f3d
000003d0: c637 0fbd e097 20bc 0c78 1a3d 9867 85bc
000003e0: 946c ddbc c2d1 0c3d 6c94 5fbd 04a5 423d
000003f0: 103b 21bd 8ce2 523d 4480 c33c b0a4 503d
0.010893896 0.03134782 -0.037292197 0.045075573 -0.023191601 -0.020291448 -0.024526164 0.049236335
0.008022852 0.05781486 -0.035622448 0.05297725 -0.041606396 0.05311892 -0.049807742 0.0058994517
0.017515115 -0.05995457 -0.008174531 -0.05483596 0.030605718 0.012232684 0.04823476 -0.039808787
-0.05656667 -0.0588291 0.036394574 0.033566795 -0.009477988 -0.042583108 -0.016809724 0.05326453
0.04359366 -0.039375737 -0.0016602948 0.042533897 0.053559184 0.04059802 0.010511883 -0.0007942468
-0.020739414 -0.04852029 0.013697349 0.04091049 -0.0075117573 0.040238537 0.002051726 0.0050324798
-0.028606996 0.0005739704 0.027079806 -0.008031651 -0.018681161 0.042002372 -0.028136 -0.059092388
-0.042523578 -0.015734501 0.013171934 -0.019835576 -0.009680793 0.014669247 -0.059597053 -0.029170841
0.014596477 0.009337001 -0.009302102 -0.029312983 -0.037156127 -0.042766683 -0.04353848 0.021187104
-0.05135405 -0.017439127 -0.05937317 0.008968942 -0.028044656 0.040310442 -0.046638153 -0.036879055
0.03651225 0.024429232 -0.04829274 0.019671574 0.047443323 0.017813288 -0.024866499 0.01864259
0.039349698 0.059958287 -0.02312097 0.054558367 0.04503444 -0.014911003 -0.008258544 0.053657673
0.048616894 0.057186686 0.04055816 -0.05918728 -0.011624888 0.05880311 3.3549964e-05 -0.05935856
-0.01339452 0.033394016 0.042375796 -0.023891814 0.027499922 -0.04399631 -0.03446818 -0.022158727
-0.009078212 0.010296509 0.03297089 0.029013485 -0.042568356 -0.0049403235 -0.006830737 -0.053561278
0.052973084 -0.024733491 0.009159282 -0.023670025 -0.038756505 0.039525434 0.057725772 0.04215738
-0.04556586 -0.017932296 0.04029215 -0.0032934025 0.013963334 0.030986525 -0.02338183 -0.0052343905
0.061198756 0.04075609 -0.029002547 -0.0008132607 -0.046316423 0.054962546 0.023641467 -0.021158397
-0.0008221343 0.018284343 -0.024881631 0.0077335536 -0.061093822 -0.019646414 0.010682754 0.060540877
-0.022901751 -0.05780451 -0.027908646 -0.06195087 -0.02323348 0.039526775 0.021606646 -0.016468905
-0.036760725 -0.049306296 -0.021580279 0.018991962 -0.014112011 -0.062012278 -0.023616336 0.017134815
-0.033357717 -0.016040891 -0.034864165 0.0023116618 -0.0033686608 0.014674664 -0.06239669 -0.04768198
-0.062138937 -0.020097107 -0.054470293 0.022553794 -0.051550977 -0.048114166 -0.0248003 -0.006978661
0.0027865544 0.06181667 0.041223012 0.046164133 0.042687647 0.014517084 0.022258677 0.033289395
-0.0014440268 -0.03487698 0.044295274 -0.013799563 0.017255493 0.041328125 0.06137167 -0.023767903
0.03191535 -0.011067182 0.01272545 0.054611765 -0.033222742 0.016125388 -0.012470961 0.059421495
-0.04851765 0.011268675 0.031427674 -0.005077213 0.024630688 0.030802585 0.03238321 0.042488582
-0.021907449 0.062048912 -8.793175e-05 -0.033180274 -0.0062682554 0.0017707646 -0.036035687 0.04932452
0.0448893 0.056902997 -0.0139858425 -0.0020125508 -0.049421735 0.052345186 -0.056233935 0.02625063
0.025012404 -0.0262129 -0.060141467 -0.06114707 -0.050828055 -0.0032327324 0.028021492 -0.008792169
0.022516735 0.0455236 -0.041532747 0.042836383 -0.0349653 -0.009801835 0.037712142 -0.016284749
-0.027029313 0.03437973 -0.054584906 0.047520652 -0.039362967 0.051485583 0.023864873 0.05093831

transformer_encoder.encoder.feed_forward.fc2.bias f4 [40]
00000000: 96fc 363d 30f8 783c 503d d33b 0cb0 dc3c
00000010: 3000 a9bc 08c2 ce3c 7a0b 303d dcd4 fbbc
00000020: 004b 293b 280d cd3c 004f 83ba 8c68 a9bc
00000030: 86a6 6ebd 905b 6bbd cebd 1ebd 1c22 85bc
00000040: 34ba 6c3d 880d d9bc 8000 99bb 0046 ed3c
00000050: d8ad 863c 70aa f7bb a4aa 1fbd e0e5 783d
00000060: f036 533d e839 cabc a20b 08bd 82ab 0ebd
00000070: 1284 13bd 28ba 76bc e8fa 7b3c f4c6 6bbd
00000080: 38d2 613c e83b 19bc e4fe d9bc ca10 3abd
00000090: 924d 6dbd 4063 d5bc ec89 7e3d 7a8d 1d3d
0.04467448 0.015195891 0.006446518 0.026939414 -0.020629972 0.025239006 0.042979695 -0.030741148
0.0025832057 0.025030687 -0.0010018051 -0.020679735 -0.058264278 -0.057460368 -0.03875523 -0.016251616
0.057794765 -0.02649571 -0.004669249 0.028964043 0.016440317 -0.0075581595 -0.038981095 0.0607661
0.051566064 -0.024685815 -0.03321422 -0.03483153 -0.036014624 -0.015059032 0.015379645 -0.057562783
0.01378303 -0.009352662 -0.0266108 -0.045426168 -0.057935305 -0.026048303 0.06214325 0.038465
