simple2transformer/param/net_param/la24_actor_net.model (torch, 168959 bytes, 34 tensors)

transformer_encoder.encoder.attention.fc_Q.weight f4 [30, 30]
000000 f0 57 22 3c b0 53 7b 3d 57 7c c0 bd 81 e7 12 be
       0.009908661 0.061359107 -0.09398716 -0.14346124
000010 1c 13 69 bd 28 49 0a be 40 83 0f be 10 4c 09 3e
       -0.05690299 -0.1350447 -0.14014912 0.13407922
000020 3c b1 1f 3e 50 70 11 3d d4 c9 6c 3d 84 d2 0e be
       0.15594953 0.0355075 0.057809666 -0.13947493
000030 a5 15 b0 bd 8e 4d 27 3e 58 5c f0 bc e4 2d 6e bd
       -0.08597878 0.16338179 -0.029340908 -0.058149233
000040 80 cb ed 3b 7e ac 36 be f8 2a 1c 3e d0 e1 26 be
       0.007256925 -0.17839238 0.15250766 -0.16297078
000050 ca d6 86 bd a0 fc 55 3d c0 44 15 3b e4 72 43 bd
       -0.065839365 0.052242875 0.0022776574 -0.04771699
000060 e4 e9 22 3e c0 67 0b 3b 68 a8 d9 3c 78 41 fe bc
       0.15909535 0.0021271557 0.02656956 -0.031037077
000070 86 ec 11 3e dc b2 b9 bd 20 aa 74 3d 98 c2 86 3d
       0.14250383 -0.09067318 0.059732556 0.065800846
000080 7c b0 45 3d 00 3d e0 ba 2c c9 bd 3d 52 18 1e be
       0.04826401 -0.0017108023 0.09266886 -0.15438965
000090 ec 92 5b bd e0 15 ab 3d 34 78 a9 bd a6 1d dc bd
       -0.053606912 0.08353782 -0.0827488 -0.107478425
0000a0 2c b3 d2 3d 20 ec b2 bc 28 27 35 3e 36 b4 13 3e
       0.102880806 -0.021841109 0.17690718 0.14424214
0000b0 0c 57 4b bd a0 0f 3d bc 20 3b 3f bd af 4b 18 be
       -0.04964356 -0.01153937 -0.046687245 -0.14872621
0000c0 28 15 a5 3d c1 7b fb bd 68 2a 4e 3d b0 8f 0b bc
       0.08060676 -0.122794636 0.05033341 -0.0085181445
0000d0 28 2f ab bc 90 05 b4 3d 8a 06 15 3e 19 cf 98 bd
       -0.02089651 0.087901235 0.14553276 -0.07461376
0000e0 2d ab 23 be e4 82 9d bd 44 6d 20 3e 7e ea 06 3e
       -0.15983267 -0.07690981 0.15666682 0.13175389
0000f0 a0 75 bc bc 5c 31 06 3d 20 85 5c bc 28 c1 93 3c
       -0.023005307 0.032761917 -0.013459474 0.01803644
000100 70 ac 26 3c 9d 8d ce bd ac f4 b2 3d fc f6 c8 3d
       0.010172948 -0.10085604 0.08738074 0.098127335
000110 30 b7 b3 bc 50 fe e2 3c d8 8a 16 3e 88 9b 13 bd
       -0.021937937 0.027709156 0.14701402 -0.036036998
000120 18 81 ed 3c 0a 09 1f 3e a4 46 2e 3e b8 3a 96 3d
       0.02899222 0.15530792 0.17019135 0.073354185
000130 0c 2f 0d 3d cf 3a bd bd 30 4e 01 3d 64 26 1e bd
       0.034468696 -0.092397325 0.031568706 -0.03861083
000140 b8 a3 c4 bd e0 cc 2c 3e 08 30 d1 3c f4 63 41 3d
       -0.096015394 0.16875029 0.025535598 0.047214463
000150 7e 95 2e be 9c f8 ff 3d 04 ac b2 3d 10 59 90 3d
       -0.17049214 0.1249859 0.087242156 0.07048237
000160 a8 f7 a4 bd 57 63 f2 bd 66 c4 02 be 42 4a f5 bd
       -0.08055049 -0.11835354 -0.12770233 -0.11977054
000170 bc 44 8c bd 32 c3 b0 bd e0 11 21 3e a2 dc 09 be
       -0.068490475 -0.086309806 0.15729475 -0.13463071
000180 14 d0 6b bd 54 84 67 3d d4 4a a8 3d f8 34 76 3d
       -0.057571486 0.056522682 0.08217397 0.06010911
000190 a8 f0 20 3e f6 be 03 3e a8 22 aa 3c 01 48 16 be
       0.15716803 0.12865815 0.020768479 -0.14675905
0001a0 24 82 71 3d b4 2f 6a 3d 7f f8 9b bd 78 2a 9f 3d
       0.058962002 0.0571744 -0.07615756 0.07771772
0001b0 f0 44 15 bd c2 db 81 bd 70 2e 8b 3c fa 97 87 3d
       -0.036442697 -0.063407436 0.016989917 0.06620784
0001c0 f8 0c 92 3c a4 ff 0a 3e b4 af 39 bd 98 24 69 3d
       0.01782845 0.13574082 -0.04533358 0.056919664
0001d0 62 5f 05 3e fe 05 8a bd 64 df e0 3d 02 bf 16 3e
       0.13024667 -0.06739424 0.109801084 0.14721301
0001e0 e4 d0 f0 3d 38 48 6f bd a8 6a df 3d a4 56 fb 3d
       0.11758593 -0.058418483 0.10909015 0.12272385
0001f0 ca e4 31 be d7 3e 18 be 82 dc 9c bd ae db 1d 3e
       -0.17372432 -0.14867721 -0.07659246 0.15415832
000200 14 22 25 be 2a 04 18 be 1b 9e 13 be 32 59 03 3e
       -0.16126281 -0.14845338 -0.14415781 0.12826994
000210 20 d6 df 3b 02 15 d0 bd d4 00 1f be f0 6c 3c 3c
       0.0068309456 -0.10160257 -0.1552766 0.011500582
000220 be 96 0c be e6 6a 73 bd 44 5a 15 3e 13 16 b6 bd
       -0.13729379 -0.05942812 0.14585215 -0.08890929
000230 e8 ec 8b bc e8 92 40 bd db 6d 9c bd 18 f6 32 be
       -0.01708074 -0.0470151 -0.07638141 -0.1747669
000240 0c 68 70 bd a2 06 81 3d d0 52 31 be 8a ce 2e 3e
       -0.058692977 0.06300093 -0.17316747 0.17070976
000250 b0 49 2a 3c b6 c8 0d be 4c 92 97 3d 6f 69 07 be
       0.010393545 -0.13846096 0.07400951 -0.13223813
000260 b8 06 2f 3e d3 5a d8 bd 10 7b 11 bc fe 6e 2a be
       0.17092407 -0.10564198 -0.008879438 -0.16643903
000270 b0 31 4c 3d 68 ea d2 3d 00 64 b8 bc fc db 9b 3d
       0.049852073 0.10298616 -0.022508621 0.07610318
000280 b0 3f c8 3c 7e 5b 15 3e 31 87 01 be 2a 27 17 3e
       0.024444431 0.14585683 -0.12649228 0.14761034
000290 a0 a4 d1 3b 68 a7 e2 3c e0 12 cd 3c 9c a1 40 3d
       0.0063977987 0.027667716 0.025033414 0.047029123
0002a0 f4 45 c5 3d c8 31 99 3d 0a 74 8a bd 00 be 91 ba
       0.09632483 0.07480198 -0.06760414 -0.0011119246
0002b0 a0 ce e6 3d e0 0e f6 3b 26 66 04 be 2f 93 19 be
       0.11269879 0.0075090975 -0.12929592 -0.14997552
0002c0 d3 89 f1 bd 55 db e6 bd 60 31 eb bb c7 af b1 bd
       -0.11793866 -0.11272303 -0.007177517 -0.08676105
0002d0 41 ca 31 be 80 c7 f1 ba 68 73 8b 3d f4 f5 f9 3d
       -0.1736231 -0.0018446296 0.06809121 0.12205115
0002e0 fc 57 cb 3d ba 4d 19 3e ec 6b 52 3d 86 b0 29 3e
       0.09928891 0.14971057 0.051372454 0.16571245
0002f0 dc bc 23 3d 28 3f 05 bd 70 d4 29 be 40 3d 02 3e
       0.039975032 -0.032530934 -0.16584945 0.12718678
000300 60 b0 f0 bc c0 e5 9a 3c 47 6b 0e be 93 00 37 be
       -0.029380977 0.018908381 -0.1390811 -0.17871313
000310 e8 51 ee 3d 72 2a 88 bd ee 84 22 be 32 bb 22 be
       0.11636716 -0.06648721 -0.15871021 -0.15891722
000320 b0 b4 b4 bc 73 34 ae bd f4 19 83 3d 2c f3 cd 3d
       -0.022058815 -0.08506098 0.064014345 0.10056147
000330 30 3e 5f 3c 54 57 35 3e d2 46 a4 bd e5 d9 2e be
       0.0136256665 0.17709094 -0.080213204 -0.17075308
000340 36 ee f9 bd e0 b8 c6 3d 70 e3 1c 3e 50 16 70 3c
       -0.12203638 0.09703231 0.15321136 0.014653757
000350 9e 39 2b 3e 38 cd 87 bc bc 28 da 3d a0 97 30 3e
       0.16721198 -0.016577348 0.10652301 0.1724534
000360 9c 90 dc 3d 28 2c ee bd 58 bf db 3d 34 45 2c 3d
       0.107697695 -0.11629516 0.10729855 0.042058185
000370 d0 ae c8 bc c0 b3 1f be 48 2e a8 3d 4a 23 1a 3e
       -0.02449742 -0.15595913 0.082119524 0.15052524
000380 78 a1 eb 3d a7 02 29 be 8e 48 22 be d0 f7 99 3c
       0.11505407 -0.16504918 -0.1584799 0.018794924
000390 54 77 34 3e 14 fb 52 bd ec 3f c4 3d 88 d7 d2 bc
       0.17623645 -0.051508978 0.09582505 -0.025737539
0003a0 77 cf 92 bd 90 10 3b 3d 7a 1c 28 3e d8 7a 2b 3e
       -0.07168477 0.045670092 0.16417113 0.1674608
0003b0 74 0e 22 bd ba 56 84 bd 04 05 17 3d 00 c3 15 3d
       -0.039564565 -0.06461854 0.036870018 0.03656292
0003c0 98 db 35 3d fc 61 37 be 26 9a 31 3e b9 94 d9 bd
       0.044398874 -0.17908472 0.17343959 -0.1062407
0003d0 5e 2b 2f 3e f4 43 35 3e 3c 92 2f 3e 2f ee 0e be
       0.17106387 0.17701703 0.17145628 -0.13958047
0003e0 e4 32 6e bd 28 34 fb 3c e4 0c d4 3d 40 6d 51 bc
       -0.058154 0.030664518 0.10354021 -0.012782395
0003f0 00 ab af bd 12 76 89 3d b9 8e d6 bd 80 2f 97 3c
       -0.085775375 0.06711973 -0.10476441 0.018455267

transformer_encoder.encoder.attention.fc_Q.bias f4 [30]
000000 f8 0e 9c 3d c1 af dc bd a0 c8 8d bb 5a db 21 be
       0.076200426 -0.1077571 -0.004326895 -0.15806332
000010 e1 9b eb bd 2c c3 2a bd 50 67 34 bc 7c e8 eb 3d
       -0.11504341 -0.041690037 -0.01101096 0.11518952
000020 e7 06 1e be 2e b1 25 3e f0 e2 3c 3d f4 40 0b 3e
       -0.1543232 0.1618087 0.046114862 0.13598996
000030 98 94 c8 3d da 96 16 be e8 81 33 3d 8c a3 d5 bd
       0.09793967 -0.14705983 0.04382506 -0.10431585
000040 c4 c1 bc 3d f8 ab 1f be b4 ac 77 bd 09 a3 e4 bd
       0.09216645 -0.15592945 -0.060467437 -0.11163909
000050 98 d5 40 bd 9a f7 08 be b8 3a 11 bd 98 40 91 3d
       -0.0470787 -0.13375703 -0.03545639 0.070923984
000060 b0 9e 36 be 29 c9 2e be 14 8a e7 3d 38 9a f8 3d
       -0.17833972 -0.17068924 0.11305633 0.1213879
000070 58 85 27 3e 4c 8e 18 3e
       0.1635946 0.14898032

transformer_encoder.encoder.attention.fc_K.weight f4 [30, 30]
000000 57 c8 1d be 18 de a1 3d bb 25 eb bd 2c 17 3d bd
       -0.15408455 0.07903689 -0.11481806 -0.046164677
000010 60 1d 9b bc 15 d9 2f be 76 82 1d 3e be 91 20 be
       -0.018934906 -0.17172654 0.15381798 -0.15680596
000020 7c 97 8d 3d 5e b1 26 be 74 53 f8 bd 98 a2 97 3d
       0.06913659 -0.16278598 -0.121252924 0.07404059
000030 98 d2 f2 3c 86 3c 1e be 32 3e 31 3e 20 5b 34 3c
       0.029641435 -0.15452775 0.17308882 0.011008054
000040 d2 31 1e 3e d7 6b 2f be fc c4 53 bd 00 50 bf 3d
       0.15448692 -0.17130981 -0.05170153 0.09341431
000050 2c b8 a8 3d de b8 97 bd da d8 19 3e 16 e5 32 3e
       0.08238253 -0.074083075 0.15024129 0.17470202
000060 04 8c ef 3d 88 59 03 be 00 39 0d 3b 20 7e f1 3d
       0.11696628 -0.12827122 0.0021548867 0.117916346
000070 e4 d8 d7 3d e0 68 af bd e7 8c 1f be 08 02 7c 3d
       0.105394155 -0.08564925 -0.15581094 0.061525375
000080 02 e8 39 be 78 80 0a 3e 24 55 39 3e 3c 10 a1 bd
       -0.1815491 0.1352557 0.18098885 -0.078644246
000090 10 58 af 3c 64 fa 03 be ec 51 f3 3d 46 67 88 bd
       0.021404296 -0.12888485 0.1188086 -0.06660323
0000a0 b2 98 28 3e c2 41 88 3d d8 a0 bc 3d fc cb 90 3d
       0.16464499 0.06653167 0.09210366 0.07070157
0000b0 6c ba 08 bd 00 ab bf ba af dd 0e be 14 3f c3 3d
       -0.03338091 -0.0014623106 -0.13951753 0.095335156
0000c0 e4 9e c7 bd 7c ae 2e 3e 5a 79 2d 3e 27 a1 cb bd
       -0.09747103 0.17058748 0.16940823 -0.09942847
0000d0 12 ae 19 be b8 e2 cb 3d f6 df 1a 3e 28 84 d1 bc
       -0.15007809 0.099553525 0.15124497 -0.025575712
0000e0 6a 87 de bd af d4 ee bd 10 fa fc 3c bb b7 3a be
       -0.10865672 -0.1166166 0.030880958 -0.1823415
0000f0 b0 ac 26 3d 22 65 2f 3e 1a 44 10 3e 80 ef b6 3c
       0.04069203 0.17128423 0.14088479 0.022331
000100 6b 50 e3 bd 7b 52 25 be 28 89 01 3d 00 19 0a 3d
       -0.11099323 -0.16144745 0.031624943 0.033715248
000110 c8 a9 4b bd 14 80 03 3e 6d ab f0 bd d4 96 24 3d
       -0.049722463 0.12841827 -0.11751447 0.040182903
000120 7c 9e 53 3d de 44 1c be 94 d4 c7 bd ac b3 0a 3d
       0.051664814 -0.15260646 -0.09757343 0.033862755
000130 80 d3 c1 bb c2 18 2d 3e f8 fa 15 be 94 a5 1b be
       -0.0059151053 0.16903976 -0.14646518 -0.15199882
000140 04 87 f7 3d 90 c6 9d 3c da df 04 be 12 7a 35 3e
       0.12086299 0.019259721 -0.12976018 0.17722347
000150 2e 17 16 3e f8 88 a3 bd 4e 7f d5 bd 78 a9 34 bd
       0.1465728 -0.07985109 -0.10424672 -0.04410693
000160 c8 06 43 3d c4 57 19 3e 38 65 90 3d 8c 1e d1 3d
       0.04761389 0.14974886 0.07050556 0.102109045
000170 e2 bc 37 be 64 ca c4 3d b3 fd 83 bd a5 91 1c be
       -0.17943147 0.096089154 -0.06444874 -0.15289934
000180 c4 8f e1 bd e2 dc 09 be 62 ea 7e bd 60 16 94 3d
       -0.11013749 -0.13463166 -0.062235244 0.0723083
000190 34 47 33 3e 21 cd e4 bd e2 15 37 3e 01 39 9d bd
       0.1750763 -0.11171938 0.17879441 -0.07676888
0001a0 57 00 eb bd 0e ed 35 be 60 2a 56 3c a8 9e 5c 3d
       -0.11474674 -0.1776621 0.013071626 0.053862244
0001b0 d8 b4 83 bc 3a 2e 2a 3e c0 37 1c bc 38 c5 ba 3c
       -0.016077444 0.16619197 -0.009534776 0.02279912
0001c0 a0 91 df 3d 70 9d 63 bd 94 51 28 bd b8 f1 7a bd
       0.10916448 -0.055570066 -0.041093424 -0.061265677
0001d0 0e 6b be bd 70 4e c8 3d 67 d5 e8 bd 2c 60 1d bd
       -0.09297763 0.09780586 -0.11368828 -0.038421795
0001e0 34 85 d8 bd 1a 3b ae bd 49 dc 23 be aa 6e db bd
       -0.105722815 -0.085073665 -0.16002001 -0.10714467
0001f0 80 98 68 bb f8 a8 24 be 16 d8 11 3e 78 54 d9 3c
       -0.0035491288 -0.16080081 0.14242586 0.026529536
000200 30 39 bf 3d 44 05 f0 3d 9e 2d 17 be d4 28 43 3d
       0.093370795 0.11719754 -0.14763495 0.04764636
000210 6b 14 1e be fc 98 26 bd 7c f2 59 bd bc a7 e7 3d
       -0.15437476 -0.04067324 -0.053209767 0.1131129
000220 24 0c b0 3d 98 0f 1f 3d c4 06 ce 3d 90 e0 5b 3d
       0.08596066 0.03883323 0.10059884 0.053680956
000230 38 67 32 be 6c 83 a2 3d 94 28 b9 3d 8a 29 92 bd
       -0.17422187 0.07935223 0.09040943 -0.07136829
000240 ff 89 8e bd f4 08 26 be b5 46 09 be ac db a5 3d
       -0.069599144 -0.16214353 -0.13405879 0.0809854
000250 a0 9a 1e be f4 b0 04 be 09 ea 02 be 5f 99 c4 bd
       -0.15488672 -0.12958127 -0.1278459 -0.09599566
000260 c2 03 30 be a4 28 a1 3d 7c da 01 3d b4 c7 0c 3e
       -0.17188933 0.0786908 0.031702504 0.13748056
000270 04 bd 33 3e c2 df 20 3e b0 47 0d 3c c4 3b e2 3d
       0.17552572 0.15710357 0.008623049 0.11046556
000280 6c 14 8c bd d8 d3 d5 3d 30 2d a7 3d 18 49 d2 3d
       -0.06839833 0.104407966 0.08162916 0.10267848
000290 e0 5d 0d be f0 32 28 3d d0 94 0c 3e 1f 12 e5 bd
       -0.13805342 0.041064203 0.13728642 -0.11185097
0002a0 f0 ff 97 bc b0 a9 f7 3d 85 87 ce bd 6c 40 81 bd
       -0.018554658 0.12092912 -0.10084442 -0.063111156
0002b0 6c d4 cf 3d a8 90 fb bc 24 7c 69 bd 48 c5 4e bd
       0.10147938 -0.030708626 -0.057003155 -0.05048111
0002c0 0a 23 39 3e fc 05 cb bd e6 26 90 bd 34 b1 79 3d
       0.18079773 -0.09913251 -0.07038669 0.06096001
0002d0 60 b7 24 be 93 f7 35 be 36 57 1d 3e e4 8c 37 3d
       -0.16085577 -0.17770223 0.153653 0.0448121
0002e0 14 db b0 bd 15 5f 2f be e4 de a1 3d 0a 90 7d bd
       -0.08635536 -0.17126115 0.07903841 -0.061904944
0002f0 64 79 2c bd 44 ad 45 3d f4 bc 8a 3d 68 c9 31 be
       -0.042107955 0.048260942 0.06774321 -0.17361987
000300 90 20 49 bd 7d 8b 08 be c0 af 2f 3e 7d 68 0b be
       -0.04910332 -0.1333446 0.17156887 -0.13614078
000310 20 a6 a4 3b eb 80 e4 bd c4 0a 3e 3d 58 c8 e2 3d
       0.0050246865 -0.11157402 0.046396986 0.11073369
000320 00 c4 1d ba e1 d3 24 be dc f3 d8 3d 50 d4 e0 3d
       -0.0006018281 -0.1609645 0.105933875 0.109779954
000330 60 31 fe bc 00 2e 7b 3c 5d dc 1d be e0 85 4f 3c
       -0.031029403 0.0153307915 -0.15416093 0.012666196
000340 ac 27 13 3e 48 65 a9 3d af bf 8a bd 00 38 13 39
       0.14370602 0.08271271 -0.06774842 0.00014039874
000350 e0 29 e8 3c 9e 93 02 be 4c 44 15 be 68 78 8c 3d
       0.02834028 -0.12751624 -0.14576834 0.06858903
000360 f8 21 5b bd 44 6e 04 bd 84 72 52 bd 9e f9 36 3e
       -0.053499192 -0.03233172 -0.05137874 0.17868659
000370 dc 11 8e 3d a0 ed ae bd 1d 66 b0 bd b3 47 ea bd
       0.06937 -0.08541417 -0.086132266 -0.11439457
000380 f8 f2 fb 3d 6c 92 16 3e e8 00 60 3d 3a c3 23 be
       0.12302202 0.14704293 0.054688364 -0.15992442
000390 5e 6e 19 3e f0 95 d9 3c 1e 88 9e bd 3f 73 eb bd
       0.14983508 0.026560754 -0.07740806 -0.11496591
0003a0 58 99 fe 3c 84 4a 25 3e c4 31 90 3d 9a 17 1d 3e
       0.03107898 0.16141707 0.07040742 0.15341035
0003b0 20 8b 53 3c 48 38 75 bd d7 9c b6 bd a8 af b4 3c
       0.012911588 -0.059868127 -0.089166336 0.022056416
0003c0 96 d4 7b bd e8 a5 ca bd 88 a6 95 3d ba 8b 01 3e
       -0.061482035 -0.09894925 0.07307154 0.12650958
0003d0 a7 af 9c bd 00 0c c2 3a fe 14 39 3e 29 e3 d8 bd
       -0.076506905 0.0014804602 0.18074414 -0.10590202
0003e0 b1 be f4 bd 5c d3 03 be 5e 29 24 3e 14 22 43 3d
       -0.11950434 -0.12873596 0.16031405 0.04763992
0003f0 6e 07 37 3e 20 23 df bd 08 6e a6 3d 00 68 f3 3b
       0.17873928 -0.108953714 0.081264555 0.0074281693

transformer_encoder.encoder.attention.fc_K.bias f4 [30]
000000 d4 5a 18 3d e1 58 16 be 00 53 a7 bb 07 8b 05 be
       0.037195995 -0.14682342 -0.00510633 -0.13041316
000010 68 66 dd 3c 2c ee 56 bd ff 8a ad bd 14 ab bf 3d
       0.02702637 -0.052473232 -0.08473777 0.093588024
000020 2b 62 89 bd c8 c8 fb 3d b0 e6 48 3c 98 b3 0e be
       -0.06708177 0.12294155 0.012262031 -0.13935697
000030 58 a9 c1 3c d4 e9 07 3d d4 38 0f 3d 18 34 c0 3c
       0.02364032 0.03318198 0.034966305 0.02346234
000040 74 a6 e6 3d 10 95 d9 3d 3c 11 10 3e 3a 9c 29 be
       0.11262217 0.106241345 0.14069074 -0.16563502
000050 d0 a4 15 bc ec 5a 28 3d 50 54 7a 3d ac 49 b0 3d
       -0.009133533 0.041102335 0.061115563 0.08607802
000060 cc bb a8 3d e2 44 13 be 88 9e 09 3e 49 90 f5 bd
       0.082389444 -0.14381745 0.13439381 -0.11990411
000070 ff 39 99 bd 0f be 29 be
       -0.07481765 -0.16576408

transformer_encoder.encoder.attention.fc_V.weight f4 [30, 30]
000000 a8 3e 53 3d 92 1e 24 3e f8 c0 ba 3c d3 ec 28 be
       0.051573426 0.16027287 0.022797093 -0.16496591
000010 b4 4a 3a bd 18 57 5b bd a3 fd 08 be df d0 d9 bd
       -0.0454814 -0.053549856 -0.13378005 -0.10635542
000020 04 87 bb 3d e8 81 19 be 1a 39 28 3e b8 f4 2b bd
       0.091566116 -0.14990962 0.16428033 -0.04198143
000030 b6 44 f1 bd 2c a4 b3 3d 60 7a ab 3d ec ec d4 3d
       -0.11780684 0.08771548 0.083729506 0.10396752
000040 02 09 9c bd c0 d8 a5 bb 39 b2 31 be 90 59 d7 bd
       -0.076189056 -0.005061239 -0.17353143 -0.105151296
000050 c9 bf db bd ac 4d 8c 3d 00 a6 79 3b e2 06 37 3e
       -0.107299395 0.06850752 0.0038093328 0.1787372
000060 68 3f 0b 3e 64 ef c4 3d eb b2 03 be e1 fd da bd
       0.13598406 0.09615973 -0.1286122 -0.10692955
000070 ec 6b 43 bd bf 04 24 be 0d 25 d3 bd 5b 89 2a be
       -0.047710344 -0.16017435 -0.10309801 -0.1665396
000080 f9 82 3a be fe f6 95 bd 98 65 0c be 0e 3b 12 be
       -0.18214025 -0.07322501 -0.1371063 -0.1428034
000090 f3 5b 89 bd c5 9e 04 be c4 7b dd 3d 60 01 1c 3c
       -0.06706991 -0.12951191 0.10814622 0.009521812
0000a0 7c ca 07 3e d8 45 bc bc c7 91 dc bd 90 ca 1f 3c
       0.13260835 -0.022982523 -0.10769992 0.0097528845
0000b0 7a 29 28 3e ac 08 d0 3d 3f bb d5 bd b5 8f f6 bd
       0.16422072 0.10157904 -0.10436105 -0.12039129
0000c0 1c 94 39 3e 10 32 25 bd e4 46 c8 3d 7c 91 2c 3e
       0.18122905 -0.040330946 0.09779146 0.16852373
0000d0 f2 f9 1a be b6 29 12 be 80 fe 34 3b 1d 96 20 be
       -0.15134409 -0.14273724 0.0027617514 -0.15682264
0000e0 e0 f4 17 bc e2 c8 01 be 87 60 0e be 65 87 8e bd
       -0.009274691 -0.12674287 -0.1390401 -0.06959418
0000f0 7c 86 2a bd e2 93 1f 3e 24 f5 8d 3d 80 6b 26 3e
       -0.04163216 0.15583757 0.069315225 0.16251945
000100 96 42 87 3d 6d 87 08 be 20 0d ad 3c 7a 1b ac bd
       0.06604497 -0.13332911 0.021124423 -0.08403678
000110 80 ab 72 bb 6c 7a c6 3d 68 61 e9 bc d0 ab f5 3d
       -0.0037028491 0.09691319 -0.02848883 0.11995661
000120 95 1c 20 be 24 cb 8e 3d 50 ec 30 3d d0 82 94 3d
       -0.15635903 0.0697234 0.043194115 0.07251513
000130 c0 95 79 3c 74 f1 12 be 38 ac 05 bd 34 82 2f bd
       0.015233457 -0.1434992 -0.032634944 -0.04284878
000140 44 28 28 3e f8 03 a0 3d 50 c8 64 3d 16 3e 2f 3e
       0.1642161 0.07813257 0.055855095 0.17113528
000150 c6 db 0c 3e 6a 8f ad bd d3 d5 c7 bd 9c ef 41 3d
       0.13755712 -0.0847462 -0.097575806 0.04734765
000160 00 23 81 3a 36 01 ad bd 16 da a3 bd c8 a7 0f 3d
       0.000985235 -0.084474966 -0.08000581 0.035072118
000170 7c 0f 2d be ec 75 29 3e 4c 39 8d 3d 7c 7c 83 3d
       -0.16900438 0.1654889 0.06895694 0.06420228
000180 b4 5f a3 3d 08 04 05 bd fa 30 0b 3e 98 00 ad 3d
       0.07977238 -0.032474548 0.13592902 0.08447379
000190 e8 52 31 3d e9 ea af bd 5d 99 0c be 0a df 26 be
       0.043291956 -0.085897274 -0.13730378 -0.1629602
0001a0 00 82 61 3a 24 c3 9c 3d c3 58 11 be 90 e6 01 3d
       0.00086024404 0.076544076 -0.14194016 0.031714022
0001b0 44 af 42 bd f8 ab b7 bc d2 00 c9 bd 48 99 ad 3c
       -0.047530428 -0.022420868 -0.098146096 0.021191254
0001c0 40 a7 4b 3b 28 a4 a1 bc d3 53 be bd d4 ff e8 bd
       0.003107503 -0.019731596 -0.09293332 -0.1137692
0001d0 7d 08 2e be 48 22 41 bd d0 cd da bc 74 ae 0a 3e
       -0.16995426 -0.047151834 -0.026709467 0.13543111
0001e0 00 5b f6 3a fb 02 13 be 6c 1b 23 3e 48 b0 32 3d
       0.0018795431 -0.14356606 0.1592843 0.043625146
0001f0 24 9f 4b 3d 60 1e d8 3b d0 98 2a be 30 66 a2 bc
       0.049712315 0.006595418 -0.16659856 -0.019824117
000200 d3 11 36 be 28 5a 06 3e 38 1c ce 3c a2 61 aa bd
       -0.17780237 0.1312033 0.02515994 -0.08319403
000210 1c db ac bd 56 25 ef bd ae ca 28 3e b0 fc 38 bd
       -0.08440229 -0.11677043 0.16483566 -0.045162857
000220 d7 a4 3a be 18 48 99 3d 80 3a ea 3d d4 7b b3 bd
       -0.18226944 0.07484454 0.11436939 -0.08763853
000230 58 e2 b7 bd 20 c5 d9 3d b0 e4 a6 bc ba 99 0a 3e
       -0.089787185 0.10633302 -0.020372719 0.13535205
000240 5a 36 86 3d 40 87 18 3d 70 d7 d8 bc 33 02 2a be
       0.065533355 0.03723836 -0.026469916 -0.16602401
000250 64 8a f7 3d b4 eb b6 3d 68 2d 60 bd e1 e3 a0 bd
       0.12086943 0.089316756 -0.054730803 -0.078559645
000260 a3 3b 21 be 30 d1 2c 3d ac 7f 19 be 45 f6 c5 bd
       -0.15745406 0.042191684 -0.14990109 -0.09666113
000270 14 cc 09 bd 81 6b 05 be 78 46 31 3e 1e b9 82 3d
       -0.03364189 -0.1302929 0.17312038 0.063829646
000280 ca 35 97 bd 18 0f 1f 3e 74 98 ff bd 9a c8 09 be
       -0.07383306 0.15533102 -0.1248025 -0.1345543
000290 58 79 a9 bc 9c ef 30 3e e1 be f6 bd 00 ec 12 3d
       -0.020687744 0.17278904 -0.12048126 0.0358696
0002a0 d8 40 0e 3d fc 19 b5 3d b2 8b 1b 3e 90 37 fe bc
       0.03472981 0.08842847 0.15190008 -0.031032354
0002b0 b8 02 15 be 0b 0d 0f be 40 ef 43 bc 98 f1 19 3e
       -0.14551818 -0.13969819 -0.011958897 0.15033567
0002c0 2a 8b 79 bd 6c 7d d8 bd 4c db 40 bd 90 51 d3 bd
       -0.060923733 -0.10570797 -0.047084138 -0.10318291
0002d0 58 a1 a1 3d a2 e8 1c be 62 dd bb bd 3a 71 23 3e
       0.07892102 -0.15323117 -0.09173085 0.15961161
0002e0 d4 a7 62 3d 7c 07 90 bd 9a 99 db bd 87 ee 1d be
       0.055335835 -0.070326775 -0.107226565 -0.15423022
0002f0 9d b9 1b be 48 95 78 bd a0 14 90 bc b0 79 3a be
       -0.15207525 -0.06068924 -0.01758796 -0.18210483
000300 c2 69 27 3e e0 5c 77 bd b0 da 5b 3d 50 4b 1a 3d
       0.16348937 -0.060391307 0.053675354 0.03766948
000310 d5 e2 c8 bd 7e c7 2b be 34 a9 c3 3d b0 c1 a9 3c
       -0.0980889 -0.16775319 0.09553757 0.02072224
000320 30 2d 36 3d ac e2 33 3e 00 c2 25 be ec ff c2 3d
       0.044476688 0.17566937 -0.16187286 0.095214695
000330 c4 f9 0c 3e b1 9a 39 be 0c 2a b4 3d 50 54 43 bd
       0.13767153 -0.18125416 0.08797082 -0.04768783
000340 6e 67 05 3e b8 32 d8 bc 3e 5d f5 bd 30 0d 98 3d
       0.13027737 -0.026391372 -0.11980675 0.0742439
000350 90 4b 1d bc 9c 5d 15 bd d0 85 05 bc ae 02 0d 3e
       -0.009600535 -0.036466226 -0.008149579 0.13770553
000360 86 65 86 3d 00 85 60 3b c8 ca 92 3c 74 ce b5 3d
       0.06562333 0.0034258962 0.01791896 0.088772684
000370 5e d9 07 3e 6c 2e 13 be 19 4a 1d be c0 0d 20 bc
       0.13266513 -0.14373177 -0.15360297 -0.009768903
000380 bc 8d df 3d 8f 0d bf bd b2 fc 09 3e e9 65 04 be
       0.109157056 -0.09328758 0.13475302 -0.129295
000390 7e c4 3a 3e b8 1d 04 3e d1 5e d8 bd f5 e2 ea bd
       0.18239018 0.12901962 -0.1056496 -0.1146907
0003a0 d0 7e 15 3d cc 19 26 3e 18 35 00 be 56 e3 2a 3e
       0.03649789 0.16220778 -0.12520254 0.16688284
0003b0 c8 12 12 bd 3c 45 f6 3d 4e a9 d7 bd 38 7e f2 3d
       -0.035662442 0.12024924 -0.10530339 0.118404806
0003c0 32 81 e2 bd 90 98 13 3e 70 ce 6e bc 08 a8 2e 3e
       -0.11059798 0.14413667 -0.014575586 0.17056286
0003d0 d2 f4 2f be 08 c7 95 3d 6c a6 68 3d 8a 60 0c 3e
       -0.17183235 0.07313353 0.056799337 0.13708702
0003e0 8c 7a 17 3e e5 e8 e5 bd d6 69 f0 bd a4 cf b6 3d
       0.14792842 -0.11226062 -0.117389366 0.08926323
0003f0 04 9f 10 3e ec e5 83 3d 6c 40 2a be bc 70 22 bd
       0.1412316 0.064403385 -0.16626137 -0.039658293

transformer_encoder.encoder.attention.fc_V.bias f4 [30]
000000 e0 62 7d 3d c0 ed d6 3d e8 9d bc 3d c9 32 d9 bd
       0.061861873 0.10494566 0.09209806 -0.106053896
000010 40 d0 96 3d c0 45 95 3b c0 a3 5b bc 2e 35 8b bd
       0.07363939 0.004555434 -0.01340574 -0.067972526
000020 4a d5 0e be 68 55 38 be 2c 1b a3 bd 8d 96 2d be
       -0.13948551 -0.1800133 -0.07964167 -0.16951962
000030 6f 93 24 be a0 fe b1 3c b8 3e 9a 3d 20 93 9a 3c
       -0.16071866 0.02172786 0.07531494 0.018868983
000040 1e bc 31 3e 20 ea 8e 3c fc 4b 03 3e c8 c5 ff 3d
       0.17356917 0.017445624 0.12821954 0.12488896
000050 94 90 26 3e 8a a5 df bd f8 4d 9b 3d af 5c ce bd
       0.1626609 -0.10920246 0.07583231 -0.10076272
000060 e0 26 ef bd f0 d8 ae bc a4 61 26 bd 2c 03 c9 bd
       -0.11677337 -0.021343678 -0.04062046 -0.09815058
000070 f7 c6 32 be a0 1a 88 bc
       -0.17458712 -0.016614258

transformer_encoder.encoder.attention.fc.weight f4 [30, 30]
000000 c0 dc b1 bb 10 14 d1 bd 68 26 ce 3c bd 99 10 be
       -0.005427927 -0.10208905 0.025164798 -0.14121147
000010 ce 9f 1d 3e 54 87 6b bd c4 d4 f6 bd 8e 19 1e be
       0.15392992 -0.057502106 -0.120523006 -0.15439436
000020 96 c4 0b be 49 04 a1 bd 48 49 d9 3c fc c9 b4 bd
       -0.1364921 -0.078621455 0.026524201 -0.08827588
000030 48 9f ca 3c 08 0c bd 3d 58 8d 2c 3e c4 ed 8e 3d
       0.024734154 0.092308104 0.16850793 0.06978944
000040 74 62 cc bd bc f3 fb 3d e0 e8 e3 3d 40 64 f1 3d
       -0.09979716 0.12302348 0.11128402 0.11786699
000050 52 a7 8e bd 6c 2a b5 3d 00 71 1b bd 70 bf 1e 3d
       -0.069655076 0.08845982 -0.037949562 0.038756788
000060 00 48 3c 39 68 e8 85 bc 90 b0 07 3e 4c b2 13 3e
       0.00017955899 -0.016346171 0.13250947 0.14423484
000070 ab 22 c3 bd 2a 0c 34 3e 0d 66 2e be 20 db e1 3d
       -0.09528097 0.17582765 -0.17031117 0.11028123
000080 60 50 76 3c c4 fa 0e 3e 80 6e c9 3a 92 7c 75 bd
       0.015033811 0.13962847 0.0015368015 -0.059933253
000090 70 f2 c4 3d 5c ba d1 3d 1a 71 82 3d 00 10 05 3e
       0.09616554 0.10240623 0.06369229 0.12994385
0000a0 b7 ce cb bd 5c 3a f5 3d fc 5a 27 3e 18 d5 07 3e
       -0.09951537 0.11974022 0.16343302 0.13264883
0000b0 d4 5d dd 3d 40 0d 2b 3b 50 f8 bc bc 7c 1d 23 3e
       0.10808912 0.0026100427 -0.023067623 0.15929216
0000c0 14 85 ac 3d 48 77 ba 3d 1a 7d 9c bd f8 10 f8 bc
       0.0842382 0.09104782 -0.07641049 -0.030281529
0000d0 00 9c 7b 39 84 d2 58 bd e8 1c 18 bd 7c 30 14 3e
       0.0002399534 -0.05293514 -0.037136942 0.1447162
0000e0 85 3e 2e be e0 30 04 bd c0 36 06 3b b8 8b 0c 3d
       -0.17016037 -0.032273173 0.002047941 0.034312934
0000f0 68 92 35 3e 90 4b 36 3d c0 18 71 bc 40 8e db bd
       0.17731631 0.044505656 -0.0147153735 -0.107204914
000100 bc ba c1 3d 83 b4 83 bd 0d 8d 98 bd 99 0b a7 bd
       0.09459445 -0.06430914 -0.07448778 -0.08156509
000110 b8 8c f7 3d a0 49 8c 3d 91 5c 26 be 72 01 32 3e
       0.12087387 0.0684998 -0.16246249 0.17383364
000120 40 61 cc 3d 58 a1 24 3e da 94 1f be bc 22 fa bd
       0.099794865 0.16077173 -0.15584126 -0.12213656
000130 d0 40 0b be 00 4a 97 3b 80 6c b4 ba d8 a4 dd 3d
       -0.13598943 0.004616976 -0.0013765246 0.10822457
000140 8a 2e 14 3e 28 85 d5 3c b8 9b a3 bc 1e 76 21 be
       0.14470878 0.02606447 -0.019971713 -0.15767714
000150 ec 31 18 be 58 51 ee bc 2c 4c ca bd 00 81 de bd
       -0.14862794 -0.029091522 -0.0987781 -0.108644485
000160 f0 73 b6 3d 6b ab 8b bd 08 05 db 3c a9 91 e5 bd
       0.08908832 -0.06819805 0.026735798 -0.11209423
000170 a0 13 09 bd 98 8b 71 3d 9c 3c 49 3d c0 38 72 bb
       -0.03346598 0.058971018 0.049130067 -0.0036960095
000180 36 8e 93 bd 94 e0 ff 3d 44 85 e1 3d 60 89 ff 3c
       -0.07204859 0.12494007 0.110117465 0.031193435
000190 e8 9a 33 3e fc a4 62 bd bb 1f 9e bd 95 56 cb bd
       0.17539561 -0.055333123 -0.07720896 -0.099286236
0001a0 f0 e6 dc bc 70 68 f4 bc 48 b6 d2 3c c4 65 16 3d
       -0.026965588 -0.029834956 0.025721684 0.036718145
0001b0 00 58 11 3e 50 af c0 3d 90 3f fe bc 70 ba e8 bc
       0.14193726 0.09408438 -0.031036168 -0.028409213
0001c0 39 ae 13 be 50 aa ce 3c 9c 6a 86 3d 20 ae 11 3e
       -0.1442193 0.025227696 0.06563303 0.1422658
0001d0 34 45 02 3e 3c 69 c6 3d 78 fc 1b 3e 80 c3 0d 3e
       0.12721711 0.096880406 0.15233028 0.13844109
0001e0 5f ea e2 bd f8 d1 b2 3d a8 8f 01 3d 10 be 34 3e
       -0.11079859 0.087314546 0.031631142 0.17650628
0001f0 6c a9 a4 3d df 26 a8 bd 30 b2 3b 3d f0 c1 40 3d
       0.08040127 -0.08210539 0.04582423 0.047059953
000200 90 67 c2 3d 2c fc 2f be 28 7e 86 bc a8 7e 12 3e
       0.09492409 -0.1718604 -0.016417578 0.14306128
000210 a8 4e 39 be e4 d7 ad 3d 58 93 1e bd cc b3 02 3d
       -0.18096411 0.084884435 -0.038714737 0.03190975
000220 ac 2d d4 3d ca 38 09 be 7a 02 0a 3e 50 5d 04 be
       0.10360274 -0.1340057 0.13477507 -0.12926221
000230 e0 1b 83 bc 60 4e 1f bd c0 76 52 bc f3 1f 33 be
       -0.016004503 -0.038893104 -0.012845695 -0.17492656
000240 4a b9 2d 3e 1a 36 18 be d0 9c 02 3d e4 69 85 3d
       0.16965213 -0.14864388 0.03188783 0.06514338
000250 4a 77 37 be 0c f2 f3 bd 67 bc 35 be f0 01 15 3c
       -0.17916599 -0.11911401 -0.17747651 0.0090947
000260 a0 30 01 3e 6e 77 ff bd 80 ba ce bc 48 09 b0 3d
       0.12616205 -0.12473951 -0.025235415 0.0859552
000270 8d e2 14 be 30 37 cc 3d ea a1 06 3e 34 28 69 3d
       -0.14539547 0.09971464 0.13147703 0.056923106
000280 08 5c cf 3c 10 de d7 3d b8 18 c5 bc 28 09 ce bd
       0.025312439 0.10540402 -0.024059638 -0.1006034
000290 28 65 40 3d 5e e0 31 be 18 97 67 3d 8c cb ff 3d
       0.04697147 -0.17370746 0.05654058 0.12489995
0002a0 84 69 2c bd f2 61 2e 3e 20 2d 2d 3d 8c f1 83 3d
       -0.042092815 0.1702955 0.042279363 0.06442556
0002b0 27 0a 96 bd 45 50 0f be 4c 32 12 be 92 8f cf bd
       -0.07326155 -0.13995464 -0.14276999 -0.10134806
0002c0 d9 58 36 be 40 4c 11 be 0f 62 1b be d0 2e 05 3c
       -0.1780733 -0.14189243 -0.15174125 0.008128837
0002d0 8c 41 c6 bd d4 a6 60 bd fc db 05 3e 25 94 0c be
       -0.09680471 -0.0548466 0.13072199 -0.13728388
0002e0 b5 1f 23 be 60 69 48 bd 2b c0 9a bd 46 dd 19 be
       -0.15930064 -0.04892862 -0.075561844 -0.15025815
0002f0 68 8c e7 3d cc 29 40 3d 30 ff ea 3c a2 3e 0b 3e
       0.11306077 0.04691486 0.028686136 0.13598111
000300 00 fe 1e bd d4 b3 2f 3e ca 88 2d 3e 2c ba 3a 3d
       -0.038816452 0.17158443 0.16946712 0.045587704
000310 90 eb 77 3d d6 cf 07 3e c0 fd 1d 3e 20 3c 39 be
       0.060527384 0.13262877 0.15428829 -0.18089342
000320 8d 61 ef bd 32 f2 7d bd c8 6b b6 3c 0d c3 f5 bd
       -0.11688528 -0.061998554 0.022268191 -0.120000936
000330 e8 aa 11 bd 48 81 2b 3d fb b1 f1 bd fc 55 35 3e
       -0.03556338 0.04187134 -0.11801525 0.17708582
000340 44 05 34 3e 07 57 e1 bd 34 da 4e 3d e8 1e 64 bd
       0.17580134 -0.11002927 0.050501063 -0.055693537
000350 0c f9 ff bd c0 c3 bb 3d 14 e1 b9 3d aa 66 b8 bd
       -0.12498674 0.09168196 0.09076133 -0.090039566
000360 ce f4 b9 bd b4 d3 23 3e aa 45 38 be 0c 5f ad 3d
       -0.09079896 0.15998727 -0.17995325 0.084653944
000370 a0 70 35 3e 40 c0 0d bc 26 57 00 be 94 9f 2f 3d
       0.17718744 -0.008651793 -0.12533244 0.042876795
000380 4c de f0 bd d8 09 d5 3d b6 cb 15 be 6e db f9 bd
       -0.1176115 0.10402268 -0.14628491 -0.12200056
000390 20 60 08 3e 1c 2a 00 3e 3c e3 ec 3d 88 64 08 be
       0.13317919 0.12516063 0.11566779 -0.133196
0003a0 00 53 9f 3a b0 2f 0d bd 56 6f a2 bd c0 58 d4 3d
       0.0012155473 -0.034469306 -0.07931392 0.1036849
0003b0 0b db a5 bd 09 6b 1a be a8 12 d6 3c dc ea 52 bd
       -0.0809842 -0.15079893 0.026131943 -0.05149351
0003c0 28 ba e2 bc 74 26 2d bd d9 dc a3 bd a7 0b 2d be
       -0.027676657 -0.042273 -0.08001108 -0.16898976
0003d0 88 f7 87 3d 00 68 d0 bd f2 ae ca bd 74 cd d4 bd
       0.0663901 -0.101760864 -0.098966494 -0.103907496
0003e0 3e ea 08 3e 1e f3 35 be 78 0f f2 bc c4 9e 37 be
       0.13370606 -0.17768523 -0.029548392 -0.17931658
0003f0 20 45 ed 3d e0 bf ff 3b 0f dd a4 bd 18 07 7c 3d
       0.1158545 0.0078048557 -0.08049976 0.061530203

transformer_encoder.encoder.attention.fc.bias f4 [30]
000000 e0 3f 27 3e 90 01 fd bc 22 d7 c3 bd fc a2 ad bd
       0.1633296 -0.030884534 -0.09562518 -0.084783524
000010 b7 0f 18 be 9a 91 14 3e d4 28 d1 3d 20 9f a3 bc
       -0.14849745 0.14508668 0.102128655 -0.019973338
000020 20 86 e5 3d 1a 94 13 3e ec 41 32 be c0 a9 ac bc
       0.11207223 0.14411965 -0.1740796 -0.021077037
000030 72 d5 03 3e d4 96 6a bd 14 d0 56 3d 50 ac c2 3c
       0.12874392 -0.057272747 0.052444533 0.023763806
000040 2b da 33 be cc 77 1a 3e 20 f6 45 bc 40 83 9c 3d
       -0.17563693 0.15084761 -0.012082607 0.076422215
000050 81 bf b6 bd 10 44 a9 3d 86 b5 09 3e d8 81 fa 3d
       -0.08923245 0.08264935 0.13448152 0.12231797
000060 58 57 e0 bd 77 24 f9 bd 38 0e 10 3e 64 ce 21 be
       -0.109541595 -0.12165158 0.14067924 -0.15801388
000070 98 dc 03 3e 7c 5a f2 bd
       0.12877119 -0.11833665

transformer_encoder.encoder.attention.layer_norm.weight f4 [30]
000000 00 00 80 3f 00 00 80 3f 00 00 80 3f 00 00 80 3f
       1.0 1.0 1.0 1.0
000010 00 00 80 3f 00 00 80 3f 00 00 80 3f 00 00 80 3f
       1.0 1.0 1.0 1.0
000020 00 00 80 3f 00 00 80 3f 00 00 80 3f 00 00 80 3f
       1.0 1.0 1.0 1.0
000030 00 00 80 3f 00 00 80 3f 00 00 80 3f 00 00 80 3f
       1.0 1.0 1.0 1.0
000040 00 00 80 3f 00 00 80 3f 00 00 80 3f 00 00 80 3f
       1.0 1.0 1.0 1.0
000050 00 00 80 3f 00 00 80 3f 00 00 80 3f 00 00 80 3f
       1.0 1.0 1.0 1.0
000060 00 00 80 3f 00 00 80 3f 00 00 80 3f 00 00 80 3f
       1.0 1.0 1.0 1.0
000070 00 00 80 3f 00 00 80 3f
       1.0 1.0

transformer_encoder.encoder.attention.layer_norm.bias f4 [30]
000000 00 00 00 00 00 00 00 00 00 00 00 00 00 00 00 00
       0.0 0.0 0.0 0.0
000010 00 00 00 00 00 00 00 00 00 00 00 00 00 00 00 00
       0.0 0.0 0.0 0.0
000020 00 00 00 00 00 00 00 00 00 00 00 00 00 00 00 00
       0.0 0.0 0.0 0.0
000030 00 00 00 00 00 00 00 00 00 00 00 00 00 00 00 00
       0.0 0.0 0.0 0.0
000040 00 00 00 00 00 00 00 00 00 00 00 00 00 00 00 00
       0.0 0.0 0.0 0.0
000050 00 00 00 00 00 00 00 00 00 00 00 00 00 00 00 00
       0.0 0.0 0.0 0.0
000060 00 00 00 00 00 00 00 00 00 00 00 00 00 00 00 00
       0.0 0.0 0.0 0.0
000070 00 00 00 00 00 00 00 00
       0.0 0.0

transformer_encoder.encoder.feed_forward.fc1.weight f4 [256, 30]
000000 e6 ee fb bd 7c 04 58 bd d9 b5 1c be c8 cc 04 3e
       -0.12301426 -0.05273865 -0.15303744 0.12968743
000010 e8 8d 5d bd 48 c7 0b be 1e d3 d5 bd 4e b0 11 3e
       -0.05409041 -0.13650239 -0.10440658 0.14227411
000020 02 76 2b 3e 90 1d a3 3d 3b 7d ab bd d6 c0 2f 3e
       0.16744235 0.07964623 -0.08373495 0.17163405
000030 bc c2 94 3d 67 f3 85 bd 10 1e dd 3c 94 95 34 3e
       0.07263705 -0.06540566 0.026991874 0.17635185
000040 56 6e 25 be 6a 61 07 3e ec dc f9 3d 70 8a 64 bd
       -0.16155371 0.13220754 0.12200341 -0.055796087
000050 3e ff 1b 3e 7c 9e 16 bd b8 d1 e2 3c 65 e1 93 bd
       0.15234086 -0.036772236 0.027687892 -0.07220725
000060 02 96 11 3e c7 60 03 be 00 15 22 3e 58 27 b2 3d
       0.1421738 -0.12829886 0.15828323 0.086989105
000070 ec 50 63 bd e0 0e f7 3d 74 f3 66 3d c3 82 96 bd
       -0.055497095 0.12063384 0.05638452 -0.073491596
000080 9c ff 84 3d 00 af fc ba 7b 4b 33 be ef 55 1e be
       0.06494066 -0.0019278228 -0.17509262 -0.15462469
000090 0c 29 23 bd 44 ec 4c 3d cd 21 b8 bd 78 6f 0b bd
       -0.039834067 0.050030008 -0.08990822 -0.03404185
0000a0 88 19 b0 bc 0c 03 e1 3d 8c 0f e1 3d 64 af f8 3d
       -0.02149655 0.10986909 0.109892935 0.12142828
0000b0 e4 4d a2 bd 0c 6a 20 be d0 b0 99 3d ee 7a 9b bd
       -0.07925013 -0.15665454 0.075044274 -0.07591806
0000c0 ee f5 2b 3e 7c ed f6 3d e0 42 e5 3b 3e fd fa bd
       0.16793033 0.12057015 0.0069964975 -0.12255333
0000d0 70 61 e3 3c 04 82 00 3d 10 10 d8 3d ac 80 1f be
       0.027756423 0.031373993 0.10549939 -0.15576428
0000e0 77 48 2d be 78 1a 1d 3d 66 97 c2 bd 57 27 38 be
       -0.16922174 0.03835532 -0.09501533 -0.17983757
0000f0 a5 1e cb bd 5c 8a 29 bd 8a df 2d 3e 26 bc 9d bd
       -0.09917954 -0.041391715 0.16979805 -0.07701902
000100 08 18 01 3e 92 90 12 3e b8 9e 17 3e fb ee b4 bd
       0.12606823 0.14312962 0.1480664 -0.088346444
000110 3c 80 11 3e 67 b9 b7 bd cc 5a 4d 3d 5e c3 18 be
       0.14209074 -0.089709096 0.05013542 -0.14918277
000120 30 2b 10 3d 60 a9 5d 3d 1c 64 33 be 67 36 ab bd
       0.035197437 0.054116607 -0.17518657 -0.08359986
000130 00 d1 5b 3b 34 e0 0a 3e 11 e0 bc bd bb 16 83 bd
       0.0033541322 0.13562089 -0.09222425 -0.0640082
000140 40 92 9a 3b d4 3a 61 bd a3 8b 08 be 86 a6 f9 bd
       0.0047171414 -0.054987743 -0.13334517 -0.12189965
000150 78 5f 31 3e 5e 14 72 bd c4 af 6b 3d f6 60 ed bd
       0.17321575 -0.059101455 0.05754067 -0.115907595
000160 a6 ac f8 bd 3c 16 11 bd 0e 1c 33 3e b4 2a 18 3e
       -0.12142305 -0.035421595 0.17491171 0.1486004
000170 26 70 02 be 9c df a5 3d 00 12 5d ba 39 d8 f6 bd
       -0.12738094 0.08099291 -0.0008433163 -0.1205296
000180 ca 1f 76 bd 76 d4 29 3e a6 c8 e5 bd d8 a1 ea bc
       -0.06008891 0.16584954 -0.11219911 -0.028641626
000190 c0 a0 55 bc 98 e1 25 3e 70 c9 16 be a2 4a 0a be
       -0.013038814 0.16199338 -0.1472528 -0.13505033
0001a0 f2 60 06 be 98 75 7c bd d2 5d d7 bd 20 50 b6 3c
       -0.13122919 -0.061635584 -0.10515942 0.022255003
0001b0 d8 0b 1e 3e 00 f6 a8 3c 14 49 48 3d 10 68 6f 3c
       0.15434206 0.020625114 0.048897818 0.014612213
0001c0 70 94 9c 3c cf 5b 38 be 60 7d ec 3d 5e b2 1e be
       0.01911375 -0.18003772 0.11547351 -0.15497729
0001d0 26 34 f0 bd 03 11 07 be 02 5a 12 3e 4f 59 ab bd
       -0.117286965 -0.13190083 0.14292148 -0.08366644
0001e0 80 a1 bb 3d a8 dd c9 3d 60 8b 1a 3e f2 2f 05 3e
       0.09161663 0.09856731 0.1509223 0.13006571
0001f0 b0 0a 1d 3e 90 03 34 be b0 e0 f5 bd a6 bc 01 3e
       0.15336108 -0.17579484 -0.12005746 0.1266962
000200 39 32 92 bd c4 50 39 3e de ba 34 be e1 58 16 be
       -0.071384855 0.18097216 -0.17649409 -0.14682342
000210 c8 0f bb 3c f0 e4 ff 3d f6 7c 16 3e f0 bb 83 3d
       0.022834674 0.12494838 0.14696106 0.064323306
000220 e4 92 9a 3d ac fc 07 3e a0 5c 35 3e 88 a2 2f 3e
       0.075475484 0.1327998 0.17711115 0.17151845
000230 36 61 27 3e e0 08 36 3e cb f3 de bd 32 75 05 3e
       0.16345677 0.17776823 -0.108863436 0.13032988
000240 78 50 d7 bc 78 e7 fb 3d 80 63 db 3a f0 70 d6 3d
       -0.026283488 0.123000085 0.0016738027 0.1047076
000250 22 a7 25 3e f8 62 d9 3d 23 e0 3a be c4 77 ca 3d
       0.16177037 0.1061458 -0.18249564 0.09886125
000260 5a 70 0f be b3 98 c5 bd c0 43 88 3c 10 8c 45 3c
       -0.14007702 -0.09648266 0.016633868 0.012057319
000270 c0 5f 32 3c 8c e7 6d 3d c1 ba d4 bd 44 19 ba 3d
       0.010887086 0.05808215 -0.10387183 0.0908685
000280 8c 92 4b bd 28 5f 24 be 3c 28 1f 3d 00 bc 48 ba
       -0.049700305 -0.16051924 0.03885673 -0.0007657409
000290 c8 74 9c 3d 44 bd d1 bd c4 5f 9e 3d 8c ce 59 3d
       0.07639462 -0.10241178 0.077331096 0.053175494
0002a0 e4 55 41 bd 44 2a a4 3d 60 94 33 be a4 8b 9e 3d
       -0.047201052 0.08015874 -0.1753707 0.07741478
0002b0 04 1d 11 be 58 74 3e 3d 0a a5 74 bd 84 56 10 3e
       -0.14171225 0.046497673 -0.059727706 0.14095503
0002c0 00 85 d1 bc 04 8c 23 3e dc 77 e9 bd a8 d1 05 bd
       -0.025576115 0.1597138 -0.113998145 -0.032670647
0002d0 fe aa 7d bd eb 6c c9 bd 50 b0 d3 3c c8 96 cd bc
       -0.06193065 -0.098352276 0.025840908 -0.025096312
0002e0 bb ee 33 be 88 a5 b9 3c 04 22 29 be dc e9 56 3d
       -0.17571537 0.02266194 -0.16516882 0.05246912
0002f0 c0 df 8a 3d fc f7 56 bd 3c a8 21 3d 80 bb e9 3d
       0.06780958 -0.05248259 0.03946708 0.11412716
000300 14 ae ee bd 65 fd 1c be db 68 d0 bd d4 05 dc 3d
       -0.116542965 -0.15331037 -0.101762496 0.10743299
000310 15 a4 17 be 2c 0e 1a 3e 40 aa ed 3c 53 c4 82 bd
       -0.14808686 0.15044469 0.029011846 -0.06385102
000320 0c 44 6b 3d c0 76 8b 3b 44 f3 b8 3d f0 58 19 bd
       0.05743794 0.0042560995 0.09030774 -0.037438333
000330 f0 1a 69 3d ca 9d 35 be aa 74 22 be dc ae 96 3d
       0.056910455 -0.17735973 -0.15864816 0.073575705
000340 38 44 2f 3d 70 bd 23 bd 8c 70 e5 3d 50 6e 09 3d
       0.042789668 -0.039975584 0.11203107 0.033552468
000350 db f1 a3 bd 78 db f7 3d e0 8b 49 bd e0 45 bb 3c
       -0.08005115 0.12102407 -0.04920566 0.022860467
000360 5a 9d 05 be bf d0 32 be f4 e1 50 3d 5f c1 11 be
       -0.13048306 -0.17462443 0.050996736 -0.14233921
000370 ec 29 41 3d 00 78 c9 b8 e8 06 1a 3d e8 eb ef bc
       0.04715912 -9.6067786e-05 0.037604243 -0.029287294
000380 20 ee 7b bd 42 31 18 3e bc b4 f2 3d 35 dc 91 bd
       -0.06150639 0.1486254 0.118508786 -0.07122079
000390 a0 4c 66 3d 48 1a 25 bd 66 a0 f5 bd a0 24 cf 3c
       0.05622542 -0.040308267 -0.11993484 0.025286019
0003a0 b9 77 fe bd 1d ab c8 bd 45 57 04 be e4 f9 21 3e
       -0.12425179 -0.09798262 -0.12923916 0.15817982
0003b0 dc 7d 4e bd 44 eb 20 bd 3f 99 dd bd 4a 7c bb bd
       -0.050412998 -0.039286867 -0.10820245 -0.09154566
0003c0 40 a6 2b bb 42 37 d2 bd 1e 1c 2c 3e 10 1d 8b bc
       -0.0026191622 -0.10264446 0.16807601 -0.016981632
0003d0 34 01 9c 3d 80 d5 28 3d 2a 73 1d 3e 80 59 06 3e
       0.07617417 0.041219234 0.15375963 0.13120079
0003e0 33 9e de bd c0 07 36 bb 18 3f 0d bd e0 14 8d 3d
       -0.10870018 -0.0027775615 -0.034484 0.06888747
0003f0 98 c2 9f 3c b0 dd 44 3c 74 8e d0 bd 77 3b 0e be
       0.01950197 0.012015745 -0.10183421 -0.13889872

transformer_encoder.encoder.feed_forward.fc1.bias f4 [256]
000000 b6 0f 31 be 7c 03 7d 3d 40 9c c8 3c e8 f9 f1 3c
       -0.1729115 0.0617709 0.024488568 0.02953811
000010 c0 8d b7 3d 40 53 98 3c c0 92 8f bb ad 06 e9 bd
       0.089625835 0.018594384 -0.0043815076 -0.113782264
000020 b4 d9 04 3e 15 8e d1 bd 54 9c a9 3d 2e 67 27 be
       0.12973672 -0.10232178 0.0828177 -0.16347954
000030 aa 09 6f bd 2c c3 9a 3d 50 f2 e9 3c 38 d5 21 be
       -0.058358826 0.07556757 0.028557926 -0.15803993
000040 ab 10 38 be 08 22 f5 3c 40 f3 6d 3c f0 81 f6 3c
       -0.17975108 0.029923454 0.014523327 0.030091256
000050 23 25 ae bd 48 60 20 3e a2 87 24 3e cc ec 85 bd
       -0.08503177 0.15661728 0.16067365 -0.06539306
000060 c0 2b eb 3d b9 be 2a be 20 89 5d 3c 88 a5 61 3d
       0.11482954 -0.16674317 0.013521463 0.055089504
000070 c2 95 18 3e 5a 6f 13 3e 30 9f 02 3e 7c 40 01 bd
       0.14900878 0.14397946 0.12756038 -0.031555638
000080 c6 8f 25 be 4c c4 11 3e a1 84 0d be 24 26 65 bd
       -0.16168126 0.14235038 -0.13820125 -0.055944577
000090 d1 8e eb bd a0 cc 9b 3d 16 8c b2 bd f8 88 28 3e
       -0.115018494 0.076073885 -0.087181255 0.164585
0000a0 9c d4 b2 3d 88 37 a4 3c c4 48 43 3d 45 a3 fb bd
       0.08731958 0.02004601 0.047676817 -0.122870006
0000b0 c2 76 0c 3e 40 3f 26 bc a4 6f f7 3d 34 2b f9 3d
       0.13717178 -0.010146916 0.12081841 0.121664435
0000c0 3c 52 95 3d 80 2a b2 ba 00 3d 48 3b d4 d1 5f 3d
       0.072910756 -0.0013592988 0.0030553937 0.054643467
0000d0 08 eb 69 bd d0 52 3f bc 34 d0 4f 3d f0 51 10 bd
       -0.05710891 -0.011677459 0.050735667 -0.03523439
0000e0 cd 54 32 be 72 dd e0 bd 58 17 cc 3c a8 56 17 bd
       -0.17415161 -0.10979737 0.024913475 -0.036947876
0000f0 40 5d 41 bd ee a6 2b 3e c0 43 aa 3b 2b 09 14 be
       -0.04720807 0.16762897 0.0051960647 -0.14456622
000100 bc f9 69 3d 41 14 1e be 09 97 a2 bd aa e5 14 3e
       0.05712293 -0.15437414 -0.07938964 0.14540735
000110 10 53 36 bd e9 f7 05 be 40 9d ae 3d a0 a1 1a 3e
       -0.04451281 -0.13082851 0.08526087 0.15100718
000120 cc dc 43 3d 20 93 6f bc 20 c2 53 3d 21 e6 20 be
       0.04781799 -0.01462248 0.051698804 -0.15712787
000130 24 15 ef 3d 24 a3 b4 3d 90 94 79 bd 34 60 55 3d
       0.11673954 0.08820179 -0.060932696 0.0520937
000140 87 58 03 be 08 64 a8 3d ba 73 0d 3e 88 b1 e4 3d
       -0.12826739 0.082222044 0.13813677 0.11166674
000150 20 dc 62 bd c2 3c 23 3e f7 56 a0 bd 5b f1 35 be
       -0.05538571 0.15941146 -0.07829087 -0.17767851
000160 48 5d f0 3d fe 4d 74 bd 40 32 0e be e0 77 63 3d
       0.11736542 -0.05964469 -0.13886356 0.055534244
000170 12 5b db bd bc 02 fc bd 4c 17 17 be 50 65 24 be
       -0.1071073 -0.12305209 -0.14754981 -0.16054273
000180 08 53 ac 3d 40 2c 58 bc 9c 65 84 bd 4e 96 00 3e
       0.084142745 -0.013194144 -0.06464693 0.12557337
000190 20 d0 25 3c 50 94 2d be 9c 52 dd 3d 1e a3 18 3e
       0.010120422 -0.16951108 0.10806772 0.14905974
0001a0 88 fc 15 3d 28 37 0f bd a0 8c ff bc c0 c9 77 3d
       0.036617786 -0.03496471 -0.031194985 0.06049514
0001b0 b7 5f 0a be 7e ef 2e 3e 48 5c 2e 3e 78 65 40 3d
       -0.13513075 0.17083547 0.1702739 0.04697177
0001c0 f8 20 ab 3d fb 34 39 be d9 55 99 bd e4 a0 19 3d
       0.08355898 -0.18086617 -0.07487077 0.037506953
0001d0 1d 9d 35 be f0 e4 ab 3c 1a b4 18 be a0 6b ba bc
       -0.17735715 0.02098319 -0.14912453 -0.022756398
0001e0 68 79 e4 3c 90 46 1c be 14 1b 34 3d 3a f5 34 be
       0.027889922 -0.15261292 0.043971136 -0.17671672
0001f0 12 f7 0f 3e d8 38 fb 3d 7f 95 2a be 08 38 ab 3d
       0.14059094 0.122667015 -0.1665859 0.083602965
000200 b2 c1 16 be 50 7f 9f bd 40 c1 84 3d a0 35 7f 3d
       -0.14722326 -0.07787955 0.06482172 0.062307
000210 c8 8d 9d 3d f4 56 bd 3d 2f 32 cf bd 00 46 5b 3b
       0.07693058 0.092451006 -0.10116994 0.0033458471
000220 f1 29 d2 bd 40 17 a3 3b 48 3d 65 3d 14 33 bc bd
       -0.10261906 0.004977137 0.055966645 -0.0918943
000230 c7 31 d1 bd 2e 23 f6 bd 40 cf ab 3c 42 fb 1f be
       -0.102145724 -0.12018429 0.020972848 -0.15623191
000240 00 e6 26 3b 38 a3 00 3d 80 c4 1f 3d 46 20 35 be
       0.002546668 0.031405658 0.039005756 -0.17688093
000250 98 fd 4f bd 60 24 0e bc 80 57 22 3e 7a 8c 77 bd
       -0.050778955 -0.008675665 0.15853691 -0.060436703
000260 31 46 db bd d2 44 e5 bd 5e dd 14 3e 00 59 2b 3a
       -0.10706747 -0.11194767 0.1453757 0.00065363944
000270 cb 20 33 be e4 9c 83 bd 99 0b df bd 74 25 0f 3e
       -0.17492978 -0.06426409 -0.10890884 0.13979131
000280 00 6b 9f bc ec 39 1c bd 20 07 f3 3d c6 a2 1c 3e
       -0.019460201 -0.038141176 0.11866593 0.15296468
000290 3e b5 7f bd f6 50 27 be ad 0b 91 bd f8 27 45 bd
       -0.062428705 -0.16339478 -0.07082305 -0.04813382
0002a0 28 24 f3 3d 35 35 c1 bd 5c 2d 7d 3d 17 b7 b4 bd
       0.11872131 -0.094339766 0.061810836 -0.08823984
0002b0 ba d0 e5 bd 66 44 8d bd 5b ca 99 bd 7e a3 10 3e
       -0.11221452 -0.068978116 -0.07509299 0.14124867
0002c0 6c bb 42 bd f4 00 31 bd ab 02 1a be f0 b5 6d bd
       -0.04754202 -0.0432138 -0.1504008 -0.058034837
0002d0 98 45 1c bd e0 46 a3 3d 93 68 06 be 8a fd 26 3e
       -0.038152307 0.07972503 -0.1312583 0.16307655
0002e0 ec 86 a3 3d 25 6e ee bd 8c 8d 64 3d a4 f6 27 3d
       0.07984719 -0.11642102 0.055799052 0.0410067
0002f0 d8 34 99 3d 14 93 ed 3d 30 75 7b 3c ec 9d 6b bd
       0.07480782 0.116003186 0.015347764 -0.057523653
000300 4e 0c 12 3e 38 fe d1 3d 10 fe a9 bd 91 e7 a4 bd
       0.14262506 0.102535665 -0.08300412 -0.0805198
000310 e0 34 31 3d 0e a8 20 3e b8 7b 84 bc ab 95 ea bd
       0.043263316 0.15689108 -0.016172275 -0.11454328
000320 1e 84 35 3e e4 4f a3 3d 66 e4 0c be c0 90 21 bd
       0.1772618 0.07974222 -0.13759002 -0.039444685
000330 88 62 5f bd 3a 60 11 3e 99 b9 b4 bd bc 0f b9 3d
       -0.054537326 0.14196864 -0.088244624 0.09036204
000340 68 1e c4 3d 9c 7d 09 3d 38 81 f6 3d 10 d1 7d bc
       0.09576112 0.033567056 0.12036365 -0.015491739
000350 26 3d af bd 80 63 d4 3d b1 3a 02 be 88 78 f9 bc
       -0.08556585 0.103705406 -0.12717701 -0.030452982
000360 7c 61 a0 3d b4 cd f7 bd 10 b5 38 3d be a2 2c 3e
       0.07831094 -0.12099782 0.04509455 0.16858956
000370 c6 ce 23 be 22 07 b1 bd b4 7e 4f 3d 1e f3 1f 3e
       -0.15996847 -0.086439386 0.050657943 0.15620086
000380 24 73 23 3e de 2a 09 be 7f 90 39 be 8c 5e b5 3d
       0.15961891 -0.13395259 -0.18121527 0.08855924
000390 7d ff cc bd ec 2c da 3d 91 c7 d1 bd f8 4b 41 3d
       -0.10009668 0.106530994 -0.102431424 0.04719159
0003a0 90 2a 94 bc d8 18 f7 bd 00 40 f2 39 80 e9 f6 ba
       -0.018086702 -0.120652854 0.0004620552 -0.0018837899
0003b0 3e e7 29 be 10 4a 12 3e 4a ac 37 3e 33 c8 14 be
       -0.16592118 0.14286065 0.17936817 -0.14529495
0003c0 b3 09 37 be f0 76 83 3d a7 a0 32 be f6 ca 85 bd
       -0.17874794 0.0641917 -0.17444097 -0.06532852
0003d0 f8 9d 20 3e 48 32 f2 bc 54 23 30 3e 1b d6 10 be
       0.1568526 -0.029564992 0.17200977 -0.14144175
0003e0 34 6b 33 be cc 61 cb bd d4 32 25 3e 94 f2 09 3e
       -0.17521363 -0.09930763 0.1613267 0.13471442
0003f0 e8 f5 1c 3d 97 48 84 bd 4c 3f c7 3d b9 8d 19 be
       0.038320452 -0.06459158 0.0972887 -0.14995469
