simple2transformer/param/net_param/la26_actor_net.model (torch, 233919 bytes, 34 tensors)

transformer_encoder.encoder.attention.fc_Q.weight f4 [40, 40]
00000000: 6034 cf3c 4586 1a3e 9615 853d d24e fa3d
00000010: dfb1 a6bd bb3f 11be 70f9 16bd c442 21bd
00000020: 303b cabc 9701 92bd d220 db3d c03f 853b
00000030: 1ffa 1b3e e0e0 e5bc 2062 363d a07d 24bc
00000040: 9089 2ebc 8e33 ec3d 5872 953d 207e bebc
00000050: d439 0abd 7667 d83d aece bdbd 08eb 9b3d
00000060: a6fd 883d ec89 cfbd 389d 0dbe 40f6 2f3b
00000070: 35ff 09be e079 793d 1aea 8b3d 8085 d23c
00000080: b110 c6bd 80d7 b5bc b005 0dbe 783e db3c
00000090: e128 15be 8051 49bd 52da 38bd a771 e1bd
000000a0: c284 c03d c5cc 033e 089d d7bc f4dd 053d
000000b0: 5c04 2cbd 62f2 0ebe e258 f4bd a193 fbbd
000000c0: 90b8 bf3c a099 6b3c 4a00 d33d aa09 c4bd
000000d0: 42a5 d3bd 930a c6bd ea38 bf3d 9e31 14be
000000e0: 0ee7 fe3d 5647 08bd 2d6b cabd 1f9e 15be
000000f0: 50c5 723d 7f36 183e ea0c f43d 24ce 37bd
00000100: b9c4 02be 20e0 13be ac30 e7bd aa18 a7bd
00000110: 4b21 043e 9569 093e 4014 013c 5a42 eb3d
00000120: a284 df3d d673 df3d 00f0 edbd 316c 063e
00000130: 00f9 86bb f648 843d 38a5 9abc 6987 e4bd
00000140: 9f82 093e fac2 f43d 50c8 c3bc 0fe1 18be
00000150: 9519 163e d66e debd c08e 5e3b f463 833d
00000160: ce77 e43d a0cf 4e3d 9273 d3bd e6df e03d
00000170: 521d ed3d 6a07 b8bd 8392 84bd dc67 203d
00000180: e0a7 f3bc 9aff 4dbd d2ac ae3d b08b 3b3c
00000190: 0160 8fbd 4eca f3bd 2ac5 cf3d 4138 173e
000001a0: 6c3b 3f3d 0063 5ebb b8f5 b93c 42c1 d73d
000001b0: 44fa b6bd 0e8c 2bbd 3d00 103e d577 0c3e
000001c0: 50ff b63c d800 543d 5e9a 70bd b4cc dcbd
000001d0: 1299 a43d b8a8 673d a2af ebbd 6713 83bd
000001e0: cc54 0c3d a0bb 0a3d 7ef6 2abd 0625 72bd
000001f0: 8d70 a8bd 92ba d33d d8c8 8e3d 6057 9d3b
00000200: 79ac 1d3e 71c6 1c3e ceb0 7dbd 7b42 063e
00000210: 0af0 aebd 5e5e fe3d c8ac 06be dfc1 ddbd
00000220: 80ed f63b 3489 4e3d ac27 1cbe 981b efbd
00000230: 3445 2b3d 1036 08bd d065 59bc b51e 0c3e
00000240: 18c1 9e3c 58c2 823c ef3e 1f3e 700f cc3c
00000250: d156 183e 4045 f63b 4490 0abe 80b0 163d
00000260: 2645 ff3d 0e2c d73d ac0e b03d f0b9 ecbd
00000270: 9db9 0d3e c035 a03b b413 243d 5693 a93d
00000280: 5440 92bd badc a13d c623 ed3d 4c03 3e3d
00000290: 68b0 8ebc 5221 34bd 12a2 dc3d 9800 d13c
000002a0: 408c ad3b 3c27 98bd 5670 c93d 28d2 843c
000002b0: fabb e9bd 4a69 f63d 739f cbbd 9f7b 12be
000002c0: 30e2 8d3c 38df 1dbe 6800 de3c 9352 143e
000002d0: 7f65 213e 602c 81bb 0831 37bd fc0c 0cbe
000002e0: 1ad3 873d 7049 823c 5042 c43c 34eb 12bd
000002f0: 66d9 b63d fc0c 58bd 31ea bfbd 20dd 943c
00000300: da47 cebd 8054 bd3b 4037 25bc 0ba7 073e
00000310: 0c1c 083d d699 02be c0ba 5f3c 0026 303b
00000320: 0316 1fbe 6dd1 0b3e b850 2c3d 8064 863d
00000330: 6a39 e93d b0af 983c e249 1fbe 7338 d0bd
00000340: de35 f5bd 4691 6cbd 9600 6dbd ae91 b43d
00000350: 3f76 083e 802d d63c 275f 1fbe dc7f 3fbd
00000360: a21f 43bd da2d 9e3d 75d5 083e b47a babd
00000370: ef27 203e 8066 773c fdaf febd bd1a e4bd
00000380: d15f 97bd d6ce 0bbd e873 203d ee2d 883d
00000390: 7e79 0ebe c617 e83d f841 9cbc 5410 d5bd
000003a0: a0f1 5cbc 2168 153e a870 c23c 28b7 3d3d
000003b0: ee7a cd3d 7876 bf3c 9c98 183d de88 0bbd
000003c0: b482 dabd ea94 d23d 7c77 7c3d b036 243d
000003d0: c05a 5fbc 3072 b4bd 26eb 1dbd 6abc 35bd
000003e0: e9b4 203e c235 37bd 1e37 903d 9160 113e
000003f0: 0d95 083e f878 2dbd 0443 5b3d 90d7 1bbe
0.025293529 0.15090282 0.06498258 0.12222065 -0.08139395 -0.14184467 -0.036858976 -0.039370313
-0.024686426 -0.071292095 0.10699619 0.0040664375 0.15232132 -0.02806133 0.044527173 -0.010039717
-0.010652915 0.11533271 0.072972 -0.0232535 -0.033746555 0.105666086 -0.09267937 0.07613188
0.066890046 -0.101337284 -0.13829505 0.0026849657 -0.1347626 0.060907245 0.06831761 0.025698423
-0.096711524 -0.022197485 -0.13771701 0.026763186 -0.14566375 -0.04914999 -0.04513008 -0.110080056
0.094003215 0.12871082 -0.026319996 0.032682374 -0.041996345 -0.13959649 -0.119310156 -0.12284017
0.023403436 0.014379889 0.103027895 -0.09572156 -0.10334255 -0.096699856 0.09337027 -0.14472052
0.12446414 -0.033271156 -0.098837234 -0.146111 0.059270203 0.14864539 0.11916526 -0.044874325
-0.12770356 -0.14440966 -0.1128858 -0.08159001 0.12903325 0.13419183 0.007878363 0.11487265
0.109139696 0.10910766 -0.11618042 0.13127209 -0.0041190386 0.06459229 -0.01887761 -0.1115864
0.13428734 0.11951251 -0.023899227 -0.14929603 0.14658196 -0.10860984 0.0033959597 0.06415549
0.111556634 0.050490975 -0.10324778 0.10980205 0.11577858 -0.08985789 -0.064732574 0.039161548
-0.029743135 -0.05029259 0.085290566 0.011446878 -0.07000733 -0.11903821 0.10145028 0.14767553
0.04668753 -0.003393352 0.022700176 0.10534908 -0.08934453 -0.041881613 0.14062591 0.13717587
0.02233854 0.051758617 -0.058740966 -0.107812315 0.08037008 0.056557387 -0.11508109 -0.06400185
0.034260556 0.03387034 -0.04173898 -0.05911734 -0.08224592 0.1033832 0.06971902 0.0048016757
0.15397824 0.15310074 -0.061936192 0.13111298 -0.085418776 0.12420343 -0.13151848 -0.108279936
0.0075356364 0.050423816 -0.15249509 -0.11675185 0.041814044 -0.033254683 -0.013268903 0.13683589
0.019379184 0.015961811 0.15551351 0.024909705 0.14876868 0.0075155795 -0.13531595 0.036789417
0.12464361 0.1050645 0.085965484 -0.11558902 0.13840337 0.00488922 0.040057853 0.08280055
-0.07141176 0.079034284 0.11579089 0.046389863 -0.017418101 -0.04397709 0.107731 0.025512978
0.00529626 -0.07429358 0.098358795 0.016213492 -0.11412807 0.12031801 -0.09942522 -0.1430497
0.017319769 -0.15417182 0.027099803 0.14484625 0.15761374 -0.0039420575 -0.044724494 -0.13676828
0.06632061 0.015904158 0.023957402 -0.03586884 0.08928184 -0.052746758 -0.0937084 0.018171847
-0.10072298 0.0057778955 -0.010083973 0.13247316 0.033229873 -0.12753996 0.0136553645 0.0026878119
-0.1553574 0.13654108 0.042069167 0.065621376 0.11387904 0.018638462 -0.15555528 -0.10167017
-0.11973165 -0.05775573 -0.057861887 0.08816849 0.13326357 0.026144743 -0.15563641 -0.046752796
-0.04763759 0.07723589 0.13362677 -0.09105435 0.15640233 0.0151001215 -0.12435911 -0.111379124
-0.073913224 -0.0341328 0.039173037 0.066493854 -0.13913533 0.113326594 -0.019074425 -0.10403505
-0.013485342 0.14590503 0.02373536 0.04631725 0.100332126 0.02337192 0.037254915 -0.034066074
-0.10669461 0.10282309 0.061637387 0.040091217 -0.013632476 -0.08810842 -0.038554333 -0.04436914
0.15694012 -0.044729 0.07041763 0.14196993 0.13338108 -0.042351693 0.053530708 -0.1521895

transformer_encoder.encoder.attention.fc_Q.bias f4 [40]
00000000: 0a82 e83d a6e7 0dbe 2c7e c7bd d8f8 7b3d
00000010: 445c ccbd 389e a4bc 2e1d 8cbd 7585 033e
00000020: 6094 693d 839b 92bd 600a a13c e83c fb3c
00000030: 2c64 21be c49a 6abd e2f0 a13d 071b cebd
00000040: 16cf c93d 3442 8e3d 0998 08be 001e 64bb
00000050: 641d 683d c001 f53b e037 033c a363 90bd
00000060: f654 08be c29a dc3d 2f36 99bd 561e b9bd
00000070: afa4 ccbd 10e7 4e3d 80b3 27bc d679 b93d
00000080: 8e11 eb3d 711d c3bd d4cb bebd 20ab 29bc
00000090: 0048 37bd 8f62 eabd dc97 09be 43b5 13be
0.11352928 -0.13857898 -0.09740862 0.061516613 -0.09978536 -0.020094976 -0.06841503 0.12843879
0.057026267 -0.07158568 0.019658267 0.03066869 -0.15760869 -0.057276502 0.07907273 -0.10063749
0.09853952 0.06946221 -0.13339247 -0.003480792 0.056668654 0.0074770153 0.008008927 -0.07050254
-0.1331366 0.10771705 -0.07481038 -0.09038989 -0.099923484 0.050513327 -0.010235667 0.090564415
0.11477958 -0.095271 -0.09316221 -0.010355741 -0.0447464 -0.1144458 -0.13436836 -0.14424615

transformer_encoder.encoder.attention.fc_K.weight f4 [40, 40]
00000000: 5ed0 1dbd 1699 e43d 38b7 f0bc 7099 36bd
00000010: 0038 7b3a d29e 7abd e895 893d 029b 77bd
00000020: 9a6b edbd 633a e5bd 9810 f83c 0a16 0fbe
00000030: b0cf 5b3c 26c8 f23d b6f9 febd 4ab1 fabd
00000040: d000 263c 4bcc 0d3e 225f a4bd 603a 803d
00000050: 7e6c 97bd a02b 4cbd 1798 19be 9076 eebd
00000060: a627 d8bd 2efb 8abd 106c 833c d0a2 26bc
00000070: 1c7d a8bd cac9 c03d fe4b b73d 5c08 a73d
00000080: 400e aa3c 563b ea3d f86e 323d 90ef 993d
00000090: 90c6 e53c 76dd 68bd 2045 ab3c b6b1 a73d
000000a0: 04c9 5abd 0187 0e3e 1693 d13d c6d5 3ebd
000000b0: dc07 d0bd f24d 0abe f000 f4bd 9156 14be
000000c0: e675 0dbe 18d1 a83c 2be5 1e3e 7c84 af3d
000000d0: 0ee0 d83d c07a 903b e8b0 983d c872 f8bd
000000e0: 7c07 1a3d 127f 72bd 56e0 a6bd 5cde 273d
000000f0: 8c63 773d 42ff 45bd efa7 0b3e 804a 2fbd
00000100: d7de 103e 9655 dcbd 46f5 acbd 8a7e 20be
00000110: b266 44bd 9734 153e 0057 abbb c0d9 473b
00000120: f1c7 a2bd a03c c13b 4ee0 ea3d 6097 f03b
00000130: 95d8 9dbd f518 20be 008a 80bd 44b7 833d
00000140: be2e 893d c07a 093c f94f 073e 6013 79bc
00000150: db91 18be e7e4 abbd 973d a0bd 0e6a ec3d
00000160: b693 a0bd 9f48 0c3e 602a bb3b 4964 b1bd
00000170: a780 073e 40fb 2abb c8cb efbc 90db ad3c
00000180: b069 c4bc a82a 653d 404b 1bbb a927 81bd
00000190: 8d5b 193e 8ca8 cfbd 6c91 0dbd fc9d 283d
000001a0: de28 e13d 3c42 a53d 2285 19be aab9 e53d
000001b0: df70 203e 655c 0c3e 0049 283b 802a 8d3a
000001c0: e689 2fbd d01c 81bc ebd1 1bbe c87a 903d
000001d0: 7024 79bc d431 583d c690 9cbd 1f5a f9bd
000001e0: 50d3 f63c ffd5 92bd 80ec e9ba 2e95 9fbd
000001f0: 523f be3d 37e3 95bd a423 753d e874 78bd
00000200: aae7 de3d d0b1 6fbc 93f0 0a3e d59d 0fbe
00000210: 02aa 4abd 12cf ce3d c721 ebbd 2b75 19be
00000220: 5895 8a3d 16b8 01be 34bb a7bd d887 9d3c
00000230: ae7b 15be 451a 103e f774 0dbe 9895 8f3c
00000240: 42ca c63d ffda 8abd 0090 dcbc 9983 0a3e
00000250: 2442 b43d b2e8 b83d c8cc f83c a0f0 0fbe
00000260: decb 08be 00f7 7c3d 4607 44bd 0d99 90bd
00000270: 604d 8a3b a0d1 a8bc 3459 a53d 42c2 dabd
00000280: 0ac3 efbd db8a 0abe 8fa9 1dbe e62c 98bd
00000290: d840 acbd 8471 d3bd 6077 fa3c 70fc b63c
000002a0: 8e3f 1ebe d495 193d 2a99 e13d 6f93 b3bd
000002b0: ac75 8dbd 60dc c5bb 1c96 a23d dd11 063e
000002c0: 06cb 16be 7a3e df3d 821a e93d 80d0 9f3d
000002d0: 97bd 213e 1b2a 1abe 40c7 f1bc ce7f f83d
000002e0: 8d54 203e f02c fdbd b02d 03be bd87 d9bd
000002f0: b0a4 4abc 8442 a4bd 2857 433d ae09 1abd
00000300: 00d4 30bb 24ad 01be 388a cebc 3a6b df3d
00000310: c2a7 a73d 36c4 b03d 8a83 f6bd 50c7 e5bc
00000320: 983e a6bc f05c 8dbc 13be 1b3e 9e88 e13d
00000330: 909f 983d a017 18bc d194 053e 5070 6e3c
00000340: 3490 01bd 409e c43b 4b88 afbd e894 abbc
00000350: 3e7a 1abe f7ca 173e f6cc c7bd bdd8 d5bd
00000360: 181c c43c 9e8a 16bd 540d 603d 87a4 113e
00000370: 8b81 03be e61a 5ebd fb6f f4bd d7d8 f1bd
00000380: 9a1a 8e3d fd00 163e 4d18 0b3e 165e d7bd
00000390: c885 d4bd 8ae0 d33d 0f80 143e ee43 c43d
000003a0: 9437 41bd eef3 b23d b425 b93d 50eb 6a3c
000003b0: 00f3 53bc c436 71bd 1273 c6bd 9c66 1dbd
000003c0: 483a 06bd 7b57 21be b2a6 8d3d 963a c93d
000003d0: a8a4 0dbe c10c f4bd 88d5 183d aec7 fd3d
000003e0: 5e0f 4dbd 546b 3a3d 7029 a5bc 16b7 1bbe
000003f0: 1a97 5fbd f84d f83c 5631 a83d 183a 8b3d
-0.038528793 0.11162011 -0.02938424 -0.044579923 0.0009583235 -0.06118662 0.067180455 -0.06045056
-0.11592789 -0.11192777 0.03028135 -0.13973251 0.013416216 0.118545815 -0.12449972 -0.122408465
0.01013203 0.13847463 -0.08025958 0.06261134 -0.0739374 -0.04984629 -0.14999424 -0.11643708
-0.10554437 -0.0678619 0.01604274 -0.010170653 -0.08226988 0.09413488 0.08950041 0.08155891
0.020758748 0.11437099 0.04356286 0.07516396 0.028048784 -0.056851827 0.020906985 0.081881925
-0.05341436 0.13918687 0.102331325 -0.04659059 -0.10157749 -0.13506296 -0.11914241 -0.14486147
-0.13814506 0.020607516 0.15517108 0.08570191 0.1058961 0.004409164 0.07455617 -0.12131268
0.037604794 -0.059203215 -0.081482574 0.040983543 0.06039767 -0.048339136 0.1363828 -0.042795658
0.14147507 -0.10758512 -0.0844522 -0.15673271 -0.0479495 0.14570843 -0.005228877 0.003049478
-0.07948292 0.0058971196 0.11468564 0.007342264 -0.07707325 -0.1563452 -0.062763214 0.064314395
0.066983685 0.008391082 0.13214101 -0.015202373 -0.1489939 -0.08393269 -0.07824247 0.11543666
-0.078406736 0.13699578 0.0057118386 -0.08661706 0.1323267 -0.0026089698 -0.029271975 0.02122286
-0.023976177 0.055948883 -0.0023695976 -0.06306393 0.1497633 -0.1013957 -0.034562513 0.04116629
0.10994123 0.08069274 -0.14992192 0.11217053 0.15668057 0.1370712 0.0025678277 0.0010770112
-0.04285612 -0.01576081 -0.15216796 0.07054669 -0.015206441 0.052781895 -0.07644801 -0.12175392
0.030130059 -0.07169723 -0.0017846972 -0.07792126 0.09289421 -0.073187284 0.059848443 -0.060658365
0.1088403 -0.014629796 0.13568334 -0.14025052 -0.04947854 0.10098089 -0.11481052 -0.14986102
0.06766766 -0.1266788 -0.08190003 0.019229814 -0.14597961 0.14072521 -0.1381415 0.017527387
0.09706546 -0.067800514 -0.026924133 0.13526763 0.08801678 0.09028758 0.030371085 -0.14056635
-0.13359019 0.061758995 -0.0478585 -0.07060442 0.0042206496 -0.02060777 0.08073655 -0.10681583
-0.117071226 -0.13529532 -0.15396713 -0.07430439 -0.084108055 -0.10324386 0.0305745 0.022337168
-0.15453932 0.037496403 0.11015542 -0.08768355 -0.0690721 -0.0060382336 0.07938787 0.13092752
-0.14725885 0.10900588 0.11382009 0.0780344 0.15794979 -0.15055124 -0.029513955 0.12133752
0.15657254 -0.12362087 -0.12810397 -0.10621593 -0.012368366 -0.08020499 0.04769054 -0.037606888
-0.002698183 -0.12663704 -0.025212392 0.10909124 0.08186294 0.08631174 -0.12036808 -0.028049141
-0.020293519 -0.01725623 0.15209226 0.11012386 0.07452309 -0.009282976 0.1304505 0.014553145
-0.031631663 0.00600031 -0.08570918 -0.020945027 -0.15085694 0.14823519 -0.0975589 -0.1044173
0.023939177 -0.03675329 0.05470021 0.14222918 -0.12842385 -0.05422487 -0.11935421 -0.11808937
0.069386676 0.14648814 0.13583489 -0.10515992 -0.10377079 0.10345562 0.14501975 0.09583269
-0.047172144 0.08737932 0.090403944 0.014338329 -0.012936354 -0.05889012 -0.09689917 -0.038427934
-0.032770425 -0.15756027 0.0691656 0.098256275 -0.13832343 -0.11916495 0.037313014 0.123916015
-0.050063483 0.045512512 -0.02016136 -0.1520656 -0.05458746 0.030310616 0.08212535 0.0679819

transformer_encoder.encoder.attention.fc_K.bias f4 [40]
00000000: d0fe 1ebe 9351 1abe a597 003e c6c3 973d
00000010: cd1a 013e 2462 edbd 3052 853d e4b2 a33d
00000020: c920 1d3e 68f8 653d 0087 e73a d41b eebd
00000030: 1712 173e cc7f 283d 2c1c debd c42b 2fbd
00000040: 7ab6 d3bd 5b1d 0c3e 5e4f f33d 88d9 c1bc
00000050: 6402 203d 2007 e6bd dc5e 4a3d de89 89bd
00000060: 4d1a 093e 725a 86bd 0007 793d 0c1c 933d
00000070: 6b12 82bd e00a c0bd a0e3 19bc 7838 acbc
00000080: a091 dc3c 288f e03c d356 133e ac67 07be
00000090: de3a 6cbd ebc0 1dbe cbab 113e 2699 dabd
-0.15526891 -0.1507018 0.12557848 0.07410388 0.1260788 -0.115909845 0.06509817 0.07993105
0.15344538 0.0561451 0.0017664135 -0.116264015 0.14752994 0.0411375 -0.10845217 -0.042766348
-0.10337539 0.13683073 0.118803725 -0.023663297 0.03906478 -0.11231828 0.04940687 -0.06715749
0.13388939 -0.0656022 0.06079769 0.07183084 -0.06351169 -0.09377074 -0.009392649 -0.02102302
0.026924908 0.027412012 0.1438859 -0.13223141 -0.057673328 -0.15405624 0.1422569 -0.10673742

transformer_encoder.encoder.attention.fc_V.weight f4 [40, 40]
00000000: 0f1b 003e ea4d fe3d 0c00 73bd 3dc5 02be
00000010: f0f8 4a3d f263 d03d 0071 81bc 58e7 adbd
00000020: 8885 62bd 0f09 033e 953a 12be b834 4d3d
00000030: b124 023e e814 fcbd fcf5 1b3d 0075 7ebc
00000040: c421 5a3d 12d1 8e3d d232 09be 0aa7 33bd
00000050: 6851 febd b888 923c 50dc e3bc 5004 193c
00000060: e416 6e3d edfd 1ebe 0050 18be 0076 87bb
00000070: 9abb 0abd b0bf 99bc 3477 5d3d 60e5 ce3c
00000080: aed0 e9bd a237 95bd 06d8 c73d 5c77 423d
00000090: 98f5 223d d6ed 0abe b0be 413c 78ee 0cbd
000000a0: 7979 0c3e caf8 fd3d 5ea9 08bd c06f e93b
000000b0: a8c0 d2bd cc2b 37bd 787b 6fbd e0c1 0bbc
000000c0: 69da 15be e06b cc3c 3ef4 1dbd 82bd 3fbd
000000d0: 3917 193e a3ad 053e cff5 1cbe f0a0 a83c
000000e0: 5146 19be 1069 67bc 20cf d9bb 0d72 91bd
000000f0: 6c92 ad3d 884e b93d 00c0 d63b 7356 1cbe
00000100: 55bc 053e 9412 05bd 289e 78bd cca0 133d
00000110: 1228 b7bd 0039 e83c ec56 b93d 0055 2fba
00000120: 3fd4 07be 6432 613d 34e9 9e3d 2896 f6bd
00000130: aeac 4ebd bd23 0cbe 40db 383d 6c73 3f3d
00000140: fe19 f7bd 4076 433b 907c 943c 9221 53bd
00000150: c440 7d3d cc12 c6bd 4e6b a83d 17e3 02be
00000160: 97c1 a9bd da1b cbbd 6050 fbbb d003 46bc
00000170: 0e53 da3d dac7 10bd 3ced a0bd c263 ea3d
00000180: 74fa b43d 68f6 bb3c ea18 1abe 6e35 df3d
00000190: 364b da3d 7022 fbbd 0439 3e3d 6803 1cbd
000001a0: 7116 9fbd 58fa 943c cadd ef3d 28e5 f2bc
000001b0: 00a1 76bb f838 fcbc fb4f 85bd b150 1c3e
000001c0: 170a 1c3e 3c88 2e3d 4b3a 153e 7a92 ffbd
000001d0: d011 ba3d 4c22 6cbd 98fa a8bd 0768 82bd
000001e0: e370 203e a46d 0bbe 1344 14be 004e ddbb
000001f0: 1e4c ed3d ceb5 bc3d 5a2b c63d 09e3 1d3e
00000200: d453 a43d 8409 4c3d d049 2abd 002a d539
00000210: b6ba d7bd 443a 06be f20a f93d a7cc e5bd
00000220: 40af 3fbb ea99 d43d a0f0 e23b 88df 11be
00000230: 80be a6bb 1dce a1bd f8d2 a2bc 2021 ca3c
00000240: e08d a8bb 0ced 50bd c09f 863d 9eb9 91bd
00000250: ca67 843d d811 8b3c a093 c3bc 98bd 843c
00000260: 01a9 8fbd 78b2 343d f06a b03d 022c d73d
00000270: 9823 e2bc 1694 1dbd b0ec 333d ae01 7ebd
00000280: b52b 093e cca3 923d 7eb8 98bd aa8a acbd
00000290: 9051 62bc c403 96bd 346f a23d 121b 8ebd
000002a0: 666e f53d b0f1 003c f032 14bc 8d4a fbbd
000002b0: ae2a e0bd 2e8e ccbd 280e bc3c dc6a 7d3d
000002c0: 3661 d5bd 5093 dfbc 1118 8ebd 34a3 7f3d
000002d0: 3991 133e f2ac 76bd ca28 80bd 40a2 ccbb
000002e0: 8846 ee3c 009f 063c 6094 1fbd 1e94 00be
000002f0: c4fb ccbd 8a5d d93d 0822 f3bd 00ad caba
00000300: 8c55 4e3d aa67 c43d 1c1d 17be 5683 45bd
00000310: 04e0 1c3d 45f0 bfbd f698 f03d 770e 183e
00000320: d8a0 42bd b1de 14be 7822 e3bd ce55 33bd
00000330: 2c8a 31bd 6434 0d3d d8e4 d9bc 009c d339
00000340: 809f 343b db36 c6bd 8288 eb3d 042a 64bd
00000350: 87c7 143e 5cc4 913d 0080 53b7 de20 fd3d
00000360: 2061 4c3c 4607 0dbe ce0d c53d 5681 dd3d
00000370: 5aa5 833d f64f 833d b0d9 0b3d a0d0 54bd
00000380: 2c8c dfbd c07e 2dbc 9d40 063e 6e1b 2dbd
00000390: 8582 a5bd e896 a0bc 585a e0bc b602 fc3d
000003a0: 0928 03be a0af b4bd 6a62 fd3d aeac 0ebd
000003b0: 1086 103d e89b 9e3c f2d9 f4bd eb96 033e
000003c0: 803f 5a3b 8051 abbd 40d9 2d3b 5c5e d4bd
000003d0: 801f 093b 660b f53d 03b7 bfbd 2847 d7bd
000003e0: 3fb9 c7bd aafb bcbd bfee b5bd d90e 1ebe
000003f0: 9a4c f03d d88e 26bd 1e14 f23d a85d 16be
0.12510322 0.12417205 -0.059326217 -0.12770553 0.04955381 0.10175313 -0.015800953 -0.08491391
-0.055303127 0.12796424 -0.1428016 0.050099105 0.12709309 -0.12308675 0.038076386 -0.015530825
0.053254858 0.06973471 -0.13398293 -0.043860473 -0.12417871 0.017887458 -0.027815014 0.009339407
0.0581273 -0.15526552 -0.14874268 -0.0041339397 -0.033870317 -0.018768162 0.05406876 0.025255859
-0.114167556 -0.07286002 0.09758 0.04747711 0.039784998 -0.1356729 0.011825249 -0.03440711
0.13718213 0.124009684 -0.033364646 0.0071239173 -0.102906525 -0.044719502 -0.05846736 -0.00853011
-0.14634098 0.024953783 -0.038563006 -0.046811588 0.14950265 0.13054518 -0.15328144 0.020584553
-0.1496823 -0.01412417 -0.0066470057 -0.071018316 0.084751934 0.09048182 0.00655365 -0.15267353
0.13060124 -0.03248842 -0.060697705 0.03604202 -0.0894319 0.028347492 0.09049782 -0.0006688386
-0.13264559 0.054979697 0.07759324 -0.12040359 -0.05045765 -0.13685508 0.045130968 0.046740934
-0.120655045 0.0029825121 0.018125802 -0.051545687 0.061829343 -0.09671554 0.08223592 -0.1278194
-0.082888775 -0.09917422 -0.0076694936 -0.01208587 0.10660373 -0.035346843 -0.07857749 0.114448085
0.08836833 0.022944644 -0.15048566 0.10898863 0.106588766 -0.12262428 0.046441093 -0.038089186
-0.07767952 0.01818578 0.11712225 -0.029650286 -0.0037632585 -0.030788884 -0.06509396 0.15265156
0.15238224 0.042610392 0.14573018 -0.1247911 0.09085429 -0.057649896 -0.08250922 -0.06367498
0.15668063 -0.13616043 -0.14479093 -0.006753683 0.11586784 0.09214364 0.096762374 0.15418638
0.080238014 0.049813762 -0.0415743 0.00040657818 -0.10533659 -0.13108164 0.12160291 -0.11220675
-0.0029248744 0.10380919 0.0069256574 -0.14245427 -0.0050886273 -0.07900641 -0.019875988 0.024673998
-0.005143866 -0.051007316 0.06573439 -0.07115482 0.06465109 0.016976282 -0.023874104 0.016203687
-0.07014657 0.044115514 0.08614147 0.10506441 -0.027604863 -0.038471304 0.043926895 -0.06201332
0.13395579 0.07160148 -0.07457064 -0.084248856 -0.013813391 -0.07324937 0.079313666 -0.06938757
0.119839475 0.007870123 -0.009045348 -0.12270079 -0.109456405 -0.09988056 0.022955969 0.061869487
-0.10418932 -0.027291924 -0.06938184 0.062411502 0.14410867 -0.060223527 -0.0625778 -0.0062449276
0.029086366 0.0082166195 -0.03895986 -0.12556502 -0.10008958 0.10613544 -0.11871725 -0.0015462935
0.050374553 0.09590085 -0.14757198 -0.048220955 0.038299575 -0.09372 0.11747925 0.14849268
-0.047516674 -0.14538075 -0.11090559 -0.043783 -0.04334466 0.03447379 -0.026598379 0.00040361285
0.002756089 -0.096784316 0.11500646 -0.05570413 0.14529239 0.07117531 -1.2606382e-05 0.123597845
0.012474328 -0.13772306 0.09621774 0.108156845 0.06428023 0.06411736 0.03414315 -0.051956773
-0.109154075 -0.010589302 0.13110586 -0.042262487 -0.08081535 -0.019603208 -0.02738683 0.123052046
-0.12808241 -0.0882256 0.123722866 -0.03483265 0.035284102 0.019361451 -0.11955632 0.1285054
0.003330201 -0.08365154 0.0026527196 -0.1036956 0.0020923316 0.11965065 -0.093610786 -0.10511619
-0.0975213 -0.092276886 -0.08883428 -0.15435351 0.117333606 -0.04066357 0.11820243 -0.14684165

transformer_encoder.encoder.attention.fc_V.bias f4 [40]
00000000: f50d 0e3e 9161 153e 9603 f3bd 083e 833d
00000010: ce1b ea3d be7f e63d 458a 213e 3842 eb3c
00000020: 18ed e4bc 48ba b0bc fab0 a13d a004 ebbd
00000030: a0d8 c9bd f0a8 f0bd 5002 613d 6031 193d
00000040: 7085 75bc 253d 17be cead c03d 9ab5 e6bd
00000050: 1b13 0c3e d0c7 b7bd 4876 033d b97e 143e
00000060: deb9 32bd d099 26bc 8360 b8bd 4247 cc3d
00000070: e2ab d73d 58b9 813d 88cf a33c b7a7 0dbe
00000080: 80fa 043c 68cb ffbd 1d8e 08be 2885 d2bd
00000090: a8df 3fbd 2e20 c73d b093 99bd 88eb 18be
0.13872512 0.14588 -0.11865918 0.06408316 0.114310846 0.11254834 0.15775402 0.028718099
-0.027945086 -0.0215732 0.07895084 -0.114754915 -0.09855771 -0.11750972 0.054933846 0.037400603
-0.014985427 -0.14769419 0.094081506 -0.112651065 0.13679163 -0.08973658 0.032095224 0.14501466
-0.043634288 -0.010168508 -0.09002783 0.09974529 0.10530831 0.0633418 0.01999642 -0.1383351
0.0081163645 -0.124899685 -0.13335462 -0.10279304 -0.046844155 0.09722935 -0.07498872 -0.14933598

transformer_encoder.encoder.attention.fc.weight f4 [40, 40]
00000000: 601e 343d f176 f8bd 7383 dcbd 2ec5 bf3d
00000010: 42cc 9d3d 8626 fb3d ad96 93bd 9e26 9abd
00000020: d46e 793d be2d e43d fbd0 1d3e 9a7d 04be
00000030: de96 0cbe 0b1c 143e 51fd 0abe 60e6 0bbe
00000040: e820 443d c4fb f0bd 5409 053d cca0 13bd
00000050: e877 6ebd ae2e d63d 404c dabb e97c 09be
00000060: c283 843d 487c 8abc d097 ba3d 7e84 e2bd
00000070: c090 1dbe bcb9 643d bc0e af3d 3a64 11be
00000080: 5457 293d 140f 943d 6507 103e e42d 183d
00000090: fb9c 123e 30bb 25bc e361 bdbd fd0e 0abe
000000a0: ecb6 0e3d c256 16be 80e1 2e3c bca0 19bd
000000b0: b98e 143e e38b efbd 4cd6 7a3d 63d9 05be
000000c0: c0d6 ae3d 0cc2 103d a0b2 61bd a4a0 b23d
000000d0: d8ef efbc 16ca 11be f137 123e d458 003d
000000e0: a82e 263d 00fc 8339 d4ae 633d 803c 973d
000000f0: 7080 5b3c dfab dbbd 185a e1bd abd5 1a3e
00000100: 1210 1bbe 54ac 273d f8b1 163d c086 31bd
00000110: 50f2 6abc deea f53d 982b bfbc 6e97 19be
00000120: b05a 09be 10b8 fb3c 614e 063e 60c4 38bc
00000130: 84d5 6cbd 2a47 b03d 06eb cebd de5d 3cbd
00000140: 0a5b 11be 6ccc 16be 40f4 debb d0e3 0a3d
00000150: 1406 8a3d b010 0ebe da49 d03d 84c7 463d
00000160: 9590 17be a039 d93b 4067 35bd 702c 0f3d
00000170: e8ac 563d 8c50 8fbd 2ed5 a53d c6bd b4bd
00000180: b8b9 103d 609c 6a3c 8c99 133d 9819 88bc
00000190: 14e6 15bd 9bc9 03be 0c39 7f3d 258f 143e
000001a0: 72a6 823d 4701 96bd 843f 733d 498a 0e3e
000001b0: 2242 ff3d 46ed c73d e2a8 cb3d 74bc 1fbe
000001c0: 42a1 9bbd aeee e03d 08c0 bd3c 8e5a 9b3d
000001d0: 2a1e dfbd f38b 143e a051 94bc 5e4f c73d
000001e0: d877 adbd 9000 9a3c 31f8 113e 3318 203e
000001f0: b8ed bb3c 9d7e 103e c70c 123e d85a 13be
00000200: 1119 0c3e 806b 333c 3a34 e8bd 506c 41bc
00000210: aaf5 af3d a38a a4bd 18ba 1f3d e525 92bd
00000220: 46f3 973d 78b2 6d3d 8a35 f83d c458 01bd
00000230: c7f8 083e 50c7 aebd 6a38 b03d ccf1 723d
00000240: a4c1 19be ebc5 1e3e 2b2d 203e a42b ab3d
00000250: 920c 62bd c427 3b3d 3ead f33d 0203 cabd
00000260: c095 4e3c 6b97 c2bd 3eb3 c33d 007d 18bb
00000270: a891 6dbd 034d 9ebd b8ec b2bc 3e06 b03d
00000280: 8014 bdba 00e4 b3bc d05b 34bc f03f 58bc
00000290: 1554 123e 2214 f43d e077 b9bb 9e85 fdbd
000002a0: 2023 4b3c 5037 503d 907c 17bc 38a4 71bd
000002b0: 8509 1e3e fdf2 1c3e 0403 443d ea6f fc3d
000002c0: 48a4 183d c8a2 853d aed1 94bd 8288 14be
000002d0: 4420 623d 966f 13be 6852 983c 6081 603d
000002e0: 9150 053e b77d 0f3e 06a8 b4bd c8a5 ee3c
000002f0: f75a 84bd 61ed 1ebe f884 373d a047 47bd
00000300: 6769 11be 7078 31bc d6e2 18bd d439 17bd
00000310: def9 c6bd e890 433d ca84 88bd 25bb 193e
00000320: c095 1f3b be48 14be 70d6 723c 6001 863d
00000330: 76d9 fe3d dc86 103d da7d 83bd 8fb9 93bd
00000340: b690 24bd c2fd df3d cbf4 88bd 3c98 3a3d
00000350: 6280 8b3d 0d2e f0bd 703d 363d dac0 f13d
00000360: 6f32 163e d04c cbbd 60ca ec3b c09f 243d
00000370: b670 8f3d c903 1f3e 4067 143b 0af7 bdbd
00000380: d426 fbbd 11cf 043e 88a2 e0bd d01f 0f3c
00000390: ff5d 153e 4990 21be 5813 03bd a057 b5bc
000003a0: 349b 5a3d 4e96 f4bd 6456 6c3d f309 8dbd
000003b0: b383 8cbd 066d f33d 34ef bcbd 5f65 87bd
000003c0: 9c85 b0bd 2a8f 15be 25df 08be daea 3dbd
000003d0: 1a41 ed3d 0a6f 45bd 7cbd 80bd af65 213e
000003e0: 26e2 ba3d c3da 1bbe ebf1 1cbe 4874 d83c
000003f0: c0c6 d5bd e9fa f2bd 48ad 8abc 9541 193e
0.04397428 -0.12132061 -0.107672594 0.09363781 0.07704975 0.12263207 -0.072064735 -0.07526897
0.06089671 0.11141537 0.15411751 -0.12938538 -0.13729426 0.14463823 -0.13573195 -0.136621
0.047882944 -0.117667705 0.0324796 -0.03604202 -0.05821982 0.10458122 -0.0066619217 -0.13426556
0.06470443 -0.016904965 0.09110987 -0.11060427 -0.15387249 0.055841193 0.08547732 -0.1419839
0.04134305 0.072294384 0.14065321 0.03715314 0.14317696 -0.01011543 -0.09247186 -0.1348228
0.034842417 -0.14681533 0.010673881 -0.037506804 0.1450757 -0.11696603 0.061239526 -0.13071208
0.08537054 0.035341308 -0.05510199 0.08722046 -0.029289171 -0.14237246 0.14279152 0.031334713
0.04057184 0.00025174022 0.05558665 0.07384586 0.013397321 -0.10726141 -0.11003512 0.1512057
-0.15142849 0.04093583 0.036790818 -0.0433414 -0.014339998 0.12007688 -0.023336217 -0.14999172
-0.13413501 0.030727416 0.13115837 -0.011277288 -0.057820812 0.086073235 -0.10103421 -0.045987956
-0.14194885 -0.14726418 -0.006804019 0.033908665 0.067394406 -0.13873553 0.10170336 0.048530117
-0.14801247 0.006629184 -0.04428792 0.03495449 0.05241099 -0.06997785 0.080973014 -0.08825259
0.035333365 0.014319509 0.036035106 -0.016613767 -0.036596373 -0.12869875 0.062310264 0.1450773
0.06379403 -0.073244624 0.059386745 0.13919939 0.12463786 0.09762053 0.09944321 -0.15599233
-0.07599117 0.109830245 0.023162857 0.07585631 -0.10894425 0.14506511 -0.018105328 0.09731935
-0.08470124 0.018799096 0.14254834 0.15634231 0.022940502 0.14110799 0.14262687 -0.14390123
0.13681437 0.010950923 -0.113380864 -0.011805609 0.085917786 -0.08034255 0.038995832 -0.07136134
0.074194476 0.05803153 0.12119587 -0.031578794 0.13376151 -0.085341096 0.0860451 0.059312627
-0.15015274 0.15505187 0.1564223 0.08357933 -0.05518777 0.04569222 0.11898278 -0.09863855
0.012608945 -0.09501537 0.09555672 -0.0023267865 -0.058000237 -0.077295326 -0.021841392 0.085949406
-0.0014425665 -0.021959305 -0.011008218 -0.013198838 0.14289887 0.119179025 -0.005660042 -0.12379001
0.012398511 0.050834 -0.009246007 -0.0589945 0.15433319 0.15327068 0.04785444 0.123260334
0.037266046 0.06525189 -0.07266556 -0.14505199 0.055206552 -0.14398035 0.018593982 0.05481088
0.13019015 0.140128 -0.088211104 0.029131785 -0.06462663 -0.1552024 0.044804543 -0.04865229
-0.14200364 -0.010831937 -0.037325703 -0.036920384 -0.09715627 0.047745615 -0.066659525 0.15012796
0.0024350733 -0.14480874 0.014821634 0.06543231 0.12443821 0.035284862 -0.06420489 -0.07213127
-0.04017707 0.10937072 -0.066873156 0.04555534 0.068115965 -0.117275335 0.044492185 0.11804362
0.14667676 -0.0992676 0.0072262734 0.040191412 0.0700392 0.15528788 0.002264455 -0.092756346
-0.12263265 0.12969615 -0.109685004 0.008735612 0.14586638 -0.15777697 -0.03200087 -0.02213651
0.05337067 -0.11942731 0.057699576 -0.06886663 -0.06861057 0.11886029 -0.09225312 -0.06611132
-0.08619234 -0.14605394 -0.13366373 -0.04636655 0.11584683 -0.0482016 -0.06286141 0.15761445
0.09125166 -0.1522017 -0.1532666 0.026422635 -0.10438299 -0.118642636 -0.01692833 0.14966424

transformer_encoder.encoder.attention.fc.bias f4 [40]
00000000: f59a 92bd d0ed 79bd b8bb a63d f558 97bd
00000010: 511d 9abd 6e57 19bd 1219 a23d 3829 c33c
00000020: 6488 67bd e815 e5bc 9c00 a7bd 6082 c83c
00000030: d2d1 e7bd 8c86 74bd 818e 163e f828 f5bc
00000040: 08e5 d73c 7c1c f4bd ceb3 debd 9069 c3bc
00000050: 92ee f03d 7a03 eebd 09b8 0cbe 664a e9bd
00000060: 5c66 4b3d 8ab5 a63d 2110 083e 9854 8bbc
00000070: 3eb5 2fbd da82 fa3d 8a49 cabd 9eae 61bd
00000080: 55e4 8abd 74c7 e5bd c2bb e9bd 38ef aebc
00000090: e98d 043e c1e9 153e fd1c 21be b85f c93c
-0.07158462 -0.06101781 0.08141273 -0.07390014 -0.07525123 -0.037436895 0.07914938 0.023823366
-0.056526557 -0.027964547 -0.08154413 0.02447623 -0.11319317 -0.059698626 0.14702798 -0.029926762
0.026354328 -0.119194955 -0.10874139 -0.023854047 0.11764254 -0.11621757 -0.13742079 -0.113911435
0.049658164 0.081400946 0.13287403 -0.01700811 -0.042897455 0.12231989 -0.09877308 -0.05509817
-0.06781832 -0.11219683 -0.11412765 -0.021354303 0.1294476 0.14639951 -0.15733714 0.024581775

transformer_encoder.encoder.attention.layer_norm.weight f4 [40]
00000000: 0000 803f 0000 803f 0000 803f 0000 803f
00000010: 0000 803f 0000 803f 0000 803f 0000 803f
00000020: 0000 803f 0000 803f 0000 803f 0000 803f
00000030: 0000 803f 0000 803f 0000 803f 0000 803f
00000040: 0000 803f 0000 803f 0000 803f 0000 803f
00000050: 0000 803f 0000 803f 0000 803f 0000 803f
00000060: 0000 803f 0000 803f 0000 803f 0000 803f
00000070: 0000 803f 0000 803f 0000 803f 0000 803f
00000080: 0000 803f 0000 803f 0000 803f 0000 803f
00000090: 0000 803f 0000 803f 0000 803f 0000 803f
1.0 1.0 1.0 1.0 1.0 1.0 1.0 1.0
1.0 1.0 1.0 1.0 1.0 1.0 1.0 1.0
1.0 1.0 1.0 1.0 1.0 1.0 1.0 1.0
1.0 1.0 1.0 1.0 1.0 1.0 1.0 1.0
1.0 1.0 1.0 1.0 1.0 1.0 1.0 1.0

transformer_encoder.encoder.attention.layer_norm.bias f4 [40]
00000000: 0000 0000 0000 0000 0000 0000 0000 0000
00000010: 0000 0000 0000 0000 0000 0000 0000 0000
00000020: 0000 0000 0000 0000 0000 0000 0000 0000
00000030: 0000 0000 0000 0000 0000 0000 0000 0000
00000040: 0000 0000 0000 0000 0000 0000 0000 0000
00000050: 0000 0000 0000 0000 0000 0000 0000 0000
00000060: 0000 0000 0000 0000 0000 0000 0000 0000
00000070: 0000 0000 0000 0000 0000 0000 0000 0000
00000080: 0000 0000 0000 0000 0000 0000 0000 0000
00000090: 0000 0000 0000 0000 0000 0000 0000 0000
0.0 0.0 0.0 0.0 0.0 0.0 0.0 0.0
0.0 0.0 0.0 0.0 0.0 0.0 0.0 0.0
0.0 0.0 0.0 0.0 0.0 0.0 0.0 0.0
0.0 0.0 0.0 0.0 0.0 0.0 0.0 0.0
0.0 0.0 0.0 0.0 0.0 0.0 0.0 0.0

transformer_encoder.encoder.feed_forward.fc1.weight f4 [256, 40]
00000000: ec78 5f3d bca6 e5bd b055 0ebc 6ba4 1bbe
00000010: 4712 10be 4960 9dbd b875 c23c 202d fdbc
00000020: 40c5 853d 50de 4b3c 30a5 11bd 30b5 97bc
00000030: d8e9 96bd 2075 8abc 38ea dfbd 9f04 dcbd
00000040: 51f3 bebd 2d75 13be 9da9 16be 38fa 4fbd
00000050: 496f b8bd 0638 c53d 78b8 0bbe 6e15 ba3d
00000060: 368e 07be d8cb 21be ecaa f8bd 6101 0e3e
00000070: 14ac 19be 4d5a 183e 609e 89bc f496 763d
00000080: 988c f73c dac7 fe3d 5c15 613d 9471 03bd
00000090: 1818 e3bd a0a7 a03d 1058 0bbe 7e49 ee3d
000000a0: 34d8 ddbd ee8c 923d f097 06bc 9677 c5bd
000000b0: 7b4c edbd 4fe5 113e 3b3b 103e 4cd2 983d
000000c0: 5325 18be d6a4 d13d 5c7a aa3d 0da2 a3bd
000000d0: 7e7e c73d 847d 9a3d 404b 053d b08c e4bc
000000e0: 00ae 643b 0e6c 883d a022 d3bc b4e0 3fbd
000000f0: e2b5 56bd 2625 15be 434d 213e 006d c73a
00000100: eddf 023e f134 86bd b211 dd3d c4c0 12be
00000110: 6e36 7ebd 82ea c2bd 2ccf 03be 9131 01be
00000120: 16d1 a03d c95c 1f3e f6df 1abe 3142 1b3e
00000130: 6101 0a3e e8a9 8dbc e24a 1ebe e5c4 1abe
00000140: 2b5d a1bd 4054 40bc d3e5 e4bd 8c42 833d
00000150: 5aed adbd 8035 73bc 5ee3 09be f0e5 97bc
00000160: aa8b c9bd dd43 013e 5f28 91bd 1164 fbbd
00000170: fab1 e43d c04f e0bb 0c8a ae3d 7832 91bd
00000180: b8a7 f93c 168a b8bd 00f3 f1bb 904b 063c
00000190: e0a2 c83c 4755 063e 34bb 00be 5c79 03be
000001a0: b049 d33c 8420 a03d bc2c d1bd e5d8 023e
000001b0: 50d6 d1bd 24ae ac3d 8ee0 9a3d aad5 f33d
000001c0: 741d 58bd d4f2 9a3d 78fc c6bd 5e6b 9cbd
000001d0: 76dc d33d ca6e bebd 264a f83d 747b 043d
000001e0: 725b e1bd a00b 623c 875a 97bd 001a c3bb
000001f0: ddac 173e a4ad 6e3d af57 82bd c218 4dbd
00000200: 28e0 29bd 4e7c d23d fea8 e4bd 3cb7 5c3d
00000210: 1183 f8bd a252 f83d 070f 193e c781 10be
00000220: 03a6 81bd c86b c93c 10f6 c9bc 68b5 2f3d
00000230: 90ba 6c3d 7004 fdbd 337c 133e c136 8abd
00000240: 56fa cf3d 66cc eb3d 7ea7 f13d dcde 27bd
00000250: 8843 c93c 26c9 49bd 9639 f03d 67ec a8bd
00000260: 0023 ec3c 54c1 43bd 6099 943c 7062 cdbd
00000270: 5c86 bbbd 00d0 a53a 3854 9c3c 32e5 893d
00000280: 08f6 8f3d e895 e4bd dd34 b5bd 20c2 2dbc
00000290: bacd 99bd f882 1cbd a0b6 f5bb 5884 02bd
000002a0: f4a7 64bd 1898 20be 723a fabd 4abe c03d
000002b0: 16a4 fb3d c8f7 963c 060e c13d 9aba 20be
000002c0: 80ae c23b 87fd 96bd 3f20 103e 3490 563d
000002d0: fa69 febd 1301 15be 5a55 f1bd 90a1 29bc
000002e0: f031 9bbc abbe 0a3e d2bb 3bbd d6d2 9c3d
000002f0: 682c eabc c51a 0bbe 9c1a 06be a8a7 8fbc
00000300: 52ac 74bd 3856 e23c c5a5 82bd 72a2 35bd
00000310: 209b cebc d617 dc3d 3a87 0bbe 32d8 db3d
00000320: 3d78 1abe e3b1 023e 4938 15be a220 8d3d
00000330: 68eb 9a3d 20a4 3dbc 6034 8c3b da6b 27bd
00000340: 482a a23d a2ef e03d 2e67 76bd 8ebf 8e3d
00000350: f555 c0bd 60d6 89bb cc9f 12bd ac51 08bd
00000360: 4f96 19be 1d41 063e c9d3 0e3e f0ba 723d
00000370: df04 a4bd 6032 dfbc b0c3 05bd 4408 513d
00000380: 6712 023e e87a 233d 52fe 3dbd aff0 173e
00000390: 64e3 053d e0be 833d 0e50 f73d 70e2 17bd
000003a0: 320c 2bbd c8ce 2b3d 0219 e9bd f22b df3d
000003b0: 7a2c f53d a776 053e de40 e8bd 50ca 0cbe
000003c0: 30d4 16bc bafd fc3d 0223 18be 920f db3d
000003d0: 6293 3ebd 8a92 d7bd 6074 a4bb ba97 16be
000003e0: c357 173e dd5c b1bd 2376 fcbd f6c2 e93d
000003f0: b87a 18bd 40f6 7b3c 5aef c43d 2626 8a3d
0.05455868 -0.11213443 -0.008687422 -0.15199439 -0.14069472 -0.076843806 0.023737773 -0.030905306
0.06531763 0.01244314 -0.035557926 -0.018519014 -0.07368821 -0.016901553 -0.109333456 -0.10743069
-0.09323753 -0.14400168 -0.1471314 -0.050775737 -0.09005601 0.09629826 -0.13644588 0.09086119
-0.13237843 -0.15800416 -0.12141976 0.13867714 -0.15007049 0.14878197 -0.016799152 0.060202554
0.030218408 0.124404624 0.05495201 -0.03209074 -0.1108858 0.07844472 -0.13607812 0.11635111
-0.10832253 0.071557865 -0.008214936 -0.0964195 -0.11586853 0.1424763 0.14085095 0.07461986
-0.14857988 0.10236518 0.083241194 -0.07989893 0.09740923 0.075434715 0.032542467 -0.027899116
0.003489375 0.06661235 -0.025773346 -0.046845153 -0.05241955 -0.14564952 0.1575213 0.001521498
0.12780733 -0.065530665 0.10794391 -0.14331347 -0.062063627 -0.09517385 -0.12871999 -0.12616564
0.0785238 0.15562738 -0.15124497 0.15161969 0.13477089 -0.017292932 -0.15458253 -0.15114172
-0.078790985 -0.011738837 -0.11176648 0.06409177 -0.08492537 -0.014844298 -0.1346564 -0.01854226
-0.09841092 0.12623544 -0.07087778 -0.122749455 0.11166759 -0.0068454444 0.08522424 -0.07089704
0.030475482 -0.09010713 -0.007383704 0.008196726 0.024491727 0.13118468 -0.12571412 -0.12839264
0.025791973 0.07818702 -0.102136105 0.12778051 -0.10245955 0.08431652 0.07562362 0.119059876
-0.052762464 0.07565847 -0.09716123 -0.07637666 0.10344784 -0.09298475 0.12123518 0.032344297
-0.1100377 0.013796717 -0.073903136 -0.005954027 0.14812036 0.058271065 -0.063643806 -0.05007244
-0.041473538 0.102776155 -0.11165045 0.053885683 -0.12134374 0.12125136 0.14947139 -0.14112006
-0.06330492 0.024587527 -0.024653465 0.04289761 0.057795107 -0.12354362 0.14402847 -0.06748725
0.1015517 0.11513595 0.11799525 -0.04098402 0.024568334 -0.049264096 0.11729734 -0.08248215
0.028825283 -0.047791794 0.018139541 -0.10028541 -0.091564864 0.001265049 0.019083127 0.06733169
0.070293486 -0.11161405 -0.088479735 -0.010605365 -0.07509942 -0.03821084 -0.0074985772 -0.031864494
-0.055824235 -0.15683019 -0.12218179 0.09411295 0.12287156 0.018428698 0.09426503 -0.15696183
0.005941212 -0.07372575 0.14074801 0.052383617 -0.12422557 -0.14551191 -0.11783858 -0.010353461
-0.01894471 0.13549297 -0.045833416 0.07657401 -0.028585628 -0.1358443 -0.13096088 -0.017536
-0.05973465 0.027629003 -0.06379274 -0.044344373 -0.025220454 0.10746734 -0.13625804 0.10734595
-0.1508493 0.12763171 -0.14572252 0.0689099 0.075644314 -0.011574775 0.0042787045 -0.04087434
0.07918221 0.10983206 -0.060156994 0.0697013 -0.09391395 -0.0042064637 -0.035796925 -0.033281013
-0.14998744 0.13110776 0.13947977 0.05926031 -0.080087416 -0.0272457 -0.032657325 0.051033273
0.12702332 0.039912134 -0.046385117 0.14837907 0.03268756 0.06432891 0.12075816 -0.037081182
-0.041759677 0.04194525 -0.11381723 0.10897054 0.11971374 0.13033544 -0.113404974 -0.13749051
-0.009205863 0.12353082 -0.14857104 0.10696329 -0.046527274 -0.10525997 -0.005018756 -0.14706317
0.14779572 -0.086602904 -0.1232722 0.11414139 -0.03722641 0.015378535 0.09615965 0.067455575

transformer_encoder.encoder.feed_forward.fc1.bias f4 [256]
00000000: 3ae0 c63d 88fd d33c 426b fc3d 4e0f 953d
00000010: b022 06be 8259 833d 3813 05be 1f7f 16be
00000020: 1eed b33d 0015 0d3b 3823 8ebc 181a 913c
00000030: 5c93 efbd e898 933d a685 83bd 99b6 023e
00000040: 9229 c9bd 11cc 203e 009c b0b9 f909 183e
00000050: 9a85 f53d 3e50 9e3d 024b ee3d 7ed9 d6bd
00000060: 8084 d93b 2ca7 4f3d 7ef8 8c3d 9d81 0f3e
00000070: d8d1 ba3d 5002 d3bc 4e63 7abd aed3 fcbd
00000080: 83c4 dfbd 6c53 9fbd 3c46 83bd 2009 e8bc
00000090: 0dc1 083e 6810 083d 528a febd a074 08bc
000000a0: fefe babd 50c5 413d e133 123e 1687 71bd
000000b0: d621 4bbd b4ee b43d e0f4 71bd cf47 f7bd
000000c0: 9069 a93c 26f9 eb3d 2cc6 363d c8e0 e0bd
000000d0: d8f0 dcbd 57b8 123e daa0 1cbe 6057 93bb
000000e0: c03f 12bd 3a57 be3d be2d fc3d c649 d73d
000000f0: c6f9 00be 1804 eabc cd36 a5bd 0097 1bbb
00000100: a797 abbd 72d1 abbd e7b2 92bd e641 c23d
00000110: ef41 bebd 5581 173e 00c4 3ebb 28e3 a73d
00000120: df36 09be e8e7 713d a29a da3d d211 0cbd
00000130: e8b7 303d dd20 1f3e a8f3 df3c 2885 903c
00000140: 558e 07be 06da ee3d 5a65 e8bd 80f4 8b3b
00000150: f0f7 f33c 28ef ebbd 903b b1bc a0bd 8f3b
00000160: fc61 43bd 00e1 173d 6425 063d ec99 4bbd
00000170: 282b 87bc e59a ddbd b890 a93c 66be f13d
00000180: a562 113e 60b1 513c 9655 53bd bc63 babd
00000190: 4024 d4bc 7df9 0cbe a802 9c3d 706c 9f3c
000001a0: 6be5 0bbe 1125 073e 428a 8b3d 466d 12be
000001b0: f62c a4bd be50 ef3d b457 22bd 9e78 14be
000001c0: 8c26 153d 2e84 e23d d86b 1d3d 1c08 0f3d
000001d0: af90 15be 000f 4bbd 681b acbc 3849 c23c
000001e0: 42b8 44bd 8908 133e eebb ae3d 08e6 85bc
000001f0: f656 92bd 5559 acbd a846 d2bc e486 3e3d
00000200: 36d3 a33d ee28 9f3d 3696 c6bd d771 afbd
00000210: 298c 103e 9d63 b3bd ed7c 1c3e acb6 8ebd
00000220: be39 d8bd 76fa 94bd 1ef7 e03d 5454 a13d
00000230: b469 1bbe 3e51 6abd f7e0 113e b2f6 f03d
00000240: 145d bb3d f29c c7bd b005 38bc 4a1c eabd
00000250: 5e35 da3d dc7b 17bd b87d 6e3d ee42 33bd
00000260: ffde 19be 803d 58bb 208f 0d3d 107b d6bd
00000270: b082 393c 317f 13be a465 f2bd 6e4f 95bd
00000280: 32e8 be3d 7483 083d 5c3b 85bd be90 e83d
00000290: d039 573d 3ee0 ed3d 4008 f43b 65d8 dfbd
000002a0: 6476 fdbd 6383 0d3e 328e d13d 1051 e83c
000002b0: ca40 e93d c694 2fbd 29f5 193e 26c4 e03d
000002c0: d638 edbd b8a8 0fbe 7835 e1bc 9508 203e
000002d0: 0abb b6bd 989b 363d 40a3 f6bd 7e09 c03d
000002e0: 5e5d d23d 3911 1fbe bc83 08bd f2c7 b43d
000002f0: e830 19be 72d2 cd3d c0eb 7abb 846c e0bd
00000300: 369b f63d 41c9 08be b003 263c d4c0 b7bd
00000310: a87c 373d 4ff6 043e 2c1d 4c3d 6425 ecbd
00000320: f18e 1c3e 889c 173d aa7e e53d 6f6f 0f3e
00000330: b8c9 d7bd 1084 b4bc f004 6bbc cc43 353d
00000340: d2c0 e23d 68b8 943d 00e3 953d 7b52 113e
00000350: ac43 8c3d f021 e1bc baa1 5ebd fcf4 483d
00000360: b440 cabd fe03 e13d fbb4 1b3e c30c 193e
00000370: 30e2 f1bd 4065 ca3c 4074 cdbb dee3 a03d
00000380: c667 f0bd c0f7 a43c f9b3 ebbd e6fe 11be
00000390: 82ff c93d e8a1 e1bd b0b5 88bd c438 073d
000003a0: d25e 30bd c008 4d3b c0d8 533b 2b23 b4bd
000003b0: 2029 d93c beae aa3d 4a23 fc3d 0af6 d63d
000003c0: 2e17 d1bd 9ea0 fdbd 0adc 2fbd 24e2 3a3d
000003d0: 30e6 91bc e034 f0bb 6a9e 83bd 0091 d8bb
000003e0: e087 583d f49b 893d d5a6 143e 8b15 0cbe
000003f0: d18c 1fbe a05f d63c f0bf 2bbc 02a6 dbbd
0.097107366 0.025877729 0.12325145 0.0727831 -0.1309917 0.06413557 -0.12995613 -0.1469693
0.08785461 0.002152741 -0.017350778 0.017712638 -0.116980284 0.07206899 -0.06421976 0.12764968
-0.09822382 0.15702845 -0.00033685565 0.14847554 0.11988373 0.07730149 0.116354 -0.10490702
0.0066381097 0.050696537 0.068833336 0.14014287 0.09122056 -0.025757939 -0.06112986 -0.12345062
-0.109261535 -0.07779583 -0.064098805 -0.028324664 0.13354893 0.03321877 -0.12428726 -0.008328587
-0.09130667 0.047307312 0.14277603 -0.05896672 -0.049592815 0.088345915 -0.05907142 -0.12074243
0.020680219 0.11522131 0.044622585 -0.109803736 -0.10788125 0.14328133 -0.15295735 -0.0044965
-0.035705328 0.09293981 0.12313412 0.10512118 -0.12595281 -0.028566405 -0.08067093 -0.0023741126
-0.08378535 -0.08389558 -0.07163029 0.094852254 -0.092899196 0.1479543 -0.0029108524 0.081976235
-0.13399838 0.059059054 0.10674025 -0.034196682 0.043144137 0.1553988 0.027337864 0.017641619
-0.13237889 0.116626784 -0.11347456 0.00427109 0.029781312 -0.11520225 -0.021634847 0.0043866187
-0.047700867 0.03707981 0.032750502 -0.04970734 -0.01650007 -0.108205594 0.02069889 0.11803894
0.14197786 0.012798637 -0.051595293 -0.09101054 -0.025896192 -0.13767047 0.07617694 0.019460887
-0.13661735 0.13197733 0.0681348 -0.14299497 -0.08016388 0.11685322 -0.03963442 -0.14499137
0.036413714 0.110603675 0.038432926 0.034919843 -0.14605974 -0.049574852 -0.021009162 0.023716554
-0.048027284 0.14358725 0.085319385 -0.016345039 -0.07145493 -0.08415476 -0.025668457 0.04651536
0.0799927 0.077714786 -0.09696619 -0.08566635 0.14115967 -0.08759234 0.1528203 -0.06968436
-0.105578884 -0.07274334 0.10984634 0.078774124 -0.15177041 -0.057206385 0.14245974 0.117658034
0.091486126 -0.09746732 -0.011231825 -0.11431177 0.1065471 -0.036983356 0.058225363 -0.043765
-0.15026473 -0.0032995641 0.034560323 -0.10472691 0.011322662 -0.14403988 -0.11835793 -0.07290541
0.093216315 0.03332849 -0.065054625 0.113557324 0.05254537 0.116150364 0.0074472725 -0.10929946
-0.12376097 0.13819651 0.102322 0.028358966 0.11389311 -0.04286649 0.15034927 0.10974912
-0.11583106 -0.14029205 -0.027491316 0.15628274 -0.089223936 0.04458198 -0.12042856 0.093768105
0.10271715 -0.15533914 -0.033328757 0.08827199 -0.14960063 0.10049905 -0.003828749 -0.10958198
0.12041323 -0.13358022 0.010132715 -0.08972326 0.044796616 0.12984584 0.049832508 -0.11530569
0.15288903 0.037014514 0.112058 0.14007352 -0.10536522 -0.022035629 -0.014344439 0.04425411
0.11071934 0.07261735 0.073186874 0.1419162 0.06848845 -0.027482003 -0.054353453 0.04906176
-0.098756224 0.109870896 0.15205757 0.14946274 -0.1181072 0.024706483 -0.0062699616 0.07855962
-0.11738543 0.020137668 -0.115089364 -0.14257392 0.098631874 -0.11017209 -0.06675279 0.03301312
-0.043059178 0.0031285733 0.0032325238 -0.0879577 0.026508868 0.08334111 0.12311418 0.10496147
-0.10209499 -0.12384151 -0.042934455 0.04562582 -0.017809957 -0.007330522 -0.064266995 -0.006609082
0.052863955 0.06719199 0.14516766 -0.13680093 -0.15581061 0.026168644 -0.010482773 -0.10725023

transformer_encoder.encoder.feed_forward.fc2.weight f4 [40, 256]
00000000: 0088 8cbb ba60 4f3d 0438 60bd 8432 81bc
00000010: 124c 643d 2adb 3d3d 88b8 fabc 083c 583c
00000020: 1cca afbc 2047 203b 2cbd 023d 00a9 a63c
00000030: 54de b8bc d2be 413d d2c7 4c3d 0086 3dbc
00000040: 6aa9 293d 18fc 47bc 1ac0 38bd 6069 2dbd
00000050: 38a9 163d 32d6 463d c08d 863b 70e9 dbbc
00000060: b819 46bd 6e84 7abd 9098 223c f41d 663d
00000070: 3eff 7a3d e2e3 1abd 623a 6fbd 5a69 12bd
00000080: 2051 8d3b e297 2fbd 8aed 783d 04e4 0d3d
00000090: 300e e2bc 100d 5c3c 54ed 7e3d 424f 5cbd
000000a0: e4c2 ae3c c016 e33a fcff a83c c881 f9bc
000000b0: c8ef 4fbc 3a80 113d fad9 763d b436 253d
000000c0: d8b7 1ebd 6acf 703d 04bd 9fbc 6e2a 6dbd
000000d0: 4e60 463d 7ab0 7dbd 603f 5ebb 340b 0b3d
000000e0: d818 3e3c dc49 ac3c 584d 91bc c06b 45bc
000000f0: 2856 08bd e207 223d cefd 083d 9832 8c3c
00000100: 3692 5d3d f495 e23c 7059 123d 74c8 a8bc
00000110: a021 9e3c 400e 703c c808 64bc d6cf 5fbd
00000120: b602 643d 50d1 3cbd 4cd2 1dbd 0c5d 14bd
00000130: 00e8 18ba c0f3 a33a fe4d 36bd 74bc 21bd
00000140: 404d dcbc 64b3 0dbd b816 8ebc f446 4a3d
00000150: 8cda d73c 0077 623d 6ede 03bd 947d 683d
00000160: d8c8 903c 6ac4 083d 7cf2 c2bc c839 403d
00000170: ac7d 673d f841 60bc 08a0 aa3c 3214 343d
00000180: 1683 623d 0040 13bb d08c bbbc 006b e6bb
00000190: 48db 24bd 205c d63b c8fb 9b3c 7824 7ebd
000001a0: eaa4 2c3d 54a5 033d 88f3 5c3d de0b 753d
000001b0: da98 2abd b23d 4b3d bcaa cbbc b4b2 d1bc
000001c0: 2a2c 603d fae1 143d 78ea 483c 448a 483d
000001d0: a050 ccbb e038 46bb 0436 78bd 4854 a03c
000001e0: 2017 a0bc 6009 91bb cc64 cc3c e61c 1e3d
000001f0: 1e7d 783d 60c3 ad3b b4d4 45bd 2218 263d
00000200: fa05 393d 40f8 723b cabb 4dbd fad1 563d
00000210: b070 753c f879 6c3c 700d 46bd d46e adbc
00000220: 1cbd f5bc 508f 41bc ac6d 3fbd 68c1 363c
00000230: 1253 123d 60a7 4b3b 18e7 023c 20b0 633d
00000240: 18e0 2cbc b096 77bc 8848 56bc 1853 dabc
00000250: 48a1 14bd 20be 0ebc 84b5 bf3c fcd4 a43c
00000260: ceb9 4c3d b6c7 343d 806d d33a 840f 8f3c
00000270: 9c5a 5e3d 90a9 4a3d b89a 7f3d dae0 363d
00000280: b61c 513d 30e4 e9bc c21c 403d 9838 233d
00000290: c880 253c 4007 443b 2867 75bd e873 7f3c
000002a0: 6042 f9bc fc25 cfbc c8f1 ce3c 026c 5f3d
000002b0: b624 6fbd 0068 5bbd a005 783b 3c13 edbc
000002c0: 560a 743d bc80 623d 00c0 7c3b 9cd9 4bbd
000002d0: 6cd2 8c3c d82e 5dbd a029 493b 2010 76bc
000002e0: ceb9 503d 889d 47bd 802b 483b 70a2 19bd
000002f0: 32f3 273d 3420 c8bc d073 d63c 409e 443c
00000300: d013 25bc 8879 38bd c07f acba acae 9e3c
00000310: c28d 1dbd 1886 7bbc 4098 263b f0a1 c2bb
00000320: ac2e b33c 6215 10bd b64c 4fbd 405e dc3c
00000330: 3078 edbc c846 223d c224 353d c8a4 31bd
00000340: e0a8 223b 9c13 e63c 20ef 363d 1448 013d
00000350: b284 02bd b41a a23c 5843 1dbd f01d 0a3d
00000360: bc19 efbc 6c84 4abd 885c 343c a814 293d
00000370: fe37 533d 306e 493d 48b5 d5bc 40b7 31bd
00000380: d85f 213c 72ec 65bd 0088 c3bb 261d 333d
00000390: d87c d8bc 54bd 003d 1c60 ea3c 767b 603d
000003a0: c83f 403c e8d0 943c 7cf3 d5bc f0ac 6e3d
000003b0: 60ba 143b 46c7 7bbd 3c63 633d 205b cabb
000003c0: a60f 22bd 603c 6abb 0e28 373d 40f5 60bc
000003d0: e250 063d 0035 d53b b2e9 663d 0c2a 263d
000003e0: 4805 aabc 00b2 403c 94db 3d3d 90ad 71bd
000003f0: ee99 753d 203e 053d ca0d 20bd 2ec6 29bd
-0.0042886734 0.050629355 -0.05474092 -0.015771158 0.05573661 0.04635159 -0.03060557 0.013197906
-0.021458678 0.0024456456 0.03191869 0.020344257 -0.022566952 0.04730112 0.04999525 -0.011567593
0.04142133 -0.0122061 -0.045105077 -0.04233682 0.036782473 0.048544116 0.0041062534 -0.02684471
-0.04836437 -0.06116145 0.009924069 0.05618091 0.061278574 -0.037814982 -0.058405288 -0.035745002
0.0043126494 -0.042869456 0.06077341 0.03464128 -0.027594656 0.013430849 0.062238052 -0.053786524
0.021333165 0.0017325506 0.020629875 -0.030457392 -0.012691446 0.035522677 0.060266472 0.040335372
-0.038749546 0.058791555 -0.01949931 -0.057901792 0.048431687 -0.06193588 -0.0033912286 0.03394623
0.011602603 0.021031313 -0.017737076 -0.012049615 -0.03328529 0.0395583 0.033445172 0.017113969
0.054094516 0.027659394 0.035729825 -0.020603396 0.019303143 0.014651835 -0.013918109 -0.054641567
0.055666648 -0.046098053 -0.038530633 -0.03622155 -0.00058329105 0.0012508556 -0.044507973 -0.039486364
-0.026892304 -0.03459491 -0.017344818 0.049384072 0.026349328 0.05528927 -0.032194547 0.056760386
0.017673895 0.03339044 -0.023797266 0.046930104 0.056516334 -0.013687603 0.020828262 0.043964572
0.055300795 -0.0022468567 -0.022894293 -0.0070317984 -0.040248185 0.006541744 0.019040957 -0.062046498
0.04214946 0.03214009 0.053943187 0.05982577 -0.041649677 0.049619384 -0.024861686 -0.025597908
0.054729618 0.03634832 0.012262933 0.048959985 -0.006235197 -0.0030246302 -0.06059839 0.019571438
-0.019542277 -0.0044261664 0.024950407 0.03860178 0.060666196 0.0053028315 -0.048298553 0.04055036
0.045171715 0.0037074238 -0.050227918 0.052446343 0.01498048 0.0144333765 -0.04835266 -0.021171011
-0.029997401 -0.0118139535 -0.04673545 0.01115451 0.035723753 0.0031075105 0.007989667 0.055587888
-0.010551475 -0.01511161 -0.013078816 -0.02665095 -0.036286622 -0.0087123215 0.023401983 0.02012109
0.049981885 0.04413577 0.0016130656 0.017463453 0.05428563 0.049478114 0.06240341 0.04464803
0.05105277 -0.028551191 0.046902426 0.039848894 0.010101505 0.0029911548 -0.05991283 0.015591599
-0.030427158 -0.025286667 0.025261775 0.054546364 -0.05838462 -0.05356598 0.003784515 -0.028939836
0.05958017 0.055298552 0.003856659 -0.049768075 0.01719018 -0.05399975 0.0030694976 -0.015018493
0.050958447 -0.048734218 0.0030543506 -0.037508428 0.041003413 -0.024429418 0.02617827 0.01200062
-0.010075524 -0.045037776 -0.0013160631 0.0193704 -0.03846527 -0.015351795 0.0025420338 -0.0059397146
0.02187284 -0.035176642 -0.050610267 0.02690041 -0.028987974 0.039618284 0.044224508 -0.04337004
0.0024819896 0.028085522 0.04466164 0.03156288 -0.03186483 0.019788124 -0.038394302 0.033719957
-0.029187076 -0.049442694 0.011008389 0.041279465 0.05156707 0.04917735 -0.026087418 -0.04338765
0.009849511 -0.056133695 -0.00596714 0.04372897 -0.026426718 0.031430557 0.028610282 0.05480524
0.011733957 0.01816602 -0.026117079 0.058270395 0.0022694096 -0.06146934 0.05551456 -0.0061754137
-0.039565705 -0.0035741553 0.044715934 -0.013730347 0.03279198 0.0065065622 0.056375213 0.040567443
-0.020754471 0.0117611885 0.046351984 -0.059003413 0.059961252 0.03252995 -0.03907565 -0.041448765

transformer_encoder.encoder.feed_forward.fc2.bias f4 [40]
00000000: 8c17 3c3d 28bc 413d fe8e 0cbd 70c9 013d
00000010: 3e6e 77bd 7e8a 57bd ae72 6fbd f650 103d
00000020: dc63 1d3d 3045 e53b 342a 4a3d d844 5d3c
00000030: 4886 1d3c ccd2 04bd 4e64 4e3d c41e 783d
00000040: 52cb 5cbd f0df d03c 081a a4bc 566c 363d
00000050: fa47 0a3d 744a 9f3c 401e 4cbd 7aba 5bbd
00000060: 88e2 5e3d a0e0 8d3b 7628 6c3d 6889 0abc
00000070: c6b2 45bd e809 003d 8a27 0dbd c8f5 bd3c
00000080: 1696 503d 6891 cabc cc53 333d 28c4 523c
00000090: cc84 153d a43c af3c c2f2 653d 98c3 3c3d
0.045920894 0.04729858 -0.034316055 0.031686246 -0.06040787 -0.05262231 -0.058458976 0.03523346
0.03842531 0.006996773 0.049356654 0.013505183 0.009614535 -0.032427594 0.050388627 0.060576215
-0.05390484 0.025497407 -0.020031944 0.04453691 0.03376005 0.019444682 -0.049833536 -0.053644635
0.054415256 0.004329756 0.057655774 -0.008455612 -0.048266195 0.031259447 -0.034461536 0.023188487
0.050924383 -0.024727538 0.043781087 0.01286415 0.036503598 0.02139122 0.056139715 0.04608497
