simple2transformer/param/net_param/la26_critic_net.model (torch, 232127 bytes, 33 tensors)

transformer_encoder.encoder.attention.fc_Q.weight f4 [40, 40]
00000000: ef25 9fbd e003 573c c19b 043e 08dc 0dbd
00000010: 0053 793d a059 bebc e02a 11be b2fc d23d
00000020: 49d0 10be 489e c4bd 9260 a13d 0869 ff3c
00000030: f0a5 30bd 8e16 80bd 684b b73c 2887 b9bd
00000040: a031 11bd 834c 8dbd f8fd f0bd 7009 953c
00000050: fc81 473d e0e8 f9bc aa13 8abd 7078 15be
00000060: 8e44 46bd 18bb fabc ae14 ffbd 385c c7bd
00000070: 28dc c13c d210 cc3d 3649 a5bd 50be d6bc
00000080: 88ef 0ebe 00e2 61bd c0c5 07bb a27e d13d
00000090: 1759 13be a074 57bd 1e4a d43d 5b74 13be
000000a0: ca82 8f3d e1d4 1c3e b88c 4b3d 1a8f 79bd
000000b0: e088 333c 7aa6 21bd e0e8 06be 32fc 13be
000000c0: 32c7 ee3d 52ce 1abe 205e f8bc b039 5a3d
000000d0: 6030 e43c ec18 14be 8ed6 8e3d 26db 83bd
000000e0: 828e a7bd 42df 28bd c58c c1bd 0047 7bbb
000000f0: 6d7f afbd 3805 b2bc ba52 bd3d 2830 c23c
00000100: 87e9 163e c07b 0dbc 7161 113e d0c0 0dbc
00000110: 1065 f4bd c6b3 b43d dcba 1ebe 75af 173e
00000120: f6a6 c43d 50ad 993d 1efa 0cbe 41aa 053e
00000130: 0e5b 1abe 6849 5a3d 52c1 a43d d00f 3ebd
00000140: ba90 e73d 52ae fc3d a160 213e 5ac8 be3d
00000150: 6d21 21be e807 da3c a62b 53bd ffcd 033e
00000160: 406c 743c 5072 b13c d0e4 bebc 98b2 65bd
00000170: 5c80 8cbd 38a8 903d b92c 0dbe 1ebf ff3d
00000180: f25b c13d db44 aabd bd87 acbd 261c d83d
00000190: 42e2 db3d 7f21 bdbd 6625 02be 60bc 16be
000001a0: 175c 113e 4835 033d 2d76 b2bd e86d 4d3d
000001b0: 008c a9b9 4ea1 5cbd 2072 953d 80ba 68bd
000001c0: 0afe 97bd f863 03bd 3b5b 8fbd df3d 1b3e
000001d0: c073 53bb 4ad4 cf3d 4036 fc3c a9de 0dbe
000001e0: b0e2 0b3c 40b5 ffbc 825c dc3d ea1c 0fbe
000001f0: c02f 5a3d de17 c3bd 4aeb d2bd bea3 ad3d
00000200: e2f7 923d b8f3 b2bc 50f0 623c 5823 c4bd
00000210: 8da7 083e bff1 143e 3450 303d b0c6 843d
00000220: b3be 1b3e 50da c5bd aa33 e73d aa3a da3d
00000230: 0afa d6bd b7a5 083e d0dd 0bbc ea73 d1bd
00000240: f824 a43c 2c3b a23d 2c44 ac3d 2d5f 0abe
00000250: 10bc be3c c464 46bd 92b1 ecbd 3857 d33c
00000260: fcfa ebbd 3a07 20be 6bd6 043e 2034 c5bb
00000270: 4d0e 0b3e c35e c3bd 9a49 ed3d d0a4 59bc
00000280: 507c 01be c032 7dbb 3c2a a13d 8eff 9e3d
00000290: ee10 ddbd 8438 ccbd 210a 0c3e 6835 e2bc
000002a0: d0c7 42bc 624b b8bd 74fb c5bd 10dc b53d
000002b0: ce3d 8e3d 520e 963d d803 d23c 90a0 99bc
000002c0: 8cf9 603d c284 e83d 2253 d8bd feef 80bd
000002d0: c274 d13d 513a 0f3e 6e3c d53d fa56 c0bd
000002e0: e070 af3b 268c e33d 1c0b 52bd d8e3 acbc
000002f0: da0a fc3d 58da ae3c a0db eabc 9eb9 ad3d
00000300: 0096 8d3b 8649 edbd f703 053e 5a09 ec3d
00000310: 55ae cbbd 20b4 243c 60dd b2bd a047 c23b
00000320: 3a83 21be b0e7 863d e664 18bd 08ca a2bc
00000330: 3476 0bbe f70a 0b3e 20cd 53bd d28d f8bd
00000340: b81e 6e3d 2a28 923d 529e e8bd 787b efbc
00000350: 7f7e cabd e488 1c3d b0a7 6f3d 74da 7c3d
00000360: 087d a53d e2d3 20be ebd0 ebbd f2b7 f5bd
00000370: c24f ccbd 0cee c7bd 4ebe 50bd d8c0 423d
00000380: c02e 9ebc 818d 1a3e e0d8 30bc 0e65 91bd
00000390: 0284 d93d 8025 28bd 790d c5bd 7639 16be
000003a0: a40c 69bd 7187 1c3e f7ba efbd b958 0a3e
000003b0: cfac 14be 00b6 39bb 201b 233d ee57 58bd
000003c0: 1e3b 08bd f47c e0bd 6f08 0d3e 4397 15be
000003d0: 5ee3 eb3d 3ca6 6e3d 60fb febc f0f8 913c
000003e0: 2e65 01be a663 973d a536 173e 009f ab3a
000003f0: 6004 ce3c 4a80 bc3d 7a84 d63d 6e0c 9e3d
-0.07770907 0.0131234825 0.1295004 -0.034633666 0.06087017 -0.023236096 -0.14176512 0.10302104
-0.14141954 -0.09600502 0.078797475 0.031178012 -0.043127 -0.06254302 0.022374824 -0.09058982
-0.035447717 -0.06899359 -0.11767191 0.018192977 0.048707947 -0.030506551 -0.06742032 -0.14596725
-0.048405223 -0.030606791 -0.12455116 -0.09734386 0.023664549 0.09964146 -0.080706045 -0.026213795
-0.13958561 -0.05514717 -0.0020717233 0.102292314 -0.14389454 -0.052601457 0.10365699 -0.14399855
0.07007368 0.15315582 0.049694747 -0.060927488 0.0109579265 -0.039465405 -0.13174772 -0.14451674
0.11659087 -0.15117767 -0.03031832 0.05327767 0.027855098 -0.14462632 0.06974517 -0.064382836
-0.08181478 -0.04122854 -0.09450678 -0.003834188 -0.085692264 -0.021731004 0.092442945 0.023704603
0.14737521 -0.008635461 0.14197327 -0.008651927 -0.11933339 0.088233516 -0.15500969 0.14813025
0.09602158 0.0750376 -0.13767287 0.13053228 -0.15073797 0.053292662 0.080446854 -0.0464018
0.11306901 0.123379365 0.15759517 0.09315558 -0.15735407 0.026615098 -0.0515553 0.1287155
0.014918387 0.021660954 -0.023302466 -0.056078523 -0.0686042 0.07063335 -0.13786592 0.124876246
0.09441365 -0.083139144 -0.084243275 0.10552244 0.10736515 -0.092349045 -0.12709579 -0.14720297
0.14195286 0.032033235 -0.087139465 0.050153643 -0.000323385 -0.05386477 0.07297158 -0.056818485
-0.07421501 -0.03207776 -0.06999823 0.1516032 -0.0032265037 0.10147913 0.030787587 -0.1385447
0.008537933 -0.031214356 0.10759832 -0.13975874 0.053268194 -0.09526037 -0.10298784 0.08478497
0.07176186 -0.02184473 0.01385124 -0.09577054 0.13345166 0.14545344 0.043045238 0.06483209
0.15209465 -0.096607804 0.11289151 0.106557205 -0.1049691 0.13344465 -0.008536771 -0.10227187
0.02003716 0.079214424 0.0841144 -0.13512869 0.023283035 -0.04843594 -0.11557306 0.025798425
-0.11522481 -0.15627757 0.12972419 -0.0060181767 0.13579674 -0.09539559 0.11586304 -0.013283923
-0.12645078 -0.0038634986 0.07869384 0.07763587 -0.10794245 -0.09971717 0.13675739 -0.027613357
-0.011888459 -0.08998753 -0.096671015 0.08879864 0.06945382 0.0732695 0.025636598 -0.01875332
0.054925486 0.113534465 -0.10562731 -0.06295775 0.10227348 0.1398709 0.10411917 -0.093915895
0.005354032 0.111107156 -0.051280126 -0.021104738 0.12306757 0.021344349 -0.028669178 0.08482669
0.00432086 -0.11586289 0.12989794 0.11525221 -0.099453606 0.010052711 -0.0873363 0.0059289485
-0.15772715 0.0658716 -0.0372056 -0.019871727 -0.1361931 0.13578402 -0.051709294 -0.12136425
0.058134764 0.07136567 -0.11358322 -0.02923368 -0.098874085 0.038216487 0.05850953 0.06173177
0.080804884 -0.15705827 -0.11514457 -0.119979754 -0.0997615 -0.09762201 -0.05096274 0.04754719
-0.019309402 0.15093042 -0.0107938945 -0.07099353 0.106208816 -0.041051388 -0.0962171 -0.14670357
-0.05689682 0.15286042 -0.117055826 0.13510408 -0.14519046 -0.002833724 0.03982079 -0.05281823
-0.033259504 -0.10961333 0.13772748 -0.14608483 0.11517976 0.058264002 -0.031125724 0.017818898
-0.12636253 0.07392053 0.14766939 0.001309365 0.02514857 0.09204157 0.10474487 0.077172145

transformer_encoder.encoder.attention.fc_Q.bias f4 [40]
00000000: 889f e33c 9ab5 873d 1551 8fbd de56 bc3d
00000010: 9060 78bc 1645 eebd 0ee9 8b3d 8423 9fbd
00000020: 6078 6e3d e800 9a3d fa0f aabd c6d4 cd3d
00000030: 0a00 963d ab9d 94bd 2287 bb3d 043f 0bbd
00000040: f5a5 103e 727a b53d 123b d53d 68cc d6bc
00000050: b409 a53d 2f5a 133e a4b6 053d 66a4 f3bd
00000060: d8c4 c3bd 0f99 10be 2ce3 41bd ea90 6cbd
00000070: e838 92bd e058 4c3d a862 893c b33f c9bd
00000080: 8c5e 37bd 27fa 1ebe 8043 f7bb 2024 c53c
00000090: a7af 0c3e 60bd e4bd 287e 13be 3028 3dbc
0.027786031 0.066264346 -0.06997887 0.09196256 -0.015159741 -0.11634271 0.06831561 -0.07770446
0.058220267 0.07519704 -0.083038285 0.10050349 0.07324226 -0.07256635 0.09156634 -0.033995643
0.14125808 0.08861245 0.104116574 -0.026220515 0.08058491 0.14389871 0.032644883 -0.11896591
-0.09559029 -0.14120887 -0.04733579 -0.05775539 -0.0713976 0.049889445 0.016770676 -0.09826603
-0.0447679 -0.15525113 -0.0075458884 0.024065077 0.13738881 -0.11168933 -0.14403594 -0.011545226

transformer_encoder.encoder.attention.fc_K.weight f4 [40, 40]
00000000: 4833 053d 79f4 093e d09f ee3c 6624 b83d
00000010: c83d dfbd eca9 013d 8e90 fd3d edd1 133e
00000020: fa5a 08bd 76ee d63d 7dd9 183e 38ea 7c3d
00000030: 937e a8bd ab3f 8fbd c21d e5bd f5a2 9cbd
00000040: d0e1 77bc a094 ecbd c8e8 eabc 308a d5bc
00000050: 697e 113e 3331 0b3e 7a45 e13d 0832 bcbd
00000060: cf8e 193e 8ee2 e13d daf4 e43d 1004 6f3d
00000070: e092 aabc 4f3b 113e a753 1f3e 3416 46bd
00000080: e0e4 a93b 9621 b93d 9e49 ffbd 5657 74bd
00000090: 88b7 abbc 3b00 13be c8d4 723d e71e 073e
000000a0: d6a5 863d 4c54 043d a8ef 273d 045f 453d
000000b0: 38d8 9b3c 48b9 9b3d 18b4 763d 7224 f8bd
000000c0: 86a6 df3d 9c89 323d fdd9 a7bd a065 02be
000000d0: 3076 ffbc 9067 a23d a4eb a1bd f257 a8bd
000000e0: f89e bfbd 64ee 3d3d 1822 ebbd 0d73 c3bd
000000f0: e63b 9d3d a042 db3b 6364 cdbd 7eeb 75bd
00000100: 97d8 003e 3037 1ebc e768 193e 0060 973a
00000110: a831 193d 8094 93ba 5658 e73d c262 d1bd
00000120: d2a6 19be 5490 30bd 6050 90bd c3a2 053e
00000130: f2ab b2bd c4a1 23bd 8fc3 213e c07a 4b3c
00000140: 8e4e 06be 50c8 ae3d c738 1cbe a095 2e3c
00000150: c0db e03b 0814 cbbc 326d cf3d 63fa babd
00000160: 2897 ea3c 34a7 633d 9bc9 14be 4e4f 73bd
00000170: c8bc 713d bfdd 0f3e bed3 b23d d2b4 e3bd
00000180: 6f32 b2bd 1c2c b2bd f833 083d 5778 183e
00000190: 4e3d cdbd 5bc8 babd 2877 a7bc 314f 1c3e
000001a0: b41c febd b76a d1bd 1e34 0dbe 88fa 943d
000001b0: ae3e 11be 0208 07be 620f df3d a04b 2f3d
000001c0: 0a18 ab3d 385e 053d d8dd 96bd bdc1 8fbd
000001d0: f068 773c 76b4 16bd 48ef 01be dd6f e1bd
000001e0: 8011 2ebc c64f da3d 0016 eabd 459d 98bd
000001f0: 82c4 15be 7fe9 0cbe 7452 ba3d 12ab 0fbd
00000200: 4842 f8bd f847 98bc 7061 b13c e0d5 2cbd
00000210: 58f7 b93c 60d9 cfbd 9072 d0bc 0eca fb3d
00000220: e451 653d b072 8f3c f531 16be 60b8 8fbc
00000230: 214c 1c3e f53e 07be f869 c3bd 9af3 f03d
00000240: a11a 043e 6ae5 cb3d bc44 01bd 6cc2 08bd
00000250: de53 ed3d 8488 c8bd 5ccc 51bd 9a6d 9f3d
00000260: d172 093e 0004 773d a052 533d 1096 0f3d
00000270: 15e6 19be 589f 243d e0a1 913c 326f dd3d
00000280: e887 403d 1823 1fbe 2747 d3bd 82d8 e23d
00000290: fef3 d43d fc12 89bd 41f0 0cbe e258 cc3d
000002a0: 98da 0ebe 6cd8 0c3d 3e9d f23d b2ee f33d
000002b0: 2850 60bd 509c 2cbc 0078 f8bd 1607 9c3d
000002c0: bd87 12be c9e6 c9bd 32c6 853d 2c8c 78bd
000002d0: 43a6 e7bd b5c3 b3bd 98b8 e1bd deff cd3d
000002e0: 385e 72bd b900 1a3e 9031 b9bc 5faf b3bd
000002f0: 1cfe 5bbd f8e5 1a3d a0ec fb3b 02aa d73d
00000300: 0716 a1bd 3e32 d23d babd 9f3d 4078 e6bc
00000310: 4b06 0b3e 200e 03be 2864 153d 4857 473d
00000320: 8f42 f5bd bce6 063d 70d4 673c 2b6e fdbd
00000330: 69ad 1c3e 6425 7b3d 5a9e edbd 1021 67bc
00000340: 9c40 8f3d 78b3 e83c 6055 633d a41f 7b3d
00000350: b557 073e 8c4d 11be c49d 28bd f214 a8bd
00000360: 70f5 953d c4ce eabd 82f3 1fbe 1a0e e5bd
00000370: d640 0fbe cdd6 1d3e 9b9b 81bd 41bf 98bd
00000380: be95 bb3d 3085 69bc 4ad5 c53d eff3 173e
00000390: 0a1e e33d 78e6 8d3d e32b 14be 2999 033e
000003a0: 10fc 2ebc 32f0 fa3d 0e9c 14be 82bc d83d
000003b0: 056a 183e 7048 17be 1c68 b63d 8b88 0fbe
000003c0: a8d1 91bc 3284 bc3d 6243 a5bd 9c46 66bd
000003d0: 0a56 52bd 5461 fbbd 604a dbbd c875 bd3c
000003e0: 54ea 083d 00e9 d3bc 6887 873c 9056 1c3d
000003f0: ca03 6abd 0a5c 0bbe b646 e33d a799 fcbd
0.03251961 0.13472165 0.029128939 0.089913175 -0.10900456 0.03165619 0.12381087 0.14435549
-0.033289887 0.104947016 0.14926715 0.061746806 -0.08227267 -0.069945656 -0.111873165 -0.07648269
-0.0151295215 -0.115517855 -0.028675452 -0.02606687 0.14208378 0.13592987 0.1099958 -0.0918923
0.14995883 0.1102954 0.11179514 0.058353484 -0.020821989 0.1418278 0.15559255 -0.04836102
0.0051847547 0.09039609 -0.12465213 -0.059653603 -0.020961538 -0.14355557 0.059284955 0.13195382
0.065745994 0.032306954 0.04100004 0.048186317 0.019024 0.07603699 0.060230345 -0.121163264
0.10920434 0.043588266 -0.08195875 -0.1273408 -0.031184286 0.07929909 -0.07906273 -0.08219899
-0.09356493 0.046369925 -0.11481112 -0.095434286 0.0767744 0.006691292 -0.10028913 -0.060039036
0.12582622 -0.009656712 0.14981423 0.0011548996 0.03740087 -0.0011259466 0.112961456 -0.10223915
-0.15005043 -0.043106392 -0.0704658 0.1305037 -0.08724202 -0.039949194 0.15797256 0.012419403
-0.13115904 0.085343 -0.15256034 0.010655791 0.0068621337 -0.024789825 0.10128249 -0.09129789
0.02863653 0.05557938 -0.14530031 -0.059401803 0.059017926 0.14049433 0.08731793 -0.11118473
-0.08701026 -0.086998194 0.033252686 0.14889656 -0.100214586 -0.09120246 -0.02044256 0.15264584
-0.124078184 -0.10225432 -0.13789412 0.072743475 -0.14184067 -0.13186648 0.10891606 0.04279673
0.083541945 0.032560557 -0.07366532 -0.070193745 0.015100703 -0.036793195 -0.12688935 -0.11007664
-0.0106242895 0.10659747 -0.114299774 -0.07451872 -0.14625743 -0.13760947 0.09097758 -0.035075255
-0.12122017 -0.018589005 0.021652907 -0.042196155 0.02270095 -0.10148883 -0.025445253 0.12294398
0.0559863 0.017510742 -0.14667495 -0.017543972 0.15263416 -0.1320761 -0.09541696 0.11765213
0.12900783 0.09955867 -0.03155969 -0.03338854 0.11588262 -0.09791663 -0.051220283 0.07784577
0.13422705 0.06030655 0.05159247 0.03505522 -0.15029176 0.040191025 0.017777383 0.108122244
0.04700461 -0.15540731 -0.103163056 0.11076452 0.103981 -0.06693074 -0.13763525 0.099778906
-0.13950574 0.034386083 0.11846398 0.11910762 -0.054763943 -0.010535315 -0.12132263 0.07618539
-0.14309593 -0.09858472 0.065319434 -0.060680553 -0.11311009 -0.087775625 -0.110215366 0.100585684
-0.059171885 0.15039338 -0.022606641 -0.08773684 -0.053709134 0.03781697 0.00768812 0.10530473
-0.078655295 0.10263489 0.07799859 -0.028133512 0.1357662 -0.12798357 0.03647247 0.048667222
-0.11975586 0.03293489 0.01414977 -0.123745285 0.15300526 0.061314955 -0.11602469 -0.014107004
0.06994745 0.02840589 0.05550134 0.06130947 0.13217051 -0.14189738 -0.041166082 -0.0820712
0.07322204 -0.11465219 -0.15620235 -0.1118433 -0.13989577 0.15413971 -0.063285075 -0.07458354
0.091594204 -0.014252946 0.09659822 0.14839147 0.11089714 0.06928724 -0.14469866 0.12851395
-0.010680214 0.12252845 -0.14512655 0.1058283 0.14884193 -0.14773726 0.08906576 -0.14016931
-0.017800167 0.09204902 -0.08069493 -0.056219682 -0.051351584 -0.12274423 -0.10707545 0.023127452
0.033426598 -0.025867939 0.016544059 0.03816849 -0.05713252 -0.13609329 0.110974714 -0.12333994

transformer_encoder.encoder.attention.fc_K.bias f4 [40]
00000000: 70ae 41bc 8e4e a6bd 9a71 993d aade ed3d
00000010: bb36 98bd b2f7 ee3d a68a 883d 7c96 4f3d
00000020: e07c 67bc 6626 f33d ae0d fabd 2101 0b3e
00000030: 6288 53bd cf37 00be e07c 5dbc 9828 063d
00000040: 0038 763a aa3c b2bd cc0e 123d a80b 77bd
00000050: 745d 9a3d 9062 66bc ad44 193e 9e5a 0fbe
00000060: 00de ae39 e55e 183e 6058 d1bc 7450 07be
00000070: 6804 e03c 086d c13c 6661 44bd 8a60 f5bd
00000080: 3295 57bd b488 0cbe 0002 5fba d2c1 d3bd
00000090: c20a e03d d05a 8dbd c0c8 253c 1055 553c
-0.011821374 -0.08120452 0.07492371 0.116147354 -0.07432314 0.11668338 0.0666707 0.050680622
-0.014128894 0.11872558 -0.122096404 0.1357465 -0.051643737 -0.1252129 -0.013518542 0.032753557
0.00093925 -0.08702977 0.035658643 -0.06031385 0.07537356 -0.014061585 0.14967604 -0.13999411
0.0003335327 0.1487995 -0.025554836 -0.13214284 0.027345851 0.02361156 -0.04794445 -0.11981304
-0.052632518 -0.13724023 -0.0008507073 -0.10339703 0.10939552 -0.06902087 0.010118663 0.013020769

transformer_encoder.encoder.attention.fc_V.weight f4 [40, 40]
00000000: 90f6 623d 468e fc3d 7b3e 0c3e d1dc 14be
00000010: 4047 3e3c fa38 a83d 038c 173e 6d54 1f3e
00000020: 3e06 a43d 3ed5 823d 7e10 08be c6d0 853d
00000030: 44b5 3b3d ea1b be3d 547f ebbd b29a 893d
00000040: e534 10be 45f8 09be 6829 ed3c 8dbb 10be
00000050: df9c 093e e011 d3bc 000a ce3b 92f8 a03d
00000060: be7d ee3d ce7c 3abd 16a3 01be 4cfc 15bd
00000070: 4a62 9d3d 4ec5 fa3d c6c7 5dbd c228 cabd
00000080: f148 9bbd 9628 913d fe6e fc3d 0eae f03d
00000090: f9d5 193e 2019 e1bb 8637 e4bd 6399 88bd
000000a0: 861b c0bd 506b 2cbc 3887 eb3c 7d45 123e
000000b0: 8edf 38bd d2e9 a9bd 0273 da3d ae29 0bbe
000000c0: d492 3d3d 40d2 d7bd 8a73 1cbe 02ba 9c3d
000000d0: 94d5 073d 82a6 d23d f410 8abd 169f e13d
000000e0: d4a8 293d e1d4 013e b257 cc3d 484d febc
000000f0: 15e2 183e 58d9 6e3d cec8 f53d 286c 533d
00000100: 064f 65bd 882f ecbd a0f1 16bc c205 f73d
00000110: 90c8 ae3c 15f5 063e 883b b33c a3c6 163e
00000120: 86fe 41bd 7899 6b3d 5670 aabd 05b8 153e
00000130: 4e14 913d ac06 663d 608c f53c 3c70 b83d
00000140: 1136 c3bd 4c26 09bd 80fc 73bd 8cc5 b5bd
00000150: 1acf 20bd 2650 e73d 6fe2 083e 6043 9e3d
00000160: 3809 5f3d 801c 4d3c 139b c2bd 04bd 303d
00000170: 22ff c93d b89c 383d 32e3 b93d 6b97 043e
00000180: 7401 ebbd 12df d33d 80bd b03d c21e 83bd
00000190: 8cf6 09bd 60ff 44bd 43e8 f5bd 68c1 cfbc
000001a0: 1fb1 bdbd e250 12bd ec4d e8bd a1a5 183e
000001b0: c8de 75bd b611 ddbd b06b abbd c0de b93d
000001c0: 9fbf 153e 08c5 2e3d cdda 8ebd d0e2 bcbc
000001d0: ac6f b03d 5666 1bbe cf8d 1b3e 905c 563d
000001e0: c276 f73d 90db 713c ba8c 9e3d 006b 8a3b
000001f0: 5032 863d 39da 0b3e 20d7 a7bb 58dd 363d
00000200: 00f8 8d3a 9c5a 443d 88bd 66bd fffd 1f3e
00000210: c4df b8bd 7010 20be c999 89bd c436 e6bd
00000220: 8997 173e 9260 91bd 5e46 c53d b2fc f93d
00000230: d491 9f3d 2410 cfbd 3cb0 08be ea9d 27bd
00000240: e8d1 463d 582b 413d 40b5 2a3c c219 d33d
00000250: d815 83bc 7a00 c03d 72c5 debd 0f6e 103e
00000260: a703 163e 21f7 9dbd b035 813d faaa d5bd
00000270: 124e ed3d 46cf 8a3d e0ef 12be f0f9 7c3c
00000280: dc6d 4d3d 2024 3abc c54f 1dbe aa9b 973d
00000290: 68c3 6ebd d805 80bc be9e 14be aa1b 8dbd
000002a0: 8c72 6b3d 1aa4 fa3d 0329 203e b82f c2bc
000002b0: fde0 143e 4678 b43d d729 023e b91f b9bd
000002c0: 708d 1bbc b008 f13c 7038 c03c 682f 88bc
000002d0: f076 733c a0be a7bb e51d 0b3e 3ac6 b53d
000002e0: 3c8f 493d 082b 13be f0d0 213c 2646 8e3d
000002f0: 6bb7 193e a4ca 0dbd bc4c 003d 00de 8ebc
00000300: 76cc 31bd d7f9 013e b858 4b3d 1c13 5abd
00000310: 30d8 5f3d e77f 183e 325d d7bd 301f 6a3d
00000320: 01ba 1e3e b2bd d43d c535 15be 6ce6 793d
00000330: f076 6f3c 8c9a 763d a030 2cbd 0ca1 97bd
00000340: 6296 44bd a258 b93d 6c65 1bbe ea0b ee3d
00000350: cb4a a2bd c8e1 fd3c da6c 0dbe b150 21be
00000360: e21c 8abd a43d 33bd 14b2 24bd 18d0 10bd
00000370: 50ab a63c 5622 b73d 849f b4bd 1363 adbd
00000380: b0f8 583c da32 f03d 7c3d 1b3d 3b25 0e3e
00000390: 5e2a a83d 98f8 9e3d 70cc ba3d 13c4 07be
000003a0: c587 1b3e 1921 183e 3c47 08be 2d47 e2bd
000003b0: 7601 a43d 0959 183e 81b2 103e b8e4 a83c
000003c0: e87a 6e3d ce8d e03d ee69 b83d a2c2 d13d
000003d0: 9016 21bc 906e 10bc 35b0 093e a00b 9cbb
000003e0: c0fc cebb e2b4 d23d 4cf8 15be 9bc7 c7bd
000003f0: e019 743c 2d9a 9dbd 1861 98bc 0016 3f3d
0.05541092 0.12331824 0.1369571 -0.1453736 0.011613667 0.082139924 0.14799504 0.1555955
0.08009003 0.06388329 -0.13287541 0.06533961 0.045827165 0.09282668 -0.11498895 0.06718959
-0.14082678 -0.13473614 0.028950408 -0.14134045 0.13438748 -0.02576536 0.006287813 0.07859911
0.11645077 -0.04552918 -0.12659869 -0.036617562 0.07684763 0.12244664 -0.054145597 -0.09871055
-0.07582272 0.07087819 0.123258576 0.11751948 0.1502303 -0.00686945 -0.11143403 -0.06669881
-0.0938025 -0.010523632 0.028751 0.1428432 -0.045135073 -0.08296551 0.10666467 -0.13590118
0.046282604 -0.10538149 -0.1527845 0.07652666 0.03316267 0.10285665 -0.06741515 0.11016671
0.041420773 0.12678863 0.09977664 -0.03104271 0.14929993 0.058312744 0.12001191 0.051616818
-0.055983566 -0.11532503 -0.009212881 0.12061645 0.02133587 0.13179429 0.021878973 0.14724211
-0.047361873 0.057519406 -0.08322208 0.14620979 0.07083951 0.056158707 0.029974163 0.09005782
-0.09531797 -0.03348379 -0.059566975 -0.0887557 -0.039260007 0.11294584 0.13367628 0.077276945
0.05445215 0.012519002 -0.09502234 0.04314901 0.09863116 0.045071334 0.09076537 0.12948386
-0.114748865 0.10345282 0.08629894 -0.06402351 -0.03368239 -0.048095107 -0.12007191 -0.025360778
-0.09262299 -0.035721667 -0.113429874 0.14906932 -0.060026914 -0.10794394 -0.08370149 0.09075689
0.14623879 0.042668372 -0.06975327 -0.023057371 0.0861505 -0.15175757 0.15190814 0.05233437
0.12083198 0.01476182 0.07741685 0.004224181 0.06552565 0.13657464 -0.0051220804 0.044644684
0.0010831356 0.047937974 -0.056333095 0.15624236 -0.09027055 -0.1563127 -0.06718785 -0.112409145
0.148039 -0.070984975 0.09632562 0.12206401 0.077914864 -0.101105005 -0.13348478 -0.040922083
0.048540026 0.047160476 0.01041919 0.10307647 -0.016001627 0.09375091 -0.108775035 0.14104484
0.14649831 -0.07713152 0.06309068 -0.10433002 0.11587156 0.067778155 -0.14349318 0.015440449
0.0501536 -0.011361152 -0.15362461 0.074027374 -0.058291823 -0.015627787 -0.1451368 -0.06890042
0.057482287 0.12238331 0.15640645 -0.023704395 0.14538951 0.08812003 0.12711273 -0.09039254
-0.009494171 0.029423088 0.023464411 -0.016624168 0.0148599 -0.00511916 0.13585623 0.08875699
0.049208865 -0.14371884 0.009876475 0.069469735 0.15011375 -0.03461708 0.03132318 -0.017439842
-0.04340788 0.12692963 0.049645156 -0.05324088 0.05464953 0.14892541 -0.105158225 0.05715865
0.15500642 0.10387744 -0.14571293 0.061010763 0.014615759 0.06020598 -0.04203856 -0.07403764
-0.04799498 0.090501085 -0.15175408 0.11623366 -0.07924422 0.03099145 -0.13811055 -0.15753438
-0.0674379 -0.043759957 -0.04020889 -0.035354704 0.02034536 0.08942096 -0.08819488 -0.084661625
0.0132428855 0.11728449 0.037900433 0.1388139 0.08211206 0.07762259 0.091210246 -0.1325839
0.1518851 0.14856376 -0.13308424 -0.11048732 0.08008091 0.14877714 0.14130594 0.020616874
0.05822268 0.10964547 0.090045795 0.102422014 -0.0098320395 -0.008815423 0.13446124 -0.004762128
-0.0063167512 0.10288407 -0.14645499 -0.097548686 0.014898747 -0.07695422 -0.018600985 0.04665184

transformer_encoder.encoder.attention.fc_V.bias f4 [40]
00000000: d935 8cbd bea3 01be 753b 183e f8a7 49bd
00000010: 48c8 84bd ec74 1bbe 80d3 003b c2c3 d2bd
00000020: 19d3 05be 1825 bc3d 1a6d 893d 0069 50bc
00000030: b0ac c43c 70ab 833c 4c7e 923d 96f3 da3d
00000040: 9022 323c 5248 dabd 20cf 663d e026 393c
00000050: 2770 a4bd 92d8 923d d617 d8bd 7607 e3bd
00000060: d92f 123e ad56 0d3e d84f f2bd c63e d3bd
00000070: e739 163e e4e3 4a3d 86c2 20be 00a5 2a3b
00000080: f4fc 563d 1ed8 0ebe 36f1 d53d 6000 a4bd
00000090: ee4f 02be 3a4f c73d 522c a73d 904e 4bbd
-0.06846208 -0.12660119 0.14866431 -0.049232453 -0.06483513 -0.15181321 0.0019657314 -0.10291244
-0.13068809 0.091867626 0.067102626 -0.012720346 0.024008125 0.016072959 0.071529955 0.106909916
0.010872498 -0.10658325 0.056349874 0.011300772 -0.08029204 0.07170214 -0.10551421 -0.110854074
0.14276065 0.13802595 -0.11831635 -0.103147075 0.14670525 0.04953374 -0.15699205 0.002603829
0.05248733 -0.1394963 0.10446398 -0.08007884 -0.12725803 0.09731908 0.0816275 -0.04963547

transformer_encoder.encoder.attention.fc.weight f4 [40, 40]
00000000: 82d7 c23d 208a df3c 1a4e f43d 2972 1bbe
00000010: 90a4 dcbd 8dc3 9bbd d07f 7b3d f07e a5bc
00000020: fb13 d6bd c06b 613d 01c1 02be 942e 3f3d
00000030: 5d0e 0d3e 0007 cb3a 03db cabd 0034 99bd
00000040: 3824 b23c 50d1 de3c d010 1bbc 40ad 54bc
00000050: 8093 a43c 1e9d c93d 7904 0f3e 6685 e23d
00000060: 0a3d dabd e131 003e 38b5 2b3d 5cd4 0dbe
00000070: 0422 223d 7533 053e 80ee acbc 64ae 56bd
00000080: 00b0 be3c 897a 1e3e 29a8 173e a93f 013e
00000090: 8822 c73c c2bb e33d 2759 1dbe 722c 16bd
000000a0: 3ee2 0ebd dcf0 81bd 7ee3 dd3d 2350 003e
000000b0: 94d7 7a3d 34d6 d1bd e4d2 c4bd 581c 913d
000000c0: 0071 53bb 8f73 97bd 7785 013e d1b0 123e
000000d0: e7e4 b0bd 2335 203e db57 1b3e 0607 db3d
000000e0: e045 94bc e50b 97bd e81e 1abe 1635 82bd
000000f0: e0b3 82bb 3570 20be c8a7 09be 04d2 7ebd
00000100: 9ade ebbd b8c9 b3bc 1f5c 94bd 4ddd 113e
00000110: 02cf 0abd 8c5f 18bd b6ef c23d 6c5a 84bd
00000120: 9005 9d3c ecc4 ddbd 8a16 15bd 1eee f1bd
00000130: cb29 8cbd 2e68 b63d e868 a43d 0070 74b8
00000140: e2dd c73d 8576 073e fda2 09be 80cd 07bc
00000150: 941c b73d f0f9 0fbc a7c6 09be e9cd 043e
00000160: d023 403d 3b99 07be 504d dabd c814 c43c
00000170: c56b 1a3e 3e66 fd3d 03b4 a1bd eab2 35bd
00000180: 3861 453d cd01 bebd 8cc7 163d 20d8 4c3d
00000190: d0e2 5ebc f409 313d 43d6 1d3e fcc3 643d
000001a0: c54a 1c3e 0098 563d 1f45 173e 1a0f fabd
000001b0: 7c80 993d a070 a83c 1c72 273d 450f e5bd
000001c0: 2008 f3bc 1618 36bd 1afb 973d 55fe 1f3e
000001d0: 62d1 a4bd 784c ba3c d63c ff3d 4eb0 f63d
000001e0: 80bd aabc a478 1ebe ea6c 06be 10d4 e3bc
000001f0: 3207 c23d d168 8fbd 480c 5b3d f8f4 15be
00000200: 3212 ac3d ed0e 1dbe abd2 c3bd c292 0ebe
00000210: 8cd6 293d 0374 033e f4c3 613d de11 f8bd
00000220: 801b 09be a0df 8bbb b4ab 323d d870 df3c
00000230: 09f1 083e fa78 e83d ecd9 05be e0f1 dfbc
00000240: 9663 e7bd 5e89 09be 5fe0 0d3e 8e83 a8bd
00000250: 6450 8d3d d946 03be 082b 353d d2cc db3d
00000260: b05b 22bc 9972 18be 56da be3d 160f a83d
00000270: 8fe6 8fbd aa89 8f3d acd4 c7bd 73cb 10be
00000280: 1858 01be 52ad c7bd 48a9 f2bd 68cf 0fbe
00000290: f0f7 b03d c0d3 fcbc 1079 67bc 2026 2f3d
000002a0: a6a9 20be 6689 87bd 3747 bdbd efb5 0a3e
000002b0: f4dc 20be c29d e33d f856 913c b823 9ebc
000002c0: 101e 923c dae5 d2bd e245 e83d da7b b43d
000002d0: c7da 8abd c07b d1bd bcec 5f3d a248 b73d
000002e0: d439 4d3d 1e89 c93d f636 23bd ee8a da3d
000002f0: 908b 31bc 80be 003d 7e51 b53d 6125 bfbd
00000300: 98a3 98bc 6cf7 f5bd e00a 65bd a059 143d
00000310: 1618 963d f56f 043e d8d7 ff3c f078 25bc
00000320: 6c20 2fbd 84a0 56bd 8631 fcbd 29da 16be
00000330: d0a1 d0bd aadc d73d b164 1cbe 88d9 af3d
00000340: 33dc fcbd a90d b8bd caf0 df3d 3065 213c
00000350: 2030 fcbc be7c ccbd 132d edbd aa35 c93d
00000360: 6f23 a2bd 401b edbd 0a27 d93d 081e b6bd
00000370: 1888 bfbc ebd7 d2bd 26a0 a7bd d401 8f3d
00000380: 8034 983d b31a bfbd a832 d53c 4666 12be
00000390: a98b 85bd 4cad 08bd 9caa 2c3d d93f 023e
000003a0: 064f cb3d 6ed3 20bd 8a57 cd3d 8142 8fbd
000003b0: 2ccb aa3d 8561 103e 3cd5 c9bd c068 89bc
000003c0: b018 403c 0517 18be 306c 21bc e635 fe3d
000003d0: f974 d9bd d92b bebd dc87 10be 89bd dcbd
000003e0: c004 c4bc d651 ca3d c63d ff3d 6fb1 fbbd
000003f0: f0a9 a4bc 608d 5b3c ea1f dfbd 60fc 31bc
0.09513761 0.027287543 0.11928959 -0.15180267 -0.10773575 -0.07605658 0.06140119 -0.02020213
-0.1045303 0.0550344 -0.12768938 0.04667528 0.1377501 0.0015489757 -0.099050544 -0.07480621
0.021745786 0.027199417 -0.009464458 -0.012980759 0.020089865 0.09844421 0.1396655 0.110606
-0.106561735 0.12519027 0.04192087 -0.1385054 0.03958322 0.1300791 -0.02110982 -0.052412406
0.023277283 0.15476431 0.14810242 0.1262194 0.024308458 0.11119796 -0.1536604 -0.03666348
-0.03488373 -0.063447684 0.10834406 0.1253057 0.061240748 -0.10245934 -0.09610537 0.07085484
-0.0032263398 -0.07395088 0.12648569 0.14325263 -0.0863741 0.1564527 0.15170233 0.10694699
-0.018099725 -0.073753156 -0.15050852 -0.063577816 -0.003988728 -0.15667804 -0.1344291 -0.062212005
-0.11517067 -0.021946773 -0.07244133 0.14244576 -0.033888824 -0.037200496 0.095183775 -0.06462559
0.019167691 -0.108285755 -0.036398448 -0.118129954 -0.06843909 0.089065894 0.08027822 -5.827844e-05
0.09759118 0.13228805 -0.13441081 -0.008288741 0.08940998 -0.008787617 -0.13454686 0.12969173
0.046909153 -0.13242047 -0.106592774 0.02393569 0.15080173 0.12373017 -0.07895663 -0.04436008
0.04818842 -0.09277687 0.036811396 0.0500108 -0.013603881 0.043222383 0.15413766 0.055850968
0.15262897 0.052391052 0.14772461 -0.12209912 0.074952096 0.020561516 0.040880308 -0.11184553
-0.02966696 -0.044456564 0.07420941 0.15624364 -0.08047749 0.022741541 0.124627754 0.12045346
-0.020842314 -0.15475708 -0.13127485 -0.02781108 0.09474029 -0.07002414 0.05347851 -0.1464423
0.08401908 -0.15337725 -0.09561666 -0.13923171 0.041464373 0.12837224 0.055118516 -0.12112783
-0.13389397 -0.0042686015 0.04362078 0.027275488 0.13373198 0.113511994 -0.13071412 -0.027337015
-0.112982914 -0.13431308 0.13855122 -0.08228217 0.06900099 -0.12819995 0.04423049 0.10732426
-0.009909555 -0.14887466 0.09318988 0.082060024 -0.070263974 0.07008679 -0.09757361 -0.1414011
-0.12631261 -0.09749855 -0.11848694 -0.14043963 0.0864104 -0.030862689 -0.014127985 0.04276097
-0.15689716 -0.066180035 -0.09242099 0.13545965 -0.15709287 0.11114074 0.017741665 -0.019304141
0.0178366 -0.10297747 0.11341454 0.08812685 -0.0678001 -0.102286816 0.054669127 0.089494005
0.050103977 0.09840606 -0.039847337 0.1067103 -0.010836497 0.031431675 0.08853434 -0.09333301
-0.018632695 -0.120100826 -0.055918574 0.036218286 0.07328813 0.12933333 0.031230852 -0.0100996345
-0.04275553 -0.052399173 -0.12314133 -0.14731659 -0.10187113 0.10540135 -0.15272786 0.08586413
-0.12346687 -0.089869805 0.10934599 0.009850785 -0.030784667 -0.0998473 -0.11580863 0.09824689
-0.07916915 -0.11577463 0.10603149 -0.08892447 -0.023380324 -0.10295089 -0.08184843 0.069827706
0.074318886 -0.09331264 0.026025131 -0.14296827 -0.06520779 -0.033368394 0.042154893 0.12719668
0.09927182 -0.039264135 0.100264624 -0.069951065 0.08339533 0.14099701 -0.09855124 -0.016773582
0.011724636 -0.14852531 -0.009852454 0.12412624 -0.10618014 -0.09285707 -0.14114326 -0.107783385
-0.023928046 0.0987889 0.12462954 -0.12289702 -0.020100564 0.013400406 -0.10894759 -0.010863394

transformer_encoder.encoder.attention.fc.bias f4 [40]
00000000: ac40 9a3d 1d41 1f3e 0a6a e43d 6373 1c3e
00000010: 9bb4 99bd aee8 f23d 83ce 01be bd1b 173e
00000020: 2f8d 8cbd 1170 80bd eaf1 0dbe 60c7 36bd
00000030: f088 cd3c be59 b63d 8042 563c 0e4c d6bd
00000040: e064 223c 2470 ae3d 7ee8 c83d 2880 d03c
00000050: cc2c 9bbd 7022 7cbd 0636 59bd c97a bcbd
00000060: c079 c13b bd69 87bd 74be 66bd dc39 c4bd
00000070: 80f8 2ebc a341 073e 02a4 be3d b679 bf3d
00000080: b034 9cbc 203f 98bc 748e 9e3d 0a2d a7bd
00000090: cc1e 493d 6892 863c fad9 0cbe a036 42bc
0.075318664 0.15552182 0.11153038 0.15278392 -0.07505151 0.118607864 -0.12676434 0.14756675
-0.06862866 -0.06271375 -0.13861814 -0.044623733 0.025089711 0.08903836 0.013077378 -0.10463725
0.009911746 0.08517483 0.09809969 0.025451735 -0.07576904 -0.06155628 -0.053030036 -0.09203107
0.0059044063 -0.06611965 -0.056333974 -0.09581348 -0.010679364 0.13208632 0.09308626 0.093493864
-0.019068092 -0.018584788 0.077420145 -0.081628874 0.049101636 0.016427234 -0.13755026 -0.011853844

transformer_encoder.encoder.attention.layer_norm.weight f4 [40]
00000000: 0000 803f 0000 803f 0000 803f 0000 803f
00000010: 0000 803f 0000 803f 0000 803f 0000 803f
00000020: 0000 803f 0000 803f 0000 803f 0000 803f
00000030: 0000 803f 0000 803f 0000 803f 0000 803f
00000040: 0000 803f 0000 803f 0000 803f 0000 803f
00000050: 0000 803f 0000 803f 0000 803f 0000 803f
00000060: 0000 803f 0000 803f 0000 803f 0000 803f
00000070: 0000 803f 0000 803f 0000 803f 0000 803f
00000080: 0000 803f 0000 803f 0000 803f 0000 803f
00000090: 0000 803f 0000 803f 0000 803f 0000 803f
1.0 1.0 1.0 1.0 1.0 1.0 1.0 1.0
1.0 1.0 1.0 1.0 1.0 1.0 1.0 1.0
1.0 1.0 1.0 1.0 1.0 1.0 1.0 1.0
1.0 1.0 1.0 1.0 1.0 1.0 1.0 1.0
1.0 1.0 1.0 1.0 1.0 1.0 1.0 1.0

transformer_encoder.encoder.attention.layer_norm.bias f4 [40]
00000000: 0000 0000 0000 0000 0000 0000 0000 0000
00000010: 0000 0000 0000 0000 0000 0000 0000 0000
00000020: 0000 0000 0000 0000 0000 0000 0000 0000
00000030: 0000 0000 0000 0000 0000 0000 0000 0000
00000040: 0000 0000 0000 0000 0000 0000 0000 0000
00000050: 0000 0000 0000 0000 0000 0000 0000 0000
00000060: 0000 0000 0000 0000 0000 0000 0000 0000
00000070: 0000 0000 0000 0000 0000 0000 0000 0000
00000080: 0000 0000 0000 0000 0000 0000 0000 0000
00000090: 0000 0000 0000 0000 0000 0000 0000 0000
0.0 0.0 0.0 0.0 0.0 0.0 0.0 0.0
0.0 0.0 0.0 0.0 0.0 0.0 0.0 0.0
0.0 0.0 0.0 0.0 0.0 0.0 0.0 0.0
0.0 0.0 0.0 0.0 0.0 0.0 0.0 0.0
0.0 0.0 0.0 0.0 0.0 0.0 0.0 0.0

transformer_encoder.encoder.feed_forward.fc1.weight f4 [256, 40]
00000000: 9d49 d8bd 3c11 103d 1ce9 5f3d 0f96 e1bd
00000010: 62ec e63d 9a99 c0bd 391f 03be a01d ec3b
00000020: eb34 8fbd 58a4 b2bd 105c ac3c c65c 0fbe
00000030: f31a bebd d004 503d 403f f1bb 97be 053e
00000040: 504d 07bc 9891 06bd 3098 053d c02c 57bb
00000050: d83f 9a3d 1a8e e33d 97ad 0cbe 0051 dcba
00000060: 8426 b23d 9e6c d13d 60b7 69bc 90fa 0fbe
00000070: 0035 e83b c09f ffbc 70e4 05be 4df7 b6bd
00000080: 1805 1dbd 8f65 043e 60b4 37bc 3de7 013e
00000090: 3327 c4bd 01b0 8bbd a4cc 2a3d c911 bcbd
000000a0: 401a 2c3c b854 de3c 51d0 04be 908e 4dbc
000000b0: 8690 923d de7b 933d c0e9 7cbb fc8e 05bd
000000c0: fef7 c3bd 70ed 733d 6e4c e3bd 70f2 1f3d
000000d0: 76c2 de3d 42e0 d83d 7000 1cbe 8ebe c43d
000000e0: 761d dc3d d888 05be d064 77bc 6058 7cbc
000000f0: dfb8 0d3e 00ea 193a b830 6a3d 5058 0f3d
00000100: 6c18 cbbd 70cf 74bc 687d 1a3d bc09 5a3d
00000110: 60ba d3bc ba99 89bd 6f33 123e 9ee2 fe3d
00000120: 436c 0abe eac1 c63d b2ed af3d efd6 8dbd
00000130: 0cc4 25bd e487 2cbd d727 133e 5064 603d
00000140: 20e9 853d 008f af3c c867 6c3d d8b0 593d
00000150: 344d 04bd 62ce 13be c069 2e3c 3df4 c3bd
00000160: ba42 08bd 9e6e 4dbd b1d6 043e 3eae 9e3d
00000170: 30e0 65bc e8fe 0ebe e094 edbb 80d6 04be
00000180: 5258 e33d 5a3e 823d 40b6 23bb 4845 2c3d
00000190: 72ed e93d 1fc7 cfbd 82d3 db3d 468b a5bd
000001a0: 6e5e cb3d 8478 a8bd 0043 fe3b 768a b53d
000001b0: 7ce9 373d 00f2 33ba c006 7a3b d8d1 103d
000001c0: d1c4 123e f387 183e 60f0 983b 009a b7bb
000001d0: 455d 0ebe 6399 9abd 18e3 08be 14ab 8cbd
000001e0: c279 fa3d db23 213e 9df5 ddbd 4e8d a03d
000001f0: d889 f8bd c4d7 053d 062c 1cbe b493 32bd
00000200: 33c3 1a3e cd05 063e f0e8 40bd 06ae 1dbe
00000210: a84a 87bd 44c5 e9bd 7031 b4bc ea1b 0fbe
00000220: 70aa 503c 0d5c cebd 2884 bdbd f247 913d
00000230: 4a4e 9ebd 3e29 1dbe 808c d63b c0bf a63b
00000240: a9b3 1ebe a001 22bd 406e 93bd 1676 c8bd
00000250: b3ff 153e cb22 c1bd 3a06 e63d 2f57 1c3e
00000260: 482d 00bd 1012 e23c a02b e8bb 1b4e 1abe
00000270: a0f2 c9bd c5a6 1d3e 8ce2 46bd 5c8b 793d
00000280: 3716 f3bd 501b b93d 443f 94bd 07e5 11be
00000290: 4281 14bd bcbe 8d3d 2fbf 1cbe 5263 69bd
000002a0: 0045 083b 6eca a5bd f8e4 75bd 5beb 053e
000002b0: c0e7 d73c 9b5c 1f3e 22a5 963d 189a d63c
000002c0: 72ac df3d 3a9c 5dbd a784 1f3e 9099 743d
000002d0: e0f2 ffbb 0a76 53bd f877 5c3d eeab 58bd
000002e0: f24a ea3d 14a3 093d 8404 1a3d 980a 963c
000002f0: 5014 4c3c 848a ccbd bd8f 103e fa57 82bd
00000300: 65ae babd f8c3 943c a3d1 1c3e c52c 21be
00000310: 5240 c43d 18a9 4c3d e0e7 e83c 65bc 17be
00000320: d7a3 0a3e 5473 eabd 2ae5 c7bd faed fb3d
00000330: 9778 97bd 7f79 0e3e 5cd4 c0bd e5d3 0e3e
00000340: 8048 74bb e8be a33c 6023 9bbb cdc2 b8bd
00000350: 3c8e 1d3d a090 66bd 0f9d bebd 0013 9fbb
00000360: 00fb 63bb 5e30 edbd 808d 8aba 9a92 df3d
00000370: 4701 abbd d257 35bd 88b1 853c da53 c23d
00000380: c862 b73d 684d c3bd 64a6 143d 70c4 f5bc
00000390: 6799 0f3e 53f4 1e3e 34dc 18be e021 9f3b
000003a0: 3c8c dfbd 27b9 89bd 881c c9bc ca91 fe3d
000003b0: c05d 25bd e655 96bd 40e9 ba3d 6059 473d
000003c0: 1126 0b3e 95cb 0a3e 4f8f 1a3e f46c 123d
000003d0: c08e 8a3c 6059 f63c fdb4 1ebe d027 a43c
000003e0: 5caa b3bd 0e13 72bd 082f fbbc 00a6 f23b
000003f0: 4ee2 11bd c62b e2bd a674 07be 1293 e23d
-0.105609156 0.035172686 0.05466567 -0.110149495 0.11275555 -0.09404297 -0.12804879 0.00720568
-0.06992515 -0.08722752 0.021039993 -0.14000234 -0.09282484 0.05078584 -0.0073622763 0.13060986
-0.008258179 -0.032853693 0.03261584 -0.003283307 0.075317085 0.11111088 -0.13738094 -0.0016808808
0.086987525 0.10225795 -0.014264911 -0.14060426 0.007086396 -0.031204104 -0.13075423 -0.08933888
-0.038334936 0.12929367 -0.011212438 0.12685867 -0.09577789 -0.068206795 0.041699067 -0.0918308
0.010504305 0.027140006 -0.12970091 -0.012546197 0.07156472 0.0720136 -0.0038591474 -0.032607064
-0.09568785 0.05955261 -0.11098562 0.039049566 0.10876934 0.10589649 -0.15234542 0.09606658
0.10747807 -0.13040483 -0.015099719 -0.01540193 0.13840054 0.00058713555 0.057175368 0.03499633
-0.099167675 -0.014942035 0.037717253 0.05323194 -0.025845706 -0.06718774 0.14277433 0.124455675
-0.13517861 0.09704955 0.08590259 -0.06925761 -0.040470168 -0.042121783 0.14370666 0.054783165
0.06538606 0.021430492 0.05771616 0.053147167 -0.03230019 -0.14434198 0.01064533 -0.09568069
-0.03326676 -0.05015432 0.12972523 0.07748078 -0.014030501 -0.13964427 -0.0072504133 -0.1297245
0.1110083 0.06359549 -0.0024980456 0.04205826 0.11422242 -0.10145401 0.10733701 -0.08083205
0.099301204 -0.082261115 0.007759452 0.088643 0.044900402 -0.0006864369 0.0038150996 0.035356373
0.14332892 0.1489561 0.004667327 -0.005603075 -0.13902767 -0.075487874 -0.1336788 -0.06868568
0.12230255 0.15736334 -0.10837863 0.07839452 -0.121356666 0.032676473 -0.15251169 -0.043597892
0.15113525 0.1308815 -0.047097147 -0.15398416 -0.066060364 -0.114145786 -0.02199623 -0.13975492
0.012735948 -0.10076151 -0.092537224 0.070938006 -0.07729776 -0.15347764 0.0065475106 0.0050887764
-0.15498222 -0.03955233 -0.07198763 -0.09788148 0.14648323 -0.09430464 0.112316564 0.15267633
-0.031293184 0.027596503 -0.0070852786 -0.15068857 -0.0986073 0.15395649 -0.048555896 0.06092392
-0.118694715 0.090384126 -0.072386295 -0.14247523 -0.036256082 0.06921145 -0.15307306 -0.056979485
0.002079308 -0.08095251 -0.060032815 0.13078062 0.026355624 0.1556267 0.07355715 0.026196525
0.10921563 -0.054104067 0.15577947 0.05971676 -0.0078109354 -0.051626243 0.05382535 -0.05289834
0.11440076 0.03360279 0.037601963 0.018315598 0.012456015 -0.09987357 0.14117332 -0.063644364
-0.09115294 0.018159851 0.15314345 -0.15739734 0.095825806 0.049965948 0.02843088 -0.1481796
0.13539062 -0.11447778 -0.097605065 0.1230125 -0.073960476 0.13913535 -0.09415504 0.13948019
-0.0037274659 0.019988492 -0.0047344416 -0.0902153 0.038465723 -0.05629027 -0.093073 -0.00485456
-0.0034787059 -0.11581491 -0.0010570735 0.10916634 -0.08349853 -0.044273205 0.016320005 0.0948865
0.08954388 -0.095362484 0.036291495 -0.030000895 0.14023362 0.1552289 -0.14927751 0.004856333
-0.109154195 -0.06724768 -0.024549738 0.12430151 -0.04037261 -0.073406026 0.0912652 0.04866922
0.1358874 0.13554223 0.1509373 0.035748437 0.016913772 0.030071914 -0.15498729 0.020038515
-0.08772728 -0.059100203 -0.030662075 0.0074050426 -0.03561621 -0.11043505 -0.13228092 0.11063208

transformer_encoder.encoder.feed_forward.fc1.bias f4 [256]
00000000: 34d7 653d e065 0fbc da26 8b3d 8b71 063e
00000010: d0a4 7cbc 9279 ef3d 1851 fcbc 805e cbba
00000020: eebc 11bd 002b 64bc 4c9d 93bd 884a adbc
00000030: 18d1 eabc 8022 26bc 845f 373d 8e34 f2bd
00000040: 024a 89bd 008d ee3b 00f5 df3c a433 4d3d
00000050: 1833 933c c014 a7bd da2e c73d bcfd 4e3d
00000060: ca5a 20bd 0a5f eabd 7836 afbd c1f4 1dbe
00000070: 600c abbc 20d7 833b 32c4 fa3d cc36 19be
00000080: c661 853d 91aa 1dbe f6ae ec3d a233 9fbd
00000090: f896 d8bc 1668 fa3d 342e 193d 4e52 06be
000000a0: 28c8 d53c 6c26 443d a007 b73c 4c8c 0bbe
000000b0: a099 233c b909 06be 081c 803d 6c38 693d
000000c0: 23fe a4bd 0021 96bb 5c4d 8ebd cce0 51bd
000000d0: f21b c4bd 4eea eebd 00aa 3e3a 716a abbd
000000e0: 1eb2 e73d 12c9 a7bd 3f83 023e b094 8b3d
000000f0: c352 213e 328c a43d 416d d4bd 6746 c3bd
00000100: 60b6 f13b de26 f73d 832c 8ebd 0084 953b
00000110: a0a6 9c3c 1da0 093e d42c 903d bd38 0e3e
00000120: 50e3 273c 506b a63d cae5 833d 4b8c a7bd
00000130: d203 01be c026 dc3b 32cf ad3d 500a e5bc
00000140: d189 173e f021 7e3c d00e 2dbc 68cb 1a3d
00000150: 48c6 113d 2c0e 00be 00bb d73c e345 e8bd
00000160: 808e 48bb 5894 a43c 48d9 a33c d049 5a3d
00000170: a7b5 1e3e e8a5 6f3d 8074 d3ba 7768 89bd
00000180: b1cf d9bd 31f8 1e3e c03f b0bb 0417 0fbd
00000190: acf7 0fbd 18b2 d6bd 00cd 18bc d8c0 8d3c
000001a0: 8c6e f7bd 6a1b 51bd 60f3 e6bb ebed 073e
000001b0: 6b21 b2bd 5e03 c83d 607f c4bc 9e0f b0bd
000001c0: 4ad9 c93d a8c6 433d 33cf 113e 5a35 d83d
000001d0: d73f 213e 5aae e63d e0ca b53b 1938 173e
000001e0: 4092 633d 4a4a 40bd 9653 e0bd 8195 1a3e
000001f0: 4866 0f3d a7c0 00be b895 143d 80bf a03d
00000200: 7c96 893d 30e9 5d3c 90a6 5a3d a1df a2bd
00000210: 74f3 efbd 582c 9c3d 4171 093e 9c69 3fbd
00000220: 5862 92bc 6b06 e7bd 143c 03be 3b70 083e
00000230: a0ed 18be 2f40 aebd 84bf 143d 2670 ff3d
00000240: 309b 82bc 0280 d93d c4e7 81bd c489 bebd
00000250: 30b4 a2bc 9c2a 473d a628 54bd e061 563c
00000260: 8831 cdbc a066 a33b b591 10be 0a61 3ebd
00000270: 375a a6bd 3f68 023e 0ec7 0fbe aa23 dbbd
00000280: 55df 193e 5777 20be 944b 47bd 2a83 dc3d
00000290: 1e02 6ebd debe eb3d 6063 c33c c2d5 52bd
000002a0: 9cc3 6c3d f1b1 1fbe 79cf a4bd ad28 133e
000002b0: 1cd7 063d de00 d63d 8ca8 7e3d 6a07 5bbd
000002c0: b3c9 0e3e 80fe c3ba 6a31 58bd baa1 963d
000002d0: 74d0 00be 4f9f c1bd bb5f 89bd b9a6 b6bd
000002e0: 24e4 7c3d ffbe 093e fee6 69bd 0107 123e
000002f0: fe34 a63d 8cd5 17bd f8f7 aabd dc2d 0cbe
00000300: a0f0 203c 788c 363d e1b3 efbd 40d3 42bb
00000310: 1839 ba3d 34d2 5c3d e061 7bbd 7c03 a43d
00000320: b80c 973d c62b ce3d 301c 043c 3a4e c6bd
00000330: 730a 0e3e 91f7 1d3e f4ba 4fbd 3bae 91bd
00000340: ae33 cc3d 72df d6bd e4d8 24bd 6f7e 8bbd
00000350: 66c2 8abd 8275 edbd c7f1 08be 3d9e 1c3e
00000360: beff b83d 55fa 85bd 8cb9 2bbd 23cf 133e
00000370: 36a0 dd3d cf21 103e d49e 7e3d 8a32 b8bd
00000380: d99e f2bd 008b 59bc 7182 82bd d8ed ad3d
00000390: fbb0 003e ac5b 9f3d c070 c33b 6347 1c3e
000003a0: 08d5 4dbd 06b1 54bd 76b4 eabd 2076 a43c
000003b0: 83f2 023e 2048 8d3c 6cb1 b93d 709b 603c
000003c0: 404e b0bb 40a3 b53d 219e 1b3e 59ee 183e
000003d0: fd86 a1bd 3c0e c0bd 8da6 1d3e 788e 4b3d
000003e0: fffb 1a3e be1b 14be 9535 073e 6ef8 f63d
000003f0: 10e1 e03c f2f7 79bd e4d5 5a3d 49d9 13be
0.056113437 -0.008752316 0.0679452 0.1312925 -0.015420154 0.116931096 -0.030800387 -0.0015515834
-0.035580568 -0.013926268 -0.072077364 -0.021153703 -0.028664157 -0.010140061 0.044768825 -0.1182643
-0.06703569 0.007279992 0.027338505 0.050098076 0.0179687 -0.081582546 0.09725733 0.05053495
-0.039149083 -0.114439085 -0.08555311 -0.15425397 -0.020879924 0.0040234476 0.122444525 -0.1496231
0.065127894 -0.15397097 0.11556809 -0.0777352 -0.026439175 0.12226884 0.03739758 -0.13117334
0.026096418 0.047888204 0.022342503 -0.13627738 0.0099853575 -0.13089646 0.062553465 0.056938574
-0.08056285 -0.0045815706 -0.06948349 -0.051239774 -0.09575643 -0.11665784 0.0007273257 -0.083699115
0.1131327 -0.08192648 0.12745379 0.06815469 0.15754227 0.08034553 -0.10372401 -0.095349126
0.007376477 0.1206796 -0.06942084 0.0045628548 0.019122422 0.13439985 0.070398 0.13888831
0.010247067 0.08125937 0.06440313 -0.08181056 -0.12599114 0.0067184865 0.08486785 -0.027959019
0.14798667 0.015511021 -0.010562614 0.03779164 0.035589486 -0.12505406 0.026334286 -0.11341455
-0.0030602515 0.020090267 0.020001069 0.05329305 0.15498982 0.05850783 -0.0016132742 -0.06709378
-0.10635317 0.15524365 -0.0053786933 -0.03493406 -0.035148308 -0.104831874 -0.00932622 0.01730387
-0.12081632 -0.051051535 -0.0070480555 0.13274352 -0.0869778 0.09766267 -0.023986518 -0.08596729
0.09855898 0.047796875 0.14239196 0.10557051 0.15747009 0.11263724 0.005547866 0.14767493
0.055559397 -0.046945848 -0.10953443 0.15096094 0.035009652 -0.12573491 0.036275595 0.07849026
0.06718156 0.013544366 0.053381503 -0.0795281 -0.11716357 0.076256454 0.13422109 -0.046731576
-0.01786916 -0.11280521 -0.12815887 0.13324063 -0.14934397 -0.08508336 0.036315456 0.124725625
-0.01594314 0.10620119 -0.06343034 -0.093036205 -0.01986131 0.04862462 -0.051796578 0.013084859
-0.025048032 0.004986599 -0.14118083 -0.046479262 -0.08122676 0.12735079 -0.14040777 -0.10700162
0.150266 -0.15670525 -0.04865606 0.10767205 -0.058107488 0.115110144 0.023851097 -0.051473387
0.057803735 -0.15595223 -0.08047385 0.14370985 0.032919988 0.10449384 0.062172458 -0.053473867
0.1394413 -0.0014953166 -0.0527815 0.07355066 -0.12579519 -0.09454214 -0.06707712 -0.089185186
0.06174101 0.13451765 -0.057105057 0.14260484 0.08115576 -0.03706889 -0.083480775 -0.13689369
0.0098229945 0.044567555 -0.11704231 -0.0029727966 0.09092921 0.053911403 -0.061372638 0.08008477
0.07375473 0.10066943 0.008063361 -0.09682889 0.13871174 0.1542647 -0.0507154 -0.0711331
0.099707946 -0.104918376 -0.040245906 -0.06811225 -0.0677536 -0.115946785 -0.1337348 0.15294738
0.09033154 -0.06541888 -0.041925 0.14434485 0.108215734 0.14075397 0.06216319 -0.089940146
-0.11846704 -0.013277769 -0.06372536 0.08492631 0.12567513 0.07781157 0.0059643686 0.15261607
-0.05025199 -0.051926635 -0.114602014 0.020075858 0.12787823 0.017246306 0.09067044 0.013708934
-0.005380422 0.08869028 0.1519704 0.14934672 -0.07887075 -0.09377715 0.15395565 0.049696416
0.15135191 -0.14463708 0.13204034 0.12059103 0.027451068 -0.061027475 0.05342664 -0.14438356

transformer_encoder.encoder.feed_forward.fc2.weight f4 [40, 256]
00000000: e0c1 cc3b 6e71 6bbd 10e0 a33b d28a 13bd
00000010: 8c5b eebc 88cf fd3c 780d d7bc 8ea5 413d
00000020: f84a 903c 8048 573c b6f1 753d a44d b63c
00000030: 46f8 3d3d 007c 4039 cc4c 473d 088c 343d
00000040: 28b1 723c 58e6 14bd 4e74 4ebd 3628 3ebd
00000050: c0f6 a8bb a079 2bbc a261 223d bab4 2d3d
00000060: c21d 543d 5017 3f3c 1478 923c d484 3d3d
00000070: 1601 7cbd 404f 483c a04c 413d 6071 0ebd
00000080: 747a 283d 5cdb c8bc 64ff 403d 5c28 013d
00000090: c6db 15bd 189a 643c 30b8 dcbc d6cd 573d
000000a0: c0c8 e93b be88 7f3d f88b 69bc 3065 213c
000000b0: 26eb 253d 8aef 50bd b05a 363d 0062 04bd
000000c0: 704e e63b 7846 243c 90ce 363c f4ee e0bc
000000d0: 84b9 32bd 2a7d 52bd 804e eeba f823 27bd
000000e0: ee12 52bd e04f e8bb d058 42bc 48ec 37bd
000000f0: 107d 21bc ba80 323d b0a1 14bc 345a 753d
00000100: 3ad1 173d 6081 423b 8053 6fbd 4cc1 f73c
00000110: 5642 4e3d 4c04 1abd d0c7 93bb f433 debc
00000120: 3c4a 56bd d08d ecbc 8c56 bbbc 9e0f 04bd
00000130: 3e5f 62bd ccae 3dbd dc4a 88bc 9cb3 af3c
00000140: 7c4f dd3c 6631 64bd 70fc f63c d4fd d0bc
00000150: 94f7 34bd e0ee 223b f839 493d f44a 61bd
00000160: 28c0 34bc 50b9 e13b 009e 24bc e044 2f3d
00000170: d8ae 223c 804b f1ba d601 53bd 84ef ef3c
00000180: 4854 ecbc f08c bebc 00fa c9bc 10bb b03c
00000190: 745b f73c d46c 37bd 6890 2cbd b04d adbc
000001a0: 50bc 503c f8e7 6abd 9097 fa3b 8cc1 bf3c
000001b0: 9c36 cabc 7200 423d e2c3 663d d6d7 1fbd
000001c0: e058 1e3c 74f4 c33c 427f 65bd e8ed c23c
000001d0: 7ed8 18bd a02f 443d 80a8 bb3c a8f7 82bc
000001e0: aad3 413d 08d6 bfbc 98ec 473c bc0f 283d
000001f0: 9a76 253d 4027 bf3c 321a 3b3d b480 62bd
00000200: 68e3 f73c bcc7 a73c 7425 3e3d a0b8 923c
00000210: e2c9 5bbd de25 2abd 70ca b73c b0fd 243d
00000220: 0800 2bbc 222e 573d a6a9 4bbd 804c 0b3a
00000230: 90fd af3c a081 08bc a029 31bc 4ab9 623d
00000240: 8ac7 293d c073 1bbd d8fe 003d e01e 86bc
00000250: 901b 16bc f49a fabc 54b4 39bd 90d4 bb3c
00000260: ccf5 463d 6805 c93c 4273 443d c092 bf3a
00000270: 4c9b e7bc e804 623d 8cb2 cfbc 986b 76bc
00000280: daa8 3bbd 443a 7f3d d4ac 4a3d a822 10bc
00000290: 7022 36bc 4627 493d aeb7 293d e013 263c
000002a0: b448 b13c 2c77 0b3d 90e1 8bbb 1ea4 453d
000002b0: 3839 f33c 808b b73a 0030 e3b9 e6f8 5c3d
000002c0: 3eab 70bd c04e 3d3d 14e5 8f3c 60ff 0a3b
000002d0: 6c3b ebbc a416 7bbd 3c22 cabc e0b3 103b
000002e0: 0041 57bb 5019 703d acfe 643d 0a3b 69bd
000002f0: 9431 3e3d b4de 62bd e29a 713d 2cfe d6bc
00000300: 902a 70bd f0c6 ed3b 00ea b43a e0cf 013d
00000310: dce5 933c 0840 463d f6ed 78bd bce5 78bd
00000320: 121e 403d 1827 0ebc 4417 bebc 665a 013d
00000330: 383d 863c f024 bf3c 94f7 cebc 1012 20bd
00000340: a035 b83b cc0c b9bc bc5c 453d b87b c73c
00000350: c031 c13c e2ad 7b3d 6ca4 77bd 08b4 6fbd
00000360: 6c48 08bd 4e7a 3fbd f0b4 2cbc 54b9 673d
00000370: 8048 833c fcc7 f93c 823d 7fbd 5cf8 273d
00000380: 6c58 043d cc7a c7bc 005e 2239 22c2 5f3d
00000390: 883a 63bc 847e 653d e02b 653c 985d 40bd
000003a0: 6eb4 7dbd e2fa 363d 9851 d8bc ae3c 233d
000003b0: a8c0 87bc 6e29 013d b0c1 9cbb 8e8c 29bd
000003c0: 76dc 02bd 608d b03b c44d 9fbc 0c14 f63c
000003d0: dcb0 bc3c 0c2d 0ebd bce7 c33c eef8 063d
000003e0: 0813 82bc f0e8 08bc e06a 0f3c 9e52 463d
000003f0: 7a82 6fbd 089c 3c3c a83e 0c3c ce1d 1fbd
0.0062486976 -0.05748122 0.0050010756 -0.03602106 -0.029096387 0.030982748 -0.02625154 0.047277026
0.017613873 0.013139844 0.060044967 0.022253819 0.04637935 0.0001835674 0.048657224 0.044078857
0.014812745 -0.036352485 -0.050403886 -0.046425067 -0.005156368 -0.010466009 0.03964389 0.042408682
0.05178619 0.011663273 0.017879523 0.046269253 -0.061524473 0.012225926 0.047192216 -0.03477609
0.041132405 -0.024518661 0.04711856 0.03153263 -0.036586545 0.013952754 -0.026943296 0.052686535
0.007134527 0.062386267 -0.014254563 0.009850785 0.04050746 -0.051009692 0.04452008 -0.032320023
0.0070283934 0.010026567 0.011157647 -0.027457692 -0.043633953 -0.051388897 -0.0018181354 -0.040805787
-0.051287584 -0.0070896 -0.011861995 -0.04490307 -0.009856477 0.043579794 -0.009071752 0.059900478
0.03706477 0.0029679164 -0.05842924 0.030243538 0.05035623 -0.037601754 -0.0045099035 -0.027124383
-0.05231689 -0.028876215 -0.022868417 -0.032241456 -0.05526661 -0.046309277 -0.016637258 0.02144795
0.02701544 -0.055711173 0.030149668 -0.02551166 -0.04418142 0.002486162 0.04912755 -0.05500312
-0.011032142 0.006888546 -0.010047436 0.042790294 0.009929381 -0.0018409342 -0.051515423 0.029289015
-0.028848782 -0.023260564 -0.024655342 0.021573573 0.030194975 -0.04478152 -0.042129904 -0.021155208
0.01274021 -0.05735013 0.007647462 0.02340772 -0.024684243 0.047363706 0.056339152 -0.039024197
0.009664744 0.023920275 -0.056029566 0.023795083 -0.037315838 0.04789698 0.022907495 -0.015987232
0.047321 -0.023417488 0.012202404 0.04103063 0.04039631 0.023334146 0.04567928 -0.055298522
0.030259803 0.020480983 0.046422437 0.017910302 -0.053659327 -0.04154002 0.022435397 0.040280998
-0.010437019 0.05253423 -0.049722336 0.00053138286 0.021483213 -0.008331686 -0.010813147 0.055352487
0.04145006 -0.037952185 0.031493038 -0.016372144 -0.009161845 -0.030591466 -0.04533799 0.022928506
0.048574254 0.02453871 0.04796148 0.0014615878 -0.028272294 0.05518046 -0.025353692 -0.015040301
-0.045815326 0.062311426 0.049481228 -0.008797325 -0.011116609 0.04910972 0.041434936 0.0101365745
0.021641113 0.034049198 -0.0042688325 0.048252217 0.02969037 0.0014003366 -0.00043332577 0.053948306
-0.05875706 0.04621768 0.017565288 0.0021209344 -0.028714858 -0.06130089 -0.024674527 0.002207987
-0.003284514 0.05861789 0.055906937 -0.05694107 0.046434 -0.055388168 0.0589856 -0.026244245
-0.05863434 0.007256381 0.0013802648 0.031692386 0.018053941 0.04840091 -0.060773812 -0.060765967
0.046903677 -0.008676313 -0.023204453 0.03158035 0.016386613 0.023333043 -0.025264539 -0.039079726
0.005621627 -0.02258911 0.04818414 0.024350986 0.023583293 0.061445124 -0.06045954 -0.0585213
-0.033272192 -0.0467475 -0.010541186 0.056573227 0.016025782 0.030490868 -0.062314518 0.04100834
0.03231089 -0.024350546 0.00015484542 0.0546285 -0.013868935 0.056028858 0.013987511 -0.046964258
-0.06193965 0.044672854 -0.026406094 0.03985279 -0.016571358 0.03153365 -0.0047838315 -0.04139381
-0.03194853 0.005387947 -0.019446261 0.030038856 0.023033552 -0.03471093 0.02391421 0.03295224
-0.015878215 -0.008356318 0.008753508 0.048418634 -0.05847404 0.01151181 0.00855986 -0.038846783

transformer_encoder.encoder.feed_forward.fc2.bias f4 [40]
00000000: 6e8c 7c3d f658 713d 70b2 953b 4af4 21bd
00000010: 6819 db3c b844 e03c 125d 52bd e04a 5e3d
00000020: a07c 35bb 5634 503d 000c dfb8 847d d33c
00000030: f8d7 46bd 02f5 3fbd 4461 dd3c f422 14bd
00000040: 8a3a 20bd ac3b 25bd 0496 27bd c044 603d
00000050: 8212 79bd 126d 12bd a0d0 1bbd 7c41 1b3d
00000060: 907e 62bc 3ca5 33bd 5630 313d 8cfb b63c
00000070: b020 903b ac9d 26bd 08f1 d5bc b813 c9bc
00000080: 483d 273c e8b5 2e3c 9ee4 483d 423f 2ebd
00000090: 366f 34bd 8092 f4bc b084 9ebc 14f6 413d
0.06165736 0.05892273 0.0045683905 -0.039539613 0.026745513 0.027376518 -0.05135829 0.054270625
-0.002769269 0.05083116 -0.00010635704 0.025816686 -0.048545808 -0.046864517 0.027023919 -0.036166146
-0.039118327 -0.04034011 -0.04091455 0.054753065 -0.060808666 -0.03574855 -0.038040757 0.037904248
-0.01382412 -0.04385875 0.043258987 0.022336744 0.004398428 -0.04067771 -0.02611591 -0.024545535
0.010207482 0.010663487 0.04904615 -0.042540796 -0.04405137 -0.029855013 -0.01935038 0.04735382
