simple2transformer/param/net_param/la29_actor_net.model (torch, 233919 bytes, 34 tensors)

transformer_encoder.encoder.attention.fc_Q.weight f4 [40, 40]
0.00083199143 -0.1323124 -0.15385239 -0.12388307 -0.08003558 0.15486903 0.019818053 -0.071914025
-0.13188201 0.1401334 -0.11923546 0.090748936 0.0898675 -0.016340137 -0.07557833 -0.011983097
0.013926148 0.024958 -0.12929124 -0.04538834 -0.119231015 -0.018947318 -0.11976649 0.11310838
0.027749956 0.04750751 0.07627122 0.052082434 0.077405825 -0.033693723 -0.02047941 0.12233387
-0.051256187 -0.13241579 0.13237281 -0.08925698 -0.13399285 -0.008632541 -0.089159906 0.032622367
0.07084446 -0.14055872 -0.12152842 0.07784708 -0.0011450797 -0.06631577 -0.09807958 0.050810084
-0.11885182 0.12296535 0.03319323 0.047345057 -0.017132998 0.14843448 -0.09633581 0.11109464
-0.06434565 -0.097929046 -0.036510594 0.081310526 -0.11490968 -0.14028922 -0.075073525 -0.022099465
-0.0746136 -0.0029927343 0.120959535 0.10005818 0.06395836 -0.10758667 -0.058815174 -0.12312825
0.15282576 -0.040647097 0.026341587 -0.03072682 -0.009436578 -0.089824475 0.06453018 -0.082099944
0.051617727 0.1228355 -0.027884811 -0.039782777 0.046083316 -0.14383583 0.050666004 -0.123854116
0.112495646 -0.042747647 0.14758016 -0.07468971 -0.14969134 -0.063973255 -0.14697267 0.14782394
0.109536484 0.004548222 -0.10610265 0.05357538 -0.027057081 0.1234252 0.10326509 0.10991149
-0.07635329 -0.009298071 0.06291753 -0.13927096 0.025811464 -0.07232543 -0.099058464 0.057454795
-0.004317984 0.13763736 0.06083311 -0.102992006 -0.0319847 0.049126536 0.07612063 0.10558303
0.034619704 -0.026809111 -0.09472563 0.085767806 -0.0042375177 0.123985305 -0.09435644 -0.09549303
-0.12609968 -0.14232993 -0.14325361 -0.15236624 -0.15303113 0.017404348 -0.14138672 0.12284891
-0.045990124 0.024334088 0.10376154 0.11419128 0.058556512 0.11030389 0.10356669 -0.018699244
-0.14769632 0.032302544 -0.0077281445 0.11732136 0.09123272 -0.1372114 0.10745095 0.0025374591
0.07603106 0.14772888 -0.023246482 -0.0152127 0.004951179 0.081021115 0.08323334 -0.098724365
-0.110725656 0.023796692 0.15561329 -0.15593693 -0.066230156 0.08450872 -0.0995915 -0.05875554
-0.089913495 -0.041737266 0.1311195 0.022984043 0.009036794 -0.037566103 -0.13572134 -0.14513557
-0.035682686 -0.05002722 0.12797336 0.13103317 0.066075936 0.025878191 0.0449913 0.02494131
-0.15034206 0.14511801 0.099169806 0.1290028 0.08874062 0.09531306 0.104045555 -0.15554719
0.12763219 0.05909148 0.042121083 -0.036708094 0.0742348 0.14280339 0.085627675 -0.05068265
0.09969871 -0.14712495 0.025283158 -0.011519983 0.11591934 0.13497181 -0.069990575 -0.10853712
0.021771446 0.08938146 0.09117545 0.113148585 0.15455337 0.112156704 0.15746175 -0.109781384
0.12786634 0.09647481 0.0019331127 0.03696741 0.07724704 0.13838844 -0.12799042 0.13301562
0.005137354 0.027259648 -0.0034129769 0.05663757 -0.105263606 -0.15470512 0.088100806 -0.04997024
-0.10311567 0.058439076 -0.03653112 -0.14155799 -0.014094785 -0.0075284094 -0.03719382 -0.12757759
0.1419762 0.023622274 0.08312565 0.07419717 0.09541942 0.068484336 0.14046796 0.054121524
0.13101156 0.009355247 -0.09110509 0.02128835 0.10757168 -0.020218149 -0.035145707 0.019423991
00000000: 001a 5a3a e77c 07be 7b8b 1dbe 68b6 fdbd
00000010: b2e9 a3bd fd95 1e3e 7859 a23c a947 93bd
00000020: 140c 07be 217f 0f3e b931 f4bd 94da b93d
00000030: 740c b83d c0db 85bc d0c8 9abd c054 44bc
00000040: 802a 643c b874 cc3c ec64 04be 20e9 39bd
00000050: 642f f4bd 6837 9bbc 2248 f5bd 5ea5 e73d
00000060: e053 e33c 3c97 423d 1634 9c3d 6454 553d
00000070: f286 9e3d 6e02 0abd 70c4 a7bc 2e8a fa3d
00000080: 02f2 51bd 0198 07be bd8c 073e 5dcc b6bd
00000090: 6c35 09be 806f 0dbc 7899 b6bd 089f 053d
000000a0: e616 913d a0ee 0fbe e4e3 f8bd 4a6e 9f3d
000000b0: 8016 96ba 90d0 87bd f2dd c8bd 3c1e 503d
000000c0: 9568 f3bd 42d5 fb3d a0f5 073d e4ec 413d
000000d0: 805a 8cbc 35ff 173e b64b c5bd 9685 e33d
000000e0: a7c7 83bd 068f c8bd 228c 15bd 2286 a63d
000000f0: c455 ebbd faa7 0fbe 26c0 99bd f009 b5bc
00000100: 04cf 98bd c021 44bb a2b9 f73d 4eeb cc3d
00000110: 9afc 823d 6656 dcbd 2ee8 70bd aa2a fcbd
00000120: 5b7e 1c3e 927d 26bd 50ca d73c d0b6 fbbc
00000130: e09b 1abc e5f5 b7bd 6628 843d 0424 a8bd
00000140: 1c6d 533d 2e91 fb3d b06e e4bc 44f3 22bd
00000150: dcc1 3c3d b349 13be 2887 4f3d 3aa7 fdbd
00000160: 1e64 e63d 2818 2fbd 411f 173e ebf6 98bd
00000170: b048 19be 6904 83bd 0180 16be 295f 173e
00000180: aa54 e03d 4009 953b 594c d9bd dc71 5b3d
00000190: d0a6 ddbc 5ac6 fc3d a67c d33d 4619 e13d
000001a0: 1d5f 9cbd f056 18bc e8da 803d 0c9d 0ebe
000001b0: 9072 d33c 5b1f 94bd 2adf cabd b855 6b3d
000001c0: e07d 8dbb cff0 0c3e 242c 793d 79ed d2bd
000001d0: 6402 03bd e838 493d 22e5 9b3d ea3b d83d
000001e0: 64cd 0d3d c89e dbbc 83ff c1bd 08a7 af3d
000001f0: e0da 8abb 02ec fd3d f33d c1bd da91 c3bd
00000200: 4620 01be f0be 11be 13b1 12be e505 1cbe
00000210: 31b4 1cbe 9093 8e3c aec7 10be 3698 fb3d
00000220: 2460 3cbd 4858 c73c ee80 d43d 1edd e93d
00000230: f4d8 6f3d 02e7 e13d c61a d43d 282f 99bc
00000240: b43d 17be ac4f 043d 603c fdbb 2e46 f03d
00000250: 38d8 ba3d 2581 0cbe 3e0f dc3d 804b 263b
00000260: 2cb6 9b3d 3d46 173e 686f bebc b03e 79bc
00000270: 803d a23b 66ee a53d 3e76 aa3d 0030 cabd
00000280: 22c4 e2bd 48f1 c23c 1759 1f3e eead 1fbe
00000290: ada3 87bd e812 ad3d a1f6 cbbd a6a9 70bd
000002a0: 9124 b8bd b2f4 2abd 3144 063e 0849 bc3c
000002b0: 100f 143c eade 19bd 89fa 0abe 6b9e 14be
000002c0: 0228 12bd 58e9 4cbd 730b 033e 8f2d 063e
000002d0: d252 873d 80fe d33c cc48 383d b851 cc3c
000002e0: 45f3 19be d199 143e 8a19 cb3d 4f19 043e
000002f0: a4bd b53d 7e33 c33d d615 d53d c347 1fbe
00000300: 03b2 023e e809 723d 2887 2c3d 3a5b 16bd
00000310: 6a08 983d 0d3b 123e 905d af3d 9c98 4fbd
00000320: d62e cc3d eca7 16be a01e cf3c 50be 3cbc
00000330: 1e67 ed3d 0d36 0a3e 3857 8fbd b648 debd
00000340: 085a b23c a00d b73d 32ba ba3d 72ba e73d
00000350: 3d43 1e3e 6ab2 e53d a73d 213e 10d5 e0bd
00000360: 65ef 023e 9694 c53d 8060 fd3a 246b 173d
00000370: b233 9e3d b3b5 0d3e ec0f 03be 3f35 083e
00000380: 4057 a83b a04f df3c 40ac 5fbb ccfc 673d
00000390: 7294 d7bd 056b 1ebe 326e b43d 98ad 4cbd
000003a0: 4f2e d3bd d05d 6f3d a8a1 15bd 94f4 10be
000003b0: d0ed 66bc e0b0 f6bb 8c58 18bd b3a3 02be
000003c0: 3562 113e 8083 c13c c83d aa3d b0f4 973d
000003d0: 426b c33d 8441 8c3d d5d6 0f3e 88ae 5d3d
000003e0: e527 063e c046 193c 4e95 babd e864 ae3c
000003f0: 8a4e dc3d 88a0 a5bc f2f4 0fbd 101f 9f3c

transformer_encoder.encoder.attention.fc_Q.bias f4 [40]
-0.11348002 0.117029056 -0.06467776 -0.15663679 -0.118428916 -0.13520071 -0.120023474 -0.009886622
-0.0912673 0.08409317 0.04706061 -0.022971526 -0.14113095 -0.07630287 0.13750522 0.10370131
0.083888635 -0.07651458 0.062109828 0.12214024 0.027208343 -0.047579482 0.02221188 -0.069655426
0.115911946 -0.028631464 -0.028052583 0.06649785 -0.007157013 -0.14531888 -0.09742606 -0.0028780252
0.11389266 0.07292697 -0.03242725 -0.13172221 0.078306675 -0.09336905 0.10694267 -0.13743971
00000000: 3668 e8bd eeac ef3d c675 84bd 6565 20be
00000010: dc8a f2bd 0e72 0abe dece f5bd 80fb 21bc
00000020: 5aea babd 0a39 ac3d a0c2 403d c82e bcbc
00000030: a284 10be ae44 9cbd 2bce 0c3e 5a61 d43d
00000040: cecd ab3d adb3 9cbd e066 7e3d aa24 fa3d
00000050: 08e4 de3c b4e2 42bd b0f5 b53c 81a7 8ebd
00000060: 3e63 ed3d 888c eabc 88ce e5bc 0630 883d
00000070: 6085 eabb 79ce 14be 5087 c7bd 409d 3cbb
00000080: 8e40 e93d bc5a 953d 70d2 04bd 30e2 06be
00000090: 405f a03d 4638 bfbd c204 db3d ffbc 0cbe

transformer_encoder.encoder.attention.fc_K.weight f4 [40, 40]
-0.05419971 0.13974799 -0.148443 0.0160553 -0.06278617 -0.025051624 -0.10834014 -0.059614718
-0.07510513 -0.110284716 -0.13154122 0.09827314 -0.015350699 0.13660963 0.050952196 -0.10625352
0.051595792 -0.120566174 0.039350614 -0.064157486 -0.11075021 -0.15279953 -0.14735767 -0.0043797493
0.14085509 -0.06794467 -0.09000308 -0.08294843 -0.15260863 -0.09673838 -0.10571021 -0.15679434
0.12827404 -0.018882155 -0.14773695 0.034347773 -0.030414417 -0.043156154 0.017534688 -0.10817542
-0.014012605 -0.020288229 -0.13096043 -0.032730684 0.11605905 0.01868932 0.046990573 -0.14950962
-0.08488741 0.13879319 0.119649515 0.07245082 0.10083641 -0.014060169 0.00789924 0.025170341
-0.015295237 0.07737239 0.11173098 -0.015715227 -0.1332949 -0.1480996 -0.1199981 -0.11716421
0.088512555 0.055937037 -0.053872794 0.09692414 -0.07435618 0.0811823 -0.14991061 -0.017857358
-0.029665917 0.046634585 0.14585038 -0.061625943 -0.1019905 -0.010762438 -0.09115462 0.11035518
-0.15238787 -0.03946791 0.034685552 -0.0046670884 0.0464378 0.0074845105 -0.07993817 0.08239485
-0.038747914 0.13652639 0.12902002 0.07782103 -0.106658146 0.09237616 0.13445465 0.035195127
-0.042993225 0.116077706 0.12763412 0.03574519 0.11812444 -0.053202957 -0.10948102 -0.09632999
-0.12285353 0.0075253546 -0.053186856 0.018585399 0.012998745 0.12865911 -0.009203136 0.0036296248
0.15434943 0.15300919 -0.038104683 0.014276847 0.15588872 0.14548703 0.111018226 0.10028671
0.14148699 0.023562685 0.06696552 0.06606832 0.12783147 -0.02893588 0.018141627 -0.017845362
-0.1400153 -0.105899274 0.10535096 0.13556106 -0.09539864 0.067247525 -0.005097583 -0.12934914
-0.079366684 0.08744922 -0.05503717 0.057188526 0.042493716 0.0065105706 0.10088204 -0.11953448
-0.04975629 -0.06490187 0.14860637 0.093534276 -0.15495929 -0.051631033 0.14851396 -0.0511185
-0.07520957 0.13621552 0.03941074 -0.14801428 -0.015956312 -0.04090906 -0.10298177 -0.07391352
0.013904244 0.09932847 0.12846296 0.10842429 0.11471723 -0.03663571 0.076231375 0.0825187
-0.06142413 0.06871483 0.0065745264 0.022437498 0.042589203 -0.10220362 0.09693937 0.04209858
0.11170222 0.020742908 -0.026806429 -0.08827119 -0.024571612 -0.06258242 -0.15533862 -0.094099104
-0.07502729 0.14598222 0.15420847 0.024576068 0.04604405 0.011798024 0.0030706823 0.11925204
0.027629018 -0.07394654 0.09174654 -0.045037985 0.019119844 -0.03742385 -0.023675129 0.02583915
-0.13236526 -0.09759624 -0.13174282 0.12125011 0.090121806 -0.11816256 -0.08619453 0.07018168
-0.11602661 0.04468152 0.059951976 0.10849778 -0.09427437 -0.035635002 -0.07815848 -0.13730969
-0.08318892 0.09563433 -0.059141427 0.059834525 0.10931198 0.12276535 0.06287314 -0.15462506
0.07288279 0.01655054 0.01302816 -0.09331293 -0.1206715 0.005272329 -0.09125731 0.019037545
-0.0077313334 0.09254302 0.059269026 0.0947174 -0.07486159 0.0773152 -0.075222634 -0.10533908
0.0007484853 -0.05776772 0.15110932 0.07698049 -0.009066701 -0.0031995326 -0.0018347204 0.008050263
-0.025573656 -0.004673302 0.049009025 -0.079073 -0.11870949 0.08093515 0.07425286 0.1319926
00000000: 8400 5ebd 191a 0f3e 7101 18be 6886 833c
00000010: 0996 80bd 1039 cdbc 6fe1 ddbd 902e 74bd
00000020: b8d0 99bd f4dc e1bd beb2 06be 6e43 c93d
00000030: 8081 7bbc 65e3 0b3e 40b3 503d 729b d9bd
00000040: 1c56 533d 66eb f6bd 1c2e 213d 0065 83bd
00000050: 02d1 e2bd 7b77 1cbe eee4 16be 0084 8fbb
00000060: 513c 103e 9326 8bbd 8953 b8bd dee0 a9bd
00000070: 7045 1cbe c61e c6bd 987e d8bd b28e 20be
00000080: 455a 033e c0ae 9abc 5b48 17be 40b0 0c3d
00000090: a827 f9bc 82c4 30bd e8a4 8f3c 138b ddbd
000000a0: 2095 65bc 8033 a6bc 7e1a 06be 9c10 06bd
000000b0: 5eb0 ed3d 581a 993c 3079 403d 0d19 19be
000000c0: 73d9 adbd cd1f 0e3e ce0a f53d 1861 943d
000000d0: 5283 ce3d a05c 66bc d06b 013c 0832 ce3c
000000e0: e098 7abc 6a75 9e3d 36d3 e43d 38bd 80bc
000000f0: 757e 08be 6ca7 17be 90c1 f5bd caf3 efbd
00000100: 1246 b53d 3c1e 653d b8a9 5cbd 2a80 c63d
00000110: 0e48 98bd e842 a63d 2b82 19be 9849 92bc
00000120: f005 f3bc e803 3f3d cd59 153e 7c6b 7cbd
00000130: 65e0 d0bd f054 30bc 46af babd e601 e23d
00000140: 910b 1cbe 1aa9 21bd 7012 0e3d 60ee 98bb
00000150: 9035 3e3d a040 f53b a0b6 a3bd a2be a83d
00000160: 22b6 1ebd 93cd 0b3e d31d 043e a260 9f3d
00000170: 966f dabd b62f bd3d 7bae 093e c428 103d
00000180: aa19 30bd 26ba ed3d 85b2 023e 8c69 123d
00000190: 3aeb f13d 58eb 59bd 9637 e0bd a848 c5bd
000001a0: a29a fbbd 4097 f63b 76da 59bd 6840 983c
000001b0: b0f8 543c 37bf 033e c0c8 16bc 00df 6d3b
000001c0: c70d 1e3e 71ae 1c3e a813 1cbd 70e9 693c
000001d0: 4ba1 1f3e 8dfa 143e 865d e33d 1e63 cd3d
000001e0: f7e1 103e 8806 c13c 3825 893d d44e 873d
000001f0: 41e6 023e f00a edbc c09d 943c 7030 92bc
00000200: 2c60 0fbe b8e1 d8bd 3ec2 d73d 85d0 0a3e
00000210: 5d60 c3bd 12b9 893d a009 a7bb 1a74 04be
00000220: 008b a2bd 9418 b33d a86e 61bd 843e 6a3d
00000230: e40d 2e3d a056 d53b 3e9b ce3d 7ece f4bd
00000240: 40cd 4bbd 46eb 84bd 452c 183e e68e bf3d
00000250: a6ad 1ebe 107b 53bd 0b14 183e a261 51bd
00000260: 7a07 9abd 157c 0b3e 286d 213d 0e91 17be
00000270: d0b6 82bc 4290 27bd 1be8 d2bd f95f 97bd
00000280: a0ce 633c ba6c cb3d cb8b 033e 8e0d de3d
00000290: def0 ea3d 540f 16bd 321f 9c3d 90ff a83d
000002a0: de97 7bbd 5cba 8c3d 206f d73b d8ce b73c
000002b0: 0472 2e3d 2250 d1bd 2688 c63d 906f 2c3d
000002c0: 22c4 e43d 08ed a93c 2899 dbbc 87c7 b4bd
000002d0: 684a c9bc 362b 80bd 1611 1fbe 08b7 c0bd
000002e0: e8a7 99bd 5d7c 153e d3e8 1d3e c053 c93c
000002f0: b098 3c3d 804c 413c 803d 493b 6a3a f43d
00000300: 4056 e23c 4971 97bd 9ce5 bb3d c079 38bd
00000310: 38a1 9c3c c049 19bd 58f2 c1bc a0ac d33c
00000320: c28a 07be 8ae0 c7bd 97e7 06be fa51 f83d
00000330: c891 b83d 36ff f1bd c286 b0bd 6abb 8f3d
00000340: 5c9f edbd f803 373d 3490 753d 1634 de3d
00000350: ec12 c1bd 02f6 11bd 8e11 a0bd e99a 0cbe
00000360: f45e aabd eedb c33d 483e 72bd 0c15 753d
00000370: f6de df3d 666c fb3d a2c3 803d 0856 1ebe
00000380: 9243 953d 0095 873c 1074 553c d91a bfbd
00000390: 9f22 f7bd 80c3 ac3b 1de5 babd a0f4 9b3c
000003a0: 2057 fdbb 3287 bd3d 14c4 723d 32fb c13d
000003b0: 0951 99bd 6e57 9e3d 530e 9abd 04bc d7bd
000003c0: 0036 443a d89d 6cbd 67bc 1a3e f2a7 9d3d
000003d0: 808c 14bc 40af 51bb 007b f0ba 40e5 033c
000003e0: d87f d1bc 8022 99bb b0bd 483d 06f1 a1bd
000003f0: f61d f3bd 54c1 a53d e211 983d 1129 073e

transformer_encoder.encoder.attention.fc_K.bias f4 [40]
0.12872927 0.08683805 0.10897122 0.10829727 -0.08358925 -0.008866131 0.09082611 0.036690146
-0.09820177 0.045350343 -0.15451631 -0.08816202 -0.0045392215 0.07899761 0.14602874 0.10698713
0.0060137957 0.062495366 -0.005421713 0.06086889 -0.06679627 0.13949712 -0.03810259 -0.1341302
0.011147857 -0.057705782 -0.113580756 -0.06534265 -0.047064513 -0.062005214 -0.13590927 -0.015930325
0.04288645 -0.036314286 0.106117025 0.1006908 -0.022255316 -0.09667252 0.1255018 0.0047934502
00000000: 9bd1 033e 26d8 b13d 4e2c df3d f6ca dd3d
00000010: d730 abbd 4043 11bc 0a03 ba3d 6848 163d
00000020: 021e c9bd 48c1 393d 8639 1ebe 4a8e b4bd
00000030: c0bd 94bb 80c9 a13d 8f88 153e 121c db3d
00000040: 600f c53b 24fb 7f3d a0a8 b1bb a851 793d
00000050: 7ccc 88bd 55d8 0e3e 7611 1cbd 6d59 09be
00000060: 80a5 363c e65c 6cbd 079d e8bd 5ed2 85bd
00000070: b8c6 40bd 2ef9 7dbd cd2b 0bbe 5080 82bc
00000080: b4a9 2f3d 4abe 14bd e253 d93d fa36 ce3d
00000090: c850 b6bc 3efc c5bd 8b83 003e 6012 9d3b

transformer_encoder.encoder.attention.fc_V.weight f4 [40, 40]
-0.074776694 0.12368511 -0.044194378 -0.13151188 0.12070005 -0.057511643 -0.10744726 -0.020223543
-0.049599394 -0.07515536 0.13016371 0.040220454 0.046579525 -0.15365554 -0.0139666945 -0.06922379
0.09297432 0.07626173 0.10631548 0.06398159 -0.10007333 -0.03984592 0.09098987 -0.026625052
0.06571674 0.03962134 -0.01606609 0.0084453225 -0.061058313 -0.034981854 -0.1451605 0.14398615
0.097336724 0.0566542 -0.082726166 0.047936156 0.09502579 -0.09925614 0.05399725 0.1439714
-0.11956231 0.09079048 0.1257755 0.10562302 -0.10861414 -0.028659463 0.021538615 0.0642093
-0.042608753 -0.09874478 -0.107270405 -0.0626492 -0.09789297 -0.043672666 -0.07654515 0.048671752
-0.10890952 0.09370135 -0.027000263 0.09492181 0.0061270148 0.05772035 -0.03430947 0.14899693
-0.056569584 -0.04478717 -0.06991682 -0.037138365 -0.011462212 0.095157936 0.037076414 -0.13264987
0.07176755 -0.118633814 0.04659809 -0.06064687 0.1413966 0.053383276 -0.026241943 -0.0970082
0.10242297 0.12880482 0.112008736 -0.05989428 -0.037248485 0.010930568 -0.01184991 0.024650946
0.005612999 0.05531788 -0.11739693 0.1323214 0.116371945 0.01792477 0.045697004 -0.037352033
0.15008192 -0.12212807 0.11394031 0.066317275 0.05799611 0.10154678 -0.13610357 -0.15456322
-0.03835115 0.03248532 -0.05799187 0.034735993 -0.15539409 0.05143869 0.12481965 -0.034475356
0.0073212534 0.12277953 -0.045423858 0.032646343 -0.018279135 -0.12576577 0.06841974 0.14343815
-0.032624632 0.14121763 -0.07027046 -0.075051695 -0.026102155 0.001706332 -0.045700498 -0.10525444
0.061813086 0.025421545 -0.0043812543 0.019277945 0.116466984 0.0806728 -0.021478638 0.09261303
-0.051179662 -0.11328046 0.12602408 0.100896105 -0.057430327 0.09304385 0.07151434 -0.11797528
-0.069409944 -0.11656676 0.06131929 -0.15411448 -0.04172679 0.0022345781 0.042323142 -0.09667967
0.011286885 -0.07199728 0.02007237 0.002524957 -0.12528135 0.029655293 0.03881775 -0.00788486
0.11859609 -0.09082028 -0.11419773 -0.014312506 -0.13374068 -0.14093563 -0.14254336 -0.13713484
-0.15473785 -0.15414849 -0.03432943 -0.06480081 -0.12506846 -0.12544006 -0.11116745 0.0011136532
-0.0020063072 0.1560701 0.11675061 -0.10639332 0.15004988 -0.10571111 -0.09638437 0.14829291
0.08624776 -0.003376171 -0.021046653 -0.08010225 0.14439215 -0.026686832 0.04015638 0.10277848
0.094515905 0.13411899 -0.020876512 -0.13298407 0.12210466 0.06853141 -0.12947266 -0.11894431
-0.13452473 0.14169537 -0.15199712 -0.022130027 0.09034774 -0.05820182 0.030305043 -0.04852774
0.03744261 -0.041230105 -0.05300834 0.14678101 -0.031004488 -0.08793714 0.01564318 0.12563927
-0.020048723 0.14527573 -0.12139514 -0.10604239 0.14369984 0.07011382 -0.05564747 0.15676571
-0.10772693 -0.12315725 0.056414813 0.0819674 -0.09115771 -0.1498928 -0.029649198 0.13747318
-0.14147952 0.026514933 -0.09479684 -0.14636053 0.063173056 -0.06422417 -0.11359599 0.108325824
-0.14398783 -0.15462498 -0.15171179 0.079762936 -0.10171141 0.049440414 -0.13747045 0.01584427
-0.1580072 -0.045845427 -0.020483956 0.052547082 -0.009886488 0.040128782 0.044354513 -0.031940445
00000000: 8624 99bd 9e4e fd3d 2a05 35bd 0dab 06be
00000010: 9631 f73d 5491 6bbd 4f0d dcbd d8ab a5bc
00000020: bc28 4bbd 0eeb 99bd a349 053e 34be 243d
00000030: 2cca 3e3d e157 1dbe 90d4 64bc 34c5 8dbd
00000040: 5269 be3d 1c2f 9c3d eebb d93d c808 833d
00000050: 3ff3 ccbd 7a35 23bd e658 ba3d c81c dabc
00000060: 8096 863d fc49 223d 089d 83bc 405e 0a3c
00000070: 4818 7abd 2249 0fbd f4a4 14be 1b71 133e
00000080: 7a58 c73d 3c0e 683d 566c a9bd b458 443d
00000090: e29c c23d ce46 cbbd 382c 5d3d 3d6d 133e
000000a0: 16dd f4bd 5cf0 b93d 4bcb 003e e250 d83d
000000b0: 1771 debd 40c7 eabc c071 b03c 2a80 833d
000000c0: 8486 2ebd b43a cabd 96b0 dbbd 394e 80bd
000000d0: 1c7c c8bd 1ce2 32bd b4c3 9cbd 085c 473d
000000e0: f40b dfbd 7ee6 bf3d a82f ddbc 5e66 c23d
000000f0: 20c5 c83b 2c6c 6c3d 1688 0cbd a792 183e
00000100: 82b5 67bd c072 37bd 8d30 8fbd 661e 18bd
00000110: 00cc 3bbc 2ae2 c23d 70dd 173d 5ed5 07be
00000120: defa 923d 49f6 f2bd a4dd 3e3d da68 78bd
00000130: 45ca 103e 6ca8 5a3d 58f9 d6bc 3cac c6bd
00000140: 22c3 d13d 69e5 033e d664 e53d b453 75bd
00000150: de91 18bd 2016 333c 2026 42bc c8f0 c93c
00000160: 40ed b73b 0095 623d cd6d f0bd 437f 073e
00000170: 6a54 ee3d f8d6 923c c82c 3b3d 72fe 18bd
00000180: 13af 193e 481e fabd 8a59 e93d 5ad1 873d
00000190: 548d 6d3d c2f7 cf3d bc5e 0bbe d245 1ebe
000001a0: 1816 1dbd 540f 053d e288 6dbd 5447 0e3d
000001b0: a11f 1fbe 60b1 523d 72a1 ff3d 0836 0dbd
000001c0: 20e7 ef3b d673 fb3d 5e0e 3abd 2cb8 053d
000001d0: 20be 95bc bec8 00be a61f 8c3d 73e1 123e
000001e0: 68a1 05bd 5b9b 103e f5e9 8fbd b4b4 99bd
000001f0: 30d4 d5bc 00a7 df3a 7230 3bbd a48f d7bd
00000200: b82f 7d3d d840 d03c a090 8fbb c8ec 9d3c
00000210: 3e86 ee3d c837 a53d f8f3 afbc e6ab bd3d
00000220: c4a1 51bd 96ff e7bd 750c 013e 9ea2 ce3d
00000230: 103c 6bbd c68d be3d 1c76 923d 069d f1bd
00000240: cd26 8ebd 8eba eebd f029 7b3d 30d0 1dbe
00000250: b6e9 2abd 0072 123b 085b 2d3d feff c5bd
00000260: a0ec 383c 4f73 93bd d06e a43c c079 253b
00000270: c149 00be a8ef f23c 5cff 1e3d 802f 01bc
00000280: 82e2 f23d fcff b9bd 80e0 e9bd 007f 6abc
00000290: 51f3 08be 6e51 10be e3f6 11be 136d 0cbe
000002a0: 9973 1ebe 1ad9 1dbe 049d 0cbd 49b6 84bd
000002b0: f211 00be 5c73 00be c3ab e3bd 00f8 913a
000002c0: 407c 03bb d7d0 1f3e f21a ef3d bee4 d9bd
000002d0: ada6 193e 117f d8bd 2b65 c5bd 19da 173e
000002e0: aaa2 b03d c042 5dbb 086a acbc a60c a4bd
000002f0: 89db 133e 589e dabc 047b 243d 867d d23d
00000300: 8e91 c13d 7d56 093e 3805 abbc fa2c 08be
00000310: 0212 fa3d 325a 8c3d 7b94 04be 1399 f3bd
00000320: dac0 09be 9718 113e 22a5 1bbe 084a b5bc
00000330: 3c08 b93d 0865 6ebd 4842 f83c 06c5 46bd
00000340: 6c5d 193d e6e0 28bd 461f 59bd c34d 163e
00000350: 20fd fdbc 6318 b4bd 2026 803c 95a7 003e
00000360: 383d a4bc 29c3 143e 049e f8bd c12c d9bd
00000370: 0d26 133e d697 8f3d 9aee 63bd 3187 203e
00000380: f09f dcbd de39 fcbd 3813 673d 86de a73d
00000390: e5b0 babd 807d 19be e0e2 f2bc c5c5 0c3e
000003a0: 02e0 10be d835 d93c d824 c2bd 89df 15be
000003b0: e060 813d f687 83bd 04a5 e8bd eed9 dd3d
000003c0: 8c71 13be 0356 1ebe 565a 1bbe c05a a33d
000003d0: 124e d0bd 0882 4a3d 0ec5 0cbe d8cb 813c
000003e0: a4cc 21be 6ac8 3bbd f8cd a7bc 9c3b 573d
000003f0: f0fa 21bc 145e 243d 14ad 353d fcd3 02bd

transformer_encoder.encoder.attention.fc_V.bias f4 [40]
-0.13267264 0.08246608 -0.096652 0.026313663 -0.13180521 -0.04886616 0.121646926 0.09378727
0.013260856 0.05345604 -0.0856036 -0.14290014 0.08870672 0.11032866 -0.045336172 0.07755378
0.07365237 -0.06627151 0.15036546 -0.08115223 0.14061235 -0.059231162 0.05895987 -7.465482e-05
0.14379416 -0.14550069 0.0074157715 0.005291626 -0.012152478 0.04462838 0.045792937 -0.1235649
0.03285384 0.11435081 0.025467038 -0.06835394 0.15044479 -0.062444672 0.1035641 -0.07625417
00000000: 56db 07be fae3 a83d 7cf1 c5bd c08f d73c
00000010: f2f7 06be e227 48bd 0622 f93d 8a13 c03d
00000020: 1044 593c b8f4 5a3d f150 afbd 6a54 12be
00000030: deab b53d fef3 e13d 6cb2 39bd 84d4 9e3d
00000040: 0ed7 963d 5cb9 87bd 67f9 193e 2433 a6bd
00000050: affc 0f3e 609c 72bd e87f 713d 0090 9cb8
00000060: c73e 133e 22fe 14be 0000 f33b 6065 ad3b
00000070: 301b 47bc 40cc 363d 6091 3b3d 980f fdbd
00000080: c091 063d c230 ea3d 40a0 d03c 27fd 8bbd
00000090: 330e 1a3e fcc5 7fbd 6a19 d43d 252b 9cbd

transformer_encoder.encoder.attention.fc.weight f4 [40, 40]
0.057412013 -0.061867446 0.018460512 0.00040327013 -0.14306068 -0.07275109 -0.07555087 0.10088892
0.07287371 -0.058190547 0.088324204 0.02876389 0.0073954016 0.12195973 0.11587109 0.026734918
-0.083469145 0.124220386 -0.053204365 0.0228647 -0.07865518 -0.03285256 -0.03158675 0.059076384
-0.11345784 0.026626483 -0.051682964 0.05475031 -0.06391973 -0.0049993247 -0.075461164 0.10871284
0.13121946 0.14354791 -0.060954876 -0.040527806 0.022268996 0.0022834986 -0.14363769 -0.14839438
0.04257749 -0.1568257 0.06679469 -0.13494672 0.1121435 -0.056922957 0.12574641 0.057648778
0.13332768 0.070762366 -0.0919621 0.11824547 0.082781985 -0.007189855 0.10619278 0.047364056
0.1360413 0.12211059 -0.08630758 0.13531278 0.11248268 0.11772381 -0.003110215 0.12674119
-0.10225617 -0.08202915 -0.08317953 -0.04510151 -0.046502598 -0.0809203 -0.07804194 0.12303208
-0.03522653 -0.087873995 0.08722608 0.13974528 -0.104301095 0.122563526 -0.02647312 -0.09960863
-0.0031834394 0.004831359 0.09005611 0.062553614 -0.14526889 -0.0074785203 -0.12898117 0.110751376
0.040059045 0.031121016 -0.024513021 -0.12290895 0.0952027 0.12689279 0.042965442 -0.119341165
0.008078471 0.12958439 0.11955528 -0.05114074 0.122351214 -0.12107699 -0.05110851 -0.07257229
-0.14369652 -0.0010954887 0.033185735 0.082165405 -0.02021131 -0.059776947 -0.063113965 0.08913344
0.034073308 0.12838177 0.09856044 -0.012103379 0.074911535 0.007254958 0.10753091 0.14238797
0.09899916 0.116424516 -0.15732019 0.12276681 -0.009394482 0.124602124 -0.12348161 0.06868309
0.08852023 -0.13098978 0.07826762 -0.14356095 0.052613348 -0.09440465 0.11925043 0.12300499
-0.14479955 0.056802407 -0.040138148 -0.07687898 0.08410038 0.053597093 0.014836103 -0.055197425
-0.0355476 0.063878134 0.06574607 -0.15440463 -0.11599943 -0.047332034 0.052689627 -0.116973415
0.086270556 -0.03047043 -0.095091216 -0.08109069 -0.05196944 -0.1404573 0.15733434 -0.0799151
0.102614954 0.04964286 0.11765693 -0.05843532 0.040296897 -0.054466248 0.02323623 -0.06513013
-0.018462837 0.060037434 -0.10394129 0.0067211986 0.0983962 -0.12882306 0.02484782 0.15541486
-0.1456673 -0.10701525 0.03052102 0.14315183 -0.12486727 -0.003524974 -0.08371069 0.06622571
-0.0037521422 0.13644879 -0.046834566 0.11462952 0.15281637 -0.10787122 0.0146323 -0.035039537
-0.084752 -0.004578918 0.041399956 -0.1490426 0.14678203 0.06805642 -0.13718975 -0.12715153
0.06034325 0.049350485 -0.13328166 0.038197696 -0.016043007 0.032489672 -0.017484665 0.07681587
-0.049748905 0.11041008 -0.04528127 -0.050954804 0.024180979 0.14803551 -0.122980766 0.060387135
-0.09558931 0.05124168 -0.010243282 0.14478661 0.0005351156 0.1102611 -0.07055933 0.11667986
-0.002322346 -0.031963423 -0.107652515 0.06328654 -0.08607437 -0.057614386 0.002840504 0.13436888
-0.020643622 -0.12166394 0.121944055 -0.1431471 -0.020815313 0.035846516 -0.0500974 -0.07793485
-0.031845957 -0.120399594 -0.079871714 0.0855519 0.12861441 0.048572987 0.057159662 0.056803823
-0.027182758 0.14819576 -0.08619922 0.14672403 -0.07826842 0.06317569 -0.06622827 -0.08398752
00000000: dc28 6b3d b868 7dbd 803a 973c 006e d339
00000010: 807e 12be 86fe 94bd 6aba 9abd da9e ce3d
00000020: d03e 953d 3659 6ebd 52e3 b43d 40a2 eb3c
00000030: 2055 f23b 06c6 f93d d24d ed3d 3003 db3c
00000040: dff1 aabd 4267 fe3d d2ec 59bd c04e bb3c
00000050: f815 a1bd 6890 06bd 1c61 01bd 14fa 713d
00000060: 965c e8bd c81f da3c 84b1 53bd dc41 603d
00000070: 59e8 82bd 60d1 a3bb 628b 9abd d6a4 de3d
00000080: 655e 063e 39fe 123e d2ab 79bd 7c00 26bd
00000090: 786d b63c c0a6 153b c215 13be b2f4 17be
000000a0: bc65 2e3d eb96 20be a8cb 883d 792f 0abe
000000b0: 7eab e53d 0c28 69bd abc3 003e 2021 6c3d
000000c0: 0d87 083e dceb 903d a056 bcbd ae2a f23d
000000d0: 9a89 a93d e098 ebbb 9a7b d93d d000 423d
000000e0: 694e 0b3e 1e15 fa3d 07c2 b0bd 6f8f 0a3e
000000f0: 525d e63d 2e19 f13d c0d4 4bbb 71c8 013e
00000100: af6b d1bd e6fe a7bd 085a aabd 5cbc 38bd
00000110: 8279 3ebd 8bb9 a5bd 74d4 9fbd 3ef8 fb3d
00000120: b249 10bd 48f7 b3bd 96a3 b23d 6319 0f3e
00000130: d09b d5bd 9602 fb3d 28de d8bc 9cff cbbd
00000140: 40a1 50bb 6050 9e3b 566f b83d 1c1c 803d
00000150: 5ec1 14be 600e f5bb a413 04be 9ed1 e23d
00000160: f414 243d 80f1 fe3c 88cf c8bc b0b7 fbbd
00000170: a2f9 c23d 2ff0 013e 88fc 2f3d 2469 f4bd
00000180: 905b 043c c5b1 043e 66d9 f43d f478 51bd
00000190: 4693 fa3d 37f7 f7bd 2857 51bd c8a0 94bd
000001a0: 2e25 13be 8096 8fba c4ed 073d 5646 a83d
000001b0: 3092 a5bc acd8 74bd e541 81bd 988b b63d
000001c0: 7490 0b3d 8376 033e 0eda c93d 404d 46bc
000001d0: 386b 993d 00bb ed3b 2a39 dc3d 27ce 113e
000001e0: 12c0 ca3d fa6f ee3d 8b18 21be 2a6d fb3d
000001f0: 50eb 19bc 662f ff3d ede3 fcbd b8a9 8c3d
00000200: 184a b53d 2f22 06be c64a a03d a401 13be
00000210: 1881 573d 3a57 c1bd 9239 f43d 0aea fb3d
00000220: 5546 14be a4a9 683d e667 24bd ba72 9dbd
00000230: d23c ac3d a088 5b3d 2013 733c b216 62bd
00000240: 5c9a 11bd 8ad2 823d e0a5 863d 3f1c 1ebe
00000250: 1c91 edbd 3cdf 41bd 14d1 573d c28f efbd
00000260: 9eae b03d 209d f9bc 2fbf c2bd e012 a6bd
00000270: e8dd 54bd 0ad4 0fbe 411c 213e 87aa a3bd
00000280: ca27 d23d 5056 4b3d 1ef6 f03d e059 6fbd
00000290: 5c0e 253d 0018 5fbd e859 be3c f262 85bd
000002a0: 603f 97bc d0e9 753d 2cdf d4bd 803d dc3b
000002b0: f283 c93d 31ea 03be a88d cb3c 1325 1f3e
000002c0: cf29 15be d02a dbbd 3807 fa3c 6596 123e
000002d0: 69ba ffbd 4003 67bb 8370 abbd 58a1 873d
000002e0: 80e6 75bb 3bb9 0b3e 9ad5 3fbd e2c2 ea3d
000002f0: e57b 1c3e 96eb dcbd 50bc 6f3c 9e85 0fbd
00000300: 7592 adbd c00a 96bb 0093 293d a09e 18be
00000310: 074e 163e 2a61 8b3d 787b 0cbe 0334 02be
00000320: 7c2a 773d bc23 4a3d fd7a 08be 3075 1c3d
00000330: a06c 83bc e413 053d 003c 8fbc a451 9d3d
00000340: 82c5 4bbd ae1e e23d da78 39bd fcb5 50bd
00000350: 3017 c63c 9f96 173e 57dd fbbd 8058 773d
00000360: 54c4 c3bd cce2 513d 70d3 27bc f142 143e
00000370: 0047 0c3a 92d0 e13d 6981 90bd daf5 ee3d
00000380: 8032 18bb 14ec 02bd ec78 dcbd 609c 813d
00000390: c247 b0bd 10fd 6bbd c027 3a3b ff97 093e
000003a0: d01c a9bc f22a f9bd cebd f93d 2795 12be
000003b0: e084 aabc ccd3 123d ee32 4dbd 4e9c 9fbd
000003c0: e870 02bd 1094 f6bd c893 a3bd d635 af3d
000003d0: 7fb3 033e 78f4 463d 4020 6a3d 20ab 683d
000003e0: 60ae debc a1c0 173e 3789 b0bd d33e 163e
000003f0: 324b a0bd 4262 813d b0a2 87bd a601 acbd

transformer_encoder.encoder.attention.fc.bias f4 [40]
-0.09968668 0.10999201 0.047263607 -0.010720819 0.11225395 0.07162845 0.09452458 -0.018356785
-0.065365925 -0.1319389 -0.016331956 -0.061952755 0.08677821 -0.03258644 -0.09838877 0.13040023
0.052497864 -0.10152784 -0.14760268 0.09028137 -0.11707756 -0.02343589 -0.0032475889 -0.052033037
-0.08819957 -0.03624317 -0.08446629 -0.13201538 0.0050827116 0.05853468 0.049441427 0.026939556
0.10370292 -0.01378037 0.15673842 -0.031000584 -0.00087346137 -0.01733078 -0.027077153 -0.08418402
00000000: 8828 ccbd 7e43 e13d 7c97 413d 60a6 2fbc
00000010: 66e5 e53d f0b1 923d 1a96 c13d f860 96bc
00000020: 92de 85bd fe1a 07be 98ca 85bc 2cc2 7dbd
00000030: c6b8 b13d 5c79 05bd 0d80 c9bd a387 053e
00000040: 0008 573d d4ed cfbd 2825 17be 70e5 b83d
00000050: 5cc6 efbd a0fc bfbc 80d5 54bb 9820 55bd
00000060: faa1 b4bd b873 14bd aafc acbd 0a2f 07be
00000070: e08c a63b 10c2 6f3d 1883 4a3d 58b0 dc3c
00000080: 3262 d43d 10c7 61bc 0980 203e f0f4 fdbc
00000090: 00f9 64ba 48f9 8dbc e8d0 ddbc ac68 acbd

transformer_encoder.encoder.attention.layer_norm.weight f4 [40]
1.0 1.0 1.0 1.0 1.0 1.0 1.0 1.0
1.0 1.0 1.0 1.0 1.0 1.0 1.0 1.0
1.0 1.0 1.0 1.0 1.0 1.0 1.0 1.0
1.0 1.0 1.0 1.0 1.0 1.0 1.0 1.0
1.0 1.0 1.0 1.0 1.0 1.0 1.0 1.0
00000000: 0000 803f 0000 803f 0000 803f 0000 803f
00000010: 0000 803f 0000 803f 0000 803f 0000 803f
00000020: 0000 803f 0000 803f 0000 803f 0000 803f
00000030: 0000 803f 0000 803f 0000 803f 0000 803f
00000040: 0000 803f 0000 803f 0000 803f 0000 803f
00000050: 0000 803f 0000 803f 0000 803f 0000 803f
00000060: 0000 803f 0000 803f 0000 803f 0000 803f
00000070: 0000 803f 0000 803f 0000 803f 0000 803f
00000080: 0000 803f 0000 803f 0000 803f 0000 803f
00000090: 0000 803f 0000 803f 0000 803f 0000 803f

transformer_encoder.encoder.attention.layer_norm.bias f4 [40]
0.0 0.0 0.0 0.0 0.0 0.0 0.0 0.0
0.0 0.0 0.0 0.0 0.0 0.0 0.0 0.0
0.0 0.0 0.0 0.0 0.0 0.0 0.0 0.0
0.0 0.0 0.0 0.0 0.0 0.0 0.0 0.0
0.0 0.0 0.0 0.0 0.0 0.0 0.0 0.0
00000000: 0000 0000 0000 0000 0000 0000 0000 0000
00000010: 0000 0000 0000 0000 0000 0000 0000 0000
00000020: 0000 0000 0000 0000 0000 0000 0000 0000
00000030: 0000 0000 0000 0000 0000 0000 0000 0000
00000040: 0000 0000 0000 0000 0000 0000 0000 0000
00000050: 0000 0000 0000 0000 0000 0000 0000 0000
00000060: 0000 0000 0000 0000 0000 0000 0000 0000
00000070: 0000 0000 0000 0000 0000 0000 0000 0000
00000080: 0000 0000 0000 0000 0000 0000 0000 0000
00000090: 0000 0000 0000 0000 0000 0000 0000 0000

transformer_encoder.encoder.feed_forward.fc1.weight f4 [256, 40]
0.107516125 0.044426918 -0.09302165 0.088176444 0.12190448 0.050384924 -0.10882856 0.1270593
-0.14539883 0.04947473 0.0867966 0.14492588 -0.056033246 0.035361767 -0.052946463 -0.11987302
0.117333755 -0.12619306 0.03874573 -0.065851524 -0.07475979 -0.14726341 0.1508811 0.05821818
-0.008002922 -0.11370827 -0.121724695 -0.07266912 -0.04787326 0.1125776 0.102899 -0.01155971
-0.13091987 0.066223055 0.12446509 -0.12621598 0.027810752 -0.057099797 0.1125762 -0.001121819
-0.11032975 0.10117255 -0.123529226 0.09343915 0.06688534 0.13555674 -0.12130177 -0.04575222
0.11434735 -0.14630029 -0.025446266 0.044681802 0.07262243 -0.14371473 -0.08257478 0.10651584
0.106697515 0.14528589 -0.06735455 0.11322011 0.08928569 -0.07568769 -0.115024865 -0.0765732
-0.04550969 -0.10406296 0.09939699 -0.10817169 -0.10280425 0.07540125 -0.13940321 -0.14012603
0.05596274 0.0042185932 -0.09682465 0.12007107 -0.04179675 0.092252895 -0.051926263 -0.11411723
0.07631162 0.0495508 0.15073149 -0.016033545 -0.024368584 0.14639921 0.13876714 0.027743623
0.04401788 -0.054237857 0.1166098 -0.0087028295 0.035382435 -0.0024695992 -0.04892622 0.12369372
-0.0016680807 -0.13838382 0.11366053 -0.10469117 -0.09093251 0.054811567 -0.025076538 -0.020307347
0.0345238 -0.11563609 0.04422714 -0.05618176 0.0713194 0.0003900379 -0.13534099 -0.07026256
0.1105562 0.069640085 0.14128356 -0.026282817 -0.049997516 -0.01978603 -0.12391164 -0.032762617
-0.15132433 -0.12693924 0.035725415 -0.09095432 -0.09850094 0.10492055 0.11788981 0.0026473552
-0.015363738 0.07046224 -0.1527033 0.13712476 0.042594433 0.04451993 -0.064270444 -0.019191802
0.00025500357 -0.0044004023 -0.013869986 0.07074486 0.08517161 -0.02115421 0.0139363855 -0.08922765
-0.12414044 0.05609864 -0.0812323 -0.10175678 0.13311256 -0.048934847 -0.091638036 -0.09081604
-0.0412871 0.13496463 0.06783421 -0.13616705 -0.06966134 -0.07179704 -0.038935624 -0.14036542
-0.11474898 -0.02093491 0.14510612 0.14683999 -0.13771863 -0.08302377 0.14388458 -0.053768434
0.0114132315 0.04442571 -0.11853859 -0.11614762 0.08672449 -0.023103312 -0.053594515 0.13798375
0.014347091 -0.071152195 0.10117729 -0.052419588 -0.0725508 0.0018053949 -0.1513279 0.09597419
0.1378469 -0.004336074 -0.042502068 -0.1009434 -0.11338217 0.11117999 0.0819975 0.017502472
0.10355531 0.0073720813 0.102690235 0.089257374 0.014227822 -0.12840936 0.0021752864 -0.11689299
0.1336268 0.1179712 -0.15650198 -0.068925075 -0.06834301 0.12763192 0.12347491 -0.055159025
-0.08421431 -0.082045265 0.1528834 -0.12638582 0.013376296 0.13143142 -0.060087383 -0.018751279
-0.06635755 0.0047109127 0.073529646 -0.15078907 -0.10796854 0.030743212 0.021813348 -0.011732295
0.10618229 -0.014775321 -0.09328182 0.116810784 0.1479107 0.13849212 0.010161966 -0.11418961
-0.08063429 0.11915891 0.0044374466 -0.042330608 0.07322629 0.1401126 -0.09972188 0.14493458
0.121794894 0.12601484 0.15740322 -0.13535902 0.07707834 -0.05866576 -0.12230129 -0.097082034
-0.079434894 0.15114395 -0.007789731 -0.054237746 -0.0741437 -0.04909461 0.054510027 -0.11189599
00000000: 6a31 dc3d 00f9 353d 2382 bebd da95 b43d
00000010: 0ea9 f93d 6c60 4e3d 82e1 debd d51b 023e
00000020: 6ee3 14be 04a6 4a3d 6ac2 b13d 7367 143e
00000030: 1e83 65bd 80d7 103d 64de 58bd fc7f f5bd
00000040: ae4c f03d c138 01be d8b3 1e3d 2add 86bd
00000050: a91b 99bd 38cc 16be 9380 1a3e 3076 6e3d
00000060: b01e 03bc e2df e8bd cc4a f9bd 8cd3 94bd
00000070: c016 44bd 168f e63d b6bc d23d f064 3dbc
00000080: dc0f 06be f49f 873d 8ee7 fe3d c33e 01be
00000090: 60d3 e33c 7ae1 69bd 5a8e e63d 000a 93ba
000000a0: 90f4 e1bd 8e33 cf3d e4fc fcbd 065d bf3d
000000b0: 2efb 883d 63cf 0a3e 106d f8bd ae66 3bbd
000000c0: f22e ea3d becf 15be b074 d0bc 4404 373d
000000d0: 12bb 943d f429 13be f71c a9bd fa24 da3d
000000e0: 3a84 da3d d3c5 143e 2ff1 89bd f2df e73d
000000f0: 6adb b63d 2602 9bbd 2892 ebbd 69d2 9cbd
00000100: 5e68 3abd f61e d5bd a690 cb3d 1e89 ddbd
00000110: 098b d2bd f86b 9a3d b7bf 0ebe 337d 0fbe
00000120: 3039 653d 203c 8a3b 014c c6bd d2e7 f53d
00000130: 1233 2bbd 16ef bc3d a2b0 54bd 4bb6 e9bd
00000140: 4449 9c3d c8f5 4a3d 5b59 1a3e c858 83bc
00000150: a0a0 c7bc ade9 153e f918 0e3e 9846 e33c
00000160: 184c 343d 8428 5ebd 1ed1 ee3d 5096 0ebc
00000170: 2ced 103d 00d9 21bb dc66 48bd 2253 fd3d
00000180: 80a3 daba 7db4 0dbe dac6 e83d 5368 d6bd
00000190: d33a babd 1882 603d 506d cdbc 985b a6bc
000001a0: d468 0d3d 9dd2 ecbd 8427 353d d81e 66bd
000001b0: e80f 923d 007e cc39 d496 0abe d1e5 8fbd
000001c0: 4a6b e23d 769f 8e3d a3ac 103e 104f d7bc
000001d0: 32ca 4cbd 5016 a2bc 63c5 fdbd 1832 06bd
000001e0: c4f4 1abe 5cfc 01be d054 123d 4246 babd
000001f0: dcba c9bd 96e0 d63d 3670 f13d 407f 2d3b
00000200: 30b8 7bbc 824e 903d 415e 1cbe 6f6a 0c3e
00000210: 8077 2e3d 885a 363d 39a0 83bd 2038 9dbc
00000220: 00b2 8539 4031 90bb f03e 63bc aee2 903d
00000230: 746e ae3d 984b adbc 7055 643c fcbc b6bd
00000240: 583d febd b0c7 653d 1f5d a6bd dc65 d0bd
00000250: a94e 083e e86f 48bd b9ac bbbd c3fd b9bd
00000260: aa1c 29bd 2b34 0a3e aaec 8a3d 606f 0bbe
00000270: 9baa 8ebd 540a 93bd f67a 1fbd f4bb 0fbe
00000280: 8301 ebbd b07f abbc b396 143e 395d 163e
00000290: 1d06 0dbe 5e08 aabd 7b56 133e 4a3c 5cbd
000002a0: 90fe 3a3c bcf7 353d 5cc4 f2bd cede edbd
000002b0: 9c9c b13d 2843 bdbc ec85 5bbd 9d4b 0d3e
000002c0: 1010 6b3c 3eb8 91bd 0a36 cf3d ecb5 56bd
000002d0: 8495 94bd 00a3 ec3a b3f5 1abe 1e8e c43d
000002e0: bd27 0d3e a015 8ebb a616 2ebd 6abb cebd
000002f0: e934 e8bd 56b2 e33d 4eee a73d 5861 8f3c
00000300: ce14 d43d 8091 f13b 424f d23d 92cc b63d
00000310: d01b 693c be7d 03be 408f 0e3b 9865 efbd
00000320: 77d5 083e e29a f13d 0e42 20be 9728 8dbd
00000330: 6cf7 8bbd f1b1 023e 6ae0 fc3d 6eee 61bd
00000340: 8d78 acbd 5907 a8bd 778d 1c3e 496b 01be
00000350: 4028 5b3c f595 063e 301e 76bd 489c 99bc
00000360: 78e6 87bd 005e 9a3b b696 963d 7368 1abe
00000370: 9c1e ddbd 30d9 fb3c e8b1 b23c d038 40bc
00000380: 1a76 d93d 3014 72bc 8a0a bfbd 7e3a ef3d
00000390: e775 173e e1d0 0d3e 607e 263c 3edc e9bd
000003a0: 9723 a5bd 9609 f43d 0068 913b dc62 2dbd
000003b0: aaf7 953d ad79 0f3e fc3a ccbd bb69 143e
000003c0: 9a6f f93d 090a 013e 4f2e 213e 8e9b 0abe
000003d0: 40db 9d3d 824b 70bd 1979 fabd f2d2 c6bd
000003e0: c3ae a2bd 7bc5 1a3e 0041 ffbb 6628 5ebd
000003f0: a7d8 97bd 6e17 49bd e845 5f3d ba29 e5bd

transformer_encoder.encoder.feed_forward.fc1.bias f4 [256]
0.0055671036 0.0125493705 -0.07173975 0.035244495 0.14146332 -0.056716606 0.06576331 -0.14117135
0.09946565 -0.13228011 0.082285926 -0.10264164 0.12224139 0.052602082 -0.03405741 0.0076711327
0.042434737 0.05388026 0.019957513 0.055146813 0.0830086 0.15208866 0.01288797 0.05660197
0.020560756 0.112397864 -0.031464323 0.03267944 -0.08402804 -0.053972937 -0.010873511 0.14931838
-0.08431424 -0.056270964 0.08967383 -0.100463286 -0.09399036 -0.055683076 -0.10618021 0.028141588
0.07283248 -0.077947356 0.01508148 0.15348463 -0.104455225 -0.029202804 -0.033098564 -0.11839902
-0.12124169 -0.14225993 -0.07142769 0.014476344 -0.03200373 0.06928319 0.052429408 -0.04970734
-0.06984184 -0.06691589 -0.0019788444 -0.097901896 0.04904212 -0.082496874 0.14660446 -0.10866697
-0.06529636 -0.065659456 -0.036661595 0.022236839 0.04133211 -0.1386192 0.0104479045 0.096557334
-0.14361599 -0.08517453 -0.10292196 0.06273882 -0.014576629 -0.072786264 0.1300718 0.058292836
-0.09060656 -0.058160804 -0.13697831 0.0014617443 0.0716802 -0.017188951 0.11362682 0.025652647
0.1205823 0.0062268823 0.02380772 0.15193163 -0.039736576 0.11678417 0.15115748 0.002965331
0.112682715 -0.13656569 -0.039116323 -0.079434514 0.14538832 0.017052576 -0.057413027 -0.009548932
0.04734367 -0.054236725 -0.11106902 0.0823632 0.054368123 0.1398731 -0.10578867 0.04395762
0.084786534 0.04338357 -0.02735591 0.111286774 0.022594884 -0.098090604 -0.10243794 -0.07551085
-0.13988239 -0.13115205 0.013637081 0.07455884 -0.0007235408 0.057700202 0.10890342 -0.08994283
0.055676296 0.0065083206 -0.03557016 -0.12952182 0.06797241 0.14408283 -0.10725951 -0.083116844
0.13301565 0.104870304 0.043749943 0.00828594 0.14421163 0.010318726 -0.14788686 -0.11746722
0.007511899 -0.014749497 0.025575832 0.0431678 -0.07684145 0.10244994 0.0958841 0.039763153
-0.060821787 -0.108725876 -0.017016128 0.14595668 -0.042860627 0.11082153 0.03755179 -0.047450952
0.011794478 0.010341063 0.10529666 -0.13554431 -0.06526831 0.094977334 -0.018127024 -0.07635625
0.11562152 -0.036754273 -0.047621585 -0.052455097 -0.07500263 0.14355595 0.0033553988 -0.1079351
0.022338092 -0.029305011 -0.029553562 -0.06316539 0.044401735 0.07535188 0.14329056 -0.14173102
-0.021624759 -0.11480452 0.06469445 0.15601091 0.06575385 -0.09067221 -0.14387801 -0.10747115
0.038864 -0.120878614 0.07709208 0.10846765 -0.13098796 -0.044798322 0.034215495 0.017975524
-0.10631266 -0.14683479 0.0244181 -0.033563837 -0.011046797 -0.0029845536 0.104871854 0.036862344
-0.04453294 0.0074997395 0.13534959 0.054610476 0.015010923 -0.042500712 0.032737 -0.07116622
-0.14941636 0.08735596 -0.14436796 -0.07824617 0.07957479 0.14244677 0.00952363 -0.046985276
-0.12024835 -0.026077256 -0.08037469 0.09572421 0.05892244 0.04337941 -0.07907534 -0.097497
0.03154467 -0.009370923 0.09487383 -0.06007749 -0.0017226338 -0.097938925 -0.1343763 0.07230049
-0.09400983 0.148021 -0.067629404 -0.07262299 -0.14002374 -0.15196007 0.017528623 -0.09502117
0.115215346 0.081808284 0.031642914 -0.053139925 0.03101395 0.08878906 0.11545493 -0.09848872
00000000: 406c b63b e09b 4d3c 4aec 92bd 885c 103d
00000010: c3db 103e ac4f 68bd eaae 863d 398f 10be
00000020: a6b4 cb3d 7074 07be 8685 a83d c835 d2bd
00000030: b259 fa3d 4875 573d c87f 0bbd 205e fb3b
00000040: 0cd0 2d3d 8cb1 5c3d f07d a33c a0e1 613d
00000050: 6a00 aa3d 21bd 1b3e 1028 533c 78d7 673d
00000060: 086f a83c da30 e63d bce0 00bd e0da 053d
00000070: e516 acbd ba12 5dbd d026 32bc ebe6 183e
00000080: f2ac acbd 627c 66bd eaa6 b73d b2bf cdbd
00000090: 057e c0bd f013 64bd 0375 d9bd 3089 e63c
000000a0: 3229 953d dda2 9fbd 5018 773c 132b 1d3e
000000b0: 9fec d5bd b83a efbc 5c92 07bd 2f7b f2bd
000000c0: 904d f8bd 96ac 11be ae48 92bd 302e 6d3c
000000d0: 5816 03bd 58e4 8d3d 38c0 563d ec99 4bbd
000000e0: 3d09 8fbd 330b 89bd 80af 01bb ca80 c8bd
000000f0: 64e0 483d 1ff4 a8bd 7b1f 163e ca8c debd
00000100: 19ba 85bd 7778 86bd 782a 16bd 082a b63c
00000110: dc4b 293d 31f2 0dbe b02d 2b3c dabf c53d
00000120: 1210 13be fc6f aebd c0c8 d2bd 367d 803d
00000130: d0d2 6ebc f710 95bd 8b31 053e 78c4 6e3d
00000140: ef8f b9bd 063a 6ebd 0b44 0cbe 0098 bf3a
00000150: 12cd 923d d8cf 8cbc 2eb5 e83d 8025 d23c
00000160: daf3 f63d e00a cc3b 6808 c33c f793 1b3e
00000170: d2c2 22bd 8a2c ef3d 07c9 1a3e 0056 423b
00000180: 32c6 e63d e0d7 0bbe 7038 20bd 90ae a2bd
00000190: ade0 143e d8b1 8b3c ec29 6bbd 2073 1cbc
000001a0: 70eb 413d 5427 5ebd 2878 e3bd 0aae a83d
000001b0: 1cb1 5e3d e53a 0f3e bba7 d8bd e80c 343d
000001c0: 90a4 ad3d f8b2 313d 8019 e0bc 52ea e33d
000001d0: e818 b93c bae3 c8bd fcca d1bd 6fa5 9abd
000001e0: 543d 0fbe b94c 06be 106e 5f3c 4eb2 983d
000001f0: 00ac 3dba 0c57 6c3d c208 df3d f233 b8bd
00000200: d40c 643d c043 d53b 04b2 11bd 5ea1 04be
00000210: 1e35 8b3d 738a 133e e0aa dbbd 2a39 aabd
00000220: 4135 083e 3ec6 d63d 2433 333d c0c1 073c
00000230: 37ac 133e e00f 293c a76f 17be a792 f0bd
00000240: 6026 f63b e0a7 71bc 6884 d13c b8d0 303d
00000250: 0d5f 9dbd 46d1 d13d e25e c43d b0de 223d
00000260: 4420 79bd acab debd 6865 8bbc ab75 153e
00000270: a08e 2fbd 66f6 e23d e8cf 193d ee5b 42bd
00000280: a03d 413c 906d 293c c6a5 d73d 21cc 0abe
00000290: 64ab 85bd 7a83 c23d 207f 94bc aa60 9cbd
000002a0: faca ec3d a68b 16bd da0e 43bd 28db 56bd
000002b0: fb9a 99bd 5500 133e 40e6 5b3b 140d ddbd
000002c0: 60fe b63c 1011 f0bc 501a f2bc db5c 81bd
000002d0: 98de 353d 1652 9a3d c3ba 123e f021 11be
000002e0: 6826 b1bc a21e ebbd 867e 843d 53c1 1f3e
000002f0: f4a9 863d 5ab2 b9bd c254 13be d619 dcbd
00000300: dc2f 1f3d 358f f7bd 74e2 9d3d 4a24 de3d
00000310: b521 06be 727e 37bd 8c25 0c3d 6841 933c
00000320: 74ba d9bd dc5b 16be 7808 c83c 3c7a 09bd
00000330: a0fd 34bc 8098 43bb 0ec7 d63d f8fc 163d
00000340: 2c68 36bd 60c0 f53b 1599 0a3e 3caf 5f3d
00000350: 60f0 753c 3a15 2ebd 3c17 063d 98bf 91bd
00000360: 9a00 19be aee7 b23d 32d5 13be 873f a0bd
00000370: 1cf8 a23d 91dd 113e 0009 1c3c a273 40bd
00000380: c444 f6bd f89f d5bc 7c9b a4bd 0e0b c43d
00000390: a858 713d 9cae 313d 40f2 a1bd 82ac c7bd
000003a0: fc34 013d 8088 19bc 364d c23d d013 76bd
000003b0: 00ca e1ba 3494 c8bd f199 09be 4812 943d
000003c0: 3a88 c0bd d192 173e 4981 8abd 5dbb 94bd
000003d0: 6262 0fbe 6c9b 1bbe 3098 8f3c 769a c2bd
000003e0: 06f6 eb3d 1a8b a73d 009c 013d 40a9 59bd
000003f0: f810 fe3c 0ad7 b53d a273 ec3d 74b4 c9bd

transformer_encoder.encoder.feed_forward.fc2.weight f4 [40, 256]
0.0621098 -0.05403495 -0.046501994 -0.06179142 -0.057048477 0.018128939 -0.025360242 -0.04217515
-0.058679216 0.032648683 -0.036575176 0.051425457 -0.015902437 0.016910888 -0.05433625 -0.0094542205
0.03667713 -0.0162929 0.021700434 -0.048092417 -0.028677896 -0.049267255 -0.016356543 -0.021670349
-0.026605904 -0.041042186 0.051736772 0.005763486 0.04067444 -0.018519484 -0.0503712 -0.0090333745
-0.01044596 -0.023552291 -0.0355592 -0.03730669 -0.018217765 -0.037421092 -0.019009791 -0.005212538
-0.011563145 0.022919603 0.050209485 0.013936698 0.056059413 0.018040888 0.022032209 0.017215356
0.057980992 0.051708624 -0.009848237 0.009991787 -0.056878954 -0.059204742 0.05276653 -0.047888324
-0.011481173 -0.023434944 0.019214325 -0.046620227 0.024731584 -0.04499224 0.047320187 0.056170702
0.0069740117 -0.040591404 -0.052187428 -0.029188022 0.039057657 0.05670289 0.041375175 0.05690115
-0.050582543 -0.045883216 0.027415462 0.008648589 -0.056162387 -0.05888959 -0.029213302 -0.045825325
0.009479262 0.025145113 -0.007558435 -0.009461157 -0.016123205 -0.032063663 -0.003035985 0.015604973
-0.0024289861 0.041867293 -0.042756125 0.048577137 0.02864676 0.024755359 0.025251247 -0.029943153
0.006688498 0.052228577 -0.04748769 -0.044413432 0.004076138 0.018037654 0.0074283183 0.00085870177
0.052392058 -0.03913994 -0.014858343 0.044400305 -0.050154105 -0.023024485 -0.0027574226 0.022329524
0.05658914 0.0060297996 0.011645108 0.052323557 0.04908891 -0.05886977 0.023925446 -0.042844802
0.050126396 0.057672076 0.02367197 -0.008629113 -0.008817233 0.038917296 0.06033951 -0.0029121414
-1.1332333e-05 -0.06098894 -0.031093612 -0.045984596 0.03326931 0.023298971 0.03021311 0.058909327
-0.000107087195 0.055607848 0.03714692 -0.059996404 0.014152609 0.05186253 -0.03145621 -0.03068623
-0.0073823184 -0.04168482 0.028451592 0.051317587 0.014003351 0.0137209 0.026569165 0.062480748
0.05237264 -0.027406052 0.0037991107 0.009905033 -0.030598037 0.030753717 0.04700581 0.033755504
0.016171172 0.06057609 0.014536478 0.011624381 -0.057129078 0.05109586 -0.0006485209 -0.004115939
-0.004967414 -0.060399666 0.04304643 -0.027103312 0.05013185 0.05758489 -0.061462477 0.026892945
-0.0107155815 -0.02663865 -0.061699793 -0.0084977 0.03433197 -0.0031073391 0.026579857 -0.0009459406
0.04951383 0.014345668 0.052479155 -0.032120645 0.05753524 -0.056158558 -0.026003502 0.026292786
-0.057434022 0.05443792 0.0072132275 -0.056112267 0.0047835857 -0.00034790486 -0.035213433 0.026922546
-0.05535829 -0.02803249 0.039823025 -0.027956598 0.038799122 -0.01098799 -0.06012787 -0.0037728027
0.026792668 -0.009819716 0.02465555 -0.022638872 0.041938826 0.054170042 -0.05232332 0.049964137
0.03127493 -0.037445597 -0.0002413243 0.05096253 0.0055238605 0.044863574 0.010618322 0.0007253587
-0.055225506 -0.04196857 0.04570102 0.00878486 0.0063719153 0.022444457 0.031952083 0.06141775
-0.054772712 0.060943 0.0421149 0.05762551 0.043735176 0.0019959062 0.049037196 0.01384826
-0.026641116 -0.0241981 0.050600305 -0.029386371 -0.057985365 0.038258873 -0.022914127 -0.058039792
0.005238056 -0.044245854 -0.0549917 -0.0145064 0.051887117 0.047914542 -0.018219471 0.027885437
00000000: d866 7e3d c053 5dbd e078 3ebd 0019 7dbd
00000010: aaab 69bd 2483 943c 48c0 cfbc dabf 2cbd
00000020: 9e59 70bd a0ba 053d dacf 15bd 80a3 523d
00000030: d445 82bc b488 8a3c b08f 5ebd e0e5 1abc
00000040: c23a 163d b078 85bc 1cc5 b13c 8efc 44bd
00000050: e8ed eabc 76cc 49bd 28fe 85bc 0486 b1bc
00000060: a0f4 d9bc da1b 28bd f0e9 533d a0db bc3b
00000070: 3e9a 263d 2cb6 97bc 0852 4ebd b800 14bc
00000080: 8825 2bbc bcf0 c0bc 86a6 11bd e6ce 18bd
00000090: 6c3d 95bc dc46 19bd 6cba 9bbc f0cd aabb
000000a0: 5873 3dbc e4c1 bb3c 76a8 4d3d c056 643c
000000b0: 8e9e 653d 7cca 933c e47c b43c 3807 8d3c
000000c0: 7a7d 6d3d 6ccc 533d 805a 21bc 98b4 233c
000000d0: e8f9 68bd ac80 72bd b821 583d 8c26 44bd
000000e0: 881b 3cbc a4fa bfbc 5c67 9d3c daf4 3ebd
000000f0: e499 ca3c c849 38bd d0d2 413d 4013 663d
00000100: 4086 e43b 2c43 26bd 7cc2 55bd b81b efbc
00000110: ecfa 1f3d 4a41 683d 0479 293d 2e11 693d
00000120: a42f 4fbd 0af0 3bbd 6496 e03c d0b2 0d3c
00000130: 880a 66bd 3636 71bd bc50 efbc 56b3 3bbd
00000140: e84e 1b3c 20fd cd3c c0ac f7bb f802 1bbc
00000150: d014 84bc 3055 03bd 60f7 46bb 00ac 7f3c
00000160: a02f 1fbb 0a7d 2b3d 0c21 2fbd d2f8 463d
00000170: 9cac ea3c c0cb ca3c b4db ce3c 584b f5bc
00000180: 302b db3b a2ed 553d 7482 42bd dcea 35bd
00000190: 2091 853b b4c3 933c 4069 f33b 801a 613a
000001a0: 0e99 563d 3451 20bd 6870 73bc 18dd 353d
000001b0: 646e 4dbd d89d bcbc e0b5 34bb 68ec b63c
000001c0: 04ca 673d a095 c53b 20cb 3e3c 3a51 563d
000001d0: 7411 493d 6e21 71bd 4cff c33c 087e 2fbd
000001e0: 5651 4d3d 8e39 6c3d b8eb c13c 2061 0dbc
000001f0: 2876 10bc be67 1f3d 9026 773d a0d9 3ebb
00000200: 0020 3eb7 8acf 79bd 08b8 febc 585a 3cbd
00000210: 6645 083d 7cdd be3c 7c81 f73c e84a 713d
00000220: 0094 e0b8 0ec5 633d 5e27 183d cabe 75bd
00000230: 58e0 673c ce6d 543d 3ad8 00bd b061 fbbc
00000240: 60e7 f1bb b4bd 2abd 5013 e93c 6432 523d
00000250: 506e 653c a0cd 603c 94a7 d93c d0eb 7f3d
00000260: b284 563d a882 e0bc 80fa 783b b848 223c
00000270: bca8 fabc 38ef fb3c 2a89 403d 3643 0a3d
00000280: 6879 843c a21e 783d 682a 6e3c 3074 3e3c
00000290: 2e00 6abd e449 513d 8001 2aba 00df 86bb
000002a0: b0c5 a2bb a465 77bd 7451 303d c407 debc
000002b0: 0e57 4d3d 22de 6b3d 14c0 7bbd 984e dc3c
000002c0: 6890 2fbc 4c39 dabc ecb8 7cbd f039 0bbc
000002d0: ae9f 0c3d 80a4 4bbb 00be d93c 00f9 77ba
000002e0: 04cf 4a3d 180a 6b3c 62f4 563d f090 03bd
000002f0: 12aa 6b3d 8406 66bd 4c05 d5bc f863 d73c
00000300: f03f 6bbd 4cfa 5e3d f05c ec3b fad5 65bd
00000310: a0bf 9c3b 0067 b6b9 f63b 10bd ac8c dc3c
00000320: 60bf 62bd 64a4 e5bc 781d 233d 3c05 e5bc
00000330: d4eb 1e3d f806 34bc a448 76bd 2041 77bb
00000340: 4c7c db3c e0e2 20bc 70fa c93c 2875 b9bc
00000350: 0cc8 2b3d 68e1 5d3d fa50 56bd 32a7 4c3d
00000360: 241a 003d 8e60 19bd 000c 7db9 16be 503d
00000370: 8001 b53b dec2 373d 78f8 2d3c 0026 3e3a
00000380: 2434 62bd 3ce7 2bbd fe30 3b3d 60ee 0f3c
00000390: 80cb d03b 70dd b73c 30e0 023d 2e91 7b3d
000003a0: 5a59 60bd 5e9f 793d ac80 2c3d ba08 6c3d
000003b0: a823 333d c0cd 023b 3adb 483d d0e3 623c
000003c0: 783e dabc 183b c6bc 4442 4f3d b0bb f0bc
000003d0: 1082 6dbd 56b5 1c3d 68b6 bbbc 22bb 6dbd
000003e0: 00a4 ab3b 243b 35bd fa3e 61bd 40ac 6dbc
000003f0: 9687 543d 0a42 443d 0041 95bc 0070 e43c

transformer_encoder.encoder.feed_forward.fc2.bias f4 [40]
0.014452189 -0.05322749 -0.03752008 0.058668837 0.061021924 0.03082811 -0.0030700043 -0.010481581
0.0526949 -0.009656921 0.007736586 0.040105768 0.05644598 0.060839303 0.005244054 -0.015259437
0.014563814 0.033470318 0.011315294 0.011585869 -0.049371466 0.024364144 -0.037683234 -0.061960243
-0.05755519 -0.040334858 0.018266387 0.012159646 -0.040139556 0.04326321 -0.04317449 0.040371105
-0.045748442 -0.030998185 -0.003284648 0.055584945 -0.028036594 -0.023830451 0.023806483 -0.010052696
00000000: e0c8 6c3c 1205 5abd a8ae 19bd bc4e 703d
00000010: 20f2 793d 3c8b fc3c 2032 49bb f0ba 2bbc
00000020: 9cd6 573d 1038 1ebc 3083 fd3b f245 243d
00000030: e633 673d a232 793d 50d6 ab3b b802 7abc
00000040: 109d 6e3c 2c18 093d c863 393c a8d2 3d3c
00000050: bc39 4abd 5097 c73c bc59 1abd 06ca 7dbd
00000060: febe 6bbd 2a36 25bd 64a3 953c 4039 473c
00000070: 6069 24bd c434 313d bcd7 30bd 2c5c 253d
00000080: b862 3bbd e8ef fdbc 4043 57bb 0aad 633d
00000090: 00ad e5bc 1438 c3bc d005 c33c 10b4 24bc
