simple2transformer/param/net_param/la30_critic_net.model (torch, 232127 bytes, 33 tensors)

transformer_encoder.encoder.attention.fc_Q.weight f4 [40, 40]
000000 f4 14 76 3d 2e 27 c1 bd fc 47 5e 3d 0c b2 1c bd
       0.060078576 -0.09431301 0.05426787 -0.038255736
000010 c8 00 92 bc b2 62 29 bd 04 de 26 3d e0 ec 61 bc
       -0.017822638 -0.04135389 0.040739074 -0.013789386
000020 10 cf c4 bc d1 b4 03 3e bc ce ed bd 5e a6 cc 3d
       -0.024024516 0.12861945 -0.11611697 0.099926695
000030 40 a6 1a 3b d0 8e 73 3c 1e d1 06 be 7c f7 7b bd
       0.0023597628 0.014865592 -0.1316571 -0.061515316
000040 08 01 a8 bc e1 c4 15 be 40 5f a6 bc 2c fd a1 3d
       -0.020508304 -0.14625885 -0.02030909 0.07909617
000050 00 c8 43 39 7a 9e 8a 3d 48 bf ab bc e7 51 11 3e
       0.00018671155 0.06768508 -0.020965233 0.141914
000060 d5 95 9f bd 9e de c4 3d a2 31 21 be 00 29 75 3b
       -0.0779225 0.09612773 -0.1574159 0.003740847
000070 70 8a 74 3d 60 76 b4 3d d0 6c 23 3d 76 98 11 be
       0.059702337 0.08811641 0.039898694 -0.14218315
000080 2f 9d 18 3e 24 cf 51 3d 9c a1 61 3d 14 03 70 3d
       0.14903711 0.051222935 0.055085763 0.058596686
000090 0e a7 ca 3d b8 63 2f bd 62 9f bc 3d 60 fd c8 3b
       0.098951444 -0.04281971 0.09210087 0.0061337203
0000a0 a4 17 0b be a8 df 1c 3d 49 30 00 3e b4 8c fd bd
       -0.13583237 0.038299233 0.1251842 -0.123803526
0000b0 98 d7 84 3c 29 91 9e bd 80 29 64 bb be 43 33 bd
       0.016216084 -0.07742531 -0.0034814775 -0.043765776
0000c0 c0 35 7b 3c ec 1e 36 3d f4 b3 47 bd f8 01 e8 3c
       0.015332639 0.044463083 -0.0487556 0.028321251
0000d0 0d 43 1c be d0 0b 92 3c 60 1c cd bb b3 6f 0a 3e
       -0.15259953 0.017827898 -0.006259486 0.13519172
0000e0 30 cd ab 3d b4 62 8b 3d 26 79 c6 3d f0 78 7f 3d
       0.08388746 0.068059355 0.09691076 0.062371194
0000f0 da 73 d8 bd 5f c3 0b 3e e0 50 8b bc 50 dc d6 3c
       -0.10568972 0.13648747 -0.017006338 0.0262281
000100 c2 62 f0 3d 6f fb 9e bd 00 14 35 b9 49 4c 19 be
       0.117375866 -0.07762801 -0.00017268956 -0.14970507
000110 52 b5 ce 3d fc 83 cb bd b0 44 9b 3c 67 8b 9d bd
       0.10093178 -0.099372834 0.018953651 -0.076926045
000120 a2 05 c8 bd c8 2b 0c 3d f1 27 20 3e 98 cd ba 3d
       -0.097666994 0.03422144 0.15640236 0.09121245
000130 10 8b 38 bd 10 80 39 bc 7b 4a 16 3e 3b 27 16 3e
       -0.045054495 -0.011322036 0.1467685 0.14663403
000140 78 6c ed bc 24 b7 0c be 0b f5 10 3e 88 fd 14 bd
       -0.028982386 -0.13741738 0.14155976 -0.0363746
000150 10 83 c0 bc a7 94 17 3e 00 29 00 be ac 6b 37 bd
       -0.023499995 0.148028 -0.1251564 -0.04478042
000160 a7 ca 17 3e 8a fa f9 3d 03 49 12 be 50 4a a8 bc
       0.148234 0.1220599 -0.14285664 -0.020543247
000170 20 f9 51 bc ff 73 20 be 38 2f 42 bd 86 32 b0 3d
       -0.012815744 -0.15669249 -0.047408313 0.086033866
000180 79 6d d9 bd e8 54 fc bc 40 36 f1 3b 3e 59 95 bd
       -0.106165834 -0.030802205 0.0073612034 -0.07292412
000190 00 ca a9 3a a4 6c 0f be 48 a0 8b 3c f8 a8 6e 3d
       0.0012953877 -0.14006287 0.017044201 0.05826661
0001a0 7a 6a e8 3d 62 03 ce 3d 00 24 7d 3c cd 62 d6 bd
       0.11348434 0.10059239 0.015450478 -0.104680635
0001b0 40 f3 66 3b a8 64 06 be e3 b7 1c 3e 2a 4e f1 3d
       0.0035240203 -0.13124335 0.15304522 0.11782487
0001c0 a6 37 f9 3d 4e 8f f8 3d c4 0a 01 be 78 c5 6e 3d
       0.12168817 0.12136708 -0.12601763 0.05829379
0001d0 ce eb f5 3d f1 80 1e 3e c0 15 ef 3c 10 a8 89 bc
       0.12007867 0.15478875 0.029185176 -0.016803771
0001e0 90 2d 4b 3c a0 37 ae bb 22 03 d6 bd b8 ab 09 3d
       0.012401 -0.0053166896 -0.10449816 0.03361103
0001f0 31 6a 04 3e 56 2d 10 be 12 df c9 3d d0 06 65 bc
       0.12931134 -0.14079794 0.098570004 -0.013978675
000200 f4 88 b7 3d c0 c3 20 3c e4 4b 6e 3d 55 b6 21 be
       0.089616686 0.009812295 0.058177844 -0.1579221
000210 94 05 81 3d a8 3b f6 bd bb b1 9c bd c0 22 c5 3c
       0.06299892 -0.12023097 -0.07651087 0.024064422
000220 c2 fa f9 3d 72 b3 03 be 80 82 9c 3a 41 66 b8 bd
       0.122060314 -0.12861422 0.0011940747 -0.090038784
000230 d0 76 c0 3c c3 fd 0e be 9c 88 06 3d 6e 08 ff 3d
       0.023494154 -0.1396399 0.032845125 0.1245278
000240 80 5a 14 3d c0 91 1c 3b d0 b3 b7 3d 4a 43 ea 3d
       0.03621912 0.0023890585 0.089698434 0.114386156
000250 64 94 ae 3d 22 8c 1b bd 1e c8 ed 3d 08 4b ea bc
       0.08524397 -0.037975438 0.11610435 -0.02860023
000260 d0 d9 5e 3c a0 9d 0b bc 60 d5 58 bd 2a 73 04 be
       0.013601735 -0.008521467 -0.052937865 -0.12934557
000270 40 e0 9f bc b4 c5 27 3d c8 87 74 3d 7e c6 8b 3d
       -0.01951611 0.04096003 0.059699804 0.06824969
000280 ea e7 c4 3d 4e a5 c2 bd 60 4f 2e 3d 63 5e 19 3e
       0.096145466 -0.095041856 0.042556167 0.14977412
000290 9c 1b 14 be 1c 7d 42 bd 0f 15 19 be c6 d1 b2 3d
       -0.14463657 -0.047482595 -0.1494944 0.08731417
0002a0 c6 45 e7 3d 7a fa 3c bd bb d5 13 be de a0 f9 bd
       0.11292605 -0.04613731 -0.14437 -0.12188886
0002b0 00 4a 42 3d 98 24 e5 3c 4e 68 f5 3d 66 98 1d be
       0.047433853 0.02797155 0.11982785 -0.15390167
0002c0 98 21 92 bc 10 31 ba bc c0 89 3f 3c 85 97 1a 3e
       -0.017838284 -0.022728473 0.011690557 0.15096863
0002d0 b5 ea 1b be 8e f0 be 3d 75 8e e4 bd da 2a 08 bd
       -0.15226252 0.09323226 -0.11159984 -0.03324399
0002e0 55 bc af bd d8 4e 2b bd bc ca 9a 3d a0 ef 85 3d
       -0.08580843 -0.041823238 0.075582 0.065398455
0002f0 fd 91 0e 3e 7a 21 ff 3d db 90 1a 3e c0 71 0e 3c
       0.13922878 0.12457557 0.1509432 0.008694112
000300 1e 89 aa 3d a8 21 e4 bd 20 2a d4 bc a0 9b 2d bc
       0.08326934 -0.11139232 -0.025898993 -0.010596186
000310 1a a5 ce 3d 98 3c e2 bc 36 fd 1d be cf 4c 1f 3e
       0.100900844 -0.027616784 -0.15428624 0.15556644
000320 64 ee e4 bd 5f 09 18 3e d2 86 b1 3d c3 6a 0b 3e
       -0.11178282 0.14847325 0.08668293 0.13614945
000330 ab cb 01 be 3e db f5 3d 5f 13 12 3e 5c 3d 39 3d
       -0.1267535 0.12004708 0.14265202 0.045224532
000340 80 38 82 3c 30 56 0a be a0 25 49 3d 24 81 28 3d
       0.015896082 -0.1350944 0.049108148 0.041138783
000350 e9 fa b3 bd 1c c4 42 bd 60 99 94 bb da f4 c1 3d
       -0.08788092 -0.047550306 -0.0045348853 0.0947053
000360 35 bf 14 be 7b 43 06 3e db dd 0f be d2 76 fe 3d
       -0.14526065 0.1311168 -0.14049475 0.12425007
000370 e0 39 69 3d 23 b0 0f be a0 de 01 be 84 4d 01 3d
       0.05693996 -0.14032035 -0.12682581 0.031568065
000380 14 1f be bd 80 20 bd 3a 18 ca af bc 1f 3d 87 bd
       -0.092832714 0.0014429241 -0.02145867 -0.06603455
000390 09 8f 84 bd 30 e9 2f 3c ae 91 e4 3d 73 e3 21 3e
       -0.06472594 0.010736749 0.11160599 0.15809421
0003a0 91 a8 16 be 12 fd eb 3d b2 f9 f2 bd 83 ee 87 bd
       -0.1471274 0.11522879 -0.11864032 -0.066372894
0003b0 e5 0d 10 3e fb 7b 0f 3e 4d 8f 00 be c6 27 c6 bd
       0.140678 0.14012139 -0.12554665 -0.09675555
0003c0 4c 5c 50 3d 00 cf 84 3d 2e 19 b0 3d 1e d7 3f bd
       0.05086927 0.064847946 0.08598553 -0.04683601
0003d0 f2 da f7 3d ba 65 19 be 5c 4e b8 bd 30 aa 95 bc
       0.121023074 -0.14980212 -0.08999321 -0.018269628
0003e0 98 4f 76 3d 2c eb 99 3d 14 f1 2a bd 33 7f 0a be
       0.0601345 0.075155586 -0.041733816 -0.13525085
0003f0 ac 13 19 3d 83 11 02 3e 00 2a f0 bc 89 78 11 3e
       0.037372276 0.12701993 -0.029316902 0.14206137

transformer_encoder.encoder.attention.fc_Q.bias f4 [40]
000000 4c 76 4b 3d b8 8d f0 bc 94 e7 0a bd f6 d2 ef 3d
       0.049673364 -0.029364452 -0.033912256 0.117101595
000010 d7 68 20 be 3a f5 fd 3d 3c 7e 4b bd 4e be fa 3d
       -0.15664993 0.12400289 -0.049680933 0.12243329
000020 c6 74 cd bd c8 83 c3 3c 45 2e 20 3e 78 d4 58 bd
       -0.100320384 0.02386655 0.1564265 -0.052937
000030 ac d7 af 3d 5c af 1c 3d 7a 2a 90 3d 2a d0 e2 3d
       0.08586058 0.038253173 0.07039352 0.110748604
000040 0b c0 da bd 28 a7 13 bd f6 28 32 bd 02 c8 20 bd
       -0.106811605 -0.036048084 -0.043496095 -0.039253242
000050 c8 79 ad 3d 60 da 49 3c 80 4c 00 bc 76 76 d8 3d
       0.084704936 0.012320131 -0.007830739 0.1056947
000060 38 28 17 3d 22 3a 69 bd 74 6a 86 bd 38 6e af 3d
       0.03690359 -0.056940205 -0.06563273 0.085659444
000070 1b 61 1c be ee 74 45 bd 62 5b 89 3d c0 fc e4 3c
       -0.15271418 -0.048207216 0.06706883 0.027952552
000080 19 d2 ff bd b6 17 cf 3d 6c 18 1a bd 85 d4 c5 bd
       -0.12491245 0.101119444 -0.037620947 -0.096596755
000090 e4 e8 e0 bd 12 c6 f9 3d 28 bf 9f bc 4d 79 01 be
       -0.1098192 0.12195982 -0.01950033 -0.12643929

transformer_encoder.encoder.attention.fc_K.weight f4 [40, 40]
000000 a8 f1 ef 3c a0 b9 0a be e8 62 05 bd 42 57 87 bd
       0.029290035 -0.13547373 -0.032565027 -0.0660844
000010 c0 6f 0b 3b 3c 6e f1 bd a5 b8 1e 3e 98 fc ad 3c
       0.0021276325 -0.11788604 0.15500124 0.02123861
000020 a4 f3 1c 3d 76 3f e7 3d 2a 50 d9 bd 0a 42 ba 3d
       0.03831829 0.11291401 -0.10610993 0.09094627
000030 87 09 0b 3e 52 90 4b bd 0a fa a1 bd a0 7c f9 bb
       0.13577853 -0.04969818 -0.07909019 -0.0076137334
000040 aa c8 8c 3d 09 38 02 be 8a fb a2 3d e6 b9 07 bd
       0.06874211 -0.12716688 0.079581335 -0.03313627
000050 00 20 e6 3a d3 e4 20 3e 19 a7 0a 3e 76 d6 0a bd
       0.0017557144 0.1571229 0.13540305 -0.033895932
000060 94 9b 13 bd c6 4c 04 be c8 22 ce bc a3 c7 07 be
       -0.036037043 -0.12919912 -0.02516307 -0.13259749
000070 1f be ee bd 84 cc e4 bd c8 a0 f7 3c 00 fb 8b ba
       -0.116573565 -0.11171821 0.030228034 -0.0010679662
000080 88 1a df bd a8 38 0f bd b1 2b 05 3e fe 33 ca bd
       -0.10893732 -0.03496614 0.13004948 -0.09873198
000090 8f 4f 15 3e 10 d6 15 bc a0 87 16 3c a6 a8 c1 3d
       0.1458113 -0.009145275 0.009187609 0.09455995
0000a0 47 4e 07 3e 18 77 b3 3d 8b c0 0e 3e b2 39 13 be
       0.13213454 0.0876295 0.13940637 -0.14377478
0000b0 05 62 15 3e 3c 31 07 bd fd c7 04 be 4c 1b 41 bd
       0.14588173 -0.033005938 -0.12966914 -0.047145173
0000c0 2e b6 e3 3d 80 04 00 3d 80 28 49 3d 0f a5 05 3e
       0.111187324 0.03125429 0.04911089 0.13051246
0000d0 80 2c a4 3d 04 70 51 3d ca 6d b7 3d c0 03 e5 bd
       0.080163 0.051132217 0.089564875 -0.11182356
0000e0 ac 7a 80 bd 39 0d a4 bd 20 88 50 bd 38 c2 7e bd
       -0.06273398 -0.080103345 -0.05091107 -0.06219694
0000f0 b0 0f 37 3c a0 47 0b 3d 5e 84 f9 bd 08 2a cf bc
       0.011173174 0.034003854 -0.1218345 -0.025288597
000100 70 80 22 bd c2 21 e3 bd b2 a8 f5 3d 06 e4 96 3d
       -0.03967327 -0.11090423 0.11995067 0.07367711
000110 28 58 68 3d 9f 9f 1d 3e ee 3e e9 bd 80 b1 d7 3b
       0.056724697 0.15392922 -0.11388956 0.006582439
000120 20 ae 65 bd 40 14 72 bc dc ba f0 bd 92 d6 0c be
       -0.05607426 -0.014775336 -0.117543906 -0.13753727
000130 52 e7 0b be a2 22 9f bd ce 9f 1e be 4a 0c 9a 3d
       -0.1366246 -0.077702776 -0.15490648 0.07521875
000140 ea fe ff 3d 44 01 b9 bd c0 c4 d2 bc 9a 71 f2 3d
       0.12499793 -0.090334445 -0.025728583 0.11838074
000150 3a 9c fc 3d 90 c1 50 bc e2 44 c9 3d 98 04 f9 bc
       0.12334485 -0.012741461 0.098275915 -0.030397698
000160 70 03 ef 3c b1 5b 0e 3e 6e 90 cf 3d 6e b8 e9 bd
       0.029176444 0.13902165 0.1013497 -0.1141213
000170 21 1d c7 bd 4c b8 a8 3d c8 c5 14 bd 00 38 6f bd
       -0.09722353 0.08238277 -0.03632143 -0.058403015
000180 c0 dd 4d 3d 28 bc 0e 3d 0c cf d1 bd 1c ef 2d 3d
       0.050260305 0.03484741 -0.10244569 0.04246436
000190 b8 5c 22 bd c2 5b 73 bd ff 63 17 be 1e 34 61 bd
       -0.039639205 -0.05941368 -0.14784239 -0.054981343
0001a0 32 7d de bd d4 7a 3c 3d ee c3 a4 3d 32 bc dc 3d
       -0.10863723 0.046015576 0.08045183 0.10778083
0001b0 f3 ee 1d be bd 79 02 3e 3b d0 01 3e de 4a ab 3d
       -0.15423183 0.12741752 0.1267709 0.08363889
0001c0 88 a5 9d bd d4 7e 65 bd 40 db 55 bc e2 9f c8 bd
       -0.07697588 -0.056029156 -0.013052762 -0.0979612
0001d0 c2 9d ce 3d 3c e3 1e be 89 97 bd bd d2 33 f8 bd
       0.10088684 -0.1551637 -0.09257419 -0.12119259
0001e0 c0 26 4b bc 64 5d 63 3d 2e 6d 04 be 70 53 4a 3c
       -0.012399375 0.055508986 -0.12932274 0.012348995
0001f0 60 39 99 3d c2 b8 34 bd c8 99 a2 3c 50 70 ff 3c
       0.074816465 -0.04412151 0.01984872 0.031181484
000200 50 36 ce bc 33 1b 05 3e 5a 78 f3 3d 7d 1b 07 3e
       -0.025172383 0.12998657 0.118881896 0.1319408
000210 6e c8 fc 3d d8 07 e9 bd f8 5b ca bd b0 6b 52 3c
       0.123429164 -0.11378449 -0.09880823 0.0128430575
000220 6d aa b4 bd e8 5a de bd 3e 38 cd bd 68 c4 f1 bd
       -0.08821569 -0.10857183 -0.10020493 -0.1180504
000230 f3 04 05 3e cc 17 61 3d 34 0b 82 3d a1 78 0d 3e
       0.12990169 0.054954335 0.06349793 0.13815548
000240 2a 31 b6 3d c8 b5 a5 3c 55 d2 00 3e ef e0 0f 3e
       0.08896096 0.020228282 0.12580235 0.14050649
000250 53 db c6 bd 12 b9 d0 3d 00 3c 69 39 65 f2 18 3e
       -0.097098015 0.10191549 0.00022242963 0.14936216
000260 06 66 ea 3d 6f ce 06 be 90 5e 8a 3c 2c c7 00 3d
       0.11445241 -0.13164686 0.016890794 0.031439945
000270 fc 20 e4 bd 00 11 0c 3d 42 bd 07 be 79 28 21 3e
       -0.11139104 0.0341959 -0.1325579 0.15738095
000280 02 f1 f1 3d 84 e9 15 3d f2 1f be 3d 38 3e 78 bd
       0.11813547 0.03659965 0.09283437 -0.06060621
000290 52 a5 63 bd 72 2c e9 bd ae 26 f9 3d e8 4e da 3c
       -0.055577584 -0.113854304 0.12165581 0.026648954
0002a0 c8 bf 42 bd f6 15 0e be 83 81 07 3e a0 66 5a 3c
       -0.047546178 -0.13875565 0.13232999 0.013330132
0002b0 80 ee b4 3a 7a c0 05 be 20 94 0f 3c a9 54 a4 bd
       0.0013803989 -0.13061705 0.008763343 -0.0802396
0002c0 ce 55 05 be b0 75 f9 3c 9c df 85 bd de 76 d9 3d
       -0.13021013 0.030451626 -0.06536791 0.10618375
0002d0 02 e0 20 be 0c 40 86 3d 52 28 01 be 54 5a 52 bd
       -0.15710452 0.06555185 -0.12613037 -0.051355675
0002e0 6d 66 03 3e 0c e2 74 3d 26 eb 0d bd 84 c1 01 3d
       0.12832041 0.059785888 -0.034648083 0.03167869
0002f0 70 79 6d 3d fa f1 fa bd ba e7 c9 3d 00 d3 f6 bc
       0.05797714 -0.122531846 0.098586515 -0.03012991
000300 50 52 13 3d 96 91 89 bd 0e 41 ff 3d 84 e7 a4 3d
       0.03596717 -0.067172214 0.1246358 0.080519706
000310 70 51 9e 3c be 10 fb 3d e4 a4 03 bd a4 96 0a 3d
       0.019325942 0.12259053 -0.032139674 0.03383507
000320 b8 51 e8 bc c9 51 e0 bd 88 93 98 3d 00 1c c3 b9
       -0.028359279 -0.10953099 0.07450014 -0.0003721416
000330 c2 68 c6 3d 57 8e 20 3e 7c 56 31 3d ca 58 c9 3d
       0.0968795 0.15679298 0.04329537 0.09831388
000340 6e 38 e5 bd b4 02 9d bd 78 78 12 3d 7c 03 2e 3d
       -0.11192404 -0.07666531 0.03575942 0.04248379
000350 ba 50 a6 bd 70 fc 7a 3d 1f 51 08 3e d8 8c 2b 3d
       -0.08120866 0.0612759 0.13312195 0.041882366
000360 68 86 69 bd 68 da 70 bd 84 62 86 bd c0 3b a0 3d
       -0.057012945 -0.05880204 -0.06561759 0.078238964
000370 0e 35 1f bd c8 06 17 3d 08 ef 42 3d 0c d5 2b 3d
       -0.038868956 0.0368717 0.04759124 0.041951224
000380 61 b2 8f bd e0 0d 2b bd a6 e1 44 bd 5b e4 be bd
       -0.07016445 -0.04176128 -0.048066758 -0.09320899
000390 9c 52 16 bd 50 ab 2b 3d e2 cd b4 3d f7 cc a4 bd
       -0.036699876 0.041911423 0.088283315 -0.080469064
0003a0 54 0b fd bd d0 ba 7e 3d 5e 9b 0f be 56 9a f5 3d
       -0.12355676 0.062189877 -0.14024112 0.11992328
0003b0 6c b8 96 3d fc 7d da bd 08 ca de bd a8 43 b0 3d
       0.073593944 -0.10668561 -0.10878378 0.086066544
0003c0 34 5b b9 3d 74 57 0b be 00 4f 40 3c b0 c5 0e bc
       0.09050599 -0.1360758 0.011737585 -0.008714125
0003d0 82 c2 8a 3d ae 2c f8 3d f2 98 84 bd 8e 92 e9 3d
       0.06775381 0.12117897 -0.064744845 0.11404906
0003e0 00 63 4a 3b ed af 03 be 96 79 b7 3d 48 61 f9 3c
       0.0030881763 -0.12860079 0.089587376 0.030441895
0003f0 c4 83 5a 3d 40 6d a8 3c d1 bc 1b 3e 00 af c9 3a
       0.053348318 0.020559907 0.15208746 0.0015387237

transformer_encoder.encoder.attention.fc_K.bias f4 [40]
000000 87 d0 1d 3e aa fe 89 3d 16 be 20 be 31 bd 0c 3e
       0.15411578 0.067380264 -0.15697512 0.13744046
000010 3e 51 1d be 2d 11 c1 bd 76 9b b9 3d 20 7b e7 bd
       -0.15363023 -0.09427104 0.09062855 -0.11302781
000020 22 88 c8 3d 10 dd f9 bc 65 ad 0a 3e e0 51 90 bc
       0.0979159 -0.030500919 0.13542707 -0.017617166
000030 38 c8 3b 3d 1e 73 d7 3d 80 10 9b bb b2 78 cf 3d
       0.04584524 0.10520004 -0.0047321916 0.10130443
000040 78 ac a7 bc d4 04 e7 bd 02 91 f2 3d f4 26 72 3d
       -0.020467982 -0.11280218 0.11844064 0.05911918
000050 c0 de 71 3c 30 dd 28 3c 96 fb f9 3d 4b 81 0a 3e
       0.01476258 0.010306641 0.12206189 0.13525884
000060 e6 e4 c6 bd e8 63 cf bc 4b 4d d7 bd 40 75 50 bc
       -0.09711628 -0.025316194 -0.10512789 -0.012723267
000070 62 6f 81 3d 78 b4 96 3d 10 4e 2a bd 86 5a bd 3d
       0.06320073 0.073586404 -0.041578352 0.092457816
000080 4d 0d 8f bd d0 30 da bc 94 2c 61 3d 28 46 c5 3c
       -0.06984959 -0.026634604 0.054974154 0.024081305
000090 10 8d d3 bc f0 93 33 bc c7 66 21 3e 50 39 7e bc
       -0.0258241 -0.010960564 0.15761863 -0.015516594

transformer_encoder.encoder.attention.fc_V.weight f4 [40, 40]
000000 58 0e e0 bc 8c e9 b5 3d a2 03 f5 3d 18 94 14 be
       -0.02735059 0.08882436 0.119635835 -0.14509618
000010 fc 9f 04 3d 40 64 66 bc 92 cc d2 3d 15 fc 8a bd
       0.032379135 -0.014061987 0.10292925 -0.06786362
000020 e6 0c e8 3d 70 40 05 3d d0 a6 3f bc c0 9f 6b 3c
       0.11330585 0.032532156 -0.011697486 0.014381349
000030 dc 0c 89 3d 20 63 5d 3d 76 dd ed bd a6 fc ab bd
       0.06691906 0.05404961 -0.11614506 -0.08397798
000040 a2 1e 78 bd fa e6 5a bd c2 61 e5 bd 02 ca 07 be
       -0.06057609 -0.053442933 -0.112002864 -0.13260654
000050 19 ae 12 3e 2c 2f 61 bd 48 c0 da bd 72 db ed bd
       0.14324225 -0.054976627 -0.10681206 -0.116141215
000060 a0 1e ac bd 86 70 1f bd 61 d3 12 3e 3f 15 b9 bd
       -0.08404279 -0.03892567 0.14338447 -0.090372555
000070 01 cf 1c be 34 ae 38 bd 89 48 9e bd d0 0e e3 bd
       -0.1531334 -0.045088008 -0.07728679 -0.1108681
000080 c3 ae 95 bd 80 67 ae 3d d8 ab fc 3c 16 2b e5 bd
       -0.07308724 0.08515835 0.03084366 -0.111898586
000090 c8 ee b8 3c 88 46 00 bd f0 c6 2e bc 18 75 50 3d
       0.022574797 -0.031317264 -0.010667548 0.05089292
0000a0 6c 53 14 bd 9d 00 0f 3e 80 da e9 ba 2c 62 16 be
       -0.03621237 0.13965078 -0.0017841607 -0.14685887
0000b0 3c 6f 59 3d aa 6c 1c be 9a ee 03 be d8 f9 01 3d
       0.053084597 -0.15275827 -0.12883988 0.03173241
0000c0 29 be 12 3e bf 6b 93 bd 6c 7b e4 bd 44 bd 1f be
       0.14330353 -0.07198285 -0.11156353 -0.15599543
0000d0 c6 db e5 3d df 40 1d be 5c a0 a8 3d bf 3a 20 3e
       0.11223559 -0.15356778 0.08233711 0.1564741
0000e0 1e cc d4 3d 9e 71 36 bd c6 29 89 3d 3d 3f 19 3e
       0.10390495 -0.044541948 0.06697421 0.1496553
0000f0 9c 6e 48 3d 5e 11 d8 3d a0 18 c7 bb 56 df f4 3d
       0.04893361 0.105501875 -0.0060759336 0.119566604
000100 7b ea f1 bd a8 d0 f1 bd e8 0a b8 3c d3 68 11 3e
       -0.11812302 -0.11807376 0.022466138 0.14200144
000110 60 8b 96 bc 80 7b ad bc 5e e3 00 be 4c 58 a8 3d
       -0.018377006 -0.021177053 -0.12586734 0.08219966
000120 e2 6f c1 bd 3a d5 cc bd f8 5f 57 bd c7 d9 09 be
       -0.09445168 -0.10001607 -0.052581757 -0.13461982
000130 99 93 17 be 6d 3a d0 bd 34 09 12 be 3a 1d 03 be
       -0.14802398 -0.10167394 -0.14261323 -0.12804118
000140 65 da f8 bd 32 93 ac 3d 2a 16 fe bd 35 a1 de bd
       -0.121510305 0.08426513 -0.12406571 -0.108705916
000150 40 dd e4 3b 6a 90 af bd 30 fb ec 3c db 35 15 3e
       0.006984383 -0.08572467 0.02892837 0.14571325
000160 50 1a 2f 3d 20 48 b0 3b 8c ee 1d 3d 64 fc 89 3d
       0.042749703 0.0053796917 0.038557574 0.06737593
000170 35 f7 1b 3e ec d7 34 3d b4 9b 4d 3d fe a5 a1 3d
       0.15231021 0.04415123 0.05019732 0.078929886
000180 19 72 0d 3e 48 bb 07 be 5e 71 c5 3d 40 cb 67 3b
       0.13813056 -0.13255036 0.09640764 0.003536895
000190 80 81 ca 3c b0 15 8a 3c 50 4f 17 bc 33 d8 0e be
       0.024719954 0.016856045 -0.009235218 -0.13949661
0001a0 d8 d0 44 bd 97 23 07 3e 55 c9 1f 3e d2 ac f4 3d
       -0.04805073 0.1319717 0.15604146 0.11947025
0001b0 08 af c2 bc eb c8 13 3e 05 da b3 bd 5c b9 a6 3d
       -0.023765102 0.14432113 -0.08781818 0.08140823
0001c0 cc f6 7c 3d 00 22 aa bc 36 fa be 3d 63 7b 21 be
       0.0617588 -0.020768166 0.09325068 -0.15769725
0001d0 1e 5b f3 3d de c3 f0 bd b0 72 fb 3c e6 b0 ef 3d
       0.118826136 -0.11756109 0.030694336 0.117036626
0001e0 92 ca 8c 3d d1 65 13 3e 36 d0 81 3d 58 04 b2 bc
       0.06874575 0.14394309 0.06338541 -0.021730587
0001f0 8a 68 97 bd 5c a0 8d 3d 8c 57 70 3d b8 8b 92 bc
       -0.07392986 0.06915352 0.05867724 -0.017888889
000200 5c 9d ad 3d 00 db 9c ba 9b d3 89 bd 5c 78 ed bd
       0.084772795 -0.0011967123 -0.06729814 -0.11595222
000210 2c 08 e0 bd ca d4 f7 3d b0 5b e0 3c 37 09 0b be
       -0.10939059 0.12101133 0.02738747 -0.13577734
000220 70 75 ce bd 60 3d fe 3c 6b e5 10 be 64 6a 37 3d
       -0.10080993 0.031035125 -0.14150016 0.044779196
000230 80 8a c0 ba c4 d9 ad bd f2 b8 99 bd c0 c2 3e 3d
       -0.0014689714 -0.08488801 -0.07505979 0.046572447
000240 c2 b7 14 be 9c 8a e7 bd fe e4 e5 3d 13 c1 1b 3e
       -0.14523223 -0.113057345 0.112253174 0.1521037
000250 16 7c e5 3d 86 eb f9 3d 7e cd 83 3d d2 fe e5 3d
       0.11205308 0.12203126 0.06435679 0.11230244
000260 3a 72 fc 3d f4 cd 1d 3d 32 84 a1 3d cd e9 b4 bd
       0.123264745 0.03852649 0.078865424 -0.088336565
000270 22 28 e9 3d c6 07 1f be 02 05 0c bd 6b 7d 1d 3e
       0.11384608 -0.15530309 -0.034184463 0.15379874
000280 5a d2 89 3d bb 54 13 3e 32 fd cd 3d f6 ca e1 3d
       0.067295745 0.14387791 0.10058059 0.1102504
000290 99 70 15 3e f4 2d 14 bd 12 66 76 bd 40 fd 0d bc
       0.14593734 -0.036176637 -0.060155936 -0.008666337
0002a0 5e 22 de bd 12 41 be 3d ac 0b 04 be 60 af ee 3c
       -0.10846399 0.09289755 -0.12895077 0.02913636
0002b0 f8 12 d4 3c 7c e9 55 3d 5e 40 a0 bd 20 50 48 bc
       0.025887951 0.05222462 -0.07824777 -0.012226135
0002c0 00 f7 4f 3a 16 1e 9a 3d 7c 7c b2 3d 01 c6 20 be
       0.0007933229 0.0752527 0.0871515 -0.15700532
0002d0 30 3f 57 3d 7b df 0a be 70 30 ef 3c 2b 77 c6 bd
       0.052550495 -0.13561814 0.029197901 -0.09690698
0002e0 a1 cd 1f be 96 6b 1b be 8c 02 a4 bd ac 1f 30 bd
       -0.15605785 -0.1517776 -0.08008298 -0.042998955
0002f0 87 d0 00 be e0 50 cc bd 8a 97 c4 bd fc 2c f0 bd
       -0.12579547 -0.09976363 -0.09599216 -0.1172733
000300 9e 5b c8 3d 68 13 e4 bd 38 14 83 bc 85 eb 02 be
       0.097830996 -0.11136514 -0.016000852 -0.12785156
000310 20 85 eb 3b 7c fd 49 3d fc 30 53 3d c3 6e 02 be
       0.0071875006 0.049314007 0.051560387 -0.12737565
000320 f1 ed be bd 8b 0b 01 3e 62 33 9d 3d d6 10 8b 3d
       -0.093227275 0.1260206 0.07675816 0.067903206
000330 4e 24 d1 3d 26 db ed bd 15 59 1f 3e ec a1 40 bd
       0.10212003 -0.11614065 0.15561326 -0.04702942
000340 f8 48 a2 3c 08 5b b9 3c 5f 13 b6 bd c2 0a f8 3d
       0.019810185 0.022626415 -0.088904135 0.12111427
000350 88 91 dd 3c 9e 7c 90 3d a8 b7 9e bc 30 a2 09 3c
       0.027046934 0.07055019 -0.019374683 0.008400485
000360 00 5a d7 bd 9d b7 0f 3e 85 d7 06 3e 5c d9 96 bd
       -0.10515213 0.14034887 0.13168152 -0.07365677
000370 19 f9 14 be 90 4f 8f 3d 48 80 1c bd 2c 19 02 bd
       -0.14548148 0.06997597 -0.038208276 -0.031762287
000380 be 5e d2 3d e9 71 06 be 64 f6 7d bd a7 cc 19 3e
       0.10271977 -0.13129391 -0.062002555 0.15019475
000390 b4 13 5b 3d 78 ed 14 bd 70 cf 09 3d 80 a7 2f 3c
       0.053485587 -0.03635928 0.033645093 0.010721087
0003a0 91 cb 90 bd be 6a 0b be 9c e8 02 bd 46 92 16 be
       -0.07070077 -0.13614938 -0.031960115 -0.14704236
0003b0 92 47 c7 bd a6 6b 8b 3d b7 84 c4 bd 0f a2 02 3e
       -0.09730448 0.06807642 -0.09595626 0.12757133
0003c0 97 f1 0c 3e 87 52 10 3e 18 b8 f1 bc 20 c2 c2 bc
       0.13764034 0.14093982 -0.029506728 -0.023774207
0003d0 a0 23 bf 3b c1 d6 1a be 60 af 0b 3d 50 c9 43 bc
       0.0058331043 -0.15120985 0.034102798 -0.011949852
0003e0 67 a4 b3 bd 69 80 93 bd a3 03 13 3e f6 0a f5 bd
       -0.08771592 -0.07202227 0.14356856 -0.11964981
0003f0 80 47 1b 3b 00 ab cb bd 98 fa fa 3c 24 33 50 bd
       0.002369374 -0.09944725 0.03063707 -0.05083002

transformer_encoder.encoder.attention.fc_V.bias f4 [40]
000000 96 97 6a bd ef 6b 04 3e 5e aa 06 be 98 0c da bd
       -0.05727347 0.12931798 -0.13150927 -0.10646933
000010 cf 27 90 bd 10 5e 4c 3c 76 96 d9 3d 8e 77 ce 3d
       -0.07038843 0.012473598 0.10624401 0.10081397
000020 5e 7f e7 3d fe 26 de bd 4c 6e b1 3d 72 69 ed bd
       0.1130359 -0.10847281 0.086636156 -0.11592378
000030 2c df 09 3d 44 9e 54 bd c0 ce 84 3d f9 84 1e 3e
       0.0336601 -0.051908746 0.06484747 0.15480413
000040 40 72 c7 bb 70 9b 60 3c 30 0f 37 bc 00 30 df 38
       -0.0060866177 0.013708934 -0.011173055 0.00010642409
000050 34 7a cd bd 61 93 15 3e 78 89 29 bd cd f9 05 be
       -0.10033074 0.14607002 -0.041390866 -0.13083573
000060 90 be 52 bc c1 df 00 3e 5b a5 8f bd b2 65 7d bd
       -0.012862816 0.12585355 -0.07013961 -0.061864562
000070 e3 ea 07 3e 78 64 f7 bd ac 20 11 bd 94 8c 2f 3d
       0.13273196 -0.1207971 -0.03543155 0.042858675
000080 14 f8 92 3d 00 29 47 3c f7 47 10 be d8 2f 76 3d
       0.071762234 0.012155771 -0.14089952 0.06010422
000090 00 44 4e bc 70 3a 92 3d 1b 51 01 3e 5a 8b a8 3d
       -0.012589455 0.07140052 0.12628596 0.08229704

transformer_encoder.encoder.attention.fc.weight f4 [40, 40]
000000 dd 2d 15 be 30 25 00 bd c8 14 05 be 29 8c ed bd
       -0.14568277 -0.031285465 -0.12996209 -0.11598999
000010 4d 24 ba bd 24 cc a4 3d a6 6f a3 3d bb 1e 9f bd
       -0.09088955 0.08046749 0.079802796 -0.07769533
000020 ae 76 c8 3d 0a 37 e2 bd b7 c4 05 3e 73 25 df bd
       0.09788261 -0.11045654 0.13063322 -0.10895815
000030 22 33 81 3d 24 80 1b be cc 9b 9c 3d 44 82 6e 3d
       0.06308581 -0.151856 0.076469034 0.0582297
000040 ba 0e d4 3d 46 87 11 be be 55 fc bd e0 d2 a3 3b
       0.10354371 -0.14211759 -0.123210415 0.0049995035
000050 40 0c 75 3d 06 c2 61 bd d1 93 0e 3e bc 20 17 be
       0.059826136 -0.055116676 0.13923575 -0.14758581
000060 87 91 0b 3e de 40 88 3d 4a c8 37 bd a5 55 10 3e
       0.13629733 0.066529974 -0.044868745 0.14095171
000070 a8 09 c4 3c e8 6d 54 3d 40 67 8d 3c 47 9a 82 bd
       0.023930386 0.051862627 0.017261147 -0.06377082
000080 d2 4b 9e 3d ea e6 70 bd c3 31 07 be f7 9a 1b be
       0.07729305 -0.058813967 -0.13202576 -0.15195833
000090 96 b4 cb 3d 84 e1 dc bd 20 ce ec 3c 7f 5f b5 bd
       0.099465534 -0.10785201 0.028906882 -0.08856105
0000a0 d8 3f 1a be 17 da b0 bd b0 94 7f bc 5a ab 82 3d
       -0.15063417 -0.08635347 -0.015599415 0.06380339
0000b0 16 b9 e1 3d 8c 5e 53 bd ca 31 f1 3d 88 57 cb bc
       0.110216305 -0.05160384 0.11777075 -0.024822012
0000c0 6f f9 16 3e a0 97 4e 3d 79 f6 b8 bd 9a 5e 7d bd
       0.14743589 0.05043757 -0.09031386 -0.061857797
0000d0 b1 32 07 3e 08 fb fa bc 7b 45 02 3e 60 1e b9 3b
       0.13202931 -0.03063728 0.12721817 0.005649373
0000e0 2b 61 a4 bd ef b1 0d 3e 60 43 a3 3c b0 41 81 bd
       -0.08026346 0.13837408 0.019929588 -0.06311357
0000f0 a6 22 52 bd f8 03 50 3d f0 37 2d bc 50 f8 a3 bd
       -0.051302575 0.050785035 -0.010572419 -0.08006346
000100 96 f4 17 be 5d 97 18 be 4c d9 46 3d e2 3d e9 3d
       -0.14839396 -0.1490149 0.048547074 0.11388756
000110 f8 aa 97 3c f9 dc 10 3e 20 34 91 3c 1c fd 63 bd
       0.018514141 0.14146794 0.01772505 -0.055661306
000120 e5 4e 0f 3e 54 5d ab 3d 97 bf 18 3e c6 3a a3 3d
       0.1399494 0.0836741 0.14916836 0.079701945
000130 13 ce 19 3e f4 89 6e bd 43 ed 1a be ee 9d bd bd
       0.15020017 -0.05823703 -0.1512957 -0.09258638
000140 e6 4f a3 3d 1c 25 16 3d 4c d4 29 3d 15 49 16 3e
       0.07974224 0.036656484 0.041462228 0.14676316
000150 11 63 0a 3e 60 27 e2 bc 61 09 13 3e f4 a9 7b 3d
       0.13514353 -0.027606666 0.14359047 0.061441377
000160 4e 7d 0d bd e8 cf e3 bc 0a 9f e8 3d 8a c1 06 be
       -0.034543328 -0.027809098 0.11358459 -0.13159767
000170 e7 d6 92 bd 60 8a 03 be 35 aa 82 bd 63 cd 01 3e
       -0.071698956 -0.12845755 -0.06380121 0.12676005
000180 04 5b 12 3d f0 5c a8 3d ec d9 e0 bd 16 a7 c7 bd
       0.03573133 0.082208514 -0.10979065 -0.09748666
000190 88 38 f7 bd 51 81 ae bd 98 20 89 bd 31 af 21 be
       -0.12071329 -0.08520759 -0.0669567 -0.15789486
0001a0 a2 da e0 bd d0 e9 35 3c 9d d9 1e 3e 18 a1 4d 3d
       -0.10979201 0.0111031085 0.155127 0.05020246
0001b0 27 3f cf bd f6 42 e1 3d 5e 07 05 be e2 fa cb 3d
       -0.10119467 0.109991 -0.12991092 0.099599615
0001c0 78 95 a1 3c e2 3b ca bd a1 22 17 be 2b 31 df bd
       0.019724593 -0.09874703 -0.14759304 -0.1089805
0001d0 36 95 e8 3d fa 15 3b bd f8 8d 9e 3c b4 fa 4d 3d
       0.11356585 -0.045675255 0.019354805 0.050287917
0001e0 dc 3d 46 3d 80 67 82 3d 40 1c 9d bc dd a9 b6 bd
       0.048398837 0.06367397 -0.01917851 -0.089191176
0001f0 f9 a4 11 be 3e 0b 17 be 90 54 b9 3c b8 aa 65 3d
       -0.14223088 -0.14750382 0.02262333 0.056071013
000200 00 2b 78 3a 67 8e 17 3e d2 29 fb 3d b9 a3 fc bd
       0.0009466857 0.14800416 0.12263836 -0.12335915
000210 f8 1c bf bc 8a 03 cf 3d ae b6 be 3d 0b 94 1d 3e
       -0.023329243 0.10108097 0.09312187 0.15388505
000220 d0 fd 99 bd e9 ad 1a 3e a0 f4 be bc 57 fc 04 be
       -0.07519114 0.15105404 -0.023310006 -0.12986885
000230 3b ab 21 3e ef e0 18 3e 64 4e 2c bd dc b7 87 3d
       0.15787975 0.14929555 -0.042066947 0.06626865
000240 20 aa 1a bd 60 99 f7 bb 22 ec c1 3d 30 4c 06 bc
       -0.0377599 -0.0075561255 0.09468867 -0.008196875
000250 67 ce 0f 3e 50 d8 03 bc 4c e9 b0 3d 0a 3d cb 3d
       0.1404358 -0.008047178 0.08638248 0.09923752
000260 87 df 00 3e 00 84 13 bd 50 69 01 3d 6e 7c a6 3d
       0.12585269 -0.036014557 0.031594574 0.08129202
000270 70 03 95 3d e2 58 2e bd e6 1a a1 3d c6 2f 92 3d
       0.07276046 -0.042565234 0.078664586 0.07138018
000280 1f 56 1c be f2 0a f2 bd c4 98 e4 bd e7 94 11 3e
       -0.15267228 -0.11818494 -0.1116195 0.14216958
000290 a4 d3 09 3d 0a 4b c0 3d 00 32 83 3d b9 aa 94 bd
       0.0336491 0.093893126 0.06406021 -0.07259125
0002a0 6a ed e0 3d 70 4b b5 3d 98 e4 a9 3c 8c 57 6e 3d
       0.10982783 0.08852279 0.020738885 0.05818896
0002b0 a0 15 18 3d f3 1b 1f 3e f9 d9 01 be fa 3d 6a bd
       0.03713 0.15538006 -0.12680806 -0.05718801
0002c0 38 7e 91 bc 80 d7 c4 3c 00 e3 6c bb d2 2b df 3d
       -0.017760381 0.02402854 -0.0036146045 0.1089703
0002d0 bf 9f 0d 3e 20 6c 94 bc 28 48 31 3d 1d 04 20 be
       0.1383047 -0.018117964 0.043281704 -0.15626569
0002e0 54 11 82 3d 2b 1c 06 be a1 1c 0f 3e 61 c2 00 3e
       0.06350961 -0.13096683 0.13975765 0.1257415
0002f0 d8 6f 94 3d 6f cd 1e 3e 00 62 99 bc 50 c9 e0 bc
       0.07247895 0.15508054 -0.018723488 -0.027439743
000300 5a 05 f8 3d 06 0a d8 bd ea c3 10 bd dc 44 eb bd
       0.12110396 -0.10548787 -0.03534309 -0.11487743
000310 11 73 09 3e ec a5 91 3d d8 4f 57 3d 94 eb 25 bd
       0.134228 0.07111725 0.05256638 -0.040507868
000320 80 0e f0 bb 14 98 04 3d 7a e5 10 bd 63 7f 04 be
       -0.0073259473 0.032371596 -0.035375096 -0.12939219
000330 20 db 34 bc 33 8d bd bd ce 55 fd 3d a7 35 1e 3e
       -0.011038572 -0.09255447 0.123698816 0.15450154
000340 ba 0a f8 3d d7 2e 12 be 85 1c 1f 3e fe c4 b8 bd
       0.12111421 -0.1427568 0.15538223 -0.09021948
000350 94 b2 6c 3d c0 ca c7 bc 80 03 d5 bd 1e f6 57 bd
       0.057787493 -0.02438867 -0.10401058 -0.05272495
000360 dd 15 16 3e 44 20 10 3d c7 cd 00 3e 8f 34 b2 bd
       0.14656778 0.03518702 0.12578498 -0.08701431
000370 40 6e 13 bc e2 86 9e 3d ce 08 ef 3d 24 f2 a7 bd
       -0.008998454 0.077405706 0.11671601 -0.082004815
000380 80 58 88 3d c0 c8 7f 3c 50 49 0f bc 0c 54 36 3d
       0.06657505 0.015611827 -0.008745506 0.044513747
000390 23 df 0e 3e a0 23 9d bb f2 45 1e bd 02 ed d0 3d
       0.13952307 -0.0047955066 -0.038640924 0.10201456
0003a0 8b f0 15 3e 40 9f c9 bc 64 b1 8a 3d 68 50 24 3d
       0.14642541 -0.02461207 0.06772116 0.040115744
0003b0 00 6b 1d bd 62 e5 c7 3d 70 47 88 3c f8 5a f7 bd
       -0.03843212 0.09760548 0.016635627 -0.12077898
0003c0 65 85 1f 3e 16 ed b0 3d c2 ae cb 3d 9a c0 84 3d
       0.1557823 0.086389706 0.09945442 0.06482048
0003d0 dc 6f 74 bd 2f 7c 88 bd b0 ed 90 3c e0 70 68 bc
       -0.05967699 -0.06664311 0.017691463 -0.014187068
0003e0 0b d6 97 bd c0 64 c2 bc 37 72 f1 bd d2 b0 86 3d
       -0.07413872 -0.023729682 -0.11789363 0.065766945
0003f0 e0 de fb bb 71 0d a8 bd 69 3e 08 3e 40 23 67 bb
       -0.007686481 -0.08205689 0.13305058 -0.0035268813

transformer_encoder.encoder.attention.fc.bias f4 [40]
000000 cc 0c 06 bd ca bc e9 3d e2 73 cc bd d2 b0 f5 3d
       -0.032727048 0.11412962 -0.099830404 0.119966164
000010 94 c0 0d bd ae 4d cf bd da c5 d7 3d e0 9f ae bd
       -0.034607485 -0.10122238 0.10535784 -0.085265875
000020 02 05 ef 3d 8c e9 1a bd 5c dc 92 3d a4 e1 5c 3d
       0.11670877 -0.037820384 0.071709365 0.053926125
000030 68 cd fd bc 80 5f 22 3c 48 88 2f 3d 20 4e 68 bc
       -0.030981734 0.009910464 0.042854577 -0.014178783
000040 88 cc 4d 3d 8e a1 a4 3d 80 ff 32 3b 3e d3 91 3d
       0.050243884 0.080386266 0.0027312934 0.071203694
000050 c0 1f 98 bc b8 f9 30 3d 38 5b b4 bd 64 63 07 3d
       -0.018569827 0.0432069 -0.08806461 0.03305377
000060 ac 91 82 bd 00 42 e8 ba 80 5e ff bb ce de 18 bd
       -0.06375441 -0.0017719865 -0.0077932477 -0.037321858
000070 c6 7b 10 be 09 af d0 bd 43 fb ae bd 7a 41 8a 3d
       -0.14109716 -0.10189635 -0.08544018 0.0675077
000080 50 ba 82 bc 44 83 a9 bd 6e bf 10 be d9 43 0b be
       -0.015957981 -0.0827699 -0.14135525 -0.136001
000090 42 ce ff 3d ca 74 f2 bd c8 2b 7f 3d 30 10 71 bd
       0.124905124 -0.11838682 0.062297612 -0.05885333

transformer_encoder.encoder.attention.layer_norm.weight f4 [40]
000000 00 00 80 3f 00 00 80 3f 00 00 80 3f 00 00 80 3f
       1.0 1.0 1.0 1.0
000010 00 00 80 3f 00 00 80 3f 00 00 80 3f 00 00 80 3f
       1.0 1.0 1.0 1.0
000020 00 00 80 3f 00 00 80 3f 00 00 80 3f 00 00 80 3f
       1.0 1.0 1.0 1.0
000030 00 00 80 3f 00 00 80 3f 00 00 80 3f 00 00 80 3f
       1.0 1.0 1.0 1.0
000040 00 00 80 3f 00 00 80 3f 00 00 80 3f 00 00 80 3f
       1.0 1.0 1.0 1.0
000050 00 00 80 3f 00 00 80 3f 00 00 80 3f 00 00 80 3f
       1.0 1.0 1.0 1.0
000060 00 00 80 3f 00 00 80 3f 00 00 80 3f 00 00 80 3f
       1.0 1.0 1.0 1.0
000070 00 00 80 3f 00 00 80 3f 00 00 80 3f 00 00 80 3f
       1.0 1.0 1.0 1.0
000080 00 00 80 3f 00 00 80 3f 00 00 80 3f 00 00 80 3f
       1.0 1.0 1.0 1.0
000090 00 00 80 3f 00 00 80 3f 00 00 80 3f 00 00 80 3f
       1.0 1.0 1.0 1.0

transformer_encoder.encoder.attention.layer_norm.bias f4 [40]
000000 00 00 00 00 00 00 00 00 00 00 00 00 00 00 00 00
       0.0 0.0 0.0 0.0
000010 00 00 00 00 00 00 00 00 00 00 00 00 00 00 00 00
       0.0 0.0 0.0 0.0
000020 00 00 00 00 00 00 00 00 00 00 00 00 00 00 00 00
       0.0 0.0 0.0 0.0
000030 00 00 00 00 00 00 00 00 00 00 00 00 00 00 00 00
       0.0 0.0 0.0 0.0
000040 00 00 00 00 00 00 00 00 00 00 00 00 00 00 00 00
       0.0 0.0 0.0 0.0
000050 00 00 00 00 00 00 00 00 00 00 00 00 00 00 00 00
       0.0 0.0 0.0 0.0
000060 00 00 00 00 00 00 00 00 00 00 00 00 00 00 00 00
       0.0 0.0 0.0 0.0
000070 00 00 00 00 00 00 00 00 00 00 00 00 00 00 00 00
       0.0 0.0 0.0 0.0
000080 00 00 00 00 00 00 00 00 00 00 00 00 00 00 00 00
       0.0 0.0 0.0 0.0
000090 00 00 00 00 00 00 00 00 00 00 00 00 00 00 00 00
       0.0 0.0 0.0 0.0

transformer_encoder.encoder.feed_forward.fc1.weight f4 [256, 40]
000000 f3 0b 04 3e 25 02 d3 bd 5f af 08 3e 80 33 a8 3d
       0.12895183 -0.103031434 0.13348149 0.08212948
000010 ef 5f a7 bd 9e 5d f9 3d 42 69 0c bd 58 17 90 bc
       -0.08172595 0.12176059 -0.03428007 -0.017589256
000020 aa 6e 78 bd 32 ed 01 be e0 cf 01 be 66 dd c1 3d
       -0.060652412 -0.12688139 -0.12676954 0.094660565
000030 52 1a ab 3d 1c 23 cb bd 76 9b 8d bd ea c4 a6 bd
       0.083546296 -0.09918806 -0.069144174 -0.08143027
000040 40 29 f3 bc f1 9d 90 bd c2 89 0a bd 1c df 52 3d
       -0.029682755 -0.07061375 -0.033822782 0.051482305
000050 3c dd e2 bd 60 d7 22 3d 10 5d 09 bd 1e 24 fa 3d
       -0.11077353 0.03975618 -0.033536017 0.1221392
000060 58 eb b0 3d 07 3c 19 3e 95 ce b5 bd 63 96 0b 3e
       0.08638638 0.14964305 -0.08877293 0.13631587
000070 ac 6e 13 be 30 b4 e7 bd be 70 fb 3d b6 d3 c0 3d
       -0.14397687 -0.11313665 0.12277363 0.09415381
000080 da 1d cd 3d be 7b 1c be 12 a0 b4 bd 44 59 49 bd
       0.10015459 -0.15281579 -0.088195935 -0.049157396
000090 f5 a3 c3 bd 0a 67 7d bd 17 cc a5 bd 1c c8 bc bd
       -0.09552757 -0.061865844 -0.08095568 -0.09217855
0000a0 2c 82 38 bd 3e 94 0a be 6c 71 43 bd 7f b1 1b be
       -0.045046017 -0.13533112 -0.04771559 -0.15204428
0000b0 ec b5 29 3d ca 88 38 bd 8b c9 0b 3e 04 be 91 bd
       0.04143326 -0.045052327 0.13651101 -0.07116321
0000c0 5a 97 e3 3d 60 1e 70 3d 89 55 1e be e0 80 12 3c
       0.111128524 0.058622718 -0.15462317 0.008941859
0000d0 f8 41 77 3d f4 91 2c 3d 20 f1 6b bd a7 e5 0b 3e
       0.060365647 0.04213138 -0.057603 0.13661824
0000e0 25 fc 99 bd 4e 13 57 bd 00 74 d3 bb 64 5e 48 3d
       -0.07518796 -0.052508645 -0.0064530373 0.048918143
0000f0 dc 47 5a 3d 55 5e 0d 3e 60 ef df 3b e0 3d 1a 3d
       0.053291187 0.13805516 0.0068339556 0.037656665
000100 4e 28 e4 3d 00 e7 f8 3b ce 12 46 bd e8 06 b7 3c
       0.111405 0.0075958967 -0.048357777 0.02234216
000110 72 e4 b9 bd 3b d6 ba bd e0 c6 02 bc d3 ad 0b be
       -0.090767756 -0.091228925 -0.007981986 -0.13640527
000120 39 9c b2 bd 80 d0 a4 bc 4e ca e6 3d a2 98 1e be
       -0.08721203 -0.020118952 0.11269055 -0.15487912
000130 42 1f 87 3d fa 57 92 bd 98 9f 02 be 48 01 aa bd
       0.06597759 -0.071456864 -0.12756193 -0.08301026
000140 b4 bd f9 bd 78 73 50 3d fa 12 db bd 4f cc 14 3e
       -0.12194386 0.05089137 -0.10696979 0.14531063
000150 16 5e e1 bd a4 d1 51 bd 98 17 a1 bc fa 40 b9 3d
       -0.110042736 -0.05122532 -0.01966457 0.090455964
000160 e9 b0 ce bd 40 d5 d0 bb b3 a6 10 3e 83 f4 f6 bd
       -0.10092337 -0.0063730776 0.1412609 -0.12058356
000170 dd b9 19 be 38 f0 f4 bd a7 ed 0a 3e 36 53 7f bd
       -0.15012307 -0.119598806 0.1356722 -0.062335216
000180 66 f2 10 be de dc bf 3d 66 2f cf 3d 7c 7c 63 3d
       -0.14154968 0.09368299 0.101164624 0.05553864
000190 f4 2f df bd 85 ab 17 3e bc b3 00 be 00 03 49 3d
       -0.10897818 0.14811523 -0.12568563 0.049075127
0001a0 93 97 0b 3e 5c 33 ce bd 19 ab 05 3e 58 48 15 bd
       0.1363204 -0.1006839 0.1305355 -0.036445946
0001b0 dd 59 08 be c5 70 1c 3e 00 a6 1e bb ff ff 11 be
       -0.1331553 0.15277393 -0.002420783 -0.14257811
0001c0 10 f4 36 bd a1 c3 d0 bd 12 b1 ae 3d 80 43 f9 ba
       -0.04466635 -0.10193563 0.08529867 -0.0019017309
0001d0 42 1f f5 bd 90 14 4a bc d1 aa 18 3e 50 f9 db 3c
       -0.119688526 -0.012334004 0.14908911 0.02685228
0001e0 7e 14 f6 bd 2e a5 ed bd 60 eb ad 3d e0 46 b3 3c
       -0.12015627 -0.11603771 0.0849216 0.021884382
0001f0 04 12 11 be ca 34 d1 bd 4b e3 0a 3e 92 9c 9a bd
       -0.14167029 -0.10215147 0.13563268 -0.07549395
000200 a0 38 f0 bb 1b b8 1b be 21 94 0d be 60 11 06 be
       -0.007330969 -0.1520695 -0.13826038 -0.13092566
000210 2b f4 89 bd 97 b4 c5 bd 86 c0 aa 3d b0 9f 7e 3c
       -0.067360245 -0.096535854 0.08337502 0.015541002
000220 e8 80 1e bd 9b 72 18 be fa e7 aa 3d 58 33 eb bc
       -0.038697153 -0.14887469 0.08345027 -0.028711006
000230 c8 23 fc 3c 46 b2 64 bd 76 79 0f bd 4e bc bb bd
       0.03077878 -0.055834077 -0.035027944 -0.09166776
000240 62 0e 9d bd 3a f2 88 bd b0 44 a3 bc 21 8d 19 3e
       -0.07668759 -0.06686826 -0.019930214 0.14995243
000250 f2 d4 42 bd 55 56 8b bd 0e b9 df 3d 0a 53 e9 3d
       -0.04756636 -0.06803576 0.10923968 0.113927916
000260 46 5d b4 3d 70 0a 2c bc 54 25 9d bd 76 40 26 bd
       0.08806853 -0.010500535 -0.076731354 -0.04058882
000270 78 21 c1 bc 93 80 1e 3e 9c 57 8f 3d 80 c3 12 3c
       -0.02357553 0.15478735 0.06999132 0.008957744
000280 20 ab 46 bc 7c 9a d6 bd fe 64 eb 3d e0 ae e6 bd
       -0.01212576 -0.10478684 0.11493872 -0.112638235
000290 5c c1 98 3d b0 bd 5b bc 24 a3 80 bd ca c9 df bd
       0.074587554 -0.013411924 -0.062811166 -0.1092716
0002a0 d2 31 c6 3d e6 79 c7 3d 25 e1 1d be e4 0f 7c 3d
       0.09677471 0.09740047 -0.15417917 0.061538592
0002b0 7b ef aa bd a6 2c d4 3d 48 f2 b2 bc a0 04 ab bc
       -0.083464585 0.103600785 -0.021844044 -0.020876229
0002c0 c0 9a bf bb 08 81 54 3d 6b 71 1d be b6 14 0b be
       -0.005847305 0.051880866 -0.15375297 -0.1358212
0002d0 68 49 f3 bd 62 0d 8d 3d be 1f fe bd fc 70 ba 3d
       -0.118792355 0.06887318 -0.12408398 0.09103581
0002e0 4c 43 48 bd d9 29 1b 3e a9 6a 14 3e 78 02 f5 3c
       -0.048892304 0.15152682 0.14493813 0.029908404
0002f0 d2 6e 86 bd eb 6c 0d 3e e0 26 9f bc 8f 15 0d 3e
       -0.06564106 0.1381108 -0.019427717 0.13777755
000300 fe 2c ec bd e5 97 07 3e 22 12 fb 3d 3a a6 cf 3d
       -0.11532019 0.13241537 0.12259318 0.10139127
000310 03 a1 96 bd 7f 15 9e bd 00 db 5f 3a c4 9f 1d 3d
       -0.07354929 -0.07718944 0.00085394084 0.038482442
000320 df 8d 18 3e 10 c2 3a bd 00 b8 67 bc 1c ca 1e 3d
       0.1489787 -0.04559523 -0.01414299 0.038766965
000330 8e c8 2c bd 4a 7b 2a bd c1 2b 0a 3e b6 8e e8 3d
       -0.04218345 -0.041621484 0.13493253 0.11355345
000340 34 5a b4 3d 30 1d 34 3c c4 24 c5 bd 1a 9b 8e 3d
       0.088062674 0.010993287 -0.09626153 0.06963177
000350 90 ce 5c 3c 00 52 84 bc 0a 1c 33 bd a0 03 bc 3d
       0.013476983 -0.016152382 -0.043727912 0.09180379
000360 78 a1 30 3d 37 ad 17 3e 18 cf c8 bd 6a 9c 0b bd
       0.04312274 0.1481217 -0.09805125 -0.034084715
000370 00 e0 f4 b8 ce 08 f3 bd 76 c7 99 3d ba 22 d9 bd
       -0.0001167655 -0.11866914 0.07508747 -0.10602327
000380 04 d2 eb bd 08 9e f3 bc 46 38 e9 3d d4 cc b8 bd
       -0.11514667 -0.029738441 0.113876864 -0.09023443
000390 58 23 a0 3c 50 ff 94 3d 5a 72 c2 bd 38 7a bc 3c
       0.019548103 0.072752595 -0.09494467 0.023007497
0003a0 0f 1f 09 3e b4 19 00 bd 20 94 12 be b3 03 b8 bd
       0.13390754 -0.031274512 -0.14314318 -0.089850806
0003b0 2e 34 cf 3d 30 93 96 3c db 34 14 be 60 54 b2 3b
       0.10117374 0.018380731 -0.14473288 0.005442187
0003c0 26 8b 8c 3d a0 c3 fd bb 7e 7f dc 3d 2c f5 7e bd
       0.06862478 -0.0077442676 0.10766505 -0.062245533
0003d0 42 a0 b4 bd b0 6e 62 bc 55 99 0b 3e b8 42 b7 bc
       -0.08819629 -0.013820335 0.1363271 -0.022370681
0003e0 be ca 65 bd dc a0 3a bd 30 bb c6 3c e6 a8 ce 3d
       -0.056101553 -0.045563564 0.02425918 0.100908086
0003f0 de b8 f7 3d 91 e0 88 bd 2e 84 ef bd 80 fe e0 bb
       0.120958075 -0.06683458 -0.11695133 -0.0068662763

transformer_encoder.encoder.feed_forward.fc1.bias f4 [256]
000000 37 05 17 be 32 95 cf bd f4 17 06 bd 28 32 09 be
       -0.14748083 -0.101358786 -0.032737687 -0.1339804
000010 8e 93 e2 bd c8 69 76 3d 7c 99 04 bd 00 18 e2 3b
       -0.110633 0.060159475 -0.032372937 0.0068998337
000020 44 67 d1 bd b0 a5 3e 3d 10 96 56 bc 68 e5 4c 3d
       -0.102247745 0.04654473 -0.013097301 0.050023466
000030 c8 61 1c be 40 06 67 bc b6 81 ca 3d b1 10 1c 3e
       -0.15271676 -0.014100611 0.09888022 0.15240742
000040 60 33 f4 bc 46 b1 d0 3d ac 4d 1c be f6 c7 6f bd
       -0.029809654 0.10190062 -0.15264004 -0.058540307
000050 c4 b5 1c 3d 66 da dc 3d 78 45 20 3d c8 4b 0b 3d
       0.038259283 0.10783844 0.03912875 0.034007818
000060 a4 03 a5 bd 3c d3 4c 3d c0 d5 2f bc fc 56 5e 3d
       -0.08057335 0.050006136 -0.010732114 0.054282174
000070 de 0f ea 3d 80 f8 45 bc a3 f6 1b 3e db ff c1 bd
       0.11428808 -0.012083173 0.15230803 -0.09472629
000080 bb 73 08 3e 42 4c 35 bd 00 73 0a 3b 00 b4 e6 bc
       0.13325398 -0.04426218 0.0021125674 -0.028162003
000090 9c 3b b9 bd 78 08 93 bc 5d c1 0f 3e 30 3f 79 bc
       -0.09044573 -0.017948374 0.14038606 -0.015212819
0000a0 3b 84 03 be fe 02 c6 3d 7a 4e bf 3d e8 5f e2 3c
       -0.1284341 0.096685395 0.0934114 0.027633622
0000b0 05 af 0c 3e 0e e0 11 be 32 4e c4 bd 74 a3 5f 3d
       0.1373864 -0.14245626 -0.09585227 0.05459924
0000c0 ec 52 4d 3d ed 22 1c 3e d2 4f 99 3d 9e 19 0d be
       0.05012791 0.15247698 0.07485928 -0.13779303
0000d0 00 f1 ab 3d fa 06 b1 3d e0 03 c6 bd 25 5e 1c be
       0.083955765 0.08643909 -0.09668708 -0.15270288
0000e0 a6 76 8d 3d 0e f9 a0 3d 50 73 a6 3d 66 32 a9 3d
       0.06907396 0.078600034 0.08127463 0.08261566
0000f0 88 7d ef 3c 40 ef 70 bb 58 d4 11 3d 53 b4 c2 bd
       0.029234663 -0.0036763698 0.035602897 -0.0950705
000100 aa 13 e3 bd f5 26 10 3e 40 3e b5 3b 90 20 a5 bc
       -0.11087735 0.14077361 0.0055311024 -0.020157129
000110 fc 3b 72 3d 28 f0 7e bd c2 98 c9 bd 84 ec 6e 3d
       0.059139237 -0.06224075 -0.09843589 0.058331028
000120 71 23 1d 3e dc 22 1d be 02 cb bc 3d 2c d4 fd bd
       0.15345551 -0.15345329 0.09218408 -0.12393984
000130 18 0b e0 bc 83 bb b9 bd 8e 15 f7 3d 8b 01 a1 bd
       -0.02734904 -0.09068968 0.12064658 -0.078616224
000140 a7 35 04 3e 01 a2 8f bd ec 45 d9 bd 68 65 4e bd
       0.12911092 -0.07013322 -0.1060904 -0.050389677
000150 84 ed a9 3d f6 26 0b bd 2a 4b 93 3d 8a 56 c0 bd
       0.08297256 -0.033972703 0.07192071 -0.09391506
000160 f1 68 a5 bd c8 e4 db bc b4 c5 09 be d3 72 ff bd
       -0.080766566 -0.02684249 -0.13454324 -0.12473073
000170 a6 79 84 3d d0 8e 64 3c e0 0d 03 3d 50 95 69 3d
       0.06468515 0.013950065 0.031995654 0.05702716
000180 40 f6 8a bd 36 77 2a bd cc 9b 92 3d 58 8a 44 3d
       -0.0678525 -0.041617595 0.07158622 0.047983497
000190 02 e6 d0 3d fc 24 20 be c4 de a1 3d 80 f4 0b be
       0.102001205 -0.15639108 0.07903817 -0.13667488
0001a0 5a 3f 70 bd f0 0a e1 bd f4 45 0b 3d d0 c2 46 3d
       -0.058654167 -0.10988414 0.03400226 0.04852563
0001b0 88 a5 f7 bc 46 de aa 3d 02 e0 c6 3d bf 65 09 3e
       -0.030230299 0.083431765 0.09710695 0.1341772
0001c0 79 16 18 be 52 16 09 be 05 8d 13 be 1e a6 3b bd
       -0.14852323 -0.13387421 -0.14409263 -0.04581272
0001d0 80 e5 e3 3a ec 3f 96 3d c4 21 5c 3d c2 0f bf bd
       0.0017387122 0.07336411 0.05374314 -0.093291774
0001e0 e2 8a f6 bd b4 74 00 3d 2d d8 16 3e 4c 08 10 3d
       -0.120382085 0.031361297 0.14730902 0.035164163
0001f0 66 08 71 bd 02 c4 01 be 10 d5 a8 3c 65 0d a0 bd
       -0.0588459 -0.12672427 0.020609409 -0.07815055
000200 50 24 b0 3c b0 d8 b7 bc 60 0a 25 3c 48 73 b9 3c
       0.02150169 -0.022442192 0.010073274 0.022637978
000210 14 82 66 bd e0 86 bc 3b ae 20 de bd c2 c6 53 bd
       -0.056276396 0.005753383 -0.10846077 -0.051703222
000220 d8 60 86 3d 64 5c 91 3d 10 07 02 bd 3e 90 32 bd
       0.0656144 0.070977 -0.031745017 -0.04359459
000230 12 18 6b bd c9 dc 1d be b3 86 1b 3e c8 2c 9f 3d
       -0.057396002 -0.15416254 0.15188102 0.07772213
000240 80 07 24 bb 22 1d df 3d 50 2f 83 3c a4 af b2 bd
       -0.0025028884 0.108942285 0.016013771 -0.08724907
000250 a3 0b 04 3e 78 14 fc bd 42 a1 da 3d 22 37 e3 bd
       0.12895064 -0.123085916 0.10675289 -0.110945
000260 b2 66 c1 bd b6 b3 e3 3d 19 b8 0a 3e da 56 82 3d
       -0.09443416 0.111182615 0.1354679 0.06364222
000270 90 4b 45 bd 67 0e 02 3e d6 a8 d0 bd 66 ab c8 bd
       -0.048167765 0.12700807 -0.10188453 -0.09798317
000280 d0 c6 1d 3c cc ec ab 3d c4 e8 6b bd 90 64 b4 3c
       0.00962992 0.08394775 -0.05759503 0.022020608
000290 26 9f 98 3d 34 2d 0f 3d c8 4f ca bd 64 32 f8 bd
       0.0745223 0.03495522 -0.09878498 -0.12118986
0002a0 01 2d 1b 3e af d0 19 3e 46 7c 97 3d 50 a6 2b 3d
       0.15153886 0.15021013 0.0739675 0.041906655
0002b0 84 60 f4 bd f4 39 7d 3d b1 bb 1e be d4 84 00 bd
       -0.119324714 0.061822847 -0.15501286 -0.031376675
0002c0 80 90 c0 bc 90 00 9f 3d 1c 73 b6 bd 30 0c 74 bc
       -0.023506403 0.07763779 -0.08908674 -0.014895484
0002d0 0b 3f b0 bd 98 45 d8 bc d1 1b 0e 3e e0 25 04 3c
       -0.086057745 -0.026400372 0.13877799 0.008065671
0002e0 84 d6 1e be 18 e4 1e 3d a0 46 ef bd 44 b2 02 be
       -0.15511519 0.038791746 -0.116833925 -0.12763315
0002f0 90 7b 01 bc 92 88 4e bd 8e b2 96 3d 74 f1 a5 bd
       -0.007902995 -0.050423212 0.07358275 -0.08102694
000300 1e a0 c5 3d 52 3d 13 be 98 65 a2 bd da f9 9b bd
       0.096496806 -0.1437886 -0.07929534 -0.07616015
000310 5e 0d 9f bd b2 7f 06 be aa c6 d2 bd 6e 7e f2 3d
       -0.077662215 -0.1313465 -0.102917984 0.11840521
000320 d8 cd c9 3c 5a 99 a8 3d 52 3e 9d 3d 84 db 19 be
       0.024634287 0.082323745 0.07677902 -0.15025145
000330 96 4b 18 be 18 9c e4 bd e8 97 27 bd 80 eb b5 3a
       -0.14872584 -0.11162585 -0.040916353 0.0013879389
000340 62 34 52 bd a6 8f fe 3d 30 01 32 3d 96 25 e7 bd
       -0.051319487 0.124297425 0.043458164 -0.11286466
000350 f3 e2 c7 bd f6 3f c0 3d 1f af 0c 3e 7c 47 5a bd
       -0.09760084 0.093871996 0.13738678 -0.05329083
000360 48 e8 ec bc ea e1 19 be 12 55 ed 3d 70 9d a2 bc
       -0.028919354 -0.15027586 0.115884915 -0.019850463
000370 ee e6 11 bd 60 05 f4 3b e7 f7 14 3e ea 9a 0f be
       -0.035620622 0.00744693 0.14547692 -0.14023939
000380 ea c2 f2 3d 04 86 a6 3d e0 42 02 bd 57 b0 9b bd
       0.11853583 0.0813103 -0.03180206 -0.076019935
000390 5c f1 ad 3d 4a 9a f1 3d db 59 8d bd e8 c2 d7 3c
       0.08493301 0.117970064 -0.06901904 0.026338056
0003a0 70 65 3f 3c 56 64 c2 3d bc 72 6c 3d 60 d9 3c bc
       0.011681899 0.09491794 0.057726607 -0.011526436
0003b0 46 3c f5 bd 09 74 0d 3e 72 e0 ea 3d 06 a2 a7 bd
       -0.11974387 0.13813795 0.11468591 -0.081852004
0003c0 2d 86 10 3e ec f1 1e 3d d0 ef 50 bd 94 5f 16 3d
       0.14113684 0.038804933 -0.051009953 0.036712244
0003d0 90 c7 a0 bc 30 82 ef 3c a3 14 08 3e 70 f8 7c bc
       -0.019626409 0.029236883 0.13289122 -0.0154400915
0003e0 b9 01 15 3e 40 65 61 3b d5 98 80 bd 00 5e 85 3b
       0.14551438 0.0034392625 -0.062791504 0.0040700436
0003f0 90 2e c9 bc 30 c3 6d bd 54 a6 33 bd 77 d7 05 be
       -0.024558336 -0.058047473 -0.043859795 -0.13070475
