simple2transformer/param/net_param/la37_actor_net.model (torch, 168959 bytes, 34 tensors)

transformer_encoder.encoder.attention.fc_Q.weight f4 [30, 30]
0	0x3d435904	0.047692314
1	0x3e2610ba	0.16217318
2	0x3e200c1a	0.15629616
3	0x3ce6eff0	0.028190583
4	0xbe14f7f2	-0.14547709
5	0xbe0dab17	-0.13834797
6	0xbd16353c	-0.036671862
7	0xbded0414	-0.115730435
8	0xbda2a197	-0.07940977
9	0x3e3866ea	0.18008009
10	0x3e31cc3a	0.17363063
11	0xbd794b5a	-0.060862876
12	0x3dcd5e94	0.10027805
13	0xbcfde120	-0.030991137
14	0x3e2a80da	0.16650715
15	0xbe102fe4	-0.14080769
16	0xbddde9e6	-0.10835628
17	0xba819080	-0.0009884983
18	0x3da10998	0.07863158
19	0x3debc840	0.11512804
20	0xbdca5cf8	-0.09881014
21	0x3e1c700e	0.1527712
22	0x3d45d340	0.048297167
23	0x3dfb9d74	0.12285891
24	0x3ddb3580	0.10703564
25	0xbd482ad4	-0.04886897
26	0x3e247386	0.16059694
27	0x3e320082	0.17383006
28	0x3e06b240	0.13153934
29	0x3d4f141c	0.050556287
30	0xbd1acaa0	-0.037790895
31	0x3d0e8e28	0.03480354
32	0xbc9c74d0	-0.01909867
33	0x3d592788	0.053016216
34	0x3cca7970	0.024716109
35	0xbe34da82	-0.17661479
36	0x3de3bd68	0.11120111
37	0x3d6b2bf4	0.057414964
38	0x3cffff50	0.031249672
39	0xbbc5cbe0	-0.0060362667
40	0xbe21c47f	-0.15797614
41	0x3e2990f0	0.16559196
42	0x3da4d3ec	0.080482334
43	0x3d82f816	0.06394975
44	0x3dbe788c	0.09300336
45	0x3e1633c0	0.14668179
46	0xbb62ba40	-0.0034595877
47	0x3c9c62c8	0.019090071
48	0x3d2ad3a0	0.041705728
49	0xbcb374e8	-0.021906331
50	0x3d635524	0.05550112
51	0xbe149b2c	-0.14512318
52	0xbd1ad65c	-0.037802085
53	0x3c003ce0	0.007827014
54	0xbe04b75c	-0.12960571
55	0x3e15a014	0.14611846
56	0x3de7c860	0.113175154
57	0x3e183d2e	0.14867088
58	0x3b97c300	0.0046314
59	0xbd3a93a0	-0.045550942
60	0x3e1ed2a4	0.1551004
61	0x3d515b98	0.05111274
62	0x3d86c686	0.06580834
63	0xbd3f4350	-0.046695054
64	0x3da07a7c	0.07835862
65	0xbe0c8b52	-0.13725021
66	0xbdf85980	-0.12126446
67	0xbe2860ed	-0.16443224
68	0x3d8c6928	0.068559945
69	0x3d2094d0	0.03920442
70	0xbdbe3440	-0.0928731
71	0xbd8b8ab7	-0.06813567
72	0x3e166b1e	0.146893
73	0x3dcce648	0.1000486
74	0xbc371910	-0.011175409
75	0x3d5c3968	0.053765684
76	0x3d44479c	0.047919855
77	0xbd710e2a	-0.0588514
78	0x3d80a710	0.06281865
79	0xbdd91beb	-0.10601028
80	0x3cfeda88	0.031110063
81	0xbe298905	-0.16556175
82	0xbd5fd2a4	-0.054644242
83	0xbe3511f0	-0.17682624
84	0xbc66a720	-0.014077932
85	0xbe1d7e99	-0.15380324
86	0x3c973398	0.018457219
87	0xbdb86075	-0.09002773
88	0x3dfc0d40	0.12307215
89	0x3d832138	0.0640282
90	0x3e263228	0.1623007
91	0xbd102800	-0.035194397
92	0x3d82fc04	0.063957244
93	0xbccad6f0	-0.024760693
94	0xbdb96ce6	-0.09053974
95	0x3e299618	0.16561162
96	0x3d434ef0	0.047682703
97	0xbdf0ad84	-0.117518455
98	0x3cce1828	0.025158003
99	0xbda71725	-0.08158711
100	0xbc7f6900	-0.015588999
101	0xbdfd0adf	-0.12355589
102	0x3e19b7ec	0.15011567
103	0xbde46146	-0.11151366
104	0x3de2fec0	0.11083746
105	0x3d492b34	0.049113467
106	0x3daa5c68	0.08318406
107	0x3d897c74	0.06713191
108	0xbe145c4a	-0.1448833
109	0xbad56f80	-0.001628384
110	0x3d4c7928	0.04992023
111	0x3e217aba	0.15769473
112	0xbe2b1497	-0.16707073
113	0xbc4a0740	-0.01233083
114	0xbc7e3fb0	-0.015518114
115	0xbdb5e490	-0.088814855
116	0xbd1e7b04	-0.038691536
117	0xbd9749ce	-0.07387124
118	0x3e1813c8	0.14851296
119	0x3d23c51c	0.0399829
120	0x3e27a17e	0.16370198
121	0xbdfaea00	-0.12251663
122	0x3e353456	0.17695746
123	0xbdf8d5ac	-0.1215013
124	0x3d23de54	0.04000695
125	0xbd7094ea	-0.058735766
126	0x3e22630e	0.15858099
127	0x3c841d20	0.01612717
128	0x3d5cb350	0.053881943
129	0x3c831170	0.015999526
130	0xbdfeb959	-0.12437696
131	0xbe161de3	-0.14659838
132	0x3ddf7660	0.1091125
133	0xbd87fd39	-0.06640095
134	0x3c8af328	0.016961649
135	0xbd9c615c	-0.07635757
136	0x3d9d1848	0.07670647
137	0xbc99b8d0	-0.018764883
138	0xbc6944d0	-0.014237598
139	0x3b961f60	0.004581377
140	0xbd5a5800	-0.05330658
141	0xbd43a7e0	-0.04776752
142	0xbe2e4d82	-0.17021754
143	0x3dfa7258	0.122288406
144	0x3e2820ec	0.16418809
145	0x3e11347a	0.14180174
146	0xbe1e78f4	-0.15475827
147	0xbe03026c	-0.12793893
148	0xbd5278f8	-0.051384896
149	0xbd901138	-0.07034534
150	0x39e4c200	0.0004363209
151	0xbe2d4a62	-0.16922906
152	0xbd44a44c	-0.04800825
153	0x3dadffd0	0.08496058
154	0x3dc58db8	0.09646171
155	0xbdbbc41f	-0.091682665
156	0x3e1d3150	0.15350842
157	0xbcf2b198	-0.029625699
158	0x3d0d2364	0.03445758
159	0x3c1eb4e0	0.009686679
160	0x3d7edcfc	0.062222466
161	0xbdc7a773	-0.09748735
162	0x3dc13fd0	0.094359994
163	0x3de26614	0.11054626
164	0xbe27904e	-0.16363642
165	0xbd81f9a7	-0.063464455
166	0x3c894a38	0.016759023
167	0x3d365604	0.044515625
168	0xbdceda0b	-0.10100182
169	0xbde40934	-0.11134568
170	0xbe0530e3	-0.1300693
171	0xbccdcbb0	-0.02512154
172	0xbe102eb4	-0.14080316
173	0xbdd555b3	-0.104167365
174	0x3de1271c	0.10993788
175	0x3e34e974	0.1766718
176	0x3d1943b0	0.037418067
177	0x3cf592c8	0.029977217
178	0x3cb35f30	0.021895975
179	0x3e1394b2	0.14412192
180	0x3e3a0a68	0.18168032
181	0xbc903798	-0.017604634
182	0xbbbe7c80	-0.0058131814
183	0xbdc0ad94	-0.094081074
184	0x3da33460	0.07968974
185	0x3c3d9520	0.011571199
186	0x3c99f578	0.018793806
187	0x3df2d1c4	0.11856416
188	0xbd0ebff4	-0.03485103
189	0xbc6f7c90	-0.0146171
190	0x3de1fe00	0.11034775
191	0xbd424080	-0.047424793
192	0xbe0f71bc	-0.1400823
193	0xbdbad6fa	-0.09123035
194	0x3ce56fa0	0.028007329
195	0xbd8f733f	-0.07004403
196	0x3d4792b0	0.048723876
197	0xbdb96afc	-0.09053609
198	0x3d6b60c4	0.05746533
199	0xbcac04d0	-0.020998389
200	0xbcefccf0	-0.029272527
201	0xbcc179a0	-0.023617566
202	0x3cfdcf50	0.030982643
203	0x3d7c201c	0.06155406
204	0xbdaacfdd	-0.08340428
205	0xbd0c87ec	-0.034309313
206	0xbb91a4e0	-0.0044447035
207	0xbdf12ee1	-0.117765196
208	0xbe22e0c4	-0.15906054
209	0x3c9ed9b8	0.019390926
210	0x3d854fe6	0.0650938
211	0xbd4ad038	-0.04951498
212	0xbd3fcf64	-0.046828642
213	0x3e1f9588	0.15584385
214	0x3df8a704	0.12141231
215	0xbceb7330	-0.02874145
216	0x3d5d3a48	0.05401066
217	0xbcc3f110	-0.023918658
218	0x3d97b6b4	0.07407895
219	0xbd9ea742	-0.07746746
220	0x3e2d53fa	0.16926566
221	0x3df2d174	0.11856356
222	0xbdd7aebc	-0.10531375
223	0xbd3d82fc	-0.046267495
224	0x3d2874c0	0.041126966
225	0xbe299fd2	-0.16564873
226	0xbe19bb8a	-0.15012947
227	0xbc7a8060	-0.015289396
228	0xbe004d90	-0.12529588
229	0xbdee0ec8	-0.11623913
230	0xbbf424a0	-0.007450655
231	0x3dd561d0	0.10419047
232	0xbe1c6152	-0.152715
233	0x3cd900b8	0.0264896
234	0x3dcbd508	0.09952742
235	0x3e10e804	0.14151007
236	0x3b4112c0	0.0029460639
237	0x3e26f698	0.16305006
238	0x3d89871a	0.06715222
239	0xbdf6f67f	-0.12058734
240	0xbdbff920	-0.09373689
241	0xbc986d00	-0.018606663
242	0xbe2cd645	-0.16878612
243	0xbca107e0	-0.019657075
244	0xbe0f60ce	-0.14001772
245	0x3e02bdc4	0.12767702
246	0x3dce3ed4	0.10070577
247	0x3dc63bb4	0.09679356
248	0x3dd6ad94	0.10482326
249	0x3def2b38	0.11678165
250	0x3dec95fc	0.11552045
251	0xbde186f1	-0.11012066
252	0x3d6ed2f0	0.058306634
253	0xbc221440	-0.009892523
254	0xbda12b0d	-0.078695394
255	0x3d9936a8	0.07481128

transformer_encoder.encoder.attention.fc_Q.bias f4 [30]
0	0x3dab46d4	0.08363119
1	0xbdc8e365	-0.09808997
2	0x3d755494	0.059895113
3	0x3de55c20	0.11199212
4	0xbd53ab20	-0.05167687
5	0x3d552f60	0.052047133
6	0x3d8c49c0	0.06850004
7	0xbe2dd49c	-0.16975635
8	0x3d4995f0	0.049215257
9	0x3e26118e	0.16217634
10	0x3dd69ea8	0.1047948
11	0xbc768c90	-0.015048161
12	0xbda9722d	-0.082737304
13	0x3d400730	0.046881855
14	0x3e226d38	0.15861976
15	0xbddd6213	-0.10809722
16	0x3d6e4328	0.058169514
17	0x3d6c0350	0.057620347
18	0xbcff7998	-0.03118591
19	0xbda0d2e4	-0.07852724
20	0x3e2ac89c	0.16678089
21	0x3e24ce18	0.16094244
22	0x3dca9740	0.0989213
23	0xbc885fc8	-0.016647235
24	0xbd0a6934	-0.033791736
25	0x3c9e1130	0.019295305
26	0x3db2274c	0.086989015
27	0xbafd4780	-0.0019323677
28	0x3d809726	0.06278829
29	0xbd79a72a	-0.060950436

transformer_encoder.encoder.attention.fc_K.weight f4 [30, 30]
0	0xbe35cfc6	-0.1775504
1	0x3ddaf450	0.1069113
2	0xbe2d49fa	-0.16922751
3	0x3d8b2980	0.06795025
4	0xbd5949c4	-0.053048864
5	0x3d846376	0.06464283
6	0xbd475e40	-0.04867387
7	0xbe28d67b	-0.16488068
8	0xbda1da6c	-0.07902989
9	0xbdf17e50	-0.1179167
10	0x3e3567ca	0.17715374
11	0xbe32fbcf	-0.1747887
12	0xbda58e76	-0.08083813
13	0xbdbf35dd	-0.093364455
14	0xbdbbe4c7	-0.09174495
15	0xbd1d70bc	-0.03843759
16	0x3e388fae	0.1802356
17	0x3d650ef4	0.055922464
18	0x3e050ca6	0.12993106
19	0x3dcde1cc	0.10052833
20	0xbe0b5979	-0.1360835
21	0x3dfd0550	0.12354529
22	0x3dd720dc	0.10504314
23	0x3dce71f8	0.100803316
24	0xbe0b277e	-0.13589284
25	0x3d923568	0.07139093
26	0x3e09ee7c	0.13469881
27	0x3e170efa	0.14751807
28	0x3e2993a6	0.1656023
29	0x3dffa864	0.1248329
30	0x3dfecee8	0.12441808
31	0xbd6e7142	-0.05821348
32	0x3d993348	0.07480484
33	0x3c6e3b70	0.014540538
34	0xbc858648	-0.016299382
35	0xbe29e342	-0.16590598
36	0xbe20b559	-0.15694179
37	0xbddb73aa	-0.107154205
38	0xbd3fe694	-0.046850756
39	0x3e3a3f42	0.18188193
40	0xbd3a8e54	-0.04554589
41	0x3dd55c4c	0.10417995
42	0xbd896a9c	-0.06709787
43	0x3da3ccc4	0.0799804
44	0xbdacff94	-0.08447185
45	0x3e380062	0.17968896
46	0xbe3678ac	-0.1781947
47	0x3e2b47b0	0.16726565
48	0xbe2dcca8	-0.16972601
49	0xbe016dfb	-0.1263961
50	0xbe2c2095	-0.16809304
51	0xbca34a18	-0.019932792
52	0xbe09616d	-0.13416071
53	0xbde69034	-0.11257973
54	0xbe1884fd	-0.14894481
55	0xbd92923c	-0.07156798
56	0xbc712bc0	-0.0147199035
57	0x3c9d8378	0.019227728
58	0xbe2c5a40	-0.16831303
59	0xbd992dfb	-0.07479473
60	0x3c1d9910	0.0096190125
61	0xbdcf5fa7	-0.10125666
62	0xbcfffa68	-0.031247333
63	0x3e391cc8	0.18077385
64	0x3caff8e8	0.021480992
65	0xbc27b4b0	-0.01023595
66	0x3e17a226	0.14807948
67	0xbddbd38c	-0.10733709
68	0xbe163708	-0.1466943
69	0xbd6441a0	-0.055726647
70	0x3cd46428	0.025926664
71	0x3dc4fec0	0.09618902
72	0x3dae8b28	0.08522636
73	0xbde13cd1	-0.10997928
74	0xbe3a1fd4	-0.18176204
75	0xbdff6be8	-0.12471753
76	0x3de55ea8	0.11199695
77	0x3dea8b44	0.11452344
78	0xbe0b3964	-0.13596112
79	0xbe378878	-0.17923152
80	0xbe00fb8d	-0.12595959
81	0xbda04213	-0.07825103
82	0x3cd41858	0.025890514
83	0x3e039bec	0.12852448
84	0x3d6bbf5c	0.05755554
85	0x3e30c482	0.17262462
86	0x3d70e6d4	0.058813885
87	0x3de970a4	0.113984376
88	0xbdc3b789	-0.09556491
89	0x3de69aa4	0.11259964
90	0xbbe8af40	-0.0071009696
91	0xbe04fd3e	-0.12987229
92	0xbbd71660	-0.0065639466
93	0x3cefc3f0	0.029268235
94	0x3e26207c	0.1622333
95	0x3cb000a0	0.021484673
96	0x3dcdc988	0.10048205
97	0xbdf804c0	-0.12110281
98	0x3e0579f0	0.13034797
99	0xbe02081e	-0.12698409
100	0xbd24a8e8	-0.040200144
101	0xbe266630	-0.16249919
102	0xbbdcee80	-0.0067422986
103	0x3e1705d8	0.14748323
104	0xbe087a5c	-0.13327926
105	0x3d1c8648	0.038213998
106	0xbdb59790	-0.08866799
107	0xbd90f9ae	-0.070788726
108	0x3e2129b6	0.15738568
109	0xbe3894e4	-0.18025547
110	0x3e374f30	0.17901301
111	0x39f2ac00	0.00046285987
112	0x3da1e158	0.07904309
113	0x3d024058	0.031799644
114	0xbdd9677e	-0.10615443
115	0xbdf1b073	-0.11801233
116	0x3d13f698	0.036123842
117	0xbe155d6c	-0.14586419
118	0xbdd9ae03	-0.10628893
119	0x3e319aa0	0.17344141
120	0xbbcfad40	-0.0063377917
121	0x3e169a28	0.14707243
122	0x3ab65000	0.001390934
123	0xbde65f57	-0.112486534
124	0x3da938c4	0.0826278
125	0x3db40530	0.08790052
126	0xbcd81498	-0.026377007
127	0xbc123c90	-0.008925572
128	0xbdde4d2f	-0.10854565
129	0xbde70207	-0.112796836
130	0xbd65f7bc	-0.05614446
131	0x3d29225c	0.041292533
132	0x3e296d88	0.16545689
133	0x3d057830	0.032585323
134	0x3bd48460	0.006485507
135	0x3dc7eb10	0.097616315
136	0x3d81f27a	0.06345077
137	0x3b365d40	0.0027826577
138	0xbd90d484	-0.07071784
139	0x3c9ca790	0.019122869
140	0xbd4d9324	-0.050189152
141	0x3d5b7e48	0.053587228
142	0x3d165574	0.03670259
143	0x3d2a0320	0.041506886
144	0xbd7f455e	-0.062322013
145	0x3dc0de08	0.09417349
146	0xbd2d4cdc	-0.042309627
147	0x3e0d72a0	0.13813257
148	0xbe1d90e8	-0.15387309
149	0xbd49e0cc	-0.04928665
150	0x3e1f249a	0.15541306
151	0xbbc2c300	-0.005943656
152	0xbd9858cd	-0.074388124
153	0xbddc1c91	-0.10747636
154	0x3d46eeb0	0.048567474
155	0xbd7ddb9a	-0.061977006
156	0x3d84e288	0.0648852
157	0x3e0650a2	0.13116696
158	0x3cf45f08	0.02983047
159	0x3c8bf038	0.017082319
160	0xbe28de1a	-0.16490975
161	0x3db62308	0.088934004
162	0xbda9282d	-0.08259616
163	0xbe106f07	-0.14104854
164	0xbdba7100	-0.09103584
165	0x3e259b34	0.16172487
166	0x3a17ea00	0.00057950616
167	0x3e034f6e	0.12823269
168	0xbc6220d0	-0.013801768
169	0xbd688a24	-0.056772366
170	0xbd6f21ac	-0.05838172
171	0x3e1d36e8	0.15352976
172	0xbe2dfc31	-0.16990735
173	0x3d3c7574	0.04601045
174	0x3df50ebc	0.11965701
175	0x3d41de94	0.047331408
176	0x3be88540	0.0070959628
177	0x3e03f116	0.12884936
178	0x3e1a8896	0.15091166
179	0xbdd7038a	-0.10498722
180	0xbe1f1f60	-0.15539312
181	0x3dc9a658	0.09846181
182	0x3d95d6b8	0.07316345
183	0xbd5bd180	-0.05366659
184	0x3e23ad26	0.1598402
185	0x3d204358	0.039126724
186	0x3cc96c18	0.024587676
187	0x3e39dfa0	0.18151712
188	0x3e2710f4	0.16315061
189	0xbc8ca250	-0.01716724
190	0x3d82cf0a	0.06387146
191	0xbe0ea8e5	-0.13931616
192	0x3df924f0	0.121652484
193	0xbcaa3bc8	-0.020780459
194	0xbb63ee00	-0.003477931
195	0xbd2ca918	-0.042153448
196	0xbd99dbca	-0.075126246
197	0x3d987ac0	0.07445288
198	0xbdc76044	-0.09735158
199	0xbdfa8f84	-0.12234405
200	0x3db76dbc	0.08956477
201	0xbbb47020	-0.0055065304
202	0xbe071e8a	-0.13195243
203	0x3e36540c	0.17805499
204	0x3d01fbc8	0.031734258
205	0xbd5f657c	-0.054540142
206	0xbde5db34	-0.1122345
207	0xbd171c4c	-0.03689222
208	0x3e2e934c	0.17048377
209	0x3df06290	0.11737549
210	0xbd150650	-0.036382973
211	0xbdea28d5	-0.11433569
212	0x3de23d68	0.110468686
213	0x3e2394e2	0.15974763
214	0xbd834c46	-0.064110324
215	0x3c5be980	0.01342237
216	0xbe2f6f87	-0.17132388
217	0xbd824558	-0.063608825
218	0x3dba387c	0.09092805
219	0x3d46aec4	0.048506513
220	0xbbecf420	-0.0072312504
221	0x3cef5b98	0.02921848
222	0x3d9afbec	0.075675815
223	0xbce84010	-0.02835086
224	0x3dd3f1d0	0.103488564
225	0x3d42973c	0.04750751
226	0xbe02512c	-0.12726277
227	0xbe101cbe	-0.14073464
228	0xbd62c5b0	-0.05536431
229	0xbdb2db96	-0.08733289
230	0x3d309658	0.04311213
231	0xbe20f4b3	-0.15718345
232	0xbe32431e	-0.17408416
233	0xbdd3c47b	-0.1034021
234	0x3c224fa0	0.009906679
235	0x3d8cf228	0.06882125
236	0xbd2010e0	-0.039078593
237	0xbdc8b93e	-0.09800957
238	0xbb0af5c0	-0.0021203607
239	0xbb58fdc0	-0.003311023
240	0xbdbf4c4c	-0.09340724
241	0xbe18b415	-0.14912446
242	0x3dc7c4e0	0.09754348
243	0x3b3cc000	0.0028800964
244	0xbe14fffc	-0.14550775
245	0x3a6ae500	0.0008960515
246	0x3d0f3340	0.034960985
247	0xbe1cd392	-0.15315083
248	0x3d1b2018	0.037872404
249	0x3e011c78	0.12608516
250	0x3d4cf5c8	0.050039083
251	0x3cbde5b8	0.023180827
252	0x3dac71fc	0.08420178
253	0xbdce6c11	-0.10079206
254	0xbc14fd00	-0.009093523
255	0xbc0c4ea0	-0.008563668

transformer_encoder.encoder.attention.fc_K.bias f4 [30]
0	0x3dc36740	0.09541178
1	0xbe2ea607	-0.17055522
2	0x3d014414	0.031559065
3	0xbd802cf9	-0.06258578
4	0xbd903cc0	-0.07042837
5	0x3d9a20e0	0.07525802
6	0x3de1a428	0.110176384
7	0x3d1de740	0.038550615
8	0xbe28a6dc	-0.16469902
9	0x3e0d5c64	0.13804775
10	0xbe3979a1	-0.18112804
11	0x3cf83590	0.030298978
12	0x3cd49520	0.025950015
13	0xbd1ce934	-0.038308337
14	0x3dc10828	0.09425384
15	0xbe345660	-0.17611074
16	0x3d88f79a	0.06687851
17	0xbdc5fa03	-0.096668266
18	0xbe2bc0e2	-0.16772798
19	0x3e268fa4	0.16265732
20	0x3d54c524	0.05194582
21	0x3de7c134	0.113161474
22	0xbcef34c8	-0.029199973
23	0xbe191d56	-0.14952597
24	0xbdbff7d3	-0.093734406
25	0x3e27fcb8	0.16404998
26	0xbdc5c1d6	-0.09656112
27	0x3e26854a	0.16261783
28	0xb9c71400	-0.0003797114
29	0xbca709c8	-0.020390406

transformer_encoder.encoder.attention.fc_V.weight f4 [30, 30]
0	0xbdf433a6	-0.11923914
1	0xbe270137	-0.16309057
2	0xbc8ead98	-0.01741676
3	0xbe0e4544	-0.1389361
4	0x3e02cf22	0.12774327
5	0x3da82e54	0.082119614
6	0x3e18f36a	0.14936605
7	0xbdca9fd6	-0.098937675
8	0xbd92c036	-0.071655676
9	0xbcee67d8	-0.029102251
10	0xbd144658	-0.036199898
11	0xbe13d986	-0.14438447
12	0x3c3da870	0.011575803
13	0xbdffbb74	-0.12486926
14	0xbd720ace	-0.059092335
15	0xbdbe2c17	-0.09285753
16	0xbd89d7f0	-0.0673064
17	0xbe0c0f55	-0.13677724
18	0x3cac5070	0.02103445
19	0xbd8d0300	-0.06885338
20	0xbdd4ffbe	-0.104003415
21	0xbe0ad1de	-0.1355662
22	0x3e117816	0.14205965
23	0x3e206f8e	0.15667555
24	0xbd7c5576	-0.06160494
25	0x3e157208	0.1459428
26	0x3d84eb8a	0.06490238
27	0xbdfe09e2	-0.12404229
28	0x3e3553f8	0.17707813
29	0x3cee6f20	0.029105723
30	0xbd0b0838	-0.033943385
31	0xbd28f18c	-0.041245982
32	0xbe2e8cf5	-0.17045958
33	0x3d939010	0.07205212
34	0x3dd62fa8	0.104583085
35	0xbdd132e5	-0.102147855
36	0xbe260c7c	-0.162157
37	0xbd57f0b8	-0.0527198
38	0x3dab875c	0.08375427
39	0xbe1888fc	-0.14896005
40	0x3d987578	0.074442804
41	0xbdc4b354	-0.096045166
42	0x3e1a0f28	0.15044844
43	0x393ddc00	0.00018106401
44	0xbdf1a239	-0.1179852
45	0x3db2ddc4	0.08733705
46	0x3e0de416	0.13856539
47	0x3d976c6c	0.07393727
48	0xbdd23566	-0.10264091
49	0xbdf525f8	-0.119701326
50	0x3dadc638	0.08485073
51	0x3d0d5e78	0.03451392
52	0x3d419fc4	0.047271505
53	0xbe27e776	-0.16396889
54	0x3da1a8a0	0.07893491
55	0xbc1de3d0	-0.009636834
56	0x3d8a5940	0.06755304
57	0x3d790ae0	0.060801387
58	0x3db450a0	0.088044405
59	0x3cbaeea0	0.022818863
60	0xbd287abc	-0.041132674
61	0xbe063a8b	-0.1310827
62	0x3dfe2908	0.1241017
63	0xbe2993f2	-0.16560343
64	0x3e364920	0.17801332
65	0x3d90d500	0.070718765
66	0x3e2644e8	0.16237223
67	0xbe2ed0d3	-0.17071848
68	0xbcb99ef0	-0.022658795
69	0x3cf57fe0	0.029968202
70	0x3d127f24	0.035765782
71	0xbdd36e72	-0.103238
72	0x3dc944d8	0.09827584
73	0xbda4161c	-0.080120295
74	0x3daa27cc	0.08308372
75	0xbddcc3dc	-0.10779545
76	0xbe140c3e	-0.14457795
77	0x3d0f9064	0.03504981
78	0x3e25faf6	0.16209015
79	0xbe186176	-0.14880928
80	0x3e0fd290	0.14045167
81	0x3dea5f80	0.114439964
82	0xbdc48a95	-0.09596745
83	0xbdda219a	-0.1065094
84	0x3dbfb81c	0.09361288
85	0xbdbffa47	-0.093739085
86	0xbddfd3b3	-0.1092905
87	0xbd9fda39	-0.078052945
88	0x3df7f844	0.121079
89	0x3e197c38	0.14988792
90	0xbc7355b0	-0.014851972
91	0xbe015bb7	-0.12632643
92	0x3e39f372	0.18159273
93	0x3d031c48	0.032009393
94	0x3e05206c	0.13000649
95	0x3ddbb604	0.10728076
96	0x3bbf8120	0.0058442503
97	0xbd812b90	-0.06307137
98	0xbc7f4ce0	-0.015582293
99	0x3e105f6e	0.14098904
100	0x3c3a5020	0.011371642
101	0x3ccf6270	0.025315493
102	0x3de05050	0.109528184
103	0xbd5e512c	-0.05427663
104	0xbe3a35a4	-0.18184525
105	0xbd42ce0c	-0.047559783
106	0x3ddf0ab0	0.1089071
107	0x3d3996e4	0.045309916
108	0x3d62c998	0.055368036
109	0x3e1d3c84	0.15355116
110	0xbde256c8	-0.110517085
111	0x3da9fcf8	0.08300203
112	0xbde8905e	-0.11355661
113	0xbdbb7aa8	-0.09154254
114	0x3de03b10	0.10948765
115	0xbded31d3	-0.11581769
116	0xbd641c5c	-0.055691108
117	0x3e0661c0	0.13123226
118	0xbe0ebde1	-0.1393962
119	0x3dca82e4	0.09888247
120	0xbe1ac44e	-0.15113947
121	0x3db51ec8	0.08843762
122	0x3c908ae8	0.01764436
123	0xbd9b39c6	-0.07579379
124	0xbd7a9a1a	-0.06118212
125	0xbd8c4797	-0.06849592
126	0xbe14d9c5	-0.14536197
127	0x3d907064	0.07052687
128	0x3de7cd54	0.1131846
129	0x3d24c874	0.04023023
130	0xbc659f20	-0.014014989
131	0xbd94da82	-0.072682396
132	0x3e003904	0.1252175
133	0xbc004610	-0.007829204
134	0xbe03c593	-0.12868337
135	0x3de4f9a4	0.11180428
136	0x3d6e3c4c	0.058162972
137	0x3e2c211a	0.16809502
138	0x3da5c200	0.08093643
139	0xbdf1df59	-0.11810178
140	0x3d80bdbe	0.062861905
141	0x3da0b730	0.0784744
142	0xbdcd84dc	-0.100351065
143	0x3d7c766c	0.061636373
144	0xbe30b5cf	-0.17256854
145	0xbd72440a	-0.05914692
146	0x3db39b20	0.08769822
147	0x3d44e174	0.04806657
148	0x3b86d6a0	0.0041149408
149	0xbd4889fc	-0.048959717
150	0x3d8cbc90	0.06871903
151	0x3e0e9d56	0.13927206
152	0x3e015f5e	0.12634036
153	0x3dabeba4	0.08394554
154	0x3cda0470	0.026613444
155	0x3e2a5bee	0.16636631
156	0x3db6db00	0.0892849
157	0x3df2d060	0.118561506
158	0x3e3845ae	0.1799533
159	0xbdf49c7b	-0.11943909
160	0xbd2691c8	-0.04066637
161	0xbde8dfc1	-0.11370803
162	0xbd9903a8	-0.074714005
163	0xbdbe3fe3	-0.09289529
164	0x3e0643a4	0.1311174
165	0xbdadf969	-0.08494837
166	0xbd24374c	-0.040091798
167	0xbe0b5082	-0.1360493
168	0x3c8411d0	0.016121775
169	0xbe2dd02a	-0.1697394
170	0xbcece428	-0.028917387
171	0xbdf6a932	-0.1204399
172	0x3e0184e4	0.1264835
173	0xbe2ad359	-0.16682185
174	0x3dd3e638	0.10346645
175	0x3b41e6c0	0.0029587
176	0xbe0c5ac4	-0.137065
177	0x3e2b2db4	0.16716653
178	0xbca80c78	-0.020513758
179	0x3d87b418	0.06626147
180	0xbd8ea671	-0.0696534
181	0x3e1216f8	0.14266574
182	0xbca1f3c8	-0.019769564
183	0x3de28ea8	0.11062366
184	0x3dc26248	0.09491402
185	0xbe177939	-0.14792337
186	0xbd7902e4	-0.060793772
187	0x3cd90dd8	0.026495859
188	0x3e026d24	0.12736946
189	0x3e39c3b2	0.18141058
190	0x3c7b6c20	0.015345603
191	0x3d8e0fe8	0.069366276
192	0xbdfa5dd2	-0.12224926
193	0x3d52b218	0.051439375
194	0xbd03a30c	-0.032137915
195	0x3e155070	0.14581466
196	0x3d5fcc24	0.054638043
197	0x3e193276	0.14960656
198	0x3db772c4	0.08957437
199	0x3dc3eebc	0.09567019
200	0x3d7cf8d8	0.061760753
201	0x3e28941a	0.16462746
202	0xbc945310	-0.018106014
203	0x3d1424d4	0.036167935
204	0xbe221044	-0.15826517
205	0x3ced2348	0.028947487
206	0xbe126a81	-0.1429844
207	0x3e1a9af2	0.1509817
208	0xbe13ffb1	-0.14453007
209	0xbde78142	-0.11303951
210	0xbe2bce8f	-0.16778015
211	0x3d464c9c	0.048412904
212	0x3d1d56f4	0.038413003
213	0x3da91804	0.08256534
214	0x3d8c9f1c	0.06866285
215	0xbc914da8	-0.017737225
216	0x3e09b2ee	0.13447163
217	0xbe0fbe7e	-0.14037511
218	0x3e12b390	0.1432631
219	0xbd8afa5b	-0.06786033
220	0x3e255cc2	0.16148666
221	0x3da66f20	0.08126664
222	0x3db533e8	0.08847791
223	0xbe0aa1d8	-0.13538301
224	0x3e1507fc	0.14553827
225	0xbe1a479e	-0.15066382
226	0x3c675450	0.014119223
227	0x3e2e2b64	0.1700874
228	0x3d5b5c90	0.05355507
229	0xbdb675c2	-0.08909179
230	0xbc913148	-0.017723694
231	0xbd533498	-0.05156383
232	0xbc606120	-0.013695031
233	0xbe19e9cc	-0.15030593
234	0xbe0c28b0	-0.13687396
235	0x3e0942ee	0.13404438
236	0xbda76cc6	-0.08175044
237	0x3d957138	0.072969854
238	0xbdb0bdba	-0.086299375
239	0xbcf0c5b8	-0.029391155
240	0xbc117000	-0.008876801
241	0xbe2efa93	-0.17087774
242	0x3e335c10	0.17515588
243	0x3d7e4874	0.062080815
244	0x3dcf4eec	0.10122475
245	0xbd6a61d0	-0.057222188
246	0xbe030e9a	-0.12798539
247	0xbe05d957	-0.1307119
248	0x3ae03880	0.0017106682
249	0xbdf56651	-0.11982406
250	0x3e38cbc2	0.18046477
251	0xbde0e745	-0.10981611
252	0xbca4beb0	-0.020110458
253	0x3d658958	0.056039184
254	0x3e0e3e56	0.13890967
255	0x3e0d2ff4	0.13787824

transformer_encoder.encoder.attention.fc_V.bias f4 [30]
0	0xbde25295	-0.110509075
1	0x3e20b256	0.1569303
2	0xbe020398	-0.12696683
3	0x3dae9e98	0.08526343
4	0xbe23533d	-0.15949722
5	0xbd9dd717	-0.07707041
6	0xbdabf436	-0.08396189
7	0xbe2b990e	-0.16757604
8	0xbc4d6f60	-0.012538761
9	0x3d8e22a8	0.06940204
10	0xbe0ecef2	-0.13946131
11	0xbde5af4b	-0.11215075
12	0x3dac7af8	0.08421892
13	0x3dfcf3ac	0.12351164
14	0x3e015b44	0.12632471
15	0xbe250773	-0.16116123
16	0xbdf4f01c	-0.1195986
17	0xbe23d7be	-0.16000268
18	0xbde46b97	-0.11153334
19	0xbe2b6ca0	-0.16740656
20	0x3e0a4d54	0.13506061
21	0x3d9af870	0.07566917
22	0xbc3738e0	-0.011182994
23	0xbe2551de	-0.16144511
24	0xbddced43	-0.107874416
25	0x3de24968	0.110491574
26	0x3d98c71c	0.07459852
27	0x3e1323d0	0.1436913
28	0x3dc81030	0.097687125
29	0xbe0fad45	-0.14030941

transformer_encoder.encoder.attention.fc.weight f4 [30, 30]
0	0x3d03b63c	0.032156214
1	0x3e2fb996	0.17160639
2	0x3e33127c	0.1748752
3	0xbda18c68	-0.078881085
4	0xbcf9dc68	-0.030500606
5	0x3d85baa8	0.065297425
6	0x3c0c4ad0	0.008562759
7	0xbe2a08d3	-0.16604929
8	0xbdf08cbe	-0.117455944
9	0xbd88c54a	-0.06678255
10	0xba601000	-0.0008547306
11	0xbdeb9ba4	-0.115042955
12	0xbe10963c	-0.1411981
13	0xbe1f9c47	-0.15586959
14	0xbddeb465	-0.10874251
15	0xbe2ebef7	-0.17065035
16	0x3de66d50	0.112513185
17	0xbe015841	-0.12631322
18	0x3ce58cc8	0.028021231
19	0xbe2ad9c6	-0.16684636
20	0xbd7d1f92	-0.061797686
21	0x3e21e0ea	0.15808454
22	0xbe1d0f3d	-0.15337844
23	0xbde027e9	-0.10945112
24	0x3dc2cf34	0.09512177
25	0x3d55f19c	0.05223237
26	0x3ddddc18	0.10832995
27	0xbd75b91c	-0.059990987
28	0xbcd8ec68	-0.026479915
29	0x3d8e5338	0.069494665
30	0x3cc9f630	0.024653524
31	0xbc0e5bf0	-0.008688912
32	0xbca5dbb8	-0.020246372
33	0xbde943f4	-0.11389914
34	0x3d701688	0.058615237
35	0x3e07aaa2	0.13248685
36	0x3db35e98	0.08758277
37	0x3d7efe30	0.06225413
38	0x3a47e500	0.0007625371
39	0xbcfcf5f8	-0.030879006
40	0xbda5635d	-0.08075593
41	0xbd50f8f4	-0.05101867
42	0xbd5ab8c8	-0.053398877
43	0x3e0b5138	0.13605201
44	0x3d3fea20	0.04685414
45	0x3e017d32	0.12645414
46	0xbda6caa9	-0.08144123
47	0x3e3737d6	0.17892393
48	0xbe369b4c	-0.17832679
49	0x3e38af00	0.18035507
50	0x3d120294	0.03564699
51	0xbe2df681	-0.16988565
52	0x3e25c506	0.1618844
53	0x3d9a8cec	0.0754641
54	0x3d2050c4	0.039139524
55	0x3d200780	0.039069653
56	0x3d9c4788	0.07630831
57	0x3e0e6602	0.139061
58	0x3d9912bc	0.074742764
59	0xbc93d7b8	-0.018047199
60	0xbc0ddf80	-0.008659244
61	0xbe0e7022	-0.13909963
62	0xbde9ebfd	-0.11421964
63	0xbe2de4b3	-0.16981773
64	0x3d11db34	0.03560944
65	0xbde271b6	-0.11056845
66	0x3e1d6360	0.1536994
67	0xbe0b8b33	-0.13627319
68	0x3ac4eb80	0.0015023798
69	0x3c5ff1b0	0.013668463
70	0xbbaa1f20	-0.0051916987
71	0xbce6cdd8	-0.028174326
72	0x3e16b958	0.1471914
73	0xbde75c89	-0.112969466
74	0x3c114fb0	0.008869097
75	0x3d210bd4	0.03931792
76	0xbd5f39dc	-0.05449854
77	0xbd839c17	-0.06426256
78	0xbd91a41d	-0.0711138
79	0xbdc4948b	-0.09598645
80	0xbd481228	-0.04884544
81	0x3d850036	0.06494181
82	0x3be5f7c0	0.0070180595
83	0x3d4e991c	0.050438985
84	0x3db3a474	0.08771601
85	0x390f6400	0.00013674796
86	0x3e0ab340	0.13544941
87	0xbe3985e1	-0.18117477
88	0xbe23bb9c	-0.15989536
89	0xbdec96c3	-0.11552193
90	0xbe147333	-0.1449707
91	0x3d7292e4	0.059222117
92	0x3e2c008e	0.16797087
93	0xbe28b448	-0.16475022
94	0x3d5be9cc	0.053689763
95	0xbdcc629a	-0.09979744
96	0xbe058c3e	-0.1304178
97	0x3e38045c	0.17970413
98	0xbdcb73fa	-0.0993423
99	0xbe19ccd8	-0.15019548
100	0x3bc0db20	0.0058854967
101	0xbc3950e0	-0.011310786
102	0xbd8dff92	-0.06933512
103	0xbd7168ee	-0.05893796
104	0x3db79450	0.08963835
105	0x3c6c20c0	0.014412105
106	0xbcddc0d8	-0.027069494
107	0x3e167c66	0.14695892
108	0xbe1be735	-0.15224917
109	0x3e03dbd0	0.1287682
110	0xbe37edbd	-0.17961784
111	0x3d840b94	0.06447521
112	0x3d2acd1c	0.041699514
113	0xbc826dc0	-0.015921474
114	0xbe0911e2	-0.13385728
115	0x3e0d2606	0.13784036
116	0x3d5af81c	0.05345927
117	0x3dbca6b4	0.092114836
118	0xbdf8511d	-0.12124846
119	0xbe3aca4e	-0.18241236
120	0x3e16076a	0.14651266
121	0xbe02d6b8	-0.12777221
122	0x3d920cd4	0.07131353
123	0x3bfde9e0	0.0077488273
124	0x3e3413b4	0.17585641
125	0xbe16a545	-0.14711483
126	0xbd92a548	-0.07160431
127	0xbde014a0	-0.10941434
128	0xbe0453f4	-0.1292265
129	0x3dd6a394	0.10480419
130	0x3d11e54c	0.035619065
131	0x3e05e8a2	0.13077024
132	0x3dbaefb4	0.09127751
133	0xbdba554b	-0.090982996
134	0x3da9beec	0.082883686
135	0x3d4cf4b8	0.05003807
136	0x3e314090	0.17309785
137	0xbd689170	-0.056779325
138	0xbd7dc120	-0.061951756
139	0x3d0eccd0	0.034863293
140	0x3ce68320	0.028138697
141	0x3d8ab750	0.06773245
142	0xbdf287fb	-0.118423425
143	0xbde6b902	-0.11265756
144	0x3cea5af8	0.02860783
145	0xbd0ccce4	-0.034375086
146	0x3e05291a	0.1300396
147	0x3e002466	0.12513885
148	0x3c9e7260	0.019341648
149	0xbe159360	-0.14607
150	0x3e32abf6	0.1744841
151	0xbcbc9b28	-0.023023203
152	0x3d894466	0.06702499
153	0xbd5331d4	-0.05156119
154	0xbe108765	-0.14114149
155	0x3e13ee7e	0.14446446
156	0xbd1632ac	-0.03666942
157	0x3cd1c070	0.025604457
158	0x3dc7a710	0.097486615
159	0xbdc853e4	-0.09781626
160	0xbd90a113	-0.070619725
161	0x3c398550	0.011323288
162	0xbdc9b4e0	-0.09848952
163	0xbb82d920	-0.0039931685
164	0x3dc0da70	0.09416664
165	0x3cc46230	0.0239726
166	0x3e28221e	0.16419265
167	0x3e22ef2c	0.1591155
168	0xbdbe3451	-0.09287322
169	0xbdd79f2f	-0.10528409
170	0x3d723ba0	0.059138894
171	0xbdfbe8da	-0.12300272
172	0xbdbdc9c6	-0.09267001
173	0xbd899bd0	-0.06719172
174	0x3df74504	0.120737106
175	0x3c59ddf0	0.013297543
176	0x3c191850	0.009344175
177	0xbe31efa6	-0.17376575
178	0x3ceb4b70	0.028722495
179	0x3db00b1c	0.08595869
180	0x3e042514	0.12904769
181	0xbe385aeb	-0.18003432
182	0xbd9a230a	-0.075262144
183	0xbc71fd40	-0.014769852
184	0xbda903cd	-0.08252678
185	0x3d7f4374	0.062320188
186	0x3db64120	0.0889914
187	0xbd0dea28	-0.034647137
188	0x3d9c2908	0.076250136
189	0x3e14dd0e	0.1453745
190	0x3ca93dd8	0.020659372
191	0x3ddaa660	0.10676265
192	0xbe184739	-0.1487092
193	0x3e1ee18e	0.1551573
194	0xbd82055d	-0.06348679
195	0xbd1186dc	-0.035529003
196	0xbd88190b	-0.066454016
197	0x3c931758	0.017955467
198	0xbd3fd284	-0.046831623
199	0xbd3aca30	-0.045602977
200	0x3d0c7998	0.03429565
201	0xbd9eafdd	-0.07748387
202	0xbc9cf640	-0.01916039
203	0x3e3534b4	0.17695886
204	0x3b5c6c40	0.0033633858
205	0x3e097402	0.1342316
206	0xbdd8ff72	-0.10595597
207	0x3d4fb0a4	0.050705567
208	0x3dcd529c	0.10025522
209	0xbdccd418	-0.10001391
210	0x3df44e04	0.11928943
211	0xbd97ec5a	-0.07418127
212	0x3dc5138c	0.09622869
213	0xbd5ac260	-0.053408027
214	0xbe23b0d0	-0.15985417
215	0x3d69c8d8	0.057076305
216	0x3e1fc226	0.15601406
217	0xbe2ab3bf	-0.1667013
218	0xbc0c6f80	-0.008571506
219	0x3dda4adc	0.106588095
220	0xbcccbfb0	-0.024993747
221	0xbdfb921c	-0.122837275
222	0x3e2ce604	0.16884619
223	0xbe0beb6b	-0.13664024
224	0x3dec0f9c	0.11526415
225	0xbe229ab4	-0.15879327
226	0xbd8daf45	-0.06918196
227	0xbe17e0de	-0.14831874
228	0xbde6292f	-0.11238324
229	0xbcc43d48	-0.023955002
230	0xbd3fde24	-0.04684271
231	0xbd7cf4ce	-0.0617569
232	0x3e2bce70	0.16777968
233	0x3d90a4a4	0.07062653
234	0x3dc45940	0.095873356
235	0xbd9bbd7d	-0.076045014
236	0xbd8f8e15	-0.07009522
237	0xbd9ae162	-0.075625196
238	0xbe320a1e	-0.17386672
239	0xbc1365a0	-0.008996397
240	0xbe3436f5	-0.1759909
241	0xbc9c16b0	-0.019053787
242	0x3d9dcec0	0.0770545
243	0x3da891d0	0.082309365
244	0xbd309fb0	-0.04312104
245	0x3d818e8e	0.06326018
246	0x3d36c768	0.044623762
247	0xbce2d748	-0.027690545
248	0x3db79ee4	0.08965853
249	0x3c30c260	0.01078853
250	0x3df89ac4	0.12138894
251	0x3e0f1e02	0.13976291
252	0x3d8a521c	0.06753942
253	0xbe179be8	-0.14805567
254	0xbd98b587	-0.074564986
255	0x3d2eae50	0.042646706

transformer_encoder.encoder.attention.fc.bias f4 [30]
0	0x3d5b71a4	0.053575173
1	0x3cbde7a0	0.023181736
2	0xbe028422	-0.12745717
3	0xbe2c8cda	-0.16850606
4	0xbe054e9a	-0.13018265
5	0xbe087c90	-0.13328767
6	0x3dba7e58	0.091061294
7	0xbd285f68	-0.04110661
8	0xbd1d9c48	-0.03847912
9	0xbdc6341b	-0.09677907
10	0x3d41ee70	0.047346532
11	0xbdac776d	-0.08421216
12	0xbdd8b937	-0.10582202
13	0xbcf41820	-0.02979666
14	0xbe1ed200	-0.15509796
15	0x3e1186e6	0.14211616
16	0xbd390098	-0.045166582
17	0xbd119d90	-0.035550654
18	0xbe1c5cb6	-0.15269741
19	0x3db47440	0.088112354
20	0xbd21f368	-0.03953877
21	0xbdf4841e	-0.11939262
22	0x3e229d5c	0.1588034
23	0xbe2b684a	-0.16739002
24	0x3c03c6b0	0.008042976
25	0x3e1c6b7c	0.15275377
26	0x3e09fed6	0.13476118
27	0xbe2260b8	-0.15857208
28	0xbd207394	-0.039172724
29	0x3d95d648	0.073162615

transformer_encoder.encoder.attention.layer_norm.weight f4 [30]
0	0x3f800000	1.0
1	0x3f800000	1.0
2	0x3f800000	1.0
3	0x3f800000	1.0
4	0x3f800000	1.0
5	0x3f800000	1.0
6	0x3f800000	1.0
7	0x3f800000	1.0
8	0x3f800000	1.0
9	0x3f800000	1.0
10	0x3f800000	1.0
11	0x3f800000	1.0
12	0x3f800000	1.0
13	0x3f800000	1.0
14	0x3f800000	1.0
15	0x3f800000	1.0
16	0x3f800000	1.0
17	0x3f800000	1.0
18	0x3f800000	1.0
19	0x3f800000	1.0
20	0x3f800000	1.0
21	0x3f800000	1.0
22	0x3f800000	1.0
23	0x3f800000	1.0
24	0x3f800000	1.0
25	0x3f800000	1.0
26	0x3f800000	1.0
27	0x3f800000	1.0
28	0x3f800000	1.0
29	0x3f800000	1.0

transformer_encoder.encoder.attention.layer_norm.bias f4 [30]
0	0x00000000	0.0
1	0x00000000	0.0
2	0x00000000	0.0
3	0x00000000	0.0
4	0x00000000	0.0
5	0x00000000	0.0
6	0x00000000	0.0
7	0x00000000	0.0
8	0x00000000	0.0
9	0x00000000	0.0
10	0x00000000	0.0
11	0x00000000	0.0
12	0x00000000	0.0
13	0x00000000	0.0
14	0x00000000	0.0
15	0x00000000	0.0
16	0x00000000	0.0
17	0x00000000	0.0
18	0x00000000	0.0
19	0x00000000	0.0
20	0x00000000	0.0
21	0x00000000	0.0
22	0x00000000	0.0
23	0x00000000	0.0
24	0x00000000	0.0
25	0x00000000	0.0
26	0x00000000	0.0
27	0x00000000	0.0
28	0x00000000	0.0
29	0x00000000	0.0

transformer_encoder.encoder.feed_forward.fc1.weight f4 [256, 30]
0	0xbbada620	-0.0052993447
1	0x3cfa3aa0	0.030545533
2	0xbe204de8	-0.15654719
3	0x3dc4c218	0.09607333
4	0x3e16f32a	0.14741197
5	0xbd798e04	-0.060926452
6	0xbdd87142	-0.10568477
7	0xbd9c3b71	-0.07628525
8	0x3cc50e88	0.02405478
9	0xbdf7ac1a	-0.12093373
10	0x3d6276c4	0.055289045
11	0x3ae11e00	0.0017175078
12	0x3de7f0c8	0.11325222
13	0xbc735430	-0.014851615
14	0x3e3255a2	0.17415479
15	0xbd0500fc	-0.032471642
16	0xbe02be87	-0.12767993
17	0x389c9800	7.466972e-05
18	0xbcc1f468	-0.023676112
19	0x3dc8ed74	0.098109156
20	0xbe2b46fd	-0.16726299
21	0x3e2e4c3e	0.17021272
22	0xbd86474f	-0.0655657
23	0xbd4a4044	-0.049377695
24	0xbcc9be88	-0.024626985
25	0x3e0ebc12	0.1393893
26	0xbd35863c	-0.04431747
27	0x3bc26520	0.005932465
28	0x3d4b95e8	0.04970351
29	0xbdad6667	-0.08466797
30	0x3e07ed3a	0.13274089
31	0xbdc88039	-0.097900815
32	0xbcc9a090	-0.024612695
33	0x3cb43848	0.021999493
34	0xbd928442	-0.071541324
35	0xbe06b452	-0.13154724
36	0x3e1bcd0e	0.15214941
37	0xbe010b38	-0.12601936
38	0x3e1f1748	0.15536225
39	0x3dcc67e4	0.09980753
40	0xbc538ad0	-0.012911513
41	0x3d2cd020	0.04219067
42	0x3d4c139c	0.04982339
43	0x3ddac8dc	0.10682842
44	0xbdd0cdb1	-0.101954825
45	0x3dbb71a4	0.091525346
46	0xbdea8afa	-0.11452289
47	0x3c726fc0	0.014797151
48	0xbc69f860	-0.014280409
49	0x3d99f450	0.07517302
50	0xbdeb2d15	-0.11483208
51	0x3e35bc12	0.17747524
52	0x3bac8680	0.005265057
53	0x3dbb0888	0.091324866
54	0x3d8d1d90	0.06890404
55	0x3dac0d1c	0.08400938
56	0x3e176a02	0.14786533
57	0xbdef8a41	-0.11696292
58	0xbe0baa00	-0.13639069
59	0x3d89b1d4	0.06723371
60	0xbe1d5bb4	-0.15367013
61	0xbbbcf020	-0.00576593
62	0x3d920608	0.071300566
63	0x3d9fde30	0.07806051
64	0x3dbb1f9c	0.091368884
65	0xbdccdee6	-0.10003452
66	0xbd8a68aa	-0.06758244
67	0xbae87800	-0.0017735958
68	0xbe13651f	-0.14394043
69	0xbe24440b	-0.16041581
70	0xbe2c3022	-0.16815236
71	0x3e18dbbc	0.14927572
72	0x3d825d66	0.063654706
73	0x3ddd6a24	0.1081126
74	0xbdb4467f	-0.088025086
75	0xbded1f53	-0.1157824
76	0x3e08dea6	0.13366184
77	0x3d973138	0.073824346
78	0x3d40a904	0.047036186
79	0x3e23cebe	0.15996835
80	0x3e028226	0.1274496
81	0x3dc5966c	0.09647831
82	0xbe1369be	-0.14395806
83	0x3dd3e334	0.1034607
84	0x3e39f98e	0.18161604
85	0xbc621a20	-0.013800174
86	0xbd95fd7c	-0.07323739
87	0x3d9c3b54	0.076285034
88	0x3e26ff52	0.16308334
89	0x3d29ed54	0.0414861
90	0xbd5d1d40	-0.053982973
91	0x3e016e86	0.12639818
92	0x3e089f54	0.13342029
93	0x3e04abd6	0.12956175
94	0x3e0cb4d4	0.13740855
95	0xbe235952	-0.15952042
96	0x3dace68c	0.08442411
97	0x3e04fea0	0.12987757
98	0x3e187ea8	0.14892066
99	0x3d35ebb0	0.044414222
100	0xbe0df63c	-0.13863462
101	0x3d8d6e58	0.06905812
102	0xbd7b1788	-0.061301738
103	0xbe145b68	-0.14487994
104	0xbe34126c	-0.17585152
105	0xbe386856	-0.18008551
106	0x3b9ed320	0.0048469454
107	0x3e07866c	0.13234872
108	0xbe30f317	-0.17280231
109	0x3cd0dbd0	0.02549544
110	0x3d29cf20	0.041457295
111	0xbd518900	-0.051156044
112	0x3cd24a30	0.025670141
113	0x3a853600	0.0010163188
114	0x3c818470	0.015810221
115	0x3d485284	0.048906818
116	0x3db817f8	0.08988947
117	0x3e1a0e4a	0.15044513
118	0x3e04b7c8	0.12960732
119	0xbd82d6db	-0.06388637
120	0x3e2926c0	0.16518688
121	0xbba49ae0	-0.0050233454
122	0x3e35dbc4	0.17759615
123	0xbe3484be	-0.17628762
124	0xbd1c6640	-0.03818345
125	0xbda73297	-0.08163946
126	0x3d5b4e60	0.05354154
127	0xbd3a1e70	-0.045439184
128	0xbddf7f73	-0.10912981
129	0x3d2ed7c0	0.042686224
130	0x3d83a354	0.06427637
131	0x3e2609ca	0.16214672
132	0xbda38ea1	-0.07986189
133	0x3cdaab78	0.02669309
134	0xbdcb1ed1	-0.09917987
135	0x3d9db36c	0.07700238
136	0x3e223ac2	0.15842727
137	0x3dfc825c	0.123295516
138	0x3df63388	0.120215476
139	0xbe239bf3	-0.15977459
140	0x3d727ba4	0.059199944
141	0x3e249fe8	0.16076624
142	0xbda673d2	-0.0812756
143	0x3c815710	0.015788585
144	0x3e24340a	0.16035476
145	0x3d6d4254	0.057924584
146	0xbd9732f3	-0.07382765
147	0x3e34c942	0.17654899
148	0x3e19fa44	0.15036875
149	0x3e18b162	0.14911416
150	0xbddcda89	-0.1078387
151	0xbe315f12	-0.17321423
152	0x3da4dca8	0.08049899
153	0xbc7bc6a0	-0.01536718
154	0x3e12fb0a	0.14353576
155	0xbe36f673	-0.1786745
156	0x3c8f5ca8	0.017500237
157	0x3dbdf0e8	0.09274465
158	0xbcb27010	-0.021781951
159	0xbd955dd3	-0.07293286
160	0xbe101015	-0.14068635
161	0x3dacc5f8	0.08436197
162	0x3e2e992c	0.17050618
163	0xbe3932e6	-0.18085822
164	0x3cbf7a10	0.023373634
165	0x3e0872d4	0.13325053
166	0x3d6f2598	0.05838546
167	0x3d3e9894	0.04653223
168	0x3d4be310	0.04977709
169	0xbdf2307b	-0.11825653
170	0x3e2ecbc6	0.17069921
171	0xbd1e1e28	-0.038602978
172	0xbe23dcb6	-0.16002163
173	0xbdcfe264	-0.101506025
174	0xbdba5b0b	-0.09099396
175	0xbd7dd87a	-0.061974026
176	0x3bc43020	0.0059871823
177	0x3de76eb0	0.11300409
178	0xbe12e014	-0.14343292
179	0x3c84f4a0	0.016229928
180	0xbe2e0845	-0.16995342
181	0xbd1265b4	-0.035741523
182	0xbd8ef77e	-0.06980799
183	0xbda013a4	-0.07816246
184	0x3e204f82	0.1565533
185	0xbb791cc0	-0.003801152
186	0x3e0a3f6a	0.13500753
187	0x3e33fb54	0.17576343
188	0xbd87901a	-0.06619282
189	0x3d55d988	0.052209407
190	0x3c49e800	0.0123233795
191	0xbbe2af00	-0.0069178343
192	0xbdb4240c	-0.08795938
193	0x3da2b314	0.07944313
194	0x3dba1864	0.090866834
195	0xbe1914a3	-0.14949279
196	0xbc28e7f0	-0.010309204
197	0x3e1d9a76	0.15390953
198	0x3ce2a4f8	0.027666554
199	0xbdd69b61	-0.10478855
200	0xbd280a08	-0.04102519
201	0xbe1d95bd	-0.15389152
202	0xbe00542d	-0.1253211
203	0xbdbfdb8f	-0.09368049
204	0xbe21feff	-0.1581993
205	0x3d483d60	0.048886657
206	0xbe0db23d	-0.13837524
207	0xbdda52c3	-0.10660317
208	0x3ddd7208	0.10812765
209	0x3d9f8928	0.07789832
210	0xbe1a5492	-0.15071324
211	0xbe2e743b	-0.17036526
212	0x3c6d4120	0.014480859
213	0x3b9e5200	0.0048315525
214	0xbc4ae9f0	-0.012384877
215	0x3c7d80a0	0.015472561
216	0x3d9bb568	0.0760296
217	0x3de17f70	0.11010635
218	0xbe351917	-0.17685352
219	0xbda55b6c	-0.08074078
220	0xbdfd8f14	-0.123808056
221	0x3e281f0a	0.1641809
222	0x3d61dfd8	0.055145115
223	0x3e1b8de4	0.15190846
224	0xbe1b45ba	-0.15163317
225	0xbd22908c	-0.039688632
226	0x3d32e03c	0.043670878
227	0x3d5bb8d4	0.053643063
228	0xbcff4b58	-0.031163856
229	0xbe044011	-0.12915064
230	0x3d5a4b84	0.053294674
231	0xbd525d58	-0.05135855
232	0xbb8599a0	-0.0040771514
233	0xbe3229d2	-0.17398766
234	0x3c125fe0	0.008933991
235	0x3e2645e8	0.16237605
236	0x3de6866c	0.11256108
237	0xbd9446b9	-0.07240052
238	0x3d852786	0.06501679
239	0x3c29dea0	0.010368019
240	0x3dd719e0	0.10502982
241	0x3d005618	0.031332105
242	0xbe0dc0db	-0.138431
243	0x3c71e6a0	0.014764458
244	0x3df65bd0	0.120292306
245	0x3def4520	0.116831064
246	0x3e263ff2	0.1623533
247	0xbcfa92b8	-0.03058754
248	0xbd8ef71e	-0.069807276
249	0xbe2927da	-0.16519108
250	0x3e1630ba	0.14667025
251	0x3d9e2808	0.07722479
252	0x3e0ec6fc	0.13943094
253	0x3e3205da	0.17385045
254	0x3dcc1db8	0.09966606
255	0xbe18abfa	-0.14909354

transformer_encoder.encoder.feed_forward.fc1.bias f4 [256]
0	0xbccfb618	-0.025355384
1	0x3e1e6c4a	0.15470996
2	0xbe05d637	-0.13069998
3	0xbbedef40	-0.007261187
4	0xbd91e48d	-0.07123671
5	0xbd9d9179	-0.07693762
6	0xbbd50620	-0.0065009743
7	0xbe2bf56e	-0.16792843
8	0x3e24e3b4	0.16102487
9	0x3d950bb4	0.07277623
10	0x3da26798	0.07929915
11	0xbd35d040	-0.044388056
12	0xbe306e04	-0.17229468
13	0xbe1e667b	-0.1546878
14	0x3c243010	0.010021225
15	0x3ca97188	0.020684019
16	0x3d2c9be0	0.04214084
17	0x3d2d4308	0.042300254
18	0x3d42a8ec	0.047524378
19	0xbe0fdafd	-0.14048381
20	0x3db08140	0.086184025
21	0xbe134dc3	-0.14385132
22	0xbd553290	-0.052050173
23	0x3e0d9452	0.13826111
24	0x3dcbed7c	0.09957406
25	0xbd8601b9	-0.06543297
26	0xbdcdd181	-0.10049725
27	0x3daa45e8	0.08314115
28	0x3d927dd4	0.07152906
29	0x3d7b3354	0.061328247
30	0x3dabf1d8	0.083957374
31	0xbe237046	-0.15960798
32	0xbd5d3470	-0.054005086
33	0xbd08b880	-0.033379078
34	0x3c22e9b0	0.009943411
35	0xbe11a9b7	-0.14224897
36	0xbdbe9bc8	-0.09307057
37	0xbe037ce9	-0.12840618
38	0x3c9827c8	0.018573657
39	0x3e01dada	0.12681141
40	0x3e0ec756	0.13943228
41	0x3dfdc11c	0.12390348
42	0xbdf913c0	-0.1216197
43	0x3d103054	0.03520234
44	0x3dc37054	0.09542909
45	0x3c9923a8	0.01869376
46	0xbd8c8f20	-0.068632364
47	0xbd5f42ac	-0.054506943
48	0x3e12aaaa	0.14322916
49	0x3e0c12f4	0.13679105
50	0xbda7e3fb	-0.08197781
51	0x3c345ef0	0.011008963
52	0xbd739524	-0.059468403
53	0xbc2c1370	-0.010502681
54	0x3e385672	0.18001726
55	0xbd5cd5a8	-0.053914696
56	0x3d0ba390	0.034091532
57	0xbdc968bb	-0.09834429
58	0xbd560fe4	-0.05226125
59	0x3d83aef4	0.06429854
60	0xbe045ec3	-0.12926774
61	0xbe1ec311	-0.155041
62	0x3dd0a16c	0.10187039
63	0x3e34e6de	0.17666194
64	0x3dcad814	0.09904495
65	0xbdd922b5	-0.10602323
66	0xbdeb8494	-0.11499897
67	0x3e2b178a	0.16708198
68	0x3d154ae0	0.03644836
69	0x3e3685fe	0.17824551
70	0xbe077823	-0.13229422
71	0xbcae6e80	-0.021292925
72	0x3da382cc	0.07983932
73	0x3e13ec20	0.14445543
74	0x3e37a2fc	0.17933267
75	0xbd5b63b4	-0.05356188
76	0xbe09fdc7	-0.13475715
77	0xbdb031a0	-0.08603215
78	0xbdc74d91	-0.097315915
79	0xbda3f891	-0.08006395
80	0xbba51be0	-0.0050387233
81	0x3dfabb78	0.12242788
82	0x3dc5f89c	0.09666559
83	0x3de09a4c	0.1096693
84	0xbd0694fc	-0.032856926
85	0xbc895450	-0.016763836
86	0xbdb9dc5c	-0.09075233
87	0xbd26bf14	-0.04070957
88	0xbd8dfe6e	-0.06933294
89	0x3e0763cc	0.13221663
90	0xbc34a0f0	-0.011024699
91	0xbdb7e143	-0.08978512
92	0xbca36850	-0.019947201
93	0xbd3319e0	-0.04372585
94	0xbe02d40f	-0.12776206
95	0x3e158b42	0.14603904
96	0xbdb409ee	-0.087909564
97	0xbbb0de60	-0.005397603
98	0xbe1fbdcb	-0.15599744
99	0x3db5ecf8	0.08883089
100	0x3de706a4	0.112805635
101	0x3db48b2c	0.088156074
102	0x3d560748	0.052253038
103	0x3d7b57d4	0.061363056
104	0x3d15746c	0.03648798
105	0xbdc5b1a2	-0.096530214
106	0x3d38c1a0	0.04510653
107	0xbd5718b0	-0.05251378
108	0x3debbca8	0.11510593
109	0x3c8645f0	0.01639077
110	0xbe2761ed	-0.1634595
111	0x3c0a3260	0.008434862
112	0x3e0cef88	0.13763249
113	0xbdf3bac3	-0.11900856
114	0xbe3768f6	-0.17911133
115	0x3dba7f48	0.09106308
116	0xbe241ccf	-0.16026615
117	0xbe1cea9f	-0.15323876
118	0xbd6bb10c	-0.057541892
119	0x3da44d18	0.08022517
120	0x3ccef0b0	0.025261253
121	0xbdd7d528	-0.10538703
122	0xbe0a1bc6	-0.13487157
123	0x3e076eca	0.13225856
124	0x3e2713a2	0.16316083
125	0xbd524070	-0.051330984
126	0x3b5ff400	0.0034172535
127	0xbd8f7509	-0.070047446
128	0x3d94643c	0.07245681
129	0x3e1d26a2	0.15346768
130	0xbd0adec0	-0.033903837
131	0xbd5f0368	-0.054446608
132	0x3dd650f4	0.10464659
133	0x3dbf07b0	0.09327638
134	0xbd927255	-0.07150713
135	0x3dd692e0	0.10477233
136	0xbddfd5a6	-0.10929422
137	0x3cbc9fe8	0.023025468
138	0x3e1f3ec2	0.15551284
139	0xbe26997a	-0.16269484
140	0x3e2986ac	0.1655528
141	0xbd9ea185	-0.07745651
142	0xbde8d579	-0.11368842
143	0x3e1e28ea	0.15445295
144	0xbd7505d4	-0.05982001
145	0x3abb4600	0.0014287829
146	0x3d2b57f4	0.041831926
147	0xbd12cbec	-0.035839006
148	0xbba84740	-0.005135447
149	0x3b59c100	0.003322661
150	0xbe2683b9	-0.16261186
151	0x3de72798	0.11286849
152	0x3d462534	0.048375323
153	0xbe1f51e6	-0.15558586
154	0x3dca9434	0.09891549
155	0x3c068190	0.008209601
156	0x3e348f62	0.17632821
157	0xbe063aea	-0.13108411
158	0xbd703668	-0.058645636
159	0xbda15635	-0.07877771
160	0xbdc95fd4	-0.09832731
161	0x3de2e8b8	0.11079544
162	0x3c2f8c70	0.010714635
163	0xbca133c0	-0.019677997
164	0xbd3a1f24	-0.045439854
165	0x3e0e2efc	0.1388511
166	0xbe04d305	-0.12971123
167	0x3dab9188	0.08377367
168	0x3e06508c	0.13116664
169	0xbb8a03c0	-0.004211873
170	0xbd6cf036	-0.05784627
171	0x3de8f570	0.113749385
172	0x3da895e0	0.082317114
173	0x3d3cc300	0.046084404
174	0xbbfd66c0	-0.007733196
175	0xbd9c3106	-0.07626538
176	0xbe23acf7	-0.1598395
177	0x3e2fa7fe	0.17153928
178	0x3dcaddec	0.099056095
179	0x3dfa76bc	0.12229678
180	0x3d4aa2e0	0.049471736
181	0xbd6be20c	-0.057588622
182	0xbd50c014	-0.05096443
183	0xbd363a64	-0.04448928
184	0xbd7fa308	-0.062411338
185	0xbcf3cd80	-0.029761076
186	0x3dbc04a8	0.091805756
187	0xbdbc9594	-0.09208217
188	0xbdc7befa	-0.09753223
189	0xbda3b365	-0.07993201
190	0xbe10ba68	-0.14133608
191	0xbdd9cc34	-0.10634652
192	0x3d3703cc	0.044681355
193	0x3dfa1bac	0.12212309
194	0x3bbefac0	0.0058282316
195	0x3e2103f8	0.1572417
196	0x3e26b678	0.16280544
197	0x3ddcb27c	0.10776231
198	0xbd9817b4	-0.07426396
199	0x3d8ed27c	0.069737405
200	0x3e1b40ec	0.15161484
201	0x3cb4d5a8	0.022074535
202	0x3d984440	0.07434893
203	0x3d1a877c	0.037726864
204	0x3ded2b94	0.115805775
205	0xbdd4bfd4	-0.10388151
206	0x3e2108dc	0.15726036
207	0xbdaabd35	-0.083368696
208	0xbd2564f0	-0.040379465
209	0xbe1662e0	-0.14686155
210	0xbd7d7efe	-0.061888687
211	0xbe2b9023	-0.16754203
212	0x3da433c8	0.08017689
213	0x3ba59c80	0.0050540566
214	0x3d2eb80c	0.04265599
215	0xbd571044	-0.052505746
216	0xbbbcce60	-0.0057619065
217	0xbe1997d5	-0.14999326
218	0xbdba49bc	-0.09096095
219	0xbd645894	-0.055748537
220	0x3de72ba0	0.11287618
221	0xbe03cc8b	-0.12870996
222	0x3ddeade0	0.10873008
223	0xbdfbf23c	-0.12302062
224	0xbd19dc48	-0.037563592
225	0xbdf02a07	-0.11726766
226	0xbe12d758	-0.1433996
227	0xbe2a71fc	-0.16645044
228	0x3dd1bcbc	0.10241076
229	0xbd98d000	-0.07461548
230	0x3e2da54e	0.1695759
231	0x3dd32f1c	0.1031172
232	0x3e1d9a34	0.15390855
233	0x3e316fdc	0.17327827
234	0x3d64668c	0.05576186
235	0x3dea9eb8	0.114560544
236	0x3def5f00	0.11688042
237	0x3e10c810	0.14138818
238	0xbcf18638	-0.029482946
239	0x3dec5cc4	0.11541131
240	0x3e373096	0.17889628
241	0xbe03e461	-0.12880088
242	0xbe2f240f	-0.17103599
243	0x3dc6dd90	0.097102284
244	0x3e375516	0.17903551
245	0xbc123100	-0.008922815
246	0x3e1d1470	0.15339828
247	0x3e304940	0.17215443
248	0xbe2f0e22	-0.17095235
249	0xbe0251f5	-0.12726577
250	0xbd114c34	-0.035473064
251	0xbe0ce304	-0.13758475
252	0x3c9a4cc8	0.01883544
253	0xbdc276a4	-0.09495285
254	0x3b9fe860	0.004879996
255	0x3da8a5c8	0.08234745
