simple2transformer/param/net_param/Mk03_actor_net.model (torch, 168959 bytes, 34 tensors)

transformer_encoder.encoder.attention.fc_Q.weight f4 [30, 30]
0	0x3d2064fc	0.039158806
1	0x3dcf4274	0.10120097
2	0xbd819d5d	-0.06328843
3	0x3df5e4f4	0.1200656
4	0x3c972fe8	0.01845546
5	0x3df144b0	0.11780679
6	0x3d08dd6c	0.03341429
7	0x3d6bb60c	0.05754666
8	0xbdfaf8a8	-0.12254459
9	0xbce21640	-0.0275985
10	0x3cac6548	0.021044388
11	0x3e25fc44	0.16209513
12	0xbe2f23c5	-0.17103489
13	0x3dfb6368	0.122748196
14	0xbd759790	-0.059958994
15	0xbe0e29a8	-0.13883078
16	0xbdb33988	-0.087512076
17	0xbe1f00c6	-0.15527639
18	0x3d8a2bc8	0.06746632
19	0x3e3a63aa	0.18202081
20	0xbdf3a0b3	-0.11895885
21	0xbe3164e9	-0.1732365
22	0xbe0715b5	-0.13191874
23	0xba4c6f00	-0.0007798523
24	0xbc284ae0	-0.010271758
25	0x3d53d274	0.051714376
26	0x3e10d3d6	0.14143309
27	0xbdf588bb	-0.1198897
28	0x3d8a42ec	0.067510456
29	0xbd1bc25c	-0.038027152
30	0xbc13c920	-0.00902012
31	0xbbdf9fc0	-0.0068244636
32	0xbe34ef05	-0.17669304
33	0xbc439770	-0.011937961
34	0xbe16bd95	-0.14720757
35	0xbc7ed410	-0.015553489
36	0x3d9e2bf8	0.0772323
37	0x3dd675b8	0.10471672
38	0xbcca6100	-0.024704456
39	0xbe1e0cf6	-0.15434632
40	0xbdde79d5	-0.10863081
41	0x3b838ac0	0.004014343
42	0xbdc6fe94	-0.09716526
43	0x3ccf6be0	0.025319993
44	0xbdfbe3af	-0.122992866
45	0x3e2c5bf8	0.16831958
46	0x3e20bfd4	0.15698177
47	0xbe155749	-0.14584078
48	0x3dad0de0	0.08449912
49	0x3dd20edc	0.102567405
50	0xbe13a2dd	-0.14417596
51	0xbe0e628c	-0.1390478
52	0xbda6f4b2	-0.08152141
53	0x3c57dd40	0.013175309
54	0x3db89708	0.09013182
55	0x3d8b5dcc	0.06805
56	0xbd571b34	-0.052516177
57	0x3d3c4970	0.045968473
58	0xbe30664b	-0.17226522
59	0xbb9b3860	-0.004736945
60	0x3c857380	0.016290426
61	0xbe09a20b	-0.1344072
62	0x3b936c40	0.0044989884
63	0xbe002dd7	-0.12517487
64	0xbd57ea78	-0.05271384
65	0x3d39d8c0	0.045372725
66	0x3c3080c0	0.010772884
67	0xbd345ca4	-0.04403366
68	0xbe29f636	-0.16597828
69	0xbdd31e80	-0.10308552
70	0x3d1e5314	0.03865345
71	0xbdc95b0f	-0.09831821
72	0x3d8eac60	0.06966472
73	0x3e110656	0.14162573
74	0x3d8b86f8	0.068128526
75	0xbd1ef3a8	-0.038806587
76	0x3e0c219c	0.13684696
77	0x3c004370	0.007828578
78	0x3e145200	0.14484406
79	0xbc91a968	-0.017780975
80	0x3d854bbc	0.06508586
81	0xbcd07f70	-0.025451392
82	0x3e237cbe	0.15965554
83	0xbe3a501b	-0.1819462
84	0xbd957040	-0.072968006
85	0xbdbfbd9e	-0.093623385
86	0x3d4a9b74	0.049464658
87	0x3cec34a8	0.028833702
88	0x3cf55000	0.029945374
89	0xbe30ed0f	-0.1727793
90	0xbdb9e866	-0.090775296
91	0xbe3acbf0	-0.18241858
92	0xbe397081	-0.18109323
93	0xbe3642a4	-0.17798859
94	0xbdfcadd7	-0.12337845
95	0x3e2dbe0c	0.16967028
96	0x3dfe8f00	0.12429619
97	0x3e29f2c0	0.16596508
98	0xbc6061b0	-0.0136951655
99	0x3d23f9fc	0.040033326
100	0xbd3a7d8c	-0.045529887
101	0x3d115e08	0.035490066
102	0xbafdc380	-0.0019360632
103	0xbdd51ea2	-0.10406233
104	0x3cc08928	0.023502901
105	0x3e11b46e	0.14228985
106	0x3d878dcc	0.066188425
107	0x3d388a98	0.04505405
108	0x3e30644c	0.1722576
109	0xbd93a2a6	-0.07208757
110	0xbe1fe27e	-0.15613744
111	0xbdca7b6c	-0.09886822
112	0xbe08a92b	-0.13345782
113	0x3d18850c	0.03723626
114	0xbd676664	-0.05649413
115	0xbe0b06de	-0.13576838
116	0xbd865a86	-0.06560235
117	0x3d6e5d34	0.058194354
118	0xbe0c2c5e	-0.136888
119	0x3da3cbb4	0.07997838
120	0x3e263c26	0.16233882
121	0xbdbec1e2	-0.09314324
122	0x3c4b9470	0.012425527
123	0xbe12e7fc	-0.14346308
124	0x3d95e7c8	0.073195994
125	0x3de8f2e4	0.11374453
126	0x3d1e4d30	0.03864783
127	0xbdaafae2	-0.08348633
128	0xbcb718e0	-0.022350729
129	0xbdadb98b	-0.08482655
130	0xbd77d9b6	-0.06051036
131	0xbe1eb2c4	-0.15497881
132	0xbe30246f	-0.17201398
133	0x3cc5bd90	0.024138242
134	0x3e0fae4c	0.14031333
135	0x3d8324ca	0.06403501
136	0x3bed22a0	0.0072367936
137	0x3ddd3c74	0.10802546
138	0x3da51a58	0.08061665
139	0xbd642268	-0.055696875
140	0x3e18011e	0.14844176
141	0xbdbe3cc9	-0.092889376
142	0xbcdcd330	-0.02695617
143	0xbe1211b7	-0.1426457
144	0xbd66dde4	-0.056363955
145	0x3e059400	0.13044739
146	0x3c7cfff0	0.01544188
147	0x3df09484	0.11747077
148	0x3d6a92c0	0.057268858
149	0xbe0a1782	-0.1348553
150	0xbdfe4d86	-0.1241713
151	0xbe12659a	-0.1429657
152	0x3dc34cd4	0.09536138
153	0x3d2d2cb0	0.042278945
154	0x3d3cc504	0.046086326
155	0xbe1cec7b	-0.15324585
156	0xbd990238	-0.07471126
157	0x3e33b1b2	0.17548254
158	0x3d5bbc20	0.053646207
159	0xbcb66c80	-0.022268534
160	0xbd8dc0cc	-0.06921539
161	0xbded5492	-0.11588396
162	0x3dc8fd74	0.09813967
163	0x3d9577dc	0.07298252
164	0xbe0921f8	-0.13391864
165	0xbd5ebf40	-0.05438161
166	0x3d41ce78	0.047316045
167	0x3d148638	0.036260813
168	0xbb2253c0	-0.0024769157
169	0x3c42dcc0	0.011893451
170	0xbe1f87f5	-0.15579207
171	0x3e1c2082	0.15246776
172	0x3e354bc2	0.1770468
173	0x3e12a0de	0.14319178
174	0x3cdbe388	0.026841894
175	0x3c013440	0.0078859925
176	0xbe290c54	-0.16508609
177	0xbcecec58	-0.028921291
178	0xbcebb398	-0.02877216
179	0x3de59068	0.11209184
180	0xbd744498	-0.05963573
181	0xbddaeb24	-0.10689381
182	0xbc616070	-0.013755903
183	0x3d987d94	0.07445827
184	0xbd5a4b6c	-0.053294584
185	0xbd8f3dcc	-0.06994209
186	0xbe1ff082	-0.1561909
187	0xbdc7393b	-0.09727713
188	0x3db7dd80	0.08977795
189	0xbdaece19	-0.08535404
190	0xbd977a56	-0.073963806
191	0x3cc7c518	0.024385974
192	0xbd410310	-0.04712206
193	0x3e0b0724	0.13576943
194	0xbdb9f3c4	-0.09079698
195	0x3d35c030	0.044372737
196	0xbbd2a4e0	-0.006428346
197	0xbc7f8590	-0.015595809
198	0xbd6d49a6	-0.057931565
199	0x3b86fe40	0.0041196644
200	0x3e1b4690	0.15163636
201	0xbd829373	-0.0637578
202	0x3dab2770	0.083571315
203	0xbc30ff10	-0.010802999
204	0x3dcf9bc0	0.10137129
205	0xbc5ceb00	-0.013483763
206	0x3e00c742	0.12576011
207	0x3e0079ec	0.1254651
208	0xbdb61590	-0.088908315
209	0xbe006408	-0.12538159
210	0x3e384b8a	0.17997566
211	0xbd2595c0	-0.040426016
212	0x3d47ddb4	0.048795417
213	0xbe34e1d5	-0.17664273
214	0x3e37f89a	0.17965928
215	0x3e1a8db4	0.15093118
216	0x3e040538	0.12892616
217	0x3e2a69ba	0.16641894
218	0x3c9e6580	0.019335508
219	0xbceed288	-0.029153123
220	0x3de12eec	0.10995278
221	0xbd47eca8	-0.048809677
222	0xbd152cc4	-0.036419645
223	0x3d2e5788	0.042563945
224	0x3de96eb4	0.11398068
225	0xbdad1a02	-0.08452226
226	0x3da1acc0	0.078942776
227	0x3d44d94c	0.048058793
228	0x3d930ca0	0.071801424
229	0x3e283f1e	0.16430327
230	0xbdbf287d	-0.093338944
231	0xbd1e6c08	-0.038677245
232	0xb8a1b800	-7.711351e-05
233	0x3d1dfb94	0.03857
234	0x3d49cf98	0.049270242
235	0x3d2e4788	0.042548686
236	0x3c3595b0	0.011083052
237	0xbe078aa7	-0.13236485
238	0xbe278e7b	-0.16362946
239	0xbe23c0d2	-0.15991524
240	0x3e1febe4	0.15617329
241	0x3e031bb2	0.12803534
242	0xbe0179ae	-0.12644073
243	0x3d75b930	0.05999106
244	0x3e131528	0.14363539
245	0x3e13d200	0.14435577
246	0xbc806118	-0.015671298
247	0xbccc2a40	-0.02492249
248	0x3e1e6bae	0.15470764
249	0x3e3af25c	0.18256515
250	0xbd0d4c90	-0.034496844
251	0xbe3664e7	-0.17811929
252	0x3c99bdf8	0.018767342
253	0x3e36e290	0.17859864
254	0x3bf29b80	0.007403791
255	0xbdce50bd	-0.10073993

transformer_encoder.encoder.attention.fc_Q.bias f4 [30]
0	0xbc9f1f98	-0.019424245
1	0xbe366d82	-0.17815211
2	0xbe32a708	-0.1744653
3	0xbe07ec14	-0.1327365
4	0xbdc64351	-0.09680808
5	0x3d155c38	0.0364649
6	0x3c8b3850	0.016994625
7	0x3e0139ce	0.12619707
8	0xbcaa08d8	-0.02075617
9	0xbe157452	-0.14595154
10	0x3e0e0ea4	0.13872772
11	0x3dce0b6c	0.10060772
12	0xbe09e300	-0.134655
13	0x3dac7288	0.084202826
14	0xbd310e48	-0.04322651
15	0x3da5ef10	0.08102238
16	0xbdfda88f	-0.123856656
17	0xbe2e113f	-0.16998766
18	0x3dcc8728	0.099867165
19	0x3e031a14	0.12802917
20	0x3ca56348	0.020188943
21	0x3e18c7ce	0.1491997
22	0xbd26bb80	-0.040706158
23	0x3dda4e50	0.10659468
24	0x3da767d0	0.081740975
25	0xbe2a4718	-0.16628683
26	0xbd776314	-0.060397223
27	0x3dbfa704	0.093580276
28	0x3e00db50	0.12583661
29	0xbdf058fc	-0.117357224

transformer_encoder.encoder.attention.fc_K.weight f4 [30, 30]
0	0x3e2d8834	0.16946489
1	0x3df259b8	0.11833519
2	0x3d930a34	0.071796805
3	0xbd0cddec	-0.03439133
4	0xbe367962	-0.17819741
5	0x3dedd4c4	0.116128474
6	0xbdb3cd13	-0.08779349
7	0x3e3600fe	0.17773816
8	0xbd610e70	-0.05494541
9	0xbdb47d33	-0.08812942
10	0xbdc3b186	-0.09555344
11	0x3e362200	0.17786407
12	0x3e143902	0.14474872
13	0x3e2fc4ea	0.1716496
14	0xbddbebe6	-0.107383534
15	0x3c3b6b60	0.011439174
16	0xbc72f3d0	-0.014828637
17	0xbe2d0de2	-0.16899827
18	0x3e2cb732	0.16866758
19	0xbd09ceb0	-0.03364438
20	0x3db97adc	0.09056637
21	0x3e25e712	0.16201428
22	0x3d879944	0.0662103
23	0xbe24a6f4	-0.16079313
24	0x3e173fe6	0.14770469
25	0x3d023714	0.031790808
26	0x3e0626b4	0.13100702
27	0x3ded8ab0	0.11598718
28	0x3dcf6e40	0.101284504
29	0xbe18d502	-0.14925006
30	0x3c106770	0.008813724
31	0x3d94a4ac	0.07257971
32	0xbe337810	-0.17526269
33	0x3d8731b6	0.066012785
34	0xbd4b688c	-0.04966025
35	0x3e07bb00	0.13254929
36	0x3c51aa00	0.012796879
37	0xbdd9c954	-0.106341034
38	0xbdea23ca	-0.114326075
39	0x3d0cab88	0.034343272
40	0xbe173ea8	-0.14769995
41	0x3d9ef548	0.077616274
42	0x3e3502c6	0.17676839
43	0x3ddff1e0	0.10934806
44	0x3e23e520	0.16005373
45	0xbdf5f73f	-0.12010049
46	0xbdb4b176	-0.088229105
47	0x3dfc21b0	0.12311113
48	0xbd7fb2f6	-0.06242653
49	0xbd82affd	-0.06381223
50	0x3e090b40	0.13383198
51	0x3e20ea2a	0.15714327
52	0xbcb568a8	-0.02214463
53	0xbde019ef	-0.109424464
54	0xbc64d6f0	-0.013967261
55	0x3e1d92be	0.15388009
56	0x3e34709e	0.17621085
57	0x3d88ccf8	0.0667972
58	0x3e13479c	0.14382786
59	0x3e106244	0.14099985
60	0xbda0d535	-0.07853166
61	0x3d749854	0.059715584
62	0x3dd2819c	0.10278627
63	0x3d362d98	0.044477075
64	0x3c667b20	0.014067441
65	0x3dfe28e0	0.1241014
66	0x3e0b141a	0.13581887
67	0xbbd17d00	-0.006393075
68	0xbc233cb0	-0.0099631995
69	0xbe349b4f	-0.1763737
70	0x3d570adc	0.05250059
71	0xbd98b54c	-0.07456455
72	0x3cde3520	0.027124941
73	0xbdf977ec	-0.121810764
74	0x3e12358c	0.14278239
75	0xbdbaed38	-0.09127277
76	0x3dbb7dd0	0.09154856
77	0xbdcbe307	-0.099554114
78	0x3dc825fc	0.0977287
79	0xbc9ce3b8	-0.019151554
80	0xbbe5ae60	-0.0070093125
81	0x3e322098	0.17395246
82	0xbdc43d83	-0.09582045
83	0xbcfd3270	-0.03090784
84	0xbda532ca	-0.08066328
85	0xbd9c148b	-0.07621106
86	0xbe282f73	-0.1642435
87	0x3d5d3af0	0.054011285
88	0xbe29911e	-0.16559264
89	0x3e1b5e2c	0.15172642
90	0xba8c9b80	-0.0010727495
91	0xbe278ea7	-0.16363011
92	0xbcb5ad18	-0.022177264
93	0xbce2cdb0	-0.02768597
94	0xbe08e85b	-0.13369887
95	0xbd8e484b	-0.069473825
96	0xbe28d8f9	-0.16489018
97	0x3e0a735a	0.13520566
98	0x3d654164	0.055970564
99	0x3cc60a08	0.024174705
100	0x3e05ceb8	0.13067138
101	0xbdf18b23	-0.11794116
102	0xbbca7160	-0.006178066
103	0xbd62dd00	-0.055386543
104	0xbe0297b3	-0.12753181
105	0xbe17ec60	-0.14836264
106	0xbdc90038	-0.09814495
107	0x3cfd0918	0.030888125
108	0xbd61cd28	-0.055127293
109	0xbe278cf9	-0.1636237
110	0x3d847668	0.06467897
111	0xbe106535	-0.14101107
112	0xbd8703f1	-0.06592549
113	0x3d3a85b4	0.045537665
114	0xbd08753c	-0.03331493
115	0xbdfbfb16	-0.1230375
116	0x3dda58fc	0.10661504
117	0xbdd28041	-0.10278369
118	0x3cf81e00	0.030287743
119	0xbdb551b2	-0.08853473
120	0xbe187bdb	-0.14890997
121	0xbdd2eaa0	-0.102986574
122	0xbd464e2c	-0.048414394
123	0x3e387b44	0.18015772
124	0x3cfc9268	0.03083153
125	0xbe135088	-0.14386189
126	0x3d18d09c	0.03730832
127	0xbd540954	-0.05176671
128	0x3d4085e8	0.047002703
129	0x3dea3580	0.114359856
130	0xbe02d4fa	-0.12776557
131	0x3e306f8e	0.17230055
132	0x3d117024	0.035507336
133	0xbd32fd84	-0.043698803
134	0xbd447608	-0.047964126
135	0xbb281d00	-0.002565205
136	0x3e307e2c	0.17235631
137	0xbdc1dfd8	-0.09466523
138	0x3e1533e0	0.1457057
139	0xbdc118f4	-0.094285876
140	0x3d23e7cc	0.04001598
141	0xbbf557e0	-0.007487282
142	0x3d205e0c	0.03915219
143	0xbe24a17b	-0.16077225
144	0xbd8f93c7	-0.07010608
145	0xbe08a2a1	-0.13343288
146	0xbd0d37f8	-0.034477204
147	0xbe0c152a	-0.13679948
148	0x3d4db2e4	0.05021943
149	0x3d79c348	0.06097725
150	0x3e1551de	0.14582011
151	0xbdac9012	-0.08425917
152	0x3e046e44	0.12932688
153	0xbe032534	-0.1280716
154	0x3cb9cb50	0.022679955
155	0xbe0cc32c	-0.13746327
156	0x3cfe2af0	0.031026334
157	0x3d7a0a8c	0.061045215
158	0x3dd9a0e4	0.106263906
159	0x3d5b9e18	0.053617567
160	0x3c1ab6c0	0.009442985
161	0x3d1582f0	0.036501825
162	0x3d304c34	0.043041423
163	0x3ddbc714	0.107313305
164	0x3db51db4	0.08843556
165	0xbda18d8c	-0.07888326
166	0xbe06c927	-0.13162671
167	0x3e39c8de	0.18143031
168	0xbe2f6ad3	-0.17130594
169	0xbd8765d8	-0.06611222
170	0xbdd271b1	-0.10275591
171	0xbe1a7fac	-0.15087765
172	0x3da8659c	0.082225055
173	0xbca89e48	-0.020583287
174	0x3cadbc28	0.021207884
175	0xbe03bbdc	-0.12864631
176	0xbdbc6ccc	-0.09200439
177	0x3e234116	0.15942797
178	0x3deb3290	0.114842534
179	0xbd0cb11c	-0.034348592
180	0x3dccccec	0.10000023
181	0xbcdc6998	-0.02690582
182	0xbe0e494d	-0.1389515
183	0x3e26a610	0.16274285
184	0xbdfe0554	-0.1240336
185	0x3dfb7bbc	0.1227946
186	0x3e270852	0.16311768
187	0x3d74a424	0.05972685
188	0x3dfffe10	0.124996305
189	0x3ccaba98	0.024747178
190	0xbdb1013f	-0.08642816
191	0xbdd283c2	-0.10279037
192	0xbdd5bbf7	-0.10436242
193	0x3ae1ea80	0.0017236024
194	0xbe0d9f5a	-0.13830319
195	0xbd91ad09	-0.07113082
196	0xbdef33d6	-0.11679809
197	0xbdc74d4b	-0.09731539
198	0x3ccb23b0	0.02479729
199	0x3e08c57c	0.13356584
200	0x3dbbc7f8	0.091690004
201	0xbe2ee29b	-0.1707863
202	0xbdef282a	-0.116775826
203	0x3e1628d6	0.14664015
204	0x3d00e6b0	0.03147
205	0xbd03e3bc	-0.032199606
206	0x3def0bd0	0.11672175
207	0x3cddab88	0.027059332
208	0x3d6ac2ac	0.05731456
209	0x3d944170	0.07239044
210	0xbe0e7f46	-0.13915738
211	0xbdfc7a0c	-0.12327966
212	0xbe232b27	-0.1593443
213	0x3e0eddf2	0.13951853
214	0xbd578318	-0.052615255
215	0xbe05a2a9	-0.13050331
216	0x3e1c2434	0.15248185
217	0xbdbb99d8	-0.09160203
218	0x3db817ec	0.08988938
219	0x3d0fff4c	0.03515558
220	0xbe10ed6e	-0.14153072
221	0xbd96893f	-0.07350396
222	0x3e15b510	0.14619851
223	0x3ca4b3a0	0.020105183
224	0xbd8446a1	-0.06458784
225	0x3bccaf00	0.0062464476
226	0xbd811dfc	-0.06304547
227	0xbe11468e	-0.1418707
228	0xbde182e2	-0.11011292
229	0xbb3590c0	-0.0027704686
230	0x3dfc727c	0.12326524
231	0x3e0ea3b6	0.13929638
232	0x3d8998ee	0.06718622
233	0xbd10f744	-0.03539206
234	0xbd55a52c	-0.052159473
235	0xbe230ec6	-0.15923604
236	0x3d8aa534	0.06769791
237	0xbda3298a	-0.07966907
238	0x3dd4e3a4	0.103949815
239	0x3b05e4c0	0.0020430535
240	0x3d86d7a4	0.06584099
241	0xbdaf1d4d	-0.085505106
242	0xbe12f316	-0.14350542
243	0xbdeff21a	-0.11716099
244	0x3dd307dc	0.103042334
245	0x3d5c1820	0.053733945
246	0x3c68f7b0	0.01421921
247	0xbab63400	-0.0013900995
248	0xbe1a43fe	-0.15065
249	0x3db6db88	0.08928591
250	0xbdb19eda	-0.08672877
251	0x3d992dd8	0.07479447
252	0xbcd1e678	-0.025622591
253	0x3da1630c	0.0788022
254	0xbe0e2817	-0.1388248
255	0x3dcebdd4	0.100948006

transformer_encoder.encoder.attention.fc_K.bias f4 [30]
0	0xbd4f7a1c	-0.050653562
1	0x3da93c18	0.08263415
2	0x3d1d9b88	0.038478404
3	0x3c42f200	0.011898518
4	0xbbf55300	-0.007486701
5	0xbe17beb5	-0.14818843
6	0xbe0d1c7a	-0.13780394
7	0x3e1bd902	0.152195
8	0x3df0ca0c	0.117572874
9	0xbdfc62aa	-0.12323506
10	0xbddad76d	-0.106856205
11	0xbe225de6	-0.15856132
12	0x3d817714	0.063215405
13	0xbd4e843c	-0.050419077
14	0xbd13e2d4	-0.036104992
15	0x3e1a2fbc	0.15057272
16	0xbe08ce77	-0.1336001
17	0x3e2eacfe	0.17058179
18	0x3ca44ff0	0.020057648
19	0x3e2e50a0	0.17022943
20	0x3c09b1e0	0.008404225
21	0xbdeb9cdf	-0.1150453
22	0xbe146120	-0.14490175
23	0x3dc3d8b4	0.09562817
24	0x3d754e68	0.059889227
25	0x3c04d020	0.0081062615
26	0xbdf71817	-0.12065142
27	0xba6c2f00	-0.0009009689
28	0xbe13d0ac	-0.14435071
29	0x3e066ba0	0.13126993

transformer_encoder.encoder.attention.fc_V.weight f4 [30, 30]
0	0x3e28d304	0.16486746
1	0xbe231657	-0.1592649
2	0x3e056cfa	0.13029853
3	0x3e34ed16	0.17668566
4	0x3dae2f6c	0.08505139
5	0x3d3ced00	0.04612446
6	0xbdb2909b	-0.087189876
7	0x3d381e1c	0.04495059
8	0xbe345429	-0.1761023
9	0x3dd42e6c	0.10360417
10	0x3de92d9c	0.113856524
11	0xbd710e02	-0.05885125
12	0xbdc3d4f4	-0.09562102
13	0xbda9fc43	-0.08300068
14	0x3cd00a10	0.025395423
15	0x3e32945c	0.17439407
16	0xbe2eefdc	-0.17083687
17	0xbd473a30	-0.048639476
18	0xbe175f79	-0.14782514
19	0x3e19c67c	0.15017122
20	0xbdc61606	-0.096721694
21	0x3de6bc70	0.1126641
22	0x3de489fc	0.11159131
23	0xbe2cf923	-0.16891913
24	0xbd84f0af	-0.06491219
25	0xbd86df24	-0.065855294
26	0xbc1aeb50	-0.009455517
27	0xbdbb9ff2	-0.091613665
28	0xbdf2aba9	-0.11849148
29	0xbcbb59a8	-0.0228699
30	0x3e2bf32a	0.16791978
31	0x3ddd6368	0.10809976
32	0x3d135de0	0.035978198
33	0xbde49bed	-0.11162553
34	0xbd0574c4	-0.03258206
35	0xbdc35d9b	-0.09539338
36	0xbc386c40	-0.011256278
37	0xbe2e0866	-0.16995391
38	0x3d937358	0.071997344
39	0xbe0e7d3a	-0.13914958
40	0x3e28f48e	0.1649954
41	0x3dbef8ac	0.09324774
42	0x3c017440	0.007901251
43	0xbda1a0b5	-0.078919806
44	0xbe1781c6	-0.14795598
45	0xbdcbfe2c	-0.09960589
46	0x3da57020	0.08078027
47	0x3a6c1900	0.0009006411
48	0xbdf9b4f9	-0.12192721
49	0x3e33beb6	0.17553219
50	0xbd8ed604	-0.06974414
51	0xbb1337c0	-0.002246365
52	0x3df94910	0.12172139
53	0x3dbd5a4c	0.092457384
54	0xbdf1b281	-0.11801625
55	0xbd30e718	-0.04318914
56	0x3e07e12c	0.1326949
57	0xbd97189f	-0.07377743
58	0x3df6cff4	0.12051383
59	0xbe1309d8	-0.14359224
60	0xbe35ed37	-0.17766272
61	0xbde81fcd	-0.113341905
62	0x3dace2c4	0.084416896
63	0x3da10fdc	0.07864353
64	0x3dec8690	0.11549103
65	0x3e0f7cee	0.140125
66	0x3da13230	0.07870901
67	0x3dadf104	0.08493236
68	0xbdd85247	-0.10562568
69	0x3d71252c	0.05887334
70	0xbe29a5ea	-0.16567197
71	0x3c4086c0	0.011750877
72	0xbdea14d1	-0.11429752
73	0xbd46c940	-0.04853177
74	0xbdc4dd7b	-0.096125565
75	0x3d0618d4	0.03273852
76	0x3cea25a0	0.028582394
77	0x3d612bb8	0.054973334
78	0xbbb54540	-0.005531937
79	0x3dfc3610	0.12314999
80	0xbde37a11	-0.11107267
81	0x3d6ef3f4	0.05833812
82	0x3dad1c6c	0.08452687
83	0x3e20c882	0.15701488
84	0x3e09a05a	0.13440076
85	0x3d6c325c	0.057665214
86	0x3e21fad2	0.15818337
87	0xbc109110	-0.008823648
88	0x3de26da4	0.110560685
89	0x3d12f864	0.035881415
90	0x3d533684	0.051565662
91	0x3e0975a0	0.13423777
92	0xbd08e344	-0.033419862
93	0xbd7abbca	-0.061214246
94	0xbd69f13c	-0.057114825
95	0x3dbe1338	0.092810094
96	0xbda7ae8c	-0.08187589
97	0xbd0224a4	-0.031773224
98	0xbd7f0b0a	-0.062266387
99	0x3e20f912	0.15720013
100	0x3dca0d50	0.098658204
101	0x3dee8bc4	0.11647752
102	0xbc9adac8	-0.018903151
103	0xbe353c98	-0.17698896
104	0x3d82a0f0	0.06378353
105	0x3d81bc70	0.0633477
106	0x3e0b1b3a	0.13584605
107	0xbdbd2fbd	-0.09237621
108	0x3e1569d6	0.14591154
109	0x3c6173a0	0.013760477
110	0x3df09200	0.11746597
111	0x3d57702c	0.05259721
112	0xbe376f56	-0.17913565
113	0x3e08309a	0.1329979
114	0xbe04a5d4	-0.12953883
115	0xbe0d2176	-0.13782296
116	0xbcffc838	-0.031223401
117	0xbd4c8524	-0.04993166
118	0x3decd39c	0.11563799
119	0x3d6c1aa0	0.05764258
120	0x3d7283c0	0.059207678
121	0x3d809fbe	0.062804684
122	0xbd1e5f4c	-0.0386651
123	0xbdccccb3	-0.09999981
124	0x3bde1480	0.006777346
125	0x3c5ffc30	0.013670966
126	0x3d7d5d20	0.06185639
127	0x3e1150b0	0.14190936
128	0x3b0dc2c0	0.0021630973
129	0xbe2be96a	-0.16788259
130	0xbcd426f8	-0.025897488
131	0xbdccfade	-0.100087866
132	0xbd91398c	-0.07091054
133	0x3d26308c	0.04057364
134	0x3c4510e0	0.012027949
135	0x3de8a898	0.11360282
136	0xbe38a983	-0.18033414
137	0x3c5c5190	0.01344718
138	0xbd58bf18	-0.052916616
139	0xbd90c5f7	-0.07069009
140	0x3d17c444	0.037052408
141	0x3e1e0da8	0.15434897
142	0x3e1b6292	0.1517432
143	0x3e1174ae	0.14204666
144	0x3ded1bb0	0.115775466
145	0xbbef5260	-0.007303521
146	0xbd804975	-0.06264011
147	0xbe0fd170	-0.14044738
148	0xbde9c35b	-0.11414214
149	0xbc8a2520	-0.016863406
150	0xbcf48360	-0.0298478
151	0x3e1f1638	0.1553582
152	0x3e1fa16c	0.15588921
153	0xbdc187ac	-0.094497055
154	0x3e085056	0.13311896
155	0xbd864fc3	-0.06558182
156	0x3dfc28e0	0.12312484
157	0xbd3ac694	-0.045599535
158	0x3e05bed2	0.13061073
159	0xbdfcfc27	-0.12352782
160	0x3c49f890	0.012327328
161	0x3da5a8f0	0.08088863
162	0x3e00ce44	0.12578684
163	0x3ddd9394	0.10819164
164	0xbe1c1953	-0.15244035
165	0xbd882f48	-0.06649643
166	0xbd41f488	-0.047352344
167	0x3c9e9448	0.019357815
168	0x3d2d53ec	0.042316362
169	0x3c3a51f0	0.0113720745
170	0xbb1519c0	-0.0022750944
171	0x3d7c5ed8	0.061613888
172	0x3d32dec0	0.043669462
173	0xbdc43bbb	-0.09581705
174	0x3e0c4b64	0.13700634
175	0xbe02902e	-0.12750313
176	0x3c0c4350	0.00856097
177	0xbe219c09	-0.15782179
178	0x3d75aa4c	0.05997686
179	0x3d9bb840	0.07603502
180	0xbda28df6	-0.07937233
181	0x3d3cf7e0	0.04613483
182	0xbd157944	-0.0364926
183	0xbe3848ef	-0.17996572
184	0xba2aff00	-0.00065229833
185	0x3e194e48	0.14971268
186	0xbe21952c	-0.15779561
187	0xbe15177e	-0.14559743
188	0xbe1499d8	-0.14511812
189	0xbcc2f198	-0.023796842
190	0xbe361a64	-0.17783505
191	0xbd4d5b0c	-0.050135657
192	0xbcf37e48	-0.029723302
193	0x3d81b78a	0.063338354
194	0x3db94d10	0.09047902
195	0x3d8601b0	0.065432906
196	0x3e1b4f74	0.15167028
197	0xbda83c7c	-0.082146615
198	0x3e137d3a	0.14403239
199	0x3a81ad00	0.0009893477
200	0x3d3f8c28	0.046764523
201	0x3e1d0e62	0.15337518
202	0xbce7c6e8	-0.028293088
203	0xbdeaa5ee	-0.1145743
204	0xbd9c3a5c	-0.07628319
205	0xbe1fb781	-0.15597345
206	0x3d72a178	0.05923602
207	0xbc72e8e0	-0.01482603
208	0xbd09f700	-0.033682823
209	0x3c89de90	0.016829759
210	0xbdcf9b52	-0.10137047
211	0x3e0e5610	0.13900018
212	0x3e28af62	0.16473153
213	0xbe14d8e3	-0.1453586
214	0xbc18b7d0	-0.009321168
215	0x3e0db7ca	0.13839641
216	0xbdd4fe9d	-0.10400126
217	0xbcb11af8	-0.021619305
218	0x3d1b2fd4	0.03788741
219	0x3e0e3430	0.13887095
220	0x3c4d3350	0.012524441
221	0x3d3fe16c	0.04684584
222	0xbd818988	-0.0632506
223	0xbdfd2d70	-0.12362182
224	0xbe02e3ce	-0.12782213
225	0x3c4074c0	0.011746585
226	0xbdfd7c38	-0.123772085
227	0xbe31b1c1	-0.17352964
228	0x3e0b18f0	0.13583732
229	0xbd469f80	-0.048491955
230	0xbd58577c	-0.052817807
231	0xbdca1c8e	-0.098687276
232	0xbe381718	-0.1797756
233	0xbe1768bd	-0.14786048
234	0x3cba55a8	0.022745922
235	0x3d58c51c	0.052922353
236	0xbcfc24e8	-0.030779317
237	0x3ca5d810	0.020244628
238	0xbdb78fe4	-0.08962992
239	0x3d30dc08	0.04317859
240	0xbdca2a1c	-0.09871313
241	0xbce9e228	-0.028550223
242	0xbd4b95e8	-0.04970351
243	0xbd348d14	-0.044079855
244	0xbe34f4a6	-0.17671451
245	0xbe0d45b4	-0.13796121
246	0x3d994818	0.07484454
247	0xbd08e594	-0.033422068
248	0xbc9491d8	-0.01813595
249	0x3e2c69fc	0.16837305
250	0x3e1b0478	0.15138423
251	0xbdcbf8e4	-0.099595815
252	0x3e074b28	0.13212264
253	0x3e37a300	0.17933273
254	0xbe17809c	-0.14795154
255	0xbcfc1f50	-0.03077665

transformer_encoder.encoder.attention.fc_V.bias f4 [30]
0	0x3d2cbce8	0.042172343
1	0x3df1e920	0.11812043
2	0xbd68ec68	-0.05686608
3	0x3e189a30	0.14902568
4	0x3d036508	0.032078773
5	0xbbc04f00	-0.0058687925
6	0xbdbc9e20	-0.092098475
7	0xbe19f7ec	-0.15035981
8	0x3d22d33c	0.03975223
9	0x3dc5b3e4	0.09653452
10	0x3d1f67f0	0.038917482
11	0x3dd9346c	0.10605702
12	0xbe1a8548	-0.15089905
13	0xbe158763	-0.14602427
14	0xbddabb92	-0.106803074
15	0x3d2256e0	0.03963363
16	0x3e36d18a	0.1785337
17	0xbe1378d6	-0.14401564
18	0x3e0577bc	0.13033956
19	0xbd2b4e58	-0.04182276
20	0xbdaacac3	-0.08339455
21	0xbc8a81c8	-0.016907588
22	0x3d132560	0.035924315
23	0xbe0c5576	-0.13704476
24	0xbd19a654	-0.03751214
25	0x3dba83c0	0.091071606
26	0x3c259990	0.010107413
27	0x3dcec3a0	0.10095906
28	0x3daf4ea8	0.08559924
29	0x3e0c1864	0.1368118

transformer_encoder.encoder.attention.fc.weight f4 [30, 30]
0	0x3e37dade	0.17954585
1	0x3d32e294	0.043673113
2	0xbe10a590	-0.14125657
3	0x3da028fc	0.07820317
4	0xbe392d8f	-0.18083785
5	0xbe33ba61	-0.17551567
6	0xbe344405	-0.17604072
7	0xbd89024e	-0.06689893
8	0x3e0db8f0	0.1384008
9	0x3dbff424	0.09372738
10	0x3cb33ce0	0.021879613
11	0x3d406aac	0.04697673
12	0x3ded7bd4	0.11595884
13	0x3d52d008	0.051467925
14	0xbdafaf39	-0.08578343
15	0x3c41bc70	0.011824712
16	0x3d82887a	0.06373687
17	0x3db092ec	0.08621773
18	0xbdddda6f	-0.108326785
19	0x3bec8ba0	0.007218793
20	0x3dd57490	0.10422623
21	0xbde8c444	-0.1136556
22	0x3da6e36c	0.08148846
23	0xbe132fa4	-0.14373642
24	0x3d95c014	0.073120266
25	0x3e10e5bc	0.14150137
26	0x3dc8c878	0.098038614
27	0xbbdcee40	-0.006742269
28	0xba331e00	-0.00068327785
29	0xbe3469d6	-0.17618498
30	0xbd1754ac	-0.036945984
31	0xbbe1e1c0	-0.0068933666
32	0xbe13f9a9	-0.14450707
33	0xbd5580e0	-0.052124858
34	0xbe2f1004	-0.17095953
35	0xbca5ffb0	-0.020263523
36	0x3e3a9dd4	0.18224269
37	0xbd281280	-0.041033268
38	0xbdda45fb	-0.10657879
39	0xbc4be870	-0.012445554
40	0xbe25f95f	-0.16208409
41	0xbda3a587	-0.07990556
42	0x3d268c98	0.040661424
43	0x3d3a46b0	0.04547757
44	0xbdd1ebfe	-0.1025009
45	0x3dcd34c4	0.1001983
46	0x3e076b82	0.13224605
47	0x3e39d6d6	0.1814836
48	0xbd46e69c	-0.04855977
49	0x3dc547d4	0.09632841
50	0xbe26e2dc	-0.16297477
51	0x3d0c7280	0.034288883
52	0xbe1f1148	-0.15533936
53	0x3d86e4e2	0.06586625
54	0xbdd40ea1	-0.10354353
55	0x3da0cbf4	0.07851401
56	0x3d790438	0.06079504
57	0x3e2c97f4	0.1685484
58	0xbdd7a2d8	-0.10529107
59	0x3dd212ac	0.10257468
60	0xbd83b8ad	-0.064317085
61	0xbe094b92	-0.13407734
62	0xbe2dcbc0	-0.16972256
63	0xbdd11dd5	-0.10210768
64	0xbe01ae80	-0.12664223
65	0x3da6f670	0.08152473
66	0xbd86e7ff	-0.065872185
67	0x3ac37380	0.0014911741
68	0xbd5fa5a0	-0.05460131
69	0x3d25fd8c	0.040525004
70	0x3dd055bc	0.101726025
71	0x3dd2935c	0.10282013
72	0xbe148e01	-0.14507295
73	0xbe288d12	-0.16460064
74	0x3df83588	0.12119585
75	0x3dce1634	0.10062829
76	0x3c0e5d70	0.008689269
77	0x3d93b11c	0.07211515
78	0x3dca2564	0.09870413
79	0xbe074605	-0.13210304
80	0x3da150f4	0.07876769
81	0x3ccf9a90	0.025342256
82	0x3da3b46c	0.07993397
83	0x3e0741f4	0.13208753
84	0xbe0c7124	-0.13715035
85	0x3dce41fc	0.10071179
86	0xbc8a9548	-0.016916886
87	0xbe1eea8f	-0.15519165
88	0x3d68d0b0	0.056839645
89	0xbdf5763c	-0.11985442
90	0xbdce3f3c	-0.10070655
91	0x3dba45b4	0.09095326
92	0xbe2bf64b	-0.16793172
93	0xbde4f067	-0.111786656
94	0x3e3782b8	0.17920959
95	0xbe27c85a	-0.16385022
96	0xbd0e0c14	-0.034679487
97	0x3e07cb8a	0.13261238
98	0xbd189734	-0.037253574
99	0xbd134fb4	-0.035964683
100	0xbdbd98e4	-0.09257677
101	0xbe121834	-0.14267045
102	0xbdc7cc7d	-0.097558
103	0xbdc771f7	-0.09738534
104	0xbd5da270	-0.05410999
105	0x3d79dfbc	0.061004385
106	0x3da1f920	0.07908845
107	0xbd6e8d7e	-0.058240406
108	0xbd023c18	-0.03179559
109	0xbc496160	-0.012291282
110	0xbce30ec0	-0.027716994
111	0xbc9b5358	-0.01896064
112	0xbd96a279	-0.07355208
113	0x3d9f9508	0.07792097
114	0xbb3d9e80	-0.0028933585
115	0xbbce27c0	-0.0062913597
116	0xbdb662e5	-0.089055814
117	0xbe348c78	-0.1763171
118	0x3d8d5b40	0.0690217
119	0xbe340947	-0.17581664
120	0x3c0eb670	0.008710489
121	0x3c2f32b0	0.010693237
122	0x3db961e8	0.09051877
123	0xbdbc4969	-0.091936894
124	0xbd374844	-0.044746652
125	0xbd3ead6c	-0.046552107
126	0x3ceec2e0	0.029145658
127	0x3c9a5808	0.018840805
128	0xbe260964	-0.1621452
129	0xbc1e25d0	-0.00965257
130	0xbda348d1	-0.07972873
131	0x3dac2214	0.084049374
132	0xbdd560e5	-0.10418872
133	0xbd2defac	-0.042464897
134	0xbd0d4248	-0.03448704
135	0xbddc9f76	-0.10772602
136	0xbe1919e2	-0.1495128
137	0x3c6b2cc0	0.014353931
138	0xbe1c8695	-0.15285714
139	0x3d5c118c	0.05372767
140	0xbde5cc0d	-0.1122056
141	0xbe22b2d5	-0.15888532
142	0xbd55f93c	-0.05223964
143	0x3d7a22dc	0.0610684
144	0x3e1f4bf8	0.15556324
145	0xbda54618	-0.0807001
146	0xbc815890	-0.0157893
147	0xbe20199e	-0.15634772
148	0xbdc3ac92	-0.095543995
149	0xbe25f699	-0.16207351
150	0xbe15d983	-0.14633755
151	0xbe1edefd	-0.15514751
152	0xbdbabf4a	-0.09118517
153	0xbdb5891e	-0.08864044
154	0xbd00c53c	-0.031438097
155	0x3dced3c4	0.10098985
156	0x3e3a83a6	0.18214282
157	0xbd239a28	-0.039941937
158	0xbd13ede0	-0.036115527
159	0x3cddcbd8	0.02707474
160	0xbd9ae34a	-0.07562883
161	0x3c4fe520	0.012688905
162	0x3d732078	0.059357136
163	0x3deddd48	0.11614472
164	0xbe0bc3a2	-0.13648847
165	0x3dc7089c	0.09718439
166	0x3dd9ab90	0.10628426
167	0x3c676070	0.014122114
168	0x3dba0728	0.09083396
169	0xbd8b01e3	-0.06787469
170	0xbdb0c8b2	-0.086320296
171	0xbe2da8b0	-0.1695888
172	0x3da530a0	0.08065915
173	0xbdba715d	-0.091036536
174	0xbe010402	-0.12599185
175	0x3d93aba8	0.07210475
176	0xbe30bb64	-0.17258984
177	0xbd9c8776	-0.076430246
178	0xbdea6fbd	-0.11447094
179	0x3e0eb032	0.139344
180	0xbbc5c780	-0.006035745
181	0x3c6240a0	0.013809353
182	0xbe0aee89	-0.13567556
183	0xbe25da3b	-0.1619653
184	0xbdcaacdb	-0.09896251
185	0xbdb63e4a	-0.088985994
186	0x3d4b4d64	0.049634352
187	0x3dbbf8e4	0.091783315
188	0x3abfde80	0.0014638454
189	0x3dc8a3a0	0.09796834
190	0x3ddbc4cc	0.107308954
191	0x3e25d780	0.16195488
192	0xbbea8440	-0.0071568787
193	0xbcf6bc00	-0.030118942
194	0x3e0c341e	0.13691756
195	0xbe07be8f	-0.13256286
196	0x3e01cbb0	0.12675357
197	0xbdf17e0a	-0.11791618
198	0x3d9aa7cc	0.07551536
199	0x3c703540	0.014661133
200	0xbe2e3070	-0.17010665
201	0xbc09f960	-0.008421272
202	0xbe2038cc	-0.15646666
203	0xbda6dc6a	-0.081475094
204	0x3e2eb2a6	0.17060336
205	0x3d10e8f8	0.035378426
206	0xbe2484fc	-0.16066355
207	0xbe1ca4ae	-0.15297195
208	0xbd70b440	-0.05876565
209	0x3d7445c0	0.05963683
210	0xbde0d714	-0.10978523
211	0xbe017f4e	-0.12646219
212	0x3e1e6762	0.15469125
213	0xbd5404e8	-0.05176249
214	0x3d0a4208	0.03375438
215	0xbd5f60e8	-0.054535776
216	0x3dd830f0	0.10556209
217	0x3dd23c80	0.10265446
218	0x3e048f38	0.12945259
219	0xbd207874	-0.039177373
220	0x3e0d4718	0.13796651
221	0x3e2250f4	0.15851194
222	0xbdd078e3	-0.10179307
223	0xbd7b3bc6	-0.0613363
224	0x3c4aec50	0.012385443
225	0xbde70076	-0.11279385
226	0xbdf29cbf	-0.11846303
227	0x3e2d2762	0.16909555
228	0x3c88d158	0.016701385
229	0xbc80bc58	-0.01571481
230	0xbe25c7ef	-0.1618955
231	0xbd1c2568	-0.03812161
232	0x3e2b85d2	0.16750267
233	0xbdba383b	-0.09092756
234	0xbdb24097	-0.08703726
235	0x3d4357c8	0.047691137
236	0x3e0c1204	0.13678747
237	0xbc2f1810	-0.010686889
238	0x3e11098e	0.14163801
239	0xbe2f2704	-0.17104727
240	0xbdea5fd2	-0.114440575
241	0x3de76d00	0.11300087
242	0x3e213580	0.15743065
243	0xbdd51682	-0.10404684
244	0x3bdc60c0	0.0067254007
245	0x3e329d4e	0.1744282
246	0xbd893501	-0.06699563
247	0x3c10a620	0.00882867
248	0x3e13599a	0.14389649
249	0x3ce9acb8	0.028524742
250	0xbdf5ba9f	-0.11998486
251	0xbc059520	-0.00815323
252	0x3e1ac3bc	0.15113729
253	0x3e25d44e	0.16194269
254	0x3d683be8	0.056697756
255	0xbe2826f0	-0.16421103

transformer_encoder.encoder.attention.fc.bias f4 [30]
0	0xbc9fea40	-0.019520879
1	0x3e0f058e	0.13966963
2	0x3e0a9e50	0.13536954
3	0xbdf73ec0	-0.120725155
4	0xbe239aec	-0.15977067
5	0xbde81109	-0.11331374
6	0xbc228b80	-0.009920955
7	0x3e2d7048	0.16937363
8	0x3e225628	0.15853179
9	0xbe092625	-0.13393457
10	0xbb747c40	-0.0037305504
11	0x3e005360	0.12531805
12	0xbe34bc98	-0.17650068
13	0xbe1afa4d	-0.15134545
14	0xbda76cfa	-0.081750825
15	0x3d45c548	0.048283845
16	0xbe39db50	-0.18150067
17	0xbc1b9e10	-0.009498134
18	0xbdbbe960	-0.09175372
19	0xbe1bf339	-0.15229501
20	0x3df39e78	0.1189546
21	0xbda3904b	-0.07986506
22	0xbc92d180	-0.017922163
23	0x3e31e8b2	0.17373922
24	0x3d8ce250	0.06879103
25	0xbdcd04fa	-0.10010715
26	0xbe1309af	-0.14359163
27	0xbe3883d8	-0.18019044
28	0x3d4f57d8	0.050620884
29	0xbe2045b1	-0.15651585

transformer_encoder.encoder.attention.layer_norm.weight f4 [30]
0	0x3f800000	1.0
1	0x3f800000	1.0
2	0x3f800000	1.0
3	0x3f800000	1.0
4	0x3f800000	1.0
5	0x3f800000	1.0
6	0x3f800000	1.0
7	0x3f800000	1.0
8	0x3f800000	1.0
9	0x3f800000	1.0
10	0x3f800000	1.0
11	0x3f800000	1.0
12	0x3f800000	1.0
13	0x3f800000	1.0
14	0x3f800000	1.0
15	0x3f800000	1.0
16	0x3f800000	1.0
17	0x3f800000	1.0
18	0x3f800000	1.0
19	0x3f800000	1.0
20	0x3f800000	1.0
21	0x3f800000	1.0
22	0x3f800000	1.0
23	0x3f800000	1.0
24	0x3f800000	1.0
25	0x3f800000	1.0
26	0x3f800000	1.0
27	0x3f800000	1.0
28	0x3f800000	1.0
29	0x3f800000	1.0

transformer_encoder.encoder.attention.layer_norm.bias f4 [30]
0	0x00000000	0.0
1	0x00000000	0.0
2	0x00000000	0.0
3	0x00000000	0.0
4	0x00000000	0.0
5	0x00000000	0.0
6	0x00000000	0.0
7	0x00000000	0.0
8	0x00000000	0.0
9	0x00000000	0.0
10	0x00000000	0.0
11	0x00000000	0.0
12	0x00000000	0.0
13	0x00000000	0.0
14	0x00000000	0.0
15	0x00000000	0.0
16	0x00000000	0.0
17	0x00000000	0.0
18	0x00000000	0.0
19	0x00000000	0.0
20	0x00000000	0.0
21	0x00000000	0.0
22	0x00000000	0.0
23	0x00000000	0.0
24	0x00000000	0.0
25	0x00000000	0.0
26	0x00000000	0.0
27	0x00000000	0.0
28	0x00000000	0.0
29	0x00000000	0.0

transformer_encoder.encoder.feed_forward.fc1.weight f4 [256, 30]
0	0x3d2e1930	0.04250449
1	0x3e24b040	0.16082859
2	0x3d015a24	0.031580105
3	0x3d3b1890	0.04567772
4	0x3cbba1d0	0.022904307
5	0x3e08a1e4	0.13343006
6	0xbdb6c40f	-0.08924114
7	0xbd616438	-0.055027217
8	0xbba98360	-0.005173132
9	0x3c3dd0c0	0.011585414
10	0xbe1ede57	-0.15514503
11	0x3e123cf4	0.14281064
12	0xbd94e106	-0.07269482
13	0xbd6707d0	-0.056403935
14	0xbdd11c8b	-0.10210522
15	0x3e1e0f62	0.15435556
16	0x3dc9211c	0.09820768
17	0xbd966469	-0.073433705
18	0x3d8c25d4	0.06843153
19	0x3dcede4c	0.101009935
20	0xbe1319f3	-0.14365368
21	0xbdee4cfc	-0.11635777
22	0xbdfcde5e	-0.12347101
23	0x3b7c9200	0.0038539171
24	0x3d3285e0	0.043584704
25	0xbce72868	-0.02821751
26	0x3a82e280	0.0009985715
27	0x3e1f66b0	0.15566516
28	0xbd340b14	-0.043955877
29	0xbe0a2ef2	-0.1349447
30	0x3e1c8f78	0.15289104
31	0x3ccba2b8	0.024857864
32	0x3e26e632	0.1629875
33	0xbdf33ea2	-0.11877181
34	0x3dabfbdc	0.08397648
35	0xbe08ba12	-0.1335223
36	0xbe206967	-0.15665208
37	0xbdc97ddd	-0.0983846
38	0x3ca14568	0.019686416
39	0x3e2fe0e8	0.17175639
40	0xbc4a7550	-0.012357071
41	0x3bca1180	0.006166637
42	0xbdb8546c	-0.09000477
43	0xbd99d027	-0.07510405
44	0x3e1cf454	0.15327579
45	0x3d126618	0.035741895
46	0x3d7395f8	0.059469193
47	0xbc91f748	-0.017818108
48	0x3e11d8be	0.14242837
49	0xbdce8dc9	-0.10085637
50	0xbdc4fbca	-0.096183375
51	0x3dcee164	0.101015836
52	0xbdc99bf4	-0.09844199
53	0xbd0d0060	-0.034424186
54	0xbc545b00	-0.012961149
55	0x3d3ee0a8	0.046600968
56	0x3bc7bd80	0.006095588
57	0x3e133688	0.14376271
58	0xbd75a094	-0.059967592
59	0x3db61480	0.08890629
60	0x3df542c4	0.11975625
61	0x3e266fd4	0.16253597
62	0x3d2881c8	0.041139394
63	0x3dd7ca58	0.10536641
64	0x3c4b5960	0.012411445
65	0xbe11b913	-0.14230756
66	0x3e30b584	0.17256743
67	0xbdc7524d	-0.097324945
68	0xbaa90100	-0.0012893975
69	0x3ba16a60	0.004926011
70	0x3c6e0fb0	0.014530107
71	0x3d977abc	0.073964566
72	0xbd51533c	-0.05110477
73	0xbd3eaca0	-0.046551347
74	0x3d675308	0.05647567
75	0x3beab300	0.0071624517
76	0x3e3208d4	0.1738618
77	0xbdd5794d	-0.10423527
78	0xbd22d454	-0.039753273
79	0x3d81a0f8	0.063295305
80	0x3dbec064	0.09314039
81	0x3e2b4580	0.16725731
82	0xbdadfcfe	-0.0849552
83	0x3e25e7f8	0.1620177
84	0xbdedf455	-0.11618868
85	0xbc94bdd0	-0.018156916
86	0xbe37c46d	-0.17946024
87	0x3de85114	0.113435894
88	0x3e21104c	0.15728873
89	0xbd93dc92	-0.07219805
90	0x3e258f80	0.16168022
91	0x3da9c9a8	0.08290416
92	0x3e028a9a	0.12748185
93	0xbd946234	-0.07245293
94	0x3de72d74	0.11287966
95	0xbe01fead	-0.12694807
96	0x3e2a22e0	0.16614866
97	0xbe2f00d6	-0.17090163
98	0x3d63d080	0.055618763
99	0xbe08d306	-0.13361749
100	0xbd7ff5c8	-0.062490255
101	0xbc3ec7f0	-0.0116443485
102	0x3d5bf834	0.0537035
103	0xbde21958	-0.1103999
104	0x3d54551c	0.05183898
105	0x3da61054	0.08108583
106	0x3c22f010	0.009944931
107	0xbd512074	-0.05105634
108	0x3e2a1e40	0.16613102
109	0x3e2cdb3c	0.16880506
110	0xbe36389f	-0.17795037
111	0xbcb5e940	-0.022205949
112	0xbde18b59	-0.110129066
113	0x3d93bdc8	0.07213932
114	0x3dc8a8e8	0.09797841
115	0x3dcaabb0	0.09896028
116	0x3e232bb0	0.15934634
117	0xbe05a7e7	-0.13052331
118	0xbd32a56c	-0.04361479
119	0xbdefa48b	-0.11701306
120	0x3e06e52c	0.1317336
121	0xbe37395d	-0.17892976
122	0x3e311c9e	0.17296073
123	0x3d7f4110	0.062317908
124	0xbe3049f4	-0.17215711
125	0xbe0312d3	-0.1280015
126	0xbe2ade0b	-0.16686265
127	0x3e13cf00	0.14434433
128	0xbdc955f0	-0.098308444
129	0x3d474a40	0.048654795
130	0xbe1b9add	-0.15195794
131	0xbdc58637	-0.0964474
132	0x3d9cd174	0.076571375
133	0x3e37302e	0.17889473
134	0xbe1d672c	-0.15371388
135	0xbdcdcb6a	-0.10048564
136	0x3e053f72	0.13012484
137	0x3d4d8890	0.050179064
138	0xbdc3750e	-0.09543811
139	0xbc9d1280	-0.01917386
140	0x3e14ce02	0.1453171
141	0xbdff57a1	-0.12467886
142	0xbdaea6e6	-0.08527927
143	0xbd20b6bc	-0.03923677
144	0x3e08d13a	0.13361064
145	0x3d9da57c	0.07697579
146	0xbda5fa23	-0.081043504
147	0xbd412b5c	-0.04716049
148	0xbceae6d0	-0.028674513
149	0xbe05b92e	-0.13058922
150	0xbd892902	-0.06697275
151	0x3e33f880	0.17575264
152	0xbdaadf3c	-0.0834336
153	0x3d73a0a4	0.05947937
154	0x3e0ec1ce	0.13941118
155	0x3e0760dc	0.13220543
156	0xbe359e0a	-0.17736068
157	0x3dfd05cc	0.12354621
158	0xbd74d912	-0.059777327
159	0xbd690128	-0.05688587
160	0xbb088d80	-0.0020836294
161	0xbdc8fa25	-0.09813336
162	0xbe1fecd7	-0.15617691
163	0xbc148dd0	-0.009067014
164	0xbe359170	-0.17731261
165	0xbd9434ac	-0.07236609
166	0xbdcf1e45	-0.10113195
167	0xbc648dd0	-0.013949826
168	0xbe112595	-0.14174493
169	0xbde17593	-0.11008754
170	0x3ddb47d8	0.107070625
171	0xbdd1cae4	-0.102437764
172	0xbdb1f51c	-0.08689329
173	0x3e18b8cc	0.14914244
174	0xbe1dd079	-0.15411557
175	0x3e22f8f0	0.15915275
176	0x3d8d2534	0.068918616
177	0xbe1cf4ed	-0.15327807
178	0xbe22031a	-0.15821496
179	0x3d2edf4c	0.04269342
180	0xbe20ca95	-0.15702279
181	0x3df0aca0	0.117516756
182	0xbe314e71	-0.1731508
183	0x3e14fcd4	0.14549571
184	0x3dd12504	0.10212138
185	0x3e2e7110	0.17035317
186	0xbd7d7f1a	-0.06188879
187	0xbd93444a	-0.071907595
188	0xbd9b8513	-0.07593741
189	0x3e06af08	0.13152707
190	0xbe3235f3	-0.17403392
191	0xbe098566	-0.13429794
192	0x3d0ad970	0.03389877
193	0xbd166074	-0.03671308
194	0xbd09c084	-0.033630863
195	0x3e16983c	0.1470651
196	0xbdf046d4	-0.117322594
197	0xbe20eeda	-0.15716115
198	0x3e2d91ea	0.16950193
199	0x3e055a82	0.13022807
200	0xbdb85ebf	-0.090024464
201	0x3dd010a4	0.10159424
202	0xbe24fa49	-0.16111101
203	0xbdd93b1a	-0.10606976
204	0xbdd007f7	-0.10157769
205	0x3e2abb1a	0.16672936
206	0x3d97cae4	0.07411745
207	0xbda207a8	-0.079116166
208	0x3dce9818	0.10087603
209	0x3c726650	0.014794901
210	0x3c7a96a0	0.015294701
211	0xbe35b603	-0.17745213
212	0x3d2e0834	0.04248829
213	0x3d1c8454	0.038212135
214	0x3d5f1cb8	0.054470748
215	0xbe30baa6	-0.172587
216	0xbe2a54b9	-0.16633882
217	0x3e0649ec	0.13114136
218	0xbe255f5f	-0.16149662
219	0xbd788144	-0.060670152
220	0xbdf35def	-0.11883151
221	0x3dbc5790	0.09196389
222	0xbe0a020e	-0.13477346
223	0x3df02f10	0.117277265
224	0x3bd72d20	0.0065666586
225	0xbe1480be	-0.14502236
226	0x3e00e876	0.12588677
227	0x3dda4f74	0.10659686
228	0xbddc0cb2	-0.10744609
229	0xbd7d20fc	-0.061799034
230	0xbd3307f0	-0.04370874
231	0xbe28880c	-0.16458148
232	0x3bacfea0	0.005279377
233	0xbbacdda0	-0.005275443
234	0xbe0361d2	-0.12830284
235	0x3d9748c0	0.07386923
236	0xbdc6f680	-0.09714985
237	0x3da9d434	0.08292428
238	0x3ba63ea0	0.0050733835
239	0xbcf0dfb0	-0.029403538
240	0xbb945720	-0.0045269877
241	0x3c1d9be0	0.009619683
242	0x3cb0b568	0.021570876
243	0x3db9e8e0	0.090776205
244	0x3e212452	0.15736511
245	0xbe2cf764	-0.16891247
246	0xbddf9b42	-0.10918285
247	0xbd04c3c8	-0.032413274
248	0x3c275c40	0.010214865
249	0xbe1daf67	-0.15398942
250	0x3c83cc40	0.016088605
251	0xbc2997b0	-0.0103511065
252	0x3e0e5f12	0.13903454
253	0xbd53fb88	-0.05175355
254	0xbdb7eef7	-0.08981126
255	0xbe0d6d01	-0.13811113

transformer_encoder.encoder.feed_forward.fc1.bias f4 [256]
0	0xbe1ac2c5	-0.15113361
1	0x3dbda394	0.09259716
2	0x3de67c40	0.112541676
3	0x3d86fcd4	0.06591192
4	0x3d81e8d0	0.063432336
5	0x3cebac60	0.028768718
6	0xbe34c430	-0.17652965
7	0x3d4c54ec	0.049885675
8	0x3dae6d30	0.085169196
9	0x3d353024	0.044235364
10	0xbe1b1fcd	-0.1514885
11	0xbe0e7ec9	-0.13915552
12	0x3dc5b8bc	0.09654376
13	0x3d624e30	0.055250347
14	0x3cbbb9d0	0.02291575
15	0xbddd254f	-0.10798132
16	0x3b801da0	0.0039097816
17	0x3d22b3c4	0.03972222
18	0xbdfc29ae	-0.12312637
19	0x3d258c7c	0.04041718
20	0x3de5d014	0.112213284
21	0x3d85a672	0.065258875
22	0xbe11a626	-0.14223537
23	0xbe157a66	-0.14597473
24	0x3d05c340	0.032656908
25	0xbe2bab0a	-0.16764465
26	0x3e27cfea	0.16387907
27	0xbc430800	-0.011903763
28	0xbbe2c860	-0.006920859
29	0x3d74ad1c	0.059735402
30	0xbd6f6fae	-0.058456115
31	0x3e130f4c	0.14361304
32	0x3e1e2642	0.15444282
33	0xbd92df5a	-0.07171507
34	0xbe03cc95	-0.1287101
35	0xbd67d5e0	-0.05660045
36	0xbcc3e0e0	-0.02391094
37	0xbddcd581	-0.1078291
38	0x3da3bccc	0.079949945
39	0xbc5b0540	-0.013367951
40	0xbd329b94	-0.043605402
41	0xbd84d1c0	-0.06485319
42	0x3dbe81bc	0.093020886
43	0xbe2300cd	-0.15918274
44	0x3de335c8	0.11094242
45	0xbe2ca635	-0.16860278
46	0xbdb800ff	-0.08984565
47	0xbda6bd75	-0.08141605
48	0xbdbe5ba4	-0.09294823
49	0xbc8677e0	-0.016414583
50	0xbceb5718	-0.028728053
51	0x3c79c180	0.015243888
52	0x3d648f18	0.055800527
53	0x3c5624d0	0.0130703
54	0xbe03743d	-0.1283731
55	0xbbceb800	-0.0063085556
56	0xbd2ada84	-0.0417123
57	0x3e2851ea	0.16437498
58	0xbd2f4064	-0.042786017
59	0x3d0a623c	0.03378509
60	0x3e1281a0	0.1430726
61	0xbc305a90	-0.010763779
62	0x3cc1d9a0	0.023663342
63	0xbdb5788f	-0.08860885
64	0x3e2b9a68	0.1675812
65	0xbdb0834e	-0.086187944
66	0x3c520aa0	0.012819916
67	0x3d57aa30	0.052652538
68	0xbd8fdaf5	-0.070241846
69	0x3d28fcd0	0.041256726
70	0xbdd25e57	-0.102719
71	0xbd53367c	-0.051565632
72	0x3b0a73c0	0.0021126121
73	0xbdefb245	-0.11703924
74	0x3e0ca3ec	0.13734406
75	0x3d9afb68	0.07567483
76	0xbe1ffc1e	-0.15623519
77	0x3e31f97a	0.17380324
78	0xbe337550	-0.1752522
79	0xbe0346a2	-0.12819913
80	0xbd6bd2e0	-0.057574153
81	0xbdb79f1d	-0.08965895
82	0xbde67fa5	-0.11254815
83	0x3da5fe84	0.08105186
84	0xbda54785	-0.08070282
85	0xbe2e47e2	-0.17019609
86	0xbe19ded8	-0.15026414
87	0xbcf7ef20	-0.03026539
88	0xbdfe2d0a	-0.12410934
89	0x3c772e50	0.015086725
90	0xbd80949c	-0.06278345
91	0x3da1f31c	0.079076976
92	0xbe1fda55	-0.15610631
93	0xbe29599c	-0.1653809
94	0x3d416828	0.04721847
95	0xbe1a2f9a	-0.15057221
96	0xbe39089b	-0.18069689
97	0x3d31dde8	0.043424517
98	0x3e109de4	0.1412273
99	0xbd71b1ea	-0.059007563
100	0xbe12661a	-0.14296761
101	0xbe092c3d	-0.13395782
102	0xbe30823a	-0.17237177
103	0x3d89e418	0.067329586
104	0xbd36d010	-0.044632018
105	0x3d864a72	0.06557168
106	0xbb2050c0	-0.0024462193
107	0xbe3a88b2	-0.18216208
108	0x3c782310	0.015145078
109	0xbdf059cb	-0.11735877
110	0x3e2eb5a0	0.17061472
111	0x3cadc4c0	0.021211982
112	0x3e160e04	0.14653784
113	0x3d1ef0fc	0.03880404
114	0xbd13f030	-0.036117733
115	0xbd617670	-0.05504459
116	0x3e081fa0	0.13293314
117	0x3c4511e0	0.0120281875
118	0x3de7dd48	0.11321503
119	0xbddafa17	-0.10692232
120	0x3dc05bec	0.09392533
121	0x3dd3b298	0.103367984
122	0x3df3ea28	0.11909896
123	0xbca3a790	-0.019977361
124	0xbe2813c1	-0.16413786
125	0xbda3de18	-0.080013454
126	0xbce85d38	-0.028364763
127	0xbe3835df	-0.179893
128	0xbe0e0f58	-0.1387304
129	0xbc688ac0	-0.014193237
130	0x3e1ae558	0.1512655
131	0x3d8a74e4	0.06760576
132	0x3d5838d8	0.052788585
133	0x3e101e32	0.14074019
134	0x3ce91158	0.028450653
135	0x3da01288	0.078160346
136	0x3e2de980	0.16983604
137	0x3e0ddf20	0.13854647
138	0x3e29c622	0.16579488
139	0x3e1d8714	0.1538356
140	0x3e10da3c	0.1414575
141	0xbe0e6a46	-0.13907728
142	0xbd866ba4	-0.065634996
143	0x3cd3d580	0.02585864
144	0x3dd61034	0.10452309
145	0x3deaa188	0.11456591
146	0xbc7fc620	-0.0156112015
147	0x3ddff7e8	0.10935956
148	0x3d90afbc	0.07064769
149	0x3d92e2e4	0.07172182
150	0xbe08a187	-0.13342868
151	0xbc8d9868	-0.017284587
152	0x3df30c90	0.118676305
153	0xbd04ddd8	-0.03243813
154	0xbe02b708	-0.12765133
155	0xbcdae3d0	-0.026719958
156	0x3e01ce66	0.12676391
157	0xbe1ebb92	-0.1550124
158	0x3db36748	0.08759934
159	0xbdb26091	-0.08709825
160	0xbdb8b604	-0.09019092
161	0x3d5b22dc	0.05350004
162	0x3de32824	0.110916406
163	0xbe1303d8	-0.14356935
164	0x3e2d7608	0.16939557
165	0x3da10360	0.07861972
166	0x3b9f1040	0.004854232
167	0x3dfa0b84	0.12209228
168	0xbc300550	-0.010743454
169	0x3d8b1344	0.06790784
170	0xbe0ac44c	-0.13551444
171	0xbbe9fc60	-0.007140681
172	0x3e31442c	0.17311162
173	0xbe0632b9	-0.13105287
174	0x3d99df24	0.07513264
175	0xba461f00	-0.000755772
176	0x3d2032b8	0.03911087
177	0x3d2e3f40	0.04254079
178	0x3d1882f0	0.037234247
179	0x3dc5ec70	0.096642375
180	0xbdb1b636	-0.08677332
181	0xbe1792ca	-0.1480209
182	0x3d385930	0.04500693
183	0x3e34af10	0.17644906
184	0x3dd4f708	0.1039868
185	0xbe38eded	-0.18059511
186	0xbd1b2f88	-0.037887126
187	0x3e206ae8	0.15665781
188	0x3d5533fc	0.05205153
189	0xbcc887a8	-0.024478748
190	0xbdcddb60	-0.10051608
191	0xbd8e59cc	-0.06950721
192	0x3d14cb1c	0.036326513
193	0x3d215754	0.039389923
194	0x3e1ca860	0.15298605
195	0x3d6c4018	0.057678312
196	0xbd973578	-0.07383245
197	0x3cfd22f8	0.030900463
198	0x3daa6538	0.08320087
199	0x3d754cec	0.05988781
200	0xbd897e6b	-0.067135654
201	0x3d27fbf0	0.04101175
202	0xbd5d5bd4	-0.054042652
203	0xbd532710	-0.051550925
204	0xbe080d89	-0.13286413
205	0xbc95de98	-0.018294618
206	0xbe2678cd	-0.1625702
207	0xbcb1ca98	-0.02170305
208	0xbd679898	-0.05654201
209	0xbceb3540	-0.028711915
210	0x3d826926	0.06367712
211	0xbd2a3c40	-0.041561365
212	0xbdb66876	-0.08906643
213	0x3d6145c8	0.05499819
214	0x3da93794	0.08262554
215	0xbd42315c	-0.047410354
216	0x3d9bce50	0.0760771
217	0xbd958d10	-0.07302296
218	0xbda17e36	-0.07885401
219	0xbe3a84c3	-0.18214707
220	0x3dc54328	0.0963195
221	0xbe0b5386	-0.1360608
222	0x3e22c8f2	0.15896967
223	0x3dc040f0	0.09387386
224	0xbc316da0	-0.010829359
225	0x3e2c6456	0.1683515
226	0xbda3bd15	-0.07995049
227	0x3db83b28	0.08995658
228	0x3b9991e0	0.004686579
229	0xbe1441ad	-0.14478178
230	0x3de9b618	0.11411685
231	0xbd1bc424	-0.03802885
232	0xbd276b38	-0.040873736
233	0x3e072f28	0.13201582
234	0x3d042f60	0.032271743
235	0xbd0d36fc	-0.034476265
236	0xbd0c15d8	-0.03420052
237	0x3d07d3a0	0.033160806
238	0xbdf87b81	-0.121329315
239	0x3a4aad00	0.00077314675
240	0xbe1e81a3	-0.1547914
241	0xbd0bd62c	-0.034139797
242	0xbda488b5	-0.08033887
243	0xbdac910b	-0.08426102
244	0xbe20b5c0	-0.15694332
245	0x3c9f1ea0	0.019423783
246	0x3aec0b80	0.0018008798
247	0xbc564810	-0.0130787045
248	0x3dbb5d04	0.09148601
249	0xbdbc419e	-0.09192203
250	0x3d928bd8	0.07155579
251	0x3e0bb2b2	0.13642386
252	0xbdc0dbd6	-0.094169304
253	0x3b82bda0	0.00398989
254	0x3d8fa6a8	0.07014209
255	0x3a277000	0.0006387234
