simple2transformer/param/net_param/Mk04_25_50_critic_net.model (torch, 167615 bytes, 33 tensors)

transformer_encoder.encoder.attention.fc_Q.weight f4 [30, 30]
000000 94 da 33 3e 03 fe 14 be 30 20 8d bc 00 64 3b bc
       0.1756385 -0.14550023 -0.017227262 -0.011437416
000010 2f 75 27 be a0 da 0b be 7a 21 7c bd 50 64 4a bd
       -0.16353296 -0.13657618 -0.061555363 -0.04941207
000020 07 bb e2 bd 56 71 19 3e 42 77 ed bd d7 fc 28 be
       -0.11070829 0.1498464 -0.11595012 -0.16502701
000030 54 f4 94 3d c2 67 13 3e 5b 5e 14 be 78 a0 9a bd
       0.072731644 0.14395049 -0.14489119 -0.07550138
000040 cf 44 08 be ba e0 70 bd 70 b7 49 bc 5d 6f b2 bd
       -0.13307498 -0.058808066 -0.012311801 -0.08712647
000050 60 33 86 3d 08 70 f8 bc 10 96 b1 3d 13 60 22 be
       0.06552768 -0.030326858 0.086712 -0.15856962
000060 fe 05 e2 bd ac 9f 32 be f6 3c f4 bd 56 ea 89 3d
       -0.11036299 -0.17443722 -0.1192569 0.06734149
000070 cc 92 37 bd aa 02 14 3e 48 cd 8a 3d 7e f6 83 3d
       -0.04481773 0.14454141 0.067774355 0.06443499
000080 78 c2 c1 3d 88 70 e7 3c c4 8a 26 3e 28 6a 10 bd
       0.0946092 0.028251901 0.16263872 -0.03525749
000090 c0 58 18 3d 1e 0f 39 3e 34 e1 39 3e 1c e4 f5 bd
       0.037194014 0.18072173 0.18152314 -0.12006399
0000a0 78 6d 02 bd af 3e 37 be 78 e7 55 bd 50 3d 32 3c
       -0.03184268 -0.17895006 -0.0522227 0.010878876
0000b0 98 23 f7 bd d4 66 0e be c0 9d 6f 3c 88 90 fd 3d
       -0.12067336 -0.13906413 0.014625013 0.12381083
0000c0 d8 0d f4 3c c0 8b a1 3b 20 d7 b1 3d 5e 9b 17 3e
       0.029791757 0.0049299896 0.0868361 0.14805362
0000d0 c4 4c 1d 3e dc 83 d9 3d 38 ff 8d bc 86 e4 23 be
       0.15361315 0.10620853 -0.017333612 -0.16005144
0000e0 1a c4 2c 3e 52 42 7b bd ad 0d bc bd f8 a9 be 3d
       0.16871682 -0.061342545 -0.09182296 0.09309763
0000f0 b3 1e b1 bd 3c 18 fa 3d e0 69 83 bb f0 d9 d8 3d
       -0.086484335 0.122116536 -0.004010424 0.10588443
000100 d0 a4 6e 3c b0 da 33 3e 24 ee 68 3d 3c 85 0e 3d
       0.014565662 0.17563891 0.056867734 0.03479503
000110 a4 59 0a bd f8 9a e4 bd 64 9d 0a 3e d4 a6 f3 bd
       -0.033776894 -0.111623704 0.13536602 -0.11897054
000120 0d c1 03 be f8 d1 10 bd 68 7b 8e bc c0 8d b8 3d
       -0.12866612 -0.03535649 -0.017392829 0.09011412
000130 e3 08 12 be 08 63 ee 3c 51 cd 0a be aa 83 32 be
       -0.14261203 0.029099956 -0.13554884 -0.17433038
000140 a8 0a fa 3d 42 21 fc bd 1c d4 37 bd 18 1e 36 bd
       0.12209064 -0.12311031 -0.044880018 -0.044462293
000150 a2 9c 75 bd 44 d8 12 be 4a 39 e3 bd 30 14 e1 3d
       -0.05996383 -0.14340311 -0.110949114 0.109901786
000160 b8 c4 94 3d fa 1b 34 3e a0 b0 42 bd e8 82 ef 3c
       0.072640836 0.17588797 -0.047531724 0.029237226
000170 8e 86 2a be cc 9f 99 3d 0c 3b 06 3e a6 7b 0b be
       -0.16652891 0.07501182 0.13108462 -0.13621387
000180 e8 9d 84 3c e0 a6 c7 bb 2f a8 d7 bd 14 aa f6 bd
       0.016188577 -0.006092891 -0.10530125 -0.120441586
000190 56 93 ac bd 66 e7 0b 3e 60 b5 54 3c 80 f2 5b bd
       -0.084265396 0.1366249 0.012982696 -0.053698063
0001a0 9b 94 31 be a0 8a 73 3d 0c cd 47 3d b0 01 8e 3d
       -0.17341845 0.059458375 0.048779532 0.069339156
0001b0 cc 93 73 3d 56 ee f5 bd 87 7e ca bd 5c b1 1e 3e
       0.059467122 -0.120083496 -0.098874144 0.15497345
0001c0 40 01 69 bc 6a 25 04 be 20 11 2b 3e a0 7b 71 3d
       -0.014221489 -0.12904897 0.16705751 0.05895579
0001d0 88 15 92 3c a8 fd ef 3d 24 52 b7 3d 6a ef 0a 3e
       0.017832533 0.11718303 0.08951214 0.13567892
0001e0 94 a2 2e 3e f0 41 de 3d ee 1b 93 bd 6e dc 1c 3e
       0.17054206 0.1085242 -0.071830615 0.15318462
0001f0 2b 68 90 bd 30 18 86 bc 28 d8 b8 3d 60 53 3a 3e
       -0.070511185 -0.016368955 0.090256035 0.18195868
000200 0a 39 1e 3e f8 29 95 3d 33 b7 f6 bd b8 b2 ac 3d
       0.15451446 0.072833955 -0.12046661 0.084325254
000210 d5 30 02 be 40 ee f3 3b 24 52 3a 3d 7c c2 2b 3d
       -0.1271394 0.007444173 0.04548849 0.04193352
000220 e8 c5 fd 3c 20 53 86 bb fd 0e d2 bd 0a c0 02 3e
       0.030978158 -0.0040992647 -0.10256765 0.1276857
000230 de 91 b4 bd f8 f6 37 3e c0 fe e2 3b b3 93 07 be
       -0.088168845 0.17965305 0.006927341 -0.13239937
000240 70 91 12 be 71 31 22 be c0 b1 eb 3c fb 59 35 be
       -0.14313293 -0.15839173 0.028771281 -0.17710106
000250 b4 e8 4f bd 80 da 93 3d 8c df dd bd 50 81 09 3e
       -0.050759032 0.0721941 -0.10833654 0.13428235
000260 28 cd fe 3d 52 c2 1d 3e d5 7f ba bd d2 f4 1b 3e
       0.12441474 0.15406159 -0.09106413 0.1523011
000270 00 64 64 ba 10 ee 34 3c c8 10 94 3d d8 a6 b3 bc
       -0.0008712411 0.011043087 0.07229763 -0.021930143
000280 1c 88 3d 3d d2 fa a8 bd 9c 94 3b bd 5c cb 76 bd
       0.046272382 -0.08250965 -0.04579602 -0.060252532
000290 ba 1f 23 be f4 b5 5e bd c3 fb 27 be 50 3f 9b 3d
       -0.15930071 -0.054372743 -0.16404633 0.07580435
0002a0 f2 8d 81 bd 80 3c 3d 3c 20 96 ea 3d 7b 96 19 be
       -0.06325902 0.011550069 0.11454415 -0.1499881
0002b0 60 b4 a4 3d 84 b2 00 be 50 3d 33 be 88 d9 a2 bc
       0.08042216 -0.12568098 -0.17503858 -0.019879118
0002c0 a3 10 ec bd 00 4a 0f bc de 6c 75 bd c8 e4 ac 3d
       -0.11526611 -0.00874567 -0.059918277 0.08442074
0002d0 04 d2 21 bd 38 82 fc 3d ca c4 a1 bd ae 4e 12 3e
       -0.039506927 0.12329525 -0.07898863 0.14287826
0002e0 bc 3a 0c be e9 cd 28 be 80 d5 62 3d f4 87 ac 3d
       -0.1369428 -0.16484798 0.05537939 0.084243685
0002f0 95 79 02 be a6 2d 2a 3e 6c 67 5e bd 4a 88 1f 3e
       -0.12741692 0.16618976 -0.05429785 0.15579334
000300 80 4f 9b bc db e5 a4 bd e8 3e b2 3c 49 ce 9b bd
       -0.018958807 -0.08051654 0.021758512 -0.07607705
000310 d7 a6 2b be 6a 07 1a be b6 2d 89 bd d8 7f c3 3c
       -0.16762863 -0.1504189 -0.06698172 0.023864672
000320 c2 6c 17 3e 00 de b0 3b 10 69 60 3c 48 af c4 3d
       0.14787582 0.005397558 0.013696924 0.09603745
000330 56 98 19 be e8 60 f6 bc ca 96 10 be 47 1b 32 be
       -0.14999518 -0.030075505 -0.14120021 -0.17393218
000340 09 0b b4 bd 58 f4 bc 3c 6e 2c 01 be 28 88 ec 3d
       -0.08791167 0.02306573 -0.12614605 0.11549407
000350 88 45 bf 3d 64 f6 19 bd 2c 5c fa 3d 00 1d 20 ba
       0.09339434 -0.037588492 0.12224612 -0.0006107837
000360 10 52 54 bd 84 32 2d be 10 7f 21 be 68 22 4c bd
       -0.051836073 -0.16913801 -0.15771127 -0.0498375
000370 9c 4c ba bd e8 87 9d bc 44 db 37 be 54 6b ae 3d
       -0.09096643 -0.019229844 -0.17954737 0.08516565
000380 8c 11 19 bd 34 60 39 3e 74 c2 86 3d 9c 52 74 3d
       -0.03737025 0.18103105 0.06580058 0.059649095
000390 0e 9a 38 be 40 2c 52 3b 40 2c 8b 3c 90 fc 36 bd
       -0.18027517 0.0032069832 0.016988873 -0.044674456
0003a0 f8 db 37 3e 8c 35 d7 3d 04 9d 29 3e fe c5 05 be
       0.17955005 0.1050826 0.16563803 -0.1306381
0003b0 fe 6f e0 bd 8c 9f 71 3d d4 4e 28 be 98 5f f5 3c
       -0.10958861 0.058990046 -0.1643632 0.02995281
0003c0 a4 f2 cb 3d 6c 76 94 bd 1c c5 bf 3d 18 53 07 be
       0.099583894 -0.0724915 0.093637675 -0.13215292
0003d0 96 b3 24 3e 20 f6 a0 bd 6c 2b 97 3d 9f d3 2f be
       0.16084132 -0.078594446 0.07381329 -0.17170571
0003e0 24 24 a1 3d 38 e2 f0 bc 9e 76 16 3e a0 02 b7 bc
       0.078682214 -0.029404745 0.14693686 -0.022340119
0003f0 00 3e 45 bc 4c 3d 0a bd e3 7c 92 bd d4 72 42 bd
       -0.012038708 -0.033749864 -0.071527265 -0.04747279

transformer_encoder.encoder.attention.fc_Q.bias f4 [30]
000000 04 d0 ac 3d ec 42 29 bd 80 8e 7b bd ec 56 e6 3d
       0.08438113 -0.041323587 -0.061415195 0.11247048
000010 02 ab 16 be 7c f0 d7 3d f4 78 99 3d 94 be 9e 3d
       -0.14713672 0.10543916 0.07493773 0.07751194
000020 65 a0 ff bd 58 55 5e 3d 7c 0c 73 bd 30 2d 9d 3d
       -0.12481765 0.05428061 -0.059338078 0.076746345
000030 08 94 35 3e 75 3b b9 bd 38 af 36 3e 38 8d 0a 3d
       0.1773225 -0.09044544 0.17840278 0.033826083
000040 32 d8 b9 bd 70 50 c5 3d 73 2b 8c bd 46 ed 0c be
       -0.09074439 0.09634483 -0.06844225 -0.13762388
000050 77 67 b5 bd f1 0c 34 be 1c b3 1d be ac 3d 0d bd
       -0.08857625 -0.17583062 -0.15400356 -0.034482643
000060 e0 d4 53 3d b0 fd 64 3d 15 a2 0a be d0 eb 33 3e
       0.051716685 0.055905998 -0.13538392 0.17570424
000070 42 c3 34 be 03 29 e6 bd
       -0.1765261 -0.11238291

transformer_encoder.encoder.attention.fc_K.weight f4 [30, 30]
000000 4c 65 56 3d 44 d7 38 3e f4 0c c9 3d 5c eb aa 3d
       0.052342698 0.18050867 0.09816924 0.083456725
000010 28 ca 6a 3d c2 df 0e 3e 70 01 1a be d8 bd 96 3d
       0.057321697 0.13952544 -0.15039611 0.073604286
000020 98 fe b6 bd b6 7c 31 3e 58 7d cc 3c 1a f2 05 3e
       -0.08935279 0.1733273 0.024962112 0.13080636
000030 00 3d 4f ba d8 ba d8 3c 96 1a 14 3e 50 70 c6 3c
       -0.0007905513 0.026456282 0.14463267 0.024223477
000040 c6 c1 bd bd 28 66 08 be 08 06 9c bc 88 bc 1d 3d
       -0.09265475 -0.1332022 -0.019045845 0.038509876
000050 01 97 83 bd 76 02 30 3e c4 e5 2d bd 30 68 0b bd
       -0.06425286 0.17188439 -0.04245545 -0.034034908
000060 3a 12 83 bd 30 1c 20 3e 38 d5 06 3e 14 8c a8 3d
       -0.06399961 0.15635753 0.13167274 0.08229843
000070 38 4b 11 3e 0c 93 2d 3d 24 fc 03 be a8 b2 18 3e
       0.1418885 0.042376563 -0.12889153 0.14911902
000080 7e 12 dc bd 6c 6e 25 be 78 de da 3c c8 46 ec bc
       -0.107457146 -0.16155404 0.02671741 -0.028842345
000090 3c 97 0d 3e 6c fe fd 3d 60 d0 a6 bc 70 02 35 3e
       0.13827223 0.12402043 -0.020363033 0.17676711
0000a0 2c 85 f0 3d ec cf 2c be 48 03 e7 bc 2b d0 2e be
       0.117441505 -0.16876191 -0.028199807 -0.17071597
0000b0 30 ff 02 bd c0 6a 2b be 24 09 7a 3d d0 fd 58 3d
       -0.031981647 -0.1673994 0.061043873 0.05297643
0000c0 00 c7 f3 ba dc af f3 3d a5 49 94 bd fc e9 41 3d
       -0.0018598735 0.11898777 -0.07240609 0.047342286
0000d0 f8 18 9a 3d f0 1a 74 3c fc 5e 1a 3e 6d 9c d5 bd
       0.07524294 0.0148990005 0.15075296 -0.104302265
0000e0 e8 bf ef bd 28 7d 5a bd 3e 38 a9 bd 9e a7 24 3e
       -0.11706525 -0.053342015 -0.082626805 0.16079566
0000f0 0d d3 d5 bd ad 15 21 be 7c cf e7 3d 7b 93 a4 bd
       -0.10440645 -0.15730925 0.113188714 -0.08035942
000100 63 b9 30 be ce ce 01 3e d2 04 0d be 61 9a 8d bd
       -0.1725822 0.12676546 -0.1377137 -0.06914211
000110 60 13 d8 3b 00 a2 48 3a 30 7e f4 3d be eb 2b be
       0.0065941066 0.00076535344 0.11938131 -0.16789147
000120 94 bf 2c 3d e1 d3 e9 bd 1a c1 1e 3e c8 6d 4a 3d
       0.04217489 -0.11417366 0.1550335 0.0494211
000130 68 1f c8 3d 33 74 0a be 4e 08 0b 3e ec e4 29 3e
       0.09771615 -0.13520889 0.13577387 0.16591233
000140 06 f6 01 3e 03 83 2e be 60 5f 37 bc c8 ad 69 3d
       0.12691507 -0.17042165 -0.011192173 0.057050496
000150 c0 dc f1 bb 40 ae cb bd 0b bb 81 bd 00 f1 82 3c
       -0.007381052 -0.09945345 -0.06334504 0.015984058
000160 40 4f f4 bd 46 e2 05 be 00 f3 b2 3a 50 dc 30 3e
       -0.11929178 -0.13074598 0.0013652742 0.17271543
000170 9f 22 26 be fb 69 dd bd f0 63 f5 3d 1c 7b 2e bd
       -0.16224144 -0.1081123 0.11981952 -0.042597875
000180 48 58 46 bd 08 1d bc bc e8 a3 e4 3c fc bc 1a 3d
       -0.048424035 -0.022963062 0.027910188 0.037777886
000190 2a 77 34 3e f4 06 e8 3d 1c e0 9d 3d 20 ed 1b be
       0.17623582 0.11329451 0.07708761 -0.15227175
0001a0 34 9a 34 3e 10 f0 bf 3d bc 22 1e be d4 a4 0f 3e
       0.17636949 0.0937196 -0.15442938 0.1402772
0001b0 66 1b 9f bd f2 18 0a 3e 88 0c a5 3d 10 36 13 3e
       -0.07768898 0.13486078 0.08059031 0.14376092
0001c0 e0 dc d7 bb b9 9a ad bd 94 55 7c 3d 58 01 04 be
       -0.0065876096 -0.08476777 0.06160505 -0.12891138
0001d0 df f7 99 bd 90 4d 64 bc 30 ef 95 3d 15 80 dc bd
       -0.07517981 -0.013934508 0.07321012 -0.10766617
0001e0 1e ab 0a 3e ec 3f 32 be 3c ee fc 3d 9e 43 13 3e
       0.13541839 -0.17407197 0.12350127 0.14381263
0001f0 8a fe 19 3e 84 93 41 3d 59 92 b8 bd 05 68 10 be
       0.15038505 0.047259822 -0.090122886 -0.1410218
000200 36 c3 31 3e fc 51 34 3e de a7 22 3e 58 95 b9 3d
       0.17359623 0.176094 0.15884349 0.09061688
000210 b8 6f dc 3c 86 2f da bd 08 70 9a bc c5 94 bd bd
       0.02690874 -0.106535956 -0.018852249 -0.09256891
000220 67 8a 97 bd f8 5c 36 3e a4 1f 07 be 0a 03 2a be
       -0.07399445 0.17808902 -0.13195664 -0.16602722
000230 00 83 d1 3a 08 c0 4b 3d 68 a3 c1 bc 67 00 aa bd
       0.0015984476 0.049743682 -0.023637488 -0.08300858
000240 09 ea 0c be 40 02 e4 3c 94 38 ce 3d a8 82 c0 3d
       -0.13761152 0.027833104 0.10069385 0.09399921
000250 58 ea 1b 3d 7c da 1e 3e b8 3e 9c bc fc 8d ff 3d
       0.038065284 0.15513033 -0.019072875 0.12478253
000260 b0 b5 26 3e 32 68 13 be e8 77 07 3e f4 ae 39 3e
       0.16280246 -0.14395216 0.13229334 0.18133146
000270 f6 c7 22 3e dc c5 cc 3d a7 73 27 be 90 08 c7 3d
       0.15896592 0.09998676 -0.16352712 0.0971843
000280 00 b8 d7 bd 78 2d 15 3e 20 6c 7a 3c 16 5f 01 3e
       -0.10533142 0.14568126 0.015284568 0.12633929
000290 c0 54 36 3e d0 53 ff 3d 54 4c ca 3d 78 cc bf 3d
       0.17805767 0.12467158 0.0987784 0.09365171
0002a0 bc 3e 1f be a8 79 2f 3e 64 e1 38 bd 85 53 07 be
       -0.15551275 0.17136252 -0.045136824 -0.13215454
0002b0 98 5e 36 3e d8 be 05 bd a8 41 0f 3e ea 1a 2b be
       0.17809522 -0.032652706 0.1398989 -0.16709486
0002c0 a8 97 85 3d e8 99 d7 3d 0a 61 26 be 38 e2 48 3d
       0.06523067 0.10527402 -0.16247955 0.049043864
0002d0 96 a2 ae bd 84 1a 9d 3d 8c ac f3 3d 30 d1 44 bd
       -0.085271046 0.07671073 0.11898145 -0.04805106
0002e0 40 ab bb 3d 88 7b 62 3d 92 6a 38 3e 72 0c d9 bd
       0.09163523 0.05529359 0.18009403 -0.10598077
0002f0 3a 43 15 3e d1 c3 19 be 24 65 5d 3d 44 25 8c 3d
       0.14576426 -0.15016104 0.054051533 0.06843045
000300 4c 5c 0b 3d 4a 9f 0b be 48 e2 4e 3d 28 9d b8 3c
       0.034023568 -0.13634983 0.050508767 0.022535875
000310 5c 50 40 3d 2a de 2c 3e 76 b7 2e be 82 07 01 be
       0.046951637 0.16881624 -0.17062172 -0.1260052
000320 70 42 41 3c 80 ba f0 3c 64 cc 54 bd dc 6b 97 3d
       0.011795625 0.029385805 -0.051952735 0.073936194
000330 96 4f fd bd 68 6e b0 3d 48 d2 68 3d 78 f7 b1 bd
       -0.123686954 0.08614808 0.056841165 -0.08689779
000340 d8 1f 54 bd 04 5e 03 be ae fe 33 3e a3 05 e8 bd
       -0.05178818 -0.12828833 0.17577621 -0.113292
000350 04 06 e7 3d 60 18 27 3c 20 b3 8d 3c ba ba 14 be
       0.11280444 0.010198683 0.017297328 -0.14524356
000360 1a 23 24 be 34 1c c1 bd 06 87 04 3e 44 f4 29 3d
       -0.16029015 -0.094292074 0.12942132 0.041492715
000370 64 ad cb 3d 1c 74 30 3d b0 78 0b 3d e4 f9 17 be
       0.09945181 0.04307948 0.034050643 -0.1484142
000380 ec 15 06 3e 00 cb 4a 3b 10 5b a2 3c fd 37 2f be
       0.130943 0.0030943751 0.019818813 -0.17111202
000390 b8 e6 a8 3c ac cf 91 3d 9c 66 bb 3d 96 4d 01 be
       0.020617828 0.071196884 0.091504306 -0.12627253
0003a0 74 41 ea 3d 00 af a6 bd 90 0a 03 be a2 c2 20 3e
       0.114382654 -0.08138847 -0.12796998 0.15699247
0003b0 c0 16 0f bc 98 bf 9b 3c f5 95 29 be f8 15 86 3c
       -0.008733451 0.019012257 -0.1656111 0.016367897
0003c0 4c e1 1a bd 98 14 3a bd 34 62 33 3d 88 4d f9 3c
       -0.037812516 -0.045429796 0.043794826 0.030432478
0003d0 26 17 34 be 44 ef e2 3d e4 8c 3f bd 78 5e 4b bd
       -0.17586955 0.110807925 -0.046765223 -0.04965064
0003e0 f2 06 0b 3e 44 f7 22 bd 3a 69 13 3e 80 be 34 bd
       0.13576868 -0.039786592 0.1439561 -0.044126987
0003f0 1a 6d 38 be c8 4a 4c 3d 08 e5 74 bd 7a 37 90 bd
       -0.18010369 0.049876004 -0.059788734 -0.07041831

transformer_encoder.encoder.attention.fc_K.bias f4 [30]
000000 a0 64 3b bd f2 cc 10 3e f3 ae 23 be 66 65 06 be
       -0.04575026 0.1414068 -0.15984707 -0.13124618
000010 a8 65 c8 bd 3c d2 1e 3e 44 5f c1 bd c0 c7 10 be
       -0.097850144 0.15509886 -0.094419986 -0.14138699
000020 30 43 62 bc 80 9c 12 bd 9e 9c d4 bd 48 d2 cb bc
       -0.013809964 -0.03579378 -0.10381435 -0.024880543
000030 98 96 be 3d 7c 5f 30 be a8 15 d8 bc ee e1 25 3e
       0.09306067 -0.17223924 -0.026377514 0.16199467
000040 c2 f2 15 3e 4e 88 2c 3e c4 0f 79 3d a8 b1 f6 3d
       0.14643386 0.16848871 0.06080605 0.12045604
000050 a4 55 ae 3d c7 b7 20 be a7 00 0c be b8 21 30 be
       0.085124284 -0.15695105 -0.13672124 -0.17200363
000060 3a 5c 19 3e f2 27 9a bd 98 54 10 bd 10 bc eb 3d
       0.14976588 -0.0752715 -0.035236925 0.115104795
000070 4c 57 bf bd eb db 15 be
       -0.093428224 -0.14634673

transformer_encoder.encoder.attention.fc_V.weight f4 [30, 30]
000000 83 f1 b7 bd 7c 06 67 bd 48 11 b7 3c 90 41 e1 bc
       -0.089816116 -0.05640267 0.022347108 -0.027497083
000010 de 7e 0f 3e 04 7f f3 3d 18 b5 a4 3d 72 02 a0 bd
       0.1401324 0.11889461 0.080423534 -0.078129664
000020 bc c8 06 3e 3c 99 b6 3d ec 4f 20 3d 2a 15 d3 bd
       0.13162512 0.08915946 0.03913872 -0.10306771
000030 54 34 ba bd 08 0c 10 3e cc 4b 2d bd 00 ac 7a bc
       -0.09092012 0.1406709 -0.042308614 -0.015299797
000040 60 7a 2c 3e 64 a2 48 bd 80 f5 43 3b a2 63 8e bd
       0.16843557 -0.048982993 0.0029900968 -0.06952597
000050 b8 24 0b be 00 e6 9f 3b 54 dd 37 3e 84 21 69 3d
       -0.13588226 0.004879713 0.17955524 0.05691673
000060 68 5c 92 3c 20 c4 01 be 08 bc ad 3c 40 80 11 bc
       0.017866328 -0.12672472 0.021207824 -0.008880675
000070 50 6f 89 bd 49 e8 a7 bd 60 5f b1 3c 90 eb 32 3e
       -0.06710684 -0.08198602 0.021651924 0.17472672
000080 a4 e2 32 3e 50 09 f2 3d fa 5a 23 3e 0e 27 1c 3e
       0.17469269 0.118181825 0.15952674 0.15249273
000090 58 0b 1f 3e a0 45 88 3c 3e 38 82 3d 10 2e c9 3d
       0.15531671 0.016634762 0.063583836 0.09823239
0000a0 1c d8 0a bd 94 83 3c bd 34 73 ee 3d 58 55 f7 bd
       -0.033897504 -0.04602392 0.11643067 -0.12076825
0000b0 40 ac 05 bd a0 49 c6 bd 18 08 7c 3d cf e0 ed bd
       -0.032634974 -0.096820116 0.061531156 -0.116151445
0000c0 8a a5 29 3e 8a 32 f7 bd d8 d8 9e 3c 78 c6 b0 3d
       0.16567054 -0.120701864 0.019390509 0.08631605
0000d0 c4 34 84 3d 54 db 02 be 08 6e c9 bc ad 11 86 bd
       0.06455377 -0.1277898 -0.0245886 -0.0654634
0000e0 34 16 23 bd 20 0f 52 3c 34 57 3a 3e 78 e3 3b 3d
       -0.039816096 0.012820989 0.18197328 0.045871228
0000f0 36 d6 99 bd 00 75 e7 bb 70 84 9c 3d 68 4a 2e 3e
       -0.075115606 -0.007063508 0.07642448 0.17020571
000100 44 f4 67 3d ce 88 1a 3e f9 d6 0c be 74 c0 52 bd
       0.056629434 0.1509125 -0.1375388 -0.05145307
000110 3c 30 3a 3e 27 27 36 be 6a 81 e6 bd 04 06 a7 3d
       0.18182462 -0.17788373 -0.112551525 0.08155444
000120 78 06 b6 bc da 82 28 3e 8e 19 8f bd 20 32 d1 bc
       -0.022219881 0.16456166 -0.06987296 -0.025536597
000130 82 38 1b be be 18 1b 3e 05 83 12 be 2b 22 19 be
       -0.15158275 0.15146157 -0.14307792 -0.1495444
000140 f5 a1 34 be 54 f3 f8 3d 10 fe 34 3d c8 c3 cc bc
       -0.17639907 0.12155786 0.044187605 -0.0249957
000150 38 10 52 3d 78 ed f6 bd 42 e3 34 3e 88 1e bd 3d
       0.051285 -0.12057012 0.17664817 0.09234339
000160 68 f7 e6 3d 15 a2 0e be 4a b3 1e 3e 7f b7 36 be
       0.11277658 -0.13929017 0.15498081 -0.17843436
000170 fa 21 22 be b0 8f ff 3c 10 a4 9c 3d 10 d9 8b 3d
       -0.15833274 0.031196445 0.0764848 0.06828511
000180 c4 c6 f8 3d 50 4c 06 be 5f 68 f9 bd 00 1f 7a ba
       0.121472865 -0.13115048 -0.1217811 -0.00095413625
000190 72 af 1a be 98 fd eb 3d f2 94 2e be bc 41 fd 3d
       -0.1510599 0.115229785 -0.17049006 0.123660535
0001a0 08 c4 fb bc 10 4a 98 bc 48 13 f8 3d 8a a2 c3 bd
       -0.030733123 -0.018590003 0.121130526 -0.09552486
0001b0 13 6b 81 bd d0 d4 31 3e 85 00 92 bd d0 c7 91 bc
       -0.06319251 0.17366338 -0.07129005 -0.017795473
0001c0 b1 b2 1e be 70 5c c7 3d a8 eb d7 3c 88 f0 97 bc
       -0.15497853 0.09734428 0.026357487 -0.018547311
0001d0 4e 64 13 be c0 91 2a 3d 22 5c 1c be 20 cb f8 3d
       -0.14393732 0.041642904 -0.15269521 0.12148118
0001e0 f0 85 97 3d 81 ec 0c be ec 7f 3b 3d 76 bb 26 3e
       0.073985934 -0.13762094 0.045776293 0.16282448
0001f0 7c 9f 49 bd bf f3 c5 bd 64 34 95 3d 9c 8e f5 3d
       -0.04922436 -0.096656315 0.07285383 0.11990091
000200 d4 34 5f 3d 6c 81 ff 3d ef 0b 09 be da 9c 33 be
       0.05449374 0.12475857 -0.13383459 -0.17540303
000210 f0 61 92 3d 60 41 c9 3c 80 81 f4 bb 84 e3 b4 3d
       0.07147586 0.024567306 -0.0074617267 0.08832458
000220 cc ae 53 3d 88 9e 9b 3d 04 d6 b6 3d f0 57 1e be
       0.05168037 0.07598597 0.08927539 -0.15463233
000230 a4 98 34 3d 60 11 cd 3b c8 3c 95 3d 84 a5 22 be
       0.044090882 0.006258175 0.07286984 -0.15883452
000240 86 62 df bd a0 b0 e3 3d b4 f0 7d 3d 00 ce 9b bd
       -0.10907464 0.11117673 0.06199713 -0.07607651
000250 6c c6 c4 3d 58 e3 8f bc 58 2f e9 bd 8c 69 b7 3d
       0.096081585 -0.01756446 -0.11385983 0.08955678
000260 bc 98 f3 bd e1 aa ad bd bc 4e 00 be b1 12 a9 bd
       -0.11894366 -0.08479858 -0.12530035 -0.08255518
000270 28 28 4f bd 62 50 38 3e 50 70 29 3c 8a aa 35 be
       -0.050575405 0.17999414 0.010341719 -0.17740837
000280 8c 83 db bd 54 c0 14 be 08 06 2d be ce a8 1c 3e
       -0.1071845 -0.14526492 -0.16896832 0.15298769
000290 54 08 5c bd 88 0a 85 3d b0 ee ea bc 2a e9 d2 bd
       -0.05371888 0.06496149 -0.028678268 -0.10298379
0002a0 1a 32 1d 3e 28 46 60 3d f1 07 fa bd c6 dc 1a 3e
       0.15351143 0.054754406 -0.12208546 0.15123281
0002b0 78 3b 38 3e 93 48 2f be 10 63 b3 bc 20 ee 2f 3e
       0.17991436 -0.17117529 -0.021897823 0.17180681
0002c0 9e 5c bd bd e0 9e 9c 3c fc 52 80 bd 0c d9 72 3d
       -0.09246181 0.019118726 -0.06265828 0.059289023
0002d0 b8 e6 dd 3c 3d 1e 86 bd b8 e5 0a be e8 34 c3 bd
       0.027087554 -0.06548736 -0.13564193 -0.095315754
0002e0 84 15 cb bd d0 26 2b 3d cc 8c 74 3d 58 03 13 3d
       -0.09916213 0.04178506 0.059704587 0.03589186
0002f0 25 17 15 be 3c cf dc 3d e0 4f 68 3d c8 6b 80 bc
       -0.1455961 0.10781714 0.0567168 -0.015676394
000300 5e 7c 00 3e 60 e2 73 bc d0 15 ef bc bc 70 d7 3d
       0.12547442 -0.014885515 -0.029185206 0.10519549
000310 cc 8d 25 bd 47 7e b5 bd c0 00 b3 3c e1 5b 3a be
       -0.04041843 -0.08861976 0.021850944 -0.18199112
000320 30 e4 b7 3d 40 8c 0e bb 20 5e 1d 3e 58 50 b2 3d
       0.0897907 -0.0021751076 0.15367937 0.087067306
000330 14 0e 74 3d 98 bb ab 3c 61 2e a7 bd d2 40 2f be
       0.05958374 0.020963475 -0.08163143 -0.1711457
000340 e8 ef 89 bc 2f 22 97 bd 74 d2 31 bd 00 9f 4f 3d
       -0.016838029 -0.07379567 -0.043413594 0.050688744
000350 78 dc 08 be 3c 46 fe 3d 70 ac 2c be d8 72 b5 3d
       -0.13365352 0.1241574 -0.16862655 0.08859795
000360 e8 b4 28 3e a6 86 89 3d d8 3f bb bc 88 06 8a 3c
       0.1647526 0.06715135 -0.022857592 0.016848817
000370 d8 65 b6 3c 58 f9 a5 3c 8a 6a 39 3e 40 38 16 3e
       0.02226536 0.020260498 0.18107048 0.14669895
000380 2c 22 13 be c8 a3 d3 3d a0 0b 50 bc 80 b4 f2 3d
       -0.14368504 0.10333973 -0.012698084 0.11850834
000390 49 f6 00 be 34 c2 2c bd 70 56 b1 3c a6 a2 85 bd
       -0.1259395 -0.042177394 0.021647662 -0.06525163
0003a0 38 e0 8b 3c 20 a2 b5 bc e9 bc 92 bd 0c 20 34 3d
       0.01707469 -0.022172034 -0.07164938 0.043975875
0003b0 d8 e3 2b 3e ba de 8c bd 58 53 2f 3e a8 9a 1f 3e
       0.16786134 -0.06878419 0.17121637 0.1558634
0003c0 78 26 f3 3c 62 10 20 be f8 35 f8 bc b2 e8 17 3e
       0.02968143 -0.1563125 -0.030299172 0.1483486
0003d0 80 c8 8c 3b 0e 53 20 3e ec 08 14 bd b0 36 22 bc
       0.0042963624 0.15656683 -0.03614132 -0.009900734
0003e0 ce bf 13 3e 08 ca 91 3c 50 cf 0e 3d 9b fd 8d bd
       0.14428636 0.017796531 0.034865677 -0.06933137
0003f0 0e d7 3a 3e 78 4f 33 3d 48 90 fd 3d 3d 96 1a be
       0.182461 0.04377696 0.12381035 -0.15096374

transformer_encoder.encoder.attention.fc_V.bias f4 [30]
000000 ba f1 81 3d 66 df 35 3e 10 97 26 bd d0 66 6a bc
       0.06344934 0.17761001 -0.04067141 -0.014306739
000010 9e 1d 33 3e d8 73 e0 3d 00 0a 52 3b 98 d2 ba 3d
       0.17491767 0.109595954 0.0032049417 0.09122199
000020 ba 07 2e 3e 00 ec 9f bd 5c f7 de 3d f8 10 82 bc
       0.16995135 -0.07808685 0.10887024 -0.015877232
000030 78 58 2e 3e 80 bd f3 ba 91 ff 90 bd 64 40 d2 3d
       0.17025936 -0.0018595904 -0.070799954 0.10266188
000040 56 a0 20 3e 30 2a d1 3d 2c 82 bb 3d ea 76 27 3e
       0.15686163 0.10213125 0.09155688 0.16353956
000050 ba f4 32 3e 60 31 22 3c 68 5f ab 3d 3c 41 90 3d
       0.17476168 0.009899467 0.08367807 0.070436925
000060 b4 07 bf 3d f8 96 e9 bc 0e ef 20 3e f4 bb dc 3d
       0.09327641 -0.02851437 0.15716192 0.10778037
000070 30 7e c1 bc 00 f4 2e 3a
       -0.023619741 0.0006673932

transformer_encoder.encoder.attention.fc.weight f4 [30, 30]
000000 20 92 94 3d 40 aa a1 bb 57 1a 2e be 2c b6 d3 bd
       0.07254434 -0.0049336255 -0.17002235 -0.10337481
000010 56 9a 83 bd d2 be 1d be 01 c6 18 be 40 5f b0 3d
       -0.064259216 -0.15404823 -0.14919282 0.086119175
000020 64 d1 13 be 2c 26 26 3e 3f 84 d9 bd a0 0a f2 bc
       -0.14435345 0.16225499 -0.10620927 -0.029546082
000030 40 95 29 3c 2c 2d 74 3d 38 c0 f7 bd e0 d6 51 3d
       0.010350525 0.05961339 -0.1209721 0.05123031
000040 6c eb 4f bd bb 82 24 be 4b 7f a3 bd d8 b0 0e be
       -0.050761625 -0.16065495 -0.079832636 -0.13934648
000050 32 da 26 be 9c 65 84 3d 44 3f f2 3d 35 b6 82 bd
       -0.16294172 0.06464693 0.11828473 -0.063824095
000060 e0 c1 90 3d c9 89 04 be 3e 54 20 3e 6a b0 0c 3e
       0.07068229 -0.12943186 0.15657136 0.13739172
000070 6c 23 29 3e 3c 7a f1 3d 10 de 27 3e fc a4 e1 3d
       0.16517419 0.117908925 0.16393304 0.110177964
000080 9f 9c a1 bd 40 0e 7b 3d d4 b4 c5 bd c0 7e 2c bb
       -0.07891201 0.061292887 -0.09653631 -0.0026320666
000090 8b 71 b2 bd 5e a4 32 3e f0 8f 9e 3c ac b0 12 be
       -0.08713063 0.17445514 0.019355744 -0.14325207
0000a0 b0 fd cf 3d b4 3a 40 3d 48 84 8c 3d 34 8e 02 3e
       0.10155809 0.046930984 0.06861168 0.12749559
0000b0 d8 44 14 3e 31 74 35 be 4c 13 1b 3e 6c 35 18 3e
       0.14479387 -0.17720105 0.1514408 0.14864129
0000c0 9c b2 be 3d 58 ef 0e 3e fa ae 06 3e e8 c4 e9 bc
       0.09311411 0.1395849 0.13152686 -0.028536275
0000d0 a0 d3 66 bd d0 5e f0 3c 00 66 a1 ba 01 6a ef bd
       -0.056354165 0.029342085 -0.0012313724 -0.116901405
0000e0 88 e0 ad bc 4c c6 89 bd 58 3b b0 3c 68 ec 11 3e
       -0.021225229 -0.06727275 0.021512672 0.14250338
0000f0 fa 7b 93 bd d0 0e 92 bc 3b 3b e8 bd e0 90 7a bc
       -0.07201381 -0.017829329 -0.11339422 -0.01529333
000100 94 74 09 3d e8 25 2b bd 30 be f1 bd 20 c8 09 3e
       0.033558443 -0.041784197 -0.118038535 0.13455248
000110 d1 2a 25 be fe f2 89 3d 10 b0 90 bc 94 a6 c8 3d
       -0.16129614 0.067358 -0.017662078 0.09797397
000120 80 cd c3 3a ef 72 ea bd ec af c9 bd e4 88 b5 3d
       0.0014938563 -0.11447703 -0.098480076 0.088640004
000130 98 a7 ad bd b7 87 d2 bd fa d0 10 be fa 46 ec bd
       -0.084792316 -0.10279792 -0.14142218 -0.11536975
000140 0c 4a 1c 3e 1e 55 21 be d8 ea 19 3e 4e 46 00 be
       0.15262622 -0.15755126 0.15030992 -0.12526819
000150 f6 7b 25 be 15 e5 28 be 6c 48 6f bd 8b bf 97 bd
       -0.16160569 -0.16493638 -0.058418676 -0.07409581
000160 31 08 14 be 64 e1 98 3d 2b 99 de bd 74 3a 08 3e
       -0.1445625 0.07464865 -0.10869058 0.13303548
000170 74 ad 8c bd 52 1b ad bd 20 e4 43 bc 65 a6 16 be
       -0.06869021 -0.084524766 -0.011956245 -0.14711912
000180 78 71 ca 3d 08 09 94 3d c0 f4 bf 3d e0 1d 16 bc
       0.09884924 0.07228285 0.09372854 -0.009162396
000190 72 3c 03 3e 7e b3 21 3e 20 3d 09 3e 20 58 2e be
       0.12816027 0.15791127 0.13402224 -0.17025805
0001a0 40 39 4a 3c 52 70 30 be da e4 07 3e 68 86 4e 3d
       0.012342751 -0.17230347 0.13270894 0.05042115
0001b0 4c cb e3 3d 64 f3 c2 3d de 4b 39 3e 2c 44 29 bd
       0.1112276 0.09519079 0.18095347 -0.04132478
0001c0 a4 c0 05 be f4 2d 90 3d f1 2e 81 bd d0 fa 9c bd
       -0.13061768 0.07040015 -0.063077815 -0.07665026
0001d0 40 96 26 be 8c 55 c4 3d e0 0f 32 3e 1f c7 d7 bd
       -0.16268253 0.09586629 0.17388868 -0.10536026
0001e0 26 99 fc bd c0 20 9c bb 14 cf 38 3e 06 58 1f be
       -0.12333898 -0.0047646463 0.18047744 -0.15560922
0001f0 e0 f8 65 bd d3 d4 9b bd c0 ea 90 3d 26 b3 3a be
       -0.05614555 -0.076089524 0.07076025 -0.18232402
000200 f8 ea 17 be 90 f2 40 3d 86 2b bc bd 6c 06 0a 3d
       -0.14835727 0.047106326 -0.09187989 0.03369753
000210 10 25 f7 bd 64 82 2e 3d 22 89 29 3e f5 52 24 be
       -0.12067616 0.04260482 0.16556218 -0.1604727
000220 38 03 12 3e a8 c1 72 3d cc 22 8d 3d 04 87 89 3d
       0.1425904 0.059266716 0.068914026 0.06715205
000230 ca 4f 06 be 4d ff 9d bd dc b1 27 3e 5c 5b 67 bd
       -0.13116375 -0.077147104 0.16376442 -0.05648361
000240 e0 7d 90 3b f0 78 d5 bc 48 5b 5a bd 23 e1 08 be
       0.0044095367 -0.026058644 -0.05330971 -0.13367133
000250 40 00 00 3d 00 80 c1 36 1c d6 b2 bd 98 c9 2c be
       0.03125024 5.7667494e-06 -0.08732244 -0.16873777
000260 9a 4f 1f 3e fe 90 13 3e 3c 3b 91 bd 71 4d 8c bd
       0.1555771 0.14410779 -0.07091376 -0.06850708
000270 ec dd dc 3d c8 61 c6 3d 50 76 65 bc 54 f7 9c 3d
       0.10784516 0.09686619 -0.014005259 0.076643616
000280 9a ee 98 bd 38 4d a2 bd 3e 9d 35 3e 70 8d ff 3d
       -0.07467385 -0.079248846 0.17735764 0.12478149
000290 ad 5c 96 bd 34 f8 2e bd f0 24 e2 bd d0 98 c5 3d
       -0.07341895 -0.042717174 -0.110422015 0.09648287
0002a0 dc d5 18 bd 7c a8 3a bd ba 65 12 be 6e c1 02 be
       -0.037313327 -0.045570835 -0.14296618 -0.127691
0002b0 00 f4 19 3c c0 1b 3a 3c 10 f7 de 3d 04 af c2 3d
       0.009396553 0.011359155 0.10886967 0.09506038
0002c0 e0 3e 15 3e 3c 57 26 3e 6e 3d 27 3e 07 c6 8e bd
       0.14574766 0.16244215 0.16332027 -0.069713645
0002d0 17 13 c5 bd c0 ca 65 bc a0 2c ba 3c b4 8a 17 3e
       -0.09622782 -0.01402539 0.022726357 0.14799005
0002e0 c0 d2 c8 3d 76 17 1b be 40 b5 06 bd 5c a2 43 3d
       0.09805822 -0.15145668 -0.032887697 0.04776226
0002f0 60 79 49 3c 08 65 fa 3d d0 74 87 bc 92 b6 85 bd
       0.012297004 0.122263014 -0.016535193 -0.06528963
000300 bd 09 c0 bd c0 c6 09 3e cf 8e d4 bd 56 e6 10 3e
       -0.093768574 0.13454723 -0.10378801 0.14150366
000310 44 91 38 bd 6e 75 00 3e 60 28 c3 bd ae e2 b4 bd
       -0.04506041 0.12544796 -0.09529185 -0.08832298
000320 de f5 26 3e ac b2 1a 3d 00 81 45 3b c4 02 15 be
       0.16304728 0.03776805 0.0030136704 -0.14551836
000330 9c b8 5c 3d a0 d2 db 3c 78 d4 2b 3e bb 8a fd bd
       0.053886995 0.026833832 0.16780269 -0.12379976
000340 4c a3 de 3d 58 f9 0a 3d 9c 6f 36 bd 18 b5 e3 3d
       0.1087099 0.0339292 -0.044540033 0.11118525
000350 e4 19 0e 3d f0 f9 ae 3d 2e cf 26 3e fa 73 21 be
       0.03469266 0.085437655 0.1628997 -0.15766898
000360 91 3e 38 be 00 fc df bd a2 df 14 3e 82 ce 2b 3e
       -0.17992617 -0.10936737 0.14538434 0.16777995
000370 b0 b3 01 3d e2 68 0b 3e 40 90 5d bb e4 8d e3 3d
       0.031665504 0.13614228 -0.0033807904 0.11111048
000380 e4 40 0a bd 54 ee b6 3d 00 71 a4 bb 3c 69 3d 3d
       -0.03375329 0.08932176 -0.0050183535 0.046242937
000390 5c 19 2a 3e d4 52 4b 3d cb 96 de bd 34 38 20 bd
       0.16611236 0.049639538 -0.10868605 -0.0391161
0003a0 a6 a7 7b bd e7 b5 9c bd 5e cc 06 3e 71 80 de bd
       -0.06143918 -0.076518826 0.13163897 -0.10864342
0003b0 6a 72 77 bd 16 28 34 be 30 e2 bd 3d 18 c6 0f bd
       -0.060411848 -0.17593417 0.092716575 -0.035101026
0003c0 88 41 d1 3d 20 e0 bb bb c0 06 26 bd bc 96 55 3d
       0.10217577 -0.005733505 -0.04053378 0.052145705
0003d0 36 b9 16 be c2 0a 19 3e 3c a2 d4 3d 6a da 72 bd
       -0.1471909 0.1494551 0.10382506 -0.059290327
0003e0 75 82 1c be b0 d5 38 3d 28 36 54 bd 46 6e 82 3d
       -0.1528414 0.045125663 -0.05180946 0.06368689
0003f0 40 92 2e 3e b0 88 53 bd 98 a8 d7 3d 7e 3f 08 be
       0.17047977 -0.051644027 0.105302036 -0.1330547

transformer_encoder.encoder.attention.fc.bias f4 [30]
000000 c8 06 22 3e 92 22 1b be 38 61 a4 3d 10 cb 2f be
       0.158229 -0.15149906 0.080263555 -0.17167306
000010 a4 27 24 3d c8 e7 ad 3d 9d a1 03 be 34 ec 9b bd
       0.040076867 0.084914744 -0.1285462 -0.076134115
000020 dc 43 2a bd 92 34 1c 3e 59 ec 37 be 6a 3d 06 be
       -0.041568622 0.15254429 -0.17961253 -0.13109365
000030 10 4f eb bd 78 a1 56 3d 90 2d 13 3e 6c a6 22 3d
       -0.11489689 0.052400082 0.1437285 0.039709494
000040 b0 ff a5 3c a1 b4 11 be c8 d4 b5 bc 68 3b 2f bd
       0.020263523 -0.1422906 -0.022196189 -0.042781264
000050 7a 09 29 3e a2 55 f2 bd 2c 88 37 3e 88 45 0a 3d
       0.16507521 -0.118327394 0.17923039 0.033757716
000060 3c d5 32 be a0 ac 8b bb bd 18 f0 bd e4 23 3d bd
       -0.17464155 -0.004262522 -0.117234685 -0.046176806
000070 a7 23 92 bd 48 cd 32 3e
       -0.071357064 0.17461121

transformer_encoder.encoder.attention.layer_norm.weight f4 [30]
000000 00 00 80 3f 00 00 80 3f 00 00 80 3f 00 00 80 3f
       1.0 1.0 1.0 1.0
000010 00 00 80 3f 00 00 80 3f 00 00 80 3f 00 00 80 3f
       1.0 1.0 1.0 1.0
000020 00 00 80 3f 00 00 80 3f 00 00 80 3f 00 00 80 3f
       1.0 1.0 1.0 1.0
000030 00 00 80 3f 00 00 80 3f 00 00 80 3f 00 00 80 3f
       1.0 1.0 1.0 1.0
000040 00 00 80 3f 00 00 80 3f 00 00 80 3f 00 00 80 3f
       1.0 1.0 1.0 1.0
000050 00 00 80 3f 00 00 80 3f 00 00 80 3f 00 00 80 3f
       1.0 1.0 1.0 1.0
000060 00 00 80 3f 00 00 80 3f 00 00 80 3f 00 00 80 3f
       1.0 1.0 1.0 1.0
000070 00 00 80 3f 00 00 80 3f
       1.0 1.0

transformer_encoder.encoder.attention.layer_norm.bias f4 [30]
000000 00 00 00 00 00 00 00 00 00 00 00 00 00 00 00 00
       0.0 0.0 0.0 0.0
000010 00 00 00 00 00 00 00 00 00 00 00 00 00 00 00 00
       0.0 0.0 0.0 0.0
000020 00 00 00 00 00 00 00 00 00 00 00 00 00 00 00 00
       0.0 0.0 0.0 0.0
000030 00 00 00 00 00 00 00 00 00 00 00 00 00 00 00 00
       0.0 0.0 0.0 0.0
000040 00 00 00 00 00 00 00 00 00 00 00 00 00 00 00 00
       0.0 0.0 0.0 0.0
000050 00 00 00 00 00 00 00 00 00 00 00 00 00 00 00 00
       0.0 0.0 0.0 0.0
000060 00 00 00 00 00 00 00 00 00 00 00 00 00 00 00 00
       0.0 0.0 0.0 0.0
000070 00 00 00 00 00 00 00 00
       0.0 0.0

transformer_encoder.encoder.feed_forward.fc1.weight f4 [256, 30]
000000 7d cf f4 bd 28 47 24 3e 68 7c 59 bd f0 d4 4e bd
       -0.11953638 0.16042769 -0.05309716 -0.05049604
000010 e0 7b 24 be c8 c1 6b bd c0 f7 c8 3c c0 4a bb 3d
       -0.1606288 -0.05755785 0.024532199 0.09145117
000020 d1 ea 09 be 18 57 2a 3d aa 42 31 3e 7e 2c 07 3e
       -0.13468482 0.041586965 0.17310587 0.13200566
000030 28 5a 3a 3d d4 65 da bd 22 00 09 3e 9f f7 35 be
       0.045496136 -0.106639534 0.13378957 -0.17770241
000040 6e cc 2d 3e aa 15 b9 bd 10 08 1b 3c 86 a1 f4 bd
       0.16972515 -0.09037335 0.0094623715 -0.11944871
000050 48 8f 6d bd a0 9e f1 bd 28 c2 30 3e 68 56 38 bd
       -0.05799797 -0.117978334 0.17261565 -0.04500428
000060 dc 76 c4 3d 9b e2 eb bd b8 22 97 bc 54 e9 14 be
       0.09592983 -0.11517831 -0.018449172 -0.14542133
000070 20 83 6b 3c 84 e5 4f 3d 04 04 59 bd 36 64 24 be
       0.014374524 0.050755993 -0.052982345 -0.16053852
000080 db 30 35 be 96 2e af bd 80 1a 51 bc 68 4f 13 3d
       -0.17694418 -0.085538074 -0.012762666 0.0359644
000090 b0 0f 60 3c 2a dd da bd c0 f2 61 3b 70 63 2e 3e
       0.013675615 -0.10686715 0.0034476966 0.1703012
0000a0 18 f4 39 3d 9c 5b 1e 3d 48 90 7e 3d 20 f0 35 3c
       0.0453988 0.038661584 0.062149316 0.011104614
0000b0 70 42 3a bc a4 51 1f 3e 7b 71 c2 bd 50 7d 3e 3c
       -0.011368379 0.15558487 -0.09494301 0.0116265565
0000c0 50 d1 fa 3d 08 2d b6 bc 92 90 1e 3e 86 d4 af bd
       0.122469544 -0.02223827 0.15484837 -0.085854575
0000d0 18 f2 19 be 0e 3a 2b be 58 b3 c3 3d a9 d5 9c bd
       -0.15033758 -0.16721365 0.095556915 -0.0765794
0000e0 9c 31 ab bd 3c 28 4b bd 77 34 85 bd 80 89 e9 3d
       -0.083590716 -0.049598917 -0.065041475 0.11403179
0000f0 4c 5d 07 be ff a7 19 be d8 5a b9 bc b0 e8 17 3d
       -0.13219184 -0.15005492 -0.022626325 0.037087142
000100 ca 3f e6 bd a4 10 48 3d 4e 02 04 3e c0 8c 41 3b
       -0.112426355 0.048843995 0.12891504 0.0029533356
000110 00 b1 89 3c c4 4a aa bd 2c 51 28 3d 87 2f e6 bd
       0.016808033 -0.08315042 0.041093037 -0.11239534
000120 a4 50 10 bd c0 5e 5d 3b 88 ba c3 3d 04 06 34 bd
       -0.035233155 0.00337784 0.095570624 -0.04395105
000130 1c a1 a9 3d 24 37 39 3e f0 23 14 3e a4 9e 35 3e
       0.08282682 0.1808744 0.14466834 0.17736298
000140 e4 47 04 3e c0 b3 b9 bc 24 2f 25 3d 5b 3e e0 bd
       0.12918049 -0.02266872 0.04032816 -0.10949393
000150 73 3d 91 bd 80 d1 de bc 20 55 b8 3c b0 74 07 bc
       -0.07091799 -0.027199507 0.022501528 -0.008267567
000160 18 c1 98 3c 63 15 fb bd 4c 25 1f bd f8 ba a5 3c
       0.018646762 -0.122599386 -0.03885393 0.020230755
000170 d6 4c 31 be 9a 3f 18 be 40 0e 6e bb 40 e5 21 3e
       -0.17314467 -0.14868012 -0.0036324412 0.15810108
000180 c4 2e ba 3d c4 33 84 3d e2 71 18 3e 5e 87 01 3e
       0.09090951 0.06455186 0.14887193 0.12649295
000190 24 50 64 3d 00 8d 0b 3d c4 ef 20 3e d4 19 6e 3d
       0.05574049 0.034070015 0.15716463 0.0581301
0001a0 7d 66 93 bd 7b ca f2 bd c0 aa 72 bb d0 85 ea 3d
       -0.071972825 -0.11855026 -0.0037028044 0.11451304
0001b0 9d 6c 2e be e4 30 34 3d 3c d0 05 3e b0 51 19 3c
       -0.1703362 0.04399194 0.13067716 0.009357855
0001c0 10 d5 b2 bc e6 fb 6e bd d4 d3 ac bd d1 d3 11 be
       -0.021830112 -0.058345698 -0.084388405 -0.14240958
0001d0 b8 e2 bf 3d 8c cb 68 3d 88 34 ac bc 18 c1 ce 3d
       0.09369415 0.056834742 -0.021021143 0.100954235
0001e0 e0 0b 69 3c 28 13 4b bd c8 62 92 3d 3c 6a 2b 3d
       0.014224023 -0.049578816 0.07147747 0.04184936
0001f0 88 d2 3d bd 3a b1 02 3e 80 41 79 bc 01 af 2a be
       -0.046343356 0.12762919 -0.01521337 -0.16668321
000200 f0 83 26 bc c8 20 99 3c bc ac 2c be 38 df 33 3e
       -0.010163292 0.01869239 -0.16862768 0.1756562
000210 dd 1a b1 bd 64 9b 38 be d0 14 88 3d b0 2e 14 bd
       -0.08647702 -0.18028027 0.06644595 -0.036177337
000220 e0 25 b3 3d 68 c9 e1 3d 44 3f 9b 3d be f4 1f 3e
       0.087474585 0.11024743 0.07580426 0.15620705
000230 24 00 da 3d 9b 30 32 be 23 bc a0 bd 00 6b ce 3d
       0.10644558 -0.17401354 -0.07848384 0.100790024
000240 a4 9e 04 3e 45 d3 11 be b8 d6 be bd 1f 6d 00 be
       0.12951142 -0.14240749 -0.09318298 -0.12541626
000250 d4 ca 01 3d e4 6f bb 3d 70 6f 0e bc 6e d2 2a be
       0.031687573 0.09152201 -0.008693561 -0.16681835
000260 e4 a3 be 3d 98 0d 26 3d 90 6d f9 bd 88 27 43 bd
       0.093086034 0.040540308 -0.121791005 -0.04764512
000270 6d 65 92 bd e4 25 08 be e0 ad 49 3d 30 2b 0e bd
       -0.07148252 -0.13295704 0.049238086 -0.034709156
000280 f0 de a9 bc 9d 10 37 be 38 0f e1 3c 30 8c 24 be
       -0.020736188 -0.17877431 0.027473077 -0.16069102
000290 06 c2 01 3e 80 2d cb 3d c3 e0 2f be 80 61 e1 3d
       0.1267167 0.09920788 -0.17175584 0.11004925
0002a0 1a 94 00 3e 9a 76 22 3e 46 c6 85 bd 80 9b f0 bc
       0.12556496 0.15865555 -0.06531958 -0.029371023
0002b0 00 82 78 ba b6 9d 15 be c4 0c 75 bd ea d9 be bd
       -0.0009479821 -0.14610943 -0.059826627 -0.093189076
0002c0 80 3b 8d 3d 60 1b 18 bd ec 2a 8d 3d 7b 05 20 be
       0.06896114 -0.03713548 0.06892952 -0.1562709
0002d0 9f 7e e7 bd bb 16 c6 bd c0 a3 50 3d f4 5f 5e bd
       -0.11303448 -0.09672304 0.050937414 -0.054290727
0002e0 18 3f 6e 3d 02 d4 28 3e fc 22 f4 3d e0 9f 53 bc
       0.05816564 0.16487125 0.11920735 -0.012916535
0002f0 e2 10 af bd 0c 93 8e 3d e8 cb af 3d 8f a5 97 bd
       -0.08548142 0.06961641 0.08583814 -0.07404625
000300 96 43 a5 bd 74 21 1e 3e 6a 2f 27 3e 28 d6 86 bc
       -0.080695316 0.15442449 0.16326681 -0.01645954
000310 98 56 2f bd 60 bd 03 3d c0 10 99 bc dc c6 ee 3d
       -0.04280719 0.032163024 -0.018684745 0.11659023
000320 f4 54 af 3d 29 02 ea bd 49 c4 37 be e8 68 1a 3d
       0.085611254 -0.11426193 -0.1794597 0.037697703
000330 b2 a7 2e 3e 82 24 0f be 38 85 9f 3d f0 d5 f8 bd
       0.17056158 -0.1397877 0.07789081 -0.1215018
000340 d7 43 98 bd 0c 48 02 3e 4b d1 b6 bd fe 35 30 3e
       -0.074348144 0.12722796 -0.08926638 0.17208096
000350 e4 6b a9 3d 30 f0 23 bd 03 56 e4 bd 6c 7e 48 3d
       0.08272532 -0.040023983 -0.11149218 0.04894869
000360 c0 d2 e4 bc 38 5b e5 bd 78 54 c0 3d 68 19 c6 3d
       -0.027932525 -0.11199039 0.09391111 0.096728146
000370 40 10 a3 3d 48 b9 2b bd f4 e9 78 bd 24 8a b8 3d
       0.07962084 -0.041924745 -0.06076999 0.09010723
000380 94 51 fb bd 68 c9 9c 3d 0a 12 39 be a8 10 e6 bc
       -0.12271419 0.07655603 -0.18073288 -0.028084114
000390 53 05 1b be 9c 3d 02 3e 1a c1 2d be 38 a2 d9 3d
       -0.1513875 0.12718815 -0.16968194 0.10626644
0003a0 a0 4d ef 3c e0 91 bb bc e6 b8 93 bd 78 46 e7 3c
       0.02921182 -0.022896707 -0.07213001 0.028231844
0003b0 47 28 a1 bd 40 51 72 bc f0 10 72 bc f8 ea b2 bc
       -0.078690104 -0.014789879 -0.014774546 -0.021840557
0003c0 cb fc 13 be 88 56 08 3d 05 98 13 be a8 d7 9c bc
       -0.14451902 0.033285648 -0.1441346 -0.019145802
0003d0 4c d9 f6 3d 60 28 c6 bb 40 0d 7f 3d 84 32 37 be
       0.12053165 -0.0060472935 0.062268496 -0.17890364
0003e0 c5 e8 02 be e0 6d 83 3d a8 c7 9c bc f3 24 1f be
       -0.12784107 0.06417441 -0.019138172 -0.15541439
0003f0 44 aa af 3d 18 16 e4 3d bc c7 83 3d 74 ce 72 3d
       0.085773975 0.111370265 0.06434581 0.05927892

transformer_encoder.encoder.feed_forward.fc1.bias f4 [256]
000000 f0 dc c2 bd 60 86 17 bc b0 b5 30 3e f0 5d 6f 3c
       -0.09514797 -0.009248346 0.17256808 0.014609799
000010 6c 0d 08 be d4 67 ba 3d 94 18 cc bd 04 90 c3 3d
       -0.1328637 0.09101835 -0.099656254 0.09548953
000020 b8 5b f8 bc 6c 4c 7c bd 14 52 0a 3e f5 d6 32 be
       -0.030317172 -0.06159632 0.13507873 -0.17464812
000030 f0 89 87 3d cd 02 09 be 35 0f ef bd 20 6e e2 3c
       0.06618106 -0.13379975 -0.116728224 0.027640402
000040 00 ec 27 3d 58 01 7e bd 38 e9 0e 3e aa 7b 99 bd
       0.04099655 -0.062013 0.13956153 -0.0749429
000050 00 f8 b9 3c 35 8e ae bd fc 70 07 3e 87 95 97 bd
       0.022701263 -0.085232176 0.13226694 -0.07401567
000060 a0 e0 bb bd 8a 2a 15 be 60 64 38 3d 90 51 5b 3d
       -0.09173703 -0.14567009 0.0450176 0.05354458
000070 a0 9b e8 3d 68 ce 8f bd 64 17 fd 3d 08 75 70 3d
       0.11357808 -0.07021791 0.12357977 0.05870536
000080 6b 29 96 bd 80 2a 8a 3b 80 af 33 3e 2c 11 1f 3e
       -0.073321186 0.004216492 0.17547417 0.15533894
000090 58 a1 b7 3c 5c 1e 01 3e c9 f0 ff bd c0 1b 59 3d
       0.022415802 0.12609237 -0.12497098 0.05300498
0000a0 c7 ab a8 bd 48 a0 1d 3e bb d2 8f bd a7 84 db bd
       -0.08235889 0.15393174 -0.070226155 -0.10718661
0000b0 bc 76 ae 3d d0 1b 2b be a0 a8 5b 3d 4e 4e 0f 3e
       0.085187405 -0.16709828 0.05362761 0.13994715
0000c0 00 eb c6 bc be d0 24 3e d4 73 10 3e ca a0 0c be
       -0.024281979 0.16095254 0.14106685 -0.13733211
0000d0 84 18 06 3d f0 4c 7d 3c 20 6a 18 3c fc c4 f4 3d
       0.032738224 0.015460238 0.009302646 0.11951634
0000e0 78 37 3a 3e 70 d3 fb bc 78 22 8c 3c 9e b9 0d 3e
       0.18185222 -0.03074047 0.01710628 0.13840339
0000f0 e0 e8 31 be d9 5b 8a bd da 33 2b be cc c0 f4 3d
       -0.17373991 -0.067558 -0.16718999 0.119508356
000100 e4 c0 6a bd ec ac 1a be 00 69 9e 3b fe f5 ee bd
       -0.05731286 -0.15105027 0.0048342943 -0.11668013
000110 80 5e 71 bb 80 0f 08 bd 65 8a ce bd 12 89 32 3e
       -0.0036830008 -0.033217907 -0.100849904 0.174351
000120 ec b2 b0 3d 0c 57 e1 3d 25 6c 30 be eb 1b e0 bd
       0.08627877 0.11002931 -0.17228754 -0.10942825
000130 c2 42 ae bd 23 d4 f2 bd a0 81 98 bc e0 4e fc bc
       -0.08508827 -0.11856868 -0.018616498 -0.03079933
000140 e4 9c 02 3e 48 a8 0f be f0 b5 2d bd 40 bc 1f bb
       0.12755162 -0.14029038 -0.042409837 -0.002437368
000150 9d 23 29 be f4 21 20 3d f4 f1 55 3d 2b e1 0a be
       -0.16517492 0.03909488 0.052232698 -0.13562457
000160 14 e1 cf 3d 4e 0d 91 bd 44 8a d0 3d 68 3f 31 bd
       0.10150352 -0.07082616 0.10182622 -0.04327336
000170 d0 00 36 3d 6e 91 0f 3e b0 2e 35 3e 80 a4 07 bc
       0.04443437 0.14020321 0.17693591 -0.008278966
000180 91 dd 08 be 0c 53 11 3e 26 40 09 be 90 a3 5e bc
       -0.13365771 0.14191836 -0.13403377 -0.013588801
000190 80 54 16 be e4 4b 33 3e ea a3 2b 3e 16 f2 09 be
       -0.14680672 0.17509419 0.16761747 -0.13471255
0001a0 98 47 f4 bd 54 d2 61 3d 80 f9 3a 3b 9e d1 7e bd
       -0.11927718 0.055132225 0.0028530061 -0.062211625
0001b0 74 c9 42 bd 88 6e e0 bc 48 dc bc 3d d0 8d 92 3d
       -0.047555402 -0.027396455 0.09221703 0.07155955
0001c0 e4 0b 08 be 00 53 da 3d c4 09 0c 3e e1 63 06 be
       -0.13285786 0.10660362 0.136756 -0.13124038
0001d0 4c 91 e6 3d c0 f2 32 be 34 23 08 3e 20 ef cd 3d
       0.11258182 -0.17475414 0.13294679 0.10055375
0001e0 10 15 ef bc 60 5b 30 bc 63 ae ce bd f8 42 66 3d
       -0.029184848 -0.010763973 -0.100918554 0.05621621
0001f0 44 76 61 3d 98 67 90 3d 13 97 d5 bd 2f f9 30 be
       0.055044428 0.07051009 -0.10429206 -0.17282556
000200 80 f9 d2 3d f8 d9 e0 3d 7e b4 f8 bd 85 67 2d be
       0.103014946 0.10979074 -0.12143801 -0.16934021
000210 b2 6e c1 bd 9c 81 b4 3d ec 88 27 be 40 24 ea 3b
       -0.094449416 0.088137835 -0.16360825 0.0071454346
000220 7d 54 b8 bd 52 03 be bd 1c cd 28 3e 7c 95 f3 3d
       -0.0900049 -0.09277977 0.16484493 0.11893746
000230 74 3a 96 3d c8 06 f1 3c 20 da 36 bd 54 37 b3 3d
       0.07335368 0.029422179 -0.044641614 0.087507874
000240 70 af 32 bd a2 5d 24 3e 74 bc 09 3d e6 55 28 be
       -0.04362434 0.16051343 0.03362699 -0.16439018
000250 04 3c 02 3e 90 fa 33 be 54 7f 16 3e 5e 92 fb bd
       0.12718207 -0.17576051 0.1469701 -0.12283777
000260 80 64 ad 3b 90 95 20 bd e0 a9 5a 3c be de 87 3d
       0.0052915215 -0.039205134 0.013346165 0.066342816
000270 08 45 50 bd dc a2 2d 3e e0 fa 79 3d c0 03 df 3d
       -0.050847083 0.16956657 0.06103027 0.10889387
000280 11 b4 ed bd 0c d2 20 3e c0 32 18 3d 64 c2 db 3d
       -0.116066106 0.15705127 0.037157774 0.107304364
000290 ca e1 b4 bd 74 5a 64 3d 65 03 12 be b4 d7 9e 3d
       -0.08832128 0.055750325 -0.14259107 0.07755986
0002a0 40 a3 9e 3b a4 1d 1f be 00 f5 93 ba 80 2d 1b 3b
       0.0048412383 -0.15538651 -0.0011288226 0.0023678243
0002b0 90 ae 07 3d 6c ac 9c bd 68 65 17 be 58 49 09 bd
       0.03312546 -0.07650074 -0.14784777 -0.03351721
0002c0 b4 fc 0d 3e df 9e dd bd 88 84 32 bd 0f ad 1f be
       0.1386593 -0.10821318 -0.043583423 -0.1559336
0002d0 ed bb c2 bd 60 d5 87 3d a9 73 c5 bd 14 54 32 bd
       -0.095085 0.06632495 -0.09641201 -0.043537214
0002e0 9c e5 be 3d af a4 cd bd 88 d8 35 be c0 69 0e 3e
       0.09321138 -0.100411765 -0.17758381 0.13907528
0002f0 a0 e2 b5 3c aa 39 04 be 98 f9 7f bd 64 9f 8f 3d
       0.02220279 -0.12912622 -0.06249389 0.07012823
000300 86 ad c8 bd 50 96 08 bd e0 13 38 be 85 0d 2c be
       -0.09798722 -0.033346474 -0.17976332 -0.16802032
000310 9c e9 29 bd 78 af 19 3e 30 8b 5d 3c 1c fa 3b 3d
       -0.041482553 0.15008342 0.013521954 0.04589282
000320 4c 6f 4d bd a6 fb 0b 3e a4 f7 aa bd 7c 41 24 3d
       -0.05015497 0.13670215 -0.08348015 0.040101513
000330 86 3e 36 be 48 d8 99 3d 90 1f 94 bd 79 40 38 be
       -0.17797288 0.075119555 -0.072325826 -0.17993344
000340 80 d8 b2 3a c0 1b 3b 3d 48 05 22 be c0 9f 01 3e
       0.0013644844 0.04568076 -0.15822327 0.12658596
000350 fc b2 cd 3d c0 d9 75 bd 32 64 15 be 30 7c 36 3c
       0.10043904 -0.060022116 -0.14589003 0.011138007
000360 0c 9c 0f 3e ae 1d 28 be 34 c1 10 be 32 b3 0a 3e
       0.14024371 -0.16417572 -0.14136201 0.1354492
000370 4c cf a2 3d 20 04 ef bc 56 b7 dd bd ec 6a 64 3d
       0.07949695 -0.029176772 -0.10825984 0.05576603
000380 84 35 26 3e d0 d9 bb bc 10 98 8f 3d 6e 6a fa bd
       0.16231352 -0.02293101 0.070114255 -0.12227331
000390 80 6f 3b bc 48 d2 22 bd 0c 84 72 3d 2f 22 dd bd
       -0.011440158 -0.03975132 0.05920796 -0.10797536
0003a0 78 b7 09 3d 78 2a ed 3d f2 44 02 be d3 6d 34 be
       0.033622235 0.11580366 -0.12721613 -0.1762002
0003b0 e0 a6 89 3d 08 b7 fc bc 94 83 2c 3e bf c5 05 be
       0.06721282 -0.030848995 0.16847068 -0.13063715
0003c0 78 93 17 3d 82 90 25 3e c0 09 63 3c 39 bb f4 bd
       0.03700587 0.16168407 0.013857305 -0.119497724
0003d0 e0 6d 21 3e a1 76 2b be 4a 20 19 3e 74 07 b0 3d
       0.1576457 -0.16744472 0.14953724 0.085951716
0003e0 38 b9 da 3d a0 a0 c2 3d 86 ef 7d bd cc 44 e2 bd
       0.10679859 0.09503293 -0.061996005 -0.11048278
0003f0 70 df d6 3d f7 cc 2d be 34 ae f2 3d 68 8e c7 3d
       0.10491836 -0.16972719 0.11849633 0.09743959
