simple2transformer/param/net_param/Mk05_critic_net.model (torch, 167615 bytes, 33 tensors)

transformer_encoder.encoder.attention.fc_Q.weight f4 [30, 30]
00000000: 5036 cfbd 64c4 04bd b041 51bd e4af 163d
00000010: 99ab 01be a624 283e 179f 86bd 30ea 34be
00000020: 9966 aabd ec87 493d 4025 383e f456 0fbd
00000030: 0b93 edbd dc19 683d 840c 8d3d 1811 063e
00000040: 6c9d 043d fcf3 a73d 9aca 29be c07b 323b
00000050: 38e4 873c 644d fbbd 804a 343b 289e b93d
00000060: 606b 9a3b 1257 803d 6c16 5b3d d077 313e
00000070: 807a 6b3d 3838 a33d 0205 86bd 625d 9ebd
00000080: 0039 05be 4018 d43d 689d b0bc 28c8 cfbd
00000090: 7ca4 073e 802e 5fbb ba70 37be a02a 8c3d
000000a0: 89f5 0fbe 248d a03d ad33 d9bd 6b34 23be
000000b0: 70b1 8a3d 60ae 5dbd 890d adbd e0d0 0e3c
000000c0: d637 053e 3074 a13d e0e6 77bd 4cdb d33d
000000d0: 8132 bbbd d44e d1bd b0b4 313e 4375 33be
000000e0: 5adc 163e 88db 583d ce0c d4bd ccb8 bf3d
000000f0: f021 373e ecb5 5ebd 4015 b1bd d2a3 c0bd
00000100: 94c8 3b3d 1603 29be 9284 0dbe 1438 bb3d
00000110: 8093 883d 6001 2fbd 35b7 96bd c0d7 d43c
00000120: f8e5 c53d af6f 20be 5c0a d03d d4e9 203e
00000130: eddd e7bd 94ee ba3d 4d42 8ebd 3010 afbd
00000140: 580e cb3c 3ba7 e6bd b423 e8bd 3889 ba3d
00000150: 24f4 1fbe e0b1 323e a03d e03c c832 233e
00000160: fcdc ca3d 603a 303d 5a6f cabd 546b 313e
00000170: 5e1d 34be 5ce7 233d 6c81 e73d 8e68 e4bd
00000180: 42ac 883d 2411 87bd 34c8 6fbd 00ac cc3d
00000190: 1876 983d 2095 5ebd 1024 fcbd b998 29be
000001a0: 2822 2cbe 8411 b7bd c270 23be ab96 a2bd
000001b0: 0019 cabc 7a76 083e b03c e3bd e201 283e
000001c0: e36a 14be 2050 e23b 3499 3a3e 0045 26bb
000001d0: 76b8 253e cacc 0d3e 0caf 223d a004 01bd
000001e0: e07d bfbb 6615 87bd 92c1 34be 8a57 c4bd
000001f0: b8e9 dd3d 302d 52bd d756 e2bd 142c 39bd
00000200: fc88 3d3d 4c7c 0e3e 441a 713d f374 30be
00000210: 0809 9bbc 703c f83d 9cf3 08bd 88b2 8dbc
00000220: 8aec f4bd a40a 6c3d 8ac7 373e e7a9 92bd
00000230: 8ced 15be 8831 69bd f2a2 2b3e 2d96 ddbd
00000240: 14d2 2abe 8c81 e63d 2cd7 703d f28a 073e
00000250: c02a 4a3c b8ff 9d3d 4f1c 29be 9d4a e4bd
00000260: 65c3 99bd 80fc c23c 9084 2bbc c50d c1bd
00000270: 980e c33c fa2b 263e f047 11bc 7cb2 d03d
00000280: 08d0 c4bc a09d 9c3b 0083 b73d 4003 35bc
00000290: c002 b83b e6d7 b2bd 247a f83d dbb9 8fbd
000002a0: a0b6 d4bc 0ac7 293e f06c 6cbd 4802 2b3d
000002b0: 642d e5bd 1c71 b43d 9692 103e 6895 0cbd
000002c0: 80c8 31bd 1457 143e 2c38 f73d 3aa1 7cbd
000002d0: a056 103c a051 34bd e22d 183e a62b 1f3e
000002e0: c040 e53c 6cf3 09be 4b6d ecbd 5035 bc3c
000002f0: 5a4f 053e 1892 23bd a828 dabd c4cb 023e
00000300: 84fa cdbd 78de 253d 30ae 1a3e eeab 283e
00000310: f8ec b7bd 484b 1d3e 1863 293e 2a63 093e
00000320: ffa4 0abe 88e5 fabd ccbf 7ebd e29d 08be
00000330: 801a 103b e0dc 9dbd 5cbd 7d3d 1067 eb3d
00000340: 10b9 05bd 430c 93bd 80b4 843b 1a50 19be
00000350: 3647 6cbd 7499 89bd 6479 a63d f63e 233e
00000360: 52e4 2ebe cc16 1f3d 16c7 1b3e e0c4 3a3d
00000370: c0c0 563c 180b 143d 40c3 003d fb62 00be
00000380: 00ca 053e 9ae7 243e 6e19 b2bd 18e3 8e3c
00000390: d0a9 01be 2003 c23c 60b1 ebbc 9802 1c3e
000003a0: b2ff 0e3e 35dc 26be 5ce6 303d d05b 903c
000003b0: 58ba d3bc d079 333d 3ae6 18be 4a0d 343e
000003c0: e039 d33d f09f 8f3d 1809 1fbe f10e cabd
000003d0: 084f be3d 0416 f63d 335d 11be 1e9b 043e
000003e0: 8036 143e fc6c d23d 4810 b23d 083b 123e
000003f0: 0859 cc3c bc41 593d 8c39 973d b036 cfbc
-0.10117781 -0.032413855 -0.051088035 0.036788836 -0.12663116 0.1642023 -0.06573313 -0.1766746
-0.0832035 0.04920189 0.1798296 -0.034995034 -0.11600312 0.056665286 0.06887153 0.13092458
0.03237669 0.08200833 -0.16581193 0.0027234405 0.016588315 -0.122706205 0.0027510226 0.09063369
0.004712507 0.06266607 0.05348818 0.17330861 0.057489872 0.07969707 -0.06543924 -0.07732655
-0.13010025 0.10356188 -0.021559432 -0.10145599 0.1324634 -0.0034054816 -0.17914096 0.068440676
-0.14058508 0.078394204 -0.106055595 -0.15937965 0.06772125 -0.054121375 -0.08449847 0.008716792
0.13009581 0.07883489 -0.060522914 0.10344562 -0.09140492 -0.102201134 0.17354083 -0.175252
0.14732495 0.052943736 -0.10354005 0.09361419 0.1788404 -0.054372713 -0.08646631 -0.09406246
0.045845583 -0.16505083 -0.13820103 0.091415554 0.066687584 -0.04272592 -0.07359163 0.025981784
0.09663004 -0.15667604 0.10158226 0.15714198 -0.11321626 0.091275364 -0.069462396 -0.085480094
0.024787113 -0.112623654 -0.11334935 0.09108204 -0.15620476 0.17450666 0.027373135 0.1593734
0.09905431 0.04302442 -0.0988452 0.17326099 -0.17589328 0.040015563 0.11303982 -0.11152755
0.066734806 -0.06595066 -0.058540538 0.09993744 0.074443996 -0.054341435 -0.12311566 -0.16562165
-0.16809905 -0.08938888 -0.15960982 -0.07938894 -0.024670124 0.13326445 -0.110955596 0.16406968
-0.14493899 0.0069065243 0.18222505 -0.0025370717 0.16183648 0.13847652 0.03971772 -0.03149855
-0.005843863 -0.06595878 -0.17651966 -0.09587009 0.10835594 -0.051312625 -0.1105172 -0.04520805
0.046273217 0.13914603 0.05886294 -0.17232113 -0.018925205 0.121209025 -0.03343545 -0.017297044
-0.11959179 0.057627335 0.17947212 -0.071613126 -0.14641398 -0.056932002 0.16761377 -0.108196594
-0.16681701 0.11255178 0.058798954 0.13236597 0.012339294 0.0771479 -0.16514705 -0.11147044
-0.07507972 0.023802042 -0.010468617 -0.094264545 0.02381067 0.16227713 -0.008867249 0.10190293
-0.024024978 0.0047795326 0.08960533 -0.011048138 0.005615562 -0.087325856 0.121326715 -0.07017871
-0.025965989 0.16579834 -0.05772108 0.041750222 -0.11190298 0.088106364 0.14118418 -0.034322172
-0.043404102 0.14486343 0.12071261 -0.061677195 0.0088097155 -0.044023156 0.14861253 0.15543994
0.027984977 -0.13471764 -0.115442835 0.02297464 0.13018551 -0.039934248 -0.10652286 0.12773043
-0.10057548 0.040495366 0.1510551 0.16471836 -0.08980745 0.15360749 0.16541708 0.13416734
-0.13539504 -0.12250811 -0.06219463 -0.13341478 0.0021988451 -0.07708144 0.061948165 0.11494267
-0.032647192 -0.07180073 0.0040498376 -0.14971963 -0.0576851 -0.06718722 0.08128622 0.15941986
-0.17079285 0.0388401 0.15212664 0.04559791 0.013107479 0.036143392 0.031436205 -0.12537758
0.13065338 0.16103974 -0.086962566 0.017442271 -0.12662435 0.02368313 -0.028771102 0.15235364
0.13964728 -0.1629494 0.043188438 0.017621905 -0.025845692 0.04381734 -0.14931574 0.17583194
0.10313773 0.070129275 -0.15530813 -0.09866131 0.09292418 0.12015918 -0.14195709 0.12949798
0.14473915 0.10274693 0.08694512 0.14280331 0.024944797 0.053041205 0.07384023 -0.025294632

transformer_encoder.encoder.attention.fc_Q.bias f4 [30]
00000000: 0516 13be 84c6 20bd 374e 8fbd 4804 ab3c
00000010: 3c18 1abe ca3c 87bd 7b55 9bbd a087 23bc
00000020: 00d0 6439 842b 5a3d 58af 91bc e8df 8b3c
00000030: 8050 33be 088a 9a3d a0af 2f3e c97d 09be
00000040: 52c0 9cbd 44b3 08be 40d1 89bd 38b3 e13c
00000050: 3684 0b3e 2037 f13b 549e bd3d 341f 973d
00000060: 6aca 1d3e e06b 90bc 185e dabd d894 25bd
00000070: 6417 5cbd 17f8 8fbd
-0.14363869 -0.03925182 -0.0699734 0.020876065 -0.15048307 -0.066033915 -0.075846635 -0.009981066
0.0002182126 0.053264156 -0.017783806 0.01707454 -0.17511177 0.075458586 0.1715684 -0.1342689
-0.0765387 -0.13349634 -0.067293644 0.027551278 0.13624653 0.0073613077 0.09258714 0.073789984
0.15409246 -0.017629564 -0.10662478 -0.04042515 -0.053733245 -0.07029741

transformer_encoder.encoder.attention.fc_K.weight f4 [30, 30]
00000000: 0049 09bd 7429 2a3d 329a 863d bd33 ecbd
00000010: 1821 edbc dc0f 4e3d c018 18bc ce40 833d
00000020: baba 13be 80cb 2cbe 1359 18be 4cce 743d
00000030: 9220 233e d026 393d 002b 483b 0f91 ffbd
00000040: 8488 733d 5e9d 873d 9239 873d 4c1a d2bd
00000050: a97e 8dbd 7010 d13d 9885 353e c066 143e
00000060: f19a 15be ec77 10bd 6056 96bc ee9a 10be
00000070: 9641 0abe 9c36 393e a47c cb3d e815 0a3d
00000080: ec0f eb3d 6716 87bd ccf3 c23d 90d0 123c
00000090: 1037 9f3d 26ea 843d 38bc afbd 74c8 1cbd
000000a0: 00cb 5fbd 80ed aa3b b446 243e 8c29 313d
000000b0: 943a c53d a89b e53d b2ee 0c3e 704c 993d
000000c0: 3f93 bebd 2e97 893d 1cd0 173e 043f c53d
000000d0: 1e13 153e 96ca 153e 5c0c 34be 9d9b 98bd
000000e0: e0d0 dfbb 70cd 12bc 0832 d33d b0e1 253d
000000f0: b4a7 473d 0ca5 043e 1087 813d 99d9 f4bd
00000100: d0e9 bcbd 402e 0abd 1425 423d 0eb6 2c3e
00000110: b8e8 17bd 2df2 9cbd 8449 263e b689 323e
00000120: e253 0e3e 2c7d 203e 22d0 323e 863f 883d
00000130: 3cb1 bd3d dc8b 023d 5077 363d 0cc2 013d
00000140: c8b4 fcbc b820 30be a627 103e 34c7 a23d
00000150: 3ca5 29bd 78bc 1cbe 38cb 903d 15bd aabd
00000160: f083 a73c 4012 57bb 4cf2 383e c44b 123e
00000170: c014 abbd 5899 543d 4c60 a73d 09b5 d7bd
00000180: a883 9c3d f8b7 11be e17a 37be 2e85 cebd
00000190: 20a0 a93d 3758 b7bd b565 98bd 00d1 093a
000001a0: f8a5 923c 9e41 a7bd 1aa2 05be 90c9 1abe
000001b0: 9030 ea3d d09e bfbc bc09 59bd 8065 f2bc
000001c0: 0428 fa3d e5b4 babd 2d36 2dbe 98ef 2e3d
000001d0: cc61 88bd 00cb 95bb a471 89bd 70a1 0b3e
000001e0: e7b2 21be 26ba 01be 32f5 23be f023 703d
000001f0: 7490 b13d ac71 983d 5634 c4bd a090 983d
00000200: e0ef 66bd 48af 203e 9a3e febd 9099 b23c
00000210: fcfa 01be 850e fcbd 2c08 a13d 24c4 f63d
00000220: f8c7 e3bd e4f1 0b3d 5b0b 98bd 1e83 6fbd
00000230: 8f4c a3bd 6059 003e 406e 1c3b 89fe 1bbe
00000240: 7a04 313e 8009 6ebc 68ce 303e a50d 1ebe
00000250: c69c 0c3e f8ce 9b3c 1d74 8cbd 609c d23d
00000260: 68e1 993d 682d 393e 4ca8 b33d 0096 e4b9
00000270: 3cd8 0cbe 6655 383e 26e8 8bbd b499 2d3e
00000280: ead3 6cbd b246 253e 80f5 a9ba c07d 293e
00000290: 06cc d3bd fb57 34be f89e a33d 30b6 c53d
000002a0: 8acb c3bd 401c 96bc 6a8b 85bd 9804 d23d
000002b0: 7435 cb3d 5ab2 153e 204c 9e3d 1026 0ebc
000002c0: bc75 d83d 146e 293e 5e67 23be a02a 54bc
000002d0: f0e7 9d3d ec23 2b3e d417 7d3d ecab 32bd
000002e0: f884 bebc 2879 cd3d 90bd fa3c 37f4 f0bd
000002f0: 80b0 b93d 4623 bfbd b016 36be 9414 a73d
00000300: 3059 35be 2440 5e3d f449 ccbd 688f 3a3e
00000310: 84b1 fd3d b815 2f3e fa5d 273e 2844 c8bc
00000320: 80ae b73a 42a6 b8bd 180e d0bd 8641 cabd
00000330: 7683 043e c8d4 fd3d e2ae 323e db8a 28be
00000340: c8a7 413d 2ef4 14be 748d 08bd 20cf d9bb
00000350: 96fc abbd e074 853d 40f2 82bc d0c1 963d
00000360: 0021 94bd f63d 98bd 9a56 cabd d0ea ce3d
00000370: 3c7a b33d 6618 32be f9ad d4bd 19cf dfbd
00000380: a48d a03d cbb6 18be f0a5 2fbc 60d6 9fbc
00000390: f3e3 f5bd a1c8 bcbd 9e7b 1f3e 9f66 e2bd
000003a0: d67f 023e 0e17 163e 6ea7 243e 6c64 d13d
000003b0: 6219 0bbe 2023 edbd 38db 033e 1b81 2fbe
000003c0: bac5 23be 9837 acbc 9431 04be e88c a63d
000003d0: 4864 703d 60cd dbbc 30b2 e63d 00d4 92bc
000003e0: 4087 213e 72f9 0f3e 5488 bfbd 6a1f 393e
000003f0: 5c29 c63d 6249 dabd 76cb b5bd daf7 32be
-0.033516884 0.04154344 0.06572379 -0.11533306 -0.028946444 0.050308093 -0.009283245 0.06408845
-0.144267 -0.16874504 -0.14877729 0.059767053 0.15930393 0.04520303 0.0030543208 -0.124788396
0.059456363 0.06621812 0.066027775 -0.10258922 -0.06908924 0.10208213 0.17726743 0.14492321
-0.14609887 -0.035270616 -0.018351734 -0.14121601 -0.13501582 0.18087238 0.09935883 0.033712298
0.11477646 -0.0659607 0.09519157 0.008960858 0.07774174 0.06489973 -0.08580822 -0.038277104
-0.054636955 0.0052163005 0.16042596 0.043252513 0.096303135 0.1121133 0.1376293 0.074852824
-0.09305429 0.06718288 0.14825481 0.0963116 0.14558074 0.14628062 -0.1758284 -0.07451556
-0.0068303198 -0.008960113 0.10312277 0.040498435 0.04874392 0.12953585 0.06324589 -0.11955566
-0.09224284 -0.033735514 0.04739864 0.16866323 -0.037087172 -0.07663379 0.16238981 0.17435345
0.13899186 0.1567275 0.17462209 0.06652741 0.092623204 0.03187166 0.04454738 0.0316792
-0.030847922 -0.17199981 0.14077625 0.07948151 -0.041417345 -0.1530627 0.07070011 -0.08336846
0.020448655 -0.0032817274 0.18061179 0.14286715 -0.08353567 0.051904052 0.08172664 -0.105325766
0.07642299 -0.14230335 -0.17917968 -0.10083996 0.082824945 -0.089523725 -0.07441274 0.00052572787
0.017901406 -0.08166812 -0.13050118 -0.15115952 0.11435044 -0.023391157 -0.0529878 -0.029589415
0.122146636 -0.09116534 -0.16915198 0.042708963 -0.06659278 -0.0045713186 -0.06711128 0.13635802
-0.15790902 -0.12668666 -0.16011503 0.058628023 0.0867013 0.07443556 -0.09580295 0.0744946
-0.056381106 0.15691864 -0.12414284 0.02180174 -0.12693399 -0.12307457 0.07862887 0.120491296
-0.111221254 0.03416623 -0.07424041 -0.058474652 -0.07973587 0.12534094 0.0023869425 -0.15233816
0.17286864 -0.014528632 0.17266238 -0.15434892 0.1373168 0.019019589 -0.06858084 0.102837324
0.07513696 0.18083727 0.087723345 -0.00043599308 -0.13754362 0.18001327 -0.06831388 0.16953164
-0.057819284 0.1614025 -0.0012966841 0.16551876 -0.10341649 -0.17611687 0.07989305 0.0965389
-0.09560306 -0.018324018 -0.06520732 0.102547824 0.09922305 0.14618817 0.077293634 -0.008676067
0.10569331 0.16545898 -0.159574 -0.012949616 0.07710254 0.16712922 0.061790302 -0.04362099
-0.023256764 0.10032874 0.030607969 -0.1176533 0.09066868 -0.093329 -0.17782092 0.08158222
-0.17709804 0.054260388 -0.09975043 0.18218768 0.12387374 0.17098129 0.16344443 -0.024446562
0.0014013797 -0.09016086 -0.10158938 -0.09875779 0.12940773 0.123941004 0.17449525 -0.16459219
0.04727915 -0.14546272 -0.033338025 -0.0066470057 -0.08397786 0.06516433 -0.015984654 0.073611856
-0.07232857 -0.07433693 -0.09879799 0.10103381 0.08763549 -0.1739212 -0.10384745 -0.109281726
0.07839516 -0.1491348 -0.010720715 -0.019511402 -0.120063685 -0.092179544 0.155745 -0.1105473
0.12744078 0.14657232 0.16079494 0.10224232 -0.13583902 -0.11578965 0.12876594 -0.17139094
-0.15993395 -0.021022603 -0.12909538 0.081323445 0.058689386 -0.026831329 0.11264455 -0.017923355
0.1577425 0.1406 -0.093521744 0.1807839 0.096758574 -0.10658528 -0.08876698 -0.1747736

transformer_encoder.encoder.attention.fc_K.bias f4 [30]
00000000: 3c6e 5a3d fc5c 463d 8929 f3bd feeb 363e
00000010: dc03 cb3d 1e10 0c3e 8a42 293e 827a 18be
00000020: 98b9 6abd 41f2 24be 7c56 34be 94d2 dd3d
00000030: feff b8bd 50aa 1bbc 14f0 2ebe 5c19 02be
00000040: a4ec 963d f091 b63d e573 02be 5c13 be3d
00000050: e097 fd3c 381b 5b3d 348e 0ebd 00ac d93c
00000060: a811 21be b6da efbd 07c8 cebd 7cd3 663d
00000070: 8c00 e73d ec5f d63d
0.053327784 0.04842852 -0.118731566 0.17863461 0.099128455 0.13678023 0.16529289 -0.14890483
-0.057305902 -0.16108038 -0.17611116 0.1083118 -0.09033202 -0.009501055 -0.1708377 -0.12704986
0.07369354 0.08914554 -0.12739523 0.09281036 0.030956209 0.053492755 -0.034803584 0.026571274
-0.15729392 -0.11711638 -0.10096746 0.05635403 0.11279401 0.104675144

transformer_encoder.encoder.attention.fc_V.weight f4 [30, 30]
00000000: 0044 c03b ec14 ef3d 0c4d 173e cef2 343e
00000010: c023 89bd 7c2b 943d e0c1 32be 4098 40bd
00000020: 8cbc cb3d 60d4 cfbd e63d 173e 688a 223d
00000030: 404b e23c 0a4b 863d f61f b0bd 3059 bb3d
00000040: 04c2 293e 0ab3 0ebe 34ec f73d 243b 373d
00000050: 0c4a f33d 6700 13be 4809 fd3d 68d6 0fbe
00000060: 524a 11be a050 5a3c 04bf 063d 9eb0 103e
00000070: 2675 09be 4ec2 8abd abdc eebd a8d5 34be
00000080: 306f 693c 8773 2abe 5d28 28be 20b2 f5bc
00000090: bcf2 273e d4df cb3d 62fb 28be 4bc4 2ebe
000000a0: 2429 d73d a0a0 4abc cc03 6f3d f8cc b6bd
000000b0: d500 25be 38f1 28bd b4b5 2a3e 78a5 e1bd
000000c0: 7879 f13d 360c 2dbe 83c8 f3bd e20a 2b3e
000000d0: fcd4 0abd cad9 2bbe a50d 36be 3096 f53c
000000e0: d821 963d 209d 543c e475 703d 28d4 bf3d
000000f0: 084c 83bc c055 853d 76bc 0d3e 98c8 803d
00000100: 224d c1bd 10ea 273d 3065 b23d d49e 313e
00000110: 662d 813d f88f af3c 80b3 7d3c c417 20bd
00000120: c023 5f3c c057 193b fc2a 8dbd ce16 c4bd
00000130: 2474 35bd 5827 95bc c8e2 eb3d 5ccf 5cbd
00000140: 9c38 fdbd 2cdd 893d 505b 773c 16fc 303e
00000150: cc55 383e 5c31 4d3d d02f 8abd b05e 0cbd
00000160: 685a 063e c2e5 bbbd c4f6 183e 4451 043e
00000170: b831 ab3d a216 2c3e 90f5 073c a852 c43d
00000180: e1a9 eabd 4556 15be f430 1fbd 5ebf 2c3e
00000190: 30cd 3c3d 8240 bcbd 00b3 203a f64c 383e
000001a0: 144a ce3d 529d 3a3e 7023 1dbd 113c 0dbe
000001b0: 34e9 303e cca0 be3d 286e 823d 4670 273e
000001c0: f420 cb3d ec0a 0f3d e8e2 353e a4b6 fa3d
000001d0: b850 c3bc 0042 063e 102b acbd 8850 113e
000001e0: b7ff 15be 0434 1d3e 4484 2cbd 341f 343e
000001f0: 0033 4fbb ce38 843d dc77 bbbd 58c4 2dbe
00000200: c807 46bd b066 9ebc 5070 51bd 1050 9d3d
00000210: c69f 0e3e 8c68 e93d 306d 7fbc 0ee8 9cbd
00000220: 186d 1e3d 64ad 393e c8d4 ca3d ac65 22be
00000230: 5207 d2bd 7cc6 2d3e 3edf 2a3e e065 0a3c
00000240: 105e 26be 7c95 023e 8807 b0bd ea15 8fbd
00000250: f43b 19bd 321b bfbd b87a ca3d 1825 77bd
00000260: a06d fa3b 0886 f13d 6078 a6bd e0b5 103d
00000270: 252d 37be 74bf 093e 1411 953d fc88 d2bd
00000280: 00ca 943d 4838 303d 9047 9c3d 0cdc 04bd
00000290: 6c66 583d 802c 7abb c011 233c ac15 103e
000002a0: 26da f2bd 4280 053e 50d9 123c 3cb5 fcbd
000002b0: 0fdf 1ebe 0829 fa3d 9a7b 0a3e 1451 d13d
000002c0: 5001 d83d a128 38be ac4b 2d3e 98a6 a4bc
000002d0: e6d9 b2bd e2a4 93bd be7d 92bd 289a 203e
000002e0: 6661 0abe fe40 343e 10f1 0ebc a08f d9bc
000002f0: 38c7 123e 7c15 da3d 9b67 fcbd 83b5 9ebd
00000300: e84b e73d 145b 2b3e c0fa 7dbb 301f a6bc
00000310: bcd0 23be 9cb5 17be 70fd 523d 785c 913d
00000320: a0c5 82bc ac03 bf3d 7a3a c1bd 972f 24be
00000330: 0c17 a33d a88c d13d 005d 6c3c b072 96bd
00000340: 982c df3d 98b3 9c3d 4c50 c73d c1d3 e9bd
00000350: 68c1 84bc 100d c8bd 1075 ef3c 00e8 bf3d
00000360: 4010 6ebc 241a 393d 65f6 a2bd d881 e13d
00000370: e945 26be 809a af3d 9c1a 41bd a1ef f0bd
00000380: 5810 9b3c 3c2f 25be e0f4 803b 043f d43d
00000390: 984b c13d b0ca 163e 8409 b7bd b07c f53d
000003a0: 6984 93bd 049f b43d 22ff f5bd 0b29 b3bd
000003b0: 1ab7 2c3e 0038 323c 4894 09be 4472 d83d
000003c0: 081b c03d 5436 3f3d a0ce 763c 61ca 9abd
000003d0: 58a6 d43d d088 9d3d f084 20be 80ff 253c
000003e0: aea9 28be a059 2cbc 031f 11be 139a 15be
000003f0: 20e2 813d 57da b9bd e4dc 0bbe 7c00 2fbd
0.005867481 0.116739124 0.14775485 0.17670748 -0.06696272 0.072348565 -0.1745677 -0.047020197
0.09948072 -0.10147929 0.14769706 0.039682776 0.027623773 0.06557281 -0.08599846 0.091478705
0.16577917 -0.13935485 0.12105599 0.044734135 0.11879358 -0.14355622 0.12355286 -0.14046633
-0.14188507 0.013324887 0.03289701 0.14129874 -0.13423595 -0.06775342 -0.11663183 -0.17659628
0.014247701 -0.16645633 -0.16421647 -0.029992163 0.1640119 0.09954801 -0.16502145 -0.17067067
0.10505894 -0.012367398 0.05835323 -0.089258134 -0.16113599 -0.04124567 0.16670877 -0.11017889
0.117907465 -0.1689919 -0.11903479 0.1670337 -0.033894524 -0.16782299 -0.17778642 0.029978842
0.07330674 0.012976915 0.05870618 0.093666375 -0.016027465 0.06510496 0.13841423 0.0628826
-0.0943854 0.040994704 0.08710706 0.17345744 0.06307487 0.021430954 0.015484691 -0.039085165
0.013619363 0.002339825 -0.06892964 -0.09574662 -0.044300213 -0.018207237 0.115178645 -0.05390869
-0.12364313 0.06731638 0.015097454 0.17283663 0.18001479 0.0500959 -0.06747401 -0.03426999
0.13120425 -0.09174682 0.14937884 0.12921625 0.083590925 0.16805509 0.008298293 0.09586078
-0.11458183 -0.1458369 -0.038865045 0.16869876 0.04609412 -0.091919914 0.00061301887 0.17998108
0.10072723 0.18224075 -0.038363874 -0.13792445 0.1727646 0.09308013 0.06368667 0.16351423
0.09918395 0.034922525 0.17762339 0.12241867 -0.0238422 0.13111115 -0.08406651 0.14190876
-0.14648329 0.15351874 -0.042118326 0.17590028 -0.0031616092 0.06456147 -0.09153721 -0.1696943
-0.048347265 -0.019336075 -0.0511325 0.07681286 0.13928136 0.11396894 -0.015589997 -0.076614484
0.03867826 0.1813255 0.09903866 -0.15859097 -0.102553025 0.16970247 0.16686723 0.00844714
-0.1624682 0.12752336 -0.085951865 -0.06986602 -0.03741069 -0.09331359 0.09886688 -0.06033811
0.007642463 0.117931426 -0.081284285 0.0353297 -0.17888315 0.1345194 0.07278648 -0.10280034
0.07265091 0.043022424 0.07630837 -0.032436416 0.052832052 -0.0038173497 0.009952962 0.14070767
-0.11858015 0.13037208 0.008962944 -0.12339255 -0.15514778 0.12214857 0.13523713 0.102205426
0.10547125 -0.17984249 0.16923398 -0.02009897 -0.08732967 -0.07209183 -0.0715289 0.15683806
-0.13513717 0.17602918 -0.008724466 -0.026557744 0.14333808 0.10648629 -0.12324449 -0.07749464
0.11293775 0.16733962 -0.0038754195 -0.020278543 -0.15997595 -0.14815372 0.051511228 0.07097715
-0.015963376 0.09326872 -0.09434982 -0.16033779 0.0796338 0.10231906 0.01442647 -0.07346094
0.108971775 0.07651442 0.09732112 -0.11417342 -0.016205505 -0.097681165 0.029230624 0.09370422
-0.0145302415 0.045190945 -0.07957152 0.11011094 -0.16237606 0.085743904 -0.047144517 -0.117644556
0.018928692 -0.161313 0.0039354414 0.10363582 0.094382465 0.14725757 -0.08937362 0.11986673
-0.072029896 0.08819392 -0.12011553 -0.08748063 0.16866723 0.010877609 -0.13435471 0.105686694
0.09380156 0.04668267 0.015063912 -0.07558132 0.1038329 0.076921105 -0.15675712 0.010131717
-0.16470978 -0.010519415 -0.14171986 -0.14609556 0.06341958 -0.09074848 -0.13658482 -0.04272507

transformer_encoder.encoder.attention.fc_V.bias f4 [30]
00000000: 4b43 e2bd 0806 2abd cbf2 c6bd 402a 1dbc
00000010: fb72 d8bd b827 a33d 03e3 10be 0006 983a
00000020: 0d10 33be a02c 2e3c e08a 3ebc c0e9 d43c
00000030: 8070 bc3b b0c8 f63d d0d6 293e 7899 693d
00000040: f4bd 783d 5e2a cfbd 0039 17bd c806 273e
00000050: 30e9 e3bc 30a9 0cbe 2d9d 3abe ec7b 3dbd
00000060: c07c 413c 28d8 babc ab56 dfbd 4235 253e
00000070: 4050 d53d 4062 a6bc
-0.11047991 -0.041509658 -0.09714278 -0.009592593 -0.10568806 0.0796656 -0.14149098 0.0011598468
-0.17486592 0.010630757 -0.01162979 0.025990367 0.0057507157 0.12049997 0.1658585 0.057031125
0.06072803 -0.10115503 -0.036919594 0.1631118 -0.027821153 -0.13736415 -0.1822402 -0.04626076
0.011809528 -0.02280815 -0.109052025 0.16133597 0.10415697 -0.020310521

transformer_encoder.encoder.attention.fc.weight f4 [30, 30]
00000000: c02c 603d a057 f03b d44e 18be 40ea 0dbd
00000010: 68f5 123e 500f c63d 001c 7239 e6ab 2a3e
00000020: f685 3a3e 103e 813c 0024 b93d f0aa e83d
00000030: 6c28 95bd 548d 0fbd 8a80 0c3e c4a1 b63d
00000040: c891 ac3d d82d c23d 901b 0ebe 7c20 f43d
00000050: da6b 3a3e 74ce 1d3e d87e 143e 909e b23d
00000060: 872d a8bd 4c5e 1cbd 9413 ad3d ba5a 323e
00000070: 8c36 343e 93d1 b8bd c46c 37be c008 29bd
00000080: 9054 e33c e0c4 8b3b 74b7 023d 9832 133e
00000090: d6c0 323e b812 c4bc 3029 c03d c4af 07be
000000a0: 1c23 7b3d c0b2 29be fc90 fb3d 3c05 5ebd
000000b0: 5b0e 91bd 53ed ecbd 480b 58bd 8ce3 19be
000000c0: ecfb 133e e2e2 2f3e f870 5d3d 1cfd 71bd
000000d0: f007 22bc f1b2 abbd a033 1ebe d83e 523d
000000e0: 58ec 38be 4c3a 7d3d 8c10 cc3d 153a 21be
000000f0: b8d7 ed3d acab f73d a80b 963d b8fa efbd
00000100: fea1 e6bd 9002 02bd 3e94 e3bd c065 1dbe
00000110: 3026 a03d c4f3 533d 7cca c13d 04a4 733d
00000120: 20f5 09bc b851 913d a022 05be 98ad e23d
00000130: ac92 223d a8aa e63d 0c01 fc3d 3050 fbbc
00000140: 0bd0 2ebe 4879 a63c 755a ffbd 7a72 1d3e
00000150: 2c4e 593d 4a90 2cbe 084c e9bc 6075 453d
00000160: 08be 3b3d b48c fd3d fe8c 7ebd e0be 283e
00000170: e4cd a23d 50c0 24be 33fd 33be 2095 c73c
00000180: d27b 0b3e f0a8 ef3d a068 9bbd 1694 313e
00000190: 90f5 b03d 5208 f7bd 3011 01bc e0ff edbb
000001a0: 00e0 4f3c 80a7 deba 5868 86bc 801a c93a
000001b0: 9860 913c f47e 263e 7947 afbd e2c8 2d3e
000001c0: e40c bb3d 1624 0e3e 1c59 b53d 20e6 a3bb
000001d0: 90bd 22bd c66a 093e c78d cfbd 1480 943d
000001e0: 3684 14be 4062 c33b 605c c83b fee4 013e
000001f0: 9454 dc3d e0fd 27be 5885 933c 989b bb3d
00000200: 82b6 863d 408e 26be 5f35 17be 80e4 9bba
00000210: f9d8 d9bd b014 783c 282d 2f3e 3888 fcbd
00000220: 10e8 853d 6113 dcbd e099 9f3b 6086 b6bb
00000230: 1c0b 1abe 185c 6abd fc62 b13d b840 5fbd
00000240: 76a4 213e 3a36 0ebe 6950 97bd 507f 6e3d
00000250: 985b dc3c 9865 6ebd 0210 823d 805c 89ba
00000260: c464 383e 2406 14bd 2407 04bd 88c7 51bd
00000270: 20c4 07bc 034e ebbd 84f2 b33d 28c7 0c3d
00000280: 2ca8 9c3d 22c6 1c3e 908c 643d 5178 cdbd
00000290: d2a2 2f3e 284f bc3d 8adc 273e c8d8 12bd
000002a0: 1eac 0e3e 72b0 0ebe 00c2 1ebe 7b8d f6bd
000002b0: b088 973d c795 debd 56d5 1d3e 76a2 183e
000002c0: 48e2 f23d 1a22 27be c07f 64bc 6cdf 1ebe
000002d0: b404 87bd 9804 743d 7892 0ebe 809e cc3b
000002e0: a1c2 22be 986d 5abd 70d8 fb3d 8481 1b3e
000002f0: 4732 ecbd e06c 02be 00e4 7d3b 82db cbbd
00000300: 9793 9fbd 106e 2c3d 0885 ae3d 9a4a 0d3e
00000310: 8e0a 35be bce6 b43d c054 993b 86d4 313e
00000320: 9d60 efbd f80f 0a3e 786c d2bd 6fa5 19be
00000330: 5ae6 dabd 8a09 013e 5278 273e 887f e3bd
00000340: 34ef b43d b83e a0bd 5043 f93d e262 1a3e
00000350: 3488 2c3d 9065 403d 90b7 ec3d c80d 343e
00000360: 385e a33d 10f3 0cbc 37d8 38be ac0d 21bd
00000370: 1018 053d 38fb b2bc ecd2 f73d 4cb5 9a3d
00000380: 6c73 893d 90de 483c ecad 47bd d80b 933d
00000390: 2400 0abe 0405 db3d 14da b2bd abf3 debd
000003a0: d17f 91bd 84cb eb3d 1cdf 13be 34e8 ec3d
000003b0: c0e8 8c3d 24c3 17bd d862 4f3d 8cd0 a13d
000003c0: 1405 e93d 843a 2dbd c802 99bc 5c26 6d3d
000003d0: 70e4 dc3c a21b c4bd 6c39 ff3d 8648 2e3e
000003e0: 1faa babd 8822 bdbc 40e8 333b c093 d4bd
000003f0: ec26 3f3d 1e76 00be f0d9 29bc cac7 233e
0.054730177 0.0073346645 -0.1487382 -0.034647226 0.14351428 0.096708894 0.00023089349 0.16667137
0.18215165 0.015776664 0.090400696 0.11360729 -0.072831005 -0.03504689 0.13720909 0.08917573
0.08426243 0.094814 -0.13877702 0.119202584 0.18205205 0.15410787 0.14501512 0.0872165
-0.08211809 -0.038175866 0.08451 0.17417422 0.17598933 -0.09024348 -0.17912585 -0.04126811
0.027750283 0.0042654127 0.031913236 0.14374769 0.17456374 -0.023934707 0.09382856 -0.13250643
0.06131278 -0.16572094 0.12283513 -0.05420421 -0.07082816 -0.115687035 -0.052745134 -0.15028208
0.1445157 0.17176393 0.054062814 -0.059079275 -0.009889588 -0.0838374 -0.15449381 0.051329464
-0.18058908 0.061823174 0.099640936 -0.15744813 0.11613411 0.12093291 0.07326442 -0.11717743
-0.11261366 -0.031740725 -0.11112259 -0.15370846 0.07819784 0.051746145 0.09462449 0.05948259
-0.008420259 0.07095665 -0.1300149 0.11068267 0.03969066 0.11263019 0.12304887 -0.030677885
-0.1707155 0.020321503 -0.12468425 0.153757 0.053053066 -0.16851917 -0.028478637 0.04820764
0.045835525 0.123803526 -0.06214618 0.16479063 0.07949427 -0.16088986 -0.17577057 0.0243631
0.13621452 0.11702144 -0.07588315 0.17341647 0.08640587 -0.12062134 -0.007877633 -0.0072631687
0.012687683 -0.0016987175 -0.016407177 0.0015342981 0.017746255 0.16259366 -0.08558554 0.16971162
0.09133318 0.13880953 0.08854887 -0.0050017983 -0.039731562 0.13419637 -0.10134464 0.072509915
-0.1450356 0.00596264 0.0061145276 0.1268501 0.107583195 -0.1640544 0.01800792 0.091605365
0.06577779 -0.16265202 -0.14766453 -0.001189366 -0.106370874 0.015141651 0.1710707 -0.12330669
0.06538403 -0.10745884 0.0048706383 -0.005570218 -0.150433 -0.057216734 0.08661458 -0.05450508
0.15785393 -0.13887873 -0.07388384 0.058226883 0.026899144 -0.058202356 0.063507095 -0.0010479838
0.18007189 -0.03613867 -0.032233372 -0.05121568 -0.008286506 -0.11489489 0.087864906 0.034369618
0.07649264 0.15309957 0.055798113 -0.10032714 0.17151955 0.09194785 0.16392723 -0.03585127
0.13932845 -0.13934496 -0.15503693 -0.12038704 0.07399118 -0.108684115 0.15413412 0.14905724
0.11859566 -0.16321602 -0.013946474 -0.15514916 -0.06592694 0.059574693 -0.13923061 0.0062444806
-0.15894558 -0.053327173 0.122971416 0.15186125 -0.11533027 -0.12736845 0.0038740635 -0.09953977
-0.077918224 0.04209715 0.085214674 0.1379799 -0.17679808 0.088330716 0.0046792924 0.17366228
-0.116883494 0.13482654 -0.10274595 -0.15004514 -0.10688467 0.12601295 0.16354492 -0.11108309
0.08834687 -0.07824463 0.12171042 0.15076783 0.04212208 0.046971858 0.11558449 0.17583382
0.07976955 -0.0086028725 -0.1805123 -0.03931968 0.03249365 -0.021848306 0.12100777 0.07554111
0.06711468 0.012260094 -0.04874985 0.071799934 -0.13476616 0.10694316 -0.08733001 -0.1088632
-0.07104457 0.11513427 -0.14440578 0.11567727 0.06880331 -0.037051335 0.050631374 0.07901105
0.11377922 -0.042292133 -0.018678084 0.05789791 0.026964396 -0.09575583 0.12462124 0.17019853
-0.09114479 -0.023087755 0.0027451664 -0.103797436 0.04666798 -0.12545058 -0.010366902 0.15994182

transformer_encoder.encoder.attention.fc.bias f4 [30]
00000000: a4b2 1b3d 61da 31be 30c3 71bc d36f 21be
00000010: 970d 2bbe 2c29 003e 3ee7 0c3e b707 08be
00000020: 8091 dfbb 4485 283e 1170 c6bd b0cf 8abc
00000030: 7562 87bd 74ed 27be c062 fd3d 2827 133e
00000040: e471 29be 987d d33d a080 bf3b 78ff 6f3d
00000050: d834 e0bc 8c56 b2bd 6c9e 3cbd 4042 0f3d
00000060: a435 7a3d cc90 2ebd 449c 033d a1c2 80bd
00000070: a0cb 003d 28b3 9a3c
0.03801216 -0.17368461 -0.014756009 -0.15765314 -0.16704403 0.12515706 0.13760087 -0.13284193
-0.006822765 0.16457087 -0.09689344 -0.016944736 -0.06610576 -0.16399175 0.12372351 0.14370406
-0.16547352 0.103266895 0.0058441907 0.058593243 -0.027368948 -0.08707914 -0.04604952 0.03497529
0.061086312 -0.042618558 0.03213145 -0.062871225 0.031444192 0.018884256

transformer_encoder.encoder.attention.layer_norm.weight f4 [30]
00000000: 0000 803f 0000 803f 0000 803f 0000 803f
00000010: 0000 803f 0000 803f 0000 803f 0000 803f
00000020: 0000 803f 0000 803f 0000 803f 0000 803f
00000030: 0000 803f 0000 803f 0000 803f 0000 803f
00000040: 0000 803f 0000 803f 0000 803f 0000 803f
00000050: 0000 803f 0000 803f 0000 803f 0000 803f
00000060: 0000 803f 0000 803f 0000 803f 0000 803f
00000070: 0000 803f 0000 803f
1.0 1.0 1.0 1.0 1.0 1.0 1.0 1.0
1.0 1.0 1.0 1.0 1.0 1.0 1.0 1.0
1.0 1.0 1.0 1.0 1.0 1.0 1.0 1.0
1.0 1.0 1.0 1.0 1.0 1.0

transformer_encoder.encoder.attention.layer_norm.bias f4 [30]
00000000: 0000 0000 0000 0000 0000 0000 0000 0000
00000010: 0000 0000 0000 0000 0000 0000 0000 0000
00000020: 0000 0000 0000 0000 0000 0000 0000 0000
00000030: 0000 0000 0000 0000 0000 0000 0000 0000
00000040: 0000 0000 0000 0000 0000 0000 0000 0000
00000050: 0000 0000 0000 0000 0000 0000 0000 0000
00000060: 0000 0000 0000 0000 0000 0000 0000 0000
00000070: 0000 0000 0000 0000
0.0 0.0 0.0 0.0 0.0 0.0 0.0 0.0
0.0 0.0 0.0 0.0 0.0 0.0 0.0 0.0
0.0 0.0 0.0 0.0 0.0 0.0 0.0 0.0
0.0 0.0 0.0 0.0 0.0 0.0

transformer_encoder.encoder.feed_forward.fc1.weight f4 [256, 30]
00000000: e836 ba3d 6c84 253e 3065 b53d 28a5 1c3d
00000010: c58d edbd b872 fe3c b69e efbd b464 143e
00000020: 1732 ddbd 56e8 7abd 7cda 2a3e a033 9abb
00000030: 2825 dbbc 2cb3 8e3d 1824 1dbd 443c 3a3d
00000040: 3c6b e53d 6556 e6bd e067 e83d bc2f 153e
00000050: 6007 143e d2bc 163e 80d3 1fbe 78b1 48bd
00000060: 10b6 9c3c 4913 b4bd f219 243e cc72 973d
00000070: 9c32 5a3d 4141 d9bd 4443 353e 481a f13d
00000080: 8038 a4ba a751 a4bd b452 1abd 00e3 0f3c
00000090: 5fc0 c0bd 4a05 13be c13a 0bbe 14d7 c53d
000000a0: c820 263e 08cc f43c dead 2ebe 98fe 0d3d
000000b0: 6dc8 19be 7e8f 053e c606 813d 1494 9ebd
000000c0: 3cd6 dc3d 00e8 91bc 9ef8 1dbe 5c5f b03d
000000d0: f88d e1bc 9834 ea3c 1842 dd3c 6867 1d3e
000000e0: 10ce 68bc a451 f9bd 6030 dbbb 281f 373d
000000f0: 32d6 003e 50f9 6e3c 98a0 b03d 62b0 8ebd
00000100: 241d 9d3d 5719 33be 2264 1cbe 0c84 8a3d
00000110: 308b a8bd 0060 2ebc b024 2bbc d0a5 91bd
00000120: 4a13 d8bd 80f3 be3d 3c9a 14be 6eb8 fcbd
00000130: 4025 ca3b 641a e03d f01f a93d 22e4 053e
00000140: e447 143d e8da e73c 0a12 013e 9cc3 093e
00000150: fee9 37be 4897 b2bc 6001 db3d 0425 70bd
00000160: 70a4 35bd 8020 143e dc32 093e 4d87 38be
00000170: 361d 043e 6402 25bd c03f c3bb 269c d4bd
00000180: 9084 663d 86f9 843d 5809 f3bd e06a b4bd
00000190: 1635 363e e83b 10be 68e0 a83d f410 33be
000001a0: 5550 98bd 188c 95bd 2a6d 9abd 004c 6abc
000001b0: 0c02 17bd 58fa dfbc 8e83 293e ba7f 0c3e
000001c0: c0e6 cd3c 0438 e33d c030 193e d44c e53d
000001d0: 60c9 05bc 58e9 2abe 20b7 753d 0080 9d36
000001e0: d862 07be 4072 cebd 801c f2bb 7053 da3d
000001f0: e948 30be c7aa 98bd c493 d13d 3070 1fbc
00000200: 8df7 09be 3ea3 1d3e 5439 73bd 78d5 b8bc
00000210: d8d1 e7bc d63f c3bd 9689 283e 76ee e1bd
00000220: 8c18 ef3d bb16 c5bd 1e03 77bd 9085 463c
00000230: 20c4 7cbc 217f febd 243c 433d b8a6 9a3c
00000240: 310b b0bd e0e9 13bc a0ec c53d 48a1 98bd
00000250: b07b 60bc 50d2 1abe 68ad aebc 30f9 e8bd
00000260: 7040 233e 40bc 413b 587b 133e cc82 b93d
00000270: e8c4 c83d 1bb7 eebd 661f 11be bc9b e73d
00000280: 00ae d5bc 6219 353e 389e 363e afb8 2ebe
00000290: ef80 d8bd f42e 163e 5004 01bd 98ef 1fbe
000002a0: 5093 ce3d d89e 163e 2889 033d 9d53 f5bd
000002b0: e96d 08be 5423 2bbd 8e30 1e3e 9015 1ebc
000002c0: 0767 82bd 80c4 2a3d 4859 a3bd 486c b83d
000002d0: c082 aa3d e429 4b3d 3d0c 8bbd 8804 2dbe
000002e0: e0eb 113c 5ed5 193e d185 f0bd 388f 183d
000002f0: 53c3 10be 0af3 82bd 5c37 eabd 5484 7d3d
00000300: dafa ffbd f047 ac3d 0460 48bd 78ab e33d
00000310: cc8b 44bd 3c8e fc3d 3438 55bd 1c2d 0fbe
00000320: d81d ce3c 95d1 8dbd 80c4 2abe 393e efbd
00000330: 0faf f5bd 6002 493c 888b 2dbe a0f7 173c
00000340: 02a9 dbbd 6c9f 8e3d 909f a53d a87f 17bd
00000350: 3a53 2dbe 26ab 383e 5476 213e a219 283e
00000360: 5299 1d3e 4e98 77bd 116f 80bd 78c3 13bd
00000370: f8f6 0b3e b648 1abe e77f efbd 302a 31bc
00000380: 5e62 2f3e 1013 cd3c cb9e c9bd b843 083d
00000390: da77 c3bd d22a 2bbe 5448 6d3d b028 f6bd
000003a0: 18bb 73bd ca9c 343e b8e4 d63d 506a 3e3c
000003b0: 448a 313e 125f 883d ce96 323e 8031 ac3a
000003c0: 30fd 323d 6f64 f2bd 9094 c6bc 3c9f ec3d
000003d0: 5441 d43d 3c92 ff3d 5c2c 293d 7338 26be
000003e0: 5474 c03d ec27 7b3d 5881 0abd 78a7 0a3e
000003f0: d606 233e b680 c8bd cc1b 013e 80dd 673c
0.09092504 0.16163796 0.088571906 0.038243443 -0.11599306 0.031060562 -0.117001936 0.1449154
-0.108005695 -0.06125673 0.16684908 -0.004705861 -0.026751116 0.06967768 -0.0383645 0.04546763
0.11202094 -0.11246947 0.113479376 0.1456899 0.14455938 0.14720467 -0.15608025 -0.048997372
0.019129783 -0.08792741 0.16025522 0.07394943 0.05327092 -0.10608149 0.17701441 0.11772591
-0.0012529045 -0.080233864 -0.037676528 0.008782148 -0.09411692 -0.14357486 -0.13596632 0.096601635
0.16223443 0.029882446 -0.17058513 0.034666628 -0.15017863 0.13043019 0.0630012 -0.077430874
0.107830495 -0.017810822 -0.15426871 0.08611938 -0.027533516 0.028589532 0.027009055 0.15371478
-0.014209285 -0.12173775 -0.0066891164 0.044707447 0.12581709 0.014585808 0.08624381 -0.06967236
0.07671574 -0.17490135 -0.15272573 0.06763467 -0.08229673 -0.010643005 -0.010445759 -0.07111704
-0.10550554 0.09323788 -0.1451196 -0.12339865 0.0061689913 0.109425336 0.08258045 0.13075307
0.036201373 0.028302625 0.12604538 0.13453525 -0.17960355 -0.021800652 0.10693622 -0.05862905
-0.044346273 0.14465523 0.13398308 -0.18020363 0.12901768 -0.040285483 -0.0059585273 -0.103813455
0.056278765 0.06492905 -0.118670166 -0.08809447 0.17793688 -0.14085352 0.08245927 -0.17486936
-0.07437197 -0.073021114 -0.07540353 -0.014300346 -0.036867186 -0.027341053 0.1655409 0.13720599
0.025134444 0.110946685 0.14960003 0.111962944 -0.008165687 -0.16690576 0.059989095 4.693866e-06
-0.132213 -0.10080385 -0.0073886514 0.10660446 -0.17215313 -0.07454448 0.10233262 -0.009731337
-0.1347334 0.15394303 -0.059380844 -0.022562727 -0.028298303 -0.0953366 0.16458735 -0.11031811
0.11674604 -0.09623476 -0.060305707 0.012116805 -0.015427619 -0.12426592 0.047664776 0.018878326
-0.085958846 -0.009027928 0.09664273 -0.07452637 -0.013701364 -0.1511929 -0.02132292 -0.11375654
0.1594255 0.0029561669 0.1440252 0.09058151 0.09803182 -0.11656018 -0.14172134 0.11309001
-0.026083946 0.17685464 0.17833793 -0.17062639 -0.10571467 0.14666349 -0.031498253 -0.15618742
0.100866914 0.14709032 0.032113224 -0.119788386 -0.13323177 -0.04178174 0.1544821 -0.009648696
-0.06367307 0.041691303 -0.079760134 0.09005028 0.0832572 0.049600497 -0.06789444 -0.1689626
0.008906335 0.150228 -0.117442735 0.03724596 -0.1413701 -0.06394012 -0.1143634 0.061893776
-0.12499018 0.084121585 -0.048919693 0.111166894 -0.047984883 0.123318166 -0.052055553 -0.13982052
0.025160715 -0.0692474 -0.16676521 -0.1168179 -0.119962804 0.012268633 -0.16947758 0.009275347
-0.10725595 0.06964001 0.08087075 -0.036986977 -0.1692628 0.18034038 0.15767795 0.16416028
0.15390518 -0.060447983 -0.06271184 -0.036075085 0.1366843 -0.150668 -0.11694317 -0.010813281
0.17127368 0.025033504 -0.098447405 0.033267707 -0.09544344 -0.16715553 0.057930306 -0.12019479
-0.0595046 0.17637935 0.104928434 0.011622027 0.173379 0.06658758 0.1744034 0.0013137311
0.04369849 -0.118355624 -0.024240762 0.11553809 0.10364023 0.12479064 0.04130207 -0.16232471
0.09397188 0.06131737 -0.033814758 0.13540447 0.15920576 -0.09790175 0.1260826 0.014151931

transformer_encoder.encoder.feed_forward.fc1.bias f4 [256]
00000000: 68f4 b13d 5409 e13d 8019 d43b 8029 dabb
00000010: 4056 053e 6581 84bd 6852 cb3c 9c6d 2cbe
00000020: 40c1 e9bc 023a 173e 44e4 09bd 5002 223e
00000030: 9c0c b83d ec97 fa3d 8459 c5bd 94e3 833d
00000040: 88f7 e83d 623d 1f3e 744d 243e 20a9 b2bc
00000050: d885 063d 9cc5 da3d 1449 59bd 768d 24be
00000060: 2498 0fbe 7e8c 063e 67b5 95bd 5af3 9fbd
00000070: 54c6 343d 4415 23be 00b0 78bb 4c97 adbd
00000080: f2ba 193e 648c 113e 3096 46bd 5498 fbbd
00000090: 2886 d3bd fbbc f8bd 3e87 11be c014 51bd
000000a0: e5fd f1bd 9c3b 383e f4b9 9c3d 7204 163e
000000b0: e122 1fbe f005 edbd c0f4 203e 829d 01be
000000c0: 28ba f73c 9618 063e 14b3 cfbd 38ca 54bd
000000d0: 1016 723c 2072 683c a809 013e 04d3 b2bd
000000e0: 7034 833c 82ad b9bd f810 0bbe 56b4 343e
000000f0: d0a9 a53d 9b59 e4bd d85a 053d 500a 2e3d
00000100: 20a0 1e3e 9814 9fbc f3dc 89bd cfe5 14be
00000110: 98de fd3d 200a dc3b 4c5a 3a3e 0890 8bbd
00000120: 803d 1f3d fbc4 e7bd f542 b7bd 1ff7 88bd
00000130: dfd2 13be bc77 983d ee09 393e 9e32 33be
00000140: ac58 0f3e 2b67 34be e05a 4abc 996e bcbd
00000150: af29 dabd 6323 bbbd 78a0 da3d 56f9 193e
00000160: 5476 1c3e 08d6 08be 4424 543d 2c12 1f3d
00000170: 4861 e53d 14ee 6d3d d91a 8cbd 00fb 713b
00000180: e1df 23be 9453 cb3d ace6 01be b4b4 2a3e
00000190: ec29 c8bd d831 e03c 5730 37be 7c0b 9b3d
000001a0: e304 09be 08bc 24bd 32da a5bd c8d8 313d
000001b0: 2149 1ebe f7e3 39be 5030 aabc a686 36be
000001c0: bd3c c5bd a783 99bd daad 85bd c0a8 293c
000001d0: f65b c6bd 9568 f4bd 10b0 16be dc7c 09bd
000001e0: c82d 06bd d212 0d3e 98ae 08be 4fe4 2bbe
000001f0: 70f2 16be e09a 9cbb 007b 2b3e 303f d43d
00000200: 4277 253e 0148 adbd 04a6 913d 2995 c4bd
00000210: caa6 75bd 1c99 f13d 7df2 1abe 8a3b e1bd
00000220: 46c2 0bbe 7576 a9bd 9116 28be 50e1 bd3c
00000230: 1c53 e13d 1c5b 0bbd 40d6 2d3d b678 05be
00000240: 7814 22bd f0a1 493c 40ac 7abb 3afa 02be
00000250: a4cd 69bd 04cf a43d b422 55bd b8e1 af3d
00000260: 5a40 253e 68f5 093e 0877 083e e625 163e
00000270: a581 0fbe 9e05 11be 58cf 8a3d aa08 093e
00000280: 68a2 433d bc76 2a3e 00c2 e2b9 4ad6 843d
00000290: b4f3 cf3d dea2 2bbe 2094 69bd 48cf 4abd
000002a0: 30bb b63d 40e0 c13b a508 b6bd f293 143e
000002b0: 6960 37be f9a5 d1bd 7883 073e 24a0 c9bd
000002c0: ea79 823d 8192 98bd 50a3 cdbc 004e 0fba
000002d0: 12c1 9abd 6c95 b13d aadf 2f3e a87c 173d
000002e0: a8c3 91bc 3069 76bc 4069 1ebe 1e21 fbbd
000002f0: 9b36 2cbe 005e 5dbd 88cd 323d 1859 2fbe
00000300: 3246 1cbe f96c 85bd 1625 193e 8897 f73d
00000310: cbfd cdbd 4016 84bc 50e8 adbc 88eb be3d
00000320: 00d2 873a d862 f23d 1687 f4bd 19e3 29be
00000330: 7924 c6bd 0c6a 353e dcd7 e2bd b88c e53d
00000340: 5e37 18be ac4d 783d 9e66 26be 38d3 05be
00000350: 7552 23be 3224 e2bd e073 26bd 1014 3e3d
00000360: 1c79 8d3d 3b82 33be 1427 563d 805e ccbc
00000370: cce5 223d 6883 67bd 90be 89bc 4435 5cbd
00000380: c798 27be a06e 233e 3ce2 053d 6f0b e5bd
00000390: c8a3 d13c ce1c 083e c3f4 a2bd a08d 1d3c
000003a0: aa9e 1fbe 90c4 543d a821 d4bc 6052 f33c
000003b0: 750d 10be 90ee bcbc 280b 0d3e 4476 163e
000003c0: a4c6 b0bd d8fd 03bd 06d0 0fbe d6d5 a1bd
000003d0: fca4 bb3d d596 e2bd c85e 2cbd fc82 293d
000003e0: e1f4 e2bd f0c5 5fbd 2077 2f3e 4c0a 65bd
000003f0: 7e83 f1bd f676 ffbd a0c8 a43b 7833 bf3d
0.08689195 0.10988107 0.0064727664 -0.006657779 0.13021183 -0.064699925 0.024819568 -0.16838688
-0.028534532 0.14768222 -0.033664957 0.15821195 0.0898678 0.12236008 -0.096362144 0.064398915
0.11375338 0.1555076 0.16045171 -0.02180916 0.032842487 0.10682222 -0.05304821 -0.16069588
-0.14022881 0.13139531 -0.073099904 -0.078100875 0.044134453 -0.15926081 -0.00379467 -0.08476123
0.1501272 0.14213711 -0.048483074 -0.12284914 -0.10328323 -0.1214542 -0.14211747 -0.05104518
-0.11816005 0.17991489 0.07652655 0.14650133 -0.15540649 -0.11573398 0.15718365 -0.1265774
0.030240133 0.13095316 -0.10141578 -0.051950663 0.014775768 0.014187366 0.1260134 -0.08731654
0.016016215 -0.09066297 -0.13580692 0.17646918 0.0808903 -0.111499034 0.03255734 0.042490304
0.1549077 -0.019419 -0.06731596 -0.1454079 0.12395972 0.006715074 0.18198508 -0.06814581
0.03887701 -0.11316868 -0.08948318 -0.066877596 -0.1443591 0.074447125 0.18070194 -0.17499778
0.1399867 -0.1761748 -0.012350768 -0.09200782 -0.10652482 -0.09137609 0.10675138 0.1503652
0.15279514 -0.13362896 0.051792398 0.03883569 0.112001956 0.058088377 -0.06841058 0.003692329
-0.16003372 0.09928051 -0.1268565 0.16670495 -0.09773621 0.027367517 -0.17889534 0.0757055
-0.1338077 -0.040218383 -0.08098258 0.04341963 -0.15457584 -0.18153368 -0.02077499 -0.17824802
-0.096307255 -0.07495814 -0.065273 0.010355175 -0.09685509 -0.1193401 -0.147156 -0.03356634
-0.032758504 0.1377671 -0.13347852 -0.16786312 -0.1474092 -0.0047792047 0.1674614 0.103636146
0.16158774 -0.08460999 0.07111743 -0.095987625 -0.059973516 0.117967814 -0.15131564 -0.10997684
-0.13648328 -0.08274547 -0.16414858 0.023178726 0.1100218 -0.034022436 0.042440653 -0.13034329
-0.0395703 0.012306675 -0.0038249642 -0.12790766 -0.05708088 0.080472976 -0.05203505 0.08587974
0.1613783 0.13472521 0.13326657 0.14662895 -0.14014299 -0.14162299 0.06777829 0.13382211
0.047762305 0.16646856 -0.0004325062 0.06486185 0.101539046 -0.16761348 -0.05702603 -0.049514085
0.08922422 0.0059166253 -0.088883676 0.14509562 -0.17907871 -0.10236735 0.13233745 -0.098449975
0.063709095 -0.074498184 -0.025102288 -0.000546664 -0.075563565 0.08671078 0.17175165 0.036984116
-0.017793491 -0.015039727 -0.15469837 -0.12262176 -0.16817705 -0.054044724 0.04365304 -0.1712383
-0.15261152 -0.065149255 0.14955553 0.12089449 -0.10058173 -0.01612389 -0.02122894 0.09322268
0.0010362267 0.11835259 -0.11939828 -0.16590537 -0.09674925 0.17716235 -0.11076328 0.112084806
-0.14864871 0.06062095 -0.16250083 -0.13068855 -0.15949424 -0.1104206 -0.04063785 0.04640585
0.069078654 -0.17530148 0.05228336 -0.024947405 0.039769933 -0.056521803 -0.0168145 -0.053761736
-0.16366874 0.15960169 0.032686457 -0.111838214 0.025590792 0.13292238 -0.07956841 0.009616286
-0.1558787 0.05194527 -0.025894955 0.029702365 -0.14067633 -0.023062974 0.13773787 0.14693552
-0.08631638 -0.032224506 -0.14044198 -0.07902114 0.09162328 -0.11063925 -0.042082578 0.041384682
-0.11081863 -0.054632127 0.17135286 -0.055918023 -0.11792658 -0.12473862 0.005028799 0.09335989

transformer_encoder.encoder.feed_forward.fc2.weight f4 [30, 256]
00000000: f6ec 6abd 1499 803c e895 21bc ac5d 543d
00000010: 6a0b 383d ee13 653d 4c93 23bd fe5c 6f3d
00000020: 14b8 273d 4052 87ba 0048 0b38 dabf 42bd
00000030: b4d1 813c e017 d83b 8a18 4a3d 1896 693c
00000040: e841 c3bc 20cb ea3c c0d7 90bc 7052 643c
00000050: 7ab3 43bd cee7 1c3d 24b3 5c3d c092 103b
00000060: 9424 2f3d dcb7 673d 6487 e23c 327b 053d
00000070: 7a22 20bd f0f4 01bd 70ae fd3c 24df cc3c
00000080: 1092 ebbc fce8 9dbc 1092 3f3c 10b5 e7bb
00000090: c8d4 7bbd 04e3 753d 6411 463d 107e de3b
000000a0: 0afb 4dbd 266c 043d 50b2 cc3c 24f5 8b3c
000000b0: 1237 6abd 3094 893b f0e4 26bd fc36 163d
000000c0: 1089 04bd a8c5 063d 3a68 323d 6810 dc3c
000000d0: 5e66 043d a66d 193d 0009 bf3a 606a 533c
000000e0: 0093 53ba 6e0e 32bd c0ef 693c 1efc 47bd
000000f0: f865 ed3c 0818 763d a031 4c3b c08b 1b3b
00000100: d476 b23c 9ada 6d3d e0a7 7f3c fcee 52bd
00000110: 00a0 72bb e817 87bc 42be 083d 3c82 443d
00000120: c815 22bd 541e 4d3d 386f d7bc 862c 793d
00000130: 1857 5dbd 50d4 63bc 1602 2e3d e07f 2f3d
00000140: 98e6 46bd 74f1 073d 205a 3dbb bcde 743d
00000150: 04cc e03c 407a 513b ea4e 14bd 60e7 993b
00000160: 7c8c ffbc 2ec4 533d e83c 2f3d 1efd 663d
00000170: a273 36bd 0075 d6b9 5a4f 61bd 461e 78bd
00000180: 5002 11bc ce4e 433d 8807 423d d84a 6c3d
00000190: 2e9c 593d 547e 1d3d f012 233c 202d 5c3c
000001a0: 4043 393c 567c 583d e00f 77bd c47e 883c
000001b0: 10b7 7b3d a038 93bc 301a 9bbb e6fb 1b3d
000001c0: 84c4 5ebd ea4d 653d 721a 253d 5ae4 16bd
000001d0: 2ec3 2fbd 64a9 e2bc 08a4 fbbc c0c4 6fbb
000001e0: 8083 653c d054 6bbc 008e 473a c0fc e3ba
000001f0: 6879 2d3d aa89 0cbd 0c4d 753d 66a5 40bd
00000200: c0f1 20bd 664a 543d 4a48 4dbd 20cf 273b
00000210: 8cb5 d4bc 404e 1e3c d09b e03b 3472 ff3c
00000220: 301b 16bd 9a31 4e3d 50c4 1dbc 9489 35bd
00000230: 507d e23b 1032 ebbb 8049 3bba 5ade 12bd
00000240: bcfa c93c c0b3 3b3c 143b 9c3c 686d 59bd
00000250: 1e27 423d 403c 1ebd 44a9 c83c 16a6 65bd
00000260: 4c3e 93bc 604b d73c caa1 2cbd c8a5 1cbd
00000270: 4045 a3bc 88ff 4fbd 645b db3c e4a7 22bd
00000280: f840 45bd b890 7d3c 8009 a1bb e8ff b5bc
00000290: 9c1b 153d f096 cd3b 4890 6a3c 50cf 6cbd
000002a0: 169a 5cbd 9807 fe3c 76ff 3c3d 3c95 5c3d
000002b0: ac81 f3bc 2866 3f3c 8054 5c3a 8a61 0b3d
000002c0: 0c72 23bd 80bc 7bba d6f1 003d e0fb 3abc
000002d0: 38e6 953c 9602 3abd 20d5 89bc e4ab 7c3d
000002e0: e024 583b 78c4 253c a8e8 4ebc 1062 24bd
000002f0: d08f 9c3b 76c3 133d b089 a5bb 00a1 14ba
00000300: 78b9 2d3c 44d8 7a3d 68ac bf3c 84b9 b5bc
00000310: 08d5 f1bc 8042 d13c 4ee6 5d3d cefc 4e3d
00000320: 14aa 0ebd 6e79 293d 2693 183d 4c58 073d
00000330: a00b 243c 6417 a73c b0a3 77bc 3c48 b23c
00000340: baa1 6ebd a066 e73c 480e 333d 088d b0bc
00000350: 809f b8ba d0c4 efbb c6c7 353d dc90 9b3c
00000360: 60ce 59bd 18c6 653d cc96 72bd 40b1 b7bc
00000370: 666f 41bd c01f b53b 3899 42bc 08ff dbbc
00000380: fa0b 46bd 4427 16bd 3a0a 15bd 8cc1 f2bc
00000390: 34e4 0cbd b055 093c b0e1 423d 90ee 233c
000003a0: 28fe f23c c85f a13c 8823 f63c 00b7 cdb9
000003b0: 7022 da3c cc55 4a3d 60ef 19bd 4837 903c
000003c0: 3a60 08bd a0a9 fb3b 30f1 c03b 1e2e 75bd
000003d0: a4b3 b5bc 0037 413a 2809 2e3c f8e6 a2bc
000003e0: 5031 103d f037 bb3b 3c7d f2bc d074 623c
000003f0: 80b1 b33c 8034 9cba f416 58bd 34d0 2e3d
-0.05735489 0.015697993 -0.009862401 0.051847145 0.04493276 0.05592721 -0.039935395 0.058438294
0.040947035 -0.0010324195 3.3207238e-05 -0.047546245 0.015847065 0.006594643 0.04933981 0.014256977
-0.023835137 0.02866131 -0.017681003 0.01393567 -0.047778584 0.038307004 0.05388178 0.0022060126
0.042759493 0.056571826 0.02765245 0.03258819 -0.03909538 -0.03172773 0.030966967 0.025008745
-0.028756171 -0.019276135 0.011692539 -0.007071145 -0.06148222 0.060030952 0.04835643 0.00678993
-0.050288238 0.0323297 0.02498737 0.017084666 -0.057181425 0.0041985735 -0.040745676 0.03667353
-0.032357275 0.032903343 0.04355643 0.026863292 0.032324187 0.037458085 0.0014574826 0.01290378
-0.0008070916 -0.043470792 0.014278352 -0.048824422 0.028979287 0.06008151 0.0031157508 0.002373442
0.021785177 0.058069803 0.015603989 -0.051497445 -0.0037021637 -0.016490892 0.03338457 0.047975764
-0.039571553 0.05007775 -0.02629815 0.060833476 -0.054038137 -0.0139056 0.042482458 0.04284656
-0.048559755 0.033189252 -0.002889283 0.05978273 0.027441032 0.0031963736 -0.03620807 0.0046967715
-0.031194918 0.051700763 0.042782694 0.056393735 -0.04454387 -0.00040904433 -0.055007316 -0.060575746
-0.008850649 0.047682576 0.047370464 0.057688564 0.05312746 0.038450554 0.0099532455 0.013438493
0.011307538 0.05285295 -0.060317874 0.016662009 0.06145388 -0.017971337 -0.0047333464 0.038082026
-0.05438663 0.055982508 0.040308423 -0.036838867 -0.042910747 -0.027668662 -0.030717865 -0.0036585778
0.014008403 -0.014363483 0.0007612407 -0.0017394051 0.04235211 -0.034310974 0.05988793 -0.047032736
-0.03929305 0.051828764 -0.05011777 0.0025605634 -0.025965475 0.009662211 0.006854512 0.031182386
-0.03664702 0.050340272 -0.009629324 -0.044320658 0.006911911 -0.007177599 -0.0007144436 -0.035856582
0.024655692 0.01145643 0.01907114 -0.053082854 0.047400586 -0.038631678 0.024494775 -0.056066595
-0.017974041 0.026281059 -0.04214648 -0.03824404 -0.019930482 -0.050780803 0.026776977 -0.039710894
-0.048157662 0.015476398 -0.0049144626 -0.022216752 0.036403283 0.0062740967 0.014316626 -0.057814896
-0.053857885 0.03100948 0.046142064 0.05385326 -0.029724918 0.011682071 0.00084049255 0.034028567
-0.039903685 -0.0009602979 0.031480633 -0.011412591 0.018298253 -0.045412622 -0.016825259 0.061687365
0.0032980964 0.010117643 -0.012628712 -0.040132582 0.004777886 0.036075078 -0.005051814 -0.0005669743
0.010603301 0.061241403 0.02339764 -0.022183187 -0.029520527 0.025544405 0.054174714 0.050534062
-0.034830168 0.04137557 0.037249707 0.03304319 0.010012537 0.020396896 -0.01511471 0.02176296
-0.058259703 0.028247178 0.04371479 -0.021551624 -0.0014085621 -0.007317163 0.044379972 0.018989973
-0.05317533 0.05609712 -0.059225842 -0.022423387 -0.04722538 0.0055274665 -0.0118773505 -0.026855007
-0.048351265 -0.03665854 -0.036386706 -0.029633306 -0.03439732 0.008382246 0.047578514 0.010005608
0.029662207 0.019698992 0.03004624 -0.00039236993 0.02662775 0.04939823 -0.0375818 0.017604485
-0.033294894 0.007680133 0.005888127 -0.059858434 -0.022180386 0.00073705614 0.0106223 -0.019885525
0.035203278 0.0057134554 -0.029600732 0.013821796 0.021935225 -0.0011917502 -0.052756265 0.042679027

transformer_encoder.encoder.feed_forward.fc2.bias f4 [30]
00000000: 5e01 49bd 0809 8abc e0ac e93c 8072 623a
00000010: c8e1 a53c 801b 12bb 9a5f 2c3d 0eb3 273d
00000020: 0083 473a ae16 653d 80d5 18bb 3474 093d
00000030: b0ca b53c 6ef3 173d 4080 0a3d a09e 90bc
00000040: 5cfe 97bc e00f 73bd 02f5 433d 70cf d2bb
00000050: 4c6d 473d 80d4 11bc 0069 813b 802a a1bb
00000060: c0b5 e53b 28cb 19bc 4600 6cbd 2292 633d
00000070: d474 dc3c 08f7 4a3d
-0.04907357 -0.01685001 0.028524816 0.00086382776 0.020249262 -0.0022294223 0.04208336 0.040942244
0.0007610768 0.055929832 -0.0023320615 0.033558086 0.022191375 0.037097387 0.033813715 -0.017653763
-0.018553905 -0.05934131 0.04784108 -0.00643342 0.048688218 -0.008900762 0.0039492846 -0.0049183965
0.0070101917 -0.009386815 -0.05761745 0.055559285 0.026911177 0.049551994

transformer_encoder.encoder.feed_forward.layer_norm.weight f4 [30]
00000000: 0000 803f 0000 803f 0000 803f 0000 803f
00000010: 0000 803f 0000 803f 0000 803f 0000 803f
00000020: 0000 803f 0000 803f 0000 803f 0000 803f
00000030: 0000 803f 0000 803f 0000 803f 0000 803f
00000040: 0000 803f 0000 803f 0000 803f 0000 803f
00000050: 0000 803f 0000 803f 0000 803f 0000 803f
00000060: 0000 803f 0000 803f 0000 803f 0000 803f
00000070: 0000 803f 0000 803f
1.0 1.0 1.0 1.0 1.0 1.0 1.0 1.0
1.0 1.0 1.0 1.0 1.0 1.0 1.0 1.0
1.0 1.0 1.0 1.0 1.0 1.0 1.0 1.0
1.0 1.0 1.0 1.0 1.0 1.0

transformer_encoder.encoder.feed_forward.layer_norm.bias f4 [30]
00000000: 0000 0000 0000 0000 0000 0000 0000 0000
00000010: 0000 0000 0000 0000 0000 0000 0000 0000
00000020: 0000 0000 0000 0000 0000 0000 0000 0000
00000030: 0000 0000 0000 0000 0000 0000 0000 0000
00000040: 0000 0000 0000 0000 0000 0000 0000 0000
00000050: 0000 0000 0000 0000 0000 0000 0000 0000
00000060: 0000 0000 0000 0000 0000 0000 0000 0000
00000070: 0000 0000 0000 0000
0.0 0.0 0.0 0.0 0.0 0.0 0.0 0.0
0.0 0.0 0.0 0.0 0.0 0.0 0.0 0.0
0.0 0.0 0.0 0.0 0.0 0.0 0.0 0.0
0.0 0.0 0.0 0.0 0.0 0.0
