simple2transformer/param/net_param/Mk05_actor_net.model (torch, 169471 bytes, 34 tensors)

transformer_encoder.encoder.attention.fc_Q.weight f4 [30, 30]
0	0x3d5ecd84	0.054395214
1	0xbe368e41	-0.17827703
2	0xbde3d803	-0.11125185
3	0xbdde77b3	-0.108626746
4	0xbe29bb48	-0.16575348
5	0x3e2cd0e6	0.16876563
6	0xbdd727ff	-0.105056755
7	0x3df055a4	0.11735085
8	0xbdfe3d67	-0.12414055
9	0xbce129c8	-0.027485743
10	0x3c7f7310	0.015591398
11	0x3e352a80	0.17691994
12	0x3e1542ca	0.1457626
13	0x3e0975e0	0.13423872
14	0xbd977914	-0.07396141
15	0x3e0d5bdc	0.13804573
16	0x3dac25cc	0.08405647
17	0x3cd4e530	0.025988191
18	0xbdde0cc2	-0.10842277
19	0xbddc084a	-0.107437685
20	0xbda2c808	-0.07948309
21	0xba602f00	-0.00085519254
22	0x3e38ab24	0.18034035
23	0x3e147d50	0.14500928
24	0xbe0a083e	-0.13479707
25	0xbe085295	-0.13312753
26	0x3dd5f98c	0.10447988
27	0x3ccb22b0	0.024796814
28	0xbe293cc8	-0.16527092
29	0x3da635b8	0.08115715
30	0xbd2847c4	-0.041084066
31	0xbdd6d581	-0.104899414
32	0xbe1870af	-0.14886735
33	0x3df9147c	0.1216211
34	0xbbe20760	-0.006897852
35	0x3e367b2e	0.17820427
36	0x3d16ca68	0.036814123
37	0xbe16ee01	-0.14739229
38	0xbdf29f4b	-0.11846789
39	0xbd1f0cb0	-0.03883046
40	0x3e1adcac	0.15123242
41	0xbe168922	-0.1470075
42	0x3d2425bc	0.04007505
43	0xbdd31bda	-0.10308047
44	0xbb265980	-0.0025382936
45	0x3de6e630	0.112743735
46	0xbb2618c0	-0.0025344342
47	0x3c459890	0.0120602995
48	0x3d43e378	0.047824353
49	0x3e116f5e	0.1420264
50	0xbe0e3203	-0.13886265
51	0xbda4bd7c	-0.08043954
52	0xbd9ce303	-0.076604865
53	0x3e3a6fa4	0.1820665
54	0xbe027f41	-0.12743856
55	0x3e1c970c	0.15291995
56	0x3d71eef4	0.059065774
57	0x3dce6b78	0.10079092
58	0xbd398ba0	-0.045299172
59	0xbd80a565	-0.062815465
60	0xbdb2ec48	-0.08736473
61	0xbdb256c0	-0.087079525
62	0x3e178180	0.14795494
63	0x3b60eb80	0.0034320056
64	0xbd1777b8	-0.036979407
65	0x3c5d7d50	0.013518646
66	0x3e2a5bba	0.16636553
67	0x3e0bbdb8	0.1364659
68	0xbd55171c	-0.052023992
69	0xbdef5d51	-0.116877206
70	0x3da683f4	0.08130637
71	0x3c6bf250	0.0144010335
72	0xbd813066	-0.063080594
73	0x3d8c62c8	0.068547785
74	0x3e3a7dba	0.18212023
75	0x3d4ca3cc	0.049960896
76	0x3e039dd4	0.12853175
77	0xbe122e2f	-0.1427543
78	0xbdb029c9	-0.0860172
79	0xbdc3b720	-0.09556413
80	0x3cd14d28	0.025549486
81	0xbd53a610	-0.05167204
82	0xbe1d286f	-0.15347455
83	0x3db70294	0.089360386
84	0x3db8d9ac	0.090258926
85	0x3d141214	0.036150053
86	0xbdacc80e	-0.08436595
87	0x3c4edad0	0.012625411
88	0x3e189612	0.14900997
89	0x3bc99a40	0.0061524212
90	0xbe09a742	-0.1344271
91	0x3d02b620	0.03191197
92	0xbe3978fa	-0.18112555
93	0x3d7f3a2c	0.062311336
94	0xbdf7673c	-0.12080237
95	0xbc2dd200	-0.01060915
96	0x3e350658	0.17678201
97	0x3c5ad3b0	0.013356134
98	0x3e0ea180	0.13928795
99	0x3dad968c	0.0847598
100	0x3d0c7b20	0.03429711
101	0xbe0861f1	-0.13318612
102	0x3dfce134	0.123476416
103	0x3e26b720	0.16280794
104	0xbdf92d9b	-0.12166902
105	0xbd829b27	-0.06377249
106	0xbe00c49d	-0.12575002
107	0xbc14ed50	-0.009089783
108	0xbdeb88f9	-0.11500735
109	0xbd8e0cef	-0.06936061
110	0x3cfda050	0.030960232
111	0x3e0249f6	0.12723526
112	0x3df70dd4	0.120631844
113	0xbda9dedb	-0.082944594
114	0xbe0d1c86	-0.13780412
115	0xbcf02250	-0.029313236
116	0xbcabf270	-0.020989627
117	0xbdc5ad14	-0.09652153
118	0xbddf87bf	-0.109145634
119	0x3dfd16c4	0.12357858
120	0xbd656328	-0.056002766
121	0x3e1970c4	0.14984423
122	0x3e041108	0.12897122
123	0x3ca38840	0.01996243
124	0x3df3d4dc	0.11905834
125	0x3da06f1c	0.078336924
126	0x3df77f24	0.12084797
127	0xbd0caba8	-0.03434339
128	0x3d2512b8	0.040301055
129	0x3ca3b670	0.019984454
130	0xbd97dbf4	-0.074149996
131	0x3daca744	0.08430341
132	0x3df2ee98	0.118619144
133	0xbd293f8c	-0.04132037
134	0x3e1113fa	0.14167777
135	0x3e3595c8	0.17732918
136	0x3da60d74	0.08108035
137	0x3daa69a4	0.083209306
138	0x3c906e58	0.017630741
139	0x3e099e8a	0.13439384
140	0x3c1a2a20	0.009409457
141	0x3e149da4	0.1451326
142	0x3e037256	0.12836584
143	0xbd40eaa4	-0.04709877
144	0xbe27dc8b	-0.16392724
145	0xbd6614bc	-0.056172118
146	0xbd7f0fac	-0.062270805
147	0xba77bf00	-0.00094507635
148	0x3e018250	0.12647367
149	0x3dd1c7d0	0.10243189
150	0x3dafa5e8	0.08576566
151	0xbdc37196	-0.09543149
152	0xbde59258	-0.112095535
153	0xbe0d848c	-0.13820094
154	0xbe2aecda	-0.16691914
155	0x3e25b5c6	0.16182622
156	0x3d991fa4	0.07476738
157	0x3e01f52e	0.12691185
158	0x3e150504	0.14552695
159	0xbd3d1338	-0.046160907
160	0xbe27b642	-0.1637812
161	0xbdb11658	-0.0864684
162	0xbd9b6e20	-0.07589364
163	0xbdeea7fc	-0.11653134
164	0xbe356bd5	-0.17716916
165	0x3e1d73bc	0.1537618
166	0x3caf1810	0.021373779
167	0xbc30d400	-0.010792732
168	0x3db7eb5c	0.08980438
169	0xbe3026f0	-0.17202353
170	0x3d715eb0	0.05892819
171	0x3e03a8b4	0.12857324
172	0xbd809bfe	-0.06279753
173	0xbbe27b00	-0.0069116354
174	0xbc899a78	-0.01679729
175	0xbd4e4118	-0.050355047
176	0x3df2009c	0.118165225
177	0xbded28c0	-0.11580038
178	0x3e07352e	0.1320388
179	0xbdd0fef7	-0.10204881
180	0xbdd091d8	-0.101840675
181	0xbd56383c	-0.052299723
182	0xbdd115e4	-0.102092534
183	0x3dc78740	0.09742594
184	0xbe1c0035	-0.15234454
185	0xbd9bb964	-0.0760372
186	0x3e31e33a	0.17371836
187	0xbd721310	-0.05910021
188	0x3cd36d90	0.02580908
189	0x3db54d14	0.08852592
190	0x3d0e0a8c	0.034678027
191	0xbe301620	-0.1719594
192	0x3d9a1658	0.07523793
193	0xbbe32ee0	-0.006933078
194	0x3db85af0	0.0900172
195	0xbdd7fd78	-0.10546392
196	0x3d97aeb4	0.07406369
197	0x3af55200	0.0018716455
198	0xbdae11f4	-0.08499518
199	0x3d99ee60	0.075161695
200	0xbe26c606	-0.16286477
201	0xbd59c380	-0.05316496
202	0xbd8aff00	-0.06786919
203	0xbe0ece93	-0.1394599
204	0xbbb20020	-0.005432144
205	0xbc9bf198	-0.0190361
206	0x3cfec268	0.03109856
207	0xbdad71fc	-0.084690064
208	0xbd3ef6b8	-0.046622008
209	0x3db357c0	0.08756971
210	0xbc57f000	-0.013179779
211	0x3d94ca00	0.07265091
212	0xbdd49e08	-0.103817046
213	0x3d907260	0.07053065
214	0xbde0ebc1	-0.109824665
215	0xbdff73e2	-0.12473275
216	0xbbb8ef20	-0.0056437403
217	0xbcc3ca68	-0.023900226
218	0x3dac3300	0.08408165
219	0xbe1c0cfd	-0.1523933
220	0x3dd10ee0	0.10207915
221	0x3c906ff8	0.017631516
222	0x3da6f1d8	0.08151597
223	0xbd8553bb	-0.06510111
224	0x3e3a03a8	0.18165457
225	0x3d9580dc	0.072999686
226	0x3e36cb8e	0.17851087
227	0x3e0bfaec	0.13669938
228	0xbdfb9025	-0.12283353
229	0xbdeff2ed	-0.11716256
230	0x3dfd890c	0.12379655
231	0xbe26662d	-0.16249914
232	0xba994480	-0.0011693388
233	0x3db59144	0.08865598
234	0xbe301bc9	-0.17198099
235	0xbd473544	-0.048634782
236	0x3dd508cc	0.104020685
237	0xbcca9e60	-0.024733722
238	0x3dd93e0c	0.106075376
239	0x3da47b14	0.08031288
240	0xbe1d2bdd	-0.15348764
241	0x3ca53a80	0.020169497
242	0xbcd59700	-0.026072979
243	0x3d0a0510	0.033696234
244	0x3dd7cf40	0.10537577
245	0xbd576d4c	-0.052594468
246	0x3dbe65f0	0.09296787
247	0x3dd4f994	0.10399166
248	0x3e342846	0.17593488
249	0xbc337d70	-0.0109552
250	0xbe2857cc	-0.16439742
251	0xbd9219bf	-0.07133817
252	0xbdd5581f	-0.104171984
253	0x3cae8c40	0.02130711
254	0xbd61b6dc	-0.05510603
255	0xbd94711b	-0.07248136

transformer_encoder.encoder.attention.fc_Q.bias f4 [30]
0	0x3e38f7ba	0.1806325
1	0x3d094a44	0.03351809
2	0xbe1161b2	-0.14197424
3	0xbd5263f0	-0.05136484
4	0xbd7d33fa	-0.061817147
5	0x3e0bb2dc	0.13642448
6	0x3e379816	0.1792911
7	0x3d2332e4	0.039843455
8	0xbdb800ca	-0.089845255
9	0xbe14cbe8	-0.14530909
10	0xbd8426e2	-0.06452729
11	0x3bcb5560	0.006205246
12	0x3e05a70c	0.13052005
13	0x3d6b4d68	0.057446867
14	0x3d8f845c	0.070076674
15	0xbd2f7618	-0.042837232
16	0xbdecb7e3	-0.11558511
17	0xbd024254	-0.031801537
18	0x3dff3948	0.124620974
19	0x3dd2216c	0.10260281
20	0x3e37f4c4	0.17964464
21	0x3dfcaa04	0.123371154
22	0xbc8a5818	-0.01688771
23	0xbd8f5614	-0.0699884
24	0x3dc02c2c	0.09383425
25	0x3c188a80	0.009310365
26	0x3daadb5c	0.08342621
27	0xbcc672d0	-0.024224669
28	0x3da7a338	0.081854284
29	0x3d4d5ea0	0.05013907

transformer_encoder.encoder.attention.fc_K.weight f4 [30, 30]
0	0xbe0d4105	-0.13794334
1	0x3d0f8a1c	0.03504382
2	0xbe35c440	-0.17750645
3	0xbc196380	-0.009362102
4	0xbe13cf8c	-0.14434642
5	0xbe3294e7	-0.17439614
6	0xbcba36f0	-0.022731274
7	0xbe196820	-0.14981127
8	0xbe293651	-0.16524626
9	0x3c4e2c60	0.012583822
10	0x3d8a2438	0.067451894
11	0x3d905824	0.070480615
12	0xbbc9fa40	-0.0061638653
13	0xbd9b191d	-0.07573149
14	0x3e1e08bc	0.1543302
15	0xbe205b94	-0.15659934
16	0xbc910638	-0.01770316
17	0xbdd6c380	-0.104865074
18	0xbd8c4872	-0.06849755
19	0x3caa6f70	0.02080509
20	0x3e05234e	0.13001749
21	0x3d00df2c	0.031462833
22	0x3d70e6b0	0.05881375
23	0xbdfa6d9c	-0.122279376
24	0x3d3b5abc	0.045740828
25	0xbce7f200	-0.028313637
26	0xbb7b8cc0	-0.0038383454
27	0x3e1370fc	0.14398569
28	0x3db6842c	0.089119285
29	0xbdd6beb5	-0.10485593
30	0xbdcfe1b4	-0.10150471
31	0xbdd205cb	-0.10255011
32	0x3e2e29fa	0.170082
33	0xbe2944b1	-0.1653011
34	0xbd193314	-0.037402228
35	0xbd077e28	-0.033079296
36	0x3e29a2ee	0.16566059
37	0x3ce5c810	0.028049499
38	0x3e0fb2ee	0.140331
39	0xbd63afa8	-0.05558744
40	0xbdd2421f	-0.10266518
41	0xbe1d216b	-0.15344779
42	0x3ca19f50	0.019729286
43	0x3e363d7c	0.17796892
44	0xbd7a3d9c	-0.06109391
45	0x3d177c50	0.036983788
46	0xbd2df004	-0.042465225
47	0x3dad1610	0.08451474
48	0x3d149398	0.03627357
49	0x3ab15700	0.0013529956
50	0x3dc01a6c	0.093800396
51	0x3b0e4980	0.002171129
52	0xbd77d9f6	-0.060510598
53	0x3e0d906a	0.13824621
54	0xbe12d0c3	-0.14337449
55	0xbe087d09	-0.13328947
56	0x3e03216a	0.12805715
57	0x3d09c1e0	0.03363216
58	0xbda8e0f6	-0.08246033
59	0x3e2096f2	0.15682581
60	0x3cbb6840	0.022876859
61	0xbaeba700	-0.0017978847
62	0xbce5f580	-0.028071165
63	0xbd972b9c	-0.07381365
64	0xbe0d077e	-0.1377239
65	0x3e269eb0	0.16271472
66	0xbd5753b0	-0.052570045
67	0x3d58b6e4	0.052908793
68	0xbc895850	-0.016765743
69	0xbdcbb42f	-0.09946477
70	0xbe059de8	-0.13048518
71	0xbd999a3f	-0.07500123
72	0x3dffd3c8	0.12491566
73	0x3e37cef8	0.17950046
74	0xbe1ef9f0	-0.15525031
75	0x3deceef0	0.11569011
76	0x3e329db6	0.17442974
77	0xbda6fe9d	-0.081540324
78	0x3d5b5c78	0.053554982
79	0x3da1df04	0.07903865
80	0x3d040314	0.032229498
81	0xbde36d18	-0.11104792
82	0xbe299d81	-0.16563989
83	0xbcaa7b98	-0.020810887
84	0x3d9c064c	0.076183885
85	0xbe0ba90c	-0.13638705
86	0xbdd50f8c	-0.10403356
87	0xbe040318	-0.12891805
88	0xbe0ae8e3	-0.13565402
89	0x3da327b8	0.0796656
90	0xbdfbdc7e	-0.12297915
91	0x3dbccde0	0.09218955
92	0x3e2f85a2	0.1714082
93	0xbda785cf	-0.08179819
94	0xbe0006b6	-0.1250256
95	0xbdeb116f	-0.114779346
96	0xbe282c84	-0.16423231
97	0x3e0f6354	0.14002734
98	0xbd6cbe86	-0.057798885
99	0xbe2651d8	-0.16242158
100	0x3d1825a0	0.037145257
101	0xbdd725ce	-0.105052575
102	0xbd1b13fc	-0.037860855
103	0xbcba5b68	-0.022748664
104	0xbd93802a	-0.0720218
105	0xbdba896e	-0.09108244
106	0xbe0d6a68	-0.13810122
107	0x3ddc7f60	0.10766482
108	0xbc878cb0	-0.016546577
109	0x3e2e1a06	0.17002115
110	0x3da448ec	0.08021721
111	0x3dad40f0	0.084596515
112	0xbdaba4c7	-0.08381038
113	0xbd47b430	-0.048755825
114	0xbe1a6f7c	-0.1508159
115	0x3d18c89c	0.03730069
116	0x3c87f4d0	0.016596228
117	0xbdd2ec36	-0.1029896
118	0xbc82cdb0	-0.01596722
119	0x3e31f9e0	0.17380476
120	0xbd22ffd0	-0.039794743
121	0xbd9cfa7f	-0.07664966
122	0x3d57b8bc	0.05266641
123	0x3dc3e604	0.095653564
124	0xbd26ca20	-0.040720105
125	0x3d99809c	0.074952334
126	0xbd0f2ed8	-0.034956783
127	0x3e2f05b6	0.17092022
128	0x3e35d77a	0.17757979
129	0x3dfd9f20	0.12383866
130	0xbada3500	-0.0016647875
131	0x3e06468c	0.13112849
132	0x3bdb5460	0.006693408
133	0x3e0c342a	0.13691774
134	0xbd1bd09c	-0.038040742
135	0xbe0f1b23	-0.13975196
136	0xbdde9587	-0.10868364
137	0x3e2645e4	0.16237599
138	0xbe10daa6	-0.14145908
139	0x3e3135c4	0.17305666
140	0xbd5596a4	-0.052145615
141	0x3b902260	0.004398629
142	0x3d908ca0	0.07058072
143	0x3d7313dc	0.05934511
144	0x3df6d8b8	0.120530546
145	0xbe2eaacd	-0.17057343
146	0x3d5c58c4	0.05379559
147	0x3e06c696	0.13161692
148	0xbc3557b0	-0.01106827
149	0x3e227f2a	0.15868822
150	0x3d7f5398	0.06233558
151	0xbdc0d2e4	-0.09415224
152	0xbdc2a572	-0.095042124
153	0x3d904250	0.07043898
154	0x3e1ff5a0	0.15621042
155	0xbe1f7584	-0.15572172
156	0xbcc217a8	-0.02369292
157	0xbd4e5acc	-0.05037956
158	0x3d96c410	0.07361615
159	0xbd819a91	-0.06328309
160	0xbc9c7208	-0.019097343
161	0xbd1bbb5c	-0.038020477
162	0xbe16b57e	-0.14717671
163	0x3df7aa50	0.120930314
164	0xbe0fd526	-0.14046153
165	0xbdcd38f4	-0.100206286
166	0x3de07120	0.10959077
167	0xbd1cf4d4	-0.038319424
168	0xbd720732	-0.059088893
169	0x3de09358	0.109656036
170	0x3dd54118	0.10412806
171	0xbc8b3820	-0.016994536
172	0x3d448470	0.047977865
173	0x3d6b2ad0	0.057413876
174	0x3db59490	0.08866227
175	0xbd414094	-0.047180727
176	0xbd18f7d0	-0.037345707
177	0xbc8d27d8	-0.017230913
178	0xbcb2a888	-0.021808878
179	0xbd128f8c	-0.03578143
180	0x3e1107de	0.14163157
181	0x3daa07ec	0.08302292
182	0x3dca281c	0.098709315
183	0x3d2a8010	0.041626036
184	0xbd371e64	-0.044706717
185	0x3e389056	0.1802381
186	0xbe0b4071	-0.13598801
187	0xbe1fadd4	-0.15593654
188	0x3dfc5c10	0.12322247
189	0x3cbcf658	0.023066685
190	0x3dbf2244	0.093327075
191	0xbd74ee2e	-0.05979746
192	0x3d0ff9f0	0.03515047
193	0xbd407600	-0.046987534
194	0xbe1249d4	-0.14285976
195	0xbe0b6e85	-0.13616379
196	0xbe26b091	-0.16278292
197	0xbc30ffa0	-0.010803133
198	0xbe2b723f	-0.167428
199	0xbd2692b4	-0.04066725
200	0xb9eb2400	-0.00044849515
201	0xbe0a40ba	-0.13501254
202	0x3e2f0850	0.17093015
203	0xbe30e7ea	-0.17275968
204	0x3d06b4e4	0.032887354
205	0xbe0de7e4	-0.1385799
206	0xbd181b14	-0.0371352
207	0xbcbdbc38	-0.023161039
208	0xbd2753b0	-0.040851295
209	0xbe2da891	-0.16958834
210	0xbdef202d	-0.11676059
211	0x3d8b63cc	0.06806144
212	0x3d6cf078	0.057846516
213	0x3db5d350	0.08878195
214	0x3e024f40	0.12725544
215	0x3e0389ac	0.12845486
216	0xbd89cc93	-0.067284726
217	0xbdb55131	-0.08853377
218	0x3d8e5f4c	0.0695177
219	0x3d11a724	0.03555979
220	0x3dbcdb44	0.09221509
221	0xbd946a33	-0.072468184
222	0x3e02193e	0.12704942
223	0xbd610ee8	-0.054945856
224	0xbe01561c	-0.12630504
225	0xbd843b46	-0.06456618
226	0xbe1d8fce	-0.15386888
227	0x3d87e89e	0.06636165
228	0xbd2cc7f4	-0.042182878
229	0x3da175dc	0.07883808
230	0x3d505040	0.050857782
231	0x3de62b5c	0.11238739
232	0xbd86f3da	-0.0658948
233	0x3db670fc	0.08908269
234	0xbddf4aa4	-0.109029084
235	0x3db7b460	0.08969951
236	0xbdcda8d9	-0.10041971
237	0x3d0fbfb4	0.03509493
238	0xbc1ecf70	-0.009693012
239	0xbe056fcc	-0.13030928
240	0x3e398544	0.18117243
241	0x3cfc9360	0.030831993
242	0x3c1179f0	0.00887917
243	0x3d627750	0.055289567
244	0x3e1ada82	0.15122417
245	0xbda78eaa	-0.08181508
246	0xbdc97074	-0.09835902
247	0xbdba85b9	-0.09107537
248	0x3d7011cc	0.058610722
249	0x3d824db0	0.06362474
250	0xbdde562d	-0.108562805
251	0xbd87732c	-0.06613764
252	0xbdf5f2a2	-0.12009169
253	0x3b8409a0	0.0040294677
254	0x3dd7e878	0.10542387
255	0xbe2ff3d7	-0.17182861

transformer_encoder.encoder.attention.fc_K.bias f4 [30]
0	0x3de6a7c8	0.112624705
1	0x3d18daf0	0.03731817
2	0xbe345a44	-0.17612559
3	0x3dce07d4	0.10060087
4	0x3a35af00	0.0006930679
5	0xbd0a6dfc	-0.033796296
6	0xbda159d0	-0.078784585
7	0x3dd30afc	0.103048295
8	0xbdea274e	-0.11433278
9	0xbe054341	-0.13013937
10	0xbde41e59	-0.11138601
11	0x3e200b0e	0.15629217
12	0x3de35000	0.11099243
13	0xbd06c1d4	-0.032899693
14	0x3d78bf3c	0.06072925
15	0xbe2ee5f3	-0.17079906
16	0x3caecbf8	0.021337494
17	0xbe2e4422	-0.17018178
18	0xbe11ea69	-0.14249577
19	0x3d98a054	0.07452455
20	0xbdd0be9e	-0.10192607
21	0xbd71ea08	-0.05906108
22	0xbd93cc66	-0.0721672
23	0xbda29561	-0.07938648
24	0xbe2f210c	-0.1710245
25	0xbe0d3f90	-0.13793778
26	0xbe21de79	-0.15807523
27	0xbd8f6ab9	-0.070027776
28	0xbde23634	-0.11045495
29	0xbd6ccdba	-0.057813384

transformer_encoder.encoder.attention.fc_V.weight f4 [30, 30]
0	0xbdff3984	-0.12462142
1	0xbe06823c	-0.13135618
2	0xbe0f4e9c	-0.13994831
3	0x3da75788	0.08170992
4	0xbb132340	-0.002245143
5	0x3e18a84e	0.14907953
6	0x3cad4818	0.021152541
7	0xbe1a03a3	-0.1504045
8	0xbe18066a	-0.14846197
9	0x3e1a66b8	0.15078247
10	0x3e3358fa	0.1751441
11	0xbd620028	-0.05517593
12	0x3dad6fb8	0.08468574
13	0x3da11ed4	0.07867208
14	0x3d8005fe	0.06251143
15	0x3d198fac	0.03749053
16	0xbd832dd7	-0.06405228
17	0x3d96c1cc	0.073611826
18	0x3cfd94d0	0.030954748
19	0x3c71f850	0.014768675
20	0xbd852ae1	-0.06502319
21	0x3e312f8a	0.17303291
22	0xbcf4fc48	-0.029905453
23	0xbe0bd2bb	-0.13654606
24	0x3db4a294	0.08820072
25	0x3d1bedb8	0.038068503
26	0xbc9fa890	-0.019489557
27	0xbdad6a3c	-0.08467528
28	0xbd6235f8	-0.05522725
29	0xbd5f5d68	-0.05453244
30	0x3e2afcd0	0.16698003
31	0xbdea0d84	-0.11428359
32	0x3b197400	0.0023415089
33	0x3d88bf96	0.06677167
34	0xbde38612	-0.11109556
35	0x3dd7d0b0	0.10537851
36	0xbe1e9bc6	-0.1548911
37	0xbe0d7a96	-0.13816294
38	0xbc410090	-0.011779919
39	0xbddb7326	-0.10715322
40	0xbc55ee40	-0.0130572915
41	0xbdb611d5	-0.0889012
42	0x3dce0804	0.100601226
43	0xbdbfee57	-0.093716316
44	0xbd44e8c0	-0.04807353
45	0x3e09d67e	0.13460729
46	0xbdb4b243	-0.08823063
47	0x3e36ed94	0.17864066
48	0x3dfb7914	0.12278953
49	0xbe2ccbf2	-0.16874674
50	0xbda34b0d	-0.07973299
51	0x3d40d0ac	0.047074005
52	0xbd9b67ab	-0.075881325
53	0xbe2d6f91	-0.1693709
54	0x3d8d76b8	0.069074094
55	0x3e315574	0.17317754
56	0xbe390b98	-0.18070829
57	0xbd166dec	-0.036725923
58	0xbd96ee1e	-0.07369636
59	0x3d6a32a4	0.0571772
60	0xbdd51165	-0.10403708
61	0x3e001942	0.12509635
62	0x3e16121e	0.14655349
63	0x3d4fe008	0.050750762
64	0x3d8ace30	0.067776084
65	0x3e1eb0a4	0.1549707
66	0x3ae64200	0.0017567277
67	0x3c789520	0.015172273
68	0xbd591f00	-0.05300808
69	0x3e11863e	0.14211366
70	0xbd226f7c	-0.0396571
71	0x3e0ec15a	0.13940945
72	0x3df5129c	0.1196644
73	0x3b683380	0.0035431087
74	0xbd244d78	-0.040112942
75	0x3e02482c	0.12722844
76	0x3e0ac31e	0.13550994
77	0xbd24fca4	-0.04028
78	0xbb3ef680	-0.0029138625
79	0x3dc69238	0.09695858
80	0xbd9a9526	-0.07547979
81	0x3d49c214	0.049257353
82	0x3cc1edf0	0.023673028
83	0xbdbeb0db	-0.09311076
84	0x3d83fdfc	0.06444928
85	0xbdb181b9	-0.08667321
86	0xbdd85079	-0.10562224
87	0x3e18f18e	0.14935896
88	0x3dd95a20	0.10612893
89	0x3e2a2c9e	0.16618583
90	0x3d07d5ec	0.033162996
91	0xbd1b2fd8	-0.037887424
92	0x3c298cd0	0.010348514
93	0xbe16993b	-0.1470689
94	0xbdb39162	-0.08767964
95	0x3d109fd0	0.03530866
96	0x3c7ff750	0.015622929
97	0x3e2e62c6	0.17029867
98	0x3e1c529a	0.15265885
99	0xbc9f9fa0	-0.019485295
100	0x3e32c59c	0.17458194
101	0x3e3aba5e	0.18235156
102	0x3df51640	0.119671345
103	0xbbaf3680	-0.005347073
104	0x3bea9880	0.0071592927
105	0x3d364a60	0.044504523
106	0x3d1c246c	0.038120672
107	0xbb021f80	-0.0019855201
108	0x3da0a9f4	0.07844916
109	0x3de11614	0.10990539
110	0xbe30cae1	-0.17264892
111	0xbc700420	-0.014649421
112	0x3df8b244	0.121433765
113	0xbd946dc6	-0.072475
114	0x3d0906f0	0.03345388
115	0x3de02410	0.109443784
116	0xbb6a1d40	-0.0035723
117	0xbcfd6150	-0.030930191
118	0xbd5412fc	-0.051775917
119	0x3da274b0	0.079324126
120	0xbdc1d8f7	-0.09465211
121	0x3d93eb34	0.07222596
122	0x3d9edf48	0.07757431
123	0xbd1ead00	-0.038739204
124	0x3de5fb14	0.1122953
125	0xbdb6afeb	-0.089202724
126	0xbdaee759	-0.0854022
127	0xbdef8b10	-0.11696446
128	0xbd180af0	-0.037119806
129	0x3e249cea	0.16075483
130	0x3df03dbc	0.11730525
131	0x3e21609c	0.1575951
132	0xbb458600	-0.0030139685
133	0x3cc979b8	0.024594173
134	0x3c980a20	0.018559515
135	0xbd9bd986	-0.07609849
136	0x3e026124	0.12732369
137	0xbd835df8	-0.064144075
138	0x3dd55648	0.104168475
139	0x3d24b2ac	0.040209457
140	0xbc98b018	-0.018638656
141	0x3dcaf93c	0.09910819
142	0xbd4accc4	-0.049511686
143	0xbe3817d3	-0.17977838
144	0xbd05fc24	-0.032711163
145	0x3dd690c8	0.104768336
146	0x3e033200	0.12812042
147	0x3da1a758	0.078932464
148	0x3e248658	0.16066873
149	0x3dc067a8	0.09394771
150	0xbd7389ae	-0.059457473
151	0x3d8734b2	0.06601848
152	0xbe1d53c3	-0.15363984
153	0x3dd36ad8	0.10323113
154	0xbe2114d7	-0.15730606
155	0x3daeae9c	0.08529398
156	0x3daf2980	0.08552837
157	0x3e2b325c	0.1671843
158	0xbde3c598	-0.111216724
159	0xbca3b7d0	-0.01998511
160	0xbe2c1e01	-0.1680832
161	0xbd80c341	-0.06287242
162	0xbdfec060	-0.12439036
163	0x3df6d9d4	0.12053266
164	0xbb39fb40	-0.0028378516
165	0x3e1f51c0	0.15558529
166	0xbdcc4f5c	-0.09976074
167	0xbd3578b0	-0.04430455
168	0xbdbb6dcf	-0.09151804
169	0xbdfe5aba	-0.124196485
170	0x3c6040b0	0.013687298
171	0xbe28d2aa	-0.16486612
172	0x3e288f2c	0.16460866
173	0x3dcb9bbc	0.09941813
174	0xbc487640	-0.012235224
175	0x3d2fbc44	0.042904153
176	0x3d2eb454	0.042652443
177	0x3df1a8f4	0.117998034
178	0xbe2003bb	-0.15626423
179	0x3d061c74	0.03274198
180	0xbde61814	-0.11235061
181	0x3e27ed82	0.16399196
182	0x3e319954	0.17343646
183	0xbe2217d2	-0.15829399
184	0xbe029dab	-0.12755458
185	0x3e37042c	0.17872685
186	0xbd82ed58	-0.06392926
187	0xbd552b20	-0.05204308
188	0xbd47506c	-0.04866068
189	0x3de42144	0.111391574
190	0xbe20cc55	-0.15702946
191	0x3e1bee9e	0.15227744
192	0x3d0bb008	0.034103423
193	0xbd2146a0	-0.039373994
194	0xbc5c5560	-0.013448089
195	0xbdd2fc16	-0.10301988
196	0x3dc1a00c	0.09454355
197	0xbcc4f820	-0.024044096
198	0xbce7b590	-0.028284818
199	0x3d56e990	0.052468836
200	0xbe2e12fe	-0.16999432
201	0xbc314c10	-0.010821357
202	0xbe38b285	-0.1803685
203	0xbe17e0cf	-0.14831851
204	0x3dd757b4	0.10514775
205	0xbc84ec30	-0.016225904
206	0xbd333230	-0.043749034
207	0x3dfd10f4	0.12356749
208	0x3e34b89e	0.17648551
209	0xbd4f4764	-0.050605193
210	0x3e108240	0.14112186
211	0xbde15a22	-0.110035196
212	0xbd4c6928	-0.049904972
213	0x3e0f15b8	0.13973129
214	0xbc90d078	-0.01767753
215	0xbe3a1234	-0.18171006
216	0x3e3a344c	0.18184012
217	0xbd1e7018	-0.03868112
218	0xbe0c4a72	-0.13700274
219	0xbdaf18ab	-0.08549627
220	0xbe326743	-0.17422204
221	0xbd671328	-0.056414753
222	0x3e31ecb2	0.17375448
223	0x3de7b5b0	0.11313951
224	0x3d566a20	0.052347302
225	0x3de1797c	0.110094994
226	0xbe17370d	-0.14767094
227	0x3d4f4588	0.05060342
228	0xbe367039	-0.17816247
229	0x3c90a4c8	0.017656699
230	0xbdd3f81e	-0.10350059
231	0xbe2b00fb	-0.16699593
232	0xbc20b830	-0.009809539
233	0xbc2471b0	-0.010036871
234	0x3dc7df5c	0.09759399
235	0x3d21f1fc	0.039537415
236	0x3ddd9bf4	0.10820761
237	0x3ba198a0	0.0049315244
238	0xbe2f3dcf	-0.17113422
239	0x3cc1c750	0.02365461
240	0xbe2d034f	-0.16895793
241	0x3e0bd384	0.13654906
242	0xbe2165a5	-0.1576143
243	0xbd79bc58	-0.060970634
244	0x3de1ffc4	0.110351115
245	0x3d8dc8d8	0.069230735
246	0x3de8bfc8	0.11364704
247	0x3db43e44	0.08800939
248	0xbd66598c	-0.056237742
249	0x3df22450	0.11823332
250	0xbd951bfe	-0.0728073
251	0x3cb41468	0.021982387
252	0xbdc909b3	-0.09816303
253	0xbd9aa62f	-0.07551228
254	0xbdfaaa66	-0.12239532
255	0xbe1c0cf7	-0.1523932

transformer_encoder.encoder.attention.fc_V.bias f4 [30]
0	0xbe16fb92	-0.14744404
1	0xbcb78ae0	-0.022405088
2	0xbd86e259	-0.06586141
3	0x3e266d42	0.16252616
4	0xbc1bac20	-0.009501487
5	0xbddf88dd	-0.109147765
6	0x3ca1ea30	0.01976499
7	0xbdc6cd63	-0.09707143
8	0x3dfcd5e8	0.12345487
9	0x3bc7f2e0	0.006101951
10	0xbe1fcf56	-0.15606436
11	0xbcda1898	-0.026623055
12	0xbe324de7	-0.1741253
13	0xbbe549c0	-0.006997317
14	0xbda5bb00	-0.08092308
15	0x3d658518	0.05603513
16	0xbde6f23f	-0.112766735
17	0x3e1db94e	0.1540272
18	0x3d776f44	0.060408846
19	0xbde84c19	-0.113426395
20	0x3e17a004	0.14807135
21	0xbd76c66e	-0.06024783
22	0x3da25054	0.079254776
23	0xbbb34b60	-0.005471632
24	0x3d5a5834	0.053306773
25	0x3da67650	0.08128035
26	0x3e0a37ce	0.1349785
27	0xbd4c0568	-0.049809843
28	0x3e0af9b4	0.13571817
29	0x3d428028	0.0474855

transformer_encoder.encoder.attention.fc.weight f4 [30, 30]
0	0xbe352dbc	-0.17693228
1	0xbd6e4af6	-0.058176957
2	0xbdfe1de8	-0.12408048
3	0x3d4c13a4	0.04982342
4	0x3bc40f20	0.0059832484
5	0x3dcdd648	0.100506365
6	0x3e14c5d8	0.14528596
7	0x3e199680	0.14998817
8	0x3ca718c8	0.020397559
9	0xbcb2ec40	-0.021841168
10	0x3c986190	0.018601209
11	0xbd3605a0	-0.04443896
12	0xbdb48ffc	-0.08816525
13	0x3d6bfa54	0.05761178
14	0x3df23f9c	0.11828539
15	0xbdc1267c	-0.094311684
16	0xbdb0a861	-0.08625866
17	0xbd1420cc	-0.03616409
18	0xbb5e2e80	-0.0033902228
19	0xbd87e765	-0.06635932
20	0x3d9c3950	0.07628119
21	0xbd9a6ad9	-0.07539911
22	0x3b98fc60	0.0046687573
23	0xbcbaf288	-0.022820726
24	0xbe04372a	-0.12911668
25	0x3e09e844	0.13467509
26	0x3e0588d2	0.13040474
27	0x3ba0be40	0.004905492
28	0x3d28e320	0.04123223
29	0x3d0a3f88	0.033751994
30	0x3d026d88	0.03184274
31	0x3bcb4520	0.0062033087
32	0x3e0bf05a	0.13665906
33	0x3dcbc264	0.099491864
34	0x3db7611c	0.08954069
35	0xbbc403a0	-0.0059818774
36	0xbdf3fcf5	-0.11913482
37	0x3e20a588	0.15688145
38	0xbd76f348	-0.060290605
39	0x3daf1cd0	0.085504174
40	0xbe2f50c9	-0.17120661
41	0xbdd76e5b	-0.105190955
42	0x3e2037aa	0.15646234
43	0xbe0832ff	-0.13300703
44	0x3df1e5c0	0.118113995
45	0xbe3addf5	-0.18248732
46	0x3c345c20	0.011008292
47	0x3d797dc4	0.060910955
48	0xbe18f416	-0.14936861
49	0x3e2322f2	0.159313
50	0x3d6c8ca4	0.057751313
51	0x3d0dcc54	0.03461869
52	0x3e397f0a	0.18114868
53	0xbce03ec0	-0.027373672
54	0x3da9f1b4	0.08298054
55	0x3c1200f0	0.008911356
56	0xbdb28e01	-0.08718491
57	0x3d5ec1ac	0.05438392
58	0xbde226be	-0.11042546
59	0xbe05eaa5	-0.13077791
60	0xbd095a18	-0.033533186
61	0x3d19cc7c	0.037548527
62	0x3cef8a90	0.029240876
63	0x3d1e912c	0.038712665
64	0xbd81ac0a	-0.06331642
65	0x3d15824c	0.036501214
66	0xbdbac8cb	-0.091203295
67	0xbce2aa50	-0.027669102
68	0xbd3d0400	-0.046146393
69	0x3d9ced84	0.0766249
70	0xbdffb24c	-0.12485179
71	0xbe292de3	-0.1652141
72	0x3d41d7b0	0.047324836
73	0xbdffbe45	-0.12487463
74	0x3dd06ae4	0.10176638
75	0xbe13fe71	-0.1445253
76	0x3db434c8	0.0879913
77	0x3ddc81cc	0.10766944
78	0x3e2ce3e6	0.16883811
79	0x3b807e60	0.003921315
80	0xbd2545f4	-0.040349916
81	0x3e261c9e	0.16221854
82	0xbd9412ae	-0.07230125
83	0x3dc741c0	0.09729338
84	0x3d852eee	0.06503092
85	0xbe3430dd	-0.17596765
86	0xbdf93468	-0.12168199
87	0xbdfd4de6	-0.123683736
88	0x3d68aa50	0.056803048
89	0x3dc6c2b4	0.097051054
90	0x3d952ee8	0.07284337
91	0xbd4973fc	-0.049182877
92	0x3dc98d50	0.09841406
93	0xbd811c3a	-0.06304212
94	0xbdcfcf92	-0.10147013
95	0xbe11ebf3	-0.14250164
96	0xbd7afb9e	-0.061275117
97	0x3e14deca	0.14538112
98	0x3d968f4c	0.073515505
99	0x3dc1a074	0.09454432
100	0x3dccbba8	0.0999673
101	0x3d021e34	0.031767085
102	0x3e08ba20	0.13352251
103	0x3d42710c	0.04747109
104	0x3dfc3bc8	0.1231609
105	0x3db296e4	0.08720186
106	0x3de3e1d0	0.11127055
107	0xbd645770	-0.05574745
108	0x3cdd8560	0.027041137
109	0x3cf51758	0.029918358
110	0x3d400d5c	0.04688774
111	0xbe154433	-0.14576797
112	0xbd031584	-0.03200294
113	0xbe124c92	-0.14287022
114	0x3e2ea03a	0.17053309
115	0x3a9dd080	0.0012040287
116	0x3e0c1a3a	0.1368188
117	0xbd352d24	-0.044232503
118	0x3d59f22c	0.05320947
119	0x3e0998ea	0.13437238
120	0x3e10d8f2	0.14145258
121	0x3e075324	0.1321531
122	0x3dd25e68	0.10271913
123	0x3d7a7540	0.061146975
124	0x3dddf894	0.10838428
125	0xbe3849cd	-0.17996903
126	0x3d2ae14c	0.041718766
127	0x3db8b960	0.090197325
128	0x3e3ade9c	0.18248981
129	0xbb3d3d40	-0.002887562
130	0xbe0b88bc	-0.13626379
131	0x3dff4390	0.124640584
132	0xbe102fb8	-0.14080703
133	0x3e1272e0	0.14301634
134	0xbe3a8b37	-0.18217169
135	0xbdcf4f7f	-0.101225846
136	0x3d9ff834	0.07811013
137	0x3da2ab54	0.079428345
138	0xbe2dcef1	-0.16973473
139	0x3dd48e4c	0.103787035
140	0x3dfd978c	0.12382421
141	0xba1aa400	-0.00058990717
142	0x3cd4fe80	0.026000261
143	0xbd0d4654	-0.0344909
144	0xbd4404e8	-0.04785624
145	0xbdff63dc	-0.124702185
146	0x3d90df7c	0.07073876
147	0x3dbec264	0.09314421
148	0xbc92f9b8	-0.01794134
149	0xbdf6d46a	-0.120522335
150	0xbdb82a7f	-0.089924805
151	0xbd6b2ea0	-0.057417512
152	0xbd690fe0	-0.056899905
153	0xbe0e3595	-0.13887627
154	0xbdcb677e	-0.09931849
155	0x3de1dfcc	0.11029014
156	0xbd842a9a	-0.06453438
157	0xbc1b1aa0	-0.009466797
158	0xbbd4f4e0	-0.006498918
159	0x3dadbe80	0.084836006
160	0xbdce8ac9	-0.10085065
161	0x3dc54e84	0.09634116
162	0xbdd3eb3c	-0.10347602
163	0x3e0f734c	0.14008826
164	0x3df4cc88	0.11953074
165	0xbe1909a0	-0.14945078
166	0xbdc18de1	-0.094508894
167	0xbd954d33	-0.07290115
168	0xbe000cf7	-0.12504946
169	0x3e17c8b8	0.14822662
170	0x3d6aff94	0.057372645
171	0xbd095b2c	-0.033534214
172	0xbdc280f7	-0.09497254
173	0xbdccb5e0	-0.099956274
174	0x3d4bc7b8	0.049751014
175	0x3e0658f6	0.13119873
176	0xbe3521c3	-0.1768866
177	0x3d70bfa4	0.058776513
178	0x3e031560	0.12801123
179	0xbe1e7bee	-0.15476963
180	0xbe13cf80	-0.14434624
181	0x3ac83380	0.0015274137
182	0xbc99ba18	-0.018765494
183	0x3e184c9a	0.14872971
184	0x3d61a810	0.055091918
185	0xbe10219d	-0.14075322
186	0xbd9bd77c	-0.0760946
187	0xbd67c364	-0.056582823
188	0xbdf43204	-0.11923602
189	0x3db0640c	0.086128324
190	0xbdc12b47	-0.094320826
191	0x3b438fc0	0.002984032
192	0xbd1cd3d4	-0.038287953
193	0xbc65b020	-0.014019042
194	0xbe14dc44	-0.1453715
195	0x3e36c9be	0.17850396
196	0x3e22f74c	0.15914649
197	0xbd5a5524	-0.053303853
198	0x3c31bb50	0.010847881
199	0xbe32087f	-0.17386054
200	0xbe201d10	-0.15636086
201	0xbb4486c0	-0.0029987544
202	0x3e0a29da	0.13492528
203	0xbd6616a8	-0.05617395
204	0xbdbe0dfd	-0.09280012
205	0x3dcbbabc	0.09947726
206	0xbe221ae2	-0.15830567
207	0x3d0b73bc	0.03404592
208	0xbdde7862	-0.10862805
209	0xbdef9417	-0.11698168
210	0x3cafe520	0.02147156
211	0xbe27c82a	-0.1638495
212	0x3d0377ac	0.03209655
213	0x3e1c215e	0.15247104
214	0xbd0f8df8	-0.0350475
215	0x3d7425ac	0.05960624
216	0xbdcf0314	-0.10108009
217	0xbe037444	-0.1283732
218	0x3d9eeea0	0.07760358
219	0xbd99ad42	-0.075037494
220	0x3d6a9ca0	0.057278275
221	0xbe332f89	-0.17498602
222	0x3d1589f4	0.036508515
223	0xbdfc324b	-0.1231428
224	0x3e2483d2	0.1606591
225	0x3c2b0320	0.010437757
226	0xbe197f68	-0.14990008
227	0x3d0e0fb4	0.034682944
228	0xbc812980	-0.015766859
229	0x3db6c498	0.08924216
230	0x3e107f48	0.14111054
231	0xbda09b51	-0.07842124
232	0x3e129adc	0.14316887
233	0xbdf4a876	-0.11946194
234	0x3d21aaac	0.039469406
235	0xbd7f3c9c	-0.06231366
236	0x3dffe79c	0.12495348
237	0x3d1a1d88	0.03762582
238	0xbd19c7d0	-0.03754407
239	0x3c6c6090	0.014427319
240	0xbcdbdef0	-0.026839703
241	0x3e1a0ab8	0.15043151
242	0x3e1af5c0	0.15132809
243	0xbe11afee	-0.14227268
244	0x3e2dea58	0.16983926
245	0xbe1abd74	-0.15111333
246	0xbe2fd82b	-0.17172305
247	0x3e389dd4	0.18028957
248	0xbdcf1348	-0.101110995
249	0x3de0f6ec	0.109845966
250	0x3d2621c8	0.04055956
251	0x3e3993d6	0.18122801
252	0xbdc30249	-0.0952192
253	0x3db82434	0.0899128
254	0xbd7b432a	-0.06134335
255	0xbe08235e	-0.13294742

transformer_encoder.encoder.attention.fc.bias f4 [30]
0	0xbe30852a	-0.17238298
1	0x3dd98674	0.10621348
2	0x3cd02958	0.02541034
3	0xbd071eac	-0.032988235
4	0xbdbfc468	-0.093636334
5	0xbc865848	-0.016399518
6	0x3dcf2eac	0.10116324
7	0x3e052068	0.13000643
8	0xbdd13701	-0.10215569
9	0xbdef4667	-0.1168335
10	0x3c08ced0	0.008350089
11	0x3b99ef00	0.0046976805
12	0x3e2bbcba	0.16771212
13	0x3deb2390	0.114813924
14	0x3cfc6698	0.03081064
15	0xbdb419d3	-0.08793988
16	0x3dbdc1e8	0.092655
17	0x3e32a160	0.17444372
18	0xbe32a020	-0.17443895
19	0xbe2986e8	-0.16555369
20	0x3ded4534	0.11585465
21	0x3da446a4	0.08021286
22	0xbdcb1e4b	-0.09917887
23	0xbd895032	-0.06704749
24	0x3dd8a5a8	0.105784714
25	0xbd1ab4f4	-0.037770227
26	0x3e2fdfb4	0.1717518
27	0xbe2432bd	-0.1603498
28	0xba6c8800	-0.0009022951
29	0x3c572630	0.013131663

transformer_encoder.encoder.attention.layer_norm.weight f4 [30]
0	0x3f800000	1.0
1	0x3f800000	1.0
2	0x3f800000	1.0
3	0x3f800000	1.0
4	0x3f800000	1.0
5	0x3f800000	1.0
6	0x3f800000	1.0
7	0x3f800000	1.0
8	0x3f800000	1.0
9	0x3f800000	1.0
10	0x3f800000	1.0
11	0x3f800000	1.0
12	0x3f800000	1.0
13	0x3f800000	1.0
14	0x3f800000	1.0
15	0x3f800000	1.0
16	0x3f800000	1.0
17	0x3f800000	1.0
18	0x3f800000	1.0
19	0x3f800000	1.0
20	0x3f800000	1.0
21	0x3f800000	1.0
22	0x3f800000	1.0
23	0x3f800000	1.0
24	0x3f800000	1.0
25	0x3f800000	1.0
26	0x3f800000	1.0
27	0x3f800000	1.0
28	0x3f800000	1.0
29	0x3f800000	1.0

transformer_encoder.encoder.attention.layer_norm.bias f4 [30]
0	0x00000000	0.0
1	0x00000000	0.0
2	0x00000000	0.0
3	0x00000000	0.0
4	0x00000000	0.0
5	0x00000000	0.0
6	0x00000000	0.0
7	0x00000000	0.0
8	0x00000000	0.0
9	0x00000000	0.0
10	0x00000000	0.0
11	0x00000000	0.0
12	0x00000000	0.0
13	0x00000000	0.0
14	0x00000000	0.0
15	0x00000000	0.0
16	0x00000000	0.0
17	0x00000000	0.0
18	0x00000000	0.0
19	0x00000000	0.0
20	0x00000000	0.0
21	0x00000000	0.0
22	0x00000000	0.0
23	0x00000000	0.0
24	0x00000000	0.0
25	0x00000000	0.0
26	0x00000000	0.0
27	0x00000000	0.0
28	0x00000000	0.0
29	0x00000000	0.0

transformer_encoder.encoder.feed_forward.fc1.weight f4 [256, 30]
0	0x3d526a54	0.051370934
1	0xbdc3a686	-0.09553246
2	0x3e0dd3c4	0.13850313
3	0xbd8a2071	-0.06744469
4	0x3d8100cc	0.0629898
5	0xba30a700	-0.0006738752
6	0x3cb7eba8	0.022451237
7	0xbdf1334c	-0.11777362
8	0x3b34bf40	0.0027579814
9	0xbd7e99b4	-0.0621583
10	0x3d6f4378	0.058413953
11	0x3e292454	0.16517764
12	0xbdcdeffc	-0.10055539
13	0xbe24214b	-0.16028325
14	0xbd6b6138	-0.057465762
15	0xbdeacde1	-0.114650495
16	0x3e34dbda	0.17661992
17	0xbe2df696	-0.16988596
18	0x3df455d0	0.1193043
19	0xbd918e17	-0.071071796
20	0xbdf74099	-0.12072868
21	0x3dc0f3f4	0.0942153
22	0xbd92e5d8	-0.071727455
23	0x3e282130	0.1641891
24	0x3dccc164	0.09997824
25	0x3daf0fd4	0.08547941
26	0xbe34152f	-0.17586206
27	0x3e02d63a	0.12777033
28	0x3de31780	0.11088467
29	0xbdfbc0ea	-0.12292655
30	0xbdb08b53	-0.08620324
31	0xbda542ec	-0.08069405
32	0xbe086c32	-0.13322523
33	0x3d089a98	0.033350557
34	0x3ddba1a8	0.10724193
35	0xbdd0cda9	-0.101954766
36	0x3dc6ff04	0.09716609
37	0x3e116e06	0.14202127
38	0xbdea5460	-0.114418745
39	0xb94f9c00	-0.00019799173
40	0x3d1ca13c	0.038239703
41	0x3db64e30	0.08901632
42	0xbe238c6e	-0.15971538
43	0x3c843098	0.016136453
44	0x3d71a0b8	0.058991164
45	0xbe113b35	-0.14182742
46	0xbe059ff4	-0.13049299
47	0x3b229640	0.0024808794
48	0xbda7f190	-0.08200371
49	0x3e1e0348	0.15430939
50	0x3d920c74	0.071312815
51	0xbde59f37	-0.112120084
52	0xbd947d53	-0.07250466
53	0x3dae77e8	0.08518964
54	0x3e0afdbc	0.13573354
55	0x3ca42bb8	0.020040378
56	0xbe3a199f	-0.18173836
57	0x3caf2b50	0.021382958
58	0x3d8f66f8	0.070020616
59	0xbde36b21	-0.111044176
60	0x3e1fbe32	0.15599898
61	0xbe2d1cfc	-0.16905588
62	0xbd831b23	-0.0640166
63	0x3cab4658	0.020907566
64	0xbdf39bc8	-0.11894947
65	0x3ab3f800	0.0013730526
66	0x3d2c8c7c	0.042126164
67	0xbc9a9ba8	-0.01887305
68	0x3d9b5458	0.07584447
69	0x3d6f5f40	0.058440447
70	0xbdfc9d10	-0.12334645
71	0x3d09ecf0	0.033673227
72	0x3c0dacc0	0.008647144
73	0x3da68c98	0.08132285
74	0xbdad4dd0	-0.08462107
75	0xbde7ad53	-0.11312356
76	0xbe0477d0	-0.1293633
77	0xbd0298bc	-0.03188394
78	0xbe30813d	-0.172368
79	0xbe1ecadc	-0.15507072
80	0xbe1031cd	-0.14081497
81	0x3d525e58	0.051359504
82	0xbbdffc60	-0.0068355054
83	0x3e095d08	0.13414395
84	0xbdb168d8	-0.086625755
85	0x3d31d88c	0.043419406
86	0x3e216ee8	0.15764964
87	0xbe056204	-0.13025671
88	0x3db0ab28	0.086263955
89	0x3d779ae8	0.060450464
90	0xbd7dae5e	-0.061933868
91	0xbdeaa70f	-0.11457645
92	0x3d3f9304	0.046771064
93	0x3e127ee2	0.14306214
94	0x3b3ac700	0.002849996
95	0x3c1a4710	0.009416357
96	0xbd9f915a	-0.077913955
97	0x3d65164c	0.055929467
98	0xbe017fb6	-0.12646374
99	0x3d495d18	0.049161047
100	0x3e126ba0	0.14298868
101	0xbdd7f593	-0.105448864
102	0x3e221a24	0.15830284
103	0xbd90d934	-0.07072678
104	0x3d842684	0.06452659
105	0x3d8fe7a4	0.07026604
106	0x3dec2b1c	0.1153166
107	0x3e330646	0.17482862
108	0xbbcb3800	-0.006201744
109	0x3de35644	0.11100438
110	0xbb63c740	-0.0034756213
111	0x3c405d60	0.011741012
112	0xbe2fc34e	-0.17164347
113	0x3e372806	0.17886361
114	0xbe1d4f2d	-0.15362234
115	0xbdeb5c72	-0.11492242
116	0x3dbcefec	0.09225449
117	0x3dbc6244	0.0919843
118	0x3d4e6c80	0.050396442
119	0xbcdd2e68	-0.026999667
120	0xbd34db6c	-0.04415457
121	0x3d8f2164	0.06988791
122	0xbd6e851e	-0.05823242
123	0xbe215e49	-0.15758623
124	0x3e2c060e	0.16799185
125	0xbde09638	-0.10966152
126	0xbe337bb1	-0.17527653
127	0xbdd1f207	-0.10251241
128	0xbe05b43d	-0.13057037
129	0x3cc87d70	0.024473876
130	0x3e096898	0.13418806
131	0xbdfde348	-0.12396866
132	0xbe157b45	-0.14597805
133	0x3ae2cd80	0.0017303675
134	0xbde19d32	-0.11016311
135	0xbe017988	-0.12644017
136	0x3d9bfe10	0.07616818
137	0xbdd4e4ad	-0.10395179
138	0xbcffbc78	-0.031217799
139	0x3e235b62	0.15952829
140	0xbdcc952f	-0.09989392
141	0x3dee2fb4	0.116301924
142	0x3e12bc78	0.14329708
143	0xbe113266	-0.14179382
144	0x3c1890d0	0.00931187
145	0xbddffecf	-0.10937273
146	0xbd114aac	-0.035471603
147	0xbe33c9a1	-0.17557384
148	0xbd057ac0	-0.032587767
149	0xbd679030	-0.056533992
150	0x3ce624f8	0.0280938
151	0x3d6178a4	0.055046692
152	0xbe33a752	-0.17544296
153	0x3e18f8c4	0.14938647
154	0xbe35e492	-0.17762974
155	0xbe20019c	-0.15625614
156	0x3e2c9d84	0.16856962
157	0x3d36cf54	0.044631317
158	0x3caa8c98	0.020818993
159	0xbe317bac	-0.17332333
160	0x3dd86c4c	0.10567531
161	0xbe2116f2	-0.15731409
162	0x3e342dbe	0.17595574
163	0xbc4089c0	-0.011751592
164	0x3bb7d3a0	0.0056099445
165	0xbbcbade0	-0.006215796
166	0xbdeea5fd	-0.116527535
167	0x3ca439f0	0.020047158
168	0x3e210cce	0.15727541
169	0xbdb1b79d	-0.086775996
170	0xbe27e1a2	-0.16394666
171	0xbda13eb9	-0.078732915
172	0x3e2b22c0	0.16712475
173	0xbc04e9b0	-0.008112356
174	0x3e09bbfc	0.13450617
175	0x3d11d64c	0.03560476
176	0xbb90df00	-0.004421115
177	0x3e384d48	0.1799823
178	0x3d40e248	0.0470908
179	0xbd6f68fe	-0.058449738
180	0xbc8ecc28	-0.017431334
181	0x3d7ddc60	0.061977744
182	0xbd8ea302	-0.06964685
183	0x3e24e3b8	0.16102493
184	0x3df7ac08	0.12093359
185	0xbe102173	-0.1407526
186	0x3dc7f448	0.0976339
187	0x3cf6e648	0.030139104
188	0x3e1364ae	0.14393875
189	0x3c9656a0	0.018351853
190	0xbe28145a	-0.16414014
191	0xbdf2326f	-0.11826026
192	0xbdfc3820	-0.123153925
193	0xbe1be80c	-0.15225238
194	0x3df373a4	0.11887291
195	0xbd6518bc	-0.05593179
196	0xbdd7d39a	-0.10538407
197	0x3d05c204	0.03265573
198	0x3e1161ba	0.14197436
199	0xbd0532d0	-0.03251916
200	0xbcdd0428	-0.02697952
201	0x3dcfaa68	0.10139924
202	0xbe192b8c	-0.14958018
203	0x3dd1c5e0	0.1024282
204	0xbe236d00	-0.15959549
205	0xbd606178	-0.054780453
206	0xbe0ff124	-0.14056832
207	0xbe16738e	-0.14692518
208	0x3e2545e8	0.16139948
209	0x3d7ca35c	0.06167923
210	0xbdfa122a	-0.12210496
211	0x3cd11268	0.025521472
212	0x3e05ecf0	0.13078666
213	0x3e1b52be	0.15168282
214	0xbd147a60	-0.03624952
215	0xbe1ced95	-0.15325005
216	0x3db35058	0.08755559
217	0x3dade168	0.084902585
218	0xbd89badd	-0.067250945
219	0x3e1db188	0.15399754
220	0x3c7dc040	0.0154877305
221	0xbe2f8f2d	-0.17144461
222	0x3c78e370	0.015190944
223	0xbdde4acf	-0.10854112
224	0x3e257fe0	0.16162062
225	0xbd2cf108	-0.042222053
226	0xbcbb2928	-0.022846773
227	0xbd941b05	-0.07231716
228	0xbe050dbe	-0.12993523
229	0xbe01da02	-0.1268082
230	0xbbcc73e0	-0.0062393993
231	0xbd10e7d4	-0.03537734
232	0x3e33f242	0.17572883
233	0xbda02a48	-0.078205645
234	0xbd81e2be	-0.06342076
235	0xbe119956	-0.1421865
236	0x3d6d9eb4	0.05801268
237	0xbe210a2b	-0.15726535
238	0xbe08986f	-0.13339399
239	0xbe175bce	-0.14781114
240	0x3ca6ded0	0.020369917
241	0xbd2ff36c	-0.042956755
242	0xbde8fdc1	-0.11376525
243	0x3de5fce4	0.11229876
244	0x3d3ef3e0	0.046619296
245	0xbd23965c	-0.039938316
246	0xbdf35087	-0.11880594
247	0x3e1ffd6c	0.15624017
248	0xbe17c6f4	-0.14821988
249	0xbd673f98	-0.056457132
250	0x3e042c3a	0.12907496
251	0x3e0bf8c6	0.13669118
252	0x3d10dbfc	0.035366043
253	0x3d134bc0	0.035960913
254	0xbdcbb51f	-0.099466555
255	0x3db030b8	0.08603042

transformer_encoder.encoder.feed_forward.fc1.bias f4 [256]
0	0x3dc28950	0.094988465
1	0x3bfa8280	0.0076449513
2	0x3e1e66fa	0.1546897
3	0x3cd75240	0.026284337
4	0xbd4557e4	-0.048179522
5	0xbe176cc1	-0.1478758
6	0xbe2c341e	-0.16816756
7	0x3dfc46cc	0.12318191
8	0x3e2235a6	0.15840778
9	0x3e2a1160	0.1660819
10	0x3e317ec8	0.1733352
11	0xbde678f8	-0.11253542
12	0x3da357a8	0.079757035
13	0x3dace90c	0.08442888
14	0xbdb666cc	-0.08906326
15	0xbd604054	-0.054748848
16	0x3e023c56	0.12718329
17	0xbde6db9b	-0.11272355
18	0x3dfbcee0	0.12295318
19	0x3d8a50cc	0.06753692
20	0xbd84b920	-0.06480622
21	0xbe044ed2	-0.12920693
22	0x3d608a30	0.054819286
23	0xbe158872	-0.14602831
24	0x3e075626	0.13216457
25	0xbe26d65f	-0.16292714
26	0x3c5e7c00	0.013579369
27	0xbe1228ae	-0.1427333
28	0x3d7d10ac	0.061783478
29	0x3bf705a0	0.0075385123
30	0x3e2f9908	0.1714822
31	0xbdaff918	-0.08592433
32	0x3d862ee6	0.06551914
33	0x3e2d36b8	0.16915405
34	0x3cc8e518	0.024523303
35	0xbd7fbdb0	-0.06243676
36	0x3dfdc754	0.123915344
37	0xbe165888	-0.1468221
38	0x3e052ec8	0.13006127
39	0x3de55b00	0.111989975
40	0xbe39144b	-0.18074147
41	0xbd57f6cc	-0.0527256
42	0x3e181ab0	0.1485393
43	0xbdf8fb22	-0.12157275
44	0xbe0300ba	-0.12793246
45	0x3da469b0	0.08027971
46	0x3da58d94	0.080836445
47	0xbe1fa69b	-0.15590899
48	0x3dfe7d18	0.124262035
49	0xbe18c833	-0.1492012
50	0xbd28ad84	-0.041181102
51	0xbe1a89b4	-0.15091592
52	0xbe208f88	-0.15679753
53	0xbdcdc142	-0.100466266
54	0xbd78c79a	-0.06073723
55	0x3dd77544	0.105204135
56	0xbda5f578	-0.0810346
57	0xbda27a82	-0.07933523
58	0xbe058401	-0.13038637
59	0xbd853962	-0.065050855
60	0xbdc71ae1	-0.097219236
61	0xbe05fa4a	-0.13083759
62	0xbdd32253	-0.10309281
63	0x3c74e9e0	0.014948338
64	0x3e28e034	0.16491777
65	0x3e19f7ba	0.15035906
66	0xbdc4b143	-0.096041225
67	0x3dbed6cc	0.09318313
68	0x3db8a7a4	0.0901635
69	0xbcb85568	-0.022501662
70	0x3e0b600c	0.13610858
71	0x3e0015da	0.12508336
72	0xbd94512a	-0.07242043
73	0xbdb1637e	-0.08661555
74	0x3ded731c	0.11594221
75	0xbd87b752	-0.066267624
76	0xbdc62e26	-0.09676771
77	0xbdb87490	-0.090066075
78	0xbc2de150	-0.010612801
79	0xbd764b5a	-0.060130455
80	0x3dd4f8ac	0.10398993
81	0x3d7c91c8	0.061662465
82	0x3e178ee6	0.14800605
83	0x3e0a3b4c	0.13499182
84	0xbe1fbce0	-0.15599394
85	0xbd3c8714	-0.046027258
86	0x3d3bfa10	0.045892775
87	0xbda9bb92	-0.08287729
88	0x3e323b80	0.1740551
89	0xbdda5bc4	-0.10662034
90	0xbda0c96b	-0.078509174
91	0x3cde46f0	0.027133435
92	0xbdfc1af2	-0.12309827
93	0xbde0b1c7	-0.10971408
94	0xbd1fbc58	-0.038997978
95	0xbd28f3fc	-0.041248307
96	0xbd1bbec0	-0.03802371
97	0xbcaeda38	-0.02134429
98	0xbe35fcf0	-0.17772269
99	0x3bb52800	0.00552845
100	0x3d63c860	0.055611014
101	0x3d109494	0.035297945
102	0x3dd85d28	0.10564643
103	0x3d8b21d8	0.067935646
104	0x3e09bc54	0.13450748
105	0x3dc79c44	0.09746602
106	0x3cf1c300	0.029511929
107	0xbd929bfb	-0.07158657
108	0xbc107f70	-0.008819446
109	0xbde3ea37	-0.11128657
110	0xbe33a59d	-0.17543645
111	0x3e2c9e6e	0.16857311
112	0x3d7194c0	0.05897975
113	0x3e2bead8	0.16788805
114	0xbe045085	-0.12921341
115	0x3dbe96a4	0.09306076
116	0x3d6c0e68	0.057630926
117	0x3d9144a4	0.0709317
118	0xbd8f9f76	-0.07012837
119	0x3e0179b4	0.12644082
120	0xbd31c8e8	-0.04340449
121	0xbd428f04	-0.04749967
122	0x3d00c6d8	0.031439632
123	0xbdf37ec6	-0.118894145
124	0x3d16e5a8	0.03684011
125	0xbe3952d8	-0.18098009
126	0xbd8e85e6	-0.06959133
127	0x3d9f2618	0.07770938
128	0x3b592f00	0.0033139586
129	0xbd30ca10	-0.04316145
130	0xbc9e16e8	-0.019298032
131	0x3e14bc8c	0.1452505
132	0x3e1a692e	0.15079185
133	0xbc87ebb8	-0.016591892
134	0x3dff31c4	0.12460664
135	0xbd79dc9e	-0.061001413
136	0xbd84ccd8	-0.06484383
137	0x3e1cd438	0.1531533
138	0x3de36990	0.11104119
139	0x3d124344	0.03570868
140	0xbdc433cd	-0.09580193
141	0x3c44ec30	0.012019202
142	0xbdafb736	-0.085798666
143	0x3e1f7ca8	0.15574896
144	0xbd6e1f94	-0.058135584
145	0xbe28d2a6	-0.16486606
146	0xbe07a553	-0.1324666
147	0x3d8c12b4	0.06839505
148	0x3e066b28	0.13126814
149	0xbdddaada	-0.10823603
150	0x3e0b6292	0.1361182
151	0x3e0a9bae	0.1353595
152	0x3e0577b6	0.13033947
153	0x3e0679c6	0.1313239
154	0x3cd9a060	0.02656573
155	0xbe082711	-0.13296153
156	0xbd8891e2	-0.0666845
157	0xbd9824f3	-0.074289225
158	0xbe087c3b	-0.1332864
159	0xbdcfbf36	-0.101438925
160	0x3cb42ea0	0.021994889
161	0x3dfdfa9c	0.124013156
162	0xbd7f4bf8	-0.06232831
163	0x3e323f7e	0.17407033
164	0xbd816008	-0.06317145
165	0x3e1b6fe4	0.15179402
166	0xbe0e9052	-0.13922241
167	0xbdb991f3	-0.09061041
168	0x3c0a9f20	0.00846079
169	0xbe081ba0	-0.13291788
170	0x3e33a340	0.17542744
171	0x3d503518	0.050831884
172	0xbe01755a	-0.12642422
173	0xbdbc713f	-0.092012875
174	0x3dd8436c	0.10559735
175	0xbd1d8a38	-0.038461894
176	0xbdf4d8db	-0.119554244
177	0x3e0c64f2	0.13710383
178	0xbd9b8d27	-0.07595282
179	0xbd38b868	-0.04509774
180	0xbdb68cc6	-0.08913569
181	0x3e389c66	0.18028411
182	0x3d6a85f0	0.05725664
183	0xbe140628	-0.14455473
184	0xbd5488c0	-0.051888227
185	0xbd76c1b0	-0.06024331
186	0x3dc6bfd0	0.09704554
187	0xbe0ebbce	-0.1393883
188	0xbca611b8	-0.02027212
189	0x3df973ac	0.12180266
190	0x3e155b04	0.14585501
191	0x3dbc57a4	0.091964036
192	0x3e27dd7e	0.16393086
193	0xbd0bee38	-0.03416273
194	0x3d273b00	0.04082775
195	0x3d89ec1c	0.067344874
196	0xbdbc34b3	-0.09189739
197	0x3d113ec4	0.03546025
198	0x3de39564	0.111124784
199	0x3cf60210	0.03003028
200	0x3d0971a0	0.033555627
201	0xbddda214	-0.108219296
202	0xbd6d0546	-0.057866357
203	0xbdec8741	-0.11549235
204	0x3da94e44	0.08266881
205	0xbe2ecf73	-0.17071323
206	0x3df83f60	0.12121463
207	0xbda70d7e	-0.0815687
208	0x3d5b62a8	0.053560883
209	0x3d8e0068	0.06933671
210	0xbd8f8f80	-0.07009792
211	0xbd8b8d20	-0.06814027
212	0x3e1cc96e	0.15311214
213	0xbd8319d3	-0.0640141
214	0xbdcd501b	-0.100250445
215	0xbd25bcc8	-0.04046324
216	0xbe156874	-0.14590627
217	0xbc3d6e90	-0.011562005
218	0xbe0fc55d	-0.14040132
219	0xbcbdcb98	-0.02316837
220	0x3cf08b40	0.029363275
221	0xbe341ee4	-0.17589909
222	0xbcf7ff08	-0.030272976
223	0xbd724c7c	-0.059154972
224	0xbd908dbf	-0.07058286
225	0x3d99b5bc	0.07505366
226	0xbdd6a7ab	-0.10481199
227	0xbcf79778	-0.030223593
228	0x3e0f15ba	0.13973132
229	0xbda07647	-0.078350596
230	0xbce76f80	-0.02825141
231	0x3dae095c	0.08497879
232	0x3d9411c0	0.07229948
233	0xbdb47282	-0.08810903
234	0x3da33e2c	0.07970843
235	0xbdea4348	-0.11438614
236	0x3dde92c0	0.10867834
237	0xbde1546a	-0.11002429
238	0x3df71fec	0.120666355
239	0x3e18b1f4	0.14911634
240	0xbc191fe0	-0.0093459785
241	0xbe037498	-0.12837446
242	0xbd78d8d0	-0.060753644
243	0x3e12dfe8	0.14343226
244	0xbe090c4b	-0.13383596
245	0x3e13234e	0.14368936
246	0x3dfe3f80	0.124144554
247	0xbe00aff1	-0.12567116
248	0xbd9fb8c1	-0.07798911
249	0xbe194ea6	-0.14971408
250	0x3e0cef76	0.13763222
251	0xbddb5c7f	-0.107110016
252	0xbd064418	-0.032779783
253	0x3d8e1ad4	0.06938711
254	0xbc1c24e0	-0.009530276
255	0xbe06346a	-0.13105932
