simple2transformer/param/net_param/Mk06_50_75_actor_net.model (torch, 111487 bytes, 34 tensors)

transformer_encoder.encoder.attention.fc_Q.weight f4 [20, 20]
00000000: 204a 073e aaf0 57be d008 0f3e 3873 d23d
00000010: 2c3d b13d 80dc 6d3b e176 27be 7847 a93d
00000020: 4066 923b 6ef3 09be 940c 263e 4869 283e
00000030: 3645 413e 702c 0cbc 687a ccbc a806 94bc
00000040: d0d1 843d 5875 343e 020c 523e ee6a 49be
00000050: 40a3 403b a03a d0bc 18b9 4d3d ea8f 4c3e
00000060: 2056 883c ea39 503e 40df 613e 3c72 53bd
00000070: e09f 213c d806 d13c 8403 d3bd 3ca2 31be
00000080: e496 1f3e 9a46 61be 530c fbbd 6a28 1abe
00000090: 882a 6a3d 46e9 113e f886 aebd 7e5d 623e
000000a0: b605 b4bd 7228 27be a049 013c 10e2 4e3e
000000b0: f295 0cbe 4caa 293e a176 f7bd 20e2 e73d
000000c0: 2288 04be 3897 8d3c ae0a 32be 001f 6e3d
000000d0: baeb 00be dabe 94bd 68c1 443e 1863 9dbc
000000e0: 8209 4a3e e0cd 193d e0e0 4fbe 70af 903d
000000f0: a880 c13d 76fc 383e 0054 4abe e0a9 523d
00000100: 1e4b 02be 5aca 633e 9049 133d f411 383e
00000110: e0f9 3e3d 1cbd a43d 9884 f93d 9077 5a3d
00000120: 545a 27bd 845e d93d 8a73 0c3e f807 ae3d
00000130: f5f0 f9bd 4c29 2a3e 009d ab3d d071 393e
00000140: 3554 01be 7069 103d 66c3 343e c0d8 6bbc
00000150: aa07 0d3e 8141 57be 72d0 91bd c8af 23be
00000160: d0da f3bc 30ac e73c 34f9 3fbd a44d a6bd
00000170: 820a 55be 36e7 0abe 5038 4fbd c0f0 413b
00000180: f41e 933d 5a11 5d3e 2010 853d b82d de3d
00000190: ee89 acbd 9191 5cbe 9015 36be eee5 1a3e
000001a0: c037 3a3e 04d5 883d a208 e4bd f86f 4b3e
000001b0: 088d 39be 6062 45be c04f 143e e06e 61bd
000001c0: d0a5 6d3d e0ed 223d 588a 7c3d e2c3 4f3e
000001d0: 004f c6bb ef27 11be 3dc4 25be 97db 5abe
000001e0: d048 fc3c f743 2dbe bee0 aabd 5c1a 2abe
000001f0: 40ee 5d3c 989b bb3c 7fa9 dfbd 1050 543d
00000200: 51e1 3dbe 589a 513d 8272 1b3e 581c a53d
00000210: 5cf0 aa3d d0ee 9d3d d090 5c3d 80b6 beba
00000220: d2ab cabd 5ee2 40be 0825 54bd c8cd ec3d
00000230: 3467 d63d 5694 53be b7e0 0fbe b721 14be
00000240: 10c6 553c 600d 203e 1017 8e3c 302f 05be
00000250: 34e7 42bd b0b9 dc3c 808f 753d 28bc 203d
00000260: f2ec 14be 16f1 5fbe 64fa bf3d 2425 233e
00000270: 7ccf fb3d 342c ae3d fcc3 4ebd 1ebf 91bd
00000280: 0818 ab3d c805 00be d560 5fbe 43c6 09be
00000290: 388d 02bd d039 053e 805b efba e8eb e63d
000002a0: 223c 113e 6244 f6bd 1535 d7bd 706f b13c
000002b0: 5387 e5bd 2cde 0a3e 50bf b3bc 9109 53be
000002c0: 80d2 a53a 20e5 2d3c ba7b 9abd e0d0 313e
000002d0: eef4 413e 5893 5f3d 38dd ab3d 067c 4f3e
000002e0: 3c72 ad3d a853 99bc 986f 093d a029 e83b
000002f0: 9033 e1bd 3cf3 aabd fbb0 41be 285c 53bd
00000300: 08cf b33c a0c6 ad3c 2720 d4bd a0e1 65bc
00000310: 06d0 043e c8f4 debd 08aa cd3d d437 63be
00000320: 038e 33be bdb6 48be f902 3cbe 30e4 afbd
00000330: f819 023d 44e5 3dbd 96b8 0fbe 9aa9 98bd
00000340: f8b5 16be f2d8 0a3e b092 2a3e 881e e3bc
00000350: c4a4 09bd ee47 2cbe d058 6ebd 366a 213e
00000360: fc53 03bd dcf2 023e 30d2 5b3e 502d 29bd
00000370: 7067 b1bd a487 a6bd 50a7 0c3c 128c 643e
00000380: db38 febd e080 d73d 648e cbbd 5e4c 1b3e
00000390: 840e d63d e0bb 0f3d e6d9 80bd a0a9 233c
000003a0: d4be 873d fe8c 233e 0075 843d db50 29be
000003b0: 58e3 623e 1d24 cebd c917 fbbd 46ed 593e
000003c0: 99ad ccbd f489 193e ce14 353e de34 1a3e
000003d0: 00ad 1b3b 6062 1f3d 989f e73d c843 473e
000003e0: 7af3 313e 6885 343e 3839 553d c87f 2ebe
000003f0: 2814 83bc 3a27 3c3e 2c7d 8ebd 1a9d 32be
0.1321187 -0.210879 0.13968205 0.102758825 0.08654246 0.0036294758 -0.16353942 0.08265585
0.0044677556 -0.13471767 0.16215736 0.16446412 0.18874058 -0.008555517 -0.024960712 -0.01806958
0.06485331 0.17622888 0.20512393 -0.19669697 0.002939418 -0.02541858 0.050225347 0.19976774
0.01664263 0.20334592 0.2205782 -0.051622614 0.009864777 0.025515959 -0.10303405 -0.17347044
0.15584904 -0.21999589 -0.1225821 -0.15054479 0.057169467 0.14249143 -0.08521837 0.22105977
-0.08790152 -0.16324022 0.007891089 0.20203424 -0.13729075 0.1656887 -0.120831735 0.11322427
-0.12942556 0.01728402 -0.17386886 0.058135033 -0.12589923 -0.072629645 0.19214404 -0.01921229
0.1973019 0.037549853 -0.20300627 0.07064712 0.09448367 0.18065056 -0.19758606 0.051431537
-0.12723967 0.2224516 0.035958827 0.17975599 0.046625018 0.08043882 0.121834934 0.05333668
-0.040857628 0.106137305 0.1371595 0.08497614 -0.12204162 0.16617316 0.08379555 0.18109822
-0.12629779 0.035256803 0.17652664 -0.014394939 0.13772455 -0.21021082 -0.07119836 -0.15985024
-0.029767424 0.028280348 -0.046868518 -0.081202775 -0.2080479 -0.13564762 -0.050590813 0.002959296
0.07183638 0.2158865 0.06497216 0.10848564 -0.084247455 -0.21539904 -0.17781663 0.15126774
0.1818533 0.066812545 -0.11134459 0.19866931 -0.18120205 -0.19275808 0.14483547 -0.05503738
0.05801946 0.039777637 0.061655372 0.20289567 -0.006051898 -0.1417539 -0.1618814 -0.2137283
0.030796438 -0.16920458 -0.083436474 -0.16611618 0.013545573 0.022901341 -0.10921001 0.051834166
-0.18542983 0.051172584 0.151804 0.08062047 0.08346626 0.077115655 0.05384904 -0.0014550239
-0.098960534 -0.18836352 -0.05179313 0.11562687 0.10468903 -0.20662054 -0.14050566 -0.14465986
0.01304771 0.15630102 0.017344981 -0.13006282 -0.047583774 0.026944011 0.059951305 0.03924194
-0.14543512 -0.2186931 0.0937393 0.15932137 0.12295434 0.08504525 -0.050479874 -0.07116531
0.08354193 -0.12502205 -0.21814282 -0.13454537 -0.031872958 0.13010335 -0.0018261522 0.11275464
0.14183095 -0.12024762 -0.105081715 0.021659583 -0.11207452 0.13561314 -0.02194181 -0.20609118
0.0012651235 0.01061371 -0.0754313 0.17364836 0.1894109 0.054583877 0.083918035 0.20262155
0.08469054 -0.018716648 0.03355369 0.00708504 -0.10996163 -0.083471745 -0.18915169 -0.05160156
0.021949306 0.021212876 -0.10357695 -0.014030844 0.1296998 -0.10886532 0.100421965 -0.22189265
-0.17534642 -0.19600959 -0.18360509 -0.08588445 0.031763047 -0.046361223 -0.14035258 -0.07454224
-0.14717853 0.1355932 0.1665752 -0.02772452 -0.0336044 -0.16824314 -0.058190167 0.15763173
-0.032062516 0.12787956 0.21466899 -0.04130298 -0.08662307 -0.0813134 0.008584812 0.22319058
-0.12413188 0.10522628 -0.09939268 0.1516585 0.104519874 0.03509128 -0.06291561 0.009989172
0.066281945 0.15971753 0.064676285 -0.1653475 0.22157037 -0.10065482 -0.12260396 0.21281919
-0.099940486 0.14994031 0.17683718 0.1505923 0.002375424 0.038912177 0.11309737 0.1945945
0.17378035 0.17629015 0.05205652 -0.17040932 -0.016000822 0.18374339 -0.069574684 -0.17442742

transformer_encoder.encoder.attention.fc_Q.bias f4 [20]
00000000: c8c1 27be a5d9 4dbe fe40 3cbe 6641 b3bd
00000010: bacf 8dbd 2063 bebd 30ed ebbd 1cd8 4ebe
00000020: a0d7 503d 4c73 e93d 0c18 d73d 7118 3abe
00000030: 791f 38be 68b6 dd3d 78ab 803d 780e 323d
00000040: 8980 26be 7485 5fbe c062 e43d 525f c5bd
-0.16382515 -0.20102556 -0.18384168 -0.08752708 -0.06924386 -0.0929625 -0.11519849 -0.20199627
0.050986886 0.11398944 0.105026335 -0.18173386 -0.17980756 0.10825807 0.06282705 0.04347083
-0.1625997 -0.21828252 0.111516476 -0.096373215

transformer_encoder.encoder.attention.fc_K.weight f4 [20, 20]
00000000: 8035 673b 13fc 42be bc97 e83d 7c3c d13d
00000010: 7cba 76bd 60f5 b3bd 7c89 103e c0b4 5a3e
00000020: ca1e 06be 6059 ee3b 9899 a13c 28a9 a03d
00000030: 8c26 df3d 4d68 f5bd 64bf 42be 4446 3b3e
00000040: f062 94bd acc6 5dbe 401f b63d fa6c 5fbe
00000050: f8e8 2fbe 6a3c 313e f8e6 573e 6044 15bc
00000060: 400f b9bc 5a57 0bbe 5c25 5fbd b049 743c
00000070: 647f b63d 5c7c b1bd a4a4 063e 98e8 353e
00000080: 3053 ef3d 0adb 643e 7afa 473e 66d7 03be
00000090: 2c12 40be 54aa 53be 8cef 50be 1ac4 2abe
000000a0: babd 353e 70fa 8e3d ef16 f4bd acb4 343e
000000b0: a0d1 e53d 7abf 3bbe 9469 3ebd 2829 113e
000000c0: ca2f 94bd b672 2fbe f098 5a3c 045b 0ebd
000000d0: b8ca 93bd dc84 d43d fc19 473e 6819 c6bc
000000e0: f092 323d f81a 793d c476 a0bd 342c d93d
000000f0: 308d 5a3e 6821 42be c873 dbbd 8676 0a3e
00000100: 0cfc 813d a2fd 09be 5c57 5f3e e450 0cbd
00000110: a050 553d 388f d13d 2876 8a3d b2a8 15be
00000120: a49f 013e c0aa 26bc e0ec 12bd b3be 58be
00000130: e818 22be b844 033d 0873 e23d ce8f ebbd
00000140: be71 613e 26ae 59be 527a 24be 047a 30bd
00000150: 7cad ff3d be94 c1bd d8d3 7c3d 0090 9ebb
00000160: 8971 edbd fa2b a5bd b85c c13c a470 083e
00000170: a697 f4bd f60b 623e a8f9 143e 0068 45bb
00000180: 40f9 103b 8ccb 6dbd 40b7 273d f062 783c
00000190: 6c72 46bd 10b3 ee3d dc72 4cbd e6c3 323e
000001a0: c8fb 21be 6c8d 143e 5cec 5c3e 1a0c 3bbe
000001b0: 0805 4fbe eed1 10be 4a46 1cbe aa7d 59be
000001c0: 88c7 2c3d 007b 3cbc 0026 1f3b 3a19 263e
000001d0: cebf 303e 9878 05bd 485e a1bd 4bc5 38be
000001e0: 30fa 773d b2a2 3cbe 7481 5e3e 9c63 24be
000001f0: 4452 163e e622 183e 82e6 64be a0ff b8bd
00000200: 6036 b53b 1088 3abe 286e 443e f41c 203e
00000210: c0c5 79bb b029 b7bc f8a7 28be 99a6 4dbe
00000220: f033 cb3d 30fa d83d 080d 703d 7860 01be
00000230: b85d bdbd 42cc f8bd bc1d 38bd 5663 42be
00000240: 3859 b53d 90be 79bc 6829 acbc 005e 7bba
00000250: 48bd 7c3d c42c 5d3e 9c92 20be 9890 3abe
00000260: 0049 513d 58de f03d a339 31be 1c92 303e
00000270: 7019 7e3d 2033 1dbd 1c59 923d e48c 5dbe
00000280: 7061 15bd 38ec ce3d e867 5abd 58ab 233d
00000290: 3c22 18bd 84d9 9e3d a00f 4abd 902a 003e
000002a0: 0279 0dbe 404c 10bb 1653 123e d023 273c
000002b0: 089b 4cbd e079 b93d 00f5 e03b 10cf ba3c
000002c0: 10cb 863c 8977 49be 9e42 303e 440d f33d
000002d0: f461 633e 82b0 393e 8052 093b eaf2 23be
000002e0: 8cd8 843d 50c7 e83c c485 72bd 180b 26bd
000002f0: 766b c8bd 309c a33d 7c3d 84bd 4ce6 3e3e
00000300: ece7 5e3e 30f5 c1bc 5086 493e 0afc 353e
00000310: 54ba 1dbe c6dd 3dbe 2cd3 f6bd 9056 b63d
00000320: 3c1e 84bd 781c 69bd 4c67 55be 1859 373e
00000330: 3843 91bc ee77 223e 3884 0fbe e281 043e
00000340: e28d 563e 208f adbc 68e4 27be e670 05be
00000350: 060e 1bbe 100c 8e3c ea0e 063e 0cd1 35bd
00000360: 369b 20be 129d 493e a36e 5abe 465a b5bd
00000370: 60a3 aa3d b8cb cc3d aad0 45be 1497 65bd
00000380: a0e2 d8bb 224e 4bbe f005 e4bd 90c7 003c
00000390: a0a3 cf3b 46ad 2fbe 84c5 623e 78c4 0fbe
000003a0: a425 9d3d 9af9 37be 2c38 b53d 38f7 d73d
000003b0: 7ca0 71bd f433 babd 043e 46bd 72dd 9dbd
000003c0: b66b 083e 0a1e 633e a420 103e 84d7 06bd
000003d0: 5052 2d3c ea5d 0dbe 50d1 f23d 8c37 4f3e
000003e0: ec9f b73d 5c02 4abd 2e33 2abe 30be 08bc
000003f0: a87c ee3d d4e0 24bd 59cf 29be 2ef5 273e
0.0035279691 -0.19041471 0.11357066 0.102166146 -0.06023644 -0.08787036 0.14114946 0.21358013
-0.13097683 0.007273838 0.01972656 0.07844764 0.10896024 -0.119827844 -0.19018322 0.18288523
-0.07245433 -0.21657819 0.08892679 -0.21818915 -0.17178714 0.17308202 0.21084201 -0.00911054
-0.02259028 -0.1360754 -0.054478988 0.014910147 0.089110166 -0.08666298 0.13148743 0.17764509
0.11685789 0.22349182 0.19529143 -0.12875137 -0.18756932 -0.20670444 -0.2040388 -0.1667637
0.17748156 0.06981361 -0.11918437 0.17647046 0.112216234 -0.18334761 -0.046487406 0.14175856
-0.072356775 -0.17133602 0.013342127 -0.034754768 -0.072164 0.103769034 0.19443506 -0.024182037
0.04359716 0.060816735 -0.07835153 0.10604134 0.21342921 -0.18958056 -0.10715443 0.13521776
0.06346902 -0.1347566 0.21810669 -0.03425683 0.052078843 0.10232395 0.06760818 -0.14615133
0.12658554 -0.010172546 -0.035870433 -0.21166496 -0.15829813 0.032047957 0.11057097 -0.11502038
0.22016045 -0.21257839 -0.16062286 -0.043085113 0.124842614 -0.094521984 0.061725467 -0.0048389435
-0.11593921 -0.080650285 0.023603782 0.13324219 -0.11942987 0.22074875 0.14548361 -0.0030121803
0.002212122 -0.058055446 0.040946245 0.015160307 -0.048448965 0.11655247 -0.049914226 0.17457542
-0.15818703 0.14507073 0.21574539 -0.18266335 -0.20216763 -0.14142582 -0.15261188 -0.21239343
0.042182475 -0.011503935 0.0024284124 0.1622056 0.17260668 -0.03258571 -0.07879311 -0.18044011
0.06054133 -0.18421438 0.2172907 -0.16053623 0.1467982 0.14857063 -0.22353557 -0.090331316
0.0055301636 -0.18215966 0.19182646 0.15636045 -0.0038112253 -0.022358745 -0.16470325 -0.20083083
0.09922016 0.105945945 0.058606178 -0.12634456 -0.09246391 -0.12148334 -0.044950232 -0.18983206
0.08854908 -0.015243188 -0.021015838 -0.0009588897 0.06170395 0.21599108 -0.15680927 -0.1821922
0.05109501 0.11761159 -0.17307143 0.17243236 0.062035978 -0.038378835 0.071459025 -0.21635777
-0.036469877 0.10103649 -0.05332175 0.039958328 -0.037142023 0.077563316 -0.049331307 0.12516236
-0.13815692 -0.0022018105 0.14289507 0.010201409 -0.049952537 0.09056449 0.006865144 0.022803813
0.01645425 -0.19674505 0.17212912 0.118677646 0.22205335 0.18133739 0.0020953715 -0.16010633
0.064866155 0.028415352 -0.0592096 -0.040537924 -0.097861215 0.07988775 -0.0645704 0.18642539
0.21768159 -0.023676485 0.19680142 0.17771927 -0.1540311 -0.18541631 -0.120519966 0.08903229
-0.06451079 -0.056911916 -0.20840186 0.1790508 -0.017732248 0.15866062 -0.14015281 0.12940171
0.20952561 -0.021186411 -0.16395724 -0.13031349 -0.15142068 0.017339736 0.13091627 -0.044388816
-0.15684208 0.19688824 -0.21331267 -0.08855109 0.083319426 0.09999794 -0.1931788 -0.056052282
-0.0066188127 -0.19854024 -0.11133945 0.007860079 0.0063366443 -0.17155942 0.22145659 -0.1403979
0.07673195 -0.17966309 0.088486046 0.105452 -0.05899094 -0.090919405 -0.048398986 -0.07708253
0.13322338 0.22179428 0.14074951 -0.032920375 0.010578707 -0.13805357 0.118563294 0.20236033
0.089660496 -0.049318656 -0.16621086 -0.0083461255 0.1164487 -0.040253475 -0.16583003 0.16402122

transformer_encoder.encoder.attention.fc_K.bias f4 [20]
00000000: 3425 5abd 388a a8bc c433 063e 20eb fa3d
00000010: 4010 31bc e80d fd3d 679f 3abe 6ade 413e
00000020: de20 f3bd c077 db3c d815 6e3d 201b 41be
00000030: dc62 233e fa68 adbd c042 973d 60e3 abbd
00000040: 3ac6 2bbe 5a1f 64be 74d6 25be 5c48 21bd
-0.053258136 -0.02057372 0.13105685 0.12251878 -0.010807097 0.12356168 -0.1822487 0.189325
-0.11871503 0.0267905 0.0581263 -0.18858004 0.1595568 -0.08467288 0.073857784 -0.08392978
-0.16774836 -0.22277585 -0.16195089 -0.039375648

transformer_encoder.encoder.attention.fc_V.weight f4 [20, 20]
00000000: 5056 a0bd 2360 46be ce5f 103e 06a7 b7bd
00000010: 2f2b 20be f359 54be b0e9 0e3e 1007 e33c
00000020: 0085 533d b78f 2fbe 1837 ca3d 5357 61be
00000030: dc36 04be d62b 183e 0c29 c33d 9092 acbc
00000040: bb41 e7bd 7040 4d3d 441f c53d d864 7f3d
00000050: 8406 45bd 3f9f 2abe 54ed 16be fefa 0abe
00000060: 4639 463e b8ca b93d 98a7 583d 1717 f6bd
00000070: d8fb 613d 0ce5 2fbe ea4a 84bd c84e 8d3c
00000080: 4816 c1bc 368c 423e 94a4 843d e48f fbbd
00000090: 188b 8b3c b462 12bd 2c7f 5d3e 0ca4 113e
000000a0: a0f0 ba3d 486a 483e 10ef 273e e4a7 e33d
000000b0: aa18 50be 8690 243e 0833 df3d 025c 343e
000000c0: 4481 3fbe fc4d 53bd da2f 353e f809 123d
000000d0: 9872 57bd 289b 9f3c bf19 e8bd 321b 433e
000000e0: c86c 34bd 9091 13bc 403b eebb c09c a43d
000000f0: aeac 2c3e 90af 1b3d 4e61 3bbe 6edb afbd
00000100: 2852 bdbd 6400 be3d d08c 87bc f203 5b3e
00000110: 78d0 46be d08a a6bd 688a 2e3e 5a24 89bd
00000120: 79b1 24be 8ca8 50be 4003 1c3e cae1 16be
00000130: 4acc 4e3e 06f0 4bbe ca2c 303e 6033 59bd
00000140: 7846 febd 1cf8 323e 84c4 41bd 00c3 0f3b
00000150: fc68 11be 3c81 b1bd e6a7 36be a0c7 da3d
00000160: e466 533e 3ea7 54be 185f 213e 4071 50bd
00000170: 7612 593e 384b e0bd a873 34bd ca9d 243e
00000180: e478 de3d f0f5 54be ad32 4fbe 5fbb 4fbe
00000190: 0e26 4a3e e00d 803b acba 4fbd a0df c2bc
000001a0: 3002 043e b652 3a3e 1824 1f3d b09c 2e3d
000001b0: 2f32 fabd 0c9f cbbd a6e1 1b3e 2cfa 7cbd
000001c0: 243b 513e 1c85 d33d cc27 08be 2d0a e6bd
000001d0: a639 3ebe 3efc 1e3e 506f d33c 9a2c a4bd
000001e0: 10fa 733c 40fb 6ebc 260b 63be a8ce a53c
000001f0: fc88 70bd 50eb be3d 78c4 25be 9f0f e4bd
00000200: e8e1 353d 7c9a 463e ac66 11be 9222 19be
00000210: f0b8 32bd e604 3f3e 74d7 2e3e 5806 ce3c
00000220: e856 33be 2405 523e 70cc 4cbe 4866 ae3d
00000230: 0060 61bd 20be afbb 17e6 0cbe bc64 9c3d
00000240: ced3 2dbe 80df 2d3d 5836 f83d e4d6 2b3e
00000250: 4006 8c3d 4c57 153e d483 a43d f0a7 edbc
00000260: 868c 2dbe 007d 41be 244c 263e 70e3 fcbc
00000270: 6eef 233e 3022 ee3d 64dd 14be bb60 02be
00000280: a055 953b f798 d9bd c3ca 56be ae4b 343e
00000290: 041d 113e d8c8 293d b072 1d3d efa6 0cbe
000002a0: f02f 58be 2099 1ebe 34f8 373e aeed 0cbe
000002b0: 44dc 423e b0d2 6b3d 6079 d8bb 00c4 1e3b
000002c0: c077 4e3b d81d c73c 2424 27bd d00c db3d
000002d0: 409c 9c3d 882e 84bc 6444 573e a0b7 6f3d
000002e0: 44c7 a03d 4168 32be 9d94 dcbd e41c 6cbd
000002f0: 0a21 5fbe 6c30 e93d ce51 56be a890 a43d
00000300: 6c02 be3d 5435 bfbd da51 bebd 66f0 633e
00000310: 0a94 1d3e 0429 b4bd 7609 29be 7af5 423e
00000320: d8f7 a63d 5a12 203e 38d9 e03d c2c3 48be
00000330: e992 0ebe 2c4d 2fbe ccd1 05bd aa12 263e
00000340: 369e 38be 92e0 0cbe 0c04 cf3d 80e2 20bb
00000350: f0f5 dcbd 30a6 ec3d 3a2c f2bd 0893 49bd
00000360: b047 663c b08a 333d a03d edbb 5856 76bd
00000370: 4098 053d 10d3 2e3e b502 62be 48a3 b63c
00000380: 71f6 28be 4218 5bbe 8e89 093e 28c4 0cbe
00000390: 50c0 ab3c e075 453e 9c93 3cbe 62f0 5b3e
000003a0: f0a6 14be 0494 923d 1c24 d93d 32c8 11be
000003b0: 5009 c2bd 36ec 28be afc8 54be cc04 0e3e
000003c0: 98dd 5d3d 784f 64bd 9452 7dbd 246f 053e
000003d0: 78c7 7abd 3cc1 c43d 9864 583e 843c c93d
000003e0: 306f ffbc dade 5ebe 7a9f 533e cccb 6bbd
000003f0: 1ce8 0bbe 5c4f 9c3d 4097 8a3b d0ad 08be
-0.07828963 -0.19372611 0.14099047 -0.08967404 -0.15641473 -0.20737438 0.13956332 0.027713329
0.05164051 -0.17144667 0.098737895 -0.22005968 -0.12911552 0.14860472 0.095293134 -0.02106598
-0.11291834 0.05011028 0.09625104 0.06235203 -0.048101917 -0.1666231 -0.14738971 -0.13572308
0.19357786 0.09071869 0.052894205 -0.12016123 0.055171818 -0.17177218 -0.06459601 0.01724948
-0.023570195 0.18998799 0.06476703 -0.12283304 0.017034099 -0.035738662 0.21630543 0.14222735
0.09127927 0.19571793 0.16399789 0.11116007 -0.20321909 0.16070756 0.10898405 0.17613223
-0.18701655 -0.051588044 0.17694035 0.03565404 -0.05259952 0.019483164 -0.11333036 0.19053343
-0.044049054 -0.009006873 -0.0072702467 0.0803771 0.16862747 0.038009226 -0.18298838 -0.08586775
-0.09244186 0.09277418 -0.016546637 0.21388224 -0.19415462 -0.08131945 0.17044985 -0.06696387
-0.16083325 -0.20376796 0.15235615 -0.14734569 0.20195118 -0.1991578 0.17204586 -0.05302751
-0.124157846 0.17477459 -0.047306553 0.0021936297 -0.14200205 -0.086672276 -0.17837486 0.10682607
0.20644718 -0.20766923 0.15758932 -0.050889254 0.21198449 -0.10951847 -0.04405561 0.16075817
0.10862902 -0.20796943 -0.20234175 -0.2028632 0.19741079 0.003907904 -0.050715134 -0.023788273
0.1289146 0.18195614 0.03885278 0.042629898 -0.12216603 -0.09942445 0.15222797 -0.06176202
0.20432717 0.10328123 -0.13296431 -0.112324096 -0.18576679 0.1552591 0.025809914 -0.080163196
0.0148911625 -0.01458627 -0.22172222 0.020240143 -0.05872439 0.09322226 -0.16188228 -0.11135792
0.044404894 0.19394869 -0.14199322 -0.14954594 -0.0436334 0.18654212 0.17074376 0.02514951
-0.17513621 0.20509773 -0.19999862 0.08515602 -0.055023193 -0.005363241 -0.13759647 0.07636401
-0.16975328 0.042449474 0.1211974 0.16781193 0.068371296 0.14584082 0.08032957 -0.029010743
-0.16948137 -0.1889534 0.16239983 -0.03087017 0.16009304 0.116276145 -0.14537579 -0.12732212
0.0045573264 -0.10624879 -0.20975785 0.17606995 0.14171225 0.041451305 0.038439453 -0.13735555
-0.21112037 -0.154881 0.17965776 -0.13762543 0.19029337 0.057573974 -0.006606266 0.0024225712
0.0031504482 0.024306223 -0.04080595 0.10695803 0.0764699 -0.01613547 0.21022183 0.058524728
0.07850507 -0.17422582 -0.10770533 -0.05764474 -0.21789947 0.11386189 -0.20929644 0.080354035
0.09277806 -0.093363434 -0.09292956 0.22259673 0.15388504 -0.087968856 -0.16507515 0.19038954
0.08152741 0.15632 0.10978931 -0.19605926 -0.1392323 -0.17119282 -0.03267078 0.16218057
-0.18029103 -0.13757542 0.10108194 -0.0024549067 -0.10789096 0.11555135 -0.11824842 -0.049212486
0.014055178 0.043833435 -0.0072400123 -0.060140938 0.0326159 0.17072701 -0.22071345 0.022294655
-0.1650026 -0.21395972 0.13431379 -0.13746703 0.020965725 0.19283247 -0.18415684 0.21478418
-0.14516807 0.07157138 0.106025904 -0.14236525 -0.094744325 -0.16496357 -0.2077968 0.13869017
0.054166406 -0.05573985 -0.06184633 0.13030678 -0.061225384 0.09607169 0.21132123 0.098259956
-0.031180948 -0.21764699 0.20666304 -0.057567403 -0.13662761 0.07632324 0.004229456 -0.13347554

transformer_encoder.encoder.attention.fc_V.bias f4 [20]
00000000: 5ae2 64be 4efc 4f3e 689c 35be cc1d 5bbe
00000010: d8fb c63d 12a8 52be 621c 21be 723f 403e
00000020: a4da cbbd 10ff 4a3d 5cf7 c43d 22a3 003e
00000030: 301a da3c ccc8 303e a8aa 983c 659d 13be
00000040: b865 5bbd aced 8cbd 4860 1e3e 4ad0 2c3e
-0.22351971 0.2031109 -0.17735445 -0.21398085 0.09716004 -0.20571926 -0.15733483 0.18774202
-0.09953812 0.049559653 0.096174926 0.1256223 0.026623815 0.17264098 0.018636063 -0.1441551
-0.053563803 -0.0688127 0.15466416 0.16876331

transformer_encoder.encoder.attention.fc.weight f4 [20, 20]
00000000: 1c16 14be f1dc d0bd 18bc a9bd c085 66bb
00000010: d8ec 1ebe a041 dcbd 0030 9dbc 2076 cd3d
00000020: b82f 03be 28ec ab3d 5b5d 02be 9840 6c3d
00000030: 88f4 133e 1519 fbbd 0ec1 39be 9a59 253e
00000040: 105c 213e 48c0 113d 90f8 0a3d 70e9 0a3e
00000050: 8c9e bebd a475 ba3d 98c2 81bc 7892 4f3e
00000060: 088c 623e 0c02 2a3e 285b 323d a61f 513e
00000070: ca1b 423e 0cd6 e83d 80b5 373b 42d6 613e
00000080: 48b8 fbbc 6ea9 5f3e 7836 ba3c d855 3d3e
00000090: d84c 123e 6a39 99bd 1e0e 293e d6c9 18be
000000a0: 48ee 153e 4690 c9bd 3ee9 06be b049 753d
000000b0: bcb6 03bd e6b5 13be 7223 e8bd 0062 ec39
000000c0: 9e0f 30be c47d bb3d 4eb9 3e3e 5476 033e
000000d0: 30ba 94bd 6f24 4abe 6658 573e b2f6 9fbd
000000e0: 5e08 36be 7cf1 033e 2c5c 1f3e a443 503e
000000f0: 8c01 4a3e 9416 53bd bcb9 1d3e 2076 abbd
00000100: 7202 4d3e d6ab 3a3e 3869 4b3d ec55 363e
00000110: 6a3f 9cbd 1bb4 d1bd 94ce 7cbd c846 8dbd
00000120: d08c 1fbe da34 153e 36c4 523e e0a3 49bd
00000130: 005d cb3d 02bf cabd 916f edbd 264f 3abe
00000140: a6a1 96bd 2ca7 443e 201e 073e 1eca 233e
00000150: a024 333e 65fe 61be d423 2dbe fc9f 75bd
00000160: dc0a e13d 853d 34be 0e9c 283e 703c 493c
00000170: c8ae e83d 2cdc c13d fd24 5ebe 2479 02be
00000180: e032 a93c e836 a93c 1466 38be 507e 543d
00000190: 2024 fabc 13a6 2ebe ca66 40be 4cc0 08bd
000001a0: 4ebc 483e 8078 863a 6bd2 50be 78c4 c0bd
000001b0: 2862 fc3d 4e0e 94bd e052 8c3b 8848 3bbe
000001c0: c8e5 fb3d 2ee8 4a3e 98e6 75bd 5856 463e
000001d0: b45c 0f3e 512b 5dbe c00e 46bc a6dd 60be
000001e0: e05c c63c 3832 0a3d feff 1f3e c22f c7bd
000001f0: 1ccc 9c3d 1823 623e 10a9 4e3e 72e5 453e
00000200: 4640 20be 583a 3cbd f26c 5a3e 4688 46be
00000210: 7c6c e53d c0b6 613d bc54 ea3d e08b 543d
00000220: d8e8 91bc 7eb7 1fbe e808 683d 00ab 27bb
00000230: 20a7 1cbd e863 053e a8ce 3dbe 1819 a13c
00000240: e0fb 36be 805f 993a a020 67bd e0eb 403e
00000250: e63b 3c3e 26fa 423e 2844 1fbe 820d 1f3e
00000260: ef4f 38be d010 c1bc da06 5bbe d815 a43d
00000270: e83e aa3d 489a eebc ac3c 1ebe a42c 373e
00000280: 448a a33d ccad 313e 5448 c23d 6df4 13be
00000290: 8c72 d23d 67bb 2bbe 1834 bcbd ccb4 ed3d
000002a0: 74a6 563e d8e6 cfbc a6ad 463e 40a3 823b
000002b0: c511 dabd c4f1 d53d 500f 56bd 6014 6d3c
000002c0: ea61 5a3e e05c 3b3d bc50 473e 14ac 1a3e
000002d0: 4676 1c3e 00d8 ee39 b270 11be 0e46 5f3e
000002e0: b0b3 51be 269a 1d3e 0028 f6bb 0aa1 273e
000002f0: 407d 15be d25a 5c3e ec54 8ebd 7edb 0b3e
00000300: 00a3 063d 44af 253e 2c69 3fbe 4e2f 3e3e
00000310: 01c8 4bbe 407f 3ebb a850 acbc ba87 383e
00000320: a4cf 4cbe 5fb4 23be 5873 ae3d 7326 5bbe
00000330: 6454 373e 103f 80bc 7c33 b7bd 7274 abbd
00000340: ca94 b4bd 906d 18bd 508f ff3c ea26 4ebe
00000350: 79c8 0bbe 9b8f 3fbe 6c1a e9bd f40c 5fbd
00000360: c2e5 123e e0e8 983b bc16 3ebe 7018 a7bd
00000370: b0c6 b73c 0ec3 cfbd 6a25 4e3e 22dc 8bbd
00000380: ec0c d53d b082 3a3d 3e78 643e b0c7 6c3c
00000390: a097 b9bd 38f6 64be 505f 9c3c a859 fbbc
000003a0: 88a4 223e 386f 39be 8c96 0f3e 98ca 873d
000003b0: fab1 92bd 9cc1 9f3d c059 36be 008b 47be
000003c0: 5c23 f93d 64d8 a83d be92 413e 44b7 32be
000003d0: be3c 5e3e d2d5 3dbe 80ca 5fbe 7b4f 1abe
000003e0: 2eaa 5bbe a6a7 253e e690 61be 5251 01be
000003f0: 20f7 c53c 68bc 583e a48a 16be 3cb5 bfbd
-0.14461559 -0.10198391 -0.08287829 -0.0035174936 -0.15520036 -0.107547045 -0.019187927 0.10032296
-0.12811172 0.083946526 -0.12730925 0.05767879 0.1444875 -0.122606434 -0.18140051 0.16147462
0.15757775 0.035583764 0.033928454 0.13565612 -0.09307584 0.091044694 -0.01583986 0.20270717
0.2212373 0.16602343 0.043543965 0.20422229 0.18955913 0.11368951 0.0028031766 0.22054389
-0.03072752 0.21841976 0.02273105 0.18489778 0.14287126 -0.07481654 0.16509292 -0.14920744
0.14641678 -0.09841971 -0.13174912 0.059884727 -0.03215669 -0.14424857 -0.11334886 0.00045086443
-0.17193457 0.09154847 0.18625376 0.12838107 -0.07262075 -0.19740461 0.21029815 -0.07810725
-0.1777663 0.12885088 0.15562505 0.20338303 0.19727153 -0.051535204 0.15402883 -0.0837214
0.20020464 0.18229613 0.04966089 0.17806214 -0.07629283 -0.102394305 -0.061720446 -0.06898266
-0.1558106 0.14570943 0.20582661 -0.04922855 0.09929848 -0.09899713 -0.11593545 -0.18194255
-0.07355051 0.19204396 0.13195086 0.1599507 0.1749444 -0.220697 -0.16908199 -0.059967026
0.109883994 -0.17601593 0.1646578 0.012282476 0.11361462 0.094658226 -0.21693797 -0.12741524
0.020654142 0.020656064 -0.1800769 0.051878273 -0.030534804 -0.1705554 -0.18789211 -0.033386514
0.19603083 0.00102593 -0.20392768 -0.094124734 0.12323409 -0.07229291 0.0042823404 -0.18289387
0.12299687 0.19815132 -0.060034364 0.19368875 0.14000207 -0.21598555 -0.012088478 -0.21959552
0.024214208 0.0337393 0.15624997 -0.09725906 0.07656118 0.220837 0.2018168 0.19325808
-0.15649518 -0.04595408 0.21330622 -0.19387922 0.112023324 0.055105925 0.11441943 0.051891208
-0.017811224 -0.1559734 0.05664912 -0.0025584102 -0.03824532 0.13026392 -0.18535864 0.019665286
-0.1786952 0.0011701435 -0.056427598 0.18839979 0.18382224 0.19040737 -0.15553343 0.15532497
-0.17999242 -0.023567587 -0.21389332 0.08011979 0.0831278 -0.029126301 -0.15452832 0.17888123
0.079853565 0.17351454 0.09486452 -0.1444871 0.10275754 -0.16770707 -0.091896236 0.1160675
0.20961934 -0.02537863 0.19402179 0.003986746 -0.106479205 0.10446504 -0.052260697 0.01447019
0.21326414 0.04574287 0.19464391 0.15104705 0.15279493 0.0004555583 -0.14203146 0.21804067
-0.20478702 0.15390834 -0.0075120926 0.16370025 -0.1459856 0.2151902 -0.06949791 0.13657948
0.032870293 0.1618014 -0.18692464 0.18572733 -0.19900514 -0.0029067546 -0.021034554 0.18020526
-0.20001084 -0.15986775 0.08518094 -0.21401386 0.17903286 -0.01565507 -0.08945367 -0.083718196
-0.08817442 -0.037213862 0.031196266 -0.20132032 -0.13650693 -0.18707125 -0.11381993 -0.054455712
0.14345458 0.0046664327 -0.1856336 -0.08158958 0.022433609 -0.101446256 0.2013146 -0.068290964
0.10402855 0.04553479 0.22311494 0.014451906 -0.09062123 -0.2235955 0.019088417 -0.0306824
0.15883076 -0.18108833 0.14022273 0.066304386 -0.071628526 0.078006 -0.17807674 -0.19486618
0.121649474 0.08244398 0.18903634 -0.17452723 0.21702859 -0.18538597 -0.21854591 -0.15069382
-0.21451637 0.16177234 -0.2202793 -0.12628677 0.02416569 0.21165621 -0.14701325 -0.093607396

transformer_encoder.encoder.attention.fc.bias f4 [20]
00000000: e877 b8bc 3706 f3bd 389c a8bd c067 c9bc
00000010: 1c4b 13be 5fa4 0dbe 601c 77bd 6c98 253e
00000020: 009f 673a b0f5 82bc f686 3abe d8a0 3e3d
00000030: 509c 07be e8a2 95bc 903f ad3d 28eb fdbc
00000040: 7373 37be 38cd f23d 3852 d63d 88c4 34be
-0.022518113 -0.1186642 -0.08232921 -0.024585605 -0.1438412 -0.13832234 -0.060329795 0.16171426
0.00088356435 -0.015986294 -0.18215546 0.04654011 -0.13243222 -0.018266156 0.08459389 -0.03099592
-0.17915134 0.118555486 0.10464901 -0.17653096

transformer_encoder.encoder.attention.layer_norm.weight f4 [20]
00000000: 0000 803f 0000 803f 0000 803f 0000 803f
00000010: 0000 803f 0000 803f 0000 803f 0000 803f
00000020: 0000 803f 0000 803f 0000 803f 0000 803f
00000030: 0000 803f 0000 803f 0000 803f 0000 803f
00000040: 0000 803f 0000 803f 0000 803f 0000 803f
1.0 1.0 1.0 1.0 1.0 1.0 1.0 1.0
1.0 1.0 1.0 1.0 1.0 1.0 1.0 1.0
1.0 1.0 1.0 1.0

transformer_encoder.encoder.attention.layer_norm.bias f4 [20]
00000000: 0000 0000 0000 0000 0000 0000 0000 0000
00000010: 0000 0000 0000 0000 0000 0000 0000 0000
00000020: 0000 0000 0000 0000 0000 0000 0000 0000
00000030: 0000 0000 0000 0000 0000 0000 0000 0000
00000040: 0000 0000 0000 0000 0000 0000 0000 0000
0.0 0.0 0.0 0.0 0.0 0.0 0.0 0.0
0.0 0.0 0.0 0.0 0.0 0.0 0.0 0.0
0.0 0.0 0.0 0.0

transformer_encoder.encoder.feed_forward.fc1.weight f4 [256, 20]
00000000: 04a4 923d 005d 113c bc5d c53d a8f7 a7bc
00000010: 2e59 2f3e 8634 153e 6e58 d9bd ecf8 49be
00000020: 7c06 b9bd 7d23 61be 80df 783b 5caf 2abd
00000030: c0cb 83bd 3829 8cbc 0830 393d fc03 c53d
00000040: 1098 fc3d e06c f23c 004a 1ebd 9270 0cbe
00000050: 0c70 5ebe 54ab 0fbd ae21 98bd 84ce 88bd
00000060: 080f 603d e0ac bb3c f006 5e3c 0c0e ce3d
00000070: 47ad f9bd 909a e63c 280e e03d cc6d ce3d
00000080: 4367 ccbd f2b1 2e3e 64ba 07be 9823 82bd
00000090: f86d 87bd 7caa fe3d 922c 58be aefe f7bd
000000a0: 9008 e33d dcd0 86bd 0c20 493e 88ed fa3d
000000b0: 5045 5ebe 9a31 c8bd 783a 313d d04c 573d
000000c0: 3c84 073e a8ff a9bd 3050 413c 4cc7 2b3e
000000d0: 306c 95bd 7070 e9bc 3d28 39be f07c e73c
000000e0: 7851 b03d 9c1b 2c3e a243 0d3e 32a3 8cbd
000000f0: b67f 1b3e c837 08be 0006 5fbc c186 41be
00000100: 9412 8cbd 0cd9 3b3e 707c e9bc c849 fe3d
00000110: 1853 4d3d 5019 873d e8de 3b3e 50f2 1dbe
00000120: 4e67 463e 38e7 e33d e869 bb3d 58be e43d
00000130: e4ab 413e 58da 41bd 98d5 d73d f465 2b3e
00000140: 6257 96bd ce3e 1a3e 86e2 093e 0084 10bd
00000150: 7cdd 08be ca3b 2b3e 80c8 573d 3f86 3abe
00000160: 6057 d13d 4cd2 c43d c2f7 50be 80dd c7bd
00000170: fb84 e8bd 10a7 82bc 242a 0b3e 005b 4c3d
00000180: 382d 543e 58cf cb3d b0dc 1d3c c033 9e3d
00000190: e09a 293d f295 4e3e 5ab1 273e b2c6 51be
000001a0: 987f 613e d41b 58be 402e a63d b464 b63d
000001b0: 40c0 b2bd 6059 243d a09e 39bd b8df c9bc
000001c0: 9c74 cd3d 8065 a23d 521a aabd 3828 243d
000001d0: b0df 1d3e c2d1 8bbd 7595 08be 264e 26be
000001e0: ae82 2ebe 57e3 2dbe 10eb 283d 020c babd
000001f0: 392a 1abe 44d9 c23d 204f a73d 083f 48bd
00000200: 8ede f9bd a321 4dbe 8864 253e 7a68 f2bd
00000210: 7c00 17be 1cdd 03bd 0173 2fbe f205 133e
00000220: b2b7 d0bd 58d6 c43d cb8c d8bd 5c63 dbbd
00000230: f8ff a53d f0ac df3c f448 5abd 642e a83d
00000240: 0084 773c 44ef fb3d 000d 4d3b d829 473e
00000250: f11e 37be 60f3 66bd 3e17 88bd 48ae 9f3c
00000260: 0a6f 023e b092 213d a080 673c 525b 193e
00000270: ba5a 603e 2cdf 4d3e 6c8b 0c3e 8800 213d
00000280: 886f 7c3d 7e51 2a3e 0007 3b3d 3c63 393e
00000290: 008e 12ba e0b0 0e3d 7ae4 333e 9450 8f3d
000002a0: 7ed6 323e 38d8 293d 7931 5abe 002d 683d
000002b0: c23f 273e de08 2bbe b435 21be f4ae 1bbe
000002c0: 1866 21be ca1c 2d3e 6216 003e dd32 05be
000002d0: d0f9 4c3e d010 433d d30b d6bd 57bd 47be
000002e0: 1096 443e 24e1 50be e01f 7cbd 4eac 5e3e
000002f0: 16de 5d3e 6e03 3f3e f0d9 f7bd 30ca 5e3d
00000300: 105c ad3d c222 89bd 6e87 0a3e ce73 a2bd
00000310: 580e 303e cf31 53be fe04 abbd 7863 0d3d
00000320: c4a3 d7bd d472 a3bd 5cb8 aa3d 305e 6bbc
00000330: 9dee d4bd d67c 4bbe c0bd 523d 758d 0cbe
00000340: 3c6c 20be 38da 0dbd b93a cebd 5c8f 873d
00000350: 6c87 43be a84a 393d c0ab 283e a212 b0bd
00000360: 848a c03d ce03 023e 769a 2bbe 3eb6 16be
00000370: fc84 f9bd cc86 2dbe 4057 7a3d 28c2 9ebc
00000380: 2073 b33d a4bd 52be f0d5 d33d 54e0 3cbe
00000390: 2be3 f3bd a0d1 953d 00fb 9bbd 64db 42be
000003a0: eec3 ccbd 40b8 9d3d 74b9 203e f70a 34be
000003b0: 846b d83d 6e98 99bd 20da dd3c 3295 1c3e
000003c0: 5831 12be 509f 083d 8029 493d 4e4f 4bbe
000003d0: b054 d23d 400b 093e f4cd 17be 985e 143d
000003e0: 341a ee3d 5654 103e 1a4a d1bd b094 d03c
000003f0: 4c1e 163e 06bf 35be 6080 4b3c d28f 21be
0.0716019 0.008872271 0.09637019 -0.020503834 0.17123863 0.14570817 -0.1061257 -0.19723862
-0.0903444 -0.21986194 0.0037975013 -0.041671142 -0.064353466 -0.017109498 0.04521182 0.096199006
0.12333691 0.029592931 -0.03864479 -0.13714817 -0.2172243 -0.0350755 -0.07428299 -0.06680015
0.054701835 0.022909582 0.013551459 0.10061273 -0.12191253 0.028149873 0.109402 0.10079536
-0.09980633 0.17060068 -0.13254696 -0.06354445 -0.06612772 0.12434861 -0.21110752 -0.12109123
0.110856175 -0.065828055 0.19641131 0.12252337 -0.21706128 -0.09775086 0.04326865 0.05256349
0.13234037 -0.08300716 0.011798903 0.16775244 -0.07296026 -0.028495997 -0.18081756 0.028257817
0.08609289 0.16807407 0.13795331 -0.068670645 0.15185437 -0.13302529 -0.01361227 -0.18899061
-0.06839481 0.18344516 -0.02850172 0.124164164 0.050128073 0.06596625 0.1834675 -0.15424466
0.19375345 0.11128086 0.091510594 0.11169118 0.18913227 -0.04732737 0.10538787 0.16738111
-0.07340886 0.1506302 0.13465318 -0.035282135 -0.1336574 0.16722026 0.052681446 -0.18215273
0.102217436 0.096104234 -0.20407012 -0.09759045 -0.11353489 -0.015948802 0.13590294 0.049891472
0.20720375 0.09951657 0.0096351355 0.07724714 0.041407466 0.20174387 0.16376248 -0.20485952
0.2202133 -0.21104366 0.0811429 0.08905926 -0.08728075 0.040124297 -0.045317292 -0.02464281
0.10032007 0.07929516 -0.083058015 0.040077418 0.15417361 -0.068271175 -0.13338263 -0.16240749
-0.17042038 -0.16981255 0.041239798 -0.090843216 -0.15055169 0.095140964 0.08169389 -0.048888236
-0.12200652 -0.20032363 0.16151631 -0.118363336 -0.14746279 -0.03219329 -0.17133714 0.14357737
-0.10191287 0.09611195 -0.10573729 -0.10712311 0.08105463 0.027304143 -0.05329223 0.08211973
0.015107155 0.12301496 0.0031288266 0.19449556 -0.17882897 -0.056384444 -0.06645058 0.019492283
0.1273767 0.039446533 0.014129788 0.14976242 0.2190961 0.20104665 0.1372506 0.039307147
0.061629802 0.1663265 0.045660973 0.18104261 -0.00055906177 0.03483665 0.17567626 0.06997791
0.17464635 0.041465968 -0.21307935 0.05668354 0.16332915 -0.16702601 -0.15743142 -0.15203458
-0.15761602 0.16905513 0.12508538 -0.13007684 0.20017171 0.047623456 -0.10451474 -0.19505821
0.1919787 -0.20398384 -0.061553836 0.21745417 0.2166675 0.18653652 -0.12102115 0.05439204
0.08464825 -0.06696083 0.13528225 -0.07932244 0.17192972 -0.20624469 -0.083505616 0.03451869
-0.10529283 -0.07980886 0.08335945 -0.014365718 -0.10397074 -0.1987184 0.05145049 -0.13725837
-0.15666288 -0.034631938 -0.10069794 0.066191405 -0.19094628 0.045237213 0.16471767 -0.08597304
0.0940142 0.12696764 -0.16758141 -0.14717957 -0.12183568 -0.16945952 0.061118364 -0.01937969
0.08762193 -0.20580155 0.1034354 -0.1844495 -0.11908563 0.073153734 -0.07616234 -0.19029003
-0.09998308 0.077011585 0.15695745 -0.17582308 0.10567382 -0.07499777 0.02708155 0.15291288
-0.14276636 0.033355057 0.049111843 -0.19854471 0.10270059 0.13383198 -0.14824659 0.036223024
0.116260916 0.14094672 -0.10219212 0.025461525 0.14659995 -0.17748651 0.012420744 -0.1577752

transformer_encoder.encoder.feed_forward.fc1.bias f4 [256]
00000000: 4bec 63be 48ea 23bd 0312 2fbe cc3c 223e
00000010: e4e5 8d3d b899 983c 7097 b4bc f8c9 fe3d
00000020: 007a 4e3b 1bed cebd 046a 3e3e 80a1 633d
00000030: 5899 79bd 8681 103e 20f8 c63b 4144 08be
00000040: e8c5 293d c81a 363e 9023 71bc c8c4 533d
00000050: 04f7 173e a0b4 3b3e a811 573e b8eb 34be
00000060: 7410 cb3d 12ab 49be 60d0 193d 3e8d 273e
00000070: 04ef e83d 003e 4e3d 7a8b 533e 54f6 9b3d
00000080: de1d 4a3e b4f8 973d 3c7c 993d a8e8 8a3d
00000090: 6402 a9bd 3689 2e3e cc61 263e fcd8 883d
000000a0: b6af 1ebe 91d2 46be 2236 393e ba97 ebbd
000000b0: 3083 783d a0b8 1ebd 2c16 c13d b2d4 d7bd
000000c0: d7d1 60be 00f3 fe3a 1ae4 4ebe ea67 c2bd
000000d0: e490 823d 5067 353c 5c18 173e bcdd 91bd
000000e0: f0e3 4abe e8e5 733d 360a 95bd e264 29be
000000f0: 6e89 183e 96c5 3c3e a442 59bd 4052 6bbb
00000100: 2ba3 32be 620c 44be 00ee c43d 70c6 2dbc
00000110: 9061 5d3c e8cf a9bc 04b7 a43d 0297 3e3e
00000120: 60d1 2d3e 12a4 533e d08c 1b3d c883 cb3c
00000130: 60c4 2f3e f6c3 61be 7cc8 be3d 2a76 16be
00000140: 8b4a 2bbe a0c7 73bd 0826 d03d 808a 0d3b
00000150: 8873 09be 008f 86ba 226c e1bd f174 07be
00000160: 8620 b3bd 06b5 2d3e 48e4 bb3d 98db 243e
00000170: a13d 5fbe 9800 b7bc 32d7 453e 80f1 ed3d
00000180: 47fa f8bd 80ab bc3b f0d5 28bd 797a 52be
00000190: 062d 85bd 0e78 003e 5a2b 33be c822 cc3d
000001a0: a8a4 55be b86f 253d a4ce 06be c8c8 473e
000001b0: 38b9 303e 80f4 ec3c 64b6 59bd 902b 543c
000001c0: 40b4 efbb 2008 6e3c c0e5 72bd 300d 19bd
000001d0: 1c49 dc3d 4e6e 33be 3ced b9bd 8f8d dfbd
000001e0: 6f71 2dbe 2872 063e c228 0bbe cb84 23be
000001f0: ce24 eabd c838 2f3d 0a0c 9dbd 5e59 613e
00000200: be64 0b3e 4c8b 01be e254 32be 4829 193e
00000210: 8498 423e 50a0 6c3c fc2c 083e 7ca8 5b3e
00000220: 94e4 a03d 00fd 9d3d 88c3 e5bc e8cc 49bd
00000230: bcde 3bbe 48c6 0b3d 42bd 63be d881 3ebd
00000240: dcb8 05bd 7009 183e 18c6 4b3e 2e74 abbd
00000250: 640d 19bd 466e dabd 71ce eabd 2076 c43b
00000260: 622e 27be c08a e13d 6c89 453e 1a31 bbbd
00000270: a8de b83c 8ccc 94bd c319 23be 5a28 95bd
00000280: 70e9 52be c43a d53d e0a5 a23c 021c 353e
00000290: 68f5 be3c 8ec9 353e 5a72 543e 9c43 e43d
000002a0: 1084 973c 6ccc 973d 68f6 143d 5fc8 3bbe
000002b0: 0a44 cabd 0202 133e 4a17 b4bd a44d d2bd
000002c0: ece9 63be ac37 03be 08c3 843d 5c04 0dbe
000002d0: 8406 8f3d d5cf 44be 5012 acbc c573 5cbe
000002e0: 8a20 573e 5e74 5b3e 1097 893d a05b 27bc
000002f0: 7896 5f3e 2cd9 73bd c694 5d3e b2fe 2e3e
00000300: ceb6 323e 08de 5b3e 0c55 913d 7033 4fbd
00000310: dc9c 383e 1035 d13d 7c0d 863d 8bf6 5cbe
00000320: 08e2 2e3d 7314 36be 225e f2bd 3c1a 91bd
00000330: d0eb 5b3c 302e 593e 0802 b93c 9c55 dcbd
00000340: 2413 09bd 0211 263e 33b4 25be a8fb 5d3d
00000350: ece2 3fbd 60fd 753d c02a a83b 6ecd 203e
00000360: b4aa 533e 8060 163c 2cdb 63be 5afb 243e
00000370: 30f6 87bc a6e3 183e dca5 023e 98f4 48bd
00000380: 28b8 58be 78cd 633e a83e f0bc 8042 8c3c
00000390: 503c 41bd 4e1b 96bd 40b5 5c3d 5068 2abd
000003a0: 1dea dcbd 6ad9 ecbd b03c e93c 9499 12bd
000003b0: 0d4a 5abe 68a9 9e3c 3e4d cfbd c450 2ebe
000003c0: 138e 43be 5816 55be c2a1 4e3e 780f c23d
000003d0: 96ad 0dbe 682f babc aa72 9cbd 8039 7c3d
000003e0: ce61 553e e471 2bbe 32bf 0f3e 8cf3 2dbe
000003f0: 40e7 323c fac1 4b3e d01d 253d a2a3 0b3e
-0.22258107 -0.04001835 -0.17096715 0.15843505 0.06928614 0.018627986 -0.022044867 0.12440866
0.0031505823 -0.10103818 0.18595129 0.05557394 -0.060937256 0.1411191 0.0060720593 -0.13307287
0.041448504 0.17783654 -0.014717951 0.051701337 0.14840323 0.18330622 0.21002829 -0.17668045
0.099152476 -0.19694164 0.037552238 0.16362473 0.113737136 0.050352097 0.20658675 0.07615343
0.19737956 0.07420483 0.07494399 0.06782657 -0.08252409 0.1704453 0.16248244 0.066820115
-0.15496716 -0.19416262 0.18087056 -0.11503549 0.060671985 -0.03875029 0.09428057 -0.10538615
-0.21955048 0.0019451082 -0.20204201 -0.09492476 0.06375292 0.011071995 0.14755386 -0.071223706
-0.19813514 0.059545428 -0.07277338 -0.1654239 0.14896175 0.18434748 -0.05304207 -0.003590718
-0.17445056 -0.19145349 0.096157074 -0.010606393 0.01351203 -0.02072902 0.0804272 0.18612292
0.16974401 0.20668057 0.037976086 0.024843112 0.17164755 -0.2204741 0.09315583 -0.14693514
-0.16727655 -0.05951655 0.10163504 0.0021597445 -0.13422978 -0.0010266006 -0.11006953 -0.13228203
-0.08746438 0.16963586 0.091744006 0.16099393 -0.21800853 -0.02233915 0.19320372 0.11618328
-0.121571116 0.005757749 -0.04121965 -0.20554532 -0.06502728 0.12545797 -0.17497006 0.099675715
-0.20863593 0.040389746 -0.13164765 0.19510186 0.17258155 0.02892518 -0.053152457 0.012949839
-0.0073151886 0.014528304 -0.059301138 -0.037366092 0.10756132 -0.17522547 -0.09078452 -0.10915672
-0.16937803 0.13129485 -0.13589767 -0.15968625 -0.11432801 0.04277876 -0.07668312 0.22006747
0.13612649 -0.12650794 -0.17415193 0.14957154 0.19003493 0.014442518 0.1329841 0.2145099
0.07856098 0.077142715 -0.028047338 -0.04926768 -0.18346685 0.034124643 -0.22240165 -0.046510547
-0.032647 0.1484735 0.19899786 -0.08371769 -0.037366286 -0.10665564 -0.11465157 0.005995527
-0.16326287 0.110127926 0.19290704 -0.09140225 0.022567108 -0.07265577 -0.15927796 -0.07283087
-0.20596862 0.10411599 0.019854486 0.17686465 0.023310378 0.17752668 0.20746747 0.11145708
0.01849559 0.07412037 0.036367804 -0.18338154 -0.09876259 0.14356235 -0.087935045 -0.10268715
-0.22257203 -0.12814206 0.06482512 -0.13771194 0.06983665 -0.19219907 -0.021004826 -0.21528538
0.21008506 0.2143111 0.06718266 -0.010214716 0.21834743 -0.059533283 0.21638784 0.17089346
0.17452547 0.21471417 0.070962995 -0.050586164 0.18028587 0.10215199 0.06545541 -0.21578424
0.04269603 -0.17781238 -0.11834361 -0.07085082 0.013422921 0.21209025 0.022583976 -0.10758516
-0.03346552 0.16217425 -0.16182022 0.054195076 -0.04684727 0.06005609 0.0051320493 0.15703365
0.20670587 0.009178281 -0.22251576 0.16111508 -0.016596884 0.14930591 0.12758583 -0.049061388
-0.21164 0.22246349 -0.029326752 0.017121553 -0.04717666 -0.07329427 0.05388379 -0.041603386
-0.10786841 -0.11564906 0.02847132 -0.035790995 -0.2131731 0.019367889 -0.10122155 -0.17022997
-0.19097166 -0.20809305 0.20178893 0.09475607 -0.13835749 -0.022727683 -0.07639058 0.061578274
0.20838091 -0.16742665 0.14037779 -0.16987437 0.010919392 0.19898215 0.040311635 0.1363664

transformer_encoder.encoder.feed_forward.fc2.weight f4 [20, 256]
00000000: 34a9 3bbd 4286 56bd 92ec 00bd fcb9 1d3d
00000010: 18da 42bd 5e57 463d ae49 1d3d 8008 6ebd
00000020: 9403 6dbd 1022 f53c 289a 973c 72a0 72bd
00000030: 403d 0cbd ac59 3d3d 600c 513c 94cb 7cbd
00000040: 9c0c 83bc 00d8 5b38 5ebb 28bd 90fb 1f3d
00000050: 6001 053c f458 8bbc b028 d93c 80d2 c0bb
00000060: 14b8 c53c 20b6 5f3c f831 21bc f074 15bc
00000070: 382c 813c 5483 cebc 683a e63c c2d1 26bd
00000080: b4e7 fc3c b099 ffbb b07c db3b 10c7 bbbc
00000090: 0084 0dba 50ee 713d 0076 13bd f2ac 18bd
000000a0: 0813 09bc d299 5a3d d486 c5bc c4cb 60bd
000000b0: 00d5 45ba 0261 4fbd c6fe 3abd f6a1 7f3d
000000c0: 38c9 2bbd 3845 5b3c 40ad 453d 183a 01bc
000000d0: b65c 19bd 2c9b e4bc 2a1a 7bbd c608 3bbd
000000e0: 64c1 453d ccdc 1ebd e877 7abc 70c7 fe3c
000000f0: 9ca8 a13c 30a9 883b a4e3 2dbd 386e 943c
00000100: 1c84 c53c 067c 293d 60d9 6cbb c008 1ebb
00000110: e02c 86bb b425 503d 96e0 0fbd 7473 f5bc
00000120: 800d a5ba 8a83 233d 6cdf f73c cc59 69bd
00000130: b296 03bd 82de 38bd 4023 453b b8d7 623d
00000140: c4be 703d 0c0c 413d 4835 093c 7ad6 7dbd
00000150: 30e4 02bc 8886 52bd a22b 0d3d f4d5 d43c
00000160: 3094 ddbb 60e8 febc 546d 40bd 88e7 50bc
00000170: c8ab 4ebc 7c4a 1abd 8887 80bc a0a0 0fbb
00000180: a8d2 5a3c e089 5dbc ecfe 403d 8609 703d
00000190: bcc7 a5bc 0017 fc3b cec7 32bd 8006 ef3c
000001a0: acdf 7dbd b838 59bd 34fc b33c 44f2 f53c
000001b0: 8093 1a3a 6c37 b7bc 7e22 39bd 608d e2bb
000001c0: 2c50 63bd c49e 553d a646 543d 30f1 c23b
000001d0: 68c4 d33c a818 23bd f4b0 8d3c 0ce7 a13c
000001e0: 549e babc 9c1f 393d bca4 7e3d 2498 063d
000001f0: d20e 073d 8265 0a3d 101f 72bd 4892 4fbc
00000200: 4c9b 39bd 9897 b0bc 1229 493d 2aea 74bd
00000210: c019 423d b4de 27bd c03c 443d 6892 6abc
00000220: 7071 873c 00ea 53ba 3009 b7bc 401c eabc
00000230: 36dc 17bd 2c57 9d3c 4026 96bb 3ec2 413d
00000240: ce28 0cbd 54d6 4dbd 887e 45bc 0c98 c5bc
00000250: 9283 0bbd 8817 cbbc f87a 16bc 92d9 0f3d
00000260: 8083 5c3c 98d9 42bd b07e c5bb a0bf 51bc
00000270: d8e4 703c cc93 47bd b225 54bd a8e6 d13c
00000280: 004c fa3c 6431 7bbd 4028 51bb 8292 063d
00000290: 04fe 7a3d 46e8 1a3d 4257 1f3d 1cc3 193d
000002a0: 9034 a2bc 1ed3 563d a481 d43c 703f 10bc
000002b0: 488e 3c3c 3093 ebbc 86ed 333d 8082 50bd
000002c0: 1079 6d3c 8007 013b 5019 50bc 60f0 a4bc
000002d0: 6a85 623d 5220 233d 602f 913c c8ae 5c3d
000002e0: f84f df3c 4cac 58bd 0016 d73c 70aa bbbb
000002f0: 44f4 e03c 48d1 10bc 04dd 5d3d c0f5 5abb
00000300: 9030 c8bc b204 06bd eec7 50bd d834 763d
00000310: 1a53 7f3d 8c7f 73bd f2ce 7c3d 424c 1a3d
00000320: 9a97 253d e024 c33c e691 0d3d 6a91 7f3d
00000330: b0c1 b03b 103a 59bc fcc4 06bd 780f 33bd
00000340: 8438 87bc 260d 0bbd 0073 283a be63 4bbd
00000350: e0ee 0f3b 3a51 123d a83d 2abd 820a 433d
00000360: 4ca3 d53c 8028 d43c a067 5a3d dac0 3d3d
00000370: e864 69bd 8071 fc3c a0af 883b 6862 4b3c
00000380: 0055 7b3b e02a 523c c4b7 293d b894 52bd
00000390: b2b6 31bd 9840 653d 98ff 7dbc 38dd 50bd
000003a0: 7e56 093d 08cd 7cbc a07f 26bc d045 4abc
000003b0: f87e 13bc 0662 56bd b0da 063c f0e9 61bc
000003c0: 98ce 06bc 3e5d 163d 7608 653d c8aa 04bc
000003d0: a0de 263d 6873 bbbc 5cb9 463d 00a5 173a
000003e0: 50ee b73c c28f 5abd 4050 c6ba c8eb 91bc
000003f0: e086 3bbd 940e 6abd d4f9 35bd 60c7 323c
-0.04581566 -0.052374132 -0.03147561 0.038507447 -0.04757127 0.048423164 0.038400345 -0.058113575
-0.05786474 0.029923469 0.018506125 -0.059235044 -0.0342381 0.046228096 0.012759298 -0.061717585
-0.015997224 5.2414834e-05 -0.041194312 0.039058268 0.008118004 -0.01701019 0.02650866 -0.0058844686
0.024135627 0.013654262 -0.009838574 -0.009122118 0.015768155 -0.025209107 0.028104022 -0.040727384
0.030872203 -0.0078003034 0.0066982135 -0.022922069 -0.00053983927 0.059065163 -0.036001205 -0.03727431
-0.008366354 0.05336935 -0.024112143 -0.054881826 -0.0007546693 -0.050629623 -0.045653127 0.062410317
-0.041939944 0.013383202 0.048260927 -0.007887386 -0.03744193 -0.027906023 -0.06130425 -0.045662664
0.048280135 -0.038784787 -0.015287377 0.031100959 0.01973372 0.0041705593 -0.042453423 0.018118963
0.024110846 0.041378044 -0.0036140308 -0.0024114102 -0.004094705 0.050817207 -0.03512629 -0.029962279
-0.0012592524 0.039920367 0.030257903 -0.056970403 -0.032126136 -0.045134075 0.0030080825 0.055381507
0.05877568 0.04713063 0.00837452 -0.06197212 -0.007988974 -0.05139783 0.03446544 0.025980927
-0.00676205 -0.031116664 -0.046979263 -0.012750514 -0.012614198 -0.03766869 -0.015689626 -0.0021915808
0.013355888 -0.0135216415 0.047118112 0.058602832 -0.020236842 0.0076931715 -0.04364758 0.029177904
-0.06198089 -0.053032607 0.021970846 0.030022748 0.0005896613 -0.022365294 -0.04519891 -0.006913826
-0.05549638 0.052153364 0.051825188 0.005949162 0.02585049 -0.039818436 0.017296292 0.019763492
-0.022780575 0.04519616 0.06216882 0.032859936 0.032973118 0.03378821 -0.059111655 -0.0126691535
-0.04531412 -0.02155666 0.049111433 -0.05979363 0.04738784 -0.04098387 0.0479095 -0.0143171325
0.016533583 -0.000808388 -0.022343248 -0.028577924 -0.037075244 0.019206606 -0.0045821965 0.047304384
-0.034218602 -0.050253227 -0.012054093 -0.024120353 -0.034061022 -0.024791494 -0.0091845915 0.0351196
0.013459086 -0.047570795 -0.006027065 -0.012802035 0.014702998 -0.048724934 -0.05179376 0.02562268
0.030553818 -0.0613264 -0.003191486 0.032854564 0.061277404 0.03781917 0.038901575 0.037539586
-0.019800454 0.05244743 0.025940724 -0.008804187 0.011508532 -0.028756708 0.043927692 -0.050905704
0.014494196 0.0019688308 -0.0127013475 -0.020134151 0.055303015 0.039825745 0.017722785 0.053877622
0.027259812 -0.05289869 0.026255608 -0.005727105 0.027460225 -0.008838959 0.054165855 -0.0033410639
-0.024437219 -0.03271932 -0.050971918 0.06010899 0.06233511 -0.05944781 0.061720796 0.03767038
0.04042778 0.023821294 0.034562968 0.062394537 0.005394183 -0.013258472 -0.032902703 -0.043715924
-0.016506441 -0.033948086 0.0006425828 -0.04965567 0.002196245 0.035721995 -0.041562706 0.047617443
0.026078843 0.025898218 0.05332148 0.046326496 -0.056980997 0.03081584 0.0041713268 0.012413599
0.0038350224 0.012827605 0.04143502 -0.05141136 -0.043387122 0.055969805 -0.015502833 -0.05099222
0.03352975 -0.015429743 -0.010162264 -0.012345746 -0.00900244 -0.052339576 0.00823085 -0.013788685
-0.008227967 0.036710016 0.055916272 -0.008097358 0.040739655 -0.022882178 0.048516616 0.000578478
0.022452503 -0.053359754 -0.0015130118 -0.017812625 -0.045782924 -0.05714281 -0.044427708 0.0109117925

transformer_encoder.encoder.feed_forward.fc2.bias f4 [20]
00000000: 70bc 583d 9a65 633d b882 14bc 4a26 28bd
00000010: 2498 3cbd 60b5 653d eedc 743d ecf1 cabc
00000020: 5ec0 50bd e8da bf3c 986c 533d 6202 35bd
00000030: 409c 58bd 2ccd fb3c a283 14bd 1a62 0fbd
00000040: ac15 5d3d 10fe 5b3d 24cf 91bc f0ee f23b
0.052914083 0.055516817 -0.009064369 -0.04105214 -0.04604353 0.056081176 0.059781007 -0.02477356
-0.050964706 0.023419812 0.051617235 -0.044191726 -0.052883387 0.030737482 -0.036258347 -0.035005666
0.053975746 0.05370909 -0.017798968 0.0074137375

transformer_encoder.encoder.feed_forward.layer_norm.weight f4 [20]
00000000: 0000 803f 0000 803f 0000 803f 0000 803f
00000010: 0000 803f 0000 803f 0000 803f 0000 803f
00000020: 0000 803f 0000 803f 0000 803f 0000 803f
00000030: 0000 803f 0000 803f 0000 803f 0000 803f
00000040: 0000 803f 0000 803f 0000 803f 0000 803f
1.0 1.0 1.0 1.0 1.0 1.0 1.0 1.0
1.0 1.0 1.0 1.0 1.0 1.0 1.0 1.0
1.0 1.0 1.0 1.0

transformer_encoder.encoder.feed_forward.layer_norm.bias f4 [20]
00000000: 0000 0000 0000 0000 0000 0000 0000 0000
00000010: 0000 0000 0000 0000 0000 0000 0000 0000
00000020: 0000 0000 0000 0000 0000 0000 0000 0000
00000030: 0000 0000 0000 0000 0000 0000 0000 0000
00000040: 0000 0000 0000 0000 0000 0000 0000 0000
0.0 0.0 0.0 0.0 0.0 0.0 0.0 0.0
0.0 0.0 0.0 0.0 0.0 0.0 0.0 0.0
0.0 0.0 0.0 0.0
