simple2transformer/param/net_param/Mk06_actor_net.model (torch, 111487 bytes, 34 tensors)

transformer_encoder.encoder.attention.fc_Q.weight f4 [20, 20]
0.10276011 -0.011017278 -0.17516553 -0.053641453 -0.15439448 0.0037857592 -0.119237594 -0.02500531
0.029944032 0.0030632615 0.16247177 -0.13987911 -0.1524879 0.21971229 -0.17784168 0.106087804
0.199682 0.065395266 -0.14219788 0.080679536 0.07114869 0.02385728 0.08088353 -0.018297985
-0.20059952 0.20948556 0.19110426 0.08745566 -0.22287837 -0.08615637 0.15981388 -0.06470573
0.014105663 0.077483565 0.0033351928 -0.08547233 0.016873434 -0.092739 0.017637298 0.008507162
0.061861157 -0.109942354 0.16999033 -0.023743466 0.0028864145 0.036878586 0.082595676 0.015072048
-0.19527021 0.016961798 -0.12019007 -0.2044673 -0.1817925 0.15958089 -0.17376624 -0.08379763
0.21017191 0.024944931 -0.11970784 -0.18692602 0.19283125 0.18255594 -0.06322701 0.0098121315
-0.105230935 -0.15636142 -0.16983958 -0.09872881 -0.10699593 -0.12230816 -0.023063064 -0.16805904
-0.064053535 0.13272181 -0.12728208 -0.07358481 -0.03004007 -0.071127504 -0.013358876 0.17528743
0.07603377 -0.10408979 0.075255066 -0.0056157857 0.06436309 0.070697784 -0.108400784 -0.03576666
0.003731817 -0.14256993 -0.006225586 0.095779836 -0.1658702 -0.15064117 -0.030923188 0.03389442
-0.08315283 0.15804118 0.19892177 0.20030236 -0.15362474 0.10092729 0.061013013 0.07361886
-0.2009809 0.035943627 -0.056399554 -0.028204829 -0.10395446 0.08065593 -0.015304416 -0.111293525
0.00327304 -0.20081218 -0.19858445 -0.20898998 -0.016072452 0.18678477 -0.005017385 -0.08923842
0.059037 0.16098428 0.100575835 0.18832773 -0.071874276 -0.06069018 -0.050824896 0.19886678
0.11873728 -0.1023056 -0.21527818 0.14392439 -0.1177265 0.09690344 -0.071382895 0.006191388
-0.053529292 -0.21314111 -0.21379715 -0.09481025 -0.070320845 -0.0056228936 -0.20608725 -0.05274874
0.18755886 -0.012996063 0.093420655 -0.13106686 0.19674173 0.15363437 0.043465048 0.04437214
-0.01901719 -0.060605228 0.07044819 -0.19829415 -0.1260528 0.07714498 0.1772052 0.19542608
0.13627186 0.089686304 0.02968195 0.2055552 -0.10913982 -0.05829893 0.20160809 0.09712395
0.22065341 0.13729942 0.12344718 0.14837876 0.19714043 0.03573996 0.09845665 0.21035823
0.09225026 0.00015836954 -0.006606579 0.15492061 0.0013666749 0.03428325 0.13077241 -0.07436088
0.1615848 0.122962 0.041920185 0.053309202 0.17683953 -0.20008327 -0.14118549 0.10937682
-0.09605636 -0.14341968 0.096968174 -0.093943104 -0.116852686 -0.112598814 -0.092102855 -0.053559095
0.016121477 0.13838333 0.18631458 -0.04402946 -0.16644692 0.04242009 -0.03830713 0.14507133
0.12488735 0.20300531 -0.09253001 0.01162301 0.13453552 0.12242004 0.071973205 0.0700835
-0.05673571 -0.056451797 0.19051114 -0.21652456 -0.1532143 -0.15678893 0.16637588 -0.15134564
-0.22059496 -0.08664711 -0.015365452 0.1265448 -0.108090244 0.011626184 0.020632148 -0.20797718
0.008027241 -0.07242672 -0.13142684 -0.101983055 -0.21511841 0.1484083 0.11085343 -0.18933754
0.1643646 -0.044210136 0.031226486 -0.16269153 0.09044808 -0.16416939 -0.03772147 -0.14556876
0.05945018 0.017484024 -0.12232284 -0.17477262 0.03926763 -0.13149595 -0.19161814 0.18813974
00000000: e473 d23d d081 34bc 985e 33be 24b7 5bbd
00000010: 9619 1ebe 801a 783b d732 f4bd f0d7 ccbc
00000020: 304d f53c 00c1 483b 005f 263e 783c 0fbe
00000030: ca25 1cbe 42fc 603e 211c 36be 9044 d93d
00000040: 7079 4c3e f4ed 853d 529c 11be 503b a53d
00000050: 68b6 913d 5870 c33c 44a6 a53d a8e5 95bc
00000060: f669 4dbe 6283 563e d6b0 433e f41b b33d
00000070: 3a3a 64be c072 b0bd 40a6 233e 7084 84bd
00000080: 701b 673c b4af 9e3d 4093 5a3b 1e0c afbd
00000090: 283a 8a3c f2ed bdbd 187c 903c a061 0b3c
000000a0: 2062 7d3d 7529 e1bd f211 2e3e a881 c2bc
000000b0: 002a 3d3b 000e 173d ec27 a93d c0f0 763c
000000c0: eaf4 47be 78f3 8a3c 3626 f6bd e05f 51be
000000d0: d027 3abe 2c69 233e c7ef 31be 189e abbd
000000e0: 4e37 573e 5059 cc3c 6229 f5bd 8969 3fbe
000000f0: 8e75 453e f2ef 3a3e 2a7d 81bd 10c3 203c
00000100: 5183 d7bd 351d 20be 6dea 2dbe 5532 cabd
00000110: af20 dbbd b37c fabd c0ee bcbc ab17 2cbe
00000120: 802e 83bd 3ae8 073e 3c56 02be a2b3 96bd
00000130: 9816 f6bc 4cab 91bd 30df 5abc 8c7e 333e
00000140: 98b7 9b3d 072d d5bd 541f 9a3d a004 b8bb
00000150: ccd0 833d 00ca 903d 3b01 debd 1080 12bd
00000160: 8091 743b dafd 11be 0000 ccbb 3828 c43d
00000170: e1d9 29be ae41 1abe a052 fdbc e0d4 0a3d
00000180: 084c aabd 8cd5 213e 26b2 4b3e 101c 4d3e
00000190: ce4f 1dbe f8b2 ce3d c8e8 793d 7cc5 963d
000001a0: f0cd 4dbe a039 133d 3803 67bd d00d e7bc
000001b0: 13e6 d4bd f02e a53d 60bf 7abc dced e3bd
000001c0: 8080 563b b5a1 4dbe b959 4bbe 7801 56be
000001d0: 60aa 83bc 8244 3f3e e068 a4bb a2c2 b6bd
000001e0: c8d0 713d 10d9 243e b4fa cd3d fcd8 403e
000001f0: d232 93bd 4496 78bd c42d 50bd bca3 4b3e
00000200: 882c f33d 9985 d1bd e271 5cbe ea60 133e
00000210: 971a f1bd 5075 c63d 3231 92bd 20e1 ca3b
00000220: 8841 5bbd aa41 5abe a4ed 5abe e02b c2bd
00000230: 6004 90bd 4040 b8bb 8908 53be 100f 58bd
00000240: 6e0f 403e 70ed 54bc 5453 bf3d 6436 06be
00000250: aa76 493e 5452 1d3e 6808 323d 90bf 353d
00000260: f0c9 9bbc 303d 78bd 2447 903d 9f0d 4bbe
00000270: fc13 01be 30fe 9d3d 4875 353e c61d 483e
00000280: da8a 0b3e 74ad b73d 9027 f33c 107d 523e
00000290: b384 dfbd dcca 6ebd 5a72 4e3e ece8 c63d
000002a0: f8f2 613e 3898 0c3e e0d1 fc3d 9af0 173e
000002b0: 2edf 493e 1064 123d a4a3 c93d 2668 573e
000002c0: b4ed bc3d 0010 2639 007c d8bb 82a3 1e3e
000002d0: 0022 b33a 986c 0c3d 34e9 053e 844a 98bd
000002e0: 7c76 253e 80d3 fb3d 80b4 2b3d c05a 5a3d
000002f0: 6c15 353e a1e2 4cbe ee92 10be f400 e03d
00000300: 32b9 c4bd 9cdc 12be 4097 c63d 3e65 c0bd
00000310: 7650 efbd 359a e6bd 6ca0 bcbd c860 5bbd
00000320: 3011 843c 5cb4 0d3e 40c9 3e3e 3c58 34bd
00000330: 1071 2abe b0c0 2d3d f0e7 1cbd 948d 143e
00000340: f0c4 ff3d a0e0 4f3e 6080 bdbd 706e 3e3c
00000350: aec3 093e 5cb7 fa3d b066 933d f087 8f3d
00000360: b463 68bd 003a 67bd 5a15 433e 9db8 5dbe
00000370: 36e4 1cbe 478d 20be 705e 2a3e 5afa 1abe
00000380: a5e3 61be 0a74 b1bd 60bf 7bbc f694 013e
00000390: 6b5e ddbd c07b 3e3c c004 a93c f8f7 54be
000003a0: b084 033c 7654 94bd c294 06be 7edc d0bd
000003b0: 0048 5cbe 58f8 173e 2007 e33d b3e1 41be
000003c0: 324f 283e b015 35bd b0ce ff3c 9c98 26be
000003d0: d83c b93d 051c 28be d481 1abd fa0f 15be
000003e0: 0882 733d a83a 8f3c 6684 fabd 98f7 32be
000003f0: 18d7 203d e0a6 06be 8c37 44be b4a7 403e

transformer_encoder.encoder.attention.fc_Q.bias f4 [20]
-0.22308151 -0.12800372 0.038703322 0.177692 -0.10367422 0.11092964 0.038132727 0.044489026
-0.17542966 0.1153771 0.19841409 -0.027086794 0.21987104 -0.09226985 -0.048646525 0.062684596
0.1492672 0.022699371 0.07622084 0.18313158
00000000: 7b6f 64be 6813 03be 6087 1e3d e4f4 353e
00000010: 2653 d4bd 142f e33d 1031 1c3d 203a 363d
00000020: d5a3 33be d44a ec3d 102d 4b3e 20e5 ddbc
00000030: e025 613e faf7 bcbd 9441 47bd c860 803d
00000040: 80d9 183e 08f4 b93c ac19 9c3d d886 3b3e

transformer_encoder.encoder.attention.fc_K.weight f4 [20, 20]
-0.080241084 0.21397853 0.0026594698 0.20913938 0.16683716 -0.016691118 -0.1491511 -0.016167372
0.1568054 -0.04005204 -0.015330166 -0.11727764 -0.2217232 0.191473 0.082068145 -0.1583157
0.15131879 -0.008847237 0.028250158 0.018918782 0.110826015 -0.19322681 -0.03943266 0.013264298
-0.09211543 0.12784055 -0.0649368 -0.15316913 0.19724229 0.056271672 0.18989962 0.07007095
0.006605327 0.18790153 0.004481703 0.20102713 -0.18821356 -0.21976066 -0.02588135 -0.021469995
-0.017989159 0.11923069 -0.06272891 -0.09157914 -0.12064754 -0.09928955 -0.2110447 -0.001655519
0.000454247 0.035767198 0.18161651 -0.08073227 -0.21485874 -0.18829179 -0.14295462 0.09969434
-0.03145939 0.12834144 -0.04886192 -0.022847667 0.19546977 -0.12177751 0.017578244 0.1578888
-0.07334763 0.029298067 -0.21946155 -0.16274138 0.18290755 -0.14076227 0.10784504 0.16350445
-0.19586632 -0.100035034 0.2012966 -0.16949514 0.06831297 0.093575 -0.09571031 0.022282556
0.14299205 -0.0674711 -0.0890211 -0.19433096 -0.21472205 0.19346163 0.2015577 -0.13795191
-0.08551788 -0.15141921 -0.19748858 0.07655838 0.029382527 -0.057082713 -0.14355263 0.16386515
-0.06091769 -0.07678169 -0.10892591 0.019689783 -0.19474567 0.049200714 0.18718725 0.029386312
-0.040846497 -0.08110535 -0.0075627416 0.0023910403 0.12794825 -0.054253265 -0.06484921 0.15089637
0.09467542 -0.08384378 -0.19146621 -0.10943144 0.16476497 0.06487435 0.048929125 0.10386911
0.011371613 -0.18874572 -0.12353732 0.21794614 0.033326387 0.1691736 0.10057548 0.22165316
-0.021060482 -0.2087889 0.013736129 0.055835962 0.18841633 0.17575917 0.0966782 -0.14944991
0.21833995 0.15496922 -0.14409195 0.06801468 0.06310302 0.2009806 -0.17736408 -0.020615518
0.1301611 0.10967645 0.18642187 0.21344128 0.010289028 0.0434345 -0.21766579 0.06916362
-0.12215635 0.070777714 0.16785333 -0.17314614 -0.046175554 0.033759832 -0.08070172 -0.12740132
0.10512203 -0.18521321 0.0020418465 0.059757948 -0.1342797 0.19638562 -0.0015524179 -0.099913165
0.09039351 0.035770863 -0.1464754 -0.008472398 -0.11394212 0.10708535 0.054427207 -0.11079908
-0.011267945 -0.06969355 -0.16186437 0.21754119 0.095941454 0.16453657 -0.115669854 -0.122218594
-0.21364105 0.0058659166 -0.19393149 0.17405826 -0.102571435 -0.035275474 0.18076351 -0.09059073
-0.09240843 0.090122074 0.08151847 0.011813059 -0.034705162 0.14086202 0.015720457 -0.16716084
-0.117961764 0.12792718 0.17616662 -0.008068487 -0.12458586 0.03093651 0.022732377 -0.1379753
-0.13795575 -0.1877684 0.050051272 0.12617707 -0.19771267 0.059906036 0.20282629 0.17514858
0.118228346 0.21757504 0.057044715 0.02216801 -0.015788853 -0.01793307 -0.20913556 -0.20178282
-0.06540027 -0.15962121 -0.21229468 -0.0553959 -0.025893226 0.0071009398 0.21999401 0.023412421
-0.21719982 0.024911076 0.0030235648 0.07501203 0.14655975 -0.16690016 -0.19726133 -0.08151887
0.05331415 -0.099684775 -0.1799434 0.002569139 0.1670531 0.039401025 0.026895791 -0.004404396
-0.062459737 -0.046968445 0.0025515407 0.03043446 -0.138957 0.18962198 -0.12111786 0.046613514
00000000: 7055 a4bd 301d 5b3e 804a 2e3b a228 563e
00000010: 5cd7 2a3e d0bb 88bc 11bb 18be 7071 84bc
00000020: 9891 203e 9c0d 24bd 602b 7bbc 422f f0bd
00000030: 680b 63be 8011 443e 5813 a83d 831d 22be
00000040: 50f3 1a3e 00f4 10bc e06c e73c 90fb 9a3c
00000050: c0f8 e23d 40dd 45be 2484 21bd 8052 593c
00000060: 04a7 bcbd a2e8 023e 96fd 84bd 5ed8 1cbe
00000070: e2f9 493e 207d 663d 0c75 423e 5c81 8f3d
00000080: 8071 d83b 4269 403e 40db 923b 0eda 4d3e
00000090: 0ebb 40be f008 61be 2005 d4bc d8e1 afbc
000000a0: 005e 93bc 382f f43d 0478 80bd d88d bbbd
000000b0: 0f16 f7bd 5258 cbbd 1a1c 58be 00fe d8ba
000000c0: 0028 ee39 a080 123d aef9 393e f656 a5bd
000000d0: ee03 5cbe 90cf 40be b262 12be 8c2c cc3d
000000e0: 90db 00bd f06b 033e 7023 48bd 082b bbbc
000000f0: 3a29 483e 7d66 f9bd 4000 903c 9aad 213e
00000100: 4837 96bd 8002 f03c 87ba 60be ada5 26be
00000110: 1e4c 3b3e fc23 10be dcdd dc3d b66d 273e
00000120: 2e91 48be 2bdf ccbd b220 4e3e 2290 2dbe
00000130: ace7 8b3d 40a4 bf3d c403 c4bd e889 b63c
00000140: 826c 123e 4a2e 8abd b250 b6bd b2fe 46be
00000150: 19e0 5bbe ce1a 463e 2465 4e3e 4443 0dbe
00000160: 0024 afbd a30d 1bbe 723a 4abe a4ca 9c3d
00000170: a0b3 f03c 90cf 69bd 76ff 12be 44cc 273e
00000180: d484 79bd b83f 9dbd 8c14 dfbd 784c a13c
00000190: 696b 47be b086 493d 04ae 3f3e 90bb f03c
000001a0: a84e 27bd 901a a6bd e0d0 f7bb 00b3 1c3b
000001b0: de04 033e ac38 5ebd aacf 84bd 9484 1a3e
000001c0: 30e5 c13d 4ab6 abbd b80f 44be 971d e0bd
000001d0: 26b8 283e d8dc 843d e869 483d 54b9 d43d
000001e0: 0050 3a3c 8f46 41be 2201 fdbd 462d 5f3e
000001f0: 4081 083d d83b 2d3e 84fa cd3d 0cf9 623e
00000200: 0887 acbc c2cc 55be 800d 613c 40b4 643d
00000210: 36f0 403e 36fa 333e 38ff c53d 6609 19be
00000220: 8294 5f3e 40b0 1e3e d78c 13be 484b 8b3d
00000230: 283c 813d dccd 4d3e ee9e 35be e0e1 a8bc
00000240: f448 053e 0c9e e03d 60e5 3e3e 5a90 5a3e
00000250: 5093 283c 60e8 313d c8e3 5ebe a8a5 8d3d
00000260: 1c2d fabd e8f3 903d bee1 2b3e 394d 31be
00000270: 9422 3dbd c047 0a3d f246 a5bd 7e75 02be
00000280: 384a d73d 88a8 3dbe 80d0 053b c0c4 743d
00000290: 9e80 09be 5019 493e 807a cbba 469f ccbd
000002a0: 3c20 b93d 7884 123d a6fd 15be d0cf 0abc
000002b0: 7c5a e9bd 904f db3d 10ef 5e3d a1ea e2bd
000002c0: 309d 38bc 7ebb 8ebd c6bf 25be 1ec3 5e3e
000002d0: f47c c43d 467c 283e 51e4 ecbd be4d fabd
000002e0: b8c4 5abe e036 c03b fa95 46be 543c 323e
000002f0: f910 d2bd 047d 10bd 121a 393e a287 b9bd
00000300: a240 bdbd ec91 b83d 28f3 a63d 908b 413c
00000310: 0027 0ebd 223e 103e 30c8 803c 362c 2bbe
00000320: f095 f1bd 58ff 023e 0665 343e b031 04bc
00000330: df26 ffbd 906e fd3c 4039 ba3c 6649 0dbe
00000340: 4644 0dbe 5c46 40be 9002 4d3d 9034 013e
00000350: 3175 4abe 0860 753d b2b1 4f3e 265a 333e
00000360: b421 f23d fecb 5e3e b8a7 693d b099 b53c
00000370: a057 81bc 60e8 92bc a227 56be 28a0 4ebe
00000380: 94f0 85bd be73 23be c763 59be d0e6 62bd
00000390: 081e d4bc 00af e83b 1c46 613e 68cb bf3c
000003a0: a169 5ebe 5012 cc3c 0027 463b e89f 993d
000003b0: c213 163e e0e7 2abe e0fe 49be 5ef3 a6bd
000003c0: f05f 5a3d 8827 ccbd 1543 38be 005f 283b
000003d0: f80f 2b3e f862 213d 9054 dc3c c052 90bb
000003e0: c8d5 7fbd fc61 40bd c037 273b b051 f93c
000003f0: be4a 0ebe 442c 423e a40c f8bd d0ed 3e3d

transformer_encoder.encoder.attention.fc_K.bias f4 [20]
0.16407552 -0.116613604 -0.18876566 0.18555418 0.087766916 0.1271312 0.0636833 0.10613775
0.12862772 0.1509256 -0.15442358 -0.0431706 -0.14227998 0.21826616 0.090833575 -0.060802758
0.14563721 0.035043776 0.015044302 0.031176299
00000000: 6a03 283e 1dd3 eebd c94b 41be ea01 3e3e
00000010: 24bf b33d ae2e 023e 646c 823d c05e d93d
00000020: fcb6 033e 3e8c 1a3e 3721 1ebe a8d3 30bd
00000030: d8b1 11be 2a81 5f3e f406 ba3d 500c 79bd
00000040: ec21 153e 108a 0f3d 607c 763c 7065 ff3c

transformer_encoder.encoder.attention.fc_V.weight f4 [20, 20]
0.0019079 -0.15384367 -0.08505161 -0.05380544 0.16333887 -0.015131921 0.20204648 0.006942719
0.21596837 0.18704885 0.11424914 0.13625842 -0.013689831 0.19963935 0.21119913 0.045135826
0.08534053 -0.0071574897 -0.16641359 -0.09521037 -0.008510441 0.026389182 -0.1694673 0.16358706
0.19134894 0.15337238 0.046368062 -0.0012746304 0.03981182 -0.12510757 0.16211566 0.021773607
-0.15637782 -0.17773868 -0.024329305 -0.21316798 0.15956286 -0.130939 -0.09359418 0.11518353
-0.19364278 -0.033818185 0.18311572 -0.2224521 0.061395228 -0.021004245 0.024291426 -0.15807047
0.009775907 0.21924472 0.07066783 -0.20185107 -0.055028453 -0.029188946 0.21134114 -0.19143838
-0.06128651 0.008094996 -0.026851773 0.08080897 -0.024473488 -0.22152789 -0.2103562 -0.06650452
0.1902549 -0.007562235 0.20918295 0.18534002 0.027027935 0.20067349 0.13355839 0.09703404
0.062715024 0.20753485 0.02442436 -0.050815657 -0.1355475 0.19021574 -0.12607609 0.15147871
-0.15998212 0.037929863 0.14981708 -0.14236446 -0.11932703 -0.1679972 0.19106227 0.015498236
-0.20452768 -0.03059414 -0.20994586 -0.21157011 0.16569296 0.19531444 -0.05184844 -0.22212994
-0.03319572 0.097393215 -0.083960846 0.12050077 -0.17010443 -0.1111277 -0.013950974 0.07285318
0.095009565 0.1225006 -0.084583595 0.20468569 0.18483937 0.06290841 -0.18670505 -0.1159391
0.14736226 -0.18283091 -0.08770418 -0.081931606 0.13006806 0.20036256 0.08543974 0.04593
0.058371335 -0.04169658 0.21350393 0.09401032 -0.038354695 -0.19978565 -0.011110887 -0.044328034
0.011499405 0.11023876 0.1919527 0.11939481 -0.009702846 0.1512545 -0.14585458 0.041287184
-0.06736733 0.053084582 0.08147094 -0.029269442 -0.08439499 0.023140296 -0.053742826 0.12435362
0.20075664 -0.16740508 -0.03262365 0.008943781 0.21071681 0.18158776 0.17864504 0.1256606
0.06042415 0.19596097 -0.21632117 -0.20543513 0.11512995 0.08284423 -0.15847073 0.038152963
0.14096504 0.20734552 0.16933188 0.07865438 0.009745121 0.115320265 0.059285283 0.11404571
-0.11608513 -0.19315262 -0.04055512 0.14698198 -0.17930827 0.04276696 -0.09009901 -0.20696619
0.21548611 -0.10277288 -0.18301356 -0.12254206 0.08076182 0.17655587 0.025044143 0.048917234
-0.21533667 0.07745457 -0.0133443475 -0.19106287 -0.0020108968 -0.19181652 -0.17803344 -0.17129616
-0.12082054 -0.07907942 0.16734171 0.005185157 0.0011124015 0.100275636 0.16043708 0.07485238
-0.12558532 -0.16028345 0.018534824 -0.18558115 0.16823325 -0.13538802 0.20874894 0.035583943
-0.20103945 0.18900645 -0.03508328 -0.013215482 0.06932452 -0.13407223 -0.17439431 0.013779372
0.13950047 0.1828233 0.034287065 0.1579898 0.029733688 -0.056093574 0.031559795 -0.19766666
0.048691094 0.20764855 -0.16693777 -0.14132512 0.13473591 0.022342607 -0.17881742 0.06406027
-0.031486347 0.16976398 0.041481346 -0.029505566 0.15663716 0.18085548 0.076107115 0.14199936
-0.04421994 0.1929662 0.008586481 0.071765155 -0.09853092 0.113311976 -0.120448716 0.02745232
0.10351065 0.1800465 0.052506924 0.09494272 -0.027467176 -0.19652118 -0.074283704 -0.01613909
00000000: 8012 fa3a 3289 1dbe 8a2f aebd 1863 5cbd
00000010: 4e42 273e e0eb 77bc 46e5 4e3e c07f e33b
00000020: d026 5d3e bc89 3f3e 74fb e93d 5487 0b3e
00000030: 504b 60bc 426e 4c3e 9644 583e 58e0 383d
00000040: 04c7 ae3d 6089 eabb 5368 2abe a8fd c2bd
00000050: 606f 0bbc 202e d83c d688 2dbe 5e83 273e
00000060: faf0 433e a60d 1d3e 70ec 3d3d 8011 a7ba
00000070: b811 233d 331c 00be a601 263e 905e b23c
00000080: 8221 20be 2101 36be 404e c7bc b548 5abe
00000090: 7264 233e e014 06be 4eae bfbd 58e5 eb3d
000000a0: 4b4a 46be f084 0abd b082 3b3e 7cca 63be
000000b0: 9079 7b3d 1811 acbc d0fe c63c 3add 21be
000000c0: 202b 203c b081 603e 4cba 903d 0cb2 4ebe
000000d0: 8465 61bd a81d efbc d069 583e 6c08 44be
000000e0: 9007 7bbd e0a0 043c 40f8 dbbc 2c7f a53d
000000f0: a07c c8bc 35d8 62be 9e67 57be 8633 88bd
00000100: 2ed2 423e a0cc f7bb 0e34 563e c6c9 3d3e
00000110: b069 dd3c 5a7d 4d3e 88c3 083e c8b9 c63d
00000120: bc70 803d 0484 543e 9815 c83c 1424 50bd
00000130: f7cc 0abe eac7 423e 171a 01be 3c1d 1b3e
00000140: 5ad2 23be 585c 1b3d a669 193e fdc7 11be
00000150: bb61 f4bd 7507 2cbe d4a5 433e 50ec 7d3c
00000160: b46f 51be 90a0 fabc 0cfc 56be d6a5 58be
00000170: 6aab 293e 8200 483e 085f 54bd 0876 63be
00000180: 3cf8 07bd 1876 c73d aaf3 abbd 1cc9 f63d
00000190: db2f 2ebe eb96 e3bd a092 64bc 0c34 953d
000001a0: 6094 c23d 98e1 fa3d 2a3a adbd 2099 513e
000001b0: 8846 3d3e 20d6 803d 9c2f 3fbe 7b71 edbd
000001c0: 22e6 163e 0738 3bbe 409e b3bd c2cb a7bd
000001d0: 9030 053e d82b 4d3e 08fb ae3d 1821 3c3d
000001e0: c816 6f3d 08ca 2abd c6a0 5a3e 7c88 c03d
000001f0: d019 1dbd 9c94 4cbe 700a 36bc 5091 35bd
00000200: 0068 3c3c dcc4 e13d 408f 443e 4485 f43d
00000210: b0f8 1ebc 76e2 1a3e e75a 15be c01c 293d
00000220: e2f7 89bd 386f 593d 3cda a63d 78c6 efbc
00000230: 48d7 acbd b890 bd3c 7021 5cbd 1cad fe3d
00000240: 2693 4d3e 3d6c 2bbe 60a0 05bd f088 123c
00000250: 26c6 573e 24f2 393e baee 363e 2cad 003e
00000260: 507f 773d fea9 483e 4c83 5dbe 965d 52be
00000270: 40c9 eb3d 3caa a93d 2746 22be 4846 1c3d
00000280: 2459 103e 6252 543e 5665 2d3e 8c15 a13d
00000290: 00aa 1f3c 082d ec3d 20d5 723d cc90 e93d
000002a0: 0abe edbd cdc9 45be 201d 26bd 7282 163e
000002b0: 969c 37be 682c 2f3d d485 b8bd f2ee 53be
000002c0: 64a8 5c3e 967a d2bd e867 3bbe 55f7 fabd
000002d0: 7466 a53d 10cb 343e 6029 cd3c 705d 483d
000002e0: 3781 5cbe 80a0 9e3d 40a2 5abc fca5 43be
000002f0: 40c9 03bb 8d6b 44be 664e 36be 4368 2fbe
00000300: c270 f7bd 64f4 a1bd a05b 2b3e 40e8 a93b
00000310: 00ce 913a 505d cd3d 9e49 243e 344c 993d
00000320: 7099 00be 5821 24be 58d6 973c fc08 3ebe
00000330: 5645 2c3e 28a3 0abe 48c2 553e 78c0 113d
00000340: 49dd 4dbe e88a 413e 7cb3 0fbd c085 58bc
00000350: 04fa 8d3d 3b4a 09be 6c94 32be e0c2 613c
00000360: 36d9 0e3e 0836 3b3e 9870 0c3d 14c8 213e
00000370: 1094 f33c 60c2 65bd d844 013d 2169 4abe
00000380: 5070 473d d2a1 543e bcf1 2abe 88b7 10be
00000390: 36f8 093e d807 b73c ea1b 37be 0832 833d
000003a0: d4f7 00bd 9cd6 2d3e 58e8 293d a8b5 f1bc
000003b0: 7e65 203e 2e32 393e 0cde 9b3d 4868 113e
000003c0: f81f 35bd ee98 453e 50ae 0c3c 9cf9 923d
000003d0: 94ca c9bd 1c10 e83d d1ad f6bd b0e3 e03c
000003e0: 64fd d33d 1c5e 383e 8011 573d 5471 c23d
000003f0: d802 e1bc d93c 49be 0e22 98bd 2036 84bc

transformer_encoder.encoder.attention.fc_V.bias f4 [20]
0.055912286 -0.021710068 0.12925318 -0.18906379 -0.050763965 0.009145841 -0.20240828 -0.12452788
-0.069977134 -0.17392968 0.010906652 -0.10911757 0.018312275 -0.070817366 -0.12964684 0.19167057
0.08317402 0.00090512633 0.10834432 0.15868106
00000000: 4804 653d 50d9 b1bc f25a 043e f099 41be
00000010: e0ed 4fbd 70d8 153c 1e44 4fbe 7908 ffbd
00000020: 2c50 8fbd 9f1a 32be d0b1 323c 0879 dfbd
00000030: a003 963c b208 91bd 24c2 04be 4a45 443e
00000040: 2457 aa3d 0046 6d3a a0e3 dd3d 4a7d 223e

transformer_encoder.encoder.attention.fc.weight f4 [20, 20]
0.05795467 0.014515579 0.04683286 -0.20152259 -0.12335923 0.093587816 -0.13980702 -0.01967138
-0.034883544 -0.06385073 0.19768667 -0.10796968 0.128771 -0.1528311 0.0771144 -0.024590403
-0.14217085 0.016994163 0.14029238 0.1153979 0.07724741 0.095668465 0.04672262 -0.03755927
-0.2215059 -0.01535055 -0.17170253 0.106276244 -0.13699773 0.0052898377 0.18733943 -0.14987749
-0.15105082 -0.03691569 0.16013715 0.20422217 0.045793414 0.2103309 0.20015639 0.014008611
0.13913682 -0.061119452 0.17380795 -0.22328153 -0.178895 -0.02431798 -0.14304464 -0.21645059
-0.13760757 -0.047702417 0.18770894 0.11853677 -0.14803603 -0.12531991 -0.011248007 0.17090309
0.082365155 0.22204924 0.01805976 -0.071536094 0.1139431 0.11507705 -0.12899572 0.22143608
-0.14720982 0.21154258 0.011226237 -0.1769324 -0.22081168 -0.04919772 -0.1757112 0.16836494
-0.12832266 -0.106851965 0.19881818 0.024354741 0.17012477 0.21554968 0.11583549 0.027151048
-0.11345159 -0.03256023 -0.181965 -0.051702797 -0.017849043 0.13533258 -0.013115495 -0.05119075
-0.023930326 -0.12214939 0.14944723 0.05198306 -0.10645559 0.13332507 -0.21822271 -0.08916263
-0.024498254 -0.028198317 0.077744305 0.0043878257 0.17854807 -0.18706274 -0.15567768 0.09876099
0.08746797 -0.06643228 0.16180971 -0.10436248 -0.10247542 0.10660827 -0.012087375 0.02837357
-0.2187959 0.08507556 -0.1750387 -0.0047294945 0.014441505 -0.11210162 -0.17873023 0.12783659
0.10809502 0.22177708 0.06126517 0.031698674 0.06526554 -0.1151483 0.09704617 0.10305217
-0.18143308 0.07171562 0.09348136 -0.07740806 -0.08160201 -0.031286284 -0.16674286 0.20255193
-0.12144909 -0.05026582 -0.06579207 0.04052341 -0.1045721 -0.1664586 -0.07937226 -0.21179613
-0.18952315 0.15758559 0.16752997 0.04062879 0.03392005 -0.004713878 -0.14891863 -0.027716383
-0.07738501 -0.04568304 0.18197611 -0.0053235292 0.2114287 0.10340485 0.22329193 0.05245185
-0.21244723 -0.0057098716 -0.028213441 -0.2181825 -0.023869514 0.20523944 0.096976936 0.19303674
-0.100402385 -0.07771261 -0.15999524 0.008141011 -0.20736644 0.019452602 -0.20222558 0.034787863
-0.1915268 -0.20069596 -0.07362829 0.052963585 0.13499197 0.00673078 0.14983556 0.09630352
0.013141707 -0.0770192 0.11107722 0.059511364 0.008475095 0.017443448 -0.044590145 -0.17427266
0.088774174 0.0455513 -0.15959674 -0.11249408 -0.18057112 -0.07802552 0.20789611 0.08149591
0.028602928 -0.054108262 -0.21732742 0.15093708 -0.18354285 0.02488266 -0.057857156 0.034546554
0.021391153 0.038250595 -0.00018426776 -0.082055956 0.032969058 -0.09622426 0.15514484 0.2047922
0.11649856 -0.09817977 0.07855794 -0.16414252 0.19666329 -0.07021262 0.16362348 0.10006511
0.11509591 -0.18578021 -0.061581776 -0.0057937354 -0.06618546 -0.01620613 -0.12023651 -0.08350514
-0.19189996 0.0055446923 -0.0033176094 -0.14285523 -0.063012436 -0.1249962 -0.028250381 0.2082555
0.041025907 0.062677205 0.13624606 0.049368232 -0.19448575 0.20654097 0.1026656 -0.15351106
0.18482056 -0.18991823 -0.21449548 -0.14160143 0.16366902 -0.12858383 0.020881832 -0.17551997
00000000: e061 6d3d c0d2 6d3c d0d3 3f3d f05b 4ebe
00000010: c4a3 fcbd f8aa bf3d 9229 0fbe e025 a1bc
00000020: 0ce2 0ebd 2cc4 82bd 606e 4a3e 351f ddbd
00000030: 8cdc 033e c27f 1cbe 28ee 9d3d d071 c9bc
00000040: 3c95 11be 5837 8b3c cea8 0f3e bc55 ec3d
00000050: e433 9e3d d4ed c33d 3860 3f3d c0d7 19bd
00000060: 71d2 62be e080 7bbc cad2 2fbe 5ca7 d93d
00000070: 2249 0cbe 6056 ad3b e8d5 3f3e 7c79 19be
00000080: 11ad 1abe e834 17bd fefa 233e 9e1f 513e
00000090: e091 3b3d fc60 573e ccf5 4c3e 6084 653c
000000a0: e279 0e3e 6458 7abd b6fa 313e eaa3 64be
000000b0: 4030 37be 8036 c7bc 4b7a 12be 39a5 5dbe
000000c0: 00e9 0cbe 9c63 43bd c636 403e 68c3 f23d
000000d0: c296 17be dd53 00be 9049 38bc 3801 2f3e
000000e0: 10af a83d e060 633e 10f2 933c 8481 92bd
000000f0: 005b e93d 84ad eb3d 7417 04be 24c0 623e
00000100: 2cbe 16be 9e9e 583e 40ee 373c c42d 35be
00000110: 751c 62be 8c83 49bd a3ed 33be dc67 2c3e
00000120: 0467 03be 34d5 dabd fe96 4b3e 9883 c73c
00000130: 3035 2e3e 0eb9 5c3e 283b ed3d e06b de3c
00000140: 4f59 e8bd e05d 05bd 0855 3abe 50c6 53bd
00000150: 2838 92bc a094 0a3e 60e2 56bc 64ad 51bd
00000160: 8809 c4bc 7629 fabd b208 193e 30ec 543d
00000170: 6305 dabd 5e86 083e c675 5fbe e69a b6bd
00000180: 90b0 c8bc 2800 e7bc 6838 9f3d c0c7 8f3b
00000190: 4ed5 363e 608d 3fbe f869 1fbe 3443 ca3d
000001a0: 6822 b33d a60d 88bd 72b1 253e ffbb d5bd
000001b0: a2de d1bd 7055 da3d 200a 46bc b06f e83c
000001c0: 080c 60be 183c ae3d 583d 33be e0f9 9abb
000001d0: 109c 6c3c 8995 e5bd 0f05 37be 98e7 023e
000001e0: ec60 dd3d 8819 633e 30f1 7a3d 78d6 013d
000001f0: f0a9 853d dfd2 ebbd 24c0 c63d 040d d33d
00000200: 98c9 39be a4df 923d 2873 bf3d 1e88 9ebd
00000210: f41e a7bd 0c26 00bd a4be 2abe c669 4f3e
00000220: 4dba f8bd 88e3 4dbd febd 86bd e0fb 253d
00000230: e629 d6bd 2074 2abe ec8d a2bd 16e1 58be
00000240: 5b12 42be 1e5e 213e fa8c 2b3e 606a 263d
00000250: c0ef 0a3d e076 9abb 207e 18be 780d e3bc
00000260: 087c 9ebd 241e 3bbd f257 3a3e 0071 aebb
00000270: c480 583e ecc5 d33d a4a6 643e c0d7 563d
00000280: c48b 59be e019 bbbb e01f e7bc 3c6b 5fbe
00000290: 008a c3bc 4a2a 523e d89b c63d 6cab 453e
000002a0: c49f cdbd ca27 9fbd cbd5 23be e061 053c
000002b0: de57 54be 105b 9f3c 3914 4fbe b87d 0e3d
000002c0: 9a1f 44be 3e83 4dbe 6eca 96bd 58f0 583d
000002d0: 563b 0a3e e08d dc3b 7e6e 193e c83a c53d
000002e0: 5050 573c 3ebc 9dbd 747c e33d 30c2 733d
000002f0: 20db 0a3c 90e5 8e3c 28a4 36bd 8874 32be
00000300: 3ccf b53d 0094 3a3d 546d 23be 4c63 e6bd
00000310: a3e7 38be d8cb 9fbd b8e2 543e 54e7 a63d
00000320: b050 ea3c a0a0 5dbd 148b 5ebe 408f 1a3e
00000330: a8f2 3bbe b8d6 cb3c a0fb 6cbd b080 0d3d
00000340: 803c af3c a8ac 1c3d 0038 41b9 f40c a8bd
00000350: 900a 073d 3a11 c5bd 4ade 1e3e 0cb5 513e
00000360: cc96 ee3d 7a12 c9bd fce2 a03d fa14 28be
00000370: 1a62 493e a2cb 8fbd ea8c 273e f0ee cc3d
00000380: 68b7 eb3d 2b3d 3ebe 2c3d 7cbd 60d9 bdbb
00000390: 3e8c 87bd b8c2 84bc 8f3e f6bd be04 abbd
000003a0: 6c81 44be 40b0 b53b 406c 59bb a448 12be
000003b0: aa0c 81bd 02fe ffbd 586d e7bc ee40 553e
000003c0: c80a 283d e85c 803d 1684 0b3e 5836 4a3d
000003d0: 4627 47be 7a7f 533e 5842 d23d 0132 1dbe
000003e0: 9a41 3d3e ed79 42be b4a4 5bbe f7ff 10be
000003f0: da98 273e 7bab 03be 6010 ab3c 82bb 33be

transformer_encoder.encoder.attention.fc.bias f4 [20]
-0.14447442 -0.14332485 0.14592493 0.109632134 0.16854763 -0.14658591 0.07543281 0.09862071
0.1620703 -0.10806761 -0.1776763 0.103125036 0.20591223 -0.14282435 -0.034936562 0.18855187
-0.16516277 0.15692398 0.19310284 -0.06902416
00000000: 1af1 13be c0c3 12be 586d 153e d086 e03d
00000010: c097 2c3e 9e1a 16be 847c 9a3d a8f9 c93d
00000020: c2f5 253e 8d52 ddbd c7f0 35be 3833 d33d
00000030: a8da 523e 8c40 12be a419 0fbd be13 413e
00000040: 6e20 29be aeb0 203e c0bc 453e 8a5c 8dbd

transformer_encoder.encoder.attention.layer_norm.weight f4 [20]
1.0 1.0 1.0 1.0 1.0 1.0 1.0 1.0
1.0 1.0 1.0 1.0 1.0 1.0 1.0 1.0
1.0 1.0 1.0 1.0
00000000: 0000 803f 0000 803f 0000 803f 0000 803f
00000010: 0000 803f 0000 803f 0000 803f 0000 803f
00000020: 0000 803f 0000 803f 0000 803f 0000 803f
00000030: 0000 803f 0000 803f 0000 803f 0000 803f
00000040: 0000 803f 0000 803f 0000 803f 0000 803f

transformer_encoder.encoder.attention.layer_norm.bias f4 [20]
0.0 0.0 0.0 0.0 0.0 0.0 0.0 0.0
0.0 0.0 0.0 0.0 0.0 0.0 0.0 0.0
0.0 0.0 0.0 0.0
00000000: 0000 0000 0000 0000 0000 0000 0000 0000
00000010: 0000 0000 0000 0000 0000 0000 0000 0000
00000020: 0000 0000 0000 0000 0000 0000 0000 0000
00000030: 0000 0000 0000 0000 0000 0000 0000 0000
00000040: 0000 0000 0000 0000 0000 0000 0000 0000

transformer_encoder.encoder.feed_forward.fc1.weight f4 [256, 20]
-0.0928763 -0.20450035 0.17777044 -0.13769059 -0.081053376 0.18095052 -0.05575286 0.1850825
0.20649484 0.21966985 -0.20793349 -0.17127804 0.11766815 0.0543862 0.19798207 0.01820752
-0.19875161 -0.18871534 0.12430194 -0.028872535 -0.14837344 0.027941048 -0.033140913 0.19142073
0.06364915 0.022342429 0.223073 0.11561978 0.12146616 0.13233402 0.16312575 0.042842984
-0.022178784 -0.053009257 -0.13040255 0.18066749 0.08043519 -0.10490112 0.012754932 0.09887496
0.10480222 0.17310074 -0.22107226 0.1673325 -0.041828126 0.032993436 -0.14141865 -0.17713359
-0.1580737 0.16508403 -0.16427113 -0.058223277 0.21300587 -0.0958748 0.20304489 -0.06212607
-0.035313934 0.012068912 0.16414317 -0.2086138 -0.013478205 -0.14019614 -0.013048723 0.09680444
0.010418043 -0.09879753 -0.21862316 -0.1154637 0.2050483 0.2036049 0.028751373 -0.18566935
0.069247484 0.19126943 0.13305712 -0.10800236 -0.037104145 -0.22218952 0.007989496 0.007852003
-0.028171808 0.10295406 -0.21133298 -0.09429659 0.16212562 -0.101474784 -0.07016207 0.14910468
0.135638 -0.053500265 -0.04259795 0.19426197 -0.033413306 0.21218336 0.12610567 -0.13844639
-0.003820151 -0.18479815 -0.21221112 -0.05180405 0.118070096 0.21640766 -0.10404152 0.11421487
0.028882891 0.1292021 0.119936526 0.07629764 -0.05605723 -0.012198076 -0.0923467 0.18565851
0.11335805 0.17560467 -0.17585032 -0.17479959 0.11133394 0.027269065 -0.06554861 0.09067786
0.07701096 -0.08437626 -0.12558976 -0.21699525 0.09654769 -0.12216664 -0.1776078 -0.18030408
-0.17666362 -0.034586117 -0.1970051 0.003510937 -0.053763032 -0.08986859 0.15654603 0.04853058
0.13019454 -0.11716051 0.13686457 0.06327149 0.10427216 0.11747587 -0.121580824 0.22239256
-0.20558691 0.10133839 -0.19804049 0.124768436 0.046137482 -0.13852033 -0.15412813 -0.16769372
-0.16919245 -0.21198037 0.107830256 -0.10103887 0.1082111 -0.1732566 -0.20116144 0.2181547
-0.19508633 0.15085694 -0.13473302 0.06327975 0.21360117 0.118991315 0.18866307 -0.1640972
0.17713705 0.12619352 0.15866095 -0.16327295 0.10466933 0.05066842 0.06522137 -0.017594025
0.15425044 0.21092051 -0.10746924 0.13992628 0.16772455 -0.14276358 0.0029435754 0.14884472
-0.17844723 0.008348495 0.13572568 0.042723805 -0.13433927 -0.024956152 0.11389658 -0.01672177
0.19457382 -0.0032545924 -0.15592936 -0.075279176 0.109725386 -0.10827782 -0.12733445 -0.084409386
0.041520953 -0.14517552 0.10841745 -0.2189045 0.06848088 -0.20426424 0.09164935 0.008195952
0.09488857 -0.22204584 -0.15848365 0.10485944 -0.025945604 0.101169676 -0.09146236 -0.08617756
0.120895624 0.11189553 0.13469079 -0.15290035 0.06543696 -0.13696834 -0.12820312 0.058079004
-0.053102866 -0.17133638 -0.14688107 0.068292856 0.047803342 -0.22220512 0.052538842 -0.16142896
0.059728205 0.106942624 0.17917055 -0.15557203 -0.19925722 -0.1891376 -0.15181571 -0.013406724
-0.094427735 -0.060805842 0.07560477 -0.18997803 -0.004305482 -0.19500786 -0.15466177 0.11048716
-0.061220825 -0.21621327 -0.0034705848 -0.14469174 -0.17058632 -0.029402435 0.1647712 -0.15854183
00000000: ee35 bebd 8a68 51be 7409 363e c3fe 0cbe
00000010: 50ff a5bd 184b 393e 1c5d 64bd 4486 3d3e
00000020: 6273 533e 22f1 603e 84ec 54be 8363 2fbe
00000030: 00fc f03d 10c4 5e3d d0bb 4a3e f027 953c
00000040: 8b85 4bbe 983e 41be 0492 fe3d 1886 ecbc
00000050: 35ef 17be a0e4 e43c c4be 07bd cc03 443e
00000060: 7c5a 823d 7807 b73c 406d 643e 10ca ec3d
00000070: 40c3 f83d 9282 073e 700a 273e 207c 2f3d
00000080: 48b0 b5bc 3c20 59bd 3f88 05be e600 393e
00000090: 34bb a43d 66d6 d6bd 10fa 503c f47e ca3d
000000a0: 8ca2 d63d 5241 313e c460 62be 3659 2b3e
000000b0: f853 2bbd 2024 073d 0dd0 10be 8262 35be
000000c0: 12de 21be ca0b 293e b136 28be 887b 6ebd
000000d0: 361e 5a3e 025a c4bd 00eb 4f3e e877 7ebd
000000e0: 58a5 10bd b0bc 453c 2615 283e db9e 55be
000000f0: b0d3 5cbc 948f 0fbe 50ca 55bc 6841 c63d
00000100: 70b0 2a3c 5c56 cabd c0de 5fbe 3b78 ecbd
00000110: 2ef8 513e ce7d 503e 0088 eb3c 1b20 3ebe
00000120: a0d1 8d3d 22dc 433e 2040 083e 5730 ddbd
00000130: 84fa 17bd a685 63be 60e6 023c b0a5 003c
00000140: 90c8 e6bc 94d9 d23d ac67 58be 921e c1bd
00000150: 4204 263e 03d2 cfbd 22b1 8fbd e6ae 183e
00000160: b0e4 0a3e 1823 5bbd 307b 2ebd 9cec 463e
00000170: 64dc 08bd 9846 593e d821 013e e4c4 0dbe
00000180: 805b 7abb ba3b 3dbe df4d 59be 7c30 54bd
00000190: bcce f13d f899 5d3e b813 d5bd 7ce9 e93d
000001a0: d09b ec3c 8e4d 043e 48a1 f53d f041 9c3d
000001b0: 449c 65bd 70da 47bc 4420 bdbd 441d 3e3e
000001c0: 4428 e83d b6d1 333e 1b12 34be aafe 32be
000001d0: 0c03 e43d 6063 df3c 5a3e 86bd 50b5 b93d
000001e0: ecb7 9d3d 76cd acbd 9a9a 00be 0134 5ebe
000001f0: ccba c53d 8132 fabd d2de 35be a2a1 38be
00000200: 4fe7 34be 2caa 0dbd b4bb 49be c017 663b
00000210: a036 5cbd 060d b8bd 9a4d 203e 00c8 463d
00000220: b851 053e d9f1 efbd 3a26 0c3e 7c94 813d
00000230: a48c d53d 3097 f03d 5eff f8bd e0ba 633e
00000240: 6085 52be 808a cf3d 20cb 4abe 9886 ff3d
00000250: a8fa 3c3d 46d8 0dbe c4d3 1dbe e7b7 2bbe
00000260: c940 2dbe 6211 59be 1cd6 dc3d 78ed cebd
00000270: c89d dd3d 2e6a 31be 44fd 4dbe f263 5f3e
00000280: b6c4 47be 3e7a 1a3e 74f7 09be d098 813d
00000290: 44ba 5a3e b8b1 f33d e430 413e 1909 28be
000002a0: 6a63 353e e038 013e 0478 223e 0631 27be
000002b0: e05c d63d b089 4f3d c892 853d 5821 90bc
000002c0: d4f3 1d3e 8cfb 573e d518 dcbd d648 0f3e
000002d0: fcbf 2b3e 9e30 12be 00e9 403b c06a 183e
000002e0: dfba 36be 20c8 083c acfb 0a3e 28ff 2e3d
000002f0: 3c90 09be d870 ccbc 9c42 e93d 18fc 88bc
00000300: 5c3e 473e 004b 55bb f2ab 1fbe f82b 9abd
00000310: b4b7 e03d c3c0 ddbd f663 02be d4de acbd
00000320: e011 2a3d e4a8 14be f809 de3d 8028 60be
00000330: b43f 8c3d a52a 51be a8b2 bb3d 5048 063c
00000340: f054 c23d fc5f 63be 8a49 22be 8cc0 d63d
00000350: e08b d4bc 0c32 cf3d 9e50 bbbd dc7d b0bd
00000360: 2098 f73d 7c29 e53d 62ec 093e e991 1cbe
00000370: d003 863d 6e41 0cbe ae47 03be 40e4 6d3d
00000380: 6482 59bd ce72 2fbe fe67 16be 20dd 8b3d
00000390: 70cd 433d bd89 63be f832 573d a24d 25be
000003a0: 90a5 743d bc04 db3d 7c78 373e 464e 1fbe
000003b0: 160a 4cbe 49ad 41be 9475 1bbe e0a7 5bbc
000003c0: 5463 c1bd 8c0f 79bd acd6 9a3d 9a89 42be
000003d0: 0015 8dbb 24b0 47be a85f 1ebe 1847 e23d
000003e0: b0c2 7abd 0367 5dbe c072 63bb 122a 14be
000003f0: 2eae 2ebe 60dd f0bc c8b9 283e ca58 22be

transformer_encoder.encoder.feed_forward.fc1.bias f4 [256]
0.09555197 -0.05321315 -0.06651242 0.0012809038 -0.09804128 0.1448136 0.17318207 -0.16489872
0.002916485 0.14843053 -0.015619084 -0.22190219 0.06826642 0.08923903 -0.14431895 0.014212951
-0.20559952 0.013320029 0.20550233 0.034804225 -0.22321042 0.051258355 0.068044126 -0.10251999
0.17670104 -0.14430892 0.2098583 -0.1946483 -0.12570968 0.103405 0.14297229 -0.10387753
-0.005158767 -0.13070245 0.01688847 0.12055892 0.059815854 -0.08971301 -0.18644217 0.12281552
0.1609905 0.16171667 0.038158506 0.20822117 -0.19341551 -0.1426318 -0.1914815 -0.0033369064
0.15783668 -0.2183216 0.16270009 0.057659328 0.20368338 -0.20117673 0.10792637 -0.15019235
-0.15138488 0.15465981 0.17484519 0.0024325699 -0.16796628 0.05751437 0.054343104 0.014390513
0.14842346 -0.051596597 0.047534555 0.22208744 -0.10296272 -0.21810937 0.0665164 0.19547963
-0.21358928 -0.10207108 -0.0318719 0.04493183 0.042528987 -0.16175142 0.009460852 0.10345712
0.18039209 0.16749284 -0.08213185 0.16230252 -0.1423274 0.1541715 0.20852217 0.15906227
-0.026814401 -0.010569379 -0.21630488 0.08874509 -0.016596377 -0.15910232 -0.18987007 0.21030557
-0.06693937 -0.125026 0.14980447 0.10546517 -0.08272502 -0.007828921 -0.0041086227 0.1523368
0.21430543 -0.19301336 0.11646637 0.18056351 0.17807215 -0.016545221 -0.10904431 0.11927861
0.13889346 -0.044252783 -0.07520078 0.0008036792 0.13913205 0.043920696 0.20545748 -0.15837517
-0.036350906 0.0137013495 -0.008850858 0.027137816 0.072196126 0.13198122 0.21827683 -0.1020465
0.15903506 0.14739469 0.20328844 -0.19531077 0.15319133 -0.15309289 -0.040773615 -0.1211294
0.04336396 -0.001828149 -0.17509665 -0.12928547 -0.19300914 -0.116875984 0.027747065 -0.070077494
-0.06021835 -0.12754518 0.15180817 -0.050670058 0.10925129 -0.10279772 0.15913054 -0.046163857
-0.08649421 0.18251371 0.10897604 -0.07596466 -0.08323677 0.04054916 0.066378415 0.12710255
0.03888479 -0.14085883 -0.16097926 0.05817315 -0.043268487 -0.10487153 -0.21873035 -0.016014665
0.05947423 -0.19813061 -0.021361053 0.12570956 0.070115775 0.16434518 0.14046934 -0.120642506
0.15685052 0.04289648 -0.037405968 0.17773953 0.14917174 0.17163816 0.16581565 0.02838552
-0.16243428 0.1526553 -0.047296494 -0.18519339 0.012943417 0.08602458 -0.15275113 -0.20253685
0.014093757 -0.14302166 0.21473214 -0.15160209 -0.16706643 0.16300699 -0.1476525 0.11347979
0.1646932 -0.053569853 -0.1237137 0.06331736 -0.045568183 0.14197046 0.14438844 0.011189848
0.192022 -0.015182868 0.13711417 -0.21695188 -0.09218125 0.083218336 0.15959343 -0.028956339
-0.057748243 -0.20069006 0.006015837 -0.15875223 0.013066009 0.21899208 0.09783435 -0.060510308
0.0104807615 -0.10694545 -0.1819555 0.022161722 -0.111255616 0.08462432 -0.21903633 0.19472736
-0.11227532 -0.1503923 0.17057958 0.038824886 0.17076582 0.15911978 -0.10084924 -0.20682263
0.08589926 -0.08420971 0.19263616 -0.097657934 0.054409534 -0.06631759 0.0025309026 0.124685705
-0.062979296 -0.014646336 0.17200199 0.14695439 -0.10458962 0.085439384 -0.11280361 0.20376483
00000000: c0b0 c33d 08f6 59bd aa37 88bd 00e4 a73a
00000010: dec9 c8bd 044a 143e a456 313e 36db 28be
00000020: 8022 3f3b 2cfe 173e 30e7 7fbc 543a 63be
00000030: 44cf 8b3d f4c2 b63d 59c8 13be 70dd 683c
00000040: ae88 52be 403c 5a3c 346f 523e e08e 0e3d
00000050: 4691 64be 48f4 513d b85a 8b3d 00f6 d1bd
00000060: 1ef1 343e b8c5 13be 18e5 563e e251 47be
00000070: 0aba 00be 00c6 d33d 5467 123e bebd d4bd
00000080: e00a a9bb ddd6 05be b059 8a3c 98e7 f63d
00000090: 7801 753d 74bb b7bd b2ea 3ebe b486 fb3d
000000a0: b2da 243e 0e99 253e 184c 1c3d ee37 553e
000000b0: b70e 46be 120e 12be ba13 44be 00b0 5abb
000000c0: f09f 213e b38f 5fbe da9a 263e 302c 6c3d
000000d0: 6092 503e 4601 4ebe 8008 dd3d 06cc 19be
000000e0: a304 1bbe 245f 1e3e 9e0a 333e c06b 1f3b
000000f0: 5aff 2bbe 3094 6b3d e096 5e3d 30c6 6b3c
00000100: 52fc 173e f456 53bd 98b3 423d e46a 633e
00000110: 1ede d2bd 1058 5fbe c039 883d d02b 483e
00000120: 26b7 5abe a40a d1bd 1c8c 02bd 700a 383d
00000130: e032 2e3d 2aa2 25be b001 1b3c 54e1 d33d
00000140: b4b8 383e 3e83 2b3e be34 a8bd a232 263e
00000150: 46be 11be 22df 1d3e d686 553e 38e1 223e
00000160: e0a9 dbbc 302b 2dbc 077f 5dbe fcbf b53d
00000170: 20f5 87bc b8eb 22be 4d6d 42be 585a 573e
00000180: 8217 89bd d106 00be 5866 193e 20fe d73d
00000190: bc6b a9bd e044 00bc a0a1 86bb 2efe 1b3e
000001a0: e272 5b3e 4ba5 45be ec85 ee3d a4e5 383e
000001b0: 8c58 363e d889 87bc a052 dfbd 5848 f43d
000001c0: 163a 0e3e 6842 35bd de02 9abd 00ae 523a
000001d0: a278 0e3e 30e6 333d 7263 523e 1a2d 22be
000001e0: b0e4 14bd a07b 603c 3003 11bc 2050 de3c
000001f0: 90db 933d 1626 073e f683 5f3e c1fd d0bd
00000200: 16da 223e a2ee 163e d82a 503e 8cff 47be
00000210: 30de 1c3e 62c4 1cbe 3c02 27bd b112 f8bd
00000220: 689e 313d 809e efba 894c 33be 6963 04be
00000230: 30a4 45be ad5c efbd d04d e33c ca84 8fbd
00000240: 84a7 76bd 349b 02be 9a73 1b3e 688b 4fbd
00000250: 24bf df3d 9c87 d2bd 1ef3 223e 5016 3dbd
00000260: e023 b1bd e0e4 3a3e d42e df3d 5c93 9bbd
00000270: 0a78 aabd e016 263d 68f1 873d 2c27 023e
00000280: a845 1f3d 4c3d 10be bfd7 24be f846 6e3d
00000290: 4c3a 31bd e2c6 d6bd d9fa 5fbe 3031 83bc
000002a0: 409b 733d c0e2 4abe 60fd aebc 02ba 003e
000002b0: dc98 8f3d 1a4a 283e 32d7 0f3e 6b13 f7bd
000002c0: 6c9d 203e 38b4 2f3d 0037 19bd 5a01 363e
000002d0: 7ac0 183e eac1 2f3e 94cb 293e c088 e83c
000002e0: 2c55 26be ac51 1c3e f8b9 41bd 56a3 3dbe
000002f0: a010 543c a82d b03d cb6a 1cbe d265 4fbe
00000300: 80e9 663c 4574 12be bee2 5b3e 943d 1bbe
00000310: 7613 2bbe 4eeb 263e 3832 17be 1868 e83d
00000320: 56a5 283e 106c 5bbd 9c5d fdbd 88ac 813d
00000330: b4a5 3abd b460 113e 90da 133e a055 373c
00000340: 6aa1 443e 90c1 78bc a867 0c3e a228 5ebe
00000350: 86c9 bcbd 606e aa3d 766c 233e d835 edbc
00000360: 6c89 6cbd b281 4dbe 8020 c53b f28f 22be
00000370: d012 563c 763f 603e 605d c83d a8d9 77bd
00000380: 80b7 2b3c 3706 dbbd 8b52 3abe 808c b53c
00000390: fcd9 e3bd 844f ad3d 0f4b 60be 9c66 473e
000003a0: 9af0 e5bd 7000 1abe 6aac 2e3e d806 1f3d
000003b0: 3cdd 2e3e 4cf0 223e 0c8a cebd 50c9 53be
000003c0: f4eb af3d 2476 acbd 6a42 453e e200 c8bd
000003d0: 88dc 5e3d 84d1 87bd 80dd 253b 385b ff3d
000003e0: 4afb 80bd 30f7 6fbc 4a21 303e 367b 163e
000003f0: 1533 d6bd d8fa ae3d 9405 e7bd baa7 503e

transformer_encoder.encoder.feed_forward.fc2.weight f4 [20, 256]
0.049055368 0.0044530705 -0.015875615 0.049442165 -0.04972311 -0.047258154 0.04341708 0.054509297
0.05422341 -0.026533775 0.042605586 0.03629403 -0.021394134 0.03489314 -0.004535541 -0.008371942
0.0275862 0.021128729 -0.013134651 -0.018398948 0.04838769 0.061587952 0.022072054 0.03222943
-0.024214745 0.0030483678 -0.035273314 -0.0030776337 -0.0174388 -0.040436417 -0.04274603 0.051436536
0.060051918 -0.045324236 -0.041811027 0.020017505 0.06064476 -0.054886997 -0.046568565 0.034125134
0.017641328 0.0421338 0.014259025 -0.038843006 0.023165345 0.03593541 0.0043539777 0.029259592
-0.043497495 -0.0455579 0.029058151 -0.056898013 -0.052116744 -0.04565586 0.038463637 0.019379966
-0.019017585 -0.044571295 -0.05833199 0.023398183 -0.003925085 0.026838541 -0.043126807 0.0012938157
0.05988113 0.03787344 -0.037463807 -0.007827856 0.044794254 -0.0014785901 -0.036354415 -0.05574256
-0.039481997 0.021237642 0.01025299 -0.025435656 0.040557496 0.04427226 -0.023746558 -0.03397093
0.0035207868 -0.04324954 0.039920315 -0.0054758266 -0.022872858 -0.020183891 0.04669889 -0.009483263
0.01752919 -0.044741683 -0.014741704 -0.03678605 0.007977314 0.03303168 0.015544213 0.0037608221
0.05950941 -0.04545994 0.03736101 0.030980304 0.015956603 0.009183809 0.05546753 -0.047124133
0.027718276 -0.032164305 -0.01779481 -0.021938823 0.004455477 0.037388377 0.008865997 0.0265233
0.03653779 0.0016752109 0.011278786 0.014653914 -0.023695841 0.028812699 -0.04996694 0.0035240427
-0.029434673 0.03425523 0.053873196 -0.06180636 -0.037383355 -0.04478421 0.04390689 -0.01217366
0.0020761937 -0.057343587 0.015919618 -0.05256831 0.008463658 0.024050795 -0.0060118437 -0.02285494
0.013709843 0.013146296 -0.024326503 -0.02274336 0.05990064 0.01812201 0.03909464 0.053871095
-0.010675818 -0.0025248006 -0.060805984 -0.043219283 -0.05509656 -0.053643964 0.025022842 -0.005735986
0.023015536 0.056928545 0.0153281465 -0.052402347 0.0082402155 0.038813584 0.05657573 0.034168884
0.008515984 -0.06094393 0.013267286 0.027860768 -0.028863132 0.023129947 0.009735428 -0.019676022
-0.011403665 -0.035063982 0.03664376 -0.020217784 0.008179449 -0.030169137 0.008250944 -0.05889198
-0.030663848 0.056675404 0.060245156 -0.017846324 0.01795955 0.0013949573 0.0028220564 -0.024055496
-0.061155178 0.006895885 0.059062175 0.01750981 -0.010678455 0.0049074367 -0.034213103 0.0013324618
-0.002718106 0.05530812 0.035402738 0.04831542 0.049293973 0.060382806 -0.029204205 -0.054653287
0.02762869 0.011485785 -0.04313694 -0.028603107 -0.05844611 0.0048171207 -0.045455962 0.03079936
0.035268523 0.04294818 -0.04193431 -0.037585422 0.05758279 0.04235425 -0.025777638 -0.060945965
0.030731887 0.005195655 -0.027909286 0.022740178 -0.052790985 0.032325782 0.04462891 -0.020417757
-0.025365949 0.017063312 0.05158162 0.024333365 -0.05787734 0.055140026 0.02378074 0.03332144
0.022481896 0.040536 0.01073809 -0.056581445 -0.018106677 -0.030389525 -0.046436004 0.046707638
-0.019746289 -0.027115896 0.052667663 -0.020334512 -0.045697264 -0.03970074 -0.015109472 -0.037903644
0.058229715 0.033071406 0.045104913 0.04733765 0.03430733 0.028040648 -0.024796486 0.008903556
00000000: 48ee 483d 10eb 913b 940d 82bc de83 4a3d
00000010: 76aa 4bbd c491 41bd 1cd6 313d 2445 5f3d
00000020: 5e19 5e3d 5c5d d9bc 3283 2e3d 0ca9 143d
00000030: c042 afbc 1cec 0e3d e09e 94bb 782a 09bc
00000040: 74fc e13c 2816 ad3c b832 57bc 64b9 96bc
00000050: 2c32 463d a643 7c3d 74d0 b43c 0203 043d
00000060: 005e c6bc 20c7 473b c07a 10bd 20b2 49bb
00000070: d0db 8ebc a8a0 25bd 7616 2fbd 1eaf 523d
00000080: 00f9 753d e8a5 39bd 0a42 2bbd c0fb a33c
00000090: a466 783d 30d1 60bd aebe 3ebd ccc6 0b3d
000000a0: 8c84 903c 7e94 2c3d b09e 693c d819 1fbd
000000b0: 40c5 bd3c 0231 133d d0ab 8e3b d0b1 ef3c
000000c0: 6e2a 32bd ec9a 3abd 5c0b ee3c e40d 69bd
000000d0: 5e78 55bd a401 3bbd 0c8c 1d3d bcc2 9e3c
000000e0: c4ca 9bbc 6490 36bd 86ed 6ebd 8cad bf3c
000000f0: 009e 80bb 80dc db3c bca5 30bd 4095 a93a
00000100: ea45 753d 2e21 1b3d a673 19bd 6840 00bc
00000110: 2e7a 373d 40cd c1ba 5ee8 14bd 5052 64bd
00000120: e0b7 21bd 90fa ad3c 28fc 273c 705e d0bc
00000130: 9e1f 263d d456 353d 2488 c2bc 1a25 0bbd
00000140: 00bd 663b 6e26 31bd 7c83 233d 906e b3bb
00000150: dc5f bbbc b058 a5bc 5647 3f3d b05f 1bbc
00000160: 6099 8f3c 0e43 37bd 3087 71bc f8ac 16bd
00000170: 48b3 023c 3a4c 073d 28ad 7e3c 2078 763b
00000180: 24c0 733d 3434 3abd dc07 193d 68ca fd3c
00000190: 6cb7 823c b077 163c ec31 633d 3c05 41bd
000001a0: 7011 e33c b8be 03bd 6cc6 91bc 0cb9 b3bc
000001b0: 40ff 913b 8e24 193d b042 113c 6447 d93c
000001c0: a6a8 153d c092 db3a a8ca 383c f816 703c
000001d0: c81d c2bc 9c08 ec3c 22aa 4cbd a0f3 663b
000001e0: fc20 f1bc 364f 0c3d 24aa 5c3d aa28 7dbd
000001f0: 4a1f 19bd a66f 37bd b6d7 333d 0874 47bc
00000200: c010 083b 1ce1 6abd dc69 823c de51 57bd
00000210: 28ab 0a3c 2c06 c53c 00ff c4bb 483a bbbc
00000220: 409f 603c 9063 573c 6048 c7bc 4850 babc
00000230: 605a 753d 9c74 943c b421 203d f0a7 5c3d
00000240: a0e9 2ebc 2077 25bb b20f 79bd b406 31bd
00000250: eeac 61bd c6b9 5bbd b4fc cc3c f0f4 bbbb
00000260: 148b bc3c e82d 693d e822 7b3c d8a3 56bd
00000270: f801 073c fefa 1e3d f4bb 673d acf4 0b3d
00000280: a086 0b3c 58a0 79bd 085f 593c 443c e43c
00000290: 6072 ecbc 047b bd3c 5881 1f3c 9c2f a1bc
000002a0: 70d6 3abc 409f 0fbd c417 163d c49f a5bc
000002b0: 1803 063c 4425 f7bc f82e 073c b838 71bd
000002c0: c032 fbbc 7824 683d a0c3 763d 7432 92bc
000002d0: e81f 933c 00d7 b63a 40f2 383b 0810 c5bc
000002e0: da7d 7abd e0f6 e13b 2eeb 713d bc70 8f3c
000002f0: b0f4 2ebc 90ce a03b 0a23 0cbd 00a6 ae3a
00000300: 4022 32bb c48a 623d 7602 113d 64e6 453d
00000310: 7ae8 493d f653 773d a83d efbc 20dc 5fbd
00000320: 9055 e23c e02e 3c3c 5cb0 30bd 1051 eabc
00000330: 3065 6fbd f0d8 9d3b 0830 3abd f04e fc3c
00000340: ba75 103d 6eea 2f3d 50c3 2bbd 2cf3 19bd
00000350: eedb 6b3d a67b 2d3d a02b d3bc 7aa2 79bd
00000360: 70c1 fb3c 5040 aa3b 04a2 e4bc 9c49 ba3c
00000370: 5c3b 58bd 0a68 043d cecc 363d 2443 a7bc
00000380: 40cc cfbc 5cc8 8b3c 4047 533d c456 c73c
00000390: ca10 6dbd 82da 613d d4cf c23c 107c 083d
000003a0: f42b b83c 1409 263d d0ee 2f3c f2c1 67bd
000003b0: 7454 94bc 74f3 f8bc ae33 3ebd 8250 3f3d
000003c0: f8c2 a1bc 2822 debc 0cba 573d 9094 a6bc
000003d0: 0e2d 3bbd 3e9d 22bd b88d 77bc da40 1bbd
000003e0: 4882 6e3d e275 073d eebf 383d 20e5 413d
000003f0: d885 0c3d 80b5 e53c 0022 cbbc 38e0 113c

transformer_encoder.encoder.feed_forward.fc2.bias f4 [20]
-0.05972553 -0.049323715 0.062466443 0.0031651407 0.047556795 -0.013744086 -0.011321224 -0.027141929
0.060889274 -0.041072153 0.013630465 -0.0075366274 0.038101077 -0.022996902 -0.043188244 -0.027706832
0.007642418 -0.01873511 -0.021038897 0.02299276
00000000: c2a2 74bd aa07 4abd d0dc 7f3d 406e 4f3b
00000010: eaca 423d e02e 61bc a87c 39bc c058 debc
00000020: 0867 793d 463b 28bd 5052 5f3c d0f5 f6bb
00000030: e00f 1c3d 0064 bcbc 28e6 30bd 70f9 e2bc
00000040: 406d fa3b 607a 99bc c459 acbc 505b bc3c

transformer_encoder.encoder.feed_forward.layer_norm.weight f4 [20]
1.0 1.0 1.0 1.0 1.0 1.0 1.0 1.0
1.0 1.0 1.0 1.0 1.0 1.0 1.0 1.0
1.0 1.0 1.0 1.0
00000000: 0000 803f 0000 803f 0000 803f 0000 803f
00000010: 0000 803f 0000 803f 0000 803f 0000 803f
00000020: 0000 803f 0000 803f 0000 803f 0000 803f
00000030: 0000 803f 0000 803f 0000 803f 0000 803f
00000040: 0000 803f 0000 803f 0000 803f 0000 803f

transformer_encoder.encoder.feed_forward.layer_norm.bias f4 [20]
0.0 0.0 0.0 0.0 0.0 0.0 0.0 0.0
0.0 0.0 0.0 0.0 0.0 0.0 0.0 0.0
0.0 0.0 0.0 0.0
00000000: 0000 0000 0000 0000 0000 0000 0000 0000
00000010: 0000 0000 0000 0000 0000 0000 0000 0000
00000020: 0000 0000 0000 0000 0000 0000 0000 0000
00000030: 0000 0000 0000 0000 0000 0000 0000 0000
00000040: 0000 0000 0000 0000 0000 0000 0000 0000
