simple2transformer/param/net_param/Mk06_25_50_actor_net.model (torch, 111487 bytes, 34 tensors)

transformer_encoder.encoder.attention.fc_Q.weight f4 [20, 20]
000000 80 b2 b6 3d e8 d0 b9 3d 00 fe f9 3a a8 e4 97 3d
       0.08920765 0.09073049 0.001907289 0.074166596
000010 32 2e 22 3e 66 b1 ac bd 65 da 38 be 04 13 48 bd
       0.15837935 -0.084322736 -0.18052061 -0.04884626
000020 fe 40 55 be 3a b1 83 bd 28 98 b5 3d 94 02 ec 3d
       -0.20825574 -0.06430288 0.08866912 0.11523929
000030 ea f2 40 3e 52 53 3b be 58 c9 d4 3c 58 82 71 3d
       0.18842664 -0.18293503 0.025974914 0.058962196
000040 82 59 5c 3e 60 35 a4 bb fa 80 55 be 08 38 3a 3d
       0.2151852 -0.0050112456 -0.20849982 0.04546359
000050 68 35 02 be b6 83 3c 3e 32 95 56 3e f8 57 a6 bc
       -0.12715685 0.18409619 0.20955351 -0.020305619
000060 62 0d 31 3e 00 6b 7d 3b 08 85 b2 3d 34 17 78 bd
       0.17290261 0.0038668513 0.0871678 -0.060569003
000070 a0 3b 51 3e 24 b6 11 bd 74 ab f4 3d 90 03 e5 3c
       0.20432901 -0.035574093 0.119467646 0.0279558
000080 c9 4d 23 be 48 b3 19 3d bb f4 da bd e0 c6 d7 bc
       -0.15947641 0.03752449 -0.1069121 -0.026339948
000090 36 c7 3b 3e 12 15 55 3e 40 27 12 3e 70 c8 ab 3d
       0.18337712 0.20808819 0.14272785 0.0838784
0000a0 14 e4 a0 3d 8c 8f 55 be 68 22 44 3e 26 77 43 3e
       0.078560024 -0.2085554 0.1915375 0.1908842
0000b0 20 4c ac 3c 3c dc 2d 3e 21 bc e1 bd d0 ff 20 3e
       0.021032393 0.16978544 -0.11022211 0.15722585
0000c0 1a 3f 14 3e 3c 4b 5d bd 28 4d f3 3d ac 04 f6 bd
       0.14477196 -0.054026827 0.11879951 -0.1201261
0000d0 5e 6c 28 3e 2e 56 53 be b6 3f d5 bd 4c 07 ea 3d
       0.16447589 -0.20638344 -0.104125425 0.11427173
0000e0 f8 0e e9 3d a5 2f ed bd a0 56 f8 3c 34 7c a4 3d
       0.11379808 -0.11581353 0.030314744 0.08031502
0000f0 0a 77 fa bd 72 15 0e be 8c f1 02 be cc cc d7 bd
       -0.12229736 -0.13875368 -0.12787455 -0.10537109
000100 d6 8a 19 3e f0 59 c6 3d 68 61 53 3d 70 23 48 bd
       0.14994368 0.09685123 0.051606566 -0.04886192
000110 20 a8 4c 3d cc 62 a4 3d 8c fc d1 3d b2 b0 33 be
       0.049965024 0.080266565 0.102532476 -0.17547873
000120 50 05 17 bd 1e da 1b 3e b0 c5 56 3e 00 e2 d7 3b
       -0.0368703 0.15219924 0.2097385 0.0065882206
000130 9c 3c 18 be a4 69 2e 3e 0c 7b 69 bd 42 cf 06 3e
       -0.1486687 0.17032486 -0.057002112 0.13165
000140 c0 52 9b 3d e4 63 a2 3d 44 3e ed 3d f8 9f 49 3e
       0.07584143 0.07929209 0.11584142 0.1968993
000150 80 ee 46 bb e8 76 2d be c0 aa fb 3b d5 c1 f1 bd
       -0.003035456 -0.1693989 0.007680267 -0.11804549
000160 40 ad 2a 3d f4 9f 35 bd 48 d8 3d 3d d0 af 5b be
       0.04166913 -0.044341996 0.04634884 -0.21453786
000170 81 ae 64 be 08 9d f8 3d 6a 78 33 3e 9c 2d 1a be
       -0.22332193 0.12139326 0.17526403 -0.15056461
000180 8a 5a 61 be 28 ab 33 bd ec 3b 18 3e 7d 91 f6 bd
       -0.22007194 -0.0438644 0.14866608 -0.120394684
000190 ef d1 31 be 28 97 81 3d 26 c2 27 3e 60 e0 74 3d
       -0.1736524 0.06327659 0.16382656 0.059784293
0001a0 54 76 47 3e 40 8d 5a bd c2 ca 53 be d0 35 05 bc
       0.19478732 -0.053357363 -0.20682815 -0.008130506
0001b0 a4 c4 bc bd a8 39 9b 3c 8c 52 76 bd 84 ee 89 bd
       -0.09217194 0.018948391 -0.060137317 -0.06734946
0001c0 b0 4b 7c bc 88 ac 5d 3e 38 56 c9 3c 41 f7 53 be
       -0.015398905 0.21647847 0.024577245 -0.20699789
0001d0 02 67 62 3e 40 39 a0 3c 4e 32 4d 3e 12 1a 63 3e
       0.22109607 0.019558549 0.20038721 0.22177914
0001e0 c6 9e 29 3e e0 49 4e 3e d0 15 00 3e 2a ca 1d be
       0.16564474 0.20145369 0.12508321 -0.1540915
0001f0 e2 34 4c 3e 84 34 21 be 63 1f eb bd 4c a4 0d 3e
       0.19942048 -0.1574269 -0.11480596 0.13832206
000200 e8 ce 9d 3d a4 4c e4 3d c6 9e 5f 3e a0 61 40 bd
       0.0770548 0.111474305 0.21837911 -0.046968102
000210 30 09 34 3e 12 2c 0e 3e 60 23 4e 3e 00 6e 1e 3c
       0.1758163 0.13883999 0.20130682 0.009669781
000220 92 fb 07 3e 33 20 5d be d8 01 20 3d 70 37 02 3d
       0.1327956 -0.21594314 0.03906426 0.03179115
000230 d4 3c 65 bd 40 d3 53 3c e6 4f 57 be 78 54 f6 bc
       -0.055966213 0.012928784 -0.21026573 -0.030069575
000240 54 f4 e4 3d 38 7b 2f be 1e 84 54 3e 23 c4 4d be
       0.111794144 -0.17136848 0.20753524 -0.20094351
000250 a8 ee c7 bd 10 15 32 bd 52 f2 64 3e 3e 39 48 3e
       -0.09762317 -0.043477118 0.22358063 0.19553086
000260 52 cb 13 3e 91 42 e5 bd b0 2a cd 3d fc 4d 54 be
       0.1443303 -0.11194337 0.100179076 -0.20732874
000270 32 b5 63 3e 24 54 39 bd ac c2 d5 3d ac d2 f0 bd
       0.2223709 -0.04524626 0.10437521 -0.117589325
000280 31 8a d7 bd cc 37 d6 3d 56 61 9e bd fe 14 de bd
       -0.10524405 0.10459861 -0.07733409 -0.10843848
000290 b4 88 f9 3d b8 61 ff bc e0 92 e3 3c 84 c6 1a bd
       0.12184277 -0.031174526 0.027779996 -0.037786976
0002a0 d5 8f 48 be 80 df 37 3e 10 61 31 bc 00 6a 1c be
       -0.19586118 0.17956352 -0.010826364 -0.15274811
0002b0 00 d4 50 bc b8 01 02 bd 84 52 ac bd c8 6c 56 3e
       -0.012745857 -0.03173992 -0.08414176 0.20939934
0002c0 54 ba 2f 3e 90 4d cf bc d8 90 37 bd bc 30 a4 3d
       0.17160922 -0.02530554 -0.04481587 0.08017108
0002d0 d8 70 3a be 49 3f ef bd c8 5e 9f bc 6c 81 1d bd
       -0.18207109 -0.116819926 -0.019454375 -0.038453504
0002e0 64 16 f4 3d 72 67 52 3e e8 a7 a9 bd 88 5a 21 3e
       0.11918333 0.20547274 -0.08283979 0.15757191
0002f0 9c 91 f1 3d d2 73 2b 3e e2 60 bb bd f4 04 24 3e
       0.11795351 0.167434 -0.09149338 0.16017514
000300 cc f9 00 3e c0 04 b6 bb d0 64 64 3e 64 d3 89 3d
       0.1259529 -0.0055547655 0.22304082 0.06729773
000310 60 d4 12 be 7c 5f 49 bd 8a 5e 33 3e f3 36 3e be
       -0.14338827 -0.049163327 0.17516533 -0.18575649
000320 24 8d 8f 3d bc aa 02 bd 68 2e 09 3d 19 35 fe bd
       0.07009342 -0.031901106 0.033491522 -0.12412471
000330 ac 5e ad 3d 63 aa 5c be a8 d9 bd 3c 80 b3 4a bd
       0.08465323 -0.21549372 0.023175076 -0.04948759
000340 4c 47 fa bd 28 45 9e bc b0 5f b4 3c 62 bf 0f be
       -0.1222063 -0.019320086 0.022018284 -0.1403785
000350 b3 0c 2d be 50 f2 b5 bd b2 55 d4 bd 60 8f 05 bc
       -0.16899376 -0.08884108 -0.103679076 -0.008151859
000360 2c 76 8d 3d e6 76 1b be d0 36 57 be d4 18 a2 3d
       0.06907305 -0.15182075 -0.21017003 0.07914892
000370 d8 8c 4e 3d 11 db d7 bd e8 c8 50 3e e2 33 59 3e
       0.050427288 -0.105398305 0.2038914 0.21211198
000380 a0 9b dd 3c f0 63 33 3e a0 8c 4d bd 50 4f e5 3d
       0.027051747 0.17518592 -0.05018294 0.11196768
000390 78 00 84 3d b0 9c 29 3d 24 86 cd 3d 08 0d fc 3d
       0.06445402 0.041409194 0.10035351 0.12307173
0003a0 d8 ec 3a 3e 1c 74 36 bd f8 9b 7f 3d 48 3b 73 bd
       0.18254411 -0.044544324 0.062404603 -0.059382707
0003b0 bc 14 f1 3d d4 28 64 bd c2 fb 85 bd f0 a4 bb 3c
       0.11771533 -0.055703 -0.065421596 0.022905797
0003c0 30 fb 34 bd 7a 83 14 3e 60 3a 1d 3e 28 97 ff bc
       -0.044184864 0.1450328 0.153543 -0.031200007
0003d0 ce 7a 1d 3e 6e 51 62 3e ac e5 88 bd f8 e1 f3 bc
       0.15378878 0.22101375 -0.066844314 -0.029770836
0003e0 ec 64 2e be 82 2e 3d 3e a0 21 0b 3c 76 a2 27 3e
       -0.17030686 0.18474773 0.008491904 0.16370568
0003f0 08 2c b8 3d 6e ee 00 be b7 30 26 be 00 2e 76 3c
       0.08992773 -0.12590954 -0.1622952 0.015025616

transformer_encoder.encoder.attention.fc_Q.bias f4 [20]
000000 10 35 73 bc b2 b4 4f 3e a8 6e cf bc 08 8d 5c 3d
       -0.014844194 0.20283774 -0.02532132 0.053845435
000010 84 10 cd bd 94 f4 40 3e 1c 9f c1 3d 08 98 7f 3d
       -0.10012916 0.18843299 0.09454176 0.062400848
000020 4a ea 5e 3e 28 5b 0f 3e 3a a2 3d 3e e8 54 cc bc
       0.21769062 0.13999617 0.18518916 -0.02494283
000030 54 83 05 3e f6 10 21 be 4e a4 96 bd 80 ad 90 3c
       0.13038379 -0.15729126 -0.073555574 0.017660856
000040 ec cf e1 3d bc 88 5f 3e 04 ba 36 be f0 b5 55 be
       0.11025986 0.21829504 -0.17844397 -0.20870185

transformer_encoder.encoder.attention.fc_K.weight f4 [20, 20]
000000 10 4e 14 3e 80 91 9b bd 40 56 be 3d 70 ea 96 3d
       0.14482903 -0.07596111 0.09293795 0.07368934
000010 d0 75 64 bc 3f 53 4f be 58 61 78 3d e0 39 cf bd
       -0.013944104 -0.202466 0.06063971 -0.10118461
000020 50 ab 66 3c a4 72 26 3e bc b0 75 bd bc f2 3c 3e
       0.01407893 0.1625467 -0.059983 0.18451971
000030 90 36 75 3d 40 46 7d 3b 20 6a d2 3d e0 be b3 3d
       0.059866488 0.0038646609 0.10274148 0.08776641
000040 cc 18 d8 3d ce 3b 1d 3e d0 e2 ae 3d 04 fb 1d be
       0.10551605 0.15354845 0.08539355 -0.15427786
000050 10 19 6e 3d 1a 45 62 be 8b c7 ee bd 48 ef 86 3c
       0.05812937 -0.22096673 -0.116591536 0.01647152
000060 78 36 33 3e cc cb b7 3d 49 0a 64 be 54 c8 b6 3d
       0.17501247 0.08974418 -0.22269548 0.08924928
000070 8a 9f 1a be 00 8b 57 3b 6e 86 2b be 54 05 26 be
       -0.15099922 0.0032889247 -0.167505 -0.1621297
000080 dc f2 54 bd d8 27 98 3c 7e 96 56 3e b8 fa c8 bd
       -0.05198942 0.018573686 0.20955846 -0.09813446
000090 38 ce 29 bd 98 b5 13 3d 5c b8 81 bd a8 ad cc 3c
       -0.04145643 0.036061853 -0.06333992 0.02498515
0000a0 50 06 74 bd 98 13 c8 3d d0 f3 74 3c 5a e9 a2 bd
       -0.059576333 0.09769362 0.014950708 -0.079546645
0000b0 4c 78 61 bd 14 65 0f be d8 6b 1e be c8 f2 50 3d
       -0.055046365 -0.14003402 -0.15470827 0.051012784
0000c0 c0 91 3e bb 48 34 75 3d f8 c9 ae 3c 32 34 05 be
       -0.0029078573 0.059864312 0.02133654 -0.13008192
0000d0 4c bc 8b 3d 68 4a da 3d f8 86 0a 3e 5e a8 53 3e
       0.06823024 0.10658723 0.13528049 0.20669696
0000e0 42 96 40 be b0 a7 8d 3d 20 0b 2d 3d 68 16 c1 3d
       -0.18807319 0.069167495 0.042246938 0.09428102
0000f0 a0 45 92 bd 54 b7 02 be 9e bc 10 3e 54 a5 b3 3d
       -0.07142186 -0.12765247 0.14134452 0.08771768
000100 c8 e3 b3 3d 88 a4 dc 3d 50 0b 22 bd 3c 6d 13 be
       0.0878368 0.10773569 -0.03956157 -0.14397138
000110 d8 c7 43 3e 20 6b 7a 3d 6c a1 be 3d 9c fc 1c be
       0.19119203 0.06113732 0.093081325 -0.15330738
000120 1f 51 da bd 98 a3 8e bc 3c 5b 98 3d 37 53 45 be
       -0.10660004 -0.017411992 0.074392766 -0.19270025
000130 64 01 e5 3d 30 48 e9 3d 98 0d 82 3c 64 b9 90 3d
       0.11181906 0.11390722 0.015875623 0.070666105
000140 d5 e1 5f be 18 fc db bc 00 92 81 ba 20 87 50 3d
       -0.21863492 -0.026853606 -0.000988543 0.050910115
000150 72 c7 2d be 8c 43 5c bd f4 3e 40 3e 60 67 08 3d
       -0.16970614 -0.053775355 0.18774015 0.03330171
000160 6c ce a7 3d 18 b9 39 3e 60 f0 77 3d 58 fb 1b 3d
       0.08193669 0.18137014 0.060531974 0.038081497
000170 94 d6 0c 3e cc 1e b6 3d 04 33 3f be 1b 86 60 be
       0.1375373 0.08892593 -0.18671805 -0.21926157
000180 c8 bb 5d 3e c8 19 e3 3d 2e 7f 43 3e 64 ba 29 be
       0.21653664 0.11088902 0.19091484 -0.16575009
000190 4c 41 63 be 10 0c 17 3d fb 14 3d be ec bc 26 bd
       -0.22192878 0.036876738 -0.18465035 -0.040707514
0001a0 58 5d 51 3d 50 22 15 be 29 4e 35 be d0 ba a1 3d
       0.05111441 -0.1456387 -0.17705597 0.0789696
0001b0 ce 7a 50 3e 7a bb 05 be e8 40 a8 3d 68 85 39 be
       0.20359346 -0.13059798 0.08215505 -0.18117297
0001c0 fc 35 3a 3e 00 cb da 3c 2a ac 9f bd 00 12 40 3a
       0.18184656 0.026708126 -0.077965096 0.0007326901
0001d0 4b 2e 3b be 90 12 01 be 7c b8 89 3d 46 96 cc bd
       -0.18279378 -0.12604737 0.06724641 -0.099896
0001e0 74 4f 01 bd 10 2d e2 3d 24 ec 96 bd c3 40 61 be
       -0.031569913 0.11043751 -0.07369259 -0.21997361
0001f0 32 cd 0e be d0 11 f3 bc e8 0c a1 bc 73 3b 51 be
       -0.13945463 -0.02967158 -0.019659474 -0.20432834
000200 fb 1c 63 be 04 0e 83 bd 70 76 db 3c 18 aa 5b 3e
       -0.22179024 -0.06399158 0.026789874 0.21451604
000210 c4 e8 3f 3e a8 40 2b bd b8 4f 39 bd 44 47 0c 3e
       0.18741137 -0.041809708 -0.04524204 0.1369906
000220 64 71 b5 3d a0 a3 b2 bb 34 3a 6d bd 08 61 8a 3c
       0.08859518 -0.0054516345 -0.057916835 0.016891971
000230 3c 6c 34 3e 34 23 4f 3e e0 df cc 3d 2f 87 f5 bd
       0.17619413 0.20228273 0.10003638 -0.11988675
000240 20 78 45 3e 82 de 05 be cc 95 04 be 75 1c 45 be
       0.19284105 -0.13073161 -0.12947768 -0.19249137
000250 00 7b da bb f0 59 02 3c 84 cd 45 bd 4f 7c 39 be
       -0.006667495 0.007956013 -0.048291698 -0.18113826
000260 2f 8a 12 be 38 3d b4 3c 53 fc 42 be f8 ea 1a 3e
       -0.14310525 0.022001848 -0.19041567 0.15128696
000270 f0 24 4f 3c 60 91 fb 3d 40 2b 9f 3d 73 91 42 be
       0.012643084 0.122835875 0.07771921 -0.19000797
000280 e1 83 d3 bd 50 6f 84 3d 14 71 43 bd 38 bd 28 3d
       -0.10327888 0.06466544 -0.04771526 0.041196078
000290 b0 f1 95 3d 68 3a c0 bd c8 ef 99 bc b2 5a 31 be
       0.07321489 -0.0938614 -0.018791094 -0.17319754
0002a0 40 4a 79 bc 00 01 5d bb 3c 85 89 3d a1 05 50 be
       -0.0152154565 -0.003372252 0.067148656 -0.20314647
0002b0 80 40 89 bb 9c f5 3f 3e 48 dc 96 3d 80 eb fc 3c
       -0.004188597 0.18746036 0.07366234 0.030874014
0002c0 66 a4 61 3e f6 70 3e be 03 bd 06 be 90 c6 9a 3d
       0.2203537 -0.18597779 -0.1315804 0.07557404
0002d0 1d 46 49 be 30 e0 06 3d 98 30 93 bd 48 ce 18 3d
       -0.19655652 0.032928646 -0.07187003 0.0373061
0002e0 98 57 d8 bc ac ca 1e be 7c e1 09 be 88 02 94 bd
       -0.026408955 -0.15507 -0.13464922 -0.07227045
0002f0 20 d4 62 3d ec 48 90 bd 58 ca 85 bc 20 86 71 3d
       0.05537808 -0.07045159 -0.016331837 0.058965802
000300 73 f2 e7 bd 04 b1 0a be c4 69 dc 3d 80 83 49 3b
       -0.113255404 -0.13544089 0.10762361 0.0030748546
000310 7e 66 52 3e a0 af 2b 3d 00 d8 85 bb 0c 6d fc 3d
       0.2054691 0.041915536 -0.004084587 0.123254865
000320 88 dd 1e 3d c5 bc ff bd 14 98 cd bd 90 a7 77 bd
       0.038785487 -0.12487177 -0.10038772 -0.060462534
000330 28 82 6e 3d 10 5a 45 3e d0 93 10 bd 70 58 91 bc
       0.058229595 0.19272637 -0.035297215 -0.017742366
000340 a8 eb ce 3d db d0 d1 bd 14 60 df 3d c0 0a e4 bc
       0.101035416 -0.10244914 0.10906997 -0.027837157
000350 58 d0 88 bd 9a dd 06 be 34 7f 05 be 8a d4 83 bd
       -0.066803634 -0.13170472 -0.13036805 -0.06437023
000360 18 16 92 bd 30 06 63 3e 6e 9e 03 3e 14 93 67 bd
       -0.0713312 0.22170329 0.12853405 -0.05653675
000370 31 bc 32 be 58 3c 29 bd ca 69 11 3e e0 01 94 bd
       -0.17454602 -0.041317314 0.14200512 -0.0722692
000380 de 7e 59 3e c8 1c 76 3d ea 64 82 bd ca ab 2b be
       0.21239802 0.06008604 -0.06366904 -0.16764751
000390 d5 ba 56 be 0e e6 a5 bd 69 f5 07 be c8 9f 13 bd
       -0.20969708 -0.0810052 -0.1327721 -0.03604105
0003a0 f0 be 3d 3d 5c c9 1c bd a0 c0 47 bc 90 ab 32 3e
       0.04632467 -0.03827797 -0.0121919215 0.17448258
0003b0 b6 39 35 3e 0e 3e 55 3e 54 0f bf bd b5 0f 36 be
       0.17697796 0.20824453 -0.093290955 -0.1777943
0003c0 c8 28 fb 3d 1c f4 30 be be 80 37 be 98 de ac bd
       0.12263638 -0.1728062 -0.17920205 -0.08440894
0003d0 34 80 43 be 00 ec 9b 3d e8 a7 2d 3d 80 34 9e bd
       -0.19091874 0.07613373 0.042396456 -0.07724857
0003e0 84 cc 39 3e 8c b5 5b 3e b6 f9 4f 3e aa 84 45 be
       0.18144423 0.21455973 0.20310101 -0.19288889
0003f0 e0 85 76 3d 7c 69 58 be 2c 5b 38 be 10 c3 ca 3c
       0.060186267 -0.21133989 -0.1800353 0.024751216

transformer_encoder.encoder.attention.fc_K.bias f4 [20]
000000 15 39 4b be 54 d0 e0 3d f6 a2 07 3e ec 24 a6 3d
       -0.19845994 0.109772354 0.13245758 0.08112511
000010 f1 7b 57 be 60 51 81 3b d6 d1 2a be 06 79 b7 bd
       -0.21043374 0.0039464682 -0.16681609 -0.0895863
000020 94 a6 f8 3d c0 f3 7c bd 44 85 54 be 34 f5 54 bd
       0.12141147 -0.061755896 -0.20753962 -0.051991656
000030 56 95 31 3e 94 56 59 be 00 d4 3b 3d dc cb 50 3e
       0.17342123 -0.21224433 0.045856476 0.20390266
000040 a0 c6 5a 3e 80 0f 42 bc 90 d7 1e 3c 0a 4d 46 be
       0.21364832 -0.011844516 0.009694949 -0.19365326

transformer_encoder.encoder.attention.fc_V.weight f4 [20, 20]
000000 4e e7 59 3e 88 4f ab 3d f0 4e 3b bd f4 69 51 be
       0.21279642 0.08364779 -0.045729578 -0.20450574
000010 db f4 ca bd c1 53 15 be 80 93 07 3e 4c 45 0b bd
       -0.09909984 -0.14582731 0.1323986 -0.034001634
000020 cb 7b 3f be 00 94 ef 3a 7a 67 43 3e ca 46 1f 3e
       -0.18699567 0.001827836 0.19082442 0.15554348
000030 e8 06 0e 3e 40 dd ec 3d d8 a4 ec bc c8 ae ff 3d
       0.13869822 0.115656376 -0.028887197 0.12484509
000040 fc 63 58 bd 2c fc ee 3d b2 87 8f bd fc c6 55 3e
       -0.052829728 0.11669192 -0.07008304 0.20876688
000050 1e 6d 3a 3e dc f2 46 bd 9f 1a 63 be a0 2c 43 bc
       0.18205687 -0.048571452 -0.22178124 -0.011912495
000060 21 5c 00 be 60 8f 88 3d 96 97 3d be 00 49 61 3d
       -0.12535144 0.066679716 -0.18514857 0.05500126
000070 be 23 28 be f4 7a 83 3d c0 4c 04 bd ea 63 3d 3e
       -0.16419885 0.06419936 -0.032299757 0.18495145
000080 c5 86 d8 bd fc bd 5b 3e 72 ec 36 3e 27 48 08 be
       -0.1057258 0.21459192 0.17863634 -0.13308774
000090 cc 10 ef 3d 3d 8b 5a be 50 e6 6f 3d 5c 54 49 be
       0.116731256 -0.21342178 0.058569252 -0.19661087
0000a0 a0 57 91 3d 8c 5c 31 3e 04 d4 07 be 6a c8 2f 3e
       0.07096791 0.1732046 -0.13264471 0.17166296
0000b0 80 05 c1 3a c8 52 32 3d 2a 7a 41 3e f0 e8 f9 3d
       0.001472637 0.043535978 0.18894258 0.122026324
0000c0 d5 bb 31 be 4c 57 93 3d 4a cb 0f 3e 2a 7a a3 bd
       -0.17356808 0.07194385 0.14042392 -0.07982285
0000d0 28 72 1f 3d c8 b3 cc 3d 2c 6f b2 3d 84 ea 32 3e
       0.038927227 0.09995228 0.087126106 0.17472273
0000e0 5f 19 60 be e0 0d 6d 3d a2 9e 32 3e fe 25 42 be
       -0.21884678 0.05787456 0.17443326 -0.18959805
0000f0 90 2c a2 bc 44 51 c0 3d 70 fd 91 3d d0 a1 fb bc
       -0.01979664 0.093905 0.071284175 -0.030716807
000100 9f f5 fd bd 0e e1 00 3e 20 c3 9a bb 0c 35 c6 bd
       -0.12400364 0.12585852 -0.0047229677 -0.09678087
000110 fc 29 47 be 58 6b 97 bd ec d1 c1 3d 1c e2 4e be
       -0.1944961 -0.07393521 0.094638675 -0.20203441
000120 a0 db db bb 3c 1f 47 be 58 6d 00 3e e4 81 a0 3d
       -0.006709531 -0.19445509 0.12541711 0.07837275
000130 c2 48 3d be f8 89 98 bc fc 0d 22 3e 92 91 2d be
       -0.18484786 -0.018620476 0.15825647 -0.16950062
000140 76 8b fd bd 80 26 ec bc 90 86 71 3d c4 a6 80 bd
       -0.12380116 -0.028826952 0.05896622 -0.06281808
000150 c8 62 ed bc 50 a4 50 be e2 dc 28 be e8 10 63 bd
       -0.028977767 -0.2037518 -0.1649051 -0.055436045
000160 cc 72 21 be e2 83 60 3e 6c 0d b9 3d 90 1c 3d 3d
       -0.15766448 0.2192531 0.09035763 0.046169817
000170 bd 0f fe bd 98 7b 88 bd b8 d8 94 3d 20 8d 13 be
       -0.124053456 -0.06664199 0.07267898 -0.14409304
000180 50 2e 27 3d e2 5f 09 3e 88 99 fa 3d 10 dc 7d 3d
       0.04081565 0.13415483 0.12236315 0.061977446
000190 81 9a 09 be 14 0c d8 3d c0 8b 26 be 0c 59 44 be
       -0.13437845 0.10549179 -0.16264248 -0.19174594
0001a0 f8 6c c9 3d c2 02 e1 bd 3c 10 7f bd 12 7c 5c be
       0.09835237 -0.10986854 -0.06227134 -0.21531704
0001b0 ac d2 55 be 96 2f 5e be 2c d0 4f 3e 26 dd 00 be
       -0.20881146 -0.2169784 0.20294255 -0.12584361
0001c0 1e ac 2d 3e a8 34 51 bd 00 f0 93 3b 84 2d 86 3d
       0.16960189 -0.051075608 0.004514694 0.0655165
0001d0 e4 08 1a be a8 84 3e 3d 80 f2 13 be d4 96 d5 3d
       -0.15042454 0.04651323 -0.14447975 0.10429159
0001e0 5c cc 52 3e 42 1b 18 3e c0 cf 47 bb ca c5 09 be
       0.2058577 0.14854148 -0.003048882 -0.13454357
0001f0 88 a0 07 3e 0a 07 48 3e 00 2d 67 3d 82 38 10 be
       0.13244832 0.19533935 0.0564394 -0.14084056
000200 64 68 8b 3d fc 7e ed 3d 10 b4 22 3e 40 11 0e 3b
       0.0680702 0.11596486 0.15889001 0.0021677762
000210 f2 f9 62 3e 1e db 1c 3e 97 cf 46 be 58 8f 19 be
       0.22165659 0.15317962 -0.19415127 -0.14996088
000220 54 4e 62 be 9c 29 80 3d 2e d1 eb bd 90 89 7c bc
       -0.22100192 0.06257936 -0.11514507 -0.015413657
000230 bc a2 d8 3d c4 a9 b3 bd 4e c7 14 3e 6e 7b 31 3e
       0.10577914 -0.087726146 0.14529154 0.17332241
000240 9e d8 01 3e 9c 91 d5 3d 60 bb d6 3d da 9b 11 be
       0.12680289 0.104281634 0.10484958 -0.14219609
000250 40 9f 17 3d bc a9 5f 3e f8 5a f6 bc dc 07 5c be
       0.037017107 0.21842092 -0.030072674 -0.21487373
000260 b0 80 52 bc 48 5e 12 be 96 5f 3c 3e 8a 58 64 be
       -0.012848064 -0.14293778 0.18395838 -0.222994
000270 ac 0d 67 bd 8c 71 dc 3d d8 c1 09 bd 38 6a 42 be
       -0.056409523 0.10763845 -0.03363213 -0.18985832
000280 98 ee 7f 3d 56 0e 47 3e 89 39 23 be 78 f5 a5 3c
       0.0624834 0.19439062 -0.15939917 0.02025865
000290 fe 4f 3f 3e 50 8c 2a 3e 4c 47 4a 3e b9 8c 48 be
       0.18682858 0.16655087 0.1975376 -0.19584931
0002a0 74 37 83 3d 13 b4 de bd 1c ac 88 3d 58 e4 90 3c
       0.06407061 -0.1087419 0.06673452 0.017687008
0002b0 18 25 88 bc a0 dd 29 3c 3c 1e 64 bd 2a 9b 9d bd
       -0.01661925 0.010367781 -0.055692896 -0.07695611
0002c0 b0 e5 85 bc 60 bf da 3b ee 23 4d 3e 80 55 8c bc
       -0.016344875 0.0066756457 0.20033237 -0.017130613
0002d0 4a b9 09 3e 1a d2 c5 bd b4 13 08 3e 90 91 95 bd
       0.13449588 -0.09659214 0.13288766 -0.073031545
0002e0 08 a6 d7 3d a4 41 f6 3d ee 02 57 3e d1 d4 24 be
       0.10529715 0.12024239 0.20997211 -0.16096808
0002f0 26 1d 17 3e b8 86 9a 3d f6 5b 04 be ca c7 b6 bd
       0.14757213 0.07545227 -0.12925705 -0.089248255
000300 b0 a7 96 bc d0 dd 77 3d a8 95 dd 3d 15 16 ee bd
       -0.018390507 0.06051427 0.1081956 -0.116253056
000310 80 34 8c bd fc 0f a2 3d 00 d8 70 3a 36 a7 a4 bd
       -0.06845951 0.07913205 0.000918746 -0.080397055
000320 f6 62 33 be 3e ba 4b 3e c0 b3 8e 3c 16 7b 30 3e
       -0.1751822 0.19895265 0.017419696 0.17234454
000330 20 70 a5 3d 08 c8 c9 3d fc a0 a3 3d c0 92 73 3d
       0.08078027 0.09852606 0.0798969 0.059466124
000340 f4 83 1c 3e b0 9b d4 bc 1d 05 f4 bd 00 a2 46 bb
       0.15284711 -0.025953144 -0.11915038 -0.0030308962
000350 3c b1 76 bd 81 14 f5 bd 10 7e 2c 3e e0 b8 cd bc
       -0.060227618 -0.119668014 0.16844964 -0.02511257
000360 08 9f db bc 20 fc 4c bc 40 fc bc 3d 4c 89 9c 3d
       -0.02680923 -0.012511283 0.092278 0.07643375
000370 a0 2a ae 3c bc 9f 0d be de 38 1c be 46 5f 1b 3e
       0.02126056 -0.13830465 -0.15256068 0.15173063
000380 9e a1 24 be 90 c0 51 3e 45 38 00 be 08 18 46 3d
       -0.16077277 0.20483613 -0.12521465 0.04836276
000390 28 5a 60 3e dc 9c 15 bd ec ba c1 3d 41 3c 5a be
       0.21909392 -0.036526546 0.09459481 -0.21312048
0003a0 ea 5d 2f 3e 8a 25 4c be 88 3d 7a bd a6 27 ed bd
       0.17125669 -0.19936195 -0.061093837 -0.11579828
0003b0 fb a3 2b be d2 9a 0e be 56 a7 f2 bd f4 3c 51 3e
       -0.16761772 -0.13926247 -0.11848323 0.20433408
0003c0 85 a9 eb bd 24 83 c2 bd 30 07 0d be ee 9f 8d bd
       -0.11506943 -0.09497669 -0.13772273 -0.0691527
0003d0 cc a7 9b 3d d0 f3 f1 bc a0 1f fc bb 8e e9 dc bd
       0.07600364 -0.029535204 -0.0076941997 -0.107867345
0003e0 8a bd 24 be bf 87 f5 bd ec 1a 3b 3e f2 00 36 3e
       -0.16087928 -0.11988782 0.18271989 0.17773798
0003f0 4c 41 06 3e f8 9a 95 3d 38 0d 22 3d ca 31 1a 3e
       0.13110846 0.073049486 0.039563388 0.15058056

transformer_encoder.encoder.attention.fc_V.bias f4 [20]
000000 e8 9c 11 bd 64 1b 06 bd 1c 23 40 3e 40 aa b2 3d
       -0.035550028 -0.032740965 0.18763393 0.08723879
000010 b8 16 fa 3d f8 97 2c 3d 99 7f f6 bd 90 eb 34 bc
       0.122113645 0.042137116 -0.12036056 -0.011042491
000020 10 99 1c 3e 79 86 03 be 40 0d 88 3b 00 fa ee 3d
       0.15292764 -0.12844266 0.00415197 0.116687775
000030 5c ec bc bd 58 4d 3a 3e 00 b3 41 3d 8a 2b 3c 3e
       -0.092247695 0.18193567 0.04728985 0.18375984
000040 44 ab 59 bd f0 4e 4b 3e 80 2b d4 bc 68 1d 5e be
       -0.053141847 0.19854331 -0.025899649 -0.21690905

transformer_encoder.encoder.attention.fc.weight f4 [20, 20]
000000 c3 2b d8 bd 04 6a 19 bd 0e df 11 3e b4 5a 44 3e
       -0.10555222 -0.03745462 0.14245245 0.19175225
000010 96 a2 b3 bd 2a e4 3b 3e 16 40 8d bd 30 2c b0 bd
       -0.08771245 0.18348756 -0.06896989 -0.08602178
000020 68 32 09 3d 40 13 47 bc 3e f5 8a bd 92 74 8c bd
       0.033495337 -0.012150586 -0.067850575 -0.068581715
000030 5c ec 55 3e 4c 35 41 3e b6 11 56 3e 10 33 b4 3d
       0.20890945 0.18867987 0.20905194 0.08798802
000040 e0 63 57 bc 7c a7 a9 bd 88 36 55 3d 02 84 3d 3e
       -0.013146371 -0.08283898 0.05205396 0.18507388
000050 aa 73 23 3e c8 89 fb bc e7 e3 1c be 67 bd d2 bd
       0.15962091 -0.030705348 -0.15321313 -0.10290032
000060 68 4a 0b 3d 00 25 31 bc 4f 2c 55 be 60 21 42 3d
       0.034006506 -0.010812044 -0.20817684 0.04739511
000070 f0 43 01 3d a0 72 17 3e b6 07 03 3e 08 c1 b1 bd
       0.03155893 0.1478982 0.1279591 -0.08679396
000080 04 23 46 3e 5c 20 d7 3d e0 6e 16 bd 58 34 33 be
       0.19349295 0.10504219 -0.036726832 -0.17500436
000090 2e 91 85 bd c6 65 26 3e 42 c0 4b 3e 09 2a 60 be
       -0.065218315 0.16249761 0.1989756 -0.21891035
0000a0 a0 ac 46 bd 7c 6c 7c bd 63 a4 3c be 00 a7 bb 3c
       -0.04850447 -0.061626896 -0.18422084 0.02290678
0000b0 38 5e 76 bd 6c 9d 90 3d 4e b1 41 be e0 10 dd bb
       -0.060148448 0.07061276 -0.18915293 -0.0067463964
0000c0 c4 f6 9b bd af b8 18 be cc 7b d7 bd f2 18 e4 bd
       -0.07615426 -0.14914201 -0.10521659 -0.111375704
0000d0 74 f2 47 bd c0 6f 50 3d d8 a3 f4 3d 32 28 1e 3e
       -0.048815206 0.050887823 0.11945313 0.15445021
0000e0 2d 56 ee bd 40 86 b9 bc a0 b8 50 3d 20 e9 de 3c
       -0.116375305 -0.022647023 0.050957322 0.027210772
0000f0 08 f3 6d 3d e1 d4 d9 bd 40 6d 5d bb b8 bd 0e be
       0.0580931 -0.106363066 -0.0033787042 -0.1393956
000100 15 df 4d be c5 7e 09 be 80 21 54 3e 18 d8 2f be
       -0.2010463 -0.13427265 0.20715904 -0.17172277
000110 06 69 ad bd e0 14 5a 3d b5 38 62 be ea 3f ca bd
       -0.08467297 0.053242564 -0.22091945 -0.09875472
000120 2c 67 c1 3d 74 42 2c 3e 50 3d 72 bd 60 1f 95 3d
       0.094435066 0.16822225 -0.059140503 0.07281375
000130 6c 5d 4a bd 80 61 77 bc 80 b3 63 bd 34 f7 ef 3d
       -0.0494055 -0.015098929 -0.055591106 0.11717072
000140 4f 2a 08 be d0 9e ba bc 08 e6 5a 3e 11 fd 1c be
       -0.1329739 -0.022780806 0.21376812 -0.15330912
000150 96 80 20 3e 03 9e 36 be ce a7 30 be ee 53 8e bd
       0.15674052 -0.17833714 -0.17251512 -0.06949602
000160 48 f1 48 3e bc 44 fd bd c6 2f d1 bd c8 de 1b 3d
       0.19623291 -0.12366626 -0.1021419 0.038054258
000170 3d 08 f8 bd e2 c6 3a 3e 9e 29 24 be 8c c3 ef 3d
       -0.12110946 0.1823993 -0.160315 0.117072195
000180 36 1c 3a 3e 80 f5 46 bc 92 e3 4f be b0 96 b2 bd
       0.18174824 -0.012143493 -0.20301655 -0.087201476
000190 3c 2d c8 3d e8 bb 95 bc 18 18 91 bc d4 4d 3a be
       0.09774253 -0.018278077 -0.017711684 -0.18193752
0001a0 80 50 c4 3b 08 8d f8 bc f7 6d d2 bd d8 5d 24 bd
       0.0059910417 -0.030340686 -0.102748804 -0.04012856
0001b0 3e e2 f1 bd e4 c5 b6 bd e8 4e fd bc 70 d9 f7 3c
       -0.118107304 -0.089244634 -0.030921414 0.03025505
0001c0 a0 da a9 3b 9c 1e 5b 3e f8 e4 92 3c 97 fa 5c be
       0.005183533 0.21398395 0.017931446 -0.21579967
0001d0 00 08 09 3e ea aa 1e be b0 2e 1d 3d e8 23 02 3d
       0.13381958 -0.15494886 0.038374603 0.031772524
0001e0 d8 73 52 3e 60 f1 34 be 2c a8 0c be 80 68 be 3c
       0.20552003 -0.17670202 -0.13736027 0.023243189
0001f0 00 58 2e 3b 86 dd 8f bd 60 97 74 bd d0 13 19 3e
       0.0026602745 -0.07024674 -0.059714675 0.14948964
000200 3c 8a 63 bd dc b4 58 be 6e 1e 28 be 38 a1 7f bd
       -0.055551752 -0.21162742 -0.16417858 -0.06240961
000210 61 f6 5e be e0 a1 4b 3e 30 7c e0 3c c0 49 a2 3d
       -0.21773674 0.19885969 0.027402967 0.07924223
000220 fe 12 12 3e 98 ff 4b bd 8e 5b 53 3e bc c3 26 3e
       0.14265057 -0.0498043 0.20640394 0.16285604
000230 98 71 16 3e 22 1e 15 3e e8 1d 9f 3d b2 3a 52 be
       0.1469177 0.14562276 0.07769376 -0.20530203
000240 5c cd 63 be a1 71 d2 bd e0 52 e3 3d 18 76 45 bd
       -0.22246307 -0.10275579 0.110997915 -0.048208326
000250 ec 71 03 3e 1c 37 b4 3d d8 40 ef 3d 64 98 ac 3d
       0.12836426 0.08799574 0.1168229 0.08427504
000260 d6 93 3f 3e 0e 49 54 3e b4 cc b9 bd 10 bd 90 3d
       0.18708739 0.20730993 -0.09072247 0.07067311
000270 76 ee 97 bd b4 4a 50 3e a0 38 dc 3d f4 4d 3a be
       -0.0741853 0.20340997 0.10752988 -0.181938
000280 90 23 ba bc f6 87 56 be b9 e3 19 be 28 5d 91 3d
       -0.022722036 -0.20950302 -0.15028276 0.07097846
000290 88 47 20 3e dc 51 09 bd 08 8d 2f bd a6 9d 0d be
       0.15652287 -0.033525333 -0.042859107 -0.1382967
0002a0 69 22 4f be 21 39 26 be f7 1d cf bd 10 22 21 3e
       -0.2022797 -0.1623273 -0.10113137 0.1573565
0002b0 b0 c8 03 bc bc 65 22 be 90 5d 37 3c 48 13 86 bd
       -0.008043453 -0.15859121 0.011191741 -0.06546646
0002c0 00 de 06 be 44 9c 99 3d ae 20 38 3e 40 06 bc 3b
       -0.13170624 0.075005084 0.17981216 0.0057380497
0002d0 f8 61 0a bd 00 42 87 bd a0 98 4e 3d 90 38 16 bc
       -0.033784837 -0.066043854 0.050438523 -0.009168759
0002e0 3c 7a d3 3d 64 ce 1c bd aa 9a 41 3e 04 30 52 3e
       0.10326049 -0.038282767 0.18906656 0.20526129
0002f0 c8 8f cf bd b2 ec b5 bd 18 f6 83 bd 6a b2 3c be
       -0.10134846 -0.08883037 -0.06443423 -0.18427435
000300 ed ee 3c be 70 88 2c 3e cf 94 61 be 92 9d 16 be
       -0.18450518 0.16848922 -0.22029422 -0.14708546
000310 f0 a0 45 3c 00 9b 0b 3b 26 8a 39 be bc e5 c8 bd
       0.012062296 0.0021302104 -0.18119106 -0.09809443
000320 c4 c1 a7 bd c3 6a 35 be d0 6b 10 3d ae 15 30 3e
       -0.08191255 -0.17716508 0.035259068 0.1719577
000330 10 f6 24 3d 10 62 41 3d 7c 47 c0 bd 88 e8 12 3d
       0.040273726 0.04721266 -0.093886346 0.03586629
000340 e8 f6 d8 3d a0 19 23 bc 00 09 25 bd ae 1e 35 be
       0.10593969 -0.00995484 -0.040291786 -0.17687485
000350 b0 c6 d3 3c e3 5c 2b be 20 dd b7 bc 20 c3 e0 3d
       0.025851578 -0.16734652 -0.022444308 0.10974717
000360 3c bb 3f 3e 78 3a 53 3e d6 ef 09 3e d0 a1 d1 bc
       0.18723768 0.20627773 0.13470396 -0.025589854
000370 06 ba 51 be 48 54 f2 3d 3a 1e fb bd f3 d2 f7 bd
       -0.20481119 0.118324816 -0.12261625 -0.12100782
000380 18 b4 1a be 7b b1 2c be 7a 3d 46 be 80 84 f7 3c
       -0.15107763 -0.16864578 -0.19359389 0.030214548
000390 68 d9 3b 3d bc 45 38 bd b6 f6 c9 bd ac 29 91 bd
       0.04586163 -0.04498838 -0.098615095 -0.070880264
0003a0 7c dd 4b 3e 74 22 11 bd a6 cb 0c 3e f0 09 36 3d
       0.19908708 -0.035433248 0.1374956 0.04444307
0003b0 0c 98 bf 3d 38 aa ba bc 50 39 a0 3d ec b4 53 be
       0.093551725 -0.022786245 0.078234315 -0.20674485
0003c0 8f 07 2e be e0 a5 73 3c a2 8a 03 3e 3c 3a 61 3e
       -0.16995071 0.014871091 0.12845853 0.21994871
0003d0 25 2a e3 bd b8 ca 4f bd 58 73 f3 3d b6 60 64 3e
       -0.11092023 -0.050730437 0.118872344 0.22302517
0003e0 e8 73 29 bd b6 7f 05 be b3 50 2f be d0 94 c7 3d
       -0.041370302 -0.13036999 -0.17120628 0.097451806
0003f0 cb 5e e4 bd 98 e3 93 3c 6a 09 29 3e 1c 61 ab 3d
       -0.11150893 0.018052861 0.16507497 0.083681315

transformer_encoder.encoder.attention.fc.bias f4 [20]
000000 6a 9c 83 bd 02 e2 41 be 64 22 ef 3d 60 99 5d bc
       -0.06426318 -0.18933871 0.11676481 -0.013525337
000010 28 21 21 3e ae c8 05 3e ec ba 1d bd 08 31 10 be
       0.15735304 0.13064834 -0.03850834 -0.14081204
000020 62 93 61 3e 3b c5 34 be c0 2c b4 bb 71 7d 2b be
       0.22028878 -0.17653362 -0.0054984987 -0.16747071
000030 36 aa 01 3e 34 e3 14 bd 20 2d 21 3d cb ea 64 be
       0.12662587 -0.03634949 0.039349675 -0.22355191
000040 94 61 0b bd c8 03 64 3d 2a 6b 5a 3e ba a8 56 be
       -0.034028605 0.05566767 0.21329942 -0.20962802

transformer_encoder.encoder.attention.layer_norm.weight f4 [20]
000000 00 00 80 3f 00 00 80 3f 00 00 80 3f 00 00 80 3f
       1.0 1.0 1.0 1.0
000010 00 00 80 3f 00 00 80 3f 00 00 80 3f 00 00 80 3f
       1.0 1.0 1.0 1.0
000020 00 00 80 3f 00 00 80 3f 00 00 80 3f 00 00 80 3f
       1.0 1.0 1.0 1.0
000030 00 00 80 3f 00 00 80 3f 00 00 80 3f 00 00 80 3f
       1.0 1.0 1.0 1.0
000040 00 00 80 3f 00 00 80 3f 00 00 80 3f 00 00 80 3f
       1.0 1.0 1.0 1.0

transformer_encoder.encoder.attention.layer_norm.bias f4 [20]
000000 00 00 00 00 00 00 00 00 00 00 00 00 00 00 00 00
       0.0 0.0 0.0 0.0
000010 00 00 00 00 00 00 00 00 00 00 00 00 00 00 00 00
       0.0 0.0 0.0 0.0
000020 00 00 00 00 00 00 00 00 00 00 00 00 00 00 00 00
       0.0 0.0 0.0 0.0
000030 00 00 00 00 00 00 00 00 00 00 00 00 00 00 00 00
       0.0 0.0 0.0 0.0
000040 00 00 00 00 00 00 00 00 00 00 00 00 00 00 00 00
       0.0 0.0 0.0 0.0

transformer_encoder.encoder.feed_forward.fc1.weight f4 [256, 20]
000000 fe a0 2b 3e 76 64 03 3e 0a 10 23 be ec 09 65 bd
       0.16760632 0.12831292 -0.15924087 -0.055917665
000010 c0 51 b7 bb 5e f9 5b be 10 29 02 3e fe 57 60 be
       -0.005594462 -0.21481845 0.12710977 -0.21908566
000020 f4 e2 98 3d 08 bf ed 3d 00 af 7d ba 64 c1 12 be
       0.07465163 0.11608702 -0.0009677261 -0.14331585
000030 75 66 63 be 20 67 3e 3d 54 f6 16 3e 88 26 08 3d
       -0.22207053 0.046485066 0.14742404 0.03323987
000040 58 15 c4 3d 38 d9 4d 3d de e0 47 3e 72 27 c1 bd
       0.095743835 0.050255984 0.19519374 -0.09431352
000050 a9 02 27 be 40 e0 b7 bc 98 7b 8f bd a0 10 93 bb
       -0.16309609 -0.022445798 -0.070059955 -0.004488066
000060 24 99 45 bd dc 86 f3 3d 98 04 4c be b4 9a 80 3d
       -0.04824175 0.11890957 -0.19923627 0.06279507
000070 fc e0 32 3e f0 ff 31 bd 38 38 a3 3c 94 e6 02 3e
       0.17468637 -0.04345697 0.019924268 0.12783271
000080 10 cc 44 3e 80 bd dd 3c dc 8d 2b 3e 10 94 2a 3e
       0.19218469 0.0270679 0.16753334 0.16658044
000090 fe c3 46 be cc 51 30 be 98 54 1a 3d 72 7c ae bd
       -0.19410703 -0.17218703 0.03767833 -0.0851983
0000a0 7d 96 15 be 00 76 51 3c 12 17 fa bd 64 17 40 3e
       -0.14608188 0.012784481 -0.122114316 0.18758923
0000b0 f8 d7 c9 bd 86 1c 03 3e 28 e7 16 3e f0 f0 88 3d
       -0.09855646 0.1280385 0.14736617 0.0668658
0000c0 00 b8 3a 3c 40 79 8a 3b 18 c8 0b 3e 58 76 01 3d
       0.011396408 0.00422588 0.13650548 0.031607002
0000d0 50 0f ef 3d 54 10 5a 3e ee eb 27 be 90 7b 8f bc
       0.116728425 0.21295291 -0.16398594 -0.017514974
0000e0 00 91 df 3c 00 41 b4 bc 10 ee 1c bd 5e e1 a7 bd
       0.027290821 -0.02200365 -0.03831297 -0.08197282
0000f0 f4 0e 90 bd d4 40 ab 3d 6a 34 48 3e c6 8f 62 3e
       -0.07034102 0.08361974 0.19551244 0.22125158
000100 f1 19 00 be 23 9c d0 bd e4 33 36 3e 34 4a 01 be
       -0.12509896 -0.10186031 0.17793232 -0.12625962
000110 d0 c7 99 3d 98 8d 5b be de de 05 3e 94 50 e4 3d
       0.07508814 -0.21440732 0.13073298 0.111481816
000120 12 29 ad bd f4 17 4c 3e c8 1e 57 3e ff 59 d3 bd
       -0.08455099 0.19931012 0.21007836 -0.103199
000130 40 33 47 3d 94 d7 23 3e 9e 90 26 3e a8 bc 5f 3d
       0.04863286 0.16000205 0.16266105 0.054623276
000140 16 9e 60 3e 78 c2 16 3d be cb 04 3e 00 9b 8f bd
       0.21935305 0.036806554 0.12968346 -0.07011986
000150 00 d5 78 ba 40 2c 07 bc b4 d6 03 3e 54 1a 07 3e
       -0.00094921887 -0.008250296 0.12874871 0.13193637
000160 e3 14 4e be 92 7e ae bd 52 b7 17 be f4 02 a3 bd
       -0.20125155 -0.08520235 -0.14816025 -0.07959548
000170 96 e8 51 3e ea 81 15 be 0c 10 ee bd e4 38 db 3d
       0.2049888 -0.1460034 -0.116241544 0.107042104
000180 14 c8 2e be 60 6a 3b be 48 2b b8 3d d0 82 b3 3d
       -0.17068511 -0.18302298 0.0899263 0.08765185
000190 db 9b 44 be 60 b1 89 3b d4 6c 62 bd c0 75 11 3d
       -0.19200079 0.004202053 -0.055279568 0.035512686
0001a0 9a fe 51 be 4e 75 16 3e b8 1e 1e 3e 7c b3 14 3e
       -0.20507279 0.14693186 0.15441406 0.14521593
0001b0 49 fa 3f be 24 96 00 3e 49 4e 29 be 3c 4c 34 3e
       -0.1874782 0.12557274 -0.1653377 0.17607206
0001c0 e0 ef 6e 3d 98 91 07 be 6c 41 08 3e 50 cd c6 3d
       0.05833423 -0.13239133 0.13306206 0.09707129
0001d0 8c db 36 3e 9c 34 05 3e 04 5f 56 3e b8 8a 37 be
       0.17857188 0.1300835 0.20934683 -0.17924011
0001e0 40 c1 bc 3b d0 96 16 3e c0 da 3d bc dc 0d b9 3d
       0.005760342 0.14705968 -0.011587799 0.090358466
0001f0 38 cb 3d bd d0 63 f8 3c 00 cf 28 3d 0a 05 27 3e
       -0.046336383 0.030321032 0.041213036 0.16310516
000200 34 7e 1e 3e 20 07 af bd 28 77 4d 3e 58 14 32 3e
       0.1547783 -0.08546281 0.20064986 0.17390573
000210 7e 92 46 3e c8 a3 67 3d bc b8 ab bd 31 06 11 be
       0.1939182 0.05655268 -0.08384845 -0.14162518
000220 16 f3 c5 bd 7c 3d b4 bd e0 bd 32 3c fa 72 35 3e
       -0.096655056 -0.0880079 0.010909528 0.17719641
000230 39 b8 10 be 52 fd 15 be ac 8c 41 3e 5c df ed 3d
       -0.14132775 -0.14647415 0.18901318 0.11614868
000240 34 2a 1f be aa e2 40 3e 83 b8 48 be ea 11 20 be
       -0.15543443 0.18836465 -0.19601636 -0.15631834
000250 fc cf 1a bd f0 c1 af bd 9e 21 0a be 50 cf 3d 3d
       -0.037796006 -0.085819125 -0.13489386 0.046340287
000260 28 01 0a 3d a8 39 6d bd 36 7b ef bd 40 ee 92 3b
       0.03369251 -0.057916313 -0.116934225 0.004483968
000270 b7 1c 63 be 91 fd 22 be 53 f6 0d be 94 dc 70 bd
       -0.22178923 -0.1591704 -0.13863496 -0.05880411
000280 74 d9 13 3e a8 e2 c2 bd cf 48 2a be c8 3c c9 3c
       0.1443842 -0.095158875 -0.16629337 0.024565116
000290 48 7a 1e be 2a a4 25 be f4 49 48 bd 9c f8 89 3d
       -0.15476334 -0.16175905 -0.048898652 0.067368716
0002a0 81 21 e0 bd 70 19 26 be 7c 28 ad bd b2 fb 2d 3e
       -0.1094389 -0.16220641 -0.084549874 0.16990545
0002b0 3c ba b8 3d 50 20 64 3d fc 3e 22 bd cc 21 f3 3d
       0.090198964 0.055694878 -0.039610848 0.118716806
0002c0 d0 64 35 be 50 53 15 3d 98 6d 9e bd 40 a0 21 be
       -0.17714238 0.036456406 -0.07735747 -0.15783787
0002d0 d8 a1 3f bd 48 4b e5 3d 4e 89 0b 3e ea f1 61 3e
       -0.046785206 0.111959994 0.13626596 0.22064939
0002e0 e0 0d 36 3e 94 31 11 bd 27 4e 07 be 52 a6 80 bd
       0.1777873 -0.035447672 -0.13213407 -0.06281723
0002f0 e8 b3 43 3e 98 b2 19 3d 8e e5 0b be 14 5d 43 be
       0.19111598 0.037523836 -0.13661787 -0.19078475
000300 38 c9 ec 3d f8 46 c2 3d 21 3c d2 bd f8 86 b7 3c
       0.11561817 0.094861925 -0.10265375 0.022403225
000310 84 2f 99 bd d0 23 06 3d e0 b1 35 bd 1a 36 20 3e
       -0.07479766 0.032748997 -0.044359088 0.15645638
000320 ad fd da bd 44 d7 bc 3d b0 57 5b bc 64 40 48 3e
       -0.10692916 0.09220746 -0.013387606 0.19555813
000330 f0 eb 35 3c 88 09 4c 3e 10 79 20 bd fc 2d 11 be
       0.011103615 0.19925511 -0.039177954 -0.14177698
000340 60 e8 27 3e de 9b bf bd 1f f4 fb bd 3b 4a f8 bd
       0.16397238 -0.09355901 -0.12302422 -0.12123533
000350 9c a7 09 3e 9a 14 82 bd 70 af 37 3e b2 86 0f be
       0.13442844 -0.06351586 0.17938018 -0.14016226
000360 d0 ff 1c 3d f4 6f ee 3d 60 75 d8 3d 78 72 eb 3d
       0.0383299 0.11642447 0.105692625 0.114964426
000370 c4 81 33 3e 18 9a 1c 3d d8 d2 41 3e 3c 39 49 be
       0.1752997 0.038232893 0.18928087 -0.1965074
000380 10 fa 31 bd a8 31 c6 bc 20 b8 03 bd 64 90 ad bd
       -0.04345137 -0.0241936 -0.032158017 -0.08474806
000390 9c 27 2e 3e fc 2b 24 be 68 5d a6 3d 21 ac 4e be
       0.17007297 -0.16032404 0.081232846 -0.2018285
0003a0 ec 6e 0e bd 50 c6 3c bd 40 5a 14 bb c0 c5 f7 3d
       -0.034773752 -0.046087563 -0.00226368 0.12098265
0003b0 d8 e4 d3 bd d0 63 29 3c dc 09 39 3e 18 48 8e 3d
       -0.10346383 0.010338739 0.18070167 0.069473445
0003c0 5a 38 f6 bd 48 13 29 3d e4 85 59 3e 5c 43 ef 3d
       -0.12022467 0.041278154 0.21242481 0.1168277
0003d0 81 84 0f be 14 f7 26 bd 78 ac 4f 3e 10 41 0a 3c
       -0.1401539 -0.040762976 0.20280635 0.008438364
0003e0 cc 4a 1a 3e e8 7e 9f bd 0c 33 b8 3d 48 89 87 bc
       0.15067595 -0.07787877 0.089941114 -0.016544953
0003f0 f6 4d 94 bd bc 37 44 be f8 bd 83 3d e4 1d 89 3d
       -0.07241432 -0.19161886 0.06432718 0.06695154

transformer_encoder.encoder.feed_forward.fc1.bias f4 [256]
000000 2c 06 dc 3d 00 5c 3f bd 7c 35 10 bd b8 db ca 3c
       0.10743365 -0.046718597 -0.035207257 0.024762973
000010 f8 f2 3e 3d fe 19 1d 3e 2c 76 9e 3d 90 f3 2b 3c
       0.04661843 0.15341946 0.07737383 0.010495082
000020 b8 59 42 bd 00 d3 39 bd cc 9a ca 3d 1d b6 24 be
       -0.047448844 -0.04536724 0.098928064 -0.16085096
000030 d4 9a 5b be 20 c8 16 3e 6a c5 f2 bd 00 48 46 3e
       -0.21445781 0.14724779 -0.1185406 0.19363403
000040 88 e3 69 bd 50 01 5f 3d 34 fc 94 3d c4 9c b0 bd
       -0.057101756 0.05444461 0.072746664 -0.08623651
000050 f0 d4 0c 3d 74 53 8e bd 70 60 25 3e a8 34 00 3d
       0.03438276 -0.06949511 0.16150069 0.031300217
000060 a8 cf 9d bd d8 90 1d be 75 e1 59 be 1a 04 15 be
       -0.07705623 -0.15387285 -0.21277411 -0.14552346
000070 42 f6 62 3e 69 64 2e be 54 6f 51 3e 94 a9 3b be
       0.22164252 -0.17030491 0.20452625 -0.18326408
000080 58 a7 06 be 60 61 a0 3b 60 8e ec bc 80 ca dc 3d
       -0.13149774 0.0048944205 -0.028876483 0.10780811
000090 54 d4 86 3d 64 01 18 bd 24 b2 31 bd 14 4b 86 3d
       0.06583467 -0.0371107 -0.04338278 0.06557289
0000a0 a8 8c 07 3d 3e 9c 0c be 70 13 eb 3c a4 0f 31 be
       0.033093125 -0.13731477 0.028695792 -0.17291123
0000b0 2e 06 40 be fa 34 24 3e c0 43 89 3d 58 75 7f 3d
       -0.18752357 0.16035834 0.067023754 0.062367767
0000c0 70 b9 e3 3d 40 11 ac 3b 54 5b 64 3e ea 37 4d be
       0.11119354 0.00525108 0.22300464 -0.20040861
0000d0 eb 4a 58 be e4 50 3c be e4 ef ad 3d 26 68 0d be
       -0.21122329 -0.18390232 0.08493021 -0.1380926
0000e0 7c 10 fa 3d 21 bf d6 bd f8 69 78 3d d4 d9 40 be
       0.122101754 -0.10485674 0.060647935 -0.18833095
0000f0 20 64 8b 3d f8 d6 ca bc 01 12 50 be ba e0 00 3e
       0.06806207 -0.024760708 -0.20319368 0.12585726
000100 10 08 77 3d 74 75 33 be 1a 6d 61 3e fc 5d 5b bd
       0.060310423 -0.17525274 0.22014275 -0.053556427
000110 68 aa 84 bd 5c 14 d8 3d ea 87 32 be 34 40 91 3d
       -0.06477815 0.10550758 -0.1743466 0.07092324
000120 88 f2 1f be 00 a4 e8 bc 62 56 aa bd 73 cc 4f be
       -0.15619862 -0.028398514 -0.083172575 -0.20292835
000130 00 34 07 3d e8 ad 87 3c 80 d1 12 bc fd f7 03 be
       0.033008575 0.016562417 -0.0089610815 -0.12887569
000140 fc d2 cf 3d 60 4b 17 3d b6 6e a0 bd f4 63 da 3d
       0.10147664 0.036937118 -0.078336164 0.10663596
000150 aa 96 54 be 40 64 15 bc 1c 43 59 be 18 07 01 3e
       -0.20760599 -0.00911814 -0.21217006 0.12600362
000160 fc db ab 3d 30 7b 01 be 64 87 e5 3d be f0 c9 bd
       0.08391568 -0.12644649 0.11207464 -0.09860371
000170 a8 33 d7 bd 28 47 00 3e 86 4a 9e bd 42 68 09 3e
       -0.105078995 0.12527144 -0.07729058 0.13418677
000180 60 eb ec 3c 86 c4 39 3e e8 82 04 3d bc 7f 19 3e
       0.02892083 0.18141374 0.032351404 0.14990133
000190 d4 d1 11 3e 48 19 03 3d bc 7d 48 3e e4 62 8e 3d
       0.142402 0.032006532 0.19579214 0.06952456
0001a0 c0 b3 29 bd bc 3e cc 3d bc af 00 bd 87 fc e0 bd
       -0.04143119 0.09972903 -0.031417593 -0.10985666
0001b0 40 79 0f 3d 40 23 cf bb 28 65 0b bd 29 e6 3b be
       0.035027742 -0.006321341 -0.034032017 -0.18349518
0001c0 60 bc df bb 15 65 58 be bf fe 2d be 4c 78 c1 3d
       -0.006827876 -0.2113231 -0.16991709 0.09446773
0001d0 a0 3c f4 bd d0 2c e7 3d 50 b6 cd bc b3 8d 58 be
       -0.11925626 0.11287844 -0.025111347 -0.21147804
0001e0 00 a5 7f 3c 90 d1 14 3d 2c e4 0a 3e bc d9 11 be
       0.015603304 0.036332667 0.13563603 -0.14243215
0001f0 3c e0 94 3d ae 1d 3e 3e 58 e3 11 bd 18 4b 0d be
       0.07269332 0.1856601 -0.035617203 -0.13798177
000200 3c 78 6f bd e0 37 ee bb 30 df f1 bc 0a 52 4e 3e
       -0.058464274 -0.0072698444 -0.02952537 0.20148483
000210 a3 a6 47 be 00 f3 bb 3a f8 4f b7 3d 30 a9 33 3e
       -0.1949716 0.0014339387 0.089508 0.17545009
000220 30 92 ad 3d b0 a3 fb 3d d8 dd f7 3d 20 77 8e 3b
       0.08475149 0.1228708 0.1210286 0.004347697
000230 d8 0b 13 bd 20 49 3f be b8 95 8b bc 18 32 21 3d
       -0.035899967 -0.18680239 -0.017039165 0.039354414
000240 78 1b 97 3d 9c bc 2f be 8c fa 22 bd 5e 92 93 bd
       0.07378286 -0.17161793 -0.03978972 -0.07205652
000250 42 e7 38 be 60 a1 e6 bb f0 4c 7e bd ee 3a 55 3e
       -0.18056968 -0.0070382804 -0.062085092 0.20823261
000260 a0 54 9f 3d 0c b9 01 3e 04 ce 63 be 75 51 03 be
       0.07779813 0.12668246 -0.22246557 -0.12824042
000270 b4 d7 06 3e 06 82 4c be b6 a1 11 be f2 5a 5d 3e
       0.13168222 -0.19971475 -0.14221844 0.21616724
000280 34 63 88 3d 48 a5 83 3c 66 72 13 3e 2e 47 03 be
       0.066595465 0.016070023 0.14399108 -0.12820122
000290 78 8f 08 bd 68 75 cd bc 28 00 07 bd 9c c8 48 bd
       -0.033339947 -0.025080398 -0.032959133 -0.04901944
0002a0 f7 01 44 be fc c7 2f 3e b0 62 41 3e 2a 97 2c 3e
       -0.19141375 0.17166132 0.18885303 0.1685454
0002b0 28 4c 21 3e d0 5c 5b bd c5 4d 2e be c2 6f 35 3e
       0.15751708 -0.05355531 -0.17021854 0.17718413
0002c0 ae 6f 2e be c4 58 b1 3d a0 b5 73 3c 60 1c a1 3d
       -0.1703479 0.08659509 0.014874846 0.0786674
0002d0 21 94 2d be 26 bc 3d be 58 87 44 3e 12 7c 0e be
       -0.16951038 -0.18528804 0.19192255 -0.13914517
0002e0 4c 15 38 bd 70 79 01 3d c9 7b 42 be 24 81 2e 3e
       -0.044942185 0.031609952 -0.18992533 0.1704145
0002f0 a9 b9 ec bd 98 6f be 3d 98 d4 34 3e 50 c3 04 be
       -0.11558849 0.092986286 0.17659223 -0.12965131
000300 70 2d 3b 3d 48 4a 99 bd 88 d6 a9 3d 0c 89 cf 3d
       0.04569763 -0.07484871 0.08292872 0.101335615
000310 d0 3c 81 3d 28 f5 b5 3d c6 e9 13 3e dd 0b 4e be
       0.06310427 0.088846505 0.14444646 -0.20121713
000320 2c 5f 2b be 1c ec 00 be 7a 5f 55 3e c8 2e 1f 3e
       -0.16735524 -0.12590069 0.20837203 0.1554519
000330 60 74 33 3c 7a 28 31 be 58 f4 54 3e c8 08 84 3d
       0.010953039 -0.17300597 0.20796335 0.064469874
000340 20 1c 03 be 34 cf 95 bd c8 60 8d 3c 2c 6c b7 3d
       -0.12803698 -0.073149115 0.017258063 0.08956179
000350 c8 0c 24 3e 26 4d d1 bd 56 cb 07 be d8 f1 43 be
       0.160205 -0.10219793 -0.1326116 -0.19135225
000360 34 c8 1c 3e 62 fd 39 be 1f 2e ee bd fb 42 db bd
       0.15310746 -0.18163064 -0.11629891 -0.10706135
000370 2f 18 ff bd 88 f4 14 3e 31 07 29 be 28 b9 62 3d
       -0.124557845 0.14546406 -0.1650665 0.05535236
000380 80 f3 1f 3e ec ef df 3d 74 af 12 3e 6d 25 fb bd
       0.15620232 0.10934433 0.14324743 -0.12262998
000390 98 2c 1d 3d c0 ab 5a 3d 9d 36 04 be 70 4c c4 bc
       0.038372606 0.05338645 -0.12911458 -0.02396223
0003a0 64 51 df 3d b0 9b d0 3d 70 3a b9 3c 2c 59 4b 3e
       0.10904196 0.10185945 0.022610873 0.19858235
0003b0 32 29 f2 bd 20 f3 68 bc b2 29 33 be 9f 09 e1 bd
       -0.11824264 -0.014218122 -0.17496374 -0.10988163
0003c0 74 14 4a 3e 28 58 66 bd 33 6e 31 be 30 58 1c 3e
       0.19734365 -0.056236416 -0.17327194 0.15268016
0003d0 c0 93 73 3c 7b 36 df bd 00 82 21 bc 6c 1e 92 3d
       0.014866769 -0.10899063 -0.009857655 0.07134709
0003e0 c8 ff ac bc 20 30 c7 3d 96 fc 10 3e 3c bb b4 bd
       -0.02111806 0.09725976 0.14158854 -0.088247746
0003f0 0c 17 a8 3d d0 32 5b bc 77 26 14 be 26 6c 62 be
       0.08207521 -0.013378814 -0.14467798 -0.22111568
