simple2transformer/param/net_param/Mk06_75_25_critic_net.model (torch, 110591 bytes, 33 tensors)

transformer_encoder.encoder.attention.fc_Q.weight f4 [20, 20]
00000000: b6e0 123e b015 1e3d 3009 493e cc96 fe3d
00000010: a86f 0d3d 3c8b 1abe 2c40 8fbd b80f e4bd
00000020: 5286 5fbe c8c6 723d 340f b03d dc77 de3d
00000030: 8a08 3b3e 10ff e73d 0e8e 503e a023 febc
00000040: 6012 903b 9673 15be 80cb e4ba a0cf 853b
00000050: f249 2a3e 680f 4abd ecae 373e 85d0 33be
00000060: b4e9 02be b90a 2abe f054 62bd b07c 693c
00000070: f052 f03c af87 3dbe 626c 95bd 3001 78bd
00000080: 805e 1cbe 6061 2abe 7c3e 5abe dc7e 633e
00000090: 201a abbb b409 a53d 4e98 623e 3ade 0ebe
000000a0: 1cd1 913d a691 4a3e 08eb 53be ccec 8f3d
000000b0: 78da 803c 8898 0a3e d8a0 b7bc f404 36be
000000c0: ae05 4c3e d42e ee3d f007 32be 90df a6bc
000000d0: 5e1e 83bd 209a 3f3e 1433 26be e38c 5dbe
000000e0: 843f ff3d 2246 473e 60a8 08be 655f 18be
000000f0: 98ed cc3d bcf8 17bd 9657 b1bd 602c eb3d
00000100: c456 b03d 401e 66bd 02f1 4f3e d770 f6bd
00000110: 3a79 0b3e 68e6 443d 403c af3d 34e7 ce3d
00000120: f2da 563e fc64 ff3d 3e3a e2bd 04d3 493e
00000130: 8827 5c3d 18dd 163e f8d0 24be 58e8 2fbd
00000140: cf54 e9bd 3ecc 3e3e 10bd 0ebc 40fa 2e3d
00000150: 6a57 023e 4c75 883d d02f c63d 0bd6 dabd
00000160: 901e 933d d6c5 4a3e cecd 403e dcfb 23bd
00000170: f444 fbbd 90f9 ff3c cd5d 41be 495e 2fbe
00000180: 786b 7fbd 6028 1fbd 36f1 013e 2520 cfbd
00000190: 5411 08be c974 d1bd 20ac 983d c0e4 ddbd
000001a0: 52e9 48be 4732 cabd 0160 62be 9a9c 5c3e
000001b0: 1038 8e3c 4037 0bbc 6890 b73d 706e b23c
000001c0: d45a 933d 1047 a23c 6022 cbbd 5363 eebd
000001d0: 341f 1a3e 88c0 2b3d c277 12be 703c 5c3c
000001e0: d428 ec3d 1a73 edbd c8f0 f3bc a8bc 4fbd
000001f0: b49f ba3d d0d7 ee3c 11fa 13be 84c3 353e
00000200: 3e35 5f3e 30d2 433e e41e d93d 9aa5 263e
00000210: 603a be3b 7ad3 2e3e 5086 043e 142b 413e
00000220: 3c9c 06bd 60f9 e43c d280 26be e01e 413c
00000230: c323 10be 98ff 2abd a443 583e d018 ff3d
00000240: 6847 073e 2068 ba3b 25da 38be 4cb3 27bd
00000250: 464a c2bd 10cc 313d b8e4 223d c1f6 08be
00000260: f721 50be 54ca f7bd e049 543d 20df 233d
00000270: 882f 9abc 0074 18bd 8cd2 41bd 1cf3 11be
00000280: d06f 9e3c 69d7 d2bd 1420 273e ea46 8bbd
00000290: 8646 aabd fcec 483e b89c 8e3c e89c 233e
000002a0: c4b1 bf3d 5485 a9bd 7018 373d e496 0a3e
000002b0: 5446 84bd c03e ca3d bc79 b53d d2eb 043e
000002c0: 8722 56be d37c 13be a024 97bc 327e 383e
000002d0: d40d ee3d 593b 43be 0c06 29be 0a11 10be
000002e0: dce9 493e b8e1 44be c866 00bd 38b8 52bd
000002f0: bb3d 4fbe c8d5 583d 041d b23d bc99 a93d
00000300: 04e5 963d 88a4 21be 3db2 fabd 50bb 16be
00000310: 1c8c 64be f07e b73d 20d8 7cbc a016 7dbc
00000320: 7949 ffbd a74d 2abe c2b6 333e 08a1 b2bc
00000330: 07a4 42be e84e 283e f037 d2bc f866 1dbe
00000340: 061f 42be 20cb 933d 44e8 3dbe b0e1 2d3d
00000350: a829 3e3e 102e cdbd 52c9 37be 149b 543e
00000360: 50a9 a93d dc5a bb3d 1821 26bd 4470 5dbd
00000370: 5a2c b2bd 2c67 3d3e 90a9 0ebd 8842 5b3e
00000380: 4868 aa3d 363f 633e 080b 493d 068f 393e
00000390: 689b 0b3e 981b 5a3d 4c9c 1e3e e0fd d9bc
000003a0: c4e8 453e c89c 923c e22c 0bbe 54ab 213e
000003b0: e0ca 993d 0842 773d b691 3b3e 40d6 4a3d
000003c0: 8007 00bd 95f3 febd 8288 3abe 48b8 bfbc
000003d0: 8051 26bb 087e 643d 8033 6fbc 24a2 b93d
000003e0: bc0c 4c3e 9522 4ebe 30d2 0c3d 2b8b 43be
000003f0: d014 cbbc c058 bb3c c0b1 d23c ea33 2d3e
0.14343533 0.0385949 0.19632411 0.12431106 0.03453031 -0.15092176 -0.06994662 -0.111358106
-0.21828583 0.059271604 0.0859665 0.10862705 0.18264976 0.11327946 0.2036669 -0.031022847
0.0043967217 -0.14594874 -0.0017455667 0.0040835887 0.1662977 -0.0493311 0.17937821 -0.17560013
-0.12784463 -0.16605653 -0.055256784 0.014250919 0.029336423 -0.1850879 -0.07296063 -0.060548007
-0.15270424 -0.16638708 -0.21312898 0.22216362 -0.00522162 0.08058491 0.22128412 -0.1395196
0.071199626 0.19782123 -0.20695126 0.07027587 0.015729174 0.13534749 -0.022415563 -0.17775327
0.19924042 0.116300255 -0.1738584 -0.020370275 -0.064022765 0.18711138 -0.16230422 -0.21635775
0.124632865 0.19460347 -0.1334548 -0.1488014 0.10006255 -0.037102446 -0.08659284 0.11483073
0.08610299 -0.056181192 0.20306781 -0.12033241 0.13620463 0.048071295 0.08556414 0.10102692
0.20981959 0.12470433 -0.11046265 0.19709402 0.053748637 0.14732778 -0.1609534 -0.04294619
-0.11393129 0.186326 -0.008712068 0.042719126 0.12728658 0.066629976 0.09677088 -0.10685357
0.07183564 0.19802031 0.18828508 -0.040035114 -0.12269011 0.03124693 -0.18883438 -0.1712581
-0.06235835 -0.038856864 0.12689671 -0.10113553 -0.1328786 -0.10227353 0.07454705 -0.10834646
-0.19620255 -0.09872871 -0.22106935 0.21544114 0.017360717 -0.008497059 0.0896309 0.021781176
0.071950585 0.019809276 -0.09918666 -0.11640038 0.15050966 0.04193166 -0.14303496 0.013442144
0.11531225 -0.115942195 -0.0297779 -0.050717026 0.09112492 0.029155642 -0.14450862 0.17750365
0.21797654 0.19123149 0.10601595 0.1627411 0.0058052987 0.1707286 0.12941861 0.18864089
-0.03286384 0.027950943 -0.16260079 0.011787146 -0.14076142 -0.04174766 0.21119553 0.124559045
0.13210833 0.005688682 -0.18051966 -0.040942475 -0.09486823 0.0434075 0.039768904 -0.13375379
-0.20325457 -0.12099138 0.051828265 0.04000771 -0.018821493 -0.03722 -0.047319934 -0.14252895
0.019340426 -0.102949925 0.1632083 -0.06800635 -0.083142325 0.19621652 0.017408714 0.15977824
0.09360078 -0.082773834 0.04470104 0.13534123 -0.064587265 0.0987525 0.088611096 0.12980583
-0.20911609 -0.14403085 -0.018450081 0.1801689 0.11623731 -0.19065608 -0.16506213 -0.14069
0.19718117 -0.1922673 -0.03134802 -0.051445216 -0.20238392 0.052938253 0.086969405 0.08281276
0.073679 -0.1578542 -0.122410275 -0.14719892 -0.22319072 0.08959758 -0.015432388 -0.015447289
-0.12465186 -0.16631185 0.17550185 -0.021805301 -0.19007884 0.1643635 -0.025661439 -0.1537131
-0.18957147 0.072164774 -0.18545634 0.04245156 0.18570578 -0.10018551 -0.17947891 0.20762283
0.08284247 0.091481894 -0.040558904 -0.054062143 -0.08699866 0.18496388 -0.034829676 0.21412098
0.08320671 0.22192082 0.049082786 0.18120965 0.13633502 0.05324897 0.1548931 -0.026610315
0.19327074 0.017897025 -0.1359134 0.15788013 0.075093985 0.060365707 0.18317303 0.04952073
-0.031257153 -0.12448803 -0.18216136 -0.023403302 -0.0025378168 0.055784255 -0.014599681 0.09064129
0.19926733 -0.2013038 0.034380138 -0.19096057 -0.024790198 0.022869468 0.025719523 0.16914335

transformer_encoder.encoder.attention.fc_Q.bias f4 [20]
00000000: 78f8 123e b5a0 5bbe 4052 e73b b89e 1b3e
00000010: b855 4d3e 603d 0abc e454 56bd 964d 0c3e
00000020: ded3 b8bd b542 f5bd 5c8c b53d 2087 a23d
00000030: 8013 bdbb 82db 62be a0b4 963b 19bb 1abe
00000040: d643 b6bd 4036 b13d d696 bdbd 70fc aa3d
0.14352596 -0.21448024 0.0070593655 0.15197265 0.2005223 -0.0084374845 -0.05232705 0.13701472
-0.090247855 -0.11975614 0.08864662 0.07935929 -0.005770147 -0.22154048 0.004599169 -0.15110435
-0.088996574 0.086529255 -0.09257285 0.0834893

transformer_encoder.encoder.attention.fc_K.weight f4 [20, 20]
00000000: 525a fbbd f0b9 43bc 385a 863d 4441 97bd
00000010: 593c 29be eab0 4bbe c4ea 143e 68cf 9b3d
00000020: 84db 44bd 4014 0f3e 9cfe 01be 24f3 b33d
00000030: 282c 893c 2f27 f2bd c60d 2c3e 80fa c7ba
00000040: 186e 9cbd b0cb 023c c0a1 a33d 2871 98bd
00000050: 14dd 09be aaa7 bebd c501 5fbe acb4 75bd
00000060: 2ecf 09be fc8c 443e ae13 4a3e 7003 4fbe
00000070: 6036 5fbc a1f2 12be 48e8 d23d d857 4a3e
00000080: 329a 61be 0861 02bd 275c 2fbe abae 50be
00000090: beca 11be beac 0f3e 7091 5d3c c23f 3cbe
000000a0: 48d7 ba3c f0c8 a6bd cd3f e6bd 0024 893c
000000b0: c615 c0bd 0828 5b3e a2ca 19be 0fba 1fbe
000000c0: ff47 f9bd 803c f13d fa89 99bd 18ca 4f3d
000000d0: 1835 28be 747e 2bbd c04c 6c3d fad4 163e
000000e0: f655 1d3e 5e68 2d3e 6257 1ebe 1406 5dbd
000000f0: 5a38 c1bd 48d4 9b3c 0e98 393e 4e8f 8cbd
00000100: 0829 4e3e 3c56 113e fafe 22be 1409 093e
00000110: c018 10be c229 9fbd 8004 233c 5ed2 8fbd
00000120: 6da9 29be aa19 c9bd 80a6 9dbd 91d1 f0bd
00000130: 007c 573e 644a 513e f047 923d 6033 65bd
00000140: 1058 b23d 2e33 493e e8c7 c7bc 00f0 183d
00000150: ccde cfbd 8033 b13b 660a fcbd dc46 d23d
00000160: 25f5 4fbe 2a23 5abe 08f8 81bc 8034 253e
00000170: 8acd 613e 6fc5 63be d04b 71bc e215 27be
00000180: 828e 223e 6813 b33c c05e 1cbc 4676 333e
00000190: 100b 46be d6c1 133e a0ea f3bb d632 0c3e
000001a0: bc1f 2e3e 1471 833d 0bc4 58be fc6a ae3d
000001b0: a0ed 43be 4265 5f3e 1216 b8bd 0586 54be
000001c0: 1809 4bbd cc26 4c3e 6c02 243e 5a4d 373e
000001d0: b47f 01be f26b 98bd e18f 5fbe 3c84 a1bd
000001e0: 54eb 0fbe 70b7 e13d 78fc eb3d 8034 a4ba
000001f0: e05e 093d 0084 4d3d d272 0e3e e87c 3e3e
00000200: 14c9 873d f01a 113e c295 1e3e c085 58bd
00000210: f064 583c 3c00 b23d 8003 fe3d 00b5 1c3e
00000220: 1366 1fbe 2e30 233e 88ed f73d ec03 3a3e
00000230: 7a1f 45be 089e d83d 88ba 04be 8092 9b3d
00000240: 14f4 523e 04cd 05bd 2dd0 2abe 8af6 bebd
00000250: 4881 1e3d 1aa7 2e3e 5f4e 48be 8863 833d
00000260: 3891 afbd a0ff 023c c882 433e 90fd f93c
00000270: d45c bfbd a80c a43c 38b1 2fbe b86f aabc
00000280: 665e 97bd 50d0 96bd 48ee cf3d 60f2 363e
00000290: 7039 933d 945e ed3d a010 3b3e 04bc 013e
000002a0: 841f 553e a59c 4ebe f015 4cbe dd0a dfbd
000002b0: 95b7 47be 08f1 3bbd 8026 b8bd 5006 4c3e
000002c0: c8f4 4ebe 11a5 40be e0c1 eabd 086d 1d3d
000002d0: e80d 4e3d a485 28bd 74c6 b13d 90ca d03c
000002e0: d8dd 6b3d a23d 4fbe 6cba e7bd 6814 30be
000002f0: 8844 45be 00cb 86ba 40ca d2bc 6c55 053e
00000300: b0cb ed3c 3890 bc3d 39fc 4ebe 1a0d 3a3e
00000310: 9c90 513e f82f a23c 4309 31be ac94 92bd
00000320: 887d e13d bfaa 21be cc43 5b3e 60ab ddbb
00000330: a421 de3d 381a bebd 10fb 163e 841f 37be
00000340: ac24 b33d d85e 8b3d a087 1bbc a071 04bc
00000350: 4638 bcbd b76a 59be b42a 26be ac6a 323e
00000360: 709c 363d 2f60 5dbe 6265 13be e42a 2e3e
00000370: 5896 27be 1863 b03c 7240 073e 6076 973d
00000380: 4031 eb3b 32f6 1abe a7ac 09be 9818 35be
00000390: 20e0 b93d fce2 4b3e 284c 29be fcc0 623e
000003a0: 441c 22be 9664 60be 2a76 02be 106a cc3d
000003b0: 90a0 233e a8a1 aebc f480 6abd 822c 51be
000003c0: 6e3b b4bd 2037 ec3d bc59 28be dd37 fdbd
000003d0: b02b ecbd ba11 5c3e 6c8d dc3d a031 ac3c
000003e0: ca7a 283e 106f ecbd ad20 d7bd 0026 743b
000003f0: 004c 113a c480 c4bd a07b 42be 28bf d7bc
-0.122730866 -0.011946186 0.065601766 -0.07385495 -0.16526927 -0.19891706 0.14542681 0.07607919
-0.04806091 0.13972569 -0.12694782 0.0878661 0.016744688 -0.1182388 0.16802129 -0.001525715
-0.07638186 0.007983133 0.07989836 -0.07443458 -0.13463241 -0.09309323 -0.21778019 -0.059986755
-0.13457939 0.19194406 0.1973407 -0.20216155 -0.013623804 -0.14350368 0.102982104 0.19760072
-0.22031477 -0.031830817 -0.17124997 -0.2037913 -0.14237496 0.1403074 0.0135234445 -0.18383697
0.022807732 -0.081437945 -0.11242638 0.016740799 -0.09379153 0.2140199 -0.15018705 -0.1559832
-0.12171935 0.117791176 -0.0749702 0.05072984 -0.16426504 -0.041868642 0.057690382 0.14729682
0.15364823 0.16934344 -0.15463021 -0.053960875 -0.09434576 0.019022122 0.1812441 -0.06863271
0.2013284 0.14193052 -0.15917578 0.1338237 -0.14071941 -0.077716365 0.009949803 -0.07022546
-0.16568537 -0.09819348 -0.07697773 -0.117587216 0.21043396 0.20438534 0.07142627 -0.0559572
0.08708203 0.1964843 -0.024387315 0.037338257 -0.10149917 0.0054077506 -0.12306671 0.102674216
-0.20308359 -0.21302477 -0.01586534 0.16133308 0.22051063 -0.22243284 -0.014727548 -0.16316941
0.15874675 0.02185984 -0.009544075 0.17525586 -0.19340158 0.14429411 -0.007443741 0.13691267
0.17004293 0.06418052 -0.21168534 0.085164994 -0.19133615 0.2181597 -0.089885846 -0.2075425
-0.04956922 0.19936675 0.16016549 0.17900601 -0.12646371 -0.07442464 -0.21832229 -0.0788655
-0.14054614 0.11021316 0.11522764 -0.0012527853 0.033537745 0.050174713 0.13910988 0.18602335
0.066301495 0.14170432 0.15486816 -0.05286193 0.013207659 0.08691451 0.12403011 0.15303421
-0.15566282 0.15936348 0.12105852 0.18165559 -0.19250289 0.10577017 -0.12961781 0.07596302
0.20600921 -0.03266622 -0.16680975 -0.09324367 0.03869751 0.17055932 -0.19561146 0.064154685
-0.0857262 0.007995516 0.19092858 0.030516416 -0.093438774 0.020025566 -0.17157447 -0.020805225
-0.07391052 -0.07363951 0.101528704 0.17865896 0.0718869 0.11590305 0.1826806 0.12669379
0.20812804 -0.20176943 -0.19930243 -0.10890744 -0.19503625 -0.045884162 -0.08991718 0.19924283
-0.20210564 -0.18812968 -0.1146276 0.03843406 0.05030623 -0.041143075 0.0868043 0.025487214
0.057584614 -0.20238355 -0.11314854 -0.17195284 -0.19264424 -0.0010283887 -0.025731206 0.13020867
0.02902779 0.09207195 -0.20213403 0.1816906 0.2046532 0.019798264 -0.1728869 -0.07157263
0.11010271 -0.1578779 0.21412581 -0.0067648143 0.1084626 -0.092823446 0.1474421 -0.17883116
0.08747229 0.068051994 -0.009492785 -0.008083731 -0.09190421 -0.21232115 -0.16227227 0.17423505
0.044582784 -0.21618722 -0.14394143 0.17008549 -0.16365945 0.021531627 0.13208178 0.07395625
0.007177502 -0.15132979 -0.13444768 -0.17685163 0.090759516 0.19910806 -0.16532958 0.2214393
-0.15831095 -0.2191337 -0.12740389 0.09981167 0.15979218 -0.021317318 -0.057251886 -0.20427135
-0.08800398 0.11533952 -0.16440481 -0.12364171 -0.1153177 0.21491137 0.107691616 0.021019757
0.1645309 -0.11544621 -0.10504279 0.0037254095 0.0005542636 -0.095948726 -0.18992472 -0.026336268

transformer_encoder.encoder.attention.fc_K.bias f4 [20]
00000000: 6f19 45be 3703 3fbe f6b4 44be 409c 283d
00000010: 84ee be3d 832f 34be 9cce 1bbd 6bcb 59be
00000020: 2004 cabc c4c9 023e 2af4 443e e0bb 2f3e
00000030: 808b 60be 3788 dcbd c66e 8abd e489 a93d
00000040: 5ac3 373e 98a0 e03d 7ebe 29be 5c43 3c3e
-0.19247983 -0.1865357 -0.19209656 0.041164637 0.09322837 -0.1759625 -0.038038835 -0.21269004
-0.02466017 0.1277228 0.19233766 0.17161512 -0.21928215 -0.107681684 -0.067594096 0.08278254
0.17945614 0.10968131 -0.16576573 0.1838507

transformer_encoder.encoder.attention.fc_V.weight f4 [20, 20]
00000000: 9051 c43d b4ce 443e 2ee1 3ebe e8f8 09bd
00000010: cc44 5fbd 1455 28bd a0d5 533e 1875 1f3e
00000020: 86ee 5c3e bee7 8cbd 8048 bcbd 646b d7bd
00000030: 187b b63d ceae edbd 0672 0d3e 90db fbbc
00000040: 08fb 69bd 640e a0bd f8f2 f73d 7835 7b3d
00000050: bcc9 ae3d 489a 203e b734 09be 8058 2f3e
00000060: c843 4a3e d8b1 693d cc2a 433e 6016 e13b
00000070: d2ed a1bd cc39 5a3e 8a1f 5f3e fc4e 073e
00000080: 2185 cdbd 2496 d53d 64d6 6dbd e20f 4abe
00000090: cc2e 2abd 2858 b63d 3c88 823d 8027 1e3d
000000a0: 7220 bbbd 204b 6cbc f8bc 543e 4017 d63d
000000b0: 1e9a 533e 1091 6e3c 6216 223e e8b8 703d
000000c0: a019 c4bd f013 603e a8b4 e43d b032 7abd
000000d0: d07a 433d 4ae4 52be f42e 243e 95f5 46be
000000e0: f00e 6c3c 22df 4cbe 7ddb e0bd 86a5 443e
000000f0: c046 42be a464 c83d 76ba 5b3e a026 3a3c
00000100: 1c25 df3d ca83 253e 08da 80bc 46ac ddbd
00000110: 7ab2 1d3e d817 313d 0dd1 27be 9c1d 20bd
00000120: f14f 4fbe 6e08 4c3e d4b3 263e 78cf f93d
00000130: 76a5 643e bcc7 a1bd 3a23 d2bd ccbd 843d
00000140: 90c7 603e 142d 963d 3c54 a73d e468 bb3d
00000150: 20fb 1b3e 6aac 053e a8e9 623d ecf6 69bd
00000160: 8ef4 18be 08fb d0bd a852 153d d0dc 9a3d
00000170: 002a e93b 65d2 47be 7a71 1ebe 960f 243e
00000180: 7356 42be 28a6 0bbe 38da a4bc 001a f03d
00000190: 6d55 16be 80be fd3d 6420 f13d d695 d2bd
000001a0: cc42 46bd 9a8a 43be d8a5 5b3d ab30 52be
000001b0: 505f 26bd c011 12bc 3c58 d23d 38a2 d73d
000001c0: b44b c4bd e894 7cbd 4231 353e 2060 493e
000001d0: bb4c 2fbe 21f6 e9bd 72da 503e b072 1cbe
000001e0: ec96 edbd 26c4 febd 3431 d13d 62f5 cfbd
000001f0: 1cab 29bd 4ce2 633e 8856 233d d8e7 263d
00000200: fc7b d93d ca7f e4bd 8842 753d f0f2 8dbd
00000210: e5d1 14be 4821 a2bd 1ea2 0d3e a500 31be
00000220: 5741 e8bd 5f29 0fbe 7066 173d d0b9 db3c
00000230: c48c 1ebe 14aa 993d 1c4b cc3d 1392 e7bd
00000240: 7c84 5f3e e023 1dbd 9c58 a9bd 1822 233e
00000250: 6a7e 1abe e090 be3d 709b 08bd c056 3dbb
00000260: f039 acbd 2614 95bd 9db6 eabd c899 093d
00000270: 20a4 3c3e 08c5 793d eec9 403e b8f6 d33c
00000280: f22f 0bbe 28c4 303e 8060 bb3d 8280 623e
00000290: f2a5 3d3e e6d6 2b3e 6c7b 07be f8cc 0a3e
000002a0: 0622 a4bd bcc8 bcbd 9c96 88bd 0ede ecbd
000002b0: ac0a 623e f2f1 0bbe 6833 35be 035b febd
000002c0: acfb 2abe 91e3 59be e072 df3d a0dc 2e3c
000002d0: 37a2 5fbe 3ac5 5f3e b65a 2b3e 7d12 f4bd
000002e0: 90d1 0a3d e2f9 473e 7bf1 55be c852 253e
000002f0: 007f 383a 4c09 4d3e c012 da3d 1c63 03be
00000300: f47b a33d 1297 143e 704e 473d 9046 353d
00000310: 54fe 423e a89e 2b3e c467 33be a491 9e3d
00000320: ba9c 053e 183b e83d 1864 a43c c017 7dbd
00000330: 0c49 2ebe 8cfc ad3d e8d8 d33d 5452 a63d
00000340: a88c 9e3d 5418 44be 30c1 24bd c079 26bb
00000350: 412f 29be fec6 bcbd 89a9 cebd 46ff 1a3e
00000360: 40c1 e93c 6451 32bd 1014 28bd 005e 4dbb
00000370: 5680 92bd 61db f9bd a48b adbd 009f cb3d
00000380: 70da 193e 2233 09be 483d 873d a02b f1bb
00000390: f071 c5bc 120a 30be 5012 59bd 88df f1bc
000003a0: 48a5 b43d 30c6 33bd cc7b 403e e8a3 bfbd
000003b0: 00fa edb9 83be e4bd 8896 94bc fa7f 8abd
000003c0: 4aba 24be 1cc2 c73d 3e65 543e 561e adbd
000003d0: 3ecd a1bd a1e5 45be 8051 cfba 40f7 c13d
000003e0: dded 0abe 0400 1fbe 98d8 02be f063 0fbc
000003f0: 8a19 233e 30f0 eb3d b4d1 61bd 68a4 303d
0.09585869 0.19219476 -0.18640587 -0.03368464 -0.05450897 -0.04109676 0.2068696 0.15572011
0.21575364 -0.06880139 -0.09193516 -0.1051853 0.08910197 -0.11605607 0.13813028 -0.030744344
-0.057124168 -0.07815245 0.121068895 0.06133029 0.085345715 0.15683854 -0.13399015 0.17123604
0.19752419 0.05705437 0.19059294 0.0068691224 -0.07906689 0.2131111 0.21789375 0.13213724
-0.10035158 0.10429028 -0.058065787 -0.19732621 -0.041548535 0.08903533 0.06373641 0.03861189
-0.09137048 -0.014422208 0.20775211 0.10453653 0.2066426 0.014560953 0.15828851 0.05877009
-0.095752 0.21882606 0.1116727 -0.061083496 0.047724545 -0.20594898 0.16033536 -0.1942962
0.014407858 -0.20006993 -0.10979364 0.19203767 -0.18972301 0.09784821 0.21457848 0.011361748
0.1089575 0.16163555 -0.015728965 -0.10823874 0.15400115 0.04323563 -0.1638834 -0.039090738
-0.20245339 0.1992509 0.16279536 0.12197775 0.22328743 -0.078994244 -0.10260625 0.064815134
0.21951127 0.07332817 0.08170363 0.09150866 0.15232515 0.13054052 0.055398613 -0.05712025
-0.1493704 -0.102041304 0.03645578 0.07561648 0.0071156025 -0.19513853 -0.15472975 0.1602157
-0.1897829 -0.13637602 -0.020123586 0.11723709 -0.14681025 0.123898506 0.11773756 -0.10282485
-0.048403546 -0.19095841 0.053624958 -0.20526378 -0.04061824 -0.008915365 0.102707356 0.10528988
-0.09584752 -0.061665446 0.17694572 0.19665575 -0.17119114 -0.114238985 0.2039583 -0.15278125
-0.11601052 -0.12439756 0.10214463 -0.10154225 -0.04142295 0.22254294 0.039877445 0.040748447
0.10619351 -0.11157186 0.059877902 -0.06931102 -0.14533193 -0.07916504 0.13831374 -0.17285402
-0.113405876 -0.13980626 0.036962926 0.026822 -0.15483385 0.07503143 0.099752635 -0.11307158
0.21827883 -0.03836429 -0.08268854 0.15930974 -0.15087286 0.093049765 -0.03335136 -0.0028890818
-0.08409488 -0.07279234 -0.11460612 0.033593923 0.18421984 0.06097892 0.1882703 0.02587448
-0.13592508 0.17262328 0.09149265 0.22119334 0.18520334 0.16781196 -0.13230675 0.13554752
-0.08014302 -0.092179745 -0.066693515 -0.11565791 0.22074383 -0.13666514 -0.17695391 -0.12419703
-0.16697568 -0.21278216 0.109105825 0.010672718 -0.21839224 0.2185258 0.16733822 -0.11917589
0.03389126 0.19528916 -0.20892899 0.1614486 0.00070379674 0.20023078 0.106481075 -0.12830776
0.079826266 0.14510754 0.04865879 0.044256747 0.19042331 0.16759741 -0.17520052 0.077426225
0.13048068 0.11339396 0.02006726 -0.061790228 -0.17020053 0.08495435 0.10344106 0.081211716
0.07741672 -0.19149905 -0.0402233 -0.0025402158 -0.16521932 -0.09217642 -0.1009093 0.15136442
0.028534532 -0.04353465 -0.041034758 -0.0031336546 -0.071533844 -0.12200046 -0.084739 0.09942436
0.15024734 -0.13398412 0.06603485 -0.007359937 -0.024102181 -0.17191342 -0.05299598 -0.029525533
0.088205874 -0.04389018 0.18797225 -0.093574345 -0.00045390427 -0.1116915 -0.018138185 -0.06762691
-0.16086689 0.0975382 0.20741746 -0.08453052 -0.07900475 -0.19325878 -0.0015817136 0.09470987
-0.135673 -0.1552735 -0.12777936 -0.008751854 0.15927711 0.115204215 -0.05513163 0.04312554

transformer_encoder.encoder.attention.fc_V.bias f4 [20]
00000000: 3833 5e3d 50a7 37bd 7898 8a3c 8ce8 53bd
00000010: 7459 69bd b871 df3d 9895 3bbe 9cec 29bd
00000020: 6581 41be 96b0 143e 589c 253d c073 b53d
00000030: 3a56 1b3e 6862 4abe 3525 d9bd 9a2b 46be
00000040: c8dd 1a3e b847 a53c 7048 f6bd 4072 65bb
0.054248065 -0.044837296 0.016918406 -0.051735446 -0.056970075 0.10910362 -0.18318784 -0.041485414
-0.18897016 0.14520487 0.040432304 0.08859968 0.15169612 -0.19764102 -0.106028 -0.1935257
0.15123665 0.0201758 -0.12025535 -0.0035010725

transformer_encoder.encoder.attention.fc.weight f4 [20, 20]
00000000: f889 1f3e dc27 c23d 48e5 013e 40df fd3d
00000010: 7477 8c3d 0afe 583e e460 c03d 6a15 3cbe
00000020: e09a 8e3d a074 05be a07c 2f3c 3cb6 9e3d
00000030: 634e 18be d8aa 093e 6c38 6fbd bcab aa3d
00000040: 80ea e53a c0c2 573e f01c 913d 3ec0 363e
00000050: 96e4 4f3e 48a0 1cbe 30ef 1c3c 80f8 1c3c
00000060: 8842 cf3d d86f 2fbe 8c6e 303e 80c3 cb3d
00000070: e728 dcbd 8442 b73d a0ad 943c fee8 603e
00000080: 1e16 0f3e f015 4fbe cabd 3c3e 5c2b 07be
00000090: c48f 10bd 117b f4bd 487c 7f3d acdf f63d
000000a0: 7ef1 41be 088e 3d3d f26f debd 100f 2e3d
000000b0: 0041 fc3b c835 cd3d eccc 32bd c0f5 f7bd
000000c0: f063 c63d baff 3ebe d80f 1e3e 8463 be3d
000000d0: f272 58be d828 5c3e 9ab7 61be dcb6 583e
000000e0: ecd2 f93d ba31 283e 22e2 81bd 4064 c53d
000000f0: 1553 4abe f89a c9bc 4e31 343e 7e85 e4bd
00000100: 300f c53c ec14 23bd 1486 47bd 205a 0e3d
00000110: 287d 9e3d b007 43be b3b6 60be 300f 2ebe
00000120: 28cd 67bd 50f2 0fbc f656 56be 6ce7 343e
00000130: 1a8c 07be 0649 b2bd 0688 31be f026 e83c
00000140: 54e2 4e3e eeaf 33be 2242 603e ac44 48be
00000150: 82a1 303e db3a 63be d892 223e 2035 31bc
00000160: 4ce5 c53d d238 4a3e 8a76 e4bd 2a9f 15be
00000170: 38c5 643e c093 c13d 2004 22bd 68ea 293e
00000180: d7bb 2dbe 48a4 21bd c014 debc 9afa 31be
00000190: 62a8 3d3e e497 14be 6012 d23c 24c6 ce3d
000001a0: 804e 803c c004 06be b0c5 0f3d 387c 813d
000001b0: de4f 35be c744 e0bd 1897 9dbd 88b4 14be
000001c0: 58c1 5dbd 7e0c fbbd 68ad 61be a6de 01be
000001d0: 58c1 f8bd 47c8 62be 369b 1ebe b9e3 06be
000001e0: e095 63bc 00f4 d4bc 665f 9bbd cd42 2bbe
000001f0: 0a6f 453e 7bba 52be 8460 813d 88ee 77bd
00000200: 6860 eb3d 38af c53d 6280 203e bcd0 f83d
00000210: 7881 083e 8835 f53d 9091 1a3e 687b a73d
00000220: 1049 323c c03c dfbb f87f 5abd 5090 043d
00000230: d48a e73d d51d 06be 1bdb 33be a2e7 c3bd
00000240: 3ca5 b7bd 8403 503e 8c1d 4bbd 5449 56be
00000250: b87f 963c 1e4a 293e e09e ad3d b08f f63d
00000260: d4d6 c23d 788b 1f3e b0b6 e43c 9e82 393e
00000270: 885e 073d 18c8 0e3d d84a 5d3d 400d 2b3e
00000280: be24 293e 1426 03bd ec5f 46bd 1cd4 c33d
00000290: 2a05 093e d1f7 26be 68c2 b03c c014 7dbd
000002a0: f005 fabc f0c8 5e3e 56d9 183e 6c50 0dbd
000002b0: 9367 5ebe 229b 5a3e 00d9 1cbb de49 29be
000002c0: cb96 fcbd 081a de3d 30aa 5b3d 2876 b5bd
000002d0: 30c1 ca3d 2a07 b3bd 78ad 10bd 906d ce3c
000002e0: 7422 82bd c069 f63b 38ee 5d3d 74fd 343e
000002f0: c6db 98bd c4fd c1bd ea97 4d3e 5090 ed3d
00000300: 06d4 b9bd ec31 103e 6889 633e 206e 3c3d
00000310: 8008 30be 10bd 673d 4b71 eabd 7edd 5e3e
00000320: c87b 56be e86a 193e 586d 113e 2c48 f83d
00000330: bb70 3abe 8689 2f3e f020 313e 80f1 de3a
00000340: 62c4 493e fce8 f83d c045 db3c e0ee ef3d
00000350: c4e7 153e 5c44 b4bd 006d 523d b8ab e3bc
00000360: 7c93 863d 6817 2f3d 64b2 b83d 043a b3bd
00000370: 5ca0 623e a617 563e ccbd a53d 6036 a53d
00000380: e06a 403d 1c7d e43d 6887 403e 94cd 523e
00000390: 304a c93c da7f 063e 60eb a3bd 0cce c9bd
000003a0: 824f 08be f814 593e d144 0abe aef5 073e
000003b0: bfcc 28be 00fe a63d 9ce4 503e a225 42be
000003c0: d4e7 a03d c077 63bb d088 08bd 3c76 533e
000003d0: 9819 5f3d b0a0 053d 8e11 b1bd 00c9 223d
000003e0: 44c3 27bd 70e7 e8bd 5093 4b3e ec27 69bd
000003f0: 38a2 153e 1e35 e4bd 6e76 2f3e 152c 58be
0.15579975 0.09480259 0.1268512 0.12396097 0.068587214 0.21190658 0.093934804 -0.18367544
0.06963134 -0.1303277 0.010710865 0.07749602 -0.14873652 0.13444078 -0.058403417 0.08333537
0.00175412 0.21070385 0.070855975 0.17846772 0.20302042 -0.15295517 0.009578511 0.009580731
0.10120112 -0.17132509 0.1722967 0.09949398 -0.10749989 0.08948234 0.018149197 0.2196388
0.13973281 -0.20223212 0.18431774 -0.13200134 -0.035293356 -0.119375356 0.062374383 0.12054381
-0.18939778 0.04627803 -0.108611956 0.042494833 0.0076981783 0.100200236 -0.04365246 -0.1210742
0.0968703 -0.1865224 0.15435731 0.09296325 -0.21137598 0.21499956 -0.22042695 0.21163505
0.12198433 0.16425219 -0.063419595 0.09638262 -0.19758256 -0.024610028 0.17596933 -0.11158274
0.024055094 -0.039814875 -0.04871185 0.03475392 0.077387154 -0.19045901 -0.21944694 -0.16997981
-0.056592137 -0.008785799 -0.2093161 0.17666405 -0.13237038 -0.08705334 -0.17337045 0.02833888
0.20203525 -0.1754758 0.21900228 -0.19557446 0.1724911 -0.2219042 0.15876329 -0.010815889
0.096628755 0.19748238 -0.11155422 -0.14611498 0.22340858 0.09452009 -0.039554715 0.16593325
-0.16966186 -0.03946331 -0.027109504 -0.17380753 0.18521264 -0.14511067 0.025643528 0.10096386
0.015662432 -0.1308775 0.03510064 0.06322521 -0.17706248 -0.10950618 -0.076948345 -0.14521992
-0.054139465 -0.12258242 -0.22038805 -0.1268259 -0.121462524 -0.22146712 -0.15488896 -0.13172807
-0.013890713 -0.025995255 -0.07586555 -0.16724701 0.1928064 -0.20578949 0.06317237 -0.060530216
0.114929974 0.09652561 0.15673974 0.12149188 0.13330638 0.11973101 0.1509459 0.08177835
0.010881677 -0.006812662 -0.053344697 0.03236419 0.11305776 -0.13097318 -0.17564051 -0.09565665
-0.08967063 0.20313841 -0.049588725 -0.2092641 0.018371448 0.1653218 0.084775686 0.12039125
0.095136315 0.15580547 0.027919143 0.18116233 0.033049136 0.034858793 0.054026455 0.16704273
0.16517922 -0.032018736 -0.048431322 0.09561941 0.13380876 -0.16305472 0.021577075 -0.061787367
-0.03052041 0.21756339 0.14926657 -0.034500524 -0.21719198 0.21348241 -0.0023933053 -0.16532084
-0.12333449 0.10844809 0.0536291 -0.08860427 0.09900129 -0.08741601 -0.035321683 0.025198728
-0.06354228 0.0075199306 0.05418226 0.1767481 -0.074637935 -0.0947223 0.20077482 0.11599791
-0.090736434 0.14081544 0.22220385 0.04600346 -0.17190742 0.05657679 -0.1144739 0.2176418
-0.20945656 0.14982188 0.14201868 0.12123141 -0.18207066 0.17142305 0.17297721 0.0017009228
0.1970382 0.12153813 0.026766658 0.11715484 0.14639193 -0.08802101 0.05137348 -0.027791843
0.06571099 0.04274693 0.090184 -0.087513 0.22131485 0.20907459 0.080928415 0.08067012
0.046976924 0.11156675 0.18801653 0.20586234 0.024571508 0.13134709 -0.080038786 -0.098537534
-0.1331158 0.21199405 -0.13502814 0.13277313 -0.16484354 0.081539154 0.20399708 -0.18959668
0.07856718 -0.0034708828 -0.0333336 0.20650572 0.054467767 0.032623947 -0.086459264 0.03974247
-0.040957704 -0.11372268 0.19880414 -0.056922838 0.14612663 -0.11142944 0.17135021 -0.21110566

transformer_encoder.encoder.attention.fc.bias f4 [20]
00000000: 27af cdbd 4c6d ebbd 8e99 1abe 70f9 b6bc
00000010: 4047 ab3b 18fa eb3d 60e9 bb3d f0cf ecbc
00000020: 9238 1a3e 241e ce3d 4c82 b63d c0fd 8cbb
00000030: 4a53 4f3e fa30 28be 800b d63a 0860 b73d
00000040: 28ab 363e 9079 f1bc 8670 9dbd 26b1 49be
-0.10043173 -0.11495456 -0.15097639 -0.022335738 0.0052269995 0.11522311 0.09175372 -0.028907746
0.15060642 0.100643426 0.08911571 -0.0043027103 0.20246616 -0.16424933 0.0016330332 0.089538634
0.17838728 -0.02947691 -0.07687478 -0.19696483

transformer_encoder.encoder.attention.layer_norm.weight f4 [20]
00000000: 0000 803f 0000 803f 0000 803f 0000 803f
00000010: 0000 803f 0000 803f 0000 803f 0000 803f
00000020: 0000 803f 0000 803f 0000 803f 0000 803f
00000030: 0000 803f 0000 803f 0000 803f 0000 803f
00000040: 0000 803f 0000 803f 0000 803f 0000 803f
1.0 1.0 1.0 1.0 1.0 1.0 1.0 1.0
1.0 1.0 1.0 1.0 1.0 1.0 1.0 1.0
1.0 1.0 1.0 1.0

transformer_encoder.encoder.attention.layer_norm.bias f4 [20]
00000000: 0000 0000 0000 0000 0000 0000 0000 0000
00000010: 0000 0000 0000 0000 0000 0000 0000 0000
00000020: 0000 0000 0000 0000 0000 0000 0000 0000
00000030: 0000 0000 0000 0000 0000 0000 0000 0000
00000040: 0000 0000 0000 0000 0000 0000 0000 0000
0.0 0.0 0.0 0.0 0.0 0.0 0.0 0.0
0.0 0.0 0.0 0.0 0.0 0.0 0.0 0.0
0.0 0.0 0.0 0.0

transformer_encoder.encoder.feed_forward.fc1.weight f4 [256, 20]
00000000: d0ee 16be af22 45be bdcb d0bd 28ef 63be
00000010: 1c03 563e 8882 0dbd 7c25 3a3e be8d 473e
00000020: 74c6 c33d 4ce6 973d f85d 853d 6c1d 8bbd
00000030: 370b 46be 7e36 333e d83f 20be 2085 34bd
00000040: 40f6 bfbd 8a92 4e3e 80ea 5b3e bc9c b93d
00000050: 2354 e8bd 1c64 42bd 8205 04be dcac ccbd
00000060: 9054 e73d 08f6 87bc 9497 573e 70c5 12bc
00000070: c8d3 8e3c 76ad f4bd 00bc e2b9 606a 903c
00000080: 569f babd d056 b03d a01e eabb 52ae 1bbe
00000090: 8668 0a3e 0ed7 cfbd 748b d03d 468f 87bd
000000a0: cc80 c73d 4c29 ea3d 00db 973d cc17 313e
000000b0: 1ae2 2a3e ec15 6bbd 8827 263d 3ebf 1f3e
000000c0: 149e 31be b079 893d 759b 12be 6869 40be
000000d0: 3821 393e c072 78bb 54d4 c03d 80db a43c
000000e0: 3825 563e 0086 bfbb 7074 01be 882b 0cbd
000000f0: 70f0 8c3d b422 5e3e e858 bbbd 7515 4dbe
00000100: a0b9 8e3c 5b83 06be c8c2 adbc 5406 02bd
00000110: f009 69bc 6c71 63bd 5893 90bc c077 943d
00000120: ee1e 44be 9c84 4fbd 1c87 283e 561d 07be
00000130: 1076 a9bc 7ad7 1cbe fc95 b0bd 09b9 fcbd
00000140: 3edf 243e b842 c43d 6095 163e 1257 93bd
00000150: c089 00bd f2a0 3b3e 7ede 1dbe 2c28 b23d
00000160: cb2d eabd aefd 633e 1809 4f3d b8a9 593e
00000170: 327c 103e d89d 0f3e 82d8 05be b096 533d
00000180: ba2c 08be 900f 473e 7adf 00be 5c13 8a3d
00000190: 0090 94bb 3dfd 2ebe 384e 943d 349e a0bd
000001a0: 4c6c c93d 24b2 fa3d 408c 603c 2cf6 fb3d
000001b0: ca0b 5e3e 8ed9 5abe 5862 51bd 2817 cfbc
000001c0: e750 51be c402 64be 7050 b63d cc4f 353e
000001d0: 55b6 2cbe 5057 6d3d b087 673d 0cac 0abe
000001e0: 780f 2e3e e291 083e 080c 723d 3c85 7cbd
000001f0: fefb 103e 14fb 28bd f0e1 60be 1093 883d
00000200: cceb 843d 48aa edbc 11d5 4cbe 8add 88bd
00000210: 458e 5abe a82f 88bd 205e fa3c 8897 bdbd
00000220: 289b aa3d dd9a 2dbe 006c 373b f05d f43c
00000230: dbf0 32be 6c0a 543e acd1 a73d d096 593d
00000240: 6848 debd 4eb2 85bd 7e1b 483e 5069 713c
00000250: ec86 1e3e 1c56 4d3e 2003 253e 5c1c 70bd
00000260: c9f5 43be 15c2 14be e6df 45be a460 b8bd
00000270: 621e 533e 5463 2f3e e8ea 52be f851 803d
00000280: 83f2 0fbe 88a0 a6bc 881a 903d 2630 26be
00000290: 7428 873d fa66 20be 1819 903c 3cf3 dd3d
000002a0: 7cec 043e e490 203e 001d b23a c001 c13d
000002b0: 5404 5c3e 24a3 4dbd f010 e33c a858 f63d
000002c0: 40c9 3dbb bada 043e 4a0c 103e 902f 8a3d
000002d0: 60dd 12be 5882 d4bd 69fa 2bbe e665 373e
000002e0: b84c 02be 5c12 ee3d c0ec 873d 147c 473e
000002f0: 34de c3bd 842e 403e b802 a43d 9cda adbd
00000300: fef0 1c3e 4155 22be 41c3 5bbe 2026 17bc
00000310: cce9 b2bd 1995 40be dea1 9dbd ceb3 433e
00000320: a481 f83d 609b 80bb 8826 5a3e 6a1c 353e
00000330: 0b38 31be 3c1b 41be 6a2c 5e3e 70c3 123d
00000340: ca1b 2c3e 5a63 023e 5038 34bd 9847 3bbe
00000350: 8046 42bc b47b 28be 78b8 15be 9b71 d5bd
00000360: b5b0 12be c0eb 93bc d9ac 30be fdb1 e4bd
00000370: c7e7 e2bd aabc 493e 3814 1cbd 128b b8bd
00000380: 00e8 1ebd f081 233e a8c6 093e d2b2 52be
00000390: dc94 84bd 1631 573e c493 b03d 66d6 53be
000003a0: 0008 a83d 90fc 173d 3044 3ebd e034 2a3d
000003b0: 286b 853d 903f a1bd d12c 64be 8056 693d
000003c0: a4e1 b4bd 36a7 25be ef90 40be e082 48be
000003d0: b0fe f53d 60ea bd3c 50d0 f73d 7608 213e
000003e0: e279 31be 4c55 f33d dc11 253e ec9f 863d
000003f0: 1887 dabd 202f 5b3c 60b0 f63b 402e 27bd
-0.14739537 -0.19251512 -0.1019511 -0.222592 0.20899624 -0.034548312 0.18178362 0.19487664
0.09559336 0.074169725 0.06512064 -0.06792721 -0.19340216 0.17501256 -0.15649354 -0.04407227
-0.0937314 0.20173088 0.21476173 0.09063098 -0.11344173 -0.047458753 -0.12892726 -0.09993908
0.11295426 -0.016596809 0.21053916 -0.008958206 0.01743497 -0.119471475 -0.0004324615 0.017628849
-0.09112422 0.08610308 -0.007144764 -0.15203217 0.13516435 -0.1014844 0.101828486 -0.06619124
0.09741363 0.11433658 0.07414818 0.17294234 0.16687813 -0.057393953 0.040565044 0.15600297
-0.17345458 0.06712663 -0.14317115 -0.1879021 0.18079078 -0.0037910193 0.094154984 0.020124197
0.20912635 -0.0058448315 -0.12642074 -0.034221202 0.06881797 0.21692926 -0.09147817 -0.20027716
0.017422497 -0.13136046 -0.021211043 -0.031744316 -0.014223561 -0.05552809 -0.017648384 0.07249403
-0.19152424 -0.050663576 0.1645779 -0.13194785 -0.02068618 -0.15316573 -0.08622357 -0.1233998
0.16100785 0.09583038 0.1470542 -0.07194342 -0.03138137 0.18323115 -0.15416905 0.086990684
-0.114345156 0.2226474 0.05054578 0.21256149 0.14109877 0.14025056 -0.13070872 0.05165738
-0.13298312 0.1943953 -0.1258525 0.06741974 -0.0045337677 -0.1708879 0.072414815 -0.07842675
0.09835109 0.12241009 0.013705313 0.12302813 0.21684185 -0.21372053 -0.05111918 -0.025279596
-0.20441018 -0.2226668 0.08902061 0.17706221 -0.16866429 0.057944596 0.056525886 -0.13542193
0.16998088 0.133369 0.059093505 -0.0616505 0.14158627 -0.04125507 -0.21961188 0.06668675
0.06490287 -0.02901186 -0.20003153 -0.0668288 -0.21343334 -0.06649715 0.03056246 -0.09257418
0.08330375 -0.16953607 0.0027987957 0.02982995 -0.17474692 0.207071 0.081942886 0.05312234
-0.10853654 -0.065281495 0.19541737 0.014734581 0.15481156 0.2005238 0.16114473 -0.058620796
-0.19136728 -0.14527161 -0.19323692 -0.09002808 0.20617059 0.17127734 -0.20597422 0.06265634
-0.14057355 -0.02034022 0.070363104 -0.16229305 0.06599513 -0.15664282 0.01759009 0.10837409
0.12980837 0.15680271 0.0013588965 0.09424162 0.21486026 -0.05020441 0.027718037 0.120286286
-0.0028959066 0.12974063 0.14067188 0.06747353 -0.1434226 -0.103764236 -0.16794743 0.17909965
-0.12724578 0.116245955 0.06636953 0.19480926 -0.09563866 0.18767744 0.08008331 -0.08488962
0.15326306 -0.15852834 -0.21461202 -0.009225398 -0.087359995 -0.18806876 -0.07696889 0.19111559
0.12134102 -0.003924772 0.21303761 0.1768662 -0.17306535 -0.18858045 0.2169663 0.035830915
0.16807476 0.12733212 -0.043999016 -0.1828903 -0.011857629 -0.16453439 -0.1462115 -0.10422059
-0.14325221 -0.01805675 -0.17253436 -0.11166761 -0.11079364 0.19700876 -0.03810522 -0.090109006
-0.03879547 0.15967536 0.13454688 -0.20576027 -0.06473705 0.21014819 0.08621934 -0.20687255
0.08204651 0.037106097 -0.046451747 0.04155433 0.06514579 -0.07873452 -0.22282721 0.05696726
-0.088321 -0.16177067 -0.18805288 -0.19581175 0.120114684 0.023183048 0.12100279 0.15725884
-0.17331651 0.118815035 0.16120094 0.065734714 -0.10670298 0.013377935 0.0075283498 -0.04081559

transformer_encoder.encoder.feed_forward.fc1.bias f4 [256]
00000000: e088 1f3c a006 ae3d 7a6f 363e a0ed e53c
00000010: 06d0 4c3e 60b0 adbd 98b0 ef3d f0e4 b5bc
00000020: 3659 17be 164f 123e 46ec 07be e2ca a0bd
00000030: 1caf 3b3e 8cfe 0dbe 0416 a9bd d8fd 30be
00000040: 815b 38be 203b 843d 2c38 41be 2ef0 18be
00000050: 9e6e 0cbe 9032 b53d 1aa1 2a3e a62c 623e
00000060: 300d 053e 9002 f63d 8051 bbbd 6039 e53d
00000070: 18a4 1d3d 0030 e439 1a47 283e 0410 52bd
00000080: e8c2 2dbd 50e9 4abe 3054 853d 700f 1dbe
00000090: e07c 293c 88cf 22bd a8c9 ba3c 2005 5d3d
000000a0: 0296 5d3e 0002 6fbb ca30 b0bd 7cd5 dd3d
000000b0: 6ca5 5bbe e26d 433e a0f2 0fbc 20ab da3b
000000c0: ba84 3bbe 120f 523e 784f 1f3e 9825 12be
000000d0: 0a15 a4bd e8ee 073d 8bac eebd e07e d73c
000000e0: 5094 4c3e 34fb 193e 1035 e3bd e07a a8bd
000000f0: 4073 cdbb dca2 bd3d 28d7 543d 409c 11be
00000100: d818 483e a788 cebd 8818 c93d aa29 bbbd
00000110: 98a9 ed3d 75a8 3ebe 37d2 e3bd 949c b0bd
00000120: 380b a23d 5e89 2ebe 0f2e dcbd 0d3d 59be
00000130: 96b5 3e3e 14b8 2d3e f052 1ebe 8698 3b3e
00000140: b4f0 53bd b887 e8bd 8861 c6bc 0094 12bb
00000150: 2c74 3dbd 9443 e03d f4a1 1fbe 340a 493e
00000160: fc97 7ebd 84ca 5e3e 9cc5 983d 4003 07bc
00000170: c4dd b73d ec18 61bd 981d 523e 1f98 fcbd
00000180: 5e03 193e 9874 563e 86b6 b3bd 90dd 203c
00000190: 50a0 403d fe01 4fbe 0029 1eba b61d 3cbe
000001a0: a83f 7d3d 7631 143e c8a7 843d c89f 8bbc
000001b0: beff 2e3e 36b5 033e 0865 60bd 7858 863c
000001c0: b811 e43d e03a e93d 5010 3abe 58c2 30be
000001d0: f0a3 b9bc d867 75bd d89e 95bc 205a 9d3b
000001e0: d81b 633e 8613 44be 71e8 40be ea80 49be
000001f0: d070 7d3d 1083 ba3d 40e1 5dbc dc64 cc3d
00000200: 6144 60be 8627 513e e82b 5d3e 0674 373e
00000210: 328f c7bd 2608 513e 9dd1 50be d01c fabd
00000220: 6445 9a3d c215 80bd e888 38bd 701a 293d
00000230: 10de b63d 56e1 423e 36ea e3bd c212 34be
00000240: dbee 0ebe 56a5 3f3e 687a ef3d 8897 f83d
00000250: 5229 30be 5708 26be 201b b8bd 801a cc3d
00000260: 1a6b 31be deb5 84bd b086 d2bd ac9b 0dbd
00000270: b99b 34be 905a 74bc 6a7b 1e3e a0ad 63bd
00000280: 3877 063e 346a f33d 184f 7f3d b86a 1fbe
00000290: d459 353e 927f 35be 78f5 f4bc 20d5 0cbc
000002a0: 025e 493e 46cd 38be 2eec 9fbd 8878 a63d
000002b0: 00bb 4a3d 66f4 10be 007a aa3c c76f 35be
000002c0: 14fd 2abd 1084 663d aa64 433e 4fe8 25be
000002d0: c4dc 2bbd 906a 0a3d fcdb c4bd 0065 083c
000002e0: a0e0 88bd 9c2c 56be 002b 573e c07f d53b
000002f0: 048f 23bd a830 2d3d 3e3e 03be 008d 9ebc
00000300: c5b1 50be f7df f1bd dc88 13be ac15 2fbd
00000310: 2839 6fbd bc5f 5c3e 9863 273d 58c3 3f3e
00000320: 6f2c 5dbe 8c79 a93d 1845 b4bc d01e 893d
00000330: e6b2 5ebe 02ad 453e 03a8 f5bd 28a6 7f3d
00000340: ac45 8dbd f0e5 2e3e 2845 913d d8d9 87bd
00000350: 80cc 50be 6061 a33b 84af e23d cc2c cb3d
00000360: 264e 63be d07d 1ebc 48b5 373e 0a42 07be
00000370: 7849 a8bc 381e 20be f852 133d 9e49 603e
00000380: cebb 043e d853 3e3d 48d4 1b3e 4418 0d3e
00000390: 740a f03d af7b 06be edc0 38be 28ed 23be
000003a0: 0921 3abe bc97 62bd 6ed1 5ebe 6688 0c3e
000003b0: 88e4 f8bd 7a69 35be 00ab c0bb ee5a 45be
000003c0: 9c29 08be c0cf 6b3d 089a 4c3d 2409 023e
000003d0: aceb 5cbd 81a3 52be 9cb3 49bd 5400 c63d
000003e0: e2e1 d4bd 90cd 523e da74 393e 0c7b e63d
000003f0: bc85 393e 6a8e 0b3e 6001 f13c 44e3 213e
0.009737223 0.08497357 0.17815962 0.02806741 0.2000123 -0.084809065 0.117036045 -0.022203892
-0.14780125 0.14287981 -0.13273725 -0.07851197 0.18328518 -0.13866633 -0.08256152 -0.17284334
-0.18003656 0.0645659 -0.18869084 -0.14935371 -0.13714072 0.08847535 0.16663018 0.22087345
0.12993312 0.120122075 -0.09146404 0.11192584 0.03848657 0.00043523312 0.16433373 -0.051284805
-0.042422205 -0.19815564 0.06510198 -0.1533792 0.010344714 -0.0397487 0.022801235 0.053959966
0.21639255 -0.0036469698 -0.08603056 0.108317345 -0.21449822 0.19084886 -0.008785874 0.0066732317
-0.1831235 0.20513561 0.15557659 -0.14272153 -0.080118254 0.033186823 -0.11654004 0.026305616
0.19978452 0.15037233 -0.11094105 -0.082265615 -0.0062698424 0.092595786 0.051963 -0.14219761
0.19540727 -0.10084658 0.09819132 -0.09138806 0.11604613 -0.18618949 -0.1112408 -0.08623615
0.07912296 -0.17044589 -0.107509725 -0.21214695 0.18623957 0.16964751 -0.15461326 0.18319902
-0.051743224 -0.11354011 -0.024216428 -0.0022366047 -0.04625337 0.109503895 -0.15589124 0.19632798
-0.062156662 0.21756941 0.07459566 -0.008240521 0.08977845 -0.054955408 0.20519102 -0.12333702
0.1494269 0.20942914 -0.08775048 0.00981845 0.047027886 -0.20215604 -0.0006033331 -0.18370709
0.061828285 0.14471993 0.06477314 -0.017043963 0.17089745 0.12862095 -0.05478385 0.016399607
0.11136192 0.11388183 -0.18170285 -0.17261636 -0.02266118 -0.059913486 -0.01826422 0.0048020035
0.2217859 -0.19148073 -0.1883867 -0.19678083 0.061875165 0.091070294 -0.013542473 0.09980175
-0.21901084 0.20425233 0.2159878 0.17915353 -0.09744109 0.20413265 -0.20392461 -0.12212527
0.075327665 -0.0625415 -0.04505244 0.04128498 0.08929074 0.19031271 -0.111286566 -0.1758528
-0.13958304 0.18715414 0.11693269 0.12138277 -0.17203262 -0.16214119 -0.08989549 0.09965992
-0.17326012 -0.06480001 -0.10279596 -0.03457229 -0.17637528 -0.01491417 0.15476766 -0.055585504
0.13131416 0.11885491 0.06233129 -0.15568054 0.17710048 -0.17724445 -0.029902205 -0.008595735
0.19664767 -0.18047056 -0.078087196 0.08128458 0.049494743 -0.1415573 0.020810127 -0.17718421
-0.04174526 0.05627829 0.19081369 -0.162019 -0.041958585 0.033793032 -0.09612271 0.0083248615
-0.06683469 -0.20915455 0.21012497 0.006515473 -0.039931312 0.04228273 -0.12816712 -0.019354343
-0.20380314 -0.11810296 -0.14407676 -0.042745277 -0.058404118 0.21520895 0.040866464 0.18726861
-0.21598981 0.08275136 -0.022005603 0.0669533 -0.21747932 0.19304278 -0.11994936 0.06241432
-0.068980545 0.17079902 0.07093269 -0.06633347 -0.2039051 0.0049859732 0.11068633 0.09920654
-0.2219778 -0.009673551 0.17940247 -0.13208786 -0.020542845 -0.15636528 0.035967797 0.21903083
0.12962267 0.04646668 0.15217698 0.13778788 0.11720744 -0.13133119 -0.18042345 -0.16008437
-0.18176664 -0.055320486 -0.21759579 0.13723907 -0.12152964 -0.17716017 -0.00587976 -0.19272968
-0.13297123 0.057571173 0.049951583 0.126988 -0.05393569 -0.20570184 -0.049243554 0.09668031
-0.10394646 0.20586228 0.18110982 0.11253938 0.18117422 0.13628545 0.029419601 0.15809351

transformer_encoder.encoder.feed_forward.fc2.weight f4 [20, 256]
00000000: b0fe 7abc 26fa 18bd 44e8 e93c 1805 803c
00000010: f4e8 24bd 30fc 013c 7202 3ebd 489c 41bc
00000020: b8cb 92bc 582f 633d 9e38 6a3d 90bd 2d3d
00000030: 62eb 563d 5057 4fbc 3032 0b3c 189e 46bc
00000040: ca19 37bd 009a 583b 38f2 54bc 98fc 233d
00000050: ea04 67bd ecf0 d1bc 60fc 4f3d d061 34bd
00000060: 4861 40bd 90e1 b7bc 005b b639 70cc e93b
00000070: a895 723c 1e50 23bd 8003 20bc a633 59bd
00000080: 6cac a03c be47 523d 989f f1bc 40ef 8e3a
00000090: 8854 19bc 4c1e 333d ec60 86bc 9890 efbc
000000a0: 6c9e 863c 3ca9 75bd 4004 bf3b 3e38 3b3d
000000b0: 1a83 40bd 1ae9 08bd c087 af3a b0b2 c0bb
000000c0: 60c8 2d3d 7a2b 27bd 40cb 1fbc a099 a53c
000000d0: 78fb 48bd 52af 48bd f0cd 05bc 908f c4bb
000000e0: c08b 29bd 2406 4f3d 12e1 7d3d a080 383c
000000f0: 504f 96bc 4086 bc3b 3022 033d 708a b5bb
00000100: 40c3 283d 54c7 303d a6e4 4dbd fa3a 1e3d
00000110: fa52 6fbd 44fa 093d c046 0ebd 0051 ed39
00000120: 4c91 3e3d 6230 283d c0ba 683b c08f 7f3b
00000130: c2ab 16bd ce45 7fbd e0f5 95bc 502d bc3c
00000140: 38ab dbbc 2466 a9bc 3e06 5b3d 8861 aa3c
00000150: 349c 223d b4bd 08bd 8c70 3bbd 60e2 96bb
00000160: cc76 e23c e405 7f3d 0449 553d 3410 7fbd
00000170: 0024 52ba 1acb 58bd 7aa7 733d 2264 6ebd
00000180: a867 49bd c0d9 cdbc 5801 3cbd fcd0 dfbc
00000190: ba69 64bd 2035 68bc a89a 3ebd 00f3 183b
000001a0: b043 e73b d8b2 46bc a0c7 653c eca4 f03c
000001b0: 30b3 e4bc 90cc 433c d0fa b1bb 103e dcbb
000001c0: d8ca 51bd 2e04 2bbd 78fe 703c dc95 aa3c
000001d0: d4c1 063d e862 fa3c 4233 58bd 502b 1cbc
000001e0: 50e7 e03b 40b3 d8bc 90db 2e3d 86a2 6bbd
000001f0: c069 cdbc a866 51bc c0ff 1bbd 72cf 183d
00000200: 0209 043d dc28 de3c 1ace 7fbd e857 723c
00000210: 6e58 2b3d 427d 2ebd c689 253d 9c7f b4bc
00000220: 90d6 7dbc 08e6 633d 48c4 ebbc acfd 54bd
00000230: 4ea1 5f3d c089 e2ba 68d2 43bd 4c69 60bd
00000240: 8ec4 063d 04ab c0bc 6819 99bc fa61 7e3d
00000250: e055 2b3d 987e 093d 866b 743d 5485 21bd
00000260: 3821 1fbc 38c8 6e3d 00e5 893c 1642 133d
00000270: a228 543d 3040 6fbc beb3 13bd d0bf 193c
00000280: 0ab1 643d a44e fcbc 6064 223b be21 153d
00000290: 5450 9f3c 5a34 2c3d 646a 13bd cc1c ffbc
000002a0: 1c4c 9a3c d014 75bc ee46 4e3d 1411 febc
000002b0: 3aa1 743d 86d8 6c3d 904b 063d 5862 7cbd
000002c0: 5cc6 1abd 28a9 563c 38f9 69bd 00d7 553d
000002d0: 7ed2 133d 9444 c2bc 3274 5dbd a8af 783c
000002e0: 8061 903a 402d 7d3c fc3b 193d f22a 3e3d
000002f0: 90b8 d83c 08ea 5cbd f8cb 703c 80f9 6fbd
00000300: 14c1 6f3d dc9a 5abd 2092 3b3c 4817 ef3c
00000310: 34d7 08bd 500d e13b f6e8 2e3d 284b 773d
00000320: 1af0 02bd 9ed2 253d 5cbb 75bd 000d 7fbb
00000330: 80b1 e7bb 0cfc d83c 4024 89bb 4c55 3ebd
00000340: 34ef 3e3d 5852 20bc 1896 a13c 3eed 053d
00000350: 4059 363c 9a94 4cbd 3801 193d b8f1 8fbc
00000360: 28d5 1dbc f42c fc3c 8032 bbbc a46d 803c
00000370: 901e d4bb 8635 583d 465e 193d 80fd f13b
00000380: 1cb6 6bbd ec25 a7bc 80d9 9dbb b03b 4cbd
00000390: 3865 ba3c 5a37 6d3d 7099 0fbd 2c9f 473d
000003a0: 80cb e83a 329d 4ebd 96af 6fbd 2023 62bb
000003b0: 302e c3bb 2827 7fbd 28d7 ce3c 6438 1e3d
000003c0: 66a2 133d 788b 43bc 4014 f5bc c699 013d
000003d0: 1074 c6bb 0018 453a b640 25bd 402d 4c3d
000003e0: 64b7 22bd 46c9 593d c003 d43a de06 0b3d
000003f0: 283e e5bc 80e2 943b 9c5a 2f3d 5c43 3b3d
-0.015319511 -0.037347935 0.028553136 0.015627429 -0.040261224 0.007933661 -0.04638905 -0.0118170455
-0.017919406 0.055465072 0.0571829 0.04241711 0.052470572 -0.012655094 0.008495852 -0.012122653
-0.04470233 0.0033050776 -0.012997203 0.040035814 -0.05640117 -0.025627576 0.050777793 -0.044038594
-0.046967775 -0.022446424 0.00034781545 0.0071349666 0.014806189 -0.039871328 -0.009766459 -0.05302777
0.019613467 0.05133795 -0.029495046 0.0010905042 -0.009358533 0.043730065 -0.016403638 -0.029243752
0.016432963 -0.059975848 0.005829364 0.045707934 -0.04700003 -0.033425428 0.0013391897 -0.005880676
0.04242742 -0.040812947 -0.009753048 0.020214856 -0.049067944 -0.048995323 -0.008166775 -0.0059985593
-0.04139304 0.050542966 0.061982222 0.011261135 -0.018348366 0.0057533085 0.032015026 -0.0055401847
0.04120183 0.043158844 -0.050266884 0.038630463 -0.058428742 0.033685938 -0.03473544 0.00045264512
0.046525285 0.041061766 0.0035511702 0.0038995594 -0.036784895 -0.06232243 -0.018305719 0.022970825
-0.026815042 -0.020678587 0.05347275 0.02079846 0.03969975 -0.03338404 -0.04576163 -0.0046046227
0.027644537 0.062261477 0.052071586 -0.062271312 -0.00080162287 -0.052928068 0.05948589 -0.058200963
-0.04917112 -0.025128245 -0.04589972 -0.027321331 -0.05576489 -0.014172822 -0.04653421 0.0023338199
0.0070576295 -0.012127601 0.014024645 0.029375516 -0.027917475 0.011950627 -0.0054315105 -0.0067212656
-0.051218837 -0.041752033 0.014709108 0.020823412 0.032899693 0.03056474 -0.05278326 -0.009531811
0.006863512 -0.02645266 0.04268986 -0.05752804 -0.02507484 -0.012780823 -0.0380857 0.03730721
0.032235153 0.027119093 -0.062452413 0.014791466 0.04183238 -0.042599924 0.040414594 -0.022033505
-0.01549305 0.055639297 -0.028780118 -0.051999733 0.05459719 -0.0017283484 -0.04780808 -0.05478792
0.032902293 -0.023519047 -0.018688872 0.062105156 0.041829944 0.033567995 0.059672855 -0.039433792
-0.00971251 0.058296412 0.016832829 0.035951696 0.051796563 -0.014602706 -0.036060087 0.009384111
0.0558329 -0.030799218 0.0024779066 0.036409132 0.019447483 0.042042114 -0.035990134 -0.031141661
0.01883512 -0.014958575 0.050360613 -0.031014003 0.05972407 0.05782368 0.032786906 -0.061617225
-0.037786826 0.013101853 -0.05712244 0.052206993 0.036089413 -0.023714341 -0.05406589 0.015178598
0.0011015385 0.015452683 0.03741072 0.046427675 0.026455194 -0.053934127 0.014697067 -0.05858755
0.058533743 -0.05337034 0.011448413 0.029185906 -0.03340836 0.006868042 0.042702638 0.06037441
-0.03196726 0.040484063 -0.059993133 -0.003891766 -0.00707072 0.026487373 -0.0041852295 -0.046468064
0.04661484 -0.009785257 0.01972489 0.032696955 0.011129677 -0.049946405 0.037354678 -0.017571315
-0.00963334 0.030783154 -0.022851229 0.01567728 -0.00647337 0.05278542 0.03744342 0.007384956
-0.05754672 -0.020403825 -0.004817188 -0.04986161 0.022753343 0.057914115 -0.03505844 0.048735783
0.0017760843 -0.050442882 -0.05851706 -0.00345058 -0.0059564337 -0.0622932 0.025249079 0.038627997
0.036043547 -0.011935107 -0.029916883 0.03164079 -0.006056316 0.000751853 -0.040344916 0.04984784
-0.039725676 0.053170465 0.0016175434 0.033942096 -0.02798374 0.0045436025 0.04281102 0.045718536

transformer_encoder.encoder.feed_forward.fc2.bias f4 [20]
00000000: 14f0 033d 7875 4dbd a8d3 723c fc03 913c
00000010: d088 1fbd 3e8e 0dbd 3836 1abc 58d5 77bc
00000020: 0885 f8bc 1ccc 1c3d cc09 4d3d a647 1a3d
00000030: 4c6d e0bc 447f 8fbc 148f e1bc fc43 dd3c
00000040: a0c2 29bd 0292 37bd c65a 3cbd 80e2 47bb
0.03221138 -0.050160855 0.014820971 0.017702095 -0.038948834 -0.03455948 -0.009412341 -0.015126549
-0.030336872 0.03828059 0.05005817 0.037665986 -0.027395867 -0.01751674 -0.027534045 0.027009957
-0.041445374 -0.04481698 -0.045985006 -0.0030499995

transformer_encoder.encoder.feed_forward.layer_norm.weight f4 [20]
00000000: 0000 803f 0000 803f 0000 803f 0000 803f
00000010: 0000 803f 0000 803f 0000 803f 0000 803f
00000020: 0000 803f 0000 803f 0000 803f 0000 803f
00000030: 0000 803f 0000 803f 0000 803f 0000 803f
00000040: 0000 803f 0000 803f 0000 803f 0000 803f
1.0 1.0 1.0 1.0 1.0 1.0 1.0 1.0
1.0 1.0 1.0 1.0 1.0 1.0 1.0 1.0
1.0 1.0 1.0 1.0

transformer_encoder.encoder.feed_forward.layer_norm.bias f4 [20]
00000000: 0000 0000 0000 0000 0000 0000 0000 0000
00000010: 0000 0000 0000 0000 0000 0000 0000 0000
00000020: 0000 0000 0000 0000 0000 0000 0000 0000
00000030: 0000 0000 0000 0000 0000 0000 0000 0000
00000040: 0000 0000 0000 0000 0000 0000 0000 0000
0.0 0.0 0.0 0.0 0.0 0.0 0.0 0.0
0.0 0.0 0.0 0.0 0.0 0.0 0.0 0.0
0.0 0.0 0.0 0.0
