simple2transformer/param/net_param/Mk06_100_50_critic_net.model (torch, 110591 bytes, 33 tensors)

transformer_encoder.encoder.attention.fc_Q.weight f4 [20, 20]
0	0xbe5472fc	-0.20746988
1	0xbda3b300	-0.07993126
2	0x3df13a98	0.11778754
3	0x3e414326	0.18873271
4	0xbd95b1b8	-0.07309288
5	0xbcc3f1a8	-0.023918942
6	0xbe02ecae	-0.12785599
7	0xbe33d340	-0.17561054
8	0x3e4739ae	0.19455597
9	0xbde0ad66	-0.10970573
10	0xbe249cf2	-0.16075495
11	0xbe0da74e	-0.13833353
12	0xbdfc5500	-0.123209
13	0x3ce30950	0.027714401
14	0xbce1cae0	-0.027562559
15	0xbd803bd6	-0.06261413
16	0x3bb8ac80	0.005635798
17	0x3e1bc454	0.15211612
18	0x3d351278	0.044207066
19	0xbcd6e588	-0.026232496
20	0x3d9a1014	0.07522598
21	0x3dca8404	0.09888461
22	0x3d7fc4c0	0.062443495
23	0xbdff5149	-0.12466676
24	0x3e461e94	0.19347602
25	0x3e55b058	0.20868051
26	0x3d6d6ff0	0.05796808
27	0x3e349a7a	0.17637053
28	0xbc8f2f40	-0.017478585
29	0x3d9f9e80	0.07793903
30	0x3e103044	0.14080912
31	0xbc981590	-0.01856497
32	0x3e6303d8	0.22169435
33	0xbe626dc9	-0.22112192
34	0x3d5cd4f8	0.05391404
35	0xbe1cdf32	-0.15319517
36	0x3e1549c2	0.14578918
37	0xbe50a237	-0.2037438
38	0xbe2d3010	-0.16912866
39	0x3e58b302	0.21162036
40	0x3c849b28	0.016187266
41	0x3e5477fe	0.20748898
42	0x3ddcc2a4	0.10779312
43	0xbde6cf50	-0.112700105
44	0xbdd907ce	-0.10597192
45	0xbe4763c7	-0.19471656
46	0x3e02495c	0.12723297
47	0xbe55d9e2	-0.20883897
48	0xbdc86bfa	-0.0978622
49	0xbde86d88	-0.113490164
50	0x3e341d4c	0.17589301
51	0xbddf4ea8	-0.10903674
52	0x3df8e9a4	0.121539384
53	0xbc91c768	-0.01779528
54	0xbd225084	-0.039627567
55	0xbdd9354b	-0.10605868
56	0x3d943e8c	0.07238492
57	0xbcf39f48	-0.029739037
58	0xbcd94300	-0.026521206
59	0xbdf982d5	-0.12183157
60	0xbe22e382	-0.159071
61	0xbdc80adc	-0.09767696
62	0xbe3f089a	-0.18655625
63	0xbe1e4216	-0.15454897
64	0x3d74cff8	0.059768647
65	0xbe4e7f8c	-0.20165843
66	0xbe1574d9	-0.14595355
67	0xbe25b3ac	-0.1618182
68	0xbd810c0c	-0.06301126
69	0x3cfb2df0	0.030661553
70	0xbd9f44da	-0.07776804
71	0xbe461452	-0.19343689
72	0xbe07495e	-0.13211581
73	0x3e485eae	0.19567367
74	0xbd369e24	-0.04458441
75	0x3c6e6840	0.014551222
76	0x3e38a654	0.18032199
77	0x3e3278d8	0.1742891
78	0x3d318178	0.04333636
79	0xbcf61dc0	-0.030043483
80	0x3e5292c8	0.20563805
81	0xbdbcd692	-0.092206135
82	0x3e200f44	0.15630823
83	0xbdde99a9	-0.10869152
84	0xbd8aa6b6	-0.06770079
85	0x3d84b928	0.06480628
86	0xbc150550	-0.009095505
87	0x3e15cb8a	0.14628425
88	0xbde9debf	-0.114194386
89	0xbde86a91	-0.11348451
90	0xbd0865cc	-0.033300206
91	0xbdddbd0b	-0.10827073
92	0x3d9111f4	0.070835024
93	0xbd9fe7d2	-0.07807888
94	0x3e25a87a	0.1617755
95	0x3e1c0804	0.15237433
96	0x3dd02958	0.10164136
97	0x3db64458	0.08899754
98	0xbd5dab7c	-0.05411862
99	0xbe07c51c	-0.13258785
100	0x3e040022	0.12890676
101	0x3d8b31dc	0.06796619
102	0x3e0ddffa	0.13854972
103	0xbd9e4260	-0.07727504
104	0x3ce0ed00	0.02745676
105	0xbe3e3da8	-0.18578207
106	0x3db2f400	0.087379456
107	0xbd8e33b4	-0.06943455
108	0x3d8ac84c	0.06776485
109	0xbd96453e	-0.07337426
110	0xbdd35c18	-0.103203
111	0xbde82694	-0.11335483
112	0x3e012ec2	0.12615493
113	0x3e247b44	0.16062647
114	0x3d24dea8	0.040251404
115	0x3db5d974	0.088793665
116	0xbe022f1e	-0.12713286
117	0x3e4dc3dc	0.20094246
118	0xbe32fd8c	-0.17479533
119	0x3c775a50	0.015097216
120	0x3d1c6ba0	0.038188577
121	0x3e2cae40	0.16863346
122	0xbe331f33	-0.1749237
123	0x3e3920ba	0.1807889
124	0xbd6278f8	-0.055291146
125	0x3d83adb4	0.064296156
126	0xbdcbb215	-0.09946076
127	0x3e54ec62	0.20793298
128	0x3cbcb588	0.02303578
129	0x3e46fbe0	0.1943202
130	0x3e3c9286	0.1841527
131	0xbe2ca1ea	-0.1685864
132	0xbe0acf1e	-0.13555571
133	0xbdab0718	-0.083509624
134	0xbe2b3fa1	-0.16723491
135	0x3ddda190	0.10821831
136	0xbd98a9b4	-0.07454243
137	0xbe066910	-0.13126016
138	0x3e0ca394	0.13734275
139	0x3e4f3d22	0.20238164
140	0x3e500d88	0.20317662
141	0x3d364758	0.044501632
142	0xbb5ffa40	-0.003417626
143	0x3df31164	0.118685514
144	0xbde18755	-0.11012141
145	0x3e60a886	0.21939287
146	0xbe32c117	-0.1745647
147	0xbd1fbf10	-0.03900057
148	0x3e16be98	0.14721143
149	0x3d399570	0.04530853
150	0xbe23c0ba	-0.15991488
151	0x3d66c740	0.056342363
152	0x3d902584	0.070384055
153	0xbd0e0da0	-0.034680963
154	0x3e090ee0	0.1338458
155	0x3e100934	0.1406601
156	0x3e0fe2b2	0.14051321
157	0xbd9441bc	-0.072391
158	0x3dcd6288	0.10028559
159	0x3d8edc64	0.0697563
160	0x3e48adc6	0.1959754
161	0x3e4de042	0.20105079
162	0x3d92b18c	0.07162771
163	0x3c680000	0.014160156
164	0x3e4c630a	0.19959655
165	0xbe365d64	-0.17809063
166	0x3e6213fc	0.22077936
167	0x3cb1f3a0	0.021722615
168	0xbd6a2558	-0.05716452
169	0xbd4e288c	-0.050331637
170	0xbdfe2722	-0.12409808
171	0x3d725050	0.059158623
172	0xbe4b903a	-0.19879237
173	0x3e3cb678	0.18428981
174	0xbe134dea	-0.1438519
175	0xbe3f4c7e	-0.18681523
176	0xbd5c67c4	-0.053809896
177	0x3e5df5c8	0.2167579
178	0x3e1f7446	0.15571699
179	0x3ddc51a0	0.10757756
180	0xbe170b0f	-0.14750312
181	0xbd7acebc	-0.061232314
182	0x3e5392e4	0.20661503
183	0xbe009aad	-0.12559004
184	0x3e35fbba	0.17771807
185	0xbd7abaec	-0.06121342
186	0x3e1fbd22	0.15599492
187	0xb9b1d600	-0.00033919513
188	0xbc7a49a0	-0.015276343
189	0xbda95266	-0.082676694
190	0xbdd74ee1	-0.10513092
191	0x3e4eab7a	0.201826
192	0x3e187702	0.14889148
193	0xbda43f2a	-0.0801986
194	0x3c577600	0.013150692
195	0xbcdcd118	-0.026955172
196	0xbdc70f32	-0.09719695
197	0x3d1bc628	0.038030773
198	0x3e46cbce	0.19413683
199	0x3e262060	0.16223288
200	0x3da79e78	0.081845224
201	0xbe51f375	-0.20503028
202	0x3df06058	0.11737126
203	0x3dde97c4	0.10868791
204	0xbb07b380	-0.0020706356
205	0x3d75e9e8	0.060037524
206	0x3db86d8c	0.090052694
207	0xbe33760b	-0.17525499
208	0xbd76931c	-0.06019889
209	0x3e3a5420	0.18196154
210	0xbda0436e	-0.07825361
211	0xbd12f814	-0.035881117
212	0xbcc4c4d0	-0.024019629
213	0xbe12fc8c	-0.14354151
214	0xbe238d33	-0.15971832
215	0xbc1c6a80	-0.009546876
216	0xbe0df06b	-0.13861243
217	0xbe14db6f	-0.14536832
218	0xbe151ed6	-0.14562544
219	0x3d1bc748	0.038031846
220	0xbdb1826c	-0.08667454
221	0xbe22a584	-0.15883452
222	0x3e404da8	0.18779624
223	0x3dff440c	0.12464151
224	0x3bf3e420	0.007442966
225	0x3e158406	0.14601144
226	0x3dd72544	0.10505155
227	0xbe177757	-0.14791618
228	0xbd4395b4	-0.04775019
229	0x3ca677c8	0.020320788
230	0x3e35a95a	0.17740384
231	0x3e09c0ee	0.13452503
232	0x3dddcfdc	0.10830662
233	0x3dd14180	0.10217571
234	0xbe1397ec	-0.14413422
235	0xbe56bda0	-0.20970774
236	0xbe5d2daf	-0.21599458
237	0xbcdc8350	-0.026918083
238	0x3de0379c	0.10948107
239	0x3de919d0	0.113818765
240	0xbe1fa14e	-0.15588877
241	0xbe22f9be	-0.15915582
242	0x3c96bc28	0.018400267
243	0xbda058be	-0.07829426
244	0x3d19c878	0.037544698
245	0xbe00bb74	-0.12571508
246	0xbd9bd57e	-0.0760908
247	0xbe03b790	-0.12862992
248	0x3d95fea4	0.073239595
249	0x3d2d73e0	0.042346835
250	0xbd8272d2	-0.063695565
251	0xbe2f7b40	-0.1713686
252	0xbe269a45	-0.16269787
253	0xbe00a804	-0.12564093
254	0xbe04ba51	-0.12961699
255	0xbe42c812	-0.19021633

transformer_encoder.encoder.attention.fc_Q.bias f4 [20]
0	0x3de1db54	0.11028162
1	0x3d34f770	0.044181287
2	0x3ce5f9b0	0.028073162
3	0xbdbbc020	-0.09167504
4	0x3e0b2a4e	0.13590357
5	0xbd0c00a4	-0.0341803
6	0xbe4700fe	-0.19433972
7	0xbe39779c	-0.18112034
8	0x3e05d06a	0.13067785
9	0xbe279061	-0.1636367
10	0x3dc6bb34	0.09703675
11	0x3e437d02	0.19090655
12	0xbdb95296	-0.09048955
13	0xbe4e29a7	-0.20133077
14	0xbe4065d4	-0.18788844
15	0xbccb8f68	-0.024848655
16	0x3c1eca40	0.009691775
17	0xbe224b36	-0.15849003
18	0xbd60f1f0	-0.05491823
19	0xbdd382b5	-0.10327665

transformer_encoder.encoder.attention.fc_K.weight f4 [20, 20]
0	0x3da2e604	0.07954028
1	0x3e501b36	0.2032288
2	0xbbfc2780	-0.0076951385
3	0xbc6443f0	-0.013932213
4	0x3e21eab0	0.15812182
5	0x3d2a95f8	0.041646928
6	0xbdaca7f0	-0.08430469
7	0xbe442bab	-0.19157283
8	0x3e2bb754	0.16769153
9	0xbe55fe21	-0.20897724
10	0x3e569922	0.20956853
11	0x3e4e05d6	0.20119414
12	0x3dbb8c84	0.091576606
13	0x3e5c96b0	0.21541858
14	0x3debecec	0.11519799
15	0xbd6b0910	-0.05738169
16	0x3e3e1802	0.18563846
17	0xbe4075ef	-0.18794988
18	0xbdb45e82	-0.088070884
19	0xbddf63df	-0.10907721
20	0xbe3c07ac	-0.18362302
21	0x3d5e8898	0.054329485
22	0xbb633480	-0.0034668744
23	0xbe45be6a	-0.19310918
24	0x3d9e00ec	0.077150196
25	0xbdba944c	-0.09110317
26	0xbd2bf700	-0.041983604
27	0xbddbcf36	-0.10732882
28	0x3dffdb48	0.124929965
29	0xbd944e0e	-0.0724145
30	0xbe477a82	-0.19480327
31	0xbe2bf176	-0.16791329
32	0x3e170b16	0.14750323
33	0xbe053ea1	-0.13012172
34	0xbe5a3524	-0.21309334
35	0xbd858b6a	-0.06520732
36	0xbd827a62	-0.06370999
37	0xbda04ce4	-0.07827166
38	0xbdbc5e74	-0.09197703
39	0xbd35427c	-0.044252858
40	0xbded3262	-0.115818754
41	0xbe3c2262	-0.18372491
42	0x3e1a6318	0.15076864
43	0x3dbf2520	0.09333253
44	0xbdcfbd2c	-0.101435035
45	0x3e5da198	0.21643674
46	0x3e1355f0	0.14388251
47	0x3e374a94	0.17899543
48	0x3e52d9d2	0.20590904
49	0x3e29d73e	0.16586015
50	0xbc1a9120	-0.009434015
51	0x3e187a66	0.14890441
52	0x3d003250	0.03129798
53	0xbc1d54f0	-0.00960277
54	0xbd7c2954	-0.06156285
55	0x3e3ef2cc	0.18647307
56	0xbe18471d	-0.14870878
57	0x3e157534	0.1459549
58	0xbda1893a	-0.07887502
59	0xbdf60cdc	-0.120141715
60	0x3e175332	0.1477783
61	0xbe03d66f	-0.12874769
62	0x3e0fd304	0.1404534
63	0xbe12a016	-0.1431888
64	0x3b8f2720	0.0043686777
65	0x3cb68388	0.022279516
66	0xbd190900	-0.0373621
67	0x3dc0dda4	0.094172746
68	0xbc977e20	-0.018492758
69	0xbd8f5b86	-0.069998786
70	0xbc548ad0	-0.012972549
71	0xbe1506b0	-0.14553332
72	0x3e1fd0d6	0.15607008
73	0x3e627502	0.22114947
74	0xbd8b3050	-0.06796324
75	0x3e2f8072	0.17138842
76	0xbdccd0df	-0.100007765
77	0xbc8f4840	-0.017490506
78	0x3d313e98	0.043272585
79	0xbe1ad76d	-0.15121241
80	0x3d795878	0.060875386
81	0xbcbf05b0	-0.023318142
82	0xbc55d4c0	-0.013051212
83	0xbe511d84	-0.20421416
84	0xbe27292f	-0.16324304
85	0x3dba4e14	0.090969235
86	0x3e41f6d8	0.1894182
87	0x3e0756be	0.13216683
88	0x3e0c26d2	0.13686684
89	0xbdbfebb6	-0.0937113
90	0x3cd35e60	0.025801837
91	0x3d45b858	0.048271507
92	0x3e052df8	0.13005817
93	0x3ca3d268	0.01999779
94	0xbd0815e8	-0.033224016
95	0xbe55de86	-0.20885667
96	0xbe5e7bc3	-0.21726899
97	0xbe5ee5d2	-0.21767357
98	0x3e4f81ea	0.20264402
99	0x3dbaf078	0.09127897
100	0xbe639dd4	-0.22228175
101	0x3d3794d0	0.044819653
102	0x3e38ac0e	0.18034384
103	0xbc7d0990	-0.015444174
104	0x3e0f9a18	0.14023626
105	0xbe11601e	-0.14196822
106	0x3df4a85c	0.119461745
107	0x3d8501ec	0.06494507
108	0x3cf86ec0	0.030326247
109	0xbe578c41	-0.21049596
110	0x3db2e0c0	0.08734274
111	0x3d080890	0.03321129
112	0x3e119258	0.14215982
113	0x3e334998	0.17508543
114	0x3e3699fc	0.17832178
115	0x3b788680	0.0037921965
116	0x3e163894	0.1467002
117	0xbda4fbf2	-0.08055867
118	0x3e016052	0.126344
119	0x3d6d39e0	0.057916522
120	0x3d2a41d0	0.04156667
121	0xbe02d8cd	-0.12778015
122	0xbe215fe0	-0.1575923
123	0x3cfd98c0	0.030956626
124	0xbd7d6efc	-0.06187342
125	0xbbcf92e0	-0.0063346475
126	0x3dc9b6c0	0.0984931
127	0xbe55d8e4	-0.20883518
128	0xbd88e014	-0.066833645
129	0x3e38bd04	0.18040854
130	0x3e426ab0	0.1898601
131	0xbdc07e90	-0.0939914
132	0xbd520d44	-0.051282182
133	0x3dbb6fbc	0.09152171
134	0x3c572440	0.013131201
135	0x3e27067e	0.1631107
136	0xbdbae624	-0.09125927
137	0x3e1fc868	0.15603793
138	0xbe38e5eb	-0.18056457
139	0x3e2082ce	0.15674898
140	0xbc1036d0	-0.008802131
141	0xbe30ff18	-0.1728481
142	0xbd929eea	-0.07159217
143	0x3e10055a	0.14064541
144	0x3e43c3d8	0.19117677
145	0x3d6f7208	0.058458358
146	0xbd606870	-0.0547871
147	0xbbfeef80	-0.0077800155
148	0xbdfca343	-0.12335827
149	0x3d94b178	0.07260412
150	0x3d5dfcf8	0.054196328
151	0x3e2c569e	0.16829917
152	0x3e0af998	0.13571775
153	0xbe4c0e7d	-0.19927402
154	0x3e633aa8	0.22190344
155	0xbe48fcce	-0.19627687
156	0xbdba7bda	-0.09105654
157	0x3e1e39da	0.15451756
158	0xbc46bea0	-0.0121304095
159	0x3dbc0b54	0.09181848
160	0xbe1b70ee	-0.15179798
161	0x3e08ed44	0.1337176
162	0x3d561b68	0.05227223
163	0xbd058d64	-0.032605544
164	0x3db1e798	0.08686751
165	0xbd4b4e14	-0.049635008
166	0xbc5e7c50	-0.013579443
167	0xbdf418d2	-0.119187966
168	0xbbc67a60	-0.0060570687
169	0xbb0a6c40	-0.002112165
170	0xbd8ec5b4	-0.06971303
171	0x3e47c8e4	0.19510227
172	0x3d94f16c	0.0727261
173	0x3e37f206	0.17963418
174	0xbe288d8b	-0.16460244
175	0xbd9f5c7a	-0.077813104
176	0xbe5208ca	-0.20511165
177	0x3d4bbd78	0.04974124
178	0x3dbea09c	0.093079776
179	0xbcc29ee8	-0.023757413
180	0xbc8a6048	-0.016891614
181	0xbe352c54	-0.17692691
182	0xbce3cdb8	-0.027808055
183	0xbd24867c	-0.040167317
184	0x3e4ca8c2	0.19986251
185	0xbe20722e	-0.15668556
186	0x3e116d70	0.14201903
187	0x3d9c19d8	0.07622117
188	0xbe1f252a	-0.1554152
189	0x3d862d88	0.06551653
190	0xbdf00399	-0.11719436
191	0x3d9a9c30	0.07549322
192	0x3d2ba590	0.04190594
193	0x3de26e94	0.11056247
194	0x3e47d7f2	0.1951597
195	0xbda8859e	-0.082286105
196	0x3e24fa4a	0.16111103
197	0x3e0d845a	0.1382002
198	0x3e1385fc	0.1440658
199	0xbcbe9b60	-0.023267448
200	0xbc145c30	-0.009055182
201	0x3d6c8910	0.0577479
202	0xbe63dda2	-0.22252515
203	0xbe59bf8e	-0.21264479
204	0x3da85fcc	0.08221397
205	0xbcff4b68	-0.031163886
206	0xbd3afc74	-0.045650914
207	0xbe3486a0	-0.1762948
208	0x3cd162c0	0.025559783
209	0x3e208184	0.15674406
210	0x3e63a554	0.22231036
211	0xbe183514	-0.14863998
212	0x3d5831d0	0.05278188
213	0xbcfe7860	-0.031063259
214	0x3e605986	0.2190915
215	0xbc6df920	-0.014524728
216	0xbd960820	-0.073257685
217	0xbd9ea2e4	-0.07745913
218	0xbd9a5bbc	-0.07537028
219	0xbd019514	-0.031636313
220	0x3e25e73c	0.1620149
221	0xbe4e2dd8	-0.20134676
222	0x3e4d6924	0.20059639
223	0x3e025838	0.12728965
224	0xbe406aad	-0.18790694
225	0xbe0359f8	-0.12827289
226	0xbcf5bae8	-0.02999635
227	0x3cc6a050	0.024246365
228	0xbe4cdf38	-0.20007026
229	0xbe640a28	-0.222695
230	0xbe45c6dc	-0.1931414
231	0x3d8598b8	0.065232694
232	0x3e3d8530	0.18507838
233	0xbe00cb89	-0.12577643
234	0x3df5df64	0.12005499
235	0x3c53a0d0	0.012916759
236	0x3bef1f80	0.0072974563
237	0xbc697530	-0.014249131
238	0x3dab5d08	0.08367354
239	0xbd07a9cc	-0.033120915
240	0xbe31f434	-0.17378312
241	0x3e3bae6e	0.18328258
242	0xbc1b8610	-0.009492412
243	0x3df01a60	0.11723781
244	0x3e29ce8c	0.16582698
245	0xbe15ad5a	-0.1461691
246	0x3de129c0	0.10994291
247	0x3dcb2a58	0.09920186
248	0xbe3d6d82	-0.18498805
249	0x3e12cac2	0.14335158
250	0x3ddd1090	0.10794175
251	0x3dd39800	0.10331726
252	0xbe02d610	-0.12776971
253	0x3e505e06	0.20348367
254	0x3b93f860	0.0045156926
255	0x3d704370	0.058658063

transformer_encoder.encoder.attention.fc_K.bias f4 [20]
0	0xbdf2f3ec	-0.11862931
1	0x3e3621c4	0.17786318
2	0xbe0a967f	-0.13533972
3	0xbb921260	-0.004457757
4	0xbdfda4e9	-0.1238497
5	0xbe290572	-0.16505983
6	0x3d8f01ac	0.06982741
7	0x3c5b3de0	0.013381451
8	0xbdd90326	-0.10596304
9	0xbdb2e880	-0.08735752
10	0xbcf26a88	-0.029591814
11	0xbcf0b6f8	-0.029384121
12	0xbdc58a46	-0.09645514
13	0x3e471988	0.19443333
14	0xbde3a59b	-0.11115571
15	0xbe5bbdf5	-0.21459182
16	0x3e58ad1e	0.21159789
17	0xbe31ee74	-0.17376119
18	0x3e4d7e0a	0.20067611
19	0xbd6a5a20	-0.057214856

transformer_encoder.encoder.attention.fc_V.weight f4 [20, 20]
0	0xbc579a90	-0.013159409
1	0x3e154642	0.14577582
2	0xbe60afda	-0.21942082
3	0xbe2b39ab	-0.16721217
4	0xbd82b8a2	-0.06382872
5	0xbe5f174f	-0.21786235
6	0x3e55da62	0.20884088
7	0x3e575af6	0.21030793
8	0xbdfc1bf3	-0.123100184
9	0xbe32db9c	-0.17466587
10	0x3df7aa64	0.12093046
11	0x3d3c9f98	0.046050638
12	0x3d428680	0.04749155
13	0x3d9a8500	0.07544899
14	0xbce00250	-0.027344853
15	0xbd8c29d6	-0.06843917
16	0xbdacd7c6	-0.08439593
17	0x3dade56c	0.084910244
18	0x3e64f1da	0.22357884
19	0x3d85fdac	0.06542525
20	0x3e3b4680	0.18288612
21	0xbe4c5619	-0.19954719
22	0x3e24d1a6	0.160956
23	0x3ddfb7f8	0.10923761
24	0xbdf5cf94	-0.12002483
25	0xbe0d63f0	-0.13807654
26	0xbe019fbd	-0.12658592
27	0x3d915e4c	0.07098064
28	0xbe34123d	-0.17585082
29	0x3b116fc0	0.0022191852
30	0xbd9fbd5a	-0.07799788
31	0x3e014b6c	0.12626427
32	0x3dbae9c0	0.091266155
33	0xbe092eec	-0.13396806
34	0xbd9f66d8	-0.07783288
35	0xbdda83b6	-0.10669653
36	0x3e2ac87a	0.16678038
37	0xbdc4c75e	-0.09608339
38	0xbd8de5ce	-0.069285974
39	0xbde06b27	-0.10957938
40	0x3dfa4290	0.12219727
41	0xbd286060	-0.041107535
42	0x3d8c92c8	0.06863934
43	0xbe42622d	-0.18982764
44	0xbca92188	-0.020645872
45	0xbdba225e	-0.09088586
46	0xbe3b2363	-0.18275218
47	0xbd4a2cc8	-0.049359113
48	0x3dbdbddc	0.092647284
49	0x3e1f04fe	0.15529248
50	0xbdfeb46d	-0.12436757
51	0xbc4020c0	-0.011726558
52	0x3e260906	0.1621438
53	0xbde5dd37	-0.11223834
54	0x3e264b28	0.16239607
55	0x3e04ebb0	0.12980533
56	0xbe0dcf2e	-0.13848564
57	0xbd54110c	-0.05177407
58	0x3e59f28a	0.21283928
59	0xbe29a668	-0.16567385
60	0x3dfdae7c	0.12386796
61	0xbd96b510	-0.07358754
62	0x3e1d5eb8	0.15368164
63	0x3e387d68	0.18016589
64	0x3cffa130	0.03120479
65	0xbe107145	-0.14105709
66	0x3e0071bc	0.12543386
67	0xbc5d5630	-0.013509318
68	0xbe28cd44	-0.16484553
69	0xbe1c4c5c	-0.15263504
70	0x3dba84b4	0.09107342
71	0x3e2838ea	0.16427961
72	0xbd7d692c	-0.061867878
73	0x3e035d10	0.1282847
74	0xbd6b34d0	-0.057423413
75	0x3ca40d70	0.020025939
76	0xbe4e7079	-0.20160092
77	0x3e4b60d6	0.19861159
78	0x3dad2d00	0.08455849
79	0xbe0c1e5a	-0.13683453
80	0xbd2ce67c	-0.042211995
81	0xbdf872b7	-0.12131255
82	0x3d95cc98	0.07314414
83	0xbe27cb6b	-0.16386192
84	0x3e5761ac	0.21033353
85	0xbdbf1178	-0.09329504
86	0xbd555580	-0.052083492
87	0xbe227ace	-0.15867159
88	0x3d417938	0.047234744
89	0xbe30448e	-0.17213652
90	0x3d89dba0	0.06731343
91	0xbd3d7c78	-0.04626128
92	0xbc8d3e80	-0.017241716
93	0x3dca60f8	0.098817766
94	0x3e4a71ce	0.19769976
95	0x3deee768	0.11665231
96	0xbe391792	-0.18075398
97	0x3e513002	0.2042847
98	0xbddf0a4d	-0.108906366
99	0xbca18ef8	-0.019721493
100	0xbd31def4	-0.043425515
101	0x3dc29554	0.09501138
102	0xbc027590	-0.007962599
103	0x3e02767e	0.12740514
104	0x3d3783a0	0.04480326
105	0x3ddf67bc	0.10908458
106	0xbe466f25	-0.19378336
107	0x3dab430c	0.083623976
108	0xbe631ca5	-0.22178896
109	0x3e126da2	0.14299634
110	0xbde64f17	-0.11245554
111	0x3c3a0590	0.011353865
112	0xbe004414	-0.1252597
113	0xbe387b2c	-0.18015736
114	0xbd8c7710	-0.06858647
115	0xbe2bf38a	-0.16792122
116	0xbdac1506	-0.084024474
117	0xbdec93d8	-0.115516365
118	0xbe584235	-0.21119006
119	0xbdf77b73	-0.12084093
120	0xbe4e41f3	-0.20142345
121	0xbe40fac2	-0.18845657
122	0x3e390368	0.18067706
123	0x3dcc27bc	0.09968516
124	0x3e044912	0.12918499
125	0x3e04476c	0.1291787
126	0xbe5cf937	-0.21579443
127	0x3b5d2dc0	0.0033749193
128	0x3e23edc2	0.16008666
129	0x3d31d268	0.04341355
130	0xbd7f9234	-0.06239529
131	0x3e287bfc	0.16453546
132	0xbdf93f26	-0.12170248
133	0x3e486e50	0.19573331
134	0x3e14d036	0.14532551
135	0xbd33f9e0	-0.04393947
136	0xbe3578f9	-0.17721929
137	0x3e244688	0.1604253
138	0xbe561dc3	-0.2090979
139	0xbdceb1b2	-0.100924864
140	0xbe3b02d4	-0.18262798
141	0xbe0eaa4e	-0.13932154
142	0xbe0afbaf	-0.13572572
143	0xbdb0e5ec	-0.08637604
144	0xbd4180c8	-0.047241956
145	0xbb0ac080	-0.0021171868
146	0xbe4adad9	-0.19810046
147	0x3d355af8	0.044276208
148	0xbe180560	-0.148458
149	0x3dc517b0	0.09623659
150	0x3e286098	0.16443098
151	0x3e2a1686	0.16610155
152	0xbd96c618	-0.07362002
153	0x3d09aac0	0.033610106
154	0xbe3f9657	-0.18709694
155	0xbe5eaf4b	-0.21746556
156	0x3ddf8350	0.10913718
157	0xbd0a2464	-0.03372611
158	0xbdf4f1c6	-0.11960177
159	0xbe19e431	-0.15028454
160	0xbe591052	-0.21197632
161	0x3d7e1248	0.062029153
162	0xbe23ea46	-0.16007337
163	0x3e1af1b6	0.15131268
164	0xbe3e7218	-0.18598211
165	0x3dd759b4	0.105151564
166	0xbe3183ba	-0.17335406
167	0x3e11ad3e	0.14226243
168	0xbe513827	-0.20431577
169	0x3e4f4d38	0.202443
170	0x3e47c2e0	0.19507933
171	0x3d53df00	0.05172634
172	0x3d93f490	0.07224381
173	0x3e5a4494	0.21315223
174	0xbd24b408	-0.040210754
175	0xbe280838	-0.16409385
176	0xbe14f40a	-0.14546219
177	0x3d90f034	0.07077065
178	0xbe5b2bab	-0.21403377
179	0x3d74ab88	0.059733897
180	0xbc647620	-0.013944179
181	0xbdeddc68	-0.11614305
182	0x3cab0f08	0.02088119
183	0x3e2ac7b2	0.1667774
184	0x3e5757cc	0.21029586
185	0x3e1a1d3e	0.15050218
186	0x3d7927f8	0.060829133
187	0x3e1c377c	0.1525554
188	0x3c6f0b40	0.014590085
189	0xbd703638	-0.058645457
190	0x3d7c1df0	0.061551988
191	0x3b96e940	0.0046054423
192	0x3d956b90	0.072959065
193	0x3e2c4a4e	0.1682522
194	0x3de46978	0.11152929
195	0xbe2d35e8	-0.16915095
196	0xbd575534	-0.05257149
197	0xbe211811	-0.15731837
198	0x3e3cc50e	0.18434545
199	0xbc57e440	-0.013176978
200	0xbd912c82	-0.07088567
201	0xbd913766	-0.070906445
202	0xbcc530d8	-0.024071142
203	0xbe5503df	-0.20802258
204	0x3e365052	0.17804077
205	0xbe1e56a8	-0.15462744
206	0xbdf19356	-0.1179568
207	0x3cbdd518	0.0231729
208	0x3d133a00	0.035943985
209	0x3d5845a8	0.052800804
210	0x3d0a1fb0	0.033721626
211	0xbcaad310	-0.020852596
212	0x3e4a1082	0.1973286
213	0x3d7dbff0	0.061950624
214	0x3e451ee0	0.19250059
215	0xbded0073	-0.11572351
216	0xbe5f9aef	-0.21836446
217	0x3d4303d0	0.047611058
218	0x3e1ee5de	0.15517375
219	0xbe37137f	-0.17878531
220	0x3e606240	0.2191248
221	0xbe0105b7	-0.12599836
222	0xbdeae2a2	-0.11469008
223	0xbdf26864	-0.11836317
224	0x3e08c0a2	0.13354734
225	0x3db3865c	0.087658614
226	0x3bd824a0	0.006596163
227	0x3e2f9634	0.17147142
228	0x3d247998	0.040155023
229	0x3d9dfbf8	0.07714075
230	0x3ddfa948	0.1092096
231	0xbdcb1d83	-0.09917738
232	0xbcee4918	-0.029087588
233	0x3e0845b8	0.13307846
234	0x3e32b428	0.17451537
235	0xbde5fd2a	-0.11229928
236	0xbe0d9c8f	-0.13829254
237	0x3e18494a	0.14871708
238	0x3e388b96	0.18021998
239	0x3e08bbd0	0.13352895
240	0xbd277554	-0.040883377
241	0xbd725d14	-0.059170797
242	0xbdfd840b	-0.12378701
243	0xbdf75064	-0.1207588
244	0x3dca9d00	0.098932266
245	0xbdf11e1c	-0.11773321
246	0xba8a4500	-0.0010549128
247	0xbd8246a8	-0.06361133
248	0xbe49da6b	-0.19712226
249	0x3da532c8	0.080663264
250	0xbda25b84	-0.079276115
251	0x3df9d4c4	0.12198785
252	0x3e6064aa	0.219134
253	0xbde65a2c	-0.11247668
254	0x3e07a6ea	0.13247266
255	0x3df87248	0.121311724

transformer_encoder.encoder.attention.fc_V.bias f4 [20]
0	0x3e5bdea0	0.21471643
1	0xbe1a58d8	-0.15072954
2	0xbce1c748	-0.027560845
3	0xbe48f06a	-0.1962296
4	0xbcd422a8	-0.025895432
5	0x3e433e6e	0.19066784
6	0x3cf5b470	0.029993266
7	0x3e39c382	0.18140987
8	0xbe5a75dd	-0.21334024
9	0x3e5cf90e	0.21579382
10	0xbe466ae7	-0.19376718
11	0xbe42c67c	-0.19021028
12	0x3e0629a0	0.13101816
13	0x3d7d6820	0.06186688
14	0xbe46b509	-0.19404997
15	0x3d96b8b0	0.07359445
16	0xbd9e318a	-0.077242926
17	0x3d6d3540	0.05791211
18	0x3ca560d0	0.020187765
19	0xbd57b71c	-0.05266486

transformer_encoder.encoder.attention.fc.weight f4 [20, 20]
0	0x3e3c70a6	0.18402347
1	0xbe501d56	-0.20323691
2	0xbd4ca778	-0.0499644
3	0xbd9d2976	-0.07673924
4	0x3def1ea8	0.11675769
5	0x3da218f0	0.07914913
6	0x3daf7b6c	0.08568463
7	0x3e0ef1d2	0.13959435
8	0xbe51a316	-0.20472369
9	0x3e120f40	0.1426363
10	0x3e3396a0	0.17537928
11	0xbe165270	-0.14679885
12	0x3e2b6bc8	0.16740334
13	0xbe102626	-0.14077052
14	0x3e175170	0.1477716
15	0xba730300	-0.00092701614
16	0x3dbdc3c8	0.09265858
17	0xbe0f62bf	-0.14002512
18	0xbe2260d6	-0.15857252
19	0xbdf2f01f	-0.11862206
20	0xbdf0ca46	-0.117573306
21	0x3e3b7694	0.18306953
22	0x3e5aab7a	0.21354476
23	0x3d269540	0.04066968
24	0xbe2bf3a4	-0.1679216
25	0xbdec6da3	-0.11544349
26	0xbb2ccec0	-0.002636835
27	0x3d9c61f8	0.076358736
28	0xbe43ea80	-0.19132423
29	0xbe4978d1	-0.19674994
30	0xbe41add6	-0.1891397
31	0xbe09e424	-0.13465935
32	0xbe20837b	-0.15675156
33	0xbd738b14	-0.059458807
34	0xbe0d2814	-0.1378482
35	0xbe08fb4c	-0.13377112
36	0x3e106e5a	0.14104596
37	0xbdefa7e4	-0.117019445
38	0x3d83683c	0.064163655
39	0xbe43f1f8	-0.19135273
40	0xbe1543e4	-0.1457668
41	0xbc269f70	-0.010169849
42	0xbc814960	-0.015782058
43	0x3e125c3e	0.14293
44	0xbd8eaa82	-0.069661155
45	0x3da8f010	0.08248913
46	0xbe065e4b	-0.13121907
47	0xb8ba8000	-8.893013e-05
48	0x3ca53d98	0.020170972
49	0x3e2a1ad4	0.16611797
50	0x3e5b9ee6	0.21447334
51	0xbd27ece8	-0.040997416
52	0x3e38f6ce	0.18062899
53	0xbde692bb	-0.11258455
54	0x3c1dca00	0.00963068
55	0x3e1bbfaa	0.15209833
56	0xbdd0ef9d	-0.102019526
57	0xbd153688	-0.03642896
58	0xbe0581d6	-0.1303781
59	0x3c8f43c0	0.01748836
60	0xbe5587e5	-0.20852621
61	0x3e62eb3e	0.2216005
62	0xbd213aa8	-0.03936258
63	0xbca765e8	-0.020434335
64	0xbced7860	-0.028988063
65	0x3dfcec70	0.123497844
66	0xbe4e38c4	-0.20138842
67	0x3e48dd12	0.19615582
68	0xbe4aad63	-0.19792704
69	0x3d8b3888	0.06797892
70	0x3dd6073c	0.104505986
71	0x3d37fae8	0.044917017
72	0xbe3fdd5d	-0.18736787
73	0xbdaddc1c	-0.08489248
74	0xbe251188	-0.16119969
75	0xbe27a4c8	-0.16371453
76	0x3dd265cc	0.102733225
77	0xbdb9509e	-0.0904858
78	0x3e37f356	0.17963919
79	0x3e2d189e	0.16903922
80	0xbd8f865e	-0.070080504
81	0x3e16b410	0.14717126
82	0x3e529588	0.20564854
83	0x3bac96e0	0.005267009
84	0xbdf71827	-0.120651536
85	0x3daa3d8c	0.083125204
86	0xbe1c8392	-0.15284565
87	0x3e611a7a	0.21982756
88	0xbe1bc003	-0.15209965
89	0x3d9b6c14	0.07588974
90	0x3b9d9360	0.0048088282
91	0x3e2d5788	0.16927922
92	0x3e37bf82	0.17944148
93	0x3b3f68c0	0.0029206723
94	0x3e09e4c6	0.13466176
95	0xbe1b885b	-0.15188734
96	0x3e206406	0.15663156
97	0x3daf6120	0.08563447
98	0xbdaef142	-0.0854211
99	0x3e0b54b6	0.13606533
100	0x3dc33ff4	0.095336825
101	0xbc060960	-0.008180946
102	0x3e178676	0.14797387
103	0x3b6544c0	0.0034983605
104	0xbe26a802	-0.16275027
105	0xbd0570d4	-0.032578304
106	0xbdff4666	-0.12464599
107	0x3d1ec6a8	0.038763672
108	0xbdaf0694	-0.085461766
109	0x3d12f1d8	0.03587517
110	0x3e475ca0	0.19468927
111	0x3e5f4786	0.21804628
112	0x3e209618	0.15682256
113	0x3e5478aa	0.20749155
114	0x3d024948	0.031808168
115	0xbcd4e290	-0.02598694
116	0x3deacaf8	0.114644945
117	0xbd7b7a44	-0.0613959
118	0xbdb928a4	-0.09040955
119	0xbe47c381	-0.19508173
120	0xbe1c3f72	-0.15258577
121	0x3e087c94	0.13328773
122	0xbdd9bcb4	-0.106316954
123	0xbd0608e8	-0.032723337
124	0xbe1198fa	-0.14218512
125	0xbd7f0e8c	-0.062269732
126	0x3d016d28	0.03159824
127	0x3dd9d540	0.10636377
128	0x3e59c6fe	0.21267316
129	0xbdba653a	-0.09101339
130	0x3e377aea	0.17917982
131	0x3e25582a	0.16146913
132	0x3e256b9c	0.16154331
133	0x3e178616	0.14797243
134	0xbb8de8c0	-0.0043307245
135	0xbe271b70	-0.1631906
136	0xbdc633ee	-0.096778736
137	0x3e36a4d8	0.1783632
138	0xbe2349dc	-0.15946144
139	0xbe277d48	-0.16356385
140	0x3e27ca28	0.1638571
141	0x3d8c9a48	0.06865364
142	0xbe116d71	-0.14201905
143	0xbcbd2440	-0.023088574
144	0x3d74f270	0.05980152
145	0xbe065f1c	-0.13122219
146	0x3df3b5ec	0.11899933
147	0x3ce35fe0	0.027755678
148	0xbdf5ea62	-0.120075956
149	0x3e118906	0.14212427
150	0x3ca33b20	0.019925654
151	0xbdffd07e	-0.124909386
152	0x3dd66fc4	0.10470536
153	0xbe56819f	-0.20947884
154	0xbd1f20b0	-0.038849533
155	0xbe509046	-0.20367536
156	0xbe248e32	-0.16069868
157	0xbcff95e8	-0.03119941
158	0x3e52595c	0.205419
159	0xbd88ef28	-0.066862404
160	0x3cbc4318	0.022981212
161	0x3d3d1b98	0.046168894
162	0xbd192f70	-0.037398756
163	0x3e50f57e	0.20406148
164	0xbe08c8b4	-0.13357812
165	0xbe44b590	-0.19209886
166	0x3e35b9f4	0.17746717
167	0x3e5b624a	0.21424213
168	0x3cca7688	0.024714723
169	0xbe1ffd74	-0.15624028
170	0x3dd908c4	0.10597375
171	0xbc6fb4a0	-0.014630467
172	0x3d9b1d18	0.075739086
173	0xbe4114c0	-0.18855572
174	0xbe335777	-0.17513834
175	0xbdbd2f3c	-0.09237525
176	0x3d08be38	0.03338453
177	0xbe2426c2	-0.1603041
178	0xbe1928fc	-0.1495704
179	0xbdd94a50	-0.10609877
180	0x3e0488a8	0.12942755
181	0xbb5a1a80	-0.0033279955
182	0xbd49263c	-0.04910873
183	0x3e52bda0	0.20580149
184	0x3b953700	0.0045536757
185	0x3e4b3e16	0.19847903
186	0x3db08d3c	0.08620688
187	0x3e20f25a	0.1571745
188	0xbe2b05e0	-0.1670146
189	0x3de4b3a8	0.11167079
190	0x3ddc781c	0.107650965
191	0xbe13aa5d	-0.14420457
192	0x3da2f098	0.07956046
193	0x3d9ef930	0.077623725
194	0x3e56c90a	0.20975128
195	0xbd930088	-0.07177836
196	0x3ca80690	0.020510942
197	0x3c346cb0	0.011012241
198	0x3e1f5348	0.15559113
199	0x3d7d4cf8	0.06184098
200	0xbe46ea48	-0.19425309
201	0xbe2f4186	-0.17114839
202	0x3d489d28	0.048978
203	0xbde3b02f	-0.11117589
204	0x3d715ea8	0.05892816
205	0x3d72f2a0	0.059313416
206	0xbe4ac1fe	-0.19800565
207	0xbd4b1548	-0.049580842
208	0xbd8a0912	-0.06740011
209	0x3dcc3d64	0.09972647
210	0x3ce56c50	0.028005749
211	0xbe3c60f3	-0.18396358
212	0x3e453e6c	0.19262093
213	0xbe0af136	-0.13568577
214	0xbdf7c0b6	-0.120973036
215	0xbe4877c6	-0.1957694
216	0x3e222098	0.15832746
217	0x3e3f5456	0.18684515
218	0xbc2c4630	-0.010514781
219	0xbcab6870	-0.020923823
220	0xbd2b0330	-0.041751087
221	0x3df61ce8	0.12017232
222	0x3e55cb6e	0.20878384
223	0xbcbe2138	-0.0232092
224	0x3e314c34	0.17314225
225	0x3d432128	0.047639042
226	0xbdaaa674	-0.0833253
227	0x3db4b47c	0.08823487
228	0xbca413e0	-0.020029008
229	0xbe48a864	-0.19595486
230	0xbdfe2709	-0.12409789
231	0x3cf06060	0.02934283
232	0x3e54e7c8	0.20791543
233	0x3e436976	0.19083199
234	0x3e2daa58	0.16959512
235	0x3e40a250	0.18811917
236	0xbd021964	-0.031762496
237	0xbdb28126	-0.08716039
238	0xbe4a39ed	-0.1974866
239	0x3e0fa358	0.14027154
240	0x3e6047b4	0.21902353
241	0xbe1ce49a	-0.1532158
242	0xbe11e538	-0.14247596
243	0xbe3e9a62	-0.1861358
244	0x3d7261e8	0.059175402
245	0x3e5a0272	0.21289995
246	0xbe54fe42	-0.20800117
247	0xbc3d1680	-0.011541009
248	0xbdfeb3f3	-0.12436666
249	0x3e0503c8	0.12989724
250	0xbe335252	-0.17511871
251	0x3bab3fa0	0.0052260906
252	0x3ce2cb70	0.027684897
253	0xbc254720	-0.010087758
254	0xbe317151	-0.17328383
255	0x3dc39254	0.09549394

transformer_encoder.encoder.attention.fc.bias f4 [20]
0	0xbd85d47c	-0.06534669
1	0xbdc8b246	-0.09799628
2	0xbb7d8180	-0.0038681924
3	0xbe60589e	-0.21908805
4	0x3dc4cf20	0.096098185
5	0xbca6a4a8	-0.020342186
6	0x3e3f60a8	0.18689215
7	0xbd45c414	-0.048282698
8	0x3e40e5ee	0.18837711
9	0x3e33cbca	0.17558208
10	0xbe30cab0	-0.17264819
11	0x3bbf9a20	0.0058472306
12	0xbe2a2112	-0.16614178
13	0x3d4be8b8	0.049782485
14	0xbe4962d3	-0.19666605
15	0x3de44040	0.11145067
16	0x3e1c1378	0.15241802
17	0x3e5b7736	0.21432194
18	0x3e584c32	0.21122816
19	0x3e5290ec	0.20563096

transformer_encoder.encoder.attention.layer_norm.weight f4 [20]
0	0x3f800000	1.0
1	0x3f800000	1.0
2	0x3f800000	1.0
3	0x3f800000	1.0
4	0x3f800000	1.0
5	0x3f800000	1.0
6	0x3f800000	1.0
7	0x3f800000	1.0
8	0x3f800000	1.0
9	0x3f800000	1.0
10	0x3f800000	1.0
11	0x3f800000	1.0
12	0x3f800000	1.0
13	0x3f800000	1.0
14	0x3f800000	1.0
15	0x3f800000	1.0
16	0x3f800000	1.0
17	0x3f800000	1.0
18	0x3f800000	1.0
19	0x3f800000	1.0

transformer_encoder.encoder.attention.layer_norm.bias f4 [20]
0	0x00000000	0.0
1	0x00000000	0.0
2	0x00000000	0.0
3	0x00000000	0.0
4	0x00000000	0.0
5	0x00000000	0.0
6	0x00000000	0.0
7	0x00000000	0.0
8	0x00000000	0.0
9	0x00000000	0.0
10	0x00000000	0.0
11	0x00000000	0.0
12	0x00000000	0.0
13	0x00000000	0.0
14	0x00000000	0.0
15	0x00000000	0.0
16	0x00000000	0.0
17	0x00000000	0.0
18	0x00000000	0.0
19	0x00000000	0.0

transformer_encoder.encoder.feed_forward.fc1.weight f4 [256, 20]
0	0xbe313236	-0.1730431
1	0x3d88dda4	0.066828996
2	0x3e27b942	0.16379264
3	0x3e23ff90	0.16015458
4	0x3b5c2800	0.0033593178
5	0xbcfa6d78	-0.030569777
6	0x3d7cd7e8	0.06172934
7	0xbe124904	-0.14285666
8	0x3dfbcb40	0.12294626
9	0x3db643e0	0.08899665
10	0xbb54e640	-0.0032485873
11	0x3d3e5510	0.04646784
12	0x3e2000fa	0.15625373
13	0x3e208eea	0.15679517
14	0x3e4fc6c2	0.20290664
15	0x3e1c6390	0.15272355
16	0xbca5c498	-0.020235345
17	0x3a814880	0.0009863526
18	0x3e1c40ec	0.1525914
19	0xbd8f6ed6	-0.07003562
20	0xbdde3e5c	-0.10851738
21	0xbd4e32a8	-0.05034128
22	0xbca9c888	-0.020725504
23	0xbe5a9f82	-0.2134991
24	0x3d1420e0	0.036164165
25	0x3df44640	0.119274616
26	0x3e6292e8	0.22126353
27	0x3e1d83aa	0.15382257
28	0xbde1ae00	-0.11019516
29	0x3dae6a74	0.08516398
30	0xbe55488d	-0.20828457
31	0xbd584944	-0.052804247
32	0xbd0e52dc	-0.03474699
33	0x3e0a0650	0.1347897
34	0x3d2325b8	0.039830893
35	0xbe30e105	-0.17273338
36	0x3b5f4e80	0.003407389
37	0xbd3b4b74	-0.045726255
38	0x3e414d9a	0.18877259
39	0x3e21c7f6	0.15798935
40	0xbd820762	-0.063490644
41	0x3e542a18	0.20719182
42	0xbcfe0278	-0.031007037
43	0x3e2e4184	0.1701718
44	0x3e31318a	0.17304054
45	0x3d26c618	0.04071626
46	0x3e31a144	0.17346674
47	0xbe26fcac	-0.16307324
48	0x3d612df8	0.05497548
49	0x3cd62f58	0.026145622
50	0x3dea31d4	0.11435285
51	0x3d6ad7e0	0.05733478
52	0xbd997b2e	-0.07494198
53	0x3d99fdf8	0.07519144
54	0xbe424b6b	-0.18974082
55	0x3dd00c24	0.10158566
56	0xbdb64af2	-0.089010134
57	0x3db20480	0.086922646
58	0xbc2ef9d0	-0.010679677
59	0xbdacfbc0	-0.08446455
60	0xbd814a7a	-0.063130334
61	0x3d452c40	0.048137903
62	0x3d817848	0.0632177
63	0x3e347f5a	0.17626706
64	0x3e330a9a	0.17484513
65	0x3e39e0a4	0.181521
66	0xbe33961c	-0.17537731
67	0xbd3e4a38	-0.0464575
68	0xbbb26380	-0.00544399
69	0xbe060464	-0.13087612
70	0x3e3dea48	0.18546402
71	0x3e0b349a	0.13594285
72	0x3d603698	0.054739565
73	0x3d6a35a0	0.057180047
74	0xbdb0b9ca	-0.086291865
75	0xbe08bee5	-0.1335407
76	0xbce53130	-0.027977556
77	0xbb7d4580	-0.0038646162
78	0xbe08771c	-0.13326687
79	0x3d327e70	0.04357761
80	0x3e1af5ae	0.15132782
81	0x3df85034	0.121246725
82	0xbdddc36b	-0.10828289
83	0xbdef4b43	-0.11684277
84	0x3d7d4008	0.061828643
85	0xbe5d7f95	-0.216307
86	0x3dc4600c	0.09588632
87	0xbd6ef498	-0.05833873
88	0x3e5b68f8	0.21426761
89	0xbdc2faae	-0.095204696
90	0xbdefa6f1	-0.117017634
91	0x3e059f8a	0.1304914
92	0x3e50c70c	0.2038843
93	0xbd629d40	-0.055325747
94	0x3a56f300	0.0008199662
95	0xbce76138	-0.0282446
96	0x3e21a37c	0.1578502
97	0xbe4e2b33	-0.20133667
98	0x3e3b8d78	0.18315685
99	0x3df8b6f0	0.121442676
100	0xbdcbb264	-0.09946135
101	0x3e334e7e	0.17510411
102	0x3d17c1b8	0.03704998
103	0xbdcc3b12	-0.09972204
104	0x3e31ae3c	0.17351621
105	0x3da9ae30	0.08285177
106	0x3e4e81a6	0.20166644
107	0xbe3fee10	-0.18743157
108	0x3d456f08	0.04820159
109	0x3e10a7b8	0.1412648
110	0x3dc73070	0.097260356
111	0xbe03769e	-0.12838218
112	0x3e20b56e	0.1569421
113	0x3d54a038	0.05191061
114	0xb9b69000	-0.00034821033
115	0x3e516762	0.20449594
116	0xbe2dce8c	-0.16973323
117	0xbdff3e36	-0.12463038
118	0x3c5b7af0	0.01339601
119	0xbdaf7f8e	-0.08569251
120	0x3e2a91a4	0.1665712
121	0xbe22f112	-0.15912274
122	0xbe608748	-0.21926606
123	0x3df85388	0.12125307
124	0x3e3a451e	0.18190429
125	0x3c4c2730	0.012460515
126	0xbe3bc8c4	-0.18338305
127	0xbd207734	-0.03917618
128	0x3e550492	0.20802525
129	0x3e426ea8	0.18987525
130	0x3de50380	0.11182308
131	0x3dbd5060	0.09243846
132	0xbd174684	-0.036932483
133	0x3e16d318	0.14728963
134	0xbdad5f08	-0.084653914
135	0x3e494050	0.1965344
136	0x3d2a4108	0.041565925
137	0x3d9a5db8	0.07537407
138	0xbe2d36ac	-0.16915387
139	0xbe20fae4	-0.15720707
140	0x3d8de9a4	0.06929329
141	0x3debded4	0.115171105
142	0xbc99e360	-0.018785179
143	0x3e434ad4	0.19071513
144	0x37dc8000	2.6285648e-05
145	0xbcc2d8f8	-0.0237851
146	0xbe4eaadf	-0.2018237
147	0x3da83c6c	0.082146496
148	0x3e27c0b2	0.16382101
149	0xbcf602a0	-0.030030549
150	0xbe55938d	-0.20857067
151	0x3e221dc6	0.1583167
152	0x3d543900	0.051812172
153	0xbe5456aa	-0.20736185
154	0x3e2d37a2	0.16915753
155	0x3e592708	0.21206295
156	0x3e34405c	0.17602676
157	0xbdfa841b	-0.12232228
158	0x3e5f5940	0.2181139
159	0x3db8a0e0	0.090150595
160	0x3e1b689a	0.15176621
161	0xbe0be142	-0.13660148
162	0xbe1e46fc	-0.15456766
163	0x3d550f40	0.052016497
164	0x3e13f60e	0.14449331
165	0x3e628200	0.22119904
166	0x3e02adc8	0.12761605
167	0xbe455fdb	-0.19274847
168	0x3e57b420	0.21064806
169	0xbe5c2f1e	-0.21502349
170	0xbd6b7e30	-0.05749339
171	0x3dbd7990	0.09251702
172	0xbd0b9770	-0.03407997
173	0xbe4d4922	-0.20047429
174	0xbbb375c0	-0.0054766834
175	0x3d2d1a20	0.042261243
176	0x3d0ae408	0.033908874
177	0x3de75914	0.11296287
178	0x3dd2c2f0	0.102910876
179	0xbe03119c	-0.12799686
180	0xbe63f9fb	-0.22263329
181	0xbca44188	-0.020050779
182	0x3e37a1fc	0.17932886
183	0x3d793bb8	0.060847968
184	0x3ce04190	0.027375013
185	0xbd96c1c0	-0.07361174
186	0x3cf92b80	0.03041625
187	0x3ba68f60	0.0050830096
188	0xbdf981fe	-0.12182997
189	0x3c948398	0.018129155
190	0x3e268ca4	0.16264588
191	0x3d178b68	0.036998183
192	0xbe4b9412	-0.19880703
193	0xbe413644	-0.18868357
194	0x3e39d98c	0.18149394
195	0x3cbbd998	0.022930905
196	0x3e4d3ddc	0.20043129
197	0xbdaf0ce6	-0.08547382
198	0x3e589ddc	0.21153969
199	0xbd88d766	-0.06681709
200	0xbe28552e	-0.16438743
201	0x3dcae108	0.099062026
202	0x3d150560	0.03638208
203	0xbd608a74	-0.05481954
204	0x3e318fae	0.17339966
205	0x3d6165c0	0.055028677
206	0x3b3e7d00	0.0029066205
207	0x3de147d4	0.11000028
208	0x3dc19834	0.094528586
209	0xbc964178	-0.018341765
210	0x3d2723c0	0.04080558
211	0xbd9db2ba	-0.07700105
212	0xbe4c4c93	-0.19951086
213	0xbe142645	-0.14467724
214	0x3e4595d0	0.1929543
215	0xbdcc66fb	-0.099805795
216	0xbdae4542	-0.08509304
217	0x3c205060	0.009784788
218	0x3cbf3320	0.023339808
219	0x3dcf2a88	0.10115534
220	0xbe2a91dc	-0.16657203
221	0x3bce9340	0.0063041747
222	0xbdf4ee56	-0.119595215
223	0x3e0a1df6	0.13487992
224	0x3e536b74	0.20646459
225	0xbe093d98	-0.13402402
226	0xbd1361bc	-0.03598188
227	0x3d82a6bc	0.06379458
228	0xbe2bfb2a	-0.1679503
229	0xbd408c78	-0.04700896
230	0xbe17b3fe	-0.14814755
231	0x3cfe65a0	0.031054318
232	0xbdc01b12	-0.09380163
233	0x3d9d5e2c	0.076839775
234	0xbd8b772c	-0.068098396
235	0x3b93f1a0	0.004514888
236	0xbe0a9e8e	-0.13537046
237	0x3df26a44	0.11836675
238	0xbe3df38a	-0.18549934
239	0x3df36144	0.11883786
240	0x3b54cb00	0.003246963
241	0x3dece7b8	0.11567634
242	0x3c0c36d0	0.00855799
243	0x3e344aa6	0.17606601
244	0xbdf467e8	-0.11933881
245	0x3e02a462	0.1275802
246	0xbd2be760	-0.041968703
247	0xbd10c85c	-0.035347328
248	0xbc89dcf8	-0.016828999
249	0xbd951454	-0.07279268
250	0xbd21c240	-0.03949189
251	0xbdd8e337	-0.10590213
252	0x3c9f6d90	0.019461423
253	0xbe492c47	-0.19645797
254	0x3e3b92a0	0.18317652
255	0xbe4754b1	-0.19465901

transformer_encoder.encoder.feed_forward.fc1.bias f4 [256]
0	0xbe32f4ee	-0.17476246
1	0xbcff3b78	-0.031156287
2	0xbde1b5c5	-0.11020998
3	0x3e3b00fe	0.18262097
4	0xbe078692	-0.13234928
5	0x3d392af0	0.045206964
6	0x3d80eb34	0.062948614
7	0x3df99a5c	0.12187645
8	0x3e47ddc6	0.19518194
9	0x3e019d92	0.12657765
10	0xbe36a226	-0.17835292
11	0x3d916fb8	0.07101387
12	0xbd962e9e	-0.0733311
13	0xbd632770	-0.055457532
14	0x3deaf9c0	0.11473417
15	0x3e153292	0.14570072
16	0xbe5f5f4a	-0.21813694
17	0xbdeebe92	-0.11657442
18	0xbe494be2	-0.19657853
19	0x3e1c591c	0.15268368
20	0xbd84acc4	-0.06478265
21	0x3d95bd38	0.07311481
22	0x3e33740e	0.1752474
23	0xbc562940	-0.013071358
24	0xbdd4406c	-0.1036385
25	0x3dbb1b60	0.09136081
26	0x3e20c44c	0.15699881
27	0x3e27c550	0.16383862
28	0x3e254d82	0.16142848
29	0x3aeca900	0.0018055737
30	0x3e3555e0	0.1770854
31	0xbe2dce6f	-0.1697328
32	0x3e179c50	0.14805722
33	0x3cc15480	0.023599863
34	0x3c785e80	0.015159249
35	0xbe551d37	-0.20811926
36	0x3e074b02	0.13212207
37	0x3d3ff3a0	0.0468632
38	0x3d82b2b0	0.06381738
39	0xbbb62680	-0.005558789
40	0x3e547dda	0.20751134
41	0xbe5f7118	-0.21820486
42	0xbdb52dc4	-0.0884662
43	0xbe258662	-0.16164544
44	0x3df53c80	0.1197443
45	0x3e3a40be	0.1818876
46	0x3de39d8c	0.11114034
47	0xbe3e340d	-0.18574543
48	0x3b9a3d20	0.0047069937
49	0xbd1b6fd4	-0.037948444
50	0x3e5cdf7a	0.21569625
51	0xbd892ace	-0.066976175
52	0x3df45614	0.119304806
53	0x3e243c54	0.16038638
54	0x3d80d618	0.06290835
55	0x3e5f2f20	0.2179532
56	0xbd96d16e	-0.07364164
57	0x3e2016d0	0.15633702
58	0x3e624316	0.22095904
59	0xbdf5d063	-0.12002637
60	0xbe2d9f09	-0.16955198
61	0xbd82f330	-0.063940406
62	0xbbe955a0	-0.007120803
63	0xbe116098	-0.14197004
64	0x3d99f5f0	0.07517612
65	0xbd8853b6	-0.066565916
66	0x3e42d5e6	0.19026908
67	0xbc5bbf00	-0.013412237
68	0x3d2830a8	0.041062027
69	0xbe5a2e30	-0.21306682
70	0xbe48f0ed	-0.19623156
71	0xbe596fe1	-0.21234085
72	0x3de69510	0.112589
73	0xbe21dfe8	-0.1580807
74	0x3ddb0d38	0.10695881
75	0x3df96204	0.12176898
76	0xbe2a4884	-0.16629225
77	0xbdffb6dc	-0.124860495
78	0x3d5bc600	0.053655624
79	0x3db6db98	0.08928603
80	0x3b8ab0c0	0.004232496
81	0x3e367988	0.17819798
82	0x3cfdf1a0	0.030999005
83	0x3dcb573c	0.09928748
84	0x3deaa778	0.114577234
85	0xbb6aa540	-0.0035804063
86	0x3dead3b0	0.114661574
87	0xbe162ac6	-0.14664754
88	0x3e3af7e2	0.18258622
89	0xbe099386	-0.13435182
90	0x3e4c9988	0.19980443
91	0x3d484468	0.048893362
92	0x3e5a7f26	0.21337566
93	0x3bfea980	0.007771671
94	0x3e404b8e	0.18778822
95	0x3e64b64c	0.22335166
96	0xbdb6480e	-0.08900462
97	0x3d48a5a0	0.048986077
98	0xbd9a15f6	-0.0752372
99	0xbe529200	-0.20563507
100	0xbd0f0144	-0.034913316
101	0xbe48dc90	-0.19615388
102	0xbde97c6b	-0.11400684
103	0xbe0846a3	-0.13308196
104	0xbba267a0	-0.0049562007
105	0x3e20bf80	0.15698051
106	0x3c202900	0.0097754
107	0x3d00bf80	0.03143263
108	0x3e05cdbc	0.13066763
109	0xbd4440d8	-0.047913402
110	0xbda3ff44	-0.080076724
111	0x3e42fd50	0.19041944
112	0x3daf2c18	0.08553332
113	0x3e3e7e8c	0.18602961
114	0xbdb174f2	-0.08664884
115	0x3e47ec88	0.19523823
116	0xbbd01840	-0.006350547
117	0x3dcf0074	0.10107508
118	0xbda10940	-0.078630924
119	0xbe3d4974	-0.18485051
120	0xbc8e81b8	-0.01739584
121	0xbe2546d0	-0.16140294
122	0x3e12699e	0.14298102
123	0x3db0ed00	0.08638954
124	0xbbdef480	-0.006804049
125	0x3e1f6844	0.15567118
126	0x3dea1ef4	0.11431685
127	0x3e306a92	0.17228153
128	0x3dfac4e0	0.12244582
129	0x3b6fc980	0.003658861
130	0x3d912c4c	0.07088527
131	0x3e477758	0.1947912
132	0x3e539f1a	0.20666161
133	0xbbfbf700	-0.007689357
134	0x3e1ba130	0.15198207
135	0x3e211f34	0.1573456
136	0x3e3bf13e	0.18353745
137	0xbd091e44	-0.03347613
138	0xbdb59464	-0.08866194
139	0x3e105edc	0.14098686
140	0x3e4be68a	0.19912162
141	0x3e16b168	0.14716113
142	0x3de76274	0.11298075
143	0xbe12972a	-0.14315477
144	0x3e45a88c	0.19302577
145	0x3e5edef4	0.21764737
146	0xbe5a0046	-0.21289167
147	0x3e1e4a14	0.15457946
148	0x3e0e3fbe	0.13891503
149	0x3bf49a20	0.007464662
150	0xbd90bdfe	-0.07067488
151	0xbbc0a2c0	-0.0058787763
152	0xbe62fa71	-0.22165848
153	0x3e3ec690	0.18630433
154	0x3d1e22b8	0.03860733
155	0xbe49dc05	-0.19712837
156	0x3dba879c	0.09107897
157	0x3d4c7830	0.049919307
158	0xbe0927f2	-0.13394144
159	0xbdcc34f3	-0.09971037
160	0x3e57f4fe	0.21089551
161	0x3df0b074	0.11752406
162	0xbe2bfcb6	-0.1679562
163	0x3d986e98	0.07442969
164	0xbe084b60	-0.13310003
165	0xbd558a44	-0.052133814
166	0xbe24f0e8	-0.16107523
167	0x3e2b7532	0.16743925
168	0x3e219e14	0.15782958
169	0x3d024670	0.031805456
170	0xbda7eda2	-0.08199622
171	0x3e2ffc90	0.17186189
172	0xbe142931	-0.14468838
173	0x3e5c7daa	0.21532312
174	0xbde56226	-0.11200361
175	0x3dea5154	0.11441293
176	0x3e4682d2	0.19385841
177	0xbdb351d2	-0.0875584
178	0xbde50cff	-0.111841194
179	0x3e58d67c	0.2117557
180	0x3d210510	0.03931147
181	0xbdb6b9d4	-0.08922163
182	0x3e1d9722	0.15389684
183	0xbe2dad7b	-0.16960709
184	0x3dcf1bd4	0.1011273
185	0x3da72970	0.081622005
186	0xbc7d6920	-0.015466958
187	0xbe242e88	-0.16033375
188	0x3de4a148	0.111635745
189	0xbdd05b18	-0.10173625
190	0x3e619fd6	0.22033629
191	0x3af61000	0.0018773079
192	0xbe333f81	-0.17504694
193	0x3c623980	0.013807654
194	0x3b68b5c0	0.0035508722
195	0xbd9f6c16	-0.07784288
196	0x3e4c4cb4	0.19951135
197	0xbe515582	-0.20442775
198	0x3d9197b8	0.07109016
199	0xbd98c30a	-0.07459076
200	0x3dfe2670	0.12409675
201	0xbe07d135	-0.132634
202	0xbd748af8	-0.059702843
203	0x3e1d5562	0.15364602
204	0x3ba9a4e0	0.0051771253
205	0x3e424730	0.18972468
206	0xbca15a98	-0.019696519
207	0xbe624818	-0.22097814
208	0x3e264976	0.1623896
209	0x3ced5f50	0.028976113
210	0xbdb2bd70	-0.087275386
211	0x3e3efc78	0.18650997
212	0xbe54ce22	-0.20781758
213	0xbd4f69e4	-0.050638095
214	0xbda76022	-0.08172633
215	0xbc9f1238	-0.019417867
216	0x3e04d7a0	0.1297288
217	0xbe4ac7c9	-0.19802774
218	0xbe54769d	-0.20748372
219	0xbe44818c	-0.19190043
220	0x3e6390f2	0.22223261
221	0x3db7892c	0.0896171
222	0x3da7f4c8	0.08200985
223	0xbe430ab8	-0.19047058
224	0xbe645bb6	-0.2230061
225	0xbc39eed0	-0.011348441
226	0x3dfb0fcc	0.122588724
227	0xbe2fe28c	-0.17176265
228	0x3bd82300	0.006595969
229	0x3c433cf0	0.011916384
230	0xbda90064	-0.08252028
231	0xbe2842ce	-0.16431734
232	0xbe23c2ea	-0.15992323
233	0x3d8c19ac	0.06840834
234	0x3cdef070	0.027214259
235	0x3dc661c0	0.09686613
236	0xbd3455b8	-0.04402706
237	0xbe0a06ed	-0.13479204
238	0xbcde1398	-0.027108952
239	0xbe0e1034	-0.13873369
240	0xbdd4c1b9	-0.10388512
241	0xbd715d78	-0.05892703
242	0x3e581314	0.21101028
243	0xbaf8f600	-0.0018994212
244	0xbd48ac58	-0.048992485
245	0x3d089d60	0.03335321
246	0x3e06ecfe	0.13176343
247	0xbe2a131e	-0.16608855
248	0x3db4e0e4	0.08831957
249	0x3e5b71f8	0.21430194
250	0xbe2bd3ac	-0.16779965
251	0xbd53bd1c	-0.05169402
252	0xbe4b164e	-0.19832727
253	0xbdceae66	-0.100918576
254	0x3dc550ac	0.096345276
255	0x3ce13860	0.027492702

transformer_encoder.encoder.feed_forward.fc2.weight f4 [20, 256]
0	0xbcf1c278	-0.029511675
1	0xbd5362f4	-0.05160804
2	0xbd1f5b94	-0.038905695
3	0x3c87cc1c	0.01657682
4	0x3cae568c	0.021281503
5	0xbd130428	-0.035892636
6	0x3d563f4e	0.052306466
7	0xbbcb6990	-0.0062076524
8	0xbcf1362c	-0.029444776
9	0x3c52b2c8	0.012860008
10	0xbd376fdc	-0.04478441
11	0x3c48e788	0.012262233
12	0x3d420510	0.04736811
13	0xbd0aec52	-0.03391678
14	0xbcd063a8	-0.025438145
15	0xbd242dce	-0.040082745
16	0xbce235e4	-0.027613588
17	0xbca57d68	-0.0202014
18	0x3d5f3bee	0.054500513
19	0xbc2436e0	-0.010022849
20	0xbc9c9a7c	-0.019116633
21	0x3d64320c	0.05571179
22	0xbccb7160	-0.024834335
23	0x3c1b8950	0.009493187
24	0x3d585f36	0.052825175
25	0x3cbef770	0.023311347
26	0xbd731c6c	-0.059353277
27	0xbd38bb7a	-0.045100667
28	0x3c2ebfe8	0.010665871
29	0xbbba53e0	-0.005686268
30	0xbd10235a	-0.035189964
31	0x3d0659d2	0.032800503
32	0x3a82e040	0.0009985045
33	0x3be8d8b0	0.0071059093
34	0xbd175966	-0.03695049
35	0xbc9f81c8	-0.019471064
36	0xbd2124cc	-0.039341733
37	0x3d538436	0.051639758
38	0x3c92a71c	0.01790195
39	0xbd5e7f10	-0.054320395
40	0x3d380d94	0.044934824
41	0x3d0d22be	0.03445696
42	0xbd56943a	-0.052387454
43	0xbc51d618	-0.012807392
44	0x3d3509a6	0.044198655
45	0x3d675428	0.056476742
46	0xbd75ef96	-0.06004294
47	0x3d4ad9e6	0.04952421
48	0xbd3b6376	-0.04574915
49	0x3cb5c098	0.022186562
50	0x3c50ca08	0.0127434805
51	0x3baaff70	0.005218439
52	0x3d06e648	0.032934457
53	0xbbc21400	-0.0059227943
54	0xbd1faf9e	-0.03898584
55	0x3d33977a	0.04384563
56	0xbd4f8412	-0.05066306
57	0xbcab71f4	-0.02092836
58	0x3c04d378	0.008107059
59	0x3cf82974	0.030293204
60	0x3c6c3760	0.014417499
61	0xbd7ede7e	-0.062223904
62	0xbcbb3cb8	-0.022856101
63	0xbd604d60	-0.05476129
64	0x3cc86bc4	0.02446545
65	0x39740400	0.00023271143
66	0xbd57ecce	-0.05271607
67	0x3d4186c0	0.04724765
68	0xbd0e1054	-0.03468354
69	0xbc419020	-0.011814147
70	0xbc548028	-0.012970008
71	0x3d23af04	0.03996183
72	0x3c864358	0.016389534
73	0x3c161a20	0.009161502
74	0x3b6d0d20	0.0036171153
75	0xbd74ca52	-0.05976326
76	0xbd1545d0	-0.03644353
77	0xbbdab330	-0.006674193
78	0xbc9b64e8	-0.018969014
79	0x3d45a488	0.048252612
80	0xbce943e8	-0.028474763
81	0x3d4e01a4	0.050294533
82	0xbd63ecc4	-0.05564572
83	0xbb48aec0	-0.0030621737
84	0x3c892094	0.016739167
85	0xbcef405c	-0.029205494
86	0x3cbebfcc	0.023284815
87	0xbd2b86c4	-0.04187657
88	0x3c6616d0	0.014043525
89	0xbbfdb770	-0.0077428147
90	0xbd3b0590	-0.0456596
91	0x3cf574b4	0.029962875
92	0x3b5bdc00	0.0033547878
93	0xba3c7c00	-0.00071901083
94	0xbd14f3a4	-0.036365166
95	0xbd2ea97e	-0.04264211
96	0x3ca78ad4	0.02045194
97	0x3ca83998	0.020535275
98	0x3b4154c0	0.0029499978
99	0xbc11f290	-0.008907929
100	0x3d120360	0.03564775
101	0xbcfc10e0	-0.030769765
102	0xbc1e2110	-0.009651437
103	0x3d23f99e	0.040032975
104	0xba87e140	-0.0010366812
105	0x3d632a86	0.055460475
106	0xbcedc51c	-0.029024653
107	0x3c1836f0	0.009290442
108	0x3ca0f864	0.019649692
109	0xbc87d38c	-0.016580366
110	0xbc80eff4	-0.015739419
111	0x3d204eae	0.039137535
112	0xbd1f1af4	-0.038844064
113	0x3ae98800	0.001781702
114	0xbd765e90	-0.060148776
115	0x3d2e1550	0.042500794
116	0xbd3132b4	-0.043261245
117	0x3d51cc20	0.05122006
118	0x3d3c50ec	0.04597561
119	0xbd535c46	-0.05160167
120	0xba1ec000	-0.0006055832
121	0xbce47d70	-0.027891845
122	0xbd7a81d2	-0.061158963
123	0xbd576608	-0.05258754
124	0x3c9c3cb0	0.019071907
125	0x3d5260e8	0.05136195
126	0x3cd4d4f0	0.025980443
127	0xbc6e3388	-0.014538653
128	0x3d499b40	0.049220324
129	0xbd7ff192	-0.06248624
130	0x3d549edc	0.051909313
131	0xbcfaf974	-0.030636527
132	0x3c16a5a0	0.0091947615
133	0xbcf8ff04	-0.030395038
134	0x3c922da8	0.017844036
135	0x3d29a418	0.041416258
136	0xbd4b012c	-0.049561664
137	0x39e04300	0.00042774528
138	0xbd2b9ab8	-0.0418956
139	0xbbef9b60	-0.0073122233
140	0x3b44e320	0.0030042604
141	0xbd60eaf2	-0.05491156
142	0x3c0eead0	0.008722976
143	0xbd03a0ec	-0.03213589
144	0x3d0975ca	0.033559598
145	0xbab66c80	-0.0013917834
146	0x3d2d10e2	0.04225243
147	0x3d24a68a	0.040197887
148	0xbd2edad0	-0.042689145
149	0xbd4158b2	-0.047203727
150	0x3d60d536	0.054890834
151	0xbd5a6724	-0.05332102
152	0xbd13a472	-0.0360455
153	0xbd12d9e6	-0.035852335
154	0xbca93960	-0.020657241
155	0xbbf5a8f0	-0.0074969456
156	0x3d73bb80	0.059504986
157	0x3d01bfee	0.03167718
158	0x3d402f46	0.046920083
159	0x3bb07e20	0.005386129
160	0xbca23e0c	-0.019804977
161	0xbd55c5d2	-0.05219061
162	0x3c7aad40	0.015300095
163	0xbc95de24	-0.018294401
164	0x3d6e8952	0.058236428
165	0xbc772648	-0.015084811
166	0x3d33b1e6	0.04387083
167	0x39e38100	0.00043392926
168	0xbd5e8ef4	-0.05433555
169	0xbd402868	-0.046913534
170	0x3d1159e0	0.035486102
171	0x3cd19f1c	0.025588565
172	0x3c5faa48	0.013651438
173	0x3c43a140	0.0119403
174	0x3d10e42e	0.03537386
175	0xbd0ec018	-0.034851164
176	0x3c12deb8	0.008964233
177	0xbd75d9ba	-0.060022093
178	0x3d5536fa	0.052054383
179	0x3d589f9a	0.052886583
180	0x3d40ab60	0.047038436
181	0x3d66215e	0.056184165
182	0x3c6fa820	0.0146274865
183	0xbcdca3e4	-0.026933618
184	0xbd5e1d38	-0.054227084
185	0xbd0bd356	-0.034137093
186	0x3d35d98a	0.044396915
187	0xbd58bc02	-0.052913673
188	0xbc0eadc8	-0.008708425
189	0xbd1fcfca	-0.039016522
190	0xbcef15ec	-0.029185258
191	0xbcf33234	-0.029687025
192	0xbcd2f370	-0.025750846
193	0xbccc7228	-0.024956778
194	0xbd43ab8e	-0.04777103
195	0x3d1a3984	0.037652507
196	0xbd5a4650	-0.05328971
197	0xbd2ddb5a	-0.042445518
198	0x3d694eea	0.056960024
199	0x3d4b7c60	0.04967916
200	0xbd50fa70	-0.051020086
201	0xbcdb29f0	-0.026753396
202	0x3d6c00fa	0.05761812
203	0x38d79000	0.00010278821
204	0xbd271b60	-0.04079759
205	0x3c044ef0	0.008075461
206	0xbd1adee4	-0.03781022
207	0xbd6ab462	-0.057300933
208	0x3c8dff30	0.017333597
209	0x3d1daca6	0.03849473
210	0x3d3aa318	0.045565695
211	0xbd5e5878	-0.05428359
212	0xbc8c599c	-0.017132573
213	0xbcd4c194	-0.025971211
214	0x3cbd8b60	0.023137748
215	0x3d299a0e	0.041406684
216	0xbcdc3edc	-0.026885442
217	0x3d502ce0	0.050824046
218	0xbcd4042c	-0.025880896
219	0xbd605124	-0.05476488
220	0x3d5d2b42	0.053996332
221	0xbd6514b2	-0.05592794
222	0x3d0c472e	0.03424757
223	0xbd00bad2	-0.031428166
224	0x3d03a06a	0.032135405
225	0x3cce1200	0.025155067
226	0xbc8ee358	-0.01744239
227	0x3d6dfcde	0.05810248
228	0xbd4bf7be	-0.049796812
229	0x3d166788	0.03671983
230	0x3d05a1f6	0.03262516
231	0xbd774b1e	-0.06037437
232	0xbd381bb0	-0.04494828
233	0xbd1a8e80	-0.037733555
234	0x3cc3d344	0.02390445
235	0xbd65a842	-0.056068666
236	0x3d77edfa	0.060529687
237	0x3c97f16c	0.018547736
238	0xbd1b63d2	-0.037936993
239	0xbc0526b0	-0.0081269
240	0xbd4be768	-0.049781233
241	0xbd430ea2	-0.047621377
242	0xbb314540	-0.0027049333
243	0x3d60a810	0.054847777
244	0x3d44a928	0.048012882
245	0x3ce7941c	0.028268866
246	0xbd6eca7e	-0.05829858
247	0xbd3b8eac	-0.04579036
248	0x3c6d9788	0.01450146
249	0xbd16c512	-0.036809035
250	0xbd723e0e	-0.05914121
251	0x3d5bd1b4	0.053666785
252	0xbacc8cc0	-0.0015605912
253	0x3d0ebc6a	0.034847654
254	0x3be701c0	0.007049769
255	0xbbd0fc80	-0.0063777566
