simple2transformer/param/net_param/Mk06_100_50_actor_net.model (torch, 111487 bytes, 34 tensors)

transformer_encoder.encoder.attention.fc_Q.weight f4 [20, 20]
0	0x3e07719e	0.13226935
1	0x3e324a6e	0.17411205
2	0x3de6624c	0.112492174
3	0xbdde7ca9	-0.10863621
4	0x3df33b70	0.11876571
5	0xbd0bf2c0	-0.03416705
6	0x3e289968	0.1646477
7	0xbe4fadcb	-0.2028114
8	0xbe17974c	-0.14803809
9	0xbdcaf38e	-0.099097356
10	0xbe5848f8	-0.21121585
11	0x3d06ef20	0.03294289
12	0x3dec03ec	0.115241855
13	0xbe2c25ec	-0.16811341
14	0xbd820f8a	-0.0635062
15	0xbd94370e	-0.07237063
16	0xbcdc7088	-0.026909128
17	0xbe20f335	-0.15717776
18	0x3e186e70	0.14885879
19	0x3e203b46	0.15647611
20	0x3e1f1442	0.15535071
21	0x3de78060	0.113037825
22	0xbdc120e4	-0.094301015
23	0x3debb4b4	0.11509076
24	0x3da021a0	0.078189135
25	0x3d5a3318	0.053271383
26	0xbe4f2c8e	-0.2023184
27	0x3e2cce78	0.16875637
28	0x3e48daf0	0.19614768
29	0xbd2b02f0	-0.04175085
30	0xbd73273c	-0.05936359
31	0xbe4cdd28	-0.2000624
32	0xbd917584	-0.071024925
33	0xbbfc8700	-0.007706523
34	0xbb013540	-0.0019715577
35	0xbe573b4b	-0.21018712
36	0x3e43ca7c	0.1912021
37	0x3d9cc2e4	0.0765436
38	0xbcc4fe88	-0.024047151
39	0xbe45193d	-0.19247909
40	0xbdde520d	-0.10855494
41	0x3c34ad50	0.011027649
42	0x3d77a338	0.060458392
43	0xbe0fd5b2	-0.14046362
44	0x3c073bf0	0.008254036
45	0x3e155a5a	0.14585248
46	0xbb1926c0	-0.0023369044
47	0xbd13564c	-0.03597097
48	0x3db35920	0.087572336
49	0x3d15c380	0.036563396
50	0xbe40984b	-0.18808095
51	0xbdd627a2	-0.10456778
52	0x3e0ec13c	0.139409
53	0xbce5fa50	-0.02807346
54	0x3cd54348	0.026033059
55	0xbe292716	-0.16518816
56	0x3e0fdd7e	0.14049336
57	0x3e151d72	0.14562014
58	0xbe24a114	-0.16077071
59	0x3e293e02	0.1652756
60	0xbe498c3f	-0.19682406
61	0xbe3524ac	-0.1768977
62	0x3d5360e0	0.05160606
63	0xbdcc045f	-0.09961771
64	0x3d65a800	0.05606842
65	0x3c9a7888	0.018856302
66	0xbe39231a	-0.18079796
67	0x3e162e4c	0.14666098
68	0x3e06356c	0.13106316
69	0x3e2a067c	0.16604036
70	0x3e0362f8	0.12830722
71	0x3dfae2f4	0.12250319
72	0xbe4b742e	-0.19868538
73	0xbe062e91	-0.13103701
74	0x3e2ec9ea	0.17069212
75	0x3e42373a	0.1896638
76	0x3daf0988	0.0854674
77	0xbd709da4	-0.058744088
78	0x3cf6fbe0	0.0301494
79	0x3e51a0e6	0.20471534
80	0xbe4faa89	-0.20279898
81	0x3d01c198	0.031678766
82	0xbcd29578	-0.025706038
83	0xbc9eaab8	-0.019368514
84	0xbe5325e0	-0.20619917
85	0xbd59ae6c	-0.053144857
86	0xbe16556f	-0.14681028
87	0xbd04b868	-0.032402426
88	0x3dd090a4	0.10183838
89	0x3e0fdaf0	0.14048362
90	0x3cb74b70	0.022374839
91	0xba58fd00	-0.0008277446
92	0xbdfcaaeb	-0.123372875
93	0xbe327f56	-0.17431387
94	0x3e088318	0.13331258
95	0xbe555c8f	-0.2083609
96	0xbe3d62fe	-0.18494794
97	0xbe5fabcf	-0.21842884
98	0xbd24ec3c	-0.040264353
99	0x3be530a0	0.006994322
100	0x3dc7f8f0	0.09764278
101	0xbd4c01c0	-0.049806356
102	0x3af48200	0.0018654466
103	0x3d9862e8	0.0744074
104	0xbd051074	-0.032486394
105	0xbe5c61ec	-0.21521729
106	0xbe634f9a	-0.22198334
107	0xbe2132bc	-0.1574201
108	0x3dabd838	0.0839085
109	0x3e553ab8	0.2082318
110	0x3c8601f8	0.01635836
111	0x3e52b336	0.20576176
112	0xbe13ec4b	-0.14445607
113	0x3e26aac2	0.16276076
114	0xbe1c3a77	-0.15256678
115	0x3dd16678	0.102246225
116	0x3d513818	0.051078886
117	0x3d2327c8	0.03983286
118	0xbd10cbe8	-0.03535071
119	0xbd3c7450	-0.04600936
120	0xbc8658f8	-0.016399845
121	0x3e38a702	0.18032458
122	0x3e049d0c	0.12950534
123	0xbddd681e	-0.108108744
124	0x3e41736a	0.18891683
125	0xbdd35b3e	-0.103201374
126	0x3e1bf902	0.15231708
127	0x3d0fcad0	0.035105526
128	0x3dd8bf94	0.10583416
129	0xbe0814fb	-0.13289253
130	0x3d1d0878	0.038338155
131	0xbdca7b08	-0.098867476
132	0x3dbbeed0	0.09176409
133	0xbe4e8339	-0.20167245
134	0xbdbe251e	-0.09284423
135	0x3d8fb330	0.07016599
136	0xbd03e350	-0.032199204
137	0xbe3184aa	-0.17335764
138	0x3e490f7a	0.1963481
139	0x3d533fe8	0.051574618
140	0x3e3b135e	0.18269107
141	0x3e28c54e	0.16481516
142	0x3e157e4c	0.1459896
143	0x3dae123c	0.08499572
144	0xbe1acbce	-0.15116808
145	0xbe079c14	-0.13243133
146	0xbe52af2e	-0.20574638
147	0x3d78b400	0.060718536
148	0xbdca5701	-0.09879876
149	0xbd8bdfee	-0.068298206
150	0xbe32366e	-0.17403576
151	0xbe37fe70	-0.17968154
152	0x3e0c8bee	0.13725254
153	0x3dfe34ec	0.12412438
154	0xbe485bb2	-0.19566229
155	0xbd7d5248	-0.061846048
156	0xbded2f52	-0.11581291
157	0xbe2b25cf	-0.16713642
158	0xbde287ef	-0.110610835
159	0x3d337dd8	0.043821186
160	0x3e3db46e	0.1852586
161	0xbb40df00	-0.0029429793
162	0x3b8c9780	0.004290521
163	0xbd5eab14	-0.05436237
164	0x3e23b87a	0.15988341
165	0xbe319a18	-0.17343938
166	0x3e29c21c	0.16577953
167	0xbe129422	-0.1431432
168	0xbde206c2	-0.11036445
169	0xbe53a12c	-0.20666951
170	0x3e4a04ce	0.19728395
171	0xbe4fd672	-0.20296648
172	0x3e4cfa58	0.20017374
173	0xbdb7ce4a	-0.089748934
174	0x3e0ee368	0.13953936
175	0x3df499b8	0.11943382
176	0x3dddc894	0.10829273
177	0xbddd20be	-0.10797261
178	0xbda4ff52	-0.08056511
179	0xbe2533bd	-0.16133018
180	0xbe3dd638	-0.18538749
181	0x3e45c1a2	0.19312146
182	0x3d1fdbd0	0.03902799
183	0xbd678690	-0.056524813
184	0xbe64f882	-0.22360423
185	0xbddc6ddc	-0.107631415
186	0xbe307ff8	-0.17236316
187	0x3e094f38	0.13409126
188	0xbdf2c114	-0.11853233
189	0xbbb989a0	-0.005662158
190	0x3e2aea58	0.16690958
191	0x3e4486a8	0.19191992
192	0x3cccaae0	0.024983823
193	0xbe4fd282	-0.20295146
194	0xbdf9f7e4	-0.122054845
195	0xbe2d5ca3	-0.1692987
196	0x3e5e85ea	0.21730772
197	0x3dc1f034	0.09469643
198	0xbe5abfd4	-0.21362239
199	0x3e5332f4	0.20624906
200	0xbe32d2c3	-0.17463212
201	0x3e03d960	0.1287589
202	0xbc73b650	-0.01487501
203	0x3d059d98	0.032620996
204	0x3e4f54d0	0.20247197
205	0xbe0f96f9	-0.14022435
206	0x3e5a27d6	0.21304259
207	0xbe2dcd5a	-0.16972867
208	0xbd866a46	-0.06563239
209	0x3d6cb6d0	0.05779153
210	0xbdcfd0af	-0.10147225
211	0xbdbfffee	-0.093749866
212	0xbe322633	-0.17397384
213	0x3e4d72e4	0.20063359
214	0xbdd84393	-0.10559764
215	0xbcfe48d0	-0.03104058
216	0xbe55b491	-0.20869662
217	0x3d6d3ce0	0.057919383
218	0x3d335d40	0.043790102
219	0xbd22c5c4	-0.039739385
220	0x3d1cbe18	0.038267225
221	0x3e0c4750	0.13699079
222	0xbdc81b62	-0.09770848
223	0x3d563328	0.05229488
224	0x3dd2c65c	0.1029174
225	0xbdb7eab0	-0.0898031
226	0xbd621310	-0.05519396
227	0x3d2d3680	0.042288303
228	0x3e0db5b2	0.13838843
229	0x3b9cb9c0	0.0047828853
230	0xbe535e02	-0.2064133
231	0xbe5caf03	-0.21551137
232	0x3dc0ea88	0.09419733
233	0xbe4643a9	-0.19361748
234	0x3d37e4c0	0.044895887
235	0x3dc11e18	0.09429568
236	0x3e00c61e	0.12575576
237	0x3d148988	0.036263973
238	0xb9f1f400	-0.00046148896
239	0x3dab4728	0.08363181
240	0xbe21d47a	-0.1580371
241	0xbdd964de	-0.10614942
242	0xbd4a52b0	-0.049395263
243	0xbbb79080	-0.0056019425
244	0x3e376ed0	0.17913365
245	0x3e0f4a70	0.1399324
246	0xbe2e5b20	-0.17026949
247	0xbd8aec74	-0.06783381
248	0x3c4c6970	0.01247631
249	0x3da54258	0.08069295
250	0x3e34d1fe	0.1765823
251	0x3e615948	0.22006714
252	0x3cde1110	0.027107745
253	0x3db01bf4	0.08599082
254	0xbdda6c3c	-0.10665175
255	0x3e152c5a	0.145677

transformer_encoder.encoder.attention.fc_Q.bias f4 [20]
0	0x3dcece0c	0.10097894
1	0x3db5208c	0.088440984
2	0xbe488f02	-0.19585803
3	0x3c8e7a88	0.017392412
4	0x3e0db1a8	0.13837302
5	0x3ddca54c	0.107737154
6	0xbda2e484	-0.07953742
7	0xbddf33d3	-0.108985566
8	0xbd910036	-0.07080118
9	0x3d24e2d8	0.040255398
10	0xbd9e2cc6	-0.077233836
11	0x3d33b908	0.04387763
12	0x3da5e0b4	0.08099499
13	0x3dda672c	0.1066421
14	0xbcb30aa8	-0.021855667
15	0x3cfbe4c0	0.030748725
16	0x3d692100	0.056916237
17	0x3d7c55b0	0.061605155
18	0xbe25cde8	-0.16191828
19	0x3e4fc9b2	0.20291784

transformer_encoder.encoder.attention.fc_K.weight f4 [20, 20]
0	0x3d87c2c8	0.066289485
1	0x3d9dccb8	0.07705063
2	0xbe0e1505	-0.13875206
3	0xbdfc29ff	-0.123126976
4	0xbe3b68ec	-0.18301743
5	0x3c5910c0	0.013248622
6	0xbdfc49d9	-0.12318773
7	0x3ddf6cec	0.10909447
8	0xbd9cf4f4	-0.076639086
9	0x3e53bb74	0.20676976
10	0xbe11cb4e	-0.14237711
11	0x3d4e5e68	0.050383
12	0xbe5ba651	-0.21450163
13	0x3e4c92ce	0.19977877
14	0x3e16a03e	0.14709565
15	0x3d2e8660	0.04260862
16	0x3e29b694	0.16573554
17	0x3da64588	0.08118731
18	0xbced1688	-0.028941408
19	0xbe3f02c4	-0.18653399
20	0x3d329df8	0.043607682
21	0xbd2c9b88	-0.042140514
22	0xbe473912	-0.19455364
23	0xbd4a8834	-0.0494463
24	0x3e198d34	0.14995271
25	0xbe37d34d	-0.17951699
26	0xbe1a0dce	-0.15044329
27	0xbdf6f42b	-0.1205829
28	0xbc136500	-0.008996248
29	0xbdc8be9a	-0.09801979
30	0xbd999c22	-0.07500483
31	0x3dae03a4	0.08496788
32	0xbd577090	-0.052597582
33	0x3d533940	0.05156827
34	0x3e4fe698	0.20302808
35	0xbe1eadf4	-0.15496045
36	0x3e2da844	0.1695872
37	0x3e31556c	0.17317742
38	0x3d8c7b58	0.068594635
39	0xbdaf4aae	-0.08559166
40	0xbd31eac8	-0.043436795
41	0xbe2951ef	-0.16535161
42	0xbd945432	-0.072426215
43	0x3da24884	0.079239875
44	0x3e17c460	0.14821005
45	0x3d91b020	0.07113671
46	0xbe2e6a09	-0.17032637
47	0x3d0c4ae0	0.034251094
48	0xbd183884	-0.037163273
49	0x3e331bd4	0.17491084
50	0x3e005bf6	0.1253508
51	0x3d1b1420	0.03786099
52	0x3e1f78b2	0.15573385
53	0x3e0b24fe	0.1358833
54	0xbdac716e	-0.084200725
55	0x3e55a2c2	0.20862868
56	0xbe32369f	-0.17403649
57	0xbcd3fc30	-0.025877088
58	0xbd69ffd0	-0.057128727
59	0x3d3883c8	0.04504755
60	0xbcc95608	-0.024577156
61	0x3e15713a	0.14593974
62	0x3e503460	0.2033248
63	0xbe36d991	-0.17856432
64	0x3e12d044	0.1433726
65	0x3cd15398	0.025552556
66	0x3e1dca78	0.15409267
67	0xbdc065ec	-0.0939444
68	0x3e106e5e	0.14104602
69	0x3dc7c0a0	0.09753537
70	0x3e0b9b32	0.13633421
71	0xbe1cbc74	-0.15306264
72	0x3e23a4fc	0.15980905
73	0xbe2770d8	-0.1635164
74	0xbd9093f2	-0.07059468
75	0x3e61dbfa	0.2205657
76	0x3e36a114	0.17834884
77	0xbe13b9c8	-0.14426339
78	0xbdc202ac	-0.09473166
79	0x3e64c1da	0.22339574
80	0x3e329c82	0.17442515
81	0x3c6daf30	0.0145071
82	0xbdf35caf	-0.11882912
83	0x3bfdfbe0	0.007750973
84	0xba89e280	-0.0010519773
85	0x3e3f5d9e	0.18688056
86	0x3ccce888	0.025013223
87	0xbe2118e6	-0.15732154
88	0x3e3f22f4	0.18665677
89	0x3a3aee00	0.00071308017
90	0xbe0974ee	-0.13423511
91	0xbe0c07ca	-0.13674846
92	0xbdaa2f2c	-0.083097786
93	0x3d6e7388	0.058215648
94	0x3dd58bac	0.10427031
95	0xbe3e40bc	-0.18579382
96	0x3dfc68a4	0.12324646
97	0xbd86f884	-0.06590369
98	0x3e07111a	0.13190117
99	0xbe476123	-0.19470648
100	0xbe147dc5	-0.14501102
101	0xbd36acbc	-0.044598326
102	0x3d751a18	0.059839338
103	0xbe584dbe	-0.21123406
104	0xbe6271ce	-0.22113726
105	0xbe1b1553	-0.15144853
106	0xbe012b68	-0.12614214
107	0x3e53738c	0.20649546
108	0x3c80c060	0.015716732
109	0xbe0269d8	-0.12735689
110	0xbd8c8100	-0.06860542
111	0xbdb372ca	-0.08762129
112	0xbdd5c766	-0.10438423
113	0x3d970b60	0.073752165
114	0xbe38abed	-0.18034334
115	0xbdf4bd8c	-0.11950216
116	0xbdbba1ea	-0.09161742
117	0xbda6f5a8	-0.08152324
118	0x3ae0af80	0.0017142147
119	0xbe5bc0bd	-0.21460243
120	0x3e4051ce	0.18781206
121	0xbd215fa8	-0.039397866
122	0x3dbb8494	0.09156147
123	0xbda69bd6	-0.08135192
124	0xbe611c46	-0.21983442
125	0x3e519916	0.20468554
126	0x3de4ace4	0.11165789
127	0xbe3f5e20	-0.1868825
128	0x3ddd8414	0.108162075
129	0xbda38926	-0.07985143
130	0xbe114242	-0.14185432
131	0xbda418da	-0.080125526
132	0x3e368e98	0.17827833
133	0xbe04e226	-0.12976894
134	0xbda946bc	-0.08265445
135	0xbc975f20	-0.018477976
136	0xbe4e8da6	-0.20171222
137	0x3d776b98	0.060405344
138	0x3e5b707a	0.21429625
139	0xbe2a48a0	-0.16629267
140	0x3de8b400	0.11362457
141	0xbd98f548	-0.07468659
142	0x3e62abb8	0.22135818
143	0x3dccd638	0.100017965
144	0xbdee18f3	-0.116258524
145	0xbd988bcc	-0.07448539
146	0x3dbb8cc4	0.09157708
147	0x3e0a412a	0.1350142
148	0x3dbed050	0.09317076
149	0x3e2b256c	0.16713494
150	0xbe17db05	-0.14829643
151	0xbdb427b2	-0.08796634
152	0x38ea9000	0.000111848116
153	0xbdba1670	-0.09086311
154	0xbb051e80	-0.002031237
155	0x3d67dd48	0.056607515
156	0x3e255372	0.16145113
157	0xbd08d338	-0.03340456
158	0xbe5717a2	-0.21005109
159	0xbe41ea5c	-0.18937057
160	0xbe1711bf	-0.14752863
161	0x3e0ab126	0.1354414
162	0xbdadeae4	-0.084920675
163	0xbe12abcf	-0.14323352
164	0xbe349558	-0.17635095
165	0x3dedc950	0.11610663
166	0xbc4c19c0	-0.012457311
167	0x3d86fc30	0.0659107
168	0x3e36a064	0.17834622
169	0x3e535f86	0.20641908
170	0x3e1bb9ba	0.15207568
171	0xbe092bee	-0.13395664
172	0x3e628bd0	0.22123647
173	0xbe60207c	-0.21887392
174	0x3e146414	0.14491302
175	0xbe5fe6d2	-0.21865395
176	0x3e3410d8	0.1758455
177	0x3c0a6860	0.0084477365
178	0xbc7abd60	-0.01530394
179	0x3de42c4c	0.111412615
180	0xbe2228f2	-0.15835932
181	0xbdccdc6e	-0.10002981
182	0xbe27b2d6	-0.16376814
183	0xbe3f9214	-0.18708068
184	0xbd5571c4	-0.05211045
185	0x3de4f218	0.11178988
186	0xbe00cb06	-0.12577447
187	0x3e558ba2	0.20854047
188	0x3e1ba538	0.15199745
189	0x3da690b0	0.08133066
190	0xbe6388ba	-0.22220126
191	0x3ce29200	0.027657509
192	0x3e48b944	0.19601923
193	0xbd8228e8	-0.063554585
194	0xbe29ea82	-0.16593364
195	0xbdccb0a9	-0.09994633
196	0x3d698ca0	0.057018876
197	0xbd9f6af8	-0.077840745
198	0x3e3a95b6	0.18221173
199	0xbe3c18da	-0.18368855
200	0x3debb204	0.11508563
201	0x3e47097e	0.19437215
202	0xbe56b4b4	-0.2096737
203	0xbceea950	-0.029133469
204	0xbd9b059c	-0.07569429
205	0x3db0709c	0.086152285
206	0x3dbb338c	0.09140691
207	0xbe57c1dd	-0.21070047
208	0x3d7191d8	0.058976978
209	0x3e34ec3c	0.17668241
210	0xbe61b066	-0.22039947
211	0xbe4a2422	-0.19740346
212	0x3e539b98	0.20664823
213	0x3dca5710	0.09879887
214	0x3d258050	0.04040557
215	0xbd00b0a8	-0.031418473
216	0x3db937bc	0.090438336
217	0xbe4bd3c5	-0.19905002
218	0x3da0dc34	0.078545004
219	0x3bb2a560	0.005451843
220	0xbe031b78	-0.12803447
221	0xbe416b2c	-0.18888539
222	0xbe4f696f	-0.20255063
223	0x3c55f170	0.0130580515
224	0xbdfad910	-0.12248433
225	0xbe373f18	-0.17895162
226	0xbe04a083	-0.12951855
227	0xbe1c96f6	-0.15291962
228	0xbe2987c2	-0.16555694
229	0x3daff038	0.0859074
230	0x3c85b240	0.016320348
231	0x3cf76560	0.030199707
232	0xba9ea800	-0.0012104511
233	0x3cea8220	0.028626502
234	0xbd37f2d8	-0.04490933
235	0xbd385b74	-0.04500909
236	0x3e4afa1e	0.19821975
237	0x3e09018e	0.133795
238	0xbd0fb890	-0.035088122
239	0x3e166350	0.14686322
240	0x3e402fc2	0.18768218
241	0x3ca3b418	0.019983336
242	0x3d059550	0.0326131
243	0x3d549a70	0.051905096
244	0xbe5357ea	-0.20639005
245	0x3db24b78	0.08705801
246	0xbd95224a	-0.07281931
247	0xbe5f61fc	-0.21814722
248	0xbddccb65	-0.10780982
249	0xbe30638a	-0.17225471
250	0xbe2d085a	-0.16897717
251	0x3dd2d314	0.10294166
252	0xbda128a8	-0.07869083
253	0xbe2dc08c	-0.16967982
254	0x3d49dbf0	0.049282014
255	0x3e424476	0.18971428

transformer_encoder.encoder.attention.fc_K.bias f4 [20]
0	0x3e1536e6	0.14571723
1	0xbc3e7f70	-0.011627063
2	0xbd98aa72	-0.07454385
3	0xbe18674c	-0.14883155
4	0x3e4a3d50	0.19749951
5	0x3e020424	0.12696892
6	0x3ded2ba0	0.115805864
7	0xbe425565	-0.18977888
8	0x3d4990b8	0.04921028
9	0xbe1beab5	-0.15226252
10	0x3d021978	0.03176257
11	0xbe524c3e	-0.20536897
12	0x3e34159e	0.17586371
13	0x3d4836f8	0.048880547
14	0x3e4e9782	0.20174983
15	0xbdffc75a	-0.12489195
16	0xbd93d606	-0.07218556
17	0xbdf7e001	-0.12103272
18	0xbcf28e88	-0.02960898
19	0x3e56e8b0	0.209872

transformer_encoder.encoder.attention.fc_V.weight f4 [20, 20]
0	0x3d2f0600	0.04273033
1	0x3e1b0e48	0.15142167
2	0xbe3e6a12	-0.1859515
3	0xbe4ae47e	-0.19813725
4	0xbd1cdf64	-0.03829898
5	0x3e3de8b4	0.185458
6	0xbd18fe0c	-0.037351653
7	0x3c369630	0.011144206
8	0xbe191562	-0.14949563
9	0xbda6f3a8	-0.081519425
10	0x3e33f400	0.17573547
11	0xbd6f784c	-0.058464333
12	0xbe380b39	-0.17973031
13	0xbe0178ca	-0.12643734
14	0x39ad7e00	0.0003309101
15	0x3e5bdf9a	0.21472016
16	0x3e0283d0	0.12745595
17	0x3d328338	0.04358217
18	0xbe1de917	-0.15420948
19	0x3e37738a	0.17915168
20	0x3c5f6a10	0.013636127
21	0xbdff7e29	-0.12475235
22	0xbe552193	-0.20813589
23	0x3e00efbc	0.12591451
24	0xbe3f5e40	-0.18688297
25	0xbe5fc558	-0.21852624
26	0xbe421480	-0.18953133
27	0x3d281908	0.041039497
28	0x3d780388	0.060550243
29	0xbde242a5	-0.11047868
30	0x3d96a7e8	0.07356244
31	0x3e07f560	0.13277197
32	0xbe4ec4a6	-0.20192203
33	0xbd86d2de	-0.065831885
34	0x3e4f26c4	0.20229632
35	0x3e497a98	0.19675672
36	0xbdd3f7e8	-0.10350019
37	0xbdec38cf	-0.11534273
38	0xbd1092e4	-0.035296336
39	0x3e4ad270	0.19806838
40	0xbdaec5b2	-0.08533801
41	0x3e35d5d0	0.17757344
42	0x3deba09c	0.11505243
43	0x3de9d4bc	0.11417529
44	0xbe4d3b8e	-0.2004225
45	0xbd87216c	-0.065981716
46	0x3dfccaec	0.12343392
47	0xbddfe549	-0.109324045
48	0xbd9354c0	-0.07193899
49	0xbd4fc07c	-0.050720677
50	0xbca8ef38	-0.02062188
51	0x3db35918	0.08757228
52	0xbe4b1652	-0.19832733
53	0x3de97f78	0.11401266
54	0xbdd0ffc4	-0.102050334
55	0xbd52f57c	-0.051503643
56	0x3b80b200	0.0039274693
57	0x3e016a9a	0.12638322
58	0xbe3be9c6	-0.18350896
59	0x3de0afc0	0.10971022
60	0x3e069490	0.1314261
61	0x3e1d4a50	0.15360379
62	0x3d7c48b8	0.061592788
63	0x3dd86a24	0.1056712
64	0xbe11fcd4	-0.14256603
65	0x3d028760	0.031867385
66	0xbd15fcc8	-0.036618024
67	0x3db6c418	0.08924121
68	0xbdd026e9	-0.101636715
69	0xbd5b8dd4	-0.053602055
70	0x3da92f6c	0.08260998
71	0x3db87fdc	0.09008762
72	0xbe0aab67	-0.13541947
73	0xbe32d219	-0.17462958
74	0x3c4ed800	0.012624741
75	0x3de920fc	0.113832444
76	0x3d8dff04	0.06933406
77	0x3dfa119c	0.1221039
78	0xbd58f288	-0.05296567
79	0xbe36f77a	-0.17867842
80	0x3d93d1c0	0.07217741
81	0x3e09bd7c	0.13451189
82	0x3e10e216	0.14148745
83	0x3d4e6ab0	0.050394714
84	0xbca8dc10	-0.020612746
85	0xbda57466	-0.08078842
86	0xbe266804	-0.16250616
87	0x3e3a7d1e	0.18211791
88	0xbcf413f8	-0.029794678
89	0xbe22f578	-0.15913951
90	0x3e5b57fc	0.21420282
91	0x3e2f8010	0.17138696
92	0x3d0a48f0	0.033760965
93	0xbe2841be	-0.16431329
94	0x3d7cb490	0.061695635
95	0x3d168420	0.036747098
96	0x3d50e268	0.050997168
97	0x3e5edd06	0.21764001
98	0x3dd4720c	0.10373315
99	0x3b9ccec0	0.0047853887
100	0x3e3c3f86	0.18383607
101	0xbe037490	-0.12837434
102	0xbdc491ee	-0.095981464
103	0x3e25c608	0.16188824
104	0x3de95c44	0.113945514
105	0xbd4847ec	-0.048896715
106	0xbe14591b	-0.14487116
107	0x3e107bd4	0.14109737
108	0xbd132004	-0.035919204
109	0x3dd0e4ec	0.101999134
110	0x3de0a454	0.10968843
111	0x3e1c5cb0	0.15269732
112	0x3e23aaba	0.15983096
113	0x3e4dba56	0.20090613
114	0x3de33ad8	0.11095208
115	0xbe31d2a4	-0.1736551
116	0xbd4c25f0	-0.049840868
117	0x3e53c5bc	0.20680898
118	0x3da10268	0.07861787
119	0x3e22f52c	0.15913838
120	0xbe3725cf	-0.17885517
121	0x3c1712b0	0.009220764
122	0xbdeb92a8	-0.11502582
123	0xbe59b4eb	-0.21260421
124	0xbe1966aa	-0.1498057
125	0x3d5248e0	0.05133903
126	0xbdaff622	-0.08591868
127	0x3d394de8	0.045240313
128	0xbe366219	-0.17810859
129	0xbde3a9b3	-0.11116352
130	0x3dd47278	0.10373396
131	0xbe221c7e	-0.15831181
132	0xbe5ec83c	-0.21756071
133	0xbaae5d80	-0.0013303012
134	0x3d38efc8	0.04515055
135	0xbdf7374b	-0.12071093
136	0x3e3cd862	0.18441918
137	0xbded7382	-0.11594297
138	0xbe277b72	-0.16355684
139	0x3b34e240	0.0027600676
140	0xbd795074	-0.06086774
141	0xbe0c79b4	-0.13718301
142	0x3e5376e6	0.20650825
143	0x3b70a840	0.0036721379
144	0x3c6421a0	0.013924032
145	0xbe322711	-0.17397715
146	0xbd19dadc	-0.037562236
147	0xbe4930d4	-0.19647533
148	0x3dbfb4dc	0.09360668
149	0xbdaeb96c	-0.0853146
150	0xbd246e00	-0.040143967
151	0xbe4674dc	-0.19380516
152	0x3e333662	0.17501214
153	0x3e077daa	0.13231531
154	0xbda9a24c	-0.08282909
155	0x3d844d1c	0.0646002
156	0xbdca89a6	-0.098895356
157	0x3d2ef058	0.04270968
158	0xbe4b3aca	-0.19846645
159	0xbe1abff1	-0.15112282
160	0xbe26963d	-0.16268249
161	0x3c3109a0	0.010805517
162	0x3e235e24	0.1595388
163	0x3e0cf1f2	0.1376417
164	0x3e646bf8	0.22306812
165	0xbc8f1e50	-0.017470509
166	0x3d5ef368	0.05443135
167	0x3e1db6ea	0.15401807
168	0x3c6ceed0	0.014461234
169	0xbdde3ff7	-0.10852044
170	0x3e05334c	0.1300785
171	0x3d9d63ec	0.07685074
172	0xbdc90d88	-0.09817034
173	0x3e3cece0	0.18449736
174	0x3e3aafb8	0.18231094
175	0xbdb188e4	-0.08668688
176	0x3e3de0e4	0.1854282
177	0x3dc0605c	0.09393379
178	0xbe5dbaea	-0.21653333
179	0x3e22a3e8	0.15882838
180	0x3e167566	0.14693221
181	0x3dd4a990	0.10383904
182	0x3e0682c2	0.13135818
183	0xbe4a2869	-0.19741978
184	0x3e20a170	0.15686584
185	0xbd6020c8	-0.054718763
186	0xbe24415d	-0.16040559
187	0xbe1d7194	-0.15375358
188	0x3dd6bb00	0.10484886
189	0x3c588c20	0.013217002
190	0x3c821608	0.015879646
191	0xbda07a8c	-0.07835874
192	0x3e4398de	0.19101283
193	0x3e38ef7a	0.18060103
194	0x3d5bce58	0.05366358
195	0x3da14f98	0.078765094
196	0xbcbdb178	-0.023155913
197	0xbdece9d9	-0.115680404
198	0xbdb762dc	-0.08954403
199	0x3e52888a	0.20559898
200	0xbe246a3a	-0.16056147
201	0x3e4873ec	0.1957547
202	0x3e5a3fc8	0.21313393
203	0xbe1cd846	-0.15316877
204	0xbde20ba3	-0.11037376
205	0x3e5660b4	0.20935327
206	0x3e2295fc	0.15877527
207	0xbe06f704	-0.13180166
208	0x3e643360	0.22285223
209	0xbe2b4c5c	-0.16728348
210	0xbc574e30	-0.0131412
211	0xbc8243b8	-0.015901431
212	0x3ded2698	0.11579627
213	0xbab40c80	-0.0013736635
214	0xbd8cac7a	-0.06868835
215	0xbe4c780d	-0.1996767
216	0xbdc8d938	-0.09807056
217	0x3e5ad2dc	0.21369499
218	0xbdacb2d0	-0.08432543
219	0xbdc426f2	-0.09577741
220	0x3d8efda0	0.06981969
221	0xbd00cdd0	-0.031446278
222	0xbca2e6c8	-0.019885436
223	0xbe4d1b84	-0.20030028
224	0xbd9b074a	-0.0756975
225	0x3dec1a5c	0.11528465
226	0x3d30dfb8	0.043182105
227	0x3d2c4778	0.042060345
228	0xbe0f9e66	-0.14025268
229	0x3e5c03ae	0.21485779
230	0x3e414ca6	0.18876895
231	0xbd86b93a	-0.06578298
232	0xbcd42e48	-0.025900975
233	0xbe37a0df	-0.17932461
234	0x3af5b480	0.001874581
235	0xbd5ddfbc	-0.054168448
236	0xbe32837e	-0.17432973
237	0x3e0d028a	0.137705
238	0x3c7d34b0	0.015454456
239	0x3d09c958	0.033639282
240	0x3b078440	0.0020678192
241	0x3c96fe68	0.018431857
242	0xbe447908	-0.19186795
243	0x3dfbe730	0.12299955
244	0xbc6335f0	-0.01386784
245	0xbce9b6e0	-0.028529584
246	0xbde0cba8	-0.10976344
247	0x3d91f77c	0.07127282
248	0x3c373a20	0.011183292
249	0xbe3349a6	-0.17508563
250	0x3e2cb9c2	0.16867736
251	0xbdd9464d	-0.10609112
252	0xbd20b610	-0.03923613
253	0xbe05a506	-0.13051233
254	0x3c4679f0	0.012114033
255	0xbc4b8fb0	-0.0124243945

transformer_encoder.encoder.attention.fc_V.bias f4 [20]
0	0x3e19279c	0.14956516
1	0x3e15730a	0.14594665
2	0x3e4a66c2	0.19765761
3	0x3d7ed250	0.06221229
4	0x3df04288	0.1173144
5	0x3ca2f058	0.019889995
6	0xbd91ed30	-0.07125318
7	0xbd4d0b30	-0.050059497
8	0xbe58611b	-0.21130793
9	0x3e21df54	0.15807849
10	0xbe27d114	-0.1638835
11	0xbe2626db	-0.1622576
12	0xbe523e76	-0.2053164
13	0x3e2df6ee	0.16988727
14	0x3ba57fa0	0.0050506145
15	0x3e2f21f4	0.17102796
16	0xbd1d7bc8	-0.038448125
17	0x3b97d040	0.0046329796
18	0xbe33bd7c	-0.17552751
19	0xbbfb76e0	-0.007674083

transformer_encoder.encoder.attention.fc.weight f4 [20, 20]
0	0xbd68d8b0	-0.056847274
1	0x3e217e20	0.15770769
2	0x3dad504c	0.08462581
3	0x3d9aef84	0.07565215
4	0x3d59cc10	0.053173125
5	0xbac3e080	-0.0014944226
6	0x3cc16960	0.023609817
7	0xbd1e2d28	-0.038617283
8	0xbd22e2ec	-0.03976719
9	0xbd2a2294	-0.041536883
10	0x3e4de502	0.20106891
11	0xbdd49545	-0.103800334
12	0xbe086e08	-0.13323224
13	0x3dd6b7e8	0.10484296
14	0xbe3d62ee	-0.1849477
15	0xbd97faf0	-0.074209094
16	0x3d3668d0	0.04453355
17	0xbe3779c6	-0.17917547
18	0x3e264c02	0.16239932
19	0x3d513a98	0.05108127
20	0x3d1c6d58	0.038190216
21	0x3d367ef0	0.04455465
22	0x3e0c14c6	0.136798
23	0xbdbb7990	-0.091540456
24	0x3d6520a8	0.055939347
25	0x3dddddac	0.10833296
26	0x3e19ff80	0.15038872
27	0xbe0c46c2	-0.13698867
28	0x3d6f93b8	0.058490485
29	0xbdbc4962	-0.09193684
30	0x3da953fc	0.08267972
31	0x3d651d68	0.055936247
32	0x3d80e4a8	0.06293613
33	0x3d9a0b04	0.07521632
34	0xbe28c222	-0.16480306
35	0x3e4bd6a6	0.199061
36	0xbd80e6fc	-0.06294057
37	0xbe19930e	-0.14997503
38	0xbe0e56c8	-0.13900292
39	0x3c9275f0	0.017878503
40	0xbe2a2a8d	-0.16617794
41	0xbdccdd9e	-0.100032076
42	0xbe0832a0	-0.13300562
43	0xbde4e564	-0.11176565
44	0xbd870b5c	-0.065939635
45	0x3e649182	0.22321132
46	0x3e23e692	0.16005924
47	0xbcc34a38	-0.023839101
48	0x3dd7f500	0.10544777
49	0xbdece19b	-0.11566468
50	0x3e16fce2	0.14744905
51	0xbe58208e	-0.21106169
52	0xbdcd04d2	-0.10010685
53	0xbd973746	-0.073835894
54	0xbdf07cdd	-0.11742566
55	0x3d196a68	0.037454993
56	0xbe0d7a44	-0.13816172
57	0x3aa06e80	0.0012239963
58	0xbdf56ce2	-0.119836584
59	0xbe5c42ef	-0.21509908
60	0x3db8b170	0.090182185
61	0xbd42627c	-0.047457203
62	0xbd62eed4	-0.055403545
63	0x3d960350	0.073248506
64	0x3dfc2a50	0.12312758
65	0x3e059cd2	0.13048103
66	0xbdcd80f7	-0.10034364
67	0x3d1fb028	0.038986355
68	0x3e041420	0.12898302
69	0x3e29e422	0.16590932
70	0xbe255fc3	-0.16149811
71	0xbe350198	-0.17676389
72	0xbe612f80	-0.21990776
73	0x3bff2200	0.0077860355
74	0xbda4c26e	-0.08044897
75	0x3e24f410	0.16108727
76	0x3cdd3550	0.02700296
77	0xbe5b9045	-0.21441753
78	0x3de98460	0.11402202
79	0xbcce68e8	-0.025196508
80	0xbdd0bcf3	-0.10192289
81	0x3e4ecaae	0.20194504
82	0xbe0f5730	-0.13998103
83	0x3e1c3346	0.15253934
84	0xbd81a16e	-0.063296184
85	0xbda7250c	-0.08161363
86	0x3cc87fb8	0.024474964
87	0x3c8fe6a8	0.01756604
88	0x3dd46768	0.10371286
89	0xbdd5c327	-0.10437613
90	0x3d950f04	0.07278255
91	0x3d871fbc	0.0659785
92	0xbdc71ffe	-0.09722899
93	0x3e5cb3cc	0.21552962
94	0xbdfa2976	-0.12214939
95	0x3e15a6c2	0.14614394
96	0xbd01b418	-0.03166589
97	0x3d626ab0	0.055277526
98	0xbe363b80	-0.17796135
99	0x386f6000	5.7071447e-05
100	0xbe0b827a	-0.13623992
101	0x3bf0ab40	0.0073446333
102	0x3e39d26e	0.18146679
103	0xbdc5559c	-0.09635469
104	0x3e2157c0	0.1575613
105	0x3db75af8	0.08952898
106	0xbe5828db	-0.21109335
107	0x3ddf9230	0.10916555
108	0xbcccf490	-0.02501896
109	0x3d156488	0.036472827
110	0xbd934e88	-0.07192713
111	0x3e58c01c	0.21167034
112	0x3de2c9a0	0.11073613
113	0xbe0ae9fa	-0.13565817
114	0xbe2f6a33	-0.17130356
115	0xbc0f64a0	-0.008752018
116	0x3e3c4c3a	0.18388453
117	0x3e4cdbd6	0.20005736
118	0xbe584710	-0.21120858
119	0xbe46b263	-0.19403987
120	0x3e508000	0.20361328
121	0xbe553957	-0.20822655
122	0x3e536226	0.2064291
123	0xbe52a610	-0.2057116
124	0xbdaa5680	-0.0831728
125	0x3c311d50	0.010810211
126	0xbde1f2d1	-0.11032642
127	0xbdde2473	-0.10846796
128	0x3e17e7cc	0.14834517
129	0xbb1a5e00	-0.0023554564
130	0x3e28517a	0.16437331
131	0x3e092694	0.13393623
132	0xbd9c510a	-0.076326445
133	0xbdde0fc0	-0.10842848
134	0x3d720fb0	0.059096992
135	0xbe4ae630	-0.19814372
136	0x3da84dd4	0.082179695
137	0x3e5e4064	0.2170425
138	0xbe14a7e1	-0.14517166
139	0xbe3a7a79	-0.18210782
140	0xbc5acc60	-0.013354391
141	0x3e0f1008	0.13970959
142	0x3da03efc	0.07824513
143	0x3da4fe90	0.080563664
144	0xbe2d08c7	-0.1689788
145	0xbd1aa9cc	-0.037759587
146	0xbd6a0bf8	-0.05714032
147	0xbd62f68c	-0.055410907
148	0x3d9fe508	0.07807356
149	0xbd6aeb9c	-0.0573536
150	0xbdede609	-0.11616141
151	0x3df45340	0.11929941
152	0xbcbaf200	-0.022820473
153	0x3d7d9558	0.061910003
154	0xbe5ee77a	-0.21767989
155	0xbe3b1a8c	-0.18271846
156	0x3d3d8280	0.046267033
157	0xbe0d8204	-0.13819128
158	0xbe44077e	-0.19143483
159	0x3e5d4538	0.21608436
160	0xbd954838	-0.07289165
161	0xbcc916d0	-0.02454701
162	0xbdb8d560	-0.09025073
163	0xbe3b286b	-0.18277137
164	0xbe331ab8	-0.17490661
165	0xbe0378a2	-0.12838987
166	0xbd61eedc	-0.055159435
167	0x3e00e0a8	0.125857
168	0x3d7ac850	0.06122619
169	0xbdcf8444	-0.101326495
170	0xbe3c2d63	-0.18376689
171	0xbe129fb3	-0.14318733
172	0xbda8f42e	-0.082496986
173	0xbdf35b54	-0.11882654
174	0x3ccf5538	0.02530919
175	0x3dba0ae0	0.090841055
176	0x3e0488d0	0.12942815
177	0xbe202274	-0.15638143
178	0xbcc3f370	-0.023919791
179	0xbe4b44e6	-0.19850501
180	0xbe1ea1c0	-0.1549139
181	0x3dc6ddec	0.09710297
182	0xbe598072	-0.21240404
183	0xbd963752	-0.0733477
184	0x3e559d72	0.20860842
185	0x3e3be98c	0.1835081
186	0xbe499234	-0.19684678
187	0xbe2e577e	-0.17025563
188	0x3de14bdc	0.11000797
189	0x3e561b24	0.20908791
190	0xbd4c1f10	-0.04983431
191	0xbe4d3d78	-0.2004298
192	0xbe0e3bb4	-0.13889962
193	0xbb329000	-0.0027246475
194	0xbdc10508	-0.09424788
195	0x3de2ecfc	0.110803574
196	0x3e544b76	0.20731911
197	0xbe4bf12d	-0.1991622
198	0x3ddfb7e4	0.10923746
199	0xbcd74540	-0.026278138
200	0x3d9866c8	0.07441479
201	0xbe158086	-0.14599809
202	0x3d8b6a10	0.06807339
203	0xbb6ab480	-0.0035813153
204	0x3e0ba138	0.13635719
205	0x3d8981f8	0.06714243
206	0xbc2963f0	-0.010338768
207	0x3e392dbe	0.18083856
208	0x3e06d2ec	0.13166398
209	0x3c9306b8	0.01794754
210	0xbe1b1298	-0.15143812
211	0x3c8fb300	0.017541409
212	0xbdc7bca8	-0.0975278
213	0xbe5af112	-0.21381024
214	0xbdc2ac5a	-0.0950553
215	0xbe3b4758	-0.18288934
216	0x3e5bc024	0.21460015
217	0xbe557888	-0.2084676
218	0xbcd71040	-0.026252866
219	0x3dcc1230	0.099644065
220	0x3e160cd0	0.14653325
221	0xbe09c268	-0.13453066
222	0x3e2dbf8a	0.16967598
223	0xbd5c5ff0	-0.05380243
224	0xbdd44afd	-0.103658654
225	0xbe33dd6a	-0.17564932
226	0xbe3d99fc	-0.18515772
227	0x3bcaa260	0.0061839074
228	0x3e2b2f4e	0.16717264
229	0x3d5792b0	0.052630126
230	0x3deef42c	0.11667666
231	0x3d7644c0	0.06012416
232	0xbd7af358	-0.061267227
233	0x3e413350	0.1886723
234	0xbdaf0200	-0.08545303
235	0xbe13fd8c	-0.14452189
236	0x3da6d3a0	0.08145833
237	0xbe454422	-0.19264272
238	0xbe21569a	-0.15755692
239	0x3e257e3a	0.16161433
240	0x3d9ae66c	0.07563481
241	0x3d9bc568	0.07606012
242	0xbd7c3d64	-0.061581984
243	0x3dfcf73c	0.12351844
244	0xbe4c3b2d	-0.19944449
245	0xbd790424	-0.060794964
246	0x3e509652	0.20369843
247	0xbe28a399	-0.16468658
248	0x3e1e3bdc	0.15452522
249	0x3e243ae8	0.16038096
250	0xbd536418	-0.05160913
251	0xbe2100b3	-0.15722923
252	0x3dfa9c64	0.122368604
253	0x3dcc8fc4	0.099883586
254	0xbe21b3ee	-0.15791294
255	0x3c18dbc0	0.009329736

transformer_encoder.encoder.attention.fc.bias f4 [20]
0	0xbe3a5b5b	-0.18198912
1	0xbda7ef74	-0.08199969
2	0xbdbd3cea	-0.09240134
3	0x3debb318	0.11508769
4	0xbd2603a0	-0.0405308
5	0xbe426108	-0.18982327
6	0xbe41394c	-0.18869513
7	0xbe4deaa7	-0.20109044
8	0xbe45240e	-0.19252035
9	0x3e0283fa	0.12745658
10	0xbd461ee8	-0.04836932
11	0x3de94a88	0.11391169
12	0x3e54db62	0.20786813
13	0x3e595a20	0.21225786
14	0x3e4d123e	0.2002649
15	0x3e24d056	0.16095099
16	0x3e4a7f82	0.19775203
17	0x3c137cb0	0.009001896
18	0x3e40bc4c	0.1882183
19	0x3e0bf762	0.13668588

transformer_encoder.encoder.attention.layer_norm.weight f4 [20]
0	0x3f800000	1.0
1	0x3f800000	1.0
2	0x3f800000	1.0
3	0x3f800000	1.0
4	0x3f800000	1.0
5	0x3f800000	1.0
6	0x3f800000	1.0
7	0x3f800000	1.0
8	0x3f800000	1.0
9	0x3f800000	1.0
10	0x3f800000	1.0
11	0x3f800000	1.0
12	0x3f800000	1.0
13	0x3f800000	1.0
14	0x3f800000	1.0
15	0x3f800000	1.0
16	0x3f800000	1.0
17	0x3f800000	1.0
18	0x3f800000	1.0
19	0x3f800000	1.0

transformer_encoder.encoder.attention.layer_norm.bias f4 [20]
0	0x00000000	0.0
1	0x00000000	0.0
2	0x00000000	0.0
3	0x00000000	0.0
4	0x00000000	0.0
5	0x00000000	0.0
6	0x00000000	0.0
7	0x00000000	0.0
8	0x00000000	0.0
9	0x00000000	0.0
10	0x00000000	0.0
11	0x00000000	0.0
12	0x00000000	0.0
13	0x00000000	0.0
14	0x00000000	0.0
15	0x00000000	0.0
16	0x00000000	0.0
17	0x00000000	0.0
18	0x00000000	0.0
19	0x00000000	0.0

transformer_encoder.encoder.feed_forward.fc1.weight f4 [256, 20]
0	0x3d247160	0.040147185
1	0xbe3fa584	-0.18715483
2	0x3c9708b0	0.01843676
3	0xbde5152c	-0.11185679
4	0x3e3283c4	0.17433077
5	0xbd917fbc	-0.071044415
6	0xbe19ed7c	-0.15032
7	0xbe5d0d5c	-0.21587127
8	0xbe4bb467	-0.19893037
9	0x3d9f2730	0.07771146
10	0x3d9ee5e8	0.07758695
11	0x3dbc81ac	0.092044204
12	0x3de2b3f4	0.110694796
13	0xbe2754c0	-0.16340923
14	0xbe5d6d46	-0.21623716
15	0xbd966538	-0.07343525
16	0x3ddadf24	0.10687092
17	0x3e1f876e	0.15579006
18	0xbd831460	-0.064003706
19	0x3c91bf40	0.01779139
20	0x3df775b0	0.12082994
21	0x3da13d94	0.07873073
22	0xbe0bbe17	-0.13646732
23	0xbdc3dbde	-0.09563421
24	0x3e62cad6	0.22147688
25	0x3d8afec0	0.06786871
26	0xbc931b20	-0.01795727
27	0x3d951758	0.07279843
28	0x3e4d5d06	0.20055017
29	0x3e409c3a	0.18809596
30	0xbdfbf1e2	-0.12301995
31	0x3ddb90f8	0.1072101
32	0x3c4359e0	0.011923283
33	0xbe372e6a	-0.178888
34	0xbe3a18ca	-0.18173519
35	0x3c3c2cd0	0.0114852935
36	0xbc7949b0	-0.015215322
37	0xbd7615b0	-0.060079277
38	0x3da75234	0.08169976
39	0xbe0d9706	-0.13827142
40	0xbe41f2c0	-0.18940258
41	0x3e0cb6c2	0.13741592
42	0xbdcf1456	-0.10111301
43	0x3ccaa6f8	0.02473782
44	0xbe3b8667	-0.18312989
45	0xbd49d3e0	-0.049274325
46	0x3d9b4ca0	0.075829744
47	0x3e243314	0.1603511
48	0x3e4fdfdc	0.2030024
49	0xbe0f150e	-0.13972875
50	0xbde950b3	-0.11392345
51	0x3d041380	0.03224516
52	0xbe3d0a7c	-0.1846103
53	0xbc5ea6a0	-0.013589531
54	0x3e5fad38	0.21843421
55	0x3e316c62	0.17326501
56	0x3d71bb08	0.059016258
57	0x3dc06388	0.09393984
58	0x3dfd98c8	0.12382656
59	0xbca1fdc8	-0.019774333
60	0x3c8dcc98	0.017309472
61	0x3c9bdb58	0.01902549
62	0xbd353b78	-0.044246167
63	0x3c10a140	0.0088275075
64	0xbe42f377	-0.19038187
65	0x3bac2340	0.0052532256
66	0xbd1caca8	-0.038250595
67	0x3d337b28	0.043818623
68	0xbe21e734	-0.15810853
69	0xbd9c669e	-0.0763676
70	0xbe51dd3c	-0.2049455
71	0xbd3840a8	-0.044983536
72	0xbe056715	-0.13027604
73	0x3e41d656	0.18929419
74	0x3dd57224	0.10422161
75	0x3c9a1a48	0.01881136
76	0x3e26cee4	0.1628986
77	0xbd2aede4	-0.041730776
78	0xbc5dbe30	-0.013534114
79	0x3dd50ff8	0.104034364
80	0xbd4b0268	-0.04956284
81	0x3e239a56	0.15976843
82	0x3dda9654	0.10673204
83	0x3e22a694	0.15883857
84	0xbda19294	-0.07889286
85	0xbdd3bd6e	-0.10338865
86	0xbe33b54a	-0.17549625
87	0xbded6724	-0.11591938
88	0xbdf12698	-0.11774939
89	0xbd32ad34	-0.04362221
90	0xbe20e7a4	-0.15713364
91	0xbd702e80	-0.058638096
92	0xbe3fe720	-0.18740511
93	0x3d94ee54	0.0727202
94	0x3e01c5f6	0.12673172
95	0x3d3bff08	0.045897514
96	0xbe39db7e	-0.18150136
97	0xbda083d0	-0.07837641
98	0x3d9b4e18	0.075832546
99	0xbe422fd8	-0.18963563
100	0x3c7a9890	0.015295163
101	0xbbf2f8c0	-0.007414907
102	0xbe103e4b	-0.14086263
103	0xbe1f53fc	-0.15559381
104	0x3e3736a2	0.17891935
105	0x3c000280	0.007813096
106	0x3e487a82	0.19577983
107	0x3dd5fdf4	0.10448828
108	0xbd849002	-0.0647278
109	0xbdf674f3	-0.12034025
110	0xbdef1120	-0.11673188
111	0x3cf8ba30	0.030362219
112	0xbe234451	-0.1594403
113	0x3de6f058	0.11276311
114	0xbd903d92	-0.070429936
115	0x3d1b3618	0.037893385
116	0xba198a00	-0.00058570504
117	0x3d893864	0.06700209
118	0x3e21a4d8	0.15785539
119	0xbd658868	-0.05603829
120	0x3e135dd2	0.14391258
121	0x3d92d1f0	0.07168949
122	0x3e4acb6c	0.19804162
123	0xbda82684	-0.08210471
124	0xbe23d8de	-0.16000697
125	0x3e15de70	0.14635634
126	0xbe16c636	-0.14724049
127	0xbdb5def2	-0.08880414
128	0x3e59d0a6	0.21271
129	0xbdef08ec	-0.116716236
130	0xbdd642d5	-0.10461966
131	0x3e549ef0	0.20763755
132	0xbe29ab59	-0.1656927
133	0x3d734068	0.059387594
134	0x3e4bf826	0.1991888
135	0xbe2f0280	-0.17090797
136	0xbcca4490	-0.024690896
137	0x3e4c22c0	0.19935131
138	0xbe5849a2	-0.21121839
139	0x3dad1ba8	0.08452541
140	0xbe3385f2	-0.17531565
141	0x3c658950	0.014009789
142	0x3e06da12	0.13169125
143	0xbdea97cf	-0.114547364
144	0x3e636282	0.22205546
145	0xbe3689ee	-0.17826054
146	0x3e45bafe	0.19309613
147	0x3e0fb314	0.14033157
148	0x3e42ab0c	0.19010562
149	0x3d210070	0.039307058
150	0xbe4f020b	-0.20215623
151	0xbe1cee46	-0.15325269
152	0xbe61fa5d	-0.22068162
153	0xbc769a40	-0.0150514245
154	0xbe598426	-0.21241817
155	0xbe1fd026	-0.15606746
156	0x3c09ffc0	0.008422792
157	0x3d872f5c	0.0660083
158	0xbdaca260	-0.08429408
159	0xbe58e242	-0.2118006
160	0xbe5d7e0d	-0.21630116
161	0xbd08b840	-0.03337884
162	0x3dd57b80	0.104239464
163	0x3da7b984	0.08189681
164	0x3e5a7726	0.21334514
165	0xbdd5a38e	-0.10431586
166	0x3e5cb5c8	0.21553719
167	0xbe620a8c	-0.22074336
168	0x3c474500	0.012162447
169	0xbe1f0b7e	-0.15531728
170	0x3ca20510	0.019777805
171	0x3c8a2550	0.016863495
172	0x3e2d6890	0.16934419
173	0xbe606ca8	-0.21916449
174	0x3d1b2dd0	0.037885487
175	0x3d47c0f8	0.048768014
176	0x3e1c5968	0.15268481
177	0xbe5e6e8f	-0.21721862
178	0xbe13dcae	-0.14439651
179	0x3e08c608	0.13356793
180	0xbd24bc54	-0.040218666
181	0x3d66ef30	0.05638045
182	0x3e3b9876	0.18319878
183	0xbc31e470	-0.010857686
184	0x3dd5f0d0	0.10446322
185	0xbe340f1c	-0.17583889
186	0x3d04af38	0.032393664
187	0x3e03b690	0.12862611
188	0xbe04dac6	-0.1297408
189	0x3e1b58aa	0.15170541
190	0x3cbc7ec0	0.023009658
191	0xbe329d89	-0.17442907
192	0xbd9ad94e	-0.07560979
193	0xbe0f4bac	-0.1399371
194	0x3d358fb8	0.044326514
195	0x3e24fe08	0.1611253
196	0xbe2e5e7c	-0.1702823
197	0x3e46c43e	0.19410798
198	0xbdd3331e	-0.10312484
199	0x3e1adeea	0.15124097
200	0x3e492982	0.1964474
201	0xbdce513d	-0.10074089
202	0xbe07e994	-0.13272697
203	0xbdd2a89b	-0.10286065
204	0xbc268080	-0.010162473
205	0xbd948b5a	-0.07253142
206	0x3df14b10	0.11781895
207	0x3e520bc6	0.20512304
208	0xbe33348c	-0.17500514
209	0x3dd5c258	0.10437459
210	0xbe175c16	-0.14781222
211	0x3e508bca	0.20365825
212	0x3e359010	0.17730737
213	0x3dd48410	0.103767514
214	0xbcef4d10	-0.029211551
215	0xbe62d554	-0.2215169
216	0x3d911308	0.07083708
217	0x3dec8ea0	0.11550641
218	0x3c952d88	0.018210188
219	0xbcac23b0	-0.02101311
220	0x3d1a5718	0.037680715
221	0x3d03df38	0.0321953
222	0xbe5b1efb	-0.21398537
223	0x3e0a8924	0.13528877
224	0x3e38ad64	0.18034893
225	0xbd980eac	-0.074246734
226	0xbe460b45	-0.19340236
227	0x3e005cde	0.12535426
228	0xbdd82497	-0.10553854
229	0xbda0c0bc	-0.07849261
230	0x3e024f6c	0.1272561
231	0x3e456b3c	0.19279188
232	0x3e2af4c0	0.16694927
233	0xbe531cfe	-0.20616528
234	0x3e561926	0.20908031
235	0xbc7046c0	-0.014665306
236	0xbe5fd86f	-0.21859907
237	0xbcc5fcc8	-0.024168387
238	0x3df20400	0.11817169
239	0xbdaa43de	-0.08313726
240	0xbe36175f	-0.17782353
241	0xbcf857e0	-0.03031534
242	0x3e4dd804	0.20101935
243	0x3e2d32e2	0.16913942
244	0x3e372fc4	0.17889315
245	0x3d22fb18	0.039790243
246	0xbe24252c	-0.16029805
247	0x3e4313b8	0.19050491
248	0xbe45d058	-0.19317758
249	0xbde44d45	-0.111475505
250	0xbd9be346	-0.07611708
251	0x3e07cd56	0.13261923
252	0xbd211364	-0.039325133
253	0xbd660658	-0.056158394
254	0xbd92bd1a	-0.071649745
255	0x3e58fe18	0.21190679

transformer_encoder.encoder.feed_forward.fc1.bias f4 [256]
0	0x3d1abc68	0.037777334
1	0xbe3810dd	-0.17975183
2	0x3e55415a	0.20825711
3	0xbe030078	-0.12793148
4	0xbc73c670	-0.014878854
5	0xbe33bd2a	-0.17552629
6	0x3e2255e6	0.1585308
7	0x3ddf08a4	0.1089032
8	0xbe2e4297	-0.1701759
9	0x3daffa98	0.08592719
10	0xbe1434bc	-0.14473242
11	0x3e5147c0	0.20437527
12	0x3dcf223c	0.101139516
13	0xbdee5231	-0.116367705
14	0xbda60b50	-0.081076264
15	0x3b3217c0	0.00271748
16	0xbe53667e	-0.20644566
17	0x3e191134	0.14947969
18	0xbdfee382	-0.124457374
19	0x3d56dc80	0.05245638
20	0xbe0a46c0	-0.13503551
21	0x3b62bcc0	0.0034597367
22	0x3e4dfa12	0.20114926
23	0xbe47e1f3	-0.19519787
24	0xbd1c22f8	-0.038119286
25	0xbe1b7190	-0.1518004
26	0xbe45d062	-0.19317773
27	0xbe1951cc	-0.1497261
28	0x3e21a3ce	0.15785143
29	0xbd10c28c	-0.035341784
30	0xbdbaccf0	-0.0912112
31	0x3d788080	0.060669422
32	0x3e1d1952	0.1534169
33	0x3d635258	0.05549845
34	0x3bdcc2a0	0.0067370683
35	0xbdd7b8db	-0.10533305
36	0x3dbaeb24	0.09126881
37	0xbde1fc06	-0.11034398
38	0xbe3d3d05	-0.18480308
39	0xbe398700	-0.18117905
40	0x3d981d30	0.07427442
41	0x3d988240	0.07446718
42	0xbdd7496a	-0.105120495
43	0x3e4b2064	0.19836575
44	0x3d1fec58	0.039043754
45	0xbdfd6a0c	-0.123737425
46	0xba479300	-0.0007613152
47	0xbe163e0c	-0.14672107
48	0xbc23a680	-0.009988427
49	0x3d38ee10	0.04514891
50	0xbdc023a4	-0.09381798
51	0xbe2b2054	-0.16711551
52	0x3b8670e0	0.004102811
53	0xbe111238	-0.14167106
54	0x3d01e140	0.031708956
55	0x3dda5838	0.10661358
56	0x3e0a8482	0.1352711
57	0x3e5dfe70	0.21679091
58	0xbe1570a4	-0.1459375
59	0x3e07aa58	0.13248575
60	0x3e47157a	0.19441786
61	0xbdae5c68	-0.08513719
62	0x3e4cc34a	0.19996372
63	0x3da30590	0.07960045
64	0x3dc13df0	0.09435642
65	0xbd6794ec	-0.056538507
66	0xbe32a2f3	-0.17444973
67	0xbc3f1070	-0.011661634
68	0xbe1bec54	-0.15226871
69	0xbc351580	-0.011052489
70	0x3dac4d38	0.08413166
71	0xbcb6b3b8	-0.022302493
72	0x3e4da7e6	0.2008358
73	0xbe44b72a	-0.19210497
74	0xbe3bf5c7	-0.18355475
75	0x3de67d24	0.112543374
76	0x3e044e10	0.12920403
77	0x3e5d5782	0.21615413
78	0xbc3d39f0	-0.011549458
79	0xbe285623	-0.16439109
80	0xbc6c11c0	-0.014408529
81	0x3c8c5140	0.017128587
82	0x3e22f654	0.15914279
83	0xbe0d47ec	-0.13796967
84	0xbd985896	-0.074387714
85	0xbdcfab49	-0.10140092
86	0xbd772c24	-0.06034483
87	0x3e638604	0.22219092
88	0x3e5b3fee	0.21411106
89	0x3e38a4e2	0.18031648
90	0x3d329818	0.04360208
91	0xbdcfe0e5	-0.10150317
92	0x3deeeba0	0.11666036
93	0xbdb326e6	-0.08747654
94	0x3d87f8e4	0.06639269
95	0x3d6a4810	0.05719763
96	0xbe53a20e	-0.20667288
97	0x3e16694a	0.14688602
98	0x3dd3ca04	0.10341266
99	0xbe5fd054	-0.21856815
100	0xbda5c74c	-0.080946535
101	0xbd9a3950	-0.07530463
102	0xbe486249	-0.19568743
103	0xbe54a91f	-0.2076764
104	0xbe64e48a	-0.22352806
105	0x3e093b8a	0.13401619
106	0xbe5fd8f3	-0.21860103
107	0x3dabd0b4	0.08389416
108	0xbd588c74	-0.05286832
109	0x3d20e748	0.039283067
110	0x3de944d8	0.11390084
111	0xbe4b518c	-0.19855326
112	0x3d2af118	0.04173383
113	0xbd8e3512	-0.06943716
114	0x3e40ed48	0.18840516
115	0x3e5e279c	0.21694797
116	0x3dce6840	0.10078478
117	0x3e39f3c6	0.18159398
118	0xbd858412	-0.06519331
119	0x3e5bd1e6	0.21466789
120	0xbe5394e7	-0.2066227
121	0x3d9570d4	0.07296911
122	0xbe08b9d0	-0.13352132
123	0xbe3bcf9e	-0.18340918
124	0xbca0aa58	-0.019612476
125	0x3ce286b0	0.027652115
126	0xbe374408	-0.17897046
127	0x3d821a3c	0.0635266
128	0x3ce2b4b0	0.02767405
129	0xbc9b1910	-0.01893285
130	0x3e2bc4b4	0.16774255
131	0xbe1a78c9	-0.15085138
132	0xbe454736	-0.19265446
133	0xbe0660da	-0.13122883
134	0xbc32a890	-0.010904446
135	0x3e12ca04	0.14334875
136	0x3e05bcda	0.13060322
137	0xbdbf342c	-0.09336123
138	0xbdb89bb0	-0.0901407
139	0x3d2d8ba8	0.042369515
140	0x3e152116	0.14563403
141	0xbdced3e9	-0.100990124
142	0xbd395510	-0.045247138
143	0xbda26e48	-0.07931191
144	0xbdbdce58	-0.092678726
145	0xbd9980c8	-0.07495266
146	0x3cc1bb88	0.023648992
147	0x3e41c904	0.18924338
148	0xbbb721e0	-0.005588755
149	0x3e0575c8	0.13033211
150	0xbe0e1295	-0.13874276
151	0x3e468f1e	0.19390532
152	0x3e297a1a	0.16550484
153	0x3e2d0644	0.16896921
154	0x3dd355d0	0.10319102
155	0x3e19af8e	0.15008375
156	0xbc848b08	-0.016179577
157	0xbdf6240f	-0.120185964
158	0x3d7cfe80	0.061766148
159	0x3e2f9dd0	0.17150044
160	0x3cbf1ed8	0.023330137
161	0x3dc28320	0.09497666
162	0x3e070270	0.13184524
163	0xbe41c358	-0.18922174
164	0xbe591a1d	-0.21201368
165	0xbe6458de	-0.22299525
166	0x3dcf2dec	0.10116181
167	0xbde181c1	-0.11011077
168	0xbcdbb550	-0.026819855
169	0x3e1baa94	0.15201789
170	0xbd81755e	-0.06321214
171	0x3e38c8ba	0.18045321
172	0xbda77dea	-0.08178313
173	0x3dd94c60	0.106102705
174	0x3d4ae730	0.049536884
175	0x3d61cd80	0.05512762
176	0xbe14764a	-0.14498249
177	0xbc12dc40	-0.0089636445
178	0xbe1aeda0	-0.15129709
179	0x3e2295a6	0.15877399
180	0x3e3202de	0.17383906
181	0x3d660670	0.056158483
182	0x3e3c2e50	0.18377042
183	0xbe142b7a	-0.1446971
184	0x3d4df060	0.050278068
185	0x3cf04fc0	0.029334903
186	0x3d3d1280	0.04616022
187	0x3e1f0f1e	0.1553311
188	0x3da89e5c	0.0823333
189	0x3e600e92	0.21880558
190	0xbdb9a01e	-0.09063743
191	0x3e6060b8	0.21911895
192	0x3dd37d6c	0.10326657
193	0xbdcf667c	-0.10126969
194	0x3e20b8b6	0.15695462
195	0xbe373f93	-0.17895345
196	0xbe102ec0	-0.14080334
197	0x3c7075c0	0.014676511
198	0x3e29695c	0.16544098
199	0x3c0630a0	0.008190304
200	0xbc663ca0	-0.01405254
201	0x3e2388b2	0.15970114
202	0x3c4daf80	0.0125540495
203	0x3e54c264	0.20777279
204	0x3dad8918	0.08473414
205	0xbcfc4930	-0.030796617
206	0xbdd92c9a	-0.1060421
207	0x3e022482	0.12709239
208	0xbd596788	-0.05307725
209	0xbe216c8c	-0.15764064
210	0xbe24d54e	-0.16096994
211	0xbe3fdd7c	-0.18736833
212	0xbdc3a57a	-0.095530465
213	0xbb4084c0	-0.0029376
214	0x3e32c9f4	0.17459852
215	0xbc14c170	-0.009079322
216	0xbc28c3a0	-0.010300547
217	0x3ca68d48	0.02033104
218	0xbe040943	-0.12894158
219	0xbdcb0e8b	-0.09914883
220	0xbe2a152f	-0.16609643
221	0x3e483e72	0.19555071
222	0x3db65bd0	0.089042306
223	0x3dac9500	0.08426857
224	0x3e04354e	0.12910959
225	0xbe0a7d23	-0.13524298
226	0x3dafd4cc	0.0858551
227	0xbe41c6c7	-0.18923484
228	0xbe3a92ec	-0.18220109
229	0xbdb2903c	-0.08718917
230	0xbd42f090	-0.0475927
231	0xbe25251d	-0.16127439
232	0xbcb37bc8	-0.02190961
233	0x3db479f4	0.08812323
234	0x3d5bed60	0.053693175
235	0xbc4d5220	-0.012531787
236	0x3d9c545c	0.07633278
237	0xbe1f1039	-0.15533532
238	0x3b752980	0.003740877
239	0x3e488bc6	0.1958457
240	0xbd900c30	-0.070335746
241	0x3c2f4100	0.01069665
242	0xbe189dd2	-0.14903954
243	0xbd080fa0	-0.033218026
244	0x3e51da96	0.2049354
245	0x3e0de12a	0.13855425
246	0xbe587228	-0.21137297
247	0xbdd7c8b0	-0.10536325
248	0x3e3e46b0	0.18581653
249	0xbdecfd23	-0.115717195
250	0x3e1deab4	0.15421563
251	0xbda81a10	-0.08208096
252	0x3d98c008	0.07458502
253	0xbe29e119	-0.16589774
254	0x3de941a8	0.11389476
255	0xbe57386f	-0.21017621

transformer_encoder.encoder.feed_forward.fc2.weight f4 [20, 256]
0	0x3d5a305c	0.053268775
1	0x3cf22cb8	0.02956234
2	0xbd10d3bc	-0.035358176
3	0x3c8d3180	0.017235518
4	0x3cc8cef4	0.024512745
5	0x3bc1bcc0	0.0059123933
6	0x3d38fcb6	0.04516288
7	0x3c4061b8	0.011742048
8	0x3d21b600	0.03948021
9	0xbc17efb8	-0.009273462
10	0x3d2f7c1e	0.042842977
11	0xbd21726c	-0.03941576
12	0xbcd62ff0	-0.026145905
13	0xbd668f8a	-0.056289233
14	0x3cb64a38	0.022252187
15	0xbd1d20e6	-0.038361453
16	0xbd356dc6	-0.04429414
17	0xbbe7d9a0	-0.0070755035
18	0x3c265ee8	0.010154463
19	0x3d3875aa	0.04503409
20	0xbd08e042	-0.033416994
21	0x3d344a90	0.04401642
22	0xbd350eee	-0.04420369
23	0xbbf87fd0	-0.007583596
24	0x3c0dfb60	0.0086658895
25	0xbc75cb00	-0.015002012
26	0x3cffce50	0.031226307
27	0xbb999f80	-0.0046882033
28	0x3ba4ee50	0.005033292
29	0xbd773010	-0.06034857
30	0x3d1cd17e	0.038285725
31	0x3d585c08	0.052822143
32	0x3d05ec5c	0.032696113
33	0x3d441982	0.04787589
34	0x3d50e4b8	0.050999373
35	0xbc1d94f0	-0.009618029
36	0xbd2419a4	-0.040063515
37	0xbd4b704c	-0.04966764
38	0xbd20cdd0	-0.039258778
39	0x3ca38d70	0.019964904
40	0xbcf07008	-0.029350296
41	0xbbbe79e0	-0.0058128685
42	0xbd440e10	-0.047864974
43	0xbd7dcef0	-0.06196493
44	0x3d6d1802	0.057884224
45	0x3cc9ab60	0.02461785
46	0x3cd332d4	0.025781073
47	0xbd5e2ab8	-0.05423996
48	0x3cf8a72c	0.030353151
49	0x3c89c2d8	0.016816542
50	0x3d382680	0.04495859
51	0xbcfbf08c	-0.03075435
52	0x3d67362e	0.056448154
53	0x3b551c20	0.0032517985
54	0xbd3e07c2	-0.046394117
55	0x3d466fd2	0.048446484
56	0x3d6bd2b8	0.057574004
57	0xbd6a05e0	-0.05713451
58	0xbbfd80e0	-0.0077363104
59	0x3d6b29de	0.057412975
60	0xbb2c1c00	-0.0026261806
61	0xba8f7780	-0.0010945648
62	0xbca80284	-0.020509012
63	0xbc83536c	-0.01603099
64	0x3d4a6d2c	0.04942052
65	0x3c88c4a0	0.01669532
66	0xbcbc539c	-0.022989087
67	0xbcdc1244	-0.026864178
68	0xbd0dc718	-0.0346137
69	0x3cf0fd98	0.029417798
70	0xbcffce1c	-0.03122621
71	0xbd6bdb6c	-0.057582304
72	0xbc82a7c8	-0.015949145
73	0xbce2adac	-0.027670704
74	0xbb79a240	-0.0038091093
75	0xbd35a7ac	-0.044349357
76	0x3c41f3a0	0.01183787
77	0x3d40eea8	0.0471026
78	0xbd1d3942	-0.038384683
79	0xbc84b6f4	-0.01620052
80	0xbc484dd0	-0.012225583
81	0xbd19d9da	-0.037561275
82	0x3cadd358	0.02121894
83	0x3d4bc784	0.04975082
84	0x3c6f9ce8	0.014624812
85	0x3c90835c	0.017640762
86	0xbd218798	-0.039435953
87	0xbcefea20	-0.029286444
88	0xbc9ab1c0	-0.018883586
89	0xbc615358	-0.013752781
90	0x3a86ebc0	0.0010293648
91	0x3d007584	0.03136207
92	0xbd1446b2	-0.036200233
93	0x3d0d80de	0.034546725
94	0x3bbbbb70	0.0057291314
95	0xbbd01940	-0.0063506663
96	0xbd4df5a2	-0.05028308
97	0xbd247b64	-0.040156737
98	0x3cae4218	0.02127175
99	0x3d0cb442	0.034351595
100	0xbd6de276	-0.058077298
101	0xbd1bd63a	-0.0380461
102	0x3c4fe3d0	0.012688592
103	0x3d0e4152	0.034730263
104	0xba6d1100	-0.0009043366
105	0xbd5b942e	-0.053608112
106	0xbccd3748	-0.025050774
107	0xbbef7680	-0.0073078275
108	0x3bf01460	0.0073266476
109	0x3c9f796c	0.019467078
110	0x3d2c4046	0.042053483
111	0xbd611f58	-0.054961532
112	0xbd3f2ada	-0.046671726
113	0xbc7ee970	-0.0155585855
114	0xbd3d9b74	-0.04629083
115	0xbd4b7202	-0.049669273
116	0xbcaf23d0	-0.021379381
117	0x3bd24af0	0.0064176247
118	0xbb12f140	-0.0022421628
119	0x3d7bb30e	0.061450057
120	0xbc892d5c	-0.016745262
121	0x3bd54310	0.0065082386
122	0x3d2cf1c8	0.042222768
123	0xbc7cc168	-0.015426971
124	0xbc4e7990	-0.012602225
125	0x3b1d8780	0.0024037063
126	0xbd1a065e	-0.03760373
127	0x3c601228	0.013676204
128	0xbce6ad6c	-0.028158866
129	0xbcb21134	-0.021736719
130	0xbd054090	-0.032532275
131	0xbd59d574	-0.05318208
132	0x3d15b7ea	0.036552347
133	0xbca43744	-0.020045884
134	0x3d544aec	0.051829264
135	0xbb26ce80	-0.0025452673
136	0x3d5b06a8	0.053473145
137	0xbd50690a	-0.050881423
138	0xbd6f4ca4	-0.0584227
139	0x3d630a1c	0.055429563
140	0xbd0d2214	-0.034456328
141	0x3d5d645a	0.05405078
142	0xbccefdf4	-0.025267579
143	0x3c9d9778	0.019237265
144	0xbd131e8c	-0.035917804
145	0x3bfa4a70	0.007638268
146	0xbd00dfe0	-0.031463504
147	0x3d3241e0	0.043519855
148	0x3d6ccac6	0.057810567
149	0xbbb42df0	-0.0054986402
150	0xbcdb85d8	-0.02679722
151	0x3d3abd4e	0.04559069
152	0x3cfd65a0	0.030932248
153	0x3d58ba38	0.052911967
154	0xbc4b8128	-0.01242093
155	0xbc07c3b8	-0.008286409
156	0xbd2faf00	-0.042891502
157	0x3d318ea4	0.043348923
158	0xbd5bbe68	-0.053648382
159	0x3b16b160	0.0022993907
160	0xbd3ea8d2	-0.04654772
161	0x3ceefc7c	0.029173128
162	0xbcef6358	-0.029222175
163	0x3d264bbc	0.04059957
164	0x3c21f670	0.009885415
165	0xbd283194	-0.041062906
166	0xbd7f7b00	-0.06237316
167	0x3c2b6820	0.010461837
168	0xbd6cb7a0	-0.057792306
169	0x3d78961e	0.060690038
170	0x3d79789e	0.060906045
171	0xbd675c22	-0.05648435
172	0xbd4d079c	-0.050056085
173	0xbd76c580	-0.060246944
174	0x3ca300a0	0.019897759
175	0x3d35b60e	0.044363074
176	0x3c8cb950	0.017178208
177	0xbd0e3176	-0.03471514
178	0x3d44d1b2	0.048051544
179	0xbd5b1698	-0.053488344
180	0xbd30ad6a	-0.04313413
181	0x3d062806	0.032753013
182	0xbd6f2afa	-0.058390595
183	0x3d7257be	0.05916571
184	0xbbc99800	-0.006152153
185	0xbd07f08a	-0.03318838
186	0x3c1402e0	0.009033889
187	0x3ca9c2c0	0.020722747
188	0x3d593f0e	0.05303865
189	0xbc551888	-0.013006337
190	0xbce1931c	-0.027535968
191	0xbd1c4670	-0.038153112
192	0xbd442b76	-0.04789301
193	0xbc3bae28	-0.011455096
194	0x3c8694e4	0.016428418
195	0x3c6dfec0	0.014526069
196	0x3d0d2978	0.034463376
197	0x3bf4a8c0	0.0074664056
198	0xbd7b8978	-0.061410397
199	0xbd2d50e8	-0.042313486
200	0xbc67e8a8	-0.014154591
201	0x3cb1c8ec	0.021702252
202	0xbbac2790	-0.0052537397
203	0xbd305a3c	-0.043054804
204	0xbd3ab236	-0.04558011
205	0x3d2ba536	0.041905604
206	0xbd416cb2	-0.0472228
207	0x3d045084	0.03230335
208	0xbd27e454	-0.040989235
209	0xbce87e68	-0.028380588
210	0x3c662ee0	0.014049262
211	0x3c626d18	0.013819955
212	0xbbbe2960	-0.005803272
213	0x3c96e14c	0.018417977
214	0x3c7ce038	0.015434317
215	0xbc8a3e0c	-0.01687529
216	0xbcccc19c	-0.024994664
217	0x3cc11474	0.023569323
218	0x3c6e1080	0.014530301
219	0x3c7d3e00	0.0154566765
220	0x3d0439e0	0.032281756
221	0xbc608870	-0.013704404
222	0xbbf261a0	-0.0073968917
223	0xbd2b4e9e	-0.041823022
224	0xbd5bd244	-0.05366732
225	0xbd1b3e34	-0.03790112
226	0xbd63354c	-0.05547075
227	0x3cf2be18	0.02963166
228	0xbcad4994	-0.021153249
229	0x3c820c88	0.015875116
230	0xbcb6c494	-0.022310533
231	0xbbf7fe40	-0.0075681508
232	0xbd3d19bc	-0.04616712
233	0x3c999ff8	0.018753037
234	0x3d7c480c	0.061592147
235	0x3b97b4c0	0.0046297014
236	0xbd66a248	-0.056307107
237	0xbb89af50	-0.004201807
238	0xbd0a70da	-0.03379903
239	0x3b983ea0	0.0046461374
240	0xbd540770	-0.051764905
241	0xbcda819c	-0.02667313
242	0x3d023422	0.031788
243	0xbd429e34	-0.047514156
244	0x3cb9a068	0.022659495
245	0xbc2581a0	-0.010101706
246	0x3d4878a4	0.048943177
247	0xbd1f83b4	-0.03894396
248	0x3cfaef24	0.03063161
249	0x3cb5e664	0.022204585
250	0xbbd0b860	-0.0063696355
251	0xbc8b818c	-0.017029546
252	0xbd7732f4	-0.060351327
253	0x3caae710	0.020862132
254	0x3d293838	0.04131338
255	0x3b125ba0	0.0022332445
