simple2transformer/param/net_param/Mk07_50_75_critic_net.model (torch, 232127 bytes, 33 tensors)

transformer_encoder.encoder.attention.fc_Q.weight f4 [40, 40]
000000 c0 ad 63 3d 1e 71 88 3d 00 1e f6 ba 15 d8 0e 3e
       0.055585623 0.066622004 -0.0018777251 0.13949616
000010 4a 98 e0 3d 0e 9a 00 be 11 62 1b 3e 40 46 59 bb
       0.10966547 -0.12558767 0.15174128 -0.0033153445
000020 37 a2 1c be c0 9d 63 3b b8 ad 77 bd 5e 2c fe bd
       -0.15296255 0.0034731477 -0.060468405 -0.12410806
000030 10 71 20 bc 7c d4 b3 3d 07 a9 a3 bd b4 12 6c bd
       -0.009792581 0.087807626 -0.07991224 -0.057635024
000040 07 81 82 bd 7c c9 ce bd b4 56 14 be 9e 9a f0 3d
       -0.06372266 -0.10097024 -0.144862 0.11748241
000050 9a 90 c3 3d 8e fa ee 3d ba 70 16 bd 90 44 7d 3c
       0.09549065 0.11668883 -0.0367286 0.015458241
000060 40 a4 07 be 00 22 9e 3b f2 7a d1 3d 9a e8 e4 bd
       -0.1324625 0.0048258305 0.10228528 -0.11177178
000070 4a 2d e5 3d 9b 96 14 3e 78 b9 98 3d 53 b5 20 3e
       0.11190279 0.14510576 0.0745725 0.1569417
000080 ba 31 09 be 41 13 20 be 56 b4 c1 bd 93 bb 1b 3e
       -0.13397875 -0.15632345 -0.094582245 0.15208273
000090 88 59 18 be ec b6 08 3d 11 fb 02 3e c0 39 0d 3d
       -0.14877903 0.033377573 0.12791087 0.034478903
0000a0 c4 99 9e bd 14 a4 15 be be fb da 3d 93 b0 02 3e
       -0.07744172 -0.14613372 0.10692547 0.1276267
0000b0 13 26 04 3e 13 e4 fc bd 24 db a5 3d c4 cc 96 3d
       0.12905149 -0.12348189 0.080984384 0.07363275
0000c0 ff bc c3 bd 22 9c d1 3d d8 be 91 bd 38 13 e4 3c
       -0.095575325 0.10234858 -0.07116479 0.027841195
0000d0 0e 95 11 be cc 26 2f 3d 46 59 b2 3d e0 de 06 3c
       -0.14217016 0.04276161 0.08708434 0.0082318485
0000e0 03 1f 19 be 74 60 15 3d 63 78 89 bd 89 99 20 3e
       -0.14953236 0.036468938 -0.06712415 0.15683569
0000f0 9c 3a 3f 3d 78 b1 ec 3c a0 0a d5 bc 80 cf ef bb
       0.046686754 0.028893217 -0.026006043 -0.007318437
000100 e5 a5 e5 bd ec 49 3e 3d 20 c8 b3 bb b3 60 12 be
       -0.112132825 0.046457216 -0.0054865032 -0.142947
000110 a4 55 b5 3d 36 18 db 3d 50 16 f8 bd 60 30 b2 3b
       0.08854225 0.10697977 -0.12113631 0.0054378957
000120 c2 73 c6 3d 1d 92 1c 3e 54 10 22 3d c1 be 9f bd
       0.09690048 0.15290113 0.039566353 -0.07800055
000130 0a 4f f8 3d a0 eb 80 bd f0 28 09 3d c0 01 05 be
       0.121244505 -0.06294942 0.033486307 -0.12988949
000140 00 6e 67 bb 2c bf b8 bd d3 6e 06 3e 8f 39 16 3e
       -0.0035313368 -0.09020838 0.13128214 0.14670394
000150 30 39 11 be be 80 c0 3d e8 5c 88 bc d4 dd 1f 3d
       -0.14181972 0.093995556 -0.016645864 0.03902991
000160 ae 46 d5 bd 5f f3 ff bd d6 6a f0 bd 44 96 5a 3d
       -0.10413872 -0.12497591 -0.11739127 0.05336596
000170 c4 e2 1a be 9d de 17 be 38 8a c4 3c 26 5d ea 3d
       -0.15125567 -0.14831014 0.02399169 0.11443548
000180 96 0f 70 bd 78 c7 af bd 89 58 ab bd cd e4 07 3e
       -0.058608614 -0.085829675 -0.08366496 0.13270874
000190 a0 48 a8 3b a2 79 bf 3d 80 96 c8 bc 8a c7 17 bd
       0.0051356107 0.093493715 -0.024485826 -0.03705553
0001a0 00 62 f8 3a a0 90 6d 3c 00 e9 3e 3b e0 48 be 3b
       0.0018950105 0.014499813 0.0029130578 0.005807027
0001b0 00 c6 90 3d 88 c5 3f 3d 80 4a 48 3c 8c d5 6e 3d
       0.070690155 0.04681924 0.012224793 0.058309123
0001c0 84 ce 1d bd 0a c5 cc 3d 6b 79 cf bd 92 c5 8d 3d
       -0.038527027 0.0999852 -0.101305805 0.06922449
0001d0 0c 99 2d 3d ce aa 25 bd 40 6a d2 bd e0 2f b4 3c
       0.042382285 -0.040446095 -0.10274172 0.021995485
0001e0 fa 2f d2 3d 38 c8 08 bd 98 a7 36 bd 36 6f 06 be
       0.10263057 -0.03339407 -0.044593424 -0.13128361
0001f0 e8 53 11 be 97 f4 03 be 3c 63 6f 3d e0 6e ff bc
       -0.14192164 -0.12886272 0.058444247 -0.031180799
000200 20 a0 e8 3b 24 0b b2 3d be 2e f4 3d 80 d8 f0 3c
       0.0070991665 0.08693531 0.11922978 0.02940011
000210 fe a2 d0 3d ea ce f5 bd e6 c6 b1 bd b0 86 3c 3c
       0.10187338 -0.12002356 -0.08680515 0.011506721
000220 a0 12 5d 3d 99 95 1c 3e d0 82 bb bd 98 78 5d 3d
       0.05397284 0.15291442 -0.0915581 0.054070085
000230 26 af a1 3d 40 4b 5e 3c 00 ee 0f bb 3d ab 07 3e
       0.07894735 0.013567746 -0.0021961927 0.13248916
000240 1a 8e 8a 3d bc 3b ff bd f3 25 c8 bd d0 57 0a 3d
       0.06765385 -0.12462565 -0.09772863 0.03377515
000250 f0 40 6b 3d c5 2d 0b 3e f8 54 a3 bd 24 6e 7d bd
       0.057434976 0.13591678 -0.07975191 -0.061872616
000260 70 73 15 be 72 67 81 3d 33 98 0f 3e fc 0a 00 bd
       -0.14594817 0.06318559 0.14022903 -0.031260476
000270 02 e6 1a be 86 e7 ac 3d b6 ef 0c bd c0 85 b0 3c
       -0.15126804 0.08442597 -0.034408294 0.021548152
000280 b5 55 f3 bd 40 f2 ba bb e0 6c a3 3b 7e 61 71 bd
       -0.11881582 -0.005705148 0.004987344 -0.058930866
000290 71 2e 14 be 40 65 3f 3c 35 39 00 3e 26 ce 06 be
       -0.14470841 0.011681855 0.12521823 -0.13164577
0002a0 a8 b4 d3 3c 00 70 89 38 b1 26 a0 bd b8 c1 69 3d
       0.02584298 6.553531e-05 -0.0781988 0.05706951
0002b0 20 b4 a0 bc 04 87 5c 3d 5e 78 e3 bd d3 a2 04 3e
       -0.01961714 0.0538397 -0.111069426 0.12952738
0002c0 d6 e9 79 bd 5e 9a ec bd ae a7 d9 3d e4 78 89 3d
       -0.06101402 -0.11552881 0.106276855 0.06712511
0002d0 c6 f4 aa 3d c8 02 a2 3c 26 b8 d6 3d 10 85 14 bc
       0.08347468 0.019776717 0.10484342 -0.009064928
0002e0 dd 95 0c be 26 9d d3 3d bc fa a3 3d c8 8b 15 be
       -0.13729043 0.10332708 0.08006808 -0.14604104
0002f0 bb f5 07 3e 40 88 ae 3c da c0 8b 3d 08 ef 2d 3d
       0.13277332 0.021305203 0.06823893 0.042464286
000300 a0 39 18 be dc e6 4e 3d f7 ce 88 bd 08 7d b0 3c
       -0.14865732 0.050513133 -0.066801004 0.021543995
000310 94 d7 43 3d da 98 e1 3d 00 d7 6f ba 68 7a 33 3d
       0.047813013 0.11015482 -0.0009149164 0.043817908
000320 5e 77 fd bd 8d 7c a2 bd f0 21 e0 bc 1c 5e 97 3d
       -0.12376283 -0.079339124 -0.027359933 0.07390997
000330 87 1a cd bd 80 56 21 3c 9a 1d fc 3d 49 42 f4 bd
       -0.10014825 0.009847283 0.123103335 -0.119267054
000340 cf 08 02 3e 66 0e b6 3d 71 bf 02 3e 5b 4b 0b be
       0.12698673 0.08889465 0.12768342 -0.13602965
000350 c5 a1 05 3e c0 98 58 3c 98 89 17 3d d6 bc e4 bd
       0.13049991 0.013220012 0.036996454 -0.1116883
000360 a6 96 f2 3d e6 e1 06 be a2 36 cb 3d 6a 5c be 3d
       0.1184514 -0.13172111 0.0992253 0.0929497
000370 6f 90 01 be 9e d3 e9 3d 90 a5 90 3d a6 87 d2 bd
       -0.12652753 0.11417316 0.070628285 -0.10279779
000380 02 3c 38 bd 3e ec 14 bd 70 fa ce bc 48 1f 8e bc
       -0.044979103 -0.03635811 -0.025265902 -0.0173489
000390 c8 e9 f4 3c 92 55 b1 3d d0 ac c1 3c bd 0b 20 3e
       0.029896632 0.08658899 0.023641974 0.15629478
0003a0 5c 11 02 3d 40 02 89 bc 1c b6 35 bd d2 3b 12 be
       0.031754836 -0.016724706 -0.044363126 -0.14280632
0003b0 2e 1c c5 bd 40 d6 f2 bb 90 58 bc 3c f7 c7 1f 3e
       -0.096245155 -0.0074107945 0.022991449 0.15603624
0003c0 b8 ac 48 3d d0 cd d7 3c 80 0e b1 3b 9d b3 0f 3e
       0.048992842 0.026343256 0.00540334 0.14033361
0003d0 58 9d df bc 70 dd 5e 3c 80 75 2e bd 90 dd c1 3c
       -0.027296707 0.0136025995 -0.042592525 0.02366522
0003e0 a8 45 f1 bd 30 19 ac 3d 7e d9 b7 3d 80 a3 c0 ba
       -0.11780864 0.08403242 0.0897703 -0.0014697164
0003f0 12 48 ae bd 9a 0a d6 3d 5c 7c ef bd 70 d5 05 3d
       -0.0850984 0.10451241 -0.116936415 0.032674253

transformer_encoder.encoder.attention.fc_Q.bias f4 [40]
000000 ad d3 0c be e8 d7 52 bd 82 5b c9 3d 70 2d b9 bc
       -0.13752623 -0.051475435 0.09831907 -0.022604674
000010 0b 14 0c 3e c2 dc fc 3d e9 a7 13 3e a4 70 11 bd
       0.13679521 0.12346794 0.14419521 -0.035507813
000020 cc 4e 88 3d c6 f4 bb 3d 20 42 b3 bd b8 07 81 bd
       0.06655654 0.09177546 -0.08752847 -0.063003
000030 9a 31 c4 3d ee ec 5a bd 60 05 4a 3d b8 3c 15 3d
       0.09579773 -0.05344861 0.049321532 0.03643486
000040 5e 34 3c bd 39 52 10 be 28 fd 26 3d 8e 1a 16 be
       -0.04594838 -0.14093865 0.040768772 -0.14658567
000050 72 88 bf 3d ec 48 40 bd 67 94 93 bd f8 ba 97 3c
       0.09352197 -0.046944544 -0.0720604 0.01852177
000060 00 87 64 3d 1c 30 96 3d a0 b3 0c be 28 46 a7 3c
       0.05579281 0.07333395 -0.13740396 0.020419195
000070 89 a5 a9 bd 87 ca 0e be 43 85 06 3e 11 5a 0d 3e
       -0.082835265 -0.13944446 0.13136773 0.13803889
000080 c8 f7 20 be d8 40 8d bc 74 56 e4 bd e0 51 43 bd
       -0.15719521 -0.017242834 -0.11149302 -0.047685504
000090 8b 4d 1a 3e 56 ec be 3d 48 8b 86 3d b9 87 b0 bd
       0.15068643 0.09322421 0.065695345 -0.08619637

transformer_encoder.encoder.attention.fc_K.weight f4 [40, 40]
000000 28 25 07 be df af 9f bd c8 28 ac bd 4a 9a 63 bd
       -0.13197768 -0.077972166 -0.08406216 -0.055567063
000010 f0 5a e7 bd 60 81 47 bd f4 6a 87 bd 7f 62 0b 3e
       -0.11296642 -0.048707366 -0.066121966 0.13611792
000020 70 9b 00 3d dc 4b 19 be f8 ef 5a bd e6 81 f8 bd
       0.031398237 -0.14970344 -0.05345151 -0.12134151
000030 59 6e 19 3e 3e ea e6 3d 29 6d 01 be 9d 52 ee bd
       0.149835 0.11275147 -0.12639298 -0.11636851
000040 d0 57 05 3d e2 a1 d9 3d 7b 5b bb bd 54 6f 55 3d
       0.032554448 0.1062658 -0.09148308 0.052108124
000050 58 58 df bc 46 7f ff bd a9 2b 1c 3e cd 2f 02 3e
       -0.027263805 -0.12475447 0.1525103 0.12713547
000060 d4 79 1b 3d be e3 ba 3d 05 97 a3 bd f3 ab 03 3e
       0.03795798 0.091254696 -0.07987789 0.12858562
000070 fc 44 aa 3d 1a 67 67 bd 7c e4 14 be 93 af b4 bd
       0.08313939 -0.05649481 -0.14540285 -0.088225506
000080 f8 a3 86 3d 98 34 27 bd 68 ac 14 be 80 67 d5 bc
       0.06574243 -0.04082164 -0.14518893 -0.02605033
000090 18 97 15 be 31 39 0d 3e 84 59 e0 bd 10 fb ca bc
       -0.14608419 0.13791348 -0.10954574 -0.024777919
0000a0 60 7d f3 bd f2 43 f0 3d 04 89 2f 3d 80 bf 7c bd
       -0.11889148 0.117317095 0.042855278 -0.061706066
0000b0 3e f7 b3 3d 78 5c 44 3d 00 c8 34 3b dc bc 87 3d
       0.08787392 0.047939748 0.002758503 0.06627819
0000c0 4a 82 08 bd e3 f6 17 3e 24 89 00 3d 17 95 1e 3e
       -0.03332738 0.14840274 0.031380787 0.15486561
0000d0 60 37 80 bd a2 2b cd 3d 5e c2 a5 bd 78 d5 7e bd
       -0.06260562 0.10018088 -0.08093713 -0.0622153
0000e0 ab 93 c1 bd 18 14 d0 3c 1e 74 d3 bd 60 6c aa 3c
       -0.094519936 0.025400206 -0.10324882 0.02080363
0000f0 53 52 1e 3e 49 89 06 3e c0 ff 05 3b 1a 57 cc 3d
       0.15461092 0.13138308 0.0020446628 0.09977551
000100 1b d1 a4 bd 30 bb ba 3c 00 9e 14 3a 76 a7 4a bd
       -0.08047696 0.022794336 0.0005669296 -0.04947611
000110 a5 eb 1e 3e 27 e1 17 3e a4 c6 92 3d 90 d9 ac 3c
       0.15519579 0.14831983 0.07166794 0.021099836
000120 8f 14 ff bd 70 b8 17 be ee 63 fe 3d 20 e8 c7 3b
       -0.12455093 -0.14816451 0.12421404 0.0061006695
000130 fa 8a a3 3d 3a 39 f5 3d 8c 1c 5a 3d c2 86 c1 3d
       0.07985492 0.11973806 0.05324988 0.09449531
000140 e4 04 c9 bd 5a ee e1 3d f0 5b 8d 3d 6d 10 0c 3e
       -0.09815386 0.1103179 0.06902301 0.13678141
000150 80 6b d0 bb 21 eb 04 3e a0 79 bc bc 70 30 78 3d
       -0.0063604712 0.1298032 -0.023007214 0.06059307
000160 19 e3 9f bd 40 09 78 3c ea 8f 8c 3d f3 ee 1e 3e
       -0.07806987 0.015138924 0.06863387 0.1552084
000170 c4 6d 14 3d e3 70 80 bd f7 9b 1d be 18 60 9b 3d
       0.036237493 -0.062715314 -0.15391527 0.07586688
000180 28 a8 a1 bd 96 10 0a be 3a 9b a1 bd 03 57 10 3e
       -0.078934014 -0.1348289 -0.07890935 0.14095692
000190 58 df 9e bc 4f ce a9 bd e0 b2 a0 bc e9 ef 20 3e
       -0.019393608 -0.08291303 -0.019616544 0.15716518
0001a0 90 29 54 3c 86 f4 cb bd d3 66 0e 3e 4b e1 00 be
       0.012949362 -0.099587485 0.13906412 -0.12585942
0001b0 8c cc 0b bd c0 01 4c 3b 97 7f 04 3e 06 25 e8 3d
       -0.034130618 0.0031128973 0.12939297 0.11335187
0001c0 1c 90 7f 3d 9d 48 03 3e 15 35 20 be e0 af 8a 3b
       0.062393293 0.12820669 -0.15645249 0.0042323917
0001d0 1a c2 e6 bd 18 af 02 be 58 8d 4c 3d ab f5 0f 3e
       -0.11267491 -0.12762105 0.049939483 0.14058559
0001e0 22 ac f0 3d 4c 31 ad 3d 4a b1 72 bd a5 67 08 be
       0.11751582 0.08456668 -0.059251107 -0.13320787
0001f0 9f 66 06 3e 78 a9 ab bc 60 44 ff bc fc d2 58 bd
       0.13125084 -0.020954832 -0.031160533 -0.052935585
000200 30 1a 6e 3c 66 6e 85 bd 20 e8 a3 bb 5c bf 34 3d
       0.014532611 -0.065151975 -0.0050020367 0.044127807
000210 d4 09 2e 3d c1 b8 15 3e 10 3b 8d bc 3a 41 68 bd
       0.04248984 0.1462126 -0.017240077 -0.05670283
000220 50 34 84 3c 80 17 b2 3b 17 0f b6 bd cc 78 b2 3d
       0.016138226 0.0054349303 -0.08889597 0.087144464
000230 45 ac a5 bd 8f 84 12 3e 10 97 c9 3c 1d d9 83 bd
       -0.080894984 0.1430838 0.024608165 -0.064378954
000240 fe b8 ce bd a6 82 df bd e2 cd 6b bd 68 d3 03 3d
       -0.10093878 -0.10913591 -0.057569392 0.032184035
000250 4c 5c e1 bd d9 ea 1c be 74 4d 1e be 98 54 f9 3c
       -0.11003932 -0.15323962 -0.15459234 0.030435845
000260 6c ec 8b bd 24 05 1b be 1a 07 38 bd a4 81 29 bd
       -0.06832203 -0.1513868 -0.044928648 -0.0413834
000270 9a 6d c9 bd a6 fd d6 3d 60 1b b3 3d 2a fb fb 3d
       -0.09835358 0.10497598 0.08745456 0.12303765
000280 cc b7 9c 3d 7c 77 0f 3d b0 42 32 3d 70 3d 1f bd
       0.07652244 0.03502606 0.04352063 -0.03887695
000290 08 1c ab 3c 1a e3 66 bd e0 90 21 bc c8 be ed bc
       0.02088739 -0.056368925 -0.009861201 -0.029021636
0002a0 20 da dd 3c 9d e8 09 3e be d5 d0 3d ac 09 f3 bd
       0.02708155 0.13467641 0.10197018 -0.11867079
0002b0 7c af 03 3d f2 12 be bd 07 6b 20 be ee 59 ea 3d
       0.032149777 -0.09280957 -0.15665828 0.11442934
0002c0 65 1c dd bd 32 01 b2 3d 1a 72 15 bd a6 7f cb 3d
       -0.107964315 0.08691634 -0.03648577 0.099364564
0002d0 2d d8 01 3e f7 8e bb bd cc 7e 87 3d f9 71 10 3e
       0.12680121 -0.09158128 0.066159815 0.14105977
0002e0 fc 47 a9 3d 36 bc 0d be 1b 50 fd bd c8 ac 89 3c
       0.08265683 -0.13841328 -0.123687945 0.016806021
0002f0 42 4f a0 3d 0a 10 89 bd e4 cd 75 3d 60 98 30 3c
       0.07827617 -0.06692512 0.060010806 0.0107785165
000300 20 3c f3 3b d0 fa 33 3d 60 c9 a0 3d 80 b2 86 3a
       0.007422939 0.043940365 0.07850909 0.0010276586
000310 96 4c 41 bd a8 69 d5 bc c7 e3 b8 bd 78 ad 92 3c
       -0.04719218 -0.026051357 -0.0902782 0.017904982
000320 4a b5 03 be 5f 33 20 be b6 5d ec 3d 30 4f d1 3c
       -0.12862125 -0.15644597 0.115413114 0.025550455
000330 20 75 7b bd 20 9a b7 3d 80 f9 a5 3a 08 48 ed bc
       -0.061390996 0.08964944 0.0012662858 -0.028965011
000340 28 2b a9 bc 80 52 08 3d 1f 91 08 3e 7c 90 2e 3d
       -0.020650461 0.033281803 0.1333661 0.04261826
000350 b6 57 d7 3d cd c7 b2 bd 00 36 57 3a 1e 9e d3 3d
       0.105147764 -0.08729515 0.0008209646 0.10332893
000360 14 b9 6c bd c8 ab bb 3d fe 2b bc bd 48 94 c2 bc
       -0.05779369 0.09163624 -0.09188078 -0.023752347
000370 28 dd 7e bd 40 40 b2 bb 6c 8f 13 3d d0 85 0d be
       -0.06222263 -0.005439788 0.03602545 -0.13820577
000380 56 98 d9 3d 82 cd d4 bd c0 0e 8b 3d c0 fc 57 bc
       0.10624759 -0.1039076 0.06789923 -0.013182819
000390 c0 60 e7 bb 47 1a a9 bd 0c 6a b0 bd c0 a9 a3 3b
       -0.007061094 -0.08256965 -0.08613977 0.004994601
0003a0 9c 8b 88 bd c5 4b 10 3e aa d7 41 bd 50 d1 77 3c
       -0.066672534 0.14091404 -0.047324814 0.015125588
0003b0 ac 14 4b 3d 9e 1c c9 bd 3a 4c de 3d e4 eb c2 bd
       0.04958026 -0.098199114 0.10854383 -0.09517649
0003c0 a4 59 c3 bd 7e 9b 76 bd 7d b6 d2 bd 00 10 92 3a
       -0.09538582 -0.060206883 -0.10288713 0.0011143684
0003d0 49 77 8f bd 86 06 a1 3d 9c 5c da bd c8 71 ba 3d
       -0.07005174 0.07862572 -0.10662195 0.09103733
0003e0 20 46 b7 3b 20 4b c7 3b 42 13 e2 3d 32 3a e9 3d
       0.0055930763 0.0060819536 0.110388294 0.11388053
0003f0 56 21 ed 3d ec ee a3 3d 86 5f c1 3d 5d ab 9a bd
       0.11578624 0.08004555 0.09442048 -0.07552216

transformer_encoder.encoder.attention.fc_K.bias f4 [40]
000000 c9 5d 83 bd b5 90 19 3e 39 30 20 be d0 48 7c 3d
       -0.064143725 0.14996608 -0.15643395 0.061592877
000010 2f 60 0e be d8 e4 46 bd 38 e9 15 3d 28 bd 3c 3d
       -0.13903879 -0.048558086 0.036599368 0.04607883
000020 c0 b6 a7 3b 6f df ce bd c8 2f b9 bd b0 4a 8f 3c
       0.005118221 -0.1010121 -0.09042317 0.017491668
000030 5d 76 bf bd fe 46 e1 3d 42 35 8c 3d 57 5f 02 be
       -0.09348748 0.10999869 0.068460956 -0.12731682
000040 e6 25 bc 3d 68 c6 c3 bd e8 ae 5b 3d de 5d c9 bd
       0.09186916 -0.09559327 0.0536336 -0.09832357
000050 5a 25 02 be 0d 27 1b 3e d8 33 d5 bc 14 3b 17 be
       -0.12709561 0.15151615 -0.026025698 -0.1476863
000060 7c d1 38 3d f6 7b 9e bd 80 51 da 3b 90 28 ce 3c
       0.045121655 -0.077384874 0.0066625476 0.025165826
000070 61 8e 03 3e 78 8f b8 3c 80 41 e9 ba 78 ab 74 3d
       0.12847282 0.022529349 -0.001779601 0.059733838
000080 ec a1 ab 3d 78 1d 8f 3c 18 d1 b7 3d 77 9b 14 3e
       0.083804935 0.017470106 0.08975428 0.1451243
000090 86 ea 68 bd 1c 3d d1 bd 76 e3 07 be cc 64 11 3d
       -0.056864284 -0.10216734 -0.13270363 0.035496518

transformer_encoder.encoder.attention.fc_V.weight f4 [40, 40]
000000 c0 9e 65 bd f0 d3 08 bd 70 65 44 3c 54 bb 27 3d
       -0.0560596 -0.033405244 0.011987075 0.040950134
000010 ec ea 18 bd 48 83 ec bd 87 96 1e be 56 ad be 3d
       -0.037333414 -0.115484774 -0.15487109 0.09310405
000020 f7 3e 98 bd 45 f8 1c 3e 3a c5 14 bd 58 20 9e 3d
       -0.074338846 0.15329082 -0.036320902 0.07721013
000030 ba 83 da 3d c0 0f cc bc 00 0a ef b9 b5 44 12 be
       0.10669656 -0.024909854 -0.00045593083 -0.14284022
000040 c0 6f 0b bd 43 64 1a 3e 13 2d 12 3e 68 49 1e be
       -0.03404212 0.1507731 0.14275007 -0.1545769
000050 d8 48 a8 3c 2a f1 b6 bd fe 77 1c be c6 ab a0 3d
       0.020542547 -0.08932717 -0.15280148 0.07845263
000060 6e 2a d3 3d fe 29 a9 3d 6f e3 12 3e 2c 56 01 bd
       0.10310827 0.082599625 0.14344572 -0.03157632
000070 58 79 ee bd e7 79 17 3e 7c 39 89 bd 70 21 d7 3c
       -0.11644238 0.14792596 -0.067004174 0.026261061
000080 9c 19 1d bd 99 89 0a 3e a8 32 1f 3d f0 bc 30 3d
       -0.0383545 0.13529052 0.03886667 0.043148935
000090 13 8a d8 bd b0 55 2d bc be ab c2 3d 94 2d 42 3d
       -0.105732106 -0.0105795115 0.095054135 0.047406748
0000a0 da d8 dd 3d 18 23 9d bc 84 ef 3a bd 68 e7 0e 3d
       0.10832377 -0.019181773 -0.045638576 0.034888655
0000b0 eb 27 0b be 80 38 be ba 1e 71 d6 bd 20 de 14 be
       -0.13589446 -0.0014512688 -0.10470794 -0.14537859
0000c0 a0 0f ed 3c ee 71 1c bd 00 c5 92 bc e1 b9 19 be
       0.028938115 -0.03819459 -0.017916203 -0.15012313
0000d0 88 de 20 be 0b 51 eb bd cc a2 ce bd 2c c9 12 be
       -0.15709889 -0.11490067 -0.10089645 -0.14334553
0000e0 13 72 ca bd 99 45 19 3e fc 59 b4 3d 2c 40 73 3d
       -0.09885039 0.14967956 0.08806226 0.05938737
0000f0 8e 72 38 bd bc b1 1e 3d fc ae 1d be 71 d1 0c be
       -0.045031123 0.03874372 -0.15398782 -0.1375177
000100 e0 81 6f bd a6 56 21 be ad b8 19 3e a0 d9 23 3c
       -0.058473468 -0.1575571 0.15011854 0.010000616
000110 e5 ac 16 3e cf 9f 80 bd b0 1c 05 be b4 93 12 be
       0.14714392 -0.06280481 -0.12999225 -0.14314157
000120 f0 05 ad 3c 50 33 ba 3c 72 2a c9 3d 5a 85 81 3d
       0.021120995 0.022729546 0.09822549 0.06324263
000130 b2 87 c3 3d f8 0b 88 3c b6 28 c5 bd c6 a8 bc bd
       0.09547366 0.01660727 -0.096269056 -0.092118785
000140 20 b7 65 bc 4c d6 b3 bd a6 27 bb bd a1 32 11 3e
       -0.014020711 -0.08781108 -0.09138422 0.1417947
000150 8e 49 36 bd 57 80 16 3e 5f 23 0f 3e a0 7b 70 bc
       -0.04450374 0.14697395 0.13978337 -0.014677912
000160 4c 51 8f 3d 1c 8a 1e be e2 e0 e0 3d 36 ad 5a bd
       0.06997928 -0.15482372 0.10980393 -0.053387843
000170 0b 19 14 3e 98 7e 37 3d 60 40 ae bd 98 1a 8d bc
       0.14462678 0.044798464 -0.08508372 -0.017224595
000180 ee c2 90 3d 55 cb f6 bd 6b 51 20 be 0b 6b 00 be
       0.0706843 -0.12050501 -0.15656058 -0.12540834
000190 60 e1 68 3d 40 23 30 3d 50 27 37 3c 6e 46 ed bd
       0.05685556 0.043002367 0.011178806 -0.11585699
0001a0 04 7e 2b 3d 48 ac 33 3d f0 ae 6e 3c f8 ad a4 3c
       0.041868225 0.043865472 0.014568076 0.020102486
0001b0 42 89 f0 3d 10 4d ba 3c 24 9d 9b 3d 40 17 62 3c
       0.1174493 0.022741824 0.075983316 0.013799489
0001c0 18 50 be bd b0 96 a3 bc 80 4c df bb ec 0d 92 bd
       -0.092926204 -0.019969314 -0.0068145394 -0.07131562
0001d0 e5 46 be bd 21 87 0a 3e 23 8a c0 bd 58 b0 f9 3c
       -0.09290866 0.1352811 -0.094013475 0.030479595
0001e0 5c fe f5 bd 32 33 cd 3d 8e be 6c bd 57 b3 19 3e
       -0.12011406 0.1001953 -0.057798915 0.15009819
0001f0 30 c8 f3 bc 6a 89 a5 bd 56 a8 bf 3d 10 e5 27 3c
       -0.029758543 -0.0808285 0.093582794 0.010247484
000200 27 e6 bf bd c8 da 13 bd da fc 73 bd 44 2f 7a 3d
       -0.0937007 -0.036097318 -0.05956731 0.061080232
000210 f5 4d 14 3e ac e4 11 bd c0 ce 15 3b 03 30 14 be
       0.14482863 -0.03561847 0.0022858828 -0.1447144
000220 87 e8 86 bd 23 26 00 be 85 71 00 3e 97 a3 06 3e
       -0.0658732 -0.12514548 0.12543304 0.13148342
000230 22 0d b7 3d d2 7d f2 3d 1a 5f c3 3d f2 52 ed 3d
       0.08938052 0.118404046 0.095396236 0.11588086
000240 b8 36 1d bd b4 ae 13 be 39 29 b0 bd 7e 0a a7 bd
       -0.038382262 -0.14422113 -0.086016126 -0.08156298
000250 94 4f 9d 3d a6 a6 c5 bd c4 6c 79 bd 79 ba 0b 3e
       0.07681194 -0.09650926 -0.060894743 0.13645352
000260 ec 44 93 bd 14 33 ac bd 60 88 81 3d dc ff ce bd
       -0.0719088 -0.0840818 0.063248396 -0.10107395
000270 67 f5 0d 3e 52 2d 86 3d 40 22 df 3c d2 94 d7 bd
       0.13863145 0.06551613 0.027238011 -0.10526432
000280 60 5c cc bc a0 77 49 3d 7e ae 40 bd 00 f8 bf 39
       -0.024946392 0.04918635 -0.04704141 0.00036615133
000290 40 72 c1 bb d0 cb 92 3d 40 41 0f bc 61 b9 16 3e
       -0.0059035122 0.071677804 -0.008743584 0.14719154
0002a0 46 b7 c7 3d 76 d6 fe 3d e0 2b 1c bc 17 c7 bf bd
       0.097517535 0.12443249 -0.009531945 -0.09364145
0002b0 a2 93 ea bd a0 82 69 3d e0 5e f2 bb c6 56 ad 3d
       -0.1145394 0.05700934 -0.007396564 0.08463816
0002c0 66 0d ca 3d 7a 4f a5 3d 7e f4 d7 3d e1 d8 21 be
       0.09865837 0.080717996 0.1054468 -0.15805389
0002d0 e4 3d 20 be 66 5f 61 bd 53 fa 1e 3e f0 32 38 bd
       -0.1564861 -0.05502262 0.15525179 -0.044970453
0002e0 f5 81 10 3e c0 f4 a6 3d 6a b1 da 3d 26 ab cc bd
       0.14112075 0.08152151 0.1067837 -0.099935815
0002f0 e8 a2 88 3c a2 b7 18 bd 1e b4 0c bd fe 49 85 3d
       0.016679242 -0.0372845 -0.03435146 0.065082535
000300 ea b0 ec bd 30 36 89 bc f0 c9 2e 3c 92 3e ff bd
       -0.11557181 -0.016749471 0.010668263 -0.12463106
000310 6f 76 05 3e c7 09 0a 3e 48 f2 9f bc ac 63 08 be
       0.1303346 0.13480292 -0.019524708 -0.13319272
000320 08 16 44 3d 33 c3 02 3e a0 52 ed bc 16 c1 ec 3d
       0.047872573 0.12769775 -0.028970063 0.11560266
000330 54 7a 00 be 77 55 88 bd a4 8b 66 3d 58 85 9b 3c
       -0.12546664 -0.06656926 0.056285515 0.018984482
000340 30 9d 2e bd 2e 3d 43 bd 58 16 b4 3c d2 36 60 bd
       -0.042630374 -0.047665767 0.02198331 -0.05473978
000350 00 62 bb ba 27 9c 12 3e ce 66 fc 3d f0 be 8b bd
       -0.0014296174 0.1431738 0.12324296 -0.06823528
000360 10 99 c8 3c 4f aa 03 3e 70 d0 29 bc 46 ea fb 3d
       0.024487048 0.12857936 -0.010364637 0.123005435
000370 f0 e6 c1 bc bc 16 41 3d ae 06 ec 3d 18 74 26 3d
       -0.02366969 0.04714082 0.115247115 0.04063806
000380 52 51 d0 bd b0 00 a4 3c e6 79 c9 3d 5e 8a 61 bd
       -0.101717606 0.02001986 0.098377034 -0.055063598
000390 6e 12 aa 3d 08 ee 8f 3c 89 be 8a bd 1c 3a a6 bd
       0.083042964 0.017569557 -0.06774623 -0.08116552
0003a0 ca b2 f3 bd b8 53 98 3d 01 ce 15 be d3 6b c3 bd
       -0.11899336 0.07437843 -0.14629366 -0.0954205
0003b0 98 4c 92 3c c0 b4 26 3b 62 8c c2 3d a4 77 20 3d
       0.017858788 0.0025437325 0.09499432 0.0391766
0003c0 39 a8 a7 bd 00 05 27 3d e0 2b 73 bc 3c 67 d5 bd
       -0.08186383 0.040776253 -0.014842004 -0.10420081
0003d0 b0 8e 2e 3c 5b c1 8e bd 10 7e 7e 3c 14 1b 55 3d
       0.010654137 -0.069704734 0.015532985 0.052027777
0003e0 de 2b a1 3d e0 b3 05 bc 8c a7 02 bd 7f 65 10 3e
       0.07869695 -0.008160561 -0.031898066 0.14101218
0003f0 6b 07 9f bd 80 93 9c 3c e2 ef d8 3d 49 4e 06 be
       -0.07765087 0.019113302 0.10592629 -0.13115801

transformer_encoder.encoder.attention.fc_V.bias f4 [40]
000000 ec d6 4f bd f9 06 20 be 32 ee 21 bd 2a 3e ea 3d
       -0.050742075 -0.1562766 -0.0395338 0.11437638
000010 52 13 69 bd 78 cc b7 3c 14 5c 94 3d 68 08 1f bd
       -0.05690319 0.022436365 0.07244125 -0.038826376
000020 9e 26 2d bd e4 b4 e6 bd 40 a9 a6 3c 54 4d 56 3d
       -0.042273156 -0.11264971 0.020344377 0.05231984
000030 00 f5 d4 bb 80 03 e6 bb d1 7e 17 3e 68 ec cf bc
       -0.006498933 -0.00701946 0.1479447 -0.025381282
000040 c7 4b 1d be 4f 74 df bd d6 66 cb bd 00 6c a3 b9
       -0.15360938 -0.10910856 -0.09931724 -0.0003117025
000050 12 d9 d6 bd 4e 16 db 3d fe f7 11 be 82 fb 70 bd
       -0.104906216 0.10697614 -0.14254758 -0.058833607
000060 c0 37 85 3b 61 52 0e 3e 3f 1f 02 3e f2 15 c2 bd
       0.004065484 0.13898613 0.12707232 -0.09476842
000070 af 4f 05 3e 04 7c 0d bd 1a 8b f8 3d 9c c5 82 3d
       0.13018678 -0.0345421 0.121359065 0.06385347
000080 70 d9 b1 bc 6d 43 13 3e 66 5e 97 3d 90 da 17 bc
       -0.021710128 0.1438119 0.07391052 -0.009268418
000090 1c 47 14 be f0 79 64 3d e0 90 bc bc 54 c1 79 3d
       -0.14480251 0.05578035 -0.0230183 0.060975388

transformer_encoder.encoder.attention.fc.weight f4 [40, 40]
000000 72 2a ec 3d 22 0e 14 be 1e e7 1b be 62 d9 c6 3d
       0.11531533 -0.14458516 -0.15224883 0.09709431
000010 86 81 91 3d 8e b0 a1 bd 98 df dd 3c 3b 8a 17 3e
       0.07104783 -0.07895003 0.027084157 0.14798824
000020 70 ae 33 3c f5 24 21 3e ae 36 cb bd 56 40 dd 3d
       0.010966882 0.15736754 -0.09922539 0.10803287
000030 00 a5 53 bb 30 f3 e1 3c b9 4c 0f 3e 56 39 58 bd
       -0.0032294393 0.027581781 0.13994111 -0.052789055
000040 02 c2 eb 3d d7 ba 1a 3e 20 b9 37 3d f8 a1 ac bc
       0.115116134 0.15110336 0.044854283 -0.021073326
000050 a0 dc ad bb 0a 37 e5 3d 9e 0b fd 3d b2 b0 ef bd
       -0.0053058416 0.111921385 0.123557314 -0.11703624
000060 fd 35 04 3e 4c e9 48 3d 01 01 d7 bd 90 31 07 bd
       0.1291122 0.049050614 -0.10498238 -0.03300625
000070 88 38 15 be b8 45 f8 3c 15 cc b2 bd fa 91 14 bd
       -0.14572346 0.030306682 -0.08730332 -0.036272027
000080 af 9f 0a 3e 44 eb bb bd e4 f5 1a 3d f8 29 67 3d
       0.13537477 -0.09175733 0.037832156 0.05643651
000090 18 d9 d3 bd 55 c4 03 3e 32 a4 ad 3d e0 04 17 3c
       -0.10344142 0.12867863 0.084785834 0.009217471
0000a0 d6 37 fb bd 26 f3 87 3d 28 ae 80 3d 44 47 36 3d
       -0.12266509 0.06638174 0.06283218 0.044501558
0000b0 4f 18 21 be 24 f3 1f 3d 80 4e 29 3d 00 59 a8 3d
       -0.15731929 0.039050236 0.04133463 0.082201004
0000c0 0e 64 ac 3d 3c 3a 8f bd bd bd 14 3e ee 88 bc 3d
       0.084175214 -0.06993529 0.14525504 0.09205805
0000d0 a7 a2 1c be c4 63 33 3d 60 ba 97 bc aa 68 91 bd
       -0.15296422 0.043796316 -0.018521488 -0.07100041
0000e0 7c f5 85 3d 2e ff e7 bd 9e a4 a3 3d 54 2a 1c be
       0.06540963 -0.113279685 0.079903826 -0.15250522
0000f0 80 b6 06 be 7b 22 05 be c0 17 a8 bc 2c 54 73 3d
       -0.13155556 -0.13001435 -0.020519137 0.059406444
000100 91 2b 97 bd 44 52 0f be 26 cc 15 be d0 26 07 be
       -0.073813565 -0.13996226 -0.14628658 -0.131984
000110 aa 06 d5 3d dc 94 09 be 40 19 4b 3b 21 11 dd bd
       0.10401662 -0.13435692 0.0030990392 -0.10794283
000120 64 35 2b 3d 7b 4a 03 be 4c 37 b7 3d d8 5f af bd
       0.041798964 -0.12821381 0.08946094 -0.085632026
000130 ba 9e ec 3d bc f6 68 bd 3a 8a 93 3d ab e8 20 be
       0.11553712 -0.05687593 0.07204099 -0.15713756
000140 70 fa b5 3d c0 c4 ff bd c0 54 dd 3c f2 79 14 be
       0.08885658 -0.12488699 0.027017951 -0.14499643
000150 20 d9 b6 bc c0 5d a8 3c 78 8f e9 3c a3 94 f8 bd
       -0.02232033 0.020552516 0.028510794 -0.12137725
000160 e6 89 ee 3d 84 b1 ad bd 46 94 b6 3d 9c 0f 9f 3d
       0.11647396 -0.08481124 0.08915 0.07766649
000170 d6 40 ac 3d 82 47 bf 3d be 82 3e bd 6c 2d 18 bd
       0.08410804 0.09339811 -0.046511404 -0.037152693
000180 b3 1d 86 bd 97 41 05 be fe 9f 4b bd 58 a4 ee 3c
       -0.065486334 -0.13013302 -0.049713127 0.0291311
000190 ba 71 0b be b8 2e ff 3c 06 2f a7 3d 40 3b a8 3d
       -0.13617602 0.031150207 0.08163266 0.08214426
0001a0 b4 cb a0 3d 82 8a 1b bd 37 52 09 be 10 e0 b8 bc
       0.07851353 -0.03797389 -0.13410269 -0.022567779
0001b0 5d a5 0a 3e a0 f4 c6 3c bd 8d 01 3e 20 11 ac bb
       0.13539644 0.024286568 0.12651725 -0.005251065
0001c0 a8 c0 e5 bd 40 fe b1 bb 36 28 1e be b0 74 6e 3c
       -0.11218387 -0.0054319203 -0.15445027 0.014554188
0001d0 88 2e ab 3c 1a 86 db bd 20 e5 cf 3b c1 d0 05 3e
       0.020896211 -0.10718937 0.0063444525 0.13067915
0001e0 15 01 95 bd f0 d3 f1 3c ad 3e 20 be 58 3c df bd
       -0.07275597 0.029520005 -0.15648909 -0.109001815
0001f0 9b ed c1 bd 56 1b cb 3d 38 92 e2 bc b0 bf 46 bc
       -0.09469148 0.09917323 -0.027657613 -0.012130663
000200 e8 73 df bc 9e 37 e1 3d d6 f0 43 bd 2e 9c d3 bd
       -0.027276948 0.10996936 -0.0478371 -0.10332523
000210 8e 33 d4 3d f6 60 21 bd e8 64 1e be 3a 11 f3 3d
       0.10361396 -0.03939911 -0.1546818 0.1186852
000220 18 38 0a 3d aa 83 c2 bd c2 1a 13 be 40 2d 28 3b
       0.0337449 -0.09497769 -0.14365676 0.0025661737
000230 50 9b 18 3d 30 68 3c bd a8 c0 14 3d d2 89 a8 3d
       0.037257493 -0.0459978 0.036316544 0.08229412
000240 4c 8e f7 bd 82 a1 e8 3d b6 0c be 3d 78 c2 b7 3d
       -0.12087688 0.1135893 0.09279768 0.08972639
000250 84 67 16 bd c0 3f fa bb 2e 0f d6 3d f2 41 f7 3d
       -0.036719814 -0.007636994 0.10452114 0.12073125
000260 c8 c0 ab bc d0 5b 4b 3d 68 cd 46 3d c0 82 5e bb
       -0.020965949 0.049648106 0.048535734 -0.0033952445
000270 c0 e1 e2 3b 4e 4d 79 bd e2 bd 81 3d 87 40 01 3e
       0.006923884 -0.06086474 0.063350454 0.12622271
000280 da ef 99 3d 56 57 d3 3d 00 0a bf ba ba f2 ab bd
       0.07516451 0.103193924 -0.0014575124 -0.08395906
000290 5d 3d a2 bd da 41 57 bd e8 3a db bc 5e bb c1 3d
       -0.0792186 -0.052553035 -0.026761487 0.094595656
0002a0 e4 23 20 be 5c b8 04 3d aa ba c3 3d 0c 46 24 3d
       -0.15638691 0.03240238 0.09557088 0.040105864
0002b0 3e 75 fe bd a3 b7 15 3e 95 b6 12 3e 66 66 d1 bd
       -0.12424706 0.14620833 0.14327462 -0.10224609
0002c0 b0 24 d4 bc 95 01 99 bd 8e e9 f9 3d 14 62 02 3d
       -0.0258964 -0.07471005 0.1220275 0.031831816
0002d0 4a 34 fb 3d 2e 5b dc bd ec cf bb bd fa d5 9d 3d
       0.12265833 -0.10759579 -0.09170517 0.077068284
0002e0 c0 00 04 3d 70 04 c8 3c 20 89 58 3d ae b8 86 bd
       0.032227278 0.024416178 0.052865148 -0.065781936
0002f0 1b 81 19 3e 96 82 da 3d 02 b9 b2 bd d1 bb 12 3e
       0.14990656 0.106694385 -0.08726694 0.14329459
000300 e0 42 ba 3b 24 04 67 3d 9e 69 bd 3d 69 72 aa bd
       0.0056842417 0.056400433 0.092486605 -0.08322603
000310 52 e9 f8 3d 24 ce 3b bd e2 0c 20 bd 77 40 13 be
       0.12153877 -0.045850888 -0.039074786 -0.1438006
000320 f4 5a 5d 3d 00 f5 95 ba 80 4b c8 bc 1f a9 a9 bd
       0.054041818 -0.0011440814 -0.024450064 -0.082842104
000330 dc 01 7b 3d c8 6a a7 3d 9a ae 10 be de d9 c2 bd
       0.06128107 0.08174664 -0.14129105 -0.09514211
000340 1b 07 05 3e a2 dc 9d bd 94 b5 20 be a1 a0 00 3e
       0.12990992 -0.07708098 -0.15694267 0.12561275
000350 d4 74 45 3d 20 cd 26 3d da d1 30 bd ad 8c 03 be
       0.04820712 0.040722966 -0.04316888 -0.12846632
000360 84 5d b9 bd 2a 77 b7 3d a3 d8 12 3e ca d3 6a bd
       -0.0905104 0.089582756 0.14340453 -0.057330884
000370 3b e8 0c 3e 18 dd c2 bc 5e 68 dc 3d 22 3b c4 bd
       0.13760464 -0.023787066 0.10762094 -0.09581591
000380 56 ba fa 3d e9 08 9d bd 89 97 13 3e 20 80 5e bc
       0.12242572 -0.07667715 0.14413275 -0.013580352
000390 15 31 8a bd f2 a9 c1 3d f4 20 15 3d 6e 82 07 be
       -0.06747643 0.094562426 0.03640838 -0.13233349
0003a0 da 2d 99 3d 2e 69 a5 3d 51 c9 10 be 9a 29 fc bd
       0.074794486 0.08076702 -0.14139296 -0.12312622
0003b0 22 29 b5 bd 3e 67 cc 3d 50 e7 06 bc 40 de b0 3b
       -0.08845736 0.099806294 -0.00823386 0.005397588
0003c0 30 6f 91 3c 9b b0 10 3e 11 d2 0b 3e 60 0f 8d 3b
       0.017753214 0.1412987 0.13654353 0.0043048114
0003d0 c2 14 08 be f8 e0 08 3d 58 ee 05 3d 64 f2 11 bd
       -0.13289168 0.033417672 0.032698005 -0.035631552
0003e0 c8 68 56 bd c0 cf 4f 3d ff 1f 8d bd c9 74 e6 bd
       -0.05234602 0.050735235 -0.068908684 -0.11252744
0003f0 d4 1d 00 be 26 38 dc bd 8e 36 95 3d 9e b5 d1 3d
       -0.12511379 -0.10752897 0.07285796 0.10239719

transformer_encoder.encoder.attention.fc.bias f4 [40]
000000 2d 6c 09 be 57 06 ca bd 90 81 a5 3d 20 af f4 bb
       -0.13420172 -0.098644905 0.08081353 -0.0074671656
000010 62 ca 8a bd 60 8c ba 3b 7c 06 48 3d a7 4e b6 bd
       -0.06776883 0.0056930035 0.04883431 -0.089017205
000020 9a c3 61 bd a8 13 18 be 40 03 f2 bc d2 4d 10 be
       -0.05511818 -0.14851248 -0.029542565 -0.14092186
000030 38 d5 6b bd 91 03 03 3e 48 a8 15 bd fc 58 13 3d
       -0.057576388 0.12794329 -0.03653744 0.035973534
000040 b8 ff 74 3d b5 06 9a bd 5c a4 10 3d 00 9b 02 3b
       0.059814185 -0.075208105 0.035312995 0.0019928813
000050 06 78 95 3d 8d cb 1d 3e 47 80 8d bd ea 79 16 bd
       0.07298283 0.1540968 -0.069092326 -0.03673736
000060 ed ee 14 be 28 8c de bc 7e 31 91 bd 00 8b db bd
       -0.14544268 -0.027166441 -0.07089518 -0.107198715
000070 1e 41 f9 bd fe 55 fe 3d d3 34 1f 3e 6d 33 12 3e
       -0.12170623 0.124187455 0.15547495 0.1427743
000080 50 0c 9b 3c c0 6c ee bb a1 ef b2 bd ba a9 84 3d
       0.01892677 -0.0072761476 -0.08737112 0.06477685
000090 0d 3a 0f be 6e 27 d8 3d c9 bd 8c bd 20 77 95 3c
       -0.13986988 0.105543956 -0.06872136 0.01824528

transformer_encoder.encoder.attention.layer_norm.weight f4 [40]
000000 00 00 80 3f 00 00 80 3f 00 00 80 3f 00 00 80 3f
       1.0 1.0 1.0 1.0
000010 00 00 80 3f 00 00 80 3f 00 00 80 3f 00 00 80 3f
       1.0 1.0 1.0 1.0
000020 00 00 80 3f 00 00 80 3f 00 00 80 3f 00 00 80 3f
       1.0 1.0 1.0 1.0
000030 00 00 80 3f 00 00 80 3f 00 00 80 3f 00 00 80 3f
       1.0 1.0 1.0 1.0
000040 00 00 80 3f 00 00 80 3f 00 00 80 3f 00 00 80 3f
       1.0 1.0 1.0 1.0
000050 00 00 80 3f 00 00 80 3f 00 00 80 3f 00 00 80 3f
       1.0 1.0 1.0 1.0
000060 00 00 80 3f 00 00 80 3f 00 00 80 3f 00 00 80 3f
       1.0 1.0 1.0 1.0
000070 00 00 80 3f 00 00 80 3f 00 00 80 3f 00 00 80 3f
       1.0 1.0 1.0 1.0
000080 00 00 80 3f 00 00 80 3f 00 00 80 3f 00 00 80 3f
       1.0 1.0 1.0 1.0
000090 00 00 80 3f 00 00 80 3f 00 00 80 3f 00 00 80 3f
       1.0 1.0 1.0 1.0

transformer_encoder.encoder.attention.layer_norm.bias f4 [40]
000000 00 00 00 00 00 00 00 00 00 00 00 00 00 00 00 00
       0.0 0.0 0.0 0.0
000010 00 00 00 00 00 00 00 00 00 00 00 00 00 00 00 00
       0.0 0.0 0.0 0.0
000020 00 00 00 00 00 00 00 00 00 00 00 00 00 00 00 00
       0.0 0.0 0.0 0.0
000030 00 00 00 00 00 00 00 00 00 00 00 00 00 00 00 00
       0.0 0.0 0.0 0.0
000040 00 00 00 00 00 00 00 00 00 00 00 00 00 00 00 00
       0.0 0.0 0.0 0.0
000050 00 00 00 00 00 00 00 00 00 00 00 00 00 00 00 00
       0.0 0.0 0.0 0.0
000060 00 00 00 00 00 00 00 00 00 00 00 00 00 00 00 00
       0.0 0.0 0.0 0.0
000070 00 00 00 00 00 00 00 00 00 00 00 00 00 00 00 00
       0.0 0.0 0.0 0.0
000080 00 00 00 00 00 00 00 00 00 00 00 00 00 00 00 00
       0.0 0.0 0.0 0.0
000090 00 00 00 00 00 00 00 00 00 00 00 00 00 00 00 00
       0.0 0.0 0.0 0.0

transformer_encoder.encoder.feed_forward.fc1.weight f4 [256, 40]
000000 90 da dc 3c 91 dc 08 3e 76 6a 97 3d 90 84 e6 3c
       0.026959687 0.1336539 0.07393353 0.028139383
000010 f0 e0 4e bd 40 f6 ac bc 00 a7 52 bb 32 a6 4a bd
       -0.050507486 -0.021113515 -0.0032142997 -0.049474902
000020 46 6a c1 3d 00 e8 fe 38 c0 54 b0 bb 60 08 8a bb
       0.09444098 0.00012154877 -0.0053811967 -0.004212424
000030 81 00 11 be 78 ad b7 3d e7 2e 19 3e f0 36 55 3c
       -0.14160348 0.089686334 0.14959298 0.013013586
000040 95 b8 02 be ea 63 f3 3d 54 04 ac bd 19 01 0a be
       -0.12765725 0.118842915 -0.08399263 -0.13476981
000050 a2 bb fc 3d 96 48 ea bd 8c 79 b2 3d 7a 46 db 3d
       0.123404756 -0.11439626 0.087145895 0.10706802
000060 c2 39 bf 3d b4 d1 0c 3d 88 08 f4 bd cc 14 18 be
       0.09337188 0.034379676 -0.1191569 -0.14851683
000070 00 2c 53 bc 14 e2 4a 3d 6e b6 93 3d b2 38 c1 3d
       -0.012888908 0.04953201 0.0721253 0.09434642
000080 96 25 13 bd a2 2b b3 bd 83 eb 03 3e 59 3f 18 3e
       -0.035924517 -0.08748557 0.1288281 0.14867915
000090 41 a0 17 3e b0 7e 10 bc 71 be 02 be aa e4 1d bd
       0.14807226 -0.008819267 -0.1276796 -0.03854815
0000a0 be f7 be 3d 4c 04 03 be 52 bf e0 3d df 8f 1b 3e
       0.09324597 -0.12794608 0.109739915 0.15191601
0000b0 e8 61 30 bd 18 9c 98 bd 08 3a 45 bd 50 01 f3 bc
       -0.04306212 -0.074516475 -0.048151046 -0.029663712
0000c0 22 38 dd 3d 2c 07 48 3d 98 ba 23 3d d6 d2 dd bd
       0.10801722 0.048834965 0.03997287 -0.108312294
0000d0 fe 5f cb 3d 9b ff 18 3e 8c 49 69 3d 62 f0 91 bd
       0.099304184 0.14941256 0.056954905 -0.071259275
0000e0 f0 8e 03 3c 00 74 c8 ba 40 05 e2 3c 41 43 dc bd
       0.008029684 -0.001529336 0.027590394 -0.10755015
0000f0 a7 37 f9 bd 38 8e b7 bc d7 74 20 be 71 15 17 3e
       -0.12168818 -0.022406682 -0.15669571 0.14754273
000100 22 c5 0c be cb 69 21 be 30 33 07 be 28 a5 ad 3c
       -0.13747075 -0.15763013 -0.1320312 0.021196917
000110 b5 34 01 3e 00 a4 2a bc ac de 3b 3d a0 04 dd 3b
       0.12617762 -0.010415077 0.045866653 0.006744936
000120 08 ca 90 bc f8 04 20 3d ea b9 ee 3d f0 9a 9b 3c
       -0.017674461 0.03906724 0.11656554 0.018994778
000130 19 d3 82 bd 82 36 ef 3d 90 9d ae 3c 67 fc 1d 3e
       -0.0638792 0.116803184 0.021315366 0.15428315
000140 40 1a fc bd 40 c7 34 3c ce fd d6 bd a6 f3 05 be
       -0.12309694 0.011033833 -0.10497628 -0.13081226
000150 ed 39 cc bd 48 08 48 3d 7a f6 b4 bd 40 ca 1a bc
       -0.09971986 0.048836023 -0.08836074 -0.009447634
000160 fd 38 05 3e 2c 7c 8b 3d 38 93 a0 3d 9c 5a a8 3d
       0.1301002 0.06810793 0.0784058 0.08220407
000170 b9 32 cc bd d8 9c c0 3c 8a 9b c0 bd 50 6e b0 3c
       -0.09970612 0.023512289 -0.09404667 0.021536976
000180 ee a3 de 3d b4 f5 95 3d 96 8d cf bd 60 35 cb 3c
       0.10871111 0.07322255 -0.10134427 0.024805725
000190 02 63 2f bd ff 3d 13 3e 71 7e 18 3e dc b4 b7 3d
       -0.04281903 0.14379118 0.14891984 0.08970043
0001a0 94 5a ad 3d 7a 92 d8 3d f8 95 14 bd 7e 55 13 bd
       0.08464542 0.10574813 -0.036275834 -0.035970204
0001b0 80 fb ed 3b 28 3f 45 3d d8 9d fc 3c 19 7d 16 3e
       0.007262647 0.048155934 0.030836985 0.14696158
0001c0 c6 61 fe 3d 06 84 bc 3d bf c4 ea bd fd d4 be bd
       0.124209926 0.09204869 -0.114633076 -0.09317968
0001d0 f6 01 df bd 99 e5 05 be 20 a7 2a 3c e0 b7 97 3b
       -0.10889046 -0.13075866 0.010415822 0.004630074
0001e0 49 a8 03 3e 30 01 2a 3c d0 a3 91 3c b9 3b 1d be
       0.12857164 0.01037626 0.017778307 -0.15354814
0001f0 5f f5 c9 bd 65 af 0b 3e 24 84 8a 3d 5a 0e 42 bd
       -0.09861254 0.13641126 0.06763485 -0.047376968
000200 00 3a a5 3a 75 66 de bd e9 de 03 3e 12 93 bf bd
       0.0012605786 -0.10859386 0.12878002 -0.09354223
000210 20 25 eb 3c 96 2f cf 3d 90 b1 d6 bd 80 33 98 3d
       0.028704226 0.10116498 -0.10483086 0.07431698
000220 40 05 16 3d 80 f8 b5 3c 88 46 ff bc 78 72 ce bc
       0.0366261 0.02221322 -0.031161562 -0.025201067
000230 2a 55 e4 3d 2f b9 89 bd 47 4f 1e be 01 2c 14 3e
       0.11149056 -0.06724774 -0.1545993 0.14469911
000240 ae 92 a7 bd 84 b5 67 3d ae 16 cc 3d f4 7e 4d 3d
       -0.08182274 0.05656959 0.09965263 0.0501699
000250 52 17 9d 3d e7 be 1b 3e 46 21 0d be b1 58 bc bd
       0.076704636 0.15209542 -0.13782224 -0.09196604
000260 89 2f 9e bd a4 d3 85 3d b6 e6 f5 3d 9d 58 08 be
       -0.0772391 0.06534508 0.12006895 -0.13315053
000270 00 78 e4 3a 60 d2 a2 bd 6a 2f 8a 3d 60 d5 c9 bc
       0.0017430782 -0.07950282 0.06747325 -0.024637878
000280 be 6a cb 3d a8 b1 fe bc 0a 5f 56 bd 0e d9 fc 3d
       0.09932469 -0.031090572 -0.05233673 0.123460874
000290 92 5a db 3d cc 3c 12 3d 40 d3 0f bc 60 4e a5 3c
       0.10710634 0.03570251 -0.008778393 0.020178974
0002a0 38 83 e0 bc d1 9d 1f 3e 3c c3 28 bd b6 49 ed bd
       -0.02740632 0.15587546 -0.041201815 -0.11586325
0002b0 a8 3b 85 3d 00 23 03 3d 3c 10 0f 3d 4a 28 26 bd
       0.06505519 0.0320158 0.03492759 -0.040565766
0002c0 e0 0d ae 3c b0 7a 8c 3c 04 ac 3c 3d c0 0a 3d bb
       0.02124685 0.017148346 0.046062484 -0.0028845519
0002d0 be 77 c5 3d a6 ca 65 bd a0 0d 85 3b c2 49 88 3d
       0.0964198 -0.056101464 0.004060462 0.06654693
0002e0 54 e5 17 be b0 b1 87 bd f5 1f 0c 3e 56 7f 0a bd
       -0.14833575 -0.06625688 0.13684066 -0.033812843
0002f0 de eb ed bd 6f 9f 10 be fe bd 6b bd 00 53 be 3b
       -0.11617254 -0.14123319 -0.057554238 0.005808234
000300 a0 20 17 3c f4 f0 46 3d 20 e1 48 bc fc 83 89 3d
       0.009224087 0.048569635 -0.012260705 0.06714627
000310 b2 0d c9 bd 60 33 b4 3c ca d0 e9 bd e4 d5 20 be
       -0.09817065 0.021997154 -0.114167765 -0.15706593
000320 c1 a0 09 be 44 ee 5c bd 61 60 a7 bd c0 a1 9e 3b
       -0.13440229 -0.053938165 -0.0817268 0.0048410594
000330 d4 01 1c 3d 35 56 11 be 92 04 c4 bd 52 ce 9c 3d
       0.03808768 -0.14193042 -0.09571184 0.0765654
000340 40 4b 13 3c 69 63 07 3e 28 71 af 3c f1 4f df bd
       0.008990109 0.13221516 0.021416262 -0.109039195
000350 53 3a 91 bd de 50 0f be 80 c9 dd ba 5f 70 06 be
       -0.070912026 -0.13995692 -0.0016921014 -0.13128804
000360 ab ce a5 bd 60 e8 21 be df 84 03 3e c0 45 e0 bc
       -0.080960594 -0.158113 0.12843655 -0.02737701
000370 0a b2 15 bd de da b9 3d bc 9d 47 bd 38 3c fb 3c
       -0.036546744 0.09074949 -0.04873441 0.030668363
000380 36 1d f8 bd e4 d4 a0 3d 42 c5 7a bd 12 88 19 bd
       -0.121149465 0.07853106 -0.061223276 -0.037483282
000390 b8 97 b7 bd 3a 1e bf bd f0 8b bd bc 12 7b 34 bd
       -0.08964485 -0.09331937 -0.023138016 -0.04406268
0003a0 60 9a a4 bc 24 13 4c bd 26 d8 91 3d 38 8f 53 3d
       -0.020093143 -0.04982294 0.07121305 0.051650256
0003b0 f8 d1 47 3d 2e 2f 91 3d 8b 82 14 3e 1c 78 b3 bd
       0.048784226 0.07089077 0.14502923 -0.087631434
0003c0 18 92 ba 3d e6 34 b2 3d 00 11 b3 bb c5 e4 21 be
       0.091098964 0.08701496 -0.005464673 -0.15809925
0003d0 99 99 de bd df 77 13 3e 7a 69 50 bd 0c 19 8d 3d
       -0.1086914 0.14401196 -0.05088184 0.06889543
0003e0 e1 1d 02 3e 70 56 00 be 10 1d 1f bd e2 b2 99 3d
       0.1270671 -0.12532973 -0.038846076 0.07504822
0003f0 6d 7b 0f be 4b 01 00 3e 5c f2 1f bd 06 45 eb 3d
       -0.14011927 0.12500493 -0.03904949 0.114877746

transformer_encoder.encoder.feed_forward.fc1.bias f4 [256]
000000 dc 24 34 3d 48 e7 da 3c 8e 37 19 be 32 2a 51 bd
       0.043980464 0.026721612 -0.14962599 -0.05106563
000010 39 65 14 3e 3e bc 14 be df f7 d4 bd 88 db 6f 3d
       0.14491738 -0.14524934 -0.1039884 0.05855897
000020 8c be 92 3d 86 05 a7 bd 5c 03 a4 3d 0c 2c e0 bd
       0.0716525 -0.081553504 0.08008453 -0.10945901
000030 13 95 05 be 6c 53 74 bd 92 60 de 3d c3 29 1c 3e
       -0.13045149 -0.05964987 0.10858263 0.15250306
000040 a6 55 94 bd 3e 0e 8b bd 8a 2c ee bd 7e ab a5 3d
       -0.07242899 -0.06789826 -0.11629589 0.0808935
000050 30 48 46 3c 64 a8 a4 bd a0 1e 2e bc 12 61 dd 3d
       0.012102172 -0.080399305 -0.010627419 0.1080953
000060 26 3f 55 bd 00 a0 46 b9 06 93 7b bd 3c a7 a3 3d
       -0.052062176 -0.00018942356 -0.06141951 0.07990882
000070 3e 26 db 3d d0 6b 61 bd 50 de 74 3c 0a 10 ac 3d
       0.107006535 -0.05503446 0.014945582 0.08401497
000080 00 e0 d8 3c e8 dd ef 3c 68 c0 4c 3d f7 d0 01 3e
       0.026473999 0.029280618 0.04998818 0.1267737
000090 21 ee 1f 3e be 7e 12 be 75 9f 15 be 44 ca 2a 3d
       0.15618183 -0.14306161 -0.1461161 0.0416968
0000a0 66 7a d5 3d 3e 2f c8 3d 1e c1 d5 3d 70 4d cc 3c
       0.10423736 0.09774636 0.10437225 0.024939269
0000b0 11 8f 20 be be 2a 86 bd 0e 69 94 3d a5 ca b3 bd
       -0.15679576 -0.06551121 0.072466 -0.08778886
0000c0 47 71 05 3e 20 49 90 3d fa 86 21 be c0 3f 47 bc
       0.13031493 0.070451975 -0.15774146 -0.012161195
0000d0 e0 08 ea bd 19 f3 19 3e 5a c2 ac bd a4 d1 55 3d
       -0.11427474 0.1503414 -0.08435507 0.052201882
0000e0 bc 31 a2 3d cd d1 08 be 80 ed b0 bc b0 f7 4a 3c
       0.07919642 -0.13361283 -0.021597624 0.012388155
0000f0 c1 85 ac bd cf a6 fb bd 82 e9 86 3d d0 aa 98 bc
       -0.08423949 -0.122876756 0.06587507 -0.018636137
000100 11 c6 17 be 48 0a fd 3c cc 30 74 3d c0 4d 07 be
       -0.1482165 0.030888692 0.05961685 -0.13213253
000110 f6 05 ce bd 88 f9 eb bd ed 9d 0e 3e 40 15 bb 3d
       -0.10059731 -0.11522204 0.13927431 0.091349125
000120 ac 13 25 3d 08 29 12 be d0 91 4b 3c 16 4c ba 3d
       0.040301964 -0.14273465 0.012424901 0.090965435
000130 f0 0a 21 bc 78 39 f7 bd 40 e4 4f bb 59 f7 e9 bd
       -0.009829268 -0.12071508 -0.003172174 -0.11424131
000140 63 b5 ab bd 69 e2 96 bd 7e 25 d5 3d 40 fd 66 bd
       -0.08384206 -0.07367403 0.10407542 -0.05639386
000150 76 2d 6f bd b0 0e 65 bd 57 f5 08 3e 80 5c 74 3d
       -0.058392964 -0.05592221 0.1337484 0.059658527
000160 a5 90 84 bd 9e 78 90 bd a1 6f 0a 3e a0 3c 45 bc
       -0.06472901 -0.07054256 0.13519146 -0.01203838
000170 6b 3c 21 3e 50 3a 88 bc dd 47 08 3e aa 65 a0 3d
       0.15745704 -0.016629368 0.13308664 0.07831891
000180 ca 1b 11 be f1 2b 20 3e 66 73 1d bd c1 7f a4 bd
       -0.14170757 0.15641762 -0.03844013 -0.080321796
000190 91 13 03 be 50 7c 3f 3c 50 64 49 bd b4 80 57 bd
       -0.12800433 0.011687353 -0.04916793 -0.052612975
0001a0 04 4e 4f 3d c1 03 13 be 7c 1f 11 be 78 e7 cc bc
       0.05061151 -0.14356901 -0.14172167 -0.025012717
0001b0 b8 e4 5f 3d 86 58 cc 3d 0a d8 e3 3d 38 46 8d 3d
       0.054661483 0.09977822 0.111251906 0.06898159
0001c0 42 f1 e6 3d 20 39 07 3d 80 cd f7 bb 60 92 be bd
       0.11276485 0.033013463 -0.0075623393 -0.093052626
0001d0 64 12 1d 3d e2 8a 01 be 40 17 bd bc 98 7c 90 bc
       0.038347617 -0.12650636 -0.023082376 -0.017637536
0001e0 c0 a1 e2 bc d4 2c 0b 3d cf eb 18 3e 8f 58 ba bd
       -0.027665019 0.0339783 0.14933704 -0.090989225
0001f0 75 98 09 3e 72 b7 64 bd 82 c5 17 be ec 11 1e be
       0.13437064 -0.05583901 -0.14821437 -0.15436524
000200 c0 a9 94 bb 9c 28 5a bd 82 72 ca 3d 08 2b ec bd
       -0.0045368373 -0.053261384 0.09885122 -0.11531645
000210 4a 8d d8 3d ed f9 16 be 50 73 38 bc 34 5d 19 be
       0.10573824 -0.14743777 -0.011257961 -0.1497696
000220 f8 8f 1e 3d 0d 18 20 3e 00 44 02 ba 52 d5 fe 3d
       0.038711518 0.15634175 -0.0004969239 0.12443031
000230 58 6b 83 bc 27 57 03 3e 46 e2 bb bd 8e 8d 79 bd
       -0.016042396 0.12826215 -0.091740176 -0.060926013
000240 c7 ab 03 3e cb 6d 0f 3e 2e 57 bf 3d 0c 63 1d be
       0.12858497 0.14006726 0.093428 -0.15369815
000250 ac a0 1a be 40 c1 56 bc 52 69 a2 3d 89 8d 19 3e
       -0.15100354 -0.013107598 0.079302445 0.14995398
000260 86 2a 43 bd ce c9 95 3d fe 78 82 3d 4e 50 22 bd
       -0.047647975 0.07313882 0.06370734 -0.039627366
000270 26 69 ff bd 65 e0 19 3e 0a b5 54 bd 60 55 a3 3c
       -0.12471227 0.15027006 -0.051930465 0.01993817
000280 d2 b6 d0 bd 4e 84 f4 3d 04 d5 04 be 70 57 6d bc
       -0.1019112 0.119392976 -0.12971884 -0.014486179
000290 32 ff e2 3d b3 80 18 be b8 6e 41 bd 36 7f c5 3d
       0.11083831 -0.14892845 -0.04722473 0.09643404
0002a0 61 0c ad bd eb 4e 1e 3e 7a a1 65 bd cb cd 03 be
       -0.08449627 0.15459792 -0.0560622 -0.12871473
0002b0 e4 7f 06 3d 9f 05 14 3e a0 56 14 3c 65 60 ea bd
       0.03283681 0.1445527 0.009053856 -0.11444167
0002c0 d0 7b 8a 3c 80 b6 0b be 50 c4 ef bc 1d 4a 0f be
       0.016904742 -0.13643837 -0.029268414 -0.13993116
0002d0 8f fc 1e 3e bb ff 1d 3e f8 63 4a 3d 92 b0 ca bd
       0.15526031 0.15429585 0.049411744 -0.09896959
0002e0 d6 15 cd 3d c9 ef 16 be c4 fc 5e bd fa ac aa 3d
       0.100139305 -0.14739908 -0.054440275 0.08333774
0002f0 08 fa ad 3d 9e 01 af 3d 90 6b c7 bd a3 11 82 bd
       0.08494955 0.0854523 -0.09737313 -0.0635102
000300 f6 8c f8 3d 70 a8 8d 3c c5 e9 c1 bd 4b fa 9f bd
       0.12136261 0.017292231 -0.09468416 -0.078114115
000310 49 a3 c8 bd a8 ae a2 3d 77 79 21 3e 1a c0 cd 3d
       -0.09796769 0.07943469 0.15768991 0.10046406
000320 38 fa 08 bd 96 92 ed 3d 7d 03 03 3e 18 d7 14 3d
       -0.033441752 0.11600225 0.127943 0.036337942
000330 e6 47 e0 3d e0 93 a0 bc 1e 80 58 bd 91 91 ea bd
       0.109512135 -0.019601762 -0.052856557 -0.11453546
000340 05 f3 e6 bd c1 ac 0b be 00 1d c1 3c bc 50 51 3d
       -0.11276821 -0.13640119 0.023573399 0.051102385
000350 ea fa 08 bd 59 73 03 3e b0 45 e6 bd 1e 09 f2 bd
       -0.033442415 0.1283697 -0.112437606 -0.11818145
000360 50 ea 8a bc 3e 2e a6 3d 9a 7e ea 3d 90 e6 59 3d
       -0.016957432 0.08114289 0.114499286 0.053198397
000370 fc ce b8 3d f6 73 02 be fe 62 93 3d ba f4 cc 3d
       0.09023854 -0.12739548 0.07196616 0.100076154
000380 88 22 75 bd 46 f9 03 be 80 e8 0c bc cc d2 eb bd
       -0.059847385 -0.12888059 -0.008600354 -0.11514816
000390 aa 8c e9 3d e0 a8 11 be c0 83 16 3b c0 a5 48 bb
       0.11403783 -0.14224577 0.0022966713 -0.0030616373
0003a0 25 ce 1d 3e 80 8c 7d bb 8e 1d db 3d 05 0d 05 be
       0.15410669 -0.003868848 0.106989965 -0.12993248
0003b0 d0 20 4f bd 10 af 2c bc 4f 98 08 be a4 79 46 3d
       -0.0505684 -0.010539785 -0.13339351 0.04845585
0003c0 8b c4 18 3e fa 1d e1 3d ac 14 44 3d 70 f8 77 3c
       0.14918725 0.10992046 0.047871277 0.015134916
0003d0 ac 10 08 be 96 ce 20 be 57 e5 1d 3e e0 24 50 3d
       -0.1328761 -0.15703806 0.15419517 0.050816417
0003e0 80 fe f2 3a 60 93 96 bb 60 8c 52 3d 40 0c 25 3c
       0.0018538982 -0.004595205 0.051403403 0.010073721
0003f0 90 38 c6 3c b6 a7 f9 3d df fd 17 3e d7 2a 0a 3e
       0.024196893 0.121901914 0.14842938 0.13492905
