simple2transformer/param/net_param/Mk07_50_25_critic_net.model (torch, 232127 bytes, 33 tensors)

transformer_encoder.encoder.attention.fc_Q.weight f4 [40, 40]
0.02132228 -0.13463822 -0.057274528 0.04284738 -0.1219469 0.11715858 0.004790038 0.14318211
0.121418044 -0.13455917 -0.033883207 0.12799941 0.073984474 -0.008903697 0.0589291 -0.06743641
-0.03600771 0.10262345 -0.03145735 0.058435455 -0.1449087 -0.08987423 -0.12097278 0.061564982
-0.12876475 -0.03897617 -0.1176455 0.014241606 0.024886027 0.07210541 -0.037552997 -0.07171474
-0.12804689 0.11580156 0.14452793 -0.003047958 -0.015670285 -0.032050118 0.06339297 -0.018797264
-0.025966838 -0.13321629 -0.05339078 0.1424055 0.054708213 -0.008494571 -0.019883662 -0.09128076
-0.01233691 -0.11571461 -0.13195494 -0.10770631 -0.07515186 -0.02110979 -0.013985604 -0.14537224
0.025254518 -0.0468854 0.14319368 -0.1254483 -0.13348924 0.13743828 0.026632339 0.013358876
0.068880275 0.1157435 0.032619074 0.09895675 0.12757675 0.081585094 -0.003409952 -0.09036392
0.082553476 -0.014119938 0.103187695 0.010877475 -0.10637245 -0.061585173 0.0044815093 -0.09975058
0.11985795 -0.010719016 0.05107799 0.011902019 0.13409789 0.005517319 0.05395162 0.15733339
0.05709885 0.1291119 0.14694573 0.073047295 0.11335634 -0.1312471 -0.10629159 -0.05448065
-0.043947965 -0.06974526 0.11259134 0.035068035 -0.12102507 -0.12575413 0.059237227 0.016784191
0.038663074 -0.054519944 0.045836106 -0.0525719 0.115316406 -0.053795345 -0.0077625364 0.062458694
-0.046618104 -0.03827645 -0.12635717 -0.12629488 -0.0729261 -0.03066124 0.033676058 0.0033200234
0.053193882 0.0014677048 0.06430404 0.107986465 -0.12996162 -0.053351536 -0.08570222 0.04493825
0.042290404 -0.010620266 -0.13318734 -0.052028686 0.1483456 0.028902277 0.116457835 -0.13480496
-0.0056040585 0.0013334304 0.08049637 -0.13560553 -0.12029359 0.1337886 0.1197422 0.06922892
-0.11779606 0.020993605 -0.09377875 0.018755198 0.054957077 0.067950755 -0.11179398 0.017007604
-0.04860445 0.034424275 -0.015658095 -0.14138705 0.0904749 0.050538734 0.019680083 -0.041575134
-0.051161177 -0.12073861 -0.1345813 -0.114277005 -0.15157582 -0.013034806 -0.012781128 0.11956544
-0.07034408 0.014253348 -0.06972334 -0.13251927 -0.00050880015 -0.073795415 0.15755938 -0.07002865
-0.025515825 0.103347585 0.026210412 0.08813162 0.09763165 0.0073768348 -0.012299702 0.07318279
0.015358254 0.046867415 -0.091225095 -0.07758808 0.072445124 -0.06750246 0.14440317 0.1316982
-0.15308063 0.009378329 -0.15455088 0.07266192 0.09806974 -0.07993502 -0.074606515 0.010282442
0.1327488 -0.034317218 -0.0060695857 -0.11917822 -0.048908837 0.11171375 0.07601836 0.045892864
-0.06960269 -0.07285255 0.0422222 -0.059992686 0.09764041 0.10758586 0.11599462 -0.13891684
0.031073585 -0.094045475 0.06721635 -0.155555 0.06920658 -0.038016528 -0.050245963 -0.08562669
-0.04521375 -0.07218531 -0.06668899 -0.120660834 0.123496816 -0.15272227 -0.094443165 0.00665693
0.12388618 -0.08765933 0.052592352 -0.14700744 -0.12368755 -0.11590387 -0.07230992 0.09629132
-0.0699565 0.15805747 0.121758565 -0.025586203 -0.039479896 -0.08746185 0.011147469 0.10369398
0.10717724 0.11138807 -0.08148474 0.15375628 0.023590982 -0.06786739 -0.007607445 -0.045349665
00000000: 10ac ae3c 9ade 09be b298 6abd bc80 2f3d
00000010: 4cbf f9bd d6f0 ef3d c0f5 9c3b 559e 123e
00000020: 06aa f83d e1c9 09be 1ec9 0abd 4712 033e
00000030: 2c85 973d d0e0 11bc a45f 713d 1a1c 8abd
00000040: d27c 13bd 3e2c d23d 6cd9 00bd 045a 6f3d
00000050: f262 14be fb0f b8bd 94c0 f7bd 902b 7c3d
00000060: e8da 03be 7aa5 1fbd 20f0 f0bd a055 693c
00000070: c8dd cb3c 00ac 933d 2cd1 19bd 2ddf 92bd
00000080: b91e 03be 5e29 ed3d 21ff 133e 40c0 47bb
00000090: f85e 80bc fc46 03bd 2cd4 813d b8fc 99bc
000000a0: 68b8 d4bc da69 08be 4ab0 5abd bfd2 113e
000000b0: b815 603d d02c 0bbc 10e3 a2bc 68f1 babd
000000c0: c020 4abc c8fb ecbd 321f 07be 2095 dcbd
000000d0: 38e9 99bd 70ee acbc e023 65bc 76dc 14be
000000e0: 90e2 ce3c e80a 40bd 5da1 123e 8575 00be
000000f0: 67b1 08be 9fbc 0c3e 102c da3c 30df 5a3c
00000100: 1a11 8d3d ee0a ed3d 949b 053d d6a9 ca3d
00000110: 7ba3 023e 1616 a73d 8079 5fbb b810 b9bd
00000120: cc11 a93d 5057 67bc 1254 d33d 7037 323c
00000130: cdd9 d9bd bc40 7cbd a0d9 923b 084a ccbd
00000140: 1678 f53d d09e 2fbc 2837 513d b000 433c
00000150: f550 093e a0ca b43b 60fc 5c3d 011c 213e
00000160: 7ce0 693d e935 043e f178 163e d299 953d
00000170: 5e27 e83d a465 06be 68af d9bd 1a27 5fbd
00000180: c802 34bd 9ad6 8ebd 4a96 e63d 80a3 0f3d
00000190: fedb f7bd b1c5 00be bca2 723d 007f 893c
000001a0: 2c5d 1e3d 4e50 5fbd a4be 3b3d a255 57bd
000001b0: 022b ec3d 8258 5cbd e05c febb b0d4 7f3d
000001c0: a0f2 3ebd c4c7 1cbd c663 01be 7253 01be
000001d0: 475a 95bd 482d fbbc e8ef 093d c094 593b
000001e0: d4e1 593d 0060 c03a d6b1 833d 0228 dd3d
000001f0: a914 05be 2487 5abd a584 afbd 2c11 383d
00000200: b438 2d3d a000 2ebc 4362 08be 081c 55bd
00000210: e9e7 173e 78c4 ec3c 7281 ee3d 500a 0abe
00000220: 40a2 b7bb 80c6 ae3a 48db a43d 2ddc 0abe
00000230: 7c5c f6bd e1ff 083e 663b f53d e4c7 8d3d
00000240: 103f f1bd c8fa ab3c 130f c0bd 80a4 993c
00000250: ac1a 613d c429 8b3d 3ef4 e4bd 8853 8b3c
00000260: 7615 47bd 7800 0d3d 6845 80bc c4c7 10be
00000270: e84a b93d b401 4f3d 2038 a13c b04a 2abd
00000280: 628e 51bd ce45 f7bd aecf 09be 100a eabd
00000290: b136 1bbe f08f 55bc f067 51bc bade f43d
000002a0: 8f10 90bd e086 693c 1ccb 8ebd 22b3 07be
000002b0: 0061 05ba 0d22 97bd 3f57 213e 2e6b 8fbd
000002c0: 9006 d1bc e6a7 d33d 38b7 d63c 5a7e b43d
000002d0: 1af3 c73d 60b9 f13b b084 49bc dce0 953d
000002e0: 30a1 7b3c 0cf8 3f3d 39d4 babd 80e6 9ebd
000002f0: 1c5e 943d bb3e 8abd 6dde 133e e5db 063e
00000300: 2bc1 1cbe 90a7 193c 9642 1ebe c6cf 943d
00000310: cad8 c83d f9b4 a3bd 4dcb 98bd b077 283c
00000320: 4def 073e 3690 0cbd 60e3 c6bb b613 f4bd
00000330: a254 48bd 2eca e43d 84af 9b3d 28fa 3b3d
00000340: db8b 8ebd b833 95bd 30f1 2c3d e4ba 75bd
00000350: b2f7 c73d fa55 dc3d 968e ed3d 3740 0ebe
00000360: 088e fe3c ea9a c0bd baa8 893d cf49 1fbe
00000370: 2ebc 8d3d 38b7 1bbd b6ce 4dbd 0c5d afbd
00000380: 0e32 39bd e4d5 93bd 3d94 88bd 071d f7bd
00000390: e6eb fc3d 3a63 1cbe 6b6b c1bd 6022 da3b
000003a0: 0ab8 fd3d bc86 b3bd 146b 573d 1e89 16be
000003b0: e64f fdbd 025f edbd 3917 94bd 6234 c53d
000003c0: 5a45 8fbd d1d9 213e 8e5c f93d 289a d1bc
000003d0: acb5 21bd 331f b3bd e0a3 363c 825d d43d
000003e0: be7f db3d 6e1f e43d 79e1 a6bd 4972 1d3e
000003f0: e041 c13c 0ffe 8abd e047 f9bb 92c0 39bd

transformer_encoder.encoder.attention.fc_Q.bias f4 [40]
0.05493635 0.13663377 -0.14986096 -0.12595198 -0.0870286 0.029332846 -0.12713109 0.11156826
-0.05000232 -0.0016902685 -0.0040917546 0.052944243 0.011700198 -0.07096286 0.024527892 -0.12491761
-0.1017624 0.030729696 0.007719323 0.053287685 0.12049489 0.10370891 0.006538525 0.095185414
-0.11814833 -0.14935349 0.12225346 0.038258314 -0.096919365 -0.07714748 -0.12609297 -0.022753835
-0.06366548 -0.15179296 0.057812706 -0.134053 0.15244325 -0.06352553 0.007780999 -0.111820936
00000000: f004 613d b9e9 0b3e 2775 19be 8ef9 00be
00000010: 0d3c b2bd 704b f03c a72e 02be e67d e43d
00000020: 3ccf 4cbd 008c ddba 2014 86bb 10dc 583d
00000030: 30b2 3f3c fa54 91bd b8ee c83c ced4 ffbd
00000040: ce68 d0bd d8bc fb3c 60f2 fc3b 3044 5a3d
00000050: 06c6 f63d 5665 d43d 2041 d63b 92f0 c23d
00000060: c0f7 f1bd 1ff0 18be 0660 fa3d c0b4 1c3d
00000070: a97d c6bd 7fff 9dbd 841e 01be 4066 babc
00000080: 0c63 82bd 9d6f 1bbe 04cd 6c3d 3145 09be
00000090: 151a 1c3e ac19 82bd c0f7 fe3b 6002 e5bd

transformer_encoder.encoder.attention.fc_K.weight f4 [40, 40]
-0.03952536 -0.106291294 0.08374828 0.06801012 0.07586402 0.12093304 0.09745552 -0.06346598
0.06258008 0.13581909 -0.1329159 0.1507902 -0.047448613 -0.1416494 -0.047628433 -0.14855647
-0.051508896 -0.081591874 -0.006245807 -0.099379495 -0.1388602 -0.13004902 0.09539227 -0.057333484
0.12634401 -0.13316439 0.1568157 0.0014388859 -0.03060864 0.12405129 -0.10731049 -0.07192492
0.005168125 0.032424763 0.007858053 0.060690105 0.07664624 -0.13641407 -0.057669327 0.0036674887
-0.06448577 0.04876864 0.045353845 0.024989724 0.038187668 -0.107464924 0.14213644 0.10322364
-0.14188124 0.133337 -0.05870802 0.061037198 -0.01175797 -0.1456238 -0.06012182 0.059703007
0.10384397 -0.10215667 0.01511234 -0.14446151 0.01546593 0.07162973 -0.12475303 -0.15034527
-0.04503297 -0.0673368 -0.058123752 -0.02832827 -0.13790412 -0.03305264 0.0072319657 0.12064238
-0.079425186 0.014492869 0.073924154 0.15694769 0.15247707 0.052367166 -0.001169458 -0.12799062
0.15572245 0.07925519 -0.12037717 -0.09120391 -0.15329263 -0.04894401 0.07277493 0.1346985
0.056339025 0.054658994 0.032164827 0.010558188 0.10199873 -0.14063989 -0.050802954 -0.12669921
0.06569202 -0.15081537 0.012982741 -0.11340214 -0.14099216 0.044474423 0.13766645 0.008153737
0.07104701 0.093890235 -0.08813633 -0.04169573 0.06536935 0.04969585 0.035274968 0.015765876
-0.046077184 -0.11157547 0.052529782 -0.051295586 -0.15698445 0.093131855 0.047241926 -0.0725276
0.09806366 -0.041734442 -0.08249369 0.05905898 -0.043620847 -0.052503064 0.03349988 -0.04748942
-0.112623006 -0.051609926 -0.06924833 0.059109688 -0.13917725 -0.08349056 -0.15286866 -0.14325614
0.0019947886 -0.08785588 0.033484444 -0.0077355355 -0.14557965 0.021386608 -0.14451836 0.030458614
-0.027544469 -0.10057431 0.059340805 -0.0022275299 0.109411016 0.06840293 -0.023858085 0.08470039
0.007824391 -0.061481 -0.08620964 -0.088258885 -0.14216334 -0.12784937 0.13144095 0.0327214
-0.15118028 0.031841367 0.13303606 0.058622718 0.014445424 0.050096184 -0.09410958 0.08051686
0.005363345 0.071493 -0.010782987 -0.07895203 -0.076579906 0.030129865 0.08840193 -0.012306377
-0.13241518 0.008955196 0.13091575 -0.12386754 0.048036903 0.01797299 -0.044926554 0.05776885
-0.13112642 -0.14122076 0.050166294 -0.11634561 0.0054653585 -0.059657976 -0.016452014 -0.05618228
-0.007958889 0.11625995 -0.14370178 0.115238324 -0.14411196 0.0717963 0.10081898 -0.13959982
0.119604334 0.031084567 -0.0025461167 0.04563743 -0.075455025 -0.03287907 0.09765817 0.0390967
-0.029647425 -0.00084613264 0.14642103 -0.0830458 0.08078578 -0.021917373 -0.024954513 -0.02890946
-0.0006284714 -0.08988603 0.052400976 -0.012450829 -0.14040926 -0.030575797 0.08556348 0.0016770363
-0.1051851 0.0031854063 -0.067413434 0.024621457 -0.00652425 0.11590333 0.13217245 0.08618608
0.14435042 -0.063878596 0.034872085 0.017343104 0.028185472 -0.14212331 0.12948547 0.083116055
-0.0041624606 -0.005507931 0.108958706 -0.10240732 0.051418588 0.13404478 0.0176602 -0.15227121
0.10178797 -0.072018296 -0.039367862 -0.103918806 0.10431285 -0.15678507 -0.12567636 -0.10552181
00000000: 58e5 21bd 40af d9bd 3884 ab3d e448 8b3d
00000010: 985e 9b3d beab f73d c296 c73d 74fa 81bd
00000020: fc29 803d 2914 0b3e 1b1b 08be bf68 1a3e
00000030: 7a59 42bd 8a0c 11be 0816 43bd 301f 18be
00000040: fefa 52bd a419 a7bd a0a9 ccbb 7a87 cbbd
00000050: 5e31 0ebe 922b 05be 065d c33d 84d6 6abd
00000060: 5360 013e 3f5c 08be 4b94 203e 0099 bc3a
00000070: f8be fabc 9a0e fe3d 9ac5 dbbd 5f4d 93bd
00000080: 6059 a93b d4cf 043d 10bf 003c 3096 783d
00000090: b4f8 9c3d 21b0 0bbe ac36 6cbd 405a 703b
000000a0: 1e11 84bd a0c1 473d f4c4 393d 40b7 cc3c
000000b0: ac6a 1c3d 9216 dcbd 378c 113e ea66 d33d
000000c0: 5149 11be 7f89 083e d277 70bd 2402 7a3d
000000d0: 80a4 40bc 681e 15be 4c42 76bd 248b 743d
000000e0: 26ac d43d 8437 d1bd c099 773c b8ed 13be
000000f0: d064 7d3c 9cb2 923d 847e ffbd 1cf4 19be
00000100: 7e74 38bd e0e7 89bd 2c13 6ebd b010 e8bc
00000110: bd36 0dbe 3462 07bd 20fa ec3b 5a13 f73d
00000120: aca9 a2bd 8073 6d3c 8c65 973d e5b6 203e
00000130: f322 1c3e f47e 563d 8048 99ba f90f 03be
00000140: b575 1f3e 8c50 a23d 4e88 f6bd 1ec9 babd
00000150: bef8 1cbe 8479 48bd 060b 953d 67ee 093e
00000160: c0c3 663d 1ce2 5f3d 44bf 033d 40fc 2c3c
00000170: b6e4 d03d e703 10be c216 50bd 70bd 01be
00000180: 8a89 863d 586f 1abe 90b5 543c 623f e8bd
00000190: 4060 10be d02a 363d 6ff8 0c3e 4097 053c
000001a0: 1881 913d 8649 c03d d280 b4bd 24c9 2abd
000001b0: 5ee0 853d e08d 4b3d 7c7c 103d 7027 813c
000001c0: 6ebb 3cbd ae81 e4bd 7829 573d 521b 52bd
000001d0: 88c0 20be eabb be3d c080 413d 5a89 94bd
000001e0: 9ad5 c83d bcf1 2abd 74f2 a8bd d4e7 713d
000001f0: c6ab 32bd 740d 57bd 2c37 093d 4484 42bd
00000200: e4a6 e6bd ee64 53bd 12d2 8dbd 001d 723d
00000210: 7b84 0ebe 19fd aabd 9a89 1cbe bdb1 12be
00000220: 00bb 023b c9ed b3bd fc26 093d 607a fdbb
00000230: d512 15be f832 af3c 9ffc 13be 5884 f93c
00000240: f0a4 e1bc e7f9 cdbd 580f 733d c0fb 11bb
00000250: e212 e03d d616 8c3d 0872 c3bc 6677 ad3d
00000260: e031 003c 80d3 7bbd ae8e b0bd 13c1 b4bd
00000270: 4493 11be f2ea 02be 7598 063e e006 063d
00000280: 01cf 1abe 186c 023d 9b3a 083e 601e 703d
00000290: 80ac 6c3c a831 4d3d 86bc c0bd 06e6 a43d
000002a0: 00bf af3b ec6a 923d 20ab 30bc 9ab1 a1bd
000002b0: edd5 9cbd e8d2 f63c 120c b53d b0a0 49bc
000002c0: d897 07be d0b8 123c c70e 063e 44ae fdbd
000002d0: 58c2 443d 183c 933c e804 38bd 089f 6c3d
000002e0: 0146 06be 2d9c 10be 2c7b 4d3d 9b46 eebd
000002f0: c016 b33b ec5b 74bd 60c6 86bc 641f 66bd
00000300: 0066 02bc b219 ee3d 8f26 13be 1202 ec3d
00000310: 1692 13be f009 933d 2e7a ce3d 41f3 0ebe
00000320: 1ef3 f43d 10a5 fe3c c0dc 26bb 50ee 3a3d
00000330: 2a88 9abd 34ac 06bd 0201 c83d dc23 203d
00000340: 28df f2bc 00cf 5dba 65ef 153e eb13 aabd
00000350: 0473 a53d 108c b3bc 686d ccbc 88d3 ecbc
00000360: 00c0 24ba 2b16 b8bd 68a2 563d 90fe 4bbc
00000370: 72c7 0fbe 187a fabc e83b af3d 00d0 db3a
00000380: 496b d7bd 40c2 503b 0e10 8abd f0b2 c93c
00000390: 60c9 d5bb ba5e ed3d 3758 073e 5482 b03d
000003a0: 99d0 133e c8d2 82bd 08d6 0e3d 2013 8e3c
000003b0: 38e5 e63c c688 11be d797 043e c038 aa3d
000003c0: 4065 88bb e07b b4bb be25 df3d eeba d1bd
000003d0: 4c9c 523d 0943 093e 20ac 903c fcec 1bbe
000003e0: 3676 d03d 547e 93bd 3240 21bd 62d3 d4bd
000003f0: faa1 d53d 448c 20be 4eb1 00be d21b d8bd

transformer_encoder.encoder.attention.fc_K.bias f4 [40]
-0.05867835 0.004196197 -0.028375477 -0.1541165 -0.05607713 -0.010309473 -0.103261314 -0.13069698
-0.039149933 0.09185125 -0.030480355 -0.08101347 0.04606937 0.049835846 -0.119776085 -0.1577423
0.13320147 0.06351158 0.05489956 0.12428473 0.085290074 0.08980411 0.13773014 0.09455775
-0.024234414 -0.14322025 0.105420664 0.046345577 0.099412605 -0.15690753 -0.15669057 -0.13176502
-0.11548863 -0.079563156 0.040388122 0.07289788 0.13888498 -0.1177064 -0.14069061 -0.1131403
00000000: b658 70bd 4080 893b b073 e8bc b7d0 1dbe
00000010: 22b1 65bd 10e9 28bc ab7a d3bd 6ed5 05be
00000020: ae5b 20bd 821c bc3d f0b1 f9bc 64ea a5bd
00000030: 3cb3 3c3d ac20 4c3d 2a4d f5bd 3387 21be
00000040: f765 083e 5c12 823d 5cde 603d fe88 fe3d
00000050: 90ac ae3d 38eb b73d 2109 0d3e 7ea7 c13d
00000060: 4087 c6bc 54a8 12be cae6 d73d dcd4 3d3d
00000070: d698 cb3d 5eac 20be 7e73 20be 69ed 06be
00000080: 4e85 ecbd 02f2 a2bd 046e 253d 7c4b 953d
00000090: dd37 0e3e 0e10 f1bd 3311 10be 1ab6 e7bd

transformer_encoder.encoder.attention.fc_V.weight f4 [40, 40]
0.016812116 0.017563865 -0.13380682 -0.05891715 -0.0037089288 -0.046710253 0.09573223 0.04187973
0.007326752 -0.023290887 -0.09207741 0.06991652 -0.06363892 -0.040877245 -0.13205366 -0.00082214177
-0.12773184 0.124591455 0.07238135 -0.13212395 -0.038490497 0.08829427 -0.14891195 0.048759818
-0.15551768 0.043385297 0.14651479 0.0902043 0.13336892 0.061348036 0.046807066 0.083942786
0.12733619 -0.045772895 0.00034730136 -0.005565658 0.016499728 0.04317887 0.04776457 0.06428748
0.07962243 -0.12646113 -0.099367656 -0.1350534 0.026826158 0.15250538 0.09968789 -0.122467324
-0.09337235 -0.12722895 -0.05879073 -0.044958897 -0.015638694 0.028282225 0.1368152 -0.15391523
0.066489205 0.1375588 -0.09664352 -0.09394699 0.13997339 0.07740469 -0.14063403 0.14815359
0.10626443 -0.12043433 0.08172114 -0.14334515 -0.068779245 0.08274524 -0.0933922 0.021833614
-0.07717602 0.004578352 -0.065442055 -0.10345517 0.007939443 0.004336357 -0.10205894 0.0067953467
-0.031370997 -0.13074806 0.0057144016 -0.13104 0.10407768 -0.103738844 -0.003930807 0.10779737
-0.03892292 -0.09335901 0.046994552 0.07168065 -0.060446955 0.13059105 -0.041874923 -0.024332821
-0.07462985 0.025608823 -0.049120285 -0.07702743 0.07672708 0.057965428 0.1388704 0.045370206
0.039558813 0.121194884 -0.09693122 0.12816264 -0.049606837 0.125479 -0.06098737 -0.0082030445
-0.02465257 -0.007932112 -0.05883629 0.02791731 0.08238821 -0.027044296 0.015530497 -0.022638142
0.04262142 0.11060928 0.11478679 0.053583607 -0.089433305 -0.0003746748 0.038234517 0.018546551
0.051778287 0.086845204 0.07614829 -0.026375875 0.14867093 0.004060507 -0.07976497 0.09999208
-0.0023858994 -0.015062928 -0.14016257 -0.11542642 0.069332585 0.01978241 -0.07149935 0.025922328
-0.042524427 -0.12799448 -0.08296622 0.077092215 -0.10913108 0.039048076 -0.0053727925 0.1002173
-0.07828358 -0.0027633607 -0.12103838 0.07708533 -0.09697269 0.102007344 -0.06171745 -0.12271538
0.07008004 0.13777317 -0.1168787 0.12509681 0.07678796 0.112952396 -0.017256767 -0.006384924
0.12315746 -0.062262252 -0.10647148 0.051852956 0.14898475 0.02766274 -0.08708586 0.09065057
0.15160014 0.07255706 0.10057269 -0.026731774 0.05907254 -0.037878722 -0.08354111 0.018448472
-0.033152126 0.026603714 0.016243711 0.13032301 -0.04346729 0.005306065 0.041577354 0.018334776
-0.13227573 -0.08893627 0.048137248 -0.054600976 0.13320963 -0.10425594 0.08308987 0.015802369
0.055645064 0.039454013 0.08054206 -0.025470585 -0.12681437 0.14703988 -0.001498729 0.13578881
-0.08906145 0.068715855 0.10966347 -0.07028572 -0.15421823 0.114362404 0.11910941 0.13333364
0.12145533 0.057736367 -0.054710865 0.09577845 -0.013772622 0.11866172 0.04950872 0.008935481
-0.15504204 0.014152825 0.14699633 -0.043475963 0.1354876 -0.14473505 0.14416032 -0.07007549
-0.09584117 0.13236885 0.0012599826 0.035967812 -0.07593449 0.034204423 0.024728745 0.13677864
-0.08533546 -0.019561663 0.08320083 0.11960085 -0.14252952 0.14218049 -0.05698318 -0.14005174
0.15378813 -0.15313992 -0.08786054 0.068575606 0.017665967 -0.0017455369 0.08524655 -0.09458838
00000000: 90b9 893c 18e2 8f3c a804 09be 1c53 71bd
00000010: 8011 73bb 4053 3fbd 420f c43d 148a 2b3d
00000020: 4015 f03b 88cc bebc 1593 bcbd 6430 8f3d
00000030: 1f55 82bd e66e 27bd 1339 07be 0085 57ba
00000040: 23cc 02be ce29 ff3d ac3c 943d 804b 07be
00000050: 36a8 1dbd a0d3 b43d 607c 18be 60b8 473d
00000060: 0740 1fbe c8b4 313d f907 163e 08bd b83d
00000070: dd91 083e 1448 7b3d c4b8 3f3d 32ea ab3d
00000080: 6b64 023e 5c7c 3bbd 0016 b639 2060 b6bb
00000090: 702a 873c 54dc 303d c8a4 433d 28a9 833d
000000a0: 1611 a33d 077f 01be 4581 cbbd 704b 0abe
000000b0: 88c2 db3c 5f2a 1c3e 2a29 cc3d 26d0 fabd
000000c0: 013a bfbd 4e48 02be 8cce 70bd d226 38bd
000000d0: b81c 80bc 20b0 e73c 4919 0c3e f49b 1dbe
000000e0: 7e2b 883d 37dc 0c3e 0aed c5bd 4867 c0bd
000000f0: 2f55 0f3e 5a86 9e3d 5e02 10be 93b5 173e
00000100: 2aa1 d93d 46a6 f6bd 6a5d a73d 12c9 12be
00000110: 22dc 8cbd 5676 a93d 6944 bfbd 68dc b23c
00000120: 760e 9ebd 0006 963b 7c06 86bd 4ee0 d3bd
00000130: 7014 023c 0018 8e3b 4704 d1bd 80ab de3b
00000140: e07e 00bd d2e2 05be e03f bb3b 5a2f 06be
00000150: ae26 d53d 0875 d4bd 00ce 80bb dec4 dc3d
00000160: a46d 1fbd 0233 bfbd 5c7d 403d 4ecd 923d
00000170: 3a97 77bd a9b9 053e 0a85 2bbd a055 c7bc
00000180: 89d7 98bd 98c9 d13c 5a32 49bd 8fc0 9dbd
00000190: 1623 9d3d 286d 6d3d 0b34 0e3e 1cd6 393d
000001a0: 6c08 223d 0635 f83d e083 c6bd 113d 033e
000001b0: 8a30 4bbd 917d 003e e4cd 79bd 1066 06bc
000001c0: 30f4 c9bc b0f5 01bc 52fe 70bd d8b2 e43c
000001d0: 26bb a83d 008c ddbc a073 7e3c a073 b9bc
000001e0: cc93 2e3d 1e87 e23d 5615 eb3d 7c7a 5b3d
000001f0: cf28 b7bd 0070 c4b9 cc9b 1c3d f0ee 973c
00000200: 7815 543d e6db b13d a2f3 9b3d 3812 d8bc
00000210: 313d 183e 000e 853b d15b a3bd a6c8 cc3d
00000220: c05c 1cbb 80ca 76bc c786 0fbe b064 ecbd
00000230: 3efe 8d3d b80e a23c 406e 92bd 105b d43c
00000240: 182e 2ebd fc10 03be 32ea a9bd 86e2 9d3d
00000250: 1e80 dfbd e0f0 1f3d 400e b0bb ba3e cd3d
00000260: 2453 a0bd 8019 35bb f8e2 f7bd eade 9d3d
00000270: 9e99 c6bd 3ae9 d03d 70cb 7cbd 3352 fbbd
00000280: 2086 8f3d 6914 0d3e 1a5e efbd 6119 003e
00000290: 0243 9d3d 9653 e73d 105e 8dbc a038 d1bb
000002a0: fa39 fc3d b406 7fbd b80d dabd c463 543d
000002b0: 758f 183e f89c e23c 125a b2bd 02a7 b93d
000002c0: 113d 1b3e cc98 943d 0ef9 cd3d 98fc dabc
000002d0: 0cf6 713d b826 1bbd 9a17 abbd 4021 973c
000002e0: 86ca 07bd 08f0 d93c 8811 853c 6573 053e
000002f0: c20a 32bd 80de ad3b 044d 2a3d d032 963c
00000300: 4a73 07be 3824 b6bd 902b 453d 46a5 5fbd
00000310: 1b68 083e 2384 d5bd 062b aa3d f873 813c
00000320: 14ec 633d 889a 213d 3cf3 a43d b0a7 d0bc
00000330: a0db 01be 9f91 163e 0071 c4ba 390c 0b3e
00000340: d965 b6bd e6ba 8c3d 3e97 e03d f6f1 8fbd
00000350: 62eb 1dbe d636 ea3d a2ef f33d 9d88 083e
00000360: 92bd f83d f87c 6c3d 8018 60bd 7e27 c43d
00000370: 90a6 61bc ea04 f33d a8c9 4a3d 2066 123c
00000380: 57c3 1ebe 40e1 673c 3586 163e da13 32bd
00000390: 43bd 0a3e 6d35 14be c39e 133e bd83 8fbd
000003a0: 6048 c4bd b38b 073e 0026 a53a fc52 133d
000003b0: 8b83 9bbd f019 0c3d f093 ca3c b30f 0c3e
000003c0: 5cc4 aebd c83f a0bc 3265 aa3d 4af1 f43d
000003d0: 42f3 11be c397 113e 3267 69bd b969 0fbe
000003e0: a37a 1d3e b6d0 1cbe 3af0 b3bd 5e71 8c3d
000003f0: 38b8 903c 80ca e4ba be95 ae3d 8db7 c1bd

transformer_encoder.encoder.attention.fc_V.bias f4 [40]
0.037756905 0.110731706 -0.03148687 -0.046699002 -0.09465144 0.057531238 0.06836298 -0.14862
-0.11912614 0.10889618 0.007740453 0.07927935 -0.14563581 -0.06531208 -0.15453514 -0.057039537
-0.028685078 -0.10919212 0.077077135 -0.13363129 0.06836115 0.15541972 0.09729992 0.1398652
0.14993994 0.07430874 -0.011885181 0.069125116 0.04331337 0.013704866 0.094286546 0.042191863
-0.035001613 0.14713354 0.018134072 0.12545203 -0.11005376 0.011353701 0.11385746 -0.029187188
00000000: fca6 1a3d 4ec7 e23d 60f8 00bd 7447 3fbd
00000010: 9dd8 c1bd e0a5 6b3d e401 8c3d d72f 18be
00000020: 68f8 f3bd f604 df3d a0a3 fd3b 365d a23d
00000030: 8e21 15be 57c2 85bd 763e 1ebe 4aa2 69bd
00000040: f8fc eabc 1ea0 dfbd 9eda 9d3d a4d6 08be
00000050: ee00 8c3d 5926 1f3e 2e45 c73d d338 0f3e
00000060: db89 193e 2e2f 983d 10ba 42bc 7891 8d3d
00000070: 5c69 313d 608a 603c 4e19 c13d 60d1 2c3d
00000080: da5d 0fbd 2daa 163e e88d 943c 7f76 003e
00000090: de63 e1bd e004 3a3c 1a2e e93d f819 efbc

transformer_encoder.encoder.attention.fc.weight f4 [40, 40]
-0.11653584 -0.1347868 0.03572552 0.13046928 -0.055009976 -0.13511342 -0.05156921 0.10252456
0.04090278 -0.0015581846 -0.10907273 -0.11233786 0.09866916 0.13258456 -0.07522075 0.01671432
0.07806656 0.11455332 -0.13811824 0.00935179 -0.022291273 0.111389294 0.11830996 -0.10938546
0.026431754 -0.046009988 0.07708995 -0.037462547 0.00361602 0.09973283 -0.0036885738 -0.07001676
-0.049090423 0.0016933084 0.0026212633 -0.050532915 0.15369563 -0.07577978 0.10416998 -0.11216736
-0.036964282 0.07733482 -0.030072838 0.08945328 0.05367486 0.0873854 -0.08752443 -0.04125896
0.11570291 0.1415082 0.13673948 -0.020321608 -0.11358747 0.08191931 -0.028714553 0.09339069
-0.06602629 0.14089273 -0.1255021 0.065703556 -0.032710955 0.029129848 0.06628427 0.035158068
0.108596966 -0.08152059 -0.015939713 -0.10723215 0.12678571 -0.10227189 -0.103281915 -0.09700258
-0.055898614 0.11330782 -0.09151629 0.037099406 -0.11845892 -0.12271258 -0.08649644 0.15146767
0.08196738 0.04750575 0.035058737 -0.048430964 -0.05360903 0.020433038 0.09720458 -0.14076738
-0.13326679 0.083153814 0.0047338307 0.023566559 0.12131588 -0.15181747 0.08033511 0.08972609
0.015781328 -0.07697481 0.075796574 -0.060983747 -0.058681898 -0.034237333 0.12733467 0.032071114
-0.042298995 0.13972358 -0.10194841 0.05539526 0.06146446 0.14618699 0.0037090778 -0.02650626
0.023125455 -0.008527502 0.11446415 0.01758711 -0.1265407 0.011557311 -0.10634951 -0.017257333
0.041919574 -0.007277474 -0.1362188 -0.033503033 0.076791435 0.06896417 -0.06900734 0.13722901
-0.12348272 0.013423011 0.03258401 -0.14469767 0.14657597 0.1367196 0.1408254 -0.10657817
0.1546819 -0.1180333 0.035640568 -0.016384676 -0.10637376 0.10539229 -0.07085083 -0.11387001
0.07677637 0.1430168 -0.013234079 -0.10804695 0.08981617 0.041847244 -0.07199358 0.106133565
0.024354383 0.13491513 0.021989241 0.034327105 -0.061746664 -0.11115409 -0.12184236 0.0017615557
-0.030658588 0.11500071 -0.1554177 -0.024374634 -0.10454884 -0.030196816 -0.14821696 -0.11278005
-0.028480783 0.02116996 0.061792776 0.05816102 0.09413223 0.028198242 0.021326542 0.073495105
0.12865506 -0.01631245 0.14723752 -0.06173873 0.09026596 0.13575365 0.11074363 -0.03577175
0.15106015 -0.07537759 -0.048078515 -0.014004737 0.0038281828 -0.021499023 -0.08978031 -0.11374302
0.13834964 0.06288648 -0.013681859 -0.042556033 0.1301334 -0.15171072 0.07732251 -0.049738802
0.14652754 -0.03977663 -0.13810316 0.0609643 -0.06664087 -0.026647061 0.14754768 -0.08395173
0.08908348 -0.08138083 -0.11350204 -0.12697612 -0.10598008 0.10412903 0.01671496 0.1061082
0.053069726 -0.084151916 -0.014307559 0.09522353 -0.07739347 0.08977316 -0.10117119 -0.094611034
-0.093538955 0.015193924 -0.09205491 0.113983884 -0.07519225 -0.06452466 -0.0960499 -0.03862509
0.05569829 0.09693922 -0.081886254 0.053924814 0.08421375 0.12034227 -0.071395874 0.038914606
0.0065442175 -0.056465507 -0.07916915 0.036764413 0.04245071 0.05801165 -0.05302629 0.13749455
0.08901504 0.074367166 -0.032884344 -0.015782312 0.10957338 0.09681995 0.10925992 -0.13616793
00000000: 58aa eebd 8d05 0abe ec54 123d bd99 053e
00000010: 2452 61bd 2c5b 0abe 3c3a 53bd 66f8 d13d
00000020: ac89 273d 003c ccba 8661 dfbd 6411 e6bd
00000030: 0e13 ca3d 3fc4 073e 560d 9abd 78ec 883c
00000040: 5ce1 9f3d ee9a ea3d de6e 0dbe 4038 193c
00000050: 309c b6bc 1220 e43d 7e4c f23d 7c05 e0bd
00000060: 6887 d83c f874 3cbd 56e1 9d3d 5472 19bd
00000070: c0fa 6c3b ba40 cc3d 00bc 71bb f264 8fbd
00000080: 0a13 49bd 00f2 dd3a 80c9 2b3b 9afb 4ebd
00000090: 6362 1d3e 6e32 9bbd 1257 d53d 00b8 e5bd
000000a0: dc67 17bd b861 9e3d 505b f6bc 4833 b73d
000000b0: 2cda 5b3d 1ef7 b23d 0240 b3bd 28ff 28bd
000000c0: a6f5 ec3d 87e7 103e 6f05 0c3e 8079 a6bc
000000d0: 8ca0 e8bd 50c5 a73d c83a ebbc 9e43 bf3d
000000e0: cb38 87bd 2f46 103e 9f83 00be 968f 863d
000000f0: ecfb 05bd b8a1 ee3c 0cc0 873d e801 103d
00000100: 1668 de3d 44f4 a6bd 0094 82bc 889c dbbd
00000110: 1dd4 013e ed73 d1bd 7885 d3bd 4aa9 c6bd
00000120: f2f5 64bd ee0d e83d e56c bbbd 8cf5 173d
00000130: 979a f2bd bc50 fbbd 0c25 b1bd 571a 1b3e
00000140: 84de a73d 6495 423d c099 0f3d 8c5f 46bd
00000150: 2495 5bbd 3063 a73c 3213 c73d 5325 10be
00000160: 1777 08be 8c4c aa3d 401e 9b3b a80e c13c
00000170: 7674 f83d 0a76 1bbe bc86 a43d 50c2 b73d
00000180: d847 813c f8a4 9dbd 3c3b 9b3d 18ca 79bd
00000190: 6e5c 70bd 723c 0cbd 0564 023e 005d 033d
000001a0: b641 2dbd b313 0f3e 54ca d0bd 24e6 623d
000001b0: 28c2 7b3d 0bb2 153e 0014 733b a823 d9bc
000001c0: 9871 bd3c f0b6 0bbc 2e6c ea3d d812 903c
000001d0: e393 01be e05a 3d3c c6cd d9bd 405f 8dbc
000001e0: dcb3 2b3d e077 eebb f17c 0bbe 7a3a 09bd
000001f0: d444 9d3d 163d 8d3d b853 8dbd c385 0c3e
00000200: 82e4 fcbd 30ec 5b3c d076 053d a02b 14be
00000210: 0318 163e 3900 0c3e 8934 103e a845 dabd
00000220: ef64 1e3e 71bb f1bd d8fb 113d 2839 86bc
00000230: 7cda d9bd ead7 d73d 3d1a 91bd ae34 e9bd
00000240: ee3c 9d3d ff72 123e c0d3 58bc b847 ddbd
00000250: 8af1 b73d 0468 2b3d 5f71 93bd 8e5c d93d
00000260: d882 c73c 3127 0a3e c822 b43c 949a 0c3d
00000270: 12ea 7cbd c1a4 e3bd 7d88 f9bd 00e4 e63a
00000280: b827 fbbc 7e85 eb3d d125 1fbe 50ad c7bc
00000290: b41d d6bd 505f f7bc 30c6 17be 3af9 e6bd
000002a0: 8850 e9bc a06c ad3c 6c1a 7d3d 403a 6e3d
000002b0: 66c8 c03d 0000 e73c 00b5 ae3c 9a84 963d
000002c0: 27be 033e b0a1 85bc 6fc5 163e c0e1 7cbd
000002d0: 5cdd b83d 0103 0b3e 8ecd e23d 6685 12bd
000002e0: 83af 1a3e 915f 9abd faed 44bd 2074 65bc
000002f0: 40e2 7a3b b81e b0bc bdde b7bd 1af2 e8bd
00000300: 87ab 0d3e a0ca 803d e029 60bc 3c4f 2ebd
00000310: b141 053e 0e5a 1bbe 445b 9e3d eaba 4bbd
00000320: 510b 163e d2ec 22bd ea6a 0dbe b4b5 793d
00000330: 027b 88bd f04a dabc bd16 173e e2ee abbd
00000340: 6671 b63d feaa a6bd c273 e8bd 0706 02be
00000350: 160c d9bd 9a41 d53d d0ed 883c 424f d93d
00000360: a45f 593d d757 acbd 406a 6abc 8e04 c33d
00000370: 7880 9ebd feda b73d d732 cfbd 6ec3 c1bd
00000380: 5a91 bfbd f0ef 783c 4987 bcbd 6270 e93d
00000390: 65fe 99bd 8125 84bd cfb5 c4bd 5835 1ebd
000003a0: e423 643d 1288 c63d fbb3 a7bd 44e0 5c3d
000003b0: 4278 ac3d 0276 f63d 0038 92bd ec64 1f3d
000003c0: e070 d63b 6048 67bd 6f23 a2bd 4896 163d
000003d0: cce0 2d3d a09d 6d3d 1832 59bd 5fcb 0c3e
000003e0: 844d b63d d04d 983d bcb1 06bd e849 81bc
000003f0: 0268 e03d 8a49 c63d aac3 df3d 9b6f 0bbe

transformer_encoder.encoder.attention.fc.bias f4 [40]
0.009035349 0.104972735 0.040805712 0.13227506 -0.07269567 -0.0019346774 0.1309459 0.114558056
0.018473804 0.021508068 0.08077738 -0.09318515 -0.10152434 0.0014437735 0.00013048947 -0.05622077
0.103646114 -0.09789128 0.10728879 -0.00053434074 0.022132918 0.09435256 0.14865921 0.08176236
-0.14767285 0.07122825 -0.14453852 0.09908025 0.06686415 0.1522458 -0.030061722 -0.0058534592
-0.062136456 0.1526152 0.15463884 0.05006811 -0.07302832 0.14170508 -0.121029645 0.012345716
00000000: 0009 143c f2fb d63d e423 273d 1d73 073e
00000010: 78e1 94bd 0095 fdba af16 063e 6a9d ea3d
00000020: 6056 973c b031 b03c 9c6e a53d dbd7 bebd
00000030: feeb cfbd 003d bd3a 00d4 0839 c047 66bd
00000040: 6a44 d43d 397b c8bd 3aba db3d 0013 0cba
00000050: 1850 b53c ea3b c13d 1f3a 183e 0673 a73d
00000060: 8d37 17be 1ee0 913d e801 14be 96ea ca3d
00000070: 12f0 883d 53e6 1b3e 0044 f6bc 60ce bfbb
00000080: cc82 7ebd 2947 1c3e a559 1e3e 3814 4d3d
00000090: df8f 95bd 231b 113e 64de f7bd b045 4a3c

transformer_encoder.encoder.attention.layer_norm.weight f4 [40]
1.0 1.0 1.0 1.0 1.0 1.0 1.0 1.0
1.0 1.0 1.0 1.0 1.0 1.0 1.0 1.0
1.0 1.0 1.0 1.0 1.0 1.0 1.0 1.0
1.0 1.0 1.0 1.0 1.0 1.0 1.0 1.0
1.0 1.0 1.0 1.0 1.0 1.0 1.0 1.0
00000000: 0000 803f 0000 803f 0000 803f 0000 803f
00000010: 0000 803f 0000 803f 0000 803f 0000 803f
00000020: 0000 803f 0000 803f 0000 803f 0000 803f
00000030: 0000 803f 0000 803f 0000 803f 0000 803f
00000040: 0000 803f 0000 803f 0000 803f 0000 803f
00000050: 0000 803f 0000 803f 0000 803f 0000 803f
00000060: 0000 803f 0000 803f 0000 803f 0000 803f
00000070: 0000 803f 0000 803f 0000 803f 0000 803f
00000080: 0000 803f 0000 803f 0000 803f 0000 803f
00000090: 0000 803f 0000 803f 0000 803f 0000 803f

transformer_encoder.encoder.attention.layer_norm.bias f4 [40]
0.0 0.0 0.0 0.0 0.0 0.0 0.0 0.0
0.0 0.0 0.0 0.0 0.0 0.0 0.0 0.0
0.0 0.0 0.0 0.0 0.0 0.0 0.0 0.0
0.0 0.0 0.0 0.0 0.0 0.0 0.0 0.0
0.0 0.0 0.0 0.0 0.0 0.0 0.0 0.0
00000000: 0000 0000 0000 0000 0000 0000 0000 0000
00000010: 0000 0000 0000 0000 0000 0000 0000 0000
00000020: 0000 0000 0000 0000 0000 0000 0000 0000
00000030: 0000 0000 0000 0000 0000 0000 0000 0000
00000040: 0000 0000 0000 0000 0000 0000 0000 0000
00000050: 0000 0000 0000 0000 0000 0000 0000 0000
00000060: 0000 0000 0000 0000 0000 0000 0000 0000
00000070: 0000 0000 0000 0000 0000 0000 0000 0000
00000080: 0000 0000 0000 0000 0000 0000 0000 0000
00000090: 0000 0000 0000 0000 0000 0000 0000 0000

transformer_encoder.encoder.feed_forward.fc1.weight f4 [256, 40]
0.0018829405 -0.11271378 -0.038355708 0.082800865 0.0428005 0.1358854 0.11953424 0.032010555
0.08966343 -0.054246657 0.018483773 0.083037645 -0.0008752942 0.058608457 0.009979144 0.13964067
0.026686922 0.08812669 0.07415755 0.13057645 -0.098779805 0.03767486 0.10384835 0.045987263
0.0022843182 0.14283676 0.092859104 -0.06476758 0.08282204 -0.13990487 -0.0017260313 0.091041505
0.11239363 -0.039161637 -0.05303213 0.017817602 -0.10435799 0.018513218 -0.04264602 -0.06453161
-0.092475705 -0.08658051 0.035516843 -0.15789326 -0.06653102 0.011433512 0.09122819 0.024476513
-0.09832035 -0.009303302 0.014027834 0.058862254 -0.021745667 -0.12853397 -0.06424813 0.083909035
-0.14198561 0.02603048 -0.14821696 -0.15132533 -0.03868556 -0.012834132 -0.0051018447 0.04200943
-0.032343477 0.13724695 0.06612076 0.14437534 0.097333714 -0.13838732 -0.14283353 -0.1300362
-0.15422486 0.12868677 0.06364563 -0.047054753 -0.08163135 0.011121467 -0.050464265 -0.06483566
-0.0975083 -0.04644756 0.031073868 -0.06294878 -0.12441462 -0.11605581 -0.04274209 -0.04182148
-0.04666411 0.04888667 -0.09432427 -0.06562583 0.0050567836 -0.018056244 0.02780345 0.1443357
0.15730952 -0.12180133 0.07842508 0.13281088 0.154265 0.1575705 -0.015414268 0.0010264963
0.11037071 -0.022564277 -0.07162577 -0.0954903 -0.073402196 0.09680246 -0.1350294 -0.12495179
-0.12493776 0.0052663237 -0.08650721 0.024420679 0.042735323 -0.019978136 0.14002417 0.020978063
-0.07100691 -0.15804744 0.1464582 -0.056783557 -0.15009634 -0.036197953 -0.1401774 0.06404343
0.123065844 0.15400027 -0.12007488 -0.14758965 -0.037491515 0.09483735 0.103935495 -0.03971801
-0.13933507 0.018145382 -0.09294483 0.091367766 -0.045291163 0.02537714 -0.0020345747 0.033320352
-0.052661486 0.12794779 -0.013506353 -0.09801402 0.13625063 0.034872726 -0.11493347 -0.088612035
-0.07220708 -0.00075879693 0.14099719 -0.07521664 0.100876614 0.15021808 -0.00079089403 0.08283518
0.011955485 0.07778168 -0.057954267 0.040318772 0.036104217 0.0074326843 -0.0649611 -0.052639075
-0.12847282 -0.065842345 0.054665357 -0.056614786 0.06969127 0.07502571 0.08673516 -0.06523099
-0.12435809 -0.14276929 0.0043661 -0.052484088 0.028227314 0.0021223128 0.025151804 -0.08402166
-0.09692709 0.11802356 0.1540821 -0.07105328 0.016370192 0.13883398 0.030898869 -0.14027709
0.01248318 -0.13568294 0.0588983 0.005291462 -0.15303527 0.1443967 0.1417995 0.020273998
0.028663918 0.08993901 -0.0051089674 -0.025923029 -0.030473858 0.035404578 -0.031014457 0.08216864
-0.15307085 -0.087459914 0.063048586 0.009432614 0.057984605 -0.066222765 -0.0454821 0.051951483
0.09217392 0.112437055 -0.13542329 0.013015389 -0.032046333 -0.032096475 -0.15034941 0.022095725
-0.08410645 0.0679518 0.11600058 -0.10899298 0.054621264 0.0433584 -0.06278866 0.1439432
-0.115328856 -0.08539808 0.13159104 0.1315393 -0.15661532 -0.1538368 -0.052588962 0.10869588
0.12864707 0.026567787 0.02117087 -0.06938236 -0.1534003 -0.083195046 -0.14924735 -0.11659712
-0.12806661 -0.077534914 0.0491329 0.043032244 -0.06460005 0.03837475 0.079613894 0.041689813
00000000: 00cd f63a 7bd6 e6bd e01a 1dbd 8093 a93d
00000010: 944f 2f3d 8b25 0b3e 5ece f43d 801d 033d
00000020: 76a1 b73d be31 5ebd 486b 973c a40f aa3d
00000030: 0074 65ba 6c0f 703d 907f 233c f7fd 0e3e
00000040: 889e da3c c47b b43d eadf 973d d5b5 053e
00000050: 114d cabd f450 1a3d 72ae d43d 245d 3c3d
00000060: 80b4 153b cd43 123e ea2c be3d dda4 84bd
00000070: 9a9e a93d 3943 0fbe 003c e2ba f873 ba3d
00000080: a22e e63d f467 20bd 3838 59bd 38f6 913c
00000090: a4b9 d5bd 08a9 973c 98ad 2ebd 2629 84bd
000000a0: e763 bdbd 1f51 b1bd 1c7a 113d c5ae 21be
000000b0: 6a41 88bd a053 3b3c d8d5 ba3d f882 c83c
000000c0: 2e5c c9bd e06c 18bc 00d5 653c 8c19 713d
000000d0: f823 b2bc 699e 03be 8694 83bd 80d8 ab3d
000000e0: ad64 11be e03d d53c 30c6 17be 07f5 1abe
000000f0: c074 1ebd 4046 52bc 602d a7bb 1412 2c3d
00000100: 987a 04bd 778a 0c3e 526a 873d 21d7 133e
00000110: e656 c73d 68b5 0dbe f442 12be 3628 05be
00000120: 1fed 1dbe 77c6 033e a458 823d 7cbc 40bd
00000130: 562e a7bd d036 363c 9eb3 4ebd 8fc8 84bd
00000140: 6eb2 c7bd cc3f 3ebd a08e fe3c 4aeb 80bd
00000150: 18cd febd abae edbd 5412 2fbd 004d 2bbd
00000160: de22 3fbd 643d 483d 152d c1bd d666 86bd
00000170: 60b3 a53b b0ea 93bc 10c4 e33c bdcc 133e
00000180: bf15 213e fa72 f9bd 549d a03d 93ff 073e
00000190: a5f7 1d3e 295a 213e 208c 7cbc 808b 863a
000001a0: 0a0a e23d b8d8 b8bc 88b0 92bd 6b90 c3bd
000001b0: e453 96bd 5e40 c63d 2645 0abe b9e6 ffbd
000001c0: 5edf ffbd 2091 ac3b b12a b1bd e00d c83c
000001d0: 3c0b 2f3d 30a9 a3bc 7f62 0f3e 30da ab3c
000001e0: 126c 91bd 30d7 21be 23f9 153e e095 68bd
000001f0: dbb2 19be 4e44 14bd aa8a 0fbe 3429 833d
00000200: f209 fc3d 3fb2 1d3e d2e9 f5bd be21 17be
00000210: b490 19bd 163a c23d 22dc d43d 5aaf 22bd
00000220: daad 0ebe a0a5 943c dc59 bebd 061f bb3d
00000230: 3a83 39bd b8e3 cf3c 8056 05bb ec7a 083d
00000240: 92b3 57bd bf04 033e c049 5dbc 93bb c8bd
00000250: 4985 0b3e b4d6 0e3d 3d62 ebbd 3a7a b5bd
00000260: 4ee1 93bd 00ea 46ba 9161 103e 2f0b 9abd
00000270: 6698 ce3d c5d2 193e 0054 4fba 7ea5 a93d
00000280: f0e0 433c 004c 9f3d 7461 6dbd 4c25 253d
00000290: 04e2 133d e08d f33b 530a 85bd 129c 57bd
000002a0: 618e 03be 5ad8 86bd c8e8 5f3d e8e4 67bd
000002b0: 4cba 8e3d 14a7 993d 34a2 b13d d397 85bd
000002c0: 74af febd 1d32 12be 8011 8f3b 8ef9 56bd
000002d0: f83c e73c 8016 0b3b 280b ce3c 8c13 acbd
000002e0: b681 c6bd 56b6 f13d b3c7 1d3e 6284 91bd
000002f0: c81a 863c 7f2a 0e3e a01f fd3c cca4 0fbe
00000300: 4086 4c3c 78f0 0abe 583f 713d 0064 ad3b
00000310: 47b5 1cbe bbdc 133e e333 113e a815 a63c
00000320: 98d0 ea3c f231 b83d 2069 a7bb 885c d4bc
00000330: 50a4 f9bc 6404 113d 0812 febc 0848 a83d
00000340: 9bbe 1cbe 2f1e b3bd 9e1f 813d 408b 1a3c
00000350: 4481 6d3d cd9f 87bd 704b 3abd 14cb 543d
00000360: aec5 bc3d 6645 e63d 67ac 0abe 803e 553c
00000370: 0443 03bd 9877 03bd 32f5 19be 1802 b53c
00000380: 0140 acbd 502a 8b3d b691 ed3d b637 dfbd
00000390: 8cba 5f3d 9498 313d 5797 80bd d965 133e
000003a0: 8931 ecbd 30e5 aebd cdbf 063e 3db2 063e
000003b0: c45f 20be 6587 1dbe 8667 57bd f29b de3d
000003c0: 0fbc 033e b0a4 d93c 886e ad3c 5718 8ebd
000003d0: f814 1dbe 2a62 aabd 4cd4 18be 79ca eebd
000003e0: e523 03be a0ca 9ebd 943f 493d 9442 303d
000003f0: 084d 84bd d82e 1d3d 9c0c a33d f0c2 2a3d

transformer_encoder.encoder.feed_forward.fc1.bias f4 [256]
-0.0806616 0.058890417 -0.06611806 0.025111288 -0.11175087 -0.08580389 -0.076927364 -0.12004733
0.12585051 0.03546983 -0.06413244 -0.044671476 -0.080276765 -0.06649707 -0.12392542 -0.0044315755
0.07214497 -0.017690897 -0.14699142 0.015469924 -0.06532729 -0.103464216 0.06888859 -0.09818726
0.14667992 -0.14966165 -0.13667257 0.14550273 0.09593548 -0.0035513788 -0.03244999 -0.0010642111
-0.05538118 -0.0064627975 -0.012472957 0.029907212 0.04966882 -0.0075645 0.09381901 -0.123715185
-0.07793782 -0.0893912 0.038472667 -0.0064408034 -0.12641118 0.026165515 -0.103181794 -0.007254675
0.0675908 -0.07636695 0.010745034 0.12840723 0.063694865 0.14735334 0.09253292 0.088614255
-0.047073416 0.065173045 -0.014597118 -0.06866721 -0.047581516 -0.078687206 -0.14856361 -0.1048377
0.028770596 -0.043314576 -0.15084058 0.0084389895 -0.07714412 0.02844882 -0.08437464 0.038190722
0.044714108 0.13954659 0.09609254 -0.10979754 0.12572761 -0.013458848 0.071249515 0.035189763
-0.12722237 -0.06950867 0.070775956 -0.050746746 0.12261532 -0.12513958 -0.025015905 0.047171205
-0.024009123 0.07315679 0.042088777 0.036027715 0.09836279 0.02429244 0.065515354 0.007793367
0.12512647 0.11974971 -0.14518014 0.089866504 -0.11702493 -0.013606876 -0.052934945 0.017755985
-0.1473724 0.0020454377 -0.040727586 -0.0685512 -0.10021524 -0.04438317 0.11804716 -0.12925301
-0.010164559 0.014913499 0.025585428 -0.14486285 -0.060619123 -0.06085541 -0.13394968 0.14325996
0.13861467 0.06060715 0.09586088 0.02372627 -0.058891132 0.11110155 0.06703049 0.09615664
-0.048393913 0.08508018 0.058303207 -0.00074175 0.13144551 0.15263502 -0.099283606 -0.12289135
0.084174424 -0.021929875 0.0073947906 -0.031257227 0.15078028 -0.06642456 -0.05885981 -0.06272604
0.107656255 0.08964968 0.1243753 0.11540948 0.05309096 0.04933171 -0.006445065 -0.013179496
-0.05996722 0.023353174 0.13621016 -0.026356399 0.11928289 0.0025780648 -0.0048257858 0.14166756
-0.13614137 0.022863492 -0.04404711 0.069012016 -0.011810601 -0.09176669 0.023920208 -0.034607485
-0.07774858 -0.100140095 -0.11217374 -0.022649437 -0.14698161 -0.093633406 -0.09026534 -0.109357476
-6.380677e-05 0.14144848 -0.07345971 0.050684243 0.06008871 0.0246073 -0.11453977 0.12509643
-0.04653711 -0.06643395 0.019812018 0.10609825 -0.110684216 -0.1501221 -0.015411183 -0.013903722
0.050918743 0.04090421 -0.05697161 -0.03372716 -0.00931789 -0.0133962035 0.124360666 -0.087481305
-0.13604257 -0.012219295 0.023780048 -0.039201334 -0.0751905 0.10515173 -0.076611236 0.021406248
0.039295807 -0.048635304 -0.09403302 -0.03058973 0.018462077 -0.097038776 0.028264865 -0.07242859
-0.103782624 0.13872488 0.14149542 -0.13646041 0.03810264 -0.07729897 -0.043078333 -0.021684542
-0.005324617 -0.15396895 0.12516232 -0.08083614 0.011488527 -0.019040555 0.1115614 0.007939979
0.023054212 0.0322067 0.048406646 -0.09921306 -0.0076223314 0.017989427 -0.11858877 -0.09270705
-0.15778255 -0.08022301 0.09630342 0.12424262 -0.021679685 -0.107161306 -0.123851664 -0.026270509
-0.1516021 0.15463124 0.057075575 -0.050430395 0.11244045 0.11046888 0.12034164 0.09844349
00000000: e931 a5bd 1437 713d e868 87bd 30b6 cd3c
00000010: a4dd e4bd f3b9 afbd 188c 9dbd 60db f5bd
00000020: f5de 003e d048 113d de57 83bd 70f9 36bd
00000030: 2568 a4bd 9e2f 88bd 9ccc fdbd c036 91bb
00000040: bec0 933d 80ec 90bc eb84 16be 9075 7d3c
00000050: 50ca 85bd 0ce5 d3bd 7615 8d3d 6716 c9bd
00000060: 4333 163e e740 19be e5f3 0bbe abfe 143e
00000070: d279 c43d 40be 68bb 48ea 04bd 007d 8bba
00000080: 60d7 62bd e0c5 d3bb 605b 4cbc f8ff f43c
00000090: 8871 4b3d a0df f7bb 2e24 c03d 635e fdbd
000000a0: dd9d 9fbd bc12 b7bd 8495 1d3d 600d d3bb
000000b0: ef71 01be 1059 d63c fa50 d3bd a0b8 edbb
000000c0: 0c6d 8a3d 4766 9cbd f00b 303c 2f7d 033e
000000d0: 7472 823d cbe3 163e e681 bd3d 647b b53d
000000e0: 0ed0 40bd 7279 853d c028 6fbc 65a1 8cbd
000000f0: d6e4 42bd c226 a1bd 0f21 18be 26b5 d6bd
00000100: 50b0 eb3c a06a 31bd f475 1abe b043 0a3c
00000110: bdfd 9dbd 800d e93c 9ccc acbd e06d 1c3d
00000120: 2426 373d 4de5 0e3e 2acc c43d 88dd e0bd
00000130: bdbe 003e 8082 5cbc 44eb 913d 2423 103d
00000140: 9546 02be 905a 8ebd fcf2 903d d2db 4fbd
00000150: be1d fb3d 9724 00be 28ee ccbc 9836 413d
00000160: c8ae c4bc 3ad3 953d 4865 2c3d cc91 133d
00000170: 6e72 c93d f000 c73c ea2c 863d 805f ff3b
00000180: 2721 003e 563f f53d 1aaa 14be ee0b b83d
00000190: c4aa efbd 60ef 5ebc 50d2 58bd 0075 913c
000001a0: cae8 16be c00c 063b f8d1 26bd 9264 8cbd
000001b0: a63d cdbd 20cb 35bd b6c2 f13d e75a 04be
000001c0: 4089 26bc c057 743c 8898 d13c ed56 14be
000001d0: c24b 78bd 8643 79bd 1b2a 09be bdb2 123e
000001e0: 01f1 0d3e 343f 783d b652 c43d 985d c23c
000001f0: d437 71bd 3689 e33d 4847 893d c6ed c43d
00000200: b238 46bd 843e ae3d 58cf 6e3d 0072 42ba
00000210: a799 063e 5b4c 1c3e 3455 cbbd 76ae fbbd
00000220: a463 ac3d 48a6 b3bc 0050 f23b 9407 00bd
00000230: 2566 1a3e 9a09 88bd fc16 71bd 8376 80bd
00000240: e27a dc3d 409a b73d 7ab8 fe3d ce5b ec3d
00000250: e875 593d 0c10 4a3d 2031 d3bb d0ee 57bc
00000260: 30a0 75bd 284f bf3c ad7a 0b3e 60e9 d7bc
00000270: 964a f43d c0f4 283b a021 9ebb 4d11 113e
00000280: a568 0bbe 384c bb3c be6a 34bd 2c56 8d3d
00000290: 4081 41bc 2df0 bbbd 50f4 c33c 94c0 0dbd
000002a0: a63a 9fbd 4016 cdbd 59bb e5bd 508b b9bc
000002b0: 5982 16be dfc2 bfbd 09dd b8bd d0f6 dfbd
000002c0: 00d0 85b8 dfd7 103e 0b72 96bd 489a 4f3d
000002d0: 941f 763d 4095 c93c d493 eabd 4719 003e
000002e0: b29d 3ebd 860e 88bd d04c a23c 0a4a d93d
000002f0: 68ae e2bd 9cb9 19be 307f 7cbc 70cc 63bc
00000300: 2c90 503d 2c8b 273d 105b 69bd 7e25 0abd
00000310: 10aa 18bc c07b 5bbc ceb0 fe3d 6629 b3bd
00000320: be4e 0bbe 7033 48bc 60ce c23c 9491 20bd
00000330: 7afd 99bd ca59 d73d 5ae6 9cbd 285c af3c
00000340: a4f4 203d d035 47bd 6294 c0bd 5097 fabc
00000350: c83d 973c 44bc c6bd b88b e73c 7155 94bd
00000360: fc8b d4bd e50d 0e3e 2de4 103e 47bc 0bbe
00000370: 8411 1c3d ec4e 9ebd e872 30bd c8a3 b1bc
00000380: 207a aebb 09aa 1dbe 8d2a 003e 6b8d a5bd
00000390: 603a 3c3c f0fa 9bbc 4e7a e43d b016 023c
000003a0: 30dc bc3c 2ceb 033d 0c46 463d 3830 cbbd
000003b0: c0c4 f9bb 905e 933c abde f2bd 32dd bdbd
000003c0: c091 21be f64b a4bd ba3a c53d ea72 fe3d
000003d0: 9899 b1bc 6377 dbbd f1a5 fdbd 4035 d7bc
000003e0: 953d 1bbe a757 1e3e 14c8 693d 1a90 4ebd
000003f0: 2e47 e63d 823d e23d ae75 f63d be9c c93d

transformer_encoder.encoder.feed_forward.fc2.weight f4 [40, 256]
-0.031266764 -0.004292384 -0.02406481 -0.020177104 0.009086259 -0.06226506 0.0042733178 0.02024468
-0.04505229 0.0291242 0.0011627227 0.008070022 0.047118485 0.028597057 0.03524159 0.060860097
0.0075162947 0.059759356 -0.023876317 0.042265646 -0.015413567 -0.041844465 -0.006148994 0.061789483
0.06132804 0.02096989 -0.050457552 0.03364093 0.006112814 -0.034794435 -0.012098424 0.049835257
0.02873683 -0.053116515 0.0061238334 -0.04792252 0.035221495 -0.0099568665 -0.014348991 -0.016637526
0.054483548 0.004504092 0.05965194 -0.06135334 0.046237618 -0.048690908 -0.022238739 -0.011035435
-0.032930963 0.03592959 -0.013035744 -0.037893713 0.008828767 -0.030852132 0.0010179952 -0.0512321
-0.0432731 0.022130415 0.029541433 0.034619994 -0.0294725 0.02976644 0.04864618 0.051476657
0.021431416 -0.010870427 -0.056202628 0.018329568 -0.036199704 0.035119615 -0.023943663 0.007654801
-0.051190875 0.007384911 0.021854386 0.017174073 0.009596415 -0.03559894 0.024856247 0.017893277
-0.05089309 -0.056054436 0.05742711 -0.031995036 -0.047913425 0.029504687 -0.015868329 0.018658236
-0.0480441 0.061701886 0.022152506 -0.04105375 0.010957651 -0.022241399 -0.050054833 0.053537272
-0.062320247 0.026809864 -0.011474267 0.0070462152 -0.061598733 0.00024935603 -0.021847755 -0.0052392855
-0.017451331 -0.014557146 -0.04228025 0.04956606 -0.050766505 -0.019551188 -0.054285146 -0.005654812
-0.04895488 -0.02328831 -0.039256193 0.057846017 -0.013597712 0.054961607 -0.028382197 -0.04561755
-0.05858633 0.046682954 0.050756447 -0.05029641 -0.024696045 0.018799797 0.013283223 -0.032112323
-0.049505547 -0.058098197 0.0256496 -0.06066186 0.0019813254 0.01506608 0.056772567 -0.050235033
0.014054477 -0.054994956 0.05455868 0.0036275983 -0.015896216 0.03107848 -0.05674406 0.0038983151
0.052536488 -0.033364728 0.02995789 0.059979968 -0.007998295 0.024551585 0.054105394 0.0242282
0.030794635 -0.029271439 0.034432046 -0.055916063 -0.02912882 0.04652594 -0.060578384 0.039725624
-0.022625 0.02650389 -0.039982438 -0.0058962777 -0.012421347 -0.06047578 -0.024844706 0.050984986
-0.0012298897 0.035485044 0.012570567 0.020583645 -0.005760558 -0.012811333 -0.013843343 0.03223458
-0.046830915 0.023149967 -0.013865806 -0.03344407 -0.04638166 -0.007016368 0.04900237 0.0047244206
-0.02682592 0.014989421 -0.0056147575 0.020868056 0.020695753 -0.029986143 -0.034537137 -0.02683054
-0.025030017 0.05374553 -0.045157023 -0.01832164 -0.030517563 0.04309824 0.053933725 0.017197184
-0.019821905 -0.015245393 0.042117484 -0.02769769 -0.06033103 0.06036903 -0.052285545 0.037992842
-0.05395431 0.053874657 -0.006529443 0.057164475 0.004492879 0.020025194 0.005146526 -0.010552399
0.038038343 0.031613722 -0.019404292 0.019609638 0.0022142455 0.03850293 0.05588396 -0.008801021
0.05174402 0.029737517 0.009682365 0.021084942 0.019175343 -0.033974566 -0.03048069 -0.044157848
-0.015462756 0.027443804 0.016979016 -0.012943871 -0.036348067 -0.05174111 0.0030224249 0.03967216
-0.025690913 0.0042341426 -0.012278609 0.014155127 0.0013740286 -0.048899837 0.04715921 -0.057383902
-0.0005530864 0.0009028092 -0.018375888 -0.035205066 0.051371798 0.007165827 -0.012417041 0.06241396
00000000: 9411 00bd 20a7 8cbb 9023 c5bc 744a a5bc
00000010: 88de 143c a609 7fbd 3007 8c3b 2cd8 a53c
00000020: c088 38bd e095 ee3c 8066 983a 2038 043c
00000030: 50ff 403d 6044 ea3c 7c59 103d 7048 793d
00000040: 404b f63b 3ac6 743d 4498 c3bc be1e 2d3d
00000050: 3089 7cbc 1a65 2bbd 807d c9bb f816 7d3d
00000060: 1c33 7b3d 0cc9 ab3c 94ac 4ebd 12cb 093d
00000070: 004e c83b 9c84 0ebd 7838 46bc 0e20 4c3d
00000080: 8069 eb3c b490 59bd 70aa c83b 684a 44bd
00000090: 6a44 103d 2022 23bc 0818 6bbc 6c4b 88bc
000000a0: 242a 5f3d 1097 933b 9855 743d a44d 7bbd
000000b0: a863 3d3d 1e70 47bd 042e b6bc f8cd 34bc
000000c0: 9ee2 06bd e82a 133d e093 55bc 7036 1bbd
000000d0: 88a6 103c 9cbd fcbc 406e 853a c0d8 51bd
000000e0: 223f 31bd d84a b53c e000 f23c b2cd 0d3d
000000f0: 5070 f1bc c0d8 f33c 3841 473d 30d9 523d
00000100: f090 af3c e019 32bc ba34 66bd e427 963c
00000110: 2446 14bd 96d9 0f3d 8025 c4bc 20d5 fa3b
00000120: 86ad 51bd 20fd f13b f807 b33c a4b0 8c3c
00000130: 483a 1d3c 32d0 11bd 549f cb3c ec94 923c
00000140: 4675 50bd 5699 65bd b038 6b3d 3a0d 03bd
00000150: de40 44bd d0b3 f13c 4cfe 81bc 28d9 983c
00000160: e4c9 44bd 1ebb 7c3d 2c79 b53c fa27 28bd
00000170: b887 333c 9833 b6bc 4c06 4dbd e649 5b3d
00000180: 8443 7fbd 5ca0 db3c 90fe 3bbc f0e3 e63b
00000190: f44e 7cbd 00bc 8239 10fa b2bc 50ae abbb
000001a0: 18f6 8ebc 1881 6ebc 0e2e 2dbd c805 4b3d
000001b0: 8af0 4fbd d029 a0bc 1a5a 5ebd 004c b9bb
000001c0: ea84 48bd 20c7 bebc 1acb 20bd f2ef 6c3d
000001d0: f0c8 5ebc 6c1f 613d c881 e8bc 78d9 3abd
000001e0: 38f8 6fbd a036 3f3d fee5 4f3d 9c03 4ebd
000001f0: 5c4f cabc 0802 9a3c e0a1 593c 3688 03bd
00000200: 54c6 4abd 60f8 6dbd 1c1f d23c 9278 78bd
00000210: 20d9 013b b8d7 763c 5a8a 683d 40c3 4dbd
00000220: c044 663c 6442 61bd ec78 5f3d 00bd 6d3b
00000230: c838 82bc 4c98 fe3c 766c 68bd e07a 7f3b
00000240: 8030 573d 74a9 08bd 406a f53c 8ead 753d
00000250: 480b 03bc 6820 c93c 9e9d 5d3d 387a c63c
00000260: 0845 fc3c a8ca efbc 9e08 0d3d 3e08 65bd
00000270: 909f eebc fc91 3e3d 0a21 78bd 56b7 223d
00000280: 1058 b9bc b01e d93c a0c4 23bd 9035 c1bb
00000290: e882 4bbc 74b5 77bd 2087 cbbc a2d5 503d
000002a0: 4034 a1ba c458 113d c8f4 4d3c 089f a83c
000002b0: 10c3 bcbb a0e6 51bc 30cf 62bc 6808 043d
000002c0: c6d1 3fbd 00a5 bd3c 682d 63bc a6fc 08bd
000002d0: b2fa 3dbd 90e9 e5bb b6b6 483d 50cf 9a3b
000002e0: 08c2 dbbc 3096 753c 00fc b7bb 7cf3 aa3c
000002f0: 248a a93c 80a5 f5bc d076 0dbd b8cb dbbc
00000300: c00b cdbc 4624 5c3d 92f6 38bd 4417 96bc
00000310: f8ff f9bc c887 303d 9ce9 5c3d 1ce1 8c3c
00000320: 8c61 a2bc d0c7 79bc 6283 2c3d 44e6 e2bc
00000330: ac1d 77bd 8445 773d 5e29 56bd 629e 1b3d
00000340: 32ff 5cbd acab 5c3d f0f4 d5bb 4c25 6a3d
00000350: 0039 933b e00b a43c 30a4 a83b f8e3 2cbc
00000360: 18ce 1b3d 647d 013d c0f5 9ebc 64a4 a03c
00000370: e01c 113b 40b5 1d3d 94e6 643d 2832 10bc
00000380: 8af1 533d 189c f33c c8a2 1e3c 54ba ac3c
00000390: 9c15 9d3c ea28 0bbd a4b2 f9bc dcde 34bd
000003a0: 8057 7dbc d4d1 e03c 9417 8b3c 8812 54bc
000003b0: b6e1 14bd 7cee 53bd e013 463b 467f 223d
000003c0: c075 d2bc 90be 8a3b 382c 49bc e8ea 673c
000003d0: c018 b43a 324b 48bd 042a 413d 620b 6bbd
000003e0: 00fd 10ba 80aa 6c3a 0889 96bc 3033 10bd
000003f0: 3c6b 523d 50cf ea3b d870 4bbc c8a5 7f3d
