simple2transformer/param/net_param/Mk07_75_25_actor_net.model (torch, 233919 bytes, 34 tensors)

transformer_encoder.encoder.attention.fc_Q.weight f4 [40, 40]
-0.12413502 0.08094446 -0.11280516 0.07359223 -0.033508457 0.14015014 -0.15002339 -0.025754303
0.13487156 -0.08857177 0.00055506825 0.11226632 -0.09415955 -0.022494286 0.14618118 -0.1008852
0.022444159 0.0786922 -0.040028565 -0.0022826642 0.027599752 -0.09291822 -0.1553427 -0.13780332
-0.05990061 -0.08275848 0.092504576 0.020048544 -0.11807831 -0.09288823 0.102144584 -0.032316044
0.0804514 -0.04579231 0.060092196 0.06985597 -0.12576818 -0.022377536 -0.15190619 0.0001489222
0.05509372 -0.01755619 -0.056633122 -0.1329959 0.13518457 -0.051709443 -0.07688884 0.09824811
0.04800974 0.14981751 -0.091744795 -0.04168558 -0.009848565 -0.1232622 -0.11055214 -0.12525217
-0.06458974 0.1377457 0.12872823 -0.07384226 0.095017985 0.0015863031 -0.027490884 -0.058259577
-0.05814115 -0.057879753 -0.1273016 0.043688312 -0.044645123 0.020348355 -0.028506443 0.14124043
-0.08650223 -0.018699676 -0.14167458 -0.10846904 0.14560531 0.14441337 0.1038997 0.13244797
0.14321761 0.09600888 -0.13801664 0.07168646 -0.10111304 -0.040107787 0.15524574 -0.11438397
-0.07768938 -0.003571272 0.006433174 0.11270894 0.07878989 -0.037772834 -0.049037762 0.111849025
0.049518287 -0.07948154 0.005971983 0.15102492 -0.13388517 -0.07285402 -0.054274477 -0.10612418
-0.04973799 0.14082421 0.13608135 -0.15090579 -0.039603792 0.018734857 0.13706215 0.06861694
-0.1235345 -0.04334061 -0.060122535 -0.025536835 0.07182971 -0.1037661 -0.03280656 -0.11835195
-0.12789066 -0.124815285 0.014616534 0.009345189 -0.10131449 -0.06342005 -0.09192429 0.10496573
0.14837553 -0.12393164 0.15265833 0.11530714 -0.06577206 -0.11514965 -0.15133925 -0.09473268
-0.056549586 0.054890454 -0.05413323 -0.0628479 0.06693296 -0.09136444 -0.13567342 -0.013744041
0.00095529854 -0.08712693 -0.12726147 0.050771326 0.10433577 -0.13293785 -0.06272646 0.058403328
0.06224495 -0.04704789 0.072594464 0.1259477 -0.10052918 0.15447639 0.14983265 0.0063003898
-0.12217033 -0.03274645 -0.0052157342 -0.1017384 0.07654555 0.11918743 -0.12638012 0.04610403
0.09390326 0.09738432 0.10814895 -0.07766665 -0.068197355 -0.09185762 0.15630506 -0.032220393
0.1537873 -0.0030730963 0.15168323 -0.102805644 -0.088210255 0.08683108 -0.15593119 0.10969193
0.081931666 -0.056786723 -0.07704149 0.058891848 -0.084915325 0.0869392 0.03951943 -0.15705179
0.13081242 -0.0155029595 0.07739146 0.10171564 -0.12836978 -0.015553623 -0.14463603 -0.004752189
0.09807132 -0.13406502 0.0058874935 0.15506385 -0.13584173 -0.13193826 -0.110922396 -0.08394807
-0.020438656 0.07320559 0.13536756 -0.0018577278 -0.03573565 0.11868562 0.15765397 -0.029838398
0.055391192 0.075035885 -0.100695014 -0.0032353103 0.15183245 0.016066775 0.121401384 0.13383986
-0.02073288 0.067865446 0.13909088 0.102991655 -0.15666388 0.09493528 -0.0689197 0.07019803
-0.07420741 0.07656494 -0.013037279 0.05379048 0.13283955 0.03728138 0.014504924 -0.065498285
-0.023484424 0.056572974 -0.036749482 0.10830937 0.060695887 0.0067293793 -0.029970273 0.13793986
-0.03947121 0.048000842 -0.10362969 0.010248154 -0.055145755 0.11906497 -0.08619095 0.09022191
00000000: 803a febd 36c6 a53d 6406 e7bd 86b7 963d
00000010: 2a40 09bd 8583 0f3e bb9f 19be b0fa d2bc
00000020: c51b 0a3e 1e65 b5bd 0082 113a e2eb e53d
00000030: b9d6 c0bd f045 b8bc 85b0 153e e69c cebd
00000040: d0dc b73c 6029 a13d fef4 23bd c098 15bb
00000050: e018 e23c e84b bebd 2812 1fbe 501c 0dbe
00000060: 585a 75bd 477d a9bd 0a73 bd3d d83c a43c
00000070: 0ad3 f1bd 2f3c bebd 2e31 d13d d45d 04bd
00000080: b4c3 a43d b890 3bbd 3c23 763d a610 8f3d
00000090: 60c9 00be 1851 b7bc 4c8d 1bbe 0028 1c39
000000a0: f4a9 613d 00d2 8fbc 22f8 67bd 1430 08be
000000b0: d36d 0a3e 48cd 53bd e577 9dbd 4e36 c93d
000000c0: dca5 443d c369 193e b2e4 bbbd 80be 2abd
000000d0: e05b 21bc e470 fcbd 2969 e2bd 1b42 00be
000000e0: a047 84bd 350d 0d3e 55d1 033e 9c3a 97bd
000000f0: ca98 c23d 80eb cf3a 9034 e1bc 98a1 6ebd
00000100: 6a25 6ebd 5213 6dbd 5a5b 02be 84f2 323d
00000110: cedd 36bd 98b1 a63c 5886 e9bc 55a1 103e
00000120: 1528 b1bd 1030 99bc 2413 11be 0425 debd
00000130: 8f19 153e 19e1 133e 5ec9 d43d 71a0 073e
00000140: a3a7 123e 4ea0 c43d 3c54 0dbe 5ad0 923d
00000150: 5a14 cfbd 1048 24bd bdf8 1e3e 2542 eabd
00000160: 9c1b 9fbd 000c 6abb 60cd d23b f2d3 e63d
00000170: 985c a13d b0b7 1abd d2db 48bd 1a11 e53d
00000180: b0d3 4a3d 38c7 a2bd a0b0 c33b 47a6 1a3e
00000190: 3219 09be 7d34 95bd ea4e 5ebd a257 d9bd
000001a0: 10ba 4bbd 3934 103e e958 0b3e 0c87 1abe
000001b0: 9637 22bd d879 993c 055a 0c3e 0a87 8c3d
000001c0: a8ff fcbd ec85 31bd 0c43 76bd a032 d1bc
000001d0: 741b 933d 5283 d4bd 2c60 06bd 8262 f2bd
000001e0: c5f5 02be 289f ffbd 307a 6f3c 901c 193c
000001f0: f97d cfbd 5fe2 81bd cd42 bcbd 46f8 d63d
00000200: c1ef 173e dfcf fdbd 7752 1c3e 2626 ec3d
00000210: 80b3 86bd 94d3 ebbd adf8 1abe 3503 c2bd
00000220: 8aa0 67bd d0d4 603d ceba 5dbd 66b6 80bd
00000230: 2614 893d 481d bbbd f9ed 0abe b02e 61bc
00000240: 006d 7a3a 9b6f b2bd d550 02be 98f5 4f3d
00000250: fead d53d dc20 08be bb76 80bd 5438 6f3d
00000260: 90f4 7e3d 4ab5 40bd 68ac 943d 6ff8 003e
00000270: 3ee2 cdbd 0f2f 1e3e bb6d 193e 8073 ce3b
00000280: 7034 fabd 2421 06bd c0e8 aabb 395c d0bd
00000290: eac3 9c3d 8a18 f43d ca69 01be 94d7 3c3d
000002a0: 5a50 c03d 6e71 c73d 327d dd3d b10f 9fbd
000002b0: 0eab 8bbd d91f bcbd 6f0e 203e 88f9 03bd
000002c0: 6b7a 1d3e 0066 49bb d952 1b3e c48b d2bd
000002d0: 94a7 b4bd 7ed4 b13d 6dac 1fbe 2aa6 e03d
000002e0: cacb a73d 3299 68bd eec7 9dbd 9438 713d
000002f0: 16e8 adbd 2e0d b23d 20df 213d 2fd2 20be
00000300: b1f3 053e 2000 7ebc 6a7f 9e3d 4a50 d03d
00000310: 5e73 03be a0d4 7ebc 781b 14be 40b8 9bbb
00000320: 9ed9 c83d 5748 09be e0eb c03b 0fc9 1e3e
00000330: 181a 0bbe d31a 07be 482b e3bd f7ec abbd
00000340: f86e a7bc d0ec 953d cb9d 0a3e 007f f3ba
00000350: 8c5f 12bd 7211 f33d 0b70 213e a86f f4bc
00000360: e0e1 623d 6aac 993d 3039 cebd 8007 54bb
00000370: f779 1b3e 789e 833c 4aa1 f83d 510d 093e
00000380: 00d8 a9bc 0afd 8a3d d76d 0e3e 4aed d23d
00000390: 7f6c 20be 6e6d c23d c625 8dbd fcc3 8f3d
000003a0: 0efa 97bd 14ce 9c3d 509a 55bc 6853 5c3d
000003b0: 1707 083e 5cb4 183d 10a6 6d3c f723 86bd
000003c0: 6862 c0bc 10b9 673d a086 16bd 4ed1 dd3d
000003d0: 409c 783d 2082 dc3b 3884 f5bc 1b40 0d3e
000003e0: 90ac 21bd 889c 443d ce3b d4bd e0e7 273c
000003f0: 84e0 61bd 56d8 f33d e184 b0bd 44c6 b83d

transformer_encoder.encoder.attention.fc_Q.bias f4 [40]
-0.037036188 -0.12502691 0.12886201 0.05422187 -0.053755015 -0.030084446 -0.13176522 -0.05124697
-0.046083823 0.13984118 -0.036367364 -0.08279945 -0.0020073205 -0.12946633 0.119767174 -0.048242427
0.102118984 -0.095742986 -0.087833546 -0.030495688 -0.114145614 0.0029165894 -0.15677539 0.08057147
-0.09681459 -0.09968124 -0.14070797 -0.11691913 0.04268457 -0.042366683 0.14057161 -0.041267276
0.016574249 -0.10769291 -0.07604657 0.053564712 -0.14471377 -0.11508165 -0.11989809 0.089262724
00000000: 42b3 17bd 0e07 00be 67f4 033e c017 5e3d
00000010: 382e 5cbd a873 f6bc 76ed 06be 58e8 51bd
00000020: 64c2 3cbd 8732 0f3e f2f5 14bd c292 a9bd
00000030: 408d 03bb d292 04be 7e48 f53d da99 45bd
00000040: c223 d13d e614 c4bd 13e2 b3bd 18d2 f9bc
00000050: 2dc5 e9bd 4024 3f3b ba89 20be a802 a53d
00000060: ba46 c6bd ae25 ccbd c015 10be 4c73 efbd
00000070: 04d6 2e3d b088 2dbd 01f2 0f3e e007 29bd
00000080: b8c6 873c 1a8e dcbd 4ebe 9bbd ac66 5b3d
00000090: d92f 14be eeaf ebbd 218d f5bd 60cf b63d

transformer_encoder.encoder.attention.fc_K.weight f4 [40, 40]
0.07309595 -0.13909307 -0.10659963 -0.10048048 -0.09594698 -0.10011935 -0.14128487 0.07085945
-0.14332518 0.030942842 -0.007395655 -0.034276992 0.017000407 0.1419407 0.15576322 0.04457669
-0.022364616 0.046456918 0.05936183 0.0673538 -0.08977507 0.07707521 -0.08003155 -0.04740289
-0.11754847 -0.0011663884 0.046554253 0.12494005 0.12959684 -0.016354889 -0.0713872 -0.120595396
-0.029062927 0.09950636 0.1117983 0.13263343 -0.11467786 0.018473178 -0.084155835 0.03335902
-0.02141112 -0.087127686 0.12283851 -0.005546823 -0.04805273 0.14923231 -0.01673831 -0.13094637
-0.07176685 0.09994854 0.1321932 -0.050138354 0.12546538 -0.080873646 0.075587526 -0.09742956
-0.13155861 -0.12488367 -0.05774972 0.08403127 0.09453295 -0.00017105043 0.076707646 0.12648489
0.14697517 -0.036348514 0.051511645 -0.048082665 -0.10580311 0.03876701 -0.15302058 0.04543595
-0.077350065 0.090713456 0.098655716 0.0014391541 0.13645871 0.14004289 -0.029391766 -0.057281762
0.0990224 -0.14842762 -0.09889774 0.0010466427 -0.010151014 -0.0042708814 0.1356924 -0.009950101
-0.049005345 0.039062962 -0.13558026 -0.09821476 -0.03533563 0.002473995 0.0916727 -0.1058121
-0.03670238 0.12875168 0.0074438453 0.10517399 -0.124196336 0.15365373 -0.12744474 -0.084868886
0.10368164 -0.08166198 -0.08973274 0.036833987 -0.018089086 0.07119827 0.071281776 0.107255116
0.01175797 0.13683335 0.12139733 0.019077107 -0.05209893 0.05591081 0.11459343 0.13446255
0.10529475 -0.023685455 -0.10687488 0.113251135 0.0126644075 0.08500235 0.018363386 0.10328631
-0.09020472 -0.06498628 -0.14079922 0.021847129 -0.15634811 0.022237912 -0.043779463 0.11529563
0.0030375868 -0.06780645 0.13599978 -0.12948619 0.07127532 -0.04650139 0.1202106 -0.0032905191
0.0023442507 -0.089257866 -0.0071279407 -0.03528083 0.01849632 0.14015855 -0.011422247 -0.03398601
0.09932755 -0.04444041 -0.10639769 -0.06298493 -0.08819303 -0.047730044 -0.0955329 0.026705772
0.13783072 0.053437635 0.07754156 0.05811557 0.08125077 0.057410374 0.14014648 0.11063914
-0.114554614 -0.10881019 -0.13138393 0.018045425 0.08785042 -0.048849218 0.07608932 -0.146676
0.07312806 -0.10811126 0.04541783 0.05314277 -0.12500772 -0.14278765 0.034028083 -0.029158458
-0.078132965 -0.08994629 -0.06944208 0.11184503 0.08688182 0.051892444 -0.119607575 -0.09934835
0.109209016 -0.07629439 0.07674819 0.0976861 0.0051940084 0.03493361 -0.029053539 0.034032673
-0.12530583 -0.12600964 -0.14735204 -0.07664248 0.09792705 0.07285495 0.11070199 -0.08116997
-0.06847784 -0.12450485 -0.07028889 -0.0050828606 0.09949668 0.037894666 -0.14319253 -0.09102404
0.067561224 -0.11364332 -0.15370208 0.15476821 -0.0693252 -0.050741695 -0.061613634 0.12937416
0.10970457 0.0637836 -0.15523311 -0.10295966 -0.10918491 -0.048473075 -0.14425945 0.15054004
-0.019646466 0.040191263 -0.027166888 0.09225179 0.15240769 0.04101661 0.11368938 -0.0635273
0.05325134 0.030943438 -0.13416253 0.031153351 0.12886511 -0.055573568 0.12924133 -0.0012976378
0.14176337 0.08627476 0.03946793 0.03948137 -0.08420615 0.11473678 -0.12869692 -0.037393317
00000000: 54b3 953d 6a6e 0ebe e850 dabd b6c8 cdbd
00000010: da7f c4bd 600b cdbd fbac 10be c21e 913d
00000020: d6c3 12be d87b fd3c 4057 f2bb 0866 0cbd
00000030: 7044 8b3c e758 113e 6580 1f3e 0c96 363d
00000040: 0036 b7bc 9c49 3e3d 6425 733d caf0 893d
00000050: fedb b7bd 9cd9 9d3d 95e7 a3bd 8829 42bd
00000060: 41bd f0bd 80e1 98ba acaf 3e3d 92e0 ff3d
00000070: 09b5 043e b0fa 85bc 7433 92bd b8fa f6bd
00000080: 6015 eebc fec9 cb3d 82f6 e43d 0fd1 073e
00000090: 3adc eabd 1055 973c e559 acbd 78a3 083d
000000a0: 6066 afbc 0070 b2bd c292 fb3d 20c2 b5bb
000000b0: f0d2 44bd 5bd0 183e c81e 89bc ce16 06be
000000c0: 80fa 92bd d2b1 cc3d a75d 073e e05d 4dbd
000000d0: ff79 003e 15a1 a5bd a2cd 9a3d 2689 c7bd
000000e0: 4db7 06be 02c3 ffbd f88a 6cbd 9618 ac3d
000000f0: 7e9a c13d 005c 33b9 e618 9d3d 4185 013e
00000100: a980 163e 2ee2 14bd e0fd 523d 54f2 44bd
00000110: 4daf d8bd 28ca 1e3d 6db1 1cbe 0c1b 3a3d
00000120: b669 9ebd fac7 b93d 020c ca3d 00a2 bc3a
00000130: d5bb 0b3e 6767 0f3e 00c7 f0bc 48a0 6abd
00000140: 42cc ca3d 69fd 17be e68a cabd 802f 893a
00000150: 7050 26bc c0f2 8bbb f3f2 0a3e c005 23bc
00000160: d4b9 48bd 7c00 203d 8dd5 0abe d224 c9bd
00000170: 18bc 10bd c022 223b e6be bb3d 04b4 d8bd
00000180: 3c55 16bd 7bd7 033e 80eb f33b 7665 d73d
00000190: a65a febd 6757 1d3e e080 02be bdcf adbd
000001a0: 0a57 d43d 653e a7bd ccc5 b7bd 3cdf 163d
000001b0: 902f 94bc 66d0 913d 2efc 913d 92a8 db3d
000001c0: 80a4 403c 0b1e 0c3e 2a9f f83d 9847 9c3c
000001d0: b065 55bd bc02 653d f6af ea3d 8db0 093e
000001e0: c6a4 d73d 0008 c2bc 38e1 dabd 36f0 e73d
000001f0: 607e 4f3c b615 ae3d d06e 963c c687 d33d
00000200: 41bd b8bd 8717 85bd ac2d 10be c0f8 b23c
00000210: b819 20be 482c b63c 1852 33bd 1e20 ec3d
00000220: 4012 473b 1cde 8abd 8743 0b3e 0798 04be
00000230: ccf8 913d 3e78 3ebd fa30 f63d c0a5 57bb
00000240: 00a2 193b d4cc b6bd 8091 e9bb a282 10bd
00000250: 9885 973c b985 0f3e 6024 3bbc ea34 0bbd
00000260: 3e6c cb3d 2607 36bd 08e7 d9bd 3efe 80bd
00000270: 8c9e b4bd 9480 43bd c1a6 c3bd 10c6 da3c
00000280: 7f23 0d3e 6ce1 5a3d 1cce 9e3d 980a 6e3d
00000290: ce66 a63d 2427 6b3d 8f82 0f3e c696 e23d
000002a0: 9c9b eabd e0d7 debd 8289 06be 00d4 933c
000002b0: ecea b33d 1e16 48bd b8d4 9b3d 3c32 16be
000002c0: 2ac4 953d 7069 ddbd 0c08 3a3d 3cac 593d
000002d0: 0602 00be ed36 12be 0861 0b3d b8dd eebc
000002e0: 2d04 a0bd c335 b8bd a637 8ebd 020f e53d
000002f0: 18ef b13d 2c8d 543d d1f4 f4bd 2677 cbbd
00000300: faa8 df3d 3c40 9cbd 282e 9d3d a60f c83d
00000310: 8032 aa3b 8c16 0f3d b001 eebc d865 0b3d
00000320: 2c50 00be ac08 01be 74e3 16be bcf6 9cbd
00000330: fa8d c83d fa34 953d bab7 e23d 713c a6bd
00000340: 1c3e 8cbd 66fc febd 9ff3 8fbd 208e a6bb
00000350: eac4 cb3d 7037 1b3d 10a1 12be d06a babd
00000360: 8a5d 8a3d d4bd e8bd 1464 1dbe 8f7b 1e3e
00000370: 5ffa 8dbd 86d6 4fbd 945e 7cbd a97a 043e
00000380: caac e03d faa0 823d 6ef5 1ebe 84dc d2bd
00000390: 579c dfbd b48b 46bd c0b8 13be 2b27 1a3e
000003a0: a0f1 a0bc 989f 243d 188d debc 82ee bc3d
000003b0: c310 1c3e 0801 283d fad5 e83d 9a1a 82bd
000003c0: 141e 5a3d 187d fd3c e761 09be 5035 ff3c
000003d0: 37f5 033e 1ca1 63bd d757 043e 8015 aaba
000003e0: 6b2a 113e d2b0 b03d 20a9 213d 38b7 213d
000003f0: 4674 acbd 1efb ea3d 20c9 03be bc29 19bd

transformer_encoder.encoder.attention.fc_K.bias f4 [40]
-0.14567672 -0.15442324 -0.101592064 0.09914197 -0.11969716 -0.13767116 -0.10680154 0.044735894
0.060671255 -0.11802691 0.023869038 -0.086556815 -0.15346925 -0.06165491 -0.12982675 0.09465362
-0.008872315 0.033297405 -0.13446584 -0.055367082 -0.08704735 -0.012278214 0.033933833 -0.1002087
0.04929535 0.06148474 -0.14488196 0.117769465 0.0033313632 -0.07665928 0.03712344 0.116682604
-0.12716258 0.1305976 0.04319206 -0.12683022 -0.03615886 0.08841437 0.15152608 0.15171213
00000000: 472c 15be 2021 1ebe 800f d0bd f20a cb3d
00000010: c923 f5bd abf9 0cbe c4ba dabd fc3c 373d
00000020: 6c82 783d 18b8 f1bd 0089 c33c b344 b1bd
00000030: 0b27 1dbe dc89 7cbd 4ef1 04be c2d9 c13d
00000040: 305d 11bc dc62 083d 6ab1 09be 98c8 62bd
00000050: e245 b2bd 902a 49bc 34fe 0a3d 383a cdbd
00000060: ece9 493d 6cd7 7b3d f05b 14be 1e31 f13d
00000070: 0053 5a3b 8aff 9cbd c00e 183d 4af7 ee3d
00000080: e836 02be 61bb 053e 28ea 303d c8df 01be
00000090: 501b 14bd 9812 b53d a729 1b3e 6d5a 1b3e

transformer_encoder.encoder.attention.fc_V.weight f4 [40, 40]
0.019578591 -0.07974039 -0.041358694 0.028619006 -0.015165612 -0.116035715 -0.093264334 0.039813444
0.1444466 0.13363014 -0.09302609 0.09477393 -0.11754084 0.13710777 -0.062657304 0.0033152997
0.13371412 -0.05532475 0.09101945 -0.004728213 0.013410315 0.095045134 0.07256645 0.14908592
-0.059529558 0.047102436 0.14643525 -0.053059004 -0.08167297 -0.15335654 -0.14700967 0.10196103
0.121515796 -0.048244573 0.15779756 -0.07029432 0.10095091 0.027029276 -0.13415457 -0.14007877
-0.09487994 0.13312073 0.01567331 0.09394731 -0.056804292 -0.103610754 0.047336146 0.02069503
0.12943344 -0.07433882 0.067160785 -0.023197576 -0.06699315 -0.15356265 0.12102194 0.12553085
0.10792278 -0.08075306 -0.048298217 -0.0377004 -0.10526702 0.07657702 -0.12860459 -0.10631217
-0.011005893 -0.11345012 0.012975186 0.03521897 0.059516564 0.13044508 0.0007060766 -0.033142664
-0.14622015 0.09540598 0.117693946 0.026018038 -0.032312095 0.01575175 0.054690868 -0.090898976
-0.006215021 0.12363814 0.09917642 -0.063925855 0.101490006 -0.12240377 0.02812533 0.050163552
0.017541587 -0.12248568 -0.10835782 0.07597421 -0.10537119 0.03701161 -0.13320078 0.10932644
-0.12748216 0.12614034 0.117810085 0.12363072 0.14783396 -0.01889041 0.077601254 0.10382454
-0.015990913 -0.14374848 -0.14605387 -0.0896122 0.15111603 0.096296385 0.026705489 -0.033554845
0.117861554 -0.07808062 0.01953353 0.06539552 -0.032794684 -0.05862835 0.07381174 0.0968201
0.04490295 -0.1482944 -0.13743713 -0.0579108 -0.028128847 -0.15382436 -0.10714694 0.06304008
-0.08776179 -0.043436117 -0.061213158 0.0550289 0.11210416 0.117739394 -0.12954798 -0.07649275
-0.1242996 -0.09924516 -0.036393642 -0.08335149 -0.07358797 -0.095776305 0.0020389557 -0.07007281
0.085040614 -0.15435383 0.047741666 -0.09048915 -0.005439207 -0.044660896 0.11398624 0.0981188
-0.013752863 0.08014324 0.10565688 0.08563551 -0.043358117 -0.04376617 -0.14404716 -0.121484935
0.0663667 -0.039535932 0.12292741 -0.14323565 0.14925642 -0.0566827 0.10374625 -0.1363157
-0.12694114 0.13322829 -0.14688759 -0.032107055 -0.017514437 -0.016297385 -0.12697911 0.034881175
0.12414391 -0.025764734 0.07383521 -0.08477492 -0.07870607 0.13767792 0.027975678 -0.031297073
-0.048990905 0.14416258 -0.024201453 -0.086037785 0.14035125 0.08517939 -0.05265048 0.020649463
-0.09240385 -0.10682327 -0.043798387 0.115717694 0.14293326 0.13140039 0.14199378 0.07424377
0.05164726 0.009403199 -0.115805656 -0.11999542 0.13295777 0.15045385 0.049359962 -0.14675392
-0.027820885 0.08165035 -0.028233707 0.050102875 -0.053860284 -0.061185375 -0.0486027 0.01829563
0.0446835 0.01607117 -0.0019175708 0.12952267 -0.1438882 0.09527965 -0.017122447 0.12038635
0.043778494 0.11161856 -0.1037156 0.06138219 -0.15217704 -0.061272606 -0.054560624 0.100942
0.1457491 0.03544961 0.066953555 -0.104591385 0.09968038 -0.08742813 -0.14677662 -0.14895934
-0.09178649 -0.019909471 -0.14391239 -0.09239409 -0.15750541 -0.11328749 -0.040234186 0.08647835
0.07049745 -0.06195321 -0.059744246 -0.15129459 -0.03657104 -0.05355759 -0.093970194 -0.15039062
00000000: 4863 a03c ee4e a3bd bc67 29bd 6872 ea3c
00000010: 3079 78bc 22a4 edbd 5f01 bfbd 6c13 233d
00000020: cfe9 133e 57d6 083e 7684 bebd d618 c23d
00000030: 40b9 f0bd fb65 0c3e 7952 80bd 8045 593b
00000040: 5bec 083e 349c 62bd 6868 ba3d 20ef 9abb
00000050: f0b6 5b3c 06a7 c23d b89d 943d fba9 183e
00000060: 44d5 73bd 7cee 403d 1ff3 153e 6654 59bd
00000070: 2844 a7bd 7f09 1dbe b489 16be f2d0 d03d
00000080: 46dd f83d 1a9c 45bd af95 213e 78f6 8fbd
00000090: 5abf ce3d 806c dd3c d15f 09be cf70 0fbe
000000a0: 6a50 c2bd cd50 083e 5065 803c 7267 c03d
000000b0: 9eab 68bd e031 d4bd 8ce3 413d a088 a93c
000000c0: 338a 043e f43e 98bd 988b 893d d808 bebc
000000d0: b433 89bd 873f 1dbe 5ada f73d 298b 003e
000000e0: 9e06 dd3d dc61 a5bd 5ad4 45bd bc6b 1abd
000000f0: 3c96 d7bd 6ad4 9c3d ecb0 03be 32ba d9bd
00000100: 1052 34bc 8958 e8bd e095 543c c441 103d
00000110: a4c7 733d 6593 053e 0018 393a 9ac0 07bd
00000120: bcba 15be 3664 c33d 8609 f13d c823 d53c
00000130: b059 04bd d009 813c 8803 603d 3e29 babd
00000140: 60a7 cbbb fe35 fd3d 021d cb3d 8feb 82bd
00000150: fed9 cf3d d4ae fabd 1867 e63c 4c78 4d3d
00000160: 60b3 8f3c c6d9 fabd b4ea ddbd 5e98 9b3d
00000170: dacc d7bd 7c99 173d c965 08be 8ae6 df3d
00000180: af8a 02be ef2a 013e 6a46 f13d 1a32 fd3d
00000190: c961 173e 10c0 9abc 68ed 9e3d f6a1 d43d
000001a0: 60ff 82bc cd32 13be 258f 15be 9a86 b7bd
000001b0: 29be 1a3e 0a37 c53d 78c5 da3c ce70 09bd
000001c0: 6661 f13d bbe8 9fbd c804 a03c 16ee 853d
000001d0: b853 06bd 4824 70bd 9c2a 973d 9e49 c63d
000001e0: 28ec 373d 7dda 17be 52bc 0cbe e033 6dbd
000001f0: 786e e6bc 2284 1dbe db6f dbbd 281b 813d
00000200: 74bc b3bd 12ea 31bd a6ba 7abd fc65 613d
00000210: de96 e53d 5a21 f13d 3aa8 04be 3ba8 9cbd
00000220: ca90 febd 0c41 cbbd 8011 15bd 30b4 aabd
00000230: 4ab5 96bd 5e26 c4bd 00a0 053b 5582 8fbd
00000240: c629 ae3d ee0e 1ebe c48c 433d 6052 b9bd
00000250: 603b b2bb 58ee 36bd 9e71 e93d 82f2 c83d
00000260: b053 61bc 2422 a43d a262 d83d ac61 af3d
00000270: 4898 31bd 2844 33bd 1981 13be 18cd f8bd
00000280: 44eb 873d 6ef0 21bd 5ec1 fb3d 5eac 12be
00000290: add6 183e 1e2c 68bd ea78 d43d 5896 0bbe
000002a0: dcfc 01be ff6c 083e b369 16be b082 03bd
000002b0: 707a 8fbc 1882 85bc d006 02be 90df 0e3d
000002c0: 2a3f fe3d 9010 d3bc ea36 973d 799e adbd
000002d0: a630 a1bd 71fb 0c3e 402d e53c 5c31 00bd
000002e0: b0aa 48bd 5b9f 133e 2042 c6bc 9434 b0bd
000002f0: 3db8 0f3e 8872 ae3d 08a8 57bd 1029 a93c
00000300: 3b3e bdbd 29c6 dabd f065 33bd 66fd ec3d
00000310: 195d 123e d38d 063e d166 113e 1e0d 983d
00000320: 148c 533d e00f 1a3c 842b edbd 29c0 f5bd
00000330: 1526 083e 9310 1a3e ac2d 4a3d a946 16be
00000340: a0e8 e3bc 4c38 a73d 604a e7bc ac38 4d3d
00000350: 9a9c 5cbd 849d 7abd a013 47bd b8e0 953c
00000360: 0c06 373d b0a7 833c 0057 fbba 97a1 043e
00000370: 6e57 13be fa21 c33d 6044 8cbc 1e8d f63d
00000380: 1451 333d 4698 e43d d868 d4bd e46b 7b3d
00000390: 4cd4 1bbe fcf8 7abd f67a 5fbd aeba ce3d
000003a0: 413f 153e 9c33 113d f21e 893d 0234 d6bd
000003b0: 3a25 cc3d 850d b3bd 9c4c 16be cc88 18be
000003c0: 8efa bbbd 3019 a3bc c55d 13be 1d39 bdbd
000003d0: 1949 21be 4603 e8bd 9acc 24bd 901b b13d
000003e0: f860 903d a6c2 7dbd 62b6 74bd f8ec 1abe
000003f0: 84cb 15bd 345f 5bbd 7273 c0bd 0000 1abe

transformer_encoder.encoder.attention.fc_V.bias f4 [40]
0.029278412 0.052976087 0.06433898 0.14328639 -0.03630013 0.031410158 -0.013968602 0.12304954
0.06871337 -0.09321653 -0.0008928776 -0.027678907 -0.034030452 -0.07067943 -0.14280984 -0.056165718
0.1429909 0.019020632 -0.0012339205 -0.04071173 -0.13439356 0.047254562 -0.15552074 -0.1133937
-0.009231269 0.032206 -0.133067 0.013900742 -0.1332276 0.11027251 -0.13126943 -0.056489103
-0.063215144 0.03918767 -0.040121898 0.03430958 0.017534405 -0.04973899 -0.044759795 -0.04499401
00000000: 48d9 ef3c 74fd 583d 28c4 833d abb9 123e
00000010: 72af 14bd f0a7 003d 90dc 64bc 6601 fc3d
00000020: 98b9 8c3d 4fe8 bebd 0010 6aba e0be e2bc
00000030: 8463 0bbd 61c0 90bd be3c 12be 060e 66bd
00000040: 356c 123e 28d1 9b3c 80bb a1ba 58c1 26bd
00000050: 779e 09be 008e 413d d440 1fbe f53a e8bd
00000060: c03e 17bc 70ea 033d b742 08be f0bf 633c
00000070: d16c 08be 8ed6 e13d 7e6b 06be 1e61 67bd
00000080: f176 81bd 4083 203d dc56 24bd 3488 0c3d
00000090: 50a4 8f3c 1cbb 4bbd 0c56 37bd a44b 38bd

transformer_encoder.encoder.attention.fc.weight f4 [40, 40]
-0.023445204 -0.045936428 -0.04546745 0.13477723 0.089662746 0.14607875 -0.075804435 0.073245525
0.1436704 0.12201254 -0.10703451 0.031057402 0.12105714 -0.15517586 0.009950504 -0.09516731
-0.047847018 0.0070648342 0.07587834 0.007783979 0.14792548 0.12917303 0.00872542 0.12594588
0.06362736 -0.11597365 -0.033713795 -0.07415119 0.15411161 -0.069079034 -0.14135835 -0.1094788
0.050335735 0.12863044 -0.007217169 -0.1199996 -0.09022936 0.12037055 0.060980618 -0.070779994
0.085706145 -0.12728152 0.0153777 0.03759651 -0.1334846 -0.13488789 -0.02192749 -0.11858261
0.014605761 -0.018268466 0.074406296 -0.05527781 0.064052686 0.04213853 -0.014000043 0.0038743764
0.1419705 -0.08955079 0.01807937 -0.1474671 0.10702287 -0.1038004 0.06452493 -0.054839164
-0.107118815 -0.095954485 -0.10313182 0.031149492 0.11966945 0.13163857 0.020627275 -0.113251165
-0.13390793 0.087369606 0.14997552 0.13607036 -0.10303828 0.12521102 0.036114246 -0.021398708
0.066181004 -0.13980485 -0.009058908 -0.04854005 0.044096947 -0.043185934 -0.12658575 -0.0056842417
-0.0296548 0.043001264 0.09294157 0.06250794 0.09661521 -0.1378083 0.15323623 0.09320472
-0.053027213 -0.14552835 0.0443912 -0.10591673 0.13807292 0.13271137 0.14003606 0.11195125
-0.08645249 0.14757381 -0.03939928 -0.1277713 -0.013626784 -0.011883736 0.05701232 -0.036520004
-0.00014585257 0.08583006 -0.0033081323 -0.030005783 -0.09855198 -0.15136087 0.03729835 0.15053372
-0.14946339 -0.037122026 -0.09095077 -0.087795734 -0.054802865 -0.07245187 -0.1550593 0.11781572
-0.019177213 -0.08896415 0.012646496 -0.15360469 0.015648201 0.12483288 -0.12323077 -0.093369335
0.14971049 0.13620798 0.0025961995 0.06794831 0.037942097 0.10328247 -0.024389386 -0.09566294
0.055619404 0.12329565 0.13901047 0.1337872 0.0036331564 -0.099823356 -0.0965115 -0.08078434
0.008090943 0.05846131 -0.02213256 -0.12365728 0.014867723 -0.08879984 -0.15525925 0.04336126
0.049399003 -0.15366662 -0.035708018 -0.14451638 0.1273527 -0.14650556 -0.051279843 -0.024637595
0.10150106 0.09438212 -0.038044102 0.06393467 -0.035318792 0.057139903 0.09020522 -0.06434814
-0.07919608 0.06217067 0.13161044 -0.03588312 0.13303883 -0.089468576 -0.062006682 -0.06384343
0.115221485 -0.042259566 -0.04367979 0.118803576 0.060538992 0.024031132 0.08559811 -0.11065788
0.055436656 -0.15461111 0.05104412 -0.11702891 0.11374982 0.07034363 -0.011468589 0.094936475
-0.12260227 -0.14878467 0.018253699 0.13024507 0.00578174 -0.07523988 -0.106519885 0.09361668
-0.14298175 -0.033744365 0.15498365 0.14074229 -0.023317039 -0.10451831 -0.14009142 -0.024362892
0.026060417 -0.13119502 -0.08427639 0.08484711 -0.05744277 -0.1068643 0.09108934 -0.09348394
-0.15517224 -0.11628269 -0.056259736 -0.070926726 0.08662808 0.10685779 0.14785738 -0.015736595
-0.15623051 0.08401246 0.06914061 0.039246157 0.067152515 -0.08251857 0.09745513 0.038233757
0.025090113 -0.04468009 0.03889653 0.11282794 -0.03733187 0.027500108 -0.13043886 0.066750005
0.14947207 -0.039519593 -0.08509614 -0.1276223 -0.05551646 0.020328999 0.101324454 -0.11799175
00000000: 2810 c0bc d627 3cbd 143c 3abd 0b03 0a3e
00000010: 1aa1 b73d ab95 153e 5b3f 9bbd c001 963d
00000020: 551e 133e b6e1 f93d e934 dbbd 186c fe3c
00000030: ceec f73d 6ce6 1ebe 7007 233c 14e7 c2bd
00000040: 3cfb 43bd 2080 e73b 1a66 9b3d c010 ff3b
00000050: c779 173e ef45 043e 10f5 0e3c f5f7 003e
00000060: 104f 823d 9883 edbd 7a17 0abd 94dc 97bd
00000070: 6fcf 1d3e 4f79 8dbd 3ec0 10be 6c36 e0bd
00000080: d82c 4e3d b3b7 033e 007e ecbb 5ac2 f5bd
00000090: 2cca b8bd d684 f63d d0c6 793d 1af5 90bd
000000a0: b486 af3d 1656 02be c0f2 7b3c ccfe 193d
000000b0: 30b0 08be 0d20 0abe 48a1 b3bc 70db f2bd
000000c0: 004d 6f3c c0a7 95bc 5462 983d fc6a 62bd
000000d0: 0e2e 833d 7499 2c3d 7060 65bc 40e9 7d3b
000000e0: b760 113e 6866 b7bd 301b 943c 9e01 17be
000000f0: ce2e db3d 4e95 d4bd a625 843d 089f 60bd
00000100: 1c61 dbbd c983 c4bd c736 d3bd 382d ff3c
00000110: 4215 f53d 43cc 063e 88fa a83c 3af0 e7bd
00000120: 291f 09be d6ee b23d 2f93 193e 0756 0b3e
00000130: bc05 d3bd 5137 003e 88ec 133d 584c afbc
00000140: e889 873d 0129 0fbe d06b 14bc eed1 46bd
00000150: 009f 343d bce3 30bd b29f 01be e042 babb
00000160: a0ee f2bc 1822 303d 2658 be3d 2a04 803d
00000170: 32de c53d 9e1d 0dbe f5e9 1c3e 1ee2 be3d
00000180: 1033 59bd 6205 15be 8cd3 353d dfea d8bd
00000190: fd62 0d3e 7de5 073e 9d65 0f3e b246 e53d
000001a0: 010e b1bd 971d 173e 2461 21bd 7bd6 02be
000001b0: e042 5fbc 00b4 42bc c085 693d 0096 15bd
000001c0: 00f0 18b9 acc7 af3d 40cd 58bb b0ce f5bc
000001d0: 9fd5 c9bd 58fe 1abe 28c6 183d 8325 1a3e
000001e0: ee0c 19be 440d 18bd 6644 babd 40ce b3bd
000001f0: f878 60bd a561 94bd ddc7 1ebe 5e49 f13d
00000200: 8819 9dbc d632 b6bd 4033 4f3c 8c4a 1dbe
00000210: a830 803c 62a8 ff3d 6a60 fcbd 6c38 bfbd
00000220: b54d 193e 1b7a 0b3e 0025 2a3b 7c28 8b3d
00000230: 2c69 1b3d c285 d33d 40cc c7bc eeea c3bd
00000240: 2cd1 633d 6e82 fc3d c358 0e3e 83ff 083e
00000250: 401a 6e3b 3070 ccbd d2a7 c5bd 4372 a5bd
00000260: e08f 043c 2075 6f3d 584f b5bc 0740 fdbd
00000270: c097 733c b1dc b5bd 48fc 1ebe 949b 313d
00000280: 9c56 4a3d c85a 1dbe 9242 12bd 1afc 13be
00000290: bf68 023e 8e05 16be d00a 52bd c8d4 c9bc
000002a0: cadf cf3d 6a4b c13d 22d4 1bbd 2ef0 823d
000002b0: 70aa 10bd 880b 6a3d 84bd b83d f5c8 83bd
000002c0: 8e31 a2bd aca6 7e3d e3c4 063e 2efa 12bd
000002d0: 553b 083e 4d3b b7bd b8fa 7dbd 58c0 82bd
000002e0: 3ef9 eb3d 5e18 2dbd 94e9 32bd 4a4f f33d
000002f0: bcf7 773d f0dc c43c 104e af3d 99a0 e2bd
00000300: 8c11 633d 6052 1ebe a413 513d daac efbd
00000310: aaf5 e83d 5210 903d c0e6 3bbc 0e6e c23d
00000320: e616 fbbd 025b 18be c888 953c f75e 053e
00000330: c074 bd3b 5e17 9abd 1927 dabd 1aba bf3d
00000340: cf69 12be 8837 0abd 09b4 1e3e bf1e 103e
00000350: 6003 bfbc b20d d6bd 2074 0fbe b094 c7bc
00000360: a87c d53c fd57 06be 1a99 acbd 52c4 ad3d
00000370: 1c49 6bbd acdb dabd 0c8d ba3d 8274 bfbd
00000380: 79e5 1ebe 9e25 eebd 9c70 66bd 0842 91bd
00000390: 106a b13d 42d8 da3d ed67 173e 08ea 80bc
000003a0: e4fa 1fbe ba0e ac3d 9899 8d3d 94c0 203d
000003b0: 4287 893d 7fff a8bd 8e96 c73d 009b 1c3d
000003c0: c889 cd3c 7802 37bd f851 1f3d 5612 e73d
000003d0: 4ee9 18bd e847 e13c c491 05be 3ab4 883d
000003e0: 350f 193e 4cdf 21bd e346 aebd 6caf 02be
000003f0: 3a65 63bd 0089 a63c 3283 cf3d a9a5 f1bd

transformer_encoder.encoder.attention.fc.bias f4 [40]
0.07866885 0.15789579 -0.05390591 -0.14188716 -0.08708678 0.036822706 -0.046651617 0.002984643
0.029077724 -0.09229453 0.08083926 -0.09849195 0.11802532 -0.023051754 0.009335265 -0.056915782
-0.14344782 0.026205763 0.0030973852 0.021148443 0.11259417 0.06644365 -0.020328388 0.08288659
-0.13795029 0.0026392639 0.06407486 0.10404746 0.045836747 0.061506853 -0.099589825 0.08036806
0.061085388 0.050564855 -0.15689257 0.0028187782 -0.10497095 0.03848274 0.014134318 0.1027336
00000000: 221d a13d 6faf 213e 72cc 5cbd de4a 11be
00000010: 8e5a b2bd 68d3 163d c415 3fbd 009a 433b
00000020: 6834 ee3c ea04 bdbd 0e8f a53d 26b6 c9bd
00000030: 42b7 f13d 08d7 bcbc f0f2 183c 8620 69bd
00000040: fce3 12be 78ad d63c 80fd 4a3b 803f ad3c
00000050: c697 e63d 9c13 883d b887 a6bc 72c0 a93d
00000060: d742 0dbe 80f7 2c3b ae39 833d d616 d53d
00000070: 50bf 3b3d 9cee 7b3d c0f5 cbbd 0298 a43d
00000080: ac34 7a3d 181d 4f3d 72a8 20be 40bb 383b
00000090: 02fb d6bd 14a0 1d3d a093 673c fe65 d23d

transformer_encoder.encoder.attention.layer_norm.weight f4 [40]
1.0 1.0 1.0 1.0 1.0 1.0 1.0 1.0
1.0 1.0 1.0 1.0 1.0 1.0 1.0 1.0
1.0 1.0 1.0 1.0 1.0 1.0 1.0 1.0
1.0 1.0 1.0 1.0 1.0 1.0 1.0 1.0
1.0 1.0 1.0 1.0 1.0 1.0 1.0 1.0
00000000: 0000 803f 0000 803f 0000 803f 0000 803f
00000010: 0000 803f 0000 803f 0000 803f 0000 803f
00000020: 0000 803f 0000 803f 0000 803f 0000 803f
00000030: 0000 803f 0000 803f 0000 803f 0000 803f
00000040: 0000 803f 0000 803f 0000 803f 0000 803f
00000050: 0000 803f 0000 803f 0000 803f 0000 803f
00000060: 0000 803f 0000 803f 0000 803f 0000 803f
00000070: 0000 803f 0000 803f 0000 803f 0000 803f
00000080: 0000 803f 0000 803f 0000 803f 0000 803f
00000090: 0000 803f 0000 803f 0000 803f 0000 803f

transformer_encoder.encoder.attention.layer_norm.bias f4 [40]
0.0 0.0 0.0 0.0 0.0 0.0 0.0 0.0
0.0 0.0 0.0 0.0 0.0 0.0 0.0 0.0
0.0 0.0 0.0 0.0 0.0 0.0 0.0 0.0
0.0 0.0 0.0 0.0 0.0 0.0 0.0 0.0
0.0 0.0 0.0 0.0 0.0 0.0 0.0 0.0
00000000: 0000 0000 0000 0000 0000 0000 0000 0000
00000010: 0000 0000 0000 0000 0000 0000 0000 0000
00000020: 0000 0000 0000 0000 0000 0000 0000 0000
00000030: 0000 0000 0000 0000 0000 0000 0000 0000
00000040: 0000 0000 0000 0000 0000 0000 0000 0000
00000050: 0000 0000 0000 0000 0000 0000 0000 0000
00000060: 0000 0000 0000 0000 0000 0000 0000 0000
00000070: 0000 0000 0000 0000 0000 0000 0000 0000
00000080: 0000 0000 0000 0000 0000 0000 0000 0000
00000090: 0000 0000 0000 0000 0000 0000 0000 0000

transformer_encoder.encoder.feed_forward.fc1.weight f4 [256, 40]
-0.09046065 -0.10837001 0.034307152 0.12399866 0.012483969 -0.07733974 -0.06479689 -0.04321932
-0.022236109 -0.045290783 -0.05851665 0.107276306 0.09873451 0.043735906 -0.11116579 0.14082374
-0.082470715 -0.014748663 0.14996947 0.04953061 0.08097099 -0.020529583 0.13213785 0.13536637
0.062431112 0.11566548 0.04983093 -0.09560507 -0.1481974 0.14476924 0.07414058 -0.13539055
0.06650086 -0.068219684 -0.12971301 -0.102882326 -0.15386471 -0.09020842 0.1567095 0.15178482
0.0740089 -0.12964094 0.053536147 -0.085260466 -0.023762807 -0.09793572 -0.08991659 0.15706114
0.019203424 0.078180894 0.124419585 0.02040799 -0.049005322 0.082093075 -0.116617635 0.110045984
0.035247773 -0.057937793 -0.038215056 -0.07458849 0.07262994 -0.079840235 0.0027118325 0.115227446
0.13169895 -0.089658886 -0.028422147 0.13814609 -0.044837005 -0.14382707 -0.085080214 -0.033150673
-0.12687527 0.14119472 0.14083679 -0.09347581 0.13802846 -0.13403957 0.032676518 -0.11871328
0.018795416 0.03137915 0.057901636 0.025608912 -0.078433804 -0.14775409 -0.05175306 0.13446759
0.13482602 0.12684517 -0.03261061 0.08764048 0.09020892 -0.003941044 0.068134174 0.0885281
0.013935044 0.06736834 -0.024930894 -0.14212713 0.11008899 0.14308672 0.045573443 0.0065559
-0.122185186 -0.03244008 0.08377826 -0.110338904 -0.02071108 -0.11697477 -0.12747954 0.12567906
-0.03939666 -0.09182228 -0.026823923 0.1558022 -0.07412612 0.035577685 0.055818602 0.05457391
-0.07880842 0.033432826 0.014380679 -0.010375649 -0.086199105 -0.10046612 0.11503242 0.1362137
-0.09416571 -0.03883177 0.030288652 0.08349565 -0.051951006 -0.055314153 0.105642125 -0.12504469
0.0087182075 0.11764328 0.09887932 -0.13511565 -0.03597071 -0.088911675 0.12715127 -0.07599411
-0.14200768 -0.03917736 -0.14196855 0.09928729 -0.041483454 0.085783795 -0.05251982 0.026622504
-0.046353698 -0.092479095 -0.044365957 0.010746613 -0.064727165 0.10485427 -0.015344381 0.065880105
-0.14700289 -0.036021024 0.06611684 0.049975708 -0.14760727 0.02491808 -0.08232013 0.072884366
0.01221098 -0.05711341 -0.14867337 -0.010117665 0.13552023 -0.05780176 0.12010552 0.028851181
0.0069897175 0.12942098 -0.0949376 0.12235038 0.09374137 -0.09527237 0.01998642 0.018603891
-0.028844506 -0.055266105 -0.02506736 0.04738602 -0.01750125 -0.027090535 -0.07033895 0.04673259
-0.060356997 0.00400047 0.031323224 -0.072796024 -0.02907984 0.06494194 0.12508373 -0.03420245
-0.12905204 -0.09945888 -0.12311276 0.049376637 0.1378041 -0.09282491 0.10628794 -0.0051626265
0.04637696 -0.023750007 0.12091924 0.0564875 0.016707078 -0.04179962 -0.070569865 0.12012316
0.122013316 0.06203127 0.0294656 0.06692968 0.0828768 -0.09654534 -0.1252425 0.039394423
0.0177636 -0.14343455 -0.12333333 0.029555485 -0.08656454 0.13389917 0.09772484 -0.11669344
-0.104892075 0.06593923 -0.07054044 0.11491583 -0.113483064 0.10662471 0.0563782 0.03331624
-0.00093625486 -0.02634874 -0.050252974 -0.14779532 0.15133245 0.13894226 -0.044844463 0.13038488
-0.14797904 -0.15243712 0.14033394 0.12500195 0.04763265 -0.110364914 0.036649242 -0.026771143
00000000: 6f43 b9bd 19f1 ddbd a885 0c3d 02f3 fd3d
00000010: 9089 4c3c 4c64 9ebd 3bb4 84bd be06 31bd
00000020: 8028 b6bc d482 39bd 28af 6fbd aeb3 db3d
00000030: 5235 ca3d 6c24 333d e4aa e3bd 1934 103e
00000040: 68e6 a8bd 60a4 71bc 9991 193e 9ce0 4a3d
00000050: 1ed4 a53d a82d a8bc 254f 073e 7b9d 0a3e
00000060: c4b7 7f3d 06e2 ec3d 841b 4c3d 97cc c3bd
00000070: 0fc1 17be 633e 143e 04d7 973d d2a3 0abe
00000080: 9a31 883d c3b6 8bbd 7dd3 04be f8b3 d2bd
00000090: b68e 1dbe 31bf b8bd 7578 203e 7b6d 1b3e
000000a0: fa91 973d 98c0 04be b848 5b3d 0a9d aebd
000000b0: 38aa c2bc 8692 c8bd 3026 b8bd a3d4 203e
000000c0: 8050 9d3c 4e1d a03d b2cf fe3d a82e a73c
000000d0: ceb9 48bd 6a20 a83d 3ad5 eebd ca5f e13d
000000e0: f85f 103d 2e50 6dbd 6487 1cbd dac1 98bd
000000f0: 02bf 943d 4783 a3bd 00b9 313b 5efc eb3d
00000100: 17dc 063e 149f b7bd 90d5 e8bc 2b76 0d3e
00000110: 02a7 37bd 6747 13be 893e aebd 00c9 07bd
00000120: 97eb 01be 5995 103e 8537 103e 3f70 bfbd
00000130: 5557 0d3e ab41 09be d0d7 053d f31f f3bd
00000140: d8f8 993c 6c87 003d 442a 6d3d c8c9 d13c
00000150: e7a1 a0bd d94c 17be 04fb 53bd dfb1 093e
00000160: d50f 0a3e b3e3 013e b492 05bd da7c b33d
00000170: 74bf b83d e023 81bb ee89 8b3d 384e b53d
00000180: d04f 643c 6af8 893d e03b ccbc c689 11be
00000190: 5676 e13d 5385 123e 38ab 3a3d e0d2 d63b
000001a0: 3a3c fabd e4df 04bd f093 ab3d 5df9 e1bd
000001b0: 48aa a9bc 7890 efbd ff89 02be 03b2 003e
000001c0: 645e 21bd 520d bcbd d8bd dbbc 9d8a 1f3e
000001d0: 6fcf 97bd e8b9 113d 0ca2 643d e488 5f3d
000001e0: 4f66 a1bd dcf0 083d f09c 6b3c a0fe 29bc
000001f0: 2889 b0bd 2ec1 cdbd 1e96 eb3d 9b7b 0b3e
00000200: f4d9 c0bd 100e 1fbd e81f f83c c4ff aa3d
00000210: 94ca 54bd 1891 62bd e65a d83d b70b 00be
00000220: d0d6 0e3c f6ee f03d 3e81 ca3d c25b 0abe
00000230: 0656 13bd 5317 b6bd f133 023e cda2 9bbd
00000240: 766a 11be 7078 20bd 3460 11be 2257 cb3d
00000250: 8eea 29bd 6aaf af3d 061f 57bd 7017 da3c
00000260: 60dd 3dbd ae65 bdbd 14b9 35bd 9012 303c
00000270: ad8f 84bd d6bd d63d 0067 7bbc 26ec 863d
00000280: ed87 16be c88a 13bd 4468 873d 54b3 4c3d
00000290: 5c26 17be 0021 cc3c 7597 a8bd 6644 953d
000002a0: 9010 483c c0ef 69bd d53d 18be 90c4 25bc
000002b0: d1c5 0a3e 8ac1 6cbd e2f9 f53d 5059 ec3c
000002c0: 000a e53b ef86 043e a56e c2bd d692 fa3d
000002d0: 7afb bf3d 291e c3bd 90ba a33c 3067 983c
000002e0: 504b ecbc b65e 62bd 105a cdbc d817 423d
000002f0: c85e 8fbc f8ec ddbc de0d 90bd ac6a 3f3d
00000300: e638 77bd 6016 833b c84c 003d 1516 95bd
00000310: d838 eebc 4800 853d f315 003e de17 0cbd
00000320: 3826 04be 19b1 cbbd 8b22 fcbd 283f 4a3d
00000330: 851c 0d3e fd1a bebd 7ead d93d 402b a9bb
00000340: c4f5 3d3d 608f c2bc 82a4 f73d 705f 673d
00000350: 48dd 883c 1436 2bbd ef86 90bd 2203 f63d
00000360: 1ee2 f93d 8014 7e3d d861 f13c 6e12 893d
00000370: 50bb a93d 90b9 c5bd 923f 00be 0c5c 213d
00000380: f884 913c 82e0 12be 2f96 fcbd 581e f23c
00000390: c048 b1bd dd1c 093e f623 c83d f8fc eebd
000003a0: a8d1 d6bd 260b 873d 8277 90bd fe58 eb3d
000003b0: cf69 e8bd 0e5e da3d d4ec 663d 9c76 083d
000003c0: 006f 75ba 50d9 d7bc 10d6 4dbd a857 17be
000003d0: e5f6 1a3e e146 0e3e d4ae 37bd 9d83 053e
000003e0: d187 17be 7a18 1cbe b3b3 0f3e 8300 003e
000003f0: 741a 433d 0007 e2bd 841d 163d 284f dbbc

transformer_encoder.encoder.feed_forward.fc1.bias f4 [256]
0.1255831 -0.02674964 0.050570518 -0.06287429 0.014960304 0.14568196 -0.14152052 -0.04864473
0.11318408 0.1038488 -0.030372918 -0.1002824 0.08743806 0.05424431 -0.025853291 -0.032322735
-0.024189234 0.035198614 0.08790955 0.12370677 -0.04192824 0.08558422 -0.060405754 -0.041914612
0.08654271 0.07906957 -0.11895726 0.086220816 0.09662272 0.11449124 0.1224155 -0.093815394
-0.020081446 -0.00952141 -0.041830473 -0.025252983 0.15658738 0.14703162 0.09528281 0.12834643
0.11252846 0.051427186 -0.14915654 0.12904604 -0.05720929 0.0797362 0.07947272 -0.03293684
-0.07704558 0.08700289 0.13308017 0.120138004 -0.14174359 0.02982606 -0.07024988 -0.019837588
-0.050440192 0.051288664 -0.08105041 0.11353876 -0.06673426 -0.117267005 -0.085405014 -0.0795583
-0.11886505 0.012101352 0.15139239 0.008082315 -0.060703844 -0.11592655 -0.15497981 -0.017644241
0.13052888 -0.0641634 -0.11444346 -0.08919938 -0.038949892 -0.11359484 -0.02740018 0.12568288
-0.0021873713 -0.06483875 0.13029061 0.058412015 0.11738159 -0.010281563 -0.15607855 0.016869783
-0.07059432 -0.035313502 -0.028851569 -0.116236866 -0.074813716 -0.04877094 -0.009929001 0.15379779
0.12714781 0.05488625 -0.0778135 0.02146189 -0.011142641 -0.118368015 -0.08561261 0.15256442
-0.043197736 -0.074135296 -0.046372622 0.013231933 0.09684794 -0.13799633 0.09549339 -0.048179828
0.06894317 -0.10751589 -0.12737224 0.04803334 0.1458971 0.031504497 0.12619047 0.07315931
-0.027774557 -0.13370265 0.091261506 -0.064319134 -0.021101221 -0.031868294 -0.045932658 0.10898505
0.09255709 0.08185969 0.01179792 0.044050172 -0.024462104 -0.0143710375 0.08843981 0.15404983
0.05737385 -0.14936438 0.15284868 -0.119892776 0.038757145 0.120991126 -0.09017579 -0.13207914
0.09105821 0.08216043 -0.111582935 -0.053075254 -0.036341995 -0.15431942 -0.14264813 -0.05350647
0.10171448 0.05742055 -0.04393346 0.061088428 0.09947924 0.10609697 0.04429175 -0.031772837
-0.0303642 0.013530165 -0.02277039 0.12279411 0.08841936 -0.09276927 0.029440567 0.05700311
-0.120088324 -0.08934186 0.1280059 0.12565248 -0.1367682 0.09554376 -0.11394902 0.022992551
0.13961698 0.0532611 -0.039760947 -0.069637105 -0.009317175 -0.019898772 -0.06576195 -0.10450685
0.10685529 0.105575636 -0.094397925 -0.08207655 0.054968715 -0.116774976 -0.0118136555 0.035789877
0.05612509 0.15710308 -0.04445628 0.018214956 0.003216505 -0.12405226 0.08956894 0.14285989
-0.06408414 -0.081746526 0.10663982 -0.0446088 0.14157106 -0.1425768 -0.15043661 -0.065846965
-0.13245676 -0.007861599 -0.07932386 -0.12765281 0.09427838 0.07311374 0.14871733 0.06824221
0.13039993 0.108621046 0.013292491 0.14716883 0.03479384 -0.08606306 -0.14176027 -0.10487813
0.05443065 -0.08223024 -0.09555146 -0.12667105 0.044381887 0.04754536 0.10527502 -0.1423594
0.10555552 -0.09120957 0.10123564 0.15548526 -0.08266646 0.0023450404 0.15654166 -0.14924423
-0.1253489 0.15716045 0.061055094 -0.008438826 -0.12766935 -0.069876164 0.034938693 0.055790484
0.058145955 0.13806374 0.032179624 0.1430393 -0.13724142 0.13955833 0.035992056 -0.04538171
00000000: db98 003e 1022 dbbc 0823 4f3d 3cc4 80bd
00000010: 101c 753c a72d 153e c1ea 10be b23f 47bd
00000020: 0ecd e73d aeae d43d a0d0 f8bc dc60 cdbd
00000030: ba12 b33d 482f 5e3d 48ca d3bc d864 04bd
00000040: 8028 c6bc 6c2c 103d ec09 b43d fa59 fd3d
00000050: f2bc 2bbd c846 af3d 066c 77bd a8ae 2bbd
00000060: 4e3d b13d 3aef a13d dd9f f3bd 8a94 b03d
00000070: 22e2 c53d 627a ea3d fab4 fa3d 4922 c0bd
00000080: d881 a4bc b0ff 1bbc 6e56 2bbd 58df cebc
00000090: 7158 203e 758f 163e a223 c33d 3f6d 033e
000000a0: 5275 e63d 50a5 523d 7ebc 18be a524 043e
000000b0: 4a54 6abd bc4c a33d 98c2 a23d c8e8 06bd
000000c0: 13ca 9dbd 922e b23d 2b46 083e ea0a f63d
000000d0: 3b25 11be c855 f43c 2bdf 8fbd 7082 a2bc
000000e0: 609a 4ebd 1014 523d c2fd a5bd 0287 e83d
000000f0: f9ab 88bd af29 f0bd d3e8 aebd 76ef a2bd
00000100: 856f f3bd c044 463c 9b06 1b3e b06b 043c
00000110: 98a4 78bd e66a edbd 07b3 1ebe a88a 90bc
00000120: 5da9 053e 1a68 83bd 5561 eabd 2aae b6bd
00000130: ec89 1fbd 69a4 e8bd 5876 e0bc 03b3 003e
00000140: 005a 0fbb 2eca 84bd e76a 053e 7041 6f3d
00000150: c265 f03d 0074 28bc 0ed3 1fbe 8032 8a3c
00000160: c193 90bd e4a4 10bd 205a ecbc 980d eebd
00000170: ef37 99bd 0ac4 47bd 40ad 22bc 2b7d 1d3e
00000180: 0933 023e 68d0 603d af5c 9fbd d8d0 af3c
00000190: a08f 36bc ee6a f2bd aa55 afbd d939 1c3e
000001a0: 1cf0 30bd 3fd4 97bd 38f1 3dbd c0ca 583c
000001b0: 3658 c63d e94e 0dbe 0a92 c33d 3658 45bd
000001c0: 1432 8d3d 4a31 dcbd de6d 02be 9cbe 443d
000001d0: 0d66 153e dc0a 013d 1338 013e 8cd4 953d
000001e0: 7887 e3bc 59e9 08be 50e7 ba3d c0b9 83bd
000001f0: 78dc acbc 5488 02bd e223 3cbd 8e33 df3d
00000200: 928e bd3d 0ea6 a73d 104c 413c f46d 343d
00000210: c064 c8bc 8074 6bbc ee1f b53d 3dbf 1d3e
00000220: d800 6b3d faf2 18be 5d84 1c3e 588a f5bd
00000230: d0bf 1e3d 32ca f73d 16ae b8bd c13f 07be
00000240: ba7c ba3d ba43 a83d 9885 e4bd 7065 59bd
00000250: 58db 14bd e905 1ebe 5a12 12be 9a29 5bbd
00000260: ae4f d03d d031 6b3d 92f3 33bd dc37 7a3d
00000270: c6bb cb3d 5e49 d93d 446b 353d 3c24 02bd
00000280: 58be f8bc a0ad 5d3c f888 babc 7a7b fb3d
00000290: 3615 b53d d1fd bdbd 582d f13c 187c 693d
000002a0: def0 f5bd ddf8 b6bd fb13 033e 0bab 003e
000002b0: f70c 0cbe 72ac c33d 1b5e e9bd e05a bc3c
000002c0: c1f7 0e3e 5028 5a3d 60dc 22bd e69d 8ebd
000002d0: 10a7 18bc c002 a3bc 34ae 86bd b007 d6bd
000002e0: f2d6 da3d 0a38 d83d b353 c1bd c017 a8bd
000002f0: e026 613d b827 efbd 108e 41bc 6898 123d
00000300: 6ce3 653d a1df 203e ca17 36bd 8837 953c
00000310: 00cc 523b 1c0f febd ec6f b73d dd49 123e
00000320: 8c3e 83bd b96a a7bd fa65 da3d b8b7 36bd
00000330: 01f8 103e a7ff 11be 0e0c 1abe c6da 86bd
00000340: bfa2 07be f0cd 00bc 8c74 a2bd 6bb7 02be
00000350: 0615 c13d a8bc 953d 5b49 183e 92c2 8b3d
00000360: 8f87 053e b674 de3d c0c8 593c 6db3 163e
00000370: fc83 0e3d d441 b0bd 9b29 11be 58ca d6bd
00000380: acf2 5e3d 5468 a8bd 7cb0 c3bd 0eb6 01be
00000390: c8c9 353d ecbe 423d 6e9a d73d aac6 11be
000003a0: 7e2d d83d 15cc babd a254 cf3d 8737 1f3e
000003b0: 084d a9bd 40af 193b 754c 203e 7bd3 18be
000003c0: 765b 00be abee 203e e814 7a3d 0043 0abc
000003d0: c1bb 02be 3c1b 8fbd e01b 0f3d 9084 643d
000003e0: 742a 6e3d 9560 0d3e c8ce 033d e578 123e
000003f0: 0489 0cbe 61e8 0e3e 686c 133d 2ce2 39bd

transformer_encoder.encoder.feed_forward.fc2.weight f4 [40, 256]
0.03387422 0.0341871 0.034956753 -0.020714886 0.036154978 -0.042824738 0.027039506 0.0431759
0.021384142 -0.05716519 -0.0004266724 -0.011676483 0.046125643 -0.04834239 -0.023555748 0.0023581162
0.024038166 -0.0017737597 -0.012187809 -0.038147047 -0.035072096 -0.044007137 -0.008734286 -0.032367185
-0.01282645 0.013430044 -0.055132516 -0.030717142 0.02060683 -0.013135619 -0.044473805 0.047022045
0.029373258 -0.034473956 0.03561444 -0.006700717 0.025311321 0.045604058 -0.033547625 -0.010416113
0.0040964633 0.035172075 -0.058442883 0.008441284 -0.03828288 0.03713403 0.011352263 -0.017993137
-0.041045293 -0.047737315 -0.018600725 0.03142769 -0.012119837 -0.018522337 0.01421091 0.012259886
0.020848304 -0.042229936 -0.038791798 -0.03653735 -0.048685014 0.012380213 0.011918351 0.03024993
0.014769554 0.026970439 0.04367435 0.010647185 -0.057175085 0.033900566 0.019174524 0.052588075
-0.045884088 0.05397176 -0.040412158 -0.05812157 0.022095613 0.020639777 -0.024538778 -0.033411093
-0.04156065 0.031132586 0.059263684 -0.04381667 0.002824992 0.03184451 0.013539076 0.028562278
-0.016212001 0.05498966 -0.024311468 0.057899214 0.002658248 -0.05539702 -0.011020616 0.048469245
0.059805512 0.054428756 -0.02922047 0.0014405176 -0.006471671 0.013722457 -0.056495324 0.041227862
-0.038391963 -0.02010993 -0.042326592 0.04315801 -0.049029477 -0.05465582 -0.015858434 -0.054954633
0.03587223 0.058159858 0.048384517 0.02069284 0.057138704 0.058119163 -0.007643342 0.015545994
0.020205982 -0.04367905 0.040293396 -0.034685634 -0.027976014 0.051880993 0.05759646 -0.009379201
-0.053865932 -0.0032669008 0.055725664 0.038352884 0.0079051405 -0.01380074 0.06217269 -0.045342535
-0.028608687 -0.0024946928 -0.0547959 -0.026752576 -0.058112912 0.027205832 0.025549904 -0.004710108
0.03558231 -0.017105937 0.027648807 -0.0060723796 -0.016001992 -0.04051009 -0.011083774 -0.045549393
-0.011847109 -0.052764833 -0.056184694 -0.0052988604 -0.039530575 0.004038118 -0.013032995 0.025413118
0.057973593 -0.017659679 0.020125955 0.039318964 -0.015402153 0.06170637 -0.04554923 -0.039325938
-0.023471221 -0.020537384 0.058886975 -0.009619661 0.054873392 -0.043958485 0.011904299 -0.034508266
-0.06070265 0.0050763637 -0.06201928 -0.054523773 -0.028643548 -0.04205308 0.055615276 -0.028718404
0.040620863 -0.008188032 -0.04314228 -0.020291373 0.049518697 -0.037997693 -0.039250307 0.03049475
0.03443581 -0.01771056 0.039252557 0.02563186 -0.042904563 -0.024335481 0.05603774 0.013711959
0.015669994 -0.054581508 0.048508734 -0.02976343 -0.012405366 -0.015601002 0.038329266 -0.042577937
0.04982923 -0.054507673 -0.048352517 0.023158178 0.0060843527 0.013965324 0.035552435 -0.0016856045
-0.0075792447 0.03274869 -0.049500592 0.039263017 0.05215308 -0.02395247 -0.041034013 -0.047280617
-0.013061635 -0.0030376017 -0.056391187 0.04190311 0.040494323 -0.026491366 0.05494605 -0.057615988
0.008500263 0.02993077 0.033913568 0.054415666 0.020850167 -0.010565877 0.035153784 0.022949427
-0.02590286 -0.016702674 -0.016061343 0.02271662 -0.056815304 0.005491711 0.022119269 0.042946428
0.057785816 -0.030815423 -0.05445317 -0.043717682 0.054687202 0.012357548 0.022536628 -0.059243314
00000000: b2bf 0a3d c607 0c3d d02e 0f3d 44b2 a9bc
00000010: 3e17 143d fe68 2fbd f481 dd3c 36d9 303d
00000020: cc2d af3c 0c26 6abd 00b3 dfb9 b84e 3fbc
00000030: 3eee 3c3d ac02 46bd fcf7 c0bc a08a 1a3b
00000040: b0eb c43c 807d e8ba 60af 47bc 1440 1cbd
00000050: c2a7 0fbd d440 34bd 401a 0fbc 7493 04bd
00000060: 0826 52bc b009 5c3c a2d2 61bd 84a2 fbbc
00000070: a8cf a83c c836 57bc 2a2a 36bd 309a 403d
00000080: 30a0 f03c 9034 0dbd 72e0 113d b091 dbbb
00000090: b059 cf3c 52cb 3a3d 3c69 09bd 58a8 2abc
000000a0: a03b 863b 9810 103d ce61 6fbd 504d 0a3c
000000b0: 82ce 1cbd da19 183d d8fe 393c 5866 93bc
000000c0: 1c1f 28bd 3488 43bd 8c60 98bc 52ba 003d
000000d0: 4892 46bc 28bc 97bc e0d4 683c b0dd 483c
000000e0: 10ca aa3c 4cf9 2cbd 26e4 1ebd 30a8 15bd
000000f0: f069 47bd 60d6 4a3c 3045 433c b4ce f73c
00000100: 00fc 713c 1cf1 dc3c e0e3 323d 8871 2e3c
00000110: 6c30 6abd 52db 0a3d e413 9d3c 9866 573d
00000120: f4f0 3bbd 7e11 5d3d 3887 25bd e210 6ebd
00000130: dc01 b53c c014 a93c 8c05 c9bc 12da 08bd
00000140: 803b 2abd c409 ff3c 7abe 723d 1c79 33bd
00000150: 8023 393b 646f 023d 00d3 5d3c 70fb e93c
00000160: 08cf 84bc d63c 613d d828 c7bc ba27 6d3d
00000170: 0036 2e3b fce7 62bd d08f 34bc b087 463d
00000180: a0f6 743d b0f0 5e3d c45f efbc c0cf bc3a
00000190: 5010 d4bb 28d4 603c a467 67bd 8cde 283d
000001a0: e440 1dbd 94bd a4bc a65e 2dbd 74c6 303d
000001b0: 22d3 48bd c8de 5fbd 8ce9 81bc 1c18 61bd
000001c0: c2ee 123d 0839 6e3d d82e 463d 0884 a93c
000001d0: 460a 6a3d 5c0e 6e3d 0075 fabb a0b4 7e3c
000001e0: 0487 a53c cee8 32bd b00a 253d 8612 0ebd
000001f0: f42d e5bc 2a81 543d 44ea 6b3d 38ab 19bc
00000200: 86a2 5cbd 8019 56bb 9840 643d ea17 1d3d
00000210: 9084 013c 801c 62bc caa8 7e3d 18b9 39bd
00000220: c45c eabc 007e 23bb aa71 60bd 3828 dbbc
00000230: ce07 6ebd c4de de3c 084e d13c 4057 9abb
00000240: c2be 113d c021 8cbc c07f e23c d0fa c6bb
00000250: 9c16 83bc e8ed 25bd b898 35bc 0092 3abd
00000260: 601a 42bc f01f 58bd ec21 66bd 10a2 adbb
00000270: d0ea 21bd 3052 843b 5888 55bc 2c2f d03c
00000280: b875 6d3d 08ab 90bc 30df a43c ec0c 213d
00000290: 5059 7cbc d2bf 7c3d d491 3abd 3c14 21bd
000002a0: b846 c0bc 043e a8bc 7833 713d c89b 1dbc
000002b0: ecc2 603d d00d 34bd 400a 433c 8a58 0dbd
000002c0: 58a3 78bd a057 a63b ee07 7ebd 5254 5fbd
000002d0: e0a5 eabc da3f 2cbd d8cc 633d dc42 ebbc
000002e0: 1062 263d 1827 06bc f6b5 30bd 183a a6bc
000002f0: 1ed4 4a3d 78a3 1bbd eec4 20bd 20d0 f93c
00000300: 900c 0d3d bc15 91bc 4ac7 203d e8f9 d13c
00000310: b2bc 2fbd 345b c7bc d487 653d 20a8 603c
00000320: 5c5e 803c dc90 5fbd 18b1 463d 70d2 f3bc
00000330: e03f 4bbc 589b 7fbc 26ff 1c3d 3466 2ebd
00000340: bc19 4c3d 7043 5fbd 4a0d 46bd 38b6 bd3c
00000350: 405f c73b d0ce 643c 6e9f 113d 80ef dcba
00000360: 505b f8bb 7e23 063d 22c1 4abd 42d2 203d
00000370: 789e 553d f837 c4bc 4813 28bd 52a9 41bd
00000380: 7800 56bc 8012 47bb 72fa 66bd 98a2 2b3d
00000390: 60dd 253d 6c04 d9bc 1c0f 613d befe 6bbd
000003a0: b044 0b3c 6031 f53c f4e8 0a3d f6e2 5e3d
000003b0: f8cd aa3c 801c 2dbc 6afd 0f3d 7000 bc3c
000003c0: 3c32 d4bc 0cd4 88bc 1493 83bc 3418 ba3c
000003d0: 2ab7 68bd d0f3 b33b 7833 b53c 98e8 2f3d
000003e0: d2b0 6c3d a070 fcbc 4a0a 5fbd 5011 33bd
000003f0: b0ff 5f3d 5077 4a3c bc9e b83c 1ea9 72bd

transformer_encoder.encoder.feed_forward.fc2.bias f4 [40]
-0.016228996 -0.053018227 0.04543422 0.020808496 -0.052182138 -0.027852915 0.041533493 0.0050054714
0.04875601 0.025478348 0.020769708 -0.024648398 -0.04643432 0.029463798 0.06237507 0.062290758
-0.0051106215 0.0047414005 -0.0544563 0.043963008 -0.05690307 -0.016060658 -0.038428664 0.050095066
0.047872245 0.039120287 -0.04301343 0.011386864 -0.0015519783 -0.025105141 -0.045417584 -0.049775288
-0.012195483 -0.058581874 0.02171196 -0.058917418 0.016081646 0.009889878 -0.03488589 0.022070855
00000000: acf2 84bc a429 59bd 3c19 3a3d 9476 aa3c
00000010: f0bc 55bd cc2b e4bc 061f 2a3d f004 a43b
00000020: 62b4 473d f8b7 d03c 3c25 aa3c 70eb c9bc
00000030: ea31 3ebd 105e f13c 007d 7f3d 9824 7f3d
00000040: 0077 a7bb c05d 9b3b 920d 5fbd 8e12 343d
00000050: 3213 69bd a491 83bc 6067 1dbd 7c30 4d3d
00000060: b015 443d 983c 203d da2e 30bd f88f 3a3c
00000070: c06b cbba 4ca9 cdbc ca07 3abd 2ce1 4bbd
00000080: 90cf 47bc 8cf3 6fbd 48dd b13c 6453 71bd
00000090: a8bd 833c 2809 223c 82e4 0ebd f0cd b43c
