simple2transformer/param/net_param/Mk07_100_75_critic_net.model (torch, 232127 bytes, 33 tensors)

transformer_encoder.encoder.attention.fc_Q.weight f4 [40, 40]
000000 78 35 9f bd be 40 e2 bd 84 64 16 3d e1 a9 06 3e
       -0.0777387 -0.11047505 0.036716953 0.13150741
000010 30 64 62 bd 57 c1 05 3e 76 5a f1 3d ae e8 e8 3d
       -0.055271327 0.13062035 0.11784832 0.11372505
000020 8a 1f 88 bd 0a 6b ad bd 56 b0 e8 bd bc d1 a4 3d
       -0.066466406 -0.08467682 -0.113617584 0.08047816
000030 ee d1 13 bd 67 38 9d bd a2 2f 16 be fc b0 14 be
       -0.036088876 -0.076767735 -0.14666608 -0.14520639
000040 0c b8 3e bd 5a 79 14 bd b9 55 85 bd 84 6c 5d 3d
       -0.04656224 -0.036248542 -0.06510491 0.054058567
000050 40 d6 fc 3c f7 8a 16 be dd 11 17 3e 77 c9 00 3e
       0.030863881 -0.14701448 0.14752908 0.12576853
000060 f0 63 96 bc 52 63 f0 3d 80 20 fe ba 56 cb bf 3d
       -0.0183582 0.11737694 -0.0019388348 0.09364955
000070 04 1c a1 3d 14 dd 47 bd 8c 2b 70 3d 01 4e 0c 3e
       0.07866672 -0.04879482 0.05863528 0.13701631
000080 c7 98 ac bd 03 46 18 3e 10 27 75 3d 62 11 fd bd
       -0.084275775 0.14870457 0.059851706 -0.12356831
000090 89 84 1a 3e 20 f0 67 3c ed 66 08 3e c0 67 8a bc
       0.1508962 0.014156371 0.13320513 -0.016895175
0000a0 59 06 08 3e d1 bc 9f bd 08 2c 4a bd 9e d6 07 bd
       0.13283671 -0.07799686 -0.049358398 -0.03316366
0000b0 a6 59 a7 bd f6 ca dc 3d e8 4b a5 3d 1e d2 fd 3d
       -0.08171396 0.10780899 0.080711186 0.12393592
0000c0 c3 5f c0 bd 90 76 ad 3c e2 b6 a2 3d 70 b5 2e 3d
       -0.09393265 0.021174699 0.079450384 0.0426535
0000d0 fc 93 b9 bd ea f9 cf 3d c9 5a 14 3e be 25 eb 3d
       -0.09061429 0.10155089 0.14487757 0.11481808
0000e0 ff af 08 3e e0 fd 20 3c 48 92 9f bd 33 89 a5 bd
       0.13348387 0.0098261535 -0.07791573 -0.08082809
0000f0 a2 02 b3 3d 55 7d a4 bd aa 41 d4 3d c4 7e 9e 3d
       0.087407365 -0.08031718 0.10364087 0.077390224
000100 71 8c 88 bd 0c bd 06 be 3e 94 91 3d de 7b dd 3d
       -0.06667412 -0.13158053 0.07108353 0.108146414
000110 73 59 16 be a0 55 91 3b 59 9a fb bd 0c 1e fc bd
       -0.1468256 0.004435256 -0.12285299 -0.123104185
000120 57 f0 8f bd 60 35 2c bc 5b e7 00 3e d4 1b 32 3d
       -0.07028263 -0.0105107725 0.12588255 0.04348357
000130 52 25 55 bd 78 69 7c bd 8b 47 0c 3e fc 17 55 3d
       -0.052037545 -0.06162402 0.13699166 0.052024826
000140 f4 e6 76 3d 6c 36 b9 bd 00 60 b0 bb a0 71 1f 3d
       0.060278848 -0.09043583 -0.005382538 0.03892672
000150 06 b6 bd bd 85 5f 0a 3e b9 a3 10 3e cc 0f b5 3d
       -0.09263234 0.13513 0.14124955 0.08840904
000160 de 5c a4 3d 0e 0a 3a bd 4a d7 11 bd 28 1a 46 3d
       0.080255255 -0.045419745 -0.035605706 0.04836479
000170 58 28 62 3d e0 bc aa bb b0 b9 31 bd 6c 59 e9 bd
       0.055214256 -0.005210504 -0.043389976 -0.11394009
000180 88 cc 5c 3d 96 fc 94 bd 88 17 9e 3d c0 d5 c3 bd
       0.053905994 -0.072747394 0.07719332 -0.09562254
000190 ca cb 99 3d 9b 54 1d 3e f7 91 07 3e 00 a0 f7 3b
       0.07509573 0.15364306 0.13239275 0.0075569153
0001a0 67 9e 89 bd 90 bb e9 bd 42 93 ba bd 63 0f ce bd
       -0.06719666 -0.11412728 -0.091101184 -0.100615285
0001b0 dd 1f f2 bd 98 f2 a4 bc 20 db c4 3b 32 2c 6c bd
       -0.11822484 -0.020135209 0.006007567 -0.057659335
0001c0 92 a9 ef bd 22 98 46 bd 40 85 3f bb 18 2b 97 3d
       -0.11702265 -0.04848493 -0.002922371 0.07381266
0001d0 00 fe 85 3d 72 80 a4 bd 66 4a 1a be e8 a9 a3 bd
       0.06542587 -0.080323115 -0.15067443 -0.079913914
0001e0 00 d0 91 bd 46 6c f2 3d 64 a4 39 3d 1b 14 1a 3e
       -0.07119751 0.11837058 0.04532279 0.15046732
0001f0 be 52 9d 3d 16 19 e9 3d 68 4d b4 bc 8e 1d 6f bd
       0.076817974 0.11381738 -0.022009566 -0.058377795
000200 d0 ef a5 bd 34 8c 0c 3d 22 f1 db bd 3a c6 18 be
       -0.08102381 0.034313396 -0.10739352 -0.14919367
000210 c4 d2 bb 3d ba b9 fb 3d 20 69 9c bc 6a af d4 3d
       0.0917106 0.12291284 -0.019093096 0.1038502
000220 8b 5e 0e 3e 6c 85 51 3d 8a a2 4a bd a0 48 7d bd
       0.13903253 0.05115263 -0.049471416 -0.06183684
000230 2e cb de 3d b6 35 8c 3d 57 24 0e 3e 0c 67 1f be
       0.10878597 0.06846182 0.1388105 -0.15566653
000240 38 19 c0 3c af 88 1d 3e dc 32 85 3d f1 d2 87 bd
       0.023449525 0.15384172 0.06503841 -0.06632031
000250 74 e3 12 3d 30 12 9f bc 98 95 af bc 8e 5e ca bd
       0.035861447 -0.019417852 -0.021433637 -0.09881316
000260 d1 e7 99 bd 80 d4 21 be 00 7e e7 39 2c 0a b0 3d
       -0.075149186 -0.15803719 0.0004415363 0.0859569
000270 26 81 f6 3d b3 2b 07 3e a4 95 b4 3d fa 9c 86 3d
       0.12036352 0.13200264 0.08817604 0.0657291
000280 c9 82 a2 bd ac 7d fd bd 98 50 0c be 02 26 b1 bd
       -0.079351015 -0.12377486 -0.13702619 -0.086498275
000290 e7 15 04 be e4 13 13 3d 08 75 d7 bc d0 8b d9 bd
       -0.1289898 0.03590764 -0.026300922 -0.1062237
0002a0 38 c7 b2 bc fc c7 f0 bd 3b 80 07 3e 96 1b c1 3d
       -0.02182351 -0.11756894 0.1323251 0.0942909
0002b0 21 c6 19 3e 40 80 f9 3c cd 17 c2 bd db d5 00 3e
       0.15016986 0.030456662 -0.09477196 0.1258158
0002c0 60 65 b4 3b bf 8b 08 3e 0d 5c ee bd d8 09 f6 bd
       0.005505249 0.13334559 -0.11638651 -0.12013596
0002d0 a6 c1 75 bd 52 ef f6 3d 40 36 c4 bc 4b fb 0f 3e
       -0.05999913 0.120573655 -0.02395165 0.14060704
0002e0 59 7e 18 be 48 8d 5c bd 50 7e d6 bc 17 8c 94 bd
       -0.14891948 -0.053845674 -0.026183277 -0.072532825
0002f0 80 59 c4 3c a0 77 46 3d 76 69 f5 3d 3a 49 af 3d
       0.023968458 0.048453927 0.11983006 0.08558889
000300 ac 3f 93 bd d0 d9 b5 3c 2b de 85 bd 00 5c 96 3c
       -0.07189879 0.022198588 -0.06536516 0.018354416
000310 2c 9a 4a bd 3f 64 16 3e b0 bd e3 bd 3b 31 f1 bd
       -0.049463436 0.14686678 -0.111201644 -0.11776968
000320 18 df 0d bd 88 18 9e 3d b3 9a 1a 3e 50 36 bf 3c
       -0.034636587 0.07719523 0.15098076 0.023341328
000330 c0 28 51 3d de 43 c3 3d 94 33 fc bd 95 fc 17 3e
       0.051064253 0.09534429 -0.12314525 0.14842446
000340 e0 8f 6c 3d 80 3b 43 bc 41 0c 81 bd 93 3a 21 3e
       0.057754397 -0.011916041 -0.06301165 0.15745
000350 58 c3 03 3d 58 97 c6 bc b0 fa 92 3d 11 db 20 be
       0.032168716 -0.024242088 0.07176721 -0.15708567
000360 90 1c 8d 3d 74 33 92 3d 64 8c 35 3d ce 23 81 bd
       0.068902135 0.0713872 0.04432334 -0.06305657
000370 75 e6 c2 bd 6e 30 dd 3d 66 f6 aa 3d 15 59 15 3e
       -0.095166124 0.10800253 0.08347778 0.14584763
000380 94 d0 28 bd 1e df c1 bd 32 cc ec 3d 97 b6 f6 bd
       -0.04121454 -0.09466384 0.11562385 -0.12046545
000390 e8 d0 9c bd 76 f5 e3 bd 78 2f 9a 3d 13 be 04 be
       -0.07657033 -0.11130802 0.07528585 -0.12963133
0003a0 cb 0f c3 bd a3 62 1b 3e b0 c8 9d 3d 80 92 a4 bd
       -0.09524497 0.15174346 0.07704294 -0.08035755
0003b0 56 c0 f5 3d 66 ca f3 3d 60 04 7f bc 54 27 90 3d
       0.11999576 0.11903839 -0.015565008 0.07038751
0003c0 40 bb c7 bd f8 11 58 3d 15 56 b1 bd 20 26 df 3c
       -0.09752512 0.05275151 -0.08658997 0.02723986
0003d0 20 4f 69 bd 78 9f 90 3c 7a 0c e5 3d 50 b2 a9 bc
       -0.056960225 0.017654166 0.1118402 -0.020714909
0003e0 4c df 6b 3d 64 2d 6a bd de db 0d be 36 ad e5 3d
       0.057586 -0.057172194 -0.13853404 0.11214678
0003f0 01 1c d9 bd 2a a0 b8 bd e0 1a 8b bc a2 1b c9 3d
       -0.106010444 -0.09014924 -0.016980588 0.09819724

transformer_encoder.encoder.attention.fc_Q.bias f4 [40]
000000 1e ae 77 bd 83 18 ea bd 21 69 1f 3e a7 82 04 be
       -0.060468785 -0.114304565 0.15567447 -0.12940465
000010 f1 8c 91 bd 13 5c a6 bd 1a ce 47 bd e1 31 0a 3e
       -0.071069606 -0.081230305 -0.04878054 0.1349559
000020 60 bf 2b 3c 26 e7 b0 3d 72 9d 9e 3d e8 34 38 3d
       0.010482639 0.08637838 0.07744874 0.04497233
000030 28 91 ac bd b8 b7 f6 bd bf 04 1b be 2c e5 1f 3d
       -0.08426124 -0.1204676 -0.15138529 0.039036915
000040 c6 aa 98 3d 38 18 aa bd a0 94 68 bc 6b 3d 0a 3e
       0.074544474 -0.083054006 -0.014195591 0.13499992
000050 1c 29 0e 3d cc 8f 1d bd 94 e0 4b 3d 75 0f 1f 3e
       0.034707174 -0.038467214 0.04977472 0.1553324
000060 4a 00 53 bd 5a 78 59 bd da 58 8f 3d f5 17 21 3e
       -0.051513948 -0.05309329 0.06999369 0.15731795
000070 78 1c e9 bd 38 ad 1b 3d 40 bc 55 3b 14 d8 ff bd
       -0.11382383 0.03800699 0.0032613426 -0.124923855
000080 b2 cd dc 3d aa 62 a8 3d 19 a9 0c 3e 40 e3 b2 3c
       0.10781421 0.08221944 0.1373638 0.021836877
000090 8a cd d6 bd f7 47 1c 3e 2a c1 f2 3d ff ce 19 be
       -0.10488422 0.15261827 0.11853249 -0.15020369

transformer_encoder.encoder.attention.fc_K.weight f4 [40, 40]
000000 a0 c2 ad 3d 9b 83 85 bd 42 79 2e bd 04 97 6a bd
       0.084843874 -0.065192424 -0.04259611 -0.057272926
000010 07 ba 97 bd cb 21 00 3e 7f 86 81 bd 80 e9 66 bc
       -0.07408529 0.12512891 -0.06324481 -0.014093757
000020 92 c8 f6 3d 72 f7 44 bd 3e 57 de 3d 5e 51 ad 3d
       0.120499745 -0.048087545 0.10856484 0.08462785
000030 ca 5d 3f bd 68 1d 11 be c4 35 20 3d 58 06 95 bc
       -0.046720304 -0.14171374 0.039113775 -0.018191501
000040 82 32 b3 3d a0 79 76 3c 40 b3 ec bb 12 b4 d3 3d
       0.08749868 0.015043646 -0.0072235167 0.1033708
000050 3e bc 0f bd 88 39 8d bd c8 8c b6 3d 06 3f c8 bd
       -0.03509163 -0.06895739 0.08913571 -0.09777646
000060 57 0b 05 be cb 50 cc bd 72 7c 89 3d 6a c8 bd bd
       -0.12992607 -0.099763475 0.06713189 -0.092667416
000070 0d 29 19 3e 70 a3 05 3c 54 5e 33 3d 20 3c fa 3c
       0.14957066 0.008156642 0.04379113 0.030546248
000080 c0 ad 74 bb 40 18 f1 bd c6 ca 13 bd 50 05 e9 bc
       -0.0037335008 -0.117722034 -0.03608205 -0.028444916
000090 2c 6a 87 bd 80 8a a1 bd 12 66 f7 3d 60 49 6e bc
       -0.066120476 -0.07887745 0.12080015 -0.014543861
0000a0 12 79 c7 bd 53 fa 19 be 08 11 a0 3c 40 2e 0f 3b
       -0.09739889 -0.15036897 0.019539371 0.0021847636
0000b0 ec 16 16 3d 3b 60 ee bd 61 d9 09 be 19 ce 1e 3e
       0.036642954 -0.11639448 -0.1346183 0.15508308
0000c0 b0 25 80 3d 5a fc 1d be 42 ea 93 3d 94 74 0d be
       0.06257188 -0.15428296 0.072224155 -0.13814002
0000d0 2c 11 23 3d 2a 32 99 3d cd ee 1e 3e 00 88 68 3a
       0.0398113 0.07480271 0.15520783 0.0008870363
0000e0 4f b8 15 3e ed 4e 03 3e 3e b8 07 be 22 d4 42 bd
       0.1462109 0.12823077 -0.13253877 -0.047565587
0000f0 8b bc 04 3e d6 52 eb 3d 60 43 cb bb c0 43 3b 3c
       0.12962548 0.11490409 -0.0062031 0.011429727
000100 f0 04 fa 3c b2 22 4f bd 20 15 b3 3c 60 7b eb 3c
       0.030519933 -0.050570197 0.02186066 0.028745353
000110 4e ff af 3d 3a 8f 98 3d aa 88 e7 bd 20 69 e7 bc
       0.085936174 0.07449193 -0.113053635 -0.02824837
000120 a8 66 b1 3c 58 9e a8 3c 26 1a c7 3d 17 87 84 bd
       0.021655396 0.020583317 0.09721784 -0.06471079
000130 e5 21 87 bd 96 69 ba bd 70 13 5d 3c 19 c7 1e 3e
       -0.06598262 -0.0910217 0.013493404 0.15505637
000140 14 a8 ad 3d 2b bb c3 bd ba d9 e5 bd dd 3f 12 3e
       0.08479324 -0.09557184 -0.11223169 0.14282174
000150 45 d0 18 3e 97 6e 97 bd f1 d7 20 3e 12 8e 19 be
       0.14923199 -0.0739414 0.15707375 -0.14995602
000160 ff 8a 90 bd 80 be 91 ba a3 6a 1f be 0a 08 9d 3d
       -0.070577614 -0.0011119395 -0.15568022 0.07667549
000170 24 80 01 bd e4 63 0e be 80 23 44 bb 26 14 c8 3d
       -0.031616345 -0.13905293 -0.0029928386 0.09769468
000180 20 fb e1 bd e2 c7 97 3d 11 af 15 3e e0 34 4c 3c
       -0.110342264 0.074111715 0.14617564 0.012463778
000190 3a 83 db 3d 72 53 df 3d 00 f6 87 ba 8a 8f 81 3d
       0.10718389 0.10904588 -0.0010372996 0.06326206
0001a0 60 44 30 bd de d1 2f bd 7a b4 eb bd 23 00 06 3e
       -0.043033957 -0.042924754 -0.115090325 0.1308599
0001b0 9f a3 14 3e 16 9b f2 bd 9c 99 2b bd ec a7 82 3d
       0.14515541 -0.118459865 -0.04189454 0.06379685
0001c0 22 7c 80 3d 91 8e 19 be a7 7c 01 3e 8d 2b 12 3e
       0.062736765 -0.14995791 0.12645207 0.14274426
0001d0 63 29 1d 3e fa 18 40 bd 3a ea a0 3d 7e ff bb bd
       0.15347819 -0.04689882 0.07857175 -0.09179591
0001e0 03 1a 15 be 4e 06 ed bd 52 86 b9 3d ea 0c 5f bd
       -0.14560704 -0.11573468 0.09058823 -0.054455675
0001f0 fb 98 df bd 28 1c 5c 3d 6e 31 a9 bd c5 8a a2 bd
       -0.109178506 0.05373779 -0.08261381 -0.079366244
000200 a8 bb e3 3c 68 12 a3 bc 56 84 80 3d a2 fe b3 3d
       0.027799442 -0.019906238 0.06275241 0.08788802
000210 22 2f 3d bd b0 ab ab bc fc 6a 2b bd 64 84 1c 3d
       -0.046187527 -0.02095589 -0.041850075 0.038212195
000220 7c 01 de bd 60 82 73 bd de da 8f bd a2 99 e6 3d
       -0.10840127 -0.059450507 -0.070241675 0.11259772
000230 e7 2b 16 be ba 05 d7 bd 18 f2 5e 3d 93 64 13 3e
       -0.14665185 -0.10499139 0.054430097 0.14393835
000240 a2 d7 a2 bd d1 a3 20 3e 42 e2 bc bd 90 83 02 be
       -0.07951285 0.15687491 -0.09222843 -0.127455
000250 fd 07 a5 bd 1a 6a d1 3d 00 bd 30 3b ab a4 93 bd
       -0.08058164 0.102253154 0.0026968122 -0.07209142
000260 f8 d1 a3 bc 00 39 1c ba d5 b6 19 3e 00 89 b5 bd
       -0.019997582 -0.00059594214 0.15011151 -0.08864021
000270 f6 74 47 bd 4c ff 67 3d 40 02 c5 3b 46 9e 2e bd
       -0.048695527 0.056639954 0.006012231 -0.04263141
000280 02 95 3c bd 40 72 ea bc 40 b5 7a bb c0 b3 a4 3c
       -0.046040542 -0.028618932 -0.0038255006 0.020105243
000290 9e 6b fe 3d 1c 6d 9c bd c2 5a db 3d d4 70 2a bd
       0.1242287 -0.076379985 0.1071067 -0.041611508
0002a0 14 4d 74 3d e3 e4 12 be 40 d4 4c 3b 18 39 8e 3c
       0.05964382 -0.14345126 0.003125444 0.017361209
0002b0 f8 bc 16 be a6 86 a5 bd fa 88 69 bd 31 4d 21 3e
       -0.14720523 -0.08082323 -0.057015397 0.15752102
0002c0 20 4f 8a bd d2 a7 86 bd 80 dd b1 3b fb 99 ac bd
       -0.06753373 -0.06574978 0.005428016 -0.08427807
0002d0 22 47 b1 bd d2 f3 d6 3d 60 27 e5 bb 68 c0 8f bc
       -0.08656146 0.10495724 -0.0069932193 -0.017547801
0002e0 56 68 df 3d fa 35 d5 3d 28 ee ef bc 14 5a aa 3d
       0.109085724 0.10410686 -0.029288366 0.08317962
0002f0 40 36 82 bb 50 f7 3e 3d 58 49 4e bd 08 b1 90 bd
       -0.0039737523 0.046622574 -0.050362915 -0.07065016
000300 00 98 c3 38 2f e9 c2 bd 70 cf 18 3c 7f 35 b5 bd
       9.326637e-05 -0.095171325 0.009326801 -0.08848094
000310 0e b7 d0 3d ef 64 c4 bd 5c 99 13 be 44 df ac bd
       0.10191165 -0.09589564 -0.1441397 -0.08441022
000320 02 17 d4 3d 4c 7a d2 bd 9c 19 cc bd e0 dd 90 bb
       0.10355951 -0.102772325 -0.09965822 -0.004420981
000330 2a a0 e9 3d 9a 24 74 bd 30 74 b0 3c 62 6d 0d be
       0.11407502 -0.05960522 0.021539778 -0.13811257
000340 50 50 c4 bd d6 a9 87 3d 10 41 05 3d d1 12 0b 3e
       -0.09585631 0.066241905 0.03253275 0.13581397
000350 f0 9e 13 3c d9 e0 17 3e f0 13 56 3d 60 96 d6 3c
       0.009010062 0.14831866 0.052265108 0.026194751
000360 82 7c c8 3d bb 34 1e 3e 7c 1e 2f 3d 77 33 bc bd
       0.09789373 0.15449803 0.04275368 -0.09189504
000370 84 43 b6 bd 97 6b 17 be 84 a7 05 bd 20 f1 4c 3c
       -0.08899596 -0.14787136 -0.03263046 0.012508661
000380 18 86 e7 3c 5b a4 08 3e b0 ca 6c 3d 5f 6c dd bd
       0.028262183 0.13343947 0.057810485 -0.10811686
000390 50 a4 1a bc 3c 7a b3 3d 80 1e 5a bb 12 b0 b9 3d
       -0.009438589 0.08763549 -0.003328234 0.09066786
0003a0 70 97 e8 bc b3 fa 1a 3e 83 61 1c 3e 74 10 4d 3d
       -0.028392524 0.15134697 0.15271573 0.05006452
0003b0 4e 8c 4e bd 84 ef 0c be 1c 7c b4 bd 22 d8 dc 3d
       -0.050426774 -0.13763243 -0.088127345 0.107834116
0003c0 7c ee 85 3d 20 97 cc bb 99 2f 04 3e 4d 5a 0d 3e
       0.06539628 -0.0062436014 0.12908782 0.13803978
0003d0 db 4a 0c be 76 0a bd bd c4 6f 67 bd e4 b2 54 3d
       -0.1370043 -0.09230511 -0.056503072 0.051928416
0003e0 38 24 73 3d 9a 54 84 bd 08 ec 90 3d 20 ea d0 3b
       0.059360713 -0.06461449 0.070762694 0.006375566
0003f0 80 7b 98 bc d6 3d c1 3d bf a3 a7 bd fb 0a 89 bd
       -0.018613577 0.094356224 -0.08185529 -0.066915475

transformer_encoder.encoder.attention.fc_K.bias f4 [40]
000000 2a dd 08 bd c6 97 ca 3d e0 1c 0b 3c c0 93 20 bd
       -0.033414043 0.0989223 0.008490771 -0.039203405
000010 55 f0 04 3e 7c bb a6 3d d0 6e 20 be c0 c2 6d 3c
       0.12982304 0.081412286 -0.15667272 0.014511764
000020 be e8 d1 bd 46 87 15 bd 42 71 91 3d 60 1a d1 3c
       -0.1024947 -0.03650596 0.0710168 0.025525272
000030 15 57 05 be 50 7c d9 bd a1 30 17 3e 17 97 15 3e
       -0.130215 -0.10619414 0.14764644 0.14608417
000040 de 51 c0 3d 16 8f f7 3d e0 b6 47 3d 9c 3a 03 3d
       0.09390615 0.12087838 0.048758388 0.032038316
000050 ba d1 01 be c0 b4 3c bb c6 c4 d4 3d c4 a4 9e 3d
       -0.1267766 -0.0028794259 0.10389094 0.0774627
000060 2a 01 07 be 6e c4 f5 3d 2a 19 d3 3d 38 e8 be bc
       -0.13184038 0.120003566 0.10307534 -0.02330409
000070 1e 8b f1 3d 83 b3 05 3e bd de a0 bd ce 02 01 be
       0.117941126 0.1305676 -0.07854984 -0.12598726
000080 d6 f8 dc 3d 10 35 1a be c0 1d c9 bc ca 28 cf 3d
       0.10789649 -0.15059304 -0.024550319 0.10115202
000090 c8 51 3b 3d 00 63 bc 3c 50 25 10 3c a4 de 47 bd
       0.04573229 0.022996426 0.0087979585 -0.04879631

transformer_encoder.encoder.attention.fc_V.weight f4 [40, 40]
000000 3c a0 42 bd f6 f7 e3 3d f2 19 30 bd 50 ea 19 bd
       -0.047516093 0.11131279 -0.042993493 -0.037576973
000010 3b 14 0f 3e c0 b5 e6 bd 56 f1 eb 3d e0 95 68 3c
       0.13972561 -0.11265135 0.115206406 0.014195889
000020 80 05 49 3d 72 2c a2 3d fe 71 95 3d 6a 09 a1 3d
       0.04907751 0.079186335 0.07297133 0.07863124
000030 7c 8a 2b 3d ea 5a 8f bd 02 60 b0 3d a3 78 a7 bd
       0.041880116 -0.06999762 0.08612062 -0.081773065
000040 b8 7b fd bd f2 33 ad 3d 1a 47 be 3d 32 97 ca 3d
       -0.12377113 0.084571734 0.09290905 0.098921195
000050 2c 0b d7 bd a8 bf 1f 3d 48 14 ed bd 48 d3 8c bd
       -0.10500178 0.039001137 -0.11576134 -0.06876236
000060 5e 7e e2 bd ac 22 92 bd e4 5c 8d 3d 00 cc 81 3a
       -0.11059259 -0.071355194 0.06902483 0.0009902716
000070 9d 42 18 3e 60 0d 19 3d 5c 26 7b bd 10 32 0c bc
       0.14869161 0.03736627 -0.06131588 -0.008556858
000080 bb 93 d0 bd fb 59 14 3e f0 0b b9 bd b1 27 11 be
       -0.10184427 0.1448745 -0.0903548 -0.14175297
000090 a6 a2 88 3d ae b5 83 3d 42 cc a0 3d 44 12 3c 3d
       0.06671648 0.06431137 0.07851459 0.045915857
0000a0 c8 85 92 bd 8a 79 19 be ab 74 1f 3e b0 37 05 bc
       -0.07154423 -0.1498777 0.15571849 -0.008130953
0000b0 62 37 f4 3d 1c 20 51 3d 69 ec d6 bd a2 2a 91 bd
       0.11924626 0.051056013 -0.104943104 -0.0708821
0000c0 84 83 a5 bd 90 97 18 bc 72 2b ae 3d 10 1e 4f bc
       -0.08081725 -0.009313479 0.0850438 -0.012641445
0000d0 9c 9b 2b bd be 71 d6 bd a8 2e 77 3d 58 c3 f9 bd
       -0.041896448 -0.10470913 0.06034723 -0.12195462
0000e0 a6 c2 c4 bd 40 6e b0 bd 32 d7 90 3d f8 01 f7 bd
       -0.09607439 -0.086147785 0.07072295 -0.120609224
0000f0 f5 d0 08 3e c8 83 98 3c 6a b6 a2 3d 26 5b dd 3d
       0.13360961 0.018617526 0.07944949 0.10808401
000100 ab 97 07 be 22 c0 28 bd 83 9f e7 bd 08 22 44 bd
       -0.1324145 -0.041198857 -0.11309721 -0.047884017
000110 8c 87 12 be 08 f2 ec bc b2 7b e2 3d 92 57 c8 3d
       -0.1430952 -0.028924003 0.11058749 0.09782328
000120 00 90 5e 3d 86 74 e1 3d 10 05 1b bd c9 12 eb bd
       0.054336548 0.11008553 -0.037846625 -0.11478192
000130 7d dd 0b 3e 98 b4 0c 3d d2 98 b2 3d 34 c4 48 3d
       0.1365871 0.034351915 0.087205544 0.04901524
000140 1c 6b bf bd 36 d9 de 3d 2a c0 24 bd 37 63 b1 bd
       -0.09346601 0.108812734 -0.040222324 -0.08661502
000150 c4 9f 08 be 43 c0 03 be 5b fe 01 3e 7e c4 9f bd
       -0.13342196 -0.12866311 0.12694685 -0.0780115
000160 7c 9c 93 3d 12 39 e6 bd f9 2e 1f 3e 66 7f 4a bd
       0.072075814 -0.11241354 0.15545262 -0.049437903
000170 06 c8 f3 bd 3c 4a 44 bd ee 3e 0d be 50 a1 27 bc
       -0.11903386 -0.047922358 -0.13793537 -0.010231331
000180 6a 83 ca 3d 00 9d 3d 3a 0f 0d 13 3e 70 81 31 bd
       0.098883465 0.00072331727 0.1436045 -0.04333633
000190 f4 61 01 bd 9a 6c fc 3d 80 ae d8 bc 06 b5 11 bd
       -0.031587556 0.123254016 -0.026450396 -0.035573028
0001a0 80 e2 0a bc 6a e7 13 be 68 e7 e7 bc 26 24 e7 3d
       -0.008476853 -0.14443746 -0.028308585 0.11286192
0001b0 20 0a d7 bd 00 44 87 3a bb 07 11 3e 9d 50 a5 bd
       -0.10499978 0.0010319948 0.14163105 -0.080720164
0001c0 28 fa bd bc e8 90 10 be 20 4b 81 bb 53 0d 16 3e
       -0.023190573 -0.14117777 -0.003945723 0.1465352
0001d0 58 14 25 bd 47 05 eb bd e9 d3 82 bd c3 fb e7 bd
       -0.040302604 -0.11475616 -0.06388075 -0.113273166
0001e0 98 ab 02 be 6b 44 10 be 23 3b c0 bd ca b8 aa 3d
       -0.1276077 -0.140886 -0.093862794 0.08336027
0001f0 32 17 b9 3d a3 5d 06 be 1b fe 97 bd 8a a1 0d be
       0.09037627 -0.13121657 -0.07421514 -0.13831154
000200 91 9e 06 be 78 3f c7 bc 4e 9c d8 3d 6d 50 1d 3e
       -0.13146426 -0.024322256 0.10576688 0.15362711
000210 2d de 09 3e 33 87 15 be 2a 98 b2 3d 00 77 e4 3b
       0.1346366 -0.14602356 0.08720429 0.0069721937
000220 84 43 04 3d 10 43 02 be 80 60 d8 3b 96 b9 97 3d
       0.03229095 -0.12720895 0.0066033006 0.074084446
000230 00 bf 6c bb 86 7a 8e 3d 00 8f d3 3a 64 9f f2 bd
       -0.0036124587 0.06956963 0.001614064 -0.118468076
000240 ac 29 a5 3d e0 7f 3b 3c 80 d2 45 3d 6f b4 0d 3e
       0.08064589 0.011444062 0.04829645 0.13838361
000250 98 5b 7d 3d 60 3d 13 be a2 db 1c bd 23 d8 a2 bd
       0.06185493 -0.14378881 -0.038295396 -0.07951381
000260 e9 39 99 bd 6c 36 8e bd 18 0a 0f 3d 80 45 b0 bc
       -0.074817486 -0.06943974 0.034921736 -0.021517515
000270 68 2c 09 3d 27 a5 15 3e 43 8c 08 3e 00 58 af ba
       0.033489615 0.14613782 0.13334756 -0.0013377666
000280 be 32 b2 3d 14 94 60 3d 49 56 16 3e e9 62 20 be
       0.087010846 0.05482872 0.14681353 -0.15662731
000290 fe a7 a2 bd c0 e8 c7 bb 00 0e 7f bd f7 3e 8a bd
       -0.07942198 -0.006100744 -0.06226921 -0.06750291
0002a0 d2 63 ec 3d 40 3a 88 bd f4 80 96 3d 90 71 a9 3d
       0.11542477 -0.06651735 0.073488146 0.082736135
0002b0 00 81 89 3b f5 2a 0c 3e f2 a6 fb 3d d0 b8 30 3d
       0.004196286 0.13688262 0.12287702 0.043145
0002c0 cf 17 a6 bd 9e f9 7a bd 19 8d 1d 3e 92 50 f4 3d
       -0.0811001 -0.06127321 0.15385856 0.1192943
0002d0 30 49 1a be 00 55 cc bc e1 9f 95 bd b0 8e 9c bd
       -0.15066981 -0.024942875 -0.07305885 -0.07644403
0002e0 00 b0 8a 3a bf 8f c0 bd 0c 5b 26 bd 26 f3 a7 bd
       0.0010581017 -0.094024174 -0.040614173 -0.08200674
0002f0 eb 4d 11 be fc 04 25 3d 99 7b e8 bd 7c 45 c8 bd
       -0.1418988 0.040287957 -0.113516994 -0.09778878
000300 ca 79 f0 3d c7 4d 1e 3e 98 d4 53 3d 80 86 59 3b
       0.117419794 0.15459357 0.051716417 0.003319174
000310 b7 71 fd bd c0 d1 2e 3b 75 e2 21 3e 50 58 84 3c
       -0.12375205 0.0026675314 0.15809043 0.016155392
000320 40 78 72 3c 1e d4 fc 3d 80 74 87 bc dd b5 01 3e
       0.014799178 0.12345146 -0.016535044 0.12667032
000330 e8 30 d0 bd ad eb a4 bd b6 bf 8c bd a0 f5 85 bb
       -0.10165578 -0.08052764 -0.068725035 -0.0040881187
000340 35 53 fb bd 10 7f d9 3c 20 b1 74 3d 3c 2a 60 3d
       -0.1227173 0.026549846 0.059739232 0.054727778
000350 40 32 c8 bc 10 f9 35 3c d4 17 6d bd 2a 0b 85 bd
       -0.024438024 0.011106744 -0.057884052 -0.0649627
000360 e8 76 97 3d 70 db c4 bc 84 ec 83 3d b6 38 db 3d
       0.073957264 -0.024030417 0.06441596 0.10704176
000370 b7 b9 03 3e ca 9f ff 3d e2 e6 db 3d 70 ce b3 bd
       0.12863813 0.12481649 0.10737397 -0.08779609
000380 46 60 01 be 00 a0 71 38 32 6e a1 bd a0 8d 85 bb
       -0.12634382 5.760789e-05 -0.07882346 -0.004075721
000390 a0 3b 9c bc f2 14 c4 3d ac f9 bb bd 6e 36 af 3d
       -0.0190714 0.095743075 -0.091784805 0.085553035
0003a0 d8 84 c5 3c c0 0f 1c be 60 c9 06 bd 00 29 49 3d
       0.024111196 -0.15240383 -0.03290689 0.049111366
0003b0 10 22 99 bd c8 af b2 bc f3 2b 12 be 80 47 59 3d
       -0.074772 -0.021812335 -0.14274578 0.053046703
0003c0 b0 be 4d 3c c1 1c 0c 3e b1 87 1b 3e de c8 12 be
       0.0125576705 0.13682844 0.15188481 -0.14334437
0003d0 7d 7d 15 be bb d8 0c 3e 26 91 96 3d f4 19 5c 3d
       -0.14598651 0.13754551 0.073519036 0.05373569
0003e0 64 30 b9 bd b2 44 82 3d 15 ad 15 3e c6 b4 e7 3d
       -0.09042433 0.06360759 0.14616807 0.11313777
0003f0 a0 92 aa bb d8 41 a4 bc 92 53 ef 3d f0 b8 6a bc
       -0.0052054673 -0.020050928 0.11685862 -0.014326319

transformer_encoder.encoder.attention.fc_V.bias f4 [40]
000000 4a 5e 7d bd 5c 19 87 3d b7 c5 09 3e aa 5f b5 3d
       -0.0618575 0.06596634 0.13454328 0.08856137
000010 d2 44 ff 3d 78 62 62 bd 00 0b a1 3a f0 c7 49 bc
       0.12464298 -0.05526969 0.0012286603 -0.012315735
000020 6a 2a cd 3d 4f de 1f 3e 92 05 1a be d8 99 94 bc
       0.100178555 0.15612148 -0.15041187 -0.018139765
000030 5f d4 07 be 69 55 15 3e 60 c2 1a bd 7c 14 b7 bd
       -0.13264607 0.14583363 -0.037783027 -0.08939454
000040 b8 d9 a5 bc 03 4d 9c bd a7 d3 11 3e 20 81 84 3c
       -0.020245418 -0.07631876 0.14240895 0.016174853
000050 bd 6f 08 3e 35 b9 12 be c0 94 43 bc b4 ec 0e 3d
       0.13323875 -0.14328463 -0.01193732 0.034893706
000060 40 cd 78 bb d4 52 44 bd 3e 90 0d be e0 fc f1 3c
       -0.0037964135 -0.047930554 -0.13824555 0.029539526
000070 cb 59 02 3e c6 0c 86 3d 30 ba 14 be f2 de a0 bd
       0.12729566 0.06545405 -0.1452415 -0.078550234
000080 4e c4 a2 bd 6e 60 11 bd ea 9d 7b bd 6f da 06 3e
       -0.079475984 -0.035492353 -0.061429895 0.13169263
000090 88 4b fa bd 64 0b 0b be aa b9 71 bd a0 5e 00 bc
       -0.12221438 -0.13578564 -0.059014954 -0.00783506

transformer_encoder.encoder.attention.fc.weight f4 [40, 40]
000000 5e 7b 3a bd 94 4b be bd 00 00 47 b8 fc 37 06 3d
       -0.04552781 -0.09291759 -4.7445297e-05 0.032768235
000010 25 12 0c 3e 38 e4 0e bd 2c 1c 48 3d 35 e6 0b be
       0.13678797 -0.034885615 0.04885499 -0.13662036
000020 07 d3 8d bd 50 ac 37 3c 38 5e e2 bd a0 a9 20 3d
       -0.06925016 0.011210516 -0.11053127 0.039224267
000030 70 fc 46 bd 60 37 d7 bb bc 48 01 be 20 09 0a 3c
       -0.048580587 -0.0065678805 -0.12625402 0.008425027
000040 b0 14 ab bc 80 c2 65 bc 77 4c 0b be f8 8d b3 3d
       -0.020883888 -0.014023423 -0.13603388 0.08767313
000050 30 77 5f 3c e8 7b cf bd c8 57 49 bd f0 8c ac bd
       0.013639256 -0.10131055 -0.04915598 -0.08425319
000060 18 29 fd 3c 8d 33 06 3e 04 b3 96 bd f4 38 b3 bd
       0.030903384 0.13105603 -0.07358363 -0.08751097
000070 9e cf 60 bd 79 c9 1f 3e 88 26 1a 3d 60 d2 c7 bd
       -0.0548855 0.156042 0.037634403 -0.09756923
000080 ba 60 e9 3d 82 d7 8f bd 32 a7 03 be b0 96 d0 bc
       0.11395402 -0.07023527 -0.12856749 -0.025462478
000090 b2 60 cd 3d ed 60 bb bd 10 93 0d be 00 78 eb b9
       0.10028209 -0.091493465 -0.13825631 -0.000449121
0000a0 00 77 bd 3a ba 22 cf 3d 5c 7d 7d bd b4 39 a9 bd
       0.001445502 0.101140454 -0.06188713 -0.08262959
0000b0 84 96 e2 bd 9d 1f 14 be fa 82 fa 3d 46 8b aa bd
       -0.11063865 -0.14465185 0.12232013 -0.083273456
0000c0 48 16 68 3d e0 b9 b9 3c 78 98 3f 3d 3c 7e 01 bd
       0.056661874 0.02267164 0.046776265 -0.031614527
0000d0 46 19 d4 bd be 49 9e 3d 95 84 80 bd 2b 57 cc bd
       -0.10356383 0.07728909 -0.06275288 -0.099775635
0000e0 50 95 dc bc a4 1e 90 bd 00 2b 46 bc d8 20 b5 bc
       -0.026926666 -0.07037094 -0.012095213 -0.022110388
0000f0 ec 39 0c 3d e0 6f f6 bb 22 b6 3f bd fa b7 cc 3d
       0.034234926 -0.0075206608 -0.046804555 0.09996028
000100 bc dd 32 3d 3e 5b 13 bd 7a d9 ce bd 30 89 b2 bc
       0.043668494 -0.035975687 -0.10100074 -0.021793932
000110 b0 1f 02 bd 0b 01 02 3e 47 62 1a 3e 58 f8 6f bd
       -0.0317685 0.1269571 0.15076552 -0.05858645
000120 45 16 1a 3e 18 1d 22 3d 1b c1 b9 bd 62 4b 86 3d
       0.15047558 0.039578527 -0.09070035 0.06557347
000130 30 14 d1 bc 9b 50 0a be 3c 83 4d 3d e6 df 0f bd
       -0.025522321 -0.13507311 0.050173983 -0.035125636
000140 ee d7 7c bd de 21 a9 bd 3b 58 96 bd fa 66 21 be
       -0.061729364 -0.08258413 -0.073410474 -0.15761939
000150 e0 a3 c0 3c 37 3a e6 bd d8 dc 6b 3d 93 40 21 be
       0.023515642 -0.11241572 0.05758366 -0.1574729
000160 48 57 0e bd c7 c4 19 3e 67 5b 0c 3e 82 87 86 bd
       -0.034751207 0.15016471 0.13706742 -0.06568815
000170 3e cd e4 3d cf 49 a7 bd 78 c0 0b 3d da aa bd 3d
       0.11171959 -0.08168375 0.0341191 0.09261103
000180 4a f2 82 3d b0 f9 19 bc 4f f0 12 3e 94 02 68 3d
       0.06393869 -0.009397909 0.14349483 0.056643084
000190 b6 c2 d5 3d 9d f1 0c be 44 b0 63 bd c0 7d 05 be
       0.10437529 -0.13764043 -0.055588022 -0.13036251
0001a0 35 c7 a0 bd b8 5e c7 3c bc 75 40 3d cd f7 08 3e
       -0.07850496 0.024337158 0.04698728 0.13375778
0001b0 68 d9 e2 bc 26 cb 73 bd c6 e5 fe 3d 42 92 cc 3d
       -0.027691558 -0.05951991 0.124461696 0.09988834
0001c0 0c 40 0e be b4 89 38 3d be 79 fc 3d c3 88 f2 bd
       -0.1389162 0.0450532 0.12327908 -0.118424915
0001d0 fa ef f5 3d b8 ca 3d 3d 42 ff 11 be 50 d9 b1 bc
       0.120086625 0.046335906 -0.1425753 -0.021710068
0001e0 d8 80 07 bd 48 47 30 3d 7e a6 c6 bd d2 23 97 bd
       -0.03308186 0.04303673 -0.096997246 -0.07379879
0001f0 00 9e dd b9 8c 63 1d be 0c 82 f4 bd f0 cb 14 3c
       -0.00042270124 -0.15370005 -0.11938867 0.009081826
000200 30 fe e6 bc 60 ff 02 be e3 a1 1a 3e 00 f8 5d bc
       -0.028197378 -0.1279273 0.15100817 -0.013547897
000210 b7 e2 87 bd 86 ba 32 bd ec 19 bb bd a6 51 de 3d
       -0.06635039 -0.043634914 -0.091358036 0.10855417
000220 50 11 9e 3d 00 5d ae bd b9 63 06 be c0 19 da bd
       0.07718146 -0.08513832 -0.13123979 -0.10649443
000230 35 ab d6 bd e8 1b 87 3d d2 2a fe 3d eb 50 88 bd
       -0.10481874 0.065971196 0.12410511 -0.06656059
000240 e2 a6 f2 bd 01 9e 0a 3e c4 87 a5 3d ab 60 b1 bd
       -0.118482366 0.13536836 0.08082536 -0.08661016
000250 da 5f b2 3d aa da 47 bd 16 63 2c bd 06 5b 89 3d
       0.087096885 -0.04879252 -0.042086683 0.067068145
000260 a8 66 a3 bc 32 d7 81 bd 56 ef ee bd 86 e9 3c bd
       -0.019946411 -0.063398734 -0.116667435 -0.046121143
000270 e2 98 ce 3d b2 b9 c8 3d a4 56 4b 3d 1e 85 e1 3d
       0.10087754 0.098010436 0.049643174 0.11011718
000280 ff 60 18 be 82 39 74 bd f4 e4 60 3d 40 2a 32 bc
       -0.14880751 -0.059625156 0.054905847 -0.010874331
000290 72 44 d5 bd 61 1c 9a bd b2 f5 66 bd 27 c3 c3 bd
       -0.104134455 -0.07524944 -0.056386657 -0.09558707
0002a0 fa 5f d4 3d b2 85 56 bd 65 74 14 3e c5 43 16 3e
       0.103698686 -0.052373596 0.14497526 0.1467429
0002b0 fe 8c 4d bd ba 59 c6 3d 30 19 02 bc 32 20 04 be
       -0.05018329 0.09685083 -0.0079405755 -0.12902907
0002c0 09 3b 15 3e 35 8b 8a bd 7b f9 06 be 49 04 19 3e
       0.14573301 -0.06764833 -0.13181107 0.14943041
0002d0 f7 0d 1a be 34 5f 5b bd b1 6b bd bd 7c 3c b7 bd
       -0.1504439 -0.05355759 -0.09249056 -0.08947083
0002e0 f9 66 a3 bd 00 18 dc 38 14 8a 0e bd ce bb 97 3d
       -0.07978625 0.00010494888 -0.03479965 0.07408868
0002f0 ee 3a bc 3d a4 53 18 be 80 09 e5 ba 1e 68 0e be
       0.091909274 -0.14875656 -0.0017474145 -0.13906905
000300 8c 90 4c bd f0 1c 96 bc 94 63 6f 3d b6 2e 0c bd
       -0.04994254 -0.018324345 0.058444574 -0.034224235
000310 72 0c 11 be 92 f5 8e 3d f6 d8 d1 3d 72 e0 a6 3d
       -0.14164904 0.069804326 0.1024646 0.08148278
000320 f0 81 32 bc f8 83 f3 3c aa 3a e8 bd cc c2 8b 3d
       -0.010895237 0.029726014 -0.11339314 0.06824264
000330 99 4e 0a 3e 7e 42 df 3d 00 7f 51 3d e8 39 48 3d
       0.13506545 0.10901354 0.051146507 0.04888335
000340 4e b3 11 be 60 aa d6 3b 17 5e 1a be f6 44 5c bd
       -0.14228556 0.006551072 -0.15074955 -0.053776704
000350 1a c9 20 be a0 b9 01 be 0c 1c 45 bd 83 e9 13 be
       -0.15701714 -0.12668467 -0.04812245 -0.14444546
000360 60 39 57 3d 08 7a a4 bc c4 5b 8f bd d9 1f 05 be
       0.05254495 -0.02007772 -0.06999925 -0.1300043
000370 71 e8 00 3e fb ce 89 bd fe 24 c5 3d 6c da 00 be
       0.1258867 -0.067289315 0.09626196 -0.12583321
000380 62 2e d3 3d 20 b6 6b 3c 90 df f8 bc 43 cf a5 bd
       0.10311581 0.014386684 -0.03038004 -0.08096173
000390 80 e0 21 bb 9e 84 0a bd 10 af f6 bd 3d f0 18 be
       -0.0024700463 -0.03381788 -0.12045109 -0.14935394
0003a0 b0 1b d9 3c 02 e8 d9 3d f0 36 98 bc 74 1b 58 3d
       0.02650246 0.10639955 -0.018580884 0.052760556
0003b0 19 81 0e 3e 06 83 65 bd 1e ca 9a bd 86 1b f8 bd
       0.13916434 -0.056033157 -0.07558082 -0.12114625
0003c0 1a f3 d2 3d 82 6b c0 3d dd 14 17 3e cc 1d e3 bd
       0.10300274 0.093955055 0.14754052 -0.11089668
0003d0 0c cc 49 3d 3c 84 2c 3d 63 b2 1e 3e 8f 76 1d 3e
       0.04926686 0.042118296 0.15497737 0.15377258
0003e0 c9 bc 09 3e 26 4c d2 3d 08 78 a3 3d a6 c0 55 bd
       0.13450922 0.102684304 0.079818785 -0.052185677
0003f0 c0 ee a4 3b 01 9b cd bd aa d8 87 bd c8 35 bb bd
       0.005033344 -0.1003933 -0.06633122 -0.09141117

transformer_encoder.encoder.attention.fc.bias f4 [40]
000000 00 be 66 bc 46 3d ed 3d 72 60 ce 3d fc 3a 02 3d
       -0.0140833855 0.115839526 0.10076989 0.031794533
000010 58 e2 83 bc 96 c9 05 be fc 08 5d bd b4 f2 a1 3d
       -0.01609914 -0.1306518 -0.053963646 0.0790762
000020 a8 72 a8 3d 6a cc e7 3d 94 94 15 be a2 3a d2 bd
       0.08224994 0.11318286 -0.1460746 -0.102650896
000030 60 1d ba bc b8 75 df bc 49 f2 10 3e 3e 38 de 3d
       -0.022719085 -0.027277812 0.14154924 0.10850571
000040 20 d9 e2 bc aa b8 cf bd 02 0b 84 3d 78 07 92 bd
       -0.027691424 -0.10142644 0.06447412 -0.07130331
000050 40 52 ce bb 00 95 75 3d ce a3 ef 3d 4c 92 08 bd
       -0.006296426 0.05995655 0.11701165 -0.033342645
000060 f7 1b be bd 3c 7a 10 3d 80 a6 e2 bd ba 0d 00 be
       -0.092826776 0.03527282 -0.110669136 -0.12505236
000070 9e 8f 10 be a0 79 b2 3d 16 dc fc 3d a0 a4 d8 bc
       -0.14117286 0.087146044 0.123466656 -0.026445687
000080 80 fd 37 bb 8e 40 bf bd 7b 75 00 3e 6c 0c 9e 3d
       -0.0028074682 -0.09338485 0.12544815 0.07717213
000090 0d 01 03 be 9a ff bd 3d 1a f8 38 bd 26 96 31 bd
       -0.1279337 0.09277268 -0.045158483 -0.043356083

transformer_encoder.encoder.attention.layer_norm.weight f4 [40]
000000 00 00 80 3f 00 00 80 3f 00 00 80 3f 00 00 80 3f
       1.0 1.0 1.0 1.0
000010 00 00 80 3f 00 00 80 3f 00 00 80 3f 00 00 80 3f
       1.0 1.0 1.0 1.0
000020 00 00 80 3f 00 00 80 3f 00 00 80 3f 00 00 80 3f
       1.0 1.0 1.0 1.0
000030 00 00 80 3f 00 00 80 3f 00 00 80 3f 00 00 80 3f
       1.0 1.0 1.0 1.0
000040 00 00 80 3f 00 00 80 3f 00 00 80 3f 00 00 80 3f
       1.0 1.0 1.0 1.0
000050 00 00 80 3f 00 00 80 3f 00 00 80 3f 00 00 80 3f
       1.0 1.0 1.0 1.0
000060 00 00 80 3f 00 00 80 3f 00 00 80 3f 00 00 80 3f
       1.0 1.0 1.0 1.0
000070 00 00 80 3f 00 00 80 3f 00 00 80 3f 00 00 80 3f
       1.0 1.0 1.0 1.0
000080 00 00 80 3f 00 00 80 3f 00 00 80 3f 00 00 80 3f
       1.0 1.0 1.0 1.0
000090 00 00 80 3f 00 00 80 3f 00 00 80 3f 00 00 80 3f
       1.0 1.0 1.0 1.0

transformer_encoder.encoder.attention.layer_norm.bias f4 [40]
000000 00 00 00 00 00 00 00 00 00 00 00 00 00 00 00 00
       0.0 0.0 0.0 0.0
000010 00 00 00 00 00 00 00 00 00 00 00 00 00 00 00 00
       0.0 0.0 0.0 0.0
000020 00 00 00 00 00 00 00 00 00 00 00 00 00 00 00 00
       0.0 0.0 0.0 0.0
000030 00 00 00 00 00 00 00 00 00 00 00 00 00 00 00 00
       0.0 0.0 0.0 0.0
000040 00 00 00 00 00 00 00 00 00 00 00 00 00 00 00 00
       0.0 0.0 0.0 0.0
000050 00 00 00 00 00 00 00 00 00 00 00 00 00 00 00 00
       0.0 0.0 0.0 0.0
000060 00 00 00 00 00 00 00 00 00 00 00 00 00 00 00 00
       0.0 0.0 0.0 0.0
000070 00 00 00 00 00 00 00 00 00 00 00 00 00 00 00 00
       0.0 0.0 0.0 0.0
000080 00 00 00 00 00 00 00 00 00 00 00 00 00 00 00 00
       0.0 0.0 0.0 0.0
000090 00 00 00 00 00 00 00 00 00 00 00 00 00 00 00 00
       0.0 0.0 0.0 0.0

transformer_encoder.encoder.feed_forward.fc1.weight f4 [256, 40]
000000 e0 e4 58 3c 7e 25 cd 3d be ea cb bd bc e6 25 bd
       0.013238162 0.10016917 -0.09956883 -0.04050325
000010 64 39 0f 3d 48 4c bb 3c 00 04 93 b9 82 45 27 bd
       0.03496684 0.022863522 -0.00028041005 -0.040837772
000020 8d 76 c2 bd 5e eb f5 bd 50 9b 7c bd de b8 fd bd
       -0.09495268 -0.12007783 -0.061671555 -0.12388776
000030 21 57 09 3e 84 9b 20 3d a8 13 86 3d 01 4b 0c 3e
       0.13412143 0.03921081 0.06546718 0.13700487
000040 20 b8 59 3d 00 0b 67 3d 30 5c 8f 3d a2 af ea 3d
       0.05315411 0.056406975 0.07000005 0.114592806
000050 8b aa f6 bd 8c 76 5f 3d ae 35 d1 3d 1a c5 f3 3d
       -0.12044247 0.054556414 0.10215317 0.119028285
000060 42 83 e9 3d d0 e7 aa bd 94 38 57 3d a9 8c 20 3e
       0.114019886 -0.08344996 0.05254419 0.15678658
000070 8e 17 7e bd c6 4d ed 3d ea 48 b2 3d 5a 99 16 be
       -0.062034182 0.115871 0.087053135 -0.14706936
000080 5a bf e0 bd 6a 89 0c be f6 3c c3 3d c0 65 73 3b
       -0.109739974 -0.13724294 0.09533112 0.0037139505
000090 d0 e4 a6 3c 7b f3 1c 3e ec 43 30 3d ea d4 10 be
       0.020372778 0.15327255 0.043033525 -0.1414372
0000a0 dc f0 47 bd f0 ab c8 bc be c5 d9 3d ee 92 eb 3d
       -0.048813686 -0.024496049 0.106334195 0.11502634
0000b0 13 71 1e 3e 96 41 a1 3d 00 83 8a 3c da 97 c1 3d
       0.15472822 0.07873838 0.016908169 0.094527915
0000c0 79 c4 00 be f1 f0 0c be a8 49 9b 3c b6 0e f0 3d
       -0.12574948 -0.13763787 0.01895602 0.11721556
0000d0 25 ff 08 3e 60 7f 60 bc 00 fa 0f 3a 0a 36 17 be
       0.1337858 -0.013702244 0.000549227 -0.14766708
0000e0 89 bd df bd 5a 17 e5 bd d8 64 a0 3d 40 0a b6 bc
       -0.10924823 -0.111860946 0.078317344 -0.022221684
0000f0 b4 ab 10 3d 35 56 1c 3e f5 da 0b be f8 1e 41 3d
       0.03532 0.1526726 -0.13657744 0.047148675
000100 80 e5 e0 3b 27 6d c2 bd 7b e2 a3 bd 70 8b 99 bc
       0.006863296 -0.094934754 -0.08002182 -0.018743247
000110 56 a9 03 be 42 ac e6 3d fd e1 1f be d4 6f b8 bd
       -0.12857565 0.11263324 -0.15613551 -0.090057045
000120 6b 6c 14 3e 58 24 80 3d 9c a3 62 3d 07 a4 15 3e
       0.14494483 0.06256932 0.05533181 0.14613353
000130 00 1a c7 3a 5b 1a fb bd 50 db 81 3d 17 2b 0d 3e
       0.0015190244 -0.12260886 0.06340659 0.13785969
000140 10 06 f5 3c 70 63 79 3d d0 82 40 3d 4f 95 a4 bd
       0.029910117 0.060885847 0.046999753 -0.08036291
000150 de b3 ec 3d 38 93 a8 3d ff 23 14 be a9 77 8a bd
       0.115577444 0.08231205 -0.14466856 -0.067611046
000160 fe e5 ee bd 8a 56 9b 3d b0 9c e2 bd 06 63 01 be
       -0.11664961 0.075848654 -0.11065042 -0.1263543
000170 89 29 09 be 6c 34 1b be 26 28 c2 3d 40 fa 89 3c
       -0.1339475 -0.15156716 0.09480314 0.016842961
000180 8a aa 5a bd dd 85 1e 3e 1e b9 55 bd d2 08 ee 3d
       -0.053385295 0.15480752 -0.052178495 0.11622776
000190 28 46 2e 3d 75 bd c7 bd 0e 96 ce 3d 72 ee 1a be
       0.042547375 -0.09752933 0.100872144 -0.15130022
0001a0 43 ee 8b bd 82 e6 34 bd 5a 5a be bd a2 30 23 bd
       -0.06832554 -0.044165142 -0.09294577 -0.0398413
0001b0 4a f5 90 3d 4e ee 7f bd 50 c0 0d bc d0 57 c1 bd
       0.07078035 -0.062483124 -0.008651808 -0.09440577
0001c0 90 6a 15 be 58 b5 04 bd 0a cc 56 bd fe 4e 1d bd
       -0.14591432 -0.032399505 -0.05244068 -0.03840541
0001d0 a4 73 16 be 9a d4 b7 3d b4 66 90 3d 97 24 0f 3e
       -0.14692551 0.089760974 0.07050839 0.13978802
0001e0 0d 95 09 3e a5 57 03 be 3c 91 ac bd 35 f7 14 be
       0.13435765 -0.12826402 -0.08426139 -0.14547427
0001f0 98 11 b6 bc 11 ee 0e 3e fc 7c 61 bd e2 85 fd bd
       -0.022225186 0.13958003 -0.055050835 -0.12379052
000200 e7 46 1d 3e 9c 75 d6 bd e4 e4 8b 3d e7 28 84 bd
       0.15359078 -0.10471651 0.06830767 -0.06453114
000210 24 27 03 3d 80 7c 52 3b 5b 9c a9 bd 5a 91 ab 3d
       0.03201975 0.0032117665 -0.082817756 0.08377333
000220 20 d3 64 bc 1c bb 15 3d 80 9b 87 3a 60 37 06 bd
       -0.013966352 0.036555395 0.0010346025 -0.032767653
000230 ec 7b d1 bd 93 8c 02 3e 5e f0 8f 3d 22 4c f0 bd
       -0.10228714 0.12748937 0.07028268 -0.11733271
000240 6d 5d 16 3e b5 8b cd bd 40 c5 7d bb 42 29 b1 3d
       0.14684077 -0.100364126 -0.0038722306 0.086504474
000250 4a 1f a8 3d 7d 73 a2 bd 30 69 04 3d 42 87 ee bd
       0.08209093 -0.07932184 0.032326877 -0.11646892
000260 c8 35 37 3d 72 40 20 bd f0 29 01 bc 40 ad df 3b
       0.044729024 -0.03912396 -0.007883534 0.006826073
000270 94 24 49 3d a5 dd 06 3e 29 b1 02 3e 8f 9e 07 be
       0.04910715 0.13170488 0.12762894 -0.13244079
000280 bc 30 5a 3d df 0e 21 be 3c 52 0d bd 20 46 b0 3b
       0.053269133 -0.15728329 -0.034502253 0.0053794533
000290 47 9c 00 3e 48 6a 08 3d 50 12 c8 bd 02 99 d8 bd
       0.12559615 0.033304483 -0.09769118 -0.10576059
0002a0 50 0e 8d bc 24 3e 9c 3d 52 6e ca 3d 45 4b 05 3e
       -0.017218739 0.0762904 0.09884323 0.13016994
0002b0 98 ea 90 3d 71 22 d5 bd a8 07 b7 3d 5a fd 07 be
       0.07075995 -0.1040696 0.08937007 -0.1328024
0002c0 32 f5 a9 bd 7a 86 e3 3d 1f 92 0e 3e 28 04 8b 3d
       -0.082987204 0.11109634 0.13922928 0.06787902
0002d0 75 e0 10 3e 09 70 00 3e 12 a9 a4 3d f7 b9 17 3e
       0.14148124 0.12542738 0.0804006 0.14817034
0002e0 00 80 4c 39 86 41 a0 3d 80 d6 82 3c 80 4b ef bb
       0.0001950264 0.078249976 0.015971422 -0.0073027015
0002f0 f4 09 04 be 30 b7 e1 3c 60 1e b0 bc 3a 89 28 bd
       -0.12894422 0.02755317 -0.021498859 -0.041146494
000300 b8 0f 30 3d 58 ee 7b 3d 6f 38 dc bd ea 24 ea bd
       0.04298374 0.0615066 -0.10752951 -0.11432822
000310 6e 22 cd 3d ea fb e8 3d a0 ed 11 3d 22 c7 21 be
       0.100163326 0.11376174 0.035627007 -0.1579862
000320 34 33 3d 3d ce a0 1b be a8 b6 ab 3d bf ce 20 be
       0.04619141 -0.15198061 0.08384448 -0.15703867
000330 b8 5e d0 bc 68 21 f9 bd e8 16 10 be 1c b8 2b bd
       -0.02543579 -0.12164575 -0.14071238 -0.041923627
000340 f0 2e 12 be f1 e7 0a 3e e0 72 fc bc 31 53 13 3e
       -0.14275718 0.13565041 -0.030816495 0.14387204
000350 31 da 12 3e d0 39 33 3c 97 25 06 3e 80 9c 5f bb
       0.14341046 0.010939077 0.13100277 -0.003412038
000360 c9 96 0a 3e e8 bc 31 3d 9f 96 10 3e 0a 99 7f bd
       0.13534082 0.043393046 0.14119957 -0.06240181
000370 0c 57 06 3d 20 86 e8 bc 66 25 08 bd 00 cb f4 bc
       0.032797858 -0.028384268 -0.03323879 -0.029881954
000380 d6 bf a2 3d 06 59 fe bd a3 fe 11 be 8b f2 15 be
       0.07946746 -0.124193236 -0.14257292 -0.14643304
000390 70 df 62 bd 3d 4a 18 3e df 11 98 bd d0 53 69 3c
       -0.055388868 0.1487207 -0.07425284 0.014241174
0003a0 3c 9f 20 bd 3e 35 da 3d d0 ce 21 3d a0 43 05 3c
       -0.039214358 0.106546864 0.039503872 0.008133799
0003b0 82 2f 08 be c0 5b 04 bb dc 21 a6 3d c7 01 c9 bd
       -0.13299373 -0.0020196289 0.08111927 -0.09814792
0003c0 5b 02 02 3e 98 06 b8 bd 78 2b 94 bc 6d 8e 12 3e
       0.12696211 -0.08985633 -0.018087134 0.14312144
0003d0 36 d8 50 bd f9 6f 14 be 18 8d e6 3c 51 98 09 3e
       -0.050987445 -0.14495839 0.02814345 0.1343701
0003e0 66 2e 76 bd 00 64 ee bb 9b f2 17 3e c0 3d 7c 3d
       -0.060102843 -0.0072751045 0.1483864 0.061582327
0003f0 f8 63 08 bd 06 42 1f be 4a 3e 39 bd a4 51 98 3d
       -0.033298463 -0.1555253 -0.04522542 0.07437447

transformer_encoder.encoder.feed_forward.fc1.bias f4 [256]
000000 8c 66 4c 3d d8 a8 ed 3c 78 f9 9d 3c a8 fa 65 bd
       0.049902484 0.029011175 0.019283995 -0.056147248
000010 e0 b4 3e 3d d8 a3 af 3d db a7 01 be 1c 34 7f 3d
       0.046559215 0.085761726 -0.12661688 0.062305555
000020 43 6c 14 be 8d 16 0b 3e f6 25 f2 bd 92 c3 16 be
       -0.14494424 0.13582821 -0.11823647 -0.14723042
000030 40 74 b4 bb 0a 35 d2 bd e6 8e f7 bd d2 a0 44 bd
       -0.005507022 -0.10264023 -0.120878026 -0.048004933
000040 50 36 5b 3c 02 ae bf 3d 70 6a f1 bc 02 5f a1 3d
       0.013379648 0.09359361 -0.029469699 0.078794494
000050 1e ff e1 bd db 45 0f 3e d4 77 7b bd 9d b9 bf bd
       -0.11034988 0.13991491 -0.061393574 -0.09361575
000060 fa 74 e0 3d 40 59 88 bd 23 1b 16 be c8 db aa 3d
       0.109598115 -0.06657648 -0.1465879 0.08342701
000070 b0 25 9d bd 1b e6 02 3e ea 33 03 be a0 e0 c0 bc
       -0.07673204 0.12783091 -0.12812772 -0.02354461
000080 23 fb 09 be e9 49 16 3e b9 6e c2 bd 40 34 e9 3c
       -0.13474707 0.14676632 -0.09493775 0.028467298
000090 bd ce 18 3e 40 ec 30 3d 80 c2 a2 3d 48 0b c5 bd
       0.14922614 0.043194056 0.07947254 -0.09621292
0000a0 74 16 55 bd 61 85 09 be ea 00 0f be 2c 01 18 be
       -0.052023366 -0.13429786 -0.13965192 -0.14844197
0000b0 27 bd 19 3e 00 77 81 3b 05 6e 17 3e 26 ca bf 3d
       0.15013562 0.0039509535 0.14788063 0.09364729
0000c0 80 a2 b4 3b 74 dd 5d bd 40 26 ee bd 2e 58 99 bd
       0.0055125356 -0.054166272 -0.11628389 -0.07487522
0000d0 92 6d 3a bd c6 3f f7 3d 5a 1d ca 3d f9 ac 18 3e
       -0.04551465 0.12072711 0.098688796 0.14909734
0000e0 7e d8 9b 3d c0 b5 16 3d c6 2d 47 bd b1 93 93 bd
       0.07609652 0.036794424 -0.048627637 -0.07205904
0000f0 f8 68 d8 bd e0 1e fc 3c c4 e9 40 bd 1d dc ce bd
       -0.10566896 0.030776441 -0.047097936 -0.10100577
000100 04 6e 39 3d 26 3a f3 bd ae dc 0b be c1 83 1b 3e
       0.045270935 -0.11876325 -0.13658401 0.15186979
000110 00 70 9e ba 2a cd f1 3d 3f 2d a2 bd e6 8d 0a be
       -0.0012087822 0.1180671 -0.07918786 -0.13530692
000120 30 b7 56 bc 37 0f 0b 3e 52 78 cf 3d 0c 55 03 bd
       -0.013105199 0.13580023 0.10130371 -0.03206353
000130 4c a7 5d 3d 0b 53 12 be 30 df 31 3c 8d 48 10 3e
       0.054114625 -0.14289491 0.010856435 0.14090176
000140 dc 78 88 3d 1c 13 4a 3d 68 fe 9c bc 87 91 0f be
       0.06663677 0.04933463 -0.01916428 -0.14020358
000150 45 e0 bd bd e0 0d d8 bb 4f 2a 81 bd 39 17 06 3e
       -0.09271292 -0.006593451 -0.06306898 0.13094796
000160 fe f1 ca 3d bc 18 09 bd 7c 0e 8d 3d c9 25 1b 3e
       0.099094376 -0.033470854 0.06887528 0.15151133
000170 9a 29 57 bd b0 41 17 3c f8 93 20 3d e8 dc c8 bd
       -0.05252991 0.00923197 0.039203614 -0.098077595
000180 7c 05 29 bd c0 99 a5 3b 5a 22 91 bd 48 1a 76 3d
       -0.041264996 0.005053729 -0.0708663 0.060083658
000190 55 65 0e be c2 a2 7b bd 12 77 a9 bd d6 e6 1b be
       -0.13905843 -0.061434515 -0.08274664 -0.15224776
0001a0 7a cc bc 3d d4 90 48 3d b9 e2 20 3e 40 b7 1b 3b
       0.09218688 0.048966244 0.15711488 0.0023760349
0001b0 82 18 13 be 50 7f 3c bd 54 75 35 3d e0 31 96 3b
       -0.14364818 -0.046019852 0.044301346 0.0045835823
0001c0 6e b9 c1 3d b0 81 ec bd 3e d9 b2 3d 28 b8 46 3d
       0.09459196 -0.115481734 0.08732842 0.04851547
0001d0 b6 0c c4 3d 87 46 1c 3e d2 b2 f9 3d 3b f2 16 3e
       0.09572737 0.15261279 0.121923104 0.14740841
0001e0 12 93 58 bd b7 91 dd bd 58 02 d1 bc 60 26 aa bb
       -0.052874632 -0.108188085 -0.025513813 -0.005192563
0001f0 76 dc 66 bd d0 4b 05 3c 7e b6 fd 3d a1 97 00 3e
       -0.05636259 0.008135751 0.12388323 0.12557842
000200 3a 91 fe bd e0 97 53 3d f8 57 16 3d c8 65 33 bd
       -0.124300435 0.05165851 0.036704987 -0.043798238
000210 70 9c ad bd 20 5b ad 3b a0 a8 88 bc 00 ad 46 3d
       -0.08477104 0.005290404 -0.01668197 0.04850483
000220 f2 f3 2d bd 48 62 f2 3c ac e0 74 bd 7d 38 00 3e
       -0.042468973 0.02958788 -0.059784576 0.12521549
000230 52 0a c8 bd be 5e 5a bd d4 9d e5 bd c9 5d ba bd
       -0.097675934 -0.05331301 -0.11211744 -0.09099919
000240 3a 83 b3 3d 4a 04 ef 3d e6 b8 c3 3d 68 a1 26 bd
       0.08765264 0.1167074 0.09556751 -0.040681273
000250 e4 81 1e 3d cd fa 01 3e b0 5c 2b bc 0f 52 1a be
       0.038698092 0.12693329 -0.01045911 -0.15070365
000260 00 49 d2 bc 18 0c 7d 3d 00 e4 7b bd b8 7b 15 be
       -0.025669575 0.06177911 -0.061496735 -0.14597976
000270 00 8c c4 3b 22 67 e3 3d 56 da 96 3d 0c e1 99 bd
       0.0059981346 0.111036554 0.07365863 -0.075136274
000280 56 ec b5 3d 44 f8 8d 3d c8 09 07 bd 7a 72 e6 3d
       0.08882968 0.069321185 -0.032968313 0.112523034
000290 a0 74 7b bd 85 74 99 bd 40 ba 83 3d c8 6c d7 3c
       -0.06139052 -0.074929275 0.06432009 0.026296988
0002a0 86 b3 0d be ae 59 00 be 12 6f b0 3d 1c 2b 58 bd
       -0.13838014 -0.1253421 0.08614935 -0.052775487
0002b0 9c 5f 09 be dc e3 f6 bd 00 46 6a bc 4a 8e 82 3d
       -0.13415378 -0.120551795 -0.014298916 0.06374796
0002c0 88 ae 22 3d 8d d6 0e 3e 08 ed 77 3d d0 6f 98 bc
       0.039717227 0.13949032 0.060528785 -0.018608004
0002d0 c1 85 06 3e c8 b0 53 bd 18 5c a0 bd 53 0a 00 3e
       0.1313696 -0.051682264 -0.078300655 0.12503938
0002e0 56 cb 8c bd 60 a2 e0 3c bb 61 19 3e 18 a1 91 3c
       -0.06874721 0.027421176 0.14978687 0.01777701
0002f0 8a cf dc 3d 1c 0a 23 bd 08 50 7b 3d 82 d8 d9 bd
       0.107817724 -0.039804563 0.06135562 -0.10636999
000300 5d 31 15 3e ac 02 41 3d 20 bd 25 bc 10 97 23 bc
       0.14569612 0.04712169 -0.010115892 -0.009984747
000310 d8 57 ca bc 40 1d 73 3c d9 ca 8a bd 80 ff 22 3d
       -0.02470009 0.014838517 -0.06776971 0.039794445
000320 3d 59 14 3e 14 60 3f 3d c8 c2 9c bc af cb ab bd
       0.14487167 0.046722487 -0.019135848 -0.08388459
000330 7c 39 36 3d 6e 2e 2b bd c8 96 21 be 8a 4e de 3d
       0.044488415 -0.041792326 -0.15780175 0.10854824
000340 08 ed de 3c fd 67 1e 3e b4 fb d7 bd c0 db 58 bc
       0.027212635 0.15469356 -0.105460554 -0.013235986
000350 98 51 b9 3c f0 25 13 3d 9c 50 62 3d 18 80 95 3d
       0.022621915 0.035924852 0.055252656 0.072998226
000360 9c c8 5b 3d b0 80 37 bc d3 db 13 3e a4 96 1d bd
       0.053658113 -0.011200115 0.14439325 -0.03847374
000370 a0 4c 75 3d 6c 14 0f be 00 8c 7a 3a d0 e1 66 bd
       0.05988753 -0.13972634 0.0009557605 -0.056367695
000380 68 af 9b bc 03 b0 0c 3e c7 41 91 bd 40 f4 1f 3d
       -0.019004539 0.13739018 -0.07092624 0.039051294
000390 ae d3 8f 3d 64 3f 82 3d ce 67 be 3d 31 bd 0b be
       0.070227966 0.06359747 0.09297143 -0.1364639
0003a0 36 bb 96 3d 0d a9 1c 3e 10 20 49 3d 52 98 ad 3d
       0.073599264 0.15298863 0.049102843 0.084763184
0003b0 0c 8d 76 bd 76 39 0c be ca 59 84 3d a6 c9 df bd
       -0.060193107 -0.13693795 0.064624384 -0.10927133
0003c0 6e 56 65 bd b4 5d 79 3d 12 a1 08 be ca 29 c5 3d
       -0.05599063 0.060880378 -0.13342693 0.09627111
0003d0 a8 a3 9f bc 67 07 8c bd 90 fc 81 3c 60 84 df bd
       -0.019487217 -0.068373494 0.015867501 -0.109139204
0003e0 f7 0d ae bd 74 78 8e 3d 60 78 59 bd 0a 4b 0e be
       -0.08498757 0.06956568 -0.053093314 -0.13895813
0003f0 e0 5b 38 3d 8e 2d 91 3d b8 d9 00 bd 22 39 04 be
       0.045009494 0.07088767 -0.031457633 -0.1291242
