simple2transformer/param/net_param/Mk09_critic_net.model (torch, 232127 bytes, 33 tensors)

transformer_encoder.encoder.attention.fc_Q.weight f4 [40, 40]
-0.07293191 0.11970784 -0.06482073 -0.07200478 -0.13355474 0.09542732 0.081553206 0.043446407
0.07573566 -0.15134153 0.14988996 0.12649028 0.14904334 -0.09086228 -0.14472455 -0.009122133
-0.092168756 0.085262164 -0.106041715 -0.077407196 -0.034354724 -0.041838504 -0.12631854 0.13875644
0.15022336 0.053425938 0.13281368 0.12732433 -0.119898915 -0.12790501 -0.15258169 0.10794391
-0.042757563 0.10968305 -0.019681305 0.03368196 -0.038357854 -0.06741144 -0.12220409 0.03135954
0.12852462 0.026265264 0.05689098 -0.01890044 0.07553728 0.04018444 0.08564448 0.062162653
-0.024855182 0.084452644 -0.059769012 -0.05414141 0.025155887 -0.0048965067 0.06915973 -0.03873434
0.0861471 0.013351023 -0.13378266 0.11475198 -0.055665 -0.10864605 -0.024698868 0.061730057
0.018676803 -0.042323627 0.059756547 -0.07550473 -0.08014999 -0.041638896 0.03152603 0.00051394105
-0.07997163 0.06533587 0.13595082 -0.042443052 -0.14804912 -0.08677065 -0.090479426 -0.038382262
-0.010555148 0.05108738 0.07369226 0.12548856 -0.07057203 0.12090774 0.10591395 0.011847615
-0.073182404 -0.025912285 0.08855589 0.09151408 0.056826845 -0.13971514 -0.1005152 -0.14047635
-0.08891945 -0.015642062 -0.08381717 0.0858309 0.13388525 0.027788088 0.03073211 -0.048971035
0.036377445 0.13142236 0.15802248 -0.1553957 -0.10349534 0.001579836 -0.07671552 -0.14358532
0.0345224 -0.02657944 -0.097506896 -0.05649417 -0.002063945 0.08342941 0.057906747 -0.036776304
0.14582758 -0.06473101 0.07192719 0.045296624 -0.014294073 0.011137217 0.073666155 -0.03435859
-0.029432967 -0.055268653 0.11729176 -0.15805723 0.012923464 -0.023792222 -0.027542993 0.030465156
0.0885233 0.08129896 -0.03061153 0.03802307 -0.06031481 0.060697913 -0.14495979 -0.04295934
-0.06718816 0.13124798 0.12045194 0.10684447 -0.0976594 0.046795815 0.008282334 0.013732702
0.09323011 -0.012579903 -0.1377565 0.14001818 -0.03012222 -0.034567825 0.083041 -0.03026335
-0.11881997 0.10556127 -0.04921008 0.116200164 -0.1387391 0.14923345 -0.0638652 -0.09136263
-0.10943015 0.039359137 0.15093772 0.010779232 -0.054505847 -0.07508268 0.14245273 0.071791574
-0.037765555 -0.11497463 0.089062855 0.030186683 0.04609871 0.048401803 0.14181413 0.044624746
0.073777795 -0.08191221 0.023158893 0.11543764 0.045729935 0.1103041 0.13138063 0.06315279
0.00038160384 -0.07778104 -0.08630413 0.07995078 0.029082417 0.085659504 0.018540367 0.07441971
-0.004484996 0.099493876 -0.006382823 0.04392141 0.027801782 -0.118132025 -0.13799596 0.03529717
-0.1330641 -0.07754748 0.020235166 -0.10808544 -0.14575225 -0.08991406 0.09173782 0.12924497
0.109560385 -0.10982275 -0.120147794 0.13818885 0.08398251 0.044684917 -0.048241615 -0.09422081
-0.054904968 -0.077311836 0.080796406 0.15116595 -0.004924983 -0.10934788 0.05897957 -0.14725924
0.11646642 -0.07395878 0.15621968 0.057714373 0.09890275 -0.027852982 0.10948731 -0.013226539
-0.07809243 0.033239797 -0.01033552 -0.11767936 -0.14756128 0.10398708 0.10187964 -0.13623318
0.038759395 0.13340013 -0.000528723 -0.14867377 -0.09325502 0.02174227 -0.10655638 0.108058944
00000000: 535d 95bd 6229 f53d bbc0 84bd 3e77 93bd
00000010: 93c2 08be 666f c33d 5e05 a73d dcf4 313d
00000020: 4c1b 9b3d 46f9 1abe c17c 193e ab86 013e
00000030: d19e 183e 0116 babd ac32 14be 0075 15bc
00000040: f9c2 bcbd ee9d ae3d 662c d9bd aa87 9ebd
00000050: 8ab7 0cbd da5e 2bbd a659 01be 2b16 0e3e
00000060: 27d4 193e 28d5 5a3d 4f00 083e 4f61 023e
00000070: 908d f5bd 88f9 02be 603e 1cbe b211 dd3d
00000080: 8e22 2fbd 82a1 e03d b03a a1bc 18f6 093d
00000090: 201d 1dbd 020f 8abd 2346 fabd dc72 003d
000000a0: f59b 033e 402a d73c 8406 693d 18d5 9abc
000000b0: 4ab3 9a3d 7098 243d 6066 af3d 449e 7e3d
000000c0: 189d cbbc 82f5 ac3d 5ad0 74bd 62c3 5dbd
000000d0: b813 ce3c e072 a0bb 9ea3 8d3d e6a7 1ebd
000000e0: e46d b03d 40be 5a3c 52fe 08be 1603 eb3d
000000f0: fc00 64bd d281 debd 4855 cabc a8d8 7c3d
00000100: 1800 993c 8a5b 2dbd 48c3 743d 39a2 9abd
00000110: ae25 a4bd 8c8d 2abd 7021 013d 00ba 063a
00000120: 2ac8 a3bd d0ce 853d b136 0b3e c4d8 2dbd
00000130: 309a 17be d0b4 b1bd 474d b9bd b836 1dbd
00000140: 80ef 2cbc 0041 513d f8eb 963d 1380 003e
00000150: 1288 90bd 7a9e f73d 6ae9 d83d 801c 423c
00000160: a8e0 95bd 0046 d4bc ca5c b53d bc6b bb3d
00000170: 44c3 683d 7c11 0fbe eada cdbd 08d9 0fbe
00000180: 671b b6bd c823 80bc 56a8 abbd 1cc8 af3d
00000190: 3719 093e d8a3 e33c e8c1 fb3c da95 48bd
000001a0: 8400 153d 9593 063e a5d0 213e 0d20 1fbe
000001b0: 5df5 d3bd 8012 cf3a 071d 9dbd 0808 13be
000001c0: 5c67 0d3d 20bd d9bc b2b1 c7bd 6e66 67bd
000001d0: 4043 07bb 0add aa3d a02f 6d3d c0a2 16bd
000001e0: d353 153e b191 84bd 904e 933d f488 393d
000001f0: b031 6abc e078 363c 48de 963d 98bb 0cbd
00000200: 681d f1bc 6261 62bd aa36 f03d c1d9 21be
00000210: f0bc 533c e8e7 c2bc d8a1 e1bc 1092 f93c
00000220: b44b b53d 1280 a63d 08c5 fabc 14be 1b3d
00000230: aa0c 77bd 609e 783d 5770 14be 22f6 2fbd
00000240: f299 89bd df65 063e 82af f63d 46d1 da3d
00000250: a701 c8bd f8ac 3f3d a0b2 073c 20ff 603c
00000260: 6eef be3d f01b 4ebc 0a10 0dbe ed60 0f3e
00000270: e0c2 f6bc fe96 0dbd 6611 aa3d d8ea f7bc
00000280: e257 f3bd 8230 d83d 8290 49bd 5afa ed3d
00000290: 9f11 0ebe a7d0 183e c2cb 82bd 551c bbbd
000002a0: ea1c e0bd 0c37 213d 6b8f 1a3e 609b 303c
000002b0: 8641 5fbd f3c4 99bd 21df 113e 7607 933d
000002c0: 0eb0 1abd d277 ebbd 9666 b63d 104a f73c
000002d0: 00d2 3c3d f840 463d b937 113e 70c8 363d
000002e0: d018 973d 97c1 a7bd b8b7 bd3c 926a ec3d
000002f0: 504f 3b3d 1ee7 e13d a588 063e 4056 813d
00000300: 0012 c839 aa4b 9fbd 38c0 b0bd 3cbd a33d
00000310: 403e ee3c 406e af3d f8e1 973c 5c69 983d
00000320: e0f6 92bb 72c3 cb3d 0027 d1bb f0e6 333d
00000330: 90c0 e33c 34ef f1bd d04e 0dbe c493 103d
00000340: f541 08be 37d1 9ebd 38c4 a53c e65b ddbd
00000350: 1440 15be dd24 b8bd 0ae1 bb3d cb58 043e
00000360: 3261 e03d c0ea e0bd 0c10 f6bd 6181 0d3e
00000370: 06ff ab3d 8807 373d 0099 45bd d7f6 c0bd
00000380: 08e4 60bd ab55 9ebd 9678 a53d 3fcb 1a3e
00000390: c061 a1bb c8f1 dfbd 9094 713d 20cb 16be
000003a0: f285 ee3d b377 97bd 0df8 1f3e e865 6c3d
000003b0: 868d ca3d f02b e4bc e23a e03d 20b4 58bc
000003c0: edee 9fbd 7426 083d 5056 29bc e001 f1bd
000003d0: 4e1a 17be 2ef7 d43d 46a6 d03d b680 0bbe
000003e0: 2cc2 1e3d 0b9a 083e 009a 0aba f03d 18be
000003f0: 7dfc bebd d81c b23c 3b3a dabd 024e dd3d

transformer_encoder.encoder.attention.fc_Q.bias f4 [40]
0.14528827 -0.09220964 0.0698645 0.11472352 0.06464286 -0.1359317 0.11322947 0.058563545
0.07478358 0.07807113 0.001631394 -0.13609539 -0.0827459 -0.0789806 -0.043021463 0.12512268
-0.14241037 -0.032110944 0.019914463 0.13322555 -0.05672405 0.017053246 0.04616961 -0.02864404
-0.011039317 -0.15726657 0.021656886 0.09334113 -0.12731124 -0.014526159 -0.0192419 0.043987527
-0.06450015 0.121531144 0.06560001 -0.054177523 0.08096565 -0.086532235 -0.11128578 -0.0322351
00000000: 73c6 143e 68d8 bcbd 1e15 8f3d 2af4 ea3d
00000010: 7a63 843d ae31 0bbe dae4 e73d 54e0 6f3d
00000020: 2228 993d c2e3 9f3d 80d4 d53a 975c 0bbe
00000030: af76 a9bd 95c0 a1bd 4637 30bd 2920 003e
00000040: 06d4 11be c486 03bd a823 a33c 476c 083e
00000050: 7a57 68bd 40b3 8b3c 581c 3d3d e8a6 eabc
00000060: 40de 34bc 7d0a 21be c869 b13c a229 bf3d
00000070: e15d 02be 20ff 6dbc 30a1 9dbc 442c 343d
00000080: a818 84bd 52e5 f83d 4c59 863d 40e9 5dbd
00000090: 52d1 a53d d037 b1bd cde9 e3bd f408 04bd

transformer_encoder.encoder.attention.fc_K.weight f4 [40, 40]
0.010909259 -0.021808103 0.14232706 -0.0654197 0.004731789 -0.07529675 -0.094870314 -0.03297393
-0.09245635 0.081047475 0.010008499 0.055034623 0.0977035 -0.10437848 0.061249703 -0.028017119
0.035825327 -0.13992746 0.1178285 0.11399348 -0.051991493 0.0013545603 -0.07266194 -0.1523742
-0.14850439 0.1441531 -0.15341792 0.12831806 -0.05932699 -0.10791242 0.15708555 -0.016391516
0.06232053 0.07439861 -0.10501646 -0.046903305 -0.0822079 0.059162363 -0.11230065 -0.06548726
-0.003514871 -0.013293698 -0.14885949 -0.004538551 0.010617748 0.13559495 -0.004982397 0.04151793
0.0953833 0.12595694 -0.107128054 0.08384548 -0.1551824 -0.11648605 -0.0034770817 0.11422603
-0.12388359 0.00780946 -0.06246052 -0.13197279 0.07538603 0.15474658 -0.009807095 0.07653555
0.054104656 0.02090694 0.039567575 -0.14563471 -0.105908096 -0.030559197 -0.052514337 -0.035880163
0.12764807 -0.053824358 0.12642698 -0.013354525 0.14102088 0.14847212 -0.063385725 -0.060422532
-0.012435481 0.13569884 -0.14335087 0.014948785 -0.08031292 -0.0086090565 -0.049492806 0.11946501
-0.13443244 0.11254828 -0.03384319 -0.07415676 -0.124605425 0.041064054 0.13702594 0.13265471
-0.05716449 -0.010574862 -0.07586796 0.030287981 0.107709154 0.06989215 0.146677 -0.07331251
0.038927644 0.06897122 -0.07401755 -0.15774588 0.079503894 -0.095014766 0.056074172 0.08750154
0.12022312 0.015970469 -0.068447776 0.10821588 -0.08894245 0.089246914 -0.08302349 -0.121873215
-0.020975098 -0.045066826 0.06487483 -0.12923893 -0.05922866 -0.054863706 0.031896636 -0.081059255
0.13714911 -0.08486496 -0.08591078 0.04603924 0.14067088 0.12718149 -0.059281357 -0.060811736
0.10866885 0.11982201 0.096609816 0.046411097 -0.08676843 -0.14510074 -0.15381388 -0.036293797
0.051215142 0.0045149475 0.12304364 0.037458643 0.123371765 0.006741464 -0.12734827 -0.123643786
-0.083900236 -0.03371282 0.018202797 0.15346868 -0.018356428 -0.12747912 -0.15694943 -0.13014394
0.043575764 -0.06101349 -0.12975983 -0.116616406 0.07484123 0.08317116 -0.05015049 -0.10860202
-0.10759741 0.03804913 0.06577349 0.058870062 -0.05549284 0.06278734 -0.13822286 -0.057543248
-0.06687082 0.006762743 -0.08862317 0.08924016 -0.019165635 0.010433838 0.14711316 0.15508695
-0.11412844 -0.109777346 0.12073584 0.04223676 -0.04091963 0.108159766 -0.031011865 -0.061633803
0.0300477 0.11341922 -0.06019228 -0.1311155 0.05879967 -0.10057208 0.05672282 -0.054305993
-0.13749534 -0.077883385 0.034012377 -0.096168905 -0.13667934 -0.0033933967 0.07663919 0.10827823
0.1104358 -0.09879121 0.077707484 -0.0071520954 0.10358514 0.041731223 0.029365346 -0.09619613
-0.02680771 0.05338794 -0.14510195 0.115575746 -0.046273835 0.092738405 0.067213476 0.012939066
0.06723663 -0.080990866 -0.018011466 0.13578375 0.04009925 -0.009625152 -0.041615546 -0.11894574
0.048205614 0.093516186 -0.08830058 -0.0855054 0.0061819553 0.088062674 0.0968319 0.1400926
0.0013726205 0.09354009 0.0068093985 -0.10522328 0.11129238 0.1481923 0.13803466 -0.01393716
-0.14715643 0.009118393 0.114808366 -0.11162517 0.024888203 -0.13523889 -0.1246407 0.063502
00000000: c0bc 323c e8a6 b2bc 2fbe 113e c4fa 85bd
00000010: 200d 9b3b 2f35 9abd 5e4b c2bd ac0f 07bd
00000020: c159 bdbd 38fc a53d b0fa 233c fc6b 613d
00000030: c618 c83d 62c4 d5bd f8e0 7a3d 2884 e5bc
00000040: 94bd 123d 2549 0fbe 1250 f13d 6a75 e93d
00000050: 08f5 54bd 808b b13a c8cf 94bd fb07 1cbe
00000060: 8911 18be df9c 133e 9619 1dbe cf65 033e
00000070: dc00 73bd 3001 ddbd 09db 203e 8047 86bc
00000080: d043 7f3d 4c5e 983d df12 d7bd ae1d 40bd
00000090: 9e5c a8bd 3c54 723d e2fd e5bd 2f1e 86bd
000000a0: c059 66bb d0cd 59bc 9f6e 18be 20b8 94bb
000000b0: 10f6 2d3c 67d9 0a3e 6043 a3bb b40e 2a3d
000000c0: 5258 c33d dbfa 003e f465 dbbd 2eb7 ab3d
000000d0: 23e8 1ebe 3d90 eebd c0df 63bb 56ef e93d
000000e0: aeb6 fdbd 80e6 ff3b 9ad6 7fbd e023 07be
000000f0: fe63 9a3d e375 1e3e f0ad 20bc acbe 9c3d
00000100: d89c 5d3d 0845 ab3c 9c11 223d 4421 15be
00000110: 58e6 d8bd 4857 fabc 4619 57bd 14f7 12bd
00000120: 2db6 023e ee76 5cbd 1376 013e f0cc 5abc
00000130: c767 103e 1309 183e 60d0 81bd 9e7d 77bd
00000140: 30be 4bbc a3f4 0a3e 92ca 12be c0eb 743c
00000150: 1a7b a4bd 000d 0dbc f8b8 4abd 12aa f43d
00000160: a8a8 09be b67f e63d 289f 0abd 80df 97bd
00000170: 2131 ffbd c832 283d 8750 0c3e a3d6 073e
00000180: 5025 6abd 3042 2dbc a960 9bbd 801e f83c
00000190: 9e96 dc3d 9e23 8f3d 7f32 163e df24 96bd
000001a0: 9872 1f3d c840 8d3d 8396 97bd 2388 21be
000001b0: f0d2 a23d 1a97 c2bd 08ae 653d 0234 b33d
000001c0: 8a37 f63d 80d4 823c 592e 8cbd 4aa0 dd3d
000001d0: 7627 b6bd 16c7 b63d 3808 aabd aa98 f9bd
000001e0: f8d3 abbc fe97 38bd 18dd 843d 3657 04be
000001f0: c099 72bd c4b8 60bd 0ca6 023d 6502 a6bd
00000200: d170 0c3e aecd adbd fef1 afbd a493 3c3d
00000210: 070c 103e dd3b 023e 02d1 72bd ba15 79bd
00000220: c68d de3d 3e65 f53d 5edb c53d 9019 3e3d
00000230: a6b3 b1bd 4a95 14be 6381 1dbe cea8 14bd
00000240: f8c6 513d 20f2 933b 4efe fb3d 3c6e 193d
00000250: 56aa fc3d 80e7 dc3b 9667 02be f438 fdbd
00000260: e3d3 abbd 7416 0abd 081e 953c e526 1d3e
00000270: 3860 96bc e389 02be 5ab7 20be 7444 05be
00000280: 807c 323d 48e9 79bd c3df 04be 95d4 eebd
00000290: 5c46 993d a455 aa3d 9a6a 4dbd bc6a debd
000002a0: 085c dcbd 68d9 1b3d 40b4 863d bc21 713d
000002b0: 764c 63bd a696 803d 4b8a 0dbe 78b2 6bbd
000002c0: 92f3 88bd 009a dd3b 1180 b5bd 8cc3 b63d
000002d0: 4001 9dbc b0f2 2a3c d5a4 163e 1dcf 1e3e
000002e0: 2cbc e9bd f2d2 e0bd 5a44 f73d 7400 2d3d
000002f0: 589b 27bd de82 dd3d 980c febc ba73 7cbd
00000300: 9826 f63c 5648 e83d 2e8c 76bd 2443 06be
00000310: ecd7 703d bcf8 cdbd 3056 683d f66f 5ebd
00000320: 94cb 0cbe 5381 9fbd 9050 0b3d 34f4 c4bd
00000330: abf5 0bbe c063 5ebb 02f5 9c3d fac0 dd3d
00000340: 2a2c e23d 0c53 cabd 1a25 9f3d 205c eabb
00000350: 7224 d43d 5cee 2a3d 988f f03c 7a02 c5bd
00000360: d89b dbbc 50ad 5a3d 9b95 14be fab2 ec3d
00000370: a289 3dbd a2ed bd3d 38a7 893d 60fe 533c
00000380: 5cb3 893d 8ade a5bd c88c 93bc e50a 0b3e
00000390: 1c3f 243d d0b2 1dbc 1075 2abd d399 f3bd
000003a0: 4073 453d 6a85 bf3d efd6 b4bd 751d afbd
000003b0: 0092 ca3b 345a b43d ce4f c63d 6f74 0f3e
000003c0: 80e9 b33a f291 bf3d 6021 df3b 4e7f d7bd
000003d0: 42ed e33d b9bf 173e f558 0d3e b058 64bc
000003e0: 2db0 16be 5065 153c a620 eb3d bd9b e4bd
000003f0: 58e2 cb3c 107c 0abe a043 ffbd 560d 823d

transformer_encoder.encoder.attention.fc_K.bias f4 [40]
-0.14569089 0.14322232 -0.11314929 -0.13086745 -0.12692812 -0.12875867 -0.12949237 0.0026764125
0.13606413 0.004095897 -0.0019065142 -0.10625814 0.029431418 -0.02213125 0.055435583 0.14259808
0.029541984 -0.029050931 0.109121576 -0.053688742 0.13224022 0.008967429 -0.015187785 -0.11895982
-0.08111201 0.07083747 0.061194107 -0.11645774 -0.13618152 -0.03767497 0.09492077 0.1325429
-0.07604574 -0.0105921775 -0.07183448 0.08707124 0.15031825 0.024574146 -0.1453106 -0.15789239
00000000: fe2f 15be dfa8 123e d1ba e7bd 1e02 06be
00000010: 72f9 01be 50d9 03be a699 04be c066 2f3b
00000020: 6554 0b3e e036 863b 00e4 f9ba de9d d9bd
00000030: 281a f13c 984c b5bc 6c10 633d 3b05 123e
00000040: 0802 f23c 38fc edbc 227b df3d bae8 5bbd
00000050: fb69 073e 20ec 123c 30d6 78bc 35a1 f3bd
00000060: 0e1e a6bd 3c13 913d aca6 7a3d 6581 eebd
00000070: 2b73 0bbe 1251 1abd d265 c23d 53b9 073e
00000080: debd 9bbd d08a 2dbc f51d 93bd 6852 b23d
00000090: 07ed 193e b84f c93c 4dcc 14be 8bae 21be

transformer_encoder.encoder.attention.fc_V.weight f4 [40, 40]
0.07873742 -0.15730125 0.0040225238 0.081116706 0.08673765 0.087120295 0.062360078 -0.05778753
-0.058798082 -0.03463395 0.062034726 0.15407367 -0.13709262 -0.12560023 0.09450813 -0.018291503
0.10128404 0.025731862 -0.032697096 -0.030229986 0.08166577 -0.063217975 0.07328738 -0.013128608
0.06859718 0.14288472 -0.02157481 -0.017715469 0.01803048 -0.12734714 -0.084475815 -0.0049871653
0.09198363 -0.14160848 0.12717079 0.07342537 -0.08576593 0.12561692 0.15159868 0.11640467
-0.079909466 -0.12229888 -0.07689327 0.09923442 0.13553198 0.023099676 -0.098010026 0.052205175
0.018330857 0.061724037 -0.13527875 -0.013510913 0.02871564 -0.14250787 -0.09354239 0.06798422
-0.13899767 -0.051791325 0.14063679 0.09047432 0.015674606 -0.029558837 -0.08949289 -0.0781779
0.12129022 -0.1548616 -0.122986004 0.018863782 -0.06907031 -0.1341413 0.09322499 -0.11037619
0.074725956 0.09607993 -0.047640473 -0.020499185 -0.03960324 -0.12852895 0.14536847 -0.015398547
0.14480783 -0.15578064 0.05052167 -0.13728443 0.08659883 -0.018562317 0.0691808 -0.1023909
-0.07249744 0.011145413 -0.00018243492 0.10856812 -0.12576118 0.028558716 0.13451229 0.003111124
0.14323615 0.03250739 -0.07396475 0.11978389 -0.019236848 0.016745567 -0.0016084611 0.13788737
-0.055561393 -0.01963684 -0.03658787 0.11383812 0.0895839 0.118345365 -0.12739962 0.071274996
-0.1268405 -0.0045776963 0.10848893 -0.13619731 -0.05088412 -0.05375567 -0.13545562 0.122271046
-0.05979176 0.024348944 -0.08103066 0.08408141 -0.06776613 -0.12316712 0.123302 0.06791413
0.113819316 -0.09975362 -0.07933232 -0.054102093 0.12367801 -0.10872186 -0.05614312 -0.032541335
0.12926395 -0.14559598 0.01098147 0.108693555 -0.109499365 0.07353355 -0.075835936 -0.09233811
0.033798367 0.07357475 0.05196859 -0.14123538 -0.06377484 -0.06376306 -0.13095883 -0.060023412
0.026343375 0.06313945 -0.008653671 -0.10381701 -0.1461338 -0.119102105 0.09846847 0.09087692
0.0013470799 -0.00933072 -0.007662013 0.1507145 0.06241581 0.07926877 -0.06527704 -0.123746604
-0.036855258 0.1148458 0.061221614 0.047986895 -0.11726395 -0.04199498 0.0390663 0.099248335
-0.14712286 -0.12550712 -0.05208996 -0.15313932 -0.12118447 0.122355565 -0.076194584 -0.14280806
-0.061685145 0.08460593 0.03284955 -0.004162699 -0.0027713925 0.15751417 0.15043767 -0.14470313
-0.031751633 0.06427634 0.08934596 -0.027149424 0.077883795 -0.016125575 -0.051282525 -0.025955841
0.005088091 0.05081038 -0.05751306 -0.0083589405 -0.116701305 -0.1446649 -0.09761843 -0.10040333
0.040289387 -0.028715566 0.093317404 0.0034449697 -0.05779978 -0.05655422 0.15272237 0.020166084
-0.019321859 -0.08868786 0.14602737 0.12576734 0.14298554 0.010320291 -0.12760164 0.061071664
0.0023307651 -0.10532215 0.13802795 -0.0020491332 -0.0940704 -0.05495307 0.043854818 -0.027439103
-0.0981932 -0.14881846 -0.07332122 -0.0819641 0.090018675 -0.097581536 0.07300462 -0.0013998002
0.09519069 -0.07203218 -0.09000133 0.097196385 -0.08828185 0.058945596 0.08457956 -0.090860374
0.061942652 -0.14309382 -0.15168801 0.005990669 0.1386563 -0.08712305 0.13498782 0.09557988
00000000: 1641 a13d 9413 21be 60cf 833b 8420 a63d
00000010: 82a3 b13d 206c b23d 486d 7f3d 9eb2 6cbd
00000020: 42d6 70bd 54dc 0dbd 2018 7e3d 7dc5 1d3e
00000030: 0262 0cbe 599d 00be 7a8d c13d 10d8 95bc
00000040: 026e cf3d a0cb d23c 64ed 05bd e0a4 f7bc
00000050: 6240 a73d 6d78 81bd b217 963d 6019 57bc
00000060: ae7c 8c3d 5f50 123e a8bd b0bc 0820 91bc
00000070: a8b4 933c 4a67 02be a801 adbd 606b a3bb
00000080: ea61 bc3d d001 11be 0f39 023e 0a60 963d
00000090: 0ca6 afbd b9a1 003e af3c 1b3e 9265 ee3d
000000a0: 93a7 a3bd d677 fabd 387a 9dbd 6a3b cb3d
000000b0: e5c8 0a3e 883b bd3c 7bb9 c8bd 18d5 553d
000000c0: 982a 963c 58d2 7c3d 8386 0abe e05c 5dbc
000000d0: 103d eb3c 95ed 11be 2793 bfbd 503b 8b3d
000000e0: 6855 0ebe 2423 54bd 1703 103e 9a4a b93d
000000f0: 0868 803c 6025 f2bc 0c48 b7bd bc1b a0bd
00000100: 0267 f83d 0a94 1ebe 16e0 fbbd 3888 9a3c
00000110: bc74 8dbd 565c 09be beec be3d e90c e2bd
00000120: ec09 993d 8ec5 c43d a822 43bd e8ed a7bc
00000130: 0237 22bd 189d 03be 79db 143e 304a 7cbc
00000140: 8148 143e f684 1fbe d0ef 4e3d 4a94 0cbe
00000150: ba5a b13d 0010 98bc aaae 8d3d 52b2 d1bd
00000160: 8a79 94bd 409b 363c 004c 3fb9 f658 de3d
00000170: 8ac7 00be f8f3 e93c 97bd 093e 00e4 4b3b
00000180: 7fac 123e 7826 053d d57a 97bd 4251 f53d
00000190: 9896 9dbc 002e 893c 00d3 d2ba 5932 0d3e
000001a0: 5894 63bd 70dd a0bc 2add 15bd f623 e93d
000001b0: c477 b73d 0e5f f23d 0c75 02be a0f8 913d
000001c0: 7ae2 01be 8000 96bb 722f de3d 4f77 0bbe
000001d0: de6b 50bd e82e 5cbd e1b4 0abe 3e69 fa3d
000001e0: 34e8 74bd 7077 c73c 67f3 a5bd e032 ac3d
000001f0: f8c8 8abd 0b3f fcbd c285 fc3d 9016 8b3d
00000200: 1a1a e93d a04b ccbd fc78 a2bd 289a 5dbd
00000210: e64a fd3d 91a9 debd 54f6 65bd 104a 05bd
00000220: c55d 043e 1d17 15be a0eb 333c ba9a de3d
00000230: 3441 e0bd c298 963d df4f 9bbd c31b bdbd
00000240: 2870 0a3d 5cae 963d 04dd 543d 02a0 10be
00000250: 629c 82bd 3596 82bd 121a 06be 1cdb 75bd
00000260: 10ce d73c 424f 813d 20c8 0dbc 039e d4bd
00000270: 19a4 15be ceeb f3bd d6a9 c93d ae1d ba3d
00000280: 8090 b03a e0df 18bc a011 fbbb e754 1a3e
00000290: b8a7 7f3d aa57 a23d f8af 85bd dc6e fdbd
000002a0: 8af5 16bd 4634 eb3d 84c3 7a3d e88d 443d
000002b0: 1528 f0bd ee02 2cbd fc03 203d b642 cb3d
000002c0: 60a7 16be f084 00be 485c 55bd 8ed0 1cbe
000002d0: 902f f8bd 8e95 fa3d e80b 9cbd 473c 12be
000002e0: 90a9 7cbd e045 ad3d 408d 063d 4067 88bb
000002f0: 40a0 35bb 654b 213e 550c 1a3e 0f2d 14be
00000300: 000e 02bd 50a3 833d 04fb b63d 7868 debc
00000310: 8a81 9f3d c819 84bc a00d 52bd 58a1 d4bc
00000320: 00ba a63b 8c1e 503d d092 6bbd f0f3 08bc
00000330: 1801 efbd 0923 14be 2cec c7bd 43a0 cdbd
00000340: 7c06 253d e83c ebbc 321d bf3d 00c5 613b
00000350: 76bf 6cbd 66a5 67bd 4163 1c3e 5833 a53c
00000360: e048 9ebc fba1 b5bd 3388 153e 27c9 003e
00000370: cd6a 123e 7016 293c 01aa 02be 4826 7a3d
00000380: c0bf 183b 24b3 d7bd 3357 0d3e c04a 06bb
00000390: fba7 c0bd 7816 61bd 1ca1 333d f8c7 e0bc
000003a0: 8419 c9bd de63 18be 7029 96bd cbdc a7bd
000003b0: b65b b83d d4d8 c7bd 7283 953d 8079 b7ba
000003c0: 56f3 c23d 9c85 93bd 9e52 b8bd e60e c73d
000003d0: 1dcd b4bd f070 713d 0c38 ad3d 0115 babd
000003e0: 94b7 7d3d 3087 12be 1a54 1bbe 604d c43b
000003f0: ebfb 0d3e 926d b2bd 3f3a 0a3e 62bf c33d

transformer_encoder.encoder.attention.fc_V.bias f4 [40]
-0.0041719526 0.11238305 -0.14547196 0.04496956 0.021446481 -0.02827546 -0.032430187 -0.11379086
-0.02049072 -0.09642205 -0.024868205 0.026938692 0.060865298 0.0058394074 0.014925033 0.009602159
-0.14008449 -0.11614208 0.01166594 0.012991071 0.0023905933 0.058984667 0.04766573 0.1270089
0.046549395 -0.1102756 -0.026824504 0.0016995519 -0.1270228 0.07461716 -0.13918884 -0.04756917
0.04286544 -0.047523804 0.123472735 0.12340422 -0.10994962 -0.042921282 0.053897098 0.118788466
00000000: e0b4 88bb 1629 e63d 9af6 14be 0032 383d
00000010: 88b0 af3c f0a1 e7bc 84d5 04bd 2f0b e9bd
00000020: 28dc a7bc ec78 c5bd 68b8 cbbc 88ae dc3c
00000030: e44d 793d 8058 bf3b 2088 743c 6052 1d3c
00000040: 4f72 0fbe e6db edbd 8022 3f3c 80d8 543c
00000050: 80ab 1c3b e899 713d 243d 433d 9f0e 023e
00000060: 94aa 3e3d 2cd8 e1bd 10bf dbbc 80c3 de3a
00000070: 4412 02be e2d0 983d 8587 0ebe e4d7 42bd
00000080: ac93 2f3d 52a8 42bd 46df fc3d 5abb fc3d
00000090: 442d e1bd 3ace 2fbd 34c3 5c3d 5e47 f33d

transformer_encoder.encoder.attention.fc.weight f4 [40, 40]
0.11140843 0.0060785115 -0.118217275 -0.013958842 -0.1478826 0.054430336 -0.09172994 -0.050200664
-0.030686125 -0.024045303 0.096481696 0.0829159 -0.13247769 0.033347905 -0.10481927 0.08550426
-0.035802945 -0.1340192 0.053228095 -0.056340612 0.15142323 -0.0015812814 -0.11867285 0.01246649
0.0063911825 0.010084659 0.08053155 -0.02913116 0.08950795 -0.04788973 0.028054565 0.04656382
0.114556596 -0.12779695 0.06280197 -0.005601272 -0.059704155 0.037842706 0.07644352 0.042104527
0.0016396791 0.09056686 -0.11580075 0.03371787 -0.12194488 -0.032654822 -0.105810106 0.03880261
0.12116255 -0.060689352 -0.15468271 -0.14561714 0.10055582 -0.12715134 -0.122931324 -0.1531338
0.13249414 -0.06754334 -0.14350463 -0.03471984 0.10481934 0.070000395 -0.106590584 0.11637364
0.0769065 -0.06031523 -0.04486431 -0.12673 0.121298924 0.041442797 -0.04998643 0.1470287
-0.05837872 -0.1509302 0.1343437 0.111140475 -0.058663465 -0.14037456 0.10901992 -0.1365343
0.111892715 0.11174278 0.089824796 -0.05562246 -0.15057753 0.09880464 0.06675692 0.07346457
0.14771517 0.0228367 0.12419672 -0.08580764 0.12983699 -0.0440751 0.14620532 -0.024606243
-0.08597916 -0.05797573 0.03455709 -0.09593954 0.052223176 0.099400684 -0.0846087 -0.051610507
-0.08467789 0.15703796 0.07392673 0.073479936 0.1369028 0.030451551 -0.13881727 0.08902785
-0.09930481 0.14258035 0.10737418 0.13909538 0.04887329 -0.02868317 -0.008751273 0.12985699
-0.067128405 0.09199484 -0.009757012 -0.07119425 -0.04981035 -0.06863006 0.084062055 -0.08105806
-0.08893861 -0.042103156 -0.017513424 -0.06285768 -0.068272404 -0.0247747 0.15557005 -0.12684609
-0.09231979 0.09382494 -0.06903416 0.13839184 0.07373768 0.08595866 0.026762158 0.1123599
0.034041002 -0.030082509 -0.044681504 -0.06404006 -0.016581088 0.10321082 -0.06467978 -0.095332175
0.111692175 -0.013826057 -0.09847368 0.013053834 0.08748563 0.108998194 -0.064531595 -0.017416254
-0.06537096 -0.11266443 -0.026131898 -0.066309 0.11164118 -0.071692266 0.016264021 0.10506208
0.14587615 -0.018104374 -0.028800577 -0.10674803 -0.043519422 0.08569758 -0.033709086 -0.028862253
-0.059229165 0.115498826 0.10829346 0.11381085 -0.15015095 0.14382742 0.15751414 -0.0829787
0.02443099 -0.013308123 0.10344072 -0.08754711 -0.00070519745 -0.045854285 -0.04771342 0.023747817
0.0066105425 0.00052310526 0.012716532 0.14741774 0.15808646 0.08836897 0.029391691 -0.045634642
-0.13255636 0.030341193 -0.016374037 -0.029633135 -0.09173337 -0.13960479 -0.01741241 0.050722837
-0.15027063 -0.011133984 -0.12370162 -0.084868565 -0.067551106 -0.07105475 0.13520499 -0.11410028
0.07588449 -0.15495142 -0.15178938 -0.09673614 -0.062745064 -0.11628469 0.004029542 0.09421207
0.092252925 -0.08311019 0.09803094 0.00029462576 0.040909052 -0.14545734 -0.14885561 0.009191111
-0.04257948 -0.12934099 -0.00445655 -0.06751294 0.0046485513 -0.13762996 0.08509588 -0.09555604
0.10843222 -0.06484786 -0.09852606 0.039901763 -0.08281338 -0.012052178 0.08406828 -0.15450378
-0.0012849122 0.11132376 -0.081832424 -0.040710658 -0.14962372 -0.09439414 -0.07430254 0.11887114
00000000: 1a2a e43d 402e c73b e61b f2bd a0b3 64bc
00000010: 896e 17be 58f2 5e3d e8dc bbbd 369f 4dbd
00000020: 7861 fbbc a8fa c4bc 3298 c53d d0cf a93d
00000030: 3ba8 07be d097 083d 7cab d6bd dc1c af3d
00000040: 1ca6 12bd 543c 09be b405 5a3d 6ac5 66bd
00000050: b10e 1b3e 0043 cfba c00a f3bd 4040 4c3c
00000060: 206d d13b 203a 253c baed a43d 78a4 eebc
00000070: f24f b73d 0628 44bd b0d2 e53c b4b9 3e3d
00000080: a69c ea3d 34dd 02be 529e 803d e08a b7bb
00000090: 588c 74bd f400 1b3d 6c8e 9c3d cc75 2c3d
000000a0: 80ea d63a 1e7b b93d f228 edbd c01b 0a3d
000000b0: 3dbe f9bd 10c1 05bd f8b2 d8bd 7cef 1e3d
000000c0: 1224 f83d 6695 78bd 2565 1ebe a91c 15be
000000d0: 36f0 cd3d f633 02be 6bc3 fbbd 1bcf 1cbe
000000e0: 8bac 073e 2a54 8abd e1f2 12be 6436 0ebd
000000f0: 86ab d63d 5e5c 8f3d 2a4c dabd 4e55 ee3d
00000100: 2881 9d3d 1a0d 77bd a4c3 37bd 82c5 01be
00000110: 926b f83d ecbf 293d 92be 4cbd b18e 163e
00000120: 861e 6fbd 728d 1abe 6591 093e 9e9d e33d
00000130: 1a49 70bd 59be 0fbe d645 df3d a6cf 0bbe
00000140: 0228 e53d 66d9 e43d 10f6 b73d 60d4 63bd
00000150: ff30 1abe 165a ca3d dab7 883d 9874 963d
00000160: a542 173e 0814 bb3c da5a fe3d eabb afbd
00000170: fdf3 043e 1888 34bd d9b6 153e 0893 c9bc
00000180: d815 b0bd f677 6dbd bc8b 0d3d f37b c4bd
00000190: f8e7 553d 9692 cb3d 5347 adbd 8a65 53bd
000001a0: 9a6b adbd 8fce 203e e666 973d a67c 963d
000001b0: 3f30 0c3e 8875 f93c 1d26 0ebe 3c54 b63d
000001c0: 5260 cbbd 9500 123e fee6 db3d 056f 0e3e
000001d0: 5c2f 483d f8f8 eabc 8061 0fbc 3bf9 043e
000001e0: 9e7a 89bd ca67 bc3d e0db 1fbc 4ace 91bd
000001f0: f005 4cbd eb8d 8cbd ba28 ac3d c501 a6bd
00000200: 7225 b6bd 5c74 2cbd 5078 8fbc 87bb 80bd
00000210: 67d2 8bbd 50f4 cabc c14d 1f3e f1e3 01be
00000220: 2812 bdbd 4a27 c03d c861 8dbd 97b6 0d3e
00000230: c803 973d 180b b03d 503c db3c f21c e63d
00000240: 946e 0b3d 986f f6bc f403 37bd 6f27 83bd
00000250: 10d5 87bc 3260 d33d d576 84bd 843d c3bd
00000260: debe e43d b086 62bc 92ac c9bd c0df 553c
00000270: aa2b b33d 723a df3d 2429 84bd 88ac 8ebc
00000280: 36e1 85bd 9cbc e6bd 9012 d6bc 03cd 87bd
00000290: 22a4 e43d 65d3 92bd 203c 853c ca2a d73d
000002a0: 8f60 153e a04f 94bc 30ef ebbc b69e dabd
000002b0: 6c41 32bd 3682 af3d 8a12 0abd 8870 ecbc
000002c0: 489a 72bd a68a ec3d f6c8 dd3d aa15 e93d
000002d0: 2cc1 19be 7f47 133e 634b 213e bdf0 a9bd
000002e0: 8023 c83c 500a 5abc bad8 d33d e64b b3bd
000002f0: 00dd 38ba b4d1 3bbd 266f 43bd c88a c23c
00000300: 409d d83b 0021 093a 0059 503c adf4 163e
00000310: 6be1 213e cafa b43d d8c6 f03c 64eb 3abd
00000320: dbbc 07be 188e f83c d822 86bc 30c1 f2bc
00000330: b5de bbbd 8ff4 0ebe 78a4 8ebc c0c2 4f3d
00000340: 8be0 19be 506b 36bc 4657 fdbd 92cf adbd
00000350: 3c58 8abd 2785 91bd 2d73 0a3e 68ad e9bd
00000360: 5469 9b3d 96ab 1ebe ad6e 1bbe 991d c6bd
00000370: 7c80 80bd ab26 eebd 400a 843b 42f2 c03d
00000380: 1aef bc3d ad35 aabd 72c4 c83d 0078 9a39
00000390: 4090 273d c5f2 14be 9b6d 18be 5096 163c
000003a0: d267 2ebd f771 04be 4008 92bb 3944 8abd
000003b0: e052 983b deee 0cbe c046 ae3d e3b2 c3bd
000003c0: b611 de3d f4ce 84bd 08c8 c9bd 0870 233d
000003d0: 109a a9bd 8076 45bc fe2b ac3d 3d36 1ebe
000003e0: 806a a8ba b6fd e33d c297 a7bd 38c0 26bd
000003f0: f636 19be b751 c1bd ee2b 98bd b672 f33d

transformer_encoder.encoder.attention.fc.bias f4 [40]
-0.051833563 0.06962657 0.048552975 0.021121994 -0.018353581 0.09794237 -0.13975775 -0.0290827
0.13156213 -0.14900096 0.010357305 -0.07576974 -0.07750029 0.09082633 0.1561525 0.13405482
0.012990862 0.14405335 -0.053025626 -0.09170764 0.07375836 -0.06967429 0.15568854 0.11915021
-0.04686357 0.05068937 0.14062084 0.014025629 -0.15290087 -0.013673335 0.038229197 -0.11568681
0.04205501 -0.124393865 0.13411991 0.04601927 0.05845043 -0.062422767 0.02424784 0.10379575
00000000: 6e4f 54bd 6098 8e3d 7cdf 463d 0808 ad3c
00000010: 405a 96bc 0296 c83d a81c 0fbe d83e eebc
00000020: 39b8 063e b593 18be b0b1 293c 2a2d 9bbd
00000030: 79b8 9ebd 2803 ba3d 71e6 1f3e ab45 093e
00000040: a0d7 543c b982 133e 6631 59bd 37d1 bbbd
00000050: a00e 973d 65b1 8ebd d16c 1f3e 0605 f43d
00000060: 04f4 3fbd a89f 4f3d e9fe 0f3e c0cb 653c
00000070: 0c92 1cbe 2006 60bc 3896 1c3d 35ed ecbd
00000080: e041 2c3d 36c2 febd bb56 093e b47e 3c3d
00000090: b869 6f3d 04af 7fbd 68a3 c63c de92 d43d

transformer_encoder.encoder.attention.layer_norm.weight f4 [40]
1.0 1.0 1.0 1.0 1.0 1.0 1.0 1.0
1.0 1.0 1.0 1.0 1.0 1.0 1.0 1.0
1.0 1.0 1.0 1.0 1.0 1.0 1.0 1.0
1.0 1.0 1.0 1.0 1.0 1.0 1.0 1.0
1.0 1.0 1.0 1.0 1.0 1.0 1.0 1.0
00000000: 0000 803f 0000 803f 0000 803f 0000 803f
00000010: 0000 803f 0000 803f 0000 803f 0000 803f
00000020: 0000 803f 0000 803f 0000 803f 0000 803f
00000030: 0000 803f 0000 803f 0000 803f 0000 803f
00000040: 0000 803f 0000 803f 0000 803f 0000 803f
00000050: 0000 803f 0000 803f 0000 803f 0000 803f
00000060: 0000 803f 0000 803f 0000 803f 0000 803f
00000070: 0000 803f 0000 803f 0000 803f 0000 803f
00000080: 0000 803f 0000 803f 0000 803f 0000 803f
00000090: 0000 803f 0000 803f 0000 803f 0000 803f

transformer_encoder.encoder.attention.layer_norm.bias f4 [40]
0.0 0.0 0.0 0.0 0.0 0.0 0.0 0.0
0.0 0.0 0.0 0.0 0.0 0.0 0.0 0.0
0.0 0.0 0.0 0.0 0.0 0.0 0.0 0.0
0.0 0.0 0.0 0.0 0.0 0.0 0.0 0.0
0.0 0.0 0.0 0.0 0.0 0.0 0.0 0.0
00000000: 0000 0000 0000 0000 0000 0000 0000 0000
00000010: 0000 0000 0000 0000 0000 0000 0000 0000
00000020: 0000 0000 0000 0000 0000 0000 0000 0000
00000030: 0000 0000 0000 0000 0000 0000 0000 0000
00000040: 0000 0000 0000 0000 0000 0000 0000 0000
00000050: 0000 0000 0000 0000 0000 0000 0000 0000
00000060: 0000 0000 0000 0000 0000 0000 0000 0000
00000070: 0000 0000 0000 0000 0000 0000 0000 0000
00000080: 0000 0000 0000 0000 0000 0000 0000 0000
00000090: 0000 0000 0000 0000 0000 0000 0000 0000

transformer_encoder.encoder.feed_forward.fc1.weight f4 [256, 40]
0.022808492 0.120654926 0.010909423 0.024650216 0.14295153 -0.0683232 -0.03380493 0.02673018
0.10964979 0.13072233 0.019232005 -0.05080179 -0.06870061 -0.15257828 -0.08273395 0.06559096
-0.04495407 0.018664092 -0.10876161 -0.12199688 0.11587234 -0.116011575 0.043572977 -0.10327521
0.021567538 0.03283602 0.011080816 0.093153015 -0.045968145 0.1135128 -0.071349956 0.08481863
-0.13646077 0.043716803 -0.044145845 0.07802029 -0.1544117 -0.07123345 -0.100042045 -0.010770217
-0.114914134 -0.13517338 -0.103957735 -0.08902118 0.070670635 -0.12660626 0.014184177 -0.086295724
0.08140612 0.020759612 0.108713046 0.02814889 0.050917447 -0.13847165 0.038620114 -0.0885196
-0.08110079 0.039169863 0.05068919 0.0071195066 0.1554754 0.010837406 0.06966983 -0.14248466
-0.06974494 -0.036791705 -0.08656307 0.102430746 0.017986774 0.075930044 -0.07454676 0.13516523
0.15270506 0.10693385 0.12376885 -0.15041992 0.07287364 0.067004904 0.004610628 -0.07510084
-0.12223984 -0.0022981614 0.1338204 -0.13708304 0.03153847 0.129501 -0.04424333 0.069997296
-0.09803577 0.085926116 -0.11680005 0.047622487 -0.07356201 -0.07573583 -0.08141777 0.15256165
-0.02933149 0.05971177 -0.054319397 -0.022257522 -0.060661927 -0.047757 -0.12681386 0.008906826
0.059190735 -0.08483705 -0.107449636 -0.092557035 0.092114106 0.07662831 -0.002859503 0.034091488
-0.079295926 0.09939094 -0.111811 0.14470603 0.09564261 0.12814413 -0.014708996 0.09185016
0.062471226 -0.116720356 -0.098132335 0.06497486 -0.08329768 -0.11643684 0.15358438 -0.11968065
-0.06301907 0.095075056 -0.11150663 0.03802009 0.007708177 0.0691382 0.119468346 0.15794282
0.048045292 0.14555047 -0.09432981 -0.06695183 0.014059275 -0.062316045 0.0833668 0.095593736
-0.15794455 -0.13624458 0.07727237 0.0069614947 0.12144028 -0.055737287 0.09564449 -0.057229064
-0.07787577 -0.047982298 -0.110376775 0.13273259 -0.10626906 0.069073394 0.07189287 0.037152037
-0.14741026 0.15455703 -0.07290086 0.13654377 0.02436909 -0.1466339 -0.0013683736 -0.036507204
-0.008138016 0.1299036 -0.09251018 -0.10868742 -0.04100822 0.14832126 0.14471222 0.08723988
0.13742118 0.091421306 -0.042931534 0.11125524 -0.03065534 -0.0688844 0.07772146 -0.07628084
0.14582877 0.11381017 0.09564005 0.0294597 -0.11714204 0.103438124 0.01866144 -0.10920635
-0.1374956 0.14208071 -0.10690807 0.044156164 0.0060946345 -0.05957268 0.04636702 -0.026931003
0.021264613 -0.056740656 -0.096576005 0.010546207 -0.13038656 0.026706398 0.14020352 0.03496687
-0.1477601 -0.13574769 0.14621086 -0.11187115 -0.047611237 0.051256865 -0.055665568 0.05189702
-0.08491444 0.04391457 -0.15782209 -0.000111833215 0.03532988 0.06764299 -0.056111604 0.02686344
0.1455427 -0.029649526 -0.03536795 -0.0031297654 0.096867636 -0.10998452 0.09295215 0.010090098
-0.040172644 -0.07721741 0.15025987 -0.02070032 0.121443465 -0.04002662 -0.07774129 -0.0040118843
0.14877425 -0.05121842 -0.023947373 0.0191105 -0.012063831 -0.0876192 0.08124973 -5.507469e-05
0.13094257 -0.08943178 -0.012741059 -0.09288521 0.11170383 0.14244239 0.06130159 -0.15536079
00000000: e0d8 ba3c ee19 f73d 70bd 323c 40ef c93c
00000010: e361 123e 09ed 8bbd 0a77 0abd 40f9 da3c
00000020: 1290 e03d 13dc 053e 708c 9d3c 8a15 50bd
00000030: e8b2 8cbd 7b3d 1cbe 6b70 a9bd 8e54 863d
00000040: c221 38bd 70e5 983c 68be debd 80d9 f9bd
00000050: 7a4e ed3d 7a97 edbd 9479 323d f481 d3bd
00000060: 68ae b03c 107f 063d 508c 353c 02c7 be3d
00000070: 1849 3cbd 6679 e83d ed1f 92bd 64b5 ad3d
00000080: 5fbc 0bbe 6410 333d 46d2 34bd 1ac9 9f3d
00000090: 1a1e 1ebe d8e2 91bd d8e2 ccbd 9075 30bc
000000a0: 1a58 ebbd e46a 0abe cbe7 d4bd bd50 b6bd
000000b0: c4bb 903d 12a5 01be c064 683c d0bb b0bd
000000c0: 40b8 a63d 1010 aa3c f2a4 de3d 8098 e63c
000000d0: d08e 503d 83cb 0dbe 2030 1e3d c449 b5bd
000000e0: 2c18 a6bd 9470 203d 789f 4f3d c04a e93b
000000f0: f134 1f3e 608f 313c 0eaf 8e3d 80e7 11be
00000100: 6fd6 8ebd e6b2 16bd fb47 b1bd 36c7 d13d
00000110: 0059 933c 3681 9b3d f9ab 98bd c168 0a3e
00000120: b75e 1c3e 2200 db3d 867a fd3d ae07 1abe
00000130: c63e 953d de39 893d c014 973b 78ce 99bd
00000140: e258 fabd c09c 16bb 3708 093e 7f5f 0cbe
00000150: 7c2e 013d e99b 043e 7e38 35bd be5a 8f3d
00000160: fac6 c8bd 08fa af3d dd34 efbd cc0f 433d
00000170: aea7 96bd 631b 9bbd 5cbe a6bd 1f39 1c3e
00000180: 9848 f0bc 5494 743d 047e 5ebd 6855 b6bc
00000190: a478 78bd d89c 43bd 7edb 01be f0ed 113c
000001a0: fc71 723d 0cbf adbd 8e0e dcbd 8b8e bdbd
000001b0: 52a6 bc3d 4eef 9c3d 8066 3bbb 84a3 0b3d
000001c0: e765 a2bd 7a8d cb3d 2afd e4bd d12d 143e
000001d0: 46e0 c33d 3738 033e 00fe 70bc f01b bc3d
000001e0: d4e1 7f3d 150b efbd 9bf9 c8bd 8a11 853d
000001f0: f997 aabd 7076 eebd 3945 1d3e 211b f5bd
00000200: 2410 81bd b6b6 c23d 975d e4bd f4ba 1b3d
00000210: e094 fc3b 5498 8d3d d2ab f43d c3bb 213e
00000220: 24cb 443d 2f0b 153e fd2f c1bd 0b1e 89bd
00000230: e058 663c 1c3f 7fbd 36bc aa3d a6c6 c33d
00000240: 37bc 21be b383 0bbe fa40 9e3d 401d e43b
00000250: aeb5 f83d c84c 64bd 42e1 c33d 0669 6abd
00000260: 557d 9fbd 1689 44bd 380d e2bd 0deb 073e
00000270: 98a3 d9bd 5a76 8d3d 923c 933d bc2c 183d
00000280: b7f2 16be 3344 1e3e 0c4d 95bd 21d2 0b3e
00000290: b0a1 c73c 3227 16be 005b b3ba 9488 15bd
000002a0: 5055 05bc 7305 053e fa75 bdbd 8397 debd
000002b0: 3cf8 27bd 87e1 173e 712f 143e d2aa b23d
000002c0: 23b8 0c3e 183b bb3d fad8 2fbd cad9 e33d
000002d0: e820 fbbc 4413 8dbd 6e2c 9f3d 2139 9cbd
000002e0: 2354 153e 4e15 e93d eede c33d 7855 f13c
000002f0: 2ae8 efbd 5ed7 d33d e0df 983c 94a7 dfbd
00000300: a6cb 0cbe 9b7d 113e 9ef2 dabd 18dd 343d
00000310: 80b5 c73b 7c02 74bd 58eb 3d3d 689e dcbc
00000320: 2033 ae3c e468 68bd a4c9 c5bd 00ca 2c3c
00000330: 0e84 05be 60c7 da3c 8391 0f3e 6c39 0f3d
00000340: 6c4e 17be 7101 0bbe 4db8 153e b41c e5bd
00000350: 0004 43bd b8f2 513d 9401 64bd f891 543d
00000360: 9fe7 adbd c4df 333d 1d9c 21be 0088 eab8
00000370: 10b6 103d 6888 8a3d 48d5 65bd b810 dc3c
00000380: 2509 153e 90e3 f2bc fcdd 10bd c01c 4dbb
00000390: 8a62 c63d 903f e1bd b25d be3d f050 253c
000003a0: 128c 24bd 2924 9ebd b9dd 193e b893 a9bc
000003b0: 5ab7 f83d f4f2 23bd d336 9fbd 2076 83bb
000003c0: 4758 183e 68ca 51bd 482d c4bc a08d 9c3c
000003d0: 60a7 45bc b271 b3bd 4266 a63d 0000 67b8
000003e0: cf15 063e 0228 b7bd e0bf 50bc 9a3a bebd
000003f0: fac4 e43d 6bdc 113e 6017 7b3d e616 1fbe

transformer_encoder.encoder.feed_forward.fc1.bias f4 [256]
0.14561866 0.09952699 -0.032132 0.043643013 0.13035192 0.042281598 0.14043589 -0.028316915
0.09789617 -0.15390393 0.032159984 -0.07087418 -0.1512154 0.06968753 0.1406851 -0.0041936934
-0.1415953 -0.09669509 -0.15702589 0.09886129 0.011194825 0.031812966 -0.043797463 0.061190262
-0.10496405 -0.12115307 -0.13390009 -0.10879782 -0.09216941 -0.038236924 0.0037008226 0.11864658
-0.10498436 -0.106499285 -0.14382425 -0.026903287 0.10168482 0.09445904 0.15498392 0.103103235
-0.12062445 0.10039635 0.07498194 0.06566468 0.14445715 -0.12981391 0.03527689 -0.03374646
-0.0768289 -0.033935077 0.062412024 -0.114540204 -0.12421031 0.1391602 -0.14114499 -0.09497769
-0.020310432 -0.008482829 -0.10115049 -0.100688055 0.12979884 -0.14716269 0.023778692 -0.13934532
0.06799665 0.1273628 -0.15015998 0.11292581 0.008791268 -0.003853649 -0.03861727 -0.07326487
-0.14848582 -0.14417484 0.087170154 -0.080051266 0.030429453 -0.04715403 0.052659318 -0.090245664
-0.14914219 -0.12453713 -0.017922744 0.1226394 -0.045104787 -0.12637414 0.14303036 -0.12869257
-0.10349221 -0.074732594 0.09237252 0.08999249 -0.13858552 -0.020330027 -0.058246188 0.0115195215
0.035661638 0.0025589317 0.10386987 0.0791906 0.13756074 -0.100938976 -0.04105193 -0.14184138
0.13521259 0.11105056 -0.016736299 0.0612572 0.06597823 -0.07569868 -0.13239366 0.08294813
-0.14400403 -0.15221684 -0.024602741 0.03758429 0.031421185 0.09858905 0.02201821 0.022753343
0.12216039 -0.110820204 0.049323812 0.12501182 0.06546076 0.015927628 -0.09223789 0.025045648
-0.1237012 0.15626402 0.06024812 0.106650814 0.15377311 0.024833128 -0.049213603 0.01852201
-0.1526507 -0.08226062 0.09855433 -0.06616569 -0.09264061 -0.112563625 -0.039526664 -0.10050431
0.014975876 -0.11919458 0.0015854537 0.13674475 -0.108198114 0.04786487 0.0024853498 -0.010803774
0.090696305 -0.15636288 0.13655634 0.056284428 0.12457664 0.09818165 0.09955077 -0.040083937
-0.06964383 -0.034583174 -0.076199226 0.059136733 -0.08130466 0.14211054 0.11287911 0.13983895
-0.013462141 -0.13542163 -0.045582883 0.027815714 0.1421227 -0.13930252 -0.011536896 0.033300027
-0.1267227 -0.14333299 -0.028432384 0.100154564 0.12697993 -0.030130088 -0.014232427 0.061769083
0.11808972 0.075432315 -0.029366508 -0.079991214 0.065924615 -0.07505517 0.044082657 0.07605988
-0.008564264 -0.1045492 0.1307873 0.1282682 0.06298621 0.06397712 -0.13435669 0.061835885
-0.11385684 -0.017763138 -0.14293383 -0.06494734 0.029498354 0.00778535 0.043753058 0.11751063
-0.13565841 0.13672887 0.001028046 0.14040987 -0.027905628 -0.0975066 0.108325854 0.03774415
-0.087682344 -0.10346903 0.023708746 0.10463603 -0.12949523 -0.11817017 0.036076605 -0.10248582
-0.101041585 -0.117506176 0.036915854 0.1364642 0.09871946 -0.11722875 -0.091421954 -0.14470667
0.1154276 0.047676027 -0.0625366 0.058442846 -0.08731966 -0.1168969 0.10809465 -0.0015659481
0.04537873 0.04533936 -0.13720806 0.071383074 -0.099924535 -0.03613483 0.045224056 0.07728864
-0.14117385 0.052290127 -0.15235926 0.03770399 -0.08593131 0.01627089 0.1371211 -0.10570352
00000000: 0f1d 153e ced4 cb3d d89c 03bd 04c3 323d
00000010: f97a 053e 782f 2d3d 6dce 0f3e e0f8 e7bc
00000020: ca7d c83d fe98 1dbe 30ba 033d 7b26 91bd
00000030: 36d8 1abe 56b8 8e3d c10f 103e 406b 89bb
00000040: 5cfe 10be 1308 c6bd 65cb 20be ca77 ca3d
00000050: 806a 373c 504e 023d f864 33bd a4a2 7a3d
00000060: 64f7 d6bd 1a1f f8bd 1b1d 09be 64d1 debd
00000070: 51c3 bcbd 529e 1cbd 8089 723b fafc f23d
00000080: 0a02 d7bd 4c1c dabd aa46 13be 4864 dcbc
00000090: 2240 d03d be73 c13d 1bb4 1e3e ca27 d33d
000000a0: f409 f7bd 9a9c cd3d 2290 993d 347b 863d
000000b0: 93ec 133e f0ed 04be 807e 103d ba39 0abd
000000c0: 7858 9dbd 82ff 0abd c0a3 7f3d 0e94 eabd
000000d0: fa61 febd 0380 0e3e 5088 10be aa83 c2bd
000000e0: 1062 a6bc 90fb 0abc fd27 cfbd 8a35 cebd
000000f0: fde9 043e d1b1 16be 88cb c23c 8ab0 0ebe
00000100: d441 8b3d 656b 023e 8ac3 19be a645 e73d
00000110: 4009 103c 808d 7cbb 242d 1ebd e40b 96bd
00000120: ab0c 18be 92a2 13be 4486 b23d ebf1 a3bd
00000130: 3047 f93c 9624 41bd 4cb1 573d b8d2 b8bd
00000140: bbb8 18be 530d ffbd b8d2 92bc 5e2a fb3d
00000150: ccbf 38bd 3968 01be 8d76 123e fcc7 03be
00000160: b9f3 d3bd 670d 99bd ce2d bd3d fc4d b83d
00000170: 5de9 0dbe 288b a6bc 8e93 6ebd 60bc 3c3c
00000180: f011 123d c0b3 273b bab9 d43d ae2e a23d
00000190: b9dc 0c3e 18b9 cebd 1226 28bd de3e 11be
000001a0: 2b75 0a3e 7a6e e33d 901a 89bc d4e8 7a3d
000001b0: 981f 873d e907 9bbd 3492 07be b6e0 a93d
000001c0: cb75 13be bbde 1bbe b08b c9bc fcf1 193d
000001d0: 80b3 003d 0ee9 c93d 885f b43c 3865 ba3c
000001e0: 3a2f fa3d b4f5 e2bd c407 4a3d 1903 003e
000001f0: 4a10 863d a87a 823c 38e7 bcbd 882c cd3c
00000200: 0e57 fdbd ad03 203e bcc6 763d be6b da3d
00000210: b376 1d3e d86e cb3c 3494 49bd 78bb 973c
00000220: 7750 1cbe 4278 a8bd dad6 c93d e181 87bd
00000230: 5cba bdbd c287 e6bd b6e6 21bd 34d5 cdbd
00000240: 605d 753c 4a1c f4bd 00cf cf3a d106 0c3e
00000250: f996 ddbd f40d 443d 40e1 223b 5002 31bc
00000260: fcbe b93d 971d 20be 6dd5 0b3e 808a 663d
00000270: 0a22 ff3d 7613 c93d 46e1 cb3d 0e2f 24bd
00000280: 6da1 8ebd 16a7 0dbd 570e 9cbd 5c39 723d
00000290: 0f83 a6bd 6d85 113e 2a2d e73d f131 0f3e
000002a0: 5090 5cbc f8ab 0abe 1eb5 3abd c8dd e33c
000002b0: 9d88 113e 52a5 0ebe 4005 3dbc 9c65 083d
000002c0: 98c3 01be e2c5 12be 08eb e8bc d61d cd3d
000002d0: 0707 023e 60d3 f6bc 202f 69bc 9401 7d3d
000002e0: 06d9 f13d 427c 9a3d 0892 f0bc 6fd2 a3bd
000002f0: 7c03 873d 86b6 99bd 0490 343d 48c5 9b3d
00000300: 2051 0cbc e41d d6bd 1bed 053e bd58 033e
00000310: eafe 803d 7006 833d cd94 09be a047 7d3d
00000320: c62d e9bd 0084 91bc 3f5d 12be 1c03 85bd
00000330: 88a6 f13c 401c ff3b 6836 333d 6aa9 f03d
00000340: 0aea 0abe a702 0c3e 80bf 863a 9bc7 0f3e
00000350: 589a e4bc 8ab1 c7bd f2d9 dd3d 9c99 1a3d
00000360: cd92 b3bd 92e7 d3bd d838 c23c 6a4b d63d
00000370: 669a 04be 3403 f2bd 10c5 133d 16e4 d1bd
00000380: e4ee cebd 14a7 f0bd 1435 173d 45bd 0b3e
00000390: 6e2d ca3d a015 f0bd 6f3b bbbd fc2d 14be
000003a0: 4e65 ec3d f047 433d 3013 80bd c461 6f3d
000003b0: a6d4 b2bd a467 efbd ba60 dd3d 8040 cdba
000003c0: 0cdf 393d c4b5 393d 4580 0cbe 4a31 923d
000003d0: 3ca5 ccbd 1e02 14bd dc3c 393d 8249 9e3d
000003e0: e18f 10be 2c2e 563d 1104 1cbe 806f 1a3d
000003f0: c1fc afbd 884a 853c 7969 0c3e 167b d8bd

transformer_encoder.encoder.feed_forward.fc2.weight f4 [40, 256]
-0.016372703 0.0060785115 0.062307946 0.034201637 -0.001328662 0.00025927275 0.06052681 0.041741155
-0.039601937 0.019823276 0.0523049 0.051552653 -0.04219304 -0.014136687 0.0169041 -0.012207575
0.03644354 0.016642608 0.007660836 -0.0374147 0.025350258 0.011678562 -0.042210005 0.0577629
0.012877241 0.026234306 0.028871372 0.059151404 -0.048537754 -0.038605012 0.030589603 -0.039581187
-0.022014901 0.062331825 0.010708474 -0.0201848 0.030916452 0.023431912 0.020678878 -0.023286551
-0.05640848 0.03346093 0.050489068 0.05717902 0.03256289 0.021014944 0.042100146 -0.039780498
-0.035297997 0.061940648 -0.038498014 -0.051285096 0.057722457 0.01741188 0.04484848 -0.044110663
-0.014127463 -0.047585003 -0.022793137 0.03447538 0.059193186 0.021074489 -0.04530771 -0.06180211
-0.011464417 -0.018436298 0.013312325 0.03893102 0.03117247 -0.017981723 0.0014136657 -0.0049378052
-0.013747834 0.04001142 -0.023312159 -0.012557626 -0.030846544 0.016600423 -0.040445507 0.024120927
-0.040830076 0.060306743 0.04358676 -0.022769362 0.05286199 -0.035505697 -0.0016566217 -0.011125162
0.062169053 -0.041036367 -0.050129898 0.03412404 0.035831742 0.027145319 -0.0045713037 -0.0026068315
0.0012246445 -0.051806644 -0.05066002 0.057263188 -5.8479607e-05 0.050548002 0.035286658 0.05290559
0.0014904514 0.057555795 0.052835405 0.009229831 -0.03953033 -0.0029617995 0.022685684 -0.05678737
-0.0039831027 0.0004690066 -0.0010607094 0.027175143 0.047606394 -0.030969955 -0.06239736 0.034106262
-0.03134106 0.022876285 0.01919917 -0.03119421 0.029421195 0.046149522 0.009436376 0.027388722
-0.04828178 0.038347237 0.047592558 -0.030439518 0.061962113 -0.044223152 0.012728609 -0.00550019
-0.04899314 -0.04562354 0.05469048 0.052860945 -0.061958157 -0.029430665 0.046379864 0.019306168
-0.021747716 0.008649573 -0.027618341 -0.05612631 0.04266508 -0.01599361 0.031059138 -0.0058541894
0.0014891848 -0.035150275 -0.033647448 -0.037900947 -0.023667239 0.029714413 -0.022606224 0.02795589
-0.011658512 0.043788485 -0.0141333565 -0.060363226 -0.0016332716 -0.008487903 -0.049986474 0.0020689294
-0.03665349 -0.017855808 -0.04058934 -0.022147276 0.056962468 -0.045223527 -0.0025509074 -0.051685512
-0.010018222 -0.011084929 0.060367763 0.0025763288 0.019483745 0.052966163 -0.04916405 -0.05207561
0.053193912 0.059299722 0.020229235 -0.04530277 -0.01499594 -0.043597475 0.05250632 -0.0341177
-0.04211141 0.040174916 -0.027060159 0.059836447 -0.008338995 0.0016795918 0.017180443 0.043179333
-0.009184115 -0.0021216422 0.05369755 0.009282552 -0.012381159 -0.00022233278 0.04615266 0.038772717
0.014211021 0.033345744 -0.05718305 -0.03522227 -0.056623086 0.029714435 0.029066093 0.0037566796
-0.048335306 0.005932465 -0.021990769 -0.031924687 0.03359784 -0.01063852 -0.04563546 -0.046862178
-0.047625303 0.027337365 0.024801657 -0.024793334 -0.0005376339 0.009165131 0.011012934 0.018499315
0.04394494 0.0505473 -0.0060409307 0.010315858 -0.04949393 -0.060576186 0.009199031 -0.046949327
0.02596818 -0.039186344 0.05528169 -0.03688635 0.023372956 -0.035598688 0.05996508 0.05806324
-0.0015288368 0.057635628 0.02034641 -0.04782544 0.0048524663 0.044189043 0.032316007 -0.031311937
00000000: 0c20 86bc 402e c73b 9e36 7f3d 0417 0c3d
00000010: 8026 aeba 00ef 8739 f6ea 773d c6f8 2a3d
00000020: a435 22bd 6c64 a23c aa3d 563d e028 533d
00000030: 9cd2 2cbd 909d 67bc 787a 8a3c 4802 48bc
00000040: d245 153d 1456 883c c007 fb3b 2840 19bd
00000050: 58ab cf3c 7057 3f3c 66e4 2cbd ca98 6c3d
00000060: 10fb 523c 54e9 d63c a883 ec3c be48 723d
00000070: 86cf 46bd 4a20 1ebd 0c97 fa3c e21f 22bd
00000080: 9858 b4bc a84f 7f3d 9872 2f3c 985a a5bc
00000090: 8044 fd3c 48f4 bf3c c066 a93c 70c3 bebc
000000a0: 940c 67bd 540e 093d a0cd 4e3d 8c34 6a3d
000000b0: aa60 053d 8827 ac3c 3471 2c3d e0f0 22bd
000000c0: a294 10bd 7ab5 7d3d 18b0 1dbd 5210 52bd
000000d0: 626e 6c3d 5ca3 8e3c 0ab3 373d 62ad 34bd
000000e0: e076 67bc 7ee8 42bd acb8 babc 0e36 0d3d
000000f0: 8e74 723d 68a4 ac3c 9494 39bd 3624 7dbd
00000100: 40d5 3bbc b807 97bc f01b 5a3c 2276 1f3d
00000110: 685d ff3c 684e 93bc c04a b93a 50cd a1bb
00000120: 983e 61bc 04e3 233d 24f9 bebc 80be 4dbc
00000130: e4b1 fcbc 9cfd 873c 30aa 25bd 4099 c53c
00000140: 703d 27bd 3404 773d 0888 323d d086 babc
00000150: d085 583d 6c6e 11bd 0023 d9ba 5046 36bc
00000160: faa4 7e3d c015 28bd 0255 4dbd a6c5 0b3d
00000170: 4ec4 123d dc5f de3c e0ca 95bb 60d7 2abb
00000180: 4084 a03a 3433 54bd e280 4fbd ce8c 6a3d
00000190: 0048 75b8 6c0b 4f3d be88 103d 88b3 583d
000001a0: 405b c33a a0bf 6b3d f069 583d b838 173c
000001b0: 8eea 21bd c01a 42bb 54d7 b93c e099 68bd
000001c0: b084 82bb 00e5 f539 8007 8bba 689e de3c
000001d0: ecfe 423d b4b4 fdbc 6094 7fbd 02b3 0b3d
000001e0: 7c5f 00bd 0c67 bb3c 9447 9d3c 008b ffbc
000001f0: b804 f13c 4807 3d3d 089b 1a3c 505e e03c
00000200: 1ec3 45bd fe11 1d3d 6af0 423d 4c5c f9bc
00000210: fccb 7d3d 5623 35bd a88b 503c f03a b4bb
00000220: 08ad 48bd c0df 3abd 2003 603d b884 583d
00000230: d6c7 7dbd 9418 f1bc d0f8 3d3d f827 9e3c
00000240: 4428 b2bc f0b6 0d3c dc3f e2bc b4e4 65bd
00000250: 94c1 2e3d 0805 83bc bc6f fe3c 80d4 bfbb
00000260: c030 c33a bcf9 0fbd e8d1 09bd 063e 1bbd
00000270: cce1 c1bc a46b f33c b030 b9bc c003 e53c
00000280: 5803 3fbc 8e5b 333d 988f 67bc 6e3f 77bd
00000290: 8013 d6ba d810 0bbc 9ebe 4cbd e096 073b
000002a0: f821 16bd 5846 92bc 0241 26bd 346e b5bc
000002b0: 7a51 693d 4e3c 39bd 202d 27bb 30b4 53bd
000002c0: 7823 24bc 909d 35bc 3044 773d a0d7 283b
000002d0: 609c 9f3c 0cf3 583d 3e60 49bd 3c4d 55bd
000002e0: dce1 593d 44e4 723d c8b7 a53c 668f 39bd
000002f0: 88b1 75bc 4493 32bd de10 573d 00bf 0bbd
00000300: 047d 2cbd 748e 243d 44ad ddbc 1017 753d
00000310: 48a0 08bc c025 dc3a 00be 8c3c d0dc 303d
00000320: f878 16bc 400b 0bbb f6f1 5b3d d815 183c
00000330: 58da 4abc 0022 69b9 920a 3d3d 24d0 1e3d
00000340: 58d5 683c 8c95 083d c638 6abd 3a45 10bd
00000350: 9ced 67bd b06b f33c 041c ee3c a032 763b
00000360: 3efb 45bd 2065 c23b fc25 b4bc 76c3 02bd
00000370: e49d 093d 304d 2ebc 40ec 3abd 8ef2 3fbd
00000380: c012 43bd 9cf2 df3c d82c cb3c 641b cbbc
00000390: 00f0 0cba 5829 163c 986f 343c e08b 973c
000003a0: 9cff 333d b00a 4f3d 00f3 c5bb d803 293c
000003b0: 26ba 4abd bc1e 78bd 88b7 163c f04d 40bd
000003c0: 38bb d43c dc81 20bd 0e6f 623d 2416 17bd
000003d0: a478 bf3c eecf 11bd f29d 753d b8d3 6d3d
000003e0: 4063 c8ba 5613 6c3d 84ad a63c 9ce4 43bd
000003f0: 7001 9f3b 92ff 343d ca5d 043d f240 00bd

transformer_encoder.encoder.feed_forward.fc2.bias f4 [40]
0.05239173 0.01971794 -0.0058882907 -0.031044684 -0.06002041 -0.06174814 -0.049758367 -0.037324876
-0.0538302 0.026034668 -0.0066147223 -0.06103199 0.015064277 -0.044845067 -0.013461597 0.0032665133
0.055754423 0.051182948 0.036684893 0.056020886 -0.0358636 0.026722476 -0.020039104 -0.012745082
-0.011436999 0.005732678 0.059270903 0.009664595 -0.013131164 0.038943224 -0.032695502 0.047727935
0.02731929 0.038765006 0.0069808513 0.01176735 -0.0110705495 -0.028628878 0.0049323365 0.048967615
00000000: b698 563d 8487 a13c 90f2 c0bb 6c51 febc
00000010: f6d7 75bd 9eeb 7cbd 6ecf 4bbd f8e1 18bd
00000020: 0e7d 5cbd a846 d53c 50c0 d8bb aefc 79bd
00000030: 28d0 763c 76af 37bd 088e 5cbc 0013 563b
00000040: c05e 643d 36a5 513d e642 163d 2876 653d
00000050: b6e5 12bd 18e9 da3c 0c29 a4bc c0d0 50bc
00000060: 4062 3bbc 30d9 bb3b 0cc6 723d 4058 1e3c
00000070: 1824 57bc ee82 1f3d b8eb 05bd 5e7e 433d
00000080: b4cc df3c 0ec8 1e3d a0bf e43b d8cb 403c
00000090: 4061 35bc 1c87 eabc 709f a13b 4492 483d
