simple2transformer/param/net_param/Mk10_25_50_actor_net.model (torch, 233919 bytes, 34 tensors)

transformer_encoder.encoder.attention.fc_Q.weight f4 [40, 40]
0	0xbe172109	-0.14758696
1	0x3dec52a2	0.115391985
2	0x3c6a79f0	0.014311299
3	0xbd997e02	-0.07494737
4	0x3cba8d20	0.022772372
5	0x3db23e0e	0.08703242
6	0x3d9673e4	0.07346323
7	0x3cb46f10	0.022025615
8	0xbc8ad6c0	-0.016948104
9	0x3d820236	0.06348078
10	0xbe074aae	-0.13212082
11	0xbe1304a7	-0.14357243
12	0x3ca88f88	0.020576254
13	0xbe119e5e	-0.14220569
14	0x3da426f2	0.08015241
15	0x3da65372	0.08121385
16	0xbe110710	-0.1416285
17	0x3d649098	0.055801958
18	0x3df26dde	0.11837362
19	0xbd457bf2	-0.048213907
20	0xbdf7f12b	-0.12106546
21	0x3e1e2447	0.15443526
22	0x3dcfa232	0.10138358
23	0xbe0fe820	-0.14053392
24	0x3d3c2318	0.045931906
25	0xbdd05868	-0.10173112
26	0x3d43654c	0.047704026
27	0xbcfa7b50	-0.030576378
28	0x3df7b92a	0.12095864
29	0xbbd31ce0	-0.006442651
30	0x3e01a30f	0.12659858
31	0xbe0e37b1	-0.13888432
32	0xbe1b8d3f	-0.151906
33	0xbda8ec53	-0.082482
34	0x3ddbdb8a	0.10735233
35	0x3e17d015	0.14825471
36	0xbd9bc916	-0.076067135
37	0x3d83e066	0.06439285
38	0x3da8cb70	0.082419276
39	0x3d0bc444	0.03412272
40	0x3e050f8f	0.12994216
41	0x3de307e6	0.11085491
42	0x3e011e61	0.12609245
43	0x3e18104b	0.14849965
44	0x3e09982b	0.13436954
45	0xbd3ad1a2	-0.045610078
46	0x3e03fb23	0.1288877
47	0xbe1e783f	-0.15475558
48	0x3db1bbf2	0.08678426
49	0xbaf27700	-0.00184986
50	0xbd9bb7ac	-0.07603392
51	0xbe01b6bc	-0.12667364
52	0xbd87ffe5	-0.06640605
53	0xbdb455b5	-0.0880541
54	0xbd99b255	-0.07504717
55	0x3babe820	0.0052461773
56	0xbdb8e96e	-0.09028898
57	0xbbb6a6c0	-0.0055740774
58	0xbdc86092	-0.09784044
59	0x3cd112d0	0.025521666
60	0x3d12bb7c	0.03582333
61	0xbe1e189c	-0.15439075
62	0x3d9e859a	0.07740326
63	0xbd8a46fb	-0.0675182
64	0xbcd60610	-0.026125938
65	0xbde1fc98	-0.110345066
66	0x3d9e185c	0.0771949
67	0xbd11cdf2	-0.035596795
68	0x3e086587	0.1331998
69	0xbd7b9478	-0.061420888
70	0x3ddabeba	0.106809095
71	0x3e14d83b	0.1453561
72	0xbd1d2962	-0.038369544
73	0x3d12e494	0.03586252
74	0xbd33625c	-0.043794975
75	0xbe0540be	-0.13012978
76	0xbc865e78	-0.016402468
77	0x3d76dc90	0.06026894
78	0x3e13aebd	0.14422126
79	0x3e0c6bbd	0.13712974
80	0x3dba4140	0.09094477
81	0x3dff702a	0.124725655
82	0x3d0e76b8	0.034781188
83	0xbde930c9	-0.11386258
84	0xbe0edb51	-0.1395085
85	0xbdcd0f40	-0.10012674
86	0x3cc1d030	0.023658842
87	0x3e0b0615	0.13576539
88	0xbdb8fa00	-0.09032059
89	0x3dddb88a	0.10826214
90	0xbe0363ae	-0.12830994
91	0xbdf44b1e	-0.1192839
92	0xbda9c646	-0.08289771
93	0x3ca23920	0.01980263
94	0x3d3b1e98	0.045683473
95	0x3df2beb2	0.118527785
96	0x3e1a98f3	0.15097408
97	0xbd993231	-0.074802764
98	0xbb75d080	-0.003750831
99	0xbdee3208	-0.116306365
100	0x3e028e03	0.12749486
101	0x3c175980	0.009237647
102	0xbdd9b7de	-0.10630773
103	0x3b008e40	0.0019616038
104	0xbe02a1cd	-0.12757035
105	0xbd2adc12	-0.04171378
106	0x3ca2e4e0	0.019884527
107	0x3dc52cfe	0.09627722
108	0x3e185a3b	0.1487817
109	0x3d75524c	0.059892938
110	0x3e1e7051	0.15472533
111	0x3e08cfef	0.1336057
112	0xbc68ddc0	-0.014213026
113	0x3d763f18	0.060118765
114	0xbe0a4a25	-0.13504846
115	0x3cfd3020	0.030906737
116	0xbd6b39e4	-0.057428256
117	0x3d2c267c	0.04202889
118	0x3da05cfa	0.07830234
119	0xbe0ba1c0	-0.13635921
120	0x3df9ea6a	0.12202914
121	0xbdd3aac4	-0.10335305
122	0x3d3e0474	0.046390966
123	0x3c58cc60	0.013232321
124	0xbdb3ff86	-0.087889716
125	0x3dc8ad6e	0.09798704
126	0xbe13eb20	-0.14445162
127	0x3d24fb84	0.040278926
128	0xbe0fc44a	-0.14039722
129	0x3dc3ec1e	0.0956652
130	0xbdd6dfb8	-0.1049189
131	0xbd986b9f	-0.07442402
132	0xbdbca560	-0.0921123
133	0x3ca0dd10	0.01963666
134	0xbd5c2c74	-0.05375333
135	0xbcea3640	-0.028590322
136	0x3b8338c0	0.004004568
137	0xbe0bebeb	-0.13664214
138	0xbe07b070	-0.132509
139	0x3d940f36	0.07229464
140	0xbc33aef0	-0.010967001
141	0xbd1b2c8e	-0.037884288
142	0xbcd37918	-0.025814578
143	0x3da8a5d0	0.08234751
144	0xbdb451cd	-0.08804665
145	0x3d1bd154	0.038041428
146	0x3dc51f16	0.0962507
147	0x3d1eadf4	0.038740113
148	0xbda80c1e	-0.08205436
149	0xbdcd7c54	-0.10033479
150	0x3d4f2c00	0.05057907
151	0xbca78140	-0.020447373
152	0xbded6053	-0.11590638
153	0xbbe550a0	-0.0069981366
154	0xbdb3f6a4	-0.08787277
155	0xbe0820b2	-0.13293722
156	0x3d993586	0.07480912
157	0x3df09bc2	0.117484584
158	0x3d7c4a3c	0.061594233
159	0xbd66fc0a	-0.056392707
160	0xbda5c909	-0.08094985
161	0x3b233f80	0.0024909675
162	0x3d50c2b4	0.050966933
163	0x3cf55b88	0.029950872
164	0x3cf9b4b8	0.030481681
165	0x3e080b33	0.13285522
166	0x3d3a0f50	0.04542476
167	0xbe04cb49	-0.12968172
168	0x3e066839	0.13125695
169	0xbdd5ce92	-0.10439791
170	0x3daeaf68	0.0852955
171	0xbd5d79be	-0.05407118
172	0xbd6193b2	-0.055072494
173	0x3e1efc59	0.1552595
174	0x3dbcb9f2	0.09215154
175	0x3d5d2e58	0.053999275
176	0xbd65101c	-0.055923566
177	0xbdc7920c	-0.09744653
178	0xbd32819e	-0.043580644
179	0x3caae6a0	0.020861924
180	0x3e0f2dbf	0.13982294
181	0x3df619b2	0.1201662
182	0xbdaabaa9	-0.08336384
183	0x3d4b88f4	0.049691156
184	0xbdad7716	-0.084699795
185	0x3bf7a3e0	0.007557377
186	0xbe0a0f2d	-0.13482352
187	0xbd9c587e	-0.07634066
188	0xbe21dc41	-0.15806676
189	0xbdfa15c1	-0.122111805
190	0x3ca68110	0.020325214
191	0x3cf177b0	0.029476017
192	0xbe022803	-0.12710576
193	0x3cac8018	0.021057174
194	0x3b068c40	0.0020530373
195	0x3e1cb0ad	0.15301771
196	0x3bdeb680	0.006796658
197	0xbd30b94e	-0.04314547
198	0x3dff320a	0.12460716
199	0xbcaeaa88	-0.02132155
200	0xbe055ec0	-0.13024426
201	0xbddb7031	-0.10714758
202	0xbd0f16b8	-0.034933776
203	0xbde3f7dd	-0.111312605
204	0xbe066951	-0.13126113
205	0x3c0aafb0	0.008464739
206	0x3d258a4c	0.040415093
207	0x3df5aa1a	0.11995335
208	0xbd42dcac	-0.04757373
209	0xbcbecec8	-0.02329196
210	0xbda210fe	-0.07913397
211	0x3cdb01b8	0.026734218
212	0x3d97cea8	0.074124634
213	0x3d39610c	0.045258567
214	0x3de18ada	0.11012812
215	0x3d80f34e	0.06296407
216	0x3d6294a0	0.05531752
217	0xbe0a6fd5	-0.13519223
218	0xbd53b536	-0.051686488
219	0x3ca2a448	0.019853726
220	0xbe1744a5	-0.1477228
221	0xbc3ff6c0	-0.011716545
222	0xbe0dddc8	-0.13854134
223	0x3d9a8b56	0.075461075
224	0xbe21a4c4	-0.1578551
225	0xbe040188	-0.12891209
226	0x3d91e59a	0.07123871
227	0x3d523410	0.051319182
228	0x3dd068a6	0.1017621
229	0xbd98395c	-0.074328154
230	0xbdf4b3a7	-0.119483285
231	0x3c47a1f0	0.012184605
232	0x3db00b96	0.0859596
233	0xbd7a6442	-0.06113077
234	0x3dad9f2e	0.08477627
235	0xbd1bd654	-0.038046196
236	0xbd294cc2	-0.041332968
237	0xbd271460	-0.040790915
238	0x3d26d8b0	0.040733993
239	0x3dc39ebe	0.09551762
240	0xbe1b6c23	-0.1517797
241	0x3c180940	0.009279549
242	0xbd6052ce	-0.05476647
243	0x3e1e2fa1	0.15447856
244	0x3df181d6	0.11792342
245	0xbcd22958	-0.02565448
246	0xbe14c37a	-0.14527693
247	0xbd578d1c	-0.052624807
248	0xbdcf6e1d	-0.10128424
249	0x3e08d2c3	0.13361649
250	0x3e133807	0.14376841
251	0x3d07af44	0.03312613
252	0xbca870a0	-0.020561516
253	0x3d148750	0.036261857
254	0x3d535c98	0.051601976
255	0xbe20a262	-0.15686944

transformer_encoder.encoder.attention.fc_Q.bias f4 [40]
0	0x3cff2e48	0.031149998
1	0xbdde9f15	-0.10870186
2	0x3d955244	0.072910815
3	0x3e1d9bb7	0.15391432
4	0x3d0d687c	0.034523472
5	0x3dad7b1c	0.08470747
6	0xbe1a9ae7	-0.15098153
7	0x3cb966b8	0.022631988
8	0xbdd84a5b	-0.10561057
9	0x3cfea6a0	0.031085312
10	0x3c704460	0.014664739
11	0xbd2fd760	-0.042930007
12	0xbdcec1b0	-0.10095537
13	0x3d93a00e	0.072082624
14	0xbd87d935	-0.06633226
15	0x3c3d08a0	0.011537701
16	0x3e13566f	0.1438844
17	0x3de24e62	0.110501066
18	0x3e08195f	0.13290928
19	0xbd1700e4	-0.036866084
20	0x3d44bdc8	0.048032552
21	0x3dd3be1e	0.10338996
22	0xbe219e22	-0.15782979
23	0xbd85322d	-0.06503711
24	0x3d8a567c	0.06754777
25	0xbe0c843d	-0.1372232
26	0x3cc212a0	0.023690522
27	0xbe219cb6	-0.15782437
28	0x3de4fe8a	0.11181362
29	0x3c6d7a20	0.014494449
30	0xbe146875	-0.14492972
31	0xbba38c60	-0.0049910992
32	0x3dcb11ea	0.09915526
33	0x3df0510a	0.11734207
34	0x3d8c29da	0.0684392
35	0x3c60b390	0.013714686
36	0xbdeb5fa6	-0.11492853
37	0x3ce35518	0.027750537
38	0x3df36dca	0.11886175
39	0xbb40d4c0	-0.0029423684

transformer_encoder.encoder.attention.fc_K.weight f4 [40, 40]
0	0xbd03ddc0	-0.0321939
1	0x3d98ac26	0.0745471
2	0x3da1b588	0.078959525
3	0xbc4c42d0	-0.012467101
4	0x3df9b182	0.1219206
5	0x3d908af0	0.0705775
6	0xbddac516	-0.106821224
7	0xbd63fc98	-0.055660814
8	0xbdbc95b4	-0.09208241
9	0x3d89c472	0.06726922
10	0xbb8f8300	-0.00437963
11	0x3d95030c	0.07275972
12	0x3df67e3a	0.120357946
13	0x3d6772c4	0.056505933
14	0x3dd40d52	0.10354103
15	0xbdcddc88	-0.100518286
16	0xbb8911c0	-0.004183024
17	0x3d5b0620	0.053472638
18	0xbd9ef9e9	-0.0776251
19	0x3cd2a808	0.02571489
20	0xbc267e30	-0.010161921
21	0x3d4d55d0	0.050130665
22	0x3baa0c60	0.0051894635
23	0xbdd00d2a	-0.10158761
24	0xbc501350	-0.012699917
25	0x3e139d5f	0.14415501
26	0x3e19bce1	0.15013458
27	0xbd50c44a	-0.050968446
28	0xbd26c112	-0.04071147
29	0x3df9bfa6	0.12194757
30	0xbc307cc0	-0.01077193
31	0x3da3fab6	0.08006804
32	0xbdddf2f2	-0.10837354
33	0xbd915d1c	-0.07097837
34	0x3e1c97d5	0.15292294
35	0x3d3f6594	0.04672773
36	0x3e0f9ae5	0.14023931
37	0xbdaa4283	-0.08313467
38	0x3ca522f0	0.020158261
39	0x3d4a1964	0.04934062
40	0xbc9e2f50	-0.01930967
41	0x3df19666	0.11796264
42	0x3db68142	0.08911373
43	0xbda82401	-0.08209992
44	0xbcd20790	-0.025638372
45	0x3cd15c80	0.025556803
46	0xbd1b8b70	-0.037974775
47	0x3dff5a2a	0.12468369
48	0xbd5c9d04	-0.05386068
49	0xbe040646	-0.12893018
50	0xbdc9bfe6	-0.09851055
51	0xbde267cc	-0.11054954
52	0x3e0a75cf	0.13521503
53	0xbd9e02b1	-0.07715357
54	0x3dbcaff2	0.092132464
55	0x3d2edf14	0.042693213
56	0xbd8be61e	-0.06831001
57	0xbe0c7612	-0.13716915
58	0x3db87616	0.09006898
59	0x3c9a8260	0.018860996
60	0xbdc9c340	-0.09851694
61	0x3d973ee4	0.07385042
62	0x3df3650e	0.11884509
63	0xbe1cdbc7	-0.15318213
64	0x3e1fafe3	0.15594439
65	0x3e1a0937	0.15042578
66	0xbdfee06e	-0.1244515
67	0xbdaf46bc	-0.085584134
68	0x3c81c1d8	0.015839502
69	0x3db54f26	0.08852987
70	0x3b6e9780	0.003640622
71	0x3d84487c	0.06459138
72	0x3db063bc	0.08612773
73	0x3dc318be	0.095262036
74	0xbe18df14	-0.14928848
75	0xbd966c0b	-0.07344826
76	0x3de04ea6	0.10952501
77	0x3b0cd600	0.0021489859
78	0x3da8c83a	0.08241315
79	0x3cd194c0	0.025583625
80	0xbdbf0c40	-0.093285084
81	0x3e1e43b7	0.15455519
82	0xbd5946e6	-0.05304613
83	0xbb448100	-0.0029984117
84	0xbd0cc8da	-0.034371234
85	0xbcded0d8	-0.027199194
86	0x3df02d3a	0.11727376
87	0xbd37c35e	-0.04486405
88	0x3d193bec	0.03741066
89	0xbdc67258	-0.09689778
90	0xbda42ecd	-0.08016739
91	0xbcb53e60	-0.02212447
92	0xbd140b6c	-0.036143705
93	0x3d129474	0.035786107
94	0xbdc2dda9	-0.095149346
95	0x3d1fdecc	0.039030835
96	0x3db36b1a	0.087606624
97	0x3e19f7e5	0.1503597
98	0xbe0dbf98	-0.13842618
99	0xbe0a8b9d	-0.1352982
100	0x3dd0e162	0.10199238
101	0xbd439db6	-0.047757827
102	0x3dd113ce	0.102088556
103	0xbdab610e	-0.08368121
104	0x3da89e04	0.08233264
105	0xbe0ae7a2	-0.13564923
106	0xbd824edb	-0.06362697
107	0x3d8a1cc4	0.06743768
108	0xbe048a45	-0.1294337
109	0x3d13a9ec	0.036050722
110	0xbd663c26	-0.056209706
111	0x3d79c99c	0.060983285
112	0xbd6f06a0	-0.058355927
113	0x3b3b1bc0	0.0028550476
114	0xbdb30746	-0.08741622
115	0x3d8a56e6	0.06754856
116	0xbdf67f75	-0.12036029
117	0xbd13a5a8	-0.036046654
118	0x3e101667	0.14071046
119	0x3d4c2c94	0.0498472
120	0xbd65bcf2	-0.056088395
121	0xbd464312	-0.048403807
122	0x3dc5f9e6	0.09666805
123	0x3e1081b1	0.14111973
124	0xbd1361a0	-0.035981774
125	0x3d92ef10	0.07174504
126	0xbc8cf490	-0.01720646
127	0x3dadbeac	0.084836334
128	0xbc2a53c0	-0.010395944
129	0xbe1ac894	-0.15115577
130	0xbd3585b6	-0.04431697
131	0xbc22a3e0	-0.009926766
132	0xbd01e1ac	-0.031709358
133	0xbc7d31b0	-0.015453741
134	0xbd466414	-0.048435286
135	0xbdaf4a8a	-0.08559139
136	0x3d959e6a	0.07305606
137	0xbe16dbc8	-0.14732277
138	0xbc261bb0	-0.010138437
139	0xbd4f7c0c	-0.05065541
140	0xbd6130cc	-0.054978177
141	0xbd5a0588	-0.05322793
142	0x3dc00cbe	0.093774304
143	0x3d14e51c	0.03635131
144	0xbdb17184	-0.086642295
145	0x3df21cea	0.11821921
146	0xbe0eb768	-0.13937151
147	0xbdaa763a	-0.08323331
148	0x3d76a940	0.060220003
149	0x3de553e6	0.11197643
150	0xbc0ad050	-0.008472517
151	0xbd704692	-0.05866105
152	0x3dcbc646	0.09949927
153	0x3ce41930	0.027844042
154	0x3e1ba353	0.15199022
155	0xbe08d090	-0.1336081
156	0xbe17ba53	-0.14817171
157	0x3de2e312	0.110784665
158	0x3d961828	0.07328826
159	0x3da6e634	0.081493765
160	0x3d553900	0.052056313
161	0xbd9dc9ff	-0.07704543
162	0x3d595d04	0.053067222
163	0xbbb97920	-0.005660191
164	0xbe0500ed	-0.12988634
165	0xbd322e4c	-0.043501183
166	0x3d9291c8	0.07156712
167	0xbdc97a6e	-0.09837805
168	0x3dd9b06e	0.106293544
169	0x3da7e302	0.08197595
170	0x3c8c9b20	0.017163813
171	0xbd9ac30a	-0.07556732
172	0x3cc4e8c0	0.024036765
173	0x3d83739a	0.064185336
174	0x3ce98ca0	0.028509438
175	0xbd3d6262	-0.046236403
176	0x3d9220a6	0.071351334
177	0x3e0709c5	0.1318732
178	0xbd87bfdc	-0.06628391
179	0x3dfa0f86	0.12209992
180	0xbe153d22	-0.14574102
181	0xbb89f5c0	-0.004210204
182	0x3d2a0a3c	0.041513667
183	0x3bfb8b60	0.007676527
184	0x3d5359d0	0.051599324
185	0x3dc3ba9a	0.09557076
186	0x3d237338	0.039904803
187	0x3dd8266e	0.10554205
188	0x3ca94378	0.020662054
189	0x3e16b3ff	0.147171
190	0xbdbb4d4a	-0.09145601
191	0xbd61c674	-0.0551209
192	0x3e040d77	0.12895761
193	0x3cd19470	0.025583476
194	0xbd4464fe	-0.047947876
195	0xbd3cd1ec	-0.046098635
196	0xbdcd67e8	-0.10029584
197	0x3ddde1ae	0.108340606
198	0xbd6de1d6	-0.058076702
199	0xbd8aecfe	-0.06783484
200	0x3d01f8bc	0.031731352
201	0xbd9373da	-0.07199831
202	0x3db7f17e	0.08981608
203	0xbca4d8e8	-0.02012296
204	0xbdb9efc5	-0.090789355
205	0xbdcec725	-0.100965776
206	0x3d301b2c	0.042994663
207	0xbe0a878c	-0.1352827
208	0x3d64ebd8	0.05588898
209	0xbd92c7b9	-0.07167
210	0x3dd35faa	0.10320981
211	0x3e1b0c61	0.15141441
212	0x3d9c1c9e	0.07622646
213	0xbd47b20e	-0.04875379
214	0xbd735b66	-0.059413336
215	0x3e1582ed	0.14600725
216	0x3de08912	0.10963644
217	0xbe069ac0	-0.1314497
218	0xbbef5700	-0.0073040724
219	0x3daabdca	0.08336981
220	0x3e135645	0.14388378
221	0x3dfb7afa	0.12279315
222	0x3e106079	0.14099301
223	0xbd98d5c1	-0.07462645
224	0xbdd675d3	-0.10471692
225	0xbe096fc0	-0.13421535
226	0xbc8a4d78	-0.016882643
227	0x3d9a8ee0	0.075467825
228	0xbdce1a58	-0.100636184
229	0xbe0f3044	-0.13983256
230	0x3bce14a0	0.00628908
231	0x3e128559	0.1430868
232	0x3df2226e	0.11822973
233	0x3cf33978	0.02969049
234	0x3db484de	0.08814405
235	0xbb9d36a0	-0.0047977716
236	0xbdcaa761	-0.09895206
237	0xbe073487	-0.13203631
238	0x3d5a31d8	0.05327019
239	0xbb194300	-0.0023385882
240	0xbde6b55e	-0.11265062
241	0x3c772e30	0.015086696
242	0xbe089f3c	-0.13341993
243	0x3d0f027c	0.03491448
244	0xbd85d694	-0.06535068
245	0x3e0bad59	0.13640346
246	0x3dfa1916	0.12211816
247	0x3dd6a63e	0.10480927
248	0x3db93d14	0.09044853
249	0x3dee5b6a	0.116385296
250	0x3de4b7ea	0.11167891
251	0xbd864915	-0.06556908
252	0x3d98ed66	0.07467155
253	0xbe071c7c	-0.1319446
254	0x3e08a407	0.13343821
255	0xbde6ab7c	-0.11263177

transformer_encoder.encoder.attention.fc_K.bias f4 [40]
0	0x3d821d5c	0.06353256
1	0x3de0f41a	0.10984059
2	0x3c0712f0	0.008244261
3	0x3d961314	0.073278576
4	0xbccb9a68	-0.0248539
5	0xbe0a5cec	-0.1351201
6	0x3c1cd8d0	0.0095731765
7	0xbdccc2a5	-0.09998063
8	0xbd3d643e	-0.046238177
9	0xbdad786e	-0.08470236
10	0xbb4c3840	-0.0031161457
11	0xbe1a9e7f	-0.15099524
12	0x3a041100	0.00050379336
13	0xbdd7ec93	-0.1054317
14	0x3e18de8d	0.14928646
15	0x3ddfe8b6	0.10933058
16	0xbab54900	-0.001383096
17	0x3de55242	0.1119733
18	0xbc95eaf8	-0.018300518
19	0xbd67f0f0	-0.05662626
20	0x3dbe762a	0.09299882
21	0x3dae506e	0.085114345
22	0x3dc47eee	0.095945224
23	0x3e20085f	0.15628193
24	0xbb94f7a0	-0.0045461208
25	0xbe1aeef9	-0.15130223
26	0x3df10bb6	0.11769812
27	0xbdb9ed17	-0.090784244
28	0x3c9de3e0	0.019273698
29	0xbcabfee8	-0.020995572
30	0x3d536a68	0.05161515
31	0x3dffed92	0.12496485
32	0xbdb12854	-0.0865027
33	0xbe186c40	-0.14885044
34	0x3c8eab58	0.017415687
35	0x3dcb0266	0.09912567
36	0xbdcba42a	-0.09943421
37	0xbdb0d0ec	-0.08633599
38	0x3dfa3be2	0.12218453
39	0xbe1e2bd0	-0.154464

transformer_encoder.encoder.attention.fc_V.weight f4 [40, 40]
0	0xbe01d950	-0.12680554
1	0xbd8b5dea	-0.06805022
2	0xbe20ca6d	-0.1570222
3	0x3c363490	0.01112093
4	0xb830c000	-4.2140484e-05
5	0xbd7c645e	-0.061619155
6	0x3d5ee478	0.054417104
7	0x3a980780	0.0011598915
8	0xbe05bef0	-0.13061118
9	0xbd5a2de8	-0.053266436
10	0xbd98ccaf	-0.07460915
11	0xbe01f77b	-0.12692063
12	0xbd87bcce	-0.066278085
13	0xbe0ef9b2	-0.13962439
14	0x3e1b7011	0.15179469
15	0xbe0f0b31	-0.13969113
16	0xbd81375c	-0.06309387
17	0x3d6feac8	0.058573514
18	0xbdf99292	-0.12186159
19	0xbdac6955	-0.08418528
20	0x3d174438	0.036930293
21	0x3dad104a	0.084503725
22	0xbe02afa7	-0.12762319
23	0xbd55c096	-0.052185617
24	0xbc5b5df0	-0.013389096
25	0xbe0a18a2	-0.13485959
26	0x3d897566	0.06711845
27	0x3d14fbf0	0.03637308
28	0x3dcb7b3e	0.09935616
29	0xbe0f2c11	-0.13981654
30	0x3dac8626	0.08424024
31	0x3d0159e0	0.031579852
32	0x3ddd9912	0.108202115
33	0x3d952922	0.07283236
34	0x3db313f6	0.087440416
35	0xbe167043	-0.14691262
36	0xbdf3f1b8	-0.119113386
37	0xbe0aafd8	-0.13543642
38	0xbd85c62c	-0.06531939
39	0xbc2fd170	-0.010731086
40	0x3d70e774	0.05881448
41	0xbd8cecb5	-0.06881086
42	0x3d64d328	0.055865437
43	0x3de81946	0.113329455
44	0x3dbfaf2e	0.09359585
45	0x3df01b42	0.11723949
46	0x3de9820e	0.11401759
47	0x3dbbad42	0.09163906
48	0xbd8995e7	-0.06718045
49	0xbdf52a47	-0.119709544
50	0x3c7c7a90	0.015410081
51	0x3e00b1d3	0.12567835
52	0xbe0a6336	-0.13514408
53	0x3d5fc52c	0.054631397
54	0x3d345f3c	0.044036135
55	0x3e1f1305	0.15534599
56	0x3cd0c390	0.025483876
57	0xbe02537f	-0.12727164
58	0x3d1f1858	0.038841575
59	0xbdc6b4c6	-0.097024485
60	0xbddd62d0	-0.108098626
61	0x3d97c060	0.074097395
62	0xbdd06676	-0.10175793
63	0xbdc2ce3a	-0.09511991
64	0x3a9aca00	0.0011809468
65	0xbd82ecc3	-0.06392815
66	0xbd678660	-0.056524634
67	0x3d168068	0.03674355
68	0x3e12c765	0.14333875
69	0xbd7f89c8	-0.062387258
70	0x3da7b9ca	0.08189733
71	0x3e1249f5	0.14286025
72	0xbde09dd2	-0.10967602
73	0x3e0dd817	0.13851963
74	0xbd0597ec	-0.032615587
75	0x3cc25158	0.023720428
76	0x3e0972fb	0.13422768
77	0x3c2fcd90	0.010730162
78	0xbe0ea95b	-0.13931791
79	0xbbbee400	-0.0058255196
80	0xbcc77688	-0.024348512
81	0x3d2fb344	0.04289557
82	0x3df27daa	0.11840375
83	0x3dcd661e	0.10029243
84	0x3c83c698	0.016085908
85	0x3d6398f8	0.055565804
86	0xbcacb7a0	-0.021083653
87	0x3e1a11e5	0.15045889
88	0x3d79b0a4	0.060959473
89	0xbe0cdd8e	-0.13756391
90	0xbdbabf07	-0.09118467
91	0xbaa41180	-0.0012517422
92	0xbbc16360	-0.005901739
93	0xbc84c360	-0.016206443
94	0x3e1a7401	0.15083314
95	0x3cb17a18	0.021664664
96	0xbdf85ae6	-0.121267125
97	0x3dedb4d6	0.11606757
98	0x3e0b1ff7	0.13586412
99	0xbd2f7a4a	-0.042841233
100	0xbdbc3a39	-0.091907926
101	0x3d97b85a	0.07408209
102	0x3b9a8000	0.004714966
103	0x3e1ca84f	0.1529858
104	0xbd275250	-0.040849984
105	0xbe17ae63	-0.14812617
106	0x3e11e589	0.14247717
107	0xbe1dfe19	-0.15428962
108	0xbdd7beee	-0.10534464
109	0xbdced989	-0.10100085
110	0xbdf98996	-0.121844456
111	0x3e212a4f	0.15738796
112	0xbdde08dd	-0.10841534
113	0x3e1fa2a5	0.15589388
114	0x3daabfea	0.08337386
115	0x3d99f682	0.07517721
116	0x3e06ee73	0.13176899
117	0xbd8d2c90	-0.06893265
118	0xbe06d74d	-0.13168068
119	0xbd08e5d2	-0.0334223
120	0xbd81349d	-0.06308863
121	0x3d9b8188	0.075930655
122	0x3e00907b	0.12555115
123	0xbdcbc602	-0.09949876
124	0xbc46cd00	-0.012133837
125	0xbde24290	-0.11047852
126	0xbde3749c	-0.11106226
127	0xbe08e132	-0.13367155
128	0x3e2119f5	0.15732558
129	0x3c0bf050	0.008541182
130	0x3e13e249	0.1444179
131	0xbd4a190e	-0.0493403
132	0xbd514cf6	-0.051098786
133	0xbe054507	-0.13014613
134	0xbdf4da7e	-0.119557366
135	0xbe167ecf	-0.14696811
136	0xbca24990	-0.019810468
137	0x3d5122a4	0.051058426
138	0xbe00dea5	-0.12584932
139	0x3e179b71	0.1480539
140	0xbe12b9ac	-0.1432864
141	0x3d611eec	0.05496113
142	0xbe0008d3	-0.12503366
143	0x3d96b36a	0.07358439
144	0x3c5331f0	0.012890324
145	0xbe0f51e6	-0.13996086
146	0xbcefb690	-0.029261857
147	0x3cb65d50	0.022261292
148	0xbd35e5dc	-0.044408664
149	0x3e0ea905	0.13931663
150	0xbdcc513a	-0.0997643
151	0x3d48f448	0.04906109
152	0xbd18eab4	-0.037333205
153	0x3d9523fc	0.07282254
154	0xbe20002f	-0.1562507
155	0xbdb351a8	-0.08755809
156	0x3e11f077	0.14251886
157	0x3e0a1115	0.13483079
158	0x3ddf8216	0.10913484
159	0x3e067a19	0.13132514
160	0xbdca3f9e	-0.09875415
161	0xbdedfbde	-0.116203055
162	0xbc58d2c0	-0.01323384
163	0xbd71af5e	-0.059005134
164	0x3dee817a	0.116457894
165	0x3de79e96	0.11309545
166	0x3de87b82	0.11351682
167	0xbe0b01cd	-0.13574906
168	0x3e004c61	0.12529136
169	0xbd5ebc4c	-0.054378793
170	0xbdb7dcad	-0.089776374
171	0xbdec7f24	-0.11547688
172	0x3c791080	0.015201688
173	0x3e14d63b	0.14534847
174	0xbdf9df16	-0.122007534
175	0x3db0e2b6	0.08636992
176	0x3d3f8a60	0.046762824
177	0xbde60266	-0.11230926
178	0x3e2119c9	0.15732493
179	0x3e212c25	0.15739496
180	0xbde0ae66	-0.10970764
181	0xbd79380e	-0.060844474
182	0xbe194db8	-0.14971054
183	0xbe06ca8c	-0.13163203
184	0x3c3d5a30	0.011557147
185	0x3d9b0d38	0.07570881
186	0x3df127e6	0.11775188
187	0xbbfb6a80	-0.007672608
188	0xbd9b4e82	-0.075833336
189	0xbd2f2a62	-0.04276503
190	0x3d3635e4	0.044484988
191	0xbdfd2e38	-0.12362331
192	0x3de6099a	0.112323
193	0xbe212e7e	-0.15740392
194	0xbd8819e0	-0.0664556
195	0xbbcc0800	-0.0062265396
196	0xbdc5976e	-0.096480235
197	0xbc79e0e0	-0.015251368
198	0x3dfb6bee	0.12276445
199	0x3c836130	0.016037554
200	0x3d2a734c	0.041613862
201	0x3da242ee	0.07922922
202	0x3d6468bc	0.055763945
203	0x3de1cb2a	0.110250786
204	0x3da81c6a	0.082085446
205	0x3df39a82	0.118947044
206	0xbd8fc0fc	-0.07019231
207	0x3e0945bf	0.13405512
208	0x392fe800	0.00016775727
209	0x3c9648b8	0.018345222
210	0xbdf464b0	-0.11933267
211	0x3c2bded0	0.010490134
212	0x3d17b890	0.037041247
213	0xbd846013	-0.06463637
214	0xbd9a2ad1	-0.07527698
215	0xbdea8bef	-0.114524715
216	0x3d5421ac	0.051789925
217	0xbd1bcb14	-0.038035467
218	0xbe1f7348	-0.1557132
219	0x3de9246e	0.113839015
220	0x3db27b84	0.08714965
221	0x3d12bbbc	0.03582357
222	0x3dd3f2c6	0.1034904
223	0xbddb6a3e	-0.107136235
224	0xbd8ebf78	-0.069701135
225	0xbdaf24e6	-0.0855196
226	0x3d9eb048	0.07748467
227	0x3d0e7060	0.034775138
228	0x3d91604e	0.07098447
229	0x3bcb70e0	0.006208524
230	0xbe151ffd	-0.14562984
231	0x3d63f868	0.05565682
232	0x3dff617e	0.12469767
233	0xbb9ebcc0	-0.004844278
234	0xbd83a67f	-0.06428241
235	0x3de4883a	0.11158796
236	0xbb538040	-0.0032272488
237	0xbe1db3a2	-0.15400556
238	0xbc5ea380	-0.013588786
239	0x3d8589aa	0.06520398
240	0xbcce0b38	-0.025151834
241	0xbd3618e0	-0.044457316
242	0xbd0acfe6	-0.033889674
243	0xbd23e8b8	-0.04001686
244	0x3d15c8c4	0.03656842
245	0xbe1cc24e	-0.15308496
246	0x3d14ccec	0.03632824
247	0xbdffa420	-0.12482476
248	0x3bad7ba0	0.0052942783
249	0x3d8936e2	0.06699921
250	0x3e18af53	0.14910631
251	0xbdbc9660	-0.09208369
252	0x3dfc347a	0.123146966
253	0x3def76c2	0.11692573
254	0x3cc8f658	0.024531528
255	0x3d3643fc	0.04449843

transformer_encoder.encoder.attention.fc_V.bias f4 [40]
0	0xbd0599a8	-0.03261724
1	0x3d8544b8	0.06507248
2	0x3d5179f8	0.05114171
3	0xbc582530	-0.01319246
4	0x3d65cfb0	0.05610627
5	0x3d684a3c	0.05671142
6	0x3d26e808	0.040748626
7	0x3d07e68c	0.03317885
8	0xbe20b3d2	-0.15693596
9	0xbe12b5a5	-0.14327104
10	0xbe15dd6f	-0.14635251
11	0x3df0fbea	0.11766799
12	0x3dbe82be	0.09302281
13	0xbdc39729	-0.09550316
14	0xbddad65c	-0.10685417
15	0xbdfb2574	-0.12263003
16	0xbd4def00	-0.050276756
17	0x3da7440c	0.08167276
18	0x3e0a0bc5	0.13481052
19	0xbc81cb50	-0.015844017
20	0x3e1d5fa7	0.1536852
21	0x3e08bd37	0.1335343
22	0x3d580938	0.052743167
23	0xbe1bdae2	-0.15220216
24	0xbd9ef412	-0.077613965
25	0x3d75a56c	0.05997221
26	0xbd98b786	-0.07456879
27	0x3d84ee08	0.06490713
28	0xbd122d86	-0.035687946
29	0xbcf124a0	-0.02943641
30	0xbe14aef9	-0.14519872
31	0x3e0737f7	0.13204943
32	0x3dc86d4e	0.09786473
33	0x3df07236	0.11740534
34	0x3d8cb73a	0.06870885
35	0xbca5ae50	-0.02022472
36	0xbe0ac808	-0.13552868
37	0x3dca40c2	0.09875633
38	0x3df9d262	0.121983305
39	0xbe0a3476	-0.13496575

transformer_encoder.encoder.attention.fc.weight f4 [40, 40]
0	0x3dcefc9a	0.10106774
1	0xbcbcb690	-0.023036271
2	0x3dfb4922	0.12269808
3	0xbcc36680	-0.023852587
4	0xbdf34ef2	-0.11880292
5	0x3c277310	0.010220304
6	0xbc0ddda0	-0.008658797
7	0x3e062bd1	0.13102652
8	0xbdb54f96	-0.088530704
9	0xbd2987f8	-0.041389436
10	0x3ce71398	0.028207585
11	0x3d94a21e	0.07257484
12	0xbdb5258e	-0.088450536
13	0xbd91f45b	-0.07126685
14	0xbe0cfae6	-0.13767585
15	0x3cf81de8	0.030287698
16	0xbe0c44d4	-0.13698131
17	0x3cec5080	0.02884698
18	0xbdab5aac	-0.08366904
19	0x3bd10e60	0.0063798875
20	0x3dc6ae92	0.097012654
21	0x3e018167	0.1264702
22	0xbd9d1ec7	-0.07671886
23	0xbe0f4e61	-0.13994743
24	0x3d8d9a98	0.06914252
25	0xbe096fe9	-0.13421597
26	0x3d97e68e	0.07417022
27	0x3de1bdca	0.110225275
28	0xbdb8d026	-0.09024076
29	0xbbb81320	-0.0056175143
30	0x3ce3cff0	0.027809113
31	0x3e154b83	0.14579587
32	0x3dfb9ac2	0.12285377
33	0x3d5bfda4	0.053708687
34	0x3de87036	0.113495275
35	0x3e1c8cf1	0.1528814
36	0x3ded8126	0.11596899
37	0x3e0e397f	0.1388912
38	0xbdbd513c	-0.0924401
39	0x3de50e7a	0.11184402
40	0xbd84818e	-0.06470023
41	0xbd7d87a2	-0.061896928
42	0x3d6f53c0	0.05842948
43	0xbe2136e1	-0.15743591
44	0x3d55341c	0.05205165
45	0xbe14b563	-0.14522319
46	0xbd258426	-0.04040923
47	0xbe1ef5a2	-0.15523389
48	0xbd70cf84	-0.058791652
49	0xbc4e30c0	-0.012584865
50	0xbe1ec420	-0.15504503
51	0x3d0cd590	0.034383357
52	0xbe13ac6d	-0.14421244
53	0x3e0fbbfd	0.14036556
54	0xbd7fd24c	-0.062456414
55	0xbbd9c380	-0.00664562
56	0xbc7f02f0	-0.015564665
57	0xbdcedc0c	-0.10100564
58	0x3d8e7cfe	0.06957434
59	0x3d73d1c8	0.059526235
60	0x3dfcc7ee	0.12342821
61	0x3dd44ee6	0.10366611
62	0xbdb7d2e4	-0.08975771
63	0x3d87ed24	0.06637028
64	0xbce78b50	-0.028264672
65	0x3c7d9430	0.015477225
66	0x3df57e3a	0.119869664
67	0x3deeee6e	0.116665706
68	0x3d8eab68	0.06966287
69	0xbe0751ae	-0.13214752
70	0xbd7a559c	-0.0611168
71	0x3e0236c3	0.12716202
72	0xbe163a91	-0.14670779
73	0xbaafb080	-0.0013404042
74	0xbd97d912	-0.0741445
75	0x3e0f164f	0.13973354
76	0x3d027330	0.031848133
77	0xbd18b798	-0.037284464
78	0x3cd971b8	0.026543483
79	0x3d847e0e	0.064693555
80	0x3df7c50e	0.12098132
81	0xbd73b4d6	-0.05949863
82	0xbdb9c679	-0.09071059
83	0x3d22caa8	0.03974405
84	0x3cb64690	0.022250444
85	0x3d8a11e8	0.067416966
86	0x3d8ef54e	0.06980382
87	0xbd5ac2d4	-0.05340846
88	0xbdefb1d6	-0.117038414
89	0xbcf26fb8	-0.029594287
90	0x3db239fa	0.087024644
91	0x3c145c10	0.009055153
92	0xbdf2ae2d	-0.11849628
93	0x3e0abe81	0.13549234
94	0x3e0cf2d7	0.13764511
95	0x3de04122	0.10949923
96	0x3de6a2de	0.11261533
97	0xbdca9cfe	-0.09893225
98	0xbdde852c	-0.10865244
99	0x3d9c169e	0.076215014
100	0x3d6c4cb0	0.057690322
101	0xbd0e7646	-0.034780763
102	0xbd8b4d16	-0.06801812
103	0x3e1172ef	0.14204
104	0x3deaba16	0.11461274
105	0x3e1b8d8d	0.15190716
106	0xbd7e5c32	-0.062099643
107	0x3d1d9e44	0.038481012
108	0x3d207240	0.039171457
109	0xbd9d649b	-0.076852046
110	0xbdfa18ce	-0.12211762
111	0xbda1f863	-0.07908704
112	0xbd97793e	-0.07396172
113	0x3dda8522	0.10669924
114	0xbd0b4898	-0.034004778
115	0x3e072877	0.1319903
116	0xbe07bc78	-0.13255489
117	0x3b8060c0	0.0039177835
118	0xbd62f0de	-0.05540549
119	0xbc76ffd0	-0.015075639
120	0xbcea4700	-0.028598309
121	0x3df239fa	0.118274644
122	0x3d1e049c	0.038578615
123	0xbe1ccb0c	-0.15311831
124	0xbc810d10	-0.015753299
125	0x3d875a9a	0.06609078
126	0xbd16918a	-0.03675989
127	0xbe1312e2	-0.14362672
128	0x3d33c9b0	0.043893516
129	0xbd999b63	-0.07500341
130	0xbd3e432e	-0.046450786
131	0xbe1a8c50	-0.15092587
132	0xbccba120	-0.024857104
133	0x3da89eb0	0.08233392
134	0xbd921712	-0.071333066
135	0x3d9dcdda	0.07705279
136	0x3d1ce08c	0.038300082
137	0x3e0b89c7	0.13626777
138	0xbe1383d3	-0.14405756
139	0xbe1f3482	-0.15547374
140	0x3d96bff8	0.07360834
141	0x3dd2bb4e	0.10289632
142	0x3dc2ce7e	0.095120415
143	0xbd0c8b2c	-0.034312412
144	0xbd934602	-0.07191087
145	0xbdb8a157	-0.09015148
146	0x3e196bb1	0.14982487
147	0xbd9e94a9	-0.077431984
148	0xbd75bfbc	-0.059997305
149	0x3ce3d4d0	0.027811438
150	0x3cfc1a80	0.030774355
151	0x3daf680c	0.08564767
152	0xbe0163ca	-0.12635723
153	0xbdf3266a	-0.11872561
154	0xbde810c3	-0.11331322
155	0x3e141b73	0.14463596
156	0xbb4c7140	-0.0031195432
157	0xbcf16e68	-0.029471591
158	0xbe10dd3e	-0.14146897
159	0xbddab668	-0.106793225
160	0x3e15f05b	0.1464247
161	0x3ba15a00	0.004924059
162	0x3dc9c156	0.09851329
163	0x3e18d013	0.14923124
164	0xbdb6aff4	-0.08920279
165	0xbc6a7a30	-0.014311358
166	0xbe1eda03	-0.15512852
167	0xbd40faaa	-0.047114052
168	0xbdf5bd28	-0.11998969
169	0xbe0d52c7	-0.13801108
170	0x3e2087f7	0.15676866
171	0x3e200ffb	0.15631096
172	0xbda17afc	-0.078847855
173	0xbe04dc1c	-0.1297459
174	0x3df0381a	0.117294505
175	0xbe0a55d3	-0.13509302
176	0x3c8ae3d0	0.016954333
177	0x3d5ece4c	0.05439596
178	0x3e1bed09	0.1522714
179	0x3e000dc5	0.12505253
180	0x3d8189e0	0.06325126
181	0x3df3789a	0.11888237
182	0xbd719f5c	-0.058989868
183	0xbd62658e	-0.05527263
184	0xbce09e58	-0.027419254
185	0xbe00b01b	-0.12567179
186	0xbd212478	-0.03934142
187	0xbdd9e608	-0.10639578
188	0x3de5eed2	0.11227192
189	0x3e01cbab	0.1267535
190	0xb80ac000	-3.3080578e-05
191	0x3c583a40	0.013197482
192	0xbddc36dc	-0.10752651
193	0x3ddd2d86	0.107996985
194	0xbdaa2226	-0.083072945
195	0xbe1a1d90	-0.1505034
196	0xbd97095b	-0.07374831
197	0x3cdfc4d8	0.027315542
198	0xba3ba600	-0.000715822
199	0xbdd53dbc	-0.104121655
200	0xbe1dc114	-0.15405685
201	0x3dd6374a	0.10459764
202	0xbdfe26f9	-0.12409777
203	0x3da21b02	0.079153076
204	0xbe0b87cb	-0.1362602
205	0xbd946295	-0.072453655
206	0xbe0bede6	-0.1366497
207	0xbe0194d8	-0.12654436
208	0xbd125962	-0.035729773
209	0xbd61ec9e	-0.055157296
210	0xbb9fc540	-0.004875809
211	0x3dd5e6c2	0.10444404
212	0xbe182e99	-0.14861526
213	0xbc091df0	-0.008368954
214	0xbe038235	-0.12842639
215	0xbe06e13a	-0.13171855
216	0x3dc8f186	0.09811692
217	0xbd80ea52	-0.06294693
218	0x3d822680	0.063549995
219	0x3d591ca4	0.05300583
220	0xbcdea930	-0.027180284
221	0xbd85e678	-0.06538099
222	0xbda6e37f	-0.0814886
223	0x3dfa9d82	0.122370735
224	0xbb54a940	-0.0032449514
225	0xbce05b40	-0.027387261
226	0x3d646118	0.05575666
227	0xbdc0a42a	-0.09406312
228	0xbe1955f2	-0.14974192
229	0x3e1107e9	0.14163174
230	0x3da4c942	0.080461994
231	0xbda7f515	-0.082010426
232	0x3ce3cfb0	0.027808994
233	0x3df2e7ea	0.1186064
234	0xbd4a0926	-0.04932513
235	0xbe1ee923	-0.15518622
236	0xbe093f05	-0.13402946
237	0xbdb5297d	-0.08845804
238	0x3d6eedb8	0.058332175
239	0x3bc82da0	0.0061089545
240	0x3dc2c012	0.09509291
241	0x3cb01ef0	0.021499127
242	0xbc9c89c8	-0.019108668
243	0xbdd3bdce	-0.10338937
244	0xbdc3bdf2	-0.095577136
245	0x3d8aee2a	0.067837074
246	0x3e195cdb	0.14976828
247	0xbc8421d0	-0.016129404
248	0xbdca4491	-0.09876359
249	0x3cda8ea0	0.026679337
250	0x3dc7554e	0.097330675
251	0x3dbe137e	0.092810616
252	0x3c8b52f0	0.017007321
253	0xbdb469c2	-0.08809234
254	0xbc62c010	-0.013839737
255	0x3e11edcb	0.14250867

transformer_encoder.encoder.attention.fc.bias f4 [40]
0	0xbddec68d	-0.10877714
1	0xbe0651fd	-0.13117214
2	0x3d89bb9c	0.06725237
3	0x3d68fb90	0.056880534
4	0x3a83af00	0.0010046661
5	0xbd976410	-0.07392132
6	0xbdd2dc1a	-0.10295887
7	0xbc33c660	-0.010972589
8	0xbe0cb3d7	-0.13740478
9	0xbb17cc80	-0.0023162663
10	0xbd841d85	-0.06450943
11	0xbe09925c	-0.13434738
12	0xbddb2de4	-0.10702112
13	0x3cc2ef28	0.02379568
14	0xbd33d104	-0.043900505
15	0x3deeac52	0.11653961
16	0xbc6b2010	-0.014350906
17	0xbba409c0	-0.005006045
18	0x3e1a2795	0.15054162
19	0x3da13d06	0.078729674
20	0x3de773ce	0.11301385
21	0xbc2e2a60	-0.01063022
22	0xbe024c13	-0.12724333
23	0xbe1379ea	-0.14401975
24	0xbe1db71b	-0.1540188
25	0x3e174c0b	0.14775102
26	0x3e124fbb	0.14288227
27	0xbdb6f020	-0.08932519
28	0xbd8c5ed9	-0.06854028
29	0x3b961d60	0.0045811385
30	0xbdf0b74e	-0.117537126
31	0x3d02f94c	0.03197603
32	0x3d0e95f8	0.03481099
33	0x3df89016	0.12136857
34	0xbe09a4f9	-0.13441838
35	0xbce9e788	-0.028552786
36	0x3d6bad30	0.05753821
37	0xbe072686	-0.1319829
38	0x3dcf2d7a	0.10116096
39	0x3b73a940	0.0037179738

transformer_encoder.encoder.attention.layer_norm.weight f4 [40]
0	0x3f800000	1.0
1	0x3f800000	1.0
2	0x3f800000	1.0
3	0x3f800000	1.0
4	0x3f800000	1.0
5	0x3f800000	1.0
6	0x3f800000	1.0
7	0x3f800000	1.0
8	0x3f800000	1.0
9	0x3f800000	1.0
10	0x3f800000	1.0
11	0x3f800000	1.0
12	0x3f800000	1.0
13	0x3f800000	1.0
14	0x3f800000	1.0
15	0x3f800000	1.0
16	0x3f800000	1.0
17	0x3f800000	1.0
18	0x3f800000	1.0
19	0x3f800000	1.0
20	0x3f800000	1.0
21	0x3f800000	1.0
22	0x3f800000	1.0
23	0x3f800000	1.0
24	0x3f800000	1.0
25	0x3f800000	1.0
26	0x3f800000	1.0
27	0x3f800000	1.0
28	0x3f800000	1.0
29	0x3f800000	1.0
30	0x3f800000	1.0
31	0x3f800000	1.0
32	0x3f800000	1.0
33	0x3f800000	1.0
34	0x3f800000	1.0
35	0x3f800000	1.0
36	0x3f800000	1.0
37	0x3f800000	1.0
38	0x3f800000	1.0
39	0x3f800000	1.0

transformer_encoder.encoder.attention.layer_norm.bias f4 [40]
0	0x00000000	0.0
1	0x00000000	0.0
2	0x00000000	0.0
3	0x00000000	0.0
4	0x00000000	0.0
5	0x00000000	0.0
6	0x00000000	0.0
7	0x00000000	0.0
8	0x00000000	0.0
9	0x00000000	0.0
10	0x00000000	0.0
11	0x00000000	0.0
12	0x00000000	0.0
13	0x00000000	0.0
14	0x00000000	0.0
15	0x00000000	0.0
16	0x00000000	0.0
17	0x00000000	0.0
18	0x00000000	0.0
19	0x00000000	0.0
20	0x00000000	0.0
21	0x00000000	0.0
22	0x00000000	0.0
23	0x00000000	0.0
24	0x00000000	0.0
25	0x00000000	0.0
26	0x00000000	0.0
27	0x00000000	0.0
28	0x00000000	0.0
29	0x00000000	0.0
30	0x00000000	0.0
31	0x00000000	0.0
32	0x00000000	0.0
33	0x00000000	0.0
34	0x00000000	0.0
35	0x00000000	0.0
36	0x00000000	0.0
37	0x00000000	0.0
38	0x00000000	0.0
39	0x00000000	0.0

transformer_encoder.encoder.feed_forward.fc1.weight f4 [256, 40]
0	0xbcde48b8	-0.027134284
1	0xbd82eefd	-0.0639324
2	0x3dbf684a	0.093460634
3	0x3dbc0ee2	0.09182526
4	0xbdabf13a	-0.0839562
5	0x3d6c2da0	0.0576607
6	0x3e0a39a5	0.13498552
7	0x3dfb82b2	0.122807875
8	0xbc9b87b8	-0.018985614
9	0xbc2651b0	-0.010151312
10	0x3e11d1ef	0.1424024
11	0xbcc859b0	-0.024456829
12	0xbe0d8771	-0.13821198
13	0xbcf2d8e0	-0.02964443
14	0xbcd8d800	-0.026470184
15	0xbe0c590f	-0.13705848
16	0xbdd97380	-0.10617733
17	0x3e19959f	0.14998482
18	0x3e036313	0.12830763
19	0xbd9a3ab5	-0.07530729
20	0xbdb2b170	-0.0872525
21	0xbd30fc72	-0.0432095
22	0x3d9b7dd0	0.07592356
23	0xbdf79ef6	-0.12090866
24	0x3d0438f4	0.032280877
25	0x3c971e00	0.018446922
26	0x3dd98bb6	0.10622351
27	0x3d5106f0	0.051032007
28	0xbe0e890f	-0.13919471
29	0x3d32e500	0.043675423
30	0xbd75531c	-0.059893712
31	0x3e025269	0.1272675
32	0xbd87b03a	-0.066254094
33	0x3dcb0ea6	0.09914903
34	0x3d3e8120	0.046509862
35	0xbe08c802	-0.13357547
36	0x3c6a8ef0	0.0143163055
37	0x3bdf4660	0.0068138093
38	0xbc9cc748	-0.019137993
39	0x3de5714e	0.11203252
40	0x3dadc932	0.084856406
41	0x3dc972c2	0.098363414
42	0xbd1b5928	-0.037926823
43	0x3e1d28c9	0.1534759
44	0x3e0522bd	0.13001533
45	0x3de6de0e	0.11272822
46	0xbd7a09d0	-0.061044514
47	0x3d49a558	0.04922995
48	0x3d6e91c4	0.05824448
49	0xbe0beedd	-0.13665338
50	0xbdf2d83c	-0.1185765
51	0xbd433be0	-0.047664523
52	0xbc8d1ec8	-0.017226592
53	0xbdf04c39	-0.11733288
54	0xbc3fd210	-0.011707798
55	0x3e093eb3	0.13402824
56	0x3e1fb35f	0.15595768
57	0x3df43e9a	0.11926003
58	0xbdff3c0a	-0.124626234
59	0x3d9dcac4	0.0770469
60	0xbda31482	-0.07962896
61	0xbe13b2f9	-0.14423741
62	0xbdde7f5e	-0.10864137
63	0x3da2f10a	0.07956131
64	0x3dd02fc2	0.10165359
65	0xbdf67094	-0.12033191
66	0x3e108bd5	0.14115842
67	0xbd37f4a4	-0.04491104
68	0x3dfc9666	0.12333374
69	0x3ddaf53a	0.106913045
70	0xbd85f0cb	-0.06540068
71	0x3e080889	0.13284506
72	0xbe124e33	-0.14287643
73	0x3e05ee99	0.13079299
74	0x3d10575c	0.035239562
75	0x3d441058	0.04786715
76	0x3d73cefc	0.059523568
77	0xbc147400	-0.00906086
78	0x3dc24196	0.09485166
79	0x3c52f3a0	0.012875468
80	0x3d4a9828	0.049461514
81	0x3d0aceb0	0.03388852
82	0xbc302940	-0.010752022
83	0x3d34a048	0.04409817
84	0xbd1c9dd4	-0.038236454
85	0xbc5bc500	-0.013413668
86	0xbd93b003	-0.07211306
87	0x3df78a5e	0.12086938
88	0xbdf8931e	-0.121374354
89	0x3d78c058	0.06073031
90	0xbe0fa2c8	-0.1402694
91	0xbe17b5bf	-0.14815424
92	0xbd9ab0b5	-0.075532354
93	0x3e1826b7	0.14858519
94	0x3e1052d1	0.14094092
95	0x3e03000d	0.12792988
96	0xbd034db4	-0.032056525
97	0xbd993c0b	-0.074821554
98	0xbcf77630	-0.030207723
99	0x3d1d2cd4	0.03837283
100	0xbd5a66d8	-0.053320736
101	0x3d947ea6	0.07250719
102	0x3d9788f6	0.0739917
103	0xbd998b9b	-0.07497331
104	0xbdfe5148	-0.12417847
105	0x3e0a0a31	0.1348045
106	0x3c578740	0.013154805
107	0xbe1abd93	-0.1511138
108	0xbde10685	-0.109875716
109	0x3ce34518	0.027742907
110	0xbe114a2a	-0.14188448
111	0x3de0e65a	0.10981436
112	0xb99e3e00	-0.00030182302
113	0x3cf8bbc8	0.030362979
114	0x3e091f37	0.13390814
115	0x3e1410f3	0.1445959
116	0xbdb7a93a	-0.08967824
117	0x3e005c4f	0.12535213
118	0x3d95d9dc	0.07316944
119	0xbd6797ec	-0.05654137
120	0x3d649afc	0.055811867
121	0xbe026428	-0.12733519
122	0xbc138110	-0.009002939
123	0xbbd9b260	-0.0066435784
124	0x3e09b85b	0.13449232
125	0xbe1b7684	-0.15181929
126	0x3e18bf07	0.14916621
127	0xbdb2ed0c	-0.08736619
128	0x3e10bd31	0.14134671
129	0x3ddb98b6	0.10722487
130	0xbe069d08	-0.1314584
131	0xbc958598	-0.018252179
132	0xbd623f96	-0.05523642
133	0x3bf95f40	0.0076102316
134	0x3e0dbc93	0.13841467
135	0x3dac8126	0.084230706
136	0xbd4579de	-0.048211925
137	0x3cbe55e8	0.023234323
138	0xbd1f28a0	-0.038857102
139	0x3c5986d0	0.013276771
140	0xbd05e1b0	-0.032685935
141	0xbda69a4d	-0.08134899
142	0x3df7322e	0.12070118
143	0x3dc0c45a	0.09412451
144	0xbd9767c8	-0.073928416
145	0x3cb88cf0	0.022528142
146	0xbdc3d9b4	-0.09563008
147	0x3d9f8d90	0.07790673
148	0x3d0f73d8	0.035022587
149	0x3d83e17a	0.064394906
150	0xbdb7b59c	-0.08970186
151	0x3d8af2e8	0.06784612
152	0xbdfad8ba	-0.122483686
153	0x3cbf7990	0.023373395
154	0xbe0c4e14	-0.1370166
155	0xbd371f06	-0.04470732
156	0xbe1c4de8	-0.15264094
157	0xbbd216a0	-0.0064113885
158	0x3d761304	0.06007673
159	0xbd3b35d6	-0.04570564
160	0x3dcea5d2	0.100902215
161	0xbe199982	-0.14999965
162	0x3d921a3c	0.0713391
163	0xbdc69a45	-0.09697393
164	0xbcde1ef0	-0.027114362
165	0x3e200b09	0.1562921
166	0xbd879b35	-0.066214
167	0x3d032824	0.032020703
168	0xbe1082ae	-0.1411235
169	0xbb391a00	-0.0028244257
170	0xbe0dcc9f	-0.13847588
171	0x3d5a6f88	0.05332902
172	0xbe14eddf	-0.14543866
173	0xbdc215a1	-0.09476782
174	0xbdec2a82	-0.11531545
175	0x3d822f10	0.06356633
176	0x3e0fe85b	0.1405348
177	0xbd86c663	-0.06580808
178	0xbdb8ab73	-0.09017076
179	0xbdbbbcf3	-0.091668986
180	0x3e02c263	0.12769465
181	0x3db9cc8a	0.09072216
182	0xbce92848	-0.02846159
183	0xbd3bc544	-0.045842424
184	0xbd4f5a96	-0.0506235
185	0xbd1ac812	-0.03778846
186	0xbdd1c37f	-0.10242366
187	0xbdf2c9ce	-0.118548974
188	0xbd8eb557	-0.069681816
189	0x3df46726	0.119337365
190	0x3e1f4ba7	0.15556203
191	0xbcef4908	-0.029209629
192	0xbb80dc20	-0.003932491
193	0xbd1d9042	-0.038467653
194	0xbd3d58ee	-0.046227388
195	0xbd1ec0f6	-0.03875824
196	0xbe1823be	-0.14857385
197	0x3d7a5a5c	0.06112133
198	0x3e1eab57	0.15495048
199	0xbe0c92d3	-0.13727884
200	0xbd8244fc	-0.06360814
201	0xbc7c6a00	-0.015406132
202	0xbdfb883c	-0.12281844
203	0x3da0f792	0.0785972
204	0xbdb24f10	-0.08706486
205	0xbe1d949c	-0.15388721
206	0x3e001169	0.12506641
207	0xbe17fce7	-0.14842568
208	0xbd4d5b1c	-0.050135717
209	0x3d4f152c	0.0505573
210	0xbcbeeb90	-0.023305684
211	0xbd8383be	-0.06421612
212	0xbd989733	-0.07450714
213	0xbd6a0338	-0.057131976
214	0x3d209444	0.039203897
215	0x3e1dee69	0.15422978
216	0x3e0f54dd	0.13997217
217	0xbd944185	-0.07239059
218	0x3dc40bfa	0.09572597
219	0xbd02a4c0	-0.0318954
220	0xbcbaf6f8	-0.022822842
221	0xbcfaf060	-0.030632198
222	0xbc3aaa20	-0.0113931
223	0xbce6d7a8	-0.028179005
224	0x3e0fd52f	0.14046167
225	0xbde47c9a	-0.11156578
226	0xbdda8d24	-0.10671452
227	0xbd2b6860	-0.041847587
228	0x3e126abb	0.14298527
229	0xbdab9070	-0.08377159
230	0x3debb39e	0.11508869
231	0xbd5298e6	-0.051415347
232	0xbce67020	-0.028129637
233	0xbdfa69c8	-0.122272074
234	0xbd08909a	-0.033341028
235	0xbe0a1043	-0.13482766
236	0x3d98eb9a	0.074668124
237	0x3e160ac5	0.14652546
238	0x3dd94fca	0.10610922
239	0x3d935faa	0.07195981
240	0xbd9a9887	-0.075486235
241	0x3cc654b0	0.024210304
242	0xbdd2ffcb	-0.10302695
243	0xbd96a7ac	-0.073561996
244	0x3cc6bcf0	0.024260014
245	0x3dc44f1a	0.095854
246	0x3da57900	0.080797195
247	0xbe12c87c	-0.14334291
248	0xbd529f30	-0.051421344
249	0xbe0bd53d	-0.13655563
250	0x3cf11d60	0.029432952
251	0x3dfdc36e	0.12390791
252	0xbe045f21	-0.12926914
253	0xbdc74841	-0.09730578
254	0xbdca99b1	-0.098925956
255	0xbd2c1444	-0.042011514

transformer_encoder.encoder.feed_forward.fc1.bias f4 [256]
0	0xbad7f600	-0.0016476512
1	0x3d75724c	0.059923455
2	0x3da050d6	0.07827918
3	0xbda7ae36	-0.08187525
4	0xbcd2bb10	-0.025723964
5	0x3dbd7366	0.09250526
6	0xbc625ed0	-0.01381655
7	0x3e128815	0.14309724
8	0xbe03844d	-0.12843437
9	0x3d0f8978	0.03504321
10	0x3ca48790	0.020084172
11	0x3d39b7b8	0.045341223
12	0xbce90dd0	-0.02844897
13	0xbc8ed2b8	-0.017434463
14	0x3d21ccb4	0.03950186
15	0xbd833a7f	-0.064076416
16	0xbd4914aa	-0.049091972
17	0x3ca810b0	0.02051577
18	0xbdb871f7	-0.09006112
19	0x3d869f34	0.06573334
20	0x3dcf1322	0.10111071
21	0x3e1deb93	0.15421896
22	0x3ddb7206	0.107151076
23	0xbdf12d86	-0.11776261
24	0x3e1305cd	0.14357682
25	0xbe1df9ee	-0.15427372
26	0xbdd01578	-0.10160345
27	0x3e114fd5	0.1419061
28	0x3d50d104	0.050980583
29	0xbd3f9650	-0.04677421
30	0xbd9f412e	-0.07776104
31	0xbe09045e	-0.13380572
32	0x3e1676e3	0.14693789
33	0xbc838c60	-0.016058147
34	0xbe0ff578	-0.14058483
35	0x3c33fdb0	0.010985777
36	0xbdea9baa	-0.11455472
37	0x3de720ae	0.1128553
38	0x3dbd347e	0.09238528
39	0xbe17adbb	-0.14812367
40	0x3e03617d	0.12830158
41	0x3c30bd00	0.010787249
42	0xbcf53760	-0.029933631
43	0x3c2f48a0	0.0106984675
44	0xbdda9f32	-0.10674895
45	0xbdd876c6	-0.10569529
46	0xbd4a607c	-0.04940842
47	0xbb032740	-0.0020012408
48	0xbd46a93c	-0.04850124
49	0x3d85e390	0.06537545
50	0x3e1747cb	0.1477348
51	0xbad93780	-0.0016572326
52	0xbde3a01a	-0.11114521
53	0x3cddde18	0.027083442
54	0x3dfc91c2	0.123324886
55	0xbda354f8	-0.07975191
56	0xbdec2242	-0.11529972
57	0xbe129e4e	-0.14318201
58	0x3ddbe176	0.10736363
59	0x3d6d44bc	0.05792688
60	0x3e00541d	0.12532087
61	0xbdeaee0e	-0.114711866
62	0x3d88ea3e	0.06685303
63	0xbd3f3bee	-0.046688013
64	0x3e1413c9	0.14460672
65	0x3e148501	0.14503862
66	0x3d7c2edc	0.061568126
67	0x3ccb9730	0.024852365
68	0x3cd78b08	0.026311412
69	0xbe110a68	-0.14164126
70	0xbc05c250	-0.0081640035
71	0x3cb394e8	0.02192159
72	0x3dd84fee	0.105621204
73	0x3c0f6030	0.00875096
74	0xbe1b8aaf	-0.15189622
75	0x3df68d8a	0.12038715
76	0x3df8733e	0.12131356
77	0x3c83fe68	0.016112521
78	0xbd1f51ac	-0.038896248
79	0x3d7463f0	0.05966562
80	0xbdf2109e	-0.11819576
81	0x3c69f920	0.014280587
82	0xbbe89e00	-0.007098913
83	0xbda8f74e	-0.082502946
84	0x3df704b6	0.120614454
85	0xbd492372	-0.04910607
86	0xbcc17fa8	-0.023620442
87	0xbcf2a0f8	-0.029617772
88	0xbda0bf0c	-0.07848939
89	0xbd5f2558	-0.054478973
90	0x3d88bfc4	0.066772014
91	0x3e19962f	0.14998697
92	0x3dc5c5be	0.09656857
93	0x3dede912	0.1161672
94	0x3bbb38a0	0.0057135373
95	0xbdca83d0	-0.098884225
96	0x3dd55efa	0.10418506
97	0xbdf1e166	-0.118105695
98	0xbd18a962	-0.03727091
99	0x3e201717	0.15633808
100	0x3dfa6d0e	0.12227832
101	0x3e1162ef	0.14197896
102	0x3dca0fc2	0.09866287
103	0x3d12d854	0.035850838
104	0xbdd4ce4a	-0.10390909
105	0x3d03bec8	0.032164365
106	0x3d829646	0.06376319
107	0x3da4200e	0.080139264
108	0xbe1c4fc1	-0.15264799
109	0x3cade1d0	0.02122584
110	0x3cec9088	0.028877512
111	0xbb351440	-0.0027630478
112	0x3d8c9014	0.06863418
113	0xbe158015	-0.1459964
114	0xbe13d0c0	-0.144351
115	0xbcab1a60	-0.0208866
116	0x3dcd6256	0.10028522
117	0xbd9bb539	-0.07602925
118	0x3dd02396	0.101630375
119	0xbe183aff	-0.14866255
120	0xbc17abe0	-0.009257287
121	0x3e0a77f5	0.13522322
122	0xbe1b1eaf	-0.15148424
123	0x3d35319c	0.044236764
124	0xbb9e81c0	-0.0048372447
125	0xbd92e622	-0.071728006
126	0x3c967498	0.018366143
127	0x3dc9813e	0.09839104
128	0x3dae9a16	0.08525483
129	0x3bbc1700	0.0057400465
130	0x3cd7d858	0.026348278
131	0xbe0a4b45	-0.13505276
132	0xbd0dd9a8	-0.0346314
133	0xbdaf5211	-0.08560575
134	0xbe1b848d	-0.15187283
135	0x3e03f7cd	0.12887497
136	0xbe04311c	-0.12909359
137	0x3dc73fde	0.097289786
138	0xba858500	-0.0010186732
139	0xbd869da7	-0.065730385
140	0xbd6e684c	-0.058204934
141	0x3dd6d636	0.10490076
142	0x3d93bb5a	0.07213469
143	0xbd6e82c8	-0.05823019
144	0xbcb1ee30	-0.021720022
145	0x3dd59e8e	0.104306325
146	0xbc7a14b0	-0.015263721
147	0xbde84f0a	-0.113432005
148	0x3ca9a130	0.020706743
149	0xbdb3f896	-0.087876484
150	0x3d48e480	0.04904604
151	0x3d2aabb4	0.041667655
152	0x3e1135bd	0.14180656
153	0x3c8578b0	0.0162929
154	0xb9d28800	-0.0004015565
155	0x3d1db53c	0.038502917
156	0x3d8bf186	0.06833176
157	0xbd62abcc	-0.05533962
158	0x3d9700f0	0.07373226
159	0x3d2fd150	0.042924225
160	0xbcd0c408	-0.0254841
161	0xbd7c9ba6	-0.061671875
162	0xbdb7169b	-0.089398585
163	0x3d81fcaa	0.0634702
164	0x3e1bce65	0.15215452
165	0x3e0b0f75	0.13580115
166	0x3d6d6dd8	0.057966083
167	0x3da1dc7e	0.07903384
168	0x3d2a1934	0.04152794
169	0xbcc0b680	-0.023524523
170	0x3d47168c	0.048605487
171	0x3e11bf4d	0.14233132
172	0xbd7dce22	-0.06196416
173	0x3dc761b2	0.09735431
174	0x3d080034	0.03320332
175	0x3d794284	0.06085445
176	0xbda085d1	-0.078380235
177	0x3caf1ae0	0.02137512
178	0x3c0391d0	0.00803037
179	0xbe0f03a2	-0.1396623
180	0xbd56e56a	-0.05246488
181	0x3df392da	0.11893244
182	0x3d809360	0.062781096
183	0xbde1006e	-0.1098641
184	0x3defb75e	0.117048964
185	0x3e085e89	0.13317312
186	0xbc0f7900	-0.008756876
187	0x3c583d00	0.013198137
188	0xbcd7daa8	-0.02634938
189	0x3e006b2b	0.12540881
190	0xbd17062a	-0.036871113
191	0xbd97d6fc	-0.07414052
192	0x3df55fd6	0.1198117
193	0x3d84bc1e	0.06481193
194	0x3dc146aa	0.09437306
195	0xbe0476cf	-0.12935947
196	0xbe01f88d	-0.12692471
197	0x3dd97296	0.10617559
198	0xb87d2000	-6.0349703e-05
199	0x3c37d3f0	0.011219963
200	0x3e16a129	0.14709915
201	0xbd38e054	-0.04513581
202	0xbd668912	-0.056283064
203	0xbd1d7e44	-0.038450494
204	0x3dbf35f6	0.09336464
205	0xbe092d3f	-0.13396166
206	0xbc5db060	-0.013530821
207	0x3de1f4aa	0.11032994
208	0x3d8280c8	0.06372219
209	0xbd31b038	-0.043380946
210	0x3cba3250	0.022729069
211	0xbdf873e4	-0.121314794
212	0xbc8f4170	-0.017487258
213	0x3d5c75dc	0.053823337
214	0x3db501ba	0.0883822
215	0x3d95c044	0.073120624
216	0x3d131c98	0.03591594
217	0x3d1de7d8	0.03855118
218	0xbd6746f2	-0.056464143
219	0x3c8055b8	0.015665874
220	0x3d2f10a8	0.042740494
221	0x3cfce490	0.030870706
222	0xbdf618fb	-0.120164834
223	0xbdf0cdb5	-0.117579855
224	0xbd412b44	-0.047160402
225	0x3d61ec20	0.055156827
226	0x3cd6cd50	0.026220948
227	0x3d4e5a48	0.050379068
228	0xbe108106	-0.14111719
229	0xbc5619d0	-0.013067678
230	0x3db52b14	0.08846107
231	0x3ce5e4c8	0.028063193
232	0x3da19bc6	0.078910396
233	0xbe0431f8	-0.12909687
234	0x3de5616a	0.11200221
235	0xbd4ebe6e	-0.050474577
236	0x3db8f132	0.09030379
237	0xbdca090a	-0.09865005
238	0xbcf4e508	-0.029894367
239	0x3cac3898	0.02102308
240	0xbdd93eb3	-0.10607662
241	0xbc952998	-0.01820831
242	0xbe0868e5	-0.13321264
243	0xbd1329b2	-0.035928436
244	0x3d466330	0.048434436
245	0xbdacfe00	-0.08446884
246	0xbd0d3766	-0.03447666
247	0xbe0976e7	-0.13424264
248	0x3dd80182	0.105471626
249	0xbd084876	-0.03327223
250	0xbda315f8	-0.079631746
251	0xbe15d425	-0.14631708
252	0xbd224756	-0.039618813
253	0x3e03c7d3	0.12869196
254	0xbda8dfbc	-0.08245799
255	0xbdc4b164	-0.09604147
