simple2transformer/param/net_param/Mk10_75_50_actor_net.model (torch, 233919 bytes, 34 tensors)

transformer_encoder.encoder.attention.fc_Q.weight f4 [40, 40]
0	0x3deb2b26	0.11482839
1	0xbe0625e8	-0.13100398
2	0xbdfe9017	-0.12429827
3	0x3cc0b960	0.023525894
4	0x3e1cd35d	0.15315004
5	0xbdf99c16	-0.12187974
6	0xbdef36c0	-0.116803646
7	0x3cc9e2f8	0.02464436
8	0xbdee53bb	-0.11637064
9	0x3ce2d7f0	0.027690858
10	0xbe125dfc	-0.14293665
11	0xbca8f8b0	-0.020626396
12	0x3c994348	0.01870884
13	0xbd14b866	-0.03630867
14	0x3e022049	0.12707628
15	0xbafd4f80	-0.0019326061
16	0x3cf55248	0.029946461
17	0xbd544b74	-0.05182977
18	0xbd6e3fb8	-0.058166236
19	0x3cd1db18	0.025617167
20	0x3e09c44b	0.13453786
21	0xbc88bef8	-0.016692623
22	0xbdb64e89	-0.08901698
23	0xbddf81d8	-0.109134376
24	0xbd4b2a14	-0.049600676
25	0xbdfa0d3e	-0.12209557
26	0xbc471810	-0.012151733
27	0x3e1cb80d	0.15304585
28	0xbe08e097	-0.13366924
29	0xbd310f7a	-0.04322765
30	0x3d50d49c	0.05098401
31	0x3da802f0	0.08203685
32	0x3d609138	0.05482599
33	0xbd273196	-0.040818773
34	0xbe0082b2	-0.12549856
35	0xbe20f0a7	-0.15716802
36	0x3e14c05b	0.14526503
37	0x3def4b62	0.116843
38	0xbe032639	-0.1280755
39	0xbdafc04b	-0.08581599
40	0xbe205ed3	-0.15661173
41	0x3e1073c1	0.14106657
42	0x3dcd4b6e	0.10024153
43	0x3e167f75	0.14697058
44	0x3c97ddf0	0.018538445
45	0xbdfec6f0	-0.12440288
46	0xbc27fe90	-0.0102535635
47	0xbda5dbc9	-0.08098561
48	0xbdbcb405	-0.092140235
49	0x3dea5602	0.11442186
50	0xbe0a0978	-0.13480175
51	0xbdcd90a1	-0.100373514
52	0x3d8de894	0.069291264
53	0xbe1144b6	-0.14186367
54	0x38d91800	0.00010351837
55	0xbda7f2a0	-0.08200574
56	0xbd037bc8	-0.03210047
57	0x3dbf987a	0.093552545
58	0x3dbb34da	0.0914094
59	0x3e12b149	0.14325441
60	0x3c9995e0	0.018748224
61	0xbd27faec	-0.041010782
62	0xbd9336b8	-0.07188171
63	0x3d9b0a72	0.07570352
64	0xbd45946e	-0.048237257
65	0x3df2f25a	0.11862631
66	0xbde2e632	-0.110790625
67	0x3e1d0263	0.15332942
68	0xbd15498c	-0.036447093
69	0xbdc05e6d	-0.0939301
70	0xbda44a8a	-0.0802203
71	0xbceac260	-0.028657138
72	0x3d516824	0.051124707
73	0x3d670e64	0.05641021
74	0xbdd07169	-0.10177881
75	0xbe097e3c	-0.13427061
76	0xbbfc3ee0	-0.007697925
77	0x3d901cda	0.07036753
78	0x3d26399c	0.040582284
79	0x3de358c2	0.111009136
80	0xbd87c972	-0.066302195
81	0xbdeab596	-0.11460416
82	0x3b56e2c0	0.0032788962
83	0x3e1f5627	0.15560208
84	0x3d5835b8	0.052785605
85	0x3ba42fc0	0.005010575
86	0x3dcba622	0.09943797
87	0xbcd47630	-0.025935262
88	0x3e0962df	0.13416623
89	0x3d48c6f8	0.049017876
90	0xbdaaeffc	-0.08346555
91	0x3db4b956	0.088244125
92	0x3c01ed10	0.007930055
93	0x3dfece06	0.124416396
94	0x3e127633	0.14302902
95	0x3dce53f6	0.10074608
96	0xbd5f71ee	-0.05455201
97	0x3e0e5e87	0.13903247
98	0xbd59d794	-0.053184107
99	0x3d987ec0	0.07446051
100	0xbce0e4e8	-0.027452901
101	0xbe0f6b5c	-0.14005798
102	0x3d8f88de	0.07008527
103	0x3da1b50a	0.078958586
104	0xbd563138	-0.052293032
105	0xbd356482	-0.044285305
106	0x3ca35bd8	0.019941255
107	0xbda78f59	-0.08181638
108	0x3cea4ee8	0.028602079
109	0xbe0798da	-0.13241902
110	0x3d3bca40	0.045847178
111	0x3af8ea00	0.0018990636
112	0x3df3f4a6	0.11911897
113	0xbdf3b2ce	-0.11899339
114	0x3cbde490	0.023180276
115	0x3de427f2	0.111404315
116	0xbdbe6b22	-0.09297778
117	0xbdb28706	-0.0871716
118	0xbdbead43	-0.09310391
119	0xbde74a22	-0.112934366
120	0xbdf368e8	-0.11885244
121	0x3ca55ff0	0.020187348
122	0x3dc950ee	0.09829889
123	0xbcaee440	-0.021349072
124	0xbd7d83d2	-0.06189329
125	0xbd032d38	-0.032025546
126	0x3d92333c	0.071386784
127	0x3d985e3e	0.0743985
128	0x3e0964f7	0.13417421
129	0xbd8fd278	-0.070225656
130	0xbbb9d0c0	-0.005670637
131	0xbdbaa125	-0.09112767
132	0x3e097dc7	0.13426886
133	0x3e1594e7	0.14607583
134	0x3db0c6c8	0.086316645
135	0xbd52208e	-0.051300578
136	0x3e098a5f	0.1343169
137	0xbd25c110	-0.040467322
138	0x3d96554e	0.07340489
139	0xbd983c2d	-0.074333526
140	0xbdd5802f	-0.1042484
141	0x3df8c1d2	0.12146343
142	0xbc707b70	-0.014677867
143	0xbe02db28	-0.12778914
144	0xbbd64e60	-0.0065401047
145	0xbcbc4be8	-0.022985414
146	0xbe1e3874	-0.15451223
147	0x3e07333b	0.13203137
148	0x3deac5c2	0.114635006
149	0x3d45678c	0.048194453
150	0xbdd5a87e	-0.10432528
151	0xbde5031b	-0.11182233
152	0xbdf5f838	-0.120102346
153	0x3d925f1c	0.07147047
154	0x3b3c1700	0.0028700233
155	0xbd69e494	-0.057102755
156	0x3b6f9ac0	0.0036560744
157	0xbc1f31a0	-0.009716421
158	0x3c19a780	0.009378314
159	0xbd68ba7a	-0.056818463
160	0xbdf4ea7a	-0.11958785
161	0xbdef2830	-0.11677587
162	0x3dca6882	0.098832145
163	0xbc389720	-0.0112665
164	0xbe121d80	-0.14269066
165	0x3df91a02	0.12163164
166	0xbc2b1a00	-0.010443211
167	0xbd159752	-0.036521263
168	0x3e14fbaf	0.14549135
169	0x3e203e29	0.15648712
170	0x3ca2f708	0.019893184
171	0x3de13082	0.1099558
172	0x3d6258b8	0.05526039
173	0xbd8a214f	-0.06744634
174	0xbdb8a724	-0.090162545
175	0xbe0897c5	-0.13339145
176	0x3dc476c6	0.09592967
177	0xbdd0a7f3	-0.10188284
178	0xbdc1f3cd	-0.094703294
179	0x3dd1991a	0.1023428
180	0xbd54e368	-0.051974684
181	0x3dfcea66	0.123493955
182	0xbd1d5964	-0.038415328
183	0xbde1be26	-0.11022596
184	0xbd59e3f8	-0.053195924
185	0xbe1874e8	-0.14888346
186	0x3df977da	0.12181063
187	0xbd0996e0	-0.03359115
188	0xbcd7f0e0	-0.026359975
189	0xbdd48120	-0.10376191
190	0xbd97b873	-0.07408228
191	0x3d9874a2	0.07444121
192	0x3e058011	0.13037135
193	0xbcbc6208	-0.022995964
194	0x3dec0d5a	0.11525984
195	0x3e13f68d	0.1444952
196	0x3e11668d	0.14199276
197	0xbd908e98	-0.070584476
198	0xbb57b9c0	-0.0032917112
199	0x3db76fac	0.089568466
200	0x3bc25120	0.005930081
201	0x3e132385	0.14369018
202	0xbdd2fbf3	-0.10301962
203	0x3e15da8d	0.14634152
204	0xbcfaba48	-0.030606404
205	0xbdd946fb	-0.106092416
206	0x3e07b84d	0.13253899
207	0x3dfe06fa	0.124036744
208	0x3c5fb560	0.013654083
209	0x3d48b778	0.049003094
210	0xbdac60df	-0.08416914
211	0x3e054b01	0.13016893
212	0x3d2501c4	0.040284887
213	0xbdc80f2c	-0.09768519
214	0xbcc11230	-0.023568243
215	0xbdbc3580	-0.09189892
216	0xbdb027c0	-0.08601332
217	0xbdbf1113	-0.093294285
218	0x3e015f03	0.126339
219	0x3d49db9c	0.0492817
220	0x3dbedb16	0.09319131
221	0xbdd007ae	-0.10157715
222	0x3e0334ed	0.12813158
223	0xbd5ec99e	-0.054391496
224	0x3d433a28	0.047662884
225	0x3d8a3d42	0.06749965
226	0xbd847aa1	-0.06468702
227	0xbbbd7260	-0.005781457
228	0xbe1959e0	-0.14975691
229	0x3d967caa	0.073479965
230	0x3d349cf4	0.044094995
231	0xbdb75406	-0.08951573
232	0x3cb14228	0.021637991
233	0xbe1a09b0	-0.15042758
234	0x3da9bb8a	0.08287723
235	0xbd5e5a66	-0.05428543
236	0xbe216fe5	-0.1576534
237	0x3dc122ba	0.09430452
238	0x3c0f60a0	0.008751065
239	0x3db27ac0	0.08714819
240	0x3caa8c58	0.020818874
241	0xbda7163e	-0.08158539
242	0xbd8d876c	-0.06910595
243	0xbda3347d	-0.07968996
244	0xbd6c7008	-0.05772403
245	0x3e1bcfe5	0.15216024
246	0x3ca56b70	0.020192832
247	0x3dc62856	0.09675662
248	0x3c7c7fc0	0.015411317
249	0x3e1cf70f	0.1532862
250	0x3db71832	0.08940162
251	0x3ddd4546	0.108042285
252	0xbda0d03b	-0.07852217
253	0x3d311ee0	0.043242335
254	0xbd6a6688	-0.057226688
255	0x3bfa8b40	0.0076459944

transformer_encoder.encoder.attention.fc_Q.bias f4 [40]
0	0xbd714638	-0.058904856
1	0xbe090b66	-0.13383254
2	0x3ceb6030	0.02873239
3	0xbcf538a0	-0.029934227
4	0x3dda6e16	0.106655285
5	0xbaed7e00	-0.0018119216
6	0xbddc57f5	-0.10758964
7	0x3d323a0c	0.04351239
8	0xbc3b9cf0	-0.011450991
9	0xbdbec66c	-0.0931519
10	0x3b745540	0.0037282258
11	0xbdaf3b45	-0.08556227
12	0xbdfc41fa	-0.123172715
13	0x3d4b768c	0.049673602
14	0x3d8ec0aa	0.069703415
15	0xbe0e2d73	-0.13884525
16	0x3d893014	0.06698623
17	0x3d8bf042	0.06832935
18	0x3e1e2c75	0.15446647
19	0x3e18ad75	0.14909919
20	0xbdd687a6	-0.10475092
21	0xbe0a7290	-0.13520265
22	0x3caecb68	0.021337226
23	0xbdeb5a3e	-0.11491822
24	0xbe1b2d84	-0.15154082
25	0xbcded5c0	-0.027201533
26	0x3e125e21	0.1429372
27	0xbbf20480	-0.0073857903
28	0x3d17503c	0.03694175
29	0xbcafb528	-0.021448687
30	0x3db0be6e	0.086300716
31	0x3d139de8	0.036039263
32	0xbca33fd8	-0.019927904
33	0x3e1011ef	0.14069341
34	0xbdec9808	-0.11552435
35	0xbe01f719	-0.12691917
36	0xbd88887f	-0.066666596
37	0x3ccf6518	0.02531676
38	0xbe17b6d6	-0.1481584
39	0xbdd0b13d	-0.101900555

transformer_encoder.encoder.attention.fc_K.weight f4 [40, 40]
0	0x3d77288c	0.060341403
1	0x3e0825a5	0.1329561
2	0xbda7e796	-0.081984684
3	0xbdcf5950	-0.10124457
4	0x3e209561	0.15681984
5	0x3d556e54	0.05210717
6	0xbd8e1647	-0.06937843
7	0x3d73ceb4	0.0595233
8	0xbde15c54	-0.11003938
9	0xbdf1bdee	-0.11803804
10	0x3df7f3ee	0.12107073
11	0xbe00c0f6	-0.12573609
12	0xbd634552	-0.05548603
13	0xbe14f2fc	-0.14545816
14	0xbd102a5e	-0.035196654
15	0x3dad0a6c	0.084492534
16	0xbd91a5a3	-0.07111671
17	0x3d11a744	0.035559908
18	0x3dfaebfe	0.12252043
19	0x3dad6a62	0.084675565
20	0x3d9d0ce2	0.07668473
21	0xbce81510	-0.028330356
22	0xbe13beac	-0.14428204
23	0x3ce55d90	0.027998716
24	0xbdbe3769	-0.092879124
25	0xbd377964	-0.0447935
26	0x3d964e68	0.073391736
27	0xbca44380	-0.020051718
28	0xbe10a47f	-0.1412525
29	0x3df859ae	0.1212648
30	0xbd5c29ca	-0.05375079
31	0xbdde7b98	-0.108634174
32	0x3c357a70	0.011076555
33	0x3bca4ac0	0.0061734617
34	0xbd7bd3e0	-0.061481357
35	0x3d206ce4	0.039166346
36	0x3c309f20	0.010780126
37	0xbd9b669c	-0.075879306
38	0x3cf1a6d0	0.029498488
39	0x3e0bdd1f	0.1365857
40	0xbdb1ffc7	-0.08691364
41	0x3af1f680	0.0018460304
42	0xbd43c3bc	-0.04779409
43	0x3c71f760	0.014768451
44	0xbd98c60d	-0.0745965
45	0xbe08bdab	-0.13353603
46	0xbe16d79f	-0.1473069
47	0xbb7ca240	-0.0038548857
48	0x3d277594	0.040883616
49	0x3d74d660	0.059774756
50	0xbccfc048	-0.025360242
51	0x3d5d6da4	0.05405964
52	0x3d29fad8	0.04149899
53	0x3cbeb960	0.023281753
54	0x3cfc6660	0.030810535
55	0xbe2085b3	-0.15676002
56	0xbdadc295	-0.08484379
57	0x3e080cf3	0.1328619
58	0xbdf21302	-0.11820032
59	0x3cb500a0	0.022095025
60	0xbb8ff9e0	-0.004393801
61	0xbd1af606	-0.037832282
62	0x3d9ea5da	0.077464774
63	0x3d99f542	0.07517482
64	0xbe153048	-0.14569199
65	0x3cfb4338	0.0306717
66	0x3d0e65ec	0.03476517
67	0xbdd1fdc8	-0.10253483
68	0xba974400	-0.0011540651
69	0xbdc334ac	-0.09531531
70	0xbd35eefe	-0.044417374
71	0x3d7e5238	0.06209013
72	0x3d5a1098	0.05323848
73	0xbe20a94d	-0.15689583
74	0xbe12428c	-0.14283198
75	0x3c1a8840	0.009431899
76	0x3daf9060	0.08572459
77	0x3d847d60	0.06469226
78	0x3e05189b	0.12997667
79	0xbd3ac3b8	-0.04559681
80	0x3d784cc0	0.06062007
81	0x3de38386	0.111090705
82	0x3cc40b08	0.023931041
83	0xbe1d817a	-0.15381423
84	0x3e1ac337	0.15113531
85	0xbcf6c968	-0.030125335
86	0x3ccdda70	0.025128573
87	0x3e0e832d	0.13917227
88	0x3dfa87e6	0.12232952
89	0x3ce41dc0	0.027846217
90	0x3dbce652	0.092236176
91	0x3a6c3a00	0.0009011328
92	0x3d77b16c	0.060471937
93	0x3d2dd3ac	0.042438194
94	0xbdb36f80	-0.08761501
95	0x3d5abf38	0.053405017
96	0xbd5512a0	-0.052019715
97	0xbc95bbb8	-0.018277988
98	0xbe155b9c	-0.14585727
99	0xbc836480	-0.016039133
100	0x3df3ac56	0.11898105
101	0x3ba56020	0.0050468594
102	0xbe028686	-0.12746629
103	0xbb980f60	-0.0046405047
104	0xbe188862	-0.14895776
105	0x3da677ea	0.081283405
106	0x3e216b01	0.15763475
107	0x3da170d8	0.07882851
108	0x3cf95c28	0.030439451
109	0xbdbbfad2	-0.091786996
110	0x3d6c7ae8	0.0577344
111	0xbd765aba	-0.060145117
112	0xbda21745	-0.079145946
113	0xbcca1958	-0.024670288
114	0xbd13d97a	-0.036096074
115	0x3cc15520	0.023600161
116	0x3d93e084	0.07220557
117	0x3deba60a	0.11506279
118	0x3ca3d190	0.019997388
119	0x3e0bbb5d	0.13645692
120	0x3c5c0fc0	0.0134314895
121	0xbdfff4da	-0.124978736
122	0xbe06700a	-0.13128677
123	0x3e213559	0.15743007
124	0x3d7e28d0	0.06205064
125	0xbe085271	-0.13312699
126	0x3dc6ee66	0.0971344
127	0xbda58ac0	-0.08083105
128	0xbe01fc8f	-0.12694
129	0xbe046bd3	-0.12931757
130	0xbdf15994	-0.11784664
131	0x3b3725c0	0.0027946085
132	0x3e139a5b	0.1441435
133	0x3d8bd4e2	0.068277135
134	0x3d13f588	0.03612283
135	0x3b1aab40	0.0023600608
136	0xbe063853	-0.13107423
137	0x3cc28970	0.023747176
138	0xbd3962d4	-0.045260265
139	0x3b9cd3c0	0.0047859848
140	0x3d959dd6	0.073054954
141	0x3de47852	0.11155762
142	0xbd83af3c	-0.06429908
143	0xbb872240	-0.004123956
144	0x3d899eea	0.067197636
145	0xbd30a2b2	-0.04312391
146	0xbcc80ca0	-0.024420083
147	0xbdf636cc	-0.120221704
148	0xbe1d471f	-0.15359162
149	0xbdbb936c	-0.09158978
150	0xbd072f2c	-0.03300397
151	0x3dd45382	0.1036749
152	0xbde30a21	-0.11085916
153	0x3e203441	0.15644933
154	0xbe152ffc	-0.14569086
155	0xbda88f8d	-0.08230505
156	0x3dcfe4ae	0.10151039
157	0x3db4f438	0.088356435
158	0xbcd53770	-0.026027411
159	0x3d446a98	0.04795322
160	0x3da8a4ee	0.08234583
161	0x3ce95d78	0.028486952
162	0x3d9433f8	0.07236475
163	0x3dcb8ba2	0.09938742
164	0x3d4d8750	0.050177872
165	0x3d75b8d8	0.059990734
166	0x3d822360	0.063544035
167	0x3e206baf	0.15666078
168	0xbd209db6	-0.039212905
169	0xbdabac9d	-0.08382533
170	0xbde74698	-0.112927616
171	0x3db67bec	0.08910355
172	0xbd9e92bb	-0.0774283
173	0xbdcf817e	-0.101321205
174	0xbe1df8a2	-0.15426877
175	0x3d630134	0.05542107
176	0xbdcc707f	-0.099823944
177	0xbdfcfc0a	-0.1235276
178	0xbd558392	-0.05212743
179	0x3db00934	0.08595505
180	0xbd9e9714	-0.077436596
181	0x3d8e05f6	0.06934731
182	0x3dc63876	0.09678738
183	0xbdee2e72	-0.116299525
184	0x3c8ccc90	0.017187387
185	0xbde23250	-0.110447526
186	0x3b711900	0.0036788583
187	0xbdda3db8	-0.10656303
188	0xbdd830f5	-0.10556213
189	0xbc7bf980	-0.01537931
190	0x3df1a7de	0.11799596
191	0xbdd0c6ac	-0.10194144
192	0xbde745c4	-0.112926036
193	0xbd911512	-0.07084097
194	0xbc9e14f8	-0.019297108
195	0x3de243a2	0.11048056
196	0x3e15fd37	0.14647375
197	0x3cdbd0b8	0.026832923
198	0xbc602fe0	-0.013683289
199	0x3d014fa0	0.031570077
200	0xbd809bab	-0.06279691
201	0xbd996930	-0.07490766
202	0xbd74c126	-0.059754513
203	0xbdb6b7e3	-0.08921792
204	0xbd9b391f	-0.07579254
205	0xbdd66c0a	-0.104698256
206	0xbc249460	-0.010045141
207	0xbb67d500	-0.003537476
208	0xbdbdfa59	-0.09276266
209	0x3d9568ea	0.072954014
210	0xbdae820f	-0.085209005
211	0xbde7e906	-0.113237426
212	0xbe0f6bcb	-0.14005964
213	0x3e0bfbdb	0.13670294
214	0x3c9b2808	0.018939987
215	0xbdb72b3b	-0.089437924
216	0xbde944f7	-0.11390107
217	0xbb255580	-0.0025227964
218	0xbce1f9d8	-0.027584955
219	0x3e004517	0.12526356
220	0x3cee45f8	0.029086098
221	0x3e05408f	0.13012908
222	0xbda27d73	-0.07934084
223	0x3cbe47b0	0.023227543
224	0x3e13a651	0.14418913
225	0x3de63a3e	0.112415776
226	0xbc8492c0	-0.016183257
227	0xbc3c65d0	-0.011498883
228	0x3d034984	0.03205253
229	0xbd181128	-0.037125736
230	0xbdbebf4c	-0.09313831
231	0x3e06706f	0.13128828
232	0x3e1af811	0.15133692
233	0xbbdc62e0	-0.006725654
234	0x3db62a7c	0.08894822
235	0x3e093935	0.13400729
236	0x3ce56238	0.028000936
237	0xbe19b3ac	-0.15009946
238	0x3d135fcc	0.03598003
239	0xbd63ece8	-0.055645853
240	0x3e0eb3bf	0.13935755
241	0xbdac2419	-0.084053226
242	0xbd97f2c1	-0.074193485
243	0x3c1587a0	0.009126574
244	0xbca19600	-0.019724846
245	0xbd1bffc6	-0.03808572
246	0x3e1f76ff	0.15572737
247	0x3c5c6c90	0.013453618
248	0xbddfe15e	-0.10931657
249	0xbc4694b0	-0.012120411
250	0xbe1bdd24	-0.15221077
251	0x3d16a038	0.03677389
252	0xbdc67c7e	-0.09691714
253	0x3e1e2ee9	0.15447582
254	0x3dcf601e	0.10125755
255	0xbe1fbb03	-0.15598683

transformer_encoder.encoder.attention.fc_K.bias f4 [40]
0	0xbbd83000	-0.006597519
1	0x3d1a5be0	0.037685275
2	0x3b952980	0.0045520663
3	0x3c956f10	0.018241435
4	0xbd1235a0	-0.035695672
5	0x3d79241c	0.060825452
6	0xbb18a340	-0.0023290664
7	0x39ebea00	0.00044997036
8	0xbe0ffd82	-0.1406155
9	0xbe1b0514	-0.15138656
10	0x3b3f1740	0.0029158145
11	0x3dfd7c9a	0.123772815
12	0x3d56559c	0.052327737
13	0x3d34b120	0.044114232
14	0xbd98b67d	-0.07456682
15	0xbd9d54cb	-0.076821886
16	0x3d9e3990	0.07725823
17	0xbc89b000	-0.016807556
18	0x3d3d53e4	0.046222582
19	0x3cb0d728	0.02158697
20	0x3e05baff	0.13059615
21	0x3dbb9350	0.09158957
22	0x3d0bfc30	0.03417605
23	0xbc9fd4d8	-0.019510671
24	0x3c419c10	0.011816993
25	0x3e1e3689	0.15450491
26	0x3db0673e	0.08613442
27	0xbda5200d	-0.08062754
28	0x3cb0a3c0	0.021562457
29	0x3e02b7af	0.12765382
30	0xbe0cc2be	-0.13746163
31	0xbcb74b08	-0.022374645
32	0x3c859d10	0.016310245
33	0xbdd5d92a	-0.104418114
34	0x3dcbb22e	0.099460945
35	0x3d88c356	0.066778824
36	0xbe082338	-0.13294685
37	0xbd887a3d	-0.0666394
38	0x3e07cd09	0.13261808
39	0xbe16c68e	-0.1472418

transformer_encoder.encoder.attention.fc_V.weight f4 [40, 40]
0	0x3dd5acb2	0.1043333
1	0xbe1d83f1	-0.15382363
2	0xbde13088	-0.10995585
3	0x3cc9f2a0	0.024651825
4	0xbdfa5bea	-0.122245625
5	0x3ce598b0	0.028026909
6	0xbe048a7a	-0.1294345
7	0xbc961ab0	-0.018323272
8	0xbdd15a82	-0.10222341
9	0xbdbbfedf	-0.09179472
10	0x3d1f58d8	0.038903087
11	0x3cc4c3a8	0.024019077
12	0xbda95b04	-0.08269313
13	0x3c88f268	0.01671715
14	0xbd08ebb6	-0.033427916
15	0xbd596a24	-0.05307974
16	0x3d9efdd8	0.077632606
17	0x3e1e549d	0.15461965
18	0xbe1e9140	-0.15485096
19	0xbe1f8ecf	-0.15581821
20	0xbd5e242a	-0.054233707
21	0xbd8a5dff	-0.067562096
22	0x3e0aba47	0.13547622
23	0x3e1eac1b	0.1549534
24	0xbc865c48	-0.016401425
25	0x3e041d6f	0.12901853
26	0xbde1fade	-0.11034177
27	0x3de28856	0.1106116
28	0xbd36d312	-0.044634886
29	0x3b8a2f40	0.0042170584
30	0x3de2019a	0.11035462
31	0x3dc471a6	0.09591989
32	0xbd1bf8e4	-0.038079157
33	0x3e1d6f69	0.15374531
34	0x3e031b15	0.128033
35	0xbcaf98a8	-0.021435097
36	0xbd945e35	-0.07244531
37	0x3d2f1480	0.04274416
38	0xbb9a77c0	-0.0047139823
39	0xbd63ba1c	-0.05559741
40	0x3dd1a3e6	0.10236339
41	0xbdca77cc	-0.09886131
42	0xbb294500	-0.002582848
43	0x3dc00166	0.09375267
44	0xbd088f1e	-0.033339612
45	0x3dc24d52	0.09487404
46	0xbdb4b0c0	-0.08822775
47	0x3dee3d6e	0.116328105
48	0x3d1fad30	0.038983524
49	0xbd1da34a	-0.038485803
50	0x3d97b1cc	0.07406959
51	0xbc457790	-0.012052432
52	0x3c7b1070	0.015323743
53	0x3dd9d066	0.10635452
54	0xbd345242	-0.04402376
55	0x3ddd79fe	0.10814284
56	0x3e0d4355	0.13795216
57	0xbdc211d3	-0.09476056
58	0xbd722b6c	-0.05912344
59	0xbc136400	-0.00899601
60	0x3dc50baa	0.09621365
61	0x3d0a7d5c	0.03381096
62	0x3e0f01d3	0.1396554
63	0xbda5be37	-0.08092921
64	0xbd82df11	-0.06390203
65	0x3e1ef0a5	0.15521486
66	0xbcfee3d0	-0.031114489
67	0xbba406e0	-0.0050057024
68	0x3e156a05	0.14591224
69	0xbd0ada22	-0.033899434
70	0x3ddb5cc6	0.107110545
71	0x3e1ca541	0.15297414
72	0xbdd87f6c	-0.10571179
73	0x3d41fc60	0.047359824
74	0xbdad3767	-0.08457833
75	0x3e0a17a9	0.13485588
76	0xbe0f4562	-0.13991311
77	0xbd1aeff4	-0.037826493
78	0x3dd7b95e	0.10533403
79	0xbd60bf18	-0.05486974
80	0xbd354ece	-0.044264607
81	0xbc32ccb0	-0.010913059
82	0xbe104ce1	-0.14091827
83	0x3e02d96d	0.12778254
84	0x3d89ddde	0.06731771
85	0x3cfa49e8	0.03055282
86	0xbe152941	-0.14566518
87	0xbd101992	-0.035180636
88	0x3d66657c	0.056249127
89	0xbd3e5992	-0.04647214
90	0x3d826874	0.06367579
91	0xbdf297b6	-0.11845343
92	0xbe07faed	-0.13279314
93	0x3d00fa20	0.031488538
94	0xbdab7d03	-0.083734535
95	0xbe1fa70a	-0.15591064
96	0xbd79ee58	-0.061018318
97	0xbd0a2d7e	-0.03373479
98	0x3d0d9b8c	0.03457217
99	0x3cfda5c0	0.030962825
100	0x3e19f70d	0.15035649
101	0x3e0ee32f	0.13953851
102	0x3dd610f2	0.10452451
103	0x3e0bb9e9	0.13645138
104	0x3dedca86	0.11610894
105	0x3dc5bae2	0.09654786
106	0xbe0d5f4d	-0.13805886
107	0xbe0ebe81	-0.13939859
108	0xbda4956b	-0.08036312
109	0xbc9cfc18	-0.019163176
110	0x3bb2f0a0	0.0054608136
111	0xbe14f3c3	-0.14546113
112	0x3d04a350	0.03238231
113	0xbdcf055c	-0.10108444
114	0x3cddf910	0.027096301
115	0xbc160170	-0.009155616
116	0xbdd51f22	-0.10406329
117	0x3c267b70	0.010161266
118	0x3de9378a	0.11387546
119	0x3e10493d	0.14090438
120	0x3d3e8600	0.04651451
121	0x3d98e928	0.07466346
122	0xbd8ca2a9	-0.068669625
123	0xbd0b6c1e	-0.034038655
124	0x3e0b7a45	0.13620861
125	0xbc615380	-0.013752818
126	0x3dcc98ca	0.0999008
127	0xbdcebb72	-0.10094346
128	0x3e1b86ff	0.15188216
129	0x3e1c4af1	0.15262963
130	0xbdd78836	-0.10524027
131	0xbdc5e6a7	-0.09663134
132	0xbc6ecdd0	-0.014575437
133	0xbd358dd6	-0.04432472
134	0x3e135423	0.14387564
135	0x3cdd2b58	0.026998207
136	0xbd8fecfb	-0.07027622
137	0xbdbb52bc	-0.0914664
138	0x3e18325f	0.14862965
139	0x3d988a3a	0.074482396
140	0xbdbbc267	-0.09167939
141	0xbddd7fc2	-0.108153835
142	0x3de8db3a	0.11369939
143	0x3a239a00	0.00062409043
144	0xbdff58b8	-0.12468094
145	0x38c52000	9.3996525e-05
146	0x3e0c32bd	0.1369123
147	0xbdb0ad19	-0.08626766
148	0x3d9f9e9c	0.07793924
149	0x3d8ac756	0.067763016
150	0xbe08048c	-0.13282984
151	0xbdf28492	-0.11841692
152	0xbe0edfb5	-0.13952525
153	0x3d433a10	0.047662795
154	0x3e2171d3	0.15766077
155	0xbe09366a	-0.13399664
156	0xbd56bcae	-0.052426033
157	0x3e12a449	0.14320482
158	0x3c3e6220	0.0116200745
159	0x3db920ee	0.09039484
160	0x3c0f26f0	0.008737311
161	0xbdf08118	-0.11743373
162	0x3cdff2c0	0.027337432
163	0x3ce94b98	0.028478429
164	0xbcd9ce00	-0.026587486
165	0xbd3b33ba	-0.045703627
166	0xbd6b5eee	-0.05746358
167	0x3e1a14e7	0.15047036
168	0x3dc98686	0.098401114
169	0x3b971fc0	0.004611939
170	0x3deee2c2	0.11664344
171	0xbd5c054e	-0.053715996
172	0x3caba0d0	0.020950705
173	0x3dfc7c92	0.123284474
174	0xbb491280	-0.0030681193
175	0x3c73b6b0	0.014875099
176	0xbc1d2080	-0.009590268
177	0xbd373b6e	-0.04473441
178	0xbe1188de	-0.14212367
179	0xbd617c98	-0.055050462
180	0x3cc3c488	0.023897424
181	0xbd858183	-0.06518843
182	0x3e1ceb65	0.15324171
183	0xb9f19e00	-0.0004608482
184	0x3e05d59b	0.13069765
185	0xb9ed5000	-0.00045263767
186	0x3d7f7f34	0.06237717
187	0x3d0d0f2c	0.034438297
188	0xbe071be3	-0.13194232
189	0x3df0bcae	0.11754738
190	0xbdada981	-0.08479596
191	0x3d83915c	0.064242095
192	0xbe0fd105	-0.14044578
193	0xbe090b87	-0.13383304
194	0xbd3d242a	-0.046177067
195	0x3d6372b0	0.055529296
196	0xbc6a3070	-0.014293775
197	0x3d8b6ab6	0.06807463
198	0x3deff092	0.11715807
199	0x3c9d4858	0.019199535
200	0x3dfb41c2	0.12268402
201	0x3de3f1be	0.11130093
202	0x3c73f710	0.014890447
203	0xbe081bf4	-0.13291913
204	0xbdef566a	-0.11686404
205	0x3e009831	0.12558056
206	0xbe0e66f9	-0.13906468
207	0x3e0605db	0.13088171
208	0x3c1accd0	0.009448245
209	0xbd3b1f82	-0.045684345
210	0xbdb980c6	-0.09057765
211	0xbe047a91	-0.1293738
212	0xbd446ec6	-0.047957204
213	0x3dfbfbc6	0.12303881
214	0x3c6f4050	0.014602736
215	0x3cad44d8	0.021150991
216	0x3cd38db8	0.025824413
217	0xbd83b4a9	-0.064309426
218	0x3de0181a	0.10942097
219	0xbe044011	-0.12915064
220	0x3e1a3c3f	0.15062045
221	0xbe15d0f1	-0.14630486
222	0x3e15b6d7	0.14620529
223	0x3d379a0c	0.044824645
224	0x3d228158	0.039674133
225	0xbe038d1b	-0.12846796
226	0xbe04c85f	-0.1296706
227	0x3d99cc66	0.07509689
228	0x3df61d36	0.1201729
229	0x3d866f00	0.0656414
230	0xbc02d500	-0.0079853535
231	0x3ddad836	0.1068577
232	0x3d3b945c	0.045795783
233	0xbc8e1720	-0.017345011
234	0x3d177f20	0.03698647
235	0x3c208460	0.009797186
236	0x3dee99be	0.11650418
237	0xbaf1ca80	-0.001844719
238	0xbd92d895	-0.07170216
239	0xbd8de8b1	-0.06929148
240	0xbdbfadef	-0.09359347
241	0xbde53e3e	-0.111935124
242	0xbdbae4b8	-0.09125656
243	0xbe21dcc9	-0.15806879
244	0x3de37f3e	0.11108254
245	0xba646900	-0.0008713156
246	0xbe0a1224	-0.13483483
247	0x3d201e10	0.03909117
248	0x3b534fc0	0.003224358
249	0xbc19d280	-0.009388566
250	0xbdc3b482	-0.095559135
251	0x3c7d5850	0.01546295
252	0x3cb70c68	0.022344783
253	0x3d8d868e	0.0691043
254	0xbc7fbf30	-0.0156095475
255	0x3e069359	0.13142146

transformer_encoder.encoder.attention.fc_V.bias f4 [40]
0	0x3cb26800	0.021778107
1	0x3e1a5271	0.15070511
2	0xbe0e26ba	-0.1388196
3	0x3c7eed70	0.015559539
4	0x3dece27e	0.115666375
5	0xbdf9b8be	-0.1219344
6	0xbc26d0d0	-0.010181621
7	0x3d0c8f24	0.034316197
8	0x3d590428	0.05298248
9	0x3d088dac	0.033338234
10	0xbc56e670	-0.013116464
11	0xbdc5ff66	-0.09667854
12	0x3da37b3c	0.079824895
13	0xbd550f38	-0.052016467
14	0x3b03ad80	0.0020092428
15	0xbd23e32a	-0.040011562
16	0xbd4a7348	-0.049426347
17	0xbde31107	-0.11087232
18	0xbbfd7180	-0.0077344775
19	0x3d932b4e	0.07185994
20	0x3d25c878	0.040474385
21	0xbe1d89a6	-0.1538454
22	0xbc90fb10	-0.01769784
23	0xbd1eab1a	-0.038737394
24	0xbde4085e	-0.111344084
25	0x3e06b65d	0.13155504
26	0x3e04264f	0.12905239
27	0x3e0e0f51	0.1387303
28	0x3e156439	0.14589013
29	0xbcdfab68	-0.027303413
30	0xbdac2a5d	-0.08406518
31	0xbd7d6be2	-0.061870463
32	0xbd178530	-0.036992252
33	0x3d6e0364	0.058108702
34	0xbda6fd03	-0.08153727
35	0xbd79ce2a	-0.06098763
36	0x3cdb84c8	0.026796713
37	0x3e0b73cf	0.13618396
38	0x3d30f7d0	0.043205082
39	0x3cf7d3e8	0.030252412

transformer_encoder.encoder.attention.fc.weight f4 [40, 40]
0	0xbb873e40	-0.004127294
1	0xbda4fc0b	-0.08055886
2	0x3da0ac04	0.078453094
3	0x3d4bbb2c	0.049739048
4	0x3d724f18	0.05915746
5	0xbd2bdaea	-0.04195682
6	0xbcaa10c8	-0.020759955
7	0xbe031b2e	-0.12803337
8	0x3e1cd0e5	0.15314062
9	0x3d3d3664	0.04619445
10	0xbd68eb46	-0.056865
11	0xbce34e80	-0.027747393
12	0xbd93b187	-0.07211595
13	0x3ded5422	0.11588313
14	0x3d8ad6bc	0.067792386
15	0x3d39bf64	0.04534854
16	0x3dcf6686	0.10126977
17	0xbc806e58	-0.015677616
18	0xbe18d2ca	-0.1492416
19	0xbdde3718	-0.10850352
20	0x3d6f4dd0	0.058423817
21	0xbc430de0	-0.0119051635
22	0x3d3ade2c	0.045622036
23	0x3e0e1fb1	0.13879277
24	0x3c8ea548	0.017412797
25	0xbde808ca	-0.113298014
26	0x3d9edda4	0.07757118
27	0xbca6df00	-0.020370007
28	0x3e0a3787	0.13497745
29	0x3daa1f32	0.08306731
30	0x3c10dc20	0.008841544
31	0xbd3882f0	-0.045046747
32	0xbb8c3ea0	-0.0042799264
33	0xbe0ee290	-0.13953614
34	0x3e1aba29	0.15110077
35	0x3d556c7c	0.052105412
36	0xbd9969bb	-0.074908696
37	0xbc2121c0	-0.009834707
38	0xbc996560	-0.018725097
39	0x3d9977c8	0.074935496
40	0xbd9f9825	-0.07792691
41	0xbd817428	-0.06320983
42	0x3e04a405	0.12953193
43	0x3db4cce4	0.08828142
44	0xbd93c0a3	-0.07214477
45	0x3c987ff8	0.018615708
46	0x3df33e12	0.11877073
47	0xbdac1c66	-0.08403854
48	0x3e02e36d	0.12782069
49	0xbe12fab2	-0.14353445
50	0xbddb4b9c	-0.10707781
51	0x3e05d001	0.13067628
52	0x3d8bac0a	0.06819923
53	0xbc659a60	-0.014013857
54	0xbe0a24b2	-0.1349056
55	0x3d1f24e8	0.038853556
56	0xbd8bf5aa	-0.06833966
57	0x3e1d5d15	0.15367539
58	0x3e1f4e55	0.15557225
59	0xbd8bf961	-0.068346746
60	0x3c5a7f90	0.013336077
61	0x3c490810	0.012269989
62	0x3de2031e	0.11035751
63	0xbd4e23e0	-0.05032718
64	0x3c800ae8	0.0156302
65	0x3d81b102	0.0633259
66	0x3db71734	0.089399725
67	0x3dffc30e	0.124883756
68	0xbc99a460	-0.018755138
69	0x3dd3bbb2	0.103385344
70	0x3d869666	0.06571655
71	0xbd50677a	-0.050879933
72	0x3e0ea431	0.13929822
73	0xbdf217dc	-0.11820957
74	0xbd177584	-0.036977306
75	0x3cddef08	0.027091518
76	0xbcf1ab40	-0.029500604
77	0x3dd9d39a	0.10636063
78	0xbd08de7e	-0.03341531
79	0x3df69362	0.1203983
80	0x3c6486a0	0.013948113
81	0xbd579eae	-0.052641563
82	0xbe1bfd57	-0.1523336
83	0x3cf77eb0	0.030211776
84	0x3ddef816	0.108871624
85	0x3e1f5dcd	0.15563126
86	0x3da9a00c	0.0828248
87	0xbc28fb50	-0.010313824
88	0xbdc8028e	-0.09766112
89	0x3d837326	0.06418447
90	0x3df938f6	0.121690676
91	0x3db9cefe	0.09072684
92	0x3d4dc504	0.050236717
93	0xbc3880f0	-0.01126121
94	0xbd8919d5	-0.0669438
95	0x3d238ff8	0.03993222
96	0xbe004219	-0.12525214
97	0xbe0599f4	-0.1304701
98	0xbe0f8fec	-0.14019746
99	0xbdbbe993	-0.0917541
100	0xbd04e1f8	-0.032442063
101	0xbde7f434	-0.11325875
102	0xbdc0672f	-0.09394681
103	0xbdb8f234	-0.090305716
104	0xbdaad9f0	-0.083423495
105	0xbe152841	-0.14566137
106	0x3be937c0	0.0071172416
107	0x3e15504d	0.14581414
108	0xbc6832b0	-0.014172241
109	0x3dafa7e8	0.085769475
110	0xbdec6888	-0.11543375
111	0x3baf61e0	0.005352244
112	0x3b800c00	0.0039076805
113	0xbd1644fe	-0.03668689
114	0xbdf8043e	-0.12110184
115	0xbdf63a71	-0.120228656
116	0xbe100de6	-0.14067802
117	0xbd455fd8	-0.048187107
118	0xbcbb4cb8	-0.02286373
119	0xbdf2604e	-0.11834775
120	0x3e0bfaef	0.13669942
121	0xbe188bc4	-0.14897066
122	0xbdb4e377	-0.08832448
123	0xbdb68499	-0.0891201
124	0xbdfebc13	-0.12438216
125	0xbd6ac890	-0.057320178
126	0x3e098e0b	0.13433091
127	0x3dc8005a	0.09765692
128	0x3dd28a52	0.10280289
129	0xbde143cf	-0.109992616
130	0x3df927c2	0.12165786
131	0xbc2eaac0	-0.010660827
132	0x3e07b74f	0.1325352
133	0xbe0661e1	-0.13123275
134	0xbde21b1a	-0.110403255
135	0xbdbf77a1	-0.09348989
136	0xbb244480	-0.0025065243
137	0xbd71eece	-0.059065633
138	0xbdd1919c	-0.10232851
139	0xbdefc14c	-0.1170679
140	0xbccf7f88	-0.025329366
141	0x3c717f00	0.014739752
142	0x3dfe7412	0.124244824
143	0xbd7b9478	-0.061420888
144	0x3ccaa518	0.024736926
145	0xbd1e80aa	-0.038696922
146	0x3d94b618	0.07261294
147	0x3df3d862	0.11906506
148	0xbe06abb9	-0.13151444
149	0x3dad4726	0.08460836
150	0x3e099a63	0.134378
151	0x3d7d5228	0.06184593
152	0x3dbc5162	0.0919521
153	0xbd23f0aa	-0.040024437
154	0x3e145e05	0.1448899
155	0xbd6a736a	-0.057238974
156	0xbe1dc39f	-0.15406655
157	0x3cfb6228	0.030686453
158	0x3e06fc57	0.13182198
159	0xbda34be8	-0.07973462
160	0x3dd74a6a	0.1051224
161	0xbd8ff395	-0.070288815
162	0x3cc1e8b0	0.023670524
163	0xbc2e85a0	-0.010651976
164	0x3d80777a	0.06272788
165	0xbd5008ac	-0.05078952
166	0x3d9a1058	0.075226486
167	0x3cd10f88	0.025520101
168	0xbc2cf0a0	-0.010555416
169	0x3e0bda83	0.13657574
170	0xbd80bec5	-0.062863864
171	0xbd81f252	-0.06345047
172	0xbe0978ac	-0.13424939
173	0x3ca57038	0.020195112
174	0x3dbc956a	0.09208186
175	0xbdc06a07	-0.09395223
176	0x3d1bc370	0.03802818
177	0x3dbc4542	0.091928974
178	0xbd676af0	-0.056498468
179	0x3d65c1a8	0.056092888
180	0xbdcac552	-0.09900917
181	0xbdef480c	-0.11683664
182	0x3daaabf6	0.0833358
183	0xbcdb6168	-0.026779845
184	0x3e0c4239	0.13697137
185	0x3df63366	0.12021522
186	0xbdbb1698	-0.09135169
187	0xbe039296	-0.12848887
188	0xbd19ad90	-0.037519038
189	0x3db35f0a	0.08758362
190	0xbe1f2e7a	-0.15545073
191	0x3db14c26	0.08657102
192	0x3e1ce53f	0.15321825
193	0x3df03846	0.11729483
194	0xbdf0b545	-0.117533244
195	0xbdd83cf0	-0.10558498
196	0xbdb265dc	-0.087108344
197	0x3d0be308	0.03415206
198	0xbd85e90e	-0.06538592
199	0xbcf7ec18	-0.030263945
200	0x3de92076	0.113831446
201	0x3c97e1a8	0.018540218
202	0x3d3405ec	0.04395096
203	0x3c4226e0	0.011850089
204	0xbd34a1ca	-0.044099607
205	0xbbad7180	-0.0052930713
206	0x3e13e341	0.14442159
207	0x3cd687e8	0.026187852
208	0xbb9c3200	-0.0047667027
209	0x3dee5cca	0.11638792
210	0xbd84cf21	-0.06484819
211	0xbe21cffb	-0.15801995
212	0xbdb3cfd3	-0.08779874
213	0x3df6901a	0.12039204
214	0xbda9c3b5	-0.08289281
215	0x3db808b6	0.089860365
216	0xbe1b8473	-0.15187244
217	0xbdceffb0	-0.10107362
218	0xbded1c2d	-0.1157764
219	0xbe16f2ea	-0.14741102
220	0xbcad48d0	-0.021152884
221	0xbb537d40	-0.00322707
222	0x3ded71a6	0.11593942
223	0x3df859ee	0.12126528
224	0x3d77ca58	0.060495704
225	0xbdac4c51	-0.08412994
226	0x3de9d3fe	0.114173874
227	0x3d0940f8	0.033509225
228	0xbda3d195	-0.07998959
229	0xbd78f72c	-0.060782596
230	0xbe202947	-0.15640746
231	0x3af99100	0.0019040406
232	0xbe0bdf00	-0.13659286
233	0x3d8ac94e	0.06776677
234	0x3de5e812	0.112259045
235	0x3b8518e0	0.004061803
236	0x3e0e687b	0.13907044
237	0x3de76862	0.11299206
238	0xbc1903f0	-0.009339318
239	0x3d2b2754	0.041785553
240	0x3d6e2814	0.05814369
241	0xbcd5df88	-0.026107565
242	0x3db0a552	0.08625282
243	0xbe20e67b	-0.15712921
244	0x3da69268	0.081333935
245	0xbb107900	-0.0022044778
246	0xbb442780	-0.002993077
247	0xbdf901f2	-0.12158574
248	0xbdff8f5a	-0.12478514
249	0xbb3eb000	-0.0029096603
250	0xbcab1bf0	-0.020887345
251	0xbd385f68	-0.04501286
252	0xbb1b4b00	-0.0023695827
253	0x3cf9c700	0.030490398
254	0xbd74365e	-0.05962216
255	0x3c6155b0	0.01375334

transformer_encoder.encoder.attention.fc.bias f4 [40]
0	0xbd86d2ff	-0.06583213
1	0x3d8b2538	0.06794208
2	0x3dd79232	0.105259314
3	0x3d8bb388	0.06821352
4	0xbdc21e11	-0.09478391
5	0x3de2de26	0.11077528
6	0x3d721494	0.059101656
7	0x3dfa8bde	0.12233709
8	0xbd976911	-0.07393087
9	0xbdefa56e	-0.11701475
10	0xbdfbf39d	-0.12302325
11	0x3d1acb40	0.03779149
12	0x3d49578c	0.049155757
13	0xbc8c48d0	-0.017124563
14	0xbd216a6a	-0.039408125
15	0x3c981598	0.018564984
16	0x3e0fe083	0.14050488
17	0xbe054e46	-0.1301814
18	0x3e1638df	0.14670132
19	0x3d809094	0.06277576
20	0x3dacf3fc	0.08444974
21	0x3d334364	0.04376544
22	0xbd36621e	-0.044527166
23	0xbdc3c7b3	-0.09559574
24	0x3d72b2a8	0.05925241
25	0x3cd84490	0.02639988
26	0xbe047890	-0.12936616
27	0x3dc9f69a	0.09861489
28	0x3ddbfa9e	0.10741161
29	0xbddb26d6	-0.10700767
30	0xbd23dd46	-0.040005945
31	0x3ca31940	0.019909501
32	0x3e0ac6a1	0.13552333
33	0x3df734b6	0.12070601
34	0xbd8c610d	-0.068544485
35	0x3de40006	0.11132817
36	0xbdd10a54	-0.10207048
37	0x3e06a52d	0.13148947
38	0x3e2102eb	0.1572377
39	0xbddff015	-0.10934464

transformer_encoder.encoder.attention.layer_norm.weight f4 [40]
0	0x3f800000	1.0
1	0x3f800000	1.0
2	0x3f800000	1.0
3	0x3f800000	1.0
4	0x3f800000	1.0
5	0x3f800000	1.0
6	0x3f800000	1.0
7	0x3f800000	1.0
8	0x3f800000	1.0
9	0x3f800000	1.0
10	0x3f800000	1.0
11	0x3f800000	1.0
12	0x3f800000	1.0
13	0x3f800000	1.0
14	0x3f800000	1.0
15	0x3f800000	1.0
16	0x3f800000	1.0
17	0x3f800000	1.0
18	0x3f800000	1.0
19	0x3f800000	1.0
20	0x3f800000	1.0
21	0x3f800000	1.0
22	0x3f800000	1.0
23	0x3f800000	1.0
24	0x3f800000	1.0
25	0x3f800000	1.0
26	0x3f800000	1.0
27	0x3f800000	1.0
28	0x3f800000	1.0
29	0x3f800000	1.0
30	0x3f800000	1.0
31	0x3f800000	1.0
32	0x3f800000	1.0
33	0x3f800000	1.0
34	0x3f800000	1.0
35	0x3f800000	1.0
36	0x3f800000	1.0
37	0x3f800000	1.0
38	0x3f800000	1.0
39	0x3f800000	1.0

transformer_encoder.encoder.attention.layer_norm.bias f4 [40]
0	0x00000000	0.0
1	0x00000000	0.0
2	0x00000000	0.0
3	0x00000000	0.0
4	0x00000000	0.0
5	0x00000000	0.0
6	0x00000000	0.0
7	0x00000000	0.0
8	0x00000000	0.0
9	0x00000000	0.0
10	0x00000000	0.0
11	0x00000000	0.0
12	0x00000000	0.0
13	0x00000000	0.0
14	0x00000000	0.0
15	0x00000000	0.0
16	0x00000000	0.0
17	0x00000000	0.0
18	0x00000000	0.0
19	0x00000000	0.0
20	0x00000000	0.0
21	0x00000000	0.0
22	0x00000000	0.0
23	0x00000000	0.0
24	0x00000000	0.0
25	0x00000000	0.0
26	0x00000000	0.0
27	0x00000000	0.0
28	0x00000000	0.0
29	0x00000000	0.0
30	0x00000000	0.0
31	0x00000000	0.0
32	0x00000000	0.0
33	0x00000000	0.0
34	0x00000000	0.0
35	0x00000000	0.0
36	0x00000000	0.0
37	0x00000000	0.0
38	0x00000000	0.0
39	0x00000000	0.0

transformer_encoder.encoder.feed_forward.fc1.weight f4 [256, 40]
0	0x3df21af6	0.11821549
1	0x3d092a2c	0.033487484
2	0xbd8a796b	-0.0676144
3	0x3ca0b768	0.019618705
4	0x3d240d80	0.040051937
5	0xbd534164	-0.051576033
6	0xbd339b66	-0.04384937
7	0x3d9c50d8	0.07632607
8	0xbdad5e08	-0.08465201
9	0xbe0a05b6	-0.13478741
10	0x3d3bedb8	0.045881003
11	0xbdd126f2	-0.10212506
12	0x3d31a368	0.043368727
13	0xbc007340	-0.007839978
14	0xbb3488c0	-0.002754733
15	0xbce91878	-0.02845405
16	0x3c920ea0	0.01782924
17	0x3d7ce360	0.06174028
18	0x3e05ff2b	0.1308562
19	0xbe1d5638	-0.15364921
20	0x3c8e6318	0.017381236
21	0x3dd25a5a	0.102711394
22	0xbe194351	-0.14967085
23	0xbd870456	-0.06592624
24	0x3d76d2d4	0.060259655
25	0xbdfba282	-0.12286855
26	0xbe0a9a6a	-0.13535467
27	0x3d80cf06	0.062894866
28	0xbe11272a	-0.14175096
29	0xbe1039a0	-0.14084482
30	0xbdc45f4d	-0.0958849
31	0xbcdedd90	-0.027205259
32	0x3e146f7d	0.14495654
33	0xbd04b788	-0.03240159
34	0x3d8c114e	0.06839238
35	0x3e17c50b	0.1482126
36	0xbcca3b98	-0.02468662
37	0x3dd8e3d6	0.10590331
38	0x3c54b690	0.012982979
39	0x3d875f54	0.06609979
40	0xbc769a10	-0.01505138
41	0xbdbaab20	-0.09114671
42	0x3cf09958	0.029369995
43	0x3bf56780	0.007489145
44	0x3e0013df	0.1250758
45	0x3d753b08	0.05987075
46	0xbcbd94a0	-0.023142159
47	0xbdcbee1a	-0.09957524
48	0x3dbdfd5e	0.092768416
49	0x3c3a1eb0	0.0113598555
50	0xbe20af46	-0.15691862
51	0xbcecf4f0	-0.028925389
52	0x3df0c7c6	0.11756854
53	0x3e01d33d	0.12678237
54	0x3e151455	0.14558537
55	0xbdd6c36e	-0.10486494
56	0x3db0c4a8	0.08631259
57	0xbe04a437	-0.12953268
58	0x3e099369	0.13435139
59	0x3e15c63b	0.146264
60	0xbd9d5af8	-0.076833665
61	0x3dd49f5a	0.103819564
62	0x3e060e2d	0.13091345
63	0x3df903ea	0.1215895
64	0xbdbe0720	-0.09278703
65	0xbe2000e5	-0.15625341
66	0x3e04aeaf	0.12957262
67	0x3dc94d8a	0.098292425
68	0x3d82f786	0.063948676
69	0x3e172455	0.14759953
70	0x3d8a832c	0.067633
71	0x3dcccc4e	0.099999055
72	0x3d9957fe	0.07487486
73	0xbd128e4a	-0.03578023
74	0x3ce577b0	0.028011173
75	0xbd9552fc	-0.07291219
76	0x3df761b6	0.12079184
77	0xbde15154	-0.1100184
78	0xbdcae6aa	-0.09907277
79	0x3ddd9446	0.108192965
80	0x3d6ea06c	0.05825846
81	0xbc949a68	-0.018140033
82	0x3c961458	0.018320248
83	0xbe06c8cd	-0.13162537
84	0xbdcb8caa	-0.09938939
85	0x3de19c86	0.110161826
86	0xbd2497f2	-0.04018397
87	0x3dd86846	0.105667636
88	0xbdfacaad	-0.122456886
89	0xbc4c2540	-0.012460053
90	0xbdc8c9de	-0.09804128
91	0x3e0c34fb	0.13692085
92	0x3d85bc00	0.06529999
93	0xbdad2ce1	-0.084558256
94	0x3dc6b00e	0.097015485
95	0x3c7d35b0	0.015454695
96	0xbd4ccfca	-0.05000285
97	0x3de324ce	0.11091004
98	0xbcaa9668	-0.020823672
99	0x3d937b64	0.07201269
100	0x3da3ae6e	0.07992254
101	0xbdfa1408	-0.12210852
102	0xbd234072	-0.03985638
103	0x3e15a815	0.146149
104	0x3db73982	0.089465156
105	0xbe0b0f66	-0.13580093
106	0x3da01e82	0.07818319
107	0x3de54f9a	0.111968234
108	0x3b8676a0	0.0041034967
109	0x3d0231dc	0.03178583
110	0xbd82d6ad	-0.063886024
111	0x3e1c19a5	0.15244158
112	0xbda729ae	-0.08162247
113	0xbd8807a5	-0.06642083
114	0xbd628352	-0.055301018
115	0x3df855b6	0.12125723
116	0x3d255aa0	0.04036963
117	0xbda52fdb	-0.08065768
118	0xbde11336	-0.10989992
119	0xbdb279f6	-0.087146685
120	0xbdcf1a85	-0.1011248
121	0xbdb555c5	-0.0885425
122	0xbb384ac0	-0.0028120726
123	0xbdb82f96	-0.08993451
124	0xbd61bca0	-0.055111527
125	0xbda2086d	-0.07911763
126	0xbe10752c	-0.14107198
127	0x3c2458f0	0.01003097
128	0xbd7f523e	-0.06233429
129	0x3d1157e4	0.03548421
130	0x3d51e87c	0.051247105
131	0x3d348d4c	0.044080064
132	0xbdff1e5a	-0.12456961
133	0xbb641880	-0.0034804642
134	0x3e038c01	0.12846376
135	0xbce06508	-0.027391925
136	0xbd8dbe83	-0.06921103
137	0xbe1079c7	-0.14108954
138	0xbd9c7358	-0.076391876
139	0x3dab1f10	0.08355534
140	0x3d8981d0	0.06714213
141	0x3e1c6009	0.1527101
142	0xbacb9f80	-0.0015535206
143	0x3e111609	0.14168562
144	0xbc84af68	-0.016196921
145	0x3e21c3f1	0.15797402
146	0xbd830cdf	-0.06398939
147	0x3dffc586	0.124888465
148	0xbe161165	-0.14655073
149	0x3cd7f248	0.026360646
150	0x3d7066e4	0.058691874
151	0xbba63720	-0.0050724894
152	0xbe153150	-0.14569592
153	0x3e131fdf	0.14367627
154	0xbda7bd03	-0.08190348
155	0xbc9ee038	-0.019394025
156	0xbd135172	-0.035966344
157	0xbc4d0ad0	-0.012514785
158	0xbe070dc1	-0.1318884
159	0x3d9a7388	0.07541567
160	0x3d8b1b6a	0.06792338
161	0xbd2a8cd0	-0.041638196
162	0x3e016785	0.12637146
163	0x3da698be	0.08134602
164	0x3dcf771e	0.10130142
165	0xbdea92c8	-0.114537776
166	0x3d25a6bc	0.040442213
167	0xbdf2c9ec	-0.1185492
168	0x3e20b42b	0.15693729
169	0x3e184a35	0.14872058
170	0xbe04f094	-0.12982398
171	0xbe1441f5	-0.14478286
172	0x3e0a98ff	0.13534926
173	0x3e1fe483	0.15614514
174	0xbd9803cd	-0.074226
175	0x3dbf05ce	0.09327279
176	0x3e0eb2d3	0.13935404
177	0x3c9305e8	0.017947152
178	0x3d39969c	0.045309648
179	0xbc45d510	-0.012074724
180	0xbb006b40	-0.0019595176
181	0x3e13b025	0.14422663
182	0xbd8df3c5	-0.06931261
183	0xbe091dab	-0.13390224
184	0x3d06051c	0.032719716
185	0xbd83f6d7	-0.06443565
186	0x3d2440c4	0.040100828
187	0xbe03c53c	-0.12868208
188	0xbde69d8a	-0.11260517
189	0x3df7edd6	0.121059105
190	0xbd05f718	-0.03270635
191	0xbdc49cfe	-0.096002564
192	0x3d7dfd68	0.062009245
193	0xbdf75408	-0.120765746
194	0xbe02f8f9	-0.12790288
195	0xbca3ac60	-0.019979656
196	0xbdbafe5c	-0.091305465
197	0xbd4549be	-0.04816603
198	0x3d4d83b0	0.050174415
199	0xbd2ade80	-0.0417161
200	0x3cc308c8	0.023807898
201	0x3da9afc8	0.08285481
202	0xbc7e0c60	-0.01550588
203	0xbdbf3483	-0.09336188
204	0xbd853f40	-0.065062046
205	0xbd37cd2c	-0.0448734
206	0xbd379e0e	-0.044828467
207	0x3d771c5c	0.06032978
208	0xbd639a50	-0.055567086
209	0xb9fc2400	-0.00048092008
210	0xbe065355	-0.13117726
211	0x3dd102b6	0.10205595
212	0x3dc27fe2	0.09497048
213	0x3d4b62b8	0.049654692
214	0x3bee6960	0.0072757453
215	0x3d72661c	0.05917941
216	0x3b883ca0	0.0041576177
217	0x3dc0a8ce	0.09407197
218	0x3e010ea1	0.12603237
219	0xbc6b4e60	-0.014361948
220	0xbb0f81c0	-0.0021897405
221	0x3b8a4820	0.0042200238
222	0xbd34d408	-0.04414752
223	0x3ded2e6e	0.115811214
224	0x3e1a5c93	0.15074377
225	0xbdce811c	-0.100832194
226	0xbd6c56c6	-0.05769994
227	0xbe1ed27c	-0.15509981
228	0xbd63041e	-0.05542385
229	0xbde3391c	-0.11094877
230	0x3d669e24	0.05630316
231	0x3bb9f6e0	0.0056751817
232	0x3afc8900	0.0019266903
233	0xbda694bf	-0.0813384
234	0x3cb527e8	0.022113755
235	0x3e0dcf35	0.13848574
236	0xbd071198	-0.032975763
237	0xbdf3ec4d	-0.11910305
238	0x3dabcaa8	0.08388263
239	0x3c08d6b0	0.008351967
240	0xbd59fe6a	-0.053221144
241	0xbe1e10e8	-0.15436137
242	0x3d9f5bd6	0.07781188
243	0xbd7aa6d8	-0.06119427
244	0x3de5cdba	0.1122088
245	0xbe09f4a8	-0.13472235
246	0x3e0747cd	0.13210984
247	0x3c5f0330	0.0136116
248	0x3c10c540	0.008836091
249	0xbe013dce	-0.12621233
250	0x3e077ab5	0.13230403
251	0xbdcff705	-0.10154537
252	0xbd886f33	-0.066618346
253	0x3d171130	0.036881626
254	0x3c0c9410	0.008580223
255	0x3b5fad80	0.0034130514

transformer_encoder.encoder.feed_forward.fc1.bias f4 [256]
0	0x3e15f2b3	0.14643364
1	0xbda4f6ef	-0.08054911
2	0x3d381f44	0.044951692
3	0xbe02f44e	-0.12788507
4	0x3d9db486	0.07700448
5	0x3db35caa	0.08757909
6	0x3da7450c	0.081674665
7	0xbd866407	-0.065620475
8	0xbaaf9d00	-0.001339823
9	0xbe020ef4	-0.12701017
10	0xbe060008	-0.1308595
11	0xbe1ecb99	-0.15507354
12	0x3d29c58c	0.04144816
13	0xbe10e057	-0.14148079
14	0x3e0535d9	0.13008823
15	0x3e0d270d	0.13784428
16	0xbddfc578	-0.10926336
17	0x3c024d80	0.007953048
18	0x3c7980e0	0.01522848
19	0x3d88b890	0.066758275
20	0xbddaa2dc	-0.10675594
21	0xbbe71980	-0.0070526004
22	0xbc83daf0	-0.016095608
23	0xbdfebe26	-0.12438612
24	0xbc0af390	-0.008480921
25	0x3d09fa10	0.033685744
26	0xbdc366fe	-0.095411286
27	0xbde8fedf	-0.11376738
28	0xbd82771e	-0.06370376
29	0xbdefe008	-0.117126524
30	0xbdd59e2a	-0.10430558
31	0xbdfdc876	-0.123917505
32	0xbe0846d6	-0.13308272
33	0xbd6a0fde	-0.05714404
34	0x3bd3f7a0	0.006468728
35	0x3d69a6ec	0.057043955
36	0xbd20b392	-0.03923375
37	0xbdb02fd0	-0.086028695
38	0x3c0cdb20	0.008597165
39	0x3dc1109e	0.094269976
40	0x3de6a042	0.112610355
41	0x3d90aeee	0.07064615
42	0x3dfac34a	0.1224428
43	0xbd8f3ee1	-0.06994415
44	0xbcda09b8	-0.026615962
45	0xbdecbb55	-0.11559168
46	0x3bb44420	0.005501285
47	0xbe11d326	-0.14240703
48	0x3d480768	0.04883519
49	0xbc4f4230	-0.012650058
50	0xbd06c0b0	-0.032898605
51	0xbd16c01e	-0.03680431
52	0x3d44ce04	0.048048034
53	0x3d88cc2e	0.06679569
54	0x3e174469	0.1477219
55	0xbc713970	-0.014723167
56	0x3d366bcc	0.044536397
57	0x3db2b086	0.087250754
58	0xbde6a809	-0.11262519
59	0xbe196d29	-0.14983048
60	0x3e03a6bb	0.12856571
61	0xbd901277	-0.07034772
62	0x3dd720ce	0.10504304
63	0x3e20c1c9	0.15698923
64	0x3ce2a1b0	0.02766499
65	0x3dbfc172	0.09363069
66	0xbc3a59c0	-0.011373937
67	0x3d4dd188	0.050248653
68	0xbe17e924	-0.1483503
69	0x3e19483f	0.14968966
70	0xbbdde120	-0.0067712218
71	0x3df0ae42	0.11751987
72	0x3b36a3c0	0.0027868599
73	0xbe0d675a	-0.13808957
74	0x3da46ae2	0.08028199
75	0xbcd21598	-0.025645062
76	0x3d8210e2	0.063508764
77	0xbe0c6434	-0.137101
78	0xbdeeaaca	-0.11653669
79	0x3cebb6d8	0.02877371
80	0xbe1c734b	-0.15278356
81	0x3e1c76ff	0.15279768
82	0xbdfec9d4	-0.124408394
83	0x3d18d41c	0.03731166
84	0x3de9f1f6	0.114231035
85	0x3d64b3c0	0.055835485
86	0xbd82dbcc	-0.06389579
87	0xbdd85c39	-0.10564465
88	0x3cb7df58	0.022445366
89	0x3db95c72	0.09050836
90	0xbdfe091e	-0.12404083
91	0x3d284140	0.041077852
92	0x3d1c825c	0.038210258
93	0xbe1ac25a	-0.15113202
94	0xbd3c12c4	-0.045916334
95	0x3d88c8ec	0.06678948
96	0x3e1a4af5	0.15067656
97	0xbd27206e	-0.04080241
98	0xbe2118f4	-0.15732175
99	0x3dc0272e	0.09382473
100	0xbd82d949	-0.063891
101	0x3dcfdafe	0.10149191
102	0x3e0328d9	0.12808551
103	0xbd5a1728	-0.05324474
104	0xbe1e328b	-0.15448968
105	0x3d529d94	0.05141981
106	0x3c759db0	0.014991209
107	0xbe04da70	-0.12973952
108	0x3dda3986	0.10655503
109	0x3d5c8e04	0.053846374
110	0x3d49b46c	0.04924433
111	0x3dd53c2a	0.10411866
112	0x3e1328e7	0.14371072
113	0xbd8a65ce	-0.06757699
114	0x3e165dd1	0.14684226
115	0xbdba924f	-0.091099374
116	0x3cc36300	0.023850918
117	0x3e1135b1	0.14180638
118	0x3d41b988	0.047296077
119	0xbdc54915	-0.0963308
120	0x3c993818	0.018703505
121	0xbdce9ec9	-0.100888796
122	0x3c1ec380	0.0096901655
123	0xbd2862a6	-0.041109703
124	0x3d348650	0.044073403
125	0xbc7452f0	-0.014912352
126	0xbdba7d7d	-0.09105966
127	0xbcf444c8	-0.029817954
128	0xbd0b4e4a	-0.03401021
129	0x3da3ca2c	0.079975456
130	0x3dbaa3ea	0.091132954
131	0xbd2058e4	-0.039147273
132	0xbd01d014	-0.03169258
133	0x3bce11a0	0.006288722
134	0xbe11566a	-0.1419312
135	0xbd362a26	-0.04447379
136	0x3b631ac0	0.0034653395
137	0xbdadbdbe	-0.08483456
138	0xbe0b5340	-0.13605976
139	0x3aa3a500	0.0012485087
140	0x3de047fa	0.109512284
141	0x3d0f1864	0.03493537
142	0x3c0d5600	0.008626461
143	0x3e1b1e79	0.15148343
144	0xbe177c4e	-0.14793512
145	0x3ccfb1f8	0.025353417
146	0x3c8ae2e0	0.016953886
147	0x3c85dd18	0.016340777
148	0x3d9eba0e	0.07750331
149	0x3e051c3d	0.12999053
150	0xbd2c6c42	-0.04209543
151	0x3e1c2a7b	0.1525058
152	0xbd84e780	-0.064894676
153	0xbdd0a163	-0.10187032
154	0xbcac5890	-0.021038324
155	0x3e1007a3	0.14065413
156	0x3d0c1a34	0.034204677
157	0xbe14c658	-0.14528787
158	0x3d619510	0.055073798
159	0x3e00b2b7	0.12568174
160	0x3d21fa2c	0.039545223
161	0x3c660810	0.014040008
162	0x3da1ee4c	0.0790678
163	0x3e1ce933	0.15323333
164	0x3df26be2	0.11836983
165	0x3e107b27	0.14109479
166	0xbd954147	-0.07287841
167	0xbd42de60	-0.047575355
168	0xbd389978	-0.045068234
169	0x3d9a8e72	0.075467005
170	0x3d94cb74	0.07265368
171	0xbd8062b5	-0.06268827
172	0xbd1f9146	-0.038956903
173	0x3d07c50c	0.033146903
174	0xbba38fc0	-0.0049915016
175	0xbe11a512	-0.14223126
176	0x3defc88e	0.11708175
177	0x3e0187e7	0.12649499
178	0x3da00540	0.07813501
179	0xbd324f06	-0.043532394
180	0x3dbcbf82	0.09216215
181	0xbde9cd56	-0.11416118
182	0xbcf99640	-0.030467153
183	0xbcf9a5d8	-0.030474588
184	0x3d0f3bdc	0.034969196
185	0x3c80ec68	0.015737727
186	0x3e1f47cb	0.1555473
187	0x3df4106a	0.11917193
188	0x3da53a76	0.08067791
189	0x3e0e8585	0.13918121
190	0xbd913bd9	-0.07091493
191	0xbd85ed5b	-0.065394126
192	0xbb7505c0	-0.003738746
193	0x3d9ead32	0.07747878
194	0x3d7aa8bc	0.061196074
195	0x3d81b072	0.063324824
196	0xbdbd2ff6	-0.092376634
197	0xbb4ca440	-0.003122583
198	0x3dd6713a	0.10470815
199	0x3dcd17ae	0.10014282
200	0xbdfe62de	-0.12421201
201	0x3e030863	0.12796168
202	0x3da8fadc	0.08250973
203	0xbdc41e2e	-0.09576069
204	0x3d761ac8	0.060084134
205	0x3dff1f62	0.12457158
206	0xbe14baac	-0.14524335
207	0x3d554788	0.05207017
208	0xbd523f2c	-0.051329777
209	0xbd6139c0	-0.054986715
210	0xbe07c684	-0.13259321
211	0xbe0df354	-0.13862354
212	0xbcfc6258	-0.030808613
213	0xbde29acc	-0.110646814
214	0x3ddfcf82	0.10928251
215	0xbde184b0	-0.11011636
216	0x3d79a47c	0.06094788
217	0x3df8a30a	0.12140472
218	0x3dd685e2	0.10474755
219	0xbdde287a	-0.10847564
220	0x3e1b3c43	0.15159707
221	0x3c894ec8	0.016761199
222	0x3e2013e7	0.15632592
223	0xbda2d835	-0.079513945
224	0x3d110db4	0.03541346
225	0x3c8915e0	0.016734064
226	0xbd831be7	-0.06401806
227	0xbdfee83a	-0.124466375
228	0x3d5728d4	0.05252917
229	0x3e095fe3	0.13415484
230	0xbc2a0690	-0.010377541
231	0xbc938de0	-0.018011987
232	0x3d2b33ec	0.041797563
233	0x3d6008a4	0.05469574
234	0x3cfaa618	0.030596778
235	0xbd65c304	-0.056094185
236	0xbd5f0f44	-0.054457918
237	0x3d5204a8	0.05127397
238	0x3d16d990	0.036828578
239	0xbd037630	-0.032095134
240	0x3d818784	0.06324676
241	0xbcd7e560	-0.026354492
242	0x3dc173da	0.09445925
243	0x3e0114c5	0.12605579
244	0xbdaaf2f3	-0.0834712
245	0xbd770702	-0.060309418
246	0xbde31e1a	-0.11089726
247	0x3c0abbe0	0.008467644
248	0xbdfcbbc4	-0.12340501
249	0xbd127ec2	-0.035765417
250	0xbcbc0130	-0.022949785
251	0xbb751380	-0.0037395656
252	0xbdb061ff	-0.08612441
253	0xbc937a98	-0.018002793
254	0xbc1e9370	-0.0096787065
255	0xbdc39de1	-0.095515974
