simple2transformer/param/net_param/Mk10_75_75_critic_net.model (torch, 232127 bytes, 33 tensors)

transformer_encoder.encoder.attention.fc_Q.weight f4 [40, 40]
000000 ca d5 b3 3d 26 98 a6 3d 2c 3d 1a be 98 d7 b7 bc
       0.087810114 0.08134489 -0.15062398 -0.02244167
000010 a0 bf 70 bc 58 2e 6d 3d 47 60 82 bd 12 7f 92 3d
       -0.014694124 0.057905525 -0.0636602 0.07153143
000020 a8 56 a5 bc e0 8c 17 bd b8 fa 18 be 47 9a 20 be
       -0.020182922 -0.036999583 -0.14939392 -0.15683852
000030 ef 5c 14 3e d1 5e f9 bd dc 5e 7d bd 7e e3 d1 bd
       0.14488576 -0.12176288 -0.061858043 -0.10248469
000040 f6 bb 98 bd 78 20 ad bd cf 9e 01 3e b6 dc b8 3d
       -0.07457726 -0.084534585 0.12658237 0.09026472
000050 25 c9 18 3e fc 05 bc 3d 70 4d 02 bd 22 ac f9 3d
       0.1492048 0.09180829 -0.03181213 0.12191035
000060 c0 43 8d bb 78 e8 5b 3d 70 00 b7 3c ce aa e1 3d
       -0.004311055 0.053688496 0.022339076 0.110189065
000070 2e 8c bd 3d df 05 04 3e 2a e4 ba bd 6d 9d 0f 3e
       0.09255253 0.12892865 -0.0912555 0.14024897
000080 c5 b7 07 3e 88 e4 d9 bc a0 9d 72 bd 36 1f 10 be
       0.13253696 -0.02659823 -0.059232354 -0.14074406
000090 52 41 1f be 04 b5 1f 3d b0 0b f4 3c c8 a0 e3 bd
       -0.15552261 0.03899099 0.02979073 -0.11114651
0000a0 20 b1 b4 3c 1c b9 30 3d a6 31 f2 3d c7 c9 ef bd
       0.022057116 0.043145284 0.11825876 -0.11708408
0000b0 b9 56 0b be 2d 82 b4 bd d4 a1 97 bd a6 57 c1 3d
       -0.13607301 -0.088138916 -0.07403913 0.09440546
0000c0 9e 0e c8 bd 4e 19 fb 3d e7 2a 16 3e 0e 09 21 bd
       -0.09768413 0.12260686 0.14664803 -0.039315276
0000d0 bc 66 01 be 28 df 6b bd ee bd e5 3d 16 28 cc 3d
       -0.12636846 -0.057585865 0.11217867 0.09968583
0000e0 01 15 0e 3e cc 62 9d 3d 80 d2 1b 3b 83 70 0f 3e
       0.138752 0.0768486 0.002377659 0.14007764
0000f0 b6 74 2b bd 40 db 7d 3c 00 04 44 3b a8 67 a4 3c
       -0.04185935 0.015494168 0.002990961 0.020068958
000100 d2 ce 16 be f7 b9 93 bd a3 52 a6 bd 51 00 17 3e
       -0.14727333 -0.07213204 -0.081212305 0.14746214
000110 80 ee 66 bd fc ca 4f 3d d0 97 4f 3c 30 10 29 bc
       -0.056379795 0.05073069 0.012670472 -0.010318801
000120 63 bc 95 bd 68 d3 db 3c 48 90 75 bd 0c 60 05 3d
       -0.073113225 0.026834205 -0.05995205 0.0325623
000130 40 3c 0c 3c c0 ca 9f 3b 40 d5 bf bc d1 1e 0e 3e
       0.008559287 0.0048764646 -0.023417115 0.13878943
000140 b4 a9 0a be f0 70 8c 3c ee 02 e0 3d d0 71 8b 3c
       -0.13541299 0.017143697 0.10938059 0.017022043
000150 a4 02 ed bd 98 75 a2 3d 41 44 19 3e 00 02 c1 39
       -0.11572769 0.079325855 0.14967443 0.0003681332
000160 7d 63 a5 bd 00 47 5d 3a 2b 43 ac bd c0 fd f1 bb
       -0.080756165 0.0008441061 -0.08411249 -0.0073849857
000170 64 43 75 3d 30 d1 5b 3c c0 22 03 bb 5a 54 fc 3d
       0.05987872 0.013416573 -0.0020009726 0.12320776
000180 6a e9 17 bd 48 c6 7b 3d 47 39 b1 bd 18 3c c5 3c
       -0.037087835 0.061468393 -0.08653503 0.024076506
000190 56 e3 15 bd 41 43 92 bd 48 ca a0 bd c8 a3 ea bc
       -0.036593758 -0.07141734 -0.07851082 -0.02864255
0001a0 a2 63 52 bd a0 1c 20 3d aa 6d d4 3d d2 38 78 bd
       -0.05136455 0.0390898 0.10372479 -0.060601063
0001b0 7a 45 ce 3d e8 d4 22 bd 84 ee ee bd 56 ca f8 3d
       0.10071845 -0.039753824 -0.11666587 0.121479675
0001c0 4a 4e 85 3d 00 c0 9d bc 2c 51 5b bd 90 a9 9e 3c
       0.06509073 -0.019256592 -0.05354421 0.019367963
0001d0 40 31 92 bc c8 f9 99 3d 68 ab d3 bc f2 dc 2b bd
       -0.01784575 0.07518345 -0.025838569 -0.041958757
0001e0 88 7f ce bd da 95 84 3d b2 f5 cf 3d a0 0c 5d bd
       -0.100829184 0.064738944 0.101542845 -0.05396712
0001f0 4b 19 13 3e 82 fe 0d be 00 ac 6e 3b e3 75 00 3e
       0.14365117 -0.13866618 0.0036418438 0.1254497
000200 4f 91 1d 3e 00 d1 98 3d 26 81 a3 3d 76 b0 8c 3d
       0.15387462 0.074617386 0.079836175 0.06869595
000210 8f 9e 89 bd 93 bb ab bd 22 cd bf 3d c8 a1 d5 bd
       -0.06719696 -0.08385386 0.09365298 -0.10431248
000220 44 31 37 3d 82 ae 20 be e2 3c 82 3d 5c af 4c 3d
       0.044724718 -0.1569157 0.06359269 0.049971923
000230 d0 3b 1e bc 48 b7 cb bc bc 74 7d 3d 58 87 a6 3c
       -0.009657815 -0.024867669 0.061878905 0.020328209
000240 60 2a fb 3b 3c 4f 1f be d2 bf f7 3d c2 99 2c bd
       0.0076649636 -0.1555757 0.12097134 -0.042138822
000250 e2 91 08 bd 82 d2 1d be 28 78 f3 bd 36 91 f1 3d
       -0.03334225 -0.15412334 -0.11888152 0.11795275
000260 ba a9 a6 bd 38 9f 37 3d 1a 83 12 bd f0 c0 65 bd
       -0.081378415 0.044829577 -0.03576956 -0.056092203
000270 42 fb 13 be 88 02 1e 3d 64 67 1e 3d 88 d0 42 3d
       -0.14451316 0.038576633 0.03867282 0.047562152
000280 d8 49 a4 3c 80 a1 f5 bc 56 54 da bd a2 12 16 bd
       0.020054743 -0.029984236 -0.10660617 -0.036638863
000290 c0 21 5a 3d f8 dd ee bd 48 5e cd bc af a4 d1 bd
       0.053254843 -0.11663431 -0.02506937 -0.10236489
0002a0 01 e0 1c be 3a f1 88 3d a6 6c ed bd c0 45 a3 bd
       -0.15319826 0.06686635 -0.11592989 -0.07972288
0002b0 bd 89 04 3e 1a da a9 3d 90 fe 82 bc 21 f3 02 3e
       0.12943168 0.08293553 -0.015990525 0.12788059
0002c0 18 7e 1e be 15 62 1a be 7e 86 97 bd 96 e0 ee 3d
       -0.15477788 -0.15076478 -0.07398699 0.1166393
0002d0 13 52 14 3e 4f 8f cc bd be f5 ce 3d 03 df be bd
       0.14484434 -0.099882714 0.10105465 -0.0931988
0002e0 7b 24 b7 bd 76 37 4f bd 02 ce be 3d c6 23 0e be
       -0.08942505 -0.05059 0.093166366 -0.13880834
0002f0 b6 c2 ef 3d 00 90 d5 ba 2e c0 f0 3d 19 1d 14 3e
       0.1170706 -0.0016293526 0.11755405 0.14464225
000300 65 4f 1a 3e 21 4e 0c be b0 78 80 3c 8e 49 f4 3d
       0.15069349 -0.13701679 0.015682548 0.11928092
000310 10 34 48 bd 76 39 97 bd a2 d3 c8 3d 53 40 05 3e
       -0.048877776 -0.07384007 0.09805991 0.13012819
000320 8c 99 34 bd 86 2e bd 3d 98 da fd bd 34 35 2e 3d
       -0.044091746 0.09237389 -0.12395209 0.042531207
000330 60 07 72 3c 40 0d 76 bc 62 15 c8 3d ae 7f d1 3d
       0.014772266 -0.0150178075 0.097697034 0.10229431
000340 70 f8 fa bd 74 ef 03 bd 48 3f 91 bc 9f 7b 17 3e
       -0.12254417 -0.032210782 -0.01773037 0.14793251
000350 6a d2 e9 3d 7b 7e 12 3e e4 bd e4 bd bf aa 9e bd
       0.114170864 0.14306061 -0.11169031 -0.07747411
000360 50 29 84 bc 58 aa 92 bd 96 64 0e be 35 3e 8f bd
       -0.01613298 -0.07161397 -0.13905558 -0.06994287
000370 2a 9b fc bd 68 09 99 3d 8a 98 81 3d 71 91 a2 bd
       -0.12334283 0.07472497 0.06327923 -0.07937897
000380 1a 31 84 3d 06 9f 75 bd f6 9c 71 bd b8 bd cc bc
       0.06454678 -0.05996611 -0.05898758 -0.024992809
000390 96 69 fb 3d e6 46 aa 3d 8a d1 01 be 06 58 9e 3d
       0.12275998 0.08314304 -0.12677589 0.07731633
0003a0 da a2 9d bd 84 7c 65 bd e4 1e 07 bd 4a 81 fa bd
       -0.07697077 -0.05602695 -0.032988444 -0.12231691
0003b0 be 2f e4 3d 16 6c 20 be 72 56 31 bd 65 30 0e be
       0.111419186 -0.15666232 -0.04329533 -0.13885649
0003c0 86 f3 36 bd e1 f9 1f 3e 7e 79 1d be 2c cb 18 be
       -0.044665836 0.15622665 -0.15378377 -0.14921254
0003d0 5e 66 b2 3d c0 16 c3 3c a6 8d 3e bd d9 be f7 bd
       0.08710931 0.023814559 -0.046521805 -0.12096948
0003e0 fa cb 43 bd 40 25 73 bb 40 34 22 bc c3 50 02 3e
       -0.04780195 -0.003710106 -0.009900153 0.1272612
0003f0 38 c7 91 bc da 0d 7e bd 51 d4 0e 3e 2f 3c 13 3e
       -0.01779519 -0.06202493 0.1394818 0.14378427

transformer_encoder.encoder.attention.fc_Q.bias f4 [40]
000000 c0 44 e9 bb 18 eb b7 bd 28 63 e6 3c 3a fe f8 bd
       -0.0071187913 -0.089803874 0.028123453 -0.12157865
000010 93 26 ca bd 9c 1f 19 3d 5a b8 96 3d 40 0d 39 3b
       -0.09870639 0.03738366 0.07359381 0.0028236657
000020 90 58 47 bd ea cc e6 3d 28 eb 00 be b0 1b 55 bc
       -0.048668444 0.11269553 -0.12589705 -0.0130070895
000030 b8 a4 f1 3c 28 ea e8 bd d0 1f a0 bc 98 98 a5 3c
       0.02949749 -0.11372787 -0.01954642 0.020214364
000040 3e 60 13 be 70 7d ad 3d ee 79 0a be 57 ce 20 3e
       -0.14392182 0.08471191 -0.13523075 0.15703712
000050 4a 88 e1 bd ac 28 53 3d 19 9b 8d bd b0 3f f0 bc
       -0.11012323 0.05155246 -0.06914348 -0.029327244
000060 d4 a6 04 3d 7a 0f 0f be c6 a9 f3 bd 61 34 dd bd
       0.032385662 -0.13970748 -0.11897616 -0.10801006
000070 c2 1b d8 3d c8 82 9c 3c 89 1a 11 3e d3 e9 07 3e
       0.105521694 0.01910533 0.14170279 0.1327279
000080 e0 79 cd bc 8e 31 c1 3d b0 b2 04 3c 3f 11 1b 3e
       -0.025082529 0.0943328 0.008099243 0.15143298
000090 f0 a5 ed bc ad 97 05 3e 05 4a 18 be fe 29 14 be
       -0.02900979 0.13046141 -0.14871986 -0.14469144

transformer_encoder.encoder.attention.fc_K.weight f4 [40, 40]
000000 a8 f4 f0 bc b9 09 8f bd 56 df c0 3d 8b 1e 19 be
       -0.029413536 -0.06984276 0.09417598 -0.14953057
000010 4e 32 fd 3d 96 a2 fc bd 7a f5 bc 3d dc 34 89 3d
       0.123631105 -0.12335698 0.092265084 0.06699535
000020 50 90 5c 3c f9 a3 05 3e 4e 91 3e bd 52 9c d6 3d
       0.013462141 0.13050832 -0.046525292 0.104790345
000030 de e0 e9 bd a6 a4 ba 3d 92 64 ae 3d 18 8c dd bc
       -0.11419843 0.091134354 0.08515276 -0.027044341
000040 b4 82 2b bd ea 25 c8 3d 92 e2 c9 3d 00 0f b8 3c
       -0.041872695 0.097728565 0.09857668 0.02246809
000050 70 ac 2f 3d 70 6c 87 3c 40 3f aa bd 20 91 db bb
       0.04288906 0.0165312 -0.08312845 -0.00670065
000060 01 ed 0e be f7 7b 0a 3e 00 da 04 bb 26 6d d6 bd
       -0.13957597 0.13523851 -0.002027154 -0.10470037
000070 48 f1 f0 3c d6 26 94 3d 86 7b d0 3d b6 91 e1 3d
       0.029411927 0.0723397 0.1017981 0.1101412
000080 c2 ba f1 bd 6e 3b 9f 3d d8 6e 76 bd a1 c1 01 3e
       -0.11803199 0.07775007 -0.060164303 0.1267152
000090 fe 82 d0 3d 80 2a 62 bd e4 5c 3a bd b0 d4 cf bd
       0.10181235 -0.055216312 -0.045498744 -0.10147989
0000a0 32 52 fa 3d e0 bd 34 bc a6 8a b1 3d 13 7f 0f 3e
       0.12222709 -0.011031598 0.08669023 0.14013319
0000b0 34 2d 35 3d 1e 27 e4 3d 70 b0 f0 bc 00 eb e7 ba
       0.044232562 0.111402735 -0.029381007 -0.0017693937
0000c0 00 9b 90 bb e0 64 b6 bc f4 7c f4 bd b0 73 59 bc
       -0.0044130087 -0.022264898 -0.119378954 -0.013272211
0000d0 97 50 18 3e 00 cb 02 3d 37 76 06 3e 2c 4e 75 bd
       0.14874493 0.031931877 0.13131033 -0.059889004
0000e0 ee 94 9d bd aa 66 af 3d 66 f9 74 bd b2 a1 c5 3d
       -0.07694422 0.085645035 -0.059808157 0.096499816
0000f0 90 cc 0c bc e4 c0 10 bd 16 9e bb bd 36 33 a5 3d
       -0.008593693 -0.035340205 -0.09161012 0.08066408
000100 80 bc 26 bb d9 21 08 be 2d c1 1a 3e 29 ba 0c 3e
       -0.0025441945 -0.13294162 0.15112753 0.1374289
000110 86 7a 7f bd 93 3a c5 bd a8 f3 b0 bd 39 97 21 3e
       -0.062372707 -0.09630313 -0.08640224 0.15780343
000120 25 75 ed bd 2c 69 b2 bd fc 75 b9 3d 00 08 d0 b8
       -0.11594609 -0.08711466 0.09055707 -9.919703e-05
000130 91 12 97 bd d2 13 1a be b7 b2 ba bd b0 f5 fd 3c
       -0.07376588 -0.15046623 -0.091161184 0.031000942
000140 96 69 0e bd c0 cc d9 3c ed 1b 14 3e 95 18 04 3e
       -0.034768663 0.02658689 0.14463778 0.12900002
000150 8e 25 fe 3d bc c4 0b 3d c0 27 5b bb 21 ef 19 3e
       0.12409507 0.034123167 -0.003344044 0.15032627
000160 d4 cf 2c 3d 9f 5e b4 bd 80 a2 c2 3a 20 a6 05 bc
       0.042190388 -0.0880711 0.0014849454 -0.008157283
000170 9a e5 c3 3d 2c c5 43 3d 34 bb 73 3d c6 3e 68 bd
       0.095652774 0.04779546 0.059504703 -0.05670049
000180 b4 ee ee bd 40 78 a4 3c 03 89 ec bd 84 9f e3 bd
       -0.11666623 0.02007687 -0.115495704 -0.111144096
000190 2c 38 08 3d a0 a6 4b 3c 83 4b b5 bd d6 4d d1 3d
       0.033256695 0.012429863 -0.08852293 0.10219924
0001a0 6c c3 b8 3d f2 30 c4 3d 84 a1 16 be 88 d3 0d be
       0.09021649 0.09579648 -0.14710051 -0.13850224
0001b0 80 88 ab 3b a0 b6 fc bb 11 bb a7 bd 40 5c c0 3b
       0.005234778 -0.0077122003 -0.08189977 0.005870372
0001c0 15 a7 1d be 60 3e bc 3b 2e 5b eb bd 42 59 85 3d
       -0.15395768 0.0057447404 -0.114920005 0.06511165
0001d0 80 e0 3c 3c 3c 0c 06 bd ad c7 b2 bd 13 7d e4 bd
       0.011528134 -0.03272651 -0.087294914 -0.111566685
0001e0 6e 40 9a bd 8c 3b ac 3d e7 ec 10 be 16 d9 50 bd
       -0.0753182 0.08409795 -0.14152871 -0.05098828
0001f0 d7 53 1f 3e 28 df 35 3d 34 cf 82 3d f8 04 56 3d
       0.15559326 0.04440227 0.06387177 0.052250832
000200 06 f5 16 be 60 8a 80 3b 10 e9 24 bd 9e 21 b1 3d
       -0.14741907 0.0039227456 -0.04026133 0.0864899
000210 10 2e 91 bd 50 77 b6 bc 4b ac 12 be e0 e0 ef bc
       -0.07088864 -0.02227369 -0.14323537 -0.029282033
000220 42 a2 33 bd c8 10 75 bd c3 35 02 be 2e b7 9a 3d
       -0.043855913 -0.059830457 -0.12715821 0.0755447
000230 b8 29 89 3c 3b 96 16 3e 82 fd e9 3d ca 3c f5 3d
       0.016743526 0.14705746 0.11425306 0.11974485
000240 72 85 d6 3d 20 7b 46 bd 97 65 00 3e 5e 1a 62 bd
       0.104746714 -0.048457265 0.12538753 -0.055200927
000250 32 10 cc 3d 5f 30 11 3e 50 9f 1a bd d8 dc ff bc
       0.099640265 0.14178608 -0.03774959 -0.031233236
000260 d0 a3 3d bc d8 12 db 3c fa 13 b7 3d 07 2a 09 3e
       -0.0115747005 0.026742384 0.08939357 0.13394938
000270 96 18 47 bd 60 93 b6 3c d6 f8 a5 bd c0 c0 94 3c
       -0.04860743 0.02228707 -0.08104102 0.018158317
000280 80 fb 96 3d ae c0 10 be 41 43 16 3e bc 65 f9 bd
       0.073721886 -0.14136001 0.14674093 -0.121776074
000290 f7 f4 0b be 17 56 1b 3e 39 39 ad bd eb 27 15 3e
       -0.13667665 0.1516956 -0.0845818 0.14566009
0002a0 fe c4 99 bd f4 0e ff bd 20 cb 26 bd 1b 8e 0d 3e
       -0.075082764 -0.12454024 -0.04072106 0.1382374
0002b0 e1 3d 09 be 7c 25 86 3d 60 6f 6b 3d ed 68 0c 3e
       -0.13402511 0.06550118 0.057479262 0.13711901
0002c0 e8 7c ab 3c 23 f3 8f bd 3c 40 65 bd e6 d4 3d bd
       0.020933583 -0.070287965 -0.05596946 -0.046345614
0002d0 54 da 20 bd ee 35 bb bd 18 43 13 be 2a 66 9e bd
       -0.039270714 -0.09141146 -0.14381063 -0.0773433
0002e0 be 30 de 3d 4a 7a e7 bd a8 42 a7 3c 23 8f 21 be
       0.108491406 -0.11302622 0.020417526 -0.15777259
0002f0 70 73 2a 3d 98 4f ec 3c c0 9a 58 bb 36 fa c3 3d
       0.041613996 0.028846547 -0.0033051223 0.09569208
000300 82 b9 11 bd b7 00 13 3e 80 92 06 bb a6 c0 ad 3d
       -0.035577305 0.14355741 -0.0020534098 0.084840104
000310 e0 44 06 be c4 a8 67 3d 1d 59 1b 3e 76 a1 9f 3d
       -0.13112211 0.05655743 0.15170713 0.07794468
000320 aa 7a f0 3d 10 70 4f 3c 81 22 11 be f9 3d 0b be
       0.11742146 0.012660995 -0.14173318 -0.1359786
000330 ae 92 ca 3d a0 70 60 3c f0 50 b8 bc 20 a9 4b 3c
       0.09891258 0.013698727 -0.022499532 0.012430459
000340 04 0b 9a bd c0 57 ba 3d d9 75 9d bd ff 53 a9 bd
       -0.07521632 0.09098768 -0.07688493 -0.08267974
000350 2e 30 53 bd 3d d2 e4 bd ea 3e 9d 3d 80 11 7d 3b
       -0.05155962 -0.11172912 0.076780155 0.0038615167
000360 0c c5 09 be 16 f7 90 3d 01 9b 13 be 00 7e 92 ba
       -0.13454074 0.07078378 -0.14414598 -0.0011176467
000370 e3 7f 1a 3e bc d6 6b 3d 00 04 f3 3b 3c 83 71 3d
       0.15087847 0.057577834 0.0074162483 0.058963045
000380 9d e2 1e 3e 7c 88 ef bd 9a b6 ae bd c8 d6 3f 3d
       0.15516134 -0.11695954 -0.08530922 0.04683569
000390 b4 3f 5f bd ff 90 0a be b3 1b e3 bd 74 b5 bf bd
       -0.05450411 -0.13531874 -0.110892676 -0.09360781
0003a0 80 0f 1b 3d 8a 0a df bd 5e e3 87 3d 14 fc cd bd
       0.03785658 -0.10890682 0.06635164 -0.10057846
0003b0 17 31 1b 3e 40 97 57 bd 1c aa 11 3d bb b4 92 bd
       0.15155445 -0.052634478 0.03556262 -0.07163378
0003c0 11 0d 13 3e a2 47 e7 bd 49 04 0b 3e d2 b2 cb 3d
       0.14360453 -0.1129296 0.13575853 0.09946217
0003d0 a0 15 23 bc e2 44 5f bd d4 52 aa 3d 14 b2 b1 3d
       -0.009953886 -0.05450905 0.083165795 0.08676544
0003e0 1c ab f6 bd 92 9f 15 be ce 97 e0 3d e6 4b ea bd
       -0.12044355 -0.14611652 0.109664544 -0.11440258
0003f0 80 1f dc 3c bb 7a 04 be d0 a7 25 3c 4e 33 e7 bd
       0.02687049 -0.12937443 0.01011081 -0.112890825

transformer_encoder.encoder.attention.fc_K.bias f4 [40]
000000 90 26 17 3c 00 35 b8 3b 80 02 ca 3a e0 03 39 bc
       0.009225503 0.0056215525 0.0015412122 -0.011292428
000010 8a ef 94 3d ff 89 06 3e a6 c4 f5 bd 88 9b 9b 3d
       0.07272251 0.13138579 -0.12000398 0.075980246
000020 dc 5e 23 3d d0 13 5f 3d ff 0a 95 bd 67 20 16 3e
       0.039885387 0.054462254 -0.07277488 0.14660798
000030 a0 74 0c 3d 64 e1 20 be 2a 72 00 be 46 f0 14 bd
       0.03429091 -0.1571098 -0.1254355 -0.036361955
000040 60 7b c1 bb 02 67 ac bd 03 72 05 be e4 0c d5 bd
       -0.0059046 -0.08418085 -0.13031773 -0.10402849
000050 a0 d4 72 3c a1 5b 21 3e e6 67 74 bd 36 4c c9 bd
       0.014821202 0.1575761 -0.059669398 -0.09828989
000060 83 88 0e 3e a4 7b 88 3d 26 21 d1 3d c6 c2 0b be
       0.13919263 0.066642076 0.10211401 -0.13648519
000070 9a 98 ca 3d c8 74 3d 3d a6 bd 36 bd 88 6a 5a 3d
       0.09892388 0.04625395 -0.044614457 0.053324252
000080 00 fd 5c bc c0 f7 d2 bb ba 83 1e be 60 19 20 3d
       -0.013488054 -0.0064382255 -0.15479937 0.0390867
000090 f4 d1 63 3d c2 b2 ae 3d a0 e9 33 3d 02 3f 1e bd
       0.05562015 0.08530189 0.043923974 -0.038634308

transformer_encoder.encoder.attention.fc_V.weight f4 [40, 40]
000000 28 df 90 bc a0 83 18 bc b8 66 35 bd 80 64 c8 3a
       -0.017684534 -0.009308726 -0.044287413 0.001528874
000010 e4 c2 0e be 64 f7 38 3d 29 42 08 be a5 ed 8f bd
       -0.13941532 0.045157805 -0.13306488 -0.07027749
000020 66 20 fb 3d 48 a4 28 3d a7 b3 a0 bd f8 59 c7 bc
       0.12262039 0.041172296 -0.07846766 -0.024334893
000030 ac 44 59 bd 59 7d 01 3e 9a e3 8f 3d 3e d4 f3 3d
       -0.053044006 0.12645473 0.070258334 0.11905716
000040 b0 64 46 3d 4a 44 a5 bd 9a 9a 0c bd 6c 9a 62 bd
       0.048435867 -0.08069666 -0.034327127 -0.05532305
000050 2e e1 8d 3d dc 11 ff bd c0 45 79 3d 40 04 9c bb
       0.06927715 -0.12454578 0.060857534 -0.004761249
000060 2d 1d 19 3e 58 61 b2 3c 43 7c 17 be f9 c5 01 3e
       0.14952536 0.021774933 -0.14793496 0.12673177
000070 28 c4 07 bd 61 48 09 3e 7d 87 aa bd e0 9a d4 3c
       -0.033146054 0.13406517 -0.083266236 0.025952756
000080 e8 76 b9 3c ec 8c b0 3d 94 0a 15 bd 93 a0 99 bd
       0.022639707 0.08620629 -0.03638704 -0.0750133
000090 68 1d 73 3d f5 49 c9 bd 58 54 95 bc 63 8a 06 be
       0.059354216 -0.09828559 -0.018228695 -0.13138728
0000a0 70 c0 91 bc c4 76 f7 bd 88 0a de bd e0 dd 0f 3c
       -0.017791957 -0.120831996 -0.108418524 0.0087809265
0000b0 71 cb 1e be 25 31 a6 bd ad 99 97 bd b0 4e 35 bd
       -0.15507294 -0.08114842 -0.07402358 -0.044264495
0000c0 32 8f 10 be ee 5d c9 3d b5 fc 0b 3e 7b 7a 8c bd
       -0.14117125 0.09832369 0.13670619 -0.06859299
0000d0 54 7f 21 be 17 e1 1f 3e 98 86 2b 3d 42 13 cc 3d
       -0.15771228 0.15613209 0.041876405 0.09964611
0000e0 80 db 38 3d ab 16 10 3e 7e 09 dc bd 84 f7 8c 3d
       0.045131207 0.14071147 -0.10743998 0.06883147
0000f0 56 c9 9f 3d 09 65 1a 3e 14 54 b8 3d c2 84 17 bd
       0.07802074 0.15077604 0.09000412 -0.036991842
000100 88 44 94 bd c9 d3 13 3e 53 ad 0e be d2 f4 ef 3d
       -0.07239634 0.14436258 -0.13933305 0.11716618
000110 7d f3 12 be ca fa a9 3d b8 b6 f0 3c d4 9b 2c bd
       -0.14350696 0.08299787 0.029384002 -0.042140797
000120 9c ab 04 bd ba a3 b1 bd a8 ff 0c 3d c5 2f de bd
       -0.032390222 -0.086738065 0.0344235 -0.10848955
000130 6a 6a 42 bd 43 43 9b bd 10 ac 0d bc 18 e0 19 be
       -0.047464766 -0.075811885 -0.00864698 -0.15026891
000140 e1 53 b6 bd d8 48 8a 3c 50 b8 ac bc fe f4 fc 3d
       -0.089027174 0.016880438 -0.02108398 0.12351416
000150 4c 92 00 bd 07 1a b4 bd f7 a3 1c 3e 6f 7c 21 3e
       -0.03138952 -0.08794027 0.15296923 0.15770124
000160 10 31 ad 3d 0d 83 03 be 60 0b 7b 3c 20 4e 64 3d
       0.084566236 -0.1284296 0.015322536 0.05573857
000170 f0 47 48 3d 00 87 57 bc 2e a5 5c bd 50 f9 c2 bd
       0.04889673 -0.013154745 -0.053868465 -0.09520209
000180 00 f5 62 3a c0 2f 3f 3b 1c c2 49 3d 71 37 f2 bd
       0.00086577237 0.0029172748 0.049257383 -0.11826981
000190 d8 f2 5c 3d 10 3d 8f bc 21 6b 18 3e 6e e2 f2 3d
       0.05394253 -0.017485172 0.14884616 0.11859594
0001a0 ec 58 ca bd 6b 13 9c bd ea 07 d6 bd f2 c7 f6 3d
       -0.09880242 -0.07620891 -0.10450728 0.12049855
0001b0 00 71 90 3a ae 4c f8 3d 80 d6 16 3c 46 00 ff 3d
       0.0011020005 0.121240005 0.009206414 0.12451224
0001c0 ac 4c 07 bd be 28 e1 bd c5 da 1e 3e 32 d7 b8 bd
       -0.033032104 -0.10994099 0.15513141 -0.0902542
0001d0 5f d5 08 3e 3c c3 98 bd 08 ed 3e 3d 10 c0 00 bd
       0.13362645 -0.07459113 0.04661277 -0.031433165
0001e0 86 96 bb 3d 0a 01 e9 3d 38 ee 6e bd 79 23 dc bd
       0.091595694 0.11377151 -0.05833265 -0.10748953
0001f0 72 ca e2 3d ca bc f2 3d 3c 61 19 be 32 b1 dc bd
       0.1107377 0.11852415 -0.14978498 -0.10775985
000200 c0 12 ed bb 2c 6a 3a 3d d8 b6 87 bc 9c 25 4b bd
       -0.007234901 0.04551141 -0.016566679 -0.049596414
000210 e3 bd 84 bd 85 7e ce bd ae b1 17 bd 88 c9 ec bd
       -0.064815305 -0.100827254 -0.037034683 -0.115618765
000220 ac 55 0c 3d f0 1b df bc 3c b0 5a 3d aa 3a 07 be
       0.03426139 -0.027235001 0.053390726 -0.13205972
000230 d2 78 17 bd de 6c 1f be 82 e9 10 be 0a 2e fb 3d
       -0.036980458 -0.15568873 -0.14151576 0.12264641
000240 a4 22 79 3d b6 6d f9 bd 37 60 09 3e 31 09 12 3e
       0.06082405 -0.12179129 0.1341561 0.14261319
000250 20 98 59 3c f2 8a c0 3d f0 d9 55 3d 3b 32 12 3e
       0.013280898 0.09401502 0.052209795 0.14276974
000260 f3 75 1f 3e 10 6e 66 3d 28 7f bc 3c 98 1b 32 3d
       0.15572338 0.056257308 0.023009852 0.043483347
000270 ea 5d d4 3d f0 29 3c 3c c8 23 16 3d 75 0d 8f bd
       0.10369475 0.011484608 0.036655217 -0.069849886
000280 fc 82 b5 3d 86 7e d5 3d 38 a3 e9 bd 88 8f 9c bc
       0.08862874 0.10424523 -0.11408085 -0.01911141
000290 b8 e6 53 bd e8 6d e5 bc f8 e8 de bd 06 73 b7 bd
       -0.051733702 -0.028006509 -0.10884279 -0.08957486
0002a0 e6 57 f5 3d b2 e4 e8 bd c4 c7 4f bd 38 aa 38 3d
       0.11979656 -0.11371745 -0.05072762 0.04508421
0002b0 9c 6e 70 bd 30 51 4c 3c aa 15 17 be 79 43 1b 3e
       -0.058699235 0.0124705285 -0.14754358 0.15162458
0002c0 20 5b 60 3d 90 c6 44 3d 50 4d 07 3c d8 04 da bd
       0.054774404 0.048040926 0.008258179 -0.10645455
0002d0 67 ed 0b be 6f e2 21 3e ca 8b df 3d 88 5c 19 3d
       -0.1366478 0.15809034 0.109153345 0.03744176
0002e0 58 70 b0 bd 50 e4 2d 3d d9 40 0a 3e f4 89 05 3d
       -0.08615178 0.042454064 0.135013 0.032602265
0002f0 82 c2 dc bd b7 28 1a 3e b0 c7 1d 3d e5 24 0c be
       -0.10779287 0.15054594 0.038520515 -0.13685949
000300 9e b3 a1 3d 1d 2e 16 be f7 8b 11 be a8 88 b5 3d
       0.078955874 -0.14666028 -0.14213549 0.08863956
000310 00 c2 00 3b 14 69 07 bd 7c 2c fe bd 18 66 d5 bd
       0.0019646883 -0.033059195 -0.124108285 -0.104198635
000320 3a 63 d0 3d 0e 88 e9 bd f0 96 06 3d e0 e9 55 bd
       0.10175176 -0.114029035 0.03285879 -0.052224994
000330 48 10 07 3d 68 35 99 bc 09 85 21 3e a6 5c 90 3d
       0.03297451 -0.018702224 0.15773405 0.07048921
000340 6d 56 c4 bd 18 61 81 3d 1c af 1d bd b0 db 14 bc
       -0.09586797 0.06317347 -0.038497075 -0.009085581
000350 74 4d 29 3d 35 63 0c 3e 06 67 f0 3d 5d 59 9c bd
       0.04133363 0.1370972 0.117384 -0.07634232
000360 e6 0e 8b 3d 20 7e 9f bb 38 87 2a 3d a0 4d af bb
       0.06789951 -0.00486733 0.04163286 -0.00534983
000370 a4 06 07 bd 2a aa bf 3d f0 61 67 3c fb 58 21 3e
       -0.032965317 0.09358628 0.014122471 0.157566
000380 5c 6c 83 bd 88 6b be bc 40 c7 5d bb 9c d8 e5 bd
       -0.06417152 -0.023244634 -0.0033840686 -0.112229556
000390 4a 5d bc 3d 65 26 8e bd ad a0 0c 3e 04 58 04 be
       0.09197481 -0.06940917 0.13733168 -0.129242
0003a0 44 81 4d 3d 38 ad cc bd 60 bd 1b be 00 73 47 3b
       0.050172105 -0.09993976 -0.1520896 0.0030433536
0003b0 d6 c7 a9 bd ba 27 c9 bd a0 5e 2f 3c 06 99 c2 3d
       -0.08290069 -0.0982203 0.010703713 0.09501843
0003c0 3c c0 76 bd b2 7b e3 3d 70 0e c1 bd fc b6 9f bd
       -0.060241923 0.111075774 -0.09426582 -0.077985734
0003d0 de 7c e6 bd 61 15 21 3e c1 af 1b 3e 82 b3 cf 3d
       -0.11254285 0.15730812 0.15203764 0.1014166
0003e0 61 cc 80 bd e0 73 1d bc 2a c8 d9 3d 9e 71 d0 bd
       -0.06288982 -0.009610146 0.106338814 -0.10177921
0003f0 40 aa 9c 3b b2 89 c7 bd 38 16 42 bd c4 a3 2d 3d
       0.0047810376 -0.0974306 -0.04738447 0.042392507

transformer_encoder.encoder.attention.fc_V.bias f4 [40]
000000 5c 8c 19 3d fd 58 0d 3e 3d 2e 13 3e dc fb 37 3d
       0.037487373 0.13803478 0.14373107 0.044917926
000010 0d a7 b0 bd 00 71 03 be 9c 63 1d bd b6 81 68 bd
       -0.086256124 -0.12836075 -0.038425073 -0.056764327
000020 52 f8 a8 bd 40 a0 69 bc f8 6a 82 3d 8a d4 83 3d
       -0.08250488 -0.014259398 0.06368059 0.06437023
000030 41 cb 0f be da 35 f9 3d 34 51 5c 3d 30 d5 9d 3c
       -0.14042379 0.121684745 0.05378838 0.019266695
000040 48 98 84 3d fe a1 d3 3d 91 0e 0c 3e b8 e3 07 bd
       0.06474358 0.10333632 0.13677432 -0.033176154
000050 86 e1 db 3d 08 92 46 3d 46 a7 cc bd 2c db 66 3d
       0.107363746 0.04847911 -0.099928424 0.056361362
000060 49 68 17 3e 09 88 c1 bd 7a 19 a9 bd d4 63 e0 bd
       0.14785875 -0.09449775 -0.082568124 -0.10956541
000070 16 9b 8b 3d fe 86 ce bd 98 df ed bd ab 39 0a be
       0.0681669 -0.100843415 -0.11614913 -0.13498561
000080 d7 85 01 be e0 02 16 3d ae ae d3 3d ba 3f e8 3d
       -0.12648712 0.036623836 0.10336052 0.1134028
000090 38 3d d4 bd 77 39 00 be 6f 1a fe bd 9d b7 b0 bd
       -0.10363239 -0.12521921 -0.124073856 -0.086287715

transformer_encoder.encoder.attention.fc.weight f4 [40, 40]
000000 b0 be b0 3d a0 cd e7 3b 20 e0 fd 3b 15 f9 bb bd
       0.08630121 0.007074073 0.007747665 -0.09178368
000010 fc 50 af 3d c5 d9 11 be 6a 13 9b 3d 8b d9 0d 3e
       0.085603684 -0.14243229 0.07572062 0.13852517
000020 7e 07 6e bd 3f bc e0 bd 12 4f e4 bd 39 ab ba bd
       -0.058112614 -0.10973405 -0.11147894 -0.091146894
000030 cd 25 16 3e e0 21 14 3d 38 da d3 bd e8 03 cd bd
       0.14662857 0.03616512 -0.10344356 -0.10010511
000040 5a 3e 57 bd 12 f7 ac 3d a8 52 e7 3c 64 2c 6e bd
       -0.052549697 0.084455624 0.028237656 -0.058147803
000050 59 7a f9 bd 24 e0 d5 bd 9d 47 1d 3e b7 23 0a be
       -0.12181539 -0.10443142 0.1535935 -0.13490187
000060 76 e2 a0 bd d0 30 47 bd 26 00 e6 bd b8 c3 06 3d
       -0.07855694 -0.048630536 -0.11230497 0.032901496
000070 98 7a da bd 44 91 45 3d 0c 26 b6 3d c0 95 21 bb
       -0.10667914 0.04823424 0.088939756 -0.0024655908
000080 32 3f 15 bd 7c b0 21 be a8 0b 71 bd 84 7c 86 3d
       -0.03643722 -0.1578998 -0.058849007 0.06566718
000090 25 db 9c bd 8a c1 c3 3d a0 14 01 be 80 d3 86 bb
       -0.07658986 0.09558399 -0.12605524 -0.0041145682
0000a0 24 cc c9 bd fe e9 de 3d a0 d8 d8 bc 40 aa 04 3d
       -0.0985339 0.10884474 -0.026470482 0.032388926
0000b0 0e 5f 5f bd 90 db a6 bd 04 80 11 bd 20 65 d9 3b
       -0.05453401 -0.08147347 -0.035522476 0.0066343695
0000c0 bf 09 b3 bd 00 3f 12 3d 33 11 16 3e a0 c1 5d 3c
       -0.08742093 0.035704613 0.14654998 0.013534933
0000d0 84 2e 8e 3d 18 d2 db bd 20 ed ee 3c d8 0f 66 bd
       0.06942466 -0.107334316 0.029165804 -0.056167454
0000e0 25 44 d9 bd 40 77 43 3c 1a ef 9b bd 06 9f 00 be
       -0.10608701 0.011930287 -0.076139644 -0.12560663
0000f0 17 a6 1f be 1c 3e ab 3d 16 3a 15 be 18 a7 11 be
       -0.15590702 0.08361456 -0.1457294 -0.14223897
000100 cc b0 60 3d e4 16 4b bd 62 2d b2 3d 8c 87 60 3d
       0.054856107 -0.049582377 0.08700062 0.054816768
000110 28 50 b6 bd 90 78 3b 3c 59 41 87 bd 00 9c a9 3d
       -0.08902007 0.011442319 -0.06604261 0.08281708
000120 88 52 b1 bc 98 8e ff bd 40 c2 5d 3b b0 97 df bc
       -0.0216458 -0.124783695 0.0033837706 -0.02729401
000130 0d 41 16 be 20 b1 c5 bc a1 d4 08 3e 60 6b ac 3c
       -0.14673252 -0.024132311 0.13362361 0.021047294
000140 0c 6c ef bd 50 29 e0 bc 35 14 1b 3e c0 db e3 bd
       -0.1169053 -0.02736345 0.15144427 -0.11125898
000150 32 a0 1e be 6b 85 1b 3e 88 c4 16 bd 28 1e d8 bc
       -0.15490797 0.15187614 -0.03680852 -0.026381567
000160 0a 6c 3c bd 2c 75 1f be 5d f0 1e 3e 60 d5 c9 bd
       -0.04600147 -0.15572041 0.15521379 -0.09855151
000170 4d 59 dc bd 1a 35 61 bd 02 9a f1 3d 0b e3 06 3e
       -0.1075922 -0.054982282 0.11796953 0.13172548
000180 94 e1 03 3d 62 9e 9d 3d f5 f8 80 bd a8 34 e1 bc
       0.03219755 0.07696225 -0.06297485 -0.027490929
000190 7c 43 6d bd 5e 9b c1 3d 07 de 20 3e 53 86 e4 bd
       -0.057925686 0.09453462 0.15709697 -0.11158433
0001a0 f8 e8 52 bd 6e 55 4c bd ab e3 1b be 28 97 ed 3c
       -0.051491708 -0.04988616 -0.15223567 0.029002741
0001b0 88 70 08 be e0 8e 4b 3d 36 9d c4 bd 6c 86 28 3d
       -0.13324177 0.049696803 -0.09600298 0.04114382
0001c0 2d e8 04 be 40 cf c0 bd 26 3f be bd e3 61 02 3e
       -0.12979193 -0.0941453 -0.09289388 0.12732653
0001d0 b4 4e b2 3d 1c 52 47 3d a8 bb 0d 3d 88 67 9c 3c
       0.08706418 0.04866229 0.03460279 0.019092336
0001e0 cd a3 a2 bd 10 2d 89 bc 72 fd bd 3d cc 64 9f bd
       -0.07941399 -0.01674512 0.092768565 -0.07782897
0001f0 14 34 a1 bd c0 5b 2e bb e2 17 aa bd e9 f2 85 bd
       -0.07871261 -0.002660498 -0.083053365 -0.06540472
000200 84 54 64 3d 34 42 67 3d e7 17 1b be e0 70 3c bc
       0.055744663 0.05645962 -0.15145837 -0.011501521
000210 14 a7 4a bd 53 fb 1c 3e 00 e2 2b 3a 01 af 01 be
       -0.049475744 0.15330248 0.0006556809 -0.12664415
000220 00 ce ec 39 c5 39 14 3e 8c 8a 6a 3d aa ed c1 bd
       0.0004516691 0.14475162 0.057261035 -0.09469159
000230 fc 8b 44 bd b2 c0 d6 3d c2 c9 f2 bd c8 15 9e 3d
       -0.047985062 0.104859725 -0.118548885 0.07718998
000240 d0 02 2b bd 44 95 0b 3d 80 40 84 3a 10 94 fa bc
       -0.04175073 0.034077898 0.0010090023 -0.03058818
000250 d0 4a 1a 3c 33 80 a7 bd a0 a7 98 bb fb aa 96 bd
       0.009417251 -0.08178749 -0.0046586543 -0.07356831
000260 d2 f9 0e bd e0 f7 76 3d 35 32 f4 bd a1 cd b0 bd
       -0.034906216 0.060294986 -0.11923639 -0.086329706
000270 d8 4c dd bd 96 3d 81 3d 53 70 e7 bd 76 b6 54 bd
       -0.108056724 0.06310575 -0.11300721 -0.05193182
000280 68 b3 82 3d de 8c 1f bd 32 18 c4 3d 87 d3 1c 3e
       0.06381875 -0.0389527 0.095749274 0.15315066
000290 34 12 82 3d 60 81 d0 bb 10 74 55 3c 4c 9f eb bd
       0.06351128 -0.006363079 0.01302816 -0.11504993
0002a0 f8 49 06 bd be 40 d2 bd e0 16 49 3d 60 86 b6 bc
       -0.032785386 -0.10266255 0.04909408 -0.022280872
0002b0 39 f3 05 3e d7 b9 82 bd 68 d3 b4 bd 6f d7 b5 bd
       0.13081063 -0.063831024 -0.08829385 -0.08878981
0002c0 b4 b8 25 3d b9 9a 1a 3e 40 9b 33 bb a9 39 20 be
       0.04045935 0.15098085 -0.0027405769 -0.15646996
0002d0 e4 fd 67 3d 0e dc c9 bd e0 68 d5 bb 88 34 00 be
       0.056638613 -0.09856425 -0.006512746 -0.12520039
0002e0 90 e4 a1 3c a1 7a 0c 3e 50 ad a2 3d 4c ed e1 bd
       0.019762307 0.13718654 0.07943213 -0.11031589
0002f0 5a 86 c8 bd 5a 7a de bd 10 bb 79 bc 23 b4 19 be
       -0.097912505 -0.108631805 -0.015242353 -0.15010123
000300 fc c3 b6 bd 4c 2f 4d 3d 08 35 ed bc 44 ac 18 3d
       -0.089241 0.050093934 -0.028955951 0.03727366
000310 7a 8f 35 bd e8 08 c7 3c 2a c4 ec bd 1c 50 b0 3d
       -0.044326283 0.024296239 -0.11560853 0.0860903
000320 3f e7 95 bd 80 74 81 3d f0 aa 87 3d b6 f1 aa bd
       -0.07319497 0.06321049 0.066244006 -0.08346884
000330 4b 51 1d 3e b0 8b 07 be 32 91 cd 3d 5a da 15 be
       0.15363042 -0.1323688 0.100374594 -0.14634076
000340 46 1b cb bd 50 3a 0e bc cf 22 88 bd 76 90 ca bd
       -0.09917311 -0.008680895 -0.06647264 -0.09890835
000350 f0 9e 9e bd ba c3 82 3d 64 fe 2f bd 12 f4 bc 3d
       -0.07745159 0.06384988 -0.042967215 0.0922624
000360 28 de f3 bc ed 23 20 be 00 0e ea b9 00 4d e0 bb
       -0.029769018 -0.15638705 -0.0004464239 -0.0068451166
000370 06 fc bb bd 49 5a 93 bd f9 c1 1d be 4e 5a da 3d
       -0.09178929 -0.07194955 -0.15406026 0.106617555
000380 93 a0 91 bd 8a 17 c1 bd 06 4c c9 bd a0 89 56 bc
       -0.07110705 -0.09428318 -0.098289534 -0.013094336
000390 10 92 c2 bc 76 c3 3a bd 88 a4 bd bd 6d 6a b7 bd
       -0.023751289 -0.045596562 -0.092598975 -0.08955846
0003a0 d0 6d 38 3d 3b c7 0b be 82 99 31 bd 4d 79 cc bd
       0.0450266 -0.13650219 -0.043359287 -0.09984074
0003b0 75 42 de bd e0 a5 ef bb 7a 41 b9 3d d0 cb ef bd
       -0.108525194 -0.007313475 0.09045692 -0.11708796
0003c0 ca 0a dd 3d b8 f0 03 bd 8a f7 c5 bd 7f 9e ec bd
       0.107930735 -0.03221199 -0.09666355 -0.11553668
0003d0 6c 46 05 bd cb 2f 07 3e 5d b2 08 be 7e 5f e8 bd
       -0.032537863 0.13201825 -0.1334929 -0.11346339
0003e0 9b 64 15 be b1 8c 8f bd 68 7d a0 3d de e2 9e bd
       -0.14589159 -0.07009257 0.07836419 -0.07758115
0003f0 9f 07 09 be fc 33 1d be cf 40 ed bd 00 8f 05 bd
       -0.13381813 -0.15351862 -0.11584627 -0.03260708

transformer_encoder.encoder.attention.fc.bias f4 [40]
000000 e9 6d 1e be 0a 82 0d be 7e fd 14 bd e7 71 f5 bd
       -0.15471615 -0.13819137 -0.03637456 -0.11984616
000010 22 0f d3 3d d8 99 11 3d bc 85 0d be 57 87 e7 bd
       0.10305621 0.035547107 -0.13820547 -0.11305111
000020 e0 f6 f1 bd 8f fa 10 3e a6 ef bc bd c3 81 1b be
       -0.11814666 0.1415808 -0.09225397 -0.15186219
000030 fd 72 19 be 4c ca 91 3d e2 31 08 be 0a ac 49 bd
       -0.14985271 0.07118663 -0.13300279 -0.049236335
000040 f6 56 4e bd 9a 4b c8 bd 5e c4 85 3d 50 ee 65 3d
       -0.0503759 -0.09780045 0.06531595 0.056135476
000050 3f c8 9b bd 76 a6 f6 3d a8 d9 9b bd 42 b0 e3 bd
       -0.07606553 0.12043469 -0.07609874 -0.11117603
000060 c0 05 d6 3b 1e 55 b8 bd 8d 8b 1a be d4 f3 d4 bd
       0.006531447 -0.0900061 -0.15092297 -0.10398069
000070 1b 2f 20 3e f0 af 08 be 67 a9 1a be a5 c2 21 be
       0.1564297 -0.13348365 -0.15103684 -0.15796907
000080 76 f1 f7 3d 08 d7 df bd f4 c4 b3 bd 48 e7 ed 3c
       0.12106602 -0.10929686 -0.087778 0.029040948
000090 d7 2e 97 bd 9a f7 2d bd 37 21 0a 3e 23 56 1b 3e
       -0.07381981 -0.04247246 0.13489233 0.15169577

transformer_encoder.encoder.attention.layer_norm.weight f4 [40]
000000 00 00 80 3f 00 00 80 3f 00 00 80 3f 00 00 80 3f
       1.0 1.0 1.0 1.0
000010 00 00 80 3f 00 00 80 3f 00 00 80 3f 00 00 80 3f
       1.0 1.0 1.0 1.0
000020 00 00 80 3f 00 00 80 3f 00 00 80 3f 00 00 80 3f
       1.0 1.0 1.0 1.0
000030 00 00 80 3f 00 00 80 3f 00 00 80 3f 00 00 80 3f
       1.0 1.0 1.0 1.0
000040 00 00 80 3f 00 00 80 3f 00 00 80 3f 00 00 80 3f
       1.0 1.0 1.0 1.0
000050 00 00 80 3f 00 00 80 3f 00 00 80 3f 00 00 80 3f
       1.0 1.0 1.0 1.0
000060 00 00 80 3f 00 00 80 3f 00 00 80 3f 00 00 80 3f
       1.0 1.0 1.0 1.0
000070 00 00 80 3f 00 00 80 3f 00 00 80 3f 00 00 80 3f
       1.0 1.0 1.0 1.0
000080 00 00 80 3f 00 00 80 3f 00 00 80 3f 00 00 80 3f
       1.0 1.0 1.0 1.0
000090 00 00 80 3f 00 00 80 3f 00 00 80 3f 00 00 80 3f
       1.0 1.0 1.0 1.0

transformer_encoder.encoder.attention.layer_norm.bias f4 [40]
000000 00 00 00 00 00 00 00 00 00 00 00 00 00 00 00 00
       0.0 0.0 0.0 0.0
000010 00 00 00 00 00 00 00 00 00 00 00 00 00 00 00 00
       0.0 0.0 0.0 0.0
000020 00 00 00 00 00 00 00 00 00 00 00 00 00 00 00 00
       0.0 0.0 0.0 0.0
000030 00 00 00 00 00 00 00 00 00 00 00 00 00 00 00 00
       0.0 0.0 0.0 0.0
000040 00 00 00 00 00 00 00 00 00 00 00 00 00 00 00 00
       0.0 0.0 0.0 0.0
000050 00 00 00 00 00 00 00 00 00 00 00 00 00 00 00 00
       0.0 0.0 0.0 0.0
000060 00 00 00 00 00 00 00 00 00 00 00 00 00 00 00 00
       0.0 0.0 0.0 0.0
000070 00 00 00 00 00 00 00 00 00 00 00 00 00 00 00 00
       0.0 0.0 0.0 0.0
000080 00 00 00 00 00 00 00 00 00 00 00 00 00 00 00 00
       0.0 0.0 0.0 0.0
000090 00 00 00 00 00 00 00 00 00 00 00 00 00 00 00 00
       0.0 0.0 0.0 0.0

transformer_encoder.encoder.feed_forward.fc1.weight f4 [256, 40]
000000 9a 2a ea 3d d6 14 b4 3d ee 10 f5 bd c9 98 02 3e
       0.11433907 0.08793037 -0.1196612 0.12753595
000010 1d a6 0f 3e ea ce b0 bd 02 0f f2 3d 8e f6 cb 3d
       0.14028211 -0.08633216 0.11819269 0.09959136
000020 62 ec 8d 3d 25 e6 b1 bd a4 20 29 3d 8f f2 c8 bd
       0.06929852 -0.08686475 0.041290894 -0.098118894
000030 70 0f 72 bd a2 d8 d3 3d e2 e6 f9 3d 62 90 e1 3d
       -0.059096754 0.10344054 0.122022405 0.11013867
000040 f3 4e b1 bd 4a 44 9a 3d ea 20 ad 3d fa d0 c9 3d
       -0.086576365 0.07532556 0.084535435 0.09854312
000050 46 05 bd 3d be 9e e7 3d 6f 65 10 be b8 c6 4c 3d
       0.092295215 0.113095745 -0.14101194 0.0499942
000060 02 4a a8 3d 00 ef 4b 3c 6f 4b 09 3e 78 4a d6 bd
       0.08217241 0.012447119 0.13407682 -0.104634225
000070 fe 78 7e bd ef 4d 12 3e d2 57 be 3d 00 bc e6 3a
       -0.062127106 0.14287542 0.09294094 0.0017603636
000080 20 f9 14 bc 76 d2 c3 bd f9 17 00 3e 88 64 12 bd
       -0.009092599 -0.095616266 0.12509145 -0.035740405
000090 c8 e2 a4 3c 3e 8e b1 3d be cd d7 bd ae b6 74 bd
       0.020127669 0.08669709 -0.10537289 -0.05974453
0000a0 b2 57 7e bd fb 3d 07 3e 70 6c 5e 3c f4 9d 48 3d
       -0.06209535 0.13207237 0.013575658 0.04897876
0000b0 22 f0 4b bd cc b2 7d 3d 44 5c 20 3d 48 cb b2 3c
       -0.049789555 0.061938092 0.03915049 0.021825448
0000c0 5a cd b9 3d dd 5b 12 3e 0a 4a d2 bd df 05 fd bd
       0.09072371 0.14292856 -0.10268028 -0.123546354
0000d0 67 30 13 be 82 3f ab 3d 56 7c dc bd 0a 04 03 be
       -0.14373933 0.083617225 -0.10765903 -0.1279451
0000e0 e7 39 07 be e3 39 c4 bd 3f 29 9a bd 48 50 27 3d
       -0.13205682 -0.095813535 -0.07527398 0.040848047
0000f0 00 48 74 3c 18 42 d6 bd b0 24 3e bc ac d2 dd bd
       0.014909744 -0.10461825 -0.011605427 -0.10831198
000100 4e fc bb 3d 5c 6e 92 bd 10 3e 28 bd 75 f9 14 3e
       0.09178983 -0.07149956 -0.041074812 0.14548285
000110 24 b0 91 3d fa 80 cc 3d 50 84 71 3c ce 92 e1 bd
       0.07113674 0.09985538 0.014741018 -0.11014329
000120 30 90 2c bd 81 d9 e1 bd da dc f6 3d fe 16 c8 3d
       -0.042129695 -0.11027814 0.12053843 0.097700104
000130 14 4e a4 bd 92 68 44 bd 4a 24 dd 3d 10 c1 2c bc
       -0.08022705 -0.04795129 0.10797937 -0.010544077
000140 0e 97 90 3d 40 67 e2 3c 90 c4 0f bd 83 34 14 3e
       0.070600614 0.027637124 -0.035099566 0.14473157
000150 30 84 31 3d 7e 24 ff 3d fa 86 c6 3d 32 b4 fb 3d
       0.043338954 0.12458132 0.096937135 0.12290229
000160 d0 f9 59 3d c4 cc 2e 3d f6 ea 2f bd 02 41 fb 3d
       0.053216755 0.04267575 -0.042948686 0.12268259
000170 f6 0b 86 bd 19 2d 1b 3e 26 31 db 3d 50 41 c7 bc
       -0.0654525 0.15153922 0.10702734 -0.024323136
000180 e5 df 11 3e 4e e0 c6 bd c0 4e 03 be e6 59 d3 3d
       0.14245565 -0.097107515 -0.1282301 0.10319881
000190 94 5c 01 bd c2 69 65 bd fa c1 e0 3d 06 94 87 bd
       -0.03158243 -0.05600906 0.10974498 -0.0662003
0001a0 1a 13 46 bd 90 ac e9 bc ef 00 1b be ee ea cb 3d
       -0.04835806 -0.028524667 -0.15137075 0.09956919
0001b0 9c f6 f0 bd 96 38 d5 3d 92 12 e8 bd 16 5c f8 3d
       -0.11765787 0.104111835 -0.11331667 0.12126939
0001c0 34 bf 7f bd 0e e8 a0 3d 1c 15 28 3d 1e d8 d6 3d
       -0.062438205 0.07856761 0.041035756 0.1049044
0001d0 66 49 fa bd 89 36 f4 bd 27 ef 14 3e 46 6b c5 3d
       -0.12221031 -0.11924464 0.14544354 0.096396014
0001e0 bb 14 1e 3e 48 19 ad bd 36 ff b2 bd 90 7c 83 3c
       0.15437596 -0.08452088 -0.08740084 0.016050607
0001f0 77 d0 09 be 84 d2 1c 3d f0 de 98 3c ba aa 12 bd
       -0.1345843 0.0382867 0.018660992 -0.03580735
000200 5e ef 1e be 86 34 a9 3d e9 83 00 3e 3e a3 50 bd
       -0.15520999 0.08261971 0.1255032 -0.05093693
000210 68 8d cf bd e8 e0 9c 3d b0 39 46 bc 60 0b 1b 3d
       -0.10134393 0.07660085 -0.012098715 0.037852645
000220 7c 17 f1 bd 00 17 7f 3c d4 b1 40 3d 71 df 95 bd
       -0.117720574 0.0155694485 0.04704459 -0.07318009
000230 96 67 b3 bd 96 81 b9 3d 78 96 ba bd 88 d6 4c 3d
       -0.08759992 0.0905792 -0.09110731 0.05000928
000240 8c 95 19 bd d0 c9 86 3d c6 67 60 bd 91 48 09 3e
       -0.037496135 0.065814614 -0.054786466 0.13406588
000250 f5 85 07 3e f6 f2 e2 3d 49 c2 e5 bd 28 d7 1b bd
       0.13234694 0.11081497 -0.112186976 -0.038046986
000260 60 fa 88 bc 5e ba fd 3d a0 e9 36 3d 3c 15 20 be
       -0.01672095 0.12389062 0.044656396 -0.156331
000270 d6 78 5b bd 62 d6 f2 3d 1c 37 20 3d e4 ad b5 3d
       -0.053582035 0.118572965 0.039115056 0.08871058
000280 48 9c 92 bc 54 54 82 3d cd 7b 15 3e 54 80 97 3d
       -0.017896786 0.063637406 0.14598008 0.073975235
000290 67 a0 b5 bd dc 0b a6 bd f4 34 6b 3d c0 5a 5a bd
       -0.08868485 -0.08107731 0.057423547 -0.053309202
0002a0 90 08 11 bc 2f 0f 0a 3e 60 d5 b8 3d 30 ad e4 3c
       -0.008852139 0.13482355 0.09025073 0.027914613
0002b0 28 d3 c6 bc 68 ba e5 3c 41 bc 1b 3e 16 39 e2 3d
       -0.024270609 0.028042987 0.15208532 0.110460445
0002c0 28 eb 05 3d 6a f0 b2 3d 10 25 3c bc 1b de 1d be
       0.032694966 0.087372616 -0.011483446 -0.15416758
0002d0 70 7a 77 bd 3a 0f f5 3d 17 3d 14 3e 18 82 1c be
       -0.0604195 0.11965795 0.14476429 -0.15284002
0002e0 74 b9 28 3d 60 c7 90 bb e0 cd 94 bd e0 2c 0c be
       0.041192487 -0.0044182986 -0.0726583 -0.13688993
0002f0 74 63 34 3d 1c 24 2e bd 0a 88 a6 3d d7 54 81 bd
       0.04404016 -0.042514905 0.08131416 -0.0631501
000300 cf 18 b2 bd f8 23 04 bd 40 b5 78 3c 24 e1 15 3d
       -0.08696138 -0.032260865 0.015179932 0.036591664
000310 0a 97 09 be f1 a3 0a 3e 88 fa de bd 31 58 e2 bd
       -0.13436523 0.13539101 -0.10887629 -0.110519774
000320 d8 fa 90 bd 40 19 f0 bd 32 f0 cf 3d 00 44 7c b9
       -0.07079095 -0.11723566 0.101532355 -0.00024057925
000330 30 64 8d 3c a0 3e 06 be 7a ae 7e bd b1 f1 1f 3e
       0.017259687 -0.13109827 -0.062178113 0.15619542
000340 ef 03 1c be 8d 01 0b be c0 7f b1 bb 18 83 ac 3d
       -0.15235876 -0.1357481 -0.0054168403 0.08423442
000350 0e 32 12 be 5e 33 f4 3d 25 c8 0a be 9a 02 e3 3d
       -0.14276907 0.1192386 -0.13552912 0.110844806
000360 2c 27 85 3d 96 b3 91 3d 91 67 0f be 00 93 04 ba
       0.06501612 0.071143314 -0.14004351 -0.0005057305
000370 ac a3 62 bd b0 15 93 3c 20 3d 9f 3d 62 45 c2 3d
       -0.05533187 0.017954677 0.077753305 0.0948589
000380 8e 70 4d bd f8 db e1 bc d8 8c 0e bd c0 14 35 bb
       -0.05015617 -0.02757071 -0.034802288 -0.0027630776
000390 0c 7f 15 be 9e cd 8a 3d be 0b b6 3d 16 64 ce 3d
       -0.14599246 0.067774996 0.088889584 0.10077684
0003a0 0d e2 18 3e c0 5c 4b 3d 62 86 ea 3d b0 3c 55 bc
       0.14929982 0.049649 0.11451413 -0.013014957
0003b0 d0 b4 a0 bc f0 aa f9 bd 47 f6 09 3e 09 28 19 3e
       -0.019617468 -0.12190807 0.13472854 0.14956678
0003c0 ac 3b 3b bd 30 26 79 bd 2a a7 fc bd 9d b2 a8 bd
       -0.045711204 -0.060827434 -0.123365715 -0.08237193
0003d0 1a 4a bf bd 00 3c bd bc c8 f8 69 3d ab cd 0f 3e
       -0.093403056 -0.0230999 0.057122022 0.140433
0003e0 6d f9 a9 bd 5e d5 57 bd ec 1c a5 bd 00 1a 7f 3a
       -0.08299527 -0.052693717 -0.08062157 0.00097313523
0003f0 9f b7 f5 bd f2 79 b4 bd 51 66 21 3e 32 f4 09 bd
       -0.119979136 -0.08812322 0.15761687 -0.03368015

transformer_encoder.encoder.feed_forward.fc1.bias f4 [256]
000000 f8 92 0e 3d da 2e 9e 3d 9a 02 a5 3d e0 0b c7 3c
       0.03480813 0.0772378 0.08057137 0.024297655
000010 a0 25 eb 3c 0d 94 15 be 30 60 e4 3c 36 73 a0 bd
       0.028704464 -0.14607258 0.027877897 -0.07834475
000020 b4 59 b0 bd 90 c6 2a 3d 68 3b 94 3c ab 2a 0c 3e
       -0.086108595 0.04169327 0.018094733 0.13688152
000030 44 fd 97 3d e6 2a e3 3d e5 fc 81 bd 64 14 03 3d
       0.074213535 0.110921666 -0.06347064 0.032001868
000040 a0 e2 54 bc dc fc 51 bd 80 1b 66 3d 6c 43 98 3d
       -0.012993485 -0.051266536 0.05617857 0.07434735
000050 aa 24 be 3d 50 92 fb bc 28 82 c0 bc e0 66 55 bd
       0.09284337 -0.030709416 -0.023499563 -0.052100062
000060 b8 da e7 bc 04 b2 42 3d 1a 70 d2 3d c0 48 94 bb
       -0.028302535 0.04753305 0.10275288 -0.004525274
000070 28 33 8e bc 94 8c 0a 3d 4a 16 09 be 90 58 57 3c
       -0.017358378 0.033825472 -0.13387409 0.013143674
000080 9c 1b 34 bd 7c d2 4e 3d 25 64 1f 3e a4 f3 d7 bd
       -0.043971643 0.050493702 0.15565546 -0.10544518
000090 dd 9a d3 bd fe 68 9d bd 54 c3 f4 bd b4 d1 93 3d
       -0.10332272 -0.07686041 -0.119513184 0.07217732
0000a0 d0 9a 6e 3c 22 44 48 bd 59 26 95 bd 90 de fc bd
       0.014563277 -0.0488931 -0.07282705 -0.12347138
0000b0 dc 7c 03 3d d0 93 3b bc bb 2d b5 bd 31 fa 04 be
       0.032101497 -0.011448815 -0.08846613 -0.12986065
0000c0 b4 9b dd bd 82 b3 a6 3d 90 57 9c bc 2c 43 59 3d
       -0.10820714 0.08139707 -0.019084722 0.053042576
0000d0 80 cd ec bb 0c 55 05 be 4b d2 99 bd eb a3 f2 bd
       -0.007226646 -0.13020724 -0.07510813 -0.11847671
0000e0 36 80 87 bd 20 b8 da 3b 98 26 70 3d 4c e4 cb bd
       -0.06616251 0.0066747814 0.058630556 -0.099556535
0000f0 b8 53 d1 3c 82 74 27 bd 9c e5 01 3d 98 9b 97 bd
       0.025552616 -0.040882595 0.031713113 -0.07402724
000100 ac 4c 09 be 5e 2f e9 3d 70 bb df 3c 23 c9 a5 bd
       -0.13408154 0.11385988 0.027311057 -0.080950044
000110 20 46 a3 bc 00 c1 9f bb f2 f6 e6 3d f7 ed 12 be
       -0.0199309 -0.0048753023 0.1127757 -0.14348589
000120 bf 2f 9a bd e0 3a dc bb d8 cd 95 3d ea c8 b5 3d
       -0.07528638 -0.0067208856 0.07314652 0.08876212
000130 72 9e 5d bd 9d 17 13 be c5 7a 0e 3e aa 17 5c bd
       -0.054106183 -0.14364477 0.1391402 -0.053733505
000140 58 6e 6f 3d cc 7b 02 bd 80 9f 75 bd fa 2b d1 3d
       0.05845484 -0.031856343 -0.059966564 0.10213466
000150 80 e3 97 3b 64 87 0b be 69 ed a0 bd a0 ff fd 3c
       0.0046352744 -0.13625866 -0.078577824 0.03100568
000160 4e 2a d8 3d 36 dd c2 3d f9 d7 91 bd 0e 7d 88 3d
       0.10554944 0.09514849 -0.07121272 0.06664477
000170 26 8b 0b be c0 ce 5a bc a0 96 c6 bb 1a 23 d8 bd
       -0.136273 -0.013354957 -0.0060604364 -0.1055357
000180 e4 2b 3c 3d 52 63 ef bd f2 9a 9d bd 76 ac dc bd
       0.045940295 -0.11688866 -0.07695569 -0.10775082
000190 67 6c 0c 3e eb 01 1c 3e 94 5b 33 3d 70 ba b6 3c
       0.13713227 0.15235107 0.043788508 0.022305697
0001a0 c8 d5 23 3d 58 ed 1f 3d b0 c8 61 3d d8 48 ba bc
       0.0399988 0.039044708 0.05512303 -0.022739813
0001b0 6e a0 3f bd 38 47 b1 bc f0 19 85 3d 94 10 b2 3d
       -0.046783857 -0.021640405 0.06499088 0.08694568
0001c0 be 20 13 be 17 13 03 3e 8d dd 03 be 82 ee c3 bd
       -0.14367959 0.12800251 -0.12877484 -0.09566976
0001d0 ac 4b 1e be 7f 9a bc bd 1e 18 d4 3d 50 92 d2 3c
       -0.15458554 -0.09209155 0.103561625 0.025704533
0001e0 66 02 f1 bd fa 34 be bd 78 41 19 3d cc c8 6d 3d
       -0.117680356 -0.09287448 0.03741595 0.058052823
0001f0 6c 1b 7c bd ba 0b 2c bd 00 dc b1 39 99 89 15 be
       -0.06154959 -0.04200337 0.00033923984 -0.1460327
000200 d4 d2 3f 3d 86 26 ce 3d 59 6c 06 3e e7 b7 0f 3e
       0.04683192 0.100659415 0.13127269 0.14034997
000210 35 73 13 3e 5e 59 f7 3d 6c a7 00 be e6 78 03 be
       0.14399417 0.12077592 -0.12563866 -0.12839088
000220 56 02 90 3d f6 f8 ea 3d 40 30 bc 3b 29 5c 1f 3e
       0.070316955 0.11473267 0.0057430565 0.155625
000230 9a c3 30 bd 19 ee aa bd a6 dc 8e 3d 50 e7 ac 3c
       -0.04315529 -0.08346195 0.06975679 0.021106392
000240 af 2a 08 3e e0 b4 da 3c 80 e0 8c bc 4e e3 f0 3d
       0.13297532 0.026697576 -0.017196894 0.11762105
000250 bf db 92 bd f9 64 03 3e bc 56 86 3d 02 2e cb 3d
       -0.071708195 0.12831487 0.06559512 0.09920885
000260 c4 43 e7 bd c6 49 a6 3d 13 63 0c be b4 b0 86 3d
       -0.11292222 0.0811954 -0.13709669 0.06576672
000270 00 d3 a4 bd 3c 54 ae 3d 0f d0 a4 bd ab 62 a2 bd
       -0.080480576 0.0851216 -0.080474965 -0.07928976
000280 a4 11 9b bd 44 4d 14 3d 8a 42 18 be c0 a8 47 3b
       -0.07571724 0.0362065 -0.14869133 0.0030465573
000290 b9 f3 13 3e fe c1 b4 3d 33 20 13 3e 6c d3 4b 3d
       0.14448442 0.088260636 0.14367752 0.049762174
0002a0 02 22 63 bd b4 ac 14 bd f4 78 92 3d 0d 42 1e 3e
       -0.055452354 -0.036297515 0.07151976 0.15454884
0002b0 5a 7f 9c 3d 33 04 0b be 39 4e 06 be 3e de 71 bd
       0.07641478 -0.1357582 -0.13115777 -0.059049837
0002c0 27 4b bc bd e9 4b 0a 3e 93 23 14 be 4f ec 12 be
       -0.09194022 0.1350552 -0.14466695 -0.14347957
0002d0 fe 58 c8 bd 52 f3 c4 3d 0a cf f9 3d 72 e0 bd 3d
       -0.09782599 0.09616722 0.12197693 0.09271325
0002e0 3a 73 14 bd 60 db 25 bc f8 7c dc bc b3 44 05 3e
       -0.0362427 -0.010123104 -0.026915058 0.13014488
0002f0 f1 ce 1d 3e 06 41 24 bd c4 5b a0 3d ee 5d e6 3d
       0.15410973 -0.040101074 0.07830003 0.112483844
000300 78 ed b6 bd c8 a4 6a 3d 97 0a 08 be d5 e3 0a 3e
       -0.08932012 0.057286054 -0.1328529 0.13563474
000310 dc 04 57 3d 0a f0 8b bd d0 81 08 be ee 1d cf bd
       0.05249487 -0.06832893 -0.1333077 -0.101131305
000320 72 b0 89 3d 9a 18 16 bd d0 e3 03 bc 20 ce a7 bb
       0.067231074 -0.036644556 -0.00804992 -0.0051210076
000330 50 fb b7 3c 06 b2 d8 3d 3a 8e e1 3d 2a 3b e0 3d
       0.022458702 0.1058083 0.11013456 0.10948785
000340 9a cc f9 3d 17 e0 09 3e 60 01 b5 bb d8 52 ab 3d
       0.12197228 0.1346439 -0.0055238456 0.083654106
000350 71 4f 91 bd 89 17 14 3e 7b 23 1b be c0 54 d6 3c
       -0.0709523 0.14462103 -0.15150253 0.026163459
000360 54 17 3d 3d ac c9 09 be c2 87 9f bd 40 8a 5d bc
       0.046164826 -0.13455838 -0.077895656 -0.013521731
000370 a0 c6 6a 3d fc 4f 74 bd 94 4e 1c be 36 ca a2 3d
       0.05731833 -0.05964659 -0.1526435 0.07948725
000380 6b e8 e8 bd 46 6a 7f bd e4 29 7d 3d b0 80 4a 3d
       -0.11372455 -0.06235721 0.06180753 0.049439132
000390 d5 1a 9b bd 40 a7 9c 3c 18 96 96 3d fc 64 72 3d
       -0.07573477 0.01912272 0.07352847 0.059178337
0003a0 aa 71 eb 3d 10 e3 72 3d dc 3d 17 3d 44 9e 1b be
       0.11496289 0.059298575 0.036924228 -0.15197092
0003b0 b1 4e 21 be 2e 5d 94 3d 24 d6 56 3d 28 eb 8e bc
       -0.15752675 0.07244335 0.052450314 -0.017446116
0003c0 30 bf 32 bd 22 a2 ce 3d 88 db a4 3d 8b 56 09 be
       -0.04363936 0.10089518 0.08049685 -0.1341192
0003d0 7c 8d 77 bd 63 36 21 be 76 0e a2 3d 3c 10 ba 3d
       -0.060437664 -0.15743403 0.079129145 0.09085128
0003e0 78 9a d8 bd 68 66 8d bc b4 ff f8 bd 04 db 3d 3d
       -0.105763376 -0.017260745 -0.121581465 0.046351448
0003f0 3d dd a4 bd 60 37 03 3d c0 d6 6f 3b 8c 5a 69 3d
       -0.0805001 0.03203523 0.0036596507 0.056971118
