simple2transformer/param/net_param/Mk10_critic_net.model (torch, 232127 bytes, 33 tensors)

transformer_encoder.encoder.attention.fc_Q.weight f4 [40, 40]
0.06043856 -0.004450977 0.11665355 -0.035202973 0.14896198 -0.01195699 0.030162096 0.14729305
0.14519049 -0.13630621 0.123962656 0.14179258 -0.08819573 -0.121736676 0.0004826635 -5.3584576e-05
-0.14510374 0.08625279 0.15038814 -0.07280852 0.10175432 -0.10236016 -0.08458594 0.040619463
-0.05938804 0.088862434 -0.100379184 -0.093028106 -0.11101872 -0.09792623 -0.14617518 -0.0805365
0.032371193 0.13333343 -0.13256146 0.15072156 0.09682725 -0.0073544234 -0.08739225 0.049829856
-0.07198715 -0.038859643 0.015146181 -0.03129126 0.117363706 -0.055022545 -0.108245365 0.10638763
0.0542351 0.012742758 -0.1188636 -0.15705296 -0.049092196 0.028578073 -0.05647672 0.11453758
-0.054544978 0.12733673 -0.04529646 0.050519884 0.03425379 -0.09006679 -0.020546094 0.10052906
0.022825733 -0.15327817 0.113798454 -0.0137515515 0.01903306 -0.14759645 0.025164679 0.15446056
0.026945114 -0.0623682 -0.14304855 0.034290195 -0.14283387 -0.002066195 -0.13376541 -0.11435731
0.032752216 0.15796109 0.11821465 0.1066639 0.14390688 0.073872775 0.04078172 -0.028310701
-0.057656683 0.0068258345 -0.112840004 0.09758474 -0.10470137 -0.08536029 -0.047178812 0.09590621
0.04776652 -0.10496108 -0.047509007 0.15318237 -0.09691094 0.050217167 -0.14600259 0.1037101
-0.071216166 0.06268574 0.017243788 -0.037584066 0.009997308 -0.13399838 -0.00027279556 0.07820055
0.15079002 -0.10120346 -0.13320875 -0.07053939 -0.117548645 0.030230805 -0.056918263 -0.082579546
0.05603379 0.072121024 0.11139406 0.13023396 -0.15501337 -0.1264738 -0.035608955 -0.07300138
0.10877584 0.038169786 -0.14745192 0.12408687 0.12559311 0.123437986 -0.02940771 0.14746006
-0.09217673 -0.07695577 -0.016444191 -0.111773685 0.11219852 0.04957086 -0.11652851 0.10644759
0.11101906 0.13992412 -0.010720462 -0.049962625 0.15172036 0.06358275 0.10214631 -0.09121015
0.053798854 0.002603829 0.0005853772 0.06941715 -0.15116203 -0.13514012 0.12736644 -0.034781232
0.06554763 -0.060972914 -0.03964667 -0.062161185 0.0975519 -0.0065225214 -0.15104283 -0.022952065
-0.074932724 -0.09105301 0.1472318 -0.037271835 0.13548596 0.057808727 -0.037702605 0.12967537
0.13593419 -0.12006514 -0.0114365965 -0.024741575 0.012225851 -0.10246946 -0.03642591 -0.02713582
-0.013222486 0.14619394 -0.04179924 0.06743306 -0.02299951 -0.08094475 -0.05812989 0.12299694
-0.0739202 0.10353665 -0.014363632 -0.019730896 0.08930248 0.08652328 0.0880914 0.14256959
-0.07877879 -0.10062066 -0.012522101 0.10735975 0.11048056 0.15300702 -0.11475171 -0.10502797
0.14884098 -0.1412463 -0.033189557 0.14471604 -0.022323385 -0.074296415 0.016257912 -0.07982729
0.058864534 -0.13358855 0.12367384 0.049337015 -0.08643304 -0.14222407 0.116818056 0.1410609
-0.07910206 0.0936351 0.12254982 0.0139513165 -0.0029150695 -0.08887984 0.09125194 0.11667602
0.057214543 0.053839743 0.059569687 0.06564605 -0.02568312 -0.01168105 0.12051292 -0.078976154
-0.03214793 -0.02290447 -0.03799568 0.015600249 0.038792923 -0.07994102 0.14352591 -0.10728753
0.08913095 0.008305445 0.05089043 0.051238403 0.13605289 0.06950806 -0.102988645 -0.095888175
00000000: 6c8e 773d 80d9 91bb 0ee8 ee3d fe30 10bd
00000010: 7d89 183e 40e7 43bc 8016 f73c fdd3 163e
00000020: d1ac 143e db93 0bbe 22e0 fd3d 1332 113e
00000030: f69f b4bd 1451 f9bd 000e fd39 00c0 60b8
00000040: 1396 14be 4ea5 b03d 59ff 193e a21c 95bd
00000050: 9264 d03d 34a2 d1bd 653b adbd 9860 263d
00000060: e040 73bd 82fd b53d 9a93 cdbd 8585 bebd
00000070: c85d e3bd 8c8d c8bd f2ae 15be 52f0 a4bd
00000080: a897 043d 8f88 083e 31be 07be c156 1a3e
00000090: 5e4d c63d 60fd f0bb b5fa b2bd 641a 4c3d
000000a0: 006e 93bd 4a2b 1fbd b027 783c 442b 00bd
000000b0: 625c f03d 525f 61bd bfaf ddbd c2e1 d93d
000000c0: a025 5e3d 00c7 503c c26e f3bd 7ed2 20be
000000d0: e614 49bd 901c ea3c 2254 67bd ae92 ea3d
000000e0: 8e6a 5fbd 8f64 023e c888 39bd f0ed 4e3d
000000f0: b44d 0c3d f074 b8bd 4850 a8bc 2ee2 cd3d
00000100: 08fd ba3c f4f4 1cbe 2a0f e93d 304e 61bc
00000110: 38eb 9b3c 8623 17be 2826 ce3c e92a 1e3e
00000120: 00bc dc3c cc75 7fbd 527b 12be e073 0c3d
00000130: 0b43 12be 0069 07bb cdf9 08be 2a34 eabd
00000140: 3027 063d 8dc0 213e 861a f23d 9a72 da3d
00000150: 535c 133e 9c4a 973d bc0a 273d d8eb e7bc
00000160: 6a29 6cbd 40ab df3b a918 e7bd 82da c73d
00000170: ac6d d6bd 60d1 aebd 923e 41bd 7a6a c43d
00000180: d4a6 433d d6f5 d6bd ce98 42bd d7db 1c3e
00000190: 3e79 c6bd 84b0 4d3d b481 15be f665 d43d
000001a0: c8d9 91bd 6261 803d d842 8d3c c0f1 19bd
000001b0: c0cb 233c df36 09be 0006 8fb9 9c27 a03d
000001c0: b368 1a3e c243 cfbd e067 08be f576 90bd
000001d0: 58bd f0bd 98a6 f73c 2023 69bd 771f a9bd
000001e0: b083 653d 30b4 933d 9222 e43d 0d5c 053e
000001f0: d3bb 1ebe 5982 01be b2da 11bd bf81 95bd
00000200: dec5 de3d ec57 1c3d a3fd 16be 4221 fe3d
00000210: 7b9b 003e 0ecd fc3d 70e8 f0bc c5ff 163e
00000220: 27c7 bcbd fd9a 9dbd f8b5 86bc 9ae9 e4bd
00000230: 56c8 e53d d00a 4b3d 80a6 eebd 3201 da3d
00000240: f65d e33d 4548 0f3e e0a4 2fbc 9ca5 4cbd
00000250: 955c 1b3e ac37 823d 1632 d13d 63cc babd
00000260: 305c 5c3d 00a5 2a3b 0074 193a 942a 8e3d
00000270: 38ca 1abe 2c62 0abe 596c 023e c476 0ebd
00000280: d63d 863d bcbe 79bd 8c64 22bd ba9c 7ebd
00000290: 4ac9 c73d e0ba d5bb f9aa 1abe f805 bcbc
000002a0: 5476 99bd 007a babd efc3 163e 5aaa 18bd
000002b0: d5bc 0a3e d8c8 6c3d 0c6e 1abd 9fc9 043e
000002c0: 5532 0b3e b6e4 f5bd 9060 3bbc d8ae cabc
000002d0: f04e 483c 82db d1bd 5633 15bd f04b debc
000002e0: 20a3 58bc ddb3 153e ae35 2bbd 581a 8a3d
000002f0: 7869 bcbc 5cc6 a5bd 9c19 6ebd d2e5 fb3d
00000300: 7963 97bd 060b d43d 7055 6bbc b0a2 a1bc
00000310: 38e4 b63d 1e33 b13d 4469 b43d c3fd 113e
00000320: c656 a1bd 3412 cebd 8029 4dbc 6edf db3d
00000330: a243 e23d dfad 1c3e f202 ebbd e818 d7bd
00000340: c569 183e dfa2 10be c6f1 07bd 7130 143e
00000350: 88df b6bc b828 98bd 502f 853c 7d7c a3bd
00000360: f01b 713d 70cb 08be b648 fd3d 9c15 4a3d
00000370: ce03 b1bd 30a3 11be 4e3e ef3d 4572 103e
00000380: 4300 a2bd c2c3 bf3d 66fb fa3d 1094 643c
00000390: c00a 3fbb a206 b6bd 4ce2 ba3d d6f3 ee3d
000003a0: cc59 6a3d 1087 5c3d 58ff 733d 7071 863d
000003b0: 6865 d2bc e061 3fbc 7acf f63d 40be a1bd
000003c0: 8cad 03bd 28a2 bbbc 5ca1 1bbd 3098 7f3c
000003d0: 54e5 1e3d 1eb8 a3bd 75f8 123e 91b9 dbbd
000003e0: 4a8a b63d 9013 083c 7c72 503d 5cdf 513d
000003f0: 7351 0b3e 3e5a 8e3d b6eb d2bd 0561 c4bd

transformer_encoder.encoder.attention.fc_Q.bias f4 [40]
0.04821226 0.1328124 0.071458414 -0.06155628 -0.13261484 0.106340155 -0.13130951 -0.14238308
0.058615476 -0.030356482 -0.061138555 0.031893134 0.091459006 0.06131573 -0.0029426366 -0.021787971
-0.0033878535 0.038248673 -0.08713826 0.0038480312 0.0046069175 0.004709974 0.15697937 -0.03459844
-0.07978938 0.12812208 0.056294635 -0.05337826 -0.045834646 -0.155087 0.051177815 0.08664736
0.15096007 -0.1492591 0.0101174265 0.11686961 0.10998736 -0.12127967 -0.049584128 -0.042357653
00000000: 387a 453d f9ff 073e ca58 923d 7022 7cbd
00000010: 2fcc 07be dec8 d93d 0076 06be dfcc 11be
00000020: c816 703d 28ae f8bc 6c6c 7abd 60a2 023d
00000030: dc4e bb3d 3426 7b3d 40d9 40bb b07c b2bc
00000040: c006 5ebb a4aa 1c3d 8b75 b2bd 402f 7c3b
00000050: a0f5 963b 2056 9a3b 33bf 203e 18b7 0dbd
00000060: 9d68 a3bd 6f32 033e 3495 663d 2aa3 5abd
00000070: 1cbd 3bbd 20cf 1ebe d49f 513d 2c74 b13d
00000080: 4795 1a3e 61d7 18be 90c3 253c 5659 ef3d
00000090: 0e41 e13d 7a61 f8bd ba18 4bbd 387f 2dbd

transformer_encoder.encoder.attention.fc_K.weight f4 [40, 40]
-0.024393827 0.07315566 0.13234158 0.14636584 0.13447113 0.13359426 -0.00044617057 0.034145445
0.1408491 0.05047542 0.13908754 0.04874243 0.08371709 -0.068193994 -0.033899345 0.07661453
0.13584124 -0.15679863 -0.05496125 0.007331431 -0.08017133 0.15013252 -0.1207037 0.04218915
-0.0363151 0.08986953 -0.13938254 -0.12488921 0.10435997 -0.10005736 0.1474597 0.13327713
0.08104122 -0.036500476 0.11064051 0.12041779 -0.12701891 -0.12107238 -0.053665742 0.063066676
-0.1243278 -0.13287815 0.15748487 -0.06950013 0.111877695 0.033806026 0.029928938 -0.13787915
0.117348686 -0.077935636 0.12008782 0.07819988 -0.023981407 -0.05465155 0.050127804 -0.14656723
-0.050834864 -0.010373637 -0.099456415 -0.15671742 0.04159224 -0.04339414 0.12663941 -0.04403115
0.14711295 -0.09529241 0.116581544 0.13208295 -0.027546257 0.15474658 0.087397754 0.12434246
0.15200214 -0.07720461 0.0012336671 -0.0606021 0.063261926 0.019814208 0.13284804 -0.04143171
0.11819486 -0.018246964 -0.12638798 0.07689357 -0.14261882 0.07591851 0.15524305 -0.12828931
-0.0028771758 -0.020995632 -0.14870644 -0.11131056 0.0026275516 -0.12382659 -0.15331946 -0.0661777
-0.004711345 -0.08378595 0.08595471 -0.0017243326 0.009279504 -0.12045945 0.061574563 0.06857096
0.12006302 -0.1425398 0.024208933 0.11028056 0.054616824 0.006288111 0.024939 -0.0039337426
0.06012702 -0.15441498 -0.06894508 -0.061026916 -0.03689117 0.06798667 0.11458407 -0.11558499
-0.069323786 0.06390323 0.10756208 -0.10462071 -0.07912389 0.016170666 -0.11212817 -0.13861416
-0.07744474 -0.0986367 -0.09763364 0.071140096 0.12644167 0.10345729 0.11553602 0.07866864
0.15158333 0.06596708 -0.09265147 -0.03231065 -0.14907216 0.12944324 0.15569754 -0.14819594
0.084561154 -0.025247455 0.070739135 0.13649155 -0.051792152 -0.005692482 0.11231883 0.08863936
-0.009053245 0.06489326 -0.11918964 0.03489223 -0.038732357 -0.018511936 -0.04183922 -0.13661599
0.13525854 -0.039999083 -0.14817326 -0.04610022 -0.05941377 0.043209955 0.039348185 -0.023244679
-0.021784827 0.006113589 0.0704432 0.0070224702 -0.099424675 -0.08889003 0.019044086 0.031044826
-0.019836977 -0.061603494 -0.12362841 0.11537175 -0.11781412 0.0831597 0.040695593 0.07814163
0.14578874 -0.006670952 -0.051904656 -0.14122042 -0.05597619 -0.006795183 -0.10306959 0.080936134
-0.12967242 0.035538852 0.14377807 0.062151402 -0.11139047 -0.12759678 0.093851045 0.1191365
-0.05336021 0.109809116 0.119581684 0.0667977 -0.095824204 0.12965335 0.09358831 0.06264177
-0.046949707 -0.076694205 -0.00027395785 -0.010107785 -0.14625688 -0.14575598 -0.023765683 -0.052637473
-0.069772646 0.047575653 -0.09178995 0.13803624 -0.08000848 -0.11089286 0.092794254 0.12631606
0.14132307 0.14421092 -0.115324445 -0.122554146 -0.062397003 -0.0016109794 0.115073815 0.11560191
0.0950792 0.004193127 0.050762326 0.087552816 0.14905412 0.08164951 0.008667499 0.08596274
-0.008280009 0.13349648 0.068693414 0.03637132 -0.10909735 0.14543428 -0.021343052 -0.113376886
0.11931692 0.15418251 0.03933999 0.0129225105 0.11618878 -0.060939737 0.05622825 0.04558283
00000000: 90d5 c7bc a2d2 953d 8d84 073e ede0 153e
00000010: cdb2 093e efcc 083e 00ec e9b9 18dc 0b3d
00000020: bf3a 103e 50bf 4e3d f76c 0e3e 24a6 473d
00000030: de73 ab3d 4ba9 8bbd 0ada 0abd 14e8 9c3d
00000040: f719 0b3e d28f 20be 0c1f 61bd 803c f03b
00000050: de30 a4bd 57bc 193e 8033 f7bd 88ce 2c3d
00000060: 24bf 14bd 840d b83d 4cba 0ebe eac5 ffbd
00000070: aeba d53d e0ea ccbd adff 163e cd79 083e
00000080: f0f8 a53d 8681 15bd 7e97 e23d 9a9d f63d
00000090: 3f11 02be ccf4 f7bd 9cd0 5bbd 1a29 813d
000000a0: 939f febd 3611 08be b743 213e 1656 8ebd
000000b0: 2220 e53d 3078 0a3d 882d f53c 3130 0dbe
000000c0: 8254 f03d b89c 9fbd 9af0 f53d 4227 a03d
000000d0: a874 c4bc 4eda 5fbd d052 4d3d b815 16be
000000e0: 3838 50bd 30f6 29bc ceaf cbbd 887a 20be
000000f0: a05c 2a3d 0ebe 31bd c3ad 013e 025a 34bd
00000100: c7a4 163e ab28 c3bd 4ec2 ee3d c140 073e
00000110: b0a8 e1bc e375 1e3e 98fd b23d 42a7 fe3d
00000120: 73a6 1b3e 731d 9ebd 00b3 a13a e839 78bd
00000130: 788f 813d 6851 a23c 5109 083e 4cb4 29bd
00000140: 2610 f23d a87a 95bc da6b 01be 607a 9d3d
00000150: ab0a 12be 2a7b 9b3d 09f8 1e3e 465e 03be
00000160: 008f 3cbb 08ff abbc 8046 18be caf6 e3bd
00000170: 0033 2c3b cc98 fdbd c7ff 1cbe 2d88 87bd
00000180: a061 9abb f897 abbd 0609 b03d 0003 e2ba
00000190: 1009 183c 72b3 f6bd 9c35 7c3d ee6e 8c3d
000001a0: 9ae3 f53d f4f5 11be d051 c63c c6da e13d
000001b0: e4b5 5f3d 800c ce3b e04c cc3c a0e6 80bb
000001c0: c047 763d f61e 1ebe 1433 8dbd 5cf7 79bd
000001d0: 321b 17bd 983c 8b3d 0eab ea3d d3b7 ecbd
000001e0: a1f9 8dbd b2df 823d 8249 dc3d 6243 d6bd
000001f0: b50b a2bd 5878 843c 74a3 e5bd dff0 0dbe
00000200: 599b 9ebd 0a02 cabd 25f4 c7bd e6b1 913d
00000210: ed79 013e 6ae1 d33d 269e ec3d 061d a13d
00000220: a938 1b3e c019 873d 0ec0 bdbd 2c58 04bd
00000230: 5fa6 18be c58c 043e 2d6f 1f3e adc0 17be
00000240: 662e ad3d c0d3 cebc aedf 903d 71c4 0b3e
00000250: 0224 54bd 0088 babb 6a07 e63d 8e88 b53d
00000260: 1054 14bc c2e6 843d b319 f4bd 28eb 0e3d
00000270: d2a5 1ebd 58a6 97bc 9a5f 2bbd 10e5 0bbe
00000280: 3781 0a3e 14d6 23bd bbba 17be 96d3 3cbd
00000290: da5b 73bd ecfc 303d 902b 213d a06b bebc
000002a0: 1876 b2bc 8054 c83b 8644 903d c01c e63b
000002b0: 2a9f cbbd fa0b b6bd 5802 9c3c b851 fe3c
000002c0: 2881 a2bc f253 7cbd e430 fdbd 0648 ec3d
000002d0: 8848 f1bd a24f aa3d 6cb0 263d b808 a03d
000002e0: a549 153e 0098 dabb fa99 54bd 169c 10be
000002f0: 4a47 65bd 20aa debb 2616 d3bd d8c1 a53d
00000300: d9c8 04be 3091 113d 8f3a 133e 7892 7e3d
00000310: b020 e4bd bba8 02be fa34 c03d d6fd f33d
00000320: 3c90 5abd 9ae3 e03d 3ee7 f43d 3ccd 883d
00000330: 7b3f c4bd d9c3 043e 3aab bf3d 544a 803d
00000340: 564e 40bd da11 9dbd 00a2 8fb9 209b 25bc
00000350: 5dc4 15be 0e41 15be 40b0 c2bc 649a 57bd
00000360: f6e4 8ebd b0de 423d 5ffc bbbd 5f59 0d3e
00000370: 7cdb a3bd cc1b e3bd ea0a be3d ff58 013e
00000380: ffb6 103e 07ac 133e 392f ecbd abfd fabd
00000390: 0094 7fbd 8027 d3ba d2ab eb3d b2c0 ec3d
000003a0: e2b8 c23d 8066 893b 28ec 4f3d e44e b33d
000003b0: a5a1 183e dc37 a73d 2002 0e3c 3c0d b03d
000003c0: e0a8 07bc 4db3 083e 22af 8c3d 18fa 143d
000003d0: 6e6e dfbd b9ec 143e a0d7 aebc 2432 e8bd
000003e0: 6e5c f43d 05e2 1d3e f822 213d f0b8 533c
000003f0: 62f4 ed3d f29b 79bd 984f 663d 10b5 3a3d

transformer_encoder.encoder.attention.fc_K.bias f4 [40]
-0.14609376 0.13638933 0.14428954 0.021939144 0.15668751 -0.115294755 0.028399736 0.01766932
0.08443643 0.03699921 0.07656044 0.1435697 -0.12950407 0.06718795 -0.06687016 0.027808309
0.15240683 -0.15760164 -0.14364992 0.063866496 -0.14920503 -0.048361734 -0.07708862 0.09599058
0.10913263 -0.15522276 0.07913977 0.13441549 -0.06747356 -0.11501533 -0.1507164 -0.008902535
-0.13601685 -0.00016543269 -0.117406055 0.11442824 0.12792782 -0.0499477 -0.032430828 -0.030202582
00000000: 9a99 15be a5a9 0b3e a3c0 133e b8b9 b33c
00000010: b172 203e a81f ecbd 90a6 e83c 40bf 903c
00000020: 02ed ac3d 7c8c 173d b8cb 9c3d ef03 133e
00000030: b79c 04be d699 893d 39f3 88bd 40ce e33c
00000040: 8910 1c3e 5362 21be f718 13be 70cc 823d
00000050: 34c9 18be f416 46bd a3e0 9dbd b696 c43d
00000060: ee80 df3d b7f2 1ebe 0814 a23d 37a4 093e
00000070: 942f 8abd 288d ebbd 6655 1abe f0db 11bc
00000080: 0048 0bbe 0078 2db9 9672 f0bd 5a59 ea3d
00000090: 83ff 023e f695 4cbd 30d6 04bd 686b f7bc

transformer_encoder.encoder.attention.fc_V.weight f4 [40, 40]
0.01739949 -0.009928182 -0.12836125 -0.107124224 0.13334398 0.12308608 -0.15397684 -0.123518005
0.1055118 0.10167019 0.12818475 0.032155067 -0.118931435 -0.018547758 0.09255214 -0.10786995
0.008753195 0.05051835 0.038744643 -0.0064345747 -0.0574039 0.09257649 0.14864923 -0.0562013
-0.10799332 -0.068155356 -0.09757556 0.14047052 -0.09056828 0.08244312 -0.1288665 -0.0040107667
0.045145646 0.14084877 -0.012781441 0.1574559 -0.0070942193 0.09638859 -0.05956205 -0.14979652
0.09255706 0.11680119 -0.040401913 -0.08788459 0.15751289 0.04229106 -0.006391749 -0.09370612
0.09708862 -0.15453285 0.15683042 -0.14349408 -0.09525969 0.13964047 -0.12038265 0.095203
-0.12693973 -0.06309834 -0.12774995 -0.047135912 -0.09946746 -0.12563637 0.11154489 0.15405504
-0.0430251 0.1233369 0.10177855 -0.04664214 -0.11566506 0.14393891 -0.15800895 -0.0030779392
-0.09053618 -0.10647337 -0.12718391 -0.06426138 0.06759445 0.045796216 0.042881772 0.056038126
-0.085775465 0.09936212 -0.090122394 -0.041221924 -0.114224404 -0.07159648 0.06152074 0.023283347
-0.012089789 0.12048094 0.0623246 -0.12673056 -0.060332753 -0.03881064 -0.04853884 -0.030351147
0.097130165 -0.0566063 0.044827223 -0.124039926 -0.15286396 0.11734827 0.07557362 -0.022542551
0.11733331 -0.03659839 0.100566074 0.10126795 -0.12228559 0.13889764 0.07822804 -0.12918104
0.14538829 0.0903001 0.047705874 -0.14505921 0.00083748996 0.10761227 -0.12258756 -0.14728655
-0.008935556 -0.10271363 -0.064697176 -0.08497562 -0.04201287 0.117368236 0.10621481 0.0081181675
-0.12899588 0.08038941 -0.030879825 -0.039278843 0.11772899 -0.13768685 0.14370494 0.030977607
0.0802027 0.09787516 0.033205092 -0.10952704 0.070941016 -0.01638037 -0.03293602 0.0059918463
0.12498717 -0.12910149 -0.11100294 0.0548888 -0.065165885 0.06929815 0.07682735 0.013588101
0.10220851 0.07442629 0.06549063 -0.088077225 0.09072994 -0.0014377683 0.06491816 -0.07821639
-0.08338672 0.03234233 0.060213313 -0.058266208 -0.09109853 -0.06552927 0.08236046 -0.095170386
-0.06031142 -0.14866367 0.10839932 0.09037268 0.14531295 0.023632988 -0.09667929 -0.030588716
-0.09766208 -0.0010681301 -0.11967731 -0.03753747 0.068982705 0.06607489 -0.050477155 -0.032046452
-0.033700317 0.0651775 -0.13168128 0.094716504 0.15334134 -0.05205343 0.12544058 -0.15759486
0.09797759 -0.066782646 0.004111111 -0.114604875 -0.071052566 0.14486434 0.026822165 0.06987332
-0.05538048 0.032708973 -0.10949669 0.0364794 0.13677122 0.062531084 0.05020085 0.09897165
-0.04257136 0.044177428 0.08118689 -0.038492642 0.05932392 0.052399382 0.020795256 -0.0829137
-0.11646497 0.067977324 -0.08497067 -0.06606078 -0.09859937 0.09382875 -0.020021275 0.12576745
0.08681901 -0.006178677 0.06347126 -0.11697213 0.010172695 -0.08128691 -0.00756371 -0.005179584
0.06307928 0.04212834 -0.062111914 -0.1408096 0.11761697 0.08376433 -0.04190276 0.14057042
0.08765291 -0.010097012 0.1409692 -0.1091688 -0.011797756 0.04434432 0.1502652 0.14410181
-0.06395403 -0.062413096 0.113498196 -0.09415721 -0.10540399 -0.049959987 -0.072293445 0.02159895
00000000: 6089 8e3c d0a9 22bc 2271 03be f263 dbbd
00000010: 538b 083e 8e14 fc3d 1bac 1dbe 02f7 fcbd
00000020: 9216 d83d 7638 d03d dd42 033e 08b5 033d
00000030: 5392 f3bd 78f1 97bc fa8b bd3d ecea dcbd
00000040: 9069 0f3c 54ec 4e3d b4b2 1e3d 20d9 d2bb
00000050: 5a20 6bbd be98 bd3d 8137 183e 5633 66bd
00000060: 9a2b ddbd 0995 8bbd b2d5 c7bd 81d7 0f3e
00000070: dd7b b9bd f0d7 a83d 94f5 03be c06c 83bb
00000080: a4ea 383d a93a 103e 4069 51bc 1f3c 213e
00000090: a076 e8bb 6267 c53d 56f7 73bd 4264 19be
000000a0: 8e8e bd3d 7635 ef3d 7a7c 25bd d6fc b3bd
000000b0: 0f4b 213e 6439 2d3d e071 d1bb ffe8 bfbd
000000c0: 66d6 c63d dc3d 1ebe 2798 203e 1df0 12be
000000d0: 8317 c3bd e9fd 0e3e 2e8b f6bd caf9 c23d
000000e0: 7dfc 01be b439 81bd e2d0 02be 9611 41bd
000000f0: 98b5 cbbd d2a6 00be a671 e43d 9bc0 1d3e
00000100: 163b 30bd 0e98 fc3d 4671 d03d d40b 3fbd
00000110: cee1 ecbd b964 133e 19cd 21be 40b7 49bb
00000120: 086b b9bd b60e dabd 803c 02be 789b 83bd
00000130: f66e 8a3d d094 3b3d cca4 2f3d 3c88 653d
00000140: 0cab afbd 5e7e cb3d 1792 b8bd 52d8 28bd
00000150: 7cee e9bd 2da1 92bd 2cfd 7b3d b8bc be3c
00000160: 4014 46bc b6be f63d 1448 7f3d a8c5 01be
00000170: 7a1f 77bd e8f7 1ebd aad0 46bd f8a2 f8bc
00000180: 2eec c63d 02dc 67bd c09c 373d a508 febd
00000190: 5f88 1cbe 4a54 f03d 58c6 9a3d 28ab b8bc
000001a0: 724c f03d 32e8 15bd 96f5 cd3d 9265 cf3d
000001b0: de70 fabd 2f3b 0e3e 0636 a03d 0948 04be
000001c0: abe0 143e 42ef b83d 3c67 433d 678a 14be
000001d0: 008b 5b3a d263 dc3d 300f fbbd 49d2 16be
000001e0: 7066 12bc 865b d2bd f47f 84bd b307 aebd
000001f0: b015 2cbd c25e f03d 2687 d93d 1002 053c
00000200: 7f17 04be 34a3 a43d b0f7 fcbc dae2 20bd
00000210: e61b f13d c8fd 0cbe 6327 133e c0c4 fd3c
00000220: 5041 a43d c672 c83d 1002 083d b64f e0bd
00000230: 8649 913d 2030 86bc ece7 06bd 4057 c43b
00000240: 46f9 ff3d 2e33 04be 8255 e3bd 14d3 603d
00000250: b175 85bd 30ec 8d3d a857 9d3d a0a0 5e3c
00000260: b252 d13d d06c 983d f41f 863d d561 b4bd
00000270: 9ed0 b93d 8073 bcba d0f3 843d ea2f a0bd
00000280: a8c6 aabd 6479 043d 3ca2 763d 8ca8 6ebd
00000290: de91 babd 3634 86bd 9aac a83d b1e8 c2bd
000002a0: 1c09 77bd 4a3b 18be 7600 de3d 5015 b93d
000002b0: ebcc 143e f899 c13c cbff c5bd 3095 fabc
000002c0: 0e03 c8bd 8000 8cba 6119 f5bd e4c0 19bd
000002d0: ce46 8d3d 4652 873d 22c1 4ebd 2443 03bd
000002e0: 5809 0abd c87b 853d 75d7 06be bafa c13d
000002f0: 8305 1d3e fa35 55bd 7f73 003e 8c60 21be
00000300: 7aa8 c83d 57c5 88bd 80b6 863b f6b5 eabd
00000310: 0284 91bd 5157 143e 28ba db3c be19 8f3d
00000320: a4d6 62bd d8f9 053d cd3f e0bd 6c6b 153d
00000330: c10d 0c3e 4c10 803d 689f 4d3d a6b1 ca3d
00000340: 4e5f 2ebd 64f3 343d 5045 a63d 76aa 1dbd
00000350: a4fd 723d bca0 563d d05a aa3c a8ce a9bd
00000360: 3085 eebd b237 8b3d 1a05 aebd e04a 87bd
00000370: 77ee c9bd 4a29 c03d a803 a4bc 2fc9 003e
00000380: 2ace b13d 8076 cabb 38fd 813d 168f efbd
00000390: 60ab 263c c079 a6bd 00d9 f7bb 80b9 a9bb
000003a0: b62f 813d c48e 2c3d 1069 7ebd 6430 10be
000003b0: 2ae1 f03d a28c ab3d 3aa2 2bbd b1f1 0f3e
000003c0: 5e83 b33d f06d 25bc 3b5a 103e e493 dfbd
000003d0: 604b 41bc 64a2 353d 1fdf 193e 6d8f 133e
000003e0: 55fa 82bd e0a4 7fbd be71 e83d 7fd5 c0bd
000003f0: 0cde d7bd d8a2 4cbd 960e 94bd 48f0 b03c

transformer_encoder.encoder.attention.fc_V.bias f4 [40]
-0.03270173 -0.09126713 -0.06914468 -0.03743209 -0.13326971 -0.15230514 -0.14180823 0.14555635
-0.02640061 0.13910024 -0.10816643 -0.026766896 -0.116020545 -0.15386866 0.13692711 0.0929798
-0.11763327 -0.037070177 0.045873746 -0.050808422 0.012373403 0.056028023 0.0367468 0.1256197
0.113028064 0.018598467 0.010704055 -0.088377595 0.035560697 0.030027062 -0.028873652 -0.13192011
-0.15537617 -0.058043815 -0.14496042 0.1549976 0.14336063 -0.08103039 -0.1045277 -0.14118488
00000000: 40f2 05bd 43ea babd ba9b 8dbd 6452 19bd
00000010: db77 08be e1f5 1bbe 2d36 11be b90c 153e
00000020: 1846 d8bc 4b70 0e3e 5c86 ddbd 4046 dbbc
00000030: 2e9c edbd bf8f 1dbe 9f36 0c3e 326c be3d
00000040: b6e9 f0bd e6d6 17bd 1ce6 3b3d 7e1c 50bd
00000050: d0b9 4a3c a47d 653d d083 163d 73a2 003e
00000060: 427b e73d d05b 983c 1060 2f3c 50ff b4bd
00000070: 18a8 113d 50fb f53c 7088 ecbc 1116 07be
00000080: ee1a 1fbe 5abf 6dbd 8170 14be b1b7 1e3e
00000090: 21cd 123e 43f3 a5bd 9e12 d6bd c592 10be

transformer_encoder.encoder.attention.fc.weight f4 [40, 40]
-0.0033017993 0.12424408 -0.02952367 -0.12972051 -0.085086696 0.13147064 0.026996553 -0.077154115
-0.00789775 -0.04790151 0.030814976 -0.11976426 -0.08955296 0.12496711 0.025382012 0.10056649
-0.097665906 -0.13468556 -0.04155828 -0.017772138 0.080984995 0.074441254 0.124965385 -0.12540746
-0.12114838 -0.12858613 0.05915208 -0.06986934 0.081036165 -0.11850983 0.08887173 -0.027289972
0.14217715 -0.124148384 -0.09975517 -0.15392031 0.118283585 -0.0038567781 0.08891152 -0.11219859
0.14593019 -0.015285 0.13223885 -0.07540477 -0.04550594 0.12760635 -0.07409666 0.06474261
0.04221402 -0.014732942 -0.11902256 0.02046533 0.079413176 -0.046999052 0.11033048 -0.067047
0.07029803 0.10941933 0.06918603 0.04269515 0.110038534 0.1285641 0.0019350201 0.10525741
0.0808112 0.09536828 0.066393614 -0.10286759 0.11103733 -0.11251181 0.025775835 0.036022827
-0.101128496 -0.15456629 0.15301518 0.06656949 -0.08457701 -0.10410568 0.13664491 -0.10736374
0.033795074 -0.1232916 0.008875489 0.005764261 0.09780981 0.12628628 -0.15166654 0.06688276
-0.016732872 -0.08944439 -0.022512928 0.0009775907 -0.11561151 0.0012558103 0.089467645 0.026904956
-0.13361873 -0.07635985 0.13568433 0.14623637 0.0014792979 0.0061332285 -0.11782722 -0.13219048
-0.08056645 -0.08635502 -0.1456651 0.10135199 -0.109337196 -0.11665228 0.08905715 0.019497335
0.05627206 0.037271395 0.1268828 0.016045809 0.03465216 0.04040374 -0.016224712 -0.10904025
-0.12555942 -0.021286398 0.0029214025 0.09313394 0.063397035 0.060183987 0.021788925 -0.1198527
-0.081370816 0.13101201 -0.14004946 0.055791765 0.018276662 0.024561211 0.0034622252 0.028666005
-0.07104261 -0.07764925 0.07770425 -0.072996534 -0.06902347 0.14962505 0.11392142 -0.025891885
0.107473716 0.0020462424 0.15112601 0.043715864 0.099230066 0.12636684 0.09793176 -0.14661606
-0.03827174 0.14720063 0.14645971 -0.11766742 -0.0026229024 0.13231747 -0.0006226301 -0.0407637
-0.10666297 -0.07490519 0.0032048374 -0.014757067 0.047590315 0.15017085 0.09091467 0.116246924
0.09545876 -0.010189697 0.07932654 0.15671979 0.0033403784 0.03408119 0.114764646 -0.03002201
-0.13611268 0.12873913 0.0009943396 0.016541302 0.117080316 -0.09082204 0.0063561797 0.12998842
-0.08478116 -0.15435362 0.15105908 0.015691683 0.107041255 0.047211736 -0.15033069 0.11411159
0.008186266 -0.10157547 0.07029261 0.018715382 0.0066217035 0.038286835 -0.06329896 0.04139693
0.009661287 0.013816997 0.052241296 -0.01249066 0.032299653 0.05905205 -0.07652862 0.04912518
-0.1539988 -0.13975824 0.11353628 0.040688515 -0.099653855 -0.12855276 0.14618738 -0.018588498
0.13951416 0.07077369 0.06264238 0.09456323 -0.0600432 0.054867536 0.018372491 0.075200394
0.10374366 0.05581215 0.13979079 -0.1230971 -0.09816703 -0.033267006 -0.09213626 -0.10695794
-0.029849991 -0.007627681 -0.14305562 0.086435676 -0.043186933 -0.024630666 0.14639522 0.09524052
-0.010422692 -0.0067080855 0.14518516 0.06121193 -0.13509595 0.07605776 0.018872634 -0.051033363
0.084994346 0.046689317 -0.123012766 0.11299054 0.15039207 0.12354152 -0.0038257986 0.071074784
00000000: 0063 58bb ae73 fe3d a0db f1bc 74d5 04be
00000010: ef41 aebd 3da0 063e e027 dd3c fa02 9ebd
00000020: 9065 01bc 6034 44bd b06f fc3c f746 f5bd
00000030: 8b67 b7bd c2ee ff3d f0ed cf3c cef5 cd3d
00000040: 1005 c8bd 03eb 09be 0439 2abd e096 91bc
00000050: 76db a53d a874 983d daed ff3d d06a 00be
00000060: a41c f8bd 15ac 03be 7449 723d a817 8fbd
00000070: 4af6 a53d 48b5 f2bd 6202 b63d 388f dfbc
00000080: e396 113e 8241 febd 704c ccbd 499d 1dbe
00000090: aa3e f23d 00c2 7cbb 3e17 b63d 60c8 e5bd
000000a0: b96e 153e f06d 7abc 9f69 073e d16d 9abd
000000b0: 7064 3abd 3dab 023e fdbf 97bd c697 843d
000000c0: 9ce8 2c3d 7062 71bc 1ac2 f3bd e8a6 a73c
000000d0: 60a3 a23d 1482 40bd f2f4 e13d f04f 89bd
000000e0: 6af8 8f3d 3e17 e03d 68b1 8d3d 1ce1 2e3d
000000f0: e25b e13d 4fa6 033e 80a0 fd3a 3291 d73d
00000100: 5880 a53d 7250 c33d 60f9 873d 3eac d2bd
00000110: 8a67 e33d 986c e6bd d827 d33c ac8c 133d
00000120: 751c cfbd a046 1ebe 03b0 1c3e 9655 883d
00000130: b636 adbd 5c35 d5bd a5ec 0b3e 85e1 dbbd
00000140: b46c 0a3d 4e80 fcbd 806a 113c 20e2 bc3b
00000150: 8250 c83d 3151 013e 794e 1bbe d4f9 883d
00000160: 6013 89bc 9f2e b7bd 086d b8bc 8022 803a
00000170: bac5 ecbd 009a a43a d03a b73d c867 dc3c
00000180: 59d3 08be 8e62 9cbd d5f0 0a3e fdbe 153e
00000190: 00e5 c13a 40f9 c83b 664f f1bd f15c 07be
000001a0: 0600 a5bd e7da b0bd 3b29 15be a291 cf3d
000001b0: 2eec dfbd 64e7 eebd 9863 b63d e0b8 9f3c
000001c0: 887d 663d e4a9 183d 91ed 013e 8072 833c
000001d0: 6cef 0d3d 647e 253d b0e9 84bc 7f50 dfbd
000001e0: a692 00be d060 aebc 0075 3f3b 02bd be3d
000001f0: 4ed6 813d 7c83 763d b07e b23c 5575 f5bd
00000200: bea5 a6bd 0328 063e 2069 0fbe e885 643d
00000210: f0b8 953c 9834 c93c 80e6 623b f8d4 ea3c
00000220: ca7e 91bd 9206 9fbd 6823 9f3d 357f 95bd
00000230: 2d5c 8dbd 4f37 193e a24f e93d 381b d4bc
00000240: 2e1b dc3d 401a 063b c7c0 1a3e 680f 333d
00000250: 2239 cb3d 4f66 013e 7290 c83d 8522 16be
00000260: d4c2 1cbd c3bb 163e 89f9 153e 9efb f0bd
00000270: 00e5 2bbb 3b7e 073e 0038 23ba d6f7 26bd
00000280: 1d72 dabd e467 99bd 4008 523b a0c7 71bc
00000290: 10ee 423d 63c6 193e 7831 ba3d de12 ee3d
000002a0: e27f c33d b0f2 26bc f475 a23d 277b 203e
000002b0: 40ea 5a3b b898 0b3d ba09 eb3d b8f0 f5bc
000002c0: 1f61 0bbe 31d4 033e 8054 823a a081 873c
000002d0: cec7 ef3d e800 babd 8047 d03b af1b 053e
000002e0: bfa1 adbd e00e 1ebe 3baf 1a3e d88b 803c
000002f0: 7238 db3d 1861 413d 4af0 19be 56b3 e93d
00000300: b01f 063c cd06 d0bd 92f5 8f3d 0051 993c
00000310: e0fa d83b a8d2 1c3d e3a2 81bd d48f 293d
00000320: 604a 1e3c b060 623c f8fa 553d a0a5 4cbc
00000330: a44c 043d 90e0 713d 0abb 9cbd 7c37 493d
00000340: ddb1 1dbe c91c 0fbe b685 e83d 00a9 263d
00000350: 5217 ccbd 56a3 03be 25b2 153e e846 98bc
00000360: cddc 0e3e ccf1 903d a64a 803d 5eaa c13d
00000370: dcef 75bd c8bc 603d e881 963c aa02 9a3d
00000380: 8e77 d43d 489b 643d 5125 0f3e 551a fcbd
00000390: cc0b c9bd fc42 08bd efb1 bcbd c40c dbbd
000003a0: f887 f4bc a0f1 f9bb 2c7d 12be 3005 b13d
000003b0: c8e4 30bd 40c6 c9bc a1e8 153e 760d c33d
000003c0: f0c3 2abc 80cf dbbb 6bab 143e 5cb9 7a3d
000003d0: 9856 0abe 2cc4 9b3d c89a 9a3c 5c08 51bd
000003e0: 8411 ae3d 4c3d 3f3d 1eee fbbd 9667 e73d
000003f0: 6100 1a3e 5603 fd3d 40ba 7abb a88f 913d

transformer_encoder.encoder.attention.fc.bias f4 [40]
-0.001569733 0.14763449 -0.093587436 -0.0126591325 -0.07991595 -0.061078012 -0.002917841 -0.067302264
-0.05819677 -0.13054866 0.030690506 0.14812092 0.03567648 -0.14614865 0.028771147 0.12503324
-0.06134121 -0.1463365 -0.032763973 -0.015529051 -0.07623321 -0.025854439 0.15258981 -0.048741177
0.1007065 -0.11457726 -0.046618126 0.10789512 0.009541377 0.04685925 -0.100157246 0.11798875
0.068432495 0.039660588 0.03804426 0.08562569 -0.14401114 -0.031649664 -0.10041575 0.15686412
00000000: 80bf cdba 7f2d 173e c5aa bfbd 4068 4fbc
00000010: f9aa a3bd f02c 7abd 4039 3fbb c5d5 89bd
00000020: bc5f 6ebd 8cae 05be a86a fb3c 03ad 173e
00000030: 8021 123d fea7 15be 78b1 eb3c b708 003e
00000040: ec40 7bbd 3cd9 15be 8433 06bd 906d 7ebc
00000050: 2820 9cbd b0cc d3bc 8140 1c3e d4a4 47bd
00000060: 363f ce3d 7ca7 eabd a6f2 3ebd 1ef8 dc3d
00000070: 7053 1c3c 7cef 3f3d 3e1f cdbd 16a4 f13d
00000080: 5626 8c3d 2473 223d 4cd4 1b3d 865c af3d
00000090: a877 13be 14a3 01bd c6a6 cdbd fda0 203e

transformer_encoder.encoder.attention.layer_norm.weight f4 [40]
1.0 1.0 1.0 1.0 1.0 1.0 1.0 1.0
1.0 1.0 1.0 1.0 1.0 1.0 1.0 1.0
1.0 1.0 1.0 1.0 1.0 1.0 1.0 1.0
1.0 1.0 1.0 1.0 1.0 1.0 1.0 1.0
1.0 1.0 1.0 1.0 1.0 1.0 1.0 1.0
00000000: 0000 803f 0000 803f 0000 803f 0000 803f
00000010: 0000 803f 0000 803f 0000 803f 0000 803f
00000020: 0000 803f 0000 803f 0000 803f 0000 803f
00000030: 0000 803f 0000 803f 0000 803f 0000 803f
00000040: 0000 803f 0000 803f 0000 803f 0000 803f
00000050: 0000 803f 0000 803f 0000 803f 0000 803f
00000060: 0000 803f 0000 803f 0000 803f 0000 803f
00000070: 0000 803f 0000 803f 0000 803f 0000 803f
00000080: 0000 803f 0000 803f 0000 803f 0000 803f
00000090: 0000 803f 0000 803f 0000 803f 0000 803f

transformer_encoder.encoder.attention.layer_norm.bias f4 [40]
0.0 0.0 0.0 0.0 0.0 0.0 0.0 0.0
0.0 0.0 0.0 0.0 0.0 0.0 0.0 0.0
0.0 0.0 0.0 0.0 0.0 0.0 0.0 0.0
0.0 0.0 0.0 0.0 0.0 0.0 0.0 0.0
0.0 0.0 0.0 0.0 0.0 0.0 0.0 0.0
00000000: 0000 0000 0000 0000 0000 0000 0000 0000
00000010: 0000 0000 0000 0000 0000 0000 0000 0000
00000020: 0000 0000 0000 0000 0000 0000 0000 0000
00000030: 0000 0000 0000 0000 0000 0000 0000 0000
00000040: 0000 0000 0000 0000 0000 0000 0000 0000
00000050: 0000 0000 0000 0000 0000 0000 0000 0000
00000060: 0000 0000 0000 0000 0000 0000 0000 0000
00000070: 0000 0000 0000 0000 0000 0000 0000 0000
00000080: 0000 0000 0000 0000 0000 0000 0000 0000
00000090: 0000 0000 0000 0000 0000 0000 0000 0000

transformer_encoder.encoder.feed_forward.fc1.weight f4 [256, 40]
0.12722634 -0.077843636 0.11953862 0.013210669 0.15671898 -0.031227604 0.017478228 0.07028882
-0.08822956 -0.03318645 -0.04332357 -0.10927069 -0.05650825 0.14498417 -0.15437995 -0.04294543
0.04357478 -0.079446316 -0.05859197 0.0746412 0.016525269 -0.09889297 0.067870975 -0.13398483
-0.02325958 0.0887934 -0.0062237084 -0.09167341 0.05668375 -0.066442825 -0.005135268 0.116138175
0.005348608 -0.022880733 -0.1259436 0.045686945 0.0539857 -0.035611533 -0.15489173 0.057816178
-0.15145503 0.13165577 -0.06442773 0.07464348 -0.011796087 0.11761482 0.1139801 0.058709174
-0.07254722 -0.005950764 -0.09735775 0.063868746 0.008579701 0.021495193 0.07267769 0.01682423
-0.1168922 0.019501165 0.0124934465 0.15397976 0.054273337 -0.05793958 0.14605962 0.12076186
0.0286856 0.07974942 0.065536246 0.03254327 -0.040081374 0.0046217293 -0.1197238 -0.14609697
0.09811027 -0.076648064 0.1158434 -0.14207113 -0.11943413 -0.055404812 0.1243874 0.007856667
0.051285252 -0.07472019 0.05350505 -0.04698179 0.11331032 0.043306574 0.10437329 0.13734694
-0.062567994 -0.03732352 -0.033900946 0.12884147 -0.09746157 0.12135999 -0.08995 -0.014926925
-0.092228696 0.050484553 0.0023204684 -0.004827887 0.120605245 -0.059191473 0.12672536 -0.15030375
0.0778501 0.10903351 -0.01435709 0.0002001673 0.11742364 -0.15404435 0.09411301 0.043145254
-0.1265189 -0.1281685 0.00023253262 -0.14501074 -0.040742114 -0.108817555 0.13056837 0.06259352
0.039979145 0.09752028 -0.05930119 -0.1309169 -0.14808446 -0.051445678 -0.05865924 0.040920004
0.03222783 -0.046158835 -0.009753421 0.06792633 0.052501053 0.05962652 0.110160425 -0.028559566
0.052887887 -0.1396921 -0.015694022 0.04161738 0.11986755 0.0074569583 0.09887941 0.03182234
0.0367496 -0.1372548 0.050755262 -0.025020882 0.057710648 0.03147438 0.1556362 0.012207359
0.09445153 -0.061730437 -0.14678022 0.10700686 0.0021420866 -0.013950571 -0.12027994 -0.007203087
0.031509995 -0.04237111 0.016190082 0.022722349 -0.08339905 -0.02926895 -0.088136256 0.00057420135
0.00442864 -0.0935529 -0.09471777 -0.0069150925 -0.046262488 -0.060081087 -0.10901767 -0.06473378
-0.040044002 -0.0892812 -0.1003682 0.14357354 0.042802423 -0.094700165 0.1150458 -0.08698734
0.0266245 0.035767615 0.044540897 0.12076841 0.007856607 -0.13741434 0.08747457 -0.049100414
-0.042509854 -0.15062143 0.031096548 -0.10864952 0.0076453686 -0.1083823 0.12890427 -0.053881697
-0.007013336 -0.13217668 -0.14897764 -0.12603602 0.13988088 0.06814933 0.091166124 -0.033218525
-0.15420714 -0.10858694 0.13764851 -0.024629027 -0.09473247 -0.07984557 0.044846386 -0.08624712
0.08754735 0.12184955 0.03728339 -0.11592996 0.05986555 0.08040796 -0.044266246 0.1109281
-0.10101642 0.049021646 0.11976598 0.07674308 0.14047356 -0.12628266 -0.04724575 -0.13032931
-0.11058303 0.037192807 0.07559909 -0.11795496 0.14575525 -0.070070736 -0.14522654 0.091109335
0.046593174 -0.06517318 0.012618661 0.1543106 0.06736533 0.113059506 -0.14767618 -0.06808876
-0.0672209 0.12000589 -0.023373261 -0.05418182 -0.08584291 0.109527364 -0.15097623 0.118084714
00000000: 9f47 023e 7c6c 9fbd aad0 f43d 9071 583c
00000010: f17a 203e 08d1 ffbc 802e 8f3c 96f3 8f3d
00000020: b3b1 b4bd 84ee 07bd 0e74 31bd 50c9 dfbd
00000030: 3275 67bd bb76 143e c715 1ebe 8ce7 2fbd
00000040: 787b 323d c0b4 a2bd 22fe 6fbd 7cdd 983d
00000050: 0060 873c 6688 cabd f0ff 8a3d 5233 09be
00000060: e08a bebc 50d9 b53d 40f0 cbbb 45bf bbbd
00000070: 382d 683d 2d13 88bd c045 a8bb dad9 ed3d
00000080: 6043 af3b 6070 bbbc 5cf7 00be 3c22 3b3d
00000090: 1c20 5d3d 66dd 11bd f09b 1ebe a8d0 6c3d
000000a0: 0717 1bbe c5d0 063e b0f2 83bd aede 983d
000000b0: 6044 41bc 0ae0 f03d 666e e93d 0879 703d
000000c0: a393 94bd a0fe c2bb 8063 c7bd 9ecd 823d
000000d0: e091 0c3c b016 b03c 0ad8 943d f8d2 893c
000000e0: 2e65 efbd e8c0 9f3c 50b1 4c3c dfac 1d3e
000000f0: b84d 5e3d 0e52 6dbd a790 153e fe51 f73d
00000100: 10fe ea3c aa53 a33d de37 863d 184c 053d
00000110: 5e2c 24bd e071 973b c031 f5bd 729a 15be
00000120: 0aee c83d a9f9 9cbd 4e3f ed3d 187b 11be
00000130: e299 f4bd 28f0 62bd d2be fe3d 40b9 003c
00000140: 7c10 523d e606 99bd 1c28 5b3d fa6f 40bd
00000150: 3e0f e83d 3c62 313d aac1 d53d ada4 0c3e
00000160: a623 80bd 8ce0 18bd b8db 0abd 05ef 033e
00000170: ee99 c7bd 968b f83d b537 b8bd 1090 74bc
00000180: 66e2 bcbd e4c8 4e3d 0013 183b 4033 9ebb
00000190: e2ff f63d c272 72bd 4bc4 013e 3ae9 19be
000001a0: e06f 9f3d f64c df3d 003a 6bbc 00e4 5139
000001b0: ce7b f03d cdbd 1dbe 52be c03d 14b9 303d
000001c0: 2c8e 01be 9a3e 03be 00d4 7339 b27d 14be
000001d0: 34e1 26bd bddb debd b7b3 053e 0831 803d
000001e0: 2cc1 233d b6b8 c73d cee5 72bd 140f 06be
000001f0: 74a3 17be b4b8 52bd ac44 70bd bc9b 273d
00000200: 5401 043d 0c11 3dbd d0cc 1fbc f61c 8b3d
00000210: 580b 573d f03a 743d ca9b e13d c0f5 e9bc
00000220: f8a0 583d 720b 0fbe c090 80bc fc76 2a3d
00000230: 1e7d f53d 8059 f43b 4a81 ca3d 2458 023d
00000240: c086 163d 868c 0cbe c0e4 4f3d 98f8 ccbc
00000250: 0062 6c3d 48eb 003d 195f 1f3e 6001 483c
00000260: ce6f c13d 0ed9 7cbd 8e4d 16be 6a26 db3d
00000270: 4062 0c3b f090 64bc 5455 f6bd e007 ecbb
00000280: a010 013d 548d 2dbd 10a1 843c 3824 ba3c
00000290: 1fcd aabd 70c5 efbc c880 b4bd 0086 163a
000002a0: 201e 913b aa98 bfbd 64fb c1bd 0098 e2bb
000002b0: bc7d 3dbd 9617 76bd a844 dfbd 2593 84bd
000002c0: 2e05 24bd 10d9 b6bd d88d cdbd f104 133e
000002d0: 9851 2f3d 29f2 c1bd 229d eb3d 6b26 b2bd
000002e0: a01b da3c 1081 123d 8470 363d 6e55 f73d
000002f0: 00b9 003c 58b6 0cbe de25 b33d 841d 49bd
00000300: d01e 2ebd 813c 1abe 30be fe3c a483 debd
00000310: 0086 fa3b 8af7 ddbd 7bff 033e 0eb3 5cbd
00000320: 20d0 e5bb 5359 07be 988d 18be 960f 01be
00000330: ef3c 0f3e e091 8b3d 4eb5 ba3d 2610 08bd
00000340: 7ae8 1dbe d462 debd bbf3 0c3e d0c2 c9bc
00000350: 1903 c2bd 1386 a3bd d8b0 373d 54a2 b0bd
00000360: 064c b33d 428c f93d 78b6 183d b06c edbd
00000370: 9435 753d eeac a43d 8650 35bd 462e e33d
00000380: b2e1 cebd ecca 483d de47 f53d 7a2b 9d3d
00000390: 4dd8 0f3e 3e50 01be c284 41bd 0c75 05be
000003a0: 5b79 e2bd 7c57 183d b2d3 9a3d 5f92 f1bd
000003b0: dd40 153e 3f81 8fbd 44b6 14be 8897 ba3d
000003c0: 7cd8 3e3d 8479 85bd 80be 4e3c 9903 1e3e
000003d0: d6f6 893d be8b e73d 6d38 17be 1f72 8bbd
000003e0: 1cab 89bd a6c5 f53d 4879 bfbc c2ed 5dbd
000003f0: 68ce afbd e24f e03d 8399 1abe 66d6 f13d

transformer_encoder.encoder.feed_forward.fc1.bias f4 [256]
0.08912128 0.05011764 0.016802296 0.055738926 0.0692167 0.1366732 -0.14936952 0.07883412
-0.14493872 -0.12122752 -0.05942312 0.015038729 0.06880151 0.005460486 0.07586345 -0.014824331
0.05024667 -0.095127426 -0.04764743 -0.09228545 0.117418185 0.14019851 0.11349203 0.08988576
-0.038819194 -0.0423029 -0.13817479 0.13785629 0.0025528967 -0.03880495 -0.038424 0.010840252
-0.11044602 -0.1460945 -0.03645356 -0.10016914 -0.06501663 -0.10720023 0.00668703 0.048394993
0.13493927 0.09269275 -0.10395999 -0.09814134 0.085672796 -0.0537192 0.14692502 0.028407872
-0.06027534 0.07667224 0.06523235 -0.049360298 -0.020958886 -0.08359027 -0.12499455 0.08026834
0.025754198 -0.07293138 0.022628233 0.117377564 0.09358503 -0.10887832 0.0022586137 -0.07487085
0.08650318 0.08708066 -0.14020017 0.10832541 -0.12990515 0.022991583 -0.017687112 -0.12055404
0.0067560077 0.13658227 -0.04396478 0.117027 -0.06120196 -0.1403909 0.09893055 -0.061218396
-0.1243056 0.068553194 -0.10259618 0.044786796 0.03965442 0.14224161 0.101399794 0.12265049
-0.13726361 0.051485524 0.12784119 -0.042607456 0.15376426 -0.081678994 0.00678432 -0.07692022
0.1430056 0.051649272 0.0024001747 -0.10508543 0.07720548 0.12493329 -0.05724787 0.073840916
0.07252297 0.15065537 0.11093615 -0.08974423 0.11711897 -0.07831476 0.12560256 -0.054458402
-0.08399634 0.12667356 0.033717617 -0.03131184 0.05879058 -0.061751835 -0.069919854 0.13048522
-0.007225007 0.055831686 0.019254819 0.09444632 -0.01403591 0.048370957 0.085473806 -0.041655973
-0.12952004 -0.15026118 0.07396814 0.08637512 0.0987965 0.0025674254 0.13280986 0.13837154
-0.019322217 0.1463045 -0.13146242 0.11038999 0.01809913 -0.0018921643 0.06633018 -0.11814927
0.017760754 -0.038207956 0.10124247 0.06057273 -0.11837781 0.08782281 0.07955918 -0.006484881
0.066962734 -0.14576481 -0.04481636 -0.050053477 -0.06740899 -0.1298592 0.010480225 -0.05695568
-0.068715274 0.084016055 0.0187504 0.050767377 0.15722094 0.009136543 -0.03204234 -0.15314582
-0.012154207 -0.017582431 0.14075147 0.015889555 0.13685639 -0.055769347 0.035355225 -0.105515555
-0.009098887 0.016677245 0.011664256 -0.04977808 -0.08967235 -0.016613603 -0.0063982606 0.11540337
0.15393527 -0.07113395 -0.021848276 -0.13366458 -0.08080949 0.034259573 -0.018510953 0.1028135
-0.036023244 0.0373106 0.020968854 0.06814648 -0.08321689 0.108360484 0.15769725 -0.12454854
-0.123387635 0.12646447 -0.07614944 0.15350728 -0.10796443 -0.059375115 -0.05227933 0.056959927
0.15670498 0.086644664 -0.12437547 0.13912384 0.12836532 -0.065650694 -0.08806212 -0.1286233
-0.017650455 0.009628981 -0.054519475 -0.09406366 -0.020454183 0.14128812 -0.070198625 0.040798873
0.08866507 -0.09404423 0.14801703 0.07738052 0.02850099 -0.12097402 0.036630526 0.05315402
0.08159149 -0.13069314 0.09751566 -0.09658 0.048407733 0.12909035 -0.13115755 0.13656025
-0.023476347 0.093107656 0.06929673 0.044358045 -0.009090096 -0.10206117 -0.062785394 0.15235953
-0.007953897 0.13301234 -0.017728701 -0.12316802 0.09870441 0.12608786 0.14530633 -0.06278087
00000000: 3885 b63d 2848 4d3d f8a4 893c 804e 643d
00000010: 7cc1 8d3d 0ff4 0b3e 53f4 18be c873 a13d
00000020: d16a 14be 2246 f8bd a865 73bd 0065 763c
00000030: cee7 8c3d e0ed b23b 4c5e 9b3d c0e1 72bc
00000040: 74cf 4d3d 2bd2 c2bd f429 43bd 2700 bdbd
00000050: f278 f03d 3390 0f3e 826e e83d 0616 b83d
00000060: e000 1fbd ce45 2dbd b17d 0dbe 332a 0d3e
00000070: 804e 273b f0f1 1ebd 7c62 1dbd 509b 313c
00000080: 8631 e2bd cc99 15be 5450 15bd 7a25 cdbd
00000090: 7027 85bd cb8b dbbd e01e db3b d439 463d
000000a0: 852d 0a3e b2d5 bd3d fae8 d4bd 54fe c8bd
000000b0: 3875 af3d aa08 5cbd 8373 163e a0b7 e83c
000000c0: 46e3 76bd 5606 9d3d 8a98 853d 062e 4abd
000000d0: f8b1 abbc 6031 abbd 25fd ffbd ba63 a43d
000000e0: 78fa d23c 0c5d 95bd d85e b93c a663 f03d
000000f0: 82a9 bf3d 99fb debd 4005 143b e355 99bd
00000100: 9428 b13d 5857 b23d a290 0fbe b6d9 dd3d
00000110: db05 05be d858 bc3c 90e4 90bc 09e5 f6bd
00000120: 8061 dd3b 39dc 0b3e 6a14 34bd daab ef3d
00000130: e8ae 7abd a2c2 0fbe 1a9c ca3d 24c0 7abd
00000140: ef93 febd 9e65 8c3d f21d d2bd 5c72 373d
00000150: ac6c 223d c9a7 113e b2aa cf3d 2e30 fb3d
00000160: d58e 0cbe 7ce2 523d cde8 023e 2885 2ebd
00000170: 6174 1d3e 5147 a7bd 004f de3b 5988 9dbd
00000180: 0f70 123e 308e 533d 404c 1d3b 0837 d7bd
00000190: e81d 9e3d 06dd ff3d be7c 6abd e839 973d
000001a0: ec86 943d 6745 1a3e 7e32 e33d d3cb b7bd
000001b0: 12dc ef3d 7d63 a0bd f59d 003e c60f 5fbd
000001c0: 4606 acbd b7b6 013e 7c1b 0a3d d840 00bd
000001d0: 64ce 703d 7eef 7cbd 2432 8fbd eb9d 053e
000001e0: c0bf ecbb c4af 643d 48bc 9d3c 126d c13d
000001f0: e0f6 65bc a020 463d e40c af3d 749f 2abd
00000200: e7a0 04be 11de 19be 9c7c 973d 70e5 b03d
00000210: d255 ca3d 4042 283b 4fff 073e 45b1 0d3e
00000220: a049 9ebc d9d0 153e 169e 06be 2614 e23d
00000230: a044 943c 8002 f8ba 1ed8 873d 3ff8 f1bd
00000240: 007f 913c f27f 1cbd 3658 cf3d 1c1b 783d
00000250: 1170 f2bd 72dc b33d ecef a23d 207f d4bb
00000260: c223 893d 5f43 15be 5c91 37bd e004 4dbd
00000270: b90d 8abd cff9 04be 40b5 2b3c 5c4a 69bd
00000280: 98ba 8cbd 9c10 ac3d 709a 993c 74f1 4f3d
00000290: 87fe 203e 70b1 153c d43e 03bd 42d2 1cbe
000002a0: 7022 47bc 0809 90bc 2721 103e d02a 823c
000002b0: 1524 0c3e 666e 64bd a4d0 103d 8a18 d8bd
000002c0: 8013 15bc b89e 883c 701b 3f3c 1ae4 4bbd
000002d0: 23a6 b7bd 4019 88bc 80a8 d1bb 9a58 ec3d
000002e0: 35a1 1d3e adae 91bd 28fb b2bc 5edf 08be
000002f0: 727f a5bd c453 0c3d 48a4 97bc e28f d23d
00000300: 1c8d 13bd 00d3 183d e0c6 ab3c 6290 8b3d
00000310: 9e6d aabd 1aec dd3d 637b 213e 4e13 ffbd
00000320: a8b2 fcbd e77f 013e 3df4 9bbd 0331 1d3e
00000330: 741c ddbd 5233 73bd da22 56bd d04e 693d
00000340: 4577 203e c272 b13d 91b8 febd 7b76 0e3e
00000350: 3372 033e df73 86bd ea59 b4bd d4b5 03be
00000360: b097 90bc e0c2 1d3c d04f 5fbd 73a4 c0bd
00000370: 888f a7bc d5ad 103e 4cc4 8fbd b81c 273d
00000380: 0896 b53d 439a c0bd c791 173e ae79 9e3d
00000390: e87a e93c 3ac1 f7bd e409 163d 08b8 593d
000003a0: 7019 a73d 6cd4 05be 4ab6 c73d bccb c5bd
000003b0: 3047 463d 4330 043e 2a4e 06be 73d6 0b3e
000003c0: 7851 c0bc 3aaf be3d 72eb 8d3d c8b0 353d
000003d0: a0ee 14bc 7205 d1bd a195 80bd 2304 1c3e
000003e0: 1051 02bc 6334 083e c83b 91bc 843f fcbd
000003f0: 8a25 ca3d 2d1d 013e 2fcb 143e 4293 80bd

transformer_encoder.encoder.feed_forward.fc2.weight f4 [40, 256]
0.023358181 -0.047740363 0.042590126 -0.05682078 -0.05779823 0.038494118 0.030258112 0.038053595
0.012238212 -0.03209328 0.03479541 -0.031390905 0.017911829 -0.031980522 -0.045844145 -0.05160828
-0.027430616 0.013797328 -0.03874354 0.022134848 0.021823421 0.04203385 -0.04500875 -0.047496013
0.018194743 0.029238157 -0.047632538 -0.008088015 0.010745764 -0.03434851 -0.052294098 0.05736766
0.005972296 0.027911685 0.058650002 -0.0067337975 -0.042171396 -0.0041668415 0.030659579 -0.050035484
0.04815507 0.007628076 -0.042956688 0.03461811 -0.009833932 -0.0025705919 -0.018689737 0.057276018
-0.014758542 0.015656747 -0.057501912 0.05785293 -0.043090664 0.00728976 0.007855177 -0.006051518
0.038549915 -0.033040717 0.0018244684 0.061724894 -0.032197915 -0.046733066 -0.06071531 0.04834315
-0.033788145 -0.044724897 -0.053442433 -0.0017494112 0.026715413 0.038346194 0.021565303 -0.010639116
-0.0005290732 -0.03839922 0.03528881 -0.040208057 0.016249843 0.050904125 -0.013414741 -0.00061780214
0.0410747 0.050894022 0.025588557 0.025800496 0.021045387 -0.0061277896 0.014358476 0.024498828
0.008394204 0.040100083 -0.022262976 0.05444961 -0.021393903 -0.022430941 -0.053745538 0.057389863
0.03054922 0.004914567 -0.029138342 -0.04633493 -0.037145622 0.015448436 0.0059666336 -0.048360534
-0.038785383 0.009475395 -0.0012616813 0.060158096 0.050181575 0.043442197 -0.03994917 0.039044186
-0.02796673 -0.03704492 0.0073982105 -0.053590067 0.043667883 0.014773004 -0.006710708 -0.045615904
-0.04149908 7.57128e-05 0.02260691 -0.028344028 0.056499355 0.027604505 -0.047423944 0.043837413
-0.047944136 -0.023533605 -0.023273826 0.061650164 -0.040806584 -0.009573691 0.018633395 -0.008390941
-0.02973608 -0.041764915 -0.042228304 -0.051044375 0.0028041154 -0.037568226 0.062426314 0.03204202
-0.06219527 -0.036502056 0.014645971 0.0019956827 0.0091274455 -0.040190086 -0.0044243336 -0.055913515
0.013407938 -0.040384024 0.038974524 -0.027229458 -0.054986455 0.0110014975 0.0051812157 -0.03265713
0.05140301 -0.007526092 0.05801703 -0.049023457 -0.002976574 0.051204532 0.043267883 0.021415263
0.022852696 0.00035531074 -0.007194929 0.028559342 -0.06105183 -0.011273436 -0.0034983084 0.011810705
0.045275904 -0.06221459 0.035151303 0.028274834 0.0021300018 0.009226501 0.051243328 0.03272111
-0.048828647 -0.016928487 -0.030986823 0.051651083 -0.021696746 -0.006678827 -0.05055152 0.05228035
0.02656044 0.032879367 0.009117037 -0.030391388 -0.0088497475 -0.017985985 -0.005512126 -0.03127101
-0.003529653 -0.01004684 0.004151128 -0.015101194 -0.006429732 0.023779713 0.03143254 -0.037543587
-0.048078373 0.037089318 -0.036291175 0.04088089 -0.055849582 -0.039651535 0.040808424 -0.027811356
0.022015773 -0.049480468 0.00070457906 0.038803212 0.030336805 -0.055563375 0.04494396 0.03805515
0.03459595 -0.01964935 -0.01799474 -0.016323723 0.033330195 0.05062083 0.018565014 -0.03456369
-0.04946521 0.04162927 0.021442376 0.04349608 -0.012057237 -0.058519267 -0.041857585 -0.036089815
-0.012926914 0.028448738 -0.027917571 0.06091641 0.047671124 0.06249135 0.056513935 0.00867562
0.0036928356 -0.011248313 0.044400185 0.010855995 -0.033707567 -0.034980603 0.0459352 -0.029995985
00000000: a859 bf3c 668b 43bd fc72 2e3d e8bc 68bd
00000010: d6bd 6cbd 02ac 1d3d dcdf f73c 16de 1b3d
00000020: c882 483c 3e74 03bd a285 0e3d c093 00bd
00000030: d4bb 923c 02fe 02bd 12c7 3bbd 3463 53bd
00000040: 2cb6 e0bc 300e 623c 8cb1 1ebd 2454 b53c
00000050: 08c7 b23c b02b 2c3d 185b 38bd 2e8b 42bd
00000060: 240d 953c dc84 ef3c 561a 43bd 9883 04bc
00000070: 000f 303c 06b1 0cbd 5632 56bd 5afa 6a3d
00000080: 40b3 c33b 0ca7 e43c fc3a 703d 30a7 dcbb
00000090: eabb 2cbd 008a 88bb cc29 fb3c 02f2 4cbd
000000a0: 403e 453d f0f4 f93b 5af3 2fbd b8cb 0d3d
000000b0: 801e 21bc 6077 28bb 381b 99bc 429a 6a3d
000000c0: d0cd 71bc 9442 803c 2087 6bbd 32f7 6c3d
000000d0: d67f 30bd f0de ee3b 00b3 003c d04b c6bb
000000e0: 84e6 1d3d b455 07bd 0023 ef3a 3ed3 7c3d
000000f0: f6e1 03bd 2c6b 3fbd 9eb0 78bd 7803 463d
00000100: 7065 0abd 7431 37bd 74e6 5abd 804c e5ba
00000110: 48da da3c e610 1d3d b8a9 b03c b04f 2ebc
00000120: 80b1 0aba 8048 1dbd 008b 103d 34b1 24bd
00000130: 641e 853c d880 503d 80c9 5bbc 00f4 21ba
00000140: f23d 283d 4076 503d 189f d13c 905b d33c
00000150: 6067 ac3c a0cb c8bb d03f 6b3c c4b1 c83c
00000160: d887 093c fc3f 243d d860 b6bc 8e06 5f3d
00000170: 4442 afbc 18c1 b7bc 4824 5cbd a211 6b3d
00000180: 5c42 fa3c 600a a13b 88b3 eebc b2c9 3dbd
00000190: 0226 18bd 701b 7d3c c083 c33b b215 46bd
000001a0: 6cdd 1ebd b03e 1b3c 005f a5ba 5668 763d
000001b0: 328b 4d3d 72f0 313d bea1 23bd ccec 1f3d
000001c0: 7c1a e5bc 6abc 17bd b06c f23b 4281 5bbd
000001d0: 18dd 323d 780a 723c 80e5 dbbb bed7 3abd
000001e0: f0fa 29bd 00c8 9e38 2032 b93c bc31 e8bc
000001f0: de6b 673d d822 e23c 9c3f 42bd dc8e 333d
00000200: 1261 44bd 8cc9 c0bc c0a8 bebc e284 7c3d
00000210: ce24 27bd f8da 1cbc 10a5 983c 287a 09bc
00000220: 1499 f3bc b011 2bbd 96f7 2cbd e813 51bd
00000230: 40c5 373b 24e1 19bd bcb2 7f3d 7e3e 033d
00000240: 78c0 7ebd 2e83 15bd a8f5 6f3c 00ca 023b
00000250: 488b 153c 5c9e 24bd 00fa 90bb 9205 65bd
00000260: f8ac 5b3c b869 25bd c0a3 1f3d 5010 dfbc
00000270: 7a39 61bd a03f 343c 30c7 a93b 7cc3 05bd
00000280: f68b 523d 709d f6bb 44a3 6d3d d2cc 48bd
00000290: a012 43bb d8bb 513d aa39 313d 106f af3c
000002a0: 9435 bb3c 0049 ba39 70c3 ebbb 48f5 e93c
000002b0: 7c11 7abd 38b4 38bc e043 65bb b081 413c
000002c0: 3a73 393d bad4 7ebd d0fa 0f3d a0a0 e73c
000002d0: 8097 0b3b c02a 173c 86e4 513d 9206 063d
000002e0: 8c00 48bd 9cad 8abc 14d8 fdbc 1690 533d
000002f0: 60bd b1bc 10da dabb 1c0f 4fbd ec23 563d
00000300: 4895 d93c 84ac 063d a05f 153c 5cf7 f8bc
00000310: 88fe 10bc 5857 93bc 109f b4bb 0816 00bd
00000320: c051 67bb 809b 24bc 3006 883b 006b 77bc
00000330: 80b0 d2bb accd c23c 68bf 003d 4ec7 19bd
00000340: d4ed 44bd f8ea 173d 0ea6 14bd b872 273d
00000350: 88c2 64bd a669 22bd bc26 273d a4d4 e3bc
00000360: 6c5a b43c 08ac 4abd 80b3 383a 1ef0 1e3d
00000370: e484 f83c 6c96 63bd 2817 383d b8df 1b3d
00000380: 7cb4 0d3d acf7 a0bc b469 93bc 54b9 85bc
00000390: 3e85 083d ca57 4f3d a815 983c a892 0dbd
000003a0: 089c 4abd 7483 2a3d eca7 af3c f228 323d
000003b0: b88b 45bc e6b1 6fbd dc72 2bbd ead2 13bd
000003c0: 68cb 53bc 540d e93c 64b3 e4bc 7c83 793d
000003d0: cc42 433d eef6 7f3d 287b 673d 3024 0e3c
000003e0: 8003 723b d84a 38bc f8dc 353d 58dd 313c
000003f0: f210 0abd d247 0fbd 8c26 3c3d 24ba f5bc

transformer_encoder.encoder.feed_forward.fc2.bias f4 [40]
0.022496045 0.0024596676 -0.007215604 -0.043035634 -0.007817924 -0.032589667 0.017200641 -0.0028326437
0.006439425 -0.04476597 -0.012065016 0.039713733 0.061690472 -0.001864098 -0.029445574 -0.049171902
0.032292135 0.028470635 -0.009589367 0.016685583 -0.033111155 -0.043494463 -0.026735641 -0.024998792
-0.0323624 -0.04238282 0.010394976 -0.021484092 -0.02294086 -0.01656954 -0.013926409 -0.051198058
-0.05536846 0.046923436 0.036588095 -0.045919284 -0.050977983 -0.041352093 0.030000776 0.05654133
00000000: a049 b83c 6032 213b e070 ecbb 2246 30bd
00000010: c016 00bc be7c 05bd 5ce8 8c3c e0a3 39bb
00000020: d001 d33b 865c 37bd 58ac 45bc deaa 223d
00000030: 26af 7c3d c054 f4ba d837 f1bc 7a68 49bd
00000040: c244 043d 403b e93c b81c 1dbc 34b0 883c
00000050: 909f 07bd 4027 32bd b404 dbbc 44ca ccbc
00000060: 708e 04bd 9c99 2dbd b04f 2a3c 68ff afbc
00000070: 78ee bbbc d8bc 87bc 982b 64bc 0eb5 51bd
00000080: 0aca 62bd ca32 403d 66dd 153d dc15 3cbd
00000090: 4ace 50bd d060 29bd 30c4 f53c e297 673d
