simple2transformer/param/net_param/Mk10_100_50_actor_net.model (torch, 233919 bytes, 34 tensors)

transformer_encoder.encoder.attention.fc_Q.weight f4 [40, 40]
000000 07 d0 84 bd 08 2e fa bd 4e b6 9c bd da 7d 50 bd
       -0.064849906 -0.12215811 -0.07651959 -0.05090127
000010 63 7b 06 3e c2 9b a4 3d 84 6d b2 3d 4c e0 61 3d
       0.13133006 0.08037521 0.08712295 0.055145547
000020 b4 19 40 3d e0 3f 8e 3c 64 71 07 3d 0a 26 e2 bd
       0.046899512 0.017364442 0.033067122 -0.110424116
000030 08 3d 61 bd 00 d4 d7 bb 1f 36 1a 3e d0 06 46 bd
       -0.054989845 -0.0065865517 0.15059708 -0.04834634
000040 e3 59 82 bd a3 e9 16 3e ee d7 88 3d 62 5d c2 bd
       -0.06364801 0.14737563 0.0668181 -0.094904676
000050 bc 46 af bd 0e 54 8c 3d 45 35 0c 3e 61 9d 04 3e
       -0.085584134 0.0685197 0.13692196 0.1295066
000060 5c 43 b8 bd 72 f9 c4 3d b8 ba 25 3d 45 2f 0e 3e
       -0.08997223 0.096178904 0.040461272 0.1388522
000070 ac f5 14 be 3c 87 d1 bd a3 70 ac bd 80 82 b0 bc
       -0.14546841 -0.10230872 -0.08419921 -0.021546602
000080 2c e7 7d 3d 08 44 6b bd 01 5d 08 3e b0 be bf bc
       0.06198804 -0.057437927 0.13316728 -0.023406357
000090 d2 9c e8 bd 2c 44 8b bd 6c c0 6a bd 96 64 c3 3d
       -0.11358036 -0.06800112 -0.057312414 0.095406696
0000a0 84 7f 98 3d a5 91 8e bd ba e2 59 bd f6 29 97 3d
       0.07446197 -0.06961373 -0.05319474 0.0738105
0000b0 06 86 ef bd b9 54 09 3e 90 90 a4 3d 28 95 e2 3c
       -0.11695485 0.13411225 0.080353856 0.027659014
0000c0 e2 2e 55 bd 5c f3 b6 bd 0e df c9 3d ae ff e8 bd
       -0.052046664 -0.08933136 0.098569974 -0.11376892
0000d0 40 c9 05 bd 8d 63 8f bd c2 81 21 be 6c 51 0c 3d
       -0.03266263 -0.0700141 -0.15772155 0.034257337
0000e0 36 1d f9 3d 02 0e 98 bd 30 ab 92 bc 40 38 6d 3c
       0.12163775 -0.07424547 -0.017903894 0.014478743
0000f0 a6 be 91 bd 10 a7 20 3d 0a 09 a5 bd 52 ba 72 bd
       -0.071164414 0.039221823 -0.08058365 -0.05925972
000100 00 9e b6 bc 0d 63 9b bd f3 ff a3 bd 19 13 e7 bd
       -0.022292137 -0.07587252 -0.08007803 -0.112829395
000110 45 ca 0d 3e 86 4b f8 3d aa 32 eb 3d 80 e4 c3 3b
       0.13846691 0.1212378 0.11484273 0.005978167
000120 41 e1 c3 bd 04 26 84 bd 98 5e f8 bd f0 fd 94 3c
       -0.09564448 -0.064525634 -0.12127417 0.018187493
000130 2e 3d c0 3d e8 84 80 3d 53 f8 0f 3e f0 0d 40 3c
       0.09386669 0.0627535 0.14059572 0.011722073
000140 6a 38 8b 3d 23 dd bf bd e6 df c3 3d 88 53 b1 3c
       0.067978695 -0.0936835 0.095641896 0.021646276
000150 a2 71 60 bd 4e 8b e0 3d f8 7b 35 3d 3c 05 3a 3d
       -0.05479587 0.1096407 0.04430768 0.04541515
000160 f0 b4 48 3c ca c2 83 3d ee a3 de 3d 58 dd 97 3c
       0.01225017 0.064336374 0.10871111 0.018538162
000170 90 b6 ad bc 85 4d 05 3e e0 72 90 bc dd dd ce bd
       -0.021205217 0.13017853 -0.017632902 -0.10100911
000180 cf 46 0a 3e 90 dc f0 bd 99 5f 14 3e 96 e4 ae 3d
       0.13503574 -0.11760819 0.14489593 0.08539693
000190 94 ef b7 3d 38 fa fa bd 38 46 8b bc 08 99 f8 3c
       0.08981243 -0.12254757 -0.017001256 0.030346408
0001a0 ad 0c ec bd 7a d1 27 bd de 95 f1 3d 10 20 6b 3c
       -0.11525855 -0.040971257 0.11796163 0.014350906
0001b0 48 7b 83 bc c3 28 06 be 10 1a fb bc dd 2a 21 be
       -0.016049996 -0.13101487 -0.030652076 -0.15739007
0001c0 e2 63 57 bd 5f c7 d6 bd a6 f7 ef 3d bc 6d 07 be
       -0.05258549 -0.10487246 0.11717157 -0.13225454
0001d0 3c 17 00 be f9 47 be bd c0 22 a6 bb 20 40 7a bd
       -0.12508863 -0.092910714 -0.0050700605 -0.06109631
0001e0 4f 4f d2 bd 8c 0e 5b 3d 86 f7 d4 3d a5 4d 03 3e
       -0.10269033 0.05348067 0.10398774 0.12822588
0001f0 a7 90 16 be 60 39 96 3d ad 24 14 3e b0 31 f1 bc
       -0.14703618 0.07335162 0.14467116 -0.029442638
000200 f4 fa d9 bd 0a cb de bd f5 08 a5 bd 6a 7a 0e be
       -0.10643569 -0.108785704 -0.08058349 -0.13913885
000210 cb 9f b9 bd 70 92 b2 bd aa 22 fa 3d b8 c2 12 be
       -0.09063681 -0.08719337 0.12213643 -0.14332092
000220 66 b1 f5 bd d0 88 b9 bc 18 68 8f 3d e0 45 f9 bd
       -0.11996727 -0.022648245 0.07002276 -0.12171531
000230 c0 72 6e bd 44 85 93 3d 70 7d 21 be d5 a2 e2 bd
       -0.058214903 0.07203153 -0.15770507 -0.11066214
000240 e6 d2 0b be b0 75 ec 3c a0 e8 56 bc 33 21 0a 3e
       -0.1365467 0.028864712 -0.013116986 0.13489227
000250 22 cf ee 3d 8a 1f 21 be 44 e7 2f 3d e8 6c 35 3d
       0.11660601 -0.15734687 0.04294516 0.044293314
000260 24 78 86 3d 10 03 74 bc b7 b7 bf bd b4 c2 26 3d
       0.06565884 -0.014893308 -0.09361213 0.040713027
000270 40 d9 0c 3c 98 82 3c 3d 3e f4 03 be 46 95 8b bd
       0.008596718 0.04602298 -0.1288614 -0.06815581
000280 9d f3 15 3e 35 5b 13 3e aa 91 ff 3d 08 53 95 bc
       0.14643712 0.14390261 0.12478955 -0.018228069
000290 59 58 07 3e 20 b1 a3 bc 94 7f fd bd 28 8d 34 bd
       0.13217296 -0.01998192 -0.12377849 -0.04407993
0002a0 1a d8 e1 3d ae d3 00 be c5 7c 02 3e 50 97 ac bd
       0.11027546 -0.1258075 0.12742908 -0.08427298
0002b0 5e 8d e1 3d 40 c7 13 be 8a 7d c7 3d 2e b3 ce 3d
       0.11013292 -0.14431477 0.097407416 0.100927696
0002c0 e3 a4 21 be e0 ce 5f 3d 33 06 20 3e 11 14 0c 3e
       -0.15785556 0.05464065 0.15627365 0.1367953
0002d0 66 c9 75 bd 4b 58 0d 3e a2 4d e3 3d f6 3b eb 3d
       -0.06000652 0.13803212 0.11098792 0.11486046
0002e0 90 7f 33 3d 80 cf 84 bc f0 6a 77 bc 2a 0d fd 3d
       0.043822825 -0.016212225 -0.0151011795 0.123560265
0002f0 b5 52 ab bd 9f 4d 0f 3e e0 61 17 3d e5 27 21 be
       -0.083653845 0.13994454 0.036958575 -0.15737875
000300 38 5e 73 3d 56 ce 11 bd 5f 15 18 3e fa ce e5 3d
       0.059416026 -0.035597168 0.14851902 0.11221118
000310 a5 6a c4 bd 9a 14 98 3d 9e 08 d4 3d 8a 3c de bd
       -0.09590653 0.074258044 0.10353206 -0.10851391
000320 a0 7e 60 bd c0 26 6c 3d ee 29 c7 3d b4 98 1c 3d
       -0.05480826 0.057654142 0.09724794 0.038231567
000330 48 4d 38 3d 06 00 17 be 78 d6 8d bc df b3 08 3e
       0.044995576 -0.14746103 -0.01731418 0.13349865
000340 10 1a d6 3c 52 c2 24 bd 66 ba 09 be 0e ba be 3d
       0.026135474 -0.04022438 -0.13450012 0.09312831
000350 47 79 16 3e 32 4c 3c bd 48 b4 8c 3d 92 8b d0 3d
       0.14694701 -0.045971103 0.068703234 0.10182871
000360 40 be d0 3c 0e dc ed bd 5a a5 c8 bd fc 94 b3 3d
       0.025481343 -0.11614238 -0.09797163 0.08768651
000370 80 83 7f 3c 74 c3 3c 3d e6 19 8d bd 3a 69 c2 3d
       0.015595317 0.046084836 -0.06889705 0.094927266
000380 03 ae d4 bd 54 61 1e 3d e3 a3 00 3e ff 25 0f 3e
       -0.103847526 0.038667038 0.12562518 0.13979338
000390 dd c0 d5 bd c0 f2 f2 bb 6b 71 8c bd e0 5b db bb
       -0.104371764 -0.007414192 -0.0685757 -0.006694302
0003a0 92 f5 e4 3d 00 86 18 3d 70 45 98 3c 22 15 ed 3d
       0.11179651 0.037237167 0.018587798 0.115762964
0003b0 e3 c8 1e 3e 83 aa 0e 3e 7e 5c c9 3d 27 04 b3 bd
       0.1550632 0.13932233 0.098320946 -0.08741026
0003c0 80 45 21 bc f6 37 bd 3d 76 8a 1c be 0d 03 cc bd
       -0.00984323 0.09239189 -0.15287194 -0.099615194
0003d0 4a 8d 30 bd 06 f0 4f bd 3e 79 32 bd c6 c8 e6 bd
       -0.043103494 -0.050766014 -0.043572657 -0.11268763
0003e0 0a 2d 88 bd 00 ed 28 bc 5c 02 b9 bd 31 61 1a be
       -0.066492155 -0.010310411 -0.09033653 -0.15076138
0003f0 5a c4 95 3d 14 2b 1c bd c6 e1 fa 3d 48 12 de 3c
       0.07312842 -0.03812702 0.12250094 0.027108327

transformer_encoder.encoder.attention.fc_Q.bias f4 [40]
000000 63 28 05 3e 74 97 e5 bd c8 ff a1 3c fe bd 54 bd
       0.13003688 -0.11210528 0.019775286 -0.051939003
000010 aa e9 ce bd 9d ad 0d be c8 f5 d5 bd 99 b3 00 3e
       -0.10103162 -0.1383576 -0.1044727 0.12568511
000020 31 49 bd bd 9c 01 c7 bd 5d 8b 10 3e d7 be 21 3e
       -0.09242476 -0.09717104 0.14115663 0.15795456
000030 83 39 13 be f3 76 87 bd 22 71 13 be 44 ac b9 bd
       -0.14377408 -0.06614485 -0.14398625 -0.0906606
000040 b0 8e 02 be 8a 9e 05 be 13 9b 07 be b3 f4 8c bd
       -0.12749743 -0.13048759 -0.1324275 -0.0688261
000050 4b ac c4 bd 6d 6e 14 3e 20 b2 f2 bc 18 fc b3 3d
       -0.09603175 0.14495249 -0.029625952 0.087883174
000060 5e d6 22 bd f6 fd e3 3d 38 da 17 bd b3 4e af bd
       -0.039755218 0.111324236 -0.037073344 -0.085599326
000070 fc cc 2f bd 90 82 69 3c 62 b2 bb 3d 36 98 99 3d
       -0.042920098 0.01425232 0.09164883 0.07499735
000080 5f 28 05 be 10 0e ac 3c 08 87 d7 3c 32 24 b2 bd
       -0.13003682 0.0210028 0.026309505 -0.0869831
000090 a8 ae 77 3d 24 76 15 be 21 10 8c bd 50 d5 f1 bd
       0.0604693 -0.14595848 -0.06839014 -0.11808264

transformer_encoder.encoder.attention.fc_K.weight f4 [40, 40]
000000 ee 1b 2b bd 20 10 ac bd 72 a2 91 3d fc 15 d2 bd
       -0.041774683 -0.08401513 0.07111062 -0.102580994
000010 68 59 a5 3d de 42 df bd 36 8d f5 3d 28 59 9f bc
       0.080736935 -0.10901426 0.119898245 -0.019451693
000020 a0 4b 3a bc e6 1e 19 bd 20 1d a4 bc 2c 6f 82 bd
       -0.0113705695 -0.037382983 -0.02003342 -0.063688606
000030 a6 69 bc 3d 90 be a2 bd 40 fc 1b bd 68 5d 80 bc
       0.09199838 -0.07946503 -0.03808236 -0.01566954
000040 24 44 44 3d c0 bb fe 3c c0 e0 6f bc 64 64 c6 bd
       0.047916546 0.031095386 -0.014640987 -0.09687117
000050 80 b8 a6 bb 6f 70 1d 3e 66 d7 19 bd 48 a2 cf bd
       -0.005087912 0.15374921 -0.037558936 -0.101383746
000060 7c d9 3b 3d a8 2c 0f 3d 15 60 97 bd e4 ae a9 3d
       0.045861706 0.034954697 -0.07391373 0.08285311
000070 fe 11 c4 3d 80 5b 2b 3c ce 0d e0 3d c8 06 19 be
       0.09573744 0.010458827 0.10940133 -0.14943993
000080 0e 25 6e bd c8 f5 aa 3d a8 45 bf bc 97 20 16 3e
       -0.058140807 0.0834766 -0.023348644 0.1466087
000090 81 9a 0a 3e 65 42 0c 3e ac ee ee bd 3c a0 9d bd
       0.13535501 0.13697203 -0.11666617 -0.07696578
0000a0 5f 11 06 be 8e 37 bf bd c9 ed 04 3e a4 82 e0 bd
       -0.13092564 -0.09336768 0.12981333 -0.10962418
0000b0 d9 ca 0f 3e 60 5e 26 3c 38 60 f4 bc e4 b1 81 bd
       0.14042224 0.010154337 -0.029831037 -0.06332758
0000c0 ce 6f 78 bd c6 c9 00 be cf 85 12 3e 6e 84 84 bd
       -0.0606535 -0.1257697 0.14308856 -0.064705715
0000d0 4a 36 d8 3d e5 26 0c be 42 6f c1 3d 18 6f 2a bd
       0.1055723 -0.13686712 0.09445049 -0.041609854
0000e0 f7 8a 0d 3e e8 9a d4 3c b0 1d 03 3d 47 db 02 3e
       0.13822542 0.025952771 0.032010734 0.1277896
0000f0 12 dd 53 bd 6b 0f 0e be ee 58 f9 3d f2 34 fd 3d
       -0.0517245 -0.13873069 0.12175165 0.12363614
000100 bf d6 01 3e 72 ac ee 3d 46 d9 df bd 80 6c 20 bc
       0.12679575 0.11653985 -0.109301135 -0.009791493
000110 43 45 d9 bd 0f ef 84 bd 4d db 13 3e 00 8a 37 3a
       -0.10608914 -0.06490909 0.14439125 0.00070014596
000120 78 43 e0 3c d6 e3 9a 3d 48 1f d4 bd 32 38 f2 bd
       0.027375922 0.075629875 -0.10357529 -0.11827125
000130 16 16 0f bd 50 a6 ac 3d b4 b8 13 3d dc b9 2a 3d
       -0.034933172 0.08430159 0.03606482 0.041681156
000140 f0 d5 b8 3c e6 49 11 bd ca 87 a4 3d 18 16 e7 bd
       0.02256295 -0.035470866 0.08033712 -0.11283511
000150 ab 1b 1a 3e 60 37 7e bc 16 2a d7 3d c4 ae 99 3d
       0.15049617 -0.015516132 0.10506074 0.07504037
000160 f6 0a 12 be 88 8f 90 3d f4 f8 02 3d 74 c9 64 bd
       -0.14261994 0.070586264 0.0319757 -0.055856183
000170 3a 53 f5 bd 89 39 02 be 3a f7 8b 3d d3 76 00 3e
       -0.11978765 -0.1271726 0.06834264 0.12545328
000180 40 95 2b bb 57 ab 0a 3e fe 69 af bd 9c 10 ae 3d
       -0.002618149 0.13541923 -0.08565138 0.08499262
000190 5c ba f8 bd 20 33 e7 3c 34 58 c7 bd d7 f6 ef bd
       -0.1214492 0.02822262 -0.0973362 -0.11717003
0001a0 20 4b 89 3d 50 0d ef bc de e5 ff 3d 08 12 b2 3d
       0.06703782 -0.029181153 0.124950156 0.086948454
0001b0 90 7d ad bc e0 70 c4 3c dc 31 1d 3d 63 f9 84 bd
       -0.021178037 0.023979604 0.038377628 -0.06492879
0001c0 fc 05 67 bd b0 a8 e6 bc a0 1a b5 3d f8 ec 07 be
       -0.05640219 -0.028156608 0.08842969 -0.1327399
0001d0 1a d1 04 be 78 80 bb bd 23 84 07 3e 54 39 a3 bd
       -0.12970391 -0.09155363 0.13234 -0.07969919
0001e0 90 e0 44 3c 70 66 57 bc 70 2d 24 bc ff c8 01 3e
       0.0120164305 -0.013146982 -0.010020599 0.1267433
0001f0 40 12 c6 3c 8c 27 f9 bd 40 08 f3 3b 58 b1 b4 bd
       0.024178624 -0.12165746 0.007416755 -0.08822888
000200 ac de 82 3d f2 eb a9 bd b6 21 fe 3d 86 4b d0 bd
       0.063901275 -0.08296956 0.124087736 -0.10170655
000210 18 c6 c8 3c e8 8e ad 3c 08 4f f2 bd e6 15 8c bd
       0.024508521 0.021186307 -0.1183148 -0.06840114
000220 3b 3a 14 3e a6 b4 05 be 66 ae 71 bd 9a a0 0d bd
       0.14475338 -0.13057193 -0.05900421 -0.03457699
000230 d4 b6 ee bd 40 c9 55 3d 00 3c 0a 3c 1a 92 e8 3d
       -0.116559654 0.05219388 0.008437157 0.11355992
000240 f7 b2 ac bd 45 fd 0d be 06 fe bc 3d de e0 c0 3d
       -0.08432572 -0.13866146 0.092281386 0.0941789
000250 ec 5e a0 bd 9d e1 1f 3e 00 f3 63 bb 2d a4 e2 bd
       -0.07830605 0.15613408 -0.003478229 -0.1106647
000260 fd 43 be bd 70 95 93 3c ee cf 7a bd 61 53 12 3e
       -0.092903115 0.018015593 -0.061233453 0.14289619
000270 4c 04 00 be ec e5 17 3d b0 01 c1 bc 3d 99 1a 3e
       -0.12501639 0.037084505 -0.023560375 0.15097518
000280 33 0f 08 be a0 f4 16 bc bc 8e f4 bd e0 d8 a5 3d
       -0.13287048 -0.009213597 -0.11941287 0.08098006
000290 8c 76 1e bd 7e 53 f4 3d 64 c6 46 3d de fe e5 3d
       -0.038687274 0.11929987 0.048529044 0.11230253
0002a0 c0 91 00 3d 04 f2 a6 bd 24 9a d3 bd 20 de 28 3c
       0.031388998 -0.081516296 -0.10332134 0.010306865
0002b0 a0 cd 54 bd de 99 78 bd 63 68 f5 bd 86 fd 95 3d
       -0.05195391 -0.060693614 -0.11982801 0.073237464
0002c0 20 7d 03 bd a9 dd 03 3e 9f f9 12 3e e5 1c 15 3e
       -0.03210175 0.12877525 0.14353035 0.14561804
0002d0 50 e2 4f bc 7b 2f 15 3e cf 9f e7 bd e2 78 fd 3d
       -0.012688234 0.14568894 -0.11309778 0.12376572
0002e0 f0 08 32 bd 60 c6 c7 bc e1 63 03 3e 3c be 84 3d
       -0.043465555 -0.024386585 0.1283107 0.06481597
0002f0 a7 40 0b 3e 80 06 0e bb 6c 76 cc bd 34 92 09 bd
       0.13598882 -0.0021671355 -0.09983525 -0.033586696
000300 c6 39 80 3d 84 8c fd bd 38 d6 88 3d 00 57 4a 3b
       0.062610194 -0.12380317 0.06681484 0.003087461
000310 00 22 cb 3a 52 dd 84 bd b8 cf cc 3c 7c bb 8f 3d
       0.0015497804 -0.06487526 0.025001392 0.07018182
000320 f8 df 4b bd 53 a2 b1 bd 72 d5 fd bd bc a3 e3 bd
       -0.04977414 -0.08673539 -0.12394227 -0.11115214
000330 3e 19 dc 3d 20 a0 c7 bd b0 6b 22 3d 72 7e e4 3d
       0.10747002 -0.09747338 0.03965348 0.1115693
000340 18 7d f8 3c 36 0f 36 bd 56 9a 83 3d 5a 30 cb bd
       0.030333087 -0.0444481 0.064259216 -0.09921332
000350 0e fd b3 3d 4b f3 01 3e 96 79 06 be 5f 7d 00 be
       0.08788501 0.12690465 -0.13132319 -0.12547825
000360 ae 54 66 bd 10 7e ca bd c2 cb c7 3d 70 e6 e7 bd
       -0.0562331 -0.09887326 0.097556606 -0.11323249
000370 ec 6b 06 be b3 3c 12 3e a0 44 09 3d eb f7 01 3e
       -0.13127106 0.14280967 0.03351271 0.1269223
000380 b2 b9 43 bd f2 58 9d 3d 10 8a d2 bc 4a 34 14 be
       -0.047784515 0.076829806 -0.025700599 -0.14473072
000390 38 2d d1 3c 20 f7 de bb 9e 58 cf bd 86 15 0e bd
       0.025534257 -0.006804362 -0.10124324 -0.034688495
0003a0 96 18 db bd 2e ec c6 3d ff 4e 0d 3e d8 b2 de bc
       -0.10698049 0.097130165 0.13799666 -0.027184889
0003b0 10 a5 9a 3c ab ce 81 bd 20 16 88 3b 10 ee 8f 3d
       0.018877536 -0.06338247 0.004153028 0.07027829
0003c0 78 f1 02 bd d3 cf 06 3e 98 1b e9 bc 68 1e f9 bd
       -0.031968564 0.13165216 -0.02845554 -0.12164003
0003d0 70 3c cd bc 50 24 1e 3d b8 af 5a 3d 2e 65 f8 3d
       -0.025053233 0.03860885 0.053390235 0.121286735
0003e0 61 0d be bd 94 47 1d 3d 02 dc c3 3d b6 7d 99 3d
       -0.092798956 0.03839834 0.095634475 0.074946806
0003f0 c0 4d 1d 3d ca ce be 3d 5f ac 0b be 28 6b 24 3d
       0.038404226 0.09316786 -0.13639973 0.040141255

transformer_encoder.encoder.attention.fc_K.bias f4 [40]
000000 40 72 03 bd d0 e1 f0 bc 62 0e a5 bd 57 cf 0c 3e
       -0.03209138 -0.02940455 -0.08059384 0.13750969
000010 1b 79 1e be 02 13 13 bd bc a2 dc bd 80 f5 f6 ba
       -0.15475886 -0.0359068 -0.107732266 -0.0018841475
000020 8c fa ad bd ac f3 05 bd 07 e3 03 be ef 74 10 3e
       -0.08495054 -0.032703087 -0.12879573 0.14107107
000030 86 b3 f6 3d 3d 8c 91 bd e0 f1 d9 bc b8 64 ce bd
       0.1204596 -0.071068265 -0.026604593 -0.10077804
000040 60 5b 63 bc 37 02 ab bd 7a 50 b2 3d 6c a8 e0 bd
       -0.013876766 -0.08350032 0.08706756 -0.10969624
000050 cf f4 11 3e 8c 47 c1 bd 98 94 91 bc f4 40 76 bd
       0.14253543 -0.094374746 -0.01777105 -0.060120538
000060 ff 25 12 3e df 95 21 3e f2 1c da 3d 3b bb 05 3e
       0.14272307 0.15779828 0.10650052 0.13059704
000070 e1 e9 1a 3e be 29 84 bd 0c df 5f bd 53 3d 9a bd
       0.1512828 -0.06453274 -0.054656073 -0.07531228
000080 8e 74 11 be 04 28 03 be 8b 55 08 be ca 67 80 3d
       -0.14204618 -0.12808233 -0.13313882 0.06269796
000090 50 0c ba 3d 5b e1 21 3e 7c 60 1f 3d 3d 0b 09 3e
       0.0908438 0.15808623 0.038910374 0.13383193

transformer_encoder.encoder.attention.fc_V.weight f4 [40, 40]
000000 20 62 95 bc 0f 2f 1c be 1d 34 09 3e a3 f0 1a 3e
       -0.018235266 -0.15252326 0.13398786 0.15130858
000010 90 e7 00 be 90 d0 87 bd 86 e7 f5 3d ac 48 87 bd
       -0.12588334 -0.06631577 0.1200705 -0.06605658
000020 ac c0 0c be 7e 55 c5 bd 02 f7 92 3d 98 b7 e7 bd
       -0.13745373 -0.09635447 0.07176019 -0.113143146
000030 92 2f 9c bd 16 5b c8 bd 80 52 64 bc 40 0e c2 3b
       -0.07626261 -0.09782998 -0.013935685 0.005922109
000040 78 3e 86 bd e4 e3 9e 3d 6b fa a0 bd f0 d8 80 3d
       -0.06554884 0.077583104 -0.078602634 0.062913775
000050 b0 d9 55 bc 20 b5 f4 bc 49 88 f8 bd e6 83 fc 3d
       -0.013052389 -0.029871523 -0.12135369 0.12329845
000060 b0 18 48 3c ab c4 1e 3e e0 ac bb bc a0 08 82 bc
       0.012212917 0.1550471 -0.022909582 -0.015873253
000070 d0 cf b8 3c f5 22 21 3e d4 cf 2e 3d ed 77 15 3e
       0.02256003 0.15735991 0.04267867 0.1459653
000080 a1 19 0a 3e 53 50 b3 bd 38 63 99 bc b2 5d 36 bd
       0.13486339 -0.08755555 -0.018724069 -0.04452295
000090 2c e8 14 bd 45 ba 0f 3e d0 0c aa bd 4e e2 d9 3d
       -0.03635423 0.140359 -0.08303225 0.10638867
0000a0 c0 ed 8d bb 40 d7 72 bb a0 3b d4 3b c0 f9 a1 3c
       -0.0043313205 -0.0037054569 0.0064768344 0.01977241
0000b0 14 bd 07 be bd 19 07 be a8 a2 0a bd 9a f6 fc bd
       -0.13255721 -0.13193412 -0.033846527 -0.12351723
0000c0 76 f7 ff bd 1e d7 04 be e0 38 a8 bd 64 14 ec bd
       -0.12498371 -0.12972686 -0.08213973 -0.11527327
0000d0 0b 02 87 bd 64 23 79 3d 5a 56 e1 3d 73 7b 09 be
       -0.065921865 0.060824767 0.110027984 -0.13425998
0000e0 44 5e 00 be 30 9e bc 3c d4 fe 35 3d 02 19 d7 bd
       -0.1253596 0.023024648 0.044432476 -0.10502817
0000f0 c0 e9 ac 3b 00 18 9f ba 4e 1d f3 3d 50 63 3c 3c
       0.0052768886 -0.001213789 0.11870824 0.011498287
000100 40 30 6f bd 06 9f dd 3d e4 20 6f 3d 62 24 ba 3d
       -0.058395624 0.10821347 0.058380976 0.09088971
000110 0a be 1f bd f6 5f 80 3d aa b6 ca 3d 13 21 1d 3e
       -0.038999595 0.06268303 0.09898122 0.15344648
000120 17 74 14 3e 80 e1 3c 3c 0a a5 76 bd 00 05 52 3b
       0.1449741 0.011528373 -0.060215987 0.0032046437
000130 80 0c 7d bb e2 ae d9 3d c0 6a 1a be c0 77 47 3c
       -0.0038612187 0.106290594 -0.15079784 0.012174547
000140 a0 5b 84 3b a5 55 1b be 73 d6 18 3e 35 f6 1e 3e
       0.004039243 -0.1516939 0.14925556 0.15523608
000150 4c ec 13 3d 0e 4d fc 3d fe 5a 97 3d c0 24 d1 3c
       0.036114022 0.123193845 0.07390402 0.02553022
000160 00 2e 9f 39 77 bf 05 3e b0 c8 49 3c 04 aa 22 3d
       0.00030361116 0.1306132 0.012315914 0.03971292
000170 22 fd 9e 3d 5e 64 ee 3d 52 3d e3 3d c9 21 94 bd
       0.07763125 0.11640237 0.1109568 -0.072330065
000180 d0 cc 9c 3d ad 6c 02 3e d0 11 03 3c f0 fd 9f 3d
       0.076562524 0.12736769 0.007999852 0.078121066
000190 68 ac b8 3d 78 18 94 bd 94 f6 93 3d 88 a3 88 bc
       0.09017259 -0.072312295 0.072247654 -0.01667954
0001a0 c2 c8 4a bd 40 06 00 bb e0 bd f3 bd 2f 1e 17 3e
       -0.049507864 -0.0019534975 -0.1190145 0.14757608
0001b0 76 b4 ae 3d b6 1c a9 3d 2e c9 b8 3d f6 4d f8 bd
       0.08530514 0.08257429 0.09022747 -0.12124245
0001c0 56 f4 01 be 14 ed a7 bd 9c 51 35 3d 3f 81 1a be
       -0.12690863 -0.08199516 0.044267282 -0.15088366
0001d0 68 8c d7 bc 54 2d 56 3d e6 f0 06 be 4a 30 d4 3d
       -0.026312068 0.052289322 -0.13177833 0.10360773
0001e0 89 b7 04 3e a5 be 1a 3e 28 0c f8 3c c8 51 99 3d
       0.12960638 0.15111788 0.030279234 0.07486302
0001f0 fc e8 99 3d b0 93 bd 3c 4e 98 9d 3d 50 37 34 bc
       0.07515141 0.023141712 0.076950654 -0.010999516
000200 1a a7 c7 bd 50 65 81 3d 1b 1b 0b be 00 30 76 b9
       -0.09748669 0.06318152 -0.13584559 -0.0002347827
000210 2a 60 ec 3d bc 46 97 bd 40 3a 46 bc 28 92 cc 3c
       0.11541779 -0.073865384 -0.012098849 0.024972036
000220 1e b8 df 3d ae a0 13 be 7a 63 6f bd 34 c0 8d bd
       0.109237894 -0.14416763 -0.058444478 -0.069214255
000230 5e 38 c6 3d 9a 30 e3 bd 65 f5 03 3e c8 d0 14 3d
       0.0967872 -0.110932544 0.1288658 0.03633192
000240 38 71 c4 3c a9 d5 0b 3e 50 d1 a4 3c e2 2f 60 bd
       0.023979768 0.13655724 0.02011934 -0.054733165
000250 e6 bd 10 be 00 32 df bd 32 44 ed 3d 80 9e 80 ba
       -0.1413494 -0.108982086 0.11585273 -0.0009812862
000260 8d 3d b7 bd 3c f4 1e 3d 3c 56 7c bd f2 58 0d be
       -0.08947287 0.03880714 -0.061605677 -0.13803461
000270 b0 4a 24 bc 73 90 18 3e 2c a2 6f bd 59 82 11 3e
       -0.0100275725 0.14898853 -0.05850427 0.1420988
000280 53 b6 d6 bd 00 fa d5 3a f0 0d 62 3d 3c d8 ad bd
       -0.10483994 0.0016325116 0.055189073 -0.08488509
000290 4c 88 1e be ca 53 b1 3d 88 9f 82 3c 00 32 a3 3b
       -0.1548168 0.086585596 0.015945211 0.0049803257
0002a0 b2 0a dd 3d 10 24 3d 3d b0 4c 3b 3d f0 b3 12 3c
       0.107930556 0.04617697 0.04572743 0.008954033
0002b0 3b 93 a7 bd 60 9a 5d bd ce c0 b2 3d 26 8d 7d bd
       -0.08182379 -0.0541023 0.08728181 -0.061902188
0002c0 a2 ea c1 3d 06 4b 16 be 49 58 84 bd 04 1c 43 3d
       0.09468581 -0.14677057 -0.064621516 0.04763414
0002d0 1a 89 0d be 00 f2 73 3b fc 5f e3 bd e8 b0 e6 bc
       -0.13821831 0.00372231 -0.11102292 -0.028160527
0002e0 1c 97 33 bd 20 04 ce bc 57 b5 89 bd c0 26 62 3b
       -0.04384528 -0.025148451 -0.06724041 0.003450796
0002f0 30 c6 9d bc 00 73 6f 3a 00 f3 7c bc 98 77 ea bc
       -0.019259542 0.0009134263 -0.015438795 -0.02862148
000300 e6 6a 1a bd ce 76 87 3d 39 14 cd bd 56 2b 80 3d
       -0.037699603 0.06614457 -0.10013623 0.06258266
000310 84 a9 05 be 80 f6 88 bc 7b 44 11 3e d8 20 bf bd
       -0.13052946 -0.016719103 0.1418628 -0.09332436
000320 2c 3f 05 be 86 dc c6 3d 21 8c 1e be 4e 11 d0 bd
       -0.1301238 0.0971003 -0.15483142 -0.101595506
000330 00 5b 3b bc d4 47 4f bd 1a 41 a7 3d 68 0e e3 bc
       -0.01143527 -0.05060561 0.08166714 -0.02771683
000340 10 3e 9f 3c 32 90 c8 3d 7e 63 d5 3d 90 cc 0c 3c
       0.019438773 0.09793128 0.10419367 0.008593693
000350 fb f6 00 3e 62 f4 94 3d c0 ee 40 bb 64 23 99 3d
       0.12594216 0.07273175 -0.002943918 0.07477453
000360 f6 45 5d bd 2a a9 b2 3d 4c ed 95 3d b6 2c 0c be
       -0.054021798 0.08723672 0.073206514 -0.13688931
000370 7b 2b 0d 3e 90 7f 87 bc 8c 99 db bd 9e b8 37 bd
       0.13786118 -0.016540319 -0.10722646 -0.0448538
000380 d0 b5 f4 bc 43 b7 ac bd 12 46 c5 3d c6 27 e8 3d
       -0.029871851 -0.08433392 0.096325055 0.11335711
000390 a8 fb f9 3c a0 27 d0 3c ed 50 0b 3e 7a aa de 3d
       0.030515507 0.02540952 0.1360509 0.108723596
0003a0 70 c8 76 3d 99 dc 17 3e 15 6c 06 3e a2 53 9c 3d
       0.060249746 0.14830245 0.13127168 0.07633139
0003b0 97 ed 08 3e 91 f4 d5 bd 9c e7 b9 3d a8 d6 d1 bd
       0.13371883 -0.10447038 0.09077379 -0.102460206
0003c0 44 a7 41 bd 90 de d0 bc 94 a7 2a bd 18 f4 fa 3c
       -0.047278658 -0.025496751 -0.04166372 0.030633971
0003d0 4c 0a 0d bd 95 ab 1d be 10 f5 96 bc 8d 0e a8 bd
       -0.034433648 -0.15397485 -0.018427402 -0.082059
0003e0 90 3f e0 3c 50 5b 6f 3c c0 2c 25 3b 7a c3 f0 3d
       0.027374059 0.014609173 0.0025203675 0.11756034
0003f0 2d 43 f9 bd 6a 1e c0 3d 00 a3 53 ba 60 be 72 3d
       -0.12171016 0.09380801 -0.00080733 0.059263587

transformer_encoder.encoder.attention.fc_V.bias f4 [40]
000000 40 19 c6 bb 4e 6a bc 3d 0a 7d d4 3d a0 6c 9d 3c
       -0.0060454905 0.091999635 0.10375412 0.019216835
000010 68 61 57 3d 6c c0 7d 3d 58 91 b1 bc 80 0b cf 3a
       0.05258313 0.061951086 -0.02167575 0.0015796274
000020 ec 83 2d 3d 70 b5 09 bc 90 4d 9f 3d 34 88 39 3d
       0.04236214 -0.0084050745 0.07778466 0.04529591
000030 9c aa 1f be d4 c8 93 bd 5a 18 cf 3d 7c 47 54 bd
       -0.15592426 -0.07216039 0.101120666 -0.051825985
000040 c7 7b dd bd d8 aa 09 be 9e 82 9f 3d 28 cf 23 3d
       -0.10814624 -0.13444078 0.07788585 0.03999248
000050 5e c3 11 be 32 16 e5 bd 9e 28 e5 3d 52 4d 1c be
       -0.14234683 -0.11185874 0.11189388 -0.1526387
000060 9c 3c 86 bd 5d 06 09 3e ca bf cd 3d ae 58 06 be
       -0.06554529 0.13381334 0.100463465 -0.13119766
000070 d8 78 be bc 18 3e 09 bd 4b 5c 18 be 50 8c 39 bc
       -0.023250982 -0.033506483 -0.14878957 -0.011324957
000080 20 a7 78 3d 81 ad 09 3e 56 40 2b bd b0 b3 c8 bd
       0.060706258 0.13445093 -0.041809402 -0.09799898
000090 42 08 a1 3d 56 6b b4 bd 4a 52 82 3d aa b1 e4 3d
       0.07862903 -0.08809535 0.06363352 0.11166699

transformer_encoder.encoder.attention.fc.weight f4 [40, 40]
000000 5e 17 d2 3d c9 ff f4 bd 7c b2 51 3d 6e 78 16 be
       0.10258363 -0.1196285 0.051195607 -0.14694378
000010 68 6f cf bc af 91 1d 3e af c5 fd bd b6 53 21 be
       -0.025321677 0.15387605 -0.12391221 -0.1575459
000020 40 09 27 bb 98 c8 ac bc c5 53 0a be 26 be 24 bd
       -0.002548769 -0.021091744 -0.13508518 -0.040220402
000030 bc bb ad bd f2 80 f2 3d bd a4 12 be 7d 78 1a be
       -0.08483073 0.118410006 -0.14320655 -0.15085025
000040 38 fe a9 3d 47 51 87 bd be 5d 31 bd 6c aa 61 3d
       0.083004415 -0.06607299 -0.04330229 0.055094168
000050 80 54 b2 bb b0 55 8f bc 7d f9 05 3e ba 9e c7 3d
       -0.005442202 -0.017496914 0.13083453 0.097470716
000060 28 86 bf 3c 8a a8 87 bd 92 ef a5 3d 54 7e 7d 3d
       0.0233794 -0.06623943 0.08102335 0.061888054
000070 55 ea e4 bd 40 bb 41 3c 8b 13 f4 bd a0 5c 58 bc
       -0.11177508 0.011824429 -0.1191779 -0.013205677
000080 b9 00 91 bd e7 f6 b2 bd 00 7d 96 3d 84 ca b6 3d
       -0.07080216 -0.08738499 0.073480606 0.089253455
000090 50 14 81 3d 29 04 1a 3e 18 8d b3 bc cb d4 91 bd
       0.063027024 0.1504065 -0.021917865 -0.07120665
0000a0 a9 b8 0a be ba 26 79 bd c4 fd 29 3d 6a 0a f5 3d
       -0.13547005 -0.06082795 0.041501775 0.11964877
0000b0 2e a6 9c 3d ac 80 42 bd 24 03 38 3d fe 65 ed 3d
       0.07648884 -0.047485992 0.04492487 0.11591719
0000c0 00 00 af 36 6c 95 07 bd 70 94 5e 3c 2c e0 42 bd
       5.2154064e-06 -0.033101484 0.013585195 -0.04757707
0000d0 c0 ed c3 bc 11 65 81 bd 2b e8 b7 bd e4 e6 71 3d
       -0.023917079 -0.06318105 -0.089798294 0.059058085
0000e0 a8 06 92 bd d3 ce 1b 3e 19 6b 04 3e 12 3e ef 3d
       -0.07130176 0.15215616 0.1293148 0.11681761
0000f0 7d 1c 0e be 48 20 e3 3c cc 97 09 bd 84 5f 00 3d
       -0.13878055 0.027725354 -0.03359203 0.03134109
000100 58 c9 04 be b0 0d 20 be 10 e6 9e bc 0e f9 1f bd
       -0.12967432 -0.15630221 -0.019396812 -0.039055876
000110 c4 66 c6 bd a7 60 15 3e fc 02 4c 3d 50 a1 d7 bc
       -0.0968757 0.14587651 0.049807534 -0.026322037
000120 64 9d 60 bd ac f5 83 3d 4b 36 04 3e 52 a4 c3 bd
       -0.0548376 0.064433426 0.12911336 -0.09552826
000130 86 f2 bc bd 38 82 c8 bd 26 c3 8c 3d d0 0f e5 3c
       -0.09225945 -0.09790462 0.06873159 0.027961642
000140 93 a2 1f be 19 95 ad bd 8a 19 b0 3d 40 3e e0 bd
       -0.15589361 -0.08475704 0.08598621 -0.10949373
000150 de 3d e9 bd f7 f8 17 be 9a 93 93 3d cb 89 e9 bd
       -0.11388753 -0.14841066 0.07205887 -0.11403235
000160 9a 69 e2 3d 9c 0d 51 3d 22 91 3c bd 40 8a a0 3b
       0.11055298 0.05103837 -0.046036847 0.004899293
000170 d4 18 59 bd 98 7e 2e bd 11 e7 11 3e 00 ff 3c 3c
       -0.053002194 -0.042601198 0.14248301 0.011535406
000180 66 a9 ed 3d 50 70 b7 3c 00 81 5a 3d 8c d8 9c bd
       0.11604576 0.022392422 0.05334568 -0.076584905
000190 f6 38 c0 3d d9 32 c0 bd e7 b9 07 be 18 a2 ed 3c
       0.093858644 -0.093846984 -0.1325451 0.029007956
0001a0 e3 25 1d 3e 8a 29 3d bd cd c6 1e be 0d 35 cd bd
       0.15346484 -0.046182193 -0.15505524 -0.10019884
0001b0 68 7c ab 3c 5e 94 ce 3d e0 71 15 3d 2a 66 be 3d
       0.020933345 0.100868925 0.036485553 0.0929683
0001c0 34 df c4 bd 22 7b d9 3d f1 1a ed bd 32 c6 1f be
       -0.09612885 0.10619189 -0.11577404 -0.1560295
0001d0 d6 98 f9 bd 33 a3 98 bd b0 a2 45 3c 14 e4 92 3d
       -0.12187354 -0.07453003 0.0120627135 0.07172409
0001e0 8e 4d 86 3d 49 fa e8 bd 98 7b 84 bc 40 68 93 bb
       0.06557761 -0.11375863 -0.016172215 -0.0044985116
0001f0 60 d8 ca bd 95 6a 19 3e b3 ad 02 3e e0 5f 8f 3b
       -0.099045515 0.14982064 0.12761573 0.004375443
000200 d8 91 8e 3d f0 5f 51 3d ca 2d bf 3d 70 7f 21 3c
       0.06961411 0.051116884 0.093349054 0.009857044
000210 f0 37 78 3d 93 5b b4 bd 66 95 fb 3d 64 20 20 bd
       0.06060022 -0.08806529 0.12284355 -0.03909339
000220 b8 73 48 3d 60 1e 92 3b 80 18 53 bb 04 1c 72 3d
       0.048938483 0.0044591874 -0.0032210648 0.05910875
000230 dc e2 04 bd c2 23 c5 bd 74 ed 34 3d c0 95 0b 3d
       -0.032442912 -0.09625961 0.044171765 0.03407836
000240 e0 82 f7 bc dc 62 0c be a8 51 c2 bc a8 ff 81 bc
       -0.030213773 -0.13709587 -0.023720577 -0.015868977
000250 ea 2b 9a 3d 06 84 f3 bd 9e 6b 78 bd 79 79 be bd
       0.07527907 -0.11890416 -0.060649507 -0.09300513
000260 03 3a 20 3e 28 b9 a4 3c 67 b0 0d 3e e8 1f b2 bd
       0.1564713 0.02010782 0.13836823 -0.08697492
000270 5c cf 81 3d 35 07 17 3e 5c 5f 2a bd 20 80 0c be
       0.06338379 0.14748843 -0.041594848 -0.13720751
000280 72 12 c4 bd 08 05 41 3d a3 9f 09 3e 1f 82 20 3e
       -0.09573831 0.04712394 0.13439803 0.15674637
000290 34 29 e7 bd 48 20 fc bd 5e 3c 1a be dc 89 9f 3d
       -0.11287156 -0.12310845 -0.15062091 0.077899665
0002a0 80 e9 66 3d f0 1c 35 3d e2 21 b2 3d b8 6b 1b bd
       0.056375027 0.04421705 0.08697869 -0.037944525
0002b0 3d 35 01 3e 0a b8 b8 3d bc 61 d6 bd f5 22 fa bd
       0.12617965 0.09019478 -0.1046786 -0.12213699
0002c0 10 ac 6d bd 00 ac bd 3b 12 ba d4 3d d0 02 ea 3c
       -0.05802542 0.0057883263 0.103870526 0.028565794
0002d0 92 27 78 bd 93 ca 0e 3e ff 39 1b 3e ea 0c fc 3d
       -0.060584612 0.13944463 0.15158843 0.12307151
0002e0 46 52 0f be b8 0c bd 3c ba a9 e6 3d bd 96 20 3e
       -0.13996229 0.023077354 0.112628415 0.15682502
0002f0 66 81 25 bd 03 0f 0f 3e d0 37 3b 3d 60 27 ef bd
       -0.040406607 0.1397057 0.045707524 -0.11677432
000300 c6 87 bb bd 7e 4e c3 3d c4 bc 1b be a6 af 00 be
       -0.09156756 0.095364556 -0.15208727 -0.12567005
000310 36 b8 d4 3d 40 af 69 3c 73 03 1c 3e be 26 d8 3d
       0.10386698 0.014262974 0.15235691 0.105542645
000320 32 64 1c be ae 7e a8 3d 2e 2b f6 3d 88 ae b3 bc
       -0.15272596 0.08227287 0.120199546 -0.021933809
000330 80 a9 1e bd 57 fd a3 bd 80 b2 5f 3d 08 c5 cd bc
       -0.038735867 -0.08007305 0.05461359 -0.025118366
000340 50 b9 b6 3c c6 1a ce 3d 1a fc 2f bd b0 3a 25 bc
       0.02230516 0.100637004 -0.042965032 -0.010084793
000350 7e 39 ec bd ac 13 93 3d e7 fc 1e 3e ec 4b 7f bd
       -0.11534403 0.071814865 0.15526162 -0.062328264
000360 0c 7d 32 3d e0 df 88 bd 18 71 6f bd b6 cd 85 3d
       0.043576285 -0.06683326 -0.058457464 0.06533377
000370 fa 39 8c 3d 82 34 dd 3d 7a 6e ba bd 39 3e 1b 3e
       0.06846996 0.10801031 -0.09103103 0.15160455
000380 25 e8 90 bd 3a 34 be bd 4e d6 ff 3d fe 32 1a bd
       -0.07075528 -0.09287305 0.12492047 -0.037646286
000390 b6 8a fc 3d ac ff 68 bd 73 fb 09 3e 00 6e b8 bc
       0.123311445 -0.056884453 0.13474827 -0.02251339
0003a0 a8 b7 ff bd 42 23 f0 3d 93 65 07 3e 36 59 cc 3d
       -0.124862015 0.11725475 0.13222341 0.09977953
0003b0 3f fc 02 3e 12 6d d3 bd 10 55 3a bd 40 ff 91 bc
       0.12791537 -0.10323538 -0.04549128 -0.017821908
0003c0 33 79 21 be 13 a6 11 3e 1a 5e 78 bd ba 03 a9 3d
       -0.1576889 0.14223509 -0.060636617 0.08252664
0003d0 ba 96 d0 bd 20 6b 3a bc 6a 34 f8 bd 8d 27 a8 bd
       -0.10184999 -0.01137808 -0.12119372 -0.08210669
0003e0 12 9c c8 3d c8 8d 90 3d 6e 00 04 be 98 b9 9c bc
       0.09795393 0.070582926 -0.12890789 -0.019131467
0003f0 48 1d 4f 3d b6 a7 f1 3d db 9f dd bd 6d 48 9f bd
       0.050565034 0.117995664 -0.10821506 -0.07777486

transformer_encoder.encoder.attention.fc.bias f4 [40]
000000 94 66 0f be b0 03 c2 bc 40 d7 e1 bd f1 f5 00 be
       -0.14003974 -0.023683399 -0.11027384 -0.12593819
000010 04 90 ed bd 3d 2c 02 3e 30 f8 1c 3d 95 84 ea bd
       -0.115997344 0.12712188 0.038322628 -0.11451069
000020 fa a8 60 bd 28 06 1c bd 74 36 72 3d f6 17 a5 3d
       -0.05484865 -0.03809181 0.05913396 0.08061211
000030 80 06 fc ba c0 8b a2 3d b9 dd 1b be 14 47 82 3d
       -0.0019228011 0.079368114 -0.15221299 0.06361213
000040 0e 1e c2 3d 0d 27 1b 3e 32 25 bb 3d d8 78 76 bd
       0.09478389 0.15151615 0.09137954 -0.06017384
000050 d0 a8 c0 bc 34 6d a7 bd 74 14 0d be 10 50 46 3c
       -0.023517996 -0.08175126 -0.13777333 0.012104049
000060 c7 94 19 be e8 05 82 3d 3c 05 3d 3d 64 64 5c bd
       -0.1499816 0.06348783 0.04614757 -0.053806677
000070 3c 97 1d bd a2 0c 1a be fd 41 21 be b2 65 ee 3d
       -0.038474306 -0.15043882 -0.15747829 0.116404906
000080 92 4b e7 3d f0 d3 1a bc 28 93 2a 3d 2e 5c ce 3d
       0.11293711 -0.009449944 0.041644245 0.10076176
000090 20 2b cd 3c 36 1d 11 bd 00 6e a3 b9 80 46 46 3c
       0.025044978 -0.03542825 -0.0003117174 0.012101769

transformer_encoder.encoder.attention.layer_norm.weight f4 [40]
000000 00 00 80 3f 00 00 80 3f 00 00 80 3f 00 00 80 3f
       1.0 1.0 1.0 1.0
000010 00 00 80 3f 00 00 80 3f 00 00 80 3f 00 00 80 3f
       1.0 1.0 1.0 1.0
000020 00 00 80 3f 00 00 80 3f 00 00 80 3f 00 00 80 3f
       1.0 1.0 1.0 1.0
000030 00 00 80 3f 00 00 80 3f 00 00 80 3f 00 00 80 3f
       1.0 1.0 1.0 1.0
000040 00 00 80 3f 00 00 80 3f 00 00 80 3f 00 00 80 3f
       1.0 1.0 1.0 1.0
000050 00 00 80 3f 00 00 80 3f 00 00 80 3f 00 00 80 3f
       1.0 1.0 1.0 1.0
000060 00 00 80 3f 00 00 80 3f 00 00 80 3f 00 00 80 3f
       1.0 1.0 1.0 1.0
000070 00 00 80 3f 00 00 80 3f 00 00 80 3f 00 00 80 3f
       1.0 1.0 1.0 1.0
000080 00 00 80 3f 00 00 80 3f 00 00 80 3f 00 00 80 3f
       1.0 1.0 1.0 1.0
000090 00 00 80 3f 00 00 80 3f 00 00 80 3f 00 00 80 3f
       1.0 1.0 1.0 1.0

transformer_encoder.encoder.attention.layer_norm.bias f4 [40]
000000 00 00 00 00 00 00 00 00 00 00 00 00 00 00 00 00
       0.0 0.0 0.0 0.0
000010 00 00 00 00 00 00 00 00 00 00 00 00 00 00 00 00
       0.0 0.0 0.0 0.0
000020 00 00 00 00 00 00 00 00 00 00 00 00 00 00 00 00
       0.0 0.0 0.0 0.0
000030 00 00 00 00 00 00 00 00 00 00 00 00 00 00 00 00
       0.0 0.0 0.0 0.0
000040 00 00 00 00 00 00 00 00 00 00 00 00 00 00 00 00
       0.0 0.0 0.0 0.0
000050 00 00 00 00 00 00 00 00 00 00 00 00 00 00 00 00
       0.0 0.0 0.0 0.0
000060 00 00 00 00 00 00 00 00 00 00 00 00 00 00 00 00
       0.0 0.0 0.0 0.0
000070 00 00 00 00 00 00 00 00 00 00 00 00 00 00 00 00
       0.0 0.0 0.0 0.0
000080 00 00 00 00 00 00 00 00 00 00 00 00 00 00 00 00
       0.0 0.0 0.0 0.0
000090 00 00 00 00 00 00 00 00 00 00 00 00 00 00 00 00
       0.0 0.0 0.0 0.0

transformer_encoder.encoder.feed_forward.fc1.weight f4 [256, 40]
000000 9e 30 92 3d a0 00 3c 3d 9c 62 45 3d 28 57 33 bd
       0.07138179 0.045899034 0.048189744 -0.04378429
000010 cc 23 fc bd 66 d5 18 bd 78 06 23 3d c8 26 45 3d
       -0.12311515 -0.037312888 0.03980109 0.048132688
000020 3c 84 63 bd 7a 7e ee 3d a0 65 0b 3d 88 d2 83 bd
       -0.05554603 0.11645217 0.034032464 -0.0643664
000030 f7 56 1f 3e 83 3f 08 be 0e e6 00 be d2 0a 40 bd
       0.15560518 -0.13305478 -0.12587759 -0.04688532
000040 7b 6c 1b be 55 c6 87 bd fa 26 c6 3d c5 5c 8d bd
       -0.15178101 -0.06629626 0.09675403 -0.0690246
000050 34 07 e4 bd 86 1d f4 3d f2 0c e6 bd 7e 6f b3 3d
       -0.111341864 0.11919694 -0.11232938 0.087615
000060 f0 7e 7d 3c 6e 53 cc bd 76 03 e1 3d 1c e4 40 bd
       0.015472159 -0.099768505 0.10986988 -0.047092542
000070 5f 36 0d 3e f4 4e 8e 3d 58 15 6e bd 56 5a f1 3d
       0.13790272 0.06948653 -0.058125824 0.11784808
000080 f0 bb 1a bc 4b 58 9d bd 88 28 e6 3c 7a b8 c4 bd
       -0.009444222 -0.07682856 0.028095499 -0.096054986
000090 61 17 18 3e cc b0 6c 3d c0 03 b5 bc d6 30 04 be
       0.14852668 0.057785794 -0.022096515 -0.12909254
0000a0 82 ab e3 3d aa 51 3e bd 65 65 18 3e 9c 6b 13 be
       0.11116697 -0.0464646 0.14882429 -0.14396518
0000b0 42 09 52 bd c5 f7 b7 bd 54 b1 ef bd ce c5 2e bd
       -0.05127836 -0.08982805 -0.117037445 -0.04266911
0000c0 00 6b 02 bb b4 c4 01 be ac eb 02 bd b8 06 06 3d
       -0.0019900203 -0.12672693 -0.031963035 0.03272125
0000d0 4c 34 d0 bd 70 97 2b bc 08 a4 db bd b5 6a 08 be
       -0.10166225 -0.010473117 -0.10724646 -0.13321956
0000e0 3a fe c4 bd e1 fe 13 3e 47 e4 1e 3e 49 18 85 bd
       -0.09618802 0.14452697 0.15516768 -0.06498773
0000f0 e9 55 18 3e ae 0f a5 bd 24 97 ef bd 3e e4 be 3d
       0.14876522 -0.08059631 -0.1169875 0.093208775
000100 fe b6 c4 3d 12 06 68 bd ef 8b d5 bd 89 b4 04 be
       0.096052155 -0.056646414 -0.10427081 -0.12959494
000110 1a d4 b6 3d 24 cd 60 3d 6a 33 e9 3d 29 90 b1 bd
       0.08927174 0.054883137 0.113867596 -0.086700745
000120 8e b7 d0 3d ca a8 3e bd 7d a2 0b 3e 5a b1 c8 3d
       0.1019126 -0.04654769 0.13636203 0.09799452
000130 f8 9d 1b be 90 59 68 bc a7 71 d9 bd 61 09 10 3e
       -0.15196979 -0.01418151 -0.106173806 0.14066078
000140 b9 c1 01 3e 35 a4 18 3e f9 30 12 3e 80 3f 78 3c
       0.12671556 0.1490639 0.14276494 0.015151858
000150 0c 6c 8d 3d f8 c5 8a 3c 5b 78 10 3e 40 17 2f bc
       0.06905374 0.016940102 0.14108412 -0.010686696
000160 01 06 1c 3e f0 4c c5 bc 80 6a 43 3c 38 d6 93 3c
       0.15236665 -0.024084538 0.011927247 0.018046483
000170 c4 6f 5c 3d ab e2 9b bd 7a ce 9a 3d 2e b3 06 be
       0.053817526 -0.07611593 0.075589135 -0.13154289
000180 92 88 d5 3d 14 4e a4 bd a2 6d e1 bd 00 c5 07 3c
       0.10426439 -0.08022705 -0.11007239 0.008286715
000190 9c ff 65 3d 20 75 bb 3d f0 42 8d 3d 7c ec 12 bd
       0.05615197 0.09153199 0.06897533 -0.03587006
0001a0 de 56 e8 3d d0 f9 53 bc 80 71 c7 bc 2a 76 19 bd
       0.113446936 -0.012937978 -0.024346113 -0.037466206
0001b0 46 c4 e4 3d 0e fa ba 3d 7d b8 8a bd fa 2d c4 bd
       0.11170249 0.091297254 -0.067734696 -0.09579082
0001c0 dc 37 c2 bd 5a ba 13 be 5c 51 36 bd 9b ab 1c 3e
       -0.094833106 -0.14426556 -0.044511184 0.15299837
0001d0 00 60 8b 39 2c c1 54 bd 8a d7 46 bd d8 d1 02 3d
       0.00026583672 -0.051942036 -0.048545398 0.031938404
0001e0 30 da 42 3c 3e ac e7 bd 00 dd d5 bb dc 0a c4 bd
       0.01189284 -0.113121495 -0.0065265894 -0.09572384
0001f0 24 d5 ae 3d fa f3 8c 3d 43 f3 1c be 06 c7 cc bd
       0.08536747 0.06882472 -0.15327172 -0.09998898
000200 1b 9d 07 3e e0 fb dc bc 75 92 1f 3e 78 e5 2c 3d
       0.13243525 -0.026975572 0.15583213 0.042211026
000210 60 88 0f 3d ee 44 b3 bd 3a a6 0f be f8 80 03 be
       0.035042167 -0.08753382 -0.14028254 -0.12842166
000220 ce f9 45 bd 6a 0c 04 be e0 28 0e bd 10 cd af 3c
       -0.048333935 -0.1289536 -0.03470695 0.021460086
000230 c2 d8 cb bd a8 c8 b7 3c bd 0a d4 bd 10 49 f9 bd
       -0.09953453 0.022434548 -0.10353611 -0.12172139
000240 04 05 67 bd 28 74 af 3c 2b b5 0e 3e f2 7b 79 bd
       -0.056401268 0.021417692 0.13936298 -0.06090922
000250 e2 a6 cb 3d eb f9 87 bd aa 62 be 3d 00 07 de bc
       0.0994394 -0.06639465 0.092961624 -0.027102947
000260 2a da bd 3d db 5f fb bd 54 78 54 3d ad a7 18 3e
       0.09270127 -0.12274142 0.051872566 0.14907713
000270 9b f5 08 3e e2 20 df 3d 9a 8f c7 bd f1 67 b8 bd
       0.13374941 0.10894944 -0.09744187 -0.090042
000280 30 57 3a bc 24 75 44 bd f8 62 91 3c 70 ca d2 bd
       -0.011373326 -0.047963277 0.017747387 -0.10292518
000290 f0 8f 4d 3c 0e 13 ad 3d da 56 f5 3d 8e 7c bd 3d
       0.012546524 0.084509 0.11979456 0.092522725
0002a0 00 e7 a7 bd d7 18 1b 3e 84 2a 1c 3d c9 f7 1c 3e
       -0.08198357 0.15146194 0.038126484 0.15328898
0002b0 5e d9 d2 3d b9 10 9b bd d8 ac 59 3d d2 b0 13 bd
       0.10295366 -0.07571549 0.053143352 -0.0360573
0002c0 d0 e7 31 3c d3 4c 1c 3e 28 9f 07 3d a3 de fa bd
       0.010858491 0.15263681 0.033110768 -0.12249496
0002d0 c4 4f a1 3d ed d9 12 3e e2 a4 20 be f0 a2 86 3c
       0.07876542 0.14340945 -0.15687898 0.016435117
0002e0 99 c2 17 be 11 70 0e be 47 c5 1c 3e 66 8c 92 3d
       -0.14820327 -0.13909937 0.1530963 0.07155685
0002f0 5a 01 6c bd c8 65 c0 3c 58 7b 92 bd fa 21 ac 3d
       -0.057618476 0.023486033 -0.07152432 0.08404918
000300 cc 98 95 3d 00 a7 ae bd 29 a9 97 bd 06 63 d8 3d
       0.07304534 -0.085279465 -0.074053116 0.10565762
000310 6a 9f f1 3d d3 b7 95 bd 2c dc 7b bd 17 11 a8 bd
       0.11797984 -0.07310452 -0.06148927 -0.08206385
000320 3b 52 ed bd 8e 61 18 be c0 41 9d bd 26 60 60 bd
       -0.1158795 -0.14880964 -0.076785564 -0.054779194
000330 54 66 80 3d 7c c6 83 3d aa 44 f3 3d 40 1f 4b 3c
       0.062695175 0.06434342 0.11878331 0.012397587
000340 e7 b0 1c be 58 4a bb bc 6f 8a 15 3e f8 48 a1 3d
       -0.15301858 -0.022862598 0.1460359 0.07875246
000350 28 39 da bc 6a 69 8b 3d fe 39 eb 3d e0 54 87 bd
       -0.026638582 0.068072155 0.114856705 -0.066079855
000360 c5 59 9e bd a2 b6 16 bd 93 24 86 bd 92 8c f1 3d
       -0.07731966 -0.036795266 -0.06549945 0.1179439
000370 e2 e1 e2 3d f4 72 41 3d 20 aa 0b bc c6 b1 77 bd
       0.1107824 0.04722877 -0.008524448 -0.060472272
000380 60 f1 d2 bc 06 8e 71 bd be e2 01 be 06 45 7f bd
       -0.025749862 -0.058973335 -0.12684152 -0.062321685
000390 60 82 c3 3b 3c 17 e8 bd 18 a8 23 3d 40 7b 1c bc
       0.0059664696 -0.113325566 0.03995523 -0.009550869
0003a0 65 f8 17 3e b8 3b c6 bc 24 b1 43 3d b2 05 9b 3d
       0.14840849 -0.024198398 0.047776356 0.07569446
0003b0 f9 6e 9d bd fd 40 0d 3e c3 b6 1b be 10 44 2e 3c
       -0.07687182 0.13794322 -0.15206437 0.010636345
0003c0 3c 99 3f 3d 7c e4 01 be 10 64 e1 bc d8 7c 53 bd
       0.046776995 -0.12684816 -0.027513534 -0.051632732
0003d0 92 e4 da bd f4 fe 03 bd c5 25 11 be 12 01 79 bd
       -0.106881276 -0.032225564 -0.14174564 -0.060792036
0003e0 9d 1f 1a 3e 6d 96 99 bd 88 52 da bd 70 cf 50 3d
       0.15051122 -0.074993946 -0.10660273 0.050979078
0003f0 68 d9 47 bd 31 e9 1a 3e 18 9d b5 3d e8 48 c7 3c
       -0.04879132 0.15128018 0.08867854 0.024326757

transformer_encoder.encoder.feed_forward.fc1.bias f4 [256]
000000 20 9d 58 3d 06 64 bc 3d 78 9e 8e bc d9 33 16 be
       0.05288422 0.091987655 -0.017409548 -0.14668216
000010 da 18 c2 3d 08 a0 64 bd f7 4d 02 3e 0a ec 9b 3d
       0.09477396 -0.05581668 0.12725054 0.0761338
000020 e0 2b ce bc 98 80 3c 3d 90 c9 e1 bc 73 58 06 3e
       -0.025167406 0.046021074 -0.027561933 0.13119678
000030 e0 2f 98 bd cc 69 8d 3d 4a 81 13 be f7 fa 08 3e
       -0.074310064 0.06904945 -0.14404789 0.13376985
000040 71 b4 08 be f2 ff af 3d 36 f3 dc 3d 90 48 62 bc
       -0.13350083 0.085937396 0.10788576 -0.013811246
000050 2e dc f9 bd a8 14 20 be d6 cb 4f bd 9e 3a 74 bd
       -0.12200199 -0.1563288 -0.050731502 -0.059626214
000060 68 b2 96 3c 8e 0f c0 3d c3 3e 0e 3e 38 18 01 be
       0.018395618 0.09377967 0.13891129 -0.12606895
000070 00 d8 96 bc 2c fb 70 bd 65 2b 1a be be 3e bc 3d
       -0.018413544 -0.058833286 -0.15055616 0.091916546
000080 bd a9 09 3e 80 36 ee 3b 74 fb 69 3d 24 9b e8 bd
       0.13443656 0.0072696805 0.05712457 -0.11357716
000090 88 56 10 be cf 89 1b be 27 a8 ee bd af f0 11 be
       -0.14095509 -0.15189289 -0.11653166 -0.1425197
0000a0 20 ae aa bc a7 9e 8b bd 73 b6 09 be a0 e0 95 3d
       -0.020834982 -0.0681737 -0.13448505 0.073182344
0000b0 52 b3 55 bd 2c 57 fb bd 59 2d 00 3e 3b 82 17 be
       -0.052172966 -0.12272486 0.12517299 -0.14795773
0000c0 f1 1f 81 bd 92 d4 fb 3d 92 04 ef 3d 78 2e de 3c
       -0.063049205 0.12296404 0.116707936 0.027121767
0000d0 9b 72 04 3e 4e 9c 0e be a4 7e 70 3d 8f 22 04 3e
       0.12934344 -0.13926813 0.058714524 0.12903808
0000e0 20 8e f8 3b d5 01 0b be a4 3f e1 bd 98 a8 1e be
       0.007585302 -0.13574918 -0.109984666 -0.15494001
0000f0 46 63 d6 bd f8 76 98 3d 37 f1 93 bd 80 dd 40 bc
       -0.10468154 0.074445665 -0.072237425 -0.01177156
000100 16 70 c6 3d 9d d1 a8 bd 3c f5 61 3d 1c 09 92 bd
       0.096893474 -0.082431056 0.055165514 -0.07130644
000110 10 2a c6 3c 50 72 51 3d 7a 2d a1 3d 56 9c e9 3d
       0.024189979 0.051134408 0.07870002 0.11406772
000120 e0 84 c1 bb f0 8c 4a bd c0 c6 9a 3c 8c d5 96 3d
       -0.0059057325 -0.049450815 0.0188936 0.073649496
000130 00 8e 40 3b 9b dc 20 be 80 84 97 3a 7c 5a 80 3d
       0.0029381514 -0.15709154 0.0011559874 0.062672585
000140 fa 2d bf 3d d2 9b 08 be e7 96 07 3e a3 86 1a 3e
       0.09334941 -0.1334069 0.13241158 0.15090422
000150 20 7e 36 3c 85 22 93 bd 98 59 d6 3c d8 41 b6 bd
       0.011138469 -0.071843185 0.026165769 -0.088992774
000160 0f 48 21 3e dc ce b7 3d b9 2f 11 be 9e 29 a3 bd
       0.15750144 0.08975002 -0.14178361 -0.07966922
000170 c0 e7 50 3c f8 68 5c 3d 9a e2 bc 3d 86 7f ed 3d
       0.012750566 0.053811044 0.09222908 0.11596589
000180 c0 52 aa bd c4 15 01 bd fd 77 9f bd e9 c2 18 be
       -0.083165646 -0.031514898 -0.07786558 -0.14918102
000190 00 a1 0c 3b a8 f5 d4 bc 54 5b 14 3d 69 4d bb bd
       0.0021458268 -0.025996044 0.03621991 -0.09145624
0001a0 4e 20 c6 3d a4 78 15 be 7e a1 d6 bd 58 e4 a0 bc
       0.096741304 -0.14596802 -0.10480021 -0.019640133
0001b0 78 6d d3 bc 54 5f 1c 3d a0 9f b4 bd 40 ef 8c 3c
       -0.025809035 0.03817685 -0.088195086 0.017203927
0001c0 7e 57 88 3d 15 e5 ca bd b8 15 df bd 6b 9e b4 bd
       0.06657313 -0.09906975 -0.108928144 -0.08819278
0001d0 60 b2 ed bd a3 e0 06 be d2 72 8f bd ac 10 23 3d
       -0.11606288 -0.1317163 -0.07004322 0.03981082
0001e0 4f ad 06 3e 2f 93 20 be fa ab e2 3d 80 2e 73 3b
       0.1315205 -0.15681146 0.11067958 0.0037106574
0001f0 14 67 02 bd 37 17 c8 bd 00 cf 3a bb d5 23 0b 3e
       -0.031836584 -0.09770053 -0.002850473 0.13587888
000200 22 b9 d6 3d 6a 3a 16 be c0 87 fb bc c4 44 b4 3d
       0.1048453 -0.1467072 -0.03070438 0.088021785
000210 de 33 8c 3d ac 20 01 bd 74 49 42 3d 5e 01 d7 3d
       0.068458304 -0.0315253 0.04743333 0.10498308
000220 a0 1b ae 3c 4d 3a 98 bd 18 e4 e3 bc 6c ae 57 3d
       0.021253407 -0.07432995 -0.027818725 0.052656576
000230 68 a7 bf 3c c0 a1 e7 bb 30 d5 c7 3c ff 5c 12 be
       0.023395255 -0.0070688426 0.024393648 -0.14293288
000240 3a 42 ee 3d 43 94 12 3e 98 f3 98 3c 28 6d 90 3d
       0.116337255 0.1431437 0.018670842 0.0705207
000250 60 7e f3 3b cc bb e1 bd c4 af f7 bd 30 f9 96 bd
       0.0074308366 -0.110221475 -0.120940715 -0.073717475
000260 ce 52 c2 3d 3c df 3a bd c0 05 52 3c 80 68 1d 3c
       0.0948845 -0.04562305 0.012818754 0.009607434
000270 50 cb 08 3c 68 cc 9f 3d e0 2a fa 3c e8 42 b4 bc
       0.008349255 0.07802659 0.030538023 -0.02200456
000280 62 8d aa 3d 52 2f 93 bd f9 74 1a be ac 69 c5 bd
       0.08327748 -0.0718676 -0.15083684 -0.09639296
000290 01 f7 08 be 3e 61 d5 3d 09 72 18 3e 2d a6 01 3e
       -0.13375475 0.10418938 0.14887251 0.12661047
0002a0 20 06 b4 3c c0 46 82 bb 58 51 ff bc 50 4a 3e bd
       0.021975577 -0.003975719 -0.031166717 -0.04645759
0002b0 aa 22 e0 3d 68 79 54 bd 40 fe 9a 3b 40 a7 01 3d
       0.10944112 -0.051873595 0.004730016 0.031653643
0002c0 9a 42 7b bd 48 b8 b7 bc 7c 8a b5 bd f2 1c cd 3d
       -0.061342813 -0.02242674 -0.088643044 0.100152865
0002d0 f4 c0 16 bd b2 a7 20 be e4 9c 04 bd e8 d7 15 3d
       -0.03680511 -0.1568897 -0.032376185 0.036582857
0002e0 de 27 c6 bd 45 b6 10 be f8 80 03 bd 90 e5 7b 3d
       -0.09675573 -0.1413203 -0.032105416 0.061498225
0002f0 60 32 21 be 9a 5e 56 bd 95 1c 12 be f3 90 8a bd
       -0.15741873 -0.052336313 -0.14268716 -0.06765928
000300 2c 8e 1c be 38 18 df bd c0 f2 f4 bb 7e ac c6 3d
       -0.1528861 -0.10893291 -0.007475227 0.09700869
000310 e6 1d 37 bd b4 6f 0d 3d 3f 01 10 3e e0 f7 07 be
       -0.044706248 0.034530357 0.14062975 -0.1327815
000320 5c 07 e9 bd a8 9e c1 bd 72 de ed 3d cf 7a 13 be
       -0.11378357 -0.094540894 0.11614694 -0.14402317
000330 bd 12 09 3e 85 b2 d6 bd 00 08 99 b9 b2 fd 8e 3d
       0.13386054 -0.10483269 -0.00029188395 0.06981982
000340 38 35 05 bd 12 6d cd 3d fd 7f 1e 3e 18 f4 ef bd
       -0.032521456 0.10030569 0.15478511 -0.11716479
000350 d6 d0 c6 3d 35 8e 10 be 60 6a dd 3b 67 7f 99 bd
       0.09707801 -0.14116748 0.0067570657 -0.07495003
000360 e3 a6 20 be 30 de 16 3c c4 ed f3 bd ac 73 ed bd
       -0.15688662 0.009208247 -0.119105846 -0.11594328
000370 b2 a6 c9 3d 3e c3 be 3d 35 ac 03 3e e8 63 b9 bc
       0.09846248 0.09314583 0.1285866 -0.022630647
000380 18 3d 08 bd b4 a2 88 3d 0e e6 8a 3d ea d7 10 be
       -0.03326139 0.06671658 0.06782161 -0.14144865
000390 3e 68 fe 3d 00 f4 29 b9 f1 91 0e be 2c 34 e5 bd
       0.12422226 -0.00016207993 -0.1392286 -0.111915916
0003a0 58 6d 20 3d 04 ef cc bd f8 5a 7d 3d c0 0e 09 3b
       0.03916678 -0.10006526 0.061854333 0.0020913333
0003b0 da c2 ef bd 48 ff 23 3d bc 2c 9c bd 60 bc cd bb
       -0.11707087 0.040038377 -0.0762572 -0.0062785596
0003c0 3b 81 20 3e 73 60 03 be dc 49 11 3d b2 6f df 3d
       0.15674298 -0.12829761 0.03547083 0.10909976
0003d0 d2 d4 bd 3d b6 25 7b bd 1e bd fb 3d 74 b7 d5 bd
       0.09269108 -0.06131526 0.122919306 -0.104353815
0003e0 ea ab de 3d 00 30 8a 38 3e f8 08 be 84 d9 3f 3d
       0.10872634 6.5892935e-05 -0.13375947 0.0468383
0003f0 33 84 8a bd 3e 3b fc 3d 20 ca b2 3b 10 9d 77 3c
       -0.06763496 0.12315987 0.005456224 0.01511313
