simple2transformer/param/net_param/Mk10_50_50_critic_net.model (torch, 232127 bytes, 33 tensors)

transformer_encoder.encoder.attention.fc_Q.weight f4 [40, 40]
0	0x3d4e3144	0.050339952
1	0x3d6d2430	0.05789584
2	0xbdcd79e1	-0.10033012
3	0xbdf027e0	-0.117263556
4	0xbc246a40	-0.010035098
5	0x3df89956	0.121386215
6	0xbde9ea78	-0.114216745
7	0xbde17d9e	-0.11010288
8	0x3d485d20	0.048916936
9	0x3d111128	0.035416752
10	0xbcd7b1c0	-0.026329875
11	0xbdafa4fd	-0.08576391
12	0xbe190d0d	-0.14946385
13	0xbdb56d34	-0.088587195
14	0x3bf0f280	0.007353127
15	0x3b012580	0.001970619
16	0x3d88d84c	0.0668188
17	0x3de59346	0.11209731
18	0xbd94c679	-0.07264418
19	0xbe154420	-0.14576769
20	0xbd9d99a4	-0.0769532
21	0xbe15d2bb	-0.14631169
22	0x3e21ba7b	0.15793793
23	0x3e04a807	0.12954722
24	0xbe1f49e2	-0.15555528
25	0xbe0c25d4	-0.13686305
26	0x3e1545c9	0.14577402
27	0xbde303c4	-0.110847026
28	0x3dd6e846	0.104935214
29	0xbc6c7e70	-0.014434442
30	0xbdbe7e80	-0.09301472
31	0xbcebde58	-0.028792545
32	0xbddc3808	-0.107528746
33	0xbd424686	-0.047430538
34	0xbcb59710	-0.022166759
35	0x3ca09078	0.019600138
36	0x3e0ea47f	0.13929938
37	0xbe0d2f26	-0.13787517
38	0xbdb6ae1b	-0.08919927
39	0xbd8a3247	-0.06747871
40	0x3dc2909e	0.0950024
41	0x3bb16fc0	0.005414933
42	0xbdb3adc0	-0.087733746
43	0x3d6354cc	0.05550079
44	0x3cd69800	0.026195526
45	0xbd8d89b2	-0.06911029
46	0xbd6d0f08	-0.057875663
47	0x3dc1dc6a	0.09465869
48	0xbe098b3e	-0.13432023
49	0x3e0a4817	0.13504063
50	0x3e041027	0.12896787
51	0xbe1a379e	-0.15060279
52	0xbd56d4a2	-0.052448876
53	0x3d6dc3c8	0.05804804
54	0xbdfec977	-0.1244077
55	0xbdf5b214	-0.11996856
56	0x3def447e	0.11682986
57	0x3ccfa7a0	0.025348485
58	0xbda45022	-0.080230966
59	0xbd87308d	-0.06601057
60	0xbdfccf55	-0.12344233
61	0x3cf0bd80	0.029387236
62	0x3d89d72c	0.06730494
63	0xbdc3abec	-0.09554276
64	0xbd3d8260	-0.046266913
65	0xbd2dfa30	-0.042474926
66	0x3ccf84c0	0.025331855
67	0x3bc24820	0.005929008
68	0xbcea04b0	-0.028566688
69	0x3e0c8a65	0.13724668
70	0xbcc1ad98	-0.023642346
71	0xbd0e4458	-0.034733146
72	0x3d8ad2b0	0.06778467
73	0x3d8c1ad0	0.068410516
74	0xbd126b40	-0.035746813
75	0xbd759bb4	-0.059962943
76	0xbdd084e0	-0.10181594
77	0x3cea1fe0	0.028579652
78	0xbdcca972	-0.09993257
79	0xbb9c9980	-0.004779041
80	0xbe03cded	-0.12871523
81	0x3df627ce	0.12019311
82	0xbe05aa59	-0.13053264
83	0xbe1e3a65	-0.15451963
84	0x3e194cf7	0.14970766
85	0x3d5c9f24	0.053862706
86	0x3d318be4	0.0433463
87	0xbd21a6b2	-0.039465614
88	0xbc5dab90	-0.013529673
89	0x3e013dc5	0.1262122
90	0xbcdb0800	-0.026737213
91	0xbdc031a1	-0.09384466
92	0xbccfdb68	-0.025373176
93	0x3c6480c0	0.013946712
94	0xbe1056c5	-0.140956
95	0x3d3f9610	0.04677397
96	0xbda8567e	-0.08219622
97	0x3db7e3e0	0.089790106
98	0x3e05d639	0.1307
99	0xbd38dbaa	-0.045131363
100	0x3ca39a80	0.019971132
101	0xbda2c03c	-0.07946822
102	0xbdea298f	-0.11433708
103	0x3e17d243	0.14826302
104	0xbd76f482	-0.060291775
105	0xbd0370c4	-0.032089964
106	0x3d0a8f88	0.03382829
107	0xbd1a5dae	-0.037686996
108	0x3db1600c	0.086608976
109	0x3e20ce69	0.15703739
110	0xbc925fb8	-0.017867908
111	0x3c91f938	0.017819032
112	0x3c848da8	0.016180828
113	0xbdee3ee8	-0.11633092
114	0xbdb8b314	-0.090185314
115	0xbd138196	-0.036012255
116	0x3dc57a2e	0.096424446
117	0x3e0df6e1	0.13863708
118	0x3dcb37a2	0.099227205
119	0xbd939b36	-0.072073385
120	0xbe0de133	-0.13855438
121	0xbdcf8044	-0.101318866
122	0x3dceb7aa	0.10093625
123	0x3d453198	0.048143
124	0xbad64880	-0.0016348511
125	0xbdc906a1	-0.098157175
126	0xbd73554a	-0.05940751
127	0x3d9469c0	0.07246733
128	0xbdd173e3	-0.10227182
129	0xbe21cec1	-0.15801527
130	0x3d450ae0	0.048106074
131	0xbcdcde90	-0.026961595
132	0xbde3c38e	-0.111212835
133	0x3d1ab5e0	0.037771106
134	0xbd4ae42c	-0.049534008
135	0x3dd262fa	0.102727845
136	0x3d6dd82c	0.058067486
137	0xbde37428	-0.111061394
138	0xbe119a05	-0.1421891
139	0xbdd7429c	-0.105107516
140	0xbd38bc00	-0.045101166
141	0xbd624dfe	-0.05525016
142	0x3de658a2	0.11247374
143	0xbe08bbcc	-0.13352889
144	0x3ddb8b8a	0.10719974
145	0xbd37717c	-0.04478596
146	0x3e14a1f3	0.14514904
147	0x3c860990	0.016361982
148	0xbd912c2a	-0.07088502
149	0xbe053c69	-0.13011326
150	0x3de8b446	0.113625094
151	0xbe0936c7	-0.13399802
152	0xbe1344e2	-0.14381745
153	0xbe19312f	-0.14960168
154	0x3d505328	0.050860554
155	0xbd809ef0	-0.06280315
156	0x3de3989e	0.11113094
157	0x3d2d4e9c	0.042311296
158	0x3e1e5a7f	0.15464209
159	0xbe177ad5	-0.1479295
160	0xbbbf56e0	-0.0058392137
161	0xbdbde7c2	-0.0927272
162	0xbe1e923b	-0.1548547
163	0x3dd19f4e	0.10235463
164	0xbd754222	-0.059877522
165	0xbd5be61e	-0.053686254
166	0x3d63ab50	0.0555833
167	0x3d347450	0.044056237
168	0x3cea61d0	0.028611094
169	0xbd8e3211	-0.06943143
170	0x3e18cd35	0.1492203
171	0xbd871de7	-0.065975
172	0x3daef724	0.08543232
173	0x3dab96ba	0.08378358
174	0x3d0f88bc	0.03504251
175	0xbcb97b30	-0.022641748
176	0xbe1d7835	-0.15377887
177	0x3da1d46e	0.07901846
178	0x3e14ed37	0.14543615
179	0x3dbdd172	0.09268464
180	0xbb084580	-0.0020793378
181	0xbd009254	-0.03138955
182	0x3e125d07	0.142933
183	0x3d0231bc	0.03178571
184	0xbd88487d	-0.06654451
185	0xbdb1f31c	-0.086889476
186	0xbd9183c5	-0.07105211
187	0x3e19392d	0.14963217
188	0x3d5f3338	0.054492205
189	0xbc8c4ab0	-0.017125458
190	0xbd76271a	-0.060095884
191	0xbdbf88ab	-0.09352239
192	0x3e13c969	0.144323
193	0xbdb80c6d	-0.08986745
194	0xbbaf3060	-0.005346343
195	0xbe1cb637	-0.15303884
196	0x3c1a0f90	0.009403124
197	0xbdd250e6	-0.102693364
198	0xbdcd9180	-0.100375175
199	0xbc294090	-0.010330334
200	0x3d3106cc	0.043219373
201	0xbc839b78	-0.016065344
202	0x3ddff2f2	0.1093501
203	0xbe152be3	-0.14567523
204	0xbc8ea9a0	-0.017414868
205	0x3cb4ffd0	0.022094637
206	0x3e094213	0.13404112
207	0xbe1a9ceb	-0.15098922
208	0x3d1b2ec4	0.037886396
209	0x3b9fe3c0	0.004879445
210	0xbd3cde56	-0.046110474
211	0xbe1c3dc8	-0.15257943
212	0x3e01f935	0.12692721
213	0xbda1cd25	-0.07900456
214	0x3c9b8b00	0.018987179
215	0xbc18eab0	-0.009333298
216	0x3ddddeba	0.10833497
217	0x3e0ea02b	0.13928287
218	0x39b87a00	0.00035186112
219	0x3d3256f4	0.043539956
220	0xbe124f6a	-0.14288107
221	0x3dd7b2d6	0.10532157
222	0xbe0c44a4	-0.1369806
223	0xbdb1f713	-0.08689704
224	0x3db2a246	0.087223575
225	0x3d1701d0	0.036866963
226	0x3ddc5c7e	0.10759829
227	0x3dd93a32	0.10606803
228	0x3e120ec7	0.1426345
229	0xbe1373c8	-0.14399636
230	0x3bcc8720	0.006241694
231	0x3e2107b5	0.15725596
232	0xbdadd2fd	-0.084875084
233	0xbd3f7b38	-0.04674837
234	0xbdc625e4	-0.09675196
235	0x3de603ba	0.112311795
236	0x3d20824c	0.03918676
237	0x3db5d5a0	0.08878636
238	0x3d40b29c	0.047045335
239	0xbd1eeaaa	-0.03879801
240	0xbdea6942	-0.114458576
241	0x3e16251f	0.14662598
242	0x3e12df01	0.14342882
243	0xbd95b360	-0.07309604
244	0x3e0d7c07	0.13816844
245	0x3d8670b8	0.06564468
246	0x3da6a366	0.081366345
247	0x3da29516	0.07938592
248	0xbdd73ba2	-0.10509421
249	0xbc347660	-0.011014551
250	0x3c2e9710	0.010656133
251	0xbd82985a	-0.06376715
252	0x3d5bdc8c	0.053677127
253	0x3d138ab4	0.03602095
254	0x3d2398f4	0.03994079
255	0xbe0e964f	-0.13924526

transformer_encoder.encoder.attention.fc_Q.bias f4 [40]
0	0x3d97ad9c	0.0740616
1	0xbd8841f8	-0.066532075
2	0xbd8a28f3	-0.06746092
3	0x3ded1f6e	0.1157826
4	0xbd4e4120	-0.050355077
5	0xbd4a886e	-0.049446516
6	0x3d32dc48	0.043667108
7	0x3e0e65b3	0.13905983
8	0xbddfa77d	-0.10920618
9	0xbdc17353	-0.094458245
10	0xbe0c3e16	-0.13695559
11	0x3df7cde2	0.12099816
12	0xbe07b3d7	-0.13252197
13	0x3d4cebd4	0.05002959
14	0xbdbb61a8	-0.09149486
15	0x3cec3dd0	0.028838068
16	0xbde74681	-0.112927444
17	0xbd2c5dc0	-0.042081594
18	0xbd93e4b4	-0.07221356
19	0x3de0908e	0.109650716
20	0xbbf2bfa0	-0.0074080974
21	0x3d4174b4	0.047230437
22	0xbdc38d5d	-0.09548447
23	0x3d540cf0	0.05177015
24	0xbcefb888	-0.029262796
25	0xbca5ab68	-0.020223334
26	0x3daab2ec	0.08334908
27	0x3dc1a65e	0.0945556
28	0xbe063c46	-0.1310893
29	0xbe168760	-0.14700079
30	0xbd378434	-0.044803813
31	0xbdf8a892	-0.12141527
32	0xbdd77b7c	-0.105216
33	0xbe037e68	-0.12841189
34	0x3e0b72d1	0.13618018
35	0x3e0a02bd	0.13477607
36	0x3d825776	0.06364338
37	0x3e0d3f25	0.13793619
38	0xbc22bae0	-0.00993225
39	0xbd001858	-0.031273216

transformer_encoder.encoder.attention.fc_K.weight f4 [40, 40]
0	0xbdb2b99f	-0.08726811
1	0x3e0df5a9	0.13863243
2	0xbdf14ae2	-0.11781861
3	0xbd098f94	-0.033584192
4	0x3c756b50	0.014979199
5	0xbdc53f06	-0.096311614
6	0x3dc1ae9a	0.09457131
7	0x3a3c3d00	0.00071807206
8	0x3c987638	0.018611059
9	0xbda92669	-0.08259279
10	0xbe0c3681	-0.13692667
11	0xbc1f3830	-0.009717986
12	0xbdbc154b	-0.09183749
13	0xbe084ad9	-0.13309802
14	0xbc013220	-0.007885486
15	0xbd98c259	-0.07458944
16	0xbde9dd89	-0.114192076
17	0x3dd6cc62	0.10488202
18	0x3e19d365	0.15022047
19	0x3d132040	0.035919428
20	0xbd215566	-0.039388083
21	0x3e0c7ad3	0.13718729
22	0xba9e2480	-0.0012065321
23	0x3a450500	0.00075156987
24	0xbdbd8402	-0.09253694
25	0xbd84b021	-0.064789064
26	0x3dbe80ca	0.09301908
27	0x3da65f7c	0.08123681
28	0x3db23392	0.087012425
29	0x3c862f80	0.016380072
30	0xbd76c3c0	-0.060245275
31	0xbd826d14	-0.06368461
32	0xbdc7a1e5	-0.09747676
33	0x3dcd67aa	0.10029538
34	0x3caaa2d8	0.020829603
35	0xbc7dc0c0	-0.01548785
36	0xbc336a40	-0.010950625
37	0x3e1892df	0.14899777
38	0xbdc068ee	-0.09395014
39	0xbd85b736	-0.06529085
40	0xbd47dba8	-0.048793465
41	0xbd911d40	-0.07085657
42	0x3c287040	0.010280669
43	0x3d81d596	0.063395664
44	0x3d7dee80	0.06199503
45	0x3d876cc0	0.06612539
46	0xbd7ee628	-0.062231213
47	0x3de84206	0.11340718
48	0xbca98d60	-0.020697296
49	0xbdfd85ea	-0.12379058
50	0x3ce80928	0.028324679
51	0xbd963fe6	-0.073364064
52	0xbdfb6ea4	-0.122769624
53	0x3dd65b3e	0.10466622
54	0xbc11d0a0	-0.008899838
55	0xbe1fa214	-0.15589172
56	0x3d31ed80	0.04343939
57	0xbdf9e7f0	-0.12202442
58	0xbde18d50	-0.11013281
59	0x3d93b07a	0.072113946
60	0x3cb072a8	0.021539047
61	0xbd19f794	-0.037589625
62	0x3d77a584	0.060460582
63	0x3dae9378	0.08524221
64	0xbd52099c	-0.051278695
65	0x3daa1c86	0.08306222
66	0x3c39ad40	0.01133281
67	0x3d27fcb0	0.041012466
68	0x3d294cf4	0.041333154
69	0x3da1b3d6	0.07895629
70	0xbc94ed10	-0.018179446
71	0xbe14a583	-0.14516263
72	0x3dbc5fbe	0.09197949
73	0x3de9e322	0.11420275
74	0xbe02ba11	-0.12766291
75	0x3dc423f6	0.095771715
76	0x3dc510fa	0.09622379
77	0x39dd7a00	0.00042243302
78	0xbdb0c76a	-0.08631785
79	0x3df110a2	0.117707506
80	0xbe1ff35a	-0.15620175
81	0x3e09f6eb	0.13473098
82	0x3d5f40e4	0.054505244
83	0xbd747394	-0.059680536
84	0xbd1af8ac	-0.03783481
85	0xbe1be3aa	-0.15223566
86	0x3cad9668	0.021189883
87	0x3decead2	0.11568226
88	0xbcdf0ab0	-0.027226776
89	0x3e0df3eb	0.13862579
90	0xbdbb65cf	-0.09150278
91	0xbdc8d2f4	-0.09805861
92	0xbcbf38a8	-0.023342445
93	0xbd18bfd0	-0.0372923
94	0x3de17062	0.110077634
95	0x3bf5f920	0.0075065047
96	0xbe1528f5	-0.14566405
97	0xbda1d5e4	-0.079021245
98	0xbdf0bd7b	-0.117548905
99	0x3d8d3f4e	0.0689684
100	0xbd8d95e6	-0.069133565
101	0x385d6000	5.2779913e-05
102	0xbdc80362	-0.0976627
103	0xbc725ba0	-0.014792353
104	0x3d9d1e80	0.07671833
105	0x3df25c52	0.11834015
106	0x3de3847e	0.11109255
107	0xbc8f8fb0	-0.01752457
108	0x3c7c9000	0.015415192
109	0x3dcc3032	0.0997013
110	0x3d8c4ba6	0.06850366
111	0xbb95d7e0	-0.0045728534
112	0xbdcc39ac	-0.099719375
113	0x3ce2df18	0.02769427
114	0xbcd572d8	-0.026055738
115	0x3d40e74c	0.047095582
116	0x3c1ca320	0.009560376
117	0x3e1302d7	0.14356552
118	0xbe108264	-0.1411224
119	0xbd194a80	-0.037424564
120	0xbdc58666	-0.09644775
121	0x3de06396	0.109564945
122	0x3cfc3210	0.03078559
123	0xbc169860	-0.0091916025
124	0x3d4003d8	0.046878666
125	0xbd8bfdba	-0.06835504
126	0xbe018caf	-0.12651323
127	0xbdda7ebe	-0.106687054
128	0x3d7d7e80	0.061888218
129	0xbd68896c	-0.05677168
130	0x3deae87e	0.114701256
131	0x3b911f40	0.004428774
132	0x3e124981	0.14285852
133	0xbdc25f72	-0.09490861
134	0xbc1898f0	-0.009313807
135	0xbc288490	-0.010285512
136	0x3d532ccc	0.051556394
137	0xbc9b3890	-0.01894787
138	0xbac4ed00	-0.0015024245
139	0xbd3b56f2	-0.045737214
140	0xbd62d964	-0.0553831
141	0x3d900a76	0.07033245
142	0xbd92dabf	-0.07170629
143	0x3d063c30	0.032772243
144	0x3ca78f80	0.020454168
145	0x3da71f12	0.08160223
146	0xbbf5f7e0	-0.0075063556
147	0xbd8c5009	-0.06851203
148	0x3d99de4c	0.07513103
149	0xbdf6d8da	-0.1205308
150	0x3d746174	0.05966325
151	0x3dbf803e	0.09350632
152	0xbdd002ff	-0.101568215
153	0x3d96bfa6	0.07360773
154	0x3c218cc0	0.009860218
155	0xbd7dea52	-0.061991043
156	0xbd5284dc	-0.051396236
157	0xbd2d8bce	-0.042369656
158	0x3dec4cca	0.11538084
159	0x3dd2c326	0.10291128
160	0xbe1b537f	-0.1516857
161	0xbdc6ec2f	-0.09713017
162	0x3b4095c0	0.0029386133
163	0xbde1f648	-0.110333025
164	0x3d9b8b12	0.07594885
165	0x3e02324f	0.12714504
166	0x3d26bc20	0.040706754
167	0xbb3c5a80	-0.0028740466
168	0xbc2ecf60	-0.010669559
169	0xbcd39ab0	-0.025830597
170	0xbd0b0c2e	-0.033947162
171	0xbc742fe0	-0.014903992
172	0x3e137bd3	0.14402704
173	0xbd53d474	-0.051716283
174	0x3def91ba	0.11697717
175	0x3dccafba	0.09994455
176	0xbd94efff	-0.07272338
177	0xbe16cb00	-0.14725876
178	0x3d52db08	0.051478416
179	0xba881c80	-0.001038447
180	0x3dc87586	0.09788041
181	0xbbd3e5e0	-0.006466612
182	0xbda0dd6f	-0.07854735
183	0xbe0788e2	-0.1323581
184	0x3ce23350	0.027612358
185	0xbe19132e	-0.14948723
186	0x3df3d876	0.11906521
187	0xbd800511	-0.06250966
188	0x3d1186fc	0.03552912
189	0x3d81a098	0.06329459
190	0xbdaa6efb	-0.08321949
191	0x3cf80f30	0.03028068
192	0xbd9af2c3	-0.075658344
193	0x3d2b3720	0.04180062
194	0xbe024397	-0.12721096
195	0xbd950d35	-0.0727791
196	0xbc70f040	-0.014705718
197	0xbdfd3d6c	-0.12365231
198	0xbe0e582d	-0.13900824
199	0xbc874208	-0.016510978
200	0x3c3a1c60	0.011359304
201	0xbdfff036	-0.124969885
202	0xbdb2dd28	-0.087335885
203	0xbdbe238e	-0.09284125
204	0x3cc0aba0	0.023519337
205	0xbe02eb90	-0.12785172
206	0xbdc5b4c7	-0.09653621
207	0xbda326d4	-0.0796639
208	0xbdf2136a	-0.11820109
209	0x3d8166c2	0.063184276
210	0x3dc55cee	0.096368656
211	0xbe19c7fd	-0.15017696
212	0x3c7b4090	0.015335217
213	0x3e1fa6af	0.15590928
214	0x3d9ceaae	0.07661949
215	0xbd90a507	-0.070627265
216	0x3de9e136	0.11419909
217	0xbdb37763	-0.087630056
218	0x3ce78d90	0.028265744
219	0x3d589460	0.052875876
220	0x3e0a9e4b	0.13536946
221	0xbd18eb9e	-0.037334077
222	0x3deac5fe	0.11463545
223	0xbd808eb1	-0.06277216
224	0xbbbde140	-0.005794674
225	0xbdd7d2e9	-0.10538275
226	0x3dba85e8	0.09107572
227	0xb958c800	-0.00020673871
228	0xbe079caf	-0.13243364
229	0xbb0f55c0	-0.002187118
230	0xbd97ddb9	-0.07415337
231	0x3dc1033a	0.094244435
232	0x3dc7fa9a	0.09764595
233	0x3dcf6166	0.10125999
234	0xbe1f6709	-0.15566649
235	0x3d3fdec8	0.04684332
236	0x3dcf6b12	0.10127844
237	0x3daf8854	0.085709244
238	0xbdd5fb81	-0.10448361
239	0x3d8806aa	0.06641896
240	0xbdddaa43	-0.108234905
241	0x3de92392	0.113837376
242	0x3d696a84	0.056986347
243	0x3da7aa7e	0.08186816
244	0x3cbf1f00	0.023330212
245	0x3da49186	0.08035569
246	0xbe06a652	-0.13149384
247	0x3cbbd380	0.022928
248	0xbe11c961	-0.14236976
249	0x3df3dcfa	0.11907382
250	0xbd22c934	-0.039742664
251	0xbe20c281	-0.15699197
252	0x3d778c3c	0.060436472
253	0x3dd3a5a2	0.10334326
254	0x3db61852	0.088913575
255	0xbdf72c46	-0.12068991

transformer_encoder.encoder.attention.fc_K.bias f4 [40]
0	0x3d3aac60	0.045574546
1	0xbda3d630	-0.079998374
2	0xbddc5702	-0.10758783
3	0xbda934ae	-0.08262001
4	0x3de4128a	0.111363485
5	0x3d9514cc	0.07279357
6	0xbdd89262	-0.10574795
7	0x3e18d4af	0.14924882
8	0xbd4a3b44	-0.049372926
9	0x3dc97bfa	0.098381
10	0xbc064ed0	-0.008197501
11	0xbde7bb94	-0.113150746
12	0x3d51e650	0.051245034
13	0x3ddaebce	0.106895074
14	0xbddd78e9	-0.108140774
15	0xbdbf67a6	-0.09345941
16	0xbd5cd1ce	-0.053911023
17	0xbdb6604b	-0.08905085
18	0xbe1fd071	-0.15606858
19	0xbc299b50	-0.010351971
20	0x3e1b451b	0.1516308
21	0xbe1448dc	-0.14480919
22	0xbd5fe68e	-0.054663233
23	0x3d82af06	0.06381039
24	0x3d266e64	0.04063262
25	0xbdc12118	-0.0943014
26	0xbde6265c	-0.11237785
27	0xbd64aed0	-0.055830777
28	0x3d578140	0.052613497
29	0x3ba4bfa0	0.0050277263
30	0x3d492380	0.04910612
31	0xbd77f8f6	-0.060540162
32	0x3de41e76	0.111386225
33	0x3d704c68	0.058666617
34	0x3e0560ad	0.1302516
35	0x3d286e90	0.041121066
36	0x3da8c01a	0.082397655
37	0x3cc28720	0.023746073
38	0xbdc5ae0a	-0.09652336
39	0x3dabd5ec	0.08390412

transformer_encoder.encoder.attention.fc_V.weight f4 [40, 40]
0	0xbd59e81a	-0.053199865
1	0xbcc636f0	-0.024196118
2	0xbd21daf8	-0.039515465
3	0xbcdce068	-0.026962474
4	0xbe1f831b	-0.15577357
5	0xbdda558b	-0.10660847
6	0xbdaa53d9	-0.08316774
7	0x3e128d53	0.14311723
8	0xbcb08158	-0.02154605
9	0x3e12c6b5	0.14333613
10	0x3e1a2ba7	0.15055715
11	0xbd601c64	-0.054714575
12	0x3dabb362	0.08383824
13	0xbe0d9785	-0.13827331
14	0xbe010258	-0.1259855
15	0x3de7f64e	0.11326276
16	0xbd7a9e80	-0.061186314
17	0x3c160b40	0.009157956
18	0x3e18d9ad	0.14926787
19	0x3d9022ae	0.070378646
20	0xbd34fcb4	-0.04418631
21	0x3cb0b8e0	0.02157253
22	0x3d847b14	0.06468788
23	0xbb96f980	-0.0046073794
24	0xbddeb49e	-0.10874294
25	0x3db1340a	0.08652504
26	0x3dd62686	0.104565665
27	0x3e03dd81	0.12877466
28	0xbe133930	-0.14377284
29	0x3d9ca5c6	0.07648806
30	0x3c44d430	0.01201348
31	0x3dc9ecd6	0.09859626
32	0x3d7ee7e0	0.062232852
33	0xbd3c5680	-0.04598093
34	0xbe101da2	-0.14073804
35	0xbcdf0730	-0.027225107
36	0x3deee6fa	0.11665149
37	0x3d3577a4	0.04430355
38	0xbd50dd78	-0.05099246
39	0xbc6118a0	-0.013738781
40	0xbe1715d5	-0.14754422
41	0xbd334b78	-0.043773144
42	0xbe184c30	-0.14872813
43	0x3c9b7c28	0.0189801
44	0x3e05e749	0.1307651
45	0xbd90f99b	-0.070788585
46	0xbd28182c	-0.041038677
47	0xbdb3f116	-0.08786218
48	0xbc9829b8	-0.01857458
49	0x3bdbb400	0.0067048073
50	0x3e10de55	0.14147313
51	0x3df2bc36	0.11852305
52	0x3dbe7632	0.09299888
53	0x395eb000	0.00021237135
54	0xbdd7c9e3	-0.10536554
55	0xbddbc1de	-0.107303366
56	0x3dc38a5e	0.09547876
57	0xbc31db40	-0.010855496
58	0x3d167ec8	0.036742
59	0xbd4e4cb0	-0.050366104
60	0x3d9f9e9e	0.07793926
61	0xbd740d28	-0.05958286
62	0x3d7c9844	0.06166865
63	0xbdb85e0d	-0.09002314
64	0x3dc8f776	0.098128244
65	0xbdf81524	-0.12113407
66	0xbe03b9e6	-0.12863883
67	0x3ae42380	0.0017405599
68	0xbd8ede34	-0.06975976
69	0xbdb6889c	-0.08912775
70	0xbbe54500	-0.006996751
71	0x3d75aed0	0.059981167
72	0x3dabbc12	0.08385481
73	0xbd7c0784	-0.061530605
74	0xbcf4e438	-0.02989398
75	0x3daee824	0.08540371
76	0xbcba0688	-0.022708192
77	0xbe1f33bb	-0.15547077
78	0xbddc7970	-0.1076535
79	0x3dab5190	0.08365166
80	0x3d76a2d8	0.060213894
81	0xbd6272c6	-0.055285238
82	0x3d69ec18	0.057109922
83	0x3dbe4a52	0.09291519
84	0xbd04dbf8	-0.03243634
85	0xbe18be23	-0.14916281
86	0xbd782550	-0.06058246
87	0xbdfc9011	-0.12332166
88	0x3e009c67	0.12559663
89	0x3d344b38	0.044017047
90	0xbdcdbe2d	-0.10046039
91	0xbd16b90c	-0.03679757
92	0x3e1f5b15	0.15562089
93	0x3e1b5e47	0.15172683
94	0x3cca0358	0.024659798
95	0xbcbb0280	-0.02282834
96	0x3deb4a0e	0.11488734
97	0x3e127615	0.14302857
98	0xbc449d90	-0.012000456
99	0xbe00e3fa	-0.12586966
100	0xbe15b3dc	-0.14619392
101	0xbe181a80	-0.14853859
102	0xbe031f58	-0.12804925
103	0xbc650220	-0.013977557
104	0x3db5d978	0.088793695
105	0xbd8f9beb	-0.07012161
106	0xbde73b5e	-0.1129062
107	0xbc7760c0	-0.015098751
108	0xbddfd5a0	-0.109294176
109	0x3d71af34	0.059004977
110	0xbbe14f40	-0.0068759024
111	0x3d9e34c4	0.07724908
112	0xbc892458	-0.016740963
113	0x3bd71900	0.0065642595
114	0x3d4db764	0.050223723
115	0x3d5c85d4	0.053838566
116	0xbd64d64c	-0.055868432
117	0x3d252140	0.040314913
118	0xbd3adc7c	-0.045620427
119	0x3d9933aa	0.07480557
120	0xbda07331	-0.07834471
121	0xbd7d1316	-0.06178578
122	0x3d84847a	0.064705804
123	0xbd974476	-0.07386105
124	0xbd43c440	-0.04779458
125	0xbd0df03a	-0.034652926
126	0xbe08781a	-0.13327065
127	0xbce6d838	-0.028179273
128	0x3db6f33a	0.089331105
129	0x3e00c329	0.12574448
130	0x3c92cdd0	0.017920405
131	0xbdb0e09b	-0.0863659
132	0xbd3fc38e	-0.046817355
133	0xbdc3a2ee	-0.09552561
134	0xbd3fdcda	-0.04684148
135	0x3da13e68	0.07873231
136	0xbdd5513e	-0.10415886
137	0x3e1e94af	0.15486406
138	0x3de9c632	0.11414756
139	0x3db89e60	0.09014583
140	0x3d9ef484	0.077614814
141	0xbe102372	-0.14076021
142	0xbe07ec8b	-0.13273828
143	0xbdd027dc	-0.101638526
144	0x3c0dfd30	0.008666322
145	0x3cca2948	0.024677888
146	0x3e07d8ed	0.13266344
147	0xbe0545d4	-0.13014919
148	0x3da24cc2	0.07924797
149	0xbe05c54a	-0.13063541
150	0x3ce97470	0.028497905
151	0xbc3af2c0	-0.011410415
152	0xbe109f9f	-0.1412339
153	0xbce6caa8	-0.028172806
154	0xbc02fab0	-0.007994339
155	0x3e1203b5	0.14259227
156	0x3c0dedb0	0.008662626
157	0x3e13319d	0.14374395
158	0x3e1b54db	0.15169089
159	0xbc980358	-0.018556282
160	0x3d8d3726	0.06895284
161	0xbdfb91ca	-0.122836664
162	0xbdbe2f1e	-0.09286331
163	0xbd20d374	-0.039264157
164	0x3d635910	0.05550486
165	0xbd37b8b2	-0.044853874
166	0x3d48bcb0	0.04900807
167	0x3db665d6	0.089061424
168	0xbdbf2bce	-0.09334527
169	0x3df820d6	0.12115638
170	0x3dc2dfc6	0.09515338
171	0xbdca2545	-0.0987039
172	0xbde5aade	-0.11214231
173	0xbdc2d233	-0.095127486
174	0xbdd909b9	-0.105975576
175	0x3d8856ac	0.06657156
176	0x3dec4d0e	0.115381345
177	0xbc1c9530	-0.009557053
178	0x3e145383	0.14484982
179	0xbd7714f2	-0.06032271
180	0xbd1d6270	-0.038423955
181	0xbdab27a4	-0.0835717
182	0xbda65a28	-0.08122665
183	0x3dd7d426	0.10538511
184	0xbb9b9fc0	-0.0047492683
185	0xbe0ea8c0	-0.1393156
186	0x3baee660	0.0053375214
187	0xbde232e3	-0.11044862
188	0xbd647a00	-0.05578041
189	0x3df1a146	0.117983386
190	0x3df84d4e	0.1212412
191	0x3d3d83e0	0.046268344
192	0xbe145a58	-0.14487588
193	0x3d2074b4	0.039173797
194	0x3d027240	0.03184724
195	0xbd84680a	-0.064651564
196	0x3da052c4	0.07828286
197	0xbe0e45f6	-0.13893875
198	0xbd1d885e	-0.038460128
199	0xbc2a5aa0	-0.010397583
200	0xbd6c70f0	-0.057724893
201	0xbdfc81e3	-0.123294614
202	0xbdb353fb	-0.087562524
203	0x3b50bb40	0.003184989
204	0x3d2e3394	0.042529657
205	0xbc292a70	-0.010325059
206	0xbe153fad	-0.14575072
207	0x3d618f30	0.055068195
208	0x3a5dcd00	0.00084610283
209	0xbdf0cd85	-0.1175795
210	0xbd7361be	-0.059419386
211	0xbd780f24	-0.060561314
212	0x3e038dad	0.12847014
213	0xbdc46672	-0.095898524
214	0xbdcad3dc	-0.0990369
215	0x3c97a700	0.018512249
216	0x3e14a219	0.1451496
217	0x3c484480	0.012223363
218	0x3caa4d90	0.020788938
219	0x3cd31228	0.025765494
220	0x3d9624aa	0.07331212
221	0xbe06fbec	-0.13182038
222	0xbc401b70	-0.011725292
223	0x3cf0c648	0.029391423
224	0xbe12d444	-0.14338785
225	0x3db42ff4	0.08798209
226	0xbc43c950	-0.011949852
227	0x3dd8683a	0.10566755
228	0x3cbf4b20	0.023351252
229	0x3d1d8c44	0.038463846
230	0x3d625368	0.055255324
231	0x3df21556	0.11820476
232	0xbd53b7cc	-0.051688954
233	0xbda9f8e9	-0.08299429
234	0xbe000ecf	-0.12505649
235	0xbda3d927	-0.08000403
236	0xbd79c592	-0.060979433
237	0xbe21111c	-0.15729183
238	0x3b7f4280	0.003894955
239	0x3ac9b400	0.0015388727
240	0x3dbf1086	0.093293235
241	0x3ca383c0	0.019960284
242	0xbd9c448b	-0.07630261
243	0xbdbac63b	-0.09119841
244	0x3e14419d	0.14478154
245	0xbd39e764	-0.045386687
246	0x3d85e4fa	0.065378144
247	0x3dd7df76	0.10540669
248	0x3e1dd8d1	0.1541474
249	0x3cfc7410	0.030817062
250	0x3d797f68	0.06091252
251	0x3e1e5891	0.15463473
252	0x3be0c320	0.006859198
253	0x3d8abba8	0.06774074
254	0x3e1b1039	0.15142907
255	0xbc42f9d0	-0.01190038

transformer_encoder.encoder.attention.fc_V.bias f4 [40]
0	0x3df0d696	0.11759679
1	0xbe0ce7d8	-0.13760316
2	0x3e016021	0.12634327
3	0x3c638b70	0.013888225
4	0xbd7ee4ca	-0.06222991
5	0xbe04c6ca	-0.12966457
6	0xbdb2e395	-0.08734814
7	0xbe00fa2d	-0.12595434
8	0xbddf7eaa	-0.10912831
9	0x3e1a0df7	0.1504439
10	0x3e199d9b	0.15001528
11	0xbd461be6	-0.04836645
12	0x3d9a80ae	0.07544075
13	0xbd5a118c	-0.05323939
14	0x3d38d534	0.0451252
15	0x3cb2ec80	0.021841288
16	0xbd6e7a34	-0.05822201
17	0xbb5d6b80	-0.0033785999
18	0xbe0b333e	-0.13593766
19	0x3d3e8fec	0.046523973
20	0x3dd9135a	0.10599394
21	0x3d283340	0.0410645
22	0x3e0187ed	0.12649508
23	0xbe04c6d6	-0.12966475
24	0x3e1fb011	0.15594508
25	0xbd096cda	-0.033551075
26	0xbd0dcc66	-0.034618758
27	0xbde60f12	-0.11233343
28	0x3cdaec58	0.026724026
29	0xbd2ed2ec	-0.04268162
30	0x3da2cf48	0.07949692
31	0x3b0a8440	0.0021135956
32	0x3b5602c0	0.0032655448
33	0xbd5dd476	-0.054157697
34	0x3d527830	0.05138415
35	0x3d2341c0	0.039857626
36	0x3d9a471c	0.07533094
37	0x3daa6896	0.083207294
38	0xbdd8b3f0	-0.10581195
39	0x3e0ae72b	0.13564746

transformer_encoder.encoder.attention.fc.weight f4 [40, 40]
0	0x3c176ca0	0.009242207
1	0xbdd0fffd	-0.10205076
2	0xbc54a6a0	-0.01297918
3	0x3e12b7af	0.14327882
4	0xbe12841b	-0.14308207
5	0xbe14985e	-0.14511248
6	0x3dbb498e	0.09144889
7	0xbcfb0908	-0.030643955
8	0xbddc0fc5	-0.10745195
9	0x3e1fb063	0.1559463
10	0x3e067f8f	0.13134597
11	0xbdefa4a9	-0.11701328
12	0x3dbb83de	0.09156011
13	0xbdb2f603	-0.08738329
14	0x3d65e840	0.056129694
15	0xbce64eb0	-0.028113693
16	0xbdbc52c8	-0.09195477
17	0xbe0fedd2	-0.14055565
18	0xbdfbcdc1	-0.12295104
19	0x3d86996c	0.06572232
20	0xbaf69b00	-0.0018814504
21	0xbdaeb168	-0.08529931
22	0x3dfbdb52	0.122976914
23	0x3e05ccc9	0.130664
24	0x3d86a4f2	0.065744296
25	0x3df5f142	0.12008907
26	0x3e1b242b	0.15150516
27	0xbd84c4e2	-0.06482865
28	0x3db63edc	0.08898708
29	0x3a4a4300	0.0007715672
30	0xbcd957e0	-0.02653116
31	0x3d67d81c	0.056602582
32	0xbc636c50	-0.013880804
33	0xbd605cb4	-0.05477591
34	0x3d897574	0.067118555
35	0xbe187b0e	-0.14890692
36	0x37ea2000	2.7909875e-05
37	0xbd8d8f81	-0.06912137
38	0x3e09bc59	0.13450755
39	0xbdc64f32	-0.09683074
40	0xbe183c51	-0.14866759
41	0xbdf6e35e	-0.120550856
42	0x3c1a77d0	0.00942798
43	0xbe01bf46	-0.12670621
44	0x3c360c60	0.011111349
45	0x3df6e0d2	0.120546
46	0x3de0d08a	0.10977276
47	0x3e027c47	0.1274272
48	0xbbfc9c00	-0.0077090263
49	0x3dbbf4b6	0.09177534
50	0x3d09f084	0.03367664
51	0xbd337b24	-0.043818608
52	0xbda65db4	-0.08123341
53	0xbe127dbf	-0.14305781
54	0x3e0b2051	0.13586546
55	0xbd4bd0a2	-0.049759515
56	0x3d3d1608	0.04616359
57	0xbd695a40	-0.056970835
58	0xbe0875dc	-0.1332621
59	0xbde61ed2	-0.11236347
60	0x3daa05cc	0.08301887
61	0xbd86870b	-0.06568726
62	0xbe0684fa	-0.13136664
63	0xbcf87ab0	-0.03033194
64	0x3dc1a12e	0.09454571
65	0x3c38f0c0	0.011287868
66	0x3dc1388e	0.09434615
67	0xbcc69ac0	-0.024243712
68	0x3c6294d0	0.013829425
69	0xbced9cc8	-0.029005423
70	0xbd783998	-0.0606018
71	0xbe0c1de7	-0.13683282
72	0xbd9d6f30	-0.07687223
73	0xbbcf8580	-0.006333053
74	0x3d7fd498	0.062458605
75	0x3c151850	0.009100035
76	0xbad55780	-0.0016276687
77	0xbd9a383a	-0.075302556
78	0x3d5dba54	0.054132774
79	0xbd81707b	-0.06320282
80	0x3d9f2e12	0.07772459
81	0x3d8af272	0.06784524
82	0x3ca478f8	0.020077214
83	0xbdb6eee7	-0.08932286
84	0xbda24406	-0.07923131
85	0x3c73cc10	0.014880195
86	0xbe1379e2	-0.14401963
87	0x3c588d40	0.01321727
88	0x3d287034	0.04112263
89	0xbdc792e0	-0.09744811
90	0x3d3aa9a8	0.045571953
91	0x3e179d53	0.14806108
92	0xbdce4b16	-0.10072915
93	0x3db08924	0.086199075
94	0xbda05f4a	-0.07830675
95	0x3cc25760	0.023723304
96	0x3d8cee5e	0.068814024
97	0x3df8b596	0.1214401
98	0xbdd958fa	-0.10612674
99	0xbd89d8ea	-0.06730826
100	0x3dc99ace	0.0984398
101	0xbd2cdfcc	-0.042205617
102	0xbd8dc1f4	-0.06921759
103	0x3ca69070	0.020332545
104	0x3c6b8290	0.01437439
105	0x3e0ff439	0.14058007
106	0xbd8bf1cd	-0.06833229
107	0x3dd688da	0.10475321
108	0x3e0f299b	0.13980715
109	0xbcfdd2b0	-0.030984253
110	0xbd823be5	-0.0635908
111	0x3c3fe950	0.011713341
112	0x3cbbb3b0	0.02291283
113	0x3dea133a	0.114294484
114	0xbdfcb580	-0.12339306
115	0xbd3934f0	-0.0452165
116	0x3d5bd398	0.05366859
117	0xbc8aaa78	-0.016926989
118	0xbd8dcb48	-0.069235384
119	0x3de0d8da	0.10978861
120	0x3d90205c	0.07037422
121	0xbdb841cf	-0.08996927
122	0xbd651346	-0.055926584
123	0xbd8827be	-0.06648205
124	0xbcb8b370	-0.0225465
125	0x3d8502b4	0.06494656
126	0x3d782e64	0.060591117
127	0x3b56d200	0.0032778978
128	0x3c7dbdf0	0.015487179
129	0x3c9f89b0	0.019474834
130	0xbd4bdf98	-0.049773782
131	0x3da606fc	0.08106801
132	0x3d5020c4	0.050812498
133	0xbdf9f444	-0.12204793
134	0xbd877cf8	-0.06615633
135	0xbe20dba1	-0.15708782
136	0x3e21531f	0.15754364
137	0xbd229bce	-0.03969937
138	0x3ca213d0	0.019784838
139	0xbd58ddd0	-0.052945912
140	0x3dd1d20e	0.10245143
141	0xbdc59863	-0.09648206
142	0x3d1a7644	0.037710443
143	0xbe1da201	-0.15393831
144	0xbd942444	-0.072334796
145	0xbc7b8d40	-0.015353501
146	0x3d0273c8	0.0318487
147	0xbe1feb12	-0.15617016
148	0x3d9770b2	0.07394542
149	0x3e0800b3	0.13281517
150	0x3d5d4230	0.0540182
151	0x3ca39ad0	0.019971281
152	0xbe14c214	-0.1452716
153	0x3dd99ec6	0.10625987
154	0x3dfd354e	0.12363683
155	0xbe105544	-0.14095026
156	0xbda9f9eb	-0.08299621
157	0x3c864cb8	0.016394004
158	0x3dcf44aa	0.101205185
159	0x3dcc3422	0.09970881
160	0xbd8788f2	-0.06617917
161	0xbdcee468	-0.10102159
162	0xbc068b50	-0.008211926
163	0xbdbb86a8	-0.09156543
164	0x3d3119a4	0.043237343
165	0xbdb98f36	-0.090605184
166	0x3e1bbc5d	0.15208574
167	0xbd16cf48	-0.036818773
168	0xbc1cfaf0	-0.009581313
169	0xbd028730	-0.031867206
170	0x3c9b1f68	0.018935874
171	0xbe12c85e	-0.14334247
172	0xbd947036	-0.07247965
173	0xbe04b96f	-0.12961362
174	0x3da82124	0.08209446
175	0x3d8a4dee	0.06753145
176	0xbdc879f2	-0.09788884
177	0xbb4a3080	-0.0030851662
178	0x3d5e7a80	0.054316044
179	0x3dbb7fbc	0.09155223
180	0xbd6db026	-0.058029316
181	0x3d9235d6	0.07139175
182	0xbd850a8a	-0.06496151
183	0xbdd27ae6	-0.10277347
184	0xbd8ad187	-0.067782454
185	0xbcf71268	-0.030160144
186	0x3d447f94	0.04797323
187	0xbd0d960c	-0.034566924
188	0x3d290a68	0.04126969
189	0x3c995870	0.018718928
190	0xbd77445c	-0.060367927
191	0xbe0645b1	-0.13112523
192	0xbe03e02c	-0.12878484
193	0x3dbdc11e	0.0926535
194	0xbdedaa08	-0.116046965
195	0xbe068497	-0.13136517
196	0x3c5de620	0.013543636
197	0x3d4e3d48	0.05035141
198	0xbd0dc4e4	-0.034611598
199	0xbd1a15a8	-0.03761831
200	0x3d706bc8	0.05869654
201	0xbe20d6d7	-0.15706955
202	0xbc9e22b8	-0.019303665
203	0x3c465360	0.012104839
204	0x3e000199	0.1250061
205	0x3df162ba	0.11786409
206	0x3e043987	0.1291257
207	0xbd6a390e	-0.057183318
208	0xbd191982	-0.03737784
209	0xbd85510d	-0.065096
210	0xbdc06fb8	-0.09396309
211	0x3dafffd0	0.08593714
212	0xbdd2fba7	-0.10301905
213	0xbc152780	-0.009103656
214	0xbcb83c88	-0.022489801
215	0xbe17c440	-0.14820957
216	0x3e0eb2fd	0.13935466
217	0xbe1181ed	-0.14209719
218	0x3b0f9d00	0.0021913648
219	0x3d58607c	0.05282639
220	0x3df15f2e	0.11785732
221	0xbe1a2ce9	-0.15056194
222	0x3dacee32	0.0844387
223	0x3df1bf6e	0.118040904
224	0xbdebcab1	-0.1151327
225	0xbdc86062	-0.097840086
226	0x3c0bd720	0.0085351765
227	0xbe1b5b79	-0.15171613
228	0xbda7d38e	-0.08194648
229	0x3deffdda	0.1171834
230	0xbe17874f	-0.1479771
231	0x3d8884f0	0.06665981
232	0xbdf59df0	-0.11993015
233	0x3dd2878e	0.10279761
234	0x3e083893	0.13302831
235	0x3d715630	0.058920085
236	0xbd90ee43	-0.07076695
237	0xbd9b931e	-0.0759642
238	0xbe0ea793	-0.13931112
239	0x3dba1176	0.09085362
240	0xbdf97eea	-0.1218241
241	0xbd98fb42	-0.074697986
242	0xbe1f4bcc	-0.15556258
243	0xbc11e6f0	-0.008905157
244	0xbdb6523b	-0.08902403
245	0x3e1e7343	0.15473656
246	0x3e11a759	0.14223994
247	0xbe0b1bec	-0.1358487
248	0x3db83af6	0.08995621
249	0xbb213680	-0.0024599135
250	0xbd115eac	-0.035490677
251	0x3db1a5a4	0.086741716
252	0xbb93a800	-0.004506111
253	0x3caefc70	0.021360606
254	0xbd70b984	-0.05877067
255	0x398ed800	0.00027245283

transformer_encoder.encoder.attention.fc.bias f4 [40]
0	0x3dae3080	0.085053444
1	0xbd23e66c	-0.04001467
2	0x3e1b4723	0.15163855
3	0x3dacae9c	0.084317416
4	0x3e1bdab9	0.15220155
5	0xbc7d66e0	-0.015466422
6	0xbcb81f00	-0.02247572
7	0xbc682bc0	-0.014170587
8	0xbd23bd50	-0.039975464
9	0xbdf9ba32	-0.12193717
10	0x3dc5e00a	0.09661873
11	0x3e04b4d1	0.12959601
12	0xbe06c3ec	-0.13160676
13	0x3db7ce70	0.08974922
14	0x3cd8e8b8	0.026478156
15	0x3da2e45c	0.07953712
16	0xbd0b3638	-0.033987254
17	0x3c369a00	0.011145115
18	0xbc330c80	-0.010928273
19	0x3d3a5b58	0.04549727
20	0x3d60bb04	0.054865852
21	0xbd43361c	-0.047659025
22	0x3cf611c8	0.030037776
23	0x3d8d551e	0.069010004
24	0x3c0725f0	0.008248791
25	0x3dec0f8a	0.11526401
26	0xbe12300c	-0.14276141
27	0x3e0232cf	0.12714694
28	0xbd92d72c	-0.07169947
29	0xbdc33088	-0.09530741
30	0xbd9342e0	-0.0719049
31	0x3dbb99ba	0.091601804
32	0xbd559e92	-0.052153178
33	0x3c6de370	0.014519557
34	0x3df8cdda	0.12148638
35	0x3d5dd5ac	0.05415885
36	0x3d94c7cc	0.07264671
37	0x3dd94eca	0.10610731
38	0x3e0f078d	0.13967724
39	0x3d680490	0.056644976

transformer_encoder.encoder.attention.layer_norm.weight f4 [40]
0	0x3f800000	1.0
1	0x3f800000	1.0
2	0x3f800000	1.0
3	0x3f800000	1.0
4	0x3f800000	1.0
5	0x3f800000	1.0
6	0x3f800000	1.0
7	0x3f800000	1.0
8	0x3f800000	1.0
9	0x3f800000	1.0
10	0x3f800000	1.0
11	0x3f800000	1.0
12	0x3f800000	1.0
13	0x3f800000	1.0
14	0x3f800000	1.0
15	0x3f800000	1.0
16	0x3f800000	1.0
17	0x3f800000	1.0
18	0x3f800000	1.0
19	0x3f800000	1.0
20	0x3f800000	1.0
21	0x3f800000	1.0
22	0x3f800000	1.0
23	0x3f800000	1.0
24	0x3f800000	1.0
25	0x3f800000	1.0
26	0x3f800000	1.0
27	0x3f800000	1.0
28	0x3f800000	1.0
29	0x3f800000	1.0
30	0x3f800000	1.0
31	0x3f800000	1.0
32	0x3f800000	1.0
33	0x3f800000	1.0
34	0x3f800000	1.0
35	0x3f800000	1.0
36	0x3f800000	1.0
37	0x3f800000	1.0
38	0x3f800000	1.0
39	0x3f800000	1.0

transformer_encoder.encoder.attention.layer_norm.bias f4 [40]
0	0x00000000	0.0
1	0x00000000	0.0
2	0x00000000	0.0
3	0x00000000	0.0
4	0x00000000	0.0
5	0x00000000	0.0
6	0x00000000	0.0
7	0x00000000	0.0
8	0x00000000	0.0
9	0x00000000	0.0
10	0x00000000	0.0
11	0x00000000	0.0
12	0x00000000	0.0
13	0x00000000	0.0
14	0x00000000	0.0
15	0x00000000	0.0
16	0x00000000	0.0
17	0x00000000	0.0
18	0x00000000	0.0
19	0x00000000	0.0
20	0x00000000	0.0
21	0x00000000	0.0
22	0x00000000	0.0
23	0x00000000	0.0
24	0x00000000	0.0
25	0x00000000	0.0
26	0x00000000	0.0
27	0x00000000	0.0
28	0x00000000	0.0
29	0x00000000	0.0
30	0x00000000	0.0
31	0x00000000	0.0
32	0x00000000	0.0
33	0x00000000	0.0
34	0x00000000	0.0
35	0x00000000	0.0
36	0x00000000	0.0
37	0x00000000	0.0
38	0x00000000	0.0
39	0x00000000	0.0

transformer_encoder.encoder.feed_forward.fc1.weight f4 [256, 40]
0	0xbe1960d7	-0.14978348
1	0x3da85b08	0.08220488
2	0x3bf78840	0.007554084
3	0xbe0aa824	-0.13540703
4	0xbd92c937	-0.07167285
5	0xbd8213cb	-0.063514315
6	0xbe070c8b	-0.13188379
7	0xbdea5270	-0.11441505
8	0xbdf61ff2	-0.12017812
9	0x3c975a90	0.0184758
10	0x3c9f0968	0.019413665
11	0xbe195060	-0.14972067
12	0x3e1ffb47	0.15623198
13	0xbdcd80ed	-0.10034356
14	0x3e090da5	0.13384111
15	0xbe073bd8	-0.13206422
16	0x3d5f0ccc	0.054455563
17	0xbd8a16ed	-0.06742654
18	0x3d670148	0.056397706
19	0x3e01263d	0.12612243
20	0x3e07fba5	0.13279589
21	0x3bcb7580	0.0062090755
22	0xbc1462a0	-0.009056717
23	0x3da03180	0.078219414
24	0xbde025be	-0.10944699
25	0xbe205362	-0.15656808
26	0xbe0b8ada	-0.13627186
27	0x3d5cbe4c	0.05389242
28	0x3df4f942	0.11961605
29	0x3ca18370	0.019715995
30	0xb918a400	-0.00014556944
31	0x3d826f70	0.06368911
32	0x3e127bd7	0.14305054
33	0xbd9863bc	-0.07440898
34	0xbd83a879	-0.06428618
35	0x3d5c6f74	0.053817227
36	0x3d941eba	0.07232423
37	0xbc99d9b0	-0.01878056
38	0x3df3e7ee	0.119094715
39	0xbd34fd84	-0.044187084
40	0x3d7c1c8c	0.061550662
41	0x3d33032c	0.043704197
42	0x3df9569e	0.12174724
43	0x3dc81a32	0.09770621
44	0xbdc2f154	-0.09518686
45	0x3d5dc240	0.05414033
46	0x3da8e060	0.08245921
47	0x3d921f48	0.07134873
48	0x3df9860e	0.12183772
49	0xbd196164	-0.037446395
50	0x3db28060	0.08715892
51	0x3e0e7207	0.13910685
52	0x3c141f90	0.009040728
53	0x3d989bd6	0.07451598
54	0x3d0c8470	0.03430599
55	0xbc518b30	-0.012789533
56	0xbc7a5530	-0.015279099
57	0x3e062639	0.13100518
58	0xbe1b9830	-0.15194774
59	0x3df101e6	0.1176794
60	0x3d3d06dc	0.04614912
61	0x3e142d13	0.1447032
62	0xbd00984c	-0.03139524
63	0x3cfb38f0	0.030666798
64	0x3da58430	0.080818534
65	0xbe08b75e	-0.13351199
66	0x3e10fd33	0.14159088
67	0xbe16656a	-0.14687124
68	0x3e196add	0.14982171
69	0x3cf2e5b8	0.029650554
70	0x3b461dc0	0.0030230135
71	0xbd678762	-0.056525595
72	0x3dd96ec6	0.106168315
73	0xbde83cbf	-0.113397114
74	0xbdb680a8	-0.08911258
75	0x3d3d04ac	0.046147034
76	0xbe1bfdc4	-0.15233523
77	0x3d9a6010	0.07537854
78	0x3d978074	0.07397547
79	0xbdca6296	-0.09882085
80	0x3d00f1f4	0.031480744
81	0xbd840581	-0.06446362
82	0xbddf3c7c	-0.10900208
83	0x3e0d68d7	0.13809524
84	0xbdcd7a02	-0.10033037
85	0xbc5ae4e0	-0.013360232
86	0xbe142841	-0.1446848
87	0xbdf78c5e	-0.1208732
88	0xbc961de8	-0.018324807
89	0x3b479d80	0.0030458868
90	0x3deafeaa	0.114743546
91	0x3e04ad2d	0.12956686
92	0x3d9f2e14	0.077724606
93	0x3db40d30	0.08791578
94	0x3a114f00	0.0005543083
95	0x3baff360	0.0053695887
96	0xbcf65d48	-0.030073777
97	0xbdfac1a7	-0.122439675
98	0xbd5221be	-0.05130171
99	0x3dccff26	0.10009603
100	0x3d3af998	0.045648187
101	0x3e135a95	0.14390023
102	0x3b92fe80	0.004485905
103	0xbd5b5d5e	-0.05355584
104	0xbd7eba88	-0.06218961
105	0x3def602e	0.11688267
106	0x3e1866ad	0.14882918
107	0xbd8ed3ba	-0.069739774
108	0xbcf2fab8	-0.029660568
109	0x3d9a3e94	0.07531467
110	0x3d4e1ca4	0.050320283
111	0x3d75d670	0.060018957
112	0xbdcd76ba	-0.10032411
113	0x3e09084f	0.13382076
114	0xbdb19f54	-0.086729676
115	0xbd80c9e6	-0.06288509
116	0xbd0f98b0	-0.035057724
117	0xbcc2edc8	-0.023795024
118	0x3dff9daa	0.12481244
119	0x3d2106b4	0.039313033
120	0x3dd7d526	0.10538702
121	0xbd8405fd	-0.06446455
122	0xbdf7e436	-0.12104075
123	0x3d445a34	0.047937587
124	0x3dea4b8a	0.11440189
125	0x3d3383a8	0.04382673
126	0x3c1f02a0	0.009705216
127	0x3d4e192c	0.050316975
128	0x3e097cb1	0.13426472
129	0x3d3e3b88	0.046443492
130	0x3e0f25f9	0.13979329
131	0xbde8bbb1	-0.11363924
132	0x3d408f38	0.047011584
133	0x3dc95612	0.0983087
134	0x3c791620	0.015203029
135	0x3e16324d	0.14667626
136	0xbdc737de	-0.09727453
137	0x3cda4e60	0.0266487
138	0xbb328ec0	-0.002724573
139	0x3d515f40	0.051116228
140	0x3e04a9df	0.12955426
141	0xbe00f830	-0.12594676
142	0xbb2fc680	-0.0026821196
143	0x3d6ca704	0.057776466
144	0x3d8ee2dc	0.06976864
145	0x3d506bd4	0.050884083
146	0xbe21d87e	-0.15805241
147	0x3d7633b8	0.060107917
148	0xbdc2523c	-0.09488341
149	0x3d55a4a0	0.05215895
150	0xbdfbf37e	-0.12302302
151	0xbd4a6dde	-0.049421184
152	0x3cbfe348	0.023423806
153	0xbd8a455c	-0.067515105
154	0x3cead668	0.02866669
155	0x3e02ca7d	0.12772556
156	0xbd92c1d1	-0.07165874
157	0xbdbb96a3	-0.09159591
158	0x3e05083b	0.12991421
159	0x3de2c6b6	0.11073057
160	0xbd7e91cc	-0.06215076
161	0x3d8b035a	0.06787749
162	0xbe04efba	-0.12982073
163	0x3d8cf812	0.06883253
164	0x3df3604e	0.11883603
165	0x3de65442	0.1124654
166	0xbb48d500	-0.0030644536
167	0xbd36b02c	-0.044601604
168	0xbde5eb60	-0.11226535
169	0xbd60a6c8	-0.054846555
170	0x3d7f6404	0.06235124
171	0xbe03cae7	-0.1287037
172	0xbc5a76e0	-0.013334006
173	0xbd32fe2c	-0.04369943
174	0x3e132d0f	0.14372657
175	0xbdf3ff8d	-0.11913977
176	0xbe1785dc	-0.14797157
177	0xbdf4aef8	-0.11947435
178	0xbbbe1f60	-0.00580208
179	0xbd81c702	-0.06336786
180	0x3e0e16a5	0.13875826
181	0xbdd9c060	-0.10632396
182	0xbe18bc47	-0.14915572
183	0xbe0c0a24	-0.13675743
184	0xbc13e290	-0.009026185
185	0x3db905a2	0.090342775
186	0x3d12d724	0.035849705
187	0xbc5ad0b0	-0.013355419
188	0xbd0fc7fc	-0.03510283
189	0x3d03b7dc	0.032157764
190	0x3d72406c	0.05914347
191	0xbd88b678	-0.06675428
192	0x3e1cca7b	0.15311615
193	0x3dd30546	0.1030374
194	0xbe099c5c	-0.13438553
195	0xbd989453	-0.074501656
196	0xbe04b036	-0.12957844
197	0x3d85536c	0.06510052
198	0xbd0c201c	-0.03421031
199	0x3e1169a3	0.14200453
200	0xbdb40e89	-0.08791835
201	0xbd370a18	-0.04468736
202	0x3e1896af	0.14901231
203	0x3d8f41ee	0.06994997
204	0xb831a000	-4.23491e-05
205	0x3ce3f6a8	0.027827576
206	0x3dbe2df6	0.0928611
207	0x3e16e7b5	0.14736827
208	0xbd6c6556	-0.05771383
209	0xbdf27d29	-0.11840279
210	0x3d4bff4c	0.049804017
211	0x3dd68ac2	0.10475685
212	0x3d505f74	0.05087228
213	0x3cc9acd8	0.024618551
214	0x3dca5312	0.09879126
215	0xbcbc7488	-0.023004785
216	0xbd3a8ad2	-0.045542546
217	0x3d8d0168	0.06885034
218	0xbdddf2b5	-0.10837308
219	0x3c7512a0	0.014958054
220	0xbdd32956	-0.103106186
221	0x3dc571ea	0.09640868
222	0xbda5eaf4	-0.081014544
223	0x3d171ec0	0.03689456
224	0x3ce91780	0.028453588
225	0xbe1fce69	-0.15606083
226	0x3cb02640	0.021502614
227	0xbd562ca8	-0.05228868
228	0x3e1579cd	0.14597245
229	0x3e074b7d	0.1321239
230	0xbdf850f0	-0.121248126
231	0xbe0dc0c8	-0.13843071
232	0xbdf97af0	-0.121816516
233	0x3d348cf8	0.04407975
234	0x3d871912	0.06596579
235	0x3e08a26f	0.13343213
236	0xbdda1a4d	-0.10649548
237	0xbc4d8100	-0.012542963
238	0xbe11d492	-0.14241245
239	0xbd333dc6	-0.043760084
240	0x3d471140	0.048600435
241	0x3d866a50	0.06563246
242	0x3e1107bf	0.14163111
243	0x3df5edaa	0.120082214
244	0x3d9e663c	0.077343434
245	0xbdd59d2e	-0.1043037
246	0x3cced6b8	0.02524887
247	0xbe0543af	-0.130141
248	0x3d8739e8	0.066028416
249	0xbe021eea	-0.12707105
250	0x3d0a65b8	0.033788413
251	0xbdb6abbe	-0.08919476
252	0xbd59f232	-0.05320949
253	0x3e1fe837	0.15615927
254	0x3c744910	0.014909998
255	0xbd88f5e2	-0.066875234

transformer_encoder.encoder.feed_forward.fc1.bias f4 [256]
0	0x3db7a48c	0.08966932
1	0x3e10e47b	0.14149658
2	0xbd958d3e	-0.073023304
3	0xbb50d140	-0.0031863004
4	0xbdb1d887	-0.086838774
5	0xbddc6a9b	-0.10762521
6	0xbd2982d4	-0.041384533
7	0x3bc2db60	0.0059465617
8	0xbddf78c2	-0.109117046
9	0xbd89b040	-0.0672307
10	0xb984de00	-0.00025342405
11	0x3dbce1ee	0.0922278
12	0x3e1f5433	0.15559463
13	0x3da30268	0.07959443
14	0xbe0f67da	-0.1400446
15	0x3cb35a20	0.02189356
16	0x3e03a475	0.12855704
17	0xbdfcea0e	-0.1234933
18	0x3cb249d0	0.021763712
19	0xbd826068	-0.06366044
20	0x3d790418	0.06079492
21	0x3e0fca4d	0.14042015
22	0xbd59e17a	-0.053193547
23	0x3cc70690	0.024295121
24	0xbe0a5181	-0.13507654
25	0xbd274d6a	-0.040845312
26	0xbd806e7a	-0.06271072
27	0xbd28831e	-0.041140668
28	0xbcd92008	-0.026504532
29	0x3e0bf093	0.1366599
30	0x3e1e636b	0.15467612
31	0x3d735cb4	0.05941458
32	0x3dd7ebc2	0.10543014
33	0x3c2f0db0	0.010684416
34	0x3e1a2e9f	0.15056847
35	0x3dc09782	0.09403898
36	0x39035000	0.00012522936
37	0x3dd8480a	0.10560615
38	0x3e018667	0.12648927
39	0xbe1126ec	-0.14175004
40	0xbd7760b8	-0.060394973
41	0xbde33432	-0.1109394
42	0x3cfb9628	0.030711249
43	0x3dba9c88	0.09111887
44	0x3e19f44f	0.15034603
45	0x3d839446	0.06424765
46	0x3db9fafc	0.090810746
47	0xbdf827de	-0.12116979
48	0xbcfaa8c8	-0.03059806
49	0x3d8869b2	0.06660785
50	0xbdd29cd8	-0.10283822
51	0x3d997354	0.074927
52	0xbd0a563a	-0.03377364
53	0x3c6a28a0	0.014291912
54	0xbd9ac9e6	-0.0755804
55	0xbde0f834	-0.10984841
56	0x3dd96a12	0.106159344
57	0xbd896c9e	-0.0671017
58	0xbdfdcadf	-0.1239221
59	0xbcf56a80	-0.02995801
60	0xbd92e4ed	-0.071725704
61	0xbe18dcb7	-0.14927946
62	0xbceaaf70	-0.028648108
63	0xbccd65f8	-0.025073037
64	0x3c24a2f0	0.010048613
65	0xbe201121	-0.15631534
66	0xbc7f9a30	-0.015600726
67	0x3ccc0460	0.02490443
68	0x3dbeb47a	0.09311767
69	0x3d0bb2c0	0.034106016
70	0xbe014bf3	-0.12626629
71	0xbdd9cade	-0.10634397
72	0xbd3669f8	-0.044534653
73	0xbd3d840a	-0.0462685
74	0x3d8a2052	0.06744446
75	0x3d6c4ad0	0.057688534
76	0x3da1279a	0.078688815
77	0xbde8cabc	-0.113667935
78	0x3d841288	0.06448847
79	0xbd8f5e8d	-0.07000456
80	0xbd2dc9c0	-0.042428732
81	0x3d985306	0.074377105
82	0x3da392aa	0.07986958
83	0x3da3b358	0.079931915
84	0xbd9663be	-0.07343243
85	0x3e1012ab	0.14069621
86	0x3d5ca7e4	0.05387105
87	0x3c808260	0.015687168
88	0xbdc1bf1f	-0.094602816
89	0xbd415f2a	-0.047209896
90	0xbd5391c0	-0.05165267
91	0x3db30c54	0.08742586
92	0x3da55146	0.08072142
93	0xbdb8cd7e	-0.090235695
94	0xbd031840	-0.03200555
95	0xbdec0912	-0.115251675
96	0xbd9c798f	-0.07640373
97	0xbd88a52a	-0.066721275
98	0xbdf8b158	-0.12143201
99	0xbdc5fe66	-0.09667663
100	0xbdfa3d2f	-0.12218701
101	0xbbc3fac0	-0.0059808195
102	0xbcb8e630	-0.0225707
103	0xbd8bc8d6	-0.06825416
104	0xbd7c8cf2	-0.061657853
105	0x3ddc8862	0.107682005
106	0x3e16497f	0.14676474
107	0x3d30c974	0.04316087
108	0x3b7bf000	0.0038442612
109	0x3dff128a	0.12454708
110	0x3d953c40	0.072868824
111	0xbdbee1a4	-0.09320381
112	0xbd7192ca	-0.05897788
113	0x3d32c290	0.04364258
114	0xbcc76d78	-0.024344191
115	0x3d415b18	0.047206014
116	0xbd274af2	-0.040842958
117	0xbcf6a760	-0.030109107
118	0xba924600	-0.0011159778
119	0xbd66bad8	-0.05633053
120	0xbd5d9078	-0.054092854
121	0xbdd24d16	-0.10268609
122	0xbd225f96	-0.03964194
123	0x3db3442e	0.087532386
124	0x3d25d378	0.040484875
125	0x3d00896c	0.031381056
126	0xbd3dd44e	-0.046345048
127	0xbdbb2d9c	-0.09139559
128	0x3ce32f18	0.027732417
129	0xbdcf969e	-0.1013615
130	0xbddbff12	-0.1074201
131	0xbda59300	-0.08084679
132	0x3c996c30	0.018728346
133	0x3e0a7a73	0.13523273
134	0x3d5f73b8	0.054553717
135	0xbe0e727c	-0.1391086
136	0xbde11b5a	-0.10991545
137	0x3b438240	0.0029832274
138	0x3e11f145	0.14252193
139	0x3e0f27af	0.13979982
140	0xbdf12cf8	-0.11776155
141	0xbd967402	-0.073463455
142	0xbd54aca8	-0.05192247
143	0x3deca91a	0.11555691
144	0xbd2c7e16	-0.042112432
145	0xbd709166	-0.058732413
146	0xbe019144	-0.1265307
147	0xbd53283c	-0.051552042
148	0x3dfa9332	0.122351065
149	0x3dcdeb52	0.100546494
150	0x3d776a04	0.06040384
151	0x3ceabcb8	0.028654441
152	0xbdee9f75	-0.11651508
153	0xbcbae888	-0.022815958
154	0x3d57ecf8	0.052716225
155	0x3e0617af	0.13094972
156	0xbdb82ed3	-0.08993306
157	0xbd8fc556	-0.07020061
158	0xbdd0ead2	-0.102010384
159	0x3e0ea8a3	0.13931517
160	0x3a997280	0.0011707097
161	0x3e02f3b5	0.1278828
162	0x3cf74890	0.030185968
163	0xbe064b7e	-0.13114735
164	0x3d772cfc	0.060345635
165	0x3ddba51e	0.10724853
166	0xbe106716	-0.14101824
167	0x3e0547c3	0.13015656
168	0xbd96952f	-0.07352673
169	0xbddeafcb	-0.108733736
170	0xbdad40a0	-0.08459592
171	0xbca78798	-0.020450398
172	0xbd19577c	-0.037436947
173	0x3e1154e1	0.14192535
174	0x3e1415e9	0.14461483
175	0xbddedca8	-0.108819306
176	0x3d82415c	0.063601226
177	0xbd499466	-0.04921379
178	0xbc3f6570	-0.011681899
179	0xbdcd27e8	-0.10017377
180	0x3cea0520	0.028566897
181	0xbd97c4d7	-0.07410591
182	0x3e045f6f	0.1292703
183	0x3e1d345d	0.15352006
184	0xbc506090	-0.012718335
185	0x3d87c588	0.06629473
186	0xbd354aca	-0.044260778
187	0x3e19af25	0.15008219
188	0xbdc1f323	-0.09470203
189	0x3df38dee	0.11892305
190	0xbe1f2cec	-0.1554448
191	0xbb855e60	-0.0040700883
192	0x3dc5cbde	0.09658025
193	0x3e1782a1	0.14795925
194	0x3dd51aae	0.10405479
195	0xbd278a62	-0.040903457
196	0xbcab19f8	-0.020886406
197	0x3dfed752	0.12443413
198	0xbded2aec	-0.11580452
199	0xbcefcb30	-0.029271692
200	0xbc4f5720	-0.01265505
201	0xbdf69948	-0.12040955
202	0xbdbf2c5c	-0.09334633
203	0xbd54bbfa	-0.05193708
204	0x3e0c560d	0.13704701
205	0x3d7620cc	0.06008987
206	0x3e1be8c7	0.15225516
207	0x3db2f716	0.08738534
208	0xbd6ba95c	-0.05753456
209	0xbe168cb0	-0.14702106
210	0xbdcf52d6	-0.101232216
211	0xbd5d1d72	-0.05398316
212	0xbcbde900	-0.023182392
213	0x3c146e80	0.009059548
214	0xbd930c6a	-0.07180102
215	0xbdc9877c	-0.09840295
216	0xbe064872	-0.13113573
217	0xbd9a0c0e	-0.075218305
218	0x3e182a73	0.14859943
219	0x3dd617c2	0.1045375
220	0xbe13ebea	-0.14445463
221	0x3dc7dda6	0.09759073
222	0xbdaa7514	-0.08323112
223	0xbcb1b4d8	-0.021692678
224	0xbe0ac00e	-0.13549826
225	0x3d1f8df4	0.038953736
226	0xbcfc0cf8	-0.030767903
227	0xbe1b1f0f	-0.15148567
228	0xbd5fc740	-0.05463338
229	0x3cbf7418	0.023370788
230	0x3de5b2aa	0.11215718
231	0x3de907d2	0.11378445
232	0x3d8917e2	0.066940084
233	0x3da6e952	0.08149971
234	0x3cccbd48	0.0249926
235	0x3dcc20ae	0.09967171
236	0xbdbe06a2	-0.09278609
237	0xbd899b77	-0.06719106
238	0xbdc6705e	-0.09689401
239	0xbe092196	-0.13391718
240	0x3c8c07e8	0.017093614
241	0xbc109fa0	-0.00882712
242	0x3dfe045e	0.12403177
243	0x3e194bd5	0.14970334
244	0x3d4f9b64	0.0506853
245	0x3a850100	0.0010147393
246	0xbdf6b43a	-0.12046094
247	0x3d06c440	0.032902002
248	0xbd8f0581	-0.06983472
249	0x3db1a0c8	0.08673245
250	0xbdcd75c5	-0.100322284
251	0xbd2a4a26	-0.04157462
252	0x3bd05680	0.006357968
253	0x3cdb9d70	0.02680847
254	0xbdcabace	-0.098989114
255	0xbddf7f8e	-0.10913001
